TABULAR/Figure2Reproduce/lightning_logs/version_63/checkpoints/epoch=12-step=325.ckpt (torch, 997804 bytes, 22 tensors)

lays.0.weight f4 [256, 62]
-0.09132965 0.08534033 -0.46933478 0.23079927 0.18764102 -0.5859633 -0.21705624 -0.009571305
-0.012331934 -0.03372945 -0.29582018 0.19234717 -0.57940996 -0.2707199 -0.22675735 -0.006166277
0.3382961 -0.006416525 0.2511432 -0.019279763 0.009972366 -0.026183058 0.10296363 0.27063033
-0.28478208 -0.120288 0.70029116 0.015573583 -0.15805125 -0.22372413 0.4141073 0.36074588
-0.3538945 -0.27605408 -0.18684027 -0.27877924 -0.04553403 0.22684878 0.15985195 -0.20923397
-0.23503283 -0.14491598 0.15736936 -0.09210951 -0.18751064 -0.12483183 -0.09921869 0.48066267
-0.08487009 -0.010172379 0.3446592 0.07805645 0.49227378 -0.19933122 0.024505721 -0.24913846
-0.42166403 -0.010548237 -0.045659583 -0.007468258 0.25161287 -0.428742 -0.14012516 -0.066966176
0.0104679335 -0.058594182 -0.065161504 -0.03157882 0.016981618 0.040661696 -0.19461875 -0.020249302
0.054881666 0.028248256 0.11150732 0.19183283 -0.06661714 -0.13180114 -0.058966234 -0.1478099
-0.1645079 0.03695826 0.030339653 -0.16761273 -0.024925087 -0.07317087 -0.07605905 -0.13053979
0.06450029 -0.12156823 -0.01862741 -0.03685007 0.007636455 -0.014968163 -0.20666914 -0.13928957
0.030050283 -0.027499221 -0.16670282 -0.15511265 0.049052823 0.049823686 -0.14812131 -0.099114284
-0.18985799 0.027691102 -0.17846388 -0.12607934 -0.00699766 0.0791043 -0.016459571 0.07535903
-0.14690365 0.04916767 0.06956909 -0.11141246 -0.08389462 -0.090076916 0.01852946 -0.037490837
-0.025949929 0.06107417 -0.13926005 0.0067028105 -0.18923832 0.121159025 -0.19166774 -0.11759812
-0.20875514 -0.35465536 -0.2220647 0.23387809 -0.18116863 -0.012914591 0.14396787 0.00949087
-0.052158415 0.07435878 -0.1879557 0.3941758 0.15912253 0.11245784 -0.1917952 -0.19710419
-0.03713999 -0.14943367 0.020749012 -0.007963175 0.02443107 -0.15661862 0.2774578 -0.27650872
0.041651923 -0.11647023 0.28779352 -0.006089108 0.054190956 -0.2636425 0.003675607 -0.21705271
-0.057554122 -0.15771721 0.018947482 -0.01449964 -0.22858727 -0.14596331 0.079918526 0.31150472
-0.27801457 0.16661783 0.36508384 -0.24178898 -0.08715353 -0.0058820457 -0.11293639 0.061925407
0.019628527 -0.19332147 0.07094487 -0.05610304 0.116423205 0.02439367 -0.0014673683 -0.05499164
0.020908264 0.024193658 -0.097733736 -0.11986545 -0.116779044 0.09214387 0.0037171715 0.03799167
-0.17737122 -0.07495649 -0.1647218 -0.17264482 -0.043917973 0.090494245 -0.07988563 -0.12086266
-0.070649795 0.14781995 -0.07504879 -0.14903484 -0.074597366 0.06802351 -0.07787348 0.18731096
-0.08951887 0.0072554783 -0.050819468 -0.08718298 0.10820468 -0.03518903 -0.045698132 -0.03616473
-0.047788024 -0.12635097 0.050468482 -0.095515296 -0.11114519 0.1418431 0.006093509 -0.050973836
-0.17587209 0.06813275 -0.0968681 -0.14479886 -0.031482168 0.032323748 0.007310624 0.12862681
-0.065389425 0.004609427 0.051836595 -0.08029125 0.09849453 -0.08441741 -0.030436642 -0.011757167
0.05302886 0.022853823 0.13020158 -0.06607029 0.014932653 -0.1586895 0.07079625 -0.15764427
-0.051307004 -0.07930037 -0.123418026 -0.015804764 0.063004375 -0.100953504 -0.14656039 -0.110953584
00000000: 0a0b bbbd e9c6 ae3d a64c f0be a556 6c3e
00000010: f824 403e b101 16bf fe43 5ebe f6d0 1cbc
00000020: e10b 4abc e427 0abd be75 97be a8f6 443e
00000030: 3654 14bf cc9b 8abe 1433 68be 7b0e cabb
00000040: 2535 ad3e b741 d2bb d795 803e 98f0 9dbc
00000050: 2263 233c da7d d6bc 98de d23d 0f90 8a3e
00000060: f5ce 91be 8e59 f6bd 4846 333f 5728 7f3c
00000070: 30d8 21be f017 65be df05 d43e afb3 b83e
00000080: a931 b5be f656 8dbe 0e53 3fbe 27bc 8ebe
00000090: e481 3abd 0c4b 683e 3bb0 233e 6e41 56be
000000a0: 72ac 70be db64 14be 6f25 213e e9a3 bcbd
000000b0: ca02 40be d5a7 ffbd 2b33 cbbd 6b19 f63e
000000c0: 5fd0 adbd 0daa 26bc 2c77 b03e 0fdc 9f3d
000000d0: 4f0b fc3e 7c1d 4cbe 39c0 c83c 271e 7fbe
000000e0: 59e4 d7be 83d2 2cbc 8b05 3bbd 4ab8 f4bb
000000f0: 67d3 803e 1284 dbbe f87c 0fbe 9025 89bd
00000100: b281 2b3c 7400 70bd 6573 85bd cb58 01bd
00000110: 091d 8b3c e18c 263d 234a 47be dde1 a5bc
00000120: 99cb 603d e368 e73c f35d e43d d36f 443e
00000130: 916e 88bd e1f6 06be 9486 71bd 7a5b 17be
00000140: c274 28be 8b61 173d dd8a f83c aca2 2bbe
00000150: b22f ccbc 9cda 95bd d9c4 9bbd 39ac 05be
00000160: ba18 843d c4f8 f8bd 8398 98bc 19f0 16bd
00000170: 3a3b fa3b 073d 75bc 13a1 53be eda1 0ebe
00000180: 032c f63c 0c46 e1bc 25b4 2abe dad5 1ebe
00000190: 9deb 483d ec13 4c3d 1dad 17be 6efc cabd
000001a0: 226a 42be 73d8 e23c 3cbf 36be f11a 01be
000001b0: a04c e5bb 6f01 a23d 39d6 86bc d655 9a3d
000001c0: e96d 16be 0a64 493d 3d7a 8e3d 372c e4bd
000001d0: f1d0 abbd 3f7a b8bd 18cb 973c fe8f 19bd
000001e0: f294 d4bc e928 7a3d 309a 0ebe 40a3 db3b
000001f0: b1c7 41be 3922 f83d 8c44 44be 48d7 f0bd
00000200: e8c3 55be 6395 b5be ee64 63be bd7d 6f3e
00000210: 4584 39be b897 53bc 506c 133e 987f 1b3c
00000220: 10a4 55bd 6b49 983d 7677 40be 69d1 c93e
00000230: 04f1 223e 4c50 e63d f665 44be aed5 49be
00000240: 1a20 18bd 2405 19be d5f9 a93c fa77 02bc
00000250: ab23 c83c a260 20be f30e 8e3e 8d92 8dbe
00000260: 359b 2a3d f287 eebd ac59 933e 2487 c7bb
00000270: 56f7 5d3d 26fc 86be 74e2 703b 1143 5ebe
00000280: dfbd 6bbd 9f80 21be c037 9b3c e68f 6dbc
00000290: c812 6abe 6877 15be 53ac a33d 8c7d 9f3e
000002a0: ed57 8ebe dd9d 2a3e 45ec ba3e 8897 77be
000002b0: 8d7d b2bd 2dbe c0bb 324b e7bd 7fa5 7d3d
000002c0: 01cc a03c 10f6 45be 8b4b 913d 4dcc 65bd
000002d0: 4a6f ee3d 3cd5 c73c b654 c0ba ea3e 61bd
000002e0: cf47 ab3c c731 c63c a028 c8bd 047c f5bd
000002f0: da29 efbd edb5 bc3d ca9b 733b 279d 1b3d
00000300: cda0 35be ca82 99bd d5ac 28be cec9 30be
00000310: 55e3 33bd 0c55 b93d 149b a3bd d886 f7bd
00000320: d7b0 90bd 1d5e 173e 2eb3 99bd 979c 18be
00000330: 81c6 98bd e94f 8b3d 227c 9fbd 72ce 3f3e
00000340: ab55 b7bd 5dbf ed3b 1328 50bd fd8c b2bd
00000350: 6a9a dd3d 5f22 10bd f72d 3bbd 7821 14bd
00000360: 60bd 43bd 2662 01be 0ab8 4e3d 869d c3bd
00000370: 17a0 e3bd 513f 113e 0fac c73b f1c9 50bd
00000380: d017 34be 2f89 8b3d c862 c6bd 2746 14be
00000390: 72f3 00bd e865 043d f58d ef3b bfb6 033e
000003a0: e4ea 85bd ad0a 973b 9c52 543d bd6f a4bd
000003b0: 80b7 c93d 09e3 acbd 4456 f9bc 22a1 40bc
000003c0: ca34 593d f137 bb3c 9053 053e dc4f 87bd
000003d0: 16a8 743c 807f 22be a0fd 903d 806d 21be
000003e0: 4b27 52bd 3b68 a2bd 97c2 fcbd fe78 81bc
000003f0: 7008 813d b6c0 cebd ed13 16be a23b e3bd

lays.0.bias f4 [256]
-0.10663867 -0.056659054 0.06419618 -0.019614575 -0.057315104 0.010544711 0.05892335 -0.088551916
-0.045502964 -0.21810351 0.015949281 -0.13487796 0.028814433 -0.1853696 0.016434235 -0.09754434
-0.22826664 -0.12182067 -0.1166915 -0.115118414 -0.07988314 -0.12178514 -0.10640538 -0.018025763
-0.10618489 -0.14269802 -0.02737116 -0.026495244 -0.22240794 -0.21369196 0.03344413 -0.066870555
-0.037505746 -0.24188574 -0.08242794 -0.13762999 -0.063472986 0.0039964947 0.008912328 -0.030880349
-0.15251036 -0.13584426 -0.0596649 -0.104277305 -0.23711132 -0.06388387 0.0023258447 -0.030913757
-0.18576933 -0.09067738 -0.040146697 -0.14748146 -0.10987622 0.022922343 -0.116584875 -0.07387341
-0.035454173 -0.07563833 -0.23917656 -0.17440073 -0.18876529 -0.12772633 -0.10011259 -0.07178408
-0.009333322 0.007063852 -0.0519518 -0.055222314 -0.18481009 -0.11969156 -0.0059940293 -0.16129196
-0.18461272 -0.10364064 -0.013746603 0.01905567 -0.1019051 -0.063689135 -0.066759154 -0.02919023
-0.08460634 -0.2372905 0.060762756 -0.19608505 -0.005110657 -0.052280195 -0.05803346 -0.13346432
0.05317593 -0.08840035 -0.11441434 0.04641021 -0.009894305 -0.078971945 -0.106508955 -0.2496743
-0.10168798 -0.08251181 -0.19328906 -0.17417562 -0.02669726 -0.100409314 -0.02031271 -0.13660672
-0.17603147 -0.13920674 -0.1038238 -0.18313423 0.010413284 -0.15564077 -0.12514654 -0.019830761
-0.116619945 -0.16039328 -0.071511954 -0.12989655 -0.044974487 -0.21100521 -0.10196966 -0.13792
0.019751268 -0.04278745 -0.10030099 -0.049804714 -0.16560327 -0.01811151 -0.17193133 -0.2199717
-0.17477033 -0.004418049 -0.097877294 -0.073172785 0.019200133 -0.025860522 -0.21225491 -0.09852246
-0.2206041 -0.030880062 0.008323728 0.0059194667 -0.20308748 -0.096518666 -0.049565937 0.031800345
-0.028260415 -0.09173803 -0.16760853 -0.1746902 0.0021438764 -0.04807522 -0.105589546 -0.14206447
-0.13344385 -0.03246824 0.012490717 -0.19400948 -0.050992794 0.008358848 -0.014208054 0.048239723
-0.005380421 -0.21260779 0.045195065 -0.055850618 0.014995355 -0.12859263 -0.034782305 -0.17669778
-0.041655313 -0.05080206 -0.006986108 -0.096737884 0.023187675 0.011112617 0.17629175 -0.13722019
-0.015971052 -0.054625098 -0.035939038 -0.038251564 -0.17605202 -0.006339281 -0.046444636 -0.09601707
-0.06488153 -0.15868591 -0.032342046 0.036173522 -0.02454961 -0.09512465 -0.15958461 -0.15595266
-0.18214075 -0.19413745 -0.002465683 -0.13944967 -0.046532374 -0.10148239 -0.08443244 -0.22055364
-0.010540501 -0.009779095 -0.15944922 -0.09030636 -0.11029798 -2.8743585e-05 -0.09732985 -0.11177712
0.025352964 -0.054185454 -0.17577417 -0.09776751 -0.076795004 0.02116225 0.06409794 0.06305328
-0.027150357 -0.17800389 -0.027732879 -0.10285719 -0.05196489 -0.05626759 -0.10592298 -0.067246445
0.012057428 -0.005422532 -0.011750773 0.0055752527 -0.067440376 -0.037602033 -0.3150274 -0.058447596
-0.1410615 -0.047434885 -0.10821303 -0.035163607 -0.14720045 -0.045462336 -0.061721694 -0.02910163
-0.2031466 -0.20245573 0.049232457 -0.02413974 -0.16477814 -0.037910216 0.047057714 -0.012073677
-0.16461606 -0.043129478 -0.113189995 -0.017448312 -0.17338993 -0.16581824 -0.07407773 -0.14382236
00000000: 6065 dabd 5313 68bd 4979 833d bfae a0bc
00000010: 3ec3 6abd b9c3 2c3c 9c59 713d b55a b5bd
00000020: 5161 3abd 8756 5fbe 11a8 823c 731d 0abe
00000030: 3f0c ec3c 87d1 3dbe 17a1 863c 54c5 c7bd
00000040: bbbe 69be 1e7d f9bd f4fb eebd 34c3 ebbd
00000050: c699 a3bd 7d6a f9bd 10eb d9bd c4aa 93bc
00000060: 7777 d9bd 6e1f 12be 7c39 e0bc 8e0c d9bc
00000070: e8be 63be 11d2 5abe b6fc 083d 6ef3 88bd
00000080: a09f 19bd e5b0 77be fbcf a8bd e0ee 0cbe
00000090: 20fe 81bd 07f5 823b 0305 123c c9f8 fcbc
000000a0: ad2b 1cbe c21a 0bbe 2f63 74bd 578f d5bd
000000b0: 4fcd 72be 8cd5 82bd 336d 183b d93e fdbc
000000c0: 513a 3ebe 10b5 b9bd dd70 24bd 6105 17be
000000d0: c906 e1bd a3c7 bb3c 0dc4 eebd f14a 97bd
000000e0: 6538 11bd 45e8 9abd b3ea 74be 1b96 32be
000000f0: b04b 41be b1ca 02be d407 cdbd 8803 93bd
00000100: caea 18bc e377 e73b 69cb 54bd cb30 62bd
00000110: db3e 3dbe d920 f5bd 9069 c4bb b829 25be
00000120: 1e0b 3dbe 8b41 d4bd 6f39 61bc a31a 9c3c
00000130: 9fb3 d0bd 736f 82bd 06b9 88bd 5920 efbc
00000140: 1746 adbd 48fc 72be 5ee2 783d 85ca 48be
00000150: 4c77 a7bb c223 56bd 7eb4 6dbd dfaa 08be
00000160: 01cf 593d 3e0b b5bd 1152 eabd a218 3e3d
00000170: b91b 22bc 0bbc a1bd 5e21 dabd 9faa 7fbe
00000180: ca41 d0bd f4fb a8bd 91ed 45be 185b 32be
00000190: 36b4 dabc 66a3 cdbd d766 a6bc a2e2 0bbe
000001a0: 9841 34be 368c 0ebe 93a1 d4bd 8a87 3bbe
000001b0: 7b9c 2a3c 4b60 1fbe 6a26 00be 1f74 a2bc
000001c0: 70d6 eebd 233e 24be dc74 92bd 9a03 05be
000001d0: 2b37 38bd c011 58be 78d5 d0bd e73a 0dbe
000001e0: 69cd a13c e541 2fbd 9b6a cdbd 0700 4cbd
000001f0: e793 29be 975e 94bc c40e 30be 4340 61be
00000200: fef6 32be 48c5 90bb e473 c8bd 9ddb 95bd
00000210: 9949 9d3c 72d9 d3bc 5a59 59be 25c6 c9bd
00000220: 0be6 61be 2ff8 fcbc 3f60 083c 16f8 c13b
00000230: 2af6 4fbe 94ab c5bd a705 4bbd 1441 023d
00000240: 6382 e7bc 26e1 bbbd 92a1 2bbe fde1 32be
00000250: 4780 0c3b 86ea 44bd 553f d8bd 5979 11be
00000260: 81a5 08be 6bfd 04bd dda5 4c3c 6caa 46be
00000270: d2dd 50bd 8df3 083c e6c8 68bc 0497 453d
00000280: 3e4e b0bb dbb5 59be 761e 393d 9ec3 64bd
00000290: 14af 753c c9ad 03be e477 0ebd 43f0 34be
000002a0: c39e 2abd d215 50bd b9eb e4bb 831e c6bd
000002b0: 14f4 bd3c b211 363c d385 343e 7383 0cbe
000002c0: b9d5 82bc 91be 5fbd d034 13bd acad 1cbd
000002d0: fb46 34be beb9 cfbb bb3c 3ebd 99a4 c4bd
000002e0: 9ce0 84bd 8f7e 22be 1879 04bd b02a 143d
000002f0: 441c c9bc b6d0 c2bd 266a 23be 0eb2 1fbe
00000300: 1b83 3abe f8cb 46be 4c97 21bb e5cb 0ebe
00000310: bb98 3ebd 00d6 cfbd eaea acbd d0d8 61be
00000320: 11b2 2cbc 7f38 20bc a846 23be 8af2 b8bd
00000330: e8e3 e1bd 611e f1b7 df54 c7bd 67eb e4bd
00000340: 05b1 cf3c 91f1 5dbd 25fe 33be 553a c8bd
00000350: b346 9dbd 745c ad3c c845 833d 1422 813d
00000360: 6d6a debc a746 36be 1030 e3bc caa6 d2bd
00000370: 23d9 54bd d878 66bd 26ee d8bd 81b8 89bd
00000380: 858c 453c 7faf b1bb 5086 40bc 9cb0 b63b
00000390: 2e1e 8abd 9704 1abd 454b a1be bf66 6fbd
000003a0: 6d72 10be 154b 42bd cb9e ddbd b707 10bd
000003b0: b7bb 16be b736 3abd e3cf 7cbd 8b66 eebc
000003c0: aa05 50be 8e50 4fbe f9a7 493d b4c0 c5bc
000003d0: 9abb 28be be47 1bbd 97bf 403d acd0 45bc
000003e0: 1d91 28be 89a8 30bd 28d0 e7bd c3ef 8ebc
000003f0: 218d 31be 42cc 29be 11b6 97bd 2b46 13be

lays.1.weight f4 [256, 256]
-0.08701737 -0.08982979 -0.04792047 -0.0732977 -0.0098300455 -0.09662138 -0.010629604 -0.055149406
-0.005407572 -0.0069834413 -0.027021425 -0.10504427 -0.028455507 -0.018381 -0.05997135 -0.021878738
-0.038290855 -0.0138217155 -0.042908125 -0.057952456 -0.060414974 -0.058022525 -0.11503987 -0.110121235
-0.015108216 -0.04854226 -0.02584216 -0.016106568 -0.077973284 -0.08942041 -0.07934151 -0.011630074
-0.023373162 -0.11467885 -0.11169133 0.08724731 -0.108223416 -0.07608218 -0.07293795 -0.007368807
-0.046608187 -0.06955802 -0.011078139 -0.015973607 -0.11859395 -0.048127122 -0.029199563 -0.08456563
0.10439746 -0.041901715 -0.014943338 -0.08740541 0.068566404 -0.10569457 -0.11364431 -0.08116007
-0.0014572392 -0.013946746 -0.0152826775 0.08130752 -0.118948705 -0.016514538 -0.01087454 -0.075704016
-0.11216757 -0.07713835 -0.010539526 -0.09133239 -0.084598586 -0.09638093 -0.0911781 -0.07713489
-0.05331803 -0.02393035 -0.058570463 -0.11369952 -0.01268585 -0.058980566 -0.083279535 -0.10815294
-0.04943307 -0.03925837 -0.11193014 -0.10864298 -0.026160922 -0.039321736 0.048099566 -0.067206085
-0.08403873 -0.045185454 -0.050603695 -0.043550897 -0.041683283 -0.04251931 -0.042037137 -0.0851209
0.0012547289 -0.034129936 -0.07232684 0.0015107915 -0.118622355 -0.08269449 -0.08046393 -0.03076793
0.002487619 -0.07979976 -0.0064829173 -0.045302346 -0.09514111 -0.093897246 -0.06493583 -0.057526577
-0.0784291 -0.028941594 0.0011648778 -0.041702017 -0.014640642 -0.05284831 -0.082599625 -0.012678878
-0.0013654118 -0.09759791 0.029405367 -0.008668741 -0.025947567 -0.002421179 -0.018843772 -0.0006421707
-0.063915685 -0.05627135 0.016036764 -0.049686894 -0.02138739 -0.07089275 -0.05159246 -0.038307764
-0.009240313 -0.11685623 -0.06768902 -0.0041026785 -0.076531194 -0.09215993 -0.07045822 -0.09142267
-0.09442598 -0.011972039 0.08063154 -0.030319871 -0.11441208 -0.03957287 -0.08633905 -0.09692898
-0.031319723 -0.01068231 -0.104622364 -0.089750335 -0.11466985 -0.017417427 -0.007975835 -0.03952354
-0.008504928 -0.05467363 -0.0060535967 -0.0018067927 -0.0067708143 0.05182986 -0.01059886 -0.009943181
-0.025828771 -0.08308155 0.028124651 -0.056172438 -0.083454035 -0.10195734 -0.03244005 0.00030633752
-0.11510609 -0.10792534 -0.02293707 -0.11882142 -0.05683002 -0.0379847 -0.121228725 -0.03540531
-0.10567443 -0.05029185 -0.11892939 0.0013328328 -0.06585002 -0.004163379 -0.06314395 -0.04106028
-0.03248835 -0.095718 -0.082541786 -0.0604873 -0.0070236023 -0.064963095 0.0017448858 -0.0032475695
-0.028140023 -0.009382324 -0.019400217 -0.113282315 -0.11910745 -0.06259177 0.00040069033 -0.014561328
-0.047400467 0.018971331 -0.10495925 0.031279717 -0.034482487 -0.061922893 -0.10299807 -0.029648993
-0.11342082 -0.051142026 -0.07765564 0.0012143512 -0.11798113 -0.0073244506 -0.07170525 -0.106474824
-0.07746969 0.050435957 0.055665076 -0.040662434 -0.006933823 -0.048411503 -0.018053178 -0.048232056
-0.09091835 -0.10865677 -0.041876484 -0.0016566215 -0.113617055 0.046875704 -0.066016294 -0.096302755
-0.10792254 0.038790196 -0.079551995 0.023954695 -0.06840116 -0.11230774 0.11834192 -0.046375822
-0.07522973 -0.03876774 0.04215946 -0.06698259 -0.032671068 -0.118117414 0.10926855 -0.015464716
00000000: 2a36 b2bd aef8 b7bd 4148 44bd 1b1d 96bd
00000010: 330e 21bc 6ee1 c5bd ca27 2ebc 58e4 61bd
00000020: 0032 b1bb 5ad5 e4bb 095c ddbc 7321 d7bd
00000030: 861b e9bc c093 96bc 85a4 75bd 0a3b b3bc
00000040: dfd6 1cbd 7a74 62bc 6ec0 2fbd 8e5f 6dbd
00000050: b175 77bd 07a9 6dbd 069a ebbd 3e87 e1bd
00000060: 7388 77bc 40d4 46bd f0b2 d3bc ecf1 83bc
00000070: 75b0 9fbd 0c22 b7bd cd7d a2bd 118c 3ebc
00000080: 1379 bfbc bfdc eabd 6dbe e4bd b8ae b23d
00000090: 3da4 ddbd f9d0 9bbd 7e60 95bd 0976 f1bb
000000a0: 3ae8 3ebd 6f74 8ebd 1581 35bc 15db 82bc
000000b0: 63e1 f2bd f220 45bd ec33 efbc bf30 adbd
000000c0: 56ce d53d 22a1 2bbd e7d4 74bc 9c01 b3bd
000000d0: 8b6c 8c3d 6576 d8bd 59be e8bd 4037 a6bd
000000e0: d500 bfba e480 64bc 3264 7abc 8f84 a63d
000000f0: 619b f3bd 7f49 87bc 202b 32bc b50a 9bbd
00000100: 1cb8 e5bd b6fa 9dbd faad 2cbc 7a0c bbbd
00000110: 0642 adbd 5d63 c5bd 95bb babd e6f8 9dbd
00000120: 0264 5abd 9509 c4bc 95e7 6fbd 4bdb e8bd
00000130: 50d8 4fbc 9b95 71bd 768e aabd 4a7f ddbd
00000140: 557a 4abd 62cd 20bd a13b e5bd 3680 debd
00000150: 6e4f d6bc d40f 21bd 0d04 453d 58a3 89bd
00000160: 7f1c acbd 6214 39bd d245 4fbd 6d62 32bd
00000170: 17bc 2abd ba28 2ebd 222f 2cbd de53 aebd
00000180: b775 a43a d5cb 0bbd 1820 94bd c005 c63a
00000190: 47f0 f2bd bb5b a9bd 46ca a4bd 070d fcbc
000001a0: 5207 233b 0e6e a3bd a76e d4bb f48e 39bd
000001b0: 58d9 c2bd 334d c0bd 14fd 84bd fda0 6bbd
000001c0: 709f a0bd ec16 edbc d0ae 983a bccf 2abd
000001d0: 4edf 6fbc 7877 58bd fe29 a9bd 12bb 4fbc
000001e0: 9ef7 b2ba 6ae1 c7bd 86e3 f03c 5607 0ebc
000001f0: fe8f d4bc a5ac 1ebb 415e 9abc 5957 28ba
00000200: 3ae6 82bd c97c 66bd 885f 833c 7c84 4bbd
00000210: 9c34 afbc 3830 91bd 9e52 53bd 9ae8 1cbd
00000220: af64 17bc 5252 efbd 8aa0 8abd c36f 86bb
00000230: 63bc 9cbd 58be bcbd 664c 90bd cf3b bbbd
00000240: 6862 c1bd 5f26 44bc 2622 a53d 6161 f8bc
00000250: e150 eabd 2917 22bd 87d2 b0bd b382 c6bd
00000260: 1c49 00bd db04 2fbc 4044 d6bd 06cf b7bd
00000270: 07d8 eabd feae 8ebc 14ad 02bc 6fe3 21bd
00000280: 4158 0bbc 75f1 5fbd 405d c6bb e7d1 ecba
00000290: b5dd ddbb 8c4b 543d d7a6 2dbc b9e8 22bc
000002a0: dc96 d3bc a926 aabd ab65 e63c 1215 66bd
000002b0: f3e9 aabd 03cf d0bd dcdf 04bd ed9b a039
000002c0: bebc ebbd f607 ddbd 86e6 bbbc a558 f3bd
000002d0: 98c6 68bd d895 1bbd c446 f8bd 2905 11bd
000002e0: d66b d8bd d4fe 4dbd 4191 f3bd 73b2 ae3a
000002f0: 60dc 86bd f46c 88bb 9e51 81bd d32e 28bd
00000300: 8112 05bd cc07 c4bd ab0b a9bd 88c1 77bd
00000310: 3f26 e6bb 5f0b 85bd a7b4 e43a 2dd5 54bb
00000320: e885 e6bc 52b8 19bc 34ed 9ebc 8f00 e8bd
00000330: 9bee f3bd 1d30 80bd bf13 d239 a392 6ebc
00000340: fe26 42bd c469 9b3c e0f4 d6bd 291f 003d
00000350: 823d 0dbd dca2 7dbd a7f0 d2bd 72e2 f2bc
00000360: 2d49 e8bd 4d7a 51bd ec09 9fbd dd2a 9f3a
00000370: 17a0 f1bd f201 f0bb 34da 92bd 790f dabd
00000380: 6ea8 9ebd ef95 4e3d 1001 643d a78d 26bd
00000390: 2035 e3bb 244b 46bd 42e4 93bc fa8e 45bd
000003a0: 6633 babd 7187 debd ad86 2bbd fe22 d9ba
000003b0: 0fb0 e8bd bd00 403d 8d33 87bd 613a c5bd
000003c0: 7e06 ddbd 78e2 1e3d 28ec a2bd a33c c43c
000003d0: e815 8cbd 9a01 e6bd 405d f23d 93f4 3dbd
000003e0: 0b12 9abd ecca 1ebd 66af 2c3d 2b2e 89bd
000003f0: 19d2 05bd 8be7 f1bd 31c8 df3d b85f 7dbc

lays.1.bias f4 [256]
-0.094721034 -0.15277663 -0.09321603 -0.10794016 0.009427415 -0.05680431 -0.10609086 -0.057748057
-0.09997064 -0.08019374 -0.07886886 -0.039125293 0.014710991 -0.15838951 0.20147923 0.027708251
-0.07817828 0.20532283 -0.0077517116 -0.09854376 -0.05354482 -0.016290234 -0.009538738 -0.05610056
-0.015890311 -0.08842217 0.02309 -0.0064905374 -0.09285055 -0.0034739166 -0.1532061 0.023027243
-0.060551103 0.043243784 -0.18259458 -0.073560566 -0.030340262 -0.10995677 0.10691049 -0.16546805
-0.13186593 0.06143497 -0.034665816 -0.025185391 -0.028866647 -0.063321665 -0.01737794 -0.09432879
-0.015769962 0.076966494 -0.13582265 -0.14452727 -0.11678366 -0.10423484 -1.6704202e-05 -0.105156675
-0.063596904 -0.10676146 -0.09047706 0.06377477 -0.013279304 -0.055777922 0.04268803 -0.14570138
-0.088463105 -0.09253746 0.13421749 0.04726941 -0.16068214 0.024613027 -0.10931291 -0.018861705
-0.0854398 -0.017775834 -0.034647677 0.019043896 -0.08750619 -0.122736834 0.0014117546 -0.0971619
-0.10860514 -0.07615287 -0.06622387 -0.041573673 -0.07792842 -0.03293717 0.0474559 -0.016106445
0.07740564 -0.217849 -0.0678762 0.058878504 -0.07541861 -0.059104778 -0.02196164 -0.13178426
-0.14780277 -0.033967923 -0.07159986 0.08374382 -0.05833064 -0.09750395 -0.19143456 -0.07117326
-0.04044491 -0.09975637 -0.087548375 0.07489379 0.012774724 -0.03672345 -0.1606002 0.119342595
0.00632381 -0.016474767 -0.09040519 -0.03955447 -0.041313436 -0.3405051 -0.056973126 -0.03002285
-0.0671927 0.23775695 -0.07423126 -0.120317064 -0.024684008 -0.050165806 -0.091515094 -0.24889418
-0.037743546 0.018781738 -0.075233795 -0.11355261 0.056926098 -0.027878249 -0.076705925 -0.06545315
-0.18493773 -0.18217294 0.0318972 -0.047085203 -0.08835015 -0.062929526 -0.013393628 -0.05741498
-0.13597316 -0.031199822 0.04873216 -0.058908913 -0.022128917 -0.07001579 -0.14027604 -0.17233184
0.032371625 -0.027505964 0.0050857626 -0.059123088 -0.02182652 -0.079255976 -0.09459322 -0.12470273
-0.06792258 -0.24638316 -0.22116855 -0.09382788 -0.07008779 -0.104598984 -0.021295026 0.035004385
-0.103659995 -0.0682121 -0.048661478 -0.13764535 -0.016854348 -0.072124526 -0.15021926 0.022983484
-0.09942255 -0.10300254 -0.053395394 -0.18252182 -0.1405108 -0.045413375 -0.06214376 -0.048350196
-0.060586084 -0.0012504563 -0.1095989 -0.024666438 0.18299748 -0.04797444 0.08569672 -0.12733845
-0.10956629 0.043131694 -0.13535286 0.11526657 0.0021246346 -0.015676524 -0.097568154 -0.06875153
-0.07899146 -0.06764418 0.008751115 -0.1064406 -0.0040582647 -0.045613434 -0.07939074 -0.122322775
-0.0951611 -0.09771093 -0.118377246 -0.063507654 0.05569587 -0.009531713 -0.021773973 -0.08866562
-0.10933728 -0.04948153 -0.12585755 -0.11598432 -0.048952274 -0.1258815 -0.11024732 -0.01674916
-0.030395063 -0.14954393 -0.087888926 -0.13930887 -0.09826414 -0.10642968 -0.034641504 -0.025825724
-0.07152253 -0.09519922 -0.040059045 0.08020977 -0.07012013 -0.052745398 -0.012448249 -0.054476485
-0.18101728 -0.12217269 -0.065302804 -0.1097089 -0.10341508 -0.07732242 -0.07684777 -0.114187896
-0.065699406 -0.05405094 -0.13509502 -0.10639784 -0.062165085 0.11866552 -0.08973277 -0.15099119
00000000: 1afd c1bd 7a71 1cbe 0ce8 bebd bb0f ddbd
00000010: 7275 1a3c a3ab 68bd 2a46 d9bd 3a89 6cbd
00000020: 68bd ccbd 9e3c a4bd ff85 a1bd d841 20bd
00000030: 5e06 713c dc30 22be 9250 4e3e 6afc e23c
00000040: ef1b a0bd 2640 523e 1202 febb 50d1 c9bd
00000050: d051 5bbd 1973 85bc 5e48 1cbc b3c9 65bd
00000060: 662c 82bc af16 b5bd 3d27 bd3c 93ae d4bb
00000070: 6e28 bebd a6aa 63bb 0fe2 1cbe a1a3 bc3c
00000080: 6f04 78bd 6520 313d 13fa 3abe eca6 96bd
00000090: 248c f8bc 0431 e1bd e3f3 da3d 7570 29be
000000a0: dd07 07be 3ca3 7b3d befd 0dbd 9851 cebc
000000b0: bf79 ecbc caae 81bd 2e5c 8ebc 742f c1bd
000000c0: 0230 81bc 9ca0 9d3d 1815 0bbe f5fe 13be
000000d0: 462c efbd 1379 d5bd 0020 8cb7 625c d7bd
000000e0: 183f 82bd c1a5 dabd 094c b9bd 599c 823d
000000f0: 7091 59bc 6477 64bd a5d9 2e3d be32 15be
00000100: 252c b5bd 4884 bdbd 4f70 093e 929d 413d
00000110: dc89 24be 42a1 c93c 72df dfbd dd83 9abc
00000120: 10fb aebd a09e 91bc b9ea 0dbd f201 9c3c
00000130: 7236 b3bd 735d fbbd a00a b93a d1fc c6bd
00000140: 5f6c debd 09f6 9bbd 61a0 87bd 2849 2abd
00000150: ef98 9fbd 20e9 06bd 1e61 423d aaf1 83bc
00000160: d986 9e3d cf13 5fbe ad02 8bbd 962a 713d
00000170: 1275 9abd da17 72bd e6e8 b3bc 74f2 06be
00000180: 9c59 17be f321 0bbd f3a2 92bd e181 ab3d
00000190: 1cec 6ebd 27b0 c7bd 6c07 44be 49c3 91bd
000001a0: 90a9 25bd 114d ccbd 904c b3bd ea61 993d
000001b0: 134d 513c 546b 16bd 6174 24be e469 f43d
000001c0: f737 cf3b 17f6 86bc 5b26 b9bd de03 22bd
000001d0: 4738 29bd af56 aebe a75c 69bd 7bf2 f5bc
000001e0: 549c 89bd 8f76 733e 8f06 98bd cb68 f6bd
000001f0: 1e36 cabc a97a 4dbd 446c bbbd 1ede 7ebe
00000200: fa98 1abd 29dc 993c 2d14 9abd 458e e8bd
00000210: 572b 693d ed60 e4bc ff17 9dbd 4d0c 86bd
00000220: 5160 3dbe 8b8b 3abe a3a6 023d 6adc 40bd
00000230: ecf0 b4bd 32e1 80bd f370 5bbc f82b 6bbd
00000240: 8c3c 0bbe c596 ffbc 609b 473d 794a 71bd
00000250: b447 b5bc 7064 8fbd 86a4 0fbe c277 30be
00000260: 1c98 043d 3054 e1bc 78a6 a63b 0d2b 72bd
00000270: 88cd b2bc f550 a2bd 17ba c1bd 2564 ffbd
00000280: fe1a 8bbd de4b 7cbe 027a 62be d528 c0bd
00000290: 308a 8fbd fe37 d6bd e872 aebc c260 0f3d
000002a0: b14b d4bd c9b2 8bbd 4251 47bd e7f2 0cbe
000002b0: 2112 8abc 06b6 93bd 14d3 19be dc47 bc3c
000002c0: 0d9e cbbd fff2 d2bd 21b5 5abd 00e7 3abe
000002d0: 10e2 0fbe 6003 3abd 758a 7ebd db0a 46bd
000002e0: 1d29 78bd 5ae6 a3ba 6375 e0bd 4511 cabc
000002f0: b163 3b3e d980 44bd c381 af3d 0365 02be
00000300: 4b64 e0bd dcaa 303d f199 0abe e110 ec3d
00000310: 743d 0b3b 0e6c 80bc d0d1 c7bd 9acd 8cbd
00000320: 46c6 a1bd 0889 8abd d660 0f3c 87fd d9bd
00000330: 31fb 84bb 27d5 3abd 9d97 a2bd 5d84 fabd
00000340: d3e3 c2bd ab1c c8bd c56f f2bd 4d10 82bd
00000350: 5a21 643d e72a 1cbc 555f b2bc 5296 b5bd
00000360: 39ec dfbd 25ad 4abd cde0 00be 3089 edbd
00000370: 2e82 48bd 14e7 00be 59c9 e1bd 8935 89bc
00000380: 11ff f8bc 0b22 19be 1cff b3bd fca6 0ebe
00000390: b63e c9bd cef7 d9bd 40e4 0dbd 7890 d3bc
000003a0: 677a 92bd cff7 c2bd f414 24bd 0545 a43d
000003b0: 259b 8fbd 8f0b 58bd bef3 4bbc bc22 5fbd
000003c0: 985c 39be ad35 fabd 7abd 85bd 0faf e0bd
000003d0: 49cb d3bd 385b 9ebd 5d62 9dbd 58db e9bd
000003e0: 698d 86bd 8564 5dbd 5956 0abe 1ce7 d9bd
000003f0: d1a0 7ebd e806 f33d d1c5 b7bd 6f9d 1abe

lays.2.weight f4 [2, 256]
-0.07056112 -0.00033254732 0.03034932 0.05092975 -0.11221694 -0.012748048 -0.00077978015 0.05487575
0.022418605 -0.15208147 -0.006215501 -0.0011701066 -0.083353765 0.051021762 -0.2919324 -0.04748826
-0.034428526 -0.26013693 -0.042306796 -0.011721007 0.08180268 0.1002074 0.0075742416 -0.029823592
0.06924704 -0.2911403 0.2792256 -0.015329388 0.0113452375 -0.15961252 -0.10082535 0.05864484
0.008923349 -0.056701284 0.038956147 0.004918135 0.0242813 -0.018480154 -0.10573727 -0.023186093
0.0023668488 0.12373463 -0.0047784373 -0.03665341 0.062398843 0.058963686 -0.035369206 0.06724836
0.085902095 -0.315786 0.029948123 0.06414277 0.021876909 0.00730065 -0.02742995 0.05258502
0.08844565 0.041597903 -0.06268828 0.1458477 -0.00282972 -0.007684473 0.09597594 0.08371468
-0.020471025 0.055394623 0.33436748 0.24201658 0.05905852 0.114550516 -0.064723745 -0.014189395
-0.021990364 -0.022738717 0.025420576 -0.1667921 0.007770606 -0.014230295 -0.1365154 0.015045766
0.07029509 -0.02852877 -0.029098127 0.07972304 -0.03700003 -0.050217737 0.05606676 0.011788739
0.08980709 0.08981174 -0.06293861 0.16376717 0.15795727 -0.05144424 -0.0014897279 0.14982082
0.044436887 0.006594108 0.002844179 0.19123647 0.0041986536 -0.07346194 0.014395416 -0.017337866
0.00076111034 0.0050877933 -0.04698057 0.12453928 0.124523655 0.019530706 -0.0005232791 -0.33521372
0.20403922 0.02062161 -0.035437185 -0.038280554 -0.07963508 -0.3211583 0.055161607 0.03803676
-0.030891057 -0.30697265 0.036603138 -0.033644162 -0.05330468 -0.031085216 0.097473055 -0.005769631
-0.07669611 -0.16052684 0.04763069 -0.05899026 -0.039718144 -0.009783946 -0.074836135 -0.0146480035
-0.24079938 0.02483308 0.1369958 0.08281839 0.032700714 -0.06613031 0.034261316 0.056246966
0.006017773 -0.06167264 0.09882687 -0.05755409 -0.0068877134 -0.037178013 0.007752401 0.07559417
0.095407635 -0.011706378 0.100939006 -0.0029236432 -0.053825904 0.00428457 0.03073531 0.045838602
-0.0021749833 -0.063251615 0.06360359 0.04006627 0.013487408 0.012707327 -0.027300004 0.13569212
0.12349628 0.020059831 0.055576973 0.059387032 -0.017395033 -0.08679301 0.22598282 0.10050759
0.045074206 -0.013880721 -0.0111236945 0.083339505 0.04400283 -0.0010677748 -0.0040674377 0.05727438
0.009624513 0.14274755 -0.047386013 0.05327032 -0.23548098 -0.005090011 -0.11033851 -0.03637051
0.06432981 0.020665096 0.044646222 -0.19588631 -0.05778041 0.02848173 0.03183315 -0.011264744
0.06992596 0.032430787 0.012639341 -0.02958722 -0.007788856 0.041058518 0.034460776 -0.0251532
-0.007992392 0.011373555 -0.01092229 -0.0020186484 0.11432894 0.0422243 0.2619836 0.047303442
0.022183452 -0.038731802 -0.010563905 -0.009009686 0.01823071 -0.031254172 -0.061176002 0.0046179006
-0.03559699 0.0070502954 0.025899427 0.02796877 0.0950177 0.03809954 0.05379039 0.08919673
-0.021242052 0.0058085085 -0.011501211 0.119718745 0.022682149 -0.003932504 0.01936035 0.013229508
-0.03426824 -0.073444284 -0.088994734 0.10064254 0.041430797 -0.005126413 0.016403796 -0.009748371
0.03288038 -0.0015098859 -0.020726876 0.041575883 0.0064504533 0.1699132 0.07813338 -0.069839574
00000000: 5982 90bd bf59 aeb9 239f f83c b79b 503d
00000010: ffd1 e5bd 30dd 50bc 296a 4cba 65c5 603d
00000020: 39a7 b73c 3fbb 1bbe 67ab cbbb 435e 99ba
00000030: 61b5 aabd 32fc 503d 2a78 95be 0d83 42bd
00000040: ed04 0dbd ab30 85be e449 2dbd 7709 40bc
00000050: 2a88 a73d 8a39 cd3d 5831 f83b 9b50 f4bc
00000060: 64d1 8d3d 5710 95be a8f6 8e3e 1d28 7bbc
00000070: 60e1 393c 7771 23be 857d cebd 9235 703d
00000080: 3d33 123c 9b3f 68bd 7b90 1f3d 4e28 a13b
00000090: 94e9 c63c b163 97bc c88c d8bd c3f0 bdbc
000000a0: 221d 1b3b 9568 fd3d 7094 9cbb e321 16bd
000000b0: ee95 7f3d e883 713d 4ddf 10bd 82b9 893d
000000c0: 70ed af3d b4ae a1be c455 f53c 495d 833d
000000d0: 3437 b33c 4a3a ef3b c6b4 e0bc 6463 573d
000000e0: fe22 b53d 9062 2a3d b762 80bd 1959 153e
000000f0: d372 39bb 08ce fbbb 098f c43d 9a72 ab3d
00000100: dab2 a7bc 79e5 623d 3732 ab3e 32d3 773e
00000110: 59e7 713d 7699 ea3d e28d 84bd a37a 68bc
00000120: 2325 b4bc 8c46 babc d03e d03c 8ccb 2abe
00000130: 91a0 fe3b 2f26 69bc b1ca 0bbe 8482 763c
00000140: dff6 8f3d 2bb5 e9bc 325f eebc d545 a33d
00000150: 588d 17bd 1db1 4dbd 42a6 653d 8e25 413c
00000160: c8ec b73d 38ef b73d f5e5 80bd 95b2 273e
00000170: 8dbf 213e 32b7 52bd f942 c3ba a16a 193e
00000180: 7403 363d 6313 d83b 6865 3a3b 7ed3 433e
00000190: dc94 893b 3773 96bd c0da 6b3c 2408 8ebc
000001a0: 4085 473a 81b7 a63b b36e 40bd 730e ff3d
000001b0: 4206 ff3d dcfe 9f3c aa2c 09ba 22a1 abbe
000001c0: a8ef 503e a7ee a83c 9526 11bd 12cc 1cbd
000001d0: b817 a3bd dc6e a4be 23f1 613d 6fcc 1b3d
000001e0: 3e0f fdbc 852b 9dbe 2ced 153d 76ce 09bd
000001f0: 0256 5abd 6ca6 febc f49f c73d 2c0f bdbb
00000200: da12 9dbd 2661 24be 6618 433d c59f 71bd
00000210: 7eaf 22bd d84c 20bc b043 99bd 2efe 6fbc
00000220: 1d94 76be be6e cb3c a148 0c3e b09c a93d
00000230: 2ff1 053d 546f 87bd 9855 0c3d 3863 663d
00000240: bd30 c53b 739c 7cbd be65 ca3d d6bd 6bbd
00000250: 54b2 e1bb f947 18bd da07 fe3b 1ed1 9a3d
00000260: 1465 c33d 1ccc 3fbc 1cb9 ce3d 989a 3fbb
00000270: 8d78 5cbd 9465 8c3b 9ec8 fb3c 42c1 3b3d
00000280: 2a8a 0ebb 108a 81bd 9942 823d 871c 243d
00000290: 4afa 5c3c 6432 503c 42a4 dfbc e0f2 0a3e
000002a0: 9eeb fc3d 8454 a43c aea4 633d d13f 733d
000002b0: 0780 8ebc 89c0 b1bd 0a68 673e ecd6 cd3d
000002c0: bb9f 383d f76b 63bc 2840 36bc e7ad aa3d
000002d0: 503c 343d 94f4 8bba 2448 85bb 8a98 6a3d
000002e0: 22b0 1d3c 6a2c 123e d617 42bd fb31 5a3d
000002f0: ed21 71be 1bca a6bb 28f9 e1bd 3ef9 14bd
00000300: 59bf 833d d949 a93c f5de 363d 6c96 48be
00000310: 27ab 6cbd 8452 e93c 7a63 023d c38f 38bc
00000320: 5735 8f3d 25d6 043d 3d15 4f3c e660 f2bc
00000330: a939 ffbb fa2c 283d be26 0d3d 150e cebc
00000340: 86f2 02bc 2658 3a3c 68f3 32bc 4d4b 04bb
00000350: 4b25 ea3d 63f3 2c3d b722 863e 41c1 413d
00000360: 12ba b53c 3da5 1ebd 3b14 2dbc 5d9d 13bc
00000370: 9258 953c 6004 00bd b093 7abd c251 973b
00000380: 26ce 11bd 2a06 e73b 092b d43c c31e e53c
00000390: a498 c23d 430e 1c3d 5053 5c3d c6ac b63d
000003a0: d003 aebc 4d55 be3b 936f 3cbc 1a2f f53d
000003b0: eacf b93c 3cdc 80bb 9999 9e3c 94c0 583c
000003c0: db5c 0cbd f569 96bd df42 b6bd ad1d ce3d
000003d0: 57b3 293d 78fb a7bb 4161 863c a2b7 1fbc
000003e0: 94ad 063d 5de7 c5ba 69cb a9bc 794b 2a3d
000003f0: 535e d33b bafd 2d3e 6504 a03d 0d08 8fbd

lays.2.bias f4 [2]
0.01154713 0.06840661
00000000: 2c30 3d3c c418 8c3d

l1.weight f4 [256, 62]
-0.09132965 0.08534033 -0.46933478 0.23079927 0.18764102 -0.5859633 -0.21705624 -0.009571305
-0.012331934 -0.03372945 -0.29582018 0.19234717 -0.57940996 -0.2707199 -0.22675735 -0.006166277
0.3382961 -0.006416525 0.2511432 -0.019279763 0.009972366 -0.026183058 0.10296363 0.27063033
-0.28478208 -0.120288 0.70029116 0.015573583 -0.15805125 -0.22372413 0.4141073 0.36074588
-0.3538945 -0.27605408 -0.18684027 -0.27877924 -0.04553403 0.22684878 0.15985195 -0.20923397
-0.23503283 -0.14491598 0.15736936 -0.09210951 -0.18751064 -0.12483183 -0.09921869 0.48066267
-0.08487009 -0.010172379 0.3446592 0.07805645 0.49227378 -0.19933122 0.024505721 -0.24913846
-0.42166403 -0.010548237 -0.045659583 -0.007468258 0.25161287 -0.428742 -0.14012516 -0.066966176
0.0104679335 -0.058594182 -0.065161504 -0.03157882 0.016981618 0.040661696 -0.19461875 -0.020249302
0.054881666 0.028248256 0.11150732 0.19183283 -0.06661714 -0.13180114 -0.058966234 -0.1478099
-0.1645079 0.03695826 0.030339653 -0.16761273 -0.024925087 -0.07317087 -0.07605905 -0.13053979
0.06450029 -0.12156823 -0.01862741 -0.03685007 0.007636455 -0.014968163 -0.20666914 -0.13928957
0.030050283 -0.027499221 -0.16670282 -0.15511265 0.049052823 0.049823686 -0.14812131 -0.099114284
-0.18985799 0.027691102 -0.17846388 -0.12607934 -0.00699766 0.0791043 -0.016459571 0.07535903
-0.14690365 0.04916767 0.06956909 -0.11141246 -0.08389462 -0.090076916 0.01852946 -0.037490837
-0.025949929 0.06107417 -0.13926005 0.0067028105 -0.18923832 0.121159025 -0.19166774 -0.11759812
-0.20875514 -0.35465536 -0.2220647 0.23387809 -0.18116863 -0.012914591 0.14396787 0.00949087
-0.052158415 0.07435878 -0.1879557 0.3941758 0.15912253 0.11245784 -0.1917952 -0.19710419
-0.03713999 -0.14943367 0.020749012 -0.007963175 0.02443107 -0.15661862 0.2774578 -0.27650872
0.041651923 -0.11647023 0.28779352 -0.006089108 0.054190956 -0.2636425 0.003675607 -0.21705271
-0.057554122 -0.15771721 0.018947482 -0.01449964 -0.22858727 -0.14596331 0.079918526 0.31150472
-0.27801457 0.16661783 0.36508384 -0.24178898 -0.08715353 -0.0058820457 -0.11293639 0.061925407
0.019628527 -0.19332147 0.07094487 -0.05610304 0.116423205 0.02439367 -0.0014673683 -0.05499164
0.020908264 0.024193658 -0.097733736 -0.11986545 -0.116779044 0.09214387 0.0037171715 0.03799167
-0.17737122 -0.07495649 -0.1647218 -0.17264482 -0.043917973 0.090494245 -0.07988563 -0.12086266
-0.070649795 0.14781995 -0.07504879 -0.14903484 -0.074597366 0.06802351 -0.07787348 0.18731096
-0.08951887 0.0072554783 -0.050819468 -0.08718298 0.10820468 -0.03518903 -0.045698132 -0.03616473
-0.047788024 -0.12635097 0.050468482 -0.095515296 -0.11114519 0.1418431 0.006093509 -0.050973836
-0.17587209 0.06813275 -0.0968681 -0.14479886 -0.031482168 0.032323748 0.007310624 0.12862681
-0.065389425 0.004609427 0.051836595 -0.08029125 0.09849453 -0.08441741 -0.030436642 -0.011757167
0.05302886 0.022853823 0.13020158 -0.06607029 0.014932653 -0.1586895 0.07079625 -0.15764427
-0.051307004 -0.07930037 -0.123418026 -0.015804764 0.063004375 -0.100953504 -0.14656039 -0.110953584
00000000: 0a0b bbbd e9c6 ae3d a64c f0be a556 6c3e
00000010: f824 403e b101 16bf fe43 5ebe f6d0 1cbc
00000020: e10b 4abc e427 0abd be75 97be a8f6 443e
00000030: 3654 14bf cc9b 8abe 1433 68be 7b0e cabb
00000040: 2535 ad3e b741 d2bb d795 803e 98f0 9dbc
00000050: 2263 233c da7d d6bc 98de d23d 0f90 8a3e
00000060: f5ce 91be 8e59 f6bd 4846 333f 5728 7f3c
00000070: 30d8 21be f017 65be df05 d43e afb3 b83e
00000080: a931 b5be f656 8dbe 0e53 3fbe 27bc 8ebe
00000090: e481 3abd 0c4b 683e 3bb0 233e 6e41 56be
000000a0: 72ac 70be db64 14be 6f25 213e e9a3 bcbd
000000b0: ca02 40be d5a7 ffbd 2b33 cbbd 6b19 f63e
000000c0: 5fd0 adbd 0daa 26bc 2c77 b03e 0fdc 9f3d
000000d0: 4f0b fc3e 7c1d 4cbe 39c0 c83c 271e 7fbe
000000e0: 59e4 d7be 83d2 2cbc 8b05 3bbd 4ab8 f4bb
000000f0: 67d3 803e 1284 dbbe f87c 0fbe 9025 89bd
00000100: b281 2b3c 7400 70bd 6573 85bd cb58 01bd
00000110: 091d 8b3c e18c 263d 234a 47be dde1 a5bc
00000120: 99cb 603d e368 e73c f35d e43d d36f 443e
00000130: 916e 88bd e1f6 06be 9486 71bd 7a5b 17be
00000140: c274 28be 8b61 173d dd8a f83c aca2 2bbe
00000150: b22f ccbc 9cda 95bd d9c4 9bbd 39ac 05be
00000160: ba18 843d c4f8 f8bd 8398 98bc 19f0 16bd
00000170: 3a3b fa3b 073d 75bc 13a1 53be eda1 0ebe
00000180: 032c f63c 0c46 e1bc 25b4 2abe dad5 1ebe
00000190: 9deb 483d ec13 4c3d 1dad 17be 6efc cabd
000001a0: 226a 42be 73d8 e23c 3cbf 36be f11a 01be
000001b0: a04c e5bb 6f01 a23d 39d6 86bc d655 9a3d
000001c0: e96d 16be 0a64 493d 3d7a 8e3d 372c e4bd
000001d0: f1d0 abbd 3f7a b8bd 18cb 973c fe8f 19bd
000001e0: f294 d4bc e928 7a3d 309a 0ebe 40a3 db3b
000001f0: b1c7 41be 3922 f83d 8c44 44be 48d7 f0bd
00000200: e8c3 55be 6395 b5be ee64 63be bd7d 6f3e
00000210: 4584 39be b897 53bc 506c 133e 987f 1b3c
00000220: 10a4 55bd 6b49 983d 7677 40be 69d1 c93e
00000230: 04f1 223e 4c50 e63d f665 44be aed5 49be
00000240: 1a20 18bd 2405 19be d5f9 a93c fa77 02bc
00000250: ab23 c83c a260 20be f30e 8e3e 8d92 8dbe
00000260: 359b 2a3d f287 eebd ac59 933e 2487 c7bb
00000270: 56f7 5d3d 26fc 86be 74e2 703b 1143 5ebe
00000280: dfbd 6bbd 9f80 21be c037 9b3c e68f 6dbc
00000290: c812 6abe 6877 15be 53ac a33d 8c7d 9f3e
000002a0: ed57 8ebe dd9d 2a3e 45ec ba3e 8897 77be
000002b0: 8d7d b2bd 2dbe c0bb 324b e7bd 7fa5 7d3d
000002c0: 01cc a03c 10f6 45be 8b4b 913d 4dcc 65bd
000002d0: 4a6f ee3d 3cd5 c73c b654 c0ba ea3e 61bd
000002e0: cf47 ab3c c731 c63c a028 c8bd 047c f5bd
000002f0: da29 efbd edb5 bc3d ca9b 733b 279d 1b3d
00000300: cda0 35be ca82 99bd d5ac 28be cec9 30be
00000310: 55e3 33bd 0c55 b93d 149b a3bd d886 f7bd
00000320: d7b0 90bd 1d5e 173e 2eb3 99bd 979c 18be
00000330: 81c6 98bd e94f 8b3d 227c 9fbd 72ce 3f3e
00000340: ab55 b7bd 5dbf ed3b 1328 50bd fd8c b2bd
00000350: 6a9a dd3d 5f22 10bd f72d 3bbd 7821 14bd
00000360: 60bd 43bd 2662 01be 0ab8 4e3d 869d c3bd
00000370: 17a0 e3bd 513f 113e 0fac c73b f1c9 50bd
00000380: d017 34be 2f89 8b3d c862 c6bd 2746 14be
00000390: 72f3 00bd e865 043d f58d ef3b bfb6 033e
000003a0: e4ea 85bd ad0a 973b 9c52 543d bd6f a4bd
000003b0: 80b7 c93d 09e3 acbd 4456 f9bc 22a1 40bc
000003c0: ca34 593d f137 bb3c 9053 053e dc4f 87bd
000003d0: 16a8 743c 807f 22be a0fd 903d 806d 21be
000003e0: 4b27 52bd 3b68 a2bd 97c2 fcbd fe78 81bc
000003f0: 7008 813d b6c0 cebd ed13 16be a23b e3bd

l1.bias f4 [256]
-0.10663867 -0.056659054 0.06419618 -0.019614575 -0.057315104 0.010544711 0.05892335 -0.088551916
-0.045502964 -0.21810351 0.015949281 -0.13487796 0.028814433 -0.1853696 0.016434235 -0.09754434
-0.22826664 -0.12182067 -0.1166915 -0.115118414 -0.07988314 -0.12178514 -0.10640538 -0.018025763
-0.10618489 -0.14269802 -0.02737116 -0.026495244 -0.22240794 -0.21369196 0.03344413 -0.066870555
-0.037505746 -0.24188574 -0.08242794 -0.13762999 -0.063472986 0.0039964947 0.008912328 -0.030880349
-0.15251036 -0.13584426 -0.0596649 -0.104277305 -0.23711132 -0.06388387 0.0023258447 -0.030913757
-0.18576933 -0.09067738 -0.040146697 -0.14748146 -0.10987622 0.022922343 -0.116584875 -0.07387341
-0.035454173 -0.07563833 -0.23917656 -0.17440073 -0.18876529 -0.12772633 -0.10011259 -0.07178408
-0.009333322 0.007063852 -0.0519518 -0.055222314 -0.18481009 -0.11969156 -0.0059940293 -0.16129196
-0.18461272 -0.10364064 -0.013746603 0.01905567 -0.1019051 -0.063689135 -0.066759154 -0.02919023
-0.08460634 -0.2372905 0.060762756 -0.19608505 -0.005110657 -0.052280195 -0.05803346 -0.13346432
0.05317593 -0.08840035 -0.11441434 0.04641021 -0.009894305 -0.078971945 -0.106508955 -0.2496743
-0.10168798 -0.08251181 -0.19328906 -0.17417562 -0.02669726 -0.100409314 -0.02031271 -0.13660672
-0.17603147 -0.13920674 -0.1038238 -0.18313423 0.010413284 -0.15564077 -0.12514654 -0.019830761
-0.116619945 -0.16039328 -0.071511954 -0.12989655 -0.044974487 -0.21100521 -0.10196966 -0.13792
0.019751268 -0.04278745 -0.10030099 -0.049804714 -0.16560327 -0.01811151 -0.17193133 -0.2199717
-0.17477033 -0.004418049 -0.097877294 -0.073172785 0.019200133 -0.025860522 -0.21225491 -0.09852246
-0.2206041 -0.030880062 0.008323728 0.0059194667 -0.20308748 -0.096518666 -0.049565937 0.031800345
-0.028260415 -0.09173803 -0.16760853 -0.1746902 0.0021438764 -0.04807522 -0.105589546 -0.14206447
-0.13344385 -0.03246824 0.012490717 -0.19400948 -0.050992794 0.008358848 -0.014208054 0.048239723
-0.005380421 -0.21260779 0.045195065 -0.055850618 0.014995355 -0.12859263 -0.034782305 -0.17669778
-0.041655313 -0.05080206 -0.006986108 -0.096737884 0.023187675 0.011112617 0.17629175 -0.13722019
-0.015971052 -0.054625098 -0.035939038 -0.038251564 -0.17605202 -0.006339281 -0.046444636 -0.09601707
-0.06488153 -0.15868591 -0.032342046 0.036173522 -0.02454961 -0.09512465 -0.15958461 -0.15595266
-0.18214075 -0.19413745 -0.002465683 -0.13944967 -0.046532374 -0.10148239 -0.08443244 -0.22055364
-0.010540501 -0.009779095 -0.15944922 -0.09030636 -0.11029798 -2.8743585e-05 -0.09732985 -0.11177712
0.025352964 -0.054185454 -0.17577417 -0.09776751 -0.076795004 0.02116225 0.06409794 0.06305328
-0.027150357 -0.17800389 -0.027732879 -0.10285719 -0.05196489 -0.05626759 -0.10592298 -0.067246445
0.012057428 -0.005422532 -0.011750773 0.0055752527 -0.067440376 -0.037602033 -0.3150274 -0.058447596
-0.1410615 -0.047434885 -0.10821303 -0.035163607 -0.14720045 -0.045462336 -0.061721694 -0.02910163
-0.2031466 -0.20245573 0.049232457 -0.02413974 -0.16477814 -0.037910216 0.047057714 -0.012073677
-0.16461606 -0.043129478 -0.113189995 -0.017448312 -0.17338993 -0.16581824 -0.07407773 -0.14382236
00000000: 6065 dabd 5313 68bd 4979 833d bfae a0bc
00000010: 3ec3 6abd b9c3 2c3c 9c59 713d b55a b5bd
00000020: 5161 3abd 8756 5fbe 11a8 823c 731d 0abe
00000030: 3f0c ec3c 87d1 3dbe 17a1 863c 54c5 c7bd
00000040: bbbe 69be 1e7d f9bd f4fb eebd 34c3 ebbd
00000050: c699 a3bd 7d6a f9bd 10eb d9bd c4aa 93bc
00000060: 7777 d9bd 6e1f 12be 7c39 e0bc 8e0c d9bc
00000070: e8be 63be 11d2 5abe b6fc 083d 6ef3 88bd
00000080: a09f 19bd e5b0 77be fbcf a8bd e0ee 0cbe
00000090: 20fe 81bd 07f5 823b 0305 123c c9f8 fcbc
000000a0: ad2b 1cbe c21a 0bbe 2f63 74bd 578f d5bd
000000b0: 4fcd 72be 8cd5 82bd 336d 183b d93e fdbc
000000c0: 513a 3ebe 10b5 b9bd dd70 24bd 6105 17be
000000d0: c906 e1bd a3c7 bb3c 0dc4 eebd f14a 97bd
000000e0: 6538 11bd 45e8 9abd b3ea 74be 1b96 32be
000000f0: b04b 41be b1ca 02be d407 cdbd 8803 93bd
00000100: caea 18bc e377 e73b 69cb 54bd cb30 62bd
00000110: db3e 3dbe d920 f5bd 9069 c4bb b829 25be
00000120: 1e0b 3dbe 8b41 d4bd 6f39 61bc a31a 9c3c
00000130: 9fb3 d0bd 736f 82bd 06b9 88bd 5920 efbc
00000140: 1746 adbd 48fc 72be 5ee2 783d 85ca 48be
00000150: 4c77 a7bb c223 56bd 7eb4 6dbd dfaa 08be
00000160: 01cf 593d 3e0b b5bd 1152 eabd a218 3e3d
00000170: b91b 22bc 0bbc a1bd 5e21 dabd 9faa 7fbe
00000180: ca41 d0bd f4fb a8bd 91ed 45be 185b 32be
00000190: 36b4 dabc 66a3 cdbd d766 a6bc a2e2 0bbe
000001a0: 9841 34be 368c 0ebe 93a1 d4bd 8a87 3bbe
000001b0: 7b9c 2a3c 4b60 1fbe 6a26 00be 1f74 a2bc
000001c0: 70d6 eebd 233e 24be dc74 92bd 9a03 05be
000001d0: 2b37 38bd c011 58be 78d5 d0bd e73a 0dbe
000001e0: 69cd a13c e541 2fbd 9b6a cdbd 0700 4cbd
000001f0: e793 29be 975e 94bc c40e 30be 4340 61be
00000200: fef6 32be 48c5 90bb e473 c8bd 9ddb 95bd
00000210: 9949 9d3c 72d9 d3bc 5a59 59be 25c6 c9bd
00000220: 0be6 61be 2ff8 fcbc 3f60 083c 16f8 c13b
00000230: 2af6 4fbe 94ab c5bd a705 4bbd 1441 023d
00000240: 6382 e7bc 26e1 bbbd 92a1 2bbe fde1 32be
00000250: 4780 0c3b 86ea 44bd 553f d8bd 5979 11be
00000260: 81a5 08be 6bfd 04bd dda5 4c3c 6caa 46be
00000270: d2dd 50bd 8df3 083c e6c8 68bc 0497 453d
00000280: 3e4e b0bb dbb5 59be 761e 393d 9ec3 64bd
00000290: 14af 753c c9ad 03be e477 0ebd 43f0 34be
000002a0: c39e 2abd d215 50bd b9eb e4bb 831e c6bd
000002b0: 14f4 bd3c b211 363c d385 343e 7383 0cbe
000002c0: b9d5 82bc 91be 5fbd d034 13bd acad 1cbd
000002d0: fb46 34be beb9 cfbb bb3c 3ebd 99a4 c4bd
000002e0: 9ce0 84bd 8f7e 22be 1879 04bd b02a 143d
000002f0: 441c c9bc b6d0 c2bd 266a 23be 0eb2 1fbe
00000300: 1b83 3abe f8cb 46be 4c97 21bb e5cb 0ebe
00000310: bb98 3ebd 00d6 cfbd eaea acbd d0d8 61be
00000320: 11b2 2cbc 7f38 20bc a846 23be 8af2 b8bd
00000330: e8e3 e1bd 611e f1b7 df54 c7bd 67eb e4bd
00000340: 05b1 cf3c 91f1 5dbd 25fe 33be 553a c8bd
00000350: b346 9dbd 745c ad3c c845 833d 1422 813d
00000360: 6d6a debc a746 36be 1030 e3bc caa6 d2bd
00000370: 23d9 54bd d878 66bd 26ee d8bd 81b8 89bd
00000380: 858c 453c 7faf b1bb 5086 40bc 9cb0 b63b
00000390: 2e1e 8abd 9704 1abd 454b a1be bf66 6fbd
000003a0: 6d72 10be 154b 42bd cb9e ddbd b707 10bd
000003b0: b7bb 16be b736 3abd e3cf 7cbd 8b66 eebc
000003c0: aa05 50be 8e50 4fbe f9a7 493d b4c0 c5bc
000003d0: 9abb 28be be47 1bbd 97bf 403d acd0 45bc
000003e0: 1d91 28be 89a8 30bd 28d0 e7bd c3ef 8ebc
000003f0: 218d 31be 42cc 29be 11b6 97bd 2b46 13be
