TABULAR/Figure1Reproduce/Models/ADULT_FCN_e=0.0_g=0.075_a=1.0_l=2_h=256_s=True.pt (torch, 332951 bytes, 10 tensors)

lays.0.weight f4 [256, 63]
0	0xb86ce16b	-5.647672e-05
1	0x386ce2f2	5.6478144e-05
2	0xb86cdd7e	-5.6473065e-05
3	0x386ce30a	5.647823e-05
4	0x386cd750	5.646731e-05
5	0x386ce064	5.6475765e-05
6	0x386cdd72	5.647302e-05
7	0xb86ce13e	-5.6476558e-05
8	0xb86cde72	-5.6473953e-05
9	0x386cde72	5.6473953e-05
10	0x386cde72	5.6473953e-05
11	0xb86cde72	-5.6473953e-05
12	0x386cd832	5.6468132e-05
13	0xb86cdd72	-5.647302e-05
14	0x386cdbdf	5.6471556e-05
15	0xb86cdd31	-5.6472785e-05
16	0x386cdae0	5.6470628e-05
17	0xb86ce1ea	-5.6477184e-05
18	0xb86cdd63	-5.6472967e-05
19	0xb86cde72	-5.6473953e-05
20	0xb86ce2b2	-5.647791e-05
21	0x386ce4e9	5.6479974e-05
22	0x386cd87a	5.6468394e-05
23	0xb86cdac4	-5.6470526e-05
24	0x386cd914	5.6468954e-05
25	0x386cdddf	5.647342e-05
26	0xb86ce0c4	-5.6476114e-05
27	0xb86cd832	-5.6468132e-05
28	0xb86cde72	-5.6473953e-05
29	0xb86cdbd6	-5.6471523e-05
30	0x386cde72	5.6473953e-05
31	0x386ce48e	5.6479643e-05
32	0xb86ce51f	-5.648017e-05
33	0x386ce2c6	5.6477984e-05
34	0xb86cd9b2	-5.646953e-05
35	0xb86cd86e	-5.646835e-05
36	0x386cdd53	5.647291e-05
37	0xb86cde72	-5.6473953e-05
38	0x386ce298	5.6477817e-05
39	0xb86cde36	-5.6473735e-05
40	0x386cdebc	5.6474222e-05
41	0xb86cdf92	-5.6475e-05
42	0x386cd9f7	5.646978e-05
43	0xb86cde72	-5.6473953e-05
44	0x386cde32	5.647372e-05
45	0xb86ce2be	-5.6477955e-05
46	0x386cddf2	5.6473487e-05
47	0xb86cf442	-5.6494267e-05
48	0x386ced0b	5.6487548e-05
49	0xb86cddb2	-5.6473255e-05
50	0x386cd660	5.6466437e-05
51	0x386ce4f8	5.648003e-05
52	0x386ce3bc	5.647888e-05
53	0xb86cd84e	-5.6468234e-05
54	0xb86ce804	-5.6482866e-05
55	0x386ce09a	5.647596e-05
56	0x386cdbe4	5.6471574e-05
57	0x386cddfe	5.647353e-05
58	0x386cef68	5.648975e-05
59	0xb86ce45f	-5.6479472e-05
60	0x386ce2f1	5.647814e-05
61	0xb86cde79	-5.647398e-05
62	0x386cddf2	5.6473487e-05
63	0x378452bb	1.577415e-05
64	0x377686f4	1.4694164e-05
65	0xb8d41790	-0.000101133366
66	0x387046b6	5.7286314e-05
67	0xb87411dc	-5.8190766e-05
68	0x38626900	5.3980388e-05
69	0xb7768860	-1.4694495e-05
70	0x37768860	1.4694495e-05
71	0x37768860	1.4694495e-05
72	0x37768860	1.4694495e-05
73	0xb785075a	-1.5858259e-05
74	0xb8741462	-5.8193116e-05
75	0x3861cc2e	5.3834337e-05
76	0xb77687d8	-1.4694371e-05
77	0xb7768860	-1.4694495e-05
78	0xb86268cc	-5.39802e-05
79	0xb785065a	-1.5857793e-05
80	0x37768860	1.4694495e-05
81	0xb862700e	-5.3986958e-05
82	0xb7768860	-1.4694495e-05
83	0x37768860	1.4694495e-05
84	0xb8703c36	-5.7276535e-05
85	0x3872b2a2	5.786366e-05
86	0xb7768860	-1.4694495e-05
87	0xb77bfa58	-1.50190535e-05
88	0x37768860	1.4694495e-05
89	0x386ef0e4	5.696797e-05
90	0x378453ed	1.5774707e-05
91	0x37768860	1.4694495e-05
92	0xb8d408ed	-0.0001011061
93	0xb7768860	-1.4694495e-05
94	0x37768860	1.4694495e-05
95	0x3779b224	1.4883033e-05
96	0x38705064	5.729533e-05
97	0xb8d408dc	-0.00010110598
98	0x37768860	1.4694495e-05
99	0xb782b000	-1.5579164e-05
100	0xb7768860	-1.4694495e-05
101	0x3784ebc1	1.5845408e-05
102	0xb7768860	-1.4694495e-05
103	0xb782b0f7	-1.5579613e-05
104	0xb7768860	-1.4694495e-05
105	0xb785075a	-1.5858259e-05
106	0xb8704c4c	-5.7291516e-05
107	0xb7768860	-1.4694495e-05
108	0xb783eb71	-1.5726053e-05
109	0x37768860	1.4694495e-05
110	0x3861cc6e	5.383457e-05
111	0xb872ab10	-5.785661e-05
112	0xb872b2b6	-5.7863734e-05
113	0xb8d418ca	-0.00010113565
114	0x3862700e	5.3986958e-05
115	0x3779b110	1.4882782e-05
116	0xb8704dbe	-5.7292862e-05
117	0xb8704d0a	-5.7292207e-05
118	0x386ee99a	5.696118e-05
119	0x3779b29a	1.48831405e-05
120	0xb8d41da8	-0.00010114472
121	0xb86edd77	-5.6949877e-05
122	0x3779b110	1.4882782e-05
123	0x3785041a	1.5856745e-05
124	0xb7850493	-1.5856966e-05
125	0xb7850493	-1.5856966e-05
126	0x39834bb4	0.0002504267
127	0xb8542555	-5.0579507e-05
128	0xb854420a	-5.0606242e-05
129	0x36b7ed30	5.4814373e-06
130	0x36b80748	5.484475e-06
131	0xb9834d24	-0.0002504374
132	0x36b802e0	5.483962e-06
133	0x36b7cd10	5.4776974e-06
134	0x39835085	0.0002504626
135	0xb8542531	-5.0579376e-05
136	0x38542555	5.0579507e-05
137	0x39834c67	0.0002504319
138	0xb85425ee	-5.0580064e-05
139	0x36b808c8	5.4846496e-06
140	0xb9833fee	-0.00025033898
141	0x398330d1	0.00025022638
142	0x3983418d	0.00025035106
143	0x39833f3c	0.0002503338
144	0xb9833fd6	-0.0002503383
145	0x385425b9	5.057987e-05
146	0xb8542531	-5.0579376e-05
147	0x39834183	0.00025035077
148	0x39834c20	0.00025042985
149	0x39835085	0.0002504626
150	0x36b7d020	5.478054e-06
151	0xb8542555	-5.0579507e-05
152	0xb9834142	-0.00025034888
153	0x36b6d9d0	5.4493794e-06
154	0xb9833b52	-0.00025030464
155	0x3983511b	0.00025046695
156	0x39835085	0.0002504626
157	0xb8542603	-5.058014e-05
158	0xb6b807c0	-5.4845295e-06
159	0x3983507b	0.0002504623
160	0xb854189a	-5.056765e-05
161	0xb85a091f	-5.1983745e-05
162	0x3859efce	5.1960167e-05
163	0x39835085	0.0002504626
164	0x39831d8d	0.00025008284
165	0xb9834884	-0.00025040295
166	0x385a16b2	5.1996387e-05
167	0x36b80b58	5.484948e-06
168	0xb8542555	-5.0579507e-05
169	0xb85425d5	-5.0579973e-05
170	0x39833b6b	0.00025030537
171	0x3983497b	0.00025041014
172	0x385425d5	5.0579973e-05
173	0xb8543bc7	-5.060041e-05
174	0xb8542531	-5.0579376e-05
175	0x36b72840	5.4585107e-06
176	0xb98354e9	-0.0002504953
177	0xb6b80b58	-5.484948e-06
178	0xb853a8e7	-5.0463623e-05
179	0x3859cb78	5.1926327e-05
180	0xb9831f00	-0.00025009364
181	0xb9833b34	-0.00025030377
182	0x36b80788	5.484504e-06
183	0x385454f9	5.0623876e-05
184	0x36b754f0	5.463713e-06
185	0x3983418d	0.00025035106
186	0x36b7d140	5.478185e-06
187	0xb9834447	-0.00025037138
188	0xb9835139	-0.00025046783
189	0xb9476862	-0.00019017005
190	0x392d16ae	0.00016507015
191	0x383dedd0	4.528259e-05
192	0xb89b343e	-7.400707e-05
193	0xb94779e8	-0.00019023533
194	0xb8a3239e	-7.77908e-05
195	0xb8403a60	-4.5830733e-05
196	0xb83ee5e0	-4.5513618e-05
197	0x383ee5e0	4.5513618e-05
198	0xb92d1668	-0.00016506913
199	0xb8430af8	-4.650184e-05
200	0x392d17ac	0.00016507384
201	0x3947dcd8	0.0001906039
202	0x39477e02	0.0001902506
203	0xb7cbaee0	-2.4280918e-05
204	0xb6f2e400	-7.2387047e-06
205	0xb8a328e6	-7.7800636e-05
206	0xb947cfbe	-0.00019055509
207	0x3947b5be	0.00019045823
208	0xb8402778	-4.5813125e-05
209	0xb89be15e	-7.432954e-05
210	0xb83eb1d0	-4.546513e-05
211	0xb8a330e1	-7.78155e-05
212	0xb92d1728	-0.00016507192
213	0xb83dc138	-4.524106e-05
214	0x383ee568	4.551318e-05
215	0xb9041bdf	-0.00012598884
216	0x39c31d08	0.00037214928
217	0x392d11a6	0.0001650514
218	0x371d9bd0	9.394207e-06
219	0xb7cbaee0	-2.4280918e-05
220	0xb8a32dc6	-7.780972e-05
221	0xb8a32ec8	-7.7811594e-05
222	0xb71d1d60	-9.364769e-06
223	0x38a32d66	7.780902e-05
224	0x392d12b0	0.00016505527
225	0xb94779a6	-0.00019023436
226	0x38a323b6	7.779097e-05
227	0xb9041bf4	-0.00012598914
228	0x37cbaf40	2.4281093e-05
229	0xb83d5e80	-4.514912e-05
230	0xb71d45e0	-9.374198e-06
231	0x383dfdf8	4.529764e-05
232	0x39477e72	0.00019025223
233	0x38a318f4	7.7770936e-05
234	0x3947b43a	0.00019045259
235	0xb92d1230	-0.00016505341
236	0x38411480	4.6033878e-05
237	0x392d12ae	0.00016505524
238	0x3947b5e0	0.00019045873
239	0x39c341ce	0.00037242327
240	0x38401fb0	4.580588e-05
241	0xb71d1c50	-9.364521e-06
242	0xb6f31000	-7.243827e-06
243	0x371d4110	9.373078e-06
244	0x38a31107	7.775617e-05
245	0x39041c5b	0.00012599064
246	0x38401fd8	4.5806024e-05
247	0x3840d378	4.5973313e-05
248	0xb9041cf2	-0.00012599284
249	0xba251672	-0.0006297595
250	0xb83e05e8	-4.530503e-05
251	0x39c33ef3	0.000372402
252	0x32c25304	2.2622324e-08
253	0x32c4edc9	2.2925535e-08
254	0x32c222f6	2.260047e-08
255	0xb2c62a75	-2.3069541e-08

lays.0.bias f4 [256]
0	0xbd9b61e9	-0.07587034
1	0xbd99fd96	-0.07519071
2	0xbd982dd3	-0.07430615
3	0xbd708397	-0.058719244
4	0xbd87753f	-0.0661416
5	0xbdc50fe2	-0.0962217
6	0xbd4e4000	-0.050354004
7	0xbd4f6afb	-0.050639134
8	0xbdaef6eb	-0.085431896
9	0x3ec2ef09	0.38072994
10	0xbd6d0d5a	-0.05787406
11	0xbdde6465	-0.108589925
12	0xbd8fcc7b	-0.070214234
13	0xbd361549	-0.044453893
14	0xbd6beed1	-0.0576008
15	0xbd773db2	-0.06036157
16	0xbd74c3e6	-0.059757136
17	0xbdb52e7d	-0.088467576
18	0xbdcc69d9	-0.09981126
19	0xbe04ce33	-0.12969284
20	0xbdc08f5d	-0.094023444
21	0xbd63e9b9	-0.055642817
22	0xbe03c4de	-0.12868068
23	0xbded12ed	-0.115758754
24	0xbd8a4073	-0.06750574
25	0xbde92729	-0.11384422
26	0xbd67af97	-0.05656394
27	0xbd60513b	-0.054764967
28	0xbd84e320	-0.06488633
29	0xbda637f4	-0.08116141
30	0xbd4b1cc3	-0.049587976
31	0xbd3fc356	-0.046817146
32	0xbd682e50	-0.056684792
33	0xbdf4e56d	-0.11957822
34	0xbdf7463a	-0.120739415
35	0xbda9a1df	-0.082828276
36	0xbdf63929	-0.12022621
37	0xbd555d58	-0.052090973
38	0xbda36c04	-0.07979587
39	0xbd4bebb6	-0.04978534
40	0xbddc8df0	-0.1076926
41	0xbd610978	-0.05494067
42	0xbd675401	-0.056476597
43	0xbd3974c9	-0.04527739
44	0xbe0ecfd3	-0.13946466
45	0xbdf760d5	-0.12079016
46	0xbd5d926a	-0.05409471
47	0xbd8d445b	-0.068978034
48	0x3e195c62	0.14976647
49	0xbd5b581f	-0.053550836
50	0xbd90fe32	-0.07079734
51	0xbd98a7d6	-0.07453887
52	0x3e972357	0.2951915
53	0xbde3727e	-0.11105822
54	0xbe03c1dc	-0.1286692
55	0xbd8ecbb1	-0.06972445
56	0xbd57d32c	-0.052691624
57	0xbd88baae	-0.06676231
58	0xbd8c3ab1	-0.06847132
59	0xbd4b152d	-0.04958074
60	0xbe045d5e	-0.12926242
61	0xbd29c86e	-0.04145091
62	0x3e918786	0.2842371
63	0xbd7e7be6	-0.062129878
64	0xbdc99724	-0.09843281
65	0xbd9098ad	-0.070603706
66	0xbd89506e	-0.06704794
67	0xbdba0762	-0.090834394
68	0xbda4510b	-0.0802327
69	0xbe0236d9	-0.12716235
70	0xbd9ca36a	-0.07648356
71	0xbd736170	-0.059419096
72	0xbd5fd63e	-0.054647677
73	0x3f66d3c8	0.901669
74	0xbd8d7da3	-0.06908729
75	0xbdfc52eb	-0.12320503
76	0xbd41e77f	-0.047339913
77	0xbd706c06	-0.05869677
78	0xbd84d979	-0.06486792
79	0xbdf1148a	-0.11771496
80	0xbd3ad1fb	-0.04561041
81	0x3f76df75	0.9643472
82	0xbde884b7	-0.11353438
83	0xbde7e9d5	-0.11323897
84	0x3f800fbe	1.0004804
85	0xbd7fe2dc	-0.06247221
86	0xbd4b498e	-0.049630694
87	0xbd555c4d	-0.052089978
88	0xbd7ec466	-0.06219902
89	0xbd858950	-0.06520331
90	0xbd55a9f9	-0.05216405
91	0xbd7321e8	-0.059358507
92	0xbd71f708	-0.059073478
93	0xbd9a20a9	-0.07525761
94	0xbd689919	-0.05678663
95	0xbda10ada	-0.07863398
96	0xbd75f391	-0.060046736
97	0xbd5cabff	-0.053874966
98	0xbd78736e	-0.060656957
99	0x3f802854	1.0012307
100	0xbe114609	-0.14186873
101	0xbd387dc3	-0.04504181
102	0xbd85a31d	-0.06525252
103	0xbdb08796	-0.08619611
104	0xbd7c13df	-0.061542388
105	0xbd4272f4	-0.04747291
106	0xbd8c3281	-0.0684557
107	0xbdadada1	-0.08480383
108	0xbda5e1d2	-0.080997124
109	0xbdbe4a82	-0.09291555
110	0x3e1b4156	0.15161642
111	0xbda6fc6c	-0.081536144
112	0xbd82b708	-0.06382567
113	0xbd5b99c8	-0.053613454
114	0x3e3b8ed2	0.183162
115	0xbd9cac1a	-0.07650013
116	0xbd7db9a2	-0.06194461
117	0xbd8f644d	-0.07001553
118	0xbd839420	-0.06424737
119	0x3ec6ece0	0.38852596
120	0xbda11171	-0.07864655
121	0xbdc1ed20	-0.09469056
122	0xbd9a5b40	-0.07536936
123	0xbd4521c1	-0.048127893
124	0xbd895c45	-0.06707052
125	0xbd813142	-0.06308223
126	0xbd6a948f	-0.057270583
127	0xbdc0f29c	-0.09421274
128	0xbd8cc4a9	-0.068734474
129	0xbd9e0c4e	-0.07717191
130	0xbdc792c7	-0.097447924
131	0x3e7b5674	0.24544698
132	0x3de368b1	0.11103953
133	0xbd6beb2c	-0.057597324
134	0xbd6b72be	-0.057482474
135	0xbdbd8214	-0.09253326
136	0xbd502734	-0.050818637
137	0xbe109115	-0.14117844
138	0x3f734de1	0.9504071
139	0xbd4c4ced	-0.04987805
140	0xbd7ffd78	-0.062497586
141	0xbd8aed5f	-0.06783556
142	0xbd6ba50e	-0.057530455
143	0xbd9f2450	-0.07770598
144	0xbdbfc016	-0.09362809
145	0xbd613ad4	-0.054987743
146	0xbd8f12ee	-0.069860324
147	0x3f6c522a	0.9231287
148	0xbe06aef7	-0.13152681
149	0xbd72cb95	-0.059276182
150	0xbda3f3ae	-0.080054626
151	0xbd581745	-0.052756567
152	0xbdad40f3	-0.08459654
153	0xbd2ddd85	-0.042447586
154	0xbdd9f2a8	-0.10641986
155	0xbd946d22	-0.07247378
156	0xbdf34fe5	-0.11880473
157	0xbd3e1dda	-0.046415187
158	0x3f8b63a1	1.0889779
159	0xbd61c604	-0.055120483
160	0x3ec243ae	0.3794226
161	0xbd77634a	-0.060397424
162	0xbd856370	-0.06513107
163	0xbd1fa84c	-0.03897886
164	0xbd549376	-0.051898442
165	0xbd72aa4b	-0.059244435
166	0x3f73dc89	0.95258385
167	0xbd573ea2	-0.052549966
168	0xbd48183c	-0.048851237
169	0xbd8bfc8e	-0.0683528
170	0xbdb42441	-0.087959774
171	0xbd6c760b	-0.057729762
172	0xbd599b7c	-0.053126797
173	0xbde785f9	-0.1130485
174	0xbd9fb52e	-0.07798229
175	0xbd31ac89	-0.043377433
176	0xbe13976c	-0.14413232
177	0xbdd49da7	-0.10381632
178	0xbd565abc	-0.052332625
179	0xbe18c9c8	-0.14920723
180	0xbdfaac69	-0.12239916
181	0xbd5b5e58	-0.05355677
182	0xbdfd5986	-0.12370591
183	0xbd6f1bd8	-0.058376163
184	0xbde1eddb	-0.110316955
185	0x3ecaf55d	0.39640322
186	0xbe0fcd3f	-0.14043139
187	0xbd85ae69	-0.06527407
188	0xbd66330c	-0.056201026
189	0xbd5773f1	-0.052600805
190	0xbd810139	-0.06299061
191	0xbd875c21	-0.06609369
192	0xbd585b2d	-0.052821327
193	0xbdcb6f77	-0.099333696
194	0xbd5c4d32	-0.053784557
195	0x3e8ffae2	0.28121096
196	0xbd86ff16	-0.065916225
197	0xbd6779eb	-0.056512754
198	0x3f81798f	1.0115222
199	0xbd645069	-0.055740748
200	0xbd8d7659	-0.06907339
201	0xbdfb7e60	-0.122799635
202	0xbd57008c	-0.052490756
203	0xbdfe57ef	-0.12419116
204	0xbe14bc0b	-0.14524858
205	0xbd75f7e3	-0.060050856
206	0x3f6174c3	0.8806879
207	0xbd8b2e8d	-0.06795988
208	0xbd65c421	-0.056095246
209	0xbdcc4c06	-0.09975438
210	0xbd857bfc	-0.06517789
211	0xbda4c0c5	-0.0804458
212	0xbd7ee229	-0.062227402
213	0xbd9dd2d2	-0.077062264
214	0xbdc2dd43	-0.095148586
215	0xbd4d4b5d	-0.0501207
216	0xbe02a822	-0.1275945
217	0xbd6917a3	-0.056907307
218	0xbdb86b91	-0.09004892
219	0xbd5f9e6c	-0.054594442
220	0xbe0e7a94	-0.13913947
221	0xbd70c15f	-0.058778163
222	0xbd73df19	-0.059538934
223	0xbd547da0	-0.051877618
224	0xbda4967f	-0.08036517
225	0xbd743611	-0.059621874
226	0xbd4fdcc8	-0.050747663
227	0xbd69d8a9	-0.05709139
228	0xbd462de9	-0.048383627
229	0xbdd75106	-0.10513501
230	0xbd82bb98	-0.06383437
231	0xbde31705	-0.11088375
232	0xbd99f1eb	-0.07516845
233	0xbe054e30	-0.13018107
234	0xbd8779ec	-0.066150516
235	0xbd83d61c	-0.064373225
236	0xbdde3b6b	-0.10851177
237	0xbd80f650	-0.062969804
238	0xbd5eda32	-0.054407306
239	0xbdcd5b07	-0.10027128
240	0xbdd8d22e	-0.105869636
241	0xbd97b59a	-0.074076846
242	0xbd949908	-0.07255751
243	0xbd9a3df7	-0.0753135
244	0xbd76115a	-0.06007514
245	0xbde24523	-0.11048343
246	0xbd932196	-0.071841404
247	0xbd8da0a6	-0.06915407
248	0xbd7ed047	-0.062210348
249	0xbda7808b	-0.081788145
250	0xbd87c711	-0.06629766
251	0xbd82ab88	-0.06380373
252	0xbd8a3040	-0.06747484
253	0xbe160cc5	-0.14653309
254	0xbd9950bb	-0.07486101
255	0x3f819e97	1.0126523

lays.1.weight f4 [256, 256]
0	0xbb8f9fa9	-0.0043830466
1	0xb8918fec	-6.940946e-05
2	0xb7d36e9f	-2.5204672e-05
3	0x3802016c	3.099574e-05
4	0x3d1c4a66	0.03815689
5	0x38dbe4f2	0.00010485378
6	0xbd5b6c79	-0.053570244
7	0xba8d1ddb	-0.0010766344
8	0xbb21ef1a	-0.0024709166
9	0xbd12d0b1	-0.035843555
10	0x3ce0ed6c	0.027456962
11	0xb81a3430	-3.6765065e-05
12	0xbcc1891d	-0.023624951
13	0x3c40bed8	0.011764251
14	0xbcb5e645	-0.022204528
15	0x3ce0cc92	0.027441297
16	0xbc5d92b3	-0.013523745
17	0x384202e6	4.6255904e-05
18	0xbc808ebb	-0.01569306
19	0xbaa499ab	-0.0012558004
20	0x3cb72656	0.022357147
21	0x3abeacaf	0.0014547313
22	0x38e23dca	0.00010788029
23	0x39062d24	0.00012796052
24	0x39440013	0.00018692044
25	0xbce4e7bf	-0.027942536
26	0xba288079	-0.00064278353
27	0xbc176cde	-0.009242265
28	0x3ca6fbed	0.0203838
29	0x37afd021	2.0958543e-05
30	0x37b447fe	2.1491196e-05
31	0xbca4810a	-0.020081062
32	0xbbff8a7b	-0.0077984906
33	0x3ca1cd27	0.019751145
34	0xbcc02de3	-0.02345938
35	0x3d25fcde	0.040524356
36	0xb8419049	-4.614916e-05
37	0xbd62cef6	-0.055373155
38	0xbcc04672	-0.023471091
39	0xbb8c93bd	-0.0042900727
40	0x37f6c782	2.9418388e-05
41	0x3d1f84e6	0.0389451
42	0xbd2507d8	-0.040290684
43	0x3cf9cfb1	0.030494543
44	0x3c289bbd	0.010291037
45	0xbca404c7	-0.02002181
46	0xbcf13f82	-0.029449228
47	0x3cbfdcdc	0.023420744
48	0xbc0e3708	-0.008680113
49	0xbd2f2f2b	-0.042769592
50	0xbd06e4c2	-0.032933004
51	0xb9577a8d	-0.00020549652
52	0xbd0523fc	-0.03250502
53	0xb983dcdc	-0.0002515082
54	0x39805ed6	0.0002448472
55	0x390e1afe	0.0001355223
56	0xb9d29cc1	-0.00040171112
57	0x3c76b486	0.015057689
58	0x3cd7db63	0.026349729
59	0xbd408185	-0.04699852
60	0xb83ba730	-4.473998e-05
61	0xbc74b52c	-0.014935773
62	0x3ccf0af2	0.025273774
63	0xbd72de52	-0.059294052
64	0x3cff95e4	0.031199403
65	0x3bf2d329	0.007410426
66	0xb99e2356	-0.00030162436
67	0x3925d3e5	0.00015814563
68	0xbb819c9f	-0.0039554383
69	0x3cc32b72	0.023824427
70	0xbb0f1b0e	-0.0021836194
71	0xbd15955f	-0.036519405
72	0x3c85cdda	0.01633351
73	0xbbf331c2	-0.007421703
74	0xb73033c4	-1.050247e-05
75	0x3c746e02	0.014918806
76	0x3cce005c	0.025146656
77	0xbc90bc6e	-0.017667975
78	0xb8d68007	-0.00010228162
79	0x3c2d50cc	0.0105783455
80	0xbca35f93	-0.019943034
81	0xbca3bbe8	-0.019987062
82	0xbd00248f	-0.031284865
83	0x3c589205	0.0132184075
84	0xbce7ca75	-0.028294781
85	0x3c176b1a	0.009241844
86	0xbd13248d	-0.03592353
87	0x39046833	0.00012627318
88	0xbd413e13	-0.04717834
89	0x3a8f6d3c	0.0010942589
90	0xbd128321	-0.035769586
91	0xbcea5f62	-0.028609935
92	0xbd5bb179	-0.053636048
93	0xbc1cf864	-0.009580705
94	0xbc9e2d81	-0.019308807
95	0xb8b9f1fd	-8.866561e-05
96	0x3cc8dfd3	0.02452079
97	0x3cfcf11f	0.030876694
98	0x399ab890	0.0002951068
99	0xbcd555ed	-0.02604195
100	0xbc37b3b8	-0.011212282
101	0xbce230e7	-0.02761121
102	0xb812dff7	-3.5017696e-05
103	0x3cca988d	0.024730945
104	0xb8531f3d	-5.0335413e-05
105	0x3c8c553b	0.017130485
106	0xbd6cd91a	-0.05782423
107	0xbd015349	-0.031573568
108	0x39248c22	0.00015692462
109	0x3ce4ac44	0.027914174
110	0x3cfd50fe	0.03092241
111	0xbd3f1dee	-0.046659403
112	0x3b17db4b	0.002317148
113	0xbbd91932	-0.006625318
114	0xbd0271ce	-0.031846814
115	0xbcab21b1	-0.020890089
116	0x3c8fec2d	0.017568672
117	0x3c5af7a4	0.013364706
118	0xbd4afbff	-0.04955673
119	0xbceb1f75	-0.028701523
120	0xbb80d5f6	-0.003931756
121	0x3cfa1ea5	0.03053219
122	0xbca7c458	-0.020479366
123	0x3cd9100c	0.02649691
124	0xbc0eed39	-0.0087235505
125	0xbba6cfdf	-0.005090698
126	0x3821a186	3.853582e-05
127	0xbd49ba63	-0.049250018
128	0xbc1e0d80	-0.009646773
129	0xbd69b932	-0.05706138
130	0x3c83591a	0.016033698
131	0xbc529589	-0.012853035
132	0xbb85f0f0	-0.00408756
133	0x3954e0cf	0.00020301643
134	0xbca674c2	-0.020319346
135	0xbcf69ee1	-0.030105056
136	0xbc1b7b86	-0.0094898995
137	0x39c09cd5	0.00036737943
138	0xbc623e00	-0.013808727
139	0xbd070baf	-0.032970127
140	0x3c2deaa1	0.010615022
141	0x3bfd726f	0.007734589
142	0x3961ff90	0.00021552877
143	0x3cd214b6	0.025644641
144	0x3ba21281	0.0049460535
145	0xbd0dc4dd	-0.03461157
146	0xbbb9de27	-0.0056722346
147	0xbc841ffc	-0.016128533
148	0x39763f13	0.00023483885
149	0x3c45abb1	0.01206486
150	0xbb81441f	-0.0039448882
151	0xbca5e62c	-0.020251356
152	0x3b876642	0.004132063
153	0xbd3ba457	-0.045811024
154	0xbaa3191c	-0.0012443396
155	0x38c6da19	9.4819996e-05
156	0xbcd575b7	-0.026057107
157	0x3ce07160	0.027397811
158	0x3cd10efa	0.025519837
159	0xbcb8897e	-0.022526499
160	0x3ccf440c	0.025301002
161	0xbd3d7cf9	-0.04626176
162	0xbcc89a43	-0.02448762
163	0x3b98743a	0.004652527
164	0x3c189fb4	0.00931542
165	0x3d2ca60a	0.042150535
166	0xbcd5b3ba	-0.026086677
167	0x3cb9cd81	0.022681
168	0x3d159363	0.036517512
169	0x39882303	0.00025966027
170	0x392c5eb1	0.00016438474
171	0xbcf71f3a	-0.030166257
172	0xb8a9f5f4	-8.10436e-05
173	0x3ca0c10d	0.019623304
174	0xb8b001b8	-8.392654e-05
175	0xbb267233	-0.0025397658
176	0xbcd1062d	-0.02551564
177	0x3be7ef48	0.007078085
178	0x3d02321e	0.031786077
179	0xbc822fbb	-0.0158919
180	0x3afb8568	0.0019189538
181	0xbd17eff0	-0.037094057
182	0x3c3560d5	0.01107045
183	0xba4090b6	-0.00073457824
184	0xb8b5b0e4	-8.663701e-05
185	0xbcef8c82	-0.029241804
186	0xbcff79d7	-0.031186027
187	0x3c642db7	0.013926915
188	0xb8e71fae	-0.00011020839
189	0xbd2017c0	-0.03908515
190	0xbd346056	-0.044037186
191	0xbd372177	-0.04470965
192	0xba8154be	-0.0009867174
193	0x3bb82064	0.0056190956
194	0xbc4a7f17	-0.012359402
195	0xbccc202b	-0.024917683
196	0xbc2334c5	-0.009961312
197	0xba720938	-0.0009232941
198	0xbc985336	-0.018594366
199	0xbbb8316d	-0.0056211264
200	0xbcd64ee2	-0.026160661
201	0xb9b80d72	-0.00035105232
202	0xbd2574df	-0.04039466
203	0x38e6bcd3	0.00011002426
204	0xbcee4ec5	-0.029090295
205	0x3a6eb1df	0.00091054844
206	0x3ca4d574	0.020121314
207	0x3cfadce1	0.030622901
208	0xbcbc6638	-0.02299796
209	0xbc22455c	-0.009904232
210	0xbbc9114f	-0.0061360965
211	0x38d1ee96	0.00010010337
212	0xbd44ab72	-0.048015065
213	0xbd3265cb	-0.04355411
214	0x3ccd74fe	0.0250802
215	0x3d0dc726	0.03461375
216	0x3c075f76	0.008262506
217	0x3cbeecae	0.023306217
218	0x3c355acf	0.011069014
219	0x3d00ede2	0.031476863
220	0xb7ac13a7	-2.051315e-05
221	0xbd06fab2	-0.032953925
222	0xbb02416d	-0.0019875423
223	0x3c061c73	0.008185494
224	0xb902b970	-0.00012466847
225	0x3cf9799e	0.0304535
226	0x3d255df3	0.0403728
227	0x3cbe8421	0.023256363
228	0xbd45da18	-0.048303694
229	0x39d450da	0.0004049603
230	0x3d02fdad	0.031980205
231	0xb92354bf	-0.00015576462
232	0x3cbdc9f3	0.023167586
233	0x3c21107e	0.009830592
234	0xbd74ee41	-0.05979753
235	0x3ad639f2	0.0016344173
236	0xb9d5915e	-0.00040734833
237	0xb86e4e0a	-5.68163e-05
238	0x3cdacea7	0.026709868
239	0xbc7772e1	-0.015103073
240	0x3d0c5af4	0.034266427
241	0x3ce55a5b	0.027997186
242	0x36479e96	2.974562e-06
243	0x3cb40bcd	0.021978283
244	0xbb560ce3	-0.003266149
245	0x39c8f91e	0.0003833258
246	0xbcf40901	-0.02978945
247	0x3d15ade3	0.036542784
248	0xb94f67df	-0.00019779753
249	0xb9037d47	-0.00012539803
250	0xbcb4fd97	-0.022093577
251	0x3c9186d5	0.017764488
252	0xb88ca246	-6.705946e-05
253	0xb821fde5	-3.862185e-05
254	0xbd33694d	-0.043801595
255	0xba307d67	-0.00067325536

lays.1.bias f4 [256]
0	0xbd384617	-0.044988718
1	0xbd87ba9e	-0.06627391
2	0xbd39106d	-0.04518168
3	0xbd4c7881	-0.04991961
4	0xbd8026b1	-0.0625738
5	0xbd13257a	-0.035924412
6	0xbcaefb18	-0.021359965
7	0xbd27885c	-0.040901527
8	0xbcc19096	-0.023628514
9	0xbcdaf3a0	-0.026727498
10	0xbd9921f2	-0.07477178
11	0xb9aac29b	-0.0003256992
12	0xbd58bbce	-0.05291348
13	0xbd3b391e	-0.045708768
14	0xbd5b4839	-0.053535674
15	0xbd3e792a	-0.04650227
16	0xbd9e48d7	-0.07728737
17	0xbdb3623d	-0.08758972
18	0xbda0854c	-0.07837924
19	0xbd90edc0	-0.07076597
20	0xbe092f9e	-0.13397071
21	0xbdb1c45c	-0.08680031
22	0xbd938c66	-0.07204513
23	0xbcc126b1	-0.02357802
24	0xbd906ca6	-0.07051973
25	0xbd399132	-0.045304485
26	0xbd6417f9	-0.055686925
27	0xbd70ce3d	-0.058790434
28	0xbdf50b31	-0.11965025
29	0xbd84bcdc	-0.064813346
30	0xbd6e173b	-0.058127623
31	0xbc332055	-0.0109330015
32	0xbcaa80b1	-0.020813318
33	0x3b7a5174	0.0038195523
34	0xbd3cc68f	-0.046087798
35	0xbdcbc2b2	-0.099492446
36	0xbd67292c	-0.05643575
37	0xbd97d9c8	-0.07414585
38	0xbd4ca04d	-0.049957562
39	0xbd891920	-0.06694245
40	0xbd6c8edf	-0.05775344
41	0xbc039712	-0.008031623
42	0xbd47e1ae	-0.04879921
43	0xbd22dce6	-0.039761446
44	0xbd43551f	-0.0476886
45	0xbd6406a7	-0.055670407
46	0xbd6cd8b1	-0.05782384
47	0xbda906d0	-0.082532525
48	0xbdcce913	-0.10005393
49	0xbd294133	-0.041321944
50	0xbd552086	-0.05203297
51	0xbd0d26d7	-0.03446087
52	0xbd3fd06f	-0.046829637
53	0xbdba42bc	-0.0909476
54	0xbd9dfa99	-0.07713813
55	0xbc8647b6	-0.016391616
56	0xbdb29492	-0.08719744
57	0xbd703640	-0.058645487
58	0xbd3c3827	-0.04595199
59	0xbd545815	-0.051841814
60	0xbdb135b0	-0.08652818
61	0xbd032603	-0.032018673
62	0xbd076b4e	-0.033061318
63	0xbd000fed	-0.031265188
64	0xbd6dd0a3	-0.0580603
65	0xbdd6d1e8	-0.10489255
66	0xbd01f081	-0.031723503
67	0xbdb8c6ec	-0.09022316
68	0xbd513659	-0.05107722
69	0xbd8622bf	-0.06549596
70	0xbdcd6255	-0.10028521
71	0xbd380a3c	-0.044931635
72	0xbd22391b	-0.03960524
73	0xbdb0f651	-0.08640731
74	0xbd89948d	-0.06717787
75	0xbdc6483d	-0.09681747
76	0xbd9be1b9	-0.076114126
77	0xbdadd962	-0.08488728
78	0xbd90b473	-0.07065668
79	0xbd54d7ee	-0.05196374
80	0xbd455b0b	-0.04818253
81	0xbc9ad20a	-0.018898983
82	0xbd61f4e8	-0.0551652
83	0xbcaa82a6	-0.020814251
84	0xbc049dcc	-0.008094262
85	0xbd8e5904	-0.06950572
86	0xbd54ae36	-0.051923953
87	0xbd93a134	-0.072084814
88	0xbd7f0458	-0.062260002
89	0xbdc4384c	-0.0958105
90	0xbd380425	-0.044925828
91	0xbcac917c	-0.021065466
92	0xbddbdaf7	-0.107351236
93	0xbd773563	-0.060353648
94	0xbd6b60ec	-0.05746548
95	0xbd541e01	-0.051786426
96	0xbd659262	-0.056047805
97	0xbd827f2f	-0.063719146
98	0xbdc2fe4a	-0.09521158
99	0xbd5cc845	-0.05390193
100	0xbd36e99a	-0.044656374
101	0xbd27ebf6	-0.040996514
102	0xbd2951d2	-0.041337796
103	0xbcee902e	-0.029121485
104	0xbd0aa07f	-0.033844467
105	0xbd5b7a40	-0.053583384
106	0x3a6fbefa	0.0009145584
107	0xbd824532	-0.06360854
108	0xbcc35890	-0.02384594
109	0xbcb4a780	-0.022052526
110	0xbd49cc8f	-0.049267348
111	0xbdbb72fa	-0.091527894
112	0xbd4e6120	-0.050385594
113	0xbd849866	-0.0647438
114	0xbd35464d	-0.044256497
115	0xbd97e39f	-0.07416462
116	0xbdbf4829	-0.09339935
117	0xbd8f03cf	-0.06983148
118	0xbd5a8cdf	-0.053357
119	0xbd1c00f2	-0.03808684
120	0xbc7ec3ee	-0.015549643
121	0xbd440f7f	-0.04786634
122	0xbde30a5c	-0.1108596
123	0xbdcf1a02	-0.101123825
124	0xbceb3c36	-0.028715234
125	0xbd7d7cd8	-0.06188664
126	0xbce381aa	-0.02777179
127	0xbd367357	-0.04454359
128	0xbd72fa4e	-0.05932074
129	0xbdf10147	-0.11767822
130	0xbcccc5f8	-0.024996743
131	0xbc3836e0	-0.011243552
132	0xbd67132b	-0.056414764
133	0xbdabfdf7	-0.08398049
134	0xbdd92668	-0.106030285
135	0xbd77c5d0	-0.060491383
136	0xbd6f6484	-0.05844547
137	0xbda35668	-0.07975465
138	0xbca0491d	-0.019566113
139	0xbd90e358	-0.070746124
140	0xbce31a24	-0.027722426
141	0xbd2a9bc6	-0.041652463
142	0xbd77e499	-0.060520742
143	0xbd3a419c	-0.045472726
144	0xbdb612b5	-0.08890287
145	0xbcd1e7d9	-0.025623249
146	0x3b48af28	0.003062198
147	0xbd48b15f	-0.04899728
148	0xbd26aa37	-0.040689673
149	0xbda46720	-0.08027482
150	0xbc38b9f3	-0.0112748025
151	0xbd9bb29a	-0.07602425
152	0xbbcccc5f	-0.006249949
153	0xbd7cac1a	-0.061687566
154	0xbd009e12	-0.031400748
155	0xbc90f811	-0.017696412
156	0xbd8c555b	-0.06852218
157	0xbd52f6b7	-0.051504817
158	0xbd2223c2	-0.039584883
159	0xbd945b5f	-0.0724399
160	0xbd00d54c	-0.031453416
161	0xbd719653	-0.05898125
162	0xbd451a82	-0.048120983
163	0xbd75622b	-0.059908073
164	0xbd0d94af	-0.034565624
165	0xbd45af21	-0.04826272
166	0xbd89efcf	-0.06735193
167	0xbceecfc3	-0.029151803
168	0xbd0220be	-0.031769507
169	0xbd452eca	-0.048140325
170	0xbd11811d	-0.035523523
171	0xbd24d82c	-0.04024522
172	0xbd578dcf	-0.052625474
173	0xbd7e399e	-0.062066667
174	0xbd085ea9	-0.0332934
175	0xbd212207	-0.03933909
176	0xbdb4716d	-0.08810697
177	0xbcc85d97	-0.02445869
178	0xbd644929	-0.055733833
179	0xbd83d0ee	-0.064363346
180	0xbd11a04e	-0.03555327
181	0xbd66b22e	-0.05632227
182	0xbd45b7b5	-0.0482709
183	0xbd976541	-0.073923595
184	0xbd8c62d6	-0.06854789
185	0xbdd4062d	-0.103527404
186	0xbd66ed2e	-0.056378536
187	0xbd16ce05	-0.03681757
188	0xbd8d206c	-0.068909496
189	0xbd5ce1f0	-0.05392641
190	0xbd82d1cd	-0.063876726
191	0xbca5be82	-0.020232443
192	0xbd7ee3f6	-0.06222912
193	0xbd21a73b	-0.039466124
194	0xbd92dc4e	-0.07170926
195	0xbdeccd31	-0.11562575
196	0xbd65ef06	-0.056136154
197	0xbd8268b4	-0.06367627
198	0xbda8e979	-0.082476564
199	0xbd20051c	-0.039067373
200	0xbc62b77a	-0.0138376895
201	0xbd242141	-0.040070776
202	0xbd6ccbd0	-0.05781156
203	0xbcb6e720	-0.022327006
204	0xbd070525	-0.03296389
205	0xbcab2528	-0.02089174
206	0xbdd26891	-0.10273851
207	0xbd9e46f8	-0.0772838
208	0xbd2b3a19	-0.041803453
209	0xbd9d8483	-0.0769129
210	0xbc818c5e	-0.015814003
211	0xbc96bb01	-0.018399717
212	0xbd987645	-0.07444433
213	0xbd6a610d	-0.05722146
214	0xbd2b1ef9	-0.041777585
215	0xbd14dd14	-0.03634365
216	0x3b2d1353	0.0026409223
217	0xbd547b0b	-0.051875155
218	0xb9b6bc6c	-0.0003485413
219	0xbda2424a	-0.079228
220	0xbd911649	-0.07084329
221	0xbd87972a	-0.06620629
222	0xbd4f26b0	-0.050574005
223	0x3f81da22	1.0144694
224	0xbd474d07	-0.048657443
225	0xbdbfab00	-0.093587875
226	0xbd3117b5	-0.0432355
227	0xbd1700c5	-0.03686597
228	0x3c44f7d1	0.012021975
229	0xbda83e69	-0.08215029
230	0xbd6ff936	-0.058587275
231	0xbd38ada9	-0.04508749
232	0xbd6b595f	-0.057458278
233	0xbd5b6783	-0.053565513
234	0xbd707be3	-0.058711898
235	0xbd3eda57	-0.046594944
236	0xbcedb8bf	-0.029018758
237	0xbd7c8bb9	-0.061656687
238	0xbdb72d1e	-0.08944152
239	0xbd6cef98	-0.057845682
240	0xbda8ae4f	-0.08236372
241	0xbcd05722	-0.025432173
242	0xbda20828	-0.07911712
243	0xbd3f93f0	-0.046771944
244	0xbd6be8ca	-0.05759505
245	0xbd8466d0	-0.064649224
246	0xbd22be63	-0.03973235
247	0xbd7ffc16	-0.062496267
248	0xbd504fe0	-0.050857425
249	0xbdd4a1ae	-0.103824005
250	0xbd2d4f01	-0.042311672
251	0xbd1aa732	-0.037757106
252	0xbd975595	-0.0738937
253	0xbd9a5b85	-0.07536987
254	0xbd2b6090	-0.041840136
255	0xbd6a3012	-0.05717475

lays.2.weight f4 [2, 256]
0	0xbcd87980	-0.026425123
1	0x3af0cba9	0.0018371242
2	0x3bfcbba0	0.0077127963
3	0xb8d9860d	-0.00010372335
4	0x3d37f3d2	0.04491026
5	0xbbbc602b	-0.005748769
6	0x3b16fec6	0.002304004
7	0xbb7a25ab	-0.0038169425
8	0x39461e7d	0.00018894109
9	0xbb2dfc63	-0.002654814
10	0xbcd0ef11	-0.02550462
11	0x3707f6bf	8.104077e-06
12	0xbb376a61	-0.002798699
13	0xbd0912ac	-0.033465073
14	0xbb3d7278	-0.002890734
15	0xbc2df409	-0.010617265
16	0x3a19e065	0.0005869924
17	0xbb072b11	-0.0020625035
18	0xbc9c06ff	-0.019046305
19	0x3b5950ff	0.003315985
20	0xbb8d0b5d	-0.004304333
21	0x3c95523f	0.018227695
22	0x3a6fd7b8	0.0009149271
23	0xbab0cfe9	-0.0013489696
24	0xbc2d507d	-0.010578272
25	0x3c8bd008	0.01706697
26	0xbc741ba0	-0.014899164
27	0x3cb7cfb6	0.022437911
28	0x3d015f29	0.031584892
29	0xbc078c73	-0.008273232
30	0xbbfa92c8	-0.007646892
31	0x3cfa2ac1	0.030537965
32	0xbbaa3e2b	-0.0051953993
33	0x3a6cd81b	0.0009034888
34	0x3c3c5ae8	0.011496283
35	0xbd07720a	-0.03306774
36	0xbb889b24	-0.004168885
37	0xbb1e1085	-0.0024118733
38	0x3cbba80e	0.022907283
39	0xbc3d97ea	-0.011571864
40	0x3c1c3586	0.009534245
41	0x375a85bf	1.3024953e-05
42	0xbb00c233	-0.0019647002
43	0x3ca532a0	0.020165741
44	0x3b6ff466	0.0036614179
45	0x3c599de5	0.013282274
46	0xbc2f80e3	-0.010711881
47	0x3b28fb86	0.0025784685
48	0x3abc5f39	0.001437164
49	0x3d0f72eb	0.035021704
50	0x3a817097	0.0009875473
51	0x3b2fc3c0	0.0026819557
52	0xbc12f1ec	-0.0089688115
53	0xbc946570	-0.018114775
54	0x3ba95617	0.0051677334
55	0xbba474dc	-0.0050188135
56	0xbc7b8970	-0.015352592
57	0x3c5ec046	0.013595646
58	0xbcc3c003	-0.02389527
59	0xbccfa79d	-0.025348479
60	0x3cb5bfa7	0.022186114
61	0xbb7f6b29	-0.0038973785
62	0x3b33944f	0.0027401631
63	0xbbcbfb26	-0.0062250076
64	0x3cebcf03	0.028785234
65	0xbc8d1610	-0.017222434
66	0x3c545fc3	0.0129622845
67	0xbcb1dbb1	-0.021711202
68	0x3c876148	0.01652588
69	0x3c1d7169	0.009609559
70	0x3c9414d7	0.018076343
71	0xbafcd529	-0.0019289601
72	0xbc0a8891	-0.0084554115
73	0x3d4737c8	0.04863718
74	0x3d2ef1b4	0.042710975
75	0x3cfbba65	0.030728528
76	0x389bf13b	7.4359086e-05
77	0xbcd347c2	-0.025791053
78	0x3c796b61	0.015223355
79	0x3b6a0e1f	0.0035713983
80	0xbb141742	-0.002259687
81	0xbcf1b31b	-0.02950435
82	0xbccf1eec	-0.0252833
83	0x3bed5c72	0.0072436864
84	0xbbb7ea88	-0.005612675
85	0xbcde7ce9	-0.027159171
86	0x3c259763	0.010106894
87	0x3c12b9a9	0.008955398
88	0x3bfc4993	0.0076992004
89	0x3c9e737a	0.019342173
90	0xbd18098b	-0.037118476
91	0x3c23a190	0.00998725
92	0x3ccdb40c	0.025110267
93	0xba39b388	-0.0007083942
94	0x3ca0dfcf	0.01963797
95	0x3b8b30cc	0.0042477604
96	0x3c0773e7	0.008267379
97	0x3c115e6c	0.00887261
98	0xbc24fa5c	-0.010069456
99	0x3c48456c	0.012223583
100	0xba696fa3	-0.000890488
101	0x3c89999e	0.016796883
102	0x3c79a75b	0.015237655
103	0x3a7ed490	0.00097210053
104	0xbb3fd644	-0.0029272
105	0xbbadcd8c	-0.005304044
106	0xbd2d4da8	-0.042310387
107	0x3cdae483	0.026720291
108	0x3bc87602	0.0061175833
109	0x3cbbaed4	0.022910513
110	0x3c9a8316	0.018861335
111	0x3ca683d6	0.020326536
112	0x3cd73a8c	0.026273035
113	0xbd05c3d3	-0.032657456
114	0x3c312dcd	0.010814142
115	0x3c565e29	0.013083973
116	0xbc024f15	-0.007953425
117	0x3cca202b	0.024673542
118	0x3b905380	0.004404485
119	0x3ce1b373	0.027551388
120	0x3b4d040c	0.003128293
121	0x3c09c049	0.008407661
122	0x3c1dc289	0.0096289
123	0x3cf225c0	0.029559016
124	0xbcea8adb	-0.028630665
125	0x3d204826	0.039131306
126	0x3aa7577b	0.001276716
127	0xbccbfba1	-0.02490026
128	0xbd243506	-0.04008963
129	0xbcc41260	-0.023934543
130	0x3b88fc9c	0.004180504
131	0xbcdbd6cf	-0.026835827
132	0x3c8b9960	0.017040908
133	0xbc5fda57	-0.013662896
134	0x3baf15d5	0.0053431788
135	0xbc0521d7	-0.008125744
136	0x3c8edd21	0.017439427
137	0xbc8f2d23	-0.017477578
138	0xbc04b5e9	-0.008100011
139	0x3ab158d3	0.00135305
140	0xbbcb457f	-0.006203353
141	0xbd357786	-0.04430344
142	0x3cc49d6d	0.024000848
143	0x3c5bc3e9	0.013413408
144	0xbcae1e04	-0.021254547
145	0xbcf242cb	-0.029572865
146	0x388fe4be	6.861378e-05
147	0xbcafa0a7	-0.02143891
148	0xbbc67a62	-0.0060570696
149	0xbcf6da03	-0.030133253
150	0x3ccc4c8e	0.024938848
151	0xbcb677f3	-0.022273993
152	0xbd154be4	-0.036449328
153	0xbd137845	-0.03600337
154	0x3a198e10	0.0005857656
155	0xb733dedb	-1.0721119e-05
156	0x3abd72c7	0.0014453762
157	0x3cb84a73	0.022496438
158	0x3ba6babc	0.0050881784
159	0x3c8721e2	0.016495649
160	0xbab557a1	-0.001383532
161	0xbb5669a3	-0.0032716773
162	0x3c53c8fe	0.012926338
163	0xbbe28408	-0.006912712
164	0xb735d750	-1.0838572e-05
165	0x3cb4e943	0.022083884
166	0x3cb14c16	0.021642726
167	0x38067e5a	3.2065764e-05
168	0x3b9c3fb0	0.0047683343
169	0x3b7f6504	0.0038970122
170	0x3b8c2c01	0.0042777066
171	0x3a171fb5	0.00057649176
172	0x3b9422f8	0.00452077
173	0xbd0d3bae	-0.034480743
174	0x3ccb69fd	0.024830813
175	0x3b60beab	0.0034293334
176	0xbc4be53f	-0.012444793
177	0xbceb17a7	-0.028697802
178	0x3bcd5208	0.0062658824
179	0x3cf5b9d0	0.029995829
180	0x3a418592	0.0007382269
181	0x3cd492d6	0.025948923
182	0x3a3a531f	0.0007107723
183	0xbae99dcf	-0.001782352
184	0xbc1252d4	-0.008930881
185	0x3d41a866	0.047279738
186	0x3bf5a557	0.0074965167
187	0xbc3d582d	-0.011556667
188	0x3d423a26	0.047418736
189	0x3b9d9e94	0.0048101638
190	0x3c4bd8bb	0.012441809
191	0x3bc8ecc3	0.00613174
192	0x3ba9f9ea	0.005187263
193	0x3ada43bf	0.001665227
194	0x3bc3a8eb	0.0059710643
195	0xbb6679f4	-0.0035167905
196	0xbc6e633e	-0.014550028
197	0xbc9a9342	-0.018869046
198	0x3d3e5560	0.04646814
199	0x3acd7ba6	0.0015677109
200	0x3cfb90a0	0.030708611
201	0x3d22d6b5	0.03975554
202	0x3c3b3706	0.011426693
203	0x3c236780	0.009973407
204	0x3b82fbf8	0.003997322
205	0x3acc2e64	0.001557779
206	0xbc4d7813	-0.012540835
207	0x3ca3259a	0.01991539
208	0xbc7b5970	-0.015341148
209	0xbbddcf59	-0.0067691025
210	0x3a802166	0.0009775579
211	0xbad72db5	-0.001641682
212	0x3c99855c	0.018740349
213	0x3c9187dd	0.01776498
214	0xba2cf159	-0.0006597243
215	0x3b8a2fa7	0.0042171064
216	0x3c9bc897	0.019016547
217	0x3bc7655f	0.0060850824
218	0x38ff6a2a	0.00012179122
219	0xbc5ea73b	-0.013589676
220	0xbcb65228	-0.022255972
221	0x3c5b16d4	0.013372142
222	0x3c09f2b3	0.00841968
223	0xb9ddf87b	-0.00042337537
224	0x3c7c0416	0.015381834
225	0xbb07d71f	-0.0020727587
226	0xbc2a5d3f	-0.010398208
227	0xbadb86e7	-0.0016748578
228	0x3ceccf6c	0.0289075
229	0xbc45cbd2	-0.01207252
230	0x3c8d8bbf	0.01727855
231	0x3d0e3bbc	0.034724936
232	0x3d19e985	0.037576217
233	0x398d3ba9	0.00026938066
234	0xbcebf7b0	-0.02880463
235	0xbb91c277	-0.004448231
236	0xba39a18e	-0.00070812635
237	0x3c1816e2	0.009282799
238	0xbb9c31b7	-0.0047666687
239	0x3cfe1de6	0.031020116
240	0xba2681c5	-0.00063517346
241	0xbc4b86bc	-0.01242226
242	0xbcf2d490	-0.029642373
243	0xbb2f6c4a	-0.0026767426
244	0xbb95b595	-0.0045687654
245	0x3b8ccf65	0.0042971843
246	0x3b8c1d6e	0.004275969
247	0x3c92f8f1	0.01794097
248	0xbc08cdb2	-0.008349823
249	0x3c086c8d	0.008326662
250	0x3c1d9b5c	0.00961956
251	0xbba53f6b	-0.0050429604
252	0x3cb9fdeb	0.022704085
253	0xbd19de94	-0.037565783
254	0x3c15fa9b	0.009153987
255	0xbc9c078c	-0.019046567

lays.2.bias f4 [2]
0	0x3f4b9c75	0.7953561
1	0xbf43f787	-0.7654957

l1.weight f4 [256, 63]
0	0xb86ce16b	-5.647672e-05
1	0x386ce2f2	5.6478144e-05
2	0xb86cdd7e	-5.6473065e-05
3	0x386ce30a	5.647823e-05
4	0x386cd750	5.646731e-05
5	0x386ce064	5.6475765e-05
6	0x386cdd72	5.647302e-05
7	0xb86ce13e	-5.6476558e-05
8	0xb86cde72	-5.6473953e-05
9	0x386cde72	5.6473953e-05
10	0x386cde72	5.6473953e-05
11	0xb86cde72	-5.6473953e-05
12	0x386cd832	5.6468132e-05
13	0xb86cdd72	-5.647302e-05
14	0x386cdbdf	5.6471556e-05
15	0xb86cdd31	-5.6472785e-05
16	0x386cdae0	5.6470628e-05
17	0xb86ce1ea	-5.6477184e-05
18	0xb86cdd63	-5.6472967e-05
19	0xb86cde72	-5.6473953e-05
20	0xb86ce2b2	-5.647791e-05
21	0x386ce4e9	5.6479974e-05
22	0x386cd87a	5.6468394e-05
23	0xb86cdac4	-5.6470526e-05
24	0x386cd914	5.6468954e-05
25	0x386cdddf	5.647342e-05
26	0xb86ce0c4	-5.6476114e-05
27	0xb86cd832	-5.6468132e-05
28	0xb86cde72	-5.6473953e-05
29	0xb86cdbd6	-5.6471523e-05
30	0x386cde72	5.6473953e-05
31	0x386ce48e	5.6479643e-05
32	0xb86ce51f	-5.648017e-05
33	0x386ce2c6	5.6477984e-05
34	0xb86cd9b2	-5.646953e-05
35	0xb86cd86e	-5.646835e-05
36	0x386cdd53	5.647291e-05
37	0xb86cde72	-5.6473953e-05
38	0x386ce298	5.6477817e-05
39	0xb86cde36	-5.6473735e-05
40	0x386cdebc	5.6474222e-05
41	0xb86cdf92	-5.6475e-05
42	0x386cd9f7	5.646978e-05
43	0xb86cde72	-5.6473953e-05
44	0x386cde32	5.647372e-05
45	0xb86ce2be	-5.6477955e-05
46	0x386cddf2	5.6473487e-05
47	0xb86cf442	-5.6494267e-05
48	0x386ced0b	5.6487548e-05
49	0xb86cddb2	-5.6473255e-05
50	0x386cd660	5.6466437e-05
51	0x386ce4f8	5.648003e-05
52	0x386ce3bc	5.647888e-05
53	0xb86cd84e	-5.6468234e-05
54	0xb86ce804	-5.6482866e-05
55	0x386ce09a	5.647596e-05
56	0x386cdbe4	5.6471574e-05
57	0x386cddfe	5.647353e-05
58	0x386cef68	5.648975e-05
59	0xb86ce45f	-5.6479472e-05
60	0x386ce2f1	5.647814e-05
61	0xb86cde79	-5.647398e-05
62	0x386cddf2	5.6473487e-05
63	0x378452bb	1.577415e-05
64	0x377686f4	1.4694164e-05
65	0xb8d41790	-0.000101133366
66	0x387046b6	5.7286314e-05
67	0xb87411dc	-5.8190766e-05
68	0x38626900	5.3980388e-05
69	0xb7768860	-1.4694495e-05
70	0x37768860	1.4694495e-05
71	0x37768860	1.4694495e-05
72	0x37768860	1.4694495e-05
73	0xb785075a	-1.5858259e-05
74	0xb8741462	-5.8193116e-05
75	0x3861cc2e	5.3834337e-05
76	0xb77687d8	-1.4694371e-05
77	0xb7768860	-1.4694495e-05
78	0xb86268cc	-5.39802e-05
79	0xb785065a	-1.5857793e-05
80	0x37768860	1.4694495e-05
81	0xb862700e	-5.3986958e-05
82	0xb7768860	-1.4694495e-05
83	0x37768860	1.4694495e-05
84	0xb8703c36	-5.7276535e-05
85	0x3872b2a2	5.786366e-05
86	0xb7768860	-1.4694495e-05
87	0xb77bfa58	-1.50190535e-05
88	0x37768860	1.4694495e-05
89	0x386ef0e4	5.696797e-05
90	0x378453ed	1.5774707e-05
91	0x37768860	1.4694495e-05
92	0xb8d408ed	-0.0001011061
93	0xb7768860	-1.4694495e-05
94	0x37768860	1.4694495e-05
95	0x3779b224	1.4883033e-05
96	0x38705064	5.729533e-05
97	0xb8d408dc	-0.00010110598
98	0x37768860	1.4694495e-05
99	0xb782b000	-1.5579164e-05
100	0xb7768860	-1.4694495e-05
101	0x3784ebc1	1.5845408e-05
102	0xb7768860	-1.4694495e-05
103	0xb782b0f7	-1.5579613e-05
104	0xb7768860	-1.4694495e-05
105	0xb785075a	-1.5858259e-05
106	0xb8704c4c	-5.7291516e-05
107	0xb7768860	-1.4694495e-05
108	0xb783eb71	-1.5726053e-05
109	0x37768860	1.4694495e-05
110	0x3861cc6e	5.383457e-05
111	0xb872ab10	-5.785661e-05
112	0xb872b2b6	-5.7863734e-05
113	0xb8d418ca	-0.00010113565
114	0x3862700e	5.3986958e-05
115	0x3779b110	1.4882782e-05
116	0xb8704dbe	-5.7292862e-05
117	0xb8704d0a	-5.7292207e-05
118	0x386ee99a	5.696118e-05
119	0x3779b29a	1.48831405e-05
120	0xb8d41da8	-0.00010114472
121	0xb86edd77	-5.6949877e-05
122	0x3779b110	1.4882782e-05
123	0x3785041a	1.5856745e-05
124	0xb7850493	-1.5856966e-05
125	0xb7850493	-1.5856966e-05
126	0x39834bb4	0.0002504267
127	0xb8542555	-5.0579507e-05
128	0xb854420a	-5.0606242e-05
129	0x36b7ed30	5.4814373e-06
130	0x36b80748	5.484475e-06
131	0xb9834d24	-0.0002504374
132	0x36b802e0	5.483962e-06
133	0x36b7cd10	5.4776974e-06
134	0x39835085	0.0002504626
135	0xb8542531	-5.0579376e-05
136	0x38542555	5.0579507e-05
137	0x39834c67	0.0002504319
138	0xb85425ee	-5.0580064e-05
139	0x36b808c8	5.4846496e-06
140	0xb9833fee	-0.00025033898
141	0x398330d1	0.00025022638
142	0x3983418d	0.00025035106
143	0x39833f3c	0.0002503338
144	0xb9833fd6	-0.0002503383
145	0x385425b9	5.057987e-05
146	0xb8542531	-5.0579376e-05
147	0x39834183	0.00025035077
148	0x39834c20	0.00025042985
149	0x39835085	0.0002504626
150	0x36b7d020	5.478054e-06
151	0xb8542555	-5.0579507e-05
152	0xb9834142	-0.00025034888
153	0x36b6d9d0	5.4493794e-06
154	0xb9833b52	-0.00025030464
155	0x3983511b	0.00025046695
156	0x39835085	0.0002504626
157	0xb8542603	-5.058014e-05
158	0xb6b807c0	-5.4845295e-06
159	0x3983507b	0.0002504623
160	0xb854189a	-5.056765e-05
161	0xb85a091f	-5.1983745e-05
162	0x3859efce	5.1960167e-05
163	0x39835085	0.0002504626
164	0x39831d8d	0.00025008284
165	0xb9834884	-0.00025040295
166	0x385a16b2	5.1996387e-05
167	0x36b80b58	5.484948e-06
168	0xb8542555	-5.0579507e-05
169	0xb85425d5	-5.0579973e-05
170	0x39833b6b	0.00025030537
171	0x3983497b	0.00025041014
172	0x385425d5	5.0579973e-05
173	0xb8543bc7	-5.060041e-05
174	0xb8542531	-5.0579376e-05
175	0x36b72840	5.4585107e-06
176	0xb98354e9	-0.0002504953
177	0xb6b80b58	-5.484948e-06
178	0xb853a8e7	-5.0463623e-05
179	0x3859cb78	5.1926327e-05
180	0xb9831f00	-0.00025009364
181	0xb9833b34	-0.00025030377
182	0x36b80788	5.484504e-06
183	0x385454f9	5.0623876e-05
184	0x36b754f0	5.463713e-06
185	0x3983418d	0.00025035106
186	0x36b7d140	5.478185e-06
187	0xb9834447	-0.00025037138
188	0xb9835139	-0.00025046783
189	0xb9476862	-0.00019017005
190	0x392d16ae	0.00016507015
191	0x383dedd0	4.528259e-05
192	0xb89b343e	-7.400707e-05
193	0xb94779e8	-0.00019023533
194	0xb8a3239e	-7.77908e-05
195	0xb8403a60	-4.5830733e-05
196	0xb83ee5e0	-4.5513618e-05
197	0x383ee5e0	4.5513618e-05
198	0xb92d1668	-0.00016506913
199	0xb8430af8	-4.650184e-05
200	0x392d17ac	0.00016507384
201	0x3947dcd8	0.0001906039
202	0x39477e02	0.0001902506
203	0xb7cbaee0	-2.4280918e-05
204	0xb6f2e400	-7.2387047e-06
205	0xb8a328e6	-7.7800636e-05
206	0xb947cfbe	-0.00019055509
207	0x3947b5be	0.00019045823
208	0xb8402778	-4.5813125e-05
209	0xb89be15e	-7.432954e-05
210	0xb83eb1d0	-4.546513e-05
211	0xb8a330e1	-7.78155e-05
212	0xb92d1728	-0.00016507192
213	0xb83dc138	-4.524106e-05
214	0x383ee568	4.551318e-05
215	0xb9041bdf	-0.00012598884
216	0x39c31d08	0.00037214928
217	0x392d11a6	0.0001650514
218	0x371d9bd0	9.394207e-06
219	0xb7cbaee0	-2.4280918e-05
220	0xb8a32dc6	-7.780972e-05
221	0xb8a32ec8	-7.7811594e-05
222	0xb71d1d60	-9.364769e-06
223	0x38a32d66	7.780902e-05
224	0x392d12b0	0.00016505527
225	0xb94779a6	-0.00019023436
226	0x38a323b6	7.779097e-05
227	0xb9041bf4	-0.00012598914
228	0x37cbaf40	2.4281093e-05
229	0xb83d5e80	-4.514912e-05
230	0xb71d45e0	-9.374198e-06
231	0x383dfdf8	4.529764e-05
232	0x39477e72	0.00019025223
233	0x38a318f4	7.7770936e-05
234	0x3947b43a	0.00019045259
235	0xb92d1230	-0.00016505341
236	0x38411480	4.6033878e-05
237	0x392d12ae	0.00016505524
238	0x3947b5e0	0.00019045873
239	0x39c341ce	0.00037242327
240	0x38401fb0	4.580588e-05
241	0xb71d1c50	-9.364521e-06
242	0xb6f31000	-7.243827e-06
243	0x371d4110	9.373078e-06
244	0x38a31107	7.775617e-05
245	0x39041c5b	0.00012599064
246	0x38401fd8	4.5806024e-05
247	0x3840d378	4.5973313e-05
248	0xb9041cf2	-0.00012599284
249	0xba251672	-0.0006297595
250	0xb83e05e8	-4.530503e-05
251	0x39c33ef3	0.000372402
252	0x32c25304	2.2622324e-08
253	0x32c4edc9	2.2925535e-08
254	0x32c222f6	2.260047e-08
255	0xb2c62a75	-2.3069541e-08

l1.bias f4 [256]
0	0xbd9b61e9	-0.07587034
1	0xbd99fd96	-0.07519071
2	0xbd982dd3	-0.07430615
3	0xbd708397	-0.058719244
4	0xbd87753f	-0.0661416
5	0xbdc50fe2	-0.0962217
6	0xbd4e4000	-0.050354004
7	0xbd4f6afb	-0.050639134
8	0xbdaef6eb	-0.085431896
9	0x3ec2ef09	0.38072994
10	0xbd6d0d5a	-0.05787406
11	0xbdde6465	-0.108589925
12	0xbd8fcc7b	-0.070214234
13	0xbd361549	-0.044453893
14	0xbd6beed1	-0.0576008
15	0xbd773db2	-0.06036157
16	0xbd74c3e6	-0.059757136
17	0xbdb52e7d	-0.088467576
18	0xbdcc69d9	-0.09981126
19	0xbe04ce33	-0.12969284
20	0xbdc08f5d	-0.094023444
21	0xbd63e9b9	-0.055642817
22	0xbe03c4de	-0.12868068
23	0xbded12ed	-0.115758754
24	0xbd8a4073	-0.06750574
25	0xbde92729	-0.11384422
26	0xbd67af97	-0.05656394
27	0xbd60513b	-0.054764967
28	0xbd84e320	-0.06488633
29	0xbda637f4	-0.08116141
30	0xbd4b1cc3	-0.049587976
31	0xbd3fc356	-0.046817146
32	0xbd682e50	-0.056684792
33	0xbdf4e56d	-0.11957822
34	0xbdf7463a	-0.120739415
35	0xbda9a1df	-0.082828276
36	0xbdf63929	-0.12022621
37	0xbd555d58	-0.052090973
38	0xbda36c04	-0.07979587
39	0xbd4bebb6	-0.04978534
40	0xbddc8df0	-0.1076926
41	0xbd610978	-0.05494067
42	0xbd675401	-0.056476597
43	0xbd3974c9	-0.04527739
44	0xbe0ecfd3	-0.13946466
45	0xbdf760d5	-0.12079016
46	0xbd5d926a	-0.05409471
47	0xbd8d445b	-0.068978034
48	0x3e195c62	0.14976647
49	0xbd5b581f	-0.053550836
50	0xbd90fe32	-0.07079734
51	0xbd98a7d6	-0.07453887
52	0x3e972357	0.2951915
53	0xbde3727e	-0.11105822
54	0xbe03c1dc	-0.1286692
55	0xbd8ecbb1	-0.06972445
56	0xbd57d32c	-0.052691624
57	0xbd88baae	-0.06676231
58	0xbd8c3ab1	-0.06847132
59	0xbd4b152d	-0.04958074
60	0xbe045d5e	-0.12926242
61	0xbd29c86e	-0.04145091
62	0x3e918786	0.2842371
63	0xbd7e7be6	-0.062129878
64	0xbdc99724	-0.09843281
65	0xbd9098ad	-0.070603706
66	0xbd89506e	-0.06704794
67	0xbdba0762	-0.090834394
68	0xbda4510b	-0.0802327
69	0xbe0236d9	-0.12716235
70	0xbd9ca36a	-0.07648356
71	0xbd736170	-0.059419096
72	0xbd5fd63e	-0.054647677
73	0x3f66d3c8	0.901669
74	0xbd8d7da3	-0.06908729
75	0xbdfc52eb	-0.12320503
76	0xbd41e77f	-0.047339913
77	0xbd706c06	-0.05869677
78	0xbd84d979	-0.06486792
79	0xbdf1148a	-0.11771496
80	0xbd3ad1fb	-0.04561041
81	0x3f76df75	0.9643472
82	0xbde884b7	-0.11353438
83	0xbde7e9d5	-0.11323897
84	0x3f800fbe	1.0004804
85	0xbd7fe2dc	-0.06247221
86	0xbd4b498e	-0.049630694
87	0xbd555c4d	-0.052089978
88	0xbd7ec466	-0.06219902
89	0xbd858950	-0.06520331
90	0xbd55a9f9	-0.05216405
91	0xbd7321e8	-0.059358507
92	0xbd71f708	-0.059073478
93	0xbd9a20a9	-0.07525761
94	0xbd689919	-0.05678663
95	0xbda10ada	-0.07863398
96	0xbd75f391	-0.060046736
97	0xbd5cabff	-0.053874966
98	0xbd78736e	-0.060656957
99	0x3f802854	1.0012307
100	0xbe114609	-0.14186873
101	0xbd387dc3	-0.04504181
102	0xbd85a31d	-0.06525252
103	0xbdb08796	-0.08619611
104	0xbd7c13df	-0.061542388
105	0xbd4272f4	-0.04747291
106	0xbd8c3281	-0.0684557
107	0xbdadada1	-0.08480383
108	0xbda5e1d2	-0.080997124
109	0xbdbe4a82	-0.09291555
110	0x3e1b4156	0.15161642
111	0xbda6fc6c	-0.081536144
112	0xbd82b708	-0.06382567
113	0xbd5b99c8	-0.053613454
114	0x3e3b8ed2	0.183162
115	0xbd9cac1a	-0.07650013
116	0xbd7db9a2	-0.06194461
117	0xbd8f644d	-0.07001553
118	0xbd839420	-0.06424737
119	0x3ec6ece0	0.38852596
120	0xbda11171	-0.07864655
121	0xbdc1ed20	-0.09469056
122	0xbd9a5b40	-0.07536936
123	0xbd4521c1	-0.048127893
124	0xbd895c45	-0.06707052
125	0xbd813142	-0.06308223
126	0xbd6a948f	-0.057270583
127	0xbdc0f29c	-0.09421274
128	0xbd8cc4a9	-0.068734474
129	0xbd9e0c4e	-0.07717191
130	0xbdc792c7	-0.097447924
131	0x3e7b5674	0.24544698
132	0x3de368b1	0.11103953
133	0xbd6beb2c	-0.057597324
134	0xbd6b72be	-0.057482474
135	0xbdbd8214	-0.09253326
136	0xbd502734	-0.050818637
137	0xbe109115	-0.14117844
138	0x3f734de1	0.9504071
139	0xbd4c4ced	-0.04987805
140	0xbd7ffd78	-0.062497586
141	0xbd8aed5f	-0.06783556
142	0xbd6ba50e	-0.057530455
143	0xbd9f2450	-0.07770598
144	0xbdbfc016	-0.09362809
145	0xbd613ad4	-0.054987743
146	0xbd8f12ee	-0.069860324
147	0x3f6c522a	0.9231287
148	0xbe06aef7	-0.13152681
149	0xbd72cb95	-0.059276182
150	0xbda3f3ae	-0.080054626
151	0xbd581745	-0.052756567
152	0xbdad40f3	-0.08459654
153	0xbd2ddd85	-0.042447586
154	0xbdd9f2a8	-0.10641986
155	0xbd946d22	-0.07247378
156	0xbdf34fe5	-0.11880473
157	0xbd3e1dda	-0.046415187
158	0x3f8b63a1	1.0889779
159	0xbd61c604	-0.055120483
160	0x3ec243ae	0.3794226
161	0xbd77634a	-0.060397424
162	0xbd856370	-0.06513107
163	0xbd1fa84c	-0.03897886
164	0xbd549376	-0.051898442
165	0xbd72aa4b	-0.059244435
166	0x3f73dc89	0.95258385
167	0xbd573ea2	-0.052549966
168	0xbd48183c	-0.048851237
169	0xbd8bfc8e	-0.0683528
170	0xbdb42441	-0.087959774
171	0xbd6c760b	-0.057729762
172	0xbd599b7c	-0.053126797
173	0xbde785f9	-0.1130485
174	0xbd9fb52e	-0.07798229
175	0xbd31ac89	-0.043377433
176	0xbe13976c	-0.14413232
177	0xbdd49da7	-0.10381632
178	0xbd565abc	-0.052332625
179	0xbe18c9c8	-0.14920723
180	0xbdfaac69	-0.12239916
181	0xbd5b5e58	-0.05355677
182	0xbdfd5986	-0.12370591
183	0xbd6f1bd8	-0.058376163
184	0xbde1eddb	-0.110316955
185	0x3ecaf55d	0.39640322
186	0xbe0fcd3f	-0.14043139
187	0xbd85ae69	-0.06527407
188	0xbd66330c	-0.056201026
189	0xbd5773f1	-0.052600805
190	0xbd810139	-0.06299061
191	0xbd875c21	-0.06609369
192	0xbd585b2d	-0.052821327
193	0xbdcb6f77	-0.099333696
194	0xbd5c4d32	-0.053784557
195	0x3e8ffae2	0.28121096
196	0xbd86ff16	-0.065916225
197	0xbd6779eb	-0.056512754
198	0x3f81798f	1.0115222
199	0xbd645069	-0.055740748
200	0xbd8d7659	-0.06907339
201	0xbdfb7e60	-0.122799635
202	0xbd57008c	-0.052490756
203	0xbdfe57ef	-0.12419116
204	0xbe14bc0b	-0.14524858
205	0xbd75f7e3	-0.060050856
206	0x3f6174c3	0.8806879
207	0xbd8b2e8d	-0.06795988
208	0xbd65c421	-0.056095246
209	0xbdcc4c06	-0.09975438
210	0xbd857bfc	-0.06517789
211	0xbda4c0c5	-0.0804458
212	0xbd7ee229	-0.062227402
213	0xbd9dd2d2	-0.077062264
214	0xbdc2dd43	-0.095148586
215	0xbd4d4b5d	-0.0501207
216	0xbe02a822	-0.1275945
217	0xbd6917a3	-0.056907307
218	0xbdb86b91	-0.09004892
219	0xbd5f9e6c	-0.054594442
220	0xbe0e7a94	-0.13913947
221	0xbd70c15f	-0.058778163
222	0xbd73df19	-0.059538934
223	0xbd547da0	-0.051877618
224	0xbda4967f	-0.08036517
225	0xbd743611	-0.059621874
226	0xbd4fdcc8	-0.050747663
227	0xbd69d8a9	-0.05709139
228	0xbd462de9	-0.048383627
229	0xbdd75106	-0.10513501
230	0xbd82bb98	-0.06383437
231	0xbde31705	-0.11088375
232	0xbd99f1eb	-0.07516845
233	0xbe054e30	-0.13018107
234	0xbd8779ec	-0.066150516
235	0xbd83d61c	-0.064373225
236	0xbdde3b6b	-0.10851177
237	0xbd80f650	-0.062969804
238	0xbd5eda32	-0.054407306
239	0xbdcd5b07	-0.10027128
240	0xbdd8d22e	-0.105869636
241	0xbd97b59a	-0.074076846
242	0xbd949908	-0.07255751
243	0xbd9a3df7	-0.0753135
244	0xbd76115a	-0.06007514
245	0xbde24523	-0.11048343
246	0xbd932196	-0.071841404
247	0xbd8da0a6	-0.06915407
248	0xbd7ed047	-0.062210348
249	0xbda7808b	-0.081788145
250	0xbd87c711	-0.06629766
251	0xbd82ab88	-0.06380373
252	0xbd8a3040	-0.06747484
253	0xbe160cc5	-0.14653309
254	0xbd9950bb	-0.07486101
255	0x3f819e97	1.0126523
