TABULAR/Figure1Reproduce/Models/ADULT_FCN_e=0.0_g=0.05_a=1.0_l=2_h=256_s=True.pt (torch, 332951 bytes, 10 tensors)

lays.0.weight f4 [256, 63]
0	0xb6dec1fb	-6.638698e-06
1	0xb600e970	-1.9209365e-06
2	0xb77e8bfa	-1.5172171e-05
3	0x371e6c31	9.442724e-06
4	0x37797fb5	1.4871291e-05
5	0xb6ff3fdc	-7.6070264e-06
6	0xb50ff3a0	-5.362617e-07
7	0xb69a4a93	-4.5982392e-06
8	0xb61b24b4	-2.3118164e-06
9	0xb7735a41	-1.4504943e-05
10	0xb69f9bf4	-4.7567246e-06
11	0x35b37aa4	1.3372232e-06
12	0x37a21c32	1.9325034e-05
13	0xb72dcc1f	-1.0359129e-05
14	0x377535b5	1.4615643e-05
15	0x37419c20	1.1540047e-05
16	0xb719f9ea	-9.177698e-06
17	0x362d8775	2.5857855e-06
18	0xb77856b8	-1.4802143e-05
19	0xb6521e18	-3.1309955e-06
20	0x3780440e	1.529048e-05
21	0xb709f965	-8.223903e-06
22	0xb71e0f18	-9.421048e-06
23	0xb693d24a	-4.4054223e-06
24	0x36abec46	5.123703e-06
25	0x34449fb0	1.8312016e-07
26	0x3c910d23	0.01770646
27	0x376a4d0e	1.3965428e-05
28	0xb69f4b93	-4.7473673e-06
29	0x370c5768	8.365001e-06
30	0xb76a315d	-1.395898e-05
31	0xb616937c	-2.243759e-06
32	0xb7473d87	-1.187565e-05
33	0x35ceb15c	1.5399814e-06
34	0xb6a55956	-4.9277833e-06
35	0x3792b953	1.7490855e-05
36	0x36badfa0	5.5692653e-06
37	0x376aa08f	1.398487e-05
38	0xb68121ab	-3.848419e-06
39	0xb69e2265	-4.712771e-06
40	0x3609060a	2.0418106e-06
41	0xb7485a04	-1.1941887e-05
42	0x36c8b1f6	5.981182e-06
43	0x36a6ddf9	4.9730265e-06
44	0xb6bfe7ea	-5.719242e-06
45	0x3696784a	4.484352e-06
46	0xb72a91e4	-1.0166757e-05
47	0x358fdbb1	1.0718269e-06
48	0xb69ac681	-4.6126665e-06
49	0xb6f1eadf	-7.2097023e-06
50	0xb6747b85	-3.6430731e-06
51	0x3c62aa77	0.013834587
52	0x36b9e2a2	5.539813e-06
53	0xb75a67dc	-1.3017994e-05
54	0xb59f00be	-1.1846639e-06
55	0x379538ae	1.7788578e-05
56	0xb59b0a14	-1.1551333e-06
57	0xb616f61b	-2.2494994e-06
58	0x3703b854	7.851126e-06
59	0xb773dc02	-1.4535153e-05
60	0xb6911020	-4.323214e-06
61	0xb60ad7a6	-2.0689126e-06
62	0x377a4ed2	1.4919513e-05
63	0x3631b264	2.6478892e-06
64	0xb74ddd34	-1.2270455e-05
65	0xb75a8806	-1.3025483e-05
66	0x36093149	2.0443279e-06
67	0x34dace2c	4.0755674e-07
68	0x3c6bf444	0.014401499
69	0x36369642	2.7207575e-06
70	0x3766c7b6	1.3755567e-05
71	0x363839bc	2.7451742e-06
72	0x374adc17	1.2091382e-05
73	0xb6e60934	-6.8556055e-06
74	0x3686db87	4.0190675e-06
75	0xb73c782c	-1.1233653e-05
76	0x385ac80f	5.216157e-05
77	0xb6833156	-3.9098477e-06
78	0xb7be75fe	-2.270471e-05
79	0x36cdc9bf	6.1329624e-06
80	0x3624ddb8	2.4566962e-06
81	0x36ab0326	5.0965637e-06
82	0xb71e3242	-9.429235e-06
83	0xb720b6ad	-9.579276e-06
84	0xb615039c	-2.220483e-06
85	0x3708234b	8.114449e-06
86	0x38a2e996	7.768271e-05
87	0xbcec9f5b	-0.02888458
88	0xb8a3aa71	-7.804193e-05
89	0x3889a64a	6.563643e-05
90	0x38bfe10a	9.1495065e-05
91	0xb8c86980	-9.556394e-05
92	0xb72c8856	-1.0283742e-05
93	0xb3d7bc80	-1.00460056e-07
94	0x3691f932	4.350347e-06
95	0xbb2689d1	-0.0025411735
96	0xb54e6cb4	-7.6899164e-07
97	0xb88f5bb7	-6.8358546e-05
98	0xb6689df4	-3.4662635e-06
99	0xb68c6816	-4.1844423e-06
100	0xb72ee465	-1.0424385e-05
101	0x3b6d9cd8	0.0036256816
102	0xb74ec316	-1.2323979e-05
103	0x36de500a	6.6254333e-06
104	0x36e6f454	6.8829777e-06
105	0xb75cc125	-1.3157992e-05
106	0x3524a89c	6.134012e-07
107	0x38c91583	9.588434e-05
108	0x3596a100	1.1222728e-06
109	0x352f430c	6.5290146e-07
110	0xb6518d04	-3.1225509e-06
111	0xb62c334e	-2.565986e-06
112	0xb645c8bc	-2.947213e-06
113	0xb8880e79	-6.487681e-05
114	0x382f6a2a	4.1822124e-05
115	0x387bf150	6.0067803e-05
116	0xb5755548	-9.1393713e-07
117	0xb63850e4	-2.7465221e-06
118	0xb535033c	-6.743246e-07
119	0x35fec22a	1.8980984e-06
120	0xb78c4b7d	-1.6724453e-05
121	0xb52c12f2	-6.410256e-07
122	0xb7aabc72	-2.0353331e-05
123	0xb58b5dbc	-1.0383587e-06
124	0x386c9fe2	5.6415687e-05
125	0xb7896c55	-1.6382119e-05
126	0xb899c1f4	-7.331735e-05
127	0xb85143ad	-4.989251e-05
128	0x36d2ce51	6.282506e-06
129	0xbce7668e	-0.028247144
130	0xb8c8d0a2	-9.575604e-05
131	0x37bf2aea	2.2788958e-05
132	0xb77207ba	-1.4426123e-05
133	0x37dd048e	2.6347374e-05
134	0x37e75106	2.7575075e-05
135	0xb7e1c4a2	-2.6913654e-05
136	0x38321a97	4.246327e-05
137	0x37f5010a	2.920676e-05
138	0xb8d4f513	-0.000101545964
139	0x36f719a3	7.364158e-06
140	0x36e5aeb2	6.845069e-06
141	0x3899ba42	7.330302e-05
142	0x37610f9a	1.3414678e-05
143	0xb761d996	-1.3461706e-05
144	0x38a087a6	7.654661e-05
145	0xb8a111c2	-7.680386e-05
146	0x35da96d2	1.628616e-06
147	0x38041dbd	3.149895e-05
148	0xb735499c	-1.0805579e-05
149	0x38d4f6ef	0.00010154943
150	0xb72c0549	-1.0253229e-05
151	0xb7aec264	-2.0832937e-05
152	0xb740f060	-1.15000585e-05
153	0xb905173f	-0.00012692528
154	0x3758eb30	1.2929362e-05
155	0xb8baaaaa	-8.90096e-05
156	0xb82b9eae	-4.091736e-05
157	0x37adb7ce	2.0708798e-05
158	0x375db3ac	1.321446e-05
159	0x3822d0cf	3.8818278e-05
160	0xb7f3da16	-2.9069412e-05
161	0x38b9b2d4	8.854797e-05
162	0xb87053c6	-5.729848e-05
163	0xb8bb5472	-8.932584e-05
164	0xb5e44108	-1.700625e-06
165	0xb8199b8f	-3.6622918e-05
166	0x37462c04	1.1811968e-05
167	0xb7323c7f	-1.0623712e-05
168	0xb5f8e878	-1.8545097e-06
169	0x37c914ac	2.3970693e-05
170	0x37838c21	1.568167e-05
171	0x383c7220	4.492898e-05
172	0xb8a05256	-7.644731e-05
173	0xb598767f	-1.1359369e-06
174	0xb8137233	-3.5153887e-05
175	0x3b5c35cf	0.0033601408
176	0xb80043a9	-3.058059e-05
177	0xb7bf45ad	-2.280142e-05
178	0xb8916341	-6.932626e-05
179	0xb817b3dc	-3.6168713e-05
180	0xb5ea30be	-1.7448544e-06
181	0x370d888f	8.43605e-06
182	0xb8830561	-6.247569e-05
183	0xb7c2e1bc	-2.3231718e-05
184	0x3782e78d	1.5605032e-05
185	0x376be4a9	1.4060331e-05
186	0x380aaa5a	3.3060416e-05
187	0xb8ddd509	-0.00010577782
188	0xb81da5ea	-3.7586236e-05
189	0x3226384d	9.675273e-09
190	0x32763fe0	1.4333608e-08
191	0x322ef158	1.0183008e-08
192	0x323bdea9	1.093546e-08
193	0x32aacacc	1.9882826e-08
194	0x3272b7dd	1.412806e-08
195	0x3091ce67	1.0608802e-09
196	0x32bede66	2.2220046e-08
197	0xb232bb1d	-1.0403508e-08
198	0x3253984c	1.2316445e-08
199	0x3179fb66	3.6377172e-09
200	0x32531cd4	1.2288371e-08
201	0x31e2f887	6.60572e-09
202	0xb1be422c	-5.5372507e-09
203	0x3272d8e3	1.4135568e-08
204	0xb2aa493c	-1.9823908e-08
205	0xb3891b33	-6.384507e-08
206	0x31944fe1	4.316448e-09
207	0x32d026af	2.4231978e-08
208	0x32dd7811	2.5782386e-08
209	0x32bdf6ec	2.2114783e-08
210	0xb20efab8	-8.322495e-09
211	0xb1f493a9	-7.1181216e-09
212	0x32551e3c	1.2405106e-08
213	0x31ab60a8	4.9877436e-09
214	0x31153b06	2.1715905e-09
215	0xb1c04a68	-5.5963945e-09
216	0xb1a4fe8d	-4.8019673e-09
217	0xb239fb64	-1.0825577e-08
218	0x3207b5ea	7.899397e-09
219	0xb07f82d6	-9.295439e-10
220	0x31904880	4.199194e-09
221	0x31cfddb6	6.0496985e-09
222	0xb1386570	-2.6833185e-09
223	0x3198425b	4.431326e-09
224	0x32b3e70e	2.0943414e-08
225	0xb2786db6	-1.4460445e-08
226	0xb24af2b8	-1.1813135e-08
227	0xb23ecdb4	-1.1106227e-08
228	0x30d216bd	1.5285974e-09
229	0x32b53bc0	2.1098344e-08
230	0xb2b1cc5f	-2.069845e-08
231	0xb23b4513	-1.0900538e-08
232	0xb260235c	-1.3046556e-08
233	0xb1bbd330	-5.4664255e-09
234	0x31c5e4fc	5.759487e-09
235	0x300b04ee	5.057491e-10
236	0x322aa944	9.933789e-09
237	0x325837b3	1.2585519e-08
238	0xb216767f	-8.758092e-09
239	0xafb68e17	-3.3206568e-10
240	0x3211be6a	8.483406e-09
241	0xb1b74aa6	-5.3344875e-09
242	0xb22ce3cb	-1.0063512e-08
243	0xb2787448	-1.4461939e-08
244	0xb06e90dc	-8.6789753e-10
245	0xb2e23b8d	-2.6336943e-08
246	0xb212dfa4	-8.5491685e-09
247	0xb2a599c1	-1.9278447e-08
248	0xb228b076	-9.81901e-09
249	0x32034c92	7.642614e-09
250	0xb2b009fc	-2.0493637e-08
251	0xb1565f73	-3.1195355e-09
252	0xb963ca36	-0.00021723736
253	0xb789d760	-1.6431964e-05
254	0xb802a96a	-3.1152194e-05
255	0xba02537d	-0.0004971547

lays.0.bias f4 [256]
0	0xbd921cbc	-0.07134387
1	0xbd9819bd	-0.07426784
2	0xbc27a621	-0.010232479
3	0xbd5fa5fe	-0.05460166
4	0x3ddb965e	0.1072204
5	0xbdc5c92b	-0.0965751
6	0x3ddc6f1c	0.1076338
7	0xbc51374d	-0.012769532
8	0xbd0d8a47	-0.0345557
9	0x3f0b0433	0.5430328
10	0x3f04e5e4	0.51913285
11	0xbde39cf8	-0.11113924
12	0x3c5d3621	0.013501675
13	0x3eb5e411	0.35525563
14	0xbcc8e4c2	-0.024523143
15	0x3d1993e3	0.03749455
16	0xbbcbb7d6	-0.0062169833
17	0xbd050148	-0.032471925
18	0xbddcc8c4	-0.107804805
19	0xbe009e7c	-0.12560457
20	0xbc8bec22	-0.01708037
21	0xbd2b967d	-0.041891564
22	0xbe0685de	-0.13137004
23	0xbdf8ae5e	-0.12142633
24	0xbc156504	-0.009118322
25	0xbdea26ca	-0.1143318
26	0x3d5d1875	0.053978402
27	0x3d1e3d6a	0.038632788
28	0xbd53c3fb	-0.051700573
29	0xbda0a115	-0.07843224
30	0xbd7565c9	-0.059911523
31	0x3e4c367f	0.19942664
32	0x3ecdb65a	0.40178186
33	0xbdf61689	-0.12016017
34	0xbdf1b5e5	-0.11802272
35	0xbb27c49c	-0.0025599366
36	0xbdf6c661	-0.120495565
37	0xbcd8906f	-0.026436059
38	0xbd721e84	-0.059111133
39	0x3e826530	0.25467825
40	0xbddb00f9	-0.10693545
41	0xbd4fef7b	-0.050765496
42	0xbce69f41	-0.02815211
43	0x3d4b9237	0.04969999
44	0xbe0c1f18	-0.13683736
45	0xbdf8e7cb	-0.12153586
46	0xbcdca42d	-0.026933754
47	0x3c3e8811	0.01162912
48	0x3f198b03	0.5997774
49	0x3ee42343	0.44558153
50	0x3a146324	0.0005660525
51	0xbd8af8ec	-0.06785759
52	0x3d415467	0.047199633
53	0xbddfc4aa	-0.109261826
54	0xbe04bbba	-0.12962237
55	0xbd91238d	-0.07086859
56	0x3c905001	0.017616274
57	0x3cd89da9	0.026442366
58	0x3dcb41a5	0.0992463
59	0x3efb7707	0.49114248
60	0xbe042a39	-0.12906732
61	0x3f1ae00c	0.6049812
62	0x3da7a7dd	0.08186314
63	0xbcce508c	-0.025184892
64	0xbdc2057b	-0.094737016
65	0xbd51f32c	-0.051257297
66	0x3d9dcb9a	0.077048495
67	0xbda2bc8e	-0.0794612
68	0xbda48b12	-0.08034338
69	0xbdd89d63	-0.10576894
70	0xbd17eef5	-0.03709312
71	0xbd1f2bc3	-0.038860094
72	0xbce419f2	-0.027844403
73	0x3b71957a	0.0036862777
74	0xbcd518d0	-0.026012808
75	0xbdf93883	-0.12168982
76	0x3f066da0	0.52511024
77	0xbcfe2eff	-0.031028269
78	0xbd83e030	-0.06439245
79	0xbde5b5a5	-0.112162866
80	0xbb9fe8e4	-0.0048800576
81	0x3ef63337	0.4808595
82	0xbdea3ecd	-0.114377595
83	0xbdef5329	-0.116857834
84	0x3f17bd6b	0.59273404
85	0xbcbfd709	-0.023417966
86	0xbd62e993	-0.055398535
87	0xbcf914cd	-0.030405426
88	0xbd7ac405	-0.061222095
89	0xbaa14177	-0.0012302835
90	0x3d1a83e4	0.037723437
91	0xbbad041a	-0.00528003
92	0x3e222235	0.15833361
93	0xbcb86895	-0.022510806
94	0x3dd3e233	0.103458785
95	0xbda5463f	-0.08070039
96	0x3defc1c7	0.11706882
97	0xbcd83af3	-0.026395297
98	0xbd5499c4	-0.051904455
99	0x3f51203d	0.81689817
100	0xbe0fdede	-0.14049861
101	0x3d4709ec	0.048593447
102	0xbd87337d	-0.066016175
103	0x3d885ec6	0.066587016
104	0x3d077965	0.033074755
105	0x3e83f54b	0.2577308
106	0x3d73bd05	0.059506435
107	0x38e956db	0.00011126484
108	0xbdac0c35	-0.08400766
109	0xbdbe8d67	-0.09304314
110	0xbd1c6e01	-0.038190845
111	0x3e98c44b	0.2983726
112	0xbd665add	-0.056238998
113	0x3dc2cc8d	0.09511671
114	0x3f2f9008	0.6857915
115	0xbcc22f01	-0.023704054
116	0x3d8f7515	0.070047535
117	0xbc530a5f	-0.012880891
118	0x3deee609	0.116649695
119	0xba741aac	-0.0009311836
120	0x3dcde6f8	0.100538194
121	0xbdbafcd7	-0.091302566
122	0xbda8a374	-0.08234301
123	0xbc676acb	-0.0141245825
124	0x3da12746	0.07868819
125	0x3ddad6ef	0.106855266
126	0x3e47cf08	0.1951257
127	0x3cd34b1a	0.025792647
128	0xbcd58cc6	-0.026068103
129	0xbc93925e	-0.01801413
130	0xbdc77b3b	-0.09740301
131	0x3db8e332	0.09027709
132	0x3dc3521d	0.09537146
133	0xbd290816	-0.041267477
134	0xbcaaf665	-0.020869443
135	0xbdb84d53	-0.089991234
136	0x3e59a273	0.21253376
137	0xbe0e3ba6	-0.13889942
138	0x3f11a313	0.56889457
139	0x3dd27fa2	0.1027825
140	0xbd8a1a38	-0.06743282
141	0xbd8676d8	-0.065656364
142	0xbd21af51	-0.039473835
143	0x3d04a67d	0.032385338
144	0xbdb4c0f0	-0.088258624
145	0x3dd77ec3	0.10522225
146	0x3c19140e	0.00934316
147	0x3f5ed0e0	0.8703747
148	0xbe0af456	-0.1356977
149	0x3ba473b8	0.0050186776
150	0xbd9a8c62	-0.07546307
151	0x3de8b73e	0.11363076
152	0xbda4a8cf	-0.0804001
153	0x3f211586	0.6292347
154	0xbddcb489	-0.10776622
155	0xbd842590	-0.06452477
156	0xbdf3e06e	-0.11908041
157	0x3d1d998b	0.038476508
158	0x3f367b57	0.7128195
159	0xbb7891bb	-0.003792866
160	0x3f4a005f	0.78906816
161	0x3e94000e	0.28906292
162	0xbcdb3114	-0.0267568
163	0x3ceb7e42	0.028746728
164	0x3eed41cf	0.4633927
165	0x3e3d5cac	0.18492383
166	0x3f55dfce	0.83544624
167	0x3d43491c	0.047677144
168	0x3e786d6e	0.24260494
169	0xbd858687	-0.065198
170	0xbdb1cfe7	-0.08682232
171	0xbcd39c53	-0.025831377
172	0xbd5b32dc	-0.0535153
173	0xbde2d0b3	-0.110749625
174	0x3c72a9bf	0.014810978
175	0x3f0a960b	0.541352
176	0xbe079689	-0.13241018
177	0xbdcb2ebb	-0.099210225
178	0x3d69a8bf	0.057045694
179	0xbe165f89	-0.14684881
180	0xbdffd090	-0.12490952
181	0x3dcd3ae2	0.10020997
182	0xbdf9e58b	-0.12201985
183	0x3d355841	0.04427362
184	0xbde2bef0	-0.11071575
185	0xbd69e88e	-0.057106547
186	0xbe1136f0	-0.14181113
187	0x3d700f74	0.058608487
188	0xbce2b7bb	-0.0276755
189	0x3d618a78	0.055063695
190	0xbce2374d	-0.02761426
191	0x3e9ef20a	0.31044036
192	0x3ef7a009	0.48364285
193	0xbdbb3651	-0.091412194
194	0xbb90fee7	-0.004424918
195	0x3f31f528	0.69514704
196	0x3d934de1	0.071925886
197	0xbd0e8779	-0.034797166
198	0x3f6c250f	0.92244047
199	0x3efa4ef2	0.48888355
200	0x3d3a25ce	0.04544621
201	0xbe021208	-0.12702191
202	0x3d1cb733	0.03826065
203	0xbdf60655	-0.120129265
204	0xbe1160f3	-0.1419714
205	0xbd08b975	-0.03337999
206	0x3f462f9c	0.77416396
207	0x3d78f663	0.060781848
208	0xbcaf62ab	-0.021409353
209	0xbdbef7bd	-0.09324596
210	0x3e3b289a	0.18277207
211	0xbda1cda6	-0.079005525
212	0xbca87666	-0.02056427
213	0xbd06d497	-0.032917585
214	0xbdca1b3e	-0.09868477
215	0x3d1e77ac	0.038688347
216	0xbdf270d8	-0.118379295
217	0xbc81a88b	-0.015827438
218	0xbd374798	-0.04474601
219	0x3c46d89a	0.012136603
220	0xbe0c894d	-0.13724251
221	0x3ca1e317	0.019761605
222	0xbd805d39	-0.06267781
223	0xbdb04e49	-0.08608682
224	0xbd4b2900	-0.049599648
225	0xbd5dd216	-0.05415543
226	0xbd34dfa1	-0.04415858
227	0xbcb0a315	-0.021562139
228	0x3be89ecf	0.0070990096
229	0xbc00932b	-0.007847588
230	0x3db950c7	0.0904861
231	0xbdf56aba	-0.11983247
232	0xbd9aff0a	-0.07568176
233	0xbdf64be2	-0.12026192
234	0x3da94437	0.08264964
235	0x3e3d426a	0.18482366
236	0xbdd38902	-0.103288665
237	0xbd41fd8b	-0.047360938
238	0xbce66319	-0.028123425
239	0xbdcca8d9	-0.09993143
240	0xbdf7139a	-0.120642856
241	0x3d8367e3	0.06416299
242	0xbd92ca19	-0.07167453
243	0xbda15011	-0.078765996
244	0xbd249707	-0.040183093
245	0xbddb0f0c	-0.10696229
246	0x3dc1e5b9	0.09467644
247	0x3b46e838	0.0030350816
248	0xbd63229e	-0.055452935
249	0xbcc82103	-0.024429804
250	0x3b8c6075	0.0042839595
251	0x3d258b68	0.04041615
252	0xba14914a	-0.0005667402
253	0xbe1b429b	-0.15162127
254	0x3ddefb43	0.10887768
255	0x3f54cc6a	0.8312441

lays.1.weight f4 [256, 256]
0	0xb9c7fd3d	-0.00038144915
1	0x39c8339b	0.00038185422
2	0xb9057963	-0.00012729088
3	0x38659a2e	5.4741446e-05
4	0x3cb89027	0.022529675
5	0xba13e7d1	-0.00056421483
6	0xbd37c42f	-0.04486483
7	0x39bcba1e	0.00035996822
8	0x3a9132ca	0.0011077758
9	0xbd4459ed	-0.047937322
10	0x3c59c997	0.013292692
11	0x39e0e6d2	0.00042896584
12	0xb99f74bb	-0.00030413814
13	0xba9d6366	-0.0012007772
14	0xb9276924	-0.00015965529
15	0x3aef9354	0.001827816
16	0x393f5a31	0.00018248778
17	0xb7fbf044	-3.0033414e-05
18	0x384aaef7	4.83235e-05
19	0xb8d6408c	-0.00010216338
20	0x39e7c8f5	0.00044209478
21	0xb6f02ced	-7.1577874e-06
22	0x3931202b	0.00016892019
23	0xb9eae3e8	-0.0004480176
24	0x3901c459	0.00012375544
25	0xba522abc	-0.0008017232
26	0xba685e50	-0.00088641513
27	0xb92e77f1	-0.00016638615
28	0x3af2a79a	0.0018513084
29	0x38c979cf	9.6071155e-05
30	0x39002b73	0.00012223217
31	0xbbd21f6a	-0.0064124363
32	0x386d0465	5.6509296e-05
33	0x397b80e3	0.0002398524
34	0xb7ff5297	-3.0436828e-05
35	0x3d08f4ba	0.033436514
36	0x380adad7	3.3105574e-05
37	0xbd3c8554	-0.04602559
38	0x3a048a74	0.00050560315
39	0xba4be6c0	-0.000777822
40	0xb89723af	-7.206888e-05
41	0x3beb4e0a	0.007180934
42	0xbcee20c0	-0.02906835
43	0xb8db60c0	-0.00010460755
44	0xb91c94a2	-0.0001493269
45	0x3acb2b54	0.0015500584
46	0xbc991127	-0.018684937
47	0x3c97927f	0.018502472
48	0xbbed87c6	-0.0072488515
49	0xbb83d45a	-0.004023117
50	0xbc2c0567	-0.010499335
51	0xba3116ad	-0.0006755393
52	0xb9a7952f	-0.00031963873
53	0x3a21f640	0.00061783567
54	0x3a520e45	0.00080129906
55	0xb888dc9c	-6.526077e-05
56	0x399e27d3	0.0003016578
57	0xb9238dad	-0.0001559767
58	0x3c9cd15d	0.019142801
59	0xbcde7439	-0.027155029
60	0xb8a39753	-7.800632e-05
61	0x3ad82500	0.0016490519
62	0xbc4db07b	-0.012554283
63	0xbd2a20bf	-0.041535135
64	0x3bba1224	0.005678432
65	0x39204f43	0.00015288316
66	0x3a03b431	0.0005024104
67	0xba2437d9	-0.00062644255
68	0x385c38da	5.2505035e-05
69	0x3c78cbe2	0.015185328
70	0x37662bd9	1.3719277e-05
71	0xb94db34b	-0.00019617115
72	0xb44e6fbf	-1.9225898e-07
73	0x3c4a1ea4	0.012336407
74	0x38ab9d66	8.183233e-05
75	0x38674631	5.5140063e-05
76	0x3c5ddd1f	0.013541489
77	0x38c70fe4	9.492019e-05
78	0xb8b31a84	-8.540324e-05
79	0x399aa919	0.00029499157
80	0x37e9b2cc	2.7859023e-05
81	0xbc52dbfb	-0.01286983
82	0xb9380b2b	-0.00017551768
83	0x37ad4fb1	2.0660316e-05
84	0x3ab7472b	0.0013983002
85	0xb8554a8c	-5.0852585e-05
86	0x3a7b03a2	0.00095754315
87	0x38b2a443	8.5182975e-05
88	0xbbf5b09b	-0.0074978597
89	0x3806abb6	3.2108008e-05
90	0x39b167bc	0.0003383736
91	0x399953ed	0.00029244964
92	0xbd31955e	-0.04335534
93	0xb85a0b5d	-5.1985833e-05
94	0xbc9f8d79	-0.01947664
95	0xb7ec17ae	-2.8144419e-05
96	0x3ca98eba	0.02069794
97	0xb899e5e3	-7.338428e-05
98	0xbb0e67a4	-0.0021729255
99	0xb9d9d0a7	-0.00041544923
100	0xb90f1dd5	-0.00013648656
101	0xbd1954e3	-0.03743447
102	0xb68baf20	-4.16291e-06
103	0x3c235619	0.009969258
104	0xb8237b4e	-3.8977065e-05
105	0x3af9dda5	0.0019063248
106	0xbd09cb11	-0.033640925
107	0xbc21130b	-0.0098312
108	0x397dd187	0.00024206015
109	0x37d53194	2.5414665e-05
110	0x38e483e4	0.00010896454
111	0xbc9bc721	-0.01901585
112	0xb9d10e3b	-0.0003987419
113	0xbbbe20f4	-0.005802268
114	0x3b259315	0.002526467
115	0xbc6df42a	-0.014523545
116	0x3b49ea97	0.0030809992
117	0x3c1044dd	0.008805481
118	0xbcfa603b	-0.030563464
119	0xbacfca29	-0.0015853095
120	0xbb1fc94a	-0.0024381452
121	0x3c0ea895	0.008707185
122	0xb9858f1d	-0.00025474365
123	0x3cb3e435	0.021959404
124	0xbb1fa7c6	-0.0024361475
125	0xbb2e44b3	-0.002659124
126	0x371af1d2	9.2354185e-06
127	0xbca78c6c	-0.0204527
128	0xb91d06fa	-0.00014975286
129	0xbc3415f1	-0.010991559
130	0x38a73df3	7.9747195e-05
131	0x3caa5393	0.020791804
132	0xbce8637f	-0.028367756
133	0xb9fd390a	-0.00048298418
134	0x3aca0c3c	0.0015415023
135	0x3827544e	3.9894418e-05
136	0xbb5d6d06	-0.0033786907
137	0xb8cef195	-9.8678436e-05
138	0xbc80c9e4	-0.015721269
139	0xbcba58eb	-0.022747478
140	0x38ebdafe	0.00011246464
141	0xb9299d07	-0.00016175593
142	0x3a3d092e	0.0007211146
143	0x3c9b5f88	0.018966451
144	0xb7e9fe87	-2.7894288e-05
145	0xbd099efc	-0.033598885
146	0xba11608f	-0.00055456994
147	0x3a99c709	0.0011732291
148	0x39a5b7ba	0.0003160814
149	0x38d893df	0.00010327226
150	0x37ea8409	2.7956457e-05
151	0xba43726b	-0.0007455709
152	0x38283851	4.010677e-05
153	0xbc8d0fa9	-0.017219381
154	0x389bc197	7.427035e-05
155	0xb7c09592	-2.2957833e-05
156	0xb8a6337b	-7.925086e-05
157	0x37488acb	1.1953244e-05
158	0x39bb8dba	0.00035773014
159	0x39a4e7b2	0.00031453144
160	0xbaeeeeeb	-0.0018229162
161	0xbad3d4e7	-0.0016161472
162	0xb8185f9a	-3.632866e-05
163	0xb885fef2	-6.3894215e-05
164	0xba03c1ad	-0.00050261134
165	0x3d0fbb19	0.03509054
166	0xba7a5315	-0.00095491234
167	0x3a32a87d	0.0006815268
168	0x3cc8f740	0.02453196
169	0x3a811282	0.0009847435
170	0xba74708d	-0.00093246327
171	0x38c9529f	9.599816e-05
172	0xb88047fa	-6.116922e-05
173	0x3958c872	0.00020674037
174	0xb98805e1	-0.00025944322
175	0xbb3b243d	-0.0028555535
176	0xb8be187f	-9.064469e-05
177	0x39a760c5	0.0003192482
178	0x3c96308d	0.018333698
179	0x3af7e22e	0.0018912011
180	0xb899b19a	-7.3286894e-05
181	0xbc614075	-0.013748278
182	0xb839e696	-4.4322187e-05
183	0xba19933e	-0.00058584276
184	0x38c50a91	9.39566e-05
185	0x399fe313	0.00030496027
186	0xb9e05446	-0.00042787398
187	0x3bffad65	0.0078026527
188	0xb856e62a	-5.1235933e-05
189	0xbaba0f08	-0.0014195153
190	0xbb4f6b61	-0.0031649696
191	0xbcf7ff39	-0.030273067
192	0xbb3d7993	-0.0028911575
193	0x385bc1ac	5.239404e-05
194	0xb9417e9f	-0.00018453084
195	0xbbc4dbb9	-0.0060076383
196	0x399321d6	0.00028063235
197	0xb8abb670	-8.187897e-05
198	0xb94d62a3	-0.00019587069
199	0xb88d72fe	-6.744823e-05
200	0xb85ea0b9	-5.307861e-05
201	0xba37fe82	-0.00070188206
202	0x3a2ed02d	0.0006668594
203	0xb83a7f10	-4.4464192e-05
204	0x39b09eac	0.00033687556
205	0xb7dcc946	-2.6319769e-05
206	0xba8337db	-0.0010011153
207	0x3b58e25b	0.0033093903
208	0xb9b89fc8	-0.0003521426
209	0xb994cb55	-0.00028380254
210	0x38917796	6.9364134e-05
211	0x387624fd	5.868542e-05
212	0xbc92cd2e	-0.017920103
213	0xbcd2572a	-0.025676329
214	0x3ba5ceb9	0.0050600437
215	0x3cdb30b4	0.026756622
216	0xb8fecf81	-0.000121503144
217	0xb9c1ad45	-0.00036940924
218	0x3606dc0b	2.0095638e-06
219	0x3c2d7182	0.010586144
220	0xb8855c15	-6.359086e-05
221	0xba439677	-0.00074610807
222	0xba63ca6a	-0.0008689525
223	0x37afa7e3	2.0939804e-05
224	0xb4ec97a8	-4.406877e-07
225	0x38f16b8a	0.00011511806
226	0x3cbbf226	0.022942614
227	0x384f06bd	4.935892e-05
228	0xbd1c225f	-0.038118716
229	0x3ac48151	0.0014992153
230	0x3c8ec866	0.017429542
231	0xb884fdc4	-6.341518e-05
232	0xb9d0b417	-0.0003980703
233	0x38de93c9	0.00010613312
234	0xbd37805e	-0.044800155
235	0x39400294	0.00018311507
236	0xb8e7f710	-0.00011060957
237	0x3a259a38	0.0006317231
238	0x3b76c715	0.0037655283
239	0x38e323d5	0.00010830878
240	0x3c23af08	0.009990461
241	0x3c6835d8	0.014172994
242	0x37a71fc5	1.9922745e-05
243	0x388fefa6	6.863409e-05
244	0xb830a60b	-4.211631e-05
245	0x390abb4d	0.0001323048
246	0xbc098884	-0.008394364
247	0x3c2c6659	0.010522448
248	0x3a5e1fe6	0.0008473381
249	0x38deaaf6	0.00010617629
250	0xbba362c5	-0.0049861395
251	0x3c053681	0.0081306705
252	0x3a09a008	0.0005249982
253	0xb907153f	-0.00012882518
254	0xbd328814	-0.043586805
255	0x3cb5f1e5	0.02221007

lays.1.bias f4 [256]
0	0xbd0d011f	-0.034424897
1	0x3b26e3f2	0.0025465456
2	0xbcb2e034	-0.021835424
3	0xbcdbec41	-0.026846053
4	0xbd8360ac	-0.06414923
5	0x3a3af737	0.0007132175
6	0xbca66f36	-0.020316701
7	0xbc91a9af	-0.017781107
8	0xbca7cf8a	-0.020484705
9	0xbc064ee1	-0.008197517
10	0xbd562111	-0.05227763
11	0x3d3803d7	0.044925537
12	0xbd454051	-0.04815704
13	0xbce7fd32	-0.028318975
14	0xbcae1570	-0.021250457
15	0xbd355f9f	-0.044280645
16	0xbd966e86	-0.073452994
17	0xbd77950d	-0.06044488
18	0xbcf79b74	-0.030225493
19	0xbd957609	-0.07297904
20	0x3ce3ce53	0.027808344
21	0xbc4d9008	-0.012546547
22	0xbb96bfd1	-0.004600503
23	0xbca6f8fb	-0.020382395
24	0xbcc9f736	-0.024654012
25	0xbd5acc55	-0.053417522
26	0xbca83941	-0.020535113
27	0xbc49a4e7	-0.012307382
28	0xbb6e7be5	-0.0036389765
29	0xbcfb1a1c	-0.030652098
30	0xbd6e1407	-0.05812457
31	0xbcbfb91e	-0.0234037
32	0xbcc39cd9	-0.023878502
33	0xbcfe1fda	-0.031021047
34	0xbd4f0e2c	-0.050550625
35	0xbd8d3d17	-0.068964176
36	0xbb93d5f4	-0.004511589
37	0xbd970a18	-0.07374972
38	0xbd5344c6	-0.05157926
39	0xbbdbf48d	-0.0067125023
40	0xbd0711ea	-0.03297607
41	0x3d9ed843	0.077560924
42	0x3df58635	0.119884886
43	0xbc1e2436	-0.009652188
44	0xbcdefc3a	-0.02721988
45	0x3d469aab	0.048487347
46	0xbbb2c0b4	-0.005455101
47	0xbc9ebf02	-0.019378189
48	0xbb112e95	-0.002215301
49	0xbd7dc60a	-0.061956443
50	0xbc8407d3	-0.016117012
51	0xba8d4f33	-0.001078105
52	0xbc635a8a	-0.013876567
53	0xbd13bf4b	-0.036071103
54	0xbd88b528	-0.06675178
55	0xbc88cd57	-0.016699476
56	0xbd110697	-0.035406675
57	0xbd1b3d20	-0.03790009
58	0xbc1aac36	-0.009440472
59	0x3bcde0a1	0.0062828814
60	0xbd7ef318	-0.06224355
61	0xbc0f97c3	-0.00876421
62	0xbc4daaed	-0.012552959
63	0xbc8848df	-0.01663631
64	0xbcd6daf9	-0.026227461
65	0xbd47e11e	-0.048798673
66	0xbcb057f3	-0.021526312
67	0xbd750713	-0.0598212
68	0xbd150a5a	-0.036386825
69	0xbcc2573e	-0.023723241
70	0xbdc9b324	-0.098486215
71	0x3b97cf89	0.0046328944
72	0xbc7420e4	-0.01490042
73	0xbcfd5572	-0.030924533
74	0xbc7d2a7d	-0.0154520245
75	0xbd883f7d	-0.066527344
76	0xbd668f7d	-0.056289185
77	0xbc320a7d	-0.010866758
78	0xbd949c86	-0.07256417
79	0xbd823404	-0.063575774
80	0xbbcecda0	-0.0063111335
81	0x3c280a0f	0.010256304
82	0xbd643d08	-0.055722266
83	0xbc975e09	-0.018477457
84	0xbcd3a158	-0.02583377
85	0xbd9c4427	-0.076301865
86	0xbc928e49	-0.017890112
87	0xbd95c3f8	-0.07312769
88	0xbc9dca2b	-0.01926144
89	0xbcc6e809	-0.024280565
90	0xbd366350	-0.044528306
91	0xbc5f06f2	-0.013612496
92	0xbdb56183	-0.088564895
93	0xbca7c00e	-0.020477321
94	0xbb99a51c	-0.004688872
95	0xbd14110d	-0.036149073
96	0xbc5fda60	-0.0136629045
97	0xbcb0b017	-0.021568341
98	0xbd97d5d8	-0.07413834
99	0xbba9b37c	-0.005178867
100	0xba8175db	-0.0009877043
101	0xbd22c301	-0.03973675
102	0xbca713ce	-0.020395186
103	0x3cf01459	0.029306578
104	0x3e82f3ff	0.2557678
105	0xbd63c241	-0.055605177
106	0xbc9877f6	-0.01861189
107	0xbcda6647	-0.026660098
108	0xbca17b7a	-0.019712199
109	0xbd20df32	-0.039275356
110	0x3bdf481e	0.006814017
111	0xbdb66ccb	-0.08907469
112	0xbc695ea1	-0.014243753
113	0xbcb49032	-0.022041414
114	0xbc6e52b4	-0.014546085
115	0xbca2b735	-0.01986275
116	0xbd8cd7eb	-0.068771206
117	0xbd328d41	-0.04359174
118	0xbc71ccf1	-0.0147583345
119	0xbd3088c9	-0.0430992
120	0xbcf252d6	-0.029580515
121	0xbd401cb0	-0.04690236
122	0xbd387ef4	-0.045042947
123	0xba41be82	-0.00073907536
124	0xbd1fa2c1	-0.038973574
125	0xbdb29d81	-0.08721448
126	0x3d33de0f	0.043912943
127	0xbd37422d	-0.044740845
128	0xbcd12ab6	-0.025533061
129	0xbd8d249b	-0.068917476
130	0xbcc51c30	-0.024061292
131	0xbc45f1af	-0.012081548
132	0xbd212b76	-0.03934809
133	0xbd6b124f	-0.057390507
134	0xbd72adbd	-0.05924772
135	0xbd63af26	-0.055586956
136	0xbd7699e0	-0.06020534
137	0xbc5f24d0	-0.013619617
138	0xbc1ed031	-0.009693191
139	0xbc9ecf0c	-0.019385837
140	0xbc9a71fc	-0.01885318
141	0xbd28e4c3	-0.04123379
142	0xbd033abb	-0.03203843
143	0xbcd677f1	-0.02618024
144	0xbd24c8f2	-0.0402307
145	0xbcfaebef	-0.03063008
146	0x3eb48b12	0.35262352
147	0xbcf88fdc	-0.030342035
148	0x3ebf404b	0.3735374
149	0xbc8d1fe0	-0.017227113
150	0xbcbe2b3c	-0.023213975
151	0xbc48554b	-0.012227367
152	0xbbba7350	-0.005690016
153	0xbd82d0e2	-0.063874975
154	0xbc3f0e12	-0.0116610695
155	0xbca17e8b	-0.01971366
156	0xbda3802e	-0.07983433
157	0xbc81f4c1	-0.015863778
158	0xbcbbadea	-0.022910077
159	0xbd91df79	-0.07122702
160	0xbd052829	-0.032509003
161	0xbd88de4e	-0.06683026
162	0xbd409e21	-0.047025803
163	0xbd178e35	-0.037000854
164	0xbccb8a8b	-0.024846336
165	0xbd031c1e	-0.032009237
166	0xbc70f3da	-0.014706576
167	0x3e74eb14	0.239178
168	0xbd0ccec3	-0.03437687
169	0xbd148066	-0.036255263
170	0xbc9dd79f	-0.019267855
171	0xbc4b32a7	-0.012402213
172	0xbb9f7c33	-0.0048671006
173	0xbd90d502	-0.07071878
174	0xbd2c734c	-0.042102143
175	0x3d84b78b	0.064803205
176	0xbca01ed8	-0.019545957
177	0x3b19928a	0.0023433291
178	0xba9de521	-0.0012046435
179	0xbbb08eff	-0.00538814
180	0xbcdfe6e8	-0.027331784
181	0xbcd4868e	-0.025943067
182	0xbd4989e4	-0.04920377
183	0xbc45842f	-0.012055441
184	0xbd585e10	-0.05282408
185	0x3b862474	0.004093701
186	0xbc912503	-0.017717844
187	0xbd19d9d2	-0.037561245
188	0xbd97c914	-0.074113995
189	0xbd853fb5	-0.06506292
190	0xbd825bc0	-0.06365156
191	0xbbeb27fc	-0.0071763974
192	0xbbe8225f	-0.0070841755
193	0xbca20a15	-0.019780198
194	0xbc26cd96	-0.010180851
195	0xbb8f58f8	-0.0043746196
196	0xbcb800b9	-0.022461282
197	0xbcaa2b8d	-0.02077272
198	0xbd496d56	-0.049176537
199	0xbc9f9b94	-0.019483365
200	0xbc731703	-0.014837029
201	0xbda1875f	-0.07887148
202	0xbcf29299	-0.029610919
203	0xbca47cfc	-0.020079128
204	0x3d29f5eb	0.04149429
205	0xbc9ae5e9	-0.018908458
206	0xbd8a3ffd	-0.06750486
207	0xbb97ecae	-0.0046363687
208	0xbd422f90	-0.04740864
209	0xbce7095f	-0.02820271
210	0xbc7d5b7c	-0.015463706
211	0xbc9cd1c0	-0.019142985
212	0xbc123005	-0.008922582
213	0xbc813451	-0.015772017
214	0xbc769f06	-0.015052563
215	0xbca77aab	-0.020444235
216	0x3cfd0e21	0.030890526
217	0xbc84dd8c	-0.016218923
218	0xbcccd564	-0.025004096
219	0xbd70e8bb	-0.0588157
220	0xbc9a659b	-0.018847277
221	0xbc837ad1	-0.016049774
222	0xbd5829a1	-0.052774075
223	0xbcad2964	-0.0211379
224	0xbc6ac420	-0.014328986
225	0xbdf42c6a	-0.11922534
226	0xbd35504b	-0.044266026
227	0xbc142c27	-0.00904373
228	0xbc49e07e	-0.0123215895
229	0xbd588826	-0.052864216
230	0xbd38335c	-0.044970855
231	0xbcb0e248	-0.021592274
232	0xbd824f46	-0.063627765
233	0xbd56ecb7	-0.052471843
234	0xbd6ee25c	-0.058321342
235	0xbc980b3a	-0.01856004
236	0xbc5c4435	-0.013443996
237	0xbd36fd1c	-0.044674978
238	0xbce21841	-0.027599456
239	0xbd79368a	-0.060843028
240	0xbca5c631	-0.020236107
241	0xbcd3e10f	-0.025864152
242	0xbda1289f	-0.07869076
243	0xbc497111	-0.012295024
244	0x3d916467	0.07099228
245	0xbd7e7a00	-0.062128067
246	0xbd053e45	-0.032530088
247	0xbd8588bf	-0.06520223
248	0xbc4109d0	-0.011782125
249	0xbd814089	-0.06311137
250	0xbcbacd7d	-0.022803063
251	0xbce1150d	-0.027475858
252	0xbc5e90ba	-0.01358431
253	0xbcead36d	-0.028665269
254	0xbcb4d6a4	-0.022075005
255	0xbcdc3130	-0.026878923

lays.2.weight f4 [2, 256]
0	0xbb1be08f	-0.002378497
1	0xbb364b0f	-0.0027815735
2	0xba816521	-0.0009872058
3	0xba48bee1	-0.00076578377
4	0x3d2e9dcf	0.042630967
5	0x3a884c85	0.0010398781
6	0x3aac4802	0.0013144019
7	0xb6fcf19e	-7.538313e-06
8	0x3a2e0bec	0.000663935
9	0xb913a8a3	-0.00014081835
10	0xbd393230	-0.04521388
11	0x39a38d8e	0.0003119525
12	0x3aaf8626	0.001339142
13	0xba36d9b6	-0.00069751905
14	0x38bb2d6e	8.925317e-05
15	0xbc5a00c6	-0.013305848
16	0xb9d620cd	-0.000408417
17	0x3a2ac97b	0.0006515008
18	0x3c9451da	0.018105436
19	0x3b0604df	0.002044968
20	0x36912640	4.3257896e-06
21	0xb89ad454	-7.3828414e-05
22	0x3a918efb	0.0011105234
23	0x3a051349	0.0005076421
24	0x3a1dbff3	0.00060176774
25	0x3ac0aeb8	0.0014700508
26	0x390e0e3f	0.00013547482
27	0xb94e9e7c	-0.00019704731
28	0xbb6b0b42	-0.0035864864
29	0x3b01db04	0.0019814381
30	0xbc039de1	-0.008033247
31	0x3a6652ce	0.00087861426
32	0x3b91f08a	0.0044537233
33	0x3a8f3796	0.00109266
34	0x3cef7b75	0.029233674
35	0x3c59481c	0.013261821
36	0xb99c899e	-0.00029857171
37	0x3bd683f9	0.006546494
38	0x3cae8281	0.021302463
39	0x3bc552f6	0.0060218526
40	0x3c093153	0.008373576
41	0x3a77a357	0.0009446642
42	0x3a2c27c9	0.0006567208
43	0x3d530518	0.05151853
44	0x3970d533	0.00022967606
45	0x3a1e0414	0.00060278294
46	0x39f93ec0	0.00047539733
47	0x39826012	0.0002486711
48	0x3afe3fb9	0.0019397653
49	0x3ce9e224	0.028550215
50	0x3811c20f	3.4751425e-05
51	0xb948a64a	-0.00019135434
52	0xba2954bb	-0.0006459464
53	0xbccc0e66	-0.02490921
54	0xbd186f88	-0.03721574
55	0xbbb65e3c	-0.005565433
56	0xbb397a6c	-0.002830173
57	0x3d1f20dc	0.038849697
58	0x3a26bb18	0.00063602766
59	0xbd048db4	-0.0323617
60	0x3c8a96ee	0.016917672
61	0xbb223410	-0.002475027
62	0xbaa6953d	-0.0012709271
63	0xb8984c33	-7.262118e-05
64	0xb9d66478	-0.00040892116
65	0xbbc1c0dc	-0.005912883
66	0x3a8c0bc8	0.0010684663
67	0xba97dfd2	-0.0011587089
68	0x3900757e	0.000122508
69	0x3c0d67da	0.008630717
70	0xbb97d1d0	-0.004633166
71	0xbc399701	-0.011327506
72	0x3a1dd08c	0.00060201506
73	0xbd2fcebb	-0.042921763
74	0x3900e954	0.00012293953
75	0x39677ae5	0.00022075658
76	0x3b29866c	0.0025867475
77	0x3d1d7078	0.038437337
78	0x3b1a8b15	0.0023581435
79	0xbc23ff73	-0.010009634
80	0xb8cfb634	-9.904467e-05
81	0xbcead6f4	-0.02866695
82	0xbcc9aa75	-0.024617413
83	0xb6f2d63a	-7.2371013e-06
84	0xba890dd7	-0.0010456395
85	0x3c4b843f	0.012421667
86	0xb9c06a48	-0.0003670028
87	0x3cd3f218	0.025872275
88	0xb937008b	-0.00017452442
89	0xbba45566	-0.005015063
90	0xbd1d5b71	-0.038417283
91	0xb928904a	-0.0001607548
92	0xba9e043e	-0.0012055708
93	0xb86e7640	-5.685375e-05
94	0x3b024097	0.0019874924
95	0x3c652dda	0.013987983
96	0x3b5a0d16	0.003327196
97	0x3a96f25b	0.0011516319
98	0x3cb763fa	0.02238654
99	0xb92c9e33	-0.00016462132
100	0xbb31cb23	-0.0027129136
101	0x3a80e812	0.0009834787
102	0x3972b355	0.00023145725
103	0x3b0e981c	0.0021758145
104	0x3a7602c6	0.00093845685
105	0xbb98a95f	-0.0046588625
106	0xbabff4e3	-0.0014645125
107	0xbc6b154c	-0.014348339
108	0x3a317ccc	0.00067706103
109	0x3bba728f	0.005689926
110	0xbaa98cf0	-0.0012935679
111	0x3caf59d8	0.021405146
112	0x3b026aaf	0.0019900014
113	0x3b9be354	0.0047573242
114	0xbb56ebea	-0.0032794424
115	0x3c8933a9	0.016748266
116	0x3a889e9b	0.0010423245
117	0x3ccb297d	0.024800057
118	0x3b04b5c8	0.0020249952
119	0x3a24d032	0.0006287127
120	0xbab0cdba	-0.0013489046
121	0x3c09113e	0.008365927
122	0x3c03e763	0.008050772
123	0xb880aa21	-6.1352046e-05
124	0xb61f7d0e	-2.3765638e-06
125	0x3c627c43	0.013823572
126	0x3a4cf76c	0.0007818851
127	0xbcc7b0b6	-0.024376255
128	0xbd25325b	-0.040331226
129	0x3d0a9fa9	0.03384367
130	0xb6da0301	-6.497256e-06
131	0xbcdd8942	-0.027042989
132	0x3c02f529	0.007993021
133	0xb9f6eab5	-0.00047095647
134	0xbbcb3ef8	-0.006202575
135	0x3c8bf938	0.01708661
136	0x3caac0ba	0.020843852
137	0x3aa25202	0.0012384059
138	0x39a7c573	0.00031999833
139	0xb6641b3a	-3.3990495e-06
140	0xba7212ea	-0.0009234386
141	0xbd347393	-0.044055533
142	0x37ba13a8	2.2182081e-05
143	0xb9d9a6ab	-0.00041513643
144	0x3af7a7e5	0.0018894641
145	0x3b7cb7ff	0.0038561819
146	0x3a0f79b4	0.0005473152
147	0xb9201597	-0.00015266832
148	0x3a9b202a	0.0011835147
149	0xba9b2964	-0.0011837897
150	0x3a76c2cf	0.0009413184
151	0x3ab82917	0.0014050332
152	0xbd166ddd	-0.036725868
153	0xbb1a8349	-0.0023576787
154	0xba55dc03	-0.00081580895
155	0x38055344	3.1787218e-05
156	0x3c1d164f	0.009587838
157	0xb88a38f0	-6.590958e-05
158	0x3b57f8af	0.0032954623
159	0xbb0560b1	-0.0020351822
160	0xbb45e6d4	-0.0030197399
161	0x3c1db0e5	0.0096246945
162	0xbcdb8351	-0.026796015
163	0x3b86daa3	0.004115419
164	0xb5f2fc3f	-1.8103818e-06
165	0x393c55ba	0.00017961013
166	0xbb79e511	-0.003813092
167	0x3ace37a3	0.0015733134
168	0xbb07352e	-0.0020631063
169	0x3c3f3ad5	0.0116717415
170	0xb94c5740	-0.00019487459
171	0x3af5a7c4	0.0018742015
172	0x3a14ff7a	0.0005683821
173	0x3cb9dace	0.022687342
174	0xbbe1ec0e	-0.006894595
175	0x3a800cca	0.0009769436
176	0x397dc015	0.00024199516
177	0x3b1bee15	0.002379303
178	0x3aa6ec6f	0.0012735258
179	0x3ba5c1a8	0.005058486
180	0xb89515de	-7.108947e-05
181	0x3ccda5bb	0.02510344
182	0xba8ff1d4	-0.0010982105
183	0x3b0d9d11	0.0021608511
184	0xb9bf9a33	-0.00036545246
185	0x3c1deeb6	0.009639433
186	0xbb9846c7	-0.004647109
187	0x3b970daa	0.004609783
188	0x3ba61a9c	0.00506909
189	0x3bfd24b5	0.007725323
190	0x3c516732	0.012780951
191	0x3a3eb46d	0.00072748103
192	0x39b6fe06	0.00034903007
193	0x3aacfed5	0.0013198504
194	0x3a6c9223	0.00090244616
195	0x3c4c68a6	0.012476122
196	0xba45fc23	-0.0007552525
197	0xb9809d1a	-0.00024531112
198	0x3cf672dc	0.030084066
199	0xba855413	-0.0010172151
200	0x3cff5199	0.031166838
201	0xbbe55ce3	-0.0069995984
202	0x3baa9072	0.0052052075
203	0xb93fb6ba	-0.0001828325
204	0x3a483448	0.0007637185
205	0x3a89ffed	0.0010528542
206	0xbc2cd627	-0.010549105
207	0x3be4022f	0.006958268
208	0x3b0cd955	0.0021491845
209	0xb98e7fd4	-0.0002717959
210	0x396dde56	0.00022684908
211	0x39053eec	0.00012707309
212	0xb9a416ea	-0.0003129759
213	0x3a11aa4d	0.0005556688
214	0xb8c69330	-9.4687915e-05
215	0x3956ddf3	0.00020491313
216	0xbcabea43	-0.020985728
217	0xba852df5	-0.0010160791
218	0x364397a7	2.9145538e-06
219	0x3abc9d26	0.0014390096
220	0xb9501a29	-0.00019846171
221	0x3bbe00d9	0.005798441
222	0xbb943cef	-0.0045238654
223	0x3902b6d8	0.0001246588
224	0xba7875b5	-0.0009477989
225	0xbcadcde1	-0.021216335
226	0x3c33c2ac	0.010971706
227	0xb82edd1e	-4.1690764e-05
228	0x3ba293a0	0.004961446
229	0xbd299212	-0.04139907
230	0x3b3fde20	0.0029276684
231	0x3b7db0c2	0.0038710092
232	0x3d18f1f1	0.03734011
233	0x3c0b2b53	0.008494216
234	0xbce41292	-0.027840886
235	0xbaa34b19	-0.0012458294
236	0x39990047	0.0002918264
237	0x3ca65f3f	0.020309089
238	0x3cf9e8e8	0.030506566
239	0x389f5963	7.5983604e-05
240	0xb996f6c9	-0.000287941
241	0xbc2e2401	-0.010628701
242	0xbcf99593	-0.03046683
243	0xba6d0c2a	-0.0009042645
244	0x39c53e92	0.00037621387
245	0x3b9207a6	0.004456478
246	0xbbbd537d	-0.005777775
247	0x3c1cbee5	0.009566997
248	0xbad10b5c	-0.001594882
249	0x3a917566	0.001109761
250	0xb9ce9659	-0.000394034
251	0x3a9a5624	0.001177494
252	0x3b10ce74	0.0022095712
253	0xba803c48	-0.000978359
254	0x3a43c6b2	0.00074682676
255	0xbd3bfb34	-0.045893863

lays.2.bias f4 [2]
0	0x3c99a89e	0.01875716
1	0x3c35ebf9	0.011103624

l1.weight f4 [256, 63]
0	0xb6dec1fb	-6.638698e-06
1	0xb600e970	-1.9209365e-06
2	0xb77e8bfa	-1.5172171e-05
3	0x371e6c31	9.442724e-06
4	0x37797fb5	1.4871291e-05
5	0xb6ff3fdc	-7.6070264e-06
6	0xb50ff3a0	-5.362617e-07
7	0xb69a4a93	-4.5982392e-06
8	0xb61b24b4	-2.3118164e-06
9	0xb7735a41	-1.4504943e-05
10	0xb69f9bf4	-4.7567246e-06
11	0x35b37aa4	1.3372232e-06
12	0x37a21c32	1.9325034e-05
13	0xb72dcc1f	-1.0359129e-05
14	0x377535b5	1.4615643e-05
15	0x37419c20	1.1540047e-05
16	0xb719f9ea	-9.177698e-06
17	0x362d8775	2.5857855e-06
18	0xb77856b8	-1.4802143e-05
19	0xb6521e18	-3.1309955e-06
20	0x3780440e	1.529048e-05
21	0xb709f965	-8.223903e-06
22	0xb71e0f18	-9.421048e-06
23	0xb693d24a	-4.4054223e-06
24	0x36abec46	5.123703e-06
25	0x34449fb0	1.8312016e-07
26	0x3c910d23	0.01770646
27	0x376a4d0e	1.3965428e-05
28	0xb69f4b93	-4.7473673e-06
29	0x370c5768	8.365001e-06
30	0xb76a315d	-1.395898e-05
31	0xb616937c	-2.243759e-06
32	0xb7473d87	-1.187565e-05
33	0x35ceb15c	1.5399814e-06
34	0xb6a55956	-4.9277833e-06
35	0x3792b953	1.7490855e-05
36	0x36badfa0	5.5692653e-06
37	0x376aa08f	1.398487e-05
38	0xb68121ab	-3.848419e-06
39	0xb69e2265	-4.712771e-06
40	0x3609060a	2.0418106e-06
41	0xb7485a04	-1.1941887e-05
42	0x36c8b1f6	5.981182e-06
43	0x36a6ddf9	4.9730265e-06
44	0xb6bfe7ea	-5.719242e-06
45	0x3696784a	4.484352e-06
46	0xb72a91e4	-1.0166757e-05
47	0x358fdbb1	1.0718269e-06
48	0xb69ac681	-4.6126665e-06
49	0xb6f1eadf	-7.2097023e-06
50	0xb6747b85	-3.6430731e-06
51	0x3c62aa77	0.013834587
52	0x36b9e2a2	5.539813e-06
53	0xb75a67dc	-1.3017994e-05
54	0xb59f00be	-1.1846639e-06
55	0x379538ae	1.7788578e-05
56	0xb59b0a14	-1.1551333e-06
57	0xb616f61b	-2.2494994e-06
58	0x3703b854	7.851126e-06
59	0xb773dc02	-1.4535153e-05
60	0xb6911020	-4.323214e-06
61	0xb60ad7a6	-2.0689126e-06
62	0x377a4ed2	1.4919513e-05
63	0x3631b264	2.6478892e-06
64	0xb74ddd34	-1.2270455e-05
65	0xb75a8806	-1.3025483e-05
66	0x36093149	2.0443279e-06
67	0x34dace2c	4.0755674e-07
68	0x3c6bf444	0.014401499
69	0x36369642	2.7207575e-06
70	0x3766c7b6	1.3755567e-05
71	0x363839bc	2.7451742e-06
72	0x374adc17	1.2091382e-05
73	0xb6e60934	-6.8556055e-06
74	0x3686db87	4.0190675e-06
75	0xb73c782c	-1.1233653e-05
76	0x385ac80f	5.216157e-05
77	0xb6833156	-3.9098477e-06
78	0xb7be75fe	-2.270471e-05
79	0x36cdc9bf	6.1329624e-06
80	0x3624ddb8	2.4566962e-06
81	0x36ab0326	5.0965637e-06
82	0xb71e3242	-9.429235e-06
83	0xb720b6ad	-9.579276e-06
84	0xb615039c	-2.220483e-06
85	0x3708234b	8.114449e-06
86	0x38a2e996	7.768271e-05
87	0xbcec9f5b	-0.02888458
88	0xb8a3aa71	-7.804193e-05
89	0x3889a64a	6.563643e-05
90	0x38bfe10a	9.1495065e-05
91	0xb8c86980	-9.556394e-05
92	0xb72c8856	-1.0283742e-05
93	0xb3d7bc80	-1.00460056e-07
94	0x3691f932	4.350347e-06
95	0xbb2689d1	-0.0025411735
96	0xb54e6cb4	-7.6899164e-07
97	0xb88f5bb7	-6.8358546e-05
98	0xb6689df4	-3.4662635e-06
99	0xb68c6816	-4.1844423e-06
100	0xb72ee465	-1.0424385e-05
101	0x3b6d9cd8	0.0036256816
102	0xb74ec316	-1.2323979e-05
103	0x36de500a	6.6254333e-06
104	0x36e6f454	6.8829777e-06
105	0xb75cc125	-1.3157992e-05
106	0x3524a89c	6.134012e-07
107	0x38c91583	9.588434e-05
108	0x3596a100	1.1222728e-06
109	0x352f430c	6.5290146e-07
110	0xb6518d04	-3.1225509e-06
111	0xb62c334e	-2.565986e-06
112	0xb645c8bc	-2.947213e-06
113	0xb8880e79	-6.487681e-05
114	0x382f6a2a	4.1822124e-05
115	0x387bf150	6.0067803e-05
116	0xb5755548	-9.1393713e-07
117	0xb63850e4	-2.7465221e-06
118	0xb535033c	-6.743246e-07
119	0x35fec22a	1.8980984e-06
120	0xb78c4b7d	-1.6724453e-05
121	0xb52c12f2	-6.410256e-07
122	0xb7aabc72	-2.0353331e-05
123	0xb58b5dbc	-1.0383587e-06
124	0x386c9fe2	5.6415687e-05
125	0xb7896c55	-1.6382119e-05
126	0xb899c1f4	-7.331735e-05
127	0xb85143ad	-4.989251e-05
128	0x36d2ce51	6.282506e-06
129	0xbce7668e	-0.028247144
130	0xb8c8d0a2	-9.575604e-05
131	0x37bf2aea	2.2788958e-05
132	0xb77207ba	-1.4426123e-05
133	0x37dd048e	2.6347374e-05
134	0x37e75106	2.7575075e-05
135	0xb7e1c4a2	-2.6913654e-05
136	0x38321a97	4.246327e-05
137	0x37f5010a	2.920676e-05
138	0xb8d4f513	-0.000101545964
139	0x36f719a3	7.364158e-06
140	0x36e5aeb2	6.845069e-06
141	0x3899ba42	7.330302e-05
142	0x37610f9a	1.3414678e-05
143	0xb761d996	-1.3461706e-05
144	0x38a087a6	7.654661e-05
145	0xb8a111c2	-7.680386e-05
146	0x35da96d2	1.628616e-06
147	0x38041dbd	3.149895e-05
148	0xb735499c	-1.0805579e-05
149	0x38d4f6ef	0.00010154943
150	0xb72c0549	-1.0253229e-05
151	0xb7aec264	-2.0832937e-05
152	0xb740f060	-1.15000585e-05
153	0xb905173f	-0.00012692528
154	0x3758eb30	1.2929362e-05
155	0xb8baaaaa	-8.90096e-05
156	0xb82b9eae	-4.091736e-05
157	0x37adb7ce	2.0708798e-05
158	0x375db3ac	1.321446e-05
159	0x3822d0cf	3.8818278e-05
160	0xb7f3da16	-2.9069412e-05
161	0x38b9b2d4	8.854797e-05
162	0xb87053c6	-5.729848e-05
163	0xb8bb5472	-8.932584e-05
164	0xb5e44108	-1.700625e-06
165	0xb8199b8f	-3.6622918e-05
166	0x37462c04	1.1811968e-05
167	0xb7323c7f	-1.0623712e-05
168	0xb5f8e878	-1.8545097e-06
169	0x37c914ac	2.3970693e-05
170	0x37838c21	1.568167e-05
171	0x383c7220	4.492898e-05
172	0xb8a05256	-7.644731e-05
173	0xb598767f	-1.1359369e-06
174	0xb8137233	-3.5153887e-05
175	0x3b5c35cf	0.0033601408
176	0xb80043a9	-3.058059e-05
177	0xb7bf45ad	-2.280142e-05
178	0xb8916341	-6.932626e-05
179	0xb817b3dc	-3.6168713e-05
180	0xb5ea30be	-1.7448544e-06
181	0x370d888f	8.43605e-06
182	0xb8830561	-6.247569e-05
183	0xb7c2e1bc	-2.3231718e-05
184	0x3782e78d	1.5605032e-05
185	0x376be4a9	1.4060331e-05
186	0x380aaa5a	3.3060416e-05
187	0xb8ddd509	-0.00010577782
188	0xb81da5ea	-3.7586236e-05
189	0x3226384d	9.675273e-09
190	0x32763fe0	1.4333608e-08
191	0x322ef158	1.0183008e-08
192	0x323bdea9	1.093546e-08
193	0x32aacacc	1.9882826e-08
194	0x3272b7dd	1.412806e-08
195	0x3091ce67	1.0608802e-09
196	0x32bede66	2.2220046e-08
197	0xb232bb1d	-1.0403508e-08
198	0x3253984c	1.2316445e-08
199	0x3179fb66	3.6377172e-09
200	0x32531cd4	1.2288371e-08
201	0x31e2f887	6.60572e-09
202	0xb1be422c	-5.5372507e-09
203	0x3272d8e3	1.4135568e-08
204	0xb2aa493c	-1.9823908e-08
205	0xb3891b33	-6.384507e-08
206	0x31944fe1	4.316448e-09
207	0x32d026af	2.4231978e-08
208	0x32dd7811	2.5782386e-08
209	0x32bdf6ec	2.2114783e-08
210	0xb20efab8	-8.322495e-09
211	0xb1f493a9	-7.1181216e-09
212	0x32551e3c	1.2405106e-08
213	0x31ab60a8	4.9877436e-09
214	0x31153b06	2.1715905e-09
215	0xb1c04a68	-5.5963945e-09
216	0xb1a4fe8d	-4.8019673e-09
217	0xb239fb64	-1.0825577e-08
218	0x3207b5ea	7.899397e-09
219	0xb07f82d6	-9.295439e-10
220	0x31904880	4.199194e-09
221	0x31cfddb6	6.0496985e-09
222	0xb1386570	-2.6833185e-09
223	0x3198425b	4.431326e-09
224	0x32b3e70e	2.0943414e-08
225	0xb2786db6	-1.4460445e-08
226	0xb24af2b8	-1.1813135e-08
227	0xb23ecdb4	-1.1106227e-08
228	0x30d216bd	1.5285974e-09
229	0x32b53bc0	2.1098344e-08
230	0xb2b1cc5f	-2.069845e-08
231	0xb23b4513	-1.0900538e-08
232	0xb260235c	-1.3046556e-08
233	0xb1bbd330	-5.4664255e-09
234	0x31c5e4fc	5.759487e-09
235	0x300b04ee	5.057491e-10
236	0x322aa944	9.933789e-09
237	0x325837b3	1.2585519e-08
238	0xb216767f	-8.758092e-09
239	0xafb68e17	-3.3206568e-10
240	0x3211be6a	8.483406e-09
241	0xb1b74aa6	-5.3344875e-09
242	0xb22ce3cb	-1.0063512e-08
243	0xb2787448	-1.4461939e-08
244	0xb06e90dc	-8.6789753e-10
245	0xb2e23b8d	-2.6336943e-08
246	0xb212dfa4	-8.5491685e-09
247	0xb2a599c1	-1.9278447e-08
248	0xb228b076	-9.81901e-09
249	0x32034c92	7.642614e-09
250	0xb2b009fc	-2.0493637e-08
251	0xb1565f73	-3.1195355e-09
252	0xb963ca36	-0.00021723736
253	0xb789d760	-1.6431964e-05
254	0xb802a96a	-3.1152194e-05
255	0xba02537d	-0.0004971547

l1.bias f4 [256]
0	0xbd921cbc	-0.07134387
1	0xbd9819bd	-0.07426784
2	0xbc27a621	-0.010232479
3	0xbd5fa5fe	-0.05460166
4	0x3ddb965e	0.1072204
5	0xbdc5c92b	-0.0965751
6	0x3ddc6f1c	0.1076338
7	0xbc51374d	-0.012769532
8	0xbd0d8a47	-0.0345557
9	0x3f0b0433	0.5430328
10	0x3f04e5e4	0.51913285
11	0xbde39cf8	-0.11113924
12	0x3c5d3621	0.013501675
13	0x3eb5e411	0.35525563
14	0xbcc8e4c2	-0.024523143
15	0x3d1993e3	0.03749455
16	0xbbcbb7d6	-0.0062169833
17	0xbd050148	-0.032471925
18	0xbddcc8c4	-0.107804805
19	0xbe009e7c	-0.12560457
20	0xbc8bec22	-0.01708037
21	0xbd2b967d	-0.041891564
22	0xbe0685de	-0.13137004
23	0xbdf8ae5e	-0.12142633
24	0xbc156504	-0.009118322
25	0xbdea26ca	-0.1143318
26	0x3d5d1875	0.053978402
27	0x3d1e3d6a	0.038632788
28	0xbd53c3fb	-0.051700573
29	0xbda0a115	-0.07843224
30	0xbd7565c9	-0.059911523
31	0x3e4c367f	0.19942664
32	0x3ecdb65a	0.40178186
33	0xbdf61689	-0.12016017
34	0xbdf1b5e5	-0.11802272
35	0xbb27c49c	-0.0025599366
36	0xbdf6c661	-0.120495565
37	0xbcd8906f	-0.026436059
38	0xbd721e84	-0.059111133
39	0x3e826530	0.25467825
40	0xbddb00f9	-0.10693545
41	0xbd4fef7b	-0.050765496
42	0xbce69f41	-0.02815211
43	0x3d4b9237	0.04969999
44	0xbe0c1f18	-0.13683736
45	0xbdf8e7cb	-0.12153586
46	0xbcdca42d	-0.026933754
47	0x3c3e8811	0.01162912
48	0x3f198b03	0.5997774
49	0x3ee42343	0.44558153
50	0x3a146324	0.0005660525
51	0xbd8af8ec	-0.06785759
52	0x3d415467	0.047199633
53	0xbddfc4aa	-0.109261826
54	0xbe04bbba	-0.12962237
55	0xbd91238d	-0.07086859
56	0x3c905001	0.017616274
57	0x3cd89da9	0.026442366
58	0x3dcb41a5	0.0992463
59	0x3efb7707	0.49114248
60	0xbe042a39	-0.12906732
61	0x3f1ae00c	0.6049812
62	0x3da7a7dd	0.08186314
63	0xbcce508c	-0.025184892
64	0xbdc2057b	-0.094737016
65	0xbd51f32c	-0.051257297
66	0x3d9dcb9a	0.077048495
67	0xbda2bc8e	-0.0794612
68	0xbda48b12	-0.08034338
69	0xbdd89d63	-0.10576894
70	0xbd17eef5	-0.03709312
71	0xbd1f2bc3	-0.038860094
72	0xbce419f2	-0.027844403
73	0x3b71957a	0.0036862777
74	0xbcd518d0	-0.026012808
75	0xbdf93883	-0.12168982
76	0x3f066da0	0.52511024
77	0xbcfe2eff	-0.031028269
78	0xbd83e030	-0.06439245
79	0xbde5b5a5	-0.112162866
80	0xbb9fe8e4	-0.0048800576
81	0x3ef63337	0.4808595
82	0xbdea3ecd	-0.114377595
83	0xbdef5329	-0.116857834
84	0x3f17bd6b	0.59273404
85	0xbcbfd709	-0.023417966
86	0xbd62e993	-0.055398535
87	0xbcf914cd	-0.030405426
88	0xbd7ac405	-0.061222095
89	0xbaa14177	-0.0012302835
90	0x3d1a83e4	0.037723437
91	0xbbad041a	-0.00528003
92	0x3e222235	0.15833361
93	0xbcb86895	-0.022510806
94	0x3dd3e233	0.103458785
95	0xbda5463f	-0.08070039
96	0x3defc1c7	0.11706882
97	0xbcd83af3	-0.026395297
98	0xbd5499c4	-0.051904455
99	0x3f51203d	0.81689817
100	0xbe0fdede	-0.14049861
101	0x3d4709ec	0.048593447
102	0xbd87337d	-0.066016175
103	0x3d885ec6	0.066587016
104	0x3d077965	0.033074755
105	0x3e83f54b	0.2577308
106	0x3d73bd05	0.059506435
107	0x38e956db	0.00011126484
108	0xbdac0c35	-0.08400766
109	0xbdbe8d67	-0.09304314
110	0xbd1c6e01	-0.038190845
111	0x3e98c44b	0.2983726
112	0xbd665add	-0.056238998
113	0x3dc2cc8d	0.09511671
114	0x3f2f9008	0.6857915
115	0xbcc22f01	-0.023704054
116	0x3d8f7515	0.070047535
117	0xbc530a5f	-0.012880891
118	0x3deee609	0.116649695
119	0xba741aac	-0.0009311836
120	0x3dcde6f8	0.100538194
121	0xbdbafcd7	-0.091302566
122	0xbda8a374	-0.08234301
123	0xbc676acb	-0.0141245825
124	0x3da12746	0.07868819
125	0x3ddad6ef	0.106855266
126	0x3e47cf08	0.1951257
127	0x3cd34b1a	0.025792647
128	0xbcd58cc6	-0.026068103
129	0xbc93925e	-0.01801413
130	0xbdc77b3b	-0.09740301
131	0x3db8e332	0.09027709
132	0x3dc3521d	0.09537146
133	0xbd290816	-0.041267477
134	0xbcaaf665	-0.020869443
135	0xbdb84d53	-0.089991234
136	0x3e59a273	0.21253376
137	0xbe0e3ba6	-0.13889942
138	0x3f11a313	0.56889457
139	0x3dd27fa2	0.1027825
140	0xbd8a1a38	-0.06743282
141	0xbd8676d8	-0.065656364
142	0xbd21af51	-0.039473835
143	0x3d04a67d	0.032385338
144	0xbdb4c0f0	-0.088258624
145	0x3dd77ec3	0.10522225
146	0x3c19140e	0.00934316
147	0x3f5ed0e0	0.8703747
148	0xbe0af456	-0.1356977
149	0x3ba473b8	0.0050186776
150	0xbd9a8c62	-0.07546307
151	0x3de8b73e	0.11363076
152	0xbda4a8cf	-0.0804001
153	0x3f211586	0.6292347
154	0xbddcb489	-0.10776622
155	0xbd842590	-0.06452477
156	0xbdf3e06e	-0.11908041
157	0x3d1d998b	0.038476508
158	0x3f367b57	0.7128195
159	0xbb7891bb	-0.003792866
160	0x3f4a005f	0.78906816
161	0x3e94000e	0.28906292
162	0xbcdb3114	-0.0267568
163	0x3ceb7e42	0.028746728
164	0x3eed41cf	0.4633927
165	0x3e3d5cac	0.18492383
166	0x3f55dfce	0.83544624
167	0x3d43491c	0.047677144
168	0x3e786d6e	0.24260494
169	0xbd858687	-0.065198
170	0xbdb1cfe7	-0.08682232
171	0xbcd39c53	-0.025831377
172	0xbd5b32dc	-0.0535153
173	0xbde2d0b3	-0.110749625
174	0x3c72a9bf	0.014810978
175	0x3f0a960b	0.541352
176	0xbe079689	-0.13241018
177	0xbdcb2ebb	-0.099210225
178	0x3d69a8bf	0.057045694
179	0xbe165f89	-0.14684881
180	0xbdffd090	-0.12490952
181	0x3dcd3ae2	0.10020997
182	0xbdf9e58b	-0.12201985
183	0x3d355841	0.04427362
184	0xbde2bef0	-0.11071575
185	0xbd69e88e	-0.057106547
186	0xbe1136f0	-0.14181113
187	0x3d700f74	0.058608487
188	0xbce2b7bb	-0.0276755
189	0x3d618a78	0.055063695
190	0xbce2374d	-0.02761426
191	0x3e9ef20a	0.31044036
192	0x3ef7a009	0.48364285
193	0xbdbb3651	-0.091412194
194	0xbb90fee7	-0.004424918
195	0x3f31f528	0.69514704
196	0x3d934de1	0.071925886
197	0xbd0e8779	-0.034797166
198	0x3f6c250f	0.92244047
199	0x3efa4ef2	0.48888355
200	0x3d3a25ce	0.04544621
201	0xbe021208	-0.12702191
202	0x3d1cb733	0.03826065
203	0xbdf60655	-0.120129265
204	0xbe1160f3	-0.1419714
205	0xbd08b975	-0.03337999
206	0x3f462f9c	0.77416396
207	0x3d78f663	0.060781848
208	0xbcaf62ab	-0.021409353
209	0xbdbef7bd	-0.09324596
210	0x3e3b289a	0.18277207
211	0xbda1cda6	-0.079005525
212	0xbca87666	-0.02056427
213	0xbd06d497	-0.032917585
214	0xbdca1b3e	-0.09868477
215	0x3d1e77ac	0.038688347
216	0xbdf270d8	-0.118379295
217	0xbc81a88b	-0.015827438
218	0xbd374798	-0.04474601
219	0x3c46d89a	0.012136603
220	0xbe0c894d	-0.13724251
221	0x3ca1e317	0.019761605
222	0xbd805d39	-0.06267781
223	0xbdb04e49	-0.08608682
224	0xbd4b2900	-0.049599648
225	0xbd5dd216	-0.05415543
226	0xbd34dfa1	-0.04415858
227	0xbcb0a315	-0.021562139
228	0x3be89ecf	0.0070990096
229	0xbc00932b	-0.007847588
230	0x3db950c7	0.0904861
231	0xbdf56aba	-0.11983247
232	0xbd9aff0a	-0.07568176
233	0xbdf64be2	-0.12026192
234	0x3da94437	0.08264964
235	0x3e3d426a	0.18482366
236	0xbdd38902	-0.103288665
237	0xbd41fd8b	-0.047360938
238	0xbce66319	-0.028123425
239	0xbdcca8d9	-0.09993143
240	0xbdf7139a	-0.120642856
241	0x3d8367e3	0.06416299
242	0xbd92ca19	-0.07167453
243	0xbda15011	-0.078765996
244	0xbd249707	-0.040183093
245	0xbddb0f0c	-0.10696229
246	0x3dc1e5b9	0.09467644
247	0x3b46e838	0.0030350816
248	0xbd63229e	-0.055452935
249	0xbcc82103	-0.024429804
250	0x3b8c6075	0.0042839595
251	0x3d258b68	0.04041615
252	0xba14914a	-0.0005667402
253	0xbe1b429b	-0.15162127
254	0x3ddefb43	0.10887768
255	0x3f54cc6a	0.8312441
