TABULAR/Figure1Reproduce/Models/ADULT_L2_FCN_e=0.05_g=0.0_a=1.0_l=2_h=256_s=True.pt (torch, 332951 bytes, 10 tensors)

lays.0.weight f4 [256, 63]
0	0xbfa1be50	-1.2636204
1	0xbf465564	-0.77474046
2	0xbeeddf99	-0.46459654
3	0xbf465ab7	-0.7748217
4	0x3dae5b3e	0.08513497
5	0xbf806471	-1.0030652
6	0x3f041440	0.515934
7	0x3ef9fb7e	0.48824686
8	0x3e28754b	0.16450994
9	0x3ea5ad11	0.32358602
10	0x3e931063	0.2872344
11	0x3f6e56f7	0.9310145
12	0x3f010e83	0.5041277
13	0x3c28aa92	0.010294573
14	0xbe271677	-0.16317163
15	0xbedc9eb5	-0.43089834
16	0x3dd71971	0.105028994
17	0xbeadb54b	-0.33927378
18	0xbe905578	-0.28190207
19	0x3e883754	0.26604712
20	0xbda7499d	-0.081683375
21	0xbeccaeff	-0.3997726
22	0xbdb55b4d	-0.08855305
23	0xbdfad4f6	-0.1224765
24	0xbe872c09	-0.26400784
25	0x3e9694e4	0.2941047
26	0x3f209f68	0.62743235
27	0xbd18a404	-0.037265792
28	0xbe446e4e	-0.19182703
29	0x3df76abf	0.12080907
30	0x3c0a1245	0.008427207
31	0xbe378a3f	-0.1792383
32	0xbf0241bd	-0.5088156
33	0xbc204185	-0.009781246
34	0x3f20e8e5	0.6285537
35	0x3f127257	0.5720572
36	0x3f421f1c	0.7582872
37	0x3dc31e59	0.09527273
38	0xbf155d4a	-0.5834547
39	0x3ec4a7fd	0.38409415
40	0xbe836869	-0.25665596
41	0x3d1a198c	0.03762202
42	0x3d576157	0.052583065
43	0x3e469451	0.19392516
44	0x3d8153ca	0.063148096
45	0xbd77cce7	-0.060498144
46	0x3e69824e	0.22803614
47	0x3e6fa332	0.23402098
48	0x3c884ba1	0.016637625
49	0xbd00a016	-0.03140267
50	0x3ee8fbf7	0.45504734
51	0x3f2a8de7	0.66622776
52	0xbe05176c	-0.12997216
53	0xbe3f0e36	-0.18657765
54	0x3e0b482d	0.13601752
55	0x3ea487b8	0.32134795
56	0x3ec9c294	0.39406264
57	0xbe2ca351	-0.16859175
58	0x3f582116	0.84425485
59	0xbd874002	-0.066040054
60	0xbebed5e4	-0.3727256
61	0xbe9d7b11	-0.30757955
62	0x3d873b46	0.066031024
63	0xbe92f760	-0.28704357
64	0x3dd55e8a	0.104184225
65	0x3d8e2f8e	0.06942664
66	0xbea2cf40	-0.31798744
67	0xbdfe55f7	-0.1241874
68	0xbe43547b	-0.19075195
69	0x3e549403	0.20759587
70	0xbdd09ade	-0.101857886
71	0x3db96406	0.09052281
72	0x3d0c8d24	0.03431429
73	0x3e21623e	0.15760133
74	0x3e654721	0.22390415
75	0x3e0bdb87	0.13657962
76	0x3de85fa9	0.11346371
77	0xbd22a752	-0.03971035
78	0xbe30a556	-0.1725057
79	0xbe2ddc2f	-0.16978525
80	0xb8582885	-5.153615e-05
81	0x3d473fe3	0.04864491
82	0x3bad1aeb	0.00528275
83	0x3e158119	0.14600028
84	0x3c88c3ba	0.016694892
85	0x3c25b134	0.010113049
86	0xbcf85336	-0.030313116
87	0xbec7c957	-0.39020798
88	0xbcb8d512	-0.022562537
89	0x3d811694	0.063031346
90	0x3d38986d	0.04506724
91	0x3d9bfd1e	0.07616638
92	0xbcebb519	-0.028772878
93	0x3ca8f5e7	0.020625068
94	0xbccfc74f	-0.025363592
95	0xbd0dea75	-0.034647424
96	0x3ef87266	0.4852478
97	0x3d2b6ef9	0.04185388
98	0x3e41cb4b	0.18925206
99	0x3dafae4a	0.08578165
100	0xbd721b33	-0.05910797
101	0xbc5ce262	-0.013481708
102	0xbe4fd87d	-0.20297427
103	0xbe44f190	-0.19232774
104	0xbe3b2c29	-0.18278565
105	0xbe55af4e	-0.20867655
106	0xbe0e14f7	-0.13875185
107	0xbd338412	-0.043827124
108	0xbdc45dfb	-0.09588238
109	0x3cb0cce3	0.021582073
110	0xbeaaf8cd	-0.33392945
111	0xbe46729a	-0.19379655
112	0xbdd5fb29	-0.104482956
113	0x3e416a28	0.18888152
114	0x3ea0f53b	0.31437096
115	0xbc30dfb0	-0.010795519
116	0xbdb73abb	-0.08946749
117	0xbdaf859c	-0.08570406
118	0xbe7f65d0	-0.24941182
119	0xbd158fc9	-0.036514077
120	0x3debe3d8	0.11518067
121	0xbe0cc3a0	-0.137465
122	0x3c0655f4	0.008199204
123	0xbd88e0ef	-0.06683528
124	0xbdb406dd	-0.087903716
125	0x3d7c1132	0.061539836
126	0xc0010585	-2.015962
127	0x3cd3c8a8	0.025852516
128	0xbbb8b487	-0.005636755
129	0xbe34c42e	-0.17652962
130	0xbcbc1c78	-0.022962794
131	0x3dd204a7	0.102547936
132	0x3e4a22f1	0.19739892
133	0x3eebcf4a	0.46056587
134	0x3e00adfc	0.1256637
135	0x3e8bda50	0.27314997
136	0xbcb59fe8	-0.022170976
137	0xbf6442db	-0.89164513
138	0x3f66ad11	0.9010783
139	0x3e8e5923	0.2780238
140	0xbe2e6c52	-0.17033508
141	0xbe8f25fb	-0.27958664
142	0x3e816797	0.25274345
143	0x3e15f931	0.1464584
144	0xbdaeeabc	-0.08540866
145	0xbb8c4624	-0.0042808224
146	0x3e439f18	0.19103658
147	0xbd6e967e	-0.05824899
148	0xbef7f114	-0.48426116
149	0xbdf086b8	-0.117444456
150	0xbe1a537d	-0.15070911
151	0xbe6d9151	-0.23199965
152	0x3f111573	0.56673354
153	0x3cb7e11d	0.02244621
154	0x3d8a65ef	0.067577235
155	0xbe42b232	-0.19013289
156	0x3d141b54	0.036158875
157	0x3d8890df	0.06668257
158	0xbe809cea	-0.25119716
159	0xbccf2f01	-0.025290968
160	0x3e9c8eb8	0.30577636
161	0x3e202377	0.15638529
162	0xbf25f6b1	-0.64829546
163	0x3da3b336	0.07993166
164	0x3c84a27a	0.016190756
165	0x3f05e54e	0.52303016
166	0xbc90e418	-0.017686889
167	0x3e526f58	0.20550287
168	0x3d81349b	0.06308862
169	0x3db0c3c4	0.08631089
170	0x3d000e8d	0.031263877
171	0x3e64da98	0.22349012
172	0xbdd9bab8	-0.10631317
173	0xbd82a700	-0.06379509
174	0xbdbd9bd5	-0.09258238
175	0xbecbd319	-0.39809492
176	0xbe25ad2e	-0.16179344
177	0x3ef415d1	0.47672895
178	0x3d835cb2	0.064141646
179	0x3e2056ff	0.15658186
180	0x3b2e37ee	0.002658363
181	0x3e555d52	0.2083638
182	0x3e2aed39	0.16692056
183	0xbef94f86	-0.48693484
184	0x3edeb354	0.43496192
185	0x3f1862ec	0.5952594
186	0xbe9e94cc	-0.30972898
187	0x3ec86a2d	0.39143506
188	0xbd7e2b04	-0.06205274
189	0xbeab8e5a	-0.33507043
190	0xbe5f0f66	-0.21783218
191	0xbe360efd	-0.17779155
192	0xbf12d747	-0.5735974
193	0x3e38edc0	0.18059444
194	0xbe6489c4	-0.22318178
195	0x3f3aa1fd	0.72903425
196	0x3efedd43	0.49778184
197	0xbd9ed9ae	-0.07756363
198	0x3eac99a9	0.33710983
199	0x3eab5806	0.33465594
200	0x3f2b533d	0.66923887
201	0x3e306cff	0.17229079
202	0xbd587a34	-0.052850917
203	0x3db7a952	0.08967842
204	0xbe9a6bb8	-0.30160308
205	0x3ebf0851	0.37311032
206	0xbf4c1d03	-0.7973177
207	0x3ddec48b	0.10877331
208	0x3da8611a	0.08221646
209	0x3e0d8963	0.1382194
210	0xbf057d31	-0.5214415
211	0xbe4f5c7d	-0.20250125
212	0xbc3e3895	-0.01161017
213	0xbd13f929	-0.03612629
214	0x3d99b9c4	0.07506135
215	0x3f80fa5a	1.0076401
216	0xbe575222	-0.21027425
217	0xbe83fbcd	-0.25778046
218	0x3ed0dc33	0.40793
219	0xba7e6d10	-0.00097055826
220	0xbe0d0da5	-0.13774736
221	0xbf2c8329	-0.67387635
222	0x3f331fe3	0.6997053
223	0x3f08991c	0.53358626
224	0x3eeef4ac	0.46671045
225	0x3f68404b	0.90723103
226	0xbd15d142	-0.036576517
227	0xbf33950a	-0.7014929
228	0xbe9fdabc	-0.3122157
229	0x3ecf3ccc	0.40476072
230	0x3e3bfe3e	0.18358704
231	0x3ea1a626	0.31572074
232	0x3eadf63a	0.33976918
233	0xbe7ba127	-0.24573193
234	0xbee43b61	-0.44576553
235	0xbe7bb2a2	-0.24579862
236	0x3eebaef3	0.46031913
237	0x3d315734	0.043296054
238	0xbefbc3d1	-0.49172834
239	0x3e1bc4af	0.15211748
240	0x3f85e5dd	1.0460774
241	0xbe8de8fe	-0.2771682
242	0x3f1b1018	0.6057143
243	0x3d983f47	0.07433944
244	0x3eefea8f	0.46858642
245	0xbe674de1	-0.22588302
246	0xbd6d9779	-0.058005784
247	0x3e389486	0.18025407
248	0xbe73fed7	-0.23827682
249	0x3f0a3873	0.53992385
250	0xbe709b43	-0.23496728
251	0x3dff3e0b	0.12463006
252	0x3f95a82c	1.1691947
253	0xbf08eb89	-0.534844
254	0xbed51f39	-0.41625383
255	0xbf362662	-0.7115232

lays.0.bias f4 [256]
0	0x3f419bc6	0.75628316
1	0xbed7e9b2	-0.42170483
2	0x3f145df1	0.57955843
3	0x3df89a6b	0.12138828
4	0x3f0055e4	0.5013106
5	0xbe30d70a	-0.17269531
6	0x3eb4a921	0.35285285
7	0x3f16389f	0.58680147
8	0xbedb9b2d	-0.42891827
9	0x3f186882	0.59534466
10	0x3f6db7f3	0.9285881
11	0xbec2b9c4	-0.38032353
12	0x3f2eaa1b	0.6822831
13	0x3f638f9b	0.88891
14	0xbea18a11	-0.3155065
15	0x3f5f0fa1	0.8713322
16	0xbee8cd36	-0.45469064
17	0xbed5b062	-0.41736132
18	0xbe2afedc	-0.16698784
19	0x3f1dc5e8	0.61630106
20	0xbed805d3	-0.42191944
21	0xbf48d2e3	-0.7844679
22	0x3ea69c0b	0.32540926
23	0x3eabb5a2	0.33537012
24	0xbe9a207f	-0.30102918
25	0xbf25cbc5	-0.6476405
26	0xbe954bf1	-0.291595
27	0x3f62659f	0.8843631
28	0x3ee3f231	0.44520715
29	0xbebcb1fc	-0.3685454
30	0x3f7c55ac	0.98568225
31	0x3f67b5b1	0.90511614
32	0x3f67ef24	0.90599275
33	0xbedd5c4b	-0.43234476
34	0xbe35ae84	-0.17742354
35	0x3f2809d5	0.6564
36	0x3ecdc6ea	0.40190822
37	0x3f7e0506	0.99226415
38	0x3f85c7c5	1.045159
39	0x3f42c016	0.7607435
40	0x3f334064	0.7002013
41	0xbe67d648	-0.22640336
42	0xbca086f7	-0.019595606
43	0xbec60278	-0.38673759
44	0x3f490843	0.7852823
45	0xbf494c87	-0.78632396
46	0xbe1c883d	-0.15286346
47	0xbeed3c60	-0.46335125
48	0x3f6b2e72	0.91867745
49	0x3f8a6c7d	1.0814358
50	0x3f81f8dd	1.0154072
51	0x3e97a157	0.2961528
52	0xbdb37a27	-0.08763533
53	0xbf01b370	-0.50664425
54	0xbebb9826	-0.36639518
55	0x3f1e96b0	0.6194868
56	0xbe847d2e	-0.25876755
57	0x3f409e37	0.75241417
58	0x3ecda398	0.40163875
59	0x3f1793fe	0.59210193
60	0xbe37136f	-0.17878507
61	0x3eff41d1	0.498549
62	0xbe8677a9	-0.26263168
63	0x3e92d6d9	0.2867954
64	0xbe41345f	-0.18867634
65	0xbe486297	-0.19568859
66	0xbce09055	-0.027412573
67	0x3f101bd9	0.5629249
68	0x3f242903	0.6412508
69	0x3f2ae1f5	0.66751033
70	0xbec7f0c0	-0.39050865
71	0xbe465da3	-0.19371657
72	0x3f465b8b	0.77483433
73	0x3f8c30a7	1.0952348
74	0x3f316ee4	0.6930983
75	0x3e7f35e1	0.24922897
76	0xbb23a9ff	-0.0024973152
77	0xbec50c0a	-0.38485748
78	0xbe5abf6a	-0.21362081
79	0xbe52d317	-0.20588337
80	0xbe8d6520	-0.27616215
81	0x3f27a7a9	0.65490204
82	0x3ef9cb43	0.4878789
83	0xbeec8195	-0.46192613
84	0x3f545f20	0.8295765
85	0xbe4611af	-0.19342683
86	0x3f35717a	0.70876276
87	0x3f5614bc	0.8362539
88	0xbe4178f0	-0.1889379
89	0x3f2f7099	0.68531185
90	0x3f7b2c79	0.98114735
91	0x3f3a671f	0.728136
92	0x3f441a73	0.7660286
93	0xbe4e1693	-0.20125799
94	0xbe55e4a2	-0.20887998
95	0xbf23504a	-0.63794386
96	0xbf12f186	-0.57399786
97	0x3e9965ac	0.29960382
98	0x3f486391	0.78276926
99	0x3f1f7d3e	0.6230048
100	0xbe9b45f5	-0.3032681
101	0x3f4d4bda	0.80193865
102	0x3f430496	0.7617887
103	0xbedd61af	-0.4323859
104	0xbeda9aee	-0.42696327
105	0x3f328f31	0.6974974
106	0x3e6feee6	0.23430976
107	0x3e6f1520	0.23347902
108	0xbeb844a7	-0.35989878
109	0xbf2d9b2d	-0.67814904
110	0xbdef315f	-0.11679339
111	0x3f6edf04	0.93309045
112	0xbdf5c9d2	-0.12001385
113	0xbe41e1f1	-0.18933846
114	0x3f2348a7	0.63782734
115	0x3f1d3acc	0.6141784
116	0x3f900bd2	1.1253607
117	0x3f62771d	0.88463
118	0x3f62d7ab	0.88610333
119	0xbb830809	-0.0039987606
120	0x3f61a9a9	0.88149506
121	0x3e5b5317	0.21418415
122	0xbe0d4a89	-0.13797964
123	0x3ea56afc	0.32308185
124	0x3f5c0bb8	0.8595538
125	0xbe8aa1ad	-0.27076474
126	0x3f8203e3	1.0157436
127	0x3f206afd	0.6266325
128	0xbefa21b6	-0.48853844
129	0xbe9e1879	-0.30878046
130	0xbf17567e	-0.5911635
131	0xbe939678	-0.28825736
132	0xbf12724b	-0.5720565
133	0xbef992d0	-0.48744822
134	0xbed4b18f	-0.41541716
135	0xbee96af7	-0.4558942
136	0x3f467618	0.77523947
137	0xbf1dc4ad	-0.6162823
138	0x3f36d83d	0.71423703
139	0x3f680569	0.90633255
140	0x3f2bd132	0.6711608
141	0x3f60bae3	0.87785167
142	0x3f18e385	0.5972217
143	0x3f88e964	1.0696225
144	0xbf1acdf8	-0.60470533
145	0xbe9a4623	-0.30131635
146	0xbeff005f	-0.4980497
147	0xbe07227b	-0.13196747
148	0x3e8e48fa	0.27790052
149	0xbe64f313	-0.2235835
150	0x3e829d78	0.25510764
151	0xbef131fc	-0.47108448
152	0x3ef0835e	0.46975225
153	0x3f850a70	1.039381
154	0x3f0e4e52	0.5558826
155	0x3f2e247a	0.6802441
156	0x3f0306ba	0.5118214
157	0xbc9363b2	-0.017991874
158	0x3f4f4208	0.8096013
159	0xbea52251	-0.32252744
160	0x3f6548e7	0.89564365
161	0x3f3f81c8	0.74807405
162	0xbeccc721	-0.39995673
163	0x3f4fe7bd	0.8121298
164	0x3f4fa3ce	0.8110932
165	0x3de7eca6	0.11324434
166	0x3f24a108	0.64308214
167	0xbf4bccaa	-0.7960917
168	0xbe7509df	-0.23929547
169	0x3e70c94a	0.23514286
170	0x3f1cf203	0.6130678
171	0xbf294c8b	-0.6613242
172	0xbe990892	-0.2988935
173	0x3eb7e3e2	0.35916048
174	0x3f24775c	0.6424463
175	0x3f7d4733	0.98936766
176	0xbe5e0a31	-0.21683575
177	0xbeb5353d	-0.3539218
178	0xbef334b7	-0.47501156
179	0xbe567162	-0.2094169
180	0x3ed362c4	0.4128629
181	0x3f9d68e7	1.2297639
182	0xbdc21391	-0.09476388
183	0x3f3d0958	0.7384238
184	0x3d7c8553	0.061650585
185	0xbf05059b	-0.5196168
186	0x3f08b487	0.5340046
187	0x3f52f414	0.82403684
188	0xbdc3cfd7	-0.09561127
189	0xbedd5a31	-0.43232873
190	0x3f69d855	0.9134572
191	0x3f87c0e4	1.060574
192	0x3f8e76a7	1.112996
193	0x3d515ca4	0.05111374
194	0x3f1f598e	0.62246025
195	0x3f41c35c	0.7568872
196	0xbd9208e2	-0.071306005
197	0xbf0b60c3	-0.5444452
198	0xbe288633	-0.16457443
199	0x3f70264e	0.9380845
200	0x3f00801e	0.5019549
201	0x3f357715	0.7088483
202	0x3f554a54	0.8331654
203	0xbd91ec3e	-0.07125138
204	0xbf30dd54	-0.6908772
205	0xbeca53f5	-0.3951718
206	0x3f29bd85	0.6630481
207	0x3f4e0fba	0.80492747
208	0xbdbb7038	-0.091522634
209	0x3efbeb0e	0.4920277
210	0x3f4f5ea0	0.8100376
211	0x3eba9d1f	0.36448
212	0x3c96a80f	0.018390683
213	0xbea28144	-0.31739247
214	0x3f3f66d5	0.74766284
215	0xbea656cd	-0.324881
216	0x3f2bcf95	0.6711362
217	0xbd9650d3	-0.07339635
218	0x3f3f7967	0.7479462
219	0x3f4232d7	0.75858825
220	0xbf1e4c62	-0.618353
221	0xbcede4c1	-0.029039742
222	0x3f69f865	0.91394645
223	0x3f17d496	0.59308755
224	0xbf1e4506	-0.6182407
225	0xbe9ed725	-0.31023517
226	0x3f2507ef	0.6446523
227	0xbe3a7354	-0.18208057
228	0x3f1b98ed	0.6078022
229	0x3f49dc65	0.7885192
230	0xbd6b07d8	-0.057380527
231	0xbe3aa459	-0.18226756
232	0xbe700a03	-0.23441319
233	0x3f6b52ef	0.9192342
234	0x3edc9ccf	0.43088385
235	0x3f938b0e	1.1526811
236	0x3f2aead4	0.6676457
237	0xbe1d4212	-0.15357235
238	0xbe09a020	-0.13439989
239	0xbee31c64	-0.44357598
240	0xbf1ef7c9	-0.6209684
241	0x3f8a700c	1.0815444
242	0xbed1f409	-0.41006497
243	0x3f08d4d8	0.53449774
244	0xbe8749b9	-0.26423433
245	0x3ea76669	0.3269532
246	0x3fa16493	1.2608818
247	0x3f2452d7	0.64188904
248	0xbe2963ab	-0.16541927
249	0x3ec341a1	0.38136008
250	0xbcf0c4f0	-0.029390782
251	0x3ea3873b	0.3193911
252	0x3e1a316f	0.1505792
253	0xbe455d8a	-0.19273964
254	0xbe94a7fd	-0.29034415
255	0x3f5e93e2	0.869444

lays.1.weight f4 [256, 256]
0	0xbda89de9	-0.08233244
1	0xbd0de312	-0.03464038
2	0xbd256c3a	-0.040386416
3	0x3d3c1151	0.04591495
4	0x3b1a847f	0.002357751
5	0xbd2a8642	-0.041631944
6	0xbdd53959	-0.10411329
7	0xbd47d3a5	-0.048785824
8	0xbd9f6a5f	-0.077839606
9	0xbdf49ee9	-0.11944372
10	0xbc61a72a	-0.013772765
11	0xbd41fcd1	-0.047360245
12	0xbde0b92f	-0.10972821
13	0xbcf11da8	-0.029433087
14	0xbdb6b979	-0.08922095
15	0xbc376e21	-0.01119569
16	0xbd8df4aa	-0.069314316
17	0xbea3a5b8	-0.3196237
18	0xbd42614e	-0.04745608
19	0xbdbb55f6	-0.09147255
20	0xbc776e0c	-0.015101921
21	0xbcec9b1f	-0.028882561
22	0xbdb39796	-0.08769147
23	0xbd5bffe9	-0.05371085
24	0xbc144dd8	-0.0090517625
25	0xbde1b2ca	-0.110204294
26	0xbd1d11a3	-0.038346898
27	0xbdb1eb64	-0.08687475
28	0xbc9d4fec	-0.019203149
29	0xbe9ecf1e	-0.31017393
30	0xbd290b86	-0.041270755
31	0xbda497ec	-0.08036789
32	0xbd5fb9f3	-0.054620694
33	0xbc345b26	-0.01100806
34	0x3bb2fae1	0.005462036
35	0x3a219069	0.00061631814
36	0xbd2c946d	-0.042133737
37	0xbdd8f112	-0.105928555
38	0xbe0a4e09	-0.1350633
39	0xbdca5c11	-0.098808415
40	0xbdf62c87	-0.12020212
41	0x3a8c52ea	0.0010705863
42	0xbdba240a	-0.09088905
43	0xbbca7865	-0.006178903
44	0xbe260eb8	-0.16216552
45	0xbdd19d9b	-0.10235139
46	0xbdd31907	-0.10307508
47	0xbc979380	-0.01850295
48	0xbdc8a405	-0.09796909
49	0xbdcb7834	-0.09935036
50	0xbdc34ce6	-0.095361516
51	0xbdb239c6	-0.08702426
52	0xbcd490cf	-0.025947956
53	0xbe9dcaf2	-0.30818897
54	0xbd40ba2b	-0.047052544
55	0xbd243183	-0.04008628
56	0xbd8453fe	-0.06461333
57	0xbcd0c71f	-0.025485573
58	0xbc6265e7	-0.013818241
59	0xbdc0a913	-0.09407248
60	0xbcf96657	-0.030444307
61	0xbd936219	-0.07196445
62	0xbd8b2a85	-0.06795219
63	0xbde35c43	-0.11101582
64	0xbb3652de	-0.0027820389
65	0x3dc83eb8	0.09777588
66	0xbcfa294b	-0.030537268
67	0xbdbce7c8	-0.09223896
68	0xbd502ca7	-0.050823834
69	0xbc7ae14b	-0.015312503
70	0xbd45cc29	-0.048290405
71	0xbdf90ce3	-0.12160661
72	0xbca5154a	-0.020151753
73	0xbc084739	-0.008317762
74	0xbd3ea753	-0.04654629
75	0xbcae745b	-0.021295717
76	0xbc8d8aef	-0.017278163
77	0xbddd4424	-0.108040124
78	0xbd96c945	-0.07362608
79	0xbc97f5a9	-0.018549757
80	0xbd98261a	-0.07429142
81	0xbdf7d478	-0.12101072
82	0xbe852fa4	-0.2601291
83	0xbe7fe5da	-0.24990025
84	0xbd604979	-0.05475757
85	0xbce91a44	-0.028454907
86	0xbde889a2	-0.113543764
87	0xbd75d54f	-0.06001788
88	0xbde1c8d4	-0.11024633
89	0xbd75674f	-0.059912976
90	0xbdcc0c69	-0.099633045
91	0xbdc26974	-0.0949277
92	0xbdce28e0	-0.1006639
93	0xbe074e02	-0.13213351
94	0xbd8890b1	-0.06668223
95	0xbd362da9	-0.04447714
96	0xbca4620f	-0.02006629
97	0x3d7bf8a6	0.061516427
98	0xbd9f1d7b	-0.07769295
99	0xbd50e82d	-0.05100267
100	0xbdb17540	-0.08664942
101	0xbdf54c77	-0.11977475
102	0xbd9bacf5	-0.07601348
103	0xbe938482	-0.28812033
104	0xbe8b7f9f	-0.27245805
105	0xbd77bbd0	-0.060481846
106	0xbde3e139	-0.11126942
107	0xbdbb0f3d	-0.09133766
108	0x3c8761b4	0.01652608
109	0x3d70dc48	0.058803827
110	0xbd8176f7	-0.06321519
111	0xbdc569ce	-0.09639321
112	0xbd025cf8	-0.031826943
113	0xbd5b9e16	-0.05361756
114	0xbcfedbe2	-0.031110708
115	0xbd8f55fe	-0.069988236
116	0xbcc3a439	-0.023882018
117	0xbcded472	-0.027200911
118	0xbdd0cee9	-0.10195715
119	0xbd3d63e3	-0.046237838
120	0xbd466b0f	-0.048441943
121	0xbbda8a8f	-0.0066693495
122	0xbde4b509	-0.11167342
123	0xbccf48ba	-0.025303233
124	0xbd63fc39	-0.05566046
125	0xbe95e975	-0.29279676
126	0xbd2dcefe	-0.04243373
127	0xbde5af6f	-0.11215102
128	0xbdcee2f9	-0.10101885
129	0xbdf4c066	-0.119507596
130	0xbe85d26d	-0.26137105
131	0xbc039297	-0.008030555
132	0xbdbc4afd	-0.091939904
133	0xbd0e7b30	-0.03478545
134	0xbe9ce377	-0.30642292
135	0xbdf7090e	-0.12062274
136	0xbd6439f6	-0.05571934
137	0xbe9b26d4	-0.3030306
138	0xbe3641d9	-0.17798556
139	0xbdaaaf70	-0.08334243
140	0xbcff77fa	-0.031185139
141	0xbd45286f	-0.048134264
142	0xbd7f28f5	-0.06229492
143	0xbc883f4b	-0.016631743
144	0xbcdee0a0	-0.027206719
145	0xbdb6990e	-0.089159116
146	0xbed737d3	-0.42034778
147	0xbc931013	-0.017952
148	0xbd73fb8c	-0.059566066
149	0xbccb9c17	-0.024854703
150	0xbd455b50	-0.048182786
151	0xbd971af6	-0.07378189
152	0xbd0aa8ff	-0.033852573
153	0xbdce6293	-0.10077395
154	0xbd5013e6	-0.050800227
155	0xbd13c661	-0.03607786
156	0xbdc7c264	-0.09753874
157	0xbc1730b0	-0.009227917
158	0xbd833267	-0.06406098
159	0xbdd7d2ba	-0.1053824
160	0xbd2aeef1	-0.04173178
161	0xbdc538f9	-0.09630007
162	0xbdc97522	-0.098367944
163	0xbd751fc9	-0.059844766
164	0xbcfb1554	-0.030649818
165	0x3630c881	2.6342752e-06
166	0xbd68d173	-0.05684037
167	0xbbfe54f9	-0.0077615944
168	0xbb984e57	-0.0046480107
169	0xbd9d659d	-0.07685397
170	0xbd829b6c	-0.063773006
171	0xbdf6e213	-0.12054839
172	0xbda2b559	-0.079447456
173	0xbca57c55	-0.020200888
174	0xbd8545ec	-0.06507477
175	0xbd8acc4f	-0.0677725
176	0xbda266f9	-0.07929797
177	0xbce3e2a3	-0.02781803
178	0xbc2145b2	-0.009843277
179	0xbdca573b	-0.09879919
180	0xbcf4ad10	-0.029867679
181	0xbdcac4e9	-0.09900839
182	0xbcab2c64	-0.02089519
183	0xbdac0fb9	-0.08401436
184	0xbdb47c47	-0.088127665
185	0xbe4dec27	-0.20109616
186	0xbde89492	-0.113564625
187	0xbcea0ccd	-0.028570557
188	0xbd8123d9	-0.063056655
189	0xbdc86b14	-0.097860485
190	0xbdd82f02	-0.10555841
191	0xbdc33593	-0.09531703
192	0xbd81638e	-0.06317817
193	0xbd087bf3	-0.033321332
194	0xbd7e68ed	-0.062111784
195	0xbd9c4f44	-0.07632306
196	0xbdb66c28	-0.08907348
197	0xbd3d3bbd	-0.04619955
198	0xbc918bf0	-0.017766923
199	0xbd6eaf35	-0.05827256
200	0xbdc0e1bc	-0.094180554
201	0xbd8e35e5	-0.06943873
202	0xbddc89c5	-0.10768465
203	0xbd101503	-0.03517629
204	0xbed143ed	-0.40872136
205	0xbe18fc03	-0.14939885
206	0xbd832f01	-0.0640545
207	0xbc1925c0	-0.009347379
208	0xbdb5af79	-0.088713594
209	0xbdd0d5bf	-0.10197019
210	0xbd658a1d	-0.05603992
211	0xbd219c7f	-0.039455887
212	0xbddfb23b	-0.10922667
213	0xbdc57972	-0.096423045
214	0xbc610067	-0.013733006
215	0xbbea44a6	-0.007149297
216	0xbcb0a8c5	-0.02156485
217	0xbc690bad	-0.014223975
218	0xbcdce2ff	-0.026963709
219	0xbc0593fb	-0.008152957
220	0xbe9177c3	-0.28411683
221	0xbdd2abd8	-0.10286683
222	0xbdc0489a	-0.09388848
223	0xbd05b37c	-0.032641873
224	0xbd7e01f2	-0.062013574
225	0xbe424a56	-0.1897367
226	0x3acb0bc0	0.0015491173
227	0xbc4c5aa9	-0.012472787
228	0xbdced643	-0.10099461
229	0xbda1a877	-0.0789346
230	0xbc9135b0	-0.017725796
231	0xbd4f547f	-0.05061769
232	0xbbd0c808	-0.006371502
233	0xbd488263	-0.04895247
234	0xbdf4ffd2	-0.11962856
235	0xbd28d3eb	-0.041217726
236	0xbd40e393	-0.04709203
237	0xbd800787	-0.06251436
238	0xbc258047	-0.0101013845
239	0xbdd66ccc	-0.1046997
240	0xbaccd20b	-0.0015626563
241	0xbc93408c	-0.017975114
242	0xbd3226ea	-0.043494143
243	0xbc87b401	-0.016565325
244	0xbd469d87	-0.048490074
245	0xbdb2b9b8	-0.08726829
246	0xbdd0e206	-0.101993605
247	0xbb00d4aa	-0.0019658008
248	0x3cae0685	0.021243343
249	0xbd3f4a31	-0.046701614
250	0xbd95f196	-0.073214695
251	0xbd128662	-0.03577269
252	0x3d8293ed	0.06375871
253	0xbd8bac88	-0.06820017
254	0xbdb9f69b	-0.090802394
255	0xbb62ee14	-0.003462677

lays.1.bias f4 [256]
0	0xbe084263	-0.13306575
1	0xbe6e60c8	-0.23279107
2	0xbc53b444	-0.012921397
3	0xbdd29cfa	-0.10283847
4	0xbdb2955d	-0.08719895
5	0xbc844576	-0.016146403
6	0xbf283816	-0.6571058
7	0xbe84a152	-0.25904328
8	0xbc55a6f5	-0.013040294
9	0xbbac0d7f	-0.0052506323
10	0xbdd5f0fa	-0.10446353
11	0xbd68ab46	-0.056803964
12	0xbe042424	-0.12904412
13	0xbd80e6d7	-0.06294029
14	0xbd9032d1	-0.070409425
15	0xbdf8eb9f	-0.12154316
16	0xbdf0ab7f	-0.1175146
17	0xbdfe294d	-0.12410221
18	0xbde97b1d	-0.11400435
19	0xbdf6718f	-0.12033378
20	0xbd84e820	-0.06489587
21	0xbeba9b39	-0.3644655
22	0xbc99e0be	-0.018783923
23	0xbddb6a4e	-0.107136354
24	0xbe6ed75f	-0.23324345
25	0xbe59eb57	-0.21281181
26	0xbf10edd4	-0.56612897
27	0xbe0a8eb5	-0.13531001
28	0xbcba2cbe	-0.022726413
29	0xbde42c31	-0.11141241
30	0xbdc9276c	-0.09821972
31	0xbd536277	-0.051607575
32	0xbd916867	-0.07099991
33	0xbdc7ebcc	-0.097617716
34	0xbd743c7c	-0.059627995
35	0xbe04d7ea	-0.1297299
36	0xbe37a04f	-0.17932247
37	0xbe4b049a	-0.19825974
38	0xbe4db222	-0.20087484
39	0xbe021102	-0.127018
40	0xbdc50ae7	-0.0962122
41	0xbd825240	-0.06363344
42	0xbc7c0f2b	-0.015384476
43	0xbd56aa8a	-0.052408732
44	0xbd6c8970	-0.057748258
45	0x3b769be8	0.0037629548
46	0xbd39c957	-0.04535803
47	0xbe10e82c	-0.14151067
48	0xbde92f72	-0.113860026
49	0xbdb9c7d4	-0.09071317
50	0xbd165205	-0.036699314
51	0xbeb243c2	-0.3481732
52	0xbd86ff9d	-0.06591723
53	0xbe8e3130	-0.27771902
54	0xbdf20c77	-0.11818784
55	0xbd9e8c45	-0.07741598
56	0xbde906f5	-0.1137828
57	0xbda49318	-0.080358684
58	0xbea43cae	-0.32077545
59	0xbd7af799	-0.061271284
60	0xbdae69c7	-0.08516269
61	0xbe4c7a32	-0.19968489
62	0xbe1088fb	-0.14114754
63	0xbcbfe9ef	-0.023426978
64	0xbd3765dd	-0.04477488
65	0xbd8aaa9d	-0.06770823
66	0xbd981022	-0.07424952
67	0xbdf8f8d5	-0.12156836
68	0xbd9956f5	-0.07487289
69	0xbec9e61e	-0.39433378
70	0xbef8685c	-0.4851712
71	0xbd5e8fd8	-0.0543364
72	0xbd68721f	-0.05674946
73	0xbddfa827	-0.109207444
74	0xbea5efd8	-0.3240955
75	0xbdde25a6	-0.108470246
76	0xbdd3bf98	-0.10339278
77	0xbdbb3da1	-0.09142614
78	0xbe5a62e4	-0.21326786
79	0xbdfeb36a	-0.12436564
80	0xbd4aa8b5	-0.049477298
81	0xbd2aa5a0	-0.04166186
82	0xbf9a84f5	-1.2071825
83	0xbe7bd7eb	-0.24594085
84	0xbd70f15b	-0.058823925
85	0xbdcd7b16	-0.100332424
86	0xbce72e16	-0.028220218
87	0xbefddac4	-0.49580967
88	0xbe36a4b7	-0.17836271
89	0xbcbb6d60	-0.022879303
90	0xbde3bee9	-0.111203976
91	0xbeadf0a5	-0.3397266
92	0xbdd142e2	-0.10217835
93	0xbd77acfe	-0.060467713
94	0xbd80603c	-0.06268355
95	0xbd8f3bff	-0.06993865
96	0xbe9effd1	-0.31054547
97	0xbd29ee1b	-0.04148684
98	0xbe34b733	-0.1764801
99	0xbc0f8e30	-0.0087619275
100	0xbd829a99	-0.063771434
101	0xbda4ede4	-0.080531865
102	0xbd3defc4	-0.046371236
103	0xbc953bb0	-0.018216938
104	0xbc95bfa9	-0.018279867
105	0xbe7d6be9	-0.24748196
106	0xbd548de6	-0.051893137
107	0xbda6f94e	-0.0815302
108	0xbe1aac2c	-0.15104741
109	0xbd9a077f	-0.07520961
110	0xbd5b9420	-0.05360806
111	0xbf8cfbca	-1.101434
112	0xbdfe04a3	-0.12403228
113	0xbd765ade	-0.06014525
114	0xbda48e41	-0.08034945
115	0xbf0326ee	-0.51231277
116	0xbe2a5a23	-0.16635947
117	0xbe7cd25a	-0.24689618
118	0xbd83e704	-0.06440547
119	0xbda4ec88	-0.08052927
120	0xbe32e15e	-0.17468783
121	0xbe30175b	-0.1719641
122	0xbdb79d4c	-0.08965549
123	0xbd9235c9	-0.07139165
124	0xbe2c24b8	-0.16810882
125	0xbdf1d274	-0.11807719
126	0xbe95090d	-0.29108468
127	0xbe7e6c7f	-0.24846075
128	0xbd9d128a	-0.07669552
129	0xbe123d7e	-0.1428127
130	0xbe2d384a	-0.16916004
131	0xbf1f4bf8	-0.62225294
132	0xbdac3c37	-0.084099226
133	0xbe1a284d	-0.15054436
134	0xbe6220d3	-0.22082834
135	0xbeb1f6b6	-0.34758538
136	0xbea660a7	-0.32495615
137	0xbd67f336	-0.05662843
138	0xbd5a7cec	-0.05334179
139	0xbe9505f2	-0.29106098
140	0xbda5bf3e	-0.08093117
141	0xbdd45f0d	-0.10369692
142	0xbdba3f4f	-0.090941064
143	0xbdc26e19	-0.09493656
144	0xbeac8c17	-0.3370063
145	0xbdc8a246	-0.09796576
146	0xbe27ee85	-0.16399582
147	0xbdf5f419	-0.120094486
148	0xbd14a7f8	-0.036293
149	0xbed9b6bd	-0.4252223
150	0xbd7a9898	-0.06118068
151	0xbcf8ad45	-0.030356059
152	0xbd5e51b5	-0.05427714
153	0xbedb14a2	-0.4278918
154	0xbcca16b5	-0.02466903
155	0xbd92fc89	-0.071770735
156	0xbe5e61a1	-0.2171693
157	0xbd609498	-0.05482921
158	0xbda081e1	-0.078372724
159	0xbe07eef9	-0.13274755
160	0xbdcdf3eb	-0.10056289
161	0xbde1a5cd	-0.11017952
162	0xbddc8e71	-0.10769356
163	0xbe551bcf	-0.2081139
164	0xbd9a642a	-0.07538636
165	0xbdfd87a1	-0.12379385
166	0xbe36f324	-0.17866188
167	0xbe6999bb	-0.2281255
168	0xbfa64d6f	-1.2992381
169	0xbda9fd19	-0.08300228
170	0xbfce3ed4	-1.6112924
171	0xbcd7b0d2	-0.026329432
172	0xbca05a1a	-0.019574214
173	0xbdeb3382	-0.11484434
174	0xbef43d48	-0.47703004
175	0xbe77a28b	-0.24183099
176	0xbd54666f	-0.0518555
177	0xbd9d0e8e	-0.07668792
178	0xbca36684	-0.019946344
179	0xbdd513d9	-0.10404176
180	0xbdaa76c6	-0.083234355
181	0xbe4f6137	-0.20251928
182	0xbe2db1e6	-0.16962394
183	0xbd151ddf	-0.03640544
184	0xbdc9665d	-0.09833977
185	0xbec592ac	-0.38588464
186	0xbd6fc3dc	-0.058536395
187	0xbdcb75bb	-0.09934565
188	0xbe0c231b	-0.13685267
189	0xbee828fc	-0.4534377
190	0xbdfb330d	-0.122655965
191	0xbd188529	-0.037236366
192	0xbf0b8f96	-0.5451597
193	0xbd026db1	-0.03184289
194	0xbdeecc18	-0.116600215
195	0xbd27ef02	-0.04099942
196	0xbe3fa880	-0.18716621
197	0xbd618b92	-0.055064745
198	0xbc1dccc3	-0.0096313385
199	0xbe33cd53	-0.17558794
200	0xbd2774b6	-0.04088279
201	0xbdaff531	-0.085916884
202	0xbd5cc657	-0.05390009
203	0xbdb5ec9e	-0.08883022
204	0xbe94723e	-0.2899341
205	0xbd9b3bb0	-0.07579744
206	0xbe15f1d7	-0.14643036
207	0xbe0b685c	-0.13614029
208	0xbdd333db	-0.10312625
209	0xbe9dbeaa	-0.30809528
210	0xbc32f2fd	-0.010922191
211	0xbce4db4a	-0.027936596
212	0xbbd4f742	-0.006499202
213	0xbd3ddc1b	-0.046352487
214	0xb9900e87	-0.00027476644
215	0xbd8bca95	-0.06825749
216	0xbe162154	-0.14661151
217	0xbd876e4c	-0.06612834
218	0xbf0a7e59	-0.5409904
219	0xbdf51576	-0.11966984
220	0xbd970e18	-0.07375735
221	0xbcf97eb1	-0.030455919
222	0xbdedde2d	-0.11614642
223	0xbdfbc2b1	-0.12292994
224	0xbd5ef160	-0.054429412
225	0xbdda9c47	-0.10674339
226	0xbddf75d6	-0.10911147
227	0xbcba95a8	-0.02277644
228	0xbd12963b	-0.035787802
229	0xbdd62cfb	-0.10457798
230	0xbdd9a960	-0.10628009
231	0xbd808c3b	-0.06276747
232	0xbeb9f3ad	-0.36318722
233	0xbdf040ef	-0.11731135
234	0xbddf4bc0	-0.1090312
235	0xbcd3d90a	-0.025860328
236	0xbe9f15fd	-0.31071463
237	0xbf077166	-0.5290741
238	0xbec02268	-0.3752625
239	0xbf2ef7fd	-0.6834715
240	0xbdacd1ce	-0.084384546
241	0xbefc38fb	-0.49262223
242	0xbfb2a257	-1.3955792
243	0xbddd9ae7	-0.10820561
244	0x3e3a110c	0.18170565
245	0xbed482d8	-0.41506076
246	0xbd93a7f1	-0.07209767
247	0xbde4527e	-0.11148547
248	0x3aaa2437	0.0012980764
249	0xbe724c6f	-0.2366197
250	0xbead42e8	-0.33840108
251	0xbe093d6e	-0.1340234
252	0xbea37231	-0.3192306
253	0xba9f9205	-0.0012174255
254	0xbd584b9b	-0.052806478
255	0xbde2691a	-0.11055203

lays.2.weight f4 [2, 256]
0	0x3d11e971	0.035623018
1	0x3cdb4cd6	0.026770037
2	0x3d0e2866	0.034706496
3	0x3ceb1d47	0.028700484
4	0x3dbb8192	0.09155573
5	0xba1f5bef	-0.0006079068
6	0xbc03aa92	-0.008036273
7	0xbd2dcc26	-0.04243102
8	0x3b9f4b46	0.004861268
9	0xbc8aa9ff	-0.016926764
10	0x3baa5a47	0.00519875
11	0x3c2b0086	0.0104371365
12	0x3c84e6fc	0.016223423
13	0xbd184fff	-0.037185665
14	0x3c6eb2ec	0.0145690255
15	0x3c4b8445	0.012421672
16	0x3c149a69	0.009070017
17	0xbd041990	-0.03225094
18	0xbd013920	-0.03154862
19	0x3d906cb2	0.07051982
20	0xbd797271	-0.060900155
21	0xbde428b2	-0.111405745
22	0x3c81ea5c	0.015858822
23	0x3cf819fc	0.030285828
24	0xbe7f6353	-0.24940233
25	0xbc7e0352	-0.015503721
26	0xbe0d43ee	-0.13795444
27	0xbd9da4b0	-0.07697427
28	0x3d3e3801	0.04644013
29	0xbd9833c3	-0.07431748
30	0xbd0a0f2f	-0.033705886
31	0x3d5fbf6e	0.05462592
32	0xbd81ff9a	-0.0634758
33	0xbd37e574	-0.044896558
34	0xbbc56751	-0.006024279
35	0x3dadcae7	0.08485966
36	0xbc9e2e60	-0.019309223
37	0x3d3fb6d9	0.046805236
38	0x3d714494	0.05890329
39	0x3d28fa43	0.041254293
40	0x3bce1281	0.006288827
41	0xbcbb51a2	-0.022866074
42	0xbcb904c5	-0.022585282
43	0x3c37aa5c	0.01121005
44	0x3dcf67dd	0.10127232
45	0xb9ea373a	-0.00044673105
46	0x3c0d85aa	0.008637825
47	0xbd29eb5e	-0.04148423
48	0xbd2ab0be	-0.04167246
49	0xbd1bf678	-0.038076848
50	0x38a99b0e	8.087429e-05
51	0x3b0f343b	0.00218512
52	0x3bd453b8	0.0064797066
53	0xbe73ede3	-0.23821215
54	0x3c5b0dca	0.013369987
55	0x3d839dbe	0.06426571
56	0xbd220cb5	-0.0395629
57	0xbb9861bf	-0.004650324
58	0xbc518f8b	-0.012790571
59	0x3b591961	0.00331267
60	0x3d366df0	0.04453844
61	0x3c58e49c	0.0132380985
62	0x3dee1d8a	0.11626728
63	0xbc8459fb	-0.016156187
64	0x3ce150d6	0.027504366
65	0x3db00b35	0.085958876
66	0xbcdb77c0	-0.0267905
67	0x3bebbb67	0.007193971
68	0x39c7fc0b	0.00038144024
69	0x3e1b54d7	0.15169083
70	0x3df767ad	0.120803215
71	0x3ba90cfd	0.005159019
72	0xbd91d989	-0.0712157
73	0x3b9f9727	0.0048703137
74	0xbc5bfa1d	-0.013426331
75	0x3d82c4b1	0.06385172
76	0x3d8fdfd1	0.070251115
77	0x39cb412e	0.0003876774
78	0xbe355085	-0.17706497
79	0x3c1f7c5f	0.009734242
80	0xbd17ee80	-0.037092686
81	0x3cbcaa73	0.023030495
82	0x3e4eff5a	0.20214596
83	0xbda4604b	-0.08026179
84	0x3d10e5bc	0.03537534
85	0x3aaef388	0.0013347724
86	0xbcfa676b	-0.030566892
87	0xbd68ebf3	-0.056865644
88	0x3cb1d3e2	0.021707479
89	0x3d0a0348	0.033694535
90	0xbc691cc3	-0.014228049
91	0xbe11b210	-0.14228082
92	0x3d56e4a0	0.052464128
93	0x3c8864bc	0.016649596
94	0x3bea75f1	0.007155173
95	0xbda6cb4a	-0.08144243
96	0xbb4cbf77	-0.0031242052
97	0x3d6f4085	0.05841114
98	0xbe12e448	-0.14344895
99	0xba90db9e	-0.0011051779
100	0xbd844da4	-0.06460121
101	0x3da01dee	0.07818209
102	0x3d308f15	0.043105204
103	0x3d3b70d1	0.045761887
104	0x3d41b0cc	0.047287747
105	0x3d88abb1	0.066733725
106	0xbcbe2a9c	-0.023213677
107	0x3b120a28	0.0022283886
108	0x3d155af4	0.036463693
109	0xbcf7be06	-0.030241977
110	0x3bb919f1	0.0056488444
111	0xbc50d635	-0.012746383
112	0x3d07a2a5	0.033114094
113	0xbca66c20	-0.02031523
114	0x3d481ec7	0.048857477
115	0xbe428679	-0.1899661
116	0xbd197cb0	-0.037472427
117	0x3df82797	0.12116926
118	0x3b256455	0.0025236805
119	0xbda04603	-0.07825854
120	0xbd0a68d4	-0.03379138
121	0xbceda5dd	-0.029009754
122	0x3dc6e926	0.09712438
123	0xbd19fdaa	-0.03759543
124	0xbdb714f2	-0.08939542
125	0x3d935aaf	0.07195031
126	0x3deaacc4	0.11458734
127	0xbe1519e5	-0.14560659
128	0x3c163732	0.009168433
129	0xbd01ee56	-0.031721435
130	0x3e4804ef	0.19533132
131	0xbc24abb7	-0.010050706
132	0xbbda0989	-0.0066539687
133	0x3c9929e6	0.018696737
134	0x3b222ebc	0.0024747094
135	0x3e46cc75	0.19413932
136	0xbdecbf4f	-0.11559927
137	0x3d7e83f6	0.062137567
138	0xbcf01f85	-0.029311905
139	0xbe8f7092	-0.28015572
140	0x3db8d9c9	0.09025914
141	0x3b78efbc	0.003798469
142	0xbb56bb4c	-0.0032765446
143	0xbca84bfc	-0.020544045
144	0x3b858ee1	0.0040758704
145	0xbdb3a885	-0.08772377
146	0x3bbc1d26	0.0057407795
147	0x3c89dec6	0.01682986
148	0xbcc26bba	-0.023733009
149	0xbc0f0253	-0.0087285815
150	0x3d171041	0.036880735
151	0x3dc42b26	0.095785424
152	0x3b914164	0.004432844
153	0x3e533af5	0.20627959
154	0x3d50b86b	0.050957125
155	0x3c8364c3	0.016039258
156	0xbe68ce37	-0.22734915
157	0x3d138ae4	0.03602113
158	0x3d46386f	0.048393663
159	0x3d782776	0.060584508
160	0xbc8ed57b	-0.01743578
161	0x3d9c41e5	0.07629756
162	0xbcb3625a	-0.021897484
163	0x3b7a06aa	0.0038150945
164	0x3bf65cf6	0.007518406
165	0xbd55a6cb	-0.05216102
166	0xbe42a890	-0.19009614
167	0x3e1b4aa1	0.15165187
168	0xbd499353	-0.049212765
169	0xbd4579f7	-0.048212018
170	0xbd177332	-0.036975093
171	0x3cb76dfe	0.022391316
172	0xbd670a98	-0.056406587
173	0x3c93dc6e	0.018049445
174	0x3d775edf	0.06039321
175	0xbbf0375e	-0.007330819
176	0x3d4d9b65	0.050197024
177	0x3d0a5439	0.033771727
178	0x3cb70096	0.022339147
179	0xbca87731	-0.020564647
180	0xbce83857	-0.028347177
181	0xbdd52f42	-0.10409404
182	0xbdd07071	-0.101776965
183	0xbdc944aa	-0.0982755
184	0xb7f9ff78	-2.9802075e-05
185	0x3da0c545	0.07850126
186	0xbd8e9cb2	-0.06963481
187	0xbd2c1a4d	-0.04201727
188	0xbba877c4	-0.0051412303
189	0xbdfc8c02	-0.12331392
190	0xbcf98cb5	-0.030462602
191	0x3d186d1e	0.037213437
192	0xbeae5c90	-0.34054995
193	0x3cd3114a	0.02576508
194	0x3d618c0c	0.0550652
195	0xbcc940ff	-0.024567125
196	0xbe26787a	-0.16256896
197	0xbc7f26cd	-0.015573216
198	0x3cde03e0	0.027101457
199	0x3aefe8a2	0.0018303583
200	0xbd4e890a	-0.05042366
201	0xbccc20c3	-0.024917966
202	0xbcbe6624	-0.023242064
203	0x3ceda2b5	0.029008249
204	0xbb6a2451	-0.0035727213
205	0xbd160adb	-0.036631446
206	0x3d9f5e37	0.07781642
207	0xbd92ba22	-0.07164408
208	0xbc7a5618	-0.015279315
209	0x3bb5da19	0.005549681
210	0x3c8ffe75	0.01757739
211	0x3c0ccd51	0.008593873
212	0x3da56cbe	0.080773816
213	0x3c00e17c	0.00786626
214	0xbdd0c9c9	-0.101947375
215	0xbc763b40	-0.015028775
216	0x3d812bdf	0.06307196
217	0x3d16ea22	0.03684438
218	0xbcc3c7f6	-0.02389906
219	0x3ba97da1	0.005172447
220	0xbc04fb0b	-0.008116494
221	0x3d60c91c	0.054879293
222	0x3d3877aa	0.045035996
223	0x3d73cf88	0.05952409
224	0x3d5471a7	0.0518662
225	0x3c8f8d16	0.01752333
226	0x3dd651b5	0.10464803
227	0x3d5e8392	0.054324694
228	0xbca92101	-0.02064562
229	0x3c271578	0.01019799
230	0x3db4f378	0.088355005
231	0x3c1194be	0.008885561
232	0xbe000442	-0.12501624
233	0xbd8431c3	-0.06454804
234	0x3cb0d8d8	0.021587774
235	0x3c08a6df	0.008340566
236	0xbc19847a	-0.009369964
237	0x3c6d7275	0.014492621
238	0x3dbcb948	0.09215027
239	0x3c3ddf99	0.011588954
240	0xbc737ef1	-0.014861808
241	0x3e513de5	0.20433767
242	0x3c038215	0.008026619
243	0x3b61482f	0.00343753
244	0x3d2c1908	0.04201606
245	0xbe9fdbd0	-0.3122239
246	0x3cf90848	0.030399457
247	0x3db6d76e	0.08927809
248	0x3c84d408	0.016214386
249	0xbd50a2b3	-0.050936412
250	0x3e16a4af	0.1471126
251	0x3cf6d7b2	0.030132148
252	0xbdd82386	-0.105536506
253	0xbde1a570	-0.11017883
254	0xbd6104cb	-0.05493621
255	0xbd6ab9d2	-0.05730612

lays.2.bias f4 [2]
0	0x3e44e7eb	0.19229095
1	0xbe265422	-0.16243032

l1.weight f4 [256, 63]
0	0xbfa1be50	-1.2636204
1	0xbf465564	-0.77474046
2	0xbeeddf99	-0.46459654
3	0xbf465ab7	-0.7748217
4	0x3dae5b3e	0.08513497
5	0xbf806471	-1.0030652
6	0x3f041440	0.515934
7	0x3ef9fb7e	0.48824686
8	0x3e28754b	0.16450994
9	0x3ea5ad11	0.32358602
10	0x3e931063	0.2872344
11	0x3f6e56f7	0.9310145
12	0x3f010e83	0.5041277
13	0x3c28aa92	0.010294573
14	0xbe271677	-0.16317163
15	0xbedc9eb5	-0.43089834
16	0x3dd71971	0.105028994
17	0xbeadb54b	-0.33927378
18	0xbe905578	-0.28190207
19	0x3e883754	0.26604712
20	0xbda7499d	-0.081683375
21	0xbeccaeff	-0.3997726
22	0xbdb55b4d	-0.08855305
23	0xbdfad4f6	-0.1224765
24	0xbe872c09	-0.26400784
25	0x3e9694e4	0.2941047
26	0x3f209f68	0.62743235
27	0xbd18a404	-0.037265792
28	0xbe446e4e	-0.19182703
29	0x3df76abf	0.12080907
30	0x3c0a1245	0.008427207
31	0xbe378a3f	-0.1792383
32	0xbf0241bd	-0.5088156
33	0xbc204185	-0.009781246
34	0x3f20e8e5	0.6285537
35	0x3f127257	0.5720572
36	0x3f421f1c	0.7582872
37	0x3dc31e59	0.09527273
38	0xbf155d4a	-0.5834547
39	0x3ec4a7fd	0.38409415
40	0xbe836869	-0.25665596
41	0x3d1a198c	0.03762202
42	0x3d576157	0.052583065
43	0x3e469451	0.19392516
44	0x3d8153ca	0.063148096
45	0xbd77cce7	-0.060498144
46	0x3e69824e	0.22803614
47	0x3e6fa332	0.23402098
48	0x3c884ba1	0.016637625
49	0xbd00a016	-0.03140267
50	0x3ee8fbf7	0.45504734
51	0x3f2a8de7	0.66622776
52	0xbe05176c	-0.12997216
53	0xbe3f0e36	-0.18657765
54	0x3e0b482d	0.13601752
55	0x3ea487b8	0.32134795
56	0x3ec9c294	0.39406264
57	0xbe2ca351	-0.16859175
58	0x3f582116	0.84425485
59	0xbd874002	-0.066040054
60	0xbebed5e4	-0.3727256
61	0xbe9d7b11	-0.30757955
62	0x3d873b46	0.066031024
63	0xbe92f760	-0.28704357
64	0x3dd55e8a	0.104184225
65	0x3d8e2f8e	0.06942664
66	0xbea2cf40	-0.31798744
67	0xbdfe55f7	-0.1241874
68	0xbe43547b	-0.19075195
69	0x3e549403	0.20759587
70	0xbdd09ade	-0.101857886
71	0x3db96406	0.09052281
72	0x3d0c8d24	0.03431429
73	0x3e21623e	0.15760133
74	0x3e654721	0.22390415
75	0x3e0bdb87	0.13657962
76	0x3de85fa9	0.11346371
77	0xbd22a752	-0.03971035
78	0xbe30a556	-0.1725057
79	0xbe2ddc2f	-0.16978525
80	0xb8582885	-5.153615e-05
81	0x3d473fe3	0.04864491
82	0x3bad1aeb	0.00528275
83	0x3e158119	0.14600028
84	0x3c88c3ba	0.016694892
85	0x3c25b134	0.010113049
86	0xbcf85336	-0.030313116
87	0xbec7c957	-0.39020798
88	0xbcb8d512	-0.022562537
89	0x3d811694	0.063031346
90	0x3d38986d	0.04506724
91	0x3d9bfd1e	0.07616638
92	0xbcebb519	-0.028772878
93	0x3ca8f5e7	0.020625068
94	0xbccfc74f	-0.025363592
95	0xbd0dea75	-0.034647424
96	0x3ef87266	0.4852478
97	0x3d2b6ef9	0.04185388
98	0x3e41cb4b	0.18925206
99	0x3dafae4a	0.08578165
100	0xbd721b33	-0.05910797
101	0xbc5ce262	-0.013481708
102	0xbe4fd87d	-0.20297427
103	0xbe44f190	-0.19232774
104	0xbe3b2c29	-0.18278565
105	0xbe55af4e	-0.20867655
106	0xbe0e14f7	-0.13875185
107	0xbd338412	-0.043827124
108	0xbdc45dfb	-0.09588238
109	0x3cb0cce3	0.021582073
110	0xbeaaf8cd	-0.33392945
111	0xbe46729a	-0.19379655
112	0xbdd5fb29	-0.104482956
113	0x3e416a28	0.18888152
114	0x3ea0f53b	0.31437096
115	0xbc30dfb0	-0.010795519
116	0xbdb73abb	-0.08946749
117	0xbdaf859c	-0.08570406
118	0xbe7f65d0	-0.24941182
119	0xbd158fc9	-0.036514077
120	0x3debe3d8	0.11518067
121	0xbe0cc3a0	-0.137465
122	0x3c0655f4	0.008199204
123	0xbd88e0ef	-0.06683528
124	0xbdb406dd	-0.087903716
125	0x3d7c1132	0.061539836
126	0xc0010585	-2.015962
127	0x3cd3c8a8	0.025852516
128	0xbbb8b487	-0.005636755
129	0xbe34c42e	-0.17652962
130	0xbcbc1c78	-0.022962794
131	0x3dd204a7	0.102547936
132	0x3e4a22f1	0.19739892
133	0x3eebcf4a	0.46056587
134	0x3e00adfc	0.1256637
135	0x3e8bda50	0.27314997
136	0xbcb59fe8	-0.022170976
137	0xbf6442db	-0.89164513
138	0x3f66ad11	0.9010783
139	0x3e8e5923	0.2780238
140	0xbe2e6c52	-0.17033508
141	0xbe8f25fb	-0.27958664
142	0x3e816797	0.25274345
143	0x3e15f931	0.1464584
144	0xbdaeeabc	-0.08540866
145	0xbb8c4624	-0.0042808224
146	0x3e439f18	0.19103658
147	0xbd6e967e	-0.05824899
148	0xbef7f114	-0.48426116
149	0xbdf086b8	-0.117444456
150	0xbe1a537d	-0.15070911
151	0xbe6d9151	-0.23199965
152	0x3f111573	0.56673354
153	0x3cb7e11d	0.02244621
154	0x3d8a65ef	0.067577235
155	0xbe42b232	-0.19013289
156	0x3d141b54	0.036158875
157	0x3d8890df	0.06668257
158	0xbe809cea	-0.25119716
159	0xbccf2f01	-0.025290968
160	0x3e9c8eb8	0.30577636
161	0x3e202377	0.15638529
162	0xbf25f6b1	-0.64829546
163	0x3da3b336	0.07993166
164	0x3c84a27a	0.016190756
165	0x3f05e54e	0.52303016
166	0xbc90e418	-0.017686889
167	0x3e526f58	0.20550287
168	0x3d81349b	0.06308862
169	0x3db0c3c4	0.08631089
170	0x3d000e8d	0.031263877
171	0x3e64da98	0.22349012
172	0xbdd9bab8	-0.10631317
173	0xbd82a700	-0.06379509
174	0xbdbd9bd5	-0.09258238
175	0xbecbd319	-0.39809492
176	0xbe25ad2e	-0.16179344
177	0x3ef415d1	0.47672895
178	0x3d835cb2	0.064141646
179	0x3e2056ff	0.15658186
180	0x3b2e37ee	0.002658363
181	0x3e555d52	0.2083638
182	0x3e2aed39	0.16692056
183	0xbef94f86	-0.48693484
184	0x3edeb354	0.43496192
185	0x3f1862ec	0.5952594
186	0xbe9e94cc	-0.30972898
187	0x3ec86a2d	0.39143506
188	0xbd7e2b04	-0.06205274
189	0xbeab8e5a	-0.33507043
190	0xbe5f0f66	-0.21783218
191	0xbe360efd	-0.17779155
192	0xbf12d747	-0.5735974
193	0x3e38edc0	0.18059444
194	0xbe6489c4	-0.22318178
195	0x3f3aa1fd	0.72903425
196	0x3efedd43	0.49778184
197	0xbd9ed9ae	-0.07756363
198	0x3eac99a9	0.33710983
199	0x3eab5806	0.33465594
200	0x3f2b533d	0.66923887
201	0x3e306cff	0.17229079
202	0xbd587a34	-0.052850917
203	0x3db7a952	0.08967842
204	0xbe9a6bb8	-0.30160308
205	0x3ebf0851	0.37311032
206	0xbf4c1d03	-0.7973177
207	0x3ddec48b	0.10877331
208	0x3da8611a	0.08221646
209	0x3e0d8963	0.1382194
210	0xbf057d31	-0.5214415
211	0xbe4f5c7d	-0.20250125
212	0xbc3e3895	-0.01161017
213	0xbd13f929	-0.03612629
214	0x3d99b9c4	0.07506135
215	0x3f80fa5a	1.0076401
216	0xbe575222	-0.21027425
217	0xbe83fbcd	-0.25778046
218	0x3ed0dc33	0.40793
219	0xba7e6d10	-0.00097055826
220	0xbe0d0da5	-0.13774736
221	0xbf2c8329	-0.67387635
222	0x3f331fe3	0.6997053
223	0x3f08991c	0.53358626
224	0x3eeef4ac	0.46671045
225	0x3f68404b	0.90723103
226	0xbd15d142	-0.036576517
227	0xbf33950a	-0.7014929
228	0xbe9fdabc	-0.3122157
229	0x3ecf3ccc	0.40476072
230	0x3e3bfe3e	0.18358704
231	0x3ea1a626	0.31572074
232	0x3eadf63a	0.33976918
233	0xbe7ba127	-0.24573193
234	0xbee43b61	-0.44576553
235	0xbe7bb2a2	-0.24579862
236	0x3eebaef3	0.46031913
237	0x3d315734	0.043296054
238	0xbefbc3d1	-0.49172834
239	0x3e1bc4af	0.15211748
240	0x3f85e5dd	1.0460774
241	0xbe8de8fe	-0.2771682
242	0x3f1b1018	0.6057143
243	0x3d983f47	0.07433944
244	0x3eefea8f	0.46858642
245	0xbe674de1	-0.22588302
246	0xbd6d9779	-0.058005784
247	0x3e389486	0.18025407
248	0xbe73fed7	-0.23827682
249	0x3f0a3873	0.53992385
250	0xbe709b43	-0.23496728
251	0x3dff3e0b	0.12463006
252	0x3f95a82c	1.1691947
253	0xbf08eb89	-0.534844
254	0xbed51f39	-0.41625383
255	0xbf362662	-0.7115232

l1.bias f4 [256]
0	0x3f419bc6	0.75628316
1	0xbed7e9b2	-0.42170483
2	0x3f145df1	0.57955843
3	0x3df89a6b	0.12138828
4	0x3f0055e4	0.5013106
5	0xbe30d70a	-0.17269531
6	0x3eb4a921	0.35285285
7	0x3f16389f	0.58680147
8	0xbedb9b2d	-0.42891827
9	0x3f186882	0.59534466
10	0x3f6db7f3	0.9285881
11	0xbec2b9c4	-0.38032353
12	0x3f2eaa1b	0.6822831
13	0x3f638f9b	0.88891
14	0xbea18a11	-0.3155065
15	0x3f5f0fa1	0.8713322
16	0xbee8cd36	-0.45469064
17	0xbed5b062	-0.41736132
18	0xbe2afedc	-0.16698784
19	0x3f1dc5e8	0.61630106
20	0xbed805d3	-0.42191944
21	0xbf48d2e3	-0.7844679
22	0x3ea69c0b	0.32540926
23	0x3eabb5a2	0.33537012
24	0xbe9a207f	-0.30102918
25	0xbf25cbc5	-0.6476405
26	0xbe954bf1	-0.291595
27	0x3f62659f	0.8843631
28	0x3ee3f231	0.44520715
29	0xbebcb1fc	-0.3685454
30	0x3f7c55ac	0.98568225
31	0x3f67b5b1	0.90511614
32	0x3f67ef24	0.90599275
33	0xbedd5c4b	-0.43234476
34	0xbe35ae84	-0.17742354
35	0x3f2809d5	0.6564
36	0x3ecdc6ea	0.40190822
37	0x3f7e0506	0.99226415
38	0x3f85c7c5	1.045159
39	0x3f42c016	0.7607435
40	0x3f334064	0.7002013
41	0xbe67d648	-0.22640336
42	0xbca086f7	-0.019595606
43	0xbec60278	-0.38673759
44	0x3f490843	0.7852823
45	0xbf494c87	-0.78632396
46	0xbe1c883d	-0.15286346
47	0xbeed3c60	-0.46335125
48	0x3f6b2e72	0.91867745
49	0x3f8a6c7d	1.0814358
50	0x3f81f8dd	1.0154072
51	0x3e97a157	0.2961528
52	0xbdb37a27	-0.08763533
53	0xbf01b370	-0.50664425
54	0xbebb9826	-0.36639518
55	0x3f1e96b0	0.6194868
56	0xbe847d2e	-0.25876755
57	0x3f409e37	0.75241417
58	0x3ecda398	0.40163875
59	0x3f1793fe	0.59210193
60	0xbe37136f	-0.17878507
61	0x3eff41d1	0.498549
62	0xbe8677a9	-0.26263168
63	0x3e92d6d9	0.2867954
64	0xbe41345f	-0.18867634
65	0xbe486297	-0.19568859
66	0xbce09055	-0.027412573
67	0x3f101bd9	0.5629249
68	0x3f242903	0.6412508
69	0x3f2ae1f5	0.66751033
70	0xbec7f0c0	-0.39050865
71	0xbe465da3	-0.19371657
72	0x3f465b8b	0.77483433
73	0x3f8c30a7	1.0952348
74	0x3f316ee4	0.6930983
75	0x3e7f35e1	0.24922897
76	0xbb23a9ff	-0.0024973152
77	0xbec50c0a	-0.38485748
78	0xbe5abf6a	-0.21362081
79	0xbe52d317	-0.20588337
80	0xbe8d6520	-0.27616215
81	0x3f27a7a9	0.65490204
82	0x3ef9cb43	0.4878789
83	0xbeec8195	-0.46192613
84	0x3f545f20	0.8295765
85	0xbe4611af	-0.19342683
86	0x3f35717a	0.70876276
87	0x3f5614bc	0.8362539
88	0xbe4178f0	-0.1889379
89	0x3f2f7099	0.68531185
90	0x3f7b2c79	0.98114735
91	0x3f3a671f	0.728136
92	0x3f441a73	0.7660286
93	0xbe4e1693	-0.20125799
94	0xbe55e4a2	-0.20887998
95	0xbf23504a	-0.63794386
96	0xbf12f186	-0.57399786
97	0x3e9965ac	0.29960382
98	0x3f486391	0.78276926
99	0x3f1f7d3e	0.6230048
100	0xbe9b45f5	-0.3032681
101	0x3f4d4bda	0.80193865
102	0x3f430496	0.7617887
103	0xbedd61af	-0.4323859
104	0xbeda9aee	-0.42696327
105	0x3f328f31	0.6974974
106	0x3e6feee6	0.23430976
107	0x3e6f1520	0.23347902
108	0xbeb844a7	-0.35989878
109	0xbf2d9b2d	-0.67814904
110	0xbdef315f	-0.11679339
111	0x3f6edf04	0.93309045
112	0xbdf5c9d2	-0.12001385
113	0xbe41e1f1	-0.18933846
114	0x3f2348a7	0.63782734
115	0x3f1d3acc	0.6141784
116	0x3f900bd2	1.1253607
117	0x3f62771d	0.88463
118	0x3f62d7ab	0.88610333
119	0xbb830809	-0.0039987606
120	0x3f61a9a9	0.88149506
121	0x3e5b5317	0.21418415
122	0xbe0d4a89	-0.13797964
123	0x3ea56afc	0.32308185
124	0x3f5c0bb8	0.8595538
125	0xbe8aa1ad	-0.27076474
126	0x3f8203e3	1.0157436
127	0x3f206afd	0.6266325
128	0xbefa21b6	-0.48853844
129	0xbe9e1879	-0.30878046
130	0xbf17567e	-0.5911635
131	0xbe939678	-0.28825736
132	0xbf12724b	-0.5720565
133	0xbef992d0	-0.48744822
134	0xbed4b18f	-0.41541716
135	0xbee96af7	-0.4558942
136	0x3f467618	0.77523947
137	0xbf1dc4ad	-0.6162823
138	0x3f36d83d	0.71423703
139	0x3f680569	0.90633255
140	0x3f2bd132	0.6711608
141	0x3f60bae3	0.87785167
142	0x3f18e385	0.5972217
143	0x3f88e964	1.0696225
144	0xbf1acdf8	-0.60470533
145	0xbe9a4623	-0.30131635
146	0xbeff005f	-0.4980497
147	0xbe07227b	-0.13196747
148	0x3e8e48fa	0.27790052
149	0xbe64f313	-0.2235835
150	0x3e829d78	0.25510764
151	0xbef131fc	-0.47108448
152	0x3ef0835e	0.46975225
153	0x3f850a70	1.039381
154	0x3f0e4e52	0.5558826
155	0x3f2e247a	0.6802441
156	0x3f0306ba	0.5118214
157	0xbc9363b2	-0.017991874
158	0x3f4f4208	0.8096013
159	0xbea52251	-0.32252744
160	0x3f6548e7	0.89564365
161	0x3f3f81c8	0.74807405
162	0xbeccc721	-0.39995673
163	0x3f4fe7bd	0.8121298
164	0x3f4fa3ce	0.8110932
165	0x3de7eca6	0.11324434
166	0x3f24a108	0.64308214
167	0xbf4bccaa	-0.7960917
168	0xbe7509df	-0.23929547
169	0x3e70c94a	0.23514286
170	0x3f1cf203	0.6130678
171	0xbf294c8b	-0.6613242
172	0xbe990892	-0.2988935
173	0x3eb7e3e2	0.35916048
174	0x3f24775c	0.6424463
175	0x3f7d4733	0.98936766
176	0xbe5e0a31	-0.21683575
177	0xbeb5353d	-0.3539218
178	0xbef334b7	-0.47501156
179	0xbe567162	-0.2094169
180	0x3ed362c4	0.4128629
181	0x3f9d68e7	1.2297639
182	0xbdc21391	-0.09476388
183	0x3f3d0958	0.7384238
184	0x3d7c8553	0.061650585
185	0xbf05059b	-0.5196168
186	0x3f08b487	0.5340046
187	0x3f52f414	0.82403684
188	0xbdc3cfd7	-0.09561127
189	0xbedd5a31	-0.43232873
190	0x3f69d855	0.9134572
191	0x3f87c0e4	1.060574
192	0x3f8e76a7	1.112996
193	0x3d515ca4	0.05111374
194	0x3f1f598e	0.62246025
195	0x3f41c35c	0.7568872
196	0xbd9208e2	-0.071306005
197	0xbf0b60c3	-0.5444452
198	0xbe288633	-0.16457443
199	0x3f70264e	0.9380845
200	0x3f00801e	0.5019549
201	0x3f357715	0.7088483
202	0x3f554a54	0.8331654
203	0xbd91ec3e	-0.07125138
204	0xbf30dd54	-0.6908772
205	0xbeca53f5	-0.3951718
206	0x3f29bd85	0.6630481
207	0x3f4e0fba	0.80492747
208	0xbdbb7038	-0.091522634
209	0x3efbeb0e	0.4920277
210	0x3f4f5ea0	0.8100376
211	0x3eba9d1f	0.36448
212	0x3c96a80f	0.018390683
213	0xbea28144	-0.31739247
214	0x3f3f66d5	0.74766284
215	0xbea656cd	-0.324881
216	0x3f2bcf95	0.6711362
217	0xbd9650d3	-0.07339635
218	0x3f3f7967	0.7479462
219	0x3f4232d7	0.75858825
220	0xbf1e4c62	-0.618353
221	0xbcede4c1	-0.029039742
222	0x3f69f865	0.91394645
223	0x3f17d496	0.59308755
224	0xbf1e4506	-0.6182407
225	0xbe9ed725	-0.31023517
226	0x3f2507ef	0.6446523
227	0xbe3a7354	-0.18208057
228	0x3f1b98ed	0.6078022
229	0x3f49dc65	0.7885192
230	0xbd6b07d8	-0.057380527
231	0xbe3aa459	-0.18226756
232	0xbe700a03	-0.23441319
233	0x3f6b52ef	0.9192342
234	0x3edc9ccf	0.43088385
235	0x3f938b0e	1.1526811
236	0x3f2aead4	0.6676457
237	0xbe1d4212	-0.15357235
238	0xbe09a020	-0.13439989
239	0xbee31c64	-0.44357598
240	0xbf1ef7c9	-0.6209684
241	0x3f8a700c	1.0815444
242	0xbed1f409	-0.41006497
243	0x3f08d4d8	0.53449774
244	0xbe8749b9	-0.26423433
245	0x3ea76669	0.3269532
246	0x3fa16493	1.2608818
247	0x3f2452d7	0.64188904
248	0xbe2963ab	-0.16541927
249	0x3ec341a1	0.38136008
250	0xbcf0c4f0	-0.029390782
251	0x3ea3873b	0.3193911
252	0x3e1a316f	0.1505792
253	0xbe455d8a	-0.19273964
254	0xbe94a7fd	-0.29034415
255	0x3f5e93e2	0.869444
