TABULAR/Figure1Reproduce/Models/ADULT_FCN_e=0.03_g=0.0_a=1.0_l=2_h=256_s=True.pt (torch, 332951 bytes, 10 tensors)

lays.0.weight f4 [256, 63]
0	0xb75880b7	-1.2904572e-05
1	0x36ae47d4	5.193966e-06
2	0xb68243b8	-3.8821854e-06
3	0xbdb6ebf1	-0.08931721
4	0xb6bd94f0	-5.6499775e-06
5	0xb649e315	-3.0083513e-06
6	0x3653fe2f	3.1589404e-06
7	0xb482f1a8	-2.4390215e-07
8	0xb609f4c8	-2.0557072e-06
9	0x36dfb98e	6.6675193e-06
10	0xb504d794	-4.948754e-07
11	0xb5b02620	-1.3124118e-06
12	0x369eedb0	4.7364374e-06
13	0xb6a2c177	-4.8504985e-06
14	0xb705ee30	-7.982875e-06
15	0xb65bd59d	-3.2757882e-06
16	0xb58d1e28	-1.0514095e-06
17	0x3cc5f3ac	0.024164043
18	0x36a19ac7	4.8161924e-06
19	0x373d08e3	1.1267347e-05
20	0xb64f6464	-3.0903839e-06
21	0x3d6711bb	0.056413393
22	0x36eaf878	7.002669e-06
23	0x369659b6	4.480792e-06
24	0xbc249c5c	-0.010047045
25	0xb8559800	-5.092472e-05
26	0x3d721a46	0.059107088
27	0xb5579ca4	-8.0321684e-07
28	0x36951434	4.442898e-06
29	0xb61a59e8	-2.300012e-06
30	0x36395a26	2.7619622e-06
31	0x39bb7fb5	0.0003576257
32	0xb67cb842	-3.7658178e-06
33	0x367556d8	3.6558395e-06
34	0x362ce8b8	2.5765457e-06
35	0x3677ec5a	3.6943443e-06
36	0xb753dc56	-1.2627881e-05
37	0xb5565fb8	-7.98605e-07
38	0xb65cfaa1	-3.292844e-06
39	0x36dfa363	6.6649386e-06
40	0xb5b3ae67	-1.3387297e-06
41	0xb638c2af	-2.7531457e-06
42	0xb69996d7	-4.5773154e-06
43	0xb6bd42ba	-5.640407e-06
44	0xb6227f9d	-2.4214162e-06
45	0xb7a653bc	-1.9827734e-05
46	0x3c55c62a	0.013047734
47	0x3d05c006	0.03265383
48	0x359989e6	1.1439522e-06
49	0xb4c6cbb4	-3.7028587e-07
50	0x368456e9	3.9440242e-06
51	0x3d915894	0.07096973
52	0x36b997d8	5.5311066e-06
53	0xb586eecb	-1.0053276e-06
54	0x3d3de5ff	0.04636192
55	0xb8312d47	-4.2242256e-05
56	0x36d0e3a1	6.2253825e-06
57	0x367c6ed8	3.7615446e-06
58	0xbda51364	-0.08060339
59	0x372d2e50	1.03223865e-05
60	0xb87da5c3	-6.0474278e-05
61	0x35968d70	1.1217035e-06
62	0xb6b7791f	-5.4679253e-06
63	0xb602818b	-1.9446913e-06
64	0x35df2aa5	1.6627206e-06
65	0x36496a96	3.0013375e-06
66	0xbae053ee	-0.0017114857
67	0xb68bf431	-4.1709504e-06
68	0x3d35dba6	0.044398926
69	0xb694d1b5	-4.435157e-06
70	0xb6c62ca0	-5.906055e-06
71	0xb72c73a9	-1.0278928e-05
72	0x371918a8	9.125251e-06
73	0xb6d61a58	-6.380764e-06
74	0x37959c7f	1.7835058e-05
75	0x3d814184	0.06311324
76	0x32c39a00	2.2771019e-08
77	0xb6410900	-2.876448e-06
78	0xb74c93dc	-1.2193774e-05
79	0xbba1f900	-0.004943013
80	0xb5a1a820	-1.2044366e-06
81	0x3d229ceb	0.03970043
82	0xb6c5dec2	-5.89699e-06
83	0x37202d2d	9.5472615e-06
84	0x35d41394	1.5800929e-06
85	0xb7af75ea	-2.0916534e-05
86	0xb74a76d2	-1.2067803e-05
87	0xbd84fbfe	-0.06493376
88	0xb69d7fae	-4.6938285e-06
89	0xbd393a89	-0.04522184
90	0x35a61658	1.2374467e-06
91	0x3670d634	3.588747e-06
92	0xb620e58e	-2.3975476e-06
93	0x36bdb6e8	5.653932e-06
94	0x3571ac10	9.002988e-07
95	0xbc2f846d	-0.010712725
96	0xb72b4f3c	-1.0210842e-05
97	0x372f8a2b	1.0462983e-05
98	0x37348dcd	1.0761852e-05
99	0x370736f9	8.059426e-06
100	0x369b9fca	4.637962e-06
101	0x3d3c6113	0.045991015
102	0xb769df30	-1.3939847e-05
103	0x369ab70e	4.610868e-06
104	0x36d9b098	6.487662e-06
105	0x376fa288	1.4283352e-05
106	0xb7443a3c	-1.1696069e-05
107	0x363be7b8	2.800005e-06
108	0xb65691ff	-3.1973466e-06
109	0x375a22ce	1.3001916e-05
110	0xbd60c7cc	-0.05487804
111	0x3ccfcbb5	0.02536569
112	0xbd457a64	-0.048212424
113	0x36d3a080	6.3069747e-06
114	0x3d06103e	0.032730334
115	0xb83d1d58	-4.508844e-05
116	0x37118f44	8.67603e-06
117	0xb6b13a5e	-5.281806e-06
118	0xb546b08d	-7.4017663e-07
119	0xb5c18574	-1.441846e-06
120	0xb6a8258b	-5.0111607e-06
121	0xb6344257	-2.6860705e-06
122	0xb76dacf4	-1.416657e-05
123	0xb539eec0	-6.92653e-07
124	0x35a63e6c	1.2386131e-06
125	0xb72c4080	-1.02670165e-05
126	0x3659b6c1	3.2441897e-06
127	0x35eab32e	1.7486507e-06
128	0x35bfc0d0	1.4286725e-06
129	0xbda511cf	-0.08060037
130	0x36ef197e	7.1257227e-06
131	0xb322fee0	-3.795037e-08
132	0xb637ff28	-2.7417645e-06
133	0x36270fac	2.4894061e-06
134	0x36ac6237	5.137433e-06
135	0x361aaaa7	2.304712e-06
136	0xb5de4b0f	-1.6562134e-06
137	0x367c4805	3.7592847e-06
138	0xb7598133	-1.2964289e-05
139	0x35f90bac	1.8555343e-06
140	0x360560d6	1.987491e-06
141	0x35779a18	9.2238906e-07
142	0xb6c6e7b6	-5.9278345e-06
143	0xb589264f	-1.0218445e-06
144	0xbca1927a	-0.019723166
145	0x33c8b230	9.345638e-08
146	0xb6838d2c	-3.920539e-06
147	0x35e6b215	1.7188164e-06
148	0xbcc234d4	-0.023706831
149	0xb5cfff14	-1.5496939e-06
150	0xbbb7dc18	-0.005610954
151	0x36be4f1b	5.6716503e-06
152	0xb4137028	-1.3731244e-07
153	0xb5bf8ad9	-1.4271019e-06
154	0x32af3000	2.039451e-08
155	0xbc8c4343	-0.017121917
156	0x36845e1b	3.944862e-06
157	0x36bcd236	5.6273084e-06
158	0xb5e14c60	-1.6786034e-06
159	0x371f664c	9.500956e-06
160	0xb5166842	-5.603107e-07
161	0xb6de5d8d	-6.6270063e-06
162	0xbcbdc213	-0.02316383
163	0x371467ae	8.845627e-06
164	0xb5b2f770	-1.3334047e-06
165	0x36c4a9bb	5.8610144e-06
166	0xb52c0fc5	-6.409794e-07
167	0xb641758a	-2.8827658e-06
168	0xbb374dcb	-0.0027969952
169	0xb6596d7e	-3.2399253e-06
170	0x3bd233a3	0.006414847
171	0x3429e8e8	1.5824082e-07
172	0x3a4645aa	0.00075634813
173	0x352fd275	6.5498836e-07
174	0xba1ac2ab	-0.00059036416
175	0xb40153a8	-1.2044495e-07
176	0x3595e1ab	1.1167043e-06
177	0x36c37c09	5.8258925e-06
178	0x3cd17484	0.025568254
179	0xb6e3126e	-6.7672727e-06
180	0x349c8220	2.9151943e-07
181	0x34702501	2.2365204e-07
182	0x36bcd4c4	5.627606e-06
183	0x361c6f75	2.3310688e-06
184	0x3b425c97	0.0029657239
185	0xb52296d0	-6.0569164e-07
186	0xb63a6814	-2.7776741e-06
187	0xb64ca04e	-3.0491678e-06
188	0xb6415dce	-2.8813843e-06
189	0xb6363a84	-2.7154174e-06
190	0xb741ad3e	-1.15440325e-05
191	0x3609bba2	2.0523808e-06
192	0xbda44dc5	-0.08022646
193	0xb6a1908a	-4.8150005e-06
194	0xbd45a468	-0.048252493
195	0x3654c927	3.1707548e-06
196	0x37247b43	9.803861e-06
197	0x3691abbb	4.341329e-06
198	0xb713840b	-8.792626e-06
199	0xb6feac83	-7.589873e-06
200	0xb728eb00	-1.00682955e-05
201	0x36ef7058	7.1358336e-06
202	0xb6c0aea9	-5.742379e-06
203	0x37252f8b	9.845836e-06
204	0xb5d67890	-1.5979331e-06
205	0xb68cbfd3	-4.1946564e-06
206	0x3702b6a2	7.791126e-06
207	0x3cf60055	0.030029455
208	0xb6d15b3f	-6.239308e-06
209	0x36049276	1.9754784e-06
210	0xb63ae0f2	-2.7847095e-06
211	0xb6ce4c12	-6.148134e-06
212	0xb6bd92f8	-5.6497483e-06
213	0xbc6170fc	-0.013759848
214	0xb613ee63	-2.2043466e-06
215	0xb51c9e3f	-5.8344807e-07
216	0x35d3c249	1.577727e-06
217	0x3735661c	1.0812215e-05
218	0x3d425b8f	0.0474506
219	0xb6bae222	-5.5695573e-06
220	0x35fe3e0c	1.8942533e-06
221	0x3d94d465	0.072670735
222	0x3634ac4d	2.6922382e-06
223	0xb70507b1	-7.929209e-06
224	0xb6ec35a6	-7.0395936e-06
225	0x3709ae84	8.206469e-06
226	0x35d282d0	1.5684291e-06
227	0x36f1d78f	7.207454e-06
228	0x36c034d3	5.7281954e-06
229	0x36ea03d2	6.974188e-06
230	0x366e2e0d	3.5491569e-06
231	0xb6ac9dc9	-5.144368e-06
232	0xb6a397e0	-4.875459e-06
233	0xb6cdf4b1	-6.137962e-06
234	0xb5ddcbc8	-1.6525091e-06
235	0x36fadd0f	7.476315e-06
236	0x3c8fd0a8	0.01755555
237	0xba72669a	-0.0009246856
238	0xb70c00e6	-8.344859e-06
239	0x37d3d1b8	2.5250818e-05
240	0x3c0e9a0f	0.008703723
241	0xb6a3d7b9	-4.882892e-06
242	0xb5815078	-9.634668e-07
243	0x3690ab0e	4.311448e-06
244	0x3c901034	0.017585851
245	0xbd3cbba1	-0.046077374
246	0x36d5581f	6.3581533e-06
247	0xbd9ecd34	-0.07753983
248	0x3725de81	9.886572e-06
249	0xb83e0a74	-4.5309265e-05
250	0x36b534c0	5.4003613e-06
251	0xb7713cc0	-1.4378864e-05
252	0x37d4a663	2.534985e-05
253	0xb6c9a204	-6.009128e-06
254	0xb6e134e7	-6.711681e-06
255	0xb93f370f	-0.0001823569

lays.0.bias f4 [256]
0	0xbda17c3d	-0.07885025
1	0xbda07ba6	-0.07836084
2	0xbb00d91e	-0.0019660662
3	0xbd4d15e2	-0.050069697
4	0x3b50d7e1	0.0031866955
5	0xbdda6030	-0.106628776
6	0x3de4e0f7	0.11175721
7	0xbcd117a5	-0.02552397
8	0xbd507e3d	-0.05090164
9	0x3d98494b	0.074358545
10	0x3e74e042	0.23913673
11	0xbdf83dcd	-0.121211626
12	0x3ccabb74	0.024747588
13	0x3ee538ab	0.44769797
14	0xbcf290d3	-0.029610073
15	0x3cd7b458	0.026331112
16	0x3b0ebcfd	0.0021780126
17	0x3d04ac62	0.03239096
18	0xbdf2d8e0	-0.11857772
19	0xbe194615	-0.1496814
20	0xbce31751	-0.027721079
21	0xbcd8167d	-0.02637791
22	0xbe0815e4	-0.132896
23	0xbe040c6d	-0.12895365
24	0x3c9ce8e6	0.019154023
25	0xbdf7f963	-0.121081136
26	0x3d2f4cf7	0.04279801
27	0x3d5f1b3e	0.05446934
28	0xbd8714ef	-0.0659579
29	0xbdca3417	-0.098732166
30	0xbd8cf0f3	-0.06881895
31	0x3d4f7fd9	0.050659034
32	0x3ed62c04	0.41830456
33	0xbe013b58	-0.12620294
34	0xbde5feeb	-0.11230262
35	0x3cd0e7e4	0.025501199
36	0xbe02c70c	-0.12771243
37	0xbd807621	-0.06272531
38	0xbd586fb2	-0.052840896
39	0x3da892f1	0.08231152
40	0xbddc14d4	-0.1074616
41	0xbd5d2ce5	-0.053997893
42	0x3bc67da5	0.0060574585
43	0x3d5db0e3	0.05412377
44	0xbe158a3f	-0.14603518
45	0xbe054434	-0.13014299
46	0x3d13ceca	0.03608588
47	0x3c77fc70	0.015135869
48	0x3ed4dd4a	0.4157508
49	0x3cb49fa7	0.022048784
50	0x3d6c13b0	0.057635963
51	0xbd9a2927	-0.075273804
52	0xbb45413d	-0.00300987
53	0xbdeafb81	-0.11473752
54	0xbe0c7349	-0.13715853
55	0xbdb658b3	-0.08903637
56	0x3d75d24d	0.06001501
57	0x3d11c919	0.035592172
58	0x3c8e28f7	0.017353518
59	0x3ec7fd67	0.39060518
60	0xbe089542	-0.13338187
61	0x3ee8946a	0.4542573
62	0x3c960eb3	0.018317556
63	0xbd778356	-0.060427986
64	0xbdf3bf03	-0.11901667
65	0xbd9ad86d	-0.07560811
66	0x3d8d6f70	0.06906021
67	0xbdcdad56	-0.10042827
68	0xbdbe4578	-0.09290594
69	0xbdef7d85	-0.11693863
70	0xbd6e6b5c	-0.058207855
71	0xbd77f66b	-0.060537737
72	0xbc0e5c36	-0.008688977
73	0x3d08bf9c	0.033385858
74	0xbcddb443	-0.027063495
75	0xbe06164e	-0.13094446
76	0x3e163f62	0.14672616
77	0xbccb4a01	-0.024815561
78	0xbd90c13d	-0.07068107
79	0xbdfbb717	-0.12290781
80	0xbc837048	-0.01604475
81	0x3f0b70f7	0.54469246
82	0xbe031f44	-0.12804896
83	0xbe01b489	-0.12666525
84	0x3c9bb3ff	0.019006727
85	0x3c1cdabb	0.009573634
86	0xbd7dd65d	-0.06197201
87	0xbd498bcd	-0.04920559
88	0xbda82845	-0.08210806
89	0x3c1efd07	0.009703881
90	0xbcd5385a	-0.026027847
91	0x3bf64583	0.0075156107
92	0x3ecdcaa0	0.40193653
93	0xba9131b0	-0.001107743
94	0x3aaae62c	0.0013038567
95	0xbdc9b8fa	-0.098497346
96	0x3db37b56	0.08763759
97	0x3c6fa9b5	0.014627864
98	0xbd89abf0	-0.067222476
99	0x3c073ab9	0.008253747
100	0xbe20eed4	-0.15716106
101	0xbd9edda5	-0.07757119
102	0xbd9c9448	-0.0764547
103	0x3ce0ceae	0.027442303
104	0x3d972881	0.073807724
105	0xbca4a8e2	-0.02010006
106	0x3d94ea20	0.07271218
107	0xbbc2f26e	-0.00594931
108	0xbdbd1f55	-0.09234492
109	0xbdce28a0	-0.10066342
110	0xbd89a7fb	-0.06721493
111	0xbcbda50a	-0.023149986
112	0xbd730044	-0.059326425
113	0x3b05bf8a	0.0020408356
114	0x3f17099d	0.58999044
115	0x3c81c99a	0.015843201
116	0x3d2e8c69	0.042614374
117	0x3be88659	0.0070960936
118	0xbcc3e3b6	-0.023912292
119	0x3e0cdf40	0.13757038
120	0x3d335a95	0.043787558
121	0xbdde9398	-0.10867995
122	0xbdaad8c2	-0.083421245
123	0x3d5db115	0.054123957
124	0x3d469dd0	0.048490345
125	0x3c54a434	0.012978602
126	0x3f02d357	0.5110373
127	0x3d8f8665	0.070080556
128	0xbd315cce	-0.043301396
129	0xbcedcacb	-0.029027363
130	0xbdd3e427	-0.10346251
131	0x3c41667a	0.0118042175
132	0x3c8a707e	0.016899344
133	0xbd63dfec	-0.05563347
134	0xbd4427ab	-0.047889393
135	0xbdf03d4c	-0.117304415
136	0x3ea12067	0.31470034
137	0xbe1358a9	-0.1438929
138	0x3ea6ce82	0.32579428
139	0x3d59b47b	0.053150635
140	0xbd9488d7	-0.07252663
141	0xbda5e5b2	-0.081004515
142	0xbd4b5842	-0.049644716
143	0x3d62e29f	0.055391904
144	0xbdc4008c	-0.09570417
145	0x3ba738a4	0.0051031876
146	0x3c85ca74	0.016331889
147	0x3f211285	0.62918884
148	0xbe1369bb	-0.14395802
149	0xb9a22707	-0.00030928125
150	0xbdc82a32	-0.09773673
151	0xbc9aeed3	-0.018912708
152	0xbdbdba58	-0.09264058
153	0x3d11162e	0.035421543
154	0xbddefd32	-0.10888137
155	0xbd8f9254	-0.07010332
156	0xbe17082f	-0.14749216
157	0x3d692ddd	0.056928504
158	0x3eec8984	0.46198666
159	0xbb068189	-0.0020523986
160	0x3f037cba	0.5136219
161	0x3e282949	0.16421999
162	0xbd0e7397	-0.034778204
163	0x3d8337c4	0.06407121
164	0x3efe4ffc	0.49670398
165	0x3db4fd7d	0.088374116
166	0x3f19a3fa	0.60015833
167	0x3d881973	0.06645479
168	0x3ebaf1be	0.3651256
169	0xbd8e9ebd	-0.06963871
170	0xbdc316d4	-0.095258385
171	0xbc8c6b92	-0.017141137
172	0xbd93ef3a	-0.07223363
173	0xbe07c327	-0.13258038
174	0x3cc78960	0.024357498
175	0x3da2a900	0.079423904
176	0xbe184524	-0.14870125
177	0xbdfd3790	-0.12364113
178	0x3d979977	0.07402318
179	0xbe2716f1	-0.16317345
180	0xbe04c09b	-0.12964098
181	0x3eb50211	0.3535314
182	0xbe089f34	-0.13341981
183	0x3ca0a8fa	0.019611824
184	0xbdd7ecfb	-0.10543247
185	0x3e5adb97	0.2137283
186	0xbe1d38dc	-0.15353721
187	0x3d32d3a3	0.043658864
188	0xbd131ac6	-0.035914205
189	0x3d83adf8	0.06429666
190	0xbd6dc2b7	-0.058047023
191	0x3eae8e32	0.3409286
192	0x3d5c3169	0.05375806
193	0xbdebe561	-0.1151836
194	0x3b99fd16	0.0046993596
195	0xbd862886	-0.06550698
196	0x3d6467e7	0.05576315
197	0xbd44ba56	-0.048029266
198	0x3ddc05bb	0.107432805
199	0x3ec23f73	0.37939033
200	0x3d1edf8f	0.03878742
201	0xbe07d145	-0.13263424
202	0xbd1db71a	-0.038504697
203	0xbe16759e	-0.14693305
204	0xbe1c53c5	-0.1526633
205	0xbd27f3b9	-0.041003916
206	0x3ee37d60	0.4443159
207	0x3d71208e	0.058868937
208	0xbcd08f73	-0.025459027
209	0xbdd66358	-0.10468167
210	0xbc9e29ba	-0.019307006
211	0xbdb3d070	-0.08779991
212	0x39f34c8f	0.00046405612
213	0xbd3df870	-0.046379507
214	0xbde3c3c6	-0.11121325
215	0x3cd18b60	0.025579154
216	0xbe050f26	-0.1299406
217	0xbcdcbba7	-0.026944948
218	0xbd8998a6	-0.067185685
219	0x3da32220	0.07965493
220	0xbe1905d3	-0.14943628
221	0x3d4c2495	0.049839575
222	0xbd638617	-0.0555478
223	0xbdfc01b9	-0.12305016
224	0xbd640e68	-0.0556778
225	0xbd4ce65e	-0.050024383
226	0xbd652374	-0.055942014
227	0xbb81c1fc	-0.0039598923
228	0x3d8503f3	0.06494894
229	0xbc766fa8	-0.015041269
230	0x3cf2a60e	0.029620197
231	0xbe01f091	-0.12689425
232	0xbd9e2464	-0.07721785
233	0xbdf8f059	-0.12155218
234	0x372061b8	9.559495e-06
235	0x3ea0f93e	0.31440157
236	0xbdeff0d2	-0.11715855
237	0xbd4d85bc	-0.050176367
238	0xbd765195	-0.060136396
239	0xbde73c5f	-0.11290812
240	0xbe116dd2	-0.1420205
241	0x3dafc8be	0.085832104
242	0xbd9cd9d9	-0.07658739
243	0xbdb50b85	-0.08840088
244	0xbd9911d9	-0.07474107
245	0xbe025c60	-0.12730551
246	0x3d909b31	0.070608504
247	0xbcd0b77a	-0.025478113
248	0xbd690dc7	-0.056897905
249	0xbd03ecb1	-0.03220815
250	0x3d414314	0.04718311
251	0x3da9b2df	0.0828607
252	0x3caa2009	0.020767229
253	0xbe164a16	-0.14676699
254	0x3b8bcb4b	0.004266178
255	0x3ee3728b	0.44423327

lays.1.weight f4 [256, 256]
0	0xb8de9094	-0.00010612715
1	0x386bc858	5.621495e-05
2	0x38224177	3.868478e-05
3	0xb8a6b448	-7.949077e-05
4	0x3d0cd8f2	0.034386583
5	0x383bac9d	4.4745033e-05
6	0xbd50819c	-0.050904855
7	0x385faad4	5.332644e-05
8	0xb91d63a6	-0.00015009809
9	0xbd8a20fc	-0.067445725
10	0x3cdcfca4	0.026975937
11	0xb815c507	-3.5707864e-05
12	0xb8d6dbee	-0.0001024528
13	0x3c337c0f	0.010954871
14	0x38b88f94	8.800547e-05
15	0x3ca61118	0.020271823
16	0x38427be9	4.6368605e-05
17	0xb8cc2c38	-9.7357144e-05
18	0x389a5893	7.3597905e-05
19	0xb917905d	-0.00014454262
20	0x3c7c9a0a	0.015417585
21	0xb8a30f27	-7.775268e-05
22	0x38ae564b	8.31304e-05
23	0x383fb83f	4.570954e-05
24	0x38923614	6.971895e-05
25	0xb919659b	-0.00014629068
26	0x384b459c	4.84638e-05
27	0x3943d012	0.00018674161
28	0x3c84ed72	0.016226504
29	0x38a34e5b	7.7870405e-05
30	0xb7edc10e	-2.83425e-05
31	0xbc798bac	-0.015231054
32	0xbbd9c53a	-0.0066458257
33	0x3b61d1b5	0.003445727
34	0xbb0245a2	-0.001987793
35	0x3d1ad74b	0.037802976
36	0xb74e1d23	-1.2285341e-05
37	0xbd4b7db3	-0.049680423
38	0xb8bd74df	-9.033991e-05
39	0xba273e50	-0.000637983
40	0x38b27c63	8.51087e-05
41	0x3cffddf4	0.031233765
42	0xbcfdd39b	-0.03098469
43	0x3cac69cd	0.021046543
44	0x3856ab3d	5.1181054e-05
45	0xb9237515	-0.00015588508
46	0xbccbcb16	-0.024877112
47	0x3cb8913a	0.022530187
48	0xbd2a4773	-0.041572046
49	0xbd1742bd	-0.03692888
50	0xbc8bff3f	-0.017089484
51	0x38bdb2cd	9.0455265e-05
52	0x3be39182	0.006944836
53	0x38b2f2af	8.532905e-05
54	0x38745b11	5.8258946e-05
55	0xb881dadb	-6.191964e-05
56	0xb8ec12f5	-0.00011256888
57	0x3c16c28d	0.009201658
58	0x3cc19002	0.023628239
59	0xbd39cc73	-0.045360994
60	0xb89a6d4f	-7.3636525e-05
61	0xbca828ed	-0.020527327
62	0xbc05edbc	-0.008174356
63	0xbd485ddd	-0.04891764
64	0x3cc2cb8f	0.023778705
65	0xb88c3515	-6.6856075e-05
66	0xb88b849b	-6.652736e-05
67	0x3905af99	0.00012749284
68	0xb844b25c	-4.689615e-05
69	0x3c92efb0	0.017936558
70	0x36d17c24	6.2431372e-06
71	0xbb84f1bf	-0.0040571387
72	0x3a134e66	0.0005619287
73	0x3caee828	0.021350935
74	0xb7e8cae0	-2.7751026e-05
75	0x3ba73c5d	0.0051036314
76	0x3cc69c54	0.024244465
77	0x38c3b0a5	9.331227e-05
78	0xb8df75fe	-0.000106554464
79	0xb894b350	-7.0905895e-05
80	0xbc298532	-0.010346698
81	0xbd4e2504	-0.05032827
82	0xb8ece710	-0.00011296396
83	0x38394caa	4.4178836e-05
84	0xbaaaf184	-0.0013041948
85	0x3b95d059	0.004571956
86	0xbc2b6b72	-0.010462629
87	0xb81262c9	-3.4901113e-05
88	0xbb6361ce	-0.0034695747
89	0x383dea4a	4.527931e-05
90	0xbbbf9714	-0.0058468673
91	0x3957f6f0	0.00020595989
92	0xbd57ae05	-0.052656192
93	0x38cd733f	9.796628e-05
94	0xbc86918b	-0.016426822
95	0xb807218a	-3.2217744e-05
96	0x3cc31966	0.023815822
97	0x3c16cf58	0.009204708
98	0xb91a91e4	-0.00014740933
99	0x36db03ac	6.527136e-06
100	0x3918b938	0.00014564849
101	0xbd286113	-0.041108202
102	0x38c9458d	9.597382e-05
103	0x3cac60f2	0.02104232
104	0xb82dadcd	-4.140828e-05
105	0xb7f168e4	-2.8778282e-05
106	0xbd1e02b9	-0.038576815
107	0xbca36913	-0.019947564
108	0x3886b5b5	6.4234635e-05
109	0x3bc111fe	0.0058920374
110	0x385c584c	5.253432e-05
111	0xbd33e583	-0.04392005
112	0xb7f36831	-2.9016375e-05
113	0xbb160242	-0.002288953
114	0xb803e1f6	-3.1443276e-05
115	0xbc82c1e8	-0.015961602
116	0x3c468756	0.012117228
117	0x3c3b92d9	0.011448585
118	0xbd38e186	-0.04513695
119	0xbb16478e	-0.0022930834
120	0x36be802c	5.6773624e-06
121	0x3cb52ceb	0.022116145
122	0xb896732a	-7.174008e-05
123	0x3cc73638	0.024317846
124	0xbbd5a9fb	-0.0065205074
125	0xbade7275	-0.0016971367
126	0xb65bd37a	-3.2756639e-06
127	0xbd05af27	-0.03263774
128	0x38dc8595	0.00010515299
129	0xbca6d988	-0.020367399
130	0xb88ac468	-6.616936e-05
131	0x3cdd05d1	0.026980313
132	0xbcff585d	-0.031170065
133	0xb8899b31	-6.561576e-05
134	0x3c4545d0	0.01204057
135	0xb92eb5fe	-0.0001666173
136	0xbc0c78fc	-0.008573767
137	0x38760df9	5.8663984e-05
138	0xbd35ea1f	-0.04441273
139	0xbcf15c8e	-0.029463079
140	0x3bc89228	0.006120939
141	0xb86dfc0f	-5.673995e-05
142	0x389b1aef	7.395993e-05
143	0x3cc257c4	0.02372349
144	0xb86e13ea	-5.676217e-05
145	0xbd015bca	-0.031581677
146	0x389f4f05	7.596429e-05
147	0x3c9cd531	0.019144626
148	0x38346764	4.3011634e-05
149	0x3b713c88	0.003680976
150	0x37578caa	1.28477495e-05
151	0xbc6d5034	-0.014484454
152	0x388a223a	6.586728e-05
153	0xbd1d68c4	-0.03842999
154	0x37fa9d05	2.987544e-05
155	0xb8993990	-7.3063304e-05
156	0xb8a95eb9	-8.0761914e-05
157	0x3c96d765	0.018413255
158	0xbc60a818	-0.013711952
159	0xb8b018dc	-8.3969644e-05
160	0x378546da	1.5887828e-05
161	0xbd23ea02	-0.04001809
162	0x38ddf87b	0.00010584384
163	0xb7883639	-1.6237713e-05
164	0x3c09c6f4	0.0084092505
165	0x3d28b1e2	0.041185267
166	0xb7b3ea80	-2.144766e-05
167	0x3bb78a9f	0.0056012417
168	0x3d10c515	0.035344202
169	0x38ccd036	9.76626e-05
170	0xb8c3e493	-9.3409e-05
171	0xb8f857a1	-0.00011841884
172	0xb8ac81f7	-8.225807e-05
173	0x3c664ba9	0.014056125
174	0xb8f63a58	-0.000117410615
175	0xbb134454	-0.0022471147
176	0xb7960411	-1.7883287e-05
177	0x38117697	3.468114e-05
178	0x3ce6e603	0.02818585
179	0xb96480d5	-0.00021791768
180	0x38861174	6.392869e-05
181	0xbd0317a5	-0.03200497
182	0x3a2a6107	0.00064994436
183	0xb81c403b	-3.7253118e-05
184	0x38abd746	8.194013e-05
185	0x3c04aeda	0.0080983285
186	0x38f1576b	0.000115080584
187	0x3c44951d	0.011998442
188	0xb896bca9	-7.187698e-05
189	0xbc4becbc	-0.012446579
190	0xbcd5d41b	-0.026102116
191	0xbd2265fe	-0.03964805
192	0xb82b4647	-4.0835028e-05
193	0x37c73708	2.3748275e-05
194	0xbbbfb583	-0.0058504953
195	0xb8d7b9af	-0.00010286585
196	0x382befde	4.099297e-05
197	0x36e68bd8	6.870814e-06
198	0x3c6d184b	0.014471124
199	0xbc03b9fe	-0.008039949
200	0xbc62a084	-0.013832215
201	0x38adb1ab	8.282376e-05
202	0xb8d21929	-0.00010018267
203	0xb89978c9	-7.3181065e-05
204	0x38f126e8	0.000114990224
205	0x37af7aaf	2.0918755e-05
206	0xbc78ed9c	-0.015193369
207	0x3cb75895	0.022381106
208	0xbc4150c2	-0.011799039
209	0xb8a21c9f	-7.730093e-05
210	0xbb8ce533	-0.0042997836
211	0xb850010a	-4.9592032e-05
212	0xbd0aa7dd	-0.033851493
213	0xbd01f5ae	-0.03172844
214	0x3c8dca44	0.017308362
215	0x3cf0c578	0.029391035
216	0xb8724993	-5.7765817e-05
217	0x3c80bbe7	0.015714599
218	0x3b33d782	0.0027441685
219	0x3cbfdee3	0.02342171
220	0x3831b59f	4.2369236e-05
221	0x38de19eb	0.000105906125
222	0xb8caf656	-9.677994e-05
223	0x3b1014ae	0.0021984982
224	0xb8c4bd78	-9.3812996e-05
225	0x3c5c107d	0.0134316655
226	0x3d0e1533	0.034688186
227	0x3c53458a	0.012894997
228	0xbd259c0a	-0.040432014
229	0x394604d9	0.00018884557
230	0x3ce0c3f7	0.027437193
231	0xb8865d99	-6.407052e-05
232	0x3b7132b4	0.0036803903
233	0x385c430b	5.2514526e-05
234	0xbd371679	-0.044699166
235	0x3731f9f3	1.0608218e-05
236	0x388ea348	6.801501e-05
237	0xb8a7d78c	-8.003329e-05
238	0x3c93db13	0.018048799
239	0x38be299b	9.0676556e-05
240	0x3ce6b8f8	0.028164372
241	0x3ce1a891	0.027546199
242	0xb8015bf6	-3.0841642e-05
243	0x390db7be	0.00013515257
244	0xb7c97a1f	-2.4017934e-05
245	0x38bf2d39	9.116013e-05
246	0xbb931c1a	-0.004489434
247	0x3cf1f0b1	0.029533716
248	0xb8ab03b3	-8.1546044e-05
249	0xb8b308c1	-8.537016e-05
250	0xbc3327d0	-0.010934785
251	0x3c870cac	0.016485535
252	0xb8a79c80	-7.992331e-05
253	0x38bc57fc	8.980927e-05
254	0xbd275abd	-0.04085802
255	0x3d1341fa	0.035951592

lays.1.bias f4 [256]
0	0xbce0fb7a	-0.027463663
1	0x3d27478e	0.040839724
2	0x3c9295a3	0.017893618
3	0xbcc97cec	-0.0245957
4	0xbd83e769	-0.06440622
5	0x3cb89122	0.022530142
6	0xbcb70654	-0.022341885
7	0xbaf053ed	-0.0018335559
8	0x3c57cf6f	0.013172015
9	0x3c63f947	0.013914413
10	0xbd5dc8a0	-0.05414641
11	0x3ca24080	0.019806147
12	0xbd44dba4	-0.048061028
13	0xbc051b8e	-0.008124245
14	0xba9191c3	-0.0011106062
15	0xbd34b162	-0.044114478
16	0xbd92f188	-0.07174975
17	0xbd70a24d	-0.058748532
18	0xbcb5cb6e	-0.02219173
19	0xbd8fb76c	-0.07017407
20	0x3cf874c3	0.030329114
21	0x3cddf5e0	0.027094781
22	0x3d116125	0.035493035
23	0x3bb0728c	0.005384749
24	0xbc874818	-0.01651387
25	0xbd3ec28d	-0.046572257
26	0xbc432da6	-0.011912739
27	0xbb274c73	-0.0025527745
28	0x3caa4b39	0.020787822
29	0xbceabe28	-0.028655127
30	0xbd71f3ca	-0.059070386
31	0x3c6f04d1	0.014588551
32	0xbcc4d124	-0.024025507
33	0xbc65359c	-0.013989832
34	0xbc971814	-0.018444099
35	0xbd8c6d96	-0.06856839
36	0x3c78e41c	0.015191104
37	0xbd91d22e	-0.07120167
38	0xbd4aaed6	-0.049483143
39	0xbbccd97f	-0.0062515135
40	0xbce0d815	-0.027446786
41	0x3d03948b	0.032124083
42	0x3d19131c	0.03737174
43	0xbc465077	-0.012104145
44	0xbcca93dd	-0.02472871
45	0x3cbf6627	0.02336414
46	0x3cbef74a	0.023311276
47	0x3c9523b6	0.018205505
48	0x3c033475	0.008008112
49	0xbd30ce7a	-0.04316566
50	0x3cdbc1f8	0.02682589
51	0x3c6f5f34	0.014610101
52	0x3bd85fa1	0.0066031967
53	0xbd00cc23	-0.03144468
54	0xbd8b314c	-0.06796512
55	0xbc8bce58	-0.017066166
56	0xb909ca11	-0.00013140614
57	0xbd21c5d3	-0.0394953
58	0x3c97b161	0.018517198
59	0x3bf210f1	0.0073872735
60	0xbd1df4a5	-0.03856339
61	0x3cb82361	0.022477807
62	0x3bc76462	0.0060849646
63	0x3ae61140	0.0017552748
64	0xbb1c030b	-0.0023805525
65	0x39d56d0f	0.0004070778
66	0xbcadb03c	-0.0212022
67	0xbcf29b39	-0.029615032
68	0xbccddc52	-0.025129471
69	0xbcaff9fb	-0.021481505
70	0xbd49f1b5	-0.049302775
71	0x3b82172c	0.0039700475
72	0x3bc9ce9c	0.006158663
73	0xbd030abb	-0.031992655
74	0x3ce77e9c	0.028258614
75	0xbd84785d	-0.0646827
76	0xbd52bca8	-0.051449448
77	0xbc72c7fd	-0.014818189
78	0xbd8c8e6d	-0.06863103
79	0xbd4aaea0	-0.04948294
80	0x3a2eb291	0.0006664182
81	0x3c26f0f5	0.010189285
82	0xbd65ca9f	-0.056101438
83	0xba61dea3	-0.00086162443
84	0xbc14adf9	-0.009074681
85	0xbd668597	-0.056279745
86	0x3c44fc9c	0.012023117
87	0xbd97db22	-0.07414843
88	0xbabc51b9	-0.0014367617
89	0x3cc0b406	0.023523342
90	0xbd3a1b3f	-0.04543614
91	0x3c803bac	0.015653454
92	0xbd61297e	-0.05497121
93	0xbc3be3cf	-0.011467888
94	0x3cb0a53a	0.021563161
95	0xbc8cca81	-0.017186405
96	0x3be091e4	0.006853329
97	0x3b333e86	0.00273505
98	0xbd8d4ab1	-0.06899012
99	0x3cb6deb9	0.022323
100	0xbbc3b931	-0.0059730043
101	0xbd05ccac	-0.032665893
102	0x39d9f6d8	0.00041573378
103	0x3cd83cdb	0.026396206
104	0x3c44ab0d	0.012003672
105	0xbd5e686c	-0.054298803
106	0xbbfdc850	-0.0077448264
107	0xbb71b177	-0.003687946
108	0x3cc96242	0.024582986
109	0xbd2cc2c3	-0.042177927
110	0x3c8af8e9	0.016964393
111	0xbda856f1	-0.08219708
112	0xbc0221fb	-0.007942672
113	0xbc1e8400	-0.009675026
114	0x3c12f4bf	0.008969485
115	0x3b9a904c	0.0047169086
116	0xbd876073	-0.06610193
117	0xbd2bce62	-0.04194487
118	0xbc2abdf4	-0.010421265
119	0xbd251e87	-0.040312316
120	0xbc8b2fe4	-0.01699061
121	0xbd40e568	-0.04709378
122	0xbd1e8a87	-0.03870633
123	0x3d137d21	0.036008004
124	0xbcf38096	-0.0297244
125	0xbda9fce9	-0.08300192
126	0x3cf11712	0.029429946
127	0xbd32ebcb	-0.0436819
128	0xbcd882a9	-0.026429491
129	0xbd8ddbd2	-0.06926693
130	0xbcf553d2	-0.029947195
131	0xbc3c9e97	-0.01151242
132	0xbd2226f0	-0.039587915
133	0xbd5c69cb	-0.05381183
134	0xbd763691	-0.060110632
135	0xbd622629	-0.055212174
136	0xbd76444a	-0.06012372
137	0x3ac43bdc	0.0014971453
138	0x3c88d1fb	0.016701689
139	0x3c670f28	0.014102735
140	0xbaed48de	-0.0018103381
141	0xbd2c85da	-0.04211984
142	0xbcdc45e2	-0.026888791
143	0xbcaf08f2	-0.02136657
144	0xbd09dfd5	-0.03366073
145	0xbcf3efee	-0.029777493
146	0xb96111c6	-0.00021464293
147	0xbcdcc5da	-0.026949812
148	0x3d84644a	0.06464441
149	0x3a2a6fc9	0.00065016426
150	0xbc5dc004	-0.01353455
151	0x3d03272c	0.03201978
152	0xbbc5b762	-0.006033824
153	0xbd7bcccb	-0.061474603
154	0x3c69e0f4	0.014274824
155	0xbb5834cd	-0.0032990456
156	0xbd80222b	-0.06256517
157	0x3d13a8a1	0.03604949
158	0x3a56fd33	0.0008201182
159	0xbd8e24ae	-0.0694059
160	0xbd00ff39	-0.0314934
161	0xbd7e9201	-0.06215096
162	0xbd28ad89	-0.04118112
163	0xbce1ffc7	-0.027587784
164	0xbb5bdfa3	-0.0033550046
165	0xbcfbbf04	-0.030730732
166	0xbc5ea8da	-0.013590062
167	0x3d131774	0.03591104
168	0xbd0eaa97	-0.034830656
169	0xbd093c22	-0.033504613
170	0xbbf436f4	-0.00745284
171	0x3c89c0eb	0.016815623
172	0x3cf8addb	0.030356338
173	0xbd8528e1	-0.06501938
174	0xbd1051db	-0.035234313
175	0xb9c693bf	-0.00037875582
176	0xbbd44641	-0.0064781015
177	0x3cdc8003	0.02691651
178	0x3c93eacd	0.018056298
179	0xbba5cf71	-0.0050601293
180	0xbb926f0d	-0.0044688047
181	0x3b89eeb7	0.004209365
182	0xbd4209f7	-0.047372784
183	0x3c49cf6d	0.012317521
184	0xbd4c2e4e	-0.049848847
185	0x3ca80e9c	0.020514779
186	0xbca57a9c	-0.020200066
187	0xbcf378be	-0.02972066
188	0xbd890f82	-0.06692411
189	0xbd571e2d	-0.052519012
190	0xbd83a9e1	-0.06428886
191	0x3ca1140d	0.019662881
192	0x3c9813f3	0.0185642
193	0x3bfa6d4c	0.0076424237
194	0x3c2f4b56	0.010699114
195	0xbb9b2969	-0.004735161
196	0xbcc19384	-0.023629911
197	0x3afb69c1	0.0019181297
198	0xbd61d61d	-0.055135835
199	0xbb07062b	-0.0020603042
200	0xbcb2e8de	-0.021839555
201	0xbd2a9c22	-0.041652806
202	0xbcd3f62d	-0.025874222
203	0xbc1a59bd	-0.009420809
204	0x3b6604fc	0.0035098186
205	0xbc8797cb	-0.016551873
206	0xbd448fb4	-0.04798861
207	0x3c346c33	0.011012125
208	0xbd367cfd	-0.044552792
209	0xbc9715ca	-0.018443007
210	0x3cd3f02b	0.025871357
211	0x3b714c92	0.003681932
212	0x3cec6589	0.02885701
213	0xbbece901	-0.0072299247
214	0x3d27dd07	0.040982272
215	0xbabe89e8	-0.0014536949
216	0x3cfba499	0.030718135
217	0xbbbdd7b9	-0.0057935384
218	0xbd2aef54	-0.041732147
219	0xbd63e0ab	-0.055634182
220	0xbc26615e	-0.01015505
221	0x3c6b3ec1	0.014358223
222	0xbd4e8bfb	-0.050426465
223	0x3f0acd2f	0.54219335
224	0x3bc7870a	0.006089096
225	0xbd777483	-0.06041385
226	0xbd4e9910	-0.05043894
227	0x3d3d7dac	0.04626243
228	0x3bb26afd	0.005444883
229	0xbd53b4fd	-0.051686276
230	0xbd117b7a	-0.035518147
231	0xbc7f04c3	-0.0155651
232	0xbd789a3c	-0.060693964
233	0xbd56c226	-0.052431248
234	0xbd6d7756	-0.057975136
235	0x3c81e942	0.015858296
236	0x3ccb72ef	0.024835078
237	0x3c0c320f	0.008556857
238	0xbce03c6d	-0.027372563
239	0xbd67e425	-0.05661406
240	0xbc8d24df	-0.017229496
241	0xbcd7c110	-0.026337177
242	0xbd583546	-0.05278518
243	0x3ba7273b	0.005101112
244	0x3d21d035	0.039505202
245	0xbd7bf416	-0.061512075
246	0xbcb98d5f	-0.022650419
247	0xbd80cf6d	-0.06289563
248	0x3bba21c3	0.0056802942
249	0xbd568ad8	-0.052378505
250	0xbc395d1e	-0.011313705
251	0xbbd69743	-0.0065487935
252	0x3c23fa99	0.010008478
253	0x3d3103d0	0.043216527
254	0xbc029c18	-0.007971786
255	0xbce23b64	-0.02761621

lays.2.weight f4 [2, 256]
0	0x3a60b06b	0.000857121
1	0xba97017c	-0.0011520828
2	0xb9aa8526	-0.0003252413
3	0xbb4059b8	-0.0029350352
4	0x3d274eb7	0.040846553
5	0xbc206daf	-0.009791776
6	0x3b0ffbba	0.002197011
7	0x3911754e	0.00013871977
8	0x3820defe	3.835465e-05
9	0x385bdd85	5.2419975e-05
10	0xbd33a109	-0.043854747
11	0x3af7aa5c	0.0018895376
12	0xb684cb4f	-3.957575e-06
13	0xbb9788fa	-0.004624483
14	0x3a1d521c	0.000600131
15	0xbcc97af3	-0.02459476
16	0xb91250a6	-0.00013953689
17	0x38e37def	0.000108476605
18	0xbd367f86	-0.04455521
19	0x39cad338	0.00038685813
20	0x3bc3d681	0.0059764986
21	0xbcdef11a	-0.027214576
22	0xbc153b5c	-0.009108391
23	0xb963d869	-0.00021729026
24	0x3983766b	0.00025074495
25	0x3c88e58d	0.01671102
26	0xbb0fa505	-0.0021918428
27	0x3abd611d	0.0014448498
28	0x3bac31b1	0.005254947
29	0xbb2cec9c	-0.0026386147
30	0xbbc4413f	-0.0059892233
31	0xb97755a8	-0.00023587665
32	0xbbb569f4	-0.0055363122
33	0x3884d43d	6.333783e-05
34	0x3d2570e2	0.040390857
35	0x396c8dd8	0.00022559555
36	0x3982031e	0.00024797855
37	0x3adbe164	0.0016775546
38	0x3b51c65c	0.00320091
39	0x3bbbd4ca	0.0057321535
40	0x3969cbb6	0.000222965
41	0x3ac921e1	0.001534518
42	0x3a876b61	0.0010331684
43	0x3cdc023a	0.02685653
44	0xb4e0090f	-4.1729842e-07
45	0x395acca4	0.00020866335
46	0x37e694b6	2.7487386e-05
47	0x39bc8ca6	0.00035962946
48	0x3a12fcc4	0.0005607123
49	0x3d0f3114	0.034958914
50	0x3936608b	0.00017392838
51	0x393e30ae	0.00018137947
52	0xb9a3cf0f	-0.00031244053
53	0xbcd138a8	-0.025539711
54	0xbd127a47	-0.035761144
55	0xbbcfc218	-0.0063402764
56	0xb80c8e2a	-3.3511e-05
57	0x3d1c55e9	0.038167868
58	0x37aafceb	2.0383353e-05
59	0xbcc79f98	-0.024368092
60	0xbb0bf640	-0.0021356493
61	0xbb1bed93	-0.0023792728
62	0x3acac872	0.0015471114
63	0x399335df	0.00028078162
64	0xb8273191	-3.9862065e-05
65	0x3c3dad5c	0.011576977
66	0xbaecb298	-0.0018058596
67	0x3b2314c1	0.0024884196
68	0xbcd871ed	-0.026421512
69	0xb599f3f4	-1.1470388e-06
70	0xbc08323f	-0.008312761
71	0xbbaa228d	-0.005192107
72	0x39e2bd0c	0.0004324693
73	0xbd2ee639	-0.042700026
74	0x399d3f75	0.00029992653
75	0x3d0e8700	0.034796715
76	0x3b2f5249	0.0026751927
77	0x3cf262ce	0.02958813
78	0x3c90ec86	0.017690908
79	0xbafcdb55	-0.001929144
80	0x3a39d49b	0.00070888706
81	0xbccecc95	-0.025244037
82	0xbcc5419a	-0.024079133
83	0x3c9062d8	0.017625257
84	0x3a1b6bf4	0.0005928867
85	0xbc6efa1b	-0.014585997
86	0xb97a700e	-0.00023883602
87	0x3c34e907	0.011041886
88	0x39a1c938	0.00030858233
89	0xbb27ea30	-0.0025621764
90	0xbd050091	-0.032471243
91	0xb91174dd	-0.00013871813
92	0x3bb07d76	0.00538605
93	0x388353f3	6.2622035e-05
94	0x3a0b7ef6	0.0005321348
95	0xbb26a312	-0.0025426787
96	0x3b455184	0.0030108402
97	0xba96fee2	-0.0011520053
98	0x3c1b53eb	0.009480457
99	0xb897a198	-7.23034e-05
100	0xbb8425d2	-0.004032829
101	0x3b029a92	0.0019928557
102	0x3a88a87d	0.001042619
103	0xbae70e8e	-0.0017628239
104	0x3a99eba9	0.0011743206
105	0xbba969bc	-0.005170075
106	0x39c3bc70	0.00037333695
107	0xbc9797b5	-0.018504957
108	0xb90ad0b7	-0.00013238458
109	0x3b36becf	0.0027884727
110	0xbbb47ab0	-0.0055077896
111	0x3ce6dd22	0.028181616
112	0xba050086	-0.00050736254
113	0x3ac04010	0.001466753
114	0xbc0e3716	-0.008680126
115	0x39ecd9b7	0.00045175638
116	0x3c78e649	0.015191623
117	0xb906ed79	-0.00012867701
118	0x3a9608ab	0.0011446675
119	0x3c753241	0.014965595
120	0x39b3ef49	0.00034319822
121	0x3c154647	0.009110994
122	0x39a16c95	0.00030789213
123	0x3af22faa	0.001847734
124	0xbcdc2e98	-0.026877686
125	0x3c94640b	0.01811411
126	0x3a8653f3	0.0010248407
127	0xbcc087c6	-0.023502242
128	0xbd22a114	-0.039704397
129	0x3c8d1c31	0.017225357
130	0xb846389c	-4.72596e-05
131	0xbcc4c31d	-0.024018819
132	0x3cd6c32a	0.026216108
133	0xb9d8025a	-0.00041200483
134	0xbbecdfb5	-0.0072288164
135	0xbd1d8498	-0.03845653
136	0x3cb9462c	0.022616468
137	0x3a87a9bd	0.0010350269
138	0x3a404b94	0.0007335481
139	0x3b986a97	0.0046513784
140	0xb8111691	-3.459171e-05
141	0xbd31e20f	-0.043428477
142	0xb7d2d66d	-2.51338e-05
143	0x39e877c4	0.0004433972
144	0x3bad3375	0.005285675
145	0xbac5fde0	-0.0015105568
146	0x3a2abbff	0.0006512999
147	0xb901bb42	-0.00012372158
148	0x3aa725b4	0.0012752325
149	0xb91fedcc	-0.00015252008
150	0x37b30486	2.134057e-05
151	0xb99f97b6	-0.00030439877
152	0xbd13a183	-0.0360427
153	0xbcb55414	-0.022134818
154	0xba74a9da	-0.0009333171
155	0x3ba0b9c1	0.004904956
156	0x3c22ed08	0.009944208
157	0xba5ed5b8	-0.00085004745
158	0x3a339ece	0.0006851972
159	0xba100653	-0.00054941064
160	0xbb4cf51e	-0.003127403
161	0xbb94338b	-0.004522746
162	0xbce52fd3	-0.027976906
163	0x3a010d18	0.00049229106
164	0x3a5d8236	0.0008449884
165	0xb94c9d7e	-0.00019513626
166	0xbb312209	-0.0027028343
167	0x3a1f4f88	0.000607722
168	0xbb5ce5e3	-0.003370636
169	0xbb040ea0	-0.0020150319
170	0xb7172733	-9.009428e-06
171	0x3a7aa833	0.0009561807
172	0x3a65db7c	0.00087683625
173	0xbcf6135f	-0.030038534
174	0xba60fa80	-0.0008582249
175	0x3ac27700	0.001483649
176	0xb99263f1	-0.00027921752
177	0x3b64a52f	0.0034888496
178	0x3916f26b	0.00014395422
179	0x3aa1ce2a	0.0012344767
180	0x37ebb08a	2.809639e-05
181	0x3aad2c41	0.0013212041
182	0x3be6ff65	0.0070494884
183	0x39c4ebd0	0.00037559727
184	0xb7a9c44e	-2.0237781e-05
185	0x3a747a00	0.0009326041
186	0x3c15caf1	0.009142623
187	0xbaf68e68	-0.0018810751
188	0x3d4596b8	0.04823944
189	0xba76ac23	-0.00094098056
190	0x3c277ec4	0.010223094
191	0x3b3138d5	0.0027041931
192	0x3ab81211	0.001404347
193	0x3800d4bd	3.0715706e-05
194	0x3a447b23	0.00074951554
195	0x3a8bd2d0	0.0010667685
196	0x3799fcf8	1.8356819e-05
197	0xba001f9b	-0.0004887522
198	0x3c49a561	0.012307496
199	0xbc92d30c	-0.0179229
200	0x3a067e41	0.00051305076
201	0xbbcc0f22	-0.00622739
202	0xbb29e235	-0.0025922183
203	0x39192d46	0.00014608083
204	0x3a01a1fb	0.00049450964
205	0x39c01edb	0.00036644083
206	0x3a92149d	0.0011145059
207	0xb8df5ad9	-0.0001065039
208	0x39ee8bc6	0.00045499037
209	0xb9b37278	-0.00034226826
210	0x3a188365	0.0005817919
211	0xb68739e6	-4.030054e-06
212	0xba4dd4dd	-0.00078518485
213	0x36964d78	4.479367e-06
214	0x3a514b07	0.0007983897
215	0x39b82eff	0.0003513023
216	0xbca7e167	-0.020493222
217	0x3859aeb7	5.1899548e-05
218	0x3cdd1d3a	0.026991475
219	0xbc25f2e6	-0.010128712
220	0x3b8aca93	0.0042355745
221	0xba7400f6	-0.00093080045
222	0x3aac3ded	0.0013141014
223	0xb8e185d5	-0.00010753764
224	0x3908a28b	0.00013030523
225	0xbce69f19	-0.028152036
226	0x3b185738	0.0023245346
227	0xb991fc84	-0.00027844694
228	0xb99344f7	-0.00028089408
229	0xbd2dc6f6	-0.042426072
230	0x36ac3cb2	5.1330653e-06
231	0xb9bb40a2	-0.00035715575
232	0x3d185421	0.037189607
233	0xbb24bb70	-0.0025136136
234	0xbcea752d	-0.028620327
235	0x39817dc6	0.00024698506
236	0xba4a1066	-0.0007708132
237	0xbc0ff515	-0.008786459
238	0x3d0046cf	0.03131753
239	0x3ceb4ab4	0.028722145
240	0x3a634be2	0.000867067
241	0xbc2616f0	-0.010137305
242	0xbd65533f	-0.055987593
243	0x3a1bce5b	0.000594353
244	0x3b010c83	0.0019691295
245	0x3ce6b4a2	0.028162304
246	0xbc55a65c	-0.013040151
247	0x3bd096e1	0.0063656424
248	0x3826e923	3.979461e-05
249	0x382ea1b2	4.1635423e-05
250	0x38479657	4.7585312e-05
251	0x39873f49	0.00025796358
252	0xbab19ac5	-0.0013550153
253	0xbccad5bd	-0.024760121
254	0x37cb3bde	2.4227364e-05
255	0xbd385662	-0.045004256

lays.2.bias f4 [2]
0	0xbe4f3ccb	-0.20238034
1	0x3e6dd08a	0.23224083

l1.weight f4 [256, 63]
0	0xb75880b7	-1.2904572e-05
1	0x36ae47d4	5.193966e-06
2	0xb68243b8	-3.8821854e-06
3	0xbdb6ebf1	-0.08931721
4	0xb6bd94f0	-5.6499775e-06
5	0xb649e315	-3.0083513e-06
6	0x3653fe2f	3.1589404e-06
7	0xb482f1a8	-2.4390215e-07
8	0xb609f4c8	-2.0557072e-06
9	0x36dfb98e	6.6675193e-06
10	0xb504d794	-4.948754e-07
11	0xb5b02620	-1.3124118e-06
12	0x369eedb0	4.7364374e-06
13	0xb6a2c177	-4.8504985e-06
14	0xb705ee30	-7.982875e-06
15	0xb65bd59d	-3.2757882e-06
16	0xb58d1e28	-1.0514095e-06
17	0x3cc5f3ac	0.024164043
18	0x36a19ac7	4.8161924e-06
19	0x373d08e3	1.1267347e-05
20	0xb64f6464	-3.0903839e-06
21	0x3d6711bb	0.056413393
22	0x36eaf878	7.002669e-06
23	0x369659b6	4.480792e-06
24	0xbc249c5c	-0.010047045
25	0xb8559800	-5.092472e-05
26	0x3d721a46	0.059107088
27	0xb5579ca4	-8.0321684e-07
28	0x36951434	4.442898e-06
29	0xb61a59e8	-2.300012e-06
30	0x36395a26	2.7619622e-06
31	0x39bb7fb5	0.0003576257
32	0xb67cb842	-3.7658178e-06
33	0x367556d8	3.6558395e-06
34	0x362ce8b8	2.5765457e-06
35	0x3677ec5a	3.6943443e-06
36	0xb753dc56	-1.2627881e-05
37	0xb5565fb8	-7.98605e-07
38	0xb65cfaa1	-3.292844e-06
39	0x36dfa363	6.6649386e-06
40	0xb5b3ae67	-1.3387297e-06
41	0xb638c2af	-2.7531457e-06
42	0xb69996d7	-4.5773154e-06
43	0xb6bd42ba	-5.640407e-06
44	0xb6227f9d	-2.4214162e-06
45	0xb7a653bc	-1.9827734e-05
46	0x3c55c62a	0.013047734
47	0x3d05c006	0.03265383
48	0x359989e6	1.1439522e-06
49	0xb4c6cbb4	-3.7028587e-07
50	0x368456e9	3.9440242e-06
51	0x3d915894	0.07096973
52	0x36b997d8	5.5311066e-06
53	0xb586eecb	-1.0053276e-06
54	0x3d3de5ff	0.04636192
55	0xb8312d47	-4.2242256e-05
56	0x36d0e3a1	6.2253825e-06
57	0x367c6ed8	3.7615446e-06
58	0xbda51364	-0.08060339
59	0x372d2e50	1.03223865e-05
60	0xb87da5c3	-6.0474278e-05
61	0x35968d70	1.1217035e-06
62	0xb6b7791f	-5.4679253e-06
63	0xb602818b	-1.9446913e-06
64	0x35df2aa5	1.6627206e-06
65	0x36496a96	3.0013375e-06
66	0xbae053ee	-0.0017114857
67	0xb68bf431	-4.1709504e-06
68	0x3d35dba6	0.044398926
69	0xb694d1b5	-4.435157e-06
70	0xb6c62ca0	-5.906055e-06
71	0xb72c73a9	-1.0278928e-05
72	0x371918a8	9.125251e-06
73	0xb6d61a58	-6.380764e-06
74	0x37959c7f	1.7835058e-05
75	0x3d814184	0.06311324
76	0x32c39a00	2.2771019e-08
77	0xb6410900	-2.876448e-06
78	0xb74c93dc	-1.2193774e-05
79	0xbba1f900	-0.004943013
80	0xb5a1a820	-1.2044366e-06
81	0x3d229ceb	0.03970043
82	0xb6c5dec2	-5.89699e-06
83	0x37202d2d	9.5472615e-06
84	0x35d41394	1.5800929e-06
85	0xb7af75ea	-2.0916534e-05
86	0xb74a76d2	-1.2067803e-05
87	0xbd84fbfe	-0.06493376
88	0xb69d7fae	-4.6938285e-06
89	0xbd393a89	-0.04522184
90	0x35a61658	1.2374467e-06
91	0x3670d634	3.588747e-06
92	0xb620e58e	-2.3975476e-06
93	0x36bdb6e8	5.653932e-06
94	0x3571ac10	9.002988e-07
95	0xbc2f846d	-0.010712725
96	0xb72b4f3c	-1.0210842e-05
97	0x372f8a2b	1.0462983e-05
98	0x37348dcd	1.0761852e-05
99	0x370736f9	8.059426e-06
100	0x369b9fca	4.637962e-06
101	0x3d3c6113	0.045991015
102	0xb769df30	-1.3939847e-05
103	0x369ab70e	4.610868e-06
104	0x36d9b098	6.487662e-06
105	0x376fa288	1.4283352e-05
106	0xb7443a3c	-1.1696069e-05
107	0x363be7b8	2.800005e-06
108	0xb65691ff	-3.1973466e-06
109	0x375a22ce	1.3001916e-05
110	0xbd60c7cc	-0.05487804
111	0x3ccfcbb5	0.02536569
112	0xbd457a64	-0.048212424
113	0x36d3a080	6.3069747e-06
114	0x3d06103e	0.032730334
115	0xb83d1d58	-4.508844e-05
116	0x37118f44	8.67603e-06
117	0xb6b13a5e	-5.281806e-06
118	0xb546b08d	-7.4017663e-07
119	0xb5c18574	-1.441846e-06
120	0xb6a8258b	-5.0111607e-06
121	0xb6344257	-2.6860705e-06
122	0xb76dacf4	-1.416657e-05
123	0xb539eec0	-6.92653e-07
124	0x35a63e6c	1.2386131e-06
125	0xb72c4080	-1.02670165e-05
126	0x3659b6c1	3.2441897e-06
127	0x35eab32e	1.7486507e-06
128	0x35bfc0d0	1.4286725e-06
129	0xbda511cf	-0.08060037
130	0x36ef197e	7.1257227e-06
131	0xb322fee0	-3.795037e-08
132	0xb637ff28	-2.7417645e-06
133	0x36270fac	2.4894061e-06
134	0x36ac6237	5.137433e-06
135	0x361aaaa7	2.304712e-06
136	0xb5de4b0f	-1.6562134e-06
137	0x367c4805	3.7592847e-06
138	0xb7598133	-1.2964289e-05
139	0x35f90bac	1.8555343e-06
140	0x360560d6	1.987491e-06
141	0x35779a18	9.2238906e-07
142	0xb6c6e7b6	-5.9278345e-06
143	0xb589264f	-1.0218445e-06
144	0xbca1927a	-0.019723166
145	0x33c8b230	9.345638e-08
146	0xb6838d2c	-3.920539e-06
147	0x35e6b215	1.7188164e-06
148	0xbcc234d4	-0.023706831
149	0xb5cfff14	-1.5496939e-06
150	0xbbb7dc18	-0.005610954
151	0x36be4f1b	5.6716503e-06
152	0xb4137028	-1.3731244e-07
153	0xb5bf8ad9	-1.4271019e-06
154	0x32af3000	2.039451e-08
155	0xbc8c4343	-0.017121917
156	0x36845e1b	3.944862e-06
157	0x36bcd236	5.6273084e-06
158	0xb5e14c60	-1.6786034e-06
159	0x371f664c	9.500956e-06
160	0xb5166842	-5.603107e-07
161	0xb6de5d8d	-6.6270063e-06
162	0xbcbdc213	-0.02316383
163	0x371467ae	8.845627e-06
164	0xb5b2f770	-1.3334047e-06
165	0x36c4a9bb	5.8610144e-06
166	0xb52c0fc5	-6.409794e-07
167	0xb641758a	-2.8827658e-06
168	0xbb374dcb	-0.0027969952
169	0xb6596d7e	-3.2399253e-06
170	0x3bd233a3	0.006414847
171	0x3429e8e8	1.5824082e-07
172	0x3a4645aa	0.00075634813
173	0x352fd275	6.5498836e-07
174	0xba1ac2ab	-0.00059036416
175	0xb40153a8	-1.2044495e-07
176	0x3595e1ab	1.1167043e-06
177	0x36c37c09	5.8258925e-06
178	0x3cd17484	0.025568254
179	0xb6e3126e	-6.7672727e-06
180	0x349c8220	2.9151943e-07
181	0x34702501	2.2365204e-07
182	0x36bcd4c4	5.627606e-06
183	0x361c6f75	2.3310688e-06
184	0x3b425c97	0.0029657239
185	0xb52296d0	-6.0569164e-07
186	0xb63a6814	-2.7776741e-06
187	0xb64ca04e	-3.0491678e-06
188	0xb6415dce	-2.8813843e-06
189	0xb6363a84	-2.7154174e-06
190	0xb741ad3e	-1.15440325e-05
191	0x3609bba2	2.0523808e-06
192	0xbda44dc5	-0.08022646
193	0xb6a1908a	-4.8150005e-06
194	0xbd45a468	-0.048252493
195	0x3654c927	3.1707548e-06
196	0x37247b43	9.803861e-06
197	0x3691abbb	4.341329e-06
198	0xb713840b	-8.792626e-06
199	0xb6feac83	-7.589873e-06
200	0xb728eb00	-1.00682955e-05
201	0x36ef7058	7.1358336e-06
202	0xb6c0aea9	-5.742379e-06
203	0x37252f8b	9.845836e-06
204	0xb5d67890	-1.5979331e-06
205	0xb68cbfd3	-4.1946564e-06
206	0x3702b6a2	7.791126e-06
207	0x3cf60055	0.030029455
208	0xb6d15b3f	-6.239308e-06
209	0x36049276	1.9754784e-06
210	0xb63ae0f2	-2.7847095e-06
211	0xb6ce4c12	-6.148134e-06
212	0xb6bd92f8	-5.6497483e-06
213	0xbc6170fc	-0.013759848
214	0xb613ee63	-2.2043466e-06
215	0xb51c9e3f	-5.8344807e-07
216	0x35d3c249	1.577727e-06
217	0x3735661c	1.0812215e-05
218	0x3d425b8f	0.0474506
219	0xb6bae222	-5.5695573e-06
220	0x35fe3e0c	1.8942533e-06
221	0x3d94d465	0.072670735
222	0x3634ac4d	2.6922382e-06
223	0xb70507b1	-7.929209e-06
224	0xb6ec35a6	-7.0395936e-06
225	0x3709ae84	8.206469e-06
226	0x35d282d0	1.5684291e-06
227	0x36f1d78f	7.207454e-06
228	0x36c034d3	5.7281954e-06
229	0x36ea03d2	6.974188e-06
230	0x366e2e0d	3.5491569e-06
231	0xb6ac9dc9	-5.144368e-06
232	0xb6a397e0	-4.875459e-06
233	0xb6cdf4b1	-6.137962e-06
234	0xb5ddcbc8	-1.6525091e-06
235	0x36fadd0f	7.476315e-06
236	0x3c8fd0a8	0.01755555
237	0xba72669a	-0.0009246856
238	0xb70c00e6	-8.344859e-06
239	0x37d3d1b8	2.5250818e-05
240	0x3c0e9a0f	0.008703723
241	0xb6a3d7b9	-4.882892e-06
242	0xb5815078	-9.634668e-07
243	0x3690ab0e	4.311448e-06
244	0x3c901034	0.017585851
245	0xbd3cbba1	-0.046077374
246	0x36d5581f	6.3581533e-06
247	0xbd9ecd34	-0.07753983
248	0x3725de81	9.886572e-06
249	0xb83e0a74	-4.5309265e-05
250	0x36b534c0	5.4003613e-06
251	0xb7713cc0	-1.4378864e-05
252	0x37d4a663	2.534985e-05
253	0xb6c9a204	-6.009128e-06
254	0xb6e134e7	-6.711681e-06
255	0xb93f370f	-0.0001823569

l1.bias f4 [256]
0	0xbda17c3d	-0.07885025
1	0xbda07ba6	-0.07836084
2	0xbb00d91e	-0.0019660662
3	0xbd4d15e2	-0.050069697
4	0x3b50d7e1	0.0031866955
5	0xbdda6030	-0.106628776
6	0x3de4e0f7	0.11175721
7	0xbcd117a5	-0.02552397
8	0xbd507e3d	-0.05090164
9	0x3d98494b	0.074358545
10	0x3e74e042	0.23913673
11	0xbdf83dcd	-0.121211626
12	0x3ccabb74	0.024747588
13	0x3ee538ab	0.44769797
14	0xbcf290d3	-0.029610073
15	0x3cd7b458	0.026331112
16	0x3b0ebcfd	0.0021780126
17	0x3d04ac62	0.03239096
18	0xbdf2d8e0	-0.11857772
19	0xbe194615	-0.1496814
20	0xbce31751	-0.027721079
21	0xbcd8167d	-0.02637791
22	0xbe0815e4	-0.132896
23	0xbe040c6d	-0.12895365
24	0x3c9ce8e6	0.019154023
25	0xbdf7f963	-0.121081136
26	0x3d2f4cf7	0.04279801
27	0x3d5f1b3e	0.05446934
28	0xbd8714ef	-0.0659579
29	0xbdca3417	-0.098732166
30	0xbd8cf0f3	-0.06881895
31	0x3d4f7fd9	0.050659034
32	0x3ed62c04	0.41830456
33	0xbe013b58	-0.12620294
34	0xbde5feeb	-0.11230262
35	0x3cd0e7e4	0.025501199
36	0xbe02c70c	-0.12771243
37	0xbd807621	-0.06272531
38	0xbd586fb2	-0.052840896
39	0x3da892f1	0.08231152
40	0xbddc14d4	-0.1074616
41	0xbd5d2ce5	-0.053997893
42	0x3bc67da5	0.0060574585
43	0x3d5db0e3	0.05412377
44	0xbe158a3f	-0.14603518
45	0xbe054434	-0.13014299
46	0x3d13ceca	0.03608588
47	0x3c77fc70	0.015135869
48	0x3ed4dd4a	0.4157508
49	0x3cb49fa7	0.022048784
50	0x3d6c13b0	0.057635963
51	0xbd9a2927	-0.075273804
52	0xbb45413d	-0.00300987
53	0xbdeafb81	-0.11473752
54	0xbe0c7349	-0.13715853
55	0xbdb658b3	-0.08903637
56	0x3d75d24d	0.06001501
57	0x3d11c919	0.035592172
58	0x3c8e28f7	0.017353518
59	0x3ec7fd67	0.39060518
60	0xbe089542	-0.13338187
61	0x3ee8946a	0.4542573
62	0x3c960eb3	0.018317556
63	0xbd778356	-0.060427986
64	0xbdf3bf03	-0.11901667
65	0xbd9ad86d	-0.07560811
66	0x3d8d6f70	0.06906021
67	0xbdcdad56	-0.10042827
68	0xbdbe4578	-0.09290594
69	0xbdef7d85	-0.11693863
70	0xbd6e6b5c	-0.058207855
71	0xbd77f66b	-0.060537737
72	0xbc0e5c36	-0.008688977
73	0x3d08bf9c	0.033385858
74	0xbcddb443	-0.027063495
75	0xbe06164e	-0.13094446
76	0x3e163f62	0.14672616
77	0xbccb4a01	-0.024815561
78	0xbd90c13d	-0.07068107
79	0xbdfbb717	-0.12290781
80	0xbc837048	-0.01604475
81	0x3f0b70f7	0.54469246
82	0xbe031f44	-0.12804896
83	0xbe01b489	-0.12666525
84	0x3c9bb3ff	0.019006727
85	0x3c1cdabb	0.009573634
86	0xbd7dd65d	-0.06197201
87	0xbd498bcd	-0.04920559
88	0xbda82845	-0.08210806
89	0x3c1efd07	0.009703881
90	0xbcd5385a	-0.026027847
91	0x3bf64583	0.0075156107
92	0x3ecdcaa0	0.40193653
93	0xba9131b0	-0.001107743
94	0x3aaae62c	0.0013038567
95	0xbdc9b8fa	-0.098497346
96	0x3db37b56	0.08763759
97	0x3c6fa9b5	0.014627864
98	0xbd89abf0	-0.067222476
99	0x3c073ab9	0.008253747
100	0xbe20eed4	-0.15716106
101	0xbd9edda5	-0.07757119
102	0xbd9c9448	-0.0764547
103	0x3ce0ceae	0.027442303
104	0x3d972881	0.073807724
105	0xbca4a8e2	-0.02010006
106	0x3d94ea20	0.07271218
107	0xbbc2f26e	-0.00594931
108	0xbdbd1f55	-0.09234492
109	0xbdce28a0	-0.10066342
110	0xbd89a7fb	-0.06721493
111	0xbcbda50a	-0.023149986
112	0xbd730044	-0.059326425
113	0x3b05bf8a	0.0020408356
114	0x3f17099d	0.58999044
115	0x3c81c99a	0.015843201
116	0x3d2e8c69	0.042614374
117	0x3be88659	0.0070960936
118	0xbcc3e3b6	-0.023912292
119	0x3e0cdf40	0.13757038
120	0x3d335a95	0.043787558
121	0xbdde9398	-0.10867995
122	0xbdaad8c2	-0.083421245
123	0x3d5db115	0.054123957
124	0x3d469dd0	0.048490345
125	0x3c54a434	0.012978602
126	0x3f02d357	0.5110373
127	0x3d8f8665	0.070080556
128	0xbd315cce	-0.043301396
129	0xbcedcacb	-0.029027363
130	0xbdd3e427	-0.10346251
131	0x3c41667a	0.0118042175
132	0x3c8a707e	0.016899344
133	0xbd63dfec	-0.05563347
134	0xbd4427ab	-0.047889393
135	0xbdf03d4c	-0.117304415
136	0x3ea12067	0.31470034
137	0xbe1358a9	-0.1438929
138	0x3ea6ce82	0.32579428
139	0x3d59b47b	0.053150635
140	0xbd9488d7	-0.07252663
141	0xbda5e5b2	-0.081004515
142	0xbd4b5842	-0.049644716
143	0x3d62e29f	0.055391904
144	0xbdc4008c	-0.09570417
145	0x3ba738a4	0.0051031876
146	0x3c85ca74	0.016331889
147	0x3f211285	0.62918884
148	0xbe1369bb	-0.14395802
149	0xb9a22707	-0.00030928125
150	0xbdc82a32	-0.09773673
151	0xbc9aeed3	-0.018912708
152	0xbdbdba58	-0.09264058
153	0x3d11162e	0.035421543
154	0xbddefd32	-0.10888137
155	0xbd8f9254	-0.07010332
156	0xbe17082f	-0.14749216
157	0x3d692ddd	0.056928504
158	0x3eec8984	0.46198666
159	0xbb068189	-0.0020523986
160	0x3f037cba	0.5136219
161	0x3e282949	0.16421999
162	0xbd0e7397	-0.034778204
163	0x3d8337c4	0.06407121
164	0x3efe4ffc	0.49670398
165	0x3db4fd7d	0.088374116
166	0x3f19a3fa	0.60015833
167	0x3d881973	0.06645479
168	0x3ebaf1be	0.3651256
169	0xbd8e9ebd	-0.06963871
170	0xbdc316d4	-0.095258385
171	0xbc8c6b92	-0.017141137
172	0xbd93ef3a	-0.07223363
173	0xbe07c327	-0.13258038
174	0x3cc78960	0.024357498
175	0x3da2a900	0.079423904
176	0xbe184524	-0.14870125
177	0xbdfd3790	-0.12364113
178	0x3d979977	0.07402318
179	0xbe2716f1	-0.16317345
180	0xbe04c09b	-0.12964098
181	0x3eb50211	0.3535314
182	0xbe089f34	-0.13341981
183	0x3ca0a8fa	0.019611824
184	0xbdd7ecfb	-0.10543247
185	0x3e5adb97	0.2137283
186	0xbe1d38dc	-0.15353721
187	0x3d32d3a3	0.043658864
188	0xbd131ac6	-0.035914205
189	0x3d83adf8	0.06429666
190	0xbd6dc2b7	-0.058047023
191	0x3eae8e32	0.3409286
192	0x3d5c3169	0.05375806
193	0xbdebe561	-0.1151836
194	0x3b99fd16	0.0046993596
195	0xbd862886	-0.06550698
196	0x3d6467e7	0.05576315
197	0xbd44ba56	-0.048029266
198	0x3ddc05bb	0.107432805
199	0x3ec23f73	0.37939033
200	0x3d1edf8f	0.03878742
201	0xbe07d145	-0.13263424
202	0xbd1db71a	-0.038504697
203	0xbe16759e	-0.14693305
204	0xbe1c53c5	-0.1526633
205	0xbd27f3b9	-0.041003916
206	0x3ee37d60	0.4443159
207	0x3d71208e	0.058868937
208	0xbcd08f73	-0.025459027
209	0xbdd66358	-0.10468167
210	0xbc9e29ba	-0.019307006
211	0xbdb3d070	-0.08779991
212	0x39f34c8f	0.00046405612
213	0xbd3df870	-0.046379507
214	0xbde3c3c6	-0.11121325
215	0x3cd18b60	0.025579154
216	0xbe050f26	-0.1299406
217	0xbcdcbba7	-0.026944948
218	0xbd8998a6	-0.067185685
219	0x3da32220	0.07965493
220	0xbe1905d3	-0.14943628
221	0x3d4c2495	0.049839575
222	0xbd638617	-0.0555478
223	0xbdfc01b9	-0.12305016
224	0xbd640e68	-0.0556778
225	0xbd4ce65e	-0.050024383
226	0xbd652374	-0.055942014
227	0xbb81c1fc	-0.0039598923
228	0x3d8503f3	0.06494894
229	0xbc766fa8	-0.015041269
230	0x3cf2a60e	0.029620197
231	0xbe01f091	-0.12689425
232	0xbd9e2464	-0.07721785
233	0xbdf8f059	-0.12155218
234	0x372061b8	9.559495e-06
235	0x3ea0f93e	0.31440157
236	0xbdeff0d2	-0.11715855
237	0xbd4d85bc	-0.050176367
238	0xbd765195	-0.060136396
239	0xbde73c5f	-0.11290812
240	0xbe116dd2	-0.1420205
241	0x3dafc8be	0.085832104
242	0xbd9cd9d9	-0.07658739
243	0xbdb50b85	-0.08840088
244	0xbd9911d9	-0.07474107
245	0xbe025c60	-0.12730551
246	0x3d909b31	0.070608504
247	0xbcd0b77a	-0.025478113
248	0xbd690dc7	-0.056897905
249	0xbd03ecb1	-0.03220815
250	0x3d414314	0.04718311
251	0x3da9b2df	0.0828607
252	0x3caa2009	0.020767229
253	0xbe164a16	-0.14676699
254	0x3b8bcb4b	0.004266178
255	0x3ee3728b	0.44423327
