TABULAR/Figure1Reproduce/Models/ADULT_FCN_e=0.0_g=0.0_a=1.0_l=2_h=256_s=True.pt (torch, 332951 bytes, 10 tensors)

lays.0.weight f4 [256, 63]
-0.39098802 0.12645598 -0.24399397 -0.12155358 -0.28519067 -0.03893853 -0.3222996 0.02365123
0.07943067 0.3312435 -0.18038313 0.41949886 0.30303273 0.1644476 0.090896 -0.05194472
-0.2069559 0.11141328 -0.074101016 0.06852653 -0.13126835 0.17216451 -0.31519738 -0.03306536
0.082216516 0.28478128 0.15231588 -0.043542664 -0.16592503 0.19945991 0.10750011 0.13392869
0.0006170673 -0.03865926 -0.11792296 -0.31165385 0.066249564 0.51066196 0.045857824 0.22883019
-0.06041692 0.0940905 -0.04852405 -0.04884099 -0.5276283 -0.106797494 0.14509039 0.14648038
0.12365512 -0.28690276 0.19833304 0.17743453 0.21842474 -0.06364176 0.01348064 -0.007419129
-0.37763888 -0.08285456 -0.10339315 -0.09764455 0.14943372 0.2856552 0.0668391 0.33972245
-1.2211926 -0.4516209 -0.04196929 0.18522146 0.083925046 0.47548103 -0.15186454 -0.36598733
0.11210574 0.054246616 0.14144637 -0.14473827 -0.43874764 -0.0986197 0.18034197 -0.11853894
-0.27483538 -0.03450092 0.34756398 -0.16791667 -0.20511751 -0.10394201 -0.2197484 -0.062565245
0.37322187 -0.10863299 -0.077284954 0.044294402 0.00832488 0.011925052 -0.39418927 -0.43471447
0.27589723 -0.13400836 -0.2771416 -0.041618183 -0.0802524 0.06326915 -0.3374717 0.2184398
-0.22437476 0.004614948 -0.24462304 -0.25214434 -0.57689685 -0.30154735 0.038468607 0.13292547
-0.33708093 0.13885833 0.30417934 -0.51835847 -0.15423448 -0.1394658 0.039011218 -0.19098613
-0.37777516 0.16146068 -0.20061854 0.036706783 -0.3101131 -0.0077013075 -0.17171127 -0.09701294
-0.25827768 -0.12030592 0.19793685 -0.35507086 0.19497743 0.098475404 0.33702877 0.5071651
0.22561671 -0.0671308 0.040033862 0.33906984 -0.118863 0.29571113 0.1613195 -0.16119768
-0.27751768 0.13027559 0.1074252 0.15112326 -0.12752245 0.8359927 -0.25778502 0.4300108
-0.066999465 0.32315123 -0.11732846 0.008347316 0.32342836 0.15432833 -0.2139725 0.27963522
0.18415992 0.3131957 -0.2254346 -0.017584402 -0.07694865 -0.13998687 0.10192145 0.17678942
0.40206876 0.085140824 -0.21424556 -0.24536584 0.1951903 0.10035862 -0.32058674 -0.013718165
0.31629822 0.1517872 0.12420218 0.1355949 0.06347182 -0.14259948 0.10737586 -0.25917503
0.048165992 0.13181935 0.17225307 0.10876542 -0.09320944 -0.07141982 -0.27937165 -0.5089718
-0.14784992 -0.31191212 -0.19241093 -0.30335304 -0.3091698 0.22767647 0.28624713 0.06500914
0.3958413 -0.04872521 0.2799851 0.041874245 -0.09201527 0.30018005 -0.40137443 0.02606903
0.2835177 0.35167536 0.25507435 0.041987196 0.051458444 -0.14899689 0.06745073 0.10661445
0.029752031 0.0026155238 0.20209305 -0.10224527 0.06609288 0.31736454 -0.06683208 -0.11310839
0.10270691 0.1998064 0.0135042425 0.07286476 -0.43145353 -0.13623978 0.1045972 0.31675723
0.47833124 0.22284013 0.11352329 0.34726924 -0.096068874 -0.06518542 -0.19857971 0.077258065
0.16887651 0.2720606 -0.08542032 0.11586278 -0.09916531 -0.35084328 0.29964462 -0.14586066
0.19291188 -0.032714114 -0.4082583 0.34695485 0.14508218 -2.1054008 -0.5192083 -0.057223316
00000000: 952f c8be ad7d 013e 8ed9 79be 15f1 f8bd
00000010: 8304 92be 027e 1fbd 7404 a5be 39c0 c13c
00000020: 8cac a23d bf98 a93e 5bb6 38be 8ec8 d63e
00000030: 1b27 9b3e f464 283e af27 ba3d fdc3 54bd
00000040: 3fec 53be a52c e43d 46c2 97bd a357 8c3d
00000050: 366b 06be e54b 303e 8d61 a1be 8b6f 07bd
00000060: 2261 a83d dace 913e b2f8 1b3e cb59 32bd
00000070: 40e8 29be 383f 4c3e 0529 dc3d 9a24 093e
00000080: afc2 213a 2c59 1ebd 9881 f1bd 1891 9fbe
00000090: daad 873d beba 023f 6ad5 3b3d 7652 6a3e
000000a0: bb77 77bd 85b2 c03d 27c1 46bd 7d0d 48bd
000000b0: a612 07bf a5b8 dabd 9392 143e f4fe 153e
000000c0: e53e fd3d ebe4 92be d117 4b3e 66b1 353e
000000d0: bcaa 5f3e 9c56 82bd e7dd 5c3c 2a1c f3bb
000000e0: e259 c1be a7af a9bd cabf d3bd def9 c7bd
000000f0: 2705 193e 6641 923e f0e2 883d 1af0 ad3e
00000100: 0a50 9cbf db3a e7be fde7 2bbd b2aa 3d3e
00000110: e5e0 ab3d 4072 f33e 6182 1bbe b162 bbbe
00000120: b297 e53d b331 5e3d 51d7 103e 4536 14be
00000130: 88a3 e0be 20f9 c9bd 91ab 383e 8bc4 f2bd
00000140: 39b7 8cbe d650 0dbd e8f3 b13e 59f2 2bbe
00000150: 530a 52be 8cdf d4bd b905 61be 3522 80bd
00000160: f016 bf3e f97a debd 9347 9ebd 0c6e 353d
00000170: 1465 083c 4b61 433c 2dd3 c9be e592 debe
00000180: 6742 8d3e 7d39 09be 81e5 8dbe d477 2abd
00000190: 5f5b a4bd 4293 813d 17c9 acbe afae 5f3e
000001a0: 7fc2 65be fd38 973b 767e 7abe 1019 81be
000001b0: 83af 13bf 6a64 9abe 4291 1d3d 9d1d 083e
000001c0: df95 acbe e130 0e3e 65bd 9b3e 24b3 04bf
000001d0: a5ef 1dbe 1fd0 0ebe 3aca 1f3d de91 43be
000001e0: bf6b c1be f355 253e f26e 4dbe da59 163d
000001f0: 25c7 9ebe 405b fcbb 14d5 2fbe b8ae c6bd
00000200: f93c 84be f362 f6bd f5af 4a3e d9cb b5be
00000210: 2aa8 473e 79ad c93d 098f ac3e 92d5 013f
00000220: 1108 673e df7b 89bd 8cfa 233d 909a ad3e
00000230: 726e f3bd 7367 973e f030 253e 0111 25be
00000240: cc16 8ebe f766 053e be01 dc3d 0ec0 1a3e
00000250: 3f95 02be 9e03 563f 66fc 83be 602a dc3e
00000260: 0437 89bd 1474 a53e e749 f0bd 2ec3 083c
00000270: 6798 a53e 3f08 1e3e 9b1b 5bbe 592c 8f3e
00000280: 6b94 3c3e 305b a03e 54d8 66be 2a0d 90bc
00000290: 4197 9dbd b858 0fbe 31bc d03d 4908 353e
000002a0: f5db cd3e 505e ae3d 3063 5bbe 2f41 7bbe
000002b0: f7df 473e d288 cd3d f223 a4be 28c2 60bc
000002c0: d7f1 a13e 1b6e 1b3e b65d fe3d 64d9 0a3e
000002d0: 83fd 813d 9905 12be e0e7 db3d 97b2 84be
000002e0: b449 453d a7fb 063e 1c63 303e 68c0 de3d
000002f0: 97e4 bebd 8e44 92bd cd09 8fbe fa4b 02bf
00000300: f865 17be f2b2 9fbe 5f07 45be 1751 9bbe
00000310: 814b 9ebe 0524 693e fc8e 923e 8323 853d
00000320: b6ab ca3e 1694 47bd 355a 8f3e 5484 2b3d
00000330: 8072 bcbd 33b1 993e f380 cdbe b88e d53c
00000340: 3b29 913e cb0e b43e 1b99 823e c4fa 2b3d
00000350: 17c6 523d a492 18be 9c23 8a3d ad58 da3d
00000360: 88ba f33c 3569 2b3b 7bf1 4e3e f865 d1bd
00000370: b45b 873d 9b7d a23e 42df 88bd 5fa5 e7bd
00000380: 0058 d23d 0d9a 4c3e e640 5d3c 1f3a 953d
00000390: 7ae7 dcbe 7182 0bbe 0f37 d63d 012e a23e
000003a0: d5e7 f43e 3430 643e e67e e83d 46cd b13e
000003b0: c2bf c4bd ef7f 85bd 7b58 4bbe 7a39 9e3d
000003c0: f7ed 2c3e 874b 8b3e d9f0 aebd 7749 ed3d
000003d0: 2f17 cbbd bba1 b3be 056b 993e 7f5c 15be
000003e0: b18a 453e 3cff 05bd 3b07 d1be 11a4 b13e
000003f0: 6c90 143e e3be 06c0 d6ea 04bf ff62 6abd

lays.0.bias f4 [256]
-0.034473043 -0.07692486 -0.05914221 -0.1236744 0.03687532 -0.15726505 0.09246057 0.042306866
-0.039700437 0.10563133 0.017502762 -0.1449796 0.06984827 -0.08104938 0.015956035 0.09905024
0.041793168 0.13901137 -0.1947412 -0.1100357 0.009190897 0.033890657 -0.078638226 -0.1186535
0.09602342 -0.22210245 -0.1363393 0.12461218 -0.181954 -0.068477854 -0.020353215 0.070182785
0.052087978 -0.10116767 -0.22384815 0.06403686 -0.124820605 -0.0049770074 -0.027239406 0.08502831
-0.09765227 0.029461715 0.11126783 0.03258596 -0.16594598 -0.09273521 -0.034561686 -0.14445974
0.10929083 0.032810293 0.050194822 -0.04269217 0.014986584 -0.04932119 -0.15943001 -0.05003866
-0.052552596 -0.05408853 0.011442188 0.047052436 -0.082289584 -0.0013588541 0.06313679 -0.056895696
-0.14165448 -0.039963003 0.053954057 -0.110358536 -0.06224501 -0.23141971 -0.16989486 -0.14418502
-0.011331356 0.13711163 0.034991935 -0.16729051 0.025623383 -0.06257221 -0.05065477 -0.1054657
-0.035062876 -0.07140241 -0.1687038 -0.08193209 0.05810466 -0.058828056 -0.059657358 -0.0066986107
-0.03963109 0.0858871 -0.019200664 -0.00039113685 0.017444223 0.01806834 -0.032885544 -0.066369385
0.06147585 0.015920334 0.0027657468 -0.07763594 -0.19710492 -0.038904343 -0.026381643 0.002388287
0.12773252 -0.0059088017 0.07506936 0.019927876 -0.15389559 -0.044125922 -0.10256375 -0.13084994
-0.03420306 0.0337446 0.1341505 -0.012879509 0.05849868 -0.03833831 -0.0024439648 0.12065545
0.07899647 -0.11290006 -0.09702147 0.0787244 -0.055014104 0.10088517 -0.049161803 0.104223184
-0.13822691 -0.2134036 -0.14846112 -0.04305581 0.023031272 -0.04583906 -0.027019782 -0.05458813
0.061994378 -0.296439 -0.0055740755 0.13612278 -0.004044559 -0.044014875 -0.17475894 -0.055100515
-0.039258327 0.07738576 0.029759789 0.0513242 -0.18437731 -0.051992044 -0.038064927 -0.13963947
-0.12541981 0.12287364 -0.08625167 -0.14005876 -0.17169443 -0.011346204 0.08439144 -0.051804308
0.12456619 -0.07260005 -0.05927845 -0.0062498697 0.055148177 0.010101948 0.043424312 0.12145463
0.0029038624 -0.0040585296 -0.18908507 0.05078541 -0.03511472 -0.18633185 0.013169982 0.04010297
-0.17122427 -0.14612015 -0.008343231 -0.18894014 -0.13671106 0.014023007 -0.15286149 -0.060450707
-0.104211316 -0.022697877 -0.35624096 0.017500795 -0.11130128 0.07697834 -0.022164078 -0.00452253
0.073158406 -0.09789226 -0.094909474 -0.023765007 0.021726865 -0.037226662 0.08759517 0.046366088
-0.00023375703 -0.1250969 -0.06041053 -0.19602203 -0.123966455 -0.14597942 0.14093374 0.08143815
0.030650845 -0.28876275 -0.1558503 -0.10497903 0.09499462 -0.16633908 -0.24677137 -0.025228279
-0.13793598 -0.04251423 -0.111489825 0.13866785 -0.10930269 0.069990456 0.05152517 0.0075981054
-0.048024677 -0.09262863 -0.1090524 -0.06577252 0.0066474406 0.008676324 0.04315922 -0.1468504
-0.007433979 -0.15604116 -0.07440585 0.07273494 -0.044675246 -0.11195571 -0.018657276 -0.08310336
-0.104934014 -0.05155395 -0.009507582 -0.1291043 -0.060988635 -0.17474517 0.13503416 -0.15160005
-0.027042216 0.033733934 0.034803674 -0.05627449 -0.015974673 -0.12145031 0.008212626 0.054368876
00000000: 9b33 0dbd c88a 9dbd 1a3f 72bd 0149 fdbd
00000010: 930a 173d 170a 21be f85b bd3d f749 2d3d
00000020: ed9c 22bd 3d55 d83d f461 8f3c 8875 14be
00000030: 9c0c 8f3d 38fd a5bd 3bb6 823c dada ca3d
00000040: 502f 2b3d ff58 0e3e 3d6a 47be 665a e1bd
00000050: 6b95 163c eed0 0a3d 140d a1bd 9b00 f3bd
00000060: eda7 c43d d36e 63be 889c 0bbe ac34 ff3d
00000070: 2652 3abe 1e3e 8cbd c9bb a6bc febb 8f3d
00000080: 345a 553d ff30 cfbd 7338 65be c225 833d
00000090: f2a1 ffbd 2a16 a3bb 2d25 dfbc 5323 ae3d
000000a0: eafd c7bd b259 f13c 63e0 e33d db78 053d
000000b0: beed 29be f5eb bdbd 8e90 0dbd 41ed 13be
000000c0: dfd3 df3d 1664 063d 1699 4d3d fcdd 2ebd
000000d0: 4a8a 753c 0405 4abd 9f41 23be 57f5 4cbd
000000e0: 6441 57bd ef8b 5dbd 0478 3b3c 0eba 403d
000000f0: 7187 a8bd 941b b2ba dd4d 813d 760b 69bd
00000100: df0d 11be 3fb0 23bd eefe 5c3d a803 e2bd
00000110: a0f4 7ebd 4af9 6cbe ebf8 2dbe 3da5 13be
00000120: 27a7 39bc fe66 0c3e b453 0f3d 344e 2bbe
00000130: 21e8 d13c dc25 80bd 607b 4fbd 67fe d7bd
00000140: 179e 0fbd 6d3b 92bd b0c0 2cbe 03cc a7bd
00000150: 27ff 6d3d b0f5 70bd 465b 74bd 0580 dbbb
00000160: 3654 22bd 93e5 af3d b64a 9dbc 8011 cdb9
00000170: 30e7 8e3c 0e04 943c feb2 06bd acec 87bd
00000180: 1ace 7b3d 5c6b 823c 8841 353b 97ff 9ebd
00000190: dfd5 49be 295a 1fbd 511e d8bc cf84 1c3b
000001a0: 50cc 023e 9f9e c1bb f7bd 993d c93f a33c
000001b0: ce96 1dbe 62bd 34bd f20c d2bd 87fd 05be
000001c0: 8218 0cbd c737 0a3d c05e 093e 9304 53bc
000001d0: 509c 6f3d a208 1dbd ed2a 20bb 341a f73d
000001e0: e7c8 a13d 2638 e7bd 31b3 c6bd 423a a13d
000001f0: 7856 61bd e29c ce3d e35d 49bd f772 d53d
00000200: 5b8b 0dbe 7986 5abe 3106 18be 4a5b 30bd
00000210: 14ac bc3c bdc1 3bbd 9758 ddbc ce97 5fbd
00000220: d1ed 7d3d dac6 97be bca6 b6bb c563 0b3e
00000230: 3888 84bb f148 34bd 02f4 32be 14b1 61bd
00000240: 57cd 20bd 6d7c 9e3d cdca f33c 5339 523d
00000250: 68cd 3cbe 9cf5 54bd f8e9 1bbd a6fd 0ebe
00000260: 0d6e 00be 2da5 fb3d b7a4 b0bd 906b 0fbe
00000270: aad0 2fbe 6ee5 39bc 6bd5 ac3d c130 54bd
00000280: 8f1c ff3d 56af 94bd f6cd 72bd b5cb ccbb
00000290: 0ee3 613d a482 253c b1dd 313d 34bd f83d
000002a0: ba4e 3e3b 6afd 84bb 849f 41be 5d04 503d
000002b0: 74d4 0fbd c7cd 3ebe e8c6 573c 0343 243d
000002c0: 6a55 2fbe 85a0 15be 0cb2 08bc 8679 41be
000002d0: fcfd 0bbe c1c0 653c b987 1cbe 299b 77bd
000002e0: be6c d5bd e6f0 b9bc 3765 b6be d45d 8f3c
000002f0: edf1 e3bd d2a6 9d3d 7191 b5bc bb31 94bb
00000300: 13d4 953d bd7b c8bd e65f c2bd d5ae c2bc
00000310: 8afc b13c fc7a 18bd 1965 b33d 5eea 3d3d
00000320: ad1c 75b9 6719 00be 0871 77bd 00ba 48be
00000330: 20e2 fdbd a17b 15be ef50 103e 0bc9 a63d
00000340: 7b17 fb3c b6d8 93be 3997 1fbe 3fff d6bd
00000350: 8a8c c23d cb54 2abe a2b1 7cbe 89ab cebc
00000360: 173f 0dbe 6723 2ebd c754 e4bd f2fe 0d3e
00000370: 17da dfbd 2857 8f3d 0f0c 533d 87f9 f83b
00000380: 86b5 44bd 14b4 bdbd dd56 dfbd beb3 86bd
00000390: c6d2 d93b 2427 0e3c b9c7 303d f45f 16be
000003a0: bc98 f3bb 41c9 1fbe 1862 98bd 0ef6 943d
000003b0: 64fd 36bd 0949 e5bd 25d7 98bc 1832 aabd
000003c0: a5e7 d6bd 3c2a 53bd b0c5 1bbc eb33 04be
000003d0: 38cf 79bd 66f0 32be 6546 0a3e 0b3d 1bbe
000003e0: a387 ddbc 982c 0a3d 4c8e 0e3d 1480 66bd
000003f0: 51dd 82bc f1ba f8bd 408e 063c e6b1 5e3d

lays.1.weight f4 [256, 256]
0.24327458 0.19097362 0.21148087 0.14348525 -0.3013318 0.049115892 0.17416145 -0.08344318
0.13739127 0.08995719 0.08594688 0.2489565 0.07437829 0.25407803 0.06789967 -0.065571524
-0.110958055 0.06003171 0.05636555 -0.3952156 -0.19707088 -0.073020935 -0.27486944 -0.36759174
0.23902075 0.21064273 0.37348747 -0.13762186 -0.088383265 0.42701718 -0.1487207 -0.23758328
0.39243948 -0.043085203 -0.33418092 -0.062476646 0.19673246 -0.068789184 0.23209816 -0.05878616
0.14353462 0.021360606 -0.02662933 -0.047450688 -0.21082906 -0.26181313 -0.1734527 0.11735274
-0.42361408 0.032344166 -0.21354355 -0.55248517 -0.028139096 0.031023262 0.23873885 0.037052147
0.09108866 0.08045272 0.28029442 -0.53478265 -0.1393217 -0.0054769465 -0.18590629 0.08507253
-0.10558876 -0.40934506 -0.075002894 -0.0479205 0.04734071 0.31460935 -0.75548977 -0.11656855
0.09306858 -0.2206932 -0.26933345 0.19036993 -0.31193417 -0.15724689 -0.4079596 -0.05638553
0.3182795 -0.0402482 0.18845852 0.02742077 0.11544172 0.22434132 -0.020304054 -0.26406586
-0.44587502 0.04736804 0.0017851503 0.33811447 -0.1804399 -0.10533139 0.2735938 0.11319827
0.17589922 0.03581666 -0.043548666 -0.019594267 0.2935853 -0.10055941 0.042572804 0.09858843
0.16323464 -0.3001032 0.13984394 -0.21075001 0.08717286 0.115985684 0.1968034 -0.1559498
-0.06928997 0.03880809 0.16967466 -0.3149754 -0.12387666 -0.016938947 -0.5407229 -0.034642365
0.03971667 0.19302468 -0.09739006 0.09256193 0.29899967 0.08463471 0.12526487 -0.3715166
0.009406792 -0.0716013 0.043112334 -0.056134995 -0.12621582 0.1469666 0.11447015 0.19828546
-0.060014766 -0.009670392 -0.08151829 -0.4293624 -0.32159388 -0.18843792 0.07878109 -0.26233175
-0.03610862 0.011967467 -0.15344435 0.20462146 0.326403 -0.027900359 -0.01593111 0.34252408
-0.15921931 -0.27328926 -0.3634424 0.026352867 -0.3354627 0.19562082 -0.3682386 0.032793973
-0.018796965 0.26939148 0.150671 0.23082238 0.21440856 -0.030497279 -0.03473433 0.14160092
0.3282575 -0.3578209 0.12948342 0.039471272 -0.31110254 0.058770012 -0.18164755 -0.047659673
0.13812126 -0.011785026 0.24412607 -0.033998244 0.24443428 -0.22592707 0.30936024 0.11590147
0.36782104 0.04201348 -0.16448568 0.14984472 0.16144207 0.12276406 -0.20036687 0.039188795
0.109879285 -0.12832668 -0.13200319 0.08086384 -0.038590744 -0.20179908 0.3772202 -0.08030831
0.33596134 0.075634025 -0.19247115 0.015168639 -0.044634543 0.11683268 -0.054745127 0.050690096
-0.19686824 0.061596446 -0.21401612 -0.5343085 -0.19752143 0.027737098 -0.14868842 -0.06896481
-0.05937029 0.19746453 0.058661684 -0.41293368 0.04915558 0.0004207598 -0.4331237 -0.09084167
0.22500853 0.1367567 -0.06323601 0.34814313 0.2734229 -0.018284967 0.38631 0.024754785
0.15996228 -0.06003342 -0.01847554 0.055949066 -0.11661561 -0.0014617377 0.05922306 -0.11448054
0.02523671 0.3844957 -0.081093594 0.013036099 0.08316251 -0.35275465 -0.22143225 0.36006907
-0.27870736 0.04617234 -0.10719072 -0.38443577 0.20662202 -0.29092833 0.43065444 0.25546473
00000000: f91c 793e 978e 433e 718e 583e cced 123e
00000010: 2948 9abe bf2d 493d 6157 323e 42e4 aabd
00000020: 4cb0 0c3e 7a3b b83d eb04 b03d 74ee 7e3e
00000030: a553 983d 8416 823e fb0e 8b3d 5d4a 86bd
00000040: fa3d e3bd cfe3 753d 90df 663d b359 cabe
00000050: f3cc 49be 008c 95bd b0bb 8cbe fc34 bcbe
00000060: dbc1 743e bab2 573e c039 bf3e bfec 0cbe
00000070: 4902 b5bd ffa1 da3e 3d4a 18be 0849 73be
00000080: d4ed c83e 1c7a 30bd c319 abbe 83e7 7fbd
00000090: 3c74 493e 58e1 8cbd 24ab 6d3e c2c9 70bd
000000a0: bdfa 123e 70fc ae3c c125 dabc a75b 42bd
000000b0: 93e3 57be 5f0c 86be 969d 31be a256 f03d
000000c0: f2e3 d8be 517b 043d 29ab 5abe ab6f 0dbf
000000d0: f683 e6bc 7f24 fe3c f577 743e fec3 173d
000000e0: b18c ba3d 65c4 a43d c082 8f3e 84e7 08bf
000000f0: 59aa 0ebe f577 b3bb 385e 3ebe 823a ae3d
00000100: eb3e d8bd ad95 d1be 1e9b 99bd 4948 44bd
00000110: 55e8 413d 7a14 a13e c767 41bf 7ebb eebd
00000120: bd9a be3d 66fd 61be 13e6 89be 56f0 423e
00000130: d6b5 9fbe 5405 21be 15e0 d0be 83f4 66bd
00000140: 88f5 a23e 4cdb 24bd 45fb 403e 86a1 e03c
00000150: b56c ec3d bbb9 653e b054 a6bc a433 87be
00000160: bb49 e4be fd04 423d b4fb e93a 571d ad3e
00000170: 3dc5 38be fcb7 d7bd 7d14 8c3e 7fd4 e73d
00000180: ed1e 343e 7db4 123d 1660 32bd 2884 a0bc
00000190: d050 963e 18f2 cdbd d260 2e3d bbe8 c93d
000001a0: fb26 273e 20a7 99be 4033 0f3e dace 57be
000001b0: af87 b23d e789 ed3d d586 493e 4eb1 1fbe
000001c0: e6e7 8dbd 3bf5 1e3d 32bf 2d3e 7544 a1be
000001d0: 0cb3 fdbd 8cc3 8abc d16c 0abf 27e5 0dbd
000001e0: f2ad 223d 43a8 453e 7174 c7bd 1c91 bd3d
000001f0: 7c16 993e f654 ad3d 6f45 003e 6c37 bebe
00000200: f21e 1a3c b4a3 92bd 8f96 303d cfed 65bd
00000210: b83e 01be 6a7e 163e 536f ea3d 580b 4b3e
00000220: 0bd2 75bd 9070 1ebc 10f3 a6bd 63d5 dbbe
00000230: f4a7 a4be dff5 40be fb57 a13d 5950 86be
00000240: a2e6 13bd 3213 443c 8420 1dbe 4a88 513e
00000250: 4b1e a73e 4b8f e4bc f681 82bc 515f af3e
00000260: 630a 23be 92ec 8bbe 1f15 babe f8e1 d73c
00000270: c4c1 abbe d350 483e c589 bcbe f952 063d
00000280: 18fc 99bc aeed 893e 8049 1a3e b45c 6c3e
00000290: eb8d 5b3e 6ed5 f9bc 9645 0ebd d5ff 103e
000002a0: 5e11 a83e 4d34 b7be 4d97 043e a1ac 213d
000002b0: d548 9fbe d3b8 703d d101 3abe ca36 43bd
000002c0: a96f 0d3e fb15 41bc 2ffc 793e be41 0bbd
000002d0: fb4c 7a3e 6d59 67be 7764 9e3e c05d ed3d
000002e0: 0a53 bc3e 5416 2c3d ef6e 28be e570 193e
000002f0: 1251 253e b96b fb3d f92c 4dbe 6e84 203d
00000300: 6408 e13d 1268 03be d82b 07be f19b a53d
00000310: 5411 1ebd 6ba4 4ebe 0223 c13e af78 a4bd
00000320: 2003 ac3e 03e6 9a3d 2817 45be e285 783c
00000330: b6d2 36bd f945 ef3d 6d3c 60bd 6ba0 4f3d
00000340: d497 49be 8e4c 7c3d 0b27 5bbe 71c8 08bf
00000350: 0f43 4abe e938 e33c c741 18be 6c3d 8dbd
00000360: 432e 73bd 2434 4a3e 3c47 703d 0b6c d3be
00000370: 5d57 493d 6d99 dc39 64c2 ddbe 330b babd
00000380: a368 663e f309 0c3e e281 81bd d13f b23e
00000390: 16fe 8b3e 5bca 95bc 6dca c53e 8cca ca3c
000003a0: 27cd 233e 9ae5 75bd 045a 97bc d92a 653d
000003b0: 2ad4 eebd c797 bfba e193 723d c674 eabd
000003c0: 38bd ce3c 9fdc c43e 6614 a6bd 5d95 553c
000003d0: 1b51 aa3d 429c b4be 23bf 62be f95a b83e
000003e0: bbb2 8ebe 351f 3d3d cf86 dbbd c4d4 c4be
000003f0: b994 533e 8ff4 94be bd7e dc3e 46cc 823e

lays.1.bias f4 [256]
0.111910485 0.059451584 0.008259906 0.09919893 -0.19403455 0.15301295 -0.06546248 -0.12210035
0.00485236 -0.08020323 -0.080470726 0.011499531 -0.099971995 -0.045732874 -0.053573873 -0.066847764
-0.13321492 -0.14747426 -0.07521838 -0.08744159 -0.07568154 -0.21131463 -0.010954992 -0.04255211
-0.19796397 -0.15046026 -0.03165405 -0.015897475 0.106461294 0.025744054 -0.017552122 -0.10042199
-0.12774587 -0.040862013 -0.12707676 0.073781766 -0.15791102 0.05102296 -0.19706716 -0.053941015
-0.120541304 -0.07923543 0.00043080183 -0.08541972 -0.00020895051 -0.08030027 0.028174391 -0.08814197
-0.21240142 -0.13628346 -0.0115111135 -0.056187525 -0.24422757 -0.06444678 -0.10422037 0.0805996
-0.16874789 -0.21393946 0.14908034 -0.025589589 -0.07636517 0.14611532 -0.07427985 -0.08438664
-0.061340082 -0.08059522 -0.12957577 -0.046632808 -0.07912846 -0.053428214 -0.06665615 -0.10962758
-0.01941357 -0.061841384 0.05425242 -0.1558532 -0.14300959 -0.11370571 -0.20229308 0.14591835
-0.061519403 0.07062111 -0.12140225 -0.06514565 -0.06454527 -0.08367453 -0.09002171 -0.26990598
0.121895514 -0.01005336 -0.06456573 -0.10705999 -0.08761104 -0.027901238 -0.21052149 -0.14054133
0.07678982 -0.034156907 -0.12881887 0.01736489 -0.06290051 -0.07790075 0.18005952 -0.027736513
-0.028607259 -0.09623654 0.15375401 0.012259512 -0.013275449 -0.03953796 0.022588413 -0.079040766
0.12241089 -0.13190807 -0.07726958 -0.024769176 -0.14200786 -0.09887746 -0.01885321 -0.14710537
-0.021049954 -0.13753368 -0.109306164 -0.039798055 -0.07812288 -0.08496592 -0.02811969 -0.06951015
-0.0669448 -0.12997015 -0.09274849 0.15043053 -0.048802387 -0.12675017 -0.18407305 -0.08369006
-0.113944285 0.054213673 -0.10119071 -0.01628438 -0.13622217 -0.047510568 -0.028680198 -0.13361913
-0.05274492 -0.045999106 -0.0545616 0.045179278 -0.06664 0.061566513 -0.06771389 0.09794455
0.08312885 -0.2692681 0.047028355 -0.016461056 -0.1386407 -0.04864436 0.012616118 -0.10608478
-0.06901052 -0.08373031 -0.06495503 -0.08408693 -0.11824292 -0.1220768 -0.041771278 -0.12719893
0.1308815 -0.29861873 0.14901915 0.0034871078 0.17586654 -0.10184604 0.095723934 -0.07208664
-0.11581975 -0.010654704 -0.0076288334 -0.062548146 -0.15104233 -0.08494986 -0.13666636 -0.03279788
-0.18428524 -0.09013676 -0.07893424 -0.15377598 -0.16293366 -0.22218734 -0.020915689 0.014912682
-0.031808726 -0.15070604 -0.2507163 -0.08695685 -0.08261766 -0.05247559 -0.09634401 0.11024812
-0.051151697 -0.24596862 -0.18181542 -0.119363755 0.0012971895 -0.059843246 -0.07285508 -0.09977162
0.08419923 -0.09636542 0.11582225 0.0919179 -0.054859877 0.058038197 0.02329934 -0.1168206
-0.0006966638 -0.18795954 -0.044884887 -0.080267824 -0.12178916 -0.0103259 0.032740846 -0.040294863
-0.044126753 -0.07374568 -0.08287149 0.07708889 -0.046911683 -0.0834907 -0.057707906 -0.048810575
-0.2021983 -0.06781212 -0.080840506 -0.027875364 0.16859588 -0.020341095 -0.21272717 -0.116527714
-0.023980413 -0.024931787 -0.0788191 -0.060802262 -0.037994318 -0.20628701 -0.03271873 -0.16373219
-0.05955204 -0.13533288 -0.08342832 -0.1118041 -0.060650192 0.086343855 -0.07981091 0.054344404
00000000: 5331 e53d 8183 733d 8f54 073c cf28 cb3d
00000010: feb0 46be 6daf 1c3e 3111 86bd c00f fabd
00000020: 8c00 9f3b 9741 a4bd d6cd a4bd 8768 3c3c
00000030: 1ebe ccbd 6552 3bbd 4770 5bbd 7be7 88bd
00000040: 7e69 08be 7e03 17be 180c 9abd 9414 b3bd
00000050: ecfe 9abd dd62 58be 917c 33bc 1f4b 2ebd
00000060: 11b7 4abe 4112 1abe ada7 01bd 6c3b 82bc
00000070: 6108 da3d 32e5 d23c 78c9 8fbc 0baa cdbd
00000080: d0cf 02be ed5e 27bd 6920 02be e51a 973d
00000090: 6db3 21be 74fd 503d f9cb 49be 41f1 5cbd
000000a0: 5cde f6bd 2f46 a2bd 3edd e139 89f0 aebd
000000b0: ba19 5bb9 7874 a4bd fbcd e63c c783 b4bd
000000c0: c27f 59be e48d 0bbe 1c99 3cbc e424 66bd
000000d0: cb16 7abe acfc 83bd 7d71 d5bd 6711 a53d
000000e0: 3fcc 2cbe f212 5bbe 84a8 183e 42a1 d1bc
000000f0: 5865 9cbd 419f 153e 0920 98bd e7d2 acbd
00000100: bd3f 7bbd 1b0f a5bd 83af 04be 0b02 3fbd
00000110: 1a0e a2bd 8bd7 5abd 0583 88bd 6d84 e0bd
00000120: 3509 9fbc 644d 7dbd c937 5e3d fb97 1fbe
00000130: 1b71 12be 8ade e8bd eb25 4fbe 9f6b 153e
00000140: c5fb 7bbd cda1 903d bea1 f8bd 156b 85bd
00000150: 4f30 84bd 8d5d abbd 4d5d b8bd 1e31 8abe
00000160: 5ba4 f93d d9b6 24bc 0a3b 84bd 4542 dbbd
00000170: 6b6d b3bd 2391 e4bc f292 57be 11ea 0fbe
00000180: fb43 9d3d 1de8 0bbd 18e9 03be d040 8e3c
00000190: fcd1 80bd 6e8a 9fbd 8661 383e af37 e3bc
000001a0: c559 eabc aa17 c5bd b171 1d3e 1fdc 483c
000001b0: 4581 59bc 8ef2 21bd 560b b93c 20e0 a1bd
000001c0: 90b2 fa3d e912 07be 833f 9ebd bae8 cabc
000001d0: 826a 11be 4480 cabd 0c72 9abc caa2 16be
000001e0: f470 acbc a1d5 0cbe e9db dfbd 4903 23bd
000001f0: e3fe 9fbd 9d02 aebd 445b e6bc 565b 8ebd
00000200: 5b1a 89bd e516 05be ecf2 bdbd 760a 1a3e
00000210: 03e5 47bd ccca 01be a57d 3cbe b265 abbd
00000220: 9f5b e9bd 280f 5e3d 133d cfbd d266 85bc
00000230: d37d 0bbe 719a 42bd bcf2 eabc 74d3 08be
00000240: 0f0b 58bd 8f69 3cbd fc7b 5fbd e80d 393d
00000250: 8d7a 88bd 2b2d 7c3d 94ad 8abd 2797 c83d
00000260: 753f aa3d 82dd 89be cea0 403d 56d9 86bc
00000270: d4f7 0dbe 4f3f 47bd d6b3 4e3c fa42 d9bd
00000280: 6355 8dbd cc7a abbd 2507 85bd c535 acbd
00000290: 5829 f2bd 6703 fabd 5c18 2bbd 7040 02be
000002a0: cd05 063e 8ee4 98be 7a98 183e f687 643b
000002b0: 5c16 343e a894 d0bd e90a c43d 29a2 93bd
000002c0: e832 edbd 1191 2ebc 4bfb f9bb 3e19 80bd
000002d0: d7aa 1abe 31fa adbd 44f2 0bbe 1257 06bd
000002e0: 45b5 3cbe 9f99 b8bd 46a8 a1bd 7377 1dbe
000002f0: 15d8 26be 1485 63be 6157 abbc 5254 743c
00000300: de49 02bd af52 1abe e35d 80be 6f16 b2bd
00000310: 7333 a9bd a5f0 56bd 0250 c5bd c4c9 e13d
00000320: 7184 51bd 33df 7bbe d22d 3abe fc74 f4bd
00000330: 7506 aa3a 311e 75bd 0b35 95bd 1055 ccbd
00000340: a570 ac3d 3c5b c5bd 3734 ed3d 743f bc3d
00000350: c0b4 60bd 76b9 6d3d 42de be3c a43f efbd
00000360: 51a0 36ba 7778 40be 37d9 37bd 7563 a4bd
00000370: 986c f9bd f72d 29bc 441b 063d 3a0c 25bd
00000380: 41be 34bd fa07 97bd 87b8 a9bd c8e0 9d3d
00000390: 7726 40bd 2cfd aabd 205f 6cbd 99ed 47bd
000003a0: 120d 4fbe 15e1 8abd b58f a5bd e05a e4bc
000003b0: 66a4 2c3e 5ea2 a6bc 27d5 59be 15a6 eebd
000003c0: 9272 c4bc bf3d ccbc e96b a1bd cb0b 79bd
000003d0: ee9f 1bbd e73c 53be 1304 06bd 69a9 27be
000003e0: d7ec 73bd b494 0abe 78dc aabd 8cf9 e4bd
000003f0: 566c 78bd 0cd5 b03d e773 a3bd 3d98 5e3d

lays.2.weight f4 [2, 256]
-0.5260071 -0.4804941 -0.003576282 -0.18379454 0.57050616 -0.18554254 0.26983762 0.046015244
0.22981158 0.674336 -0.020315731 0.3872449 0.26030573 0.23135129 -0.10310938 -0.046619076
0.5627518 0.5618968 -0.07794459 -0.002859177 -0.039379913 0.30788818 -0.008684349 -0.025718438
0.2389082 0.4762026 0.023835052 -0.4300897 -0.30633405 -0.34689113 -0.89708495 0.25107977
-0.039033584 -0.15205932 0.6948036 -0.96594924 0.40055594 -0.6870004 0.6684341 -0.014712891
0.04444292 0.6828912 0.30254647 0.04399504 -0.58150864 -0.020969056 -0.51348466 0.47326854
0.41155338 0.44981256 0.40741527 0.45514154 0.42866847 -0.496906 -0.016235689 -0.20989037
0.4595008 0.24055451 -0.040092845 -0.059668917 0.032774933 -0.27430475 0.61444247 -0.009005912
-0.40093166 0.50223476 0.60610175 -0.00488486 -0.067251556 -0.023447664 -0.028734406 -0.027520495
-0.31936303 -0.03892997 -0.41590413 0.03483041 -0.3458548 0.27174947 0.5984116 -0.14136346
-0.20901391 -0.8141369 0.088165335 0.019952122 -0.08372189 -0.018017292 0.13638878 0.6575426
-0.97709566 -0.014630629 -0.009667494 0.55150867 0.03426996 -0.017249286 0.62392265 0.6871099
-0.24907738 0.011260126 0.032751046 -0.022349805 0.30834228 0.06214686 -0.16540723 -0.0007920325
0.039912034 -0.026637636 -0.14613569 -0.04549166 -0.01070174 0.0057209544 0.5049406 0.0276288
-0.09098746 0.6071517 0.0052659404 0.0052499305 0.3419968 0.5138731 0.006823786 0.32156196
0.015277344 0.4802402 0.032748025 0.11256991 -0.8893979 0.016252177 0.025685336 -0.034327436
-0.0077624815 -0.013063471 -0.014837619 -0.06507986 0.022879485 -0.012136032 0.3033818 -0.012098133
0.16987032 -0.7669856 0.44728526 0.13136911 0.7330722 -0.04397031 0.052114632 -0.0013596527
0.07216508 -0.020326072 -0.2364714 -0.1226266 -0.03933851 -0.62362754 0.027524367 -0.4144737
-0.2709827 -0.056090176 -0.66525847 -0.16123639 0.034763478 0.0110029 -0.33050236 0.053310454
0.033418953 0.0136261005 -0.037437674 -0.036908224 0.28513005 -0.006073143 0.040838726 0.36740106
-0.12766978 0.608443 -0.21309198 -0.57905793 -0.10295019 -0.7405697 -0.06975985 -0.22189301
0.60057086 0.0504521 -0.035984933 0.019154944 0.095391594 0.4699409 0.16638045 0.33089507
-0.013130715 0.5560069 0.45865664 0.471499 0.46709833 0.9078162 -0.54835075 -0.63499665
0.11048994 0.4818563 0.49856123 -0.008399375 0.024965603 -0.01845892 0.06580353 -0.04838842
0.074985445 0.6334027 0.48659703 0.32894892 -0.007818637 0.35747957 0.0042887283 0.68501765
-0.87328494 0.3502095 -0.9481767 -0.6937911 0.03624657 -0.9034018 -0.022712233 0.46183893
0.0099409 0.07290884 0.12500478 0.018821241 0.27388287 0.011820201 -1.0069814 0.4370124
-0.017914161 -0.029471144 -0.7052384 -0.52980447 0.0108916825 -0.03232905 0.05220787 -0.009016632
0.42482296 -0.026512647 -0.01782165 -0.3575906 -0.06606439 -0.04001649 0.6337423 0.11585747
-0.006920135 -0.017105652 -0.042466696 0.28480345 0.016148426 0.48262602 -0.017879957 0.043191634
0.44997734 0.59449536 0.18158653 0.23911566 -0.0040014735 -0.9323899 -0.0058589866 -0.95835495
00000000: 67a8 06bf 5303 f6be 0e60 6abb a334 3cbe
00000010: b10c 123f ddfe 3dbe 2828 8a3e 7b7a 3c3d
00000020: ba53 6b3e 49a1 2c3f 2d6d a6bc f744 c63e
00000030: cb46 853e 5ae7 6c3e 032b d3bd a5f3 3ebd
00000040: 8110 103f 78d8 0f3f 6aa1 9fbd 0861 3bbb
00000050: d54c 21bd 85a3 9d3e cd48 0ebc 79af d2bc
00000060: 5aa4 743e d4d0 f33e ba41 c33c b834 dcbe
00000070: d1d7 9cbe b79b b1be 5ca7 65bf 878d 803e
00000080: aee1 1fbd 70b5 1bbe a6de 313f 7348 77bf
00000090: ab15 cd3e 42df 2fbf 7f1e 2b3f 560e 71bc
000000a0: c709 363d f5d1 2e3f 5fe7 9a3e 2534 343d
000000b0: c0dd 14bf 4cc7 abbc bb73 03bf 4150 f23e
000000c0: 20b7 d23e d54d e63e bc98 d03e 5008 e93e
000000d0: 6f7a db3e 776a febe b500 85bc 80ed 56be
000000e0: b043 eb3e ec53 763e 6538 24bd 6567 74bd
000000f0: 023f 063d ac71 8cbe 1a4c 1d3f 888d 13bc
00000100: ea46 cdbe 7592 003f 7c29 1b3f 2d11 a0bb
00000110: 2fbb 89bd 5115 c0bc 6b64 ebbc a972 e1bc
00000120: 8d83 a3be 0875 1fbd 63f1 d4be 55aa 0e3d
00000130: e113 b1be bf22 8b3e 8131 193f 95c1 10be
00000140: be07 56be 476b 50bf 0790 b43d a272 a33c
00000150: 6276 abbd 0099 93bc 80a9 0b3e b654 283f
00000160: f122 7abf 4eb5 6fbc 6964 1ebc ac2f 0d3f
00000170: a85e 0c3d 604e 8dbc 65b9 1f3f 6fe6 2f3f
00000180: 240e 7fbe 647c 383c f625 063d f016 b7bc
00000190: 0adf 9d3e b58d 7e3d 8360 29be 67a0 4fba
000001a0: cd7a 233d 2c37 dabc 98a4 15be 7655 3abd
000001b0: 5a56 2fbc d876 bb3b ca43 013f cb55 e23c
000001c0: a257 babd 4b6e 1b3f e98d ac3b 9c07 ac3b
000001d0: 341a af3e 308d 033f 119a df3b c5a3 a43e
000001e0: d34d 7a3c 0be2 f53e cb22 063d 0e8b e63d
000001f0: 95af 63bf 4923 853c 0e6a d23c ed9a 0cbd
00000200: 6a5c febb 2b08 56bc 7c19 73bc 9748 85bd
00000210: c26d bb3c 35d6 46bc dc54 9b3e 3f37 46bc
00000220: 7cf2 2d3e 2b59 44bf 9302 e53e a085 063e
00000230: 9faa 3b3f 361a 34bd 2776 553d 6036 b2ba
00000240: 49cb 933d dd82 a6bc 8f25 72be a823 fbbd
00000250: 6b21 21bd 0ea6 1fbf c87a e13c e635 d4be
00000260: 3fbe 8abe d0be 65bd 614e 2abf 271b 25be
00000270: 2664 0e3d 8245 343c 9b37 a9be 105c 5a3d
00000280: 50e2 083d 0240 5f3c 3f58 19bd 142d 17bd
00000290: 91fc 913e 3701 c7bb 8246 273d fe1b bc3e
000002a0: debb 02be ecc2 1b3f c934 5abe 243d 14bf
000002b0: 8dd7 d2bd fa95 3dbf 41de 8ebd ec37 63be
000002c0: 03bf 193f dca6 4e3d f064 13bd d4ea 9c3c
000002d0: ab5c c33d 189c f03e a35f 2a3e 146b a93e
000002e0: 3622 57bc 7856 0e3f 0bd5 ea3e 5168 f13e
000002f0: 8327 ef3e a466 683f b760 0cbf 248f 22bf
00000300: 8d48 e23d deb5 f63e 6b43 ff3e 889d 09bc
00000310: aa84 cc3c 2937 97bc 00c4 863d f032 46bd
00000320: f891 993d ae26 223f 3f23 f93e fe6b a83e
00000330: be19 00bc 9007 b73e 7688 8c3b 515d 2f3f
00000340: 9a8f 5fbf a94e b33e b5bb 72bf 4b9c 31bf
00000350: 4977 143d 5745 67bf 010f babc 2776 ec3e
00000360: 28df 223c 3b51 953d 4101 003e 012f 9a3c
00000370: 603a 8c3e 84a9 413c c4e4 80bf 17c0 df3e
00000380: b8c0 92bc 786d f1bc 818a 34bf 44a1 07bf
00000390: 0773 323c 776b 04bd ebd7 553d 7fba 13bc
000003a0: 6582 d93e 0d31 d9bc b5fe 91bc 1d16 b7be
000003b0: c44c 87bd 55e8 23bd ef3c 223f ae46 ed3d
000003c0: 4dc2 e2bb 2721 8cbc 8ff1 2dbd c2d1 913e
000003d0: b449 843c c21a f73e fd78 92bc b6e9 303d
000003e0: 6e63 e63e d930 183f d2f1 393e bcda 743e
000003f0: cb1e 83bb 1bb1 6ebf befc bfbb c056 75bf

lays.2.bias f4 [2]
0.012729379 0.017130878
00000000: e38e 503c 0e56 8c3c

l1.weight f4 [256, 63]
-0.39098802 0.12645598 -0.24399397 -0.12155358 -0.28519067 -0.03893853 -0.3222996 0.02365123
0.07943067 0.3312435 -0.18038313 0.41949886 0.30303273 0.1644476 0.090896 -0.05194472
-0.2069559 0.11141328 -0.074101016 0.06852653 -0.13126835 0.17216451 -0.31519738 -0.03306536
0.082216516 0.28478128 0.15231588 -0.043542664 -0.16592503 0.19945991 0.10750011 0.13392869
0.0006170673 -0.03865926 -0.11792296 -0.31165385 0.066249564 0.51066196 0.045857824 0.22883019
-0.06041692 0.0940905 -0.04852405 -0.04884099 -0.5276283 -0.106797494 0.14509039 0.14648038
0.12365512 -0.28690276 0.19833304 0.17743453 0.21842474 -0.06364176 0.01348064 -0.007419129
-0.37763888 -0.08285456 -0.10339315 -0.09764455 0.14943372 0.2856552 0.0668391 0.33972245
-1.2211926 -0.4516209 -0.04196929 0.18522146 0.083925046 0.47548103 -0.15186454 -0.36598733
0.11210574 0.054246616 0.14144637 -0.14473827 -0.43874764 -0.0986197 0.18034197 -0.11853894
-0.27483538 -0.03450092 0.34756398 -0.16791667 -0.20511751 -0.10394201 -0.2197484 -0.062565245
0.37322187 -0.10863299 -0.077284954 0.044294402 0.00832488 0.011925052 -0.39418927 -0.43471447
0.27589723 -0.13400836 -0.2771416 -0.041618183 -0.0802524 0.06326915 -0.3374717 0.2184398
-0.22437476 0.004614948 -0.24462304 -0.25214434 -0.57689685 -0.30154735 0.038468607 0.13292547
-0.33708093 0.13885833 0.30417934 -0.51835847 -0.15423448 -0.1394658 0.039011218 -0.19098613
-0.37777516 0.16146068 -0.20061854 0.036706783 -0.3101131 -0.0077013075 -0.17171127 -0.09701294
-0.25827768 -0.12030592 0.19793685 -0.35507086 0.19497743 0.098475404 0.33702877 0.5071651
0.22561671 -0.0671308 0.040033862 0.33906984 -0.118863 0.29571113 0.1613195 -0.16119768
-0.27751768 0.13027559 0.1074252 0.15112326 -0.12752245 0.8359927 -0.25778502 0.4300108
-0.066999465 0.32315123 -0.11732846 0.008347316 0.32342836 0.15432833 -0.2139725 0.27963522
0.18415992 0.3131957 -0.2254346 -0.017584402 -0.07694865 -0.13998687 0.10192145 0.17678942
0.40206876 0.085140824 -0.21424556 -0.24536584 0.1951903 0.10035862 -0.32058674 -0.013718165
0.31629822 0.1517872 0.12420218 0.1355949 0.06347182 -0.14259948 0.10737586 -0.25917503
0.048165992 0.13181935 0.17225307 0.10876542 -0.09320944 -0.07141982 -0.27937165 -0.5089718
-0.14784992 -0.31191212 -0.19241093 -0.30335304 -0.3091698 0.22767647 0.28624713 0.06500914
0.3958413 -0.04872521 0.2799851 0.041874245 -0.09201527 0.30018005 -0.40137443 0.02606903
0.2835177 0.35167536 0.25507435 0.041987196 0.051458444 -0.14899689 0.06745073 0.10661445
0.029752031 0.0026155238 0.20209305 -0.10224527 0.06609288 0.31736454 -0.06683208 -0.11310839
0.10270691 0.1998064 0.0135042425 0.07286476 -0.43145353 -0.13623978 0.1045972 0.31675723
0.47833124 0.22284013 0.11352329 0.34726924 -0.096068874 -0.06518542 -0.19857971 0.077258065
0.16887651 0.2720606 -0.08542032 0.11586278 -0.09916531 -0.35084328 0.29964462 -0.14586066
0.19291188 -0.032714114 -0.4082583 0.34695485 0.14508218 -2.1054008 -0.5192083 -0.057223316
00000000: 952f c8be ad7d 013e 8ed9 79be 15f1 f8bd
00000010: 8304 92be 027e 1fbd 7404 a5be 39c0 c13c
00000020: 8cac a23d bf98 a93e 5bb6 38be 8ec8 d63e
00000030: 1b27 9b3e f464 283e af27 ba3d fdc3 54bd
00000040: 3fec 53be a52c e43d 46c2 97bd a357 8c3d
00000050: 366b 06be e54b 303e 8d61 a1be 8b6f 07bd
00000060: 2261 a83d dace 913e b2f8 1b3e cb59 32bd
00000070: 40e8 29be 383f 4c3e 0529 dc3d 9a24 093e
00000080: afc2 213a 2c59 1ebd 9881 f1bd 1891 9fbe
00000090: daad 873d beba 023f 6ad5 3b3d 7652 6a3e
000000a0: bb77 77bd 85b2 c03d 27c1 46bd 7d0d 48bd
000000b0: a612 07bf a5b8 dabd 9392 143e f4fe 153e
000000c0: e53e fd3d ebe4 92be d117 4b3e 66b1 353e
000000d0: bcaa 5f3e 9c56 82bd e7dd 5c3c 2a1c f3bb
000000e0: e259 c1be a7af a9bd cabf d3bd def9 c7bd
000000f0: 2705 193e 6641 923e f0e2 883d 1af0 ad3e
00000100: 0a50 9cbf db3a e7be fde7 2bbd b2aa 3d3e
00000110: e5e0 ab3d 4072 f33e 6182 1bbe b162 bbbe
00000120: b297 e53d b331 5e3d 51d7 103e 4536 14be
00000130: 88a3 e0be 20f9 c9bd 91ab 383e 8bc4 f2bd
00000140: 39b7 8cbe d650 0dbd e8f3 b13e 59f2 2bbe
00000150: 530a 52be 8cdf d4bd b905 61be 3522 80bd
00000160: f016 bf3e f97a debd 9347 9ebd 0c6e 353d
00000170: 1465 083c 4b61 433c 2dd3 c9be e592 debe
00000180: 6742 8d3e 7d39 09be 81e5 8dbe d477 2abd
00000190: 5f5b a4bd 4293 813d 17c9 acbe afae 5f3e
000001a0: 7fc2 65be fd38 973b 767e 7abe 1019 81be
000001b0: 83af 13bf 6a64 9abe 4291 1d3d 9d1d 083e
000001c0: df95 acbe e130 0e3e 65bd 9b3e 24b3 04bf
000001d0: a5ef 1dbe 1fd0 0ebe 3aca 1f3d de91 43be
000001e0: bf6b c1be f355 253e f26e 4dbe da59 163d
000001f0: 25c7 9ebe 405b fcbb 14d5 2fbe b8ae c6bd
00000200: f93c 84be f362 f6bd f5af 4a3e d9cb b5be
00000210: 2aa8 473e 79ad c93d 098f ac3e 92d5 013f
00000220: 1108 673e df7b 89bd 8cfa 233d 909a ad3e
00000230: 726e f3bd 7367 973e f030 253e 0111 25be
00000240: cc16 8ebe f766 053e be01 dc3d 0ec0 1a3e
00000250: 3f95 02be 9e03 563f 66fc 83be 602a dc3e
00000260: 0437 89bd 1474 a53e e749 f0bd 2ec3 083c
00000270: 6798 a53e 3f08 1e3e 9b1b 5bbe 592c 8f3e
00000280: 6b94 3c3e 305b a03e 54d8 66be 2a0d 90bc
00000290: 4197 9dbd b858 0fbe 31bc d03d 4908 353e
000002a0: f5db cd3e 505e ae3d 3063 5bbe 2f41 7bbe
000002b0: f7df 473e d288 cd3d f223 a4be 28c2 60bc
000002c0: d7f1 a13e 1b6e 1b3e b65d fe3d 64d9 0a3e
000002d0: 83fd 813d 9905 12be e0e7 db3d 97b2 84be
000002e0: b449 453d a7fb 063e 1c63 303e 68c0 de3d
000002f0: 97e4 bebd 8e44 92bd cd09 8fbe fa4b 02bf
00000300: f865 17be f2b2 9fbe 5f07 45be 1751 9bbe
00000310: 814b 9ebe 0524 693e fc8e 923e 8323 853d
00000320: b6ab ca3e 1694 47bd 355a 8f3e 5484 2b3d
00000330: 8072 bcbd 33b1 993e f380 cdbe b88e d53c
00000340: 3b29 913e cb0e b43e 1b99 823e c4fa 2b3d
00000350: 17c6 523d a492 18be 9c23 8a3d ad58 da3d
00000360: 88ba f33c 3569 2b3b 7bf1 4e3e f865 d1bd
00000370: b45b 873d 9b7d a23e 42df 88bd 5fa5 e7bd
00000380: 0058 d23d 0d9a 4c3e e640 5d3c 1f3a 953d
00000390: 7ae7 dcbe 7182 0bbe 0f37 d63d 012e a23e
000003a0: d5e7 f43e 3430 643e e67e e83d 46cd b13e
000003b0: c2bf c4bd ef7f 85bd 7b58 4bbe 7a39 9e3d
000003c0: f7ed 2c3e 874b 8b3e d9f0 aebd 7749 ed3d
000003d0: 2f17 cbbd bba1 b3be 056b 993e 7f5c 15be
000003e0: b18a 453e 3cff 05bd 3b07 d1be 11a4 b13e
000003f0: 6c90 143e e3be 06c0 d6ea 04bf ff62 6abd

l1.bias f4 [256]
-0.034473043 -0.07692486 -0.05914221 -0.1236744 0.03687532 -0.15726505 0.09246057 0.042306866
-0.039700437 0.10563133 0.017502762 -0.1449796 0.06984827 -0.08104938 0.015956035 0.09905024
0.041793168 0.13901137 -0.1947412 -0.1100357 0.009190897 0.033890657 -0.078638226 -0.1186535
0.09602342 -0.22210245 -0.1363393 0.12461218 -0.181954 -0.068477854 -0.020353215 0.070182785
0.052087978 -0.10116767 -0.22384815 0.06403686 -0.124820605 -0.0049770074 -0.027239406 0.08502831
-0.09765227 0.029461715 0.11126783 0.03258596 -0.16594598 -0.09273521 -0.034561686 -0.14445974
0.10929083 0.032810293 0.050194822 -0.04269217 0.014986584 -0.04932119 -0.15943001 -0.05003866
-0.052552596 -0.05408853 0.011442188 0.047052436 -0.082289584 -0.0013588541 0.06313679 -0.056895696
-0.14165448 -0.039963003 0.053954057 -0.110358536 -0.06224501 -0.23141971 -0.16989486 -0.14418502
-0.011331356 0.13711163 0.034991935 -0.16729051 0.025623383 -0.06257221 -0.05065477 -0.1054657
-0.035062876 -0.07140241 -0.1687038 -0.08193209 0.05810466 -0.058828056 -0.059657358 -0.0066986107
-0.03963109 0.0858871 -0.019200664 -0.00039113685 0.017444223 0.01806834 -0.032885544 -0.066369385
0.06147585 0.015920334 0.0027657468 -0.07763594 -0.19710492 -0.038904343 -0.026381643 0.002388287
0.12773252 -0.0059088017 0.07506936 0.019927876 -0.15389559 -0.044125922 -0.10256375 -0.13084994
-0.03420306 0.0337446 0.1341505 -0.012879509 0.05849868 -0.03833831 -0.0024439648 0.12065545
0.07899647 -0.11290006 -0.09702147 0.0787244 -0.055014104 0.10088517 -0.049161803 0.104223184
-0.13822691 -0.2134036 -0.14846112 -0.04305581 0.023031272 -0.04583906 -0.027019782 -0.05458813
0.061994378 -0.296439 -0.0055740755 0.13612278 -0.004044559 -0.044014875 -0.17475894 -0.055100515
-0.039258327 0.07738576 0.029759789 0.0513242 -0.18437731 -0.051992044 -0.038064927 -0.13963947
-0.12541981 0.12287364 -0.08625167 -0.14005876 -0.17169443 -0.011346204 0.08439144 -0.051804308
0.12456619 -0.07260005 -0.05927845 -0.0062498697 0.055148177 0.010101948 0.043424312 0.12145463
0.0029038624 -0.0040585296 -0.18908507 0.05078541 -0.03511472 -0.18633185 0.013169982 0.04010297
-0.17122427 -0.14612015 -0.008343231 -0.18894014 -0.13671106 0.014023007 -0.15286149 -0.060450707
-0.104211316 -0.022697877 -0.35624096 0.017500795 -0.11130128 0.07697834 -0.022164078 -0.00452253
0.073158406 -0.09789226 -0.094909474 -0.023765007 0.021726865 -0.037226662 0.08759517 0.046366088
-0.00023375703 -0.1250969 -0.06041053 -0.19602203 -0.123966455 -0.14597942 0.14093374 0.08143815
0.030650845 -0.28876275 -0.1558503 -0.10497903 0.09499462 -0.16633908 -0.24677137 -0.025228279
-0.13793598 -0.04251423 -0.111489825 0.13866785 -0.10930269 0.069990456 0.05152517 0.0075981054
-0.048024677 -0.09262863 -0.1090524 -0.06577252 0.0066474406 0.008676324 0.04315922 -0.1468504
-0.007433979 -0.15604116 -0.07440585 0.07273494 -0.044675246 -0.11195571 -0.018657276 -0.08310336
-0.104934014 -0.05155395 -0.009507582 -0.1291043 -0.060988635 -0.17474517 0.13503416 -0.15160005
-0.027042216 0.033733934 0.034803674 -0.05627449 -0.015974673 -0.12145031 0.008212626 0.054368876
00000000: 9b33 0dbd c88a 9dbd 1a3f 72bd 0149 fdbd
00000010: 930a 173d 170a 21be f85b bd3d f749 2d3d
00000020: ed9c 22bd 3d55 d83d f461 8f3c 8875 14be
00000030: 9c0c 8f3d 38fd a5bd 3bb6 823c dada ca3d
00000040: 502f 2b3d ff58 0e3e 3d6a 47be 665a e1bd
00000050: 6b95 163c eed0 0a3d 140d a1bd 9b00 f3bd
00000060: eda7 c43d d36e 63be 889c 0bbe ac34 ff3d
00000070: 2652 3abe 1e3e 8cbd c9bb a6bc febb 8f3d
00000080: 345a 553d ff30 cfbd 7338 65be c225 833d
00000090: f2a1 ffbd 2a16 a3bb 2d25 dfbc 5323 ae3d
000000a0: eafd c7bd b259 f13c 63e0 e33d db78 053d
000000b0: beed 29be f5eb bdbd 8e90 0dbd 41ed 13be
000000c0: dfd3 df3d 1664 063d 1699 4d3d fcdd 2ebd
000000d0: 4a8a 753c 0405 4abd 9f41 23be 57f5 4cbd
000000e0: 6441 57bd ef8b 5dbd 0478 3b3c 0eba 403d
000000f0: 7187 a8bd 941b b2ba dd4d 813d 760b 69bd
00000100: df0d 11be 3fb0 23bd eefe 5c3d a803 e2bd
00000110: a0f4 7ebd 4af9 6cbe ebf8 2dbe 3da5 13be
00000120: 27a7 39bc fe66 0c3e b453 0f3d 344e 2bbe
00000130: 21e8 d13c dc25 80bd 607b 4fbd 67fe d7bd
00000140: 179e 0fbd 6d3b 92bd b0c0 2cbe 03cc a7bd
00000150: 27ff 6d3d b0f5 70bd 465b 74bd 0580 dbbb
00000160: 3654 22bd 93e5 af3d b64a 9dbc 8011 cdb9
00000170: 30e7 8e3c 0e04 943c feb2 06bd acec 87bd
00000180: 1ace 7b3d 5c6b 823c 8841 353b 97ff 9ebd
00000190: dfd5 49be 295a 1fbd 511e d8bc cf84 1c3b
000001a0: 50cc 023e 9f9e c1bb f7bd 993d c93f a33c
000001b0: ce96 1dbe 62bd 34bd f20c d2bd 87fd 05be
000001c0: 8218 0cbd c737 0a3d c05e 093e 9304 53bc
000001d0: 509c 6f3d a208 1dbd ed2a 20bb 341a f73d
000001e0: e7c8 a13d 2638 e7bd 31b3 c6bd 423a a13d
000001f0: 7856 61bd e29c ce3d e35d 49bd f772 d53d
00000200: 5b8b 0dbe 7986 5abe 3106 18be 4a5b 30bd
00000210: 14ac bc3c bdc1 3bbd 9758 ddbc ce97 5fbd
00000220: d1ed 7d3d dac6 97be bca6 b6bb c563 0b3e
00000230: 3888 84bb f148 34bd 02f4 32be 14b1 61bd
00000240: 57cd 20bd 6d7c 9e3d cdca f33c 5339 523d
00000250: 68cd 3cbe 9cf5 54bd f8e9 1bbd a6fd 0ebe
00000260: 0d6e 00be 2da5 fb3d b7a4 b0bd 906b 0fbe
00000270: aad0 2fbe 6ee5 39bc 6bd5 ac3d c130 54bd
00000280: 8f1c ff3d 56af 94bd f6cd 72bd b5cb ccbb
00000290: 0ee3 613d a482 253c b1dd 313d 34bd f83d
000002a0: ba4e 3e3b 6afd 84bb 849f 41be 5d04 503d
000002b0: 74d4 0fbd c7cd 3ebe e8c6 573c 0343 243d
000002c0: 6a55 2fbe 85a0 15be 0cb2 08bc 8679 41be
000002d0: fcfd 0bbe c1c0 653c b987 1cbe 299b 77bd
000002e0: be6c d5bd e6f0 b9bc 3765 b6be d45d 8f3c
000002f0: edf1 e3bd d2a6 9d3d 7191 b5bc bb31 94bb
00000300: 13d4 953d bd7b c8bd e65f c2bd d5ae c2bc
00000310: 8afc b13c fc7a 18bd 1965 b33d 5eea 3d3d
00000320: ad1c 75b9 6719 00be 0871 77bd 00ba 48be
00000330: 20e2 fdbd a17b 15be ef50 103e 0bc9 a63d
00000340: 7b17 fb3c b6d8 93be 3997 1fbe 3fff d6bd
00000350: 8a8c c23d cb54 2abe a2b1 7cbe 89ab cebc
00000360: 173f 0dbe 6723 2ebd c754 e4bd f2fe 0d3e
00000370: 17da dfbd 2857 8f3d 0f0c 533d 87f9 f83b
00000380: 86b5 44bd 14b4 bdbd dd56 dfbd beb3 86bd
00000390: c6d2 d93b 2427 0e3c b9c7 303d f45f 16be
000003a0: bc98 f3bb 41c9 1fbe 1862 98bd 0ef6 943d
000003b0: 64fd 36bd 0949 e5bd 25d7 98bc 1832 aabd
000003c0: a5e7 d6bd 3c2a 53bd b0c5 1bbc eb33 04be
000003d0: 38cf 79bd 66f0 32be 6546 0a3e 0b3d 1bbe
000003e0: a387 ddbc 982c 0a3d 4c8e 0e3d 1480 66bd
000003f0: 51dd 82bc f1ba f8bd 408e 063c e6b1 5e3d

lf.weight f4 [2, 256]
-0.5260071 -0.4804941 -0.003576282 -0.18379454 0.57050616 -0.18554254 0.26983762 0.046015244
0.22981158 0.674336 -0.020315731 0.3872449 0.26030573 0.23135129 -0.10310938 -0.046619076
0.5627518 0.5618968 -0.07794459 -0.002859177 -0.039379913 0.30788818 -0.008684349 -0.025718438
0.2389082 0.4762026 0.023835052 -0.4300897 -0.30633405 -0.34689113 -0.89708495 0.25107977
-0.039033584 -0.15205932 0.6948036 -0.96594924 0.40055594 -0.6870004 0.6684341 -0.014712891
0.04444292 0.6828912 0.30254647 0.04399504 -0.58150864 -0.020969056 -0.51348466 0.47326854
0.41155338 0.44981256 0.40741527 0.45514154 0.42866847 -0.496906 -0.016235689 -0.20989037
0.4595008 0.24055451 -0.040092845 -0.059668917 0.032774933 -0.27430475 0.61444247 -0.009005912
-0.40093166 0.50223476 0.60610175 -0.00488486 -0.067251556 -0.023447664 -0.028734406 -0.027520495
-0.31936303 -0.03892997 -0.41590413 0.03483041 -0.3458548 0.27174947 0.5984116 -0.14136346
-0.20901391 -0.8141369 0.088165335 0.019952122 -0.08372189 -0.018017292 0.13638878 0.6575426
-0.97709566 -0.014630629 -0.009667494 0.55150867 0.03426996 -0.017249286 0.62392265 0.6871099
-0.24907738 0.011260126 0.032751046 -0.022349805 0.30834228 0.06214686 -0.16540723 -0.0007920325
0.039912034 -0.026637636 -0.14613569 -0.04549166 -0.01070174 0.0057209544 0.5049406 0.0276288
-0.09098746 0.6071517 0.0052659404 0.0052499305 0.3419968 0.5138731 0.006823786 0.32156196
0.015277344 0.4802402 0.032748025 0.11256991 -0.8893979 0.016252177 0.025685336 -0.034327436
-0.0077624815 -0.013063471 -0.014837619 -0.06507986 0.022879485 -0.012136032 0.3033818 -0.012098133
0.16987032 -0.7669856 0.44728526 0.13136911 0.7330722 -0.04397031 0.052114632 -0.0013596527
0.07216508 -0.020326072 -0.2364714 -0.1226266 -0.03933851 -0.62362754 0.027524367 -0.4144737
-0.2709827 -0.056090176 -0.66525847 -0.16123639 0.034763478 0.0110029 -0.33050236 0.053310454
0.033418953 0.0136261005 -0.037437674 -0.036908224 0.28513005 -0.006073143 0.040838726 0.36740106
-0.12766978 0.608443 -0.21309198 -0.57905793 -0.10295019 -0.7405697 -0.06975985 -0.22189301
0.60057086 0.0504521 -0.035984933 0.019154944 0.095391594 0.4699409 0.16638045 0.33089507
-0.013130715 0.5560069 0.45865664 0.471499 0.46709833 0.9078162 -0.54835075 -0.63499665
0.11048994 0.4818563 0.49856123 -0.008399375 0.024965603 -0.01845892 0.06580353 -0.04838842
0.074985445 0.6334027 0.48659703 0.32894892 -0.007818637 0.35747957 0.0042887283 0.68501765
-0.87328494 0.3502095 -0.9481767 -0.6937911 0.03624657 -0.9034018 -0.022712233 0.46183893
0.0099409 0.07290884 0.12500478 0.018821241 0.27388287 0.011820201 -1.0069814 0.4370124
-0.017914161 -0.029471144 -0.7052384 -0.52980447 0.0108916825 -0.03232905 0.05220787 -0.009016632
0.42482296 -0.026512647 -0.01782165 -0.3575906 -0.06606439 -0.04001649 0.6337423 0.11585747
-0.006920135 -0.017105652 -0.042466696 0.28480345 0.016148426 0.48262602 -0.017879957 0.043191634
0.44997734 0.59449536 0.18158653 0.23911566 -0.0040014735 -0.9323899 -0.0058589866 -0.95835495
00000000: 67a8 06bf 5303 f6be 0e60 6abb a334 3cbe
00000010: b10c 123f ddfe 3dbe 2828 8a3e 7b7a 3c3d
00000020: ba53 6b3e 49a1 2c3f 2d6d a6bc f744 c63e
00000030: cb46 853e 5ae7 6c3e 032b d3bd a5f3 3ebd
00000040: 8110 103f 78d8 0f3f 6aa1 9fbd 0861 3bbb
00000050: d54c 21bd 85a3 9d3e cd48 0ebc 79af d2bc
00000060: 5aa4 743e d4d0 f33e ba41 c33c b834 dcbe
00000070: d1d7 9cbe b79b b1be 5ca7 65bf 878d 803e
00000080: aee1 1fbd 70b5 1bbe a6de 313f 7348 77bf
00000090: ab15 cd3e 42df 2fbf 7f1e 2b3f 560e 71bc
000000a0: c709 363d f5d1 2e3f 5fe7 9a3e 2534 343d
000000b0: c0dd 14bf 4cc7 abbc bb73 03bf 4150 f23e
000000c0: 20b7 d23e d54d e63e bc98 d03e 5008 e93e
000000d0: 6f7a db3e 776a febe b500 85bc 80ed 56be
000000e0: b043 eb3e ec53 763e 6538 24bd 6567 74bd
000000f0: 023f 063d ac71 8cbe 1a4c 1d3f 888d 13bc
00000100: ea46 cdbe 7592 003f 7c29 1b3f 2d11 a0bb
00000110: 2fbb 89bd 5115 c0bc 6b64 ebbc a972 e1bc
00000120: 8d83 a3be 0875 1fbd 63f1 d4be 55aa 0e3d
00000130: e113 b1be bf22 8b3e 8131 193f 95c1 10be
00000140: be07 56be 476b 50bf 0790 b43d a272 a33c
00000150: 6276 abbd 0099 93bc 80a9 0b3e b654 283f
00000160: f122 7abf 4eb5 6fbc 6964 1ebc ac2f 0d3f
00000170: a85e 0c3d 604e 8dbc 65b9 1f3f 6fe6 2f3f
00000180: 240e 7fbe 647c 383c f625 063d f016 b7bc
00000190: 0adf 9d3e b58d 7e3d 8360 29be 67a0 4fba
000001a0: cd7a 233d 2c37 dabc 98a4 15be 7655 3abd
000001b0: 5a56 2fbc d876 bb3b ca43 013f cb55 e23c
000001c0: a257 babd 4b6e 1b3f e98d ac3b 9c07 ac3b
000001d0: 341a af3e 308d 033f 119a df3b c5a3 a43e
000001e0: d34d 7a3c 0be2 f53e cb22 063d 0e8b e63d
000001f0: 95af 63bf 4923 853c 0e6a d23c ed9a 0cbd
00000200: 6a5c febb 2b08 56bc 7c19 73bc 9748 85bd
00000210: c26d bb3c 35d6 46bc dc54 9b3e 3f37 46bc
00000220: 7cf2 2d3e 2b59 44bf 9302 e53e a085 063e
00000230: 9faa 3b3f 361a 34bd 2776 553d 6036 b2ba
00000240: 49cb 933d dd82 a6bc 8f25 72be a823 fbbd
00000250: 6b21 21bd 0ea6 1fbf c87a e13c e635 d4be
00000260: 3fbe 8abe d0be 65bd 614e 2abf 271b 25be
00000270: 2664 0e3d 8245 343c 9b37 a9be 105c 5a3d
00000280: 50e2 083d 0240 5f3c 3f58 19bd 142d 17bd
00000290: 91fc 913e 3701 c7bb 8246 273d fe1b bc3e
000002a0: debb 02be ecc2 1b3f c934 5abe 243d 14bf
000002b0: 8dd7 d2bd fa95 3dbf 41de 8ebd ec37 63be
000002c0: 03bf 193f dca6 4e3d f064 13bd d4ea 9c3c
000002d0: ab5c c33d 189c f03e a35f 2a3e 146b a93e
000002e0: 3622 57bc 7856 0e3f 0bd5 ea3e 5168 f13e
000002f0: 8327 ef3e a466 683f b760 0cbf 248f 22bf
00000300: 8d48 e23d deb5 f63e 6b43 ff3e 889d 09bc
00000310: aa84 cc3c 2937 97bc 00c4 863d f032 46bd
00000320: f891 993d ae26 223f 3f23 f93e fe6b a83e
00000330: be19 00bc 9007 b73e 7688 8c3b 515d 2f3f
00000340: 9a8f 5fbf a94e b33e b5bb 72bf 4b9c 31bf
00000350: 4977 143d 5745 67bf 010f babc 2776 ec3e
00000360: 28df 223c 3b51 953d 4101 003e 012f 9a3c
00000370: 603a 8c3e 84a9 413c c4e4 80bf 17c0 df3e
00000380: b8c0 92bc 786d f1bc 818a 34bf 44a1 07bf
00000390: 0773 323c 776b 04bd ebd7 553d 7fba 13bc
000003a0: 6582 d93e 0d31 d9bc b5fe 91bc 1d16 b7be
000003b0: c44c 87bd 55e8 23bd ef3c 223f ae46 ed3d
000003c0: 4dc2 e2bb 2721 8cbc 8ff1 2dbd c2d1 913e
000003d0: b449 843c c21a f73e fd78 92bc b6e9 303d
000003e0: 6e63 e63e d930 183f d2f1 393e bcda 743e
000003f0: cb1e 83bb 1bb1 6ebf befc bfbb c056 75bf

lf.bias f4 [2]
0.012729379 0.017130878
00000000: e38e 503c 0e56 8c3c
