TOYDATA/lightning_logs/version_154/checkpoints/epoch=24-step=625.ckpt (torch, 815066 bytes, 22 tensors)

lays.0.weight f4 [256, 2]
0.15473662 0.48769 0.18978512 0.26814824 0.6213657 -0.57781285 -0.52992344 0.67387
0.35514736 -0.8605957 0.73310405 0.36896315 0.031099081 0.050021827 0.6408859 -0.19405766
-0.0084738135 0.08040953 0.09070025 0.0045912676 0.3575613 0.33171424 0.05437237 0.41310567
0.6945719 0.10618486 -0.047593415 0.056498706 -0.71270746 -0.65801054 0.3846474 0.68087995
0.18215927 0.3159335 -0.14223912 0.1062943 -0.050119102 0.008311808 -0.5942922 0.5648043
0.5276956 0.68213344 0.14542842 0.19056933 -0.041027073 -0.4879925 0.3111106 0.19884063
0.40909928 -0.4836314 -0.062121462 0.58809775 -0.53300554 0.12565622 0.2830723 0.07248552
0.35273507 -0.41495484 0.30390984 0.6026497 0.12501496 -0.01921755 -0.36861432 -0.2710264
0.49180517 0.20886977 0.25608912 -0.17518632 -0.14499694 0.079847455 0.61866647 -0.23525918
-0.117273666 0.45331115 -0.7044272 0.29429355 0.3665461 -0.6958107 -0.24222063 0.54749644
0.38084635 0.60258186 0.6272157 -0.14272673 0.68981856 0.15339571 0.6385748 0.55862606
-0.017448723 -0.5406654 -0.48948345 0.22758782 0.38573512 -0.15799646 -0.758907 0.19441375
-0.1262325 -0.58955246 -0.43200448 -0.050020482 0.19406909 -0.34958866 -0.49160528 -0.7240168
-0.40832064 -0.496405 0.13886945 0.1052549 0.5514673 -0.056154203 -0.00974902 0.6374524
0.040099822 -0.4171266 0.034306005 0.64920074 -0.53891426 0.34780973 -0.25714844 -0.46631917
0.16003986 -0.34579918 0.18561053 -0.16835576 0.6297569 -0.057686288 0.39324826 -0.23306185
0.68108374 0.1631817 0.7088886 0.22464086 0.0028918036 -0.29746437 -0.48547715 -0.13048427
-0.08828771 0.16103333 0.070333414 0.20699973 0.31175312 -0.6129542 0.41565046 -0.25132164
-0.8180995 -0.26989537 -0.53930676 0.49669352 0.43535912 0.09746513 -0.57114506 0.34024876
0.6028241 0.5896101 -0.5737205 -0.54281104 -0.43074003 -0.3477269 0.4657118 0.49007156
-0.6023682 0.43266568 -0.54156256 0.1293012 0.6206689 0.47817826 0.64526886 0.4369047
0.11131583 -0.6550632 0.40622538 -0.10748525 0.67292744 0.57987094 -0.3766862 -0.34309244
0.010471856 0.4598657 0.2690731 -0.2340564 0.62171906 0.34332696 -0.4467471 -0.6522733
0.24340293 -0.5591604 -0.5571324 -0.05356658 -0.1737901 -0.12585092 0.6705362 -0.15432099
0.43837196 -0.16511835 -0.5986852 -0.5139598 0.06179619 0.584136 -0.44798106 0.48254856
-0.04000153 -0.41396284 0.21977383 -0.42990392 -0.33275747 0.46618527 0.44913495 -0.43368354
0.42929068 0.60734904 -0.6699409 0.116127305 0.33428457 0.08027997 -0.023772454 0.4706959
-0.4878302 -0.43010128 0.0538802 0.6810284 0.2304316 0.47045687 0.5054189 -0.45000914
-0.5310753 -0.10991288 0.6160188 -0.6534112 0.42789683 -0.0061870185 0.5942565 -0.09293406
0.39363202 0.724765 0.21966834 -0.4096366 -0.35225424 0.22536038 0.2957088 0.23657212
-0.3353611 -0.20301275 0.4835459 -0.48559073 -0.047712777 0.44195867 0.66667813 -0.5535532
-0.40855274 0.51344275 -0.12937397 -0.11637914 -0.3329637 0.48567876 0.052259855 -0.08308173
00000000: 4773 1e3e 81b2 f93e 0857 423e ba4a 893e
00000010: d311 1f3f 8beb 13bf 10a9 07bf bf82 2c3f
00000020: e0d5 b53e 0050 5cbf b5ac 3b3f bde8 bc3e
00000030: 80c3 fe3c b0e3 4c3d 1911 243f 0db7 46be
00000040: c0d5 0abc c0ad a43d 0dc1 b93d 5872 963b
00000050: 4612 b73e 73d6 a93e 90b5 5e3d 9682 d33e
00000060: 77cf 313f 7377 d93d 50f1 42bd 306b 673d
00000070: ff73 36bf 6173 28bf 81f0 c43e 264e 2e3f
00000080: f687 3a3e 09c2 a13e 22a7 11be d3b0 d93d
00000090: b049 4dbd 402e 083c 8923 18bf 0497 103f
000000a0: 0f17 073f 4ca0 2e3f 30eb 143e 9b24 433e
000000b0: 010c 28bd 27da f9be e349 9f3e e19c 4b3e
000000c0: 7675 d13e 899e f7be 1373 7ebd 938d 163f
000000d0: 0d73 08bf 06ac 003e daee 903e 4a73 943d
000000e0: b199 b43e f674 d4be 129a 9b3e 4047 1a3f
000000f0: ec03 003e 206e 9dbc 04bb bcbe f9c3 8abe
00000100: e3cd fb3e f5e1 553e 1d1e 833e 0b64 33be
00000110: 147a 14be 1087 a33d ed60 1e3f c8e7 70be
00000120: 2d2d f0bd 6618 e83e 5755 34bf a5ad 963e
00000130: eeab bb3e a620 32bf af08 78be ba28 0c3f
00000140: 4bfe c23e ce42 1a3f 3591 203f f526 12be
00000150: f397 303f c413 1d3e a379 233f 1e02 0f3f
00000160: a0f0 8ebc 0c69 0abf 939d fabe c80c 693e
00000170: 137f c53e d3c9 21be bb47 42bf 6614 473e
00000180: 1843 01be e9ec 16bf b12f ddbe 47e2 4cbd
00000190: 0cba 463e 49fd b2be b0b3 fbbe 2a59 39bf
000001a0: 670f d1be cc28 febe cb33 0e3e e28f d73d
000001b0: f62c 0d3f f301 66bd 5bba 1fbc 1530 233f
000001c0: b63f 243d 9e91 d5be 7484 0c3d 0532 263f
000001d0: 49f6 09bf 1e14 b23e f6a8 83be 63c1 eebe
000001e0: 7de1 233e 970c b1be b010 3e3e 7465 2cbe
000001f0: c037 213f 7548 6cbd d657 c93e c4a7 6ebe
00000200: 815b 2e3f 1b19 273e b979 353f 4108 663e
00000210: 6a84 3d3b 404d 98be 7690 f8be ab9d 05be
00000220: 30d0 b4bd ece5 243e f70a 903d bdf7 533e
00000230: 1b9e 9f3e 91ea 1cbf 23d0 d43e 3bad 80be
00000240: f86e 51bf ba2f 8abe 0210 0abf 9d4e fe3e
00000250: 64e7 de3e cc9b c73d 9036 12bf 1635 ae3e
00000260: ae52 1a3f b0f0 163f 59df 12bf aaf5 0abf
00000270: f589 dcbe 4309 b2be c771 ee3e a9ea fa3e
00000280: cd34 1abf 5b86 dd3e d8a3 0abf 8967 043e
00000290: 28e4 1e3f c8d3 f43e 5730 253f f9b1 df3e
000002a0: 8ef9 e33d 39b2 27bf c6fc cf3e 3a21 dcbd
000002b0: f944 2c3f 6c72 143f 03dd c0be d0a9 afbe
000002c0: 2692 2b3c 8473 eb3e f3c3 893e 7bac 6fbe
000002d0: fb28 1f3f 8dc8 af3e 09bc e4be 62fb 26bf
000002e0: 9e3e 793e 2325 0fbf 3ba0 0ebf a168 5bbd
000002f0: 08f6 31be 10df 00be 43a8 2b3f 5206 1ebe
00000300: 4a72 e03e c914 29be 6f43 19bf df92 03bf
00000310: 001e 7d3d f089 153f c65d e5be 9b10 f73e
00000320: a5d8 23bd f0f2 d3be 640c 613e 5e1c dcbe
00000330: 305f aabe d6af ee3e 04f5 e53e c50b debe
00000340: fdcb db3e 3a7b 1b3f 3f81 2bbf 27d4 ed3d
00000350: 5927 ab3e d369 a43d 73be c2bc 0eff f03e
00000360: e1c4 f9be 3c36 dcbe 7cb1 5c3d e157 2e3f
00000370: 43f6 6b3e b9df f03e 2263 013f 9967 e6be
00000380: 8df4 07bf 011a e1bd 68b3 1d3f f545 27bf
00000390: 4b15 db3e 79bc cabb 3221 183f 3654 bebd
000003a0: 238a c93e 338a 393f bdf0 603e e3bb d1be
000003b0: ab5a b4be dfc4 663e 2567 973e f63f 723e
000003c0: 73b4 abbe 93e2 4fbe 5493 f73e 599f f8be
000003d0: 796e 43bd 6848 e23e 6bab 2a3f aab5 0dbf
000003e0: d32d d1be fc70 033f 9c7a 04be 3058 eebd
000003f0: 387a aabe e3aa f83e 6e0e 563d c126 aabd

lays.0.bias f4 [256]
0.4779682 -0.6037232 0.010762852 0.5983248 -0.47495317 0.6265144 -0.6929564 -0.65079135
-0.53526795 0.6246834 -0.052789845 -0.59274995 -0.7395941 -0.20708936 0.7605509 0.41249728
0.09521004 0.2471745 -0.4298214 0.700358 0.25548565 0.66626567 0.11118448 -0.08079713
0.2748097 0.6950917 0.58652204 0.17878121 -0.08002908 0.5547674 -0.36559886 -0.5936434
0.677276 -0.19660439 -0.39442292 -0.35785455 0.69849706 0.23915261 0.00064213463 -0.26751664
-0.0337375 -0.06780808 0.6734347 0.3690942 -0.55748785 0.55663425 0.1847106 -0.045586687
-0.6667922 0.3935542 -0.14423221 -0.54516715 0.50534034 0.65976703 0.3720228 0.11899287
0.33199698 -0.32863846 -0.10584526 0.25612536 0.43055087 -0.51485074 -0.010245651 -0.30306602
-0.19196871 0.09202193 0.61861074 -0.04783333 -0.6718919 -0.018789805 0.28721085 -0.31994626
-0.24628595 0.24906482 0.61564064 -0.103215985 -0.37967196 0.03652546 -0.0020775604 0.2657879
-0.124319814 0.00050975353 0.20671761 -0.6749629 -0.09402233 -0.4562112 -0.37589845 0.010310877
0.15294832 -0.11448975 -0.67940485 0.60592294 -0.06876343 0.5208498 -0.5002674 -0.6499632
-0.33699822 0.010380828 0.45505425 -0.17927311 0.55055326 0.060908407 -0.19628444 0.17717654
-0.14170046 0.39750916 0.609867 0.6824136 0.008138817 0.27827176 -0.0019909446 0.65131575
-0.18141857 0.5340556 0.40321264 0.43614304 -0.4035471 0.05444001 -0.05624684 -0.32319134
0.3372458 0.089178115 0.5600302 -0.51195586 0.65410423 -0.65759605 0.5239029 0.45350137
-0.5236541 -0.52647096 -0.27160555 -0.37086776 -0.3398477 0.42303032 -0.36509833 -0.41930294
0.643656 -0.227732 -0.042757686 -0.19500847 0.02479548 0.3068223 -0.4940999 0.3430734
-0.06926096 -0.5972682 -0.594728 0.5273905 -0.6768194 -0.096662186 -0.47670132 0.31856254
0.5988397 0.45919642 0.53418094 -0.52727526 -0.21029727 0.63615596 0.29003388 -0.6474736
-0.15982851 0.57738453 0.45177948 -0.35835224 -0.5669195 -0.1580806 0.11919741 -0.094565034
-0.44966474 -0.25383785 -0.06231378 0.65268993 -0.23566252 -0.027899167 0.23702191 -0.11214393
0.34458074 -0.5966556 0.26753467 0.19732897 -0.14308593 0.6680015 0.61404514 -0.40966
0.0558874 0.51134306 0.34330285 0.58920866 -0.6053211 -0.016914645 -0.5918006 0.39700365
0.560016 -0.5220246 0.6539819 0.43369898 0.30499336 0.67317474 -0.21114516 -0.14601089
-0.40501216 -0.36672527 0.036520306 0.62661666 0.35272017 0.68754154 -0.13580461 -0.52467185
0.09879442 0.3120914 0.63801134 0.1215705 0.0024510515 -0.4155865 0.34724432 -0.19914807
-0.13153838 0.077347845 0.61960214 -0.6615864 0.0713961 0.197569 0.082412794 0.47687387
0.27024326 0.67762 -0.19809467 -0.18353693 -0.4647066 0.18468617 0.56469494 -0.23758855
0.5225355 0.108146966 -0.6331409 -0.49882552 -0.43103996 0.4191923 0.111654654 0.4188537
-0.46823722 -0.34358916 -0.68067247 0.2905281 -0.6574595 0.42631897 0.4991652 0.6618969
-0.0025511254 -0.10433807 0.29023972 -0.3255965 0.47730598 0.37357926 -0.28252643 0.27779666
00000000: 3fb8 f43e 9b8d 1abf ac56 303c d02b 193f
00000010: 102d f3be 3f63 203f 9765 31bf 439a 26bf
00000020: 5207 09bf 40eb 1f3f 2a3a 58bd 76be 17bf
00000030: 0a56 3dbf 3c0f 54be 77b3 423f d832 d33e
00000040: 7bfd c23d 501b 7d3e 8d11 dcbe a94a 333f
00000050: 04cf 823e 6390 2a3f b0b4 e33d f778 a5bd
00000060: dbb3 8c3e 88f1 313f 4f26 163f 6c12 373e
00000070: 49e6 a3bd 3c05 0e3f c62f bbbe 04f9 17bf
00000080: f661 2d3f a952 49be cdf1 c9be b638 b7be
00000090: b4d0 323f 6ce4 743e ed54 283a f1f7 88be
000000a0: 5530 0abd f6de 8abd 3766 2c3f eaf9 bc3e
000000b0: 86b7 0ebf 957f 0e3f c724 3d3e 1bb9 3abd
000000c0: e5b2 2abf f07f c93e 9cb1 13be 1390 0bbf
000000d0: fc5d 013f 7ee6 283f c679 be3e 89b2 f33d
000000e0: 82fb a93e 4d43 a8be 66c5 d8bd dd22 833e
000000f0: 2a71 dc3e 42cd 03bf 60dd 27bc 782b 9bbe
00000100: 7293 44be fe75 bc3d 465d 1e3f e2ec 43bd
00000110: 1c01 2cbf 14ed 99bc 4d0d 933e ffcf a3be
00000120: 6232 7cbe d90a 7f3e a09a 1d3f e762 d3bd
00000130: 5d64 c2be b99b 153d ae27 08bb 5a15 883e
00000140: 639b febd fba0 053a c8ad 533e 5eca 2cbf
00000150: c88e c0bd 8494 e9be c375 c0be f4ee 283c
00000160: 7c9e 1c3e 9a79 eabd 7aed 2dbf c41d 1b3f
00000170: d7d3 8cbd 6a56 053f 8611 00bf fd63 26bf
00000180: 088b acbe 5914 2a3c dffc e83e 5f93 37be
00000190: 0ff1 0c3f 187b 793d cafe 48be c46d 353e
000001a0: ed19 11be 5286 cb3e 3e20 1c3f a8b2 2e3f
000001b0: ac58 053c a379 8e3e 827a 02bb a1bc 263f
000001c0: cac5 39be deb7 083f e371 ce3e 244e df3e
000001d0: ba9d cebe 7dfc 5e3d 1663 66bd 5679 a5be
000001e0: 7bab ac3e 04a3 b63d 245e 0f3f 8a0f 03bf
000001f0: 6073 273f 3758 28bf 801e 063f 5531 e83e
00000200: 320e 06bf cdc6 06bf e20f 8bbe 61e2 bdbe
00000210: 8500 aebe 6e97 d83e 2bee babe e0ae d6be
00000220: a4c6 243f 9432 69be af22 2fbd 4db0 47be
00000230: e41f cb3c d017 9d3e a9fa fcbe 51a7 af3e
00000240: b1d8 8dbd 92e6 18bf 1840 18bf 1003 073f
00000250: 0944 2dbf d3f6 c5bd 3212 f4be a11a a33e
00000260: 8f4d 193f cb1b eb3e 15c0 083f 83fb 06bf
00000270: 2b58 57be 1edb 223f 527f 943e d4c0 25bf
00000280: 16aa 23be 79cf 133f a44f e73e f279 b7be
00000290: a321 11bf e1df 21be c61d f43d 50ab c1bd
000002a0: 753a e6be 09f7 81be bc3c 7fbd b016 273f
000002b0: 8451 71be cb8c e4bc dfb5 723e b7ab e5bd
000002c0: e36c b03e 6cbe 18bf 4efa 883e 9b10 4a3e
000002d0: 1e85 12be 2502 2b3f 1032 1d3f f5be d1be
000002e0: 30ea 643d 61e7 023f 64c5 af3e 61d6 163f
000002f0: 53f6 1abf 9590 8abc 3e80 17bf 1044 cb3e
00000300: 355d 0f3f 67a3 05bf 5c6b 273f cb0d de3e
00000310: 1728 9c3e 2e55 2c3f 7036 58be e183 15be
00000320: c15d cfbe 6ac3 bbbe 5196 153d f369 203f
00000330: bd97 b43e b902 303f 5d10 0bbe e550 06bf
00000340: bb54 ca3d 72ca 9f3e b654 233f f4f9 f83d
00000350: d2a1 203b c1c7 d4be 02ca b13e 79ed 4bbe
00000360: ffb1 06be 8c68 9e3d 3f9e 1e3f ba5d 29bf
00000370: 1e38 923d 874f 4a3e 0ac8 a83d d028 f43e
00000380: 535d 8a3e 8178 2d3f 54d9 4abe 1bf1 3bbe
00000390: 06ee edbe 5f1e 3d3e d98f 103f 6a4a 73be
000003a0: e3c4 053f 287c dd3d 8615 22bf 0f66 ffbe
000003b0: 45b1 dcbe 60a0 d63e 32ab e43d fe73 d63e
000003c0: cabc efbe ebea afbe 8d40 2ebf 19c0 943e
000003d0: 444f 28bf 7b46 da3e 9592 ff3e 1372 293f
000003e0: c830 27bb 33af d5bd 4d9a 943e 96b4 a6be
000003f0: 7361 f43e c845 bf3e 4ea7 90be 5d3b 8e3e

lays.1.weight f4 [256, 256]
-0.0057625845 0.04036937 0.014034428 0.041338667 0.0115676075 0.007029049 -0.041760847 -0.027656078
0.032956645 0.028491527 -0.055483192 0.04830257 0.06030146 0.013780914 -0.03764101 0.009826943
-0.045663327 0.014285319 -0.047434613 -0.043877535 0.04293108 0.03378646 -0.00433293 -0.00407964
0.010401309 -0.02269978 0.04489971 -0.0004619807 0.020712137 0.049952246 0.03845922 -0.0004798025
0.04713598 0.0004355535 -0.021660715 0.008396372 0.041701727 -0.03741213 -3.5323203e-05 0.057455115
-0.008672245 0.026646972 -0.055420652 -0.005623229 -0.03640876 -0.062375277 0.025450848 0.031113707
-0.03365454 0.030394278 0.007675618 0.03252911 0.006650239 -0.037741683 -0.048943117 -0.06201013
0.04416827 -0.013653062 0.04386238 -0.047575116 0.038160138 0.034524865 0.024696358 0.0018831268
0.008718029 0.015493244 0.05952596 0.022398718 0.017361574 0.012023859 0.0048817545 0.032604918
-0.012886666 -0.03912703 -0.05837351 -0.046032116 0.006697446 0.059510827 -0.041112214 0.057868883
-0.047642037 -0.010932893 0.011358887 0.036693007 -0.045721844 -0.04328467 0.0011561215 0.030335769
-0.03894741 0.009470403 -0.05455491 0.0020025745 -0.060131103 0.041543797 -0.05231879 -0.05436539
0.03813488 0.021331511 -0.059151374 -0.025456756 0.05476194 -0.020772375 -0.050771706 -0.03956122
0.040699393 0.04258103 0.0418 -0.025783494 -0.011614449 0.012888372 0.028497942 0.006102234
0.030815497 -0.024472207 0.014046706 -0.005240999 0.056530796 0.00028754026 -0.04161395 -0.04902769
0.0361545 -0.011381477 -0.043207526 0.040357277 -0.018308952 0.0052500963 -0.035988964 -0.040410377
0.015522033 0.052922875 -0.036869608 -0.053085238 -0.0071067438 0.019078486 0.054489456 0.016150407
-0.033540875 0.047720186 -0.06019316 0.049754113 0.04812009 0.007796265 -0.060065843 0.0030583292
0.054278 0.049663655 -0.0529275 -0.014594905 -0.055312626 -0.022983663 -0.06188313 -0.025227785
-0.04464715 -0.024843551 -0.06000661 0.051476486 -0.049288057 0.029276222 -0.03563667 0.05278022
-0.037486248 0.034405284 -0.001612328 -0.048860192 0.025128685 -0.015804961 -0.043912753 -0.04214538
0.01803831 0.0017504618 0.052370504 -0.051229708 -0.033337004 -0.02113168 -0.049464248 0.047466844
0.054025754 -0.057783835 -0.041773394 0.05687861 -0.043794915 0.058082037 -0.027715176 0.04405929
-0.029998258 0.0333981 0.039866075 0.04412908 0.016240492 0.00075784326 0.029583514 0.007960349
-0.027795702 0.055428125 -0.054054603 -0.04254894 -0.06058666 -0.009760097 0.00035551935 0.04635807
-0.00030406564 -0.03543888 0.04464452 0.049296953 0.017250478 -0.04396911 -0.05997853 0.025864631
-0.016165227 0.043483444 -0.058793455 -0.052985623 0.04008396 0.028249867 0.008789964 0.03063441
0.036692902 0.007953055 -0.061909907 0.00970982 0.048989154 0.021443613 -0.062341474 -0.03989254
-0.033520624 -0.036026523 0.026856996 0.056157358 -0.039888643 0.036677003 0.013530694 0.00033777207
0.0068981946 0.024384461 -0.043067813 0.06051167 0.015646584 0.0026987717 -0.018907577 -0.007884204
0.052198336 -0.015985884 -0.0014615133 -0.039163344 -0.030222721 -0.02878815 0.06020841 -0.058124267
-0.052207433 -0.028547488 -0.036556304 -0.05519341 -0.014817402 -0.028091937 0.0028034747 0.00962019
00000000: 10d4 bcbb 5a5a 253d a8f0 653c bc52 293d
00000010: 1086 3d3c f053 e63b 6c0d 2bbd 008f e2bc
00000020: 8cfd 063d 1067 e93c 5842 63bd ead8 453d
00000030: aafe 763d 58c9 613c 762d 1abd 3001 213c
00000040: 7809 3bbd f80c 6a3c cc4a 42bd eeb8 33bd
00000050: 80d8 2f3d ac63 0a3d 40fb 8dbb 80ae 85bb
00000060: 406a 2a3c e4f4 b9bc c2e8 373d 0036 f2b9
00000070: 80ac a93c ba9a 4c3d 6a87 1d3d 008e fbb9
00000080: a811 413d 005b e439 d071 b1bc f090 093c
00000090: 6ecf 2a3d 763d 19bd 0028 14b8 0e56 6b3d
000000a0: 0816 0ebc c04a da3c c400 63bd 1043 b8bb
000000b0: 5a21 15bd 387d 7fbd 4c7e d03c 2ce2 fe3c
000000c0: 58d9 09bd 6cfd f83c c083 fb3b 3e3d 053d
000000d0: 40ea d93b 0697 1abd 9478 48bd 56fe 7dbd
000000e0: cae9 343d 18b1 5fbc 0aa9 333d 20de 42bd
000000f0: ce4d 1c3d f269 0d3d 0450 ca3c 40d3 f63a
00000100: 10d6 0e3c 60d7 7d3c 7ed1 733d 847d b73c
00000110: dc39 8e3c b8ff 443c 20f7 9f3b bc8c 053d
00000120: 9822 53bc aa43 20bd 1019 6fbd 2c8c 3cbd
00000130: 4076 db3b a0c1 733d 4865 28bd ec07 6d3d
00000140: 4c24 43bd e01f 33bc a01a 3a3c 684b 163d
00000150: d446 3bbd 444b 31bd 0089 973a b882 f83c
00000160: 5287 1fbd c029 1b3c f874 5fbd a03d 033b
00000170: 084c 76bd d429 2a3d 3a4c 56bd 3eae 5ebd
00000180: 5233 1c3d 6cbf ae3c b648 72bd b08a d0bc
00000190: 0e4e 603d d42a aabc fef5 4fbd f20a 22bd
000001a0: 68b4 263d 7269 2e3d 7a36 2b3d e837 d3bc
000001b0: 884a 3ebc c029 533c 8474 e93c 40f5 c73b
000001c0: c870 fc3c f079 c8bc 2824 663c b0bc abbb
000001d0: d68c 673d 00c1 9639 6473 2abd 42d1 48bd
000001e0: be16 143d 6079 3abc 60fa 30bd ac4d 253d
000001f0: a8fc 95bc 0009 ac3b 2a69 13bd 5a85 25bd
00000200: 2050 7e3c a8c5 583d 9604 17bd e86f 59bd
00000210: b0df e8bb 7c4a 9c3c 5630 5f3d dc4d 843c
00000220: 2862 09bd 3e76 433d 1a8d 76bd f8ca 4b3d
00000230: 9219 453d d077 ff3b 9a07 76bd 406e 483b
00000240: 9c52 5e3d 1e6c 4b3d 82ca 58bd 781f 6fbc
00000250: 7e8f 62bd 3c48 bcbc 2a79 7dbd 80aa cebc
00000260: eedf 36bd b484 cbbc 7ec9 75bd 02d9 523d
00000270: 46e2 49bd b0d4 ef3c c2f7 11bd 1230 583d
00000280: 2e8b 19bd 8eec 0c3d c054 d3ba a021 48bd
00000290: acda cd3c 6879 81bc dcdd 33bd a2a0 2cbd
000002a0: 14c5 933c c06f e53a 7482 563d 3ed6 51bd
000002b0: 628c 08bd 581c adbc 069b 4abd 986c 423d
000002c0: 1c4a 5d3d beae 6cbd 941a 2bbd 8cf9 683d
000002d0: 4c62 33bd 6ee7 6d3d f00a e3bc 8477 343d
000002e0: e8be f5bc 72cc 083d 9c4a 233d b2c0 343d
000002f0: c80a 853c 00aa 463a 2059 f23c 206c 023c
00000300: d0b3 e3bc 9a08 633d 5c68 5dbd cc47 2ebd
00000310: b829 78bd d0e8 1fbc 0065 ba39 f6e1 3d3d
00000320: 006b 9fb9 5c28 11bd 2cdd 363d 9aeb 493d
00000330: e050 8d3c f418 34bd 0cac 75bd 10e2 d33c
00000340: f06c 84bc b21b 323d 68d1 70bd 7407 59bd
00000350: 142f 243d 446c e73c c803 103c 04f5 fa3c
00000360: 4c4b 163d 884d 023c 3e95 7dbd f015 1f3c
00000370: daa8 483d 84aa af3c c659 7fbd 5c66 23bd
00000380: ec4c 09bd 8c90 13bd 3403 dc3c 4205 663d
00000390: 4662 23bd a03a 163d d8af 5d3c 0017 b139
000003a0: 400a e23b ecc1 c73c e067 30bd 16db 773d
000003b0: 442d 803c e0dd 303b 10e4 9abc c02c 01bc
000003c0: eccd 553d d4f4 82bc 4090 bfba be69 20bd
000003d0: a495 f7bc 20d5 ebbc 189d 763d b613 6ebd
000003e0: 76d7 55bd 6cdc e9bc 10bc 15bd 7c12 62bd
000003f0: b0c4 72bc 1021 e6bc 80ba 373b 009e 1d3c

lays.1.bias f4 [256]
0.0329457 0.009803643 0.011354744 -0.025703136 -0.025140466 0.040203158 0.023848072 0.060729515
-0.01843087 0.0067759636 0.050922643 0.03945678 -0.0116840005 -0.026403174 -0.018440897 -0.013019516
0.015127264 -0.048536144 0.0274958 0.07726877 0.007734992 0.0052486476 0.017386926 -0.04712252
-0.014165747 -0.0035866136 -0.048924387 0.040676504 0.053687472 0.0372192 -0.055767816 0.051293362
0.0041787145 0.04114892 0.03335937 -0.05736965 0.0014571652 -0.038579497 -0.0027924622 0.06987164
0.015620611 0.057203818 0.037590608 0.028138973 -0.062998846 -0.026843222 0.064884596 -0.014609536
-0.039188914 -0.071012765 -0.04507542 -0.033128157 0.0327356 0.052961066 0.00015418202 0.018835394
0.03423975 -0.043842755 -0.0206204 -0.018122422 0.036765452 -0.037628572 -0.005071327 0.07256036
-0.030767765 -0.015042736 0.058919296 -0.027803302 0.02077128 0.04640276 -0.04300697 -0.010807655
-0.010595258 -0.046364013 0.016005598 0.032977965 -0.0446237 0.008680569 -0.040257886 -0.041212216
0.050833195 -0.09589763 -0.0126667665 -0.0017958445 -0.051696524 0.0634147 0.0012564901 -0.053828064
0.054651033 -0.054282464 -0.03965459 -0.033957843 0.0704201 0.0046218187 -0.032166816 -0.023868896
-0.0023442965 0.06893795 0.017818648 -0.040571574 0.043440502 -0.016380675 0.06636344 0.016202223
0.032936122 -0.033979923 0.01306964 0.027003907 0.055316396 -0.0151468115 0.02885873 0.041218877
0.058921456 0.0067658424 0.021473993 -0.00915696 -0.004928909 0.021603579 0.061401255 0.03008639
-0.057795137 0.01882049 0.044845827 0.035580773 0.04471772 -0.009493573 -0.04504086 -0.00427188
0.04107275 -0.01659241 -0.042716257 -0.050001197 -0.050074864 0.029619513 -0.040427756 0.0080428645
0.038480997 -0.0121085495 -0.023373261 0.007116678 0.054912724 0.09224336 -0.030659482 -0.007834107
0.03647013 0.0030728218 0.06051451 -0.045316324 0.05227318 0.025131706 -0.06270115 -0.010897179
0.025630966 -0.0011249883 -0.024415316 -0.017924411 -0.021526357 0.022519922 0.031628244 0.021104421
0.031804517 -0.042779673 0.07808492 -0.04487376 -0.034978293 0.024537167 0.032191075 0.016759403
-0.022552507 0.00078385323 0.038896512 0.057893947 0.023703162 0.055109072 -0.038518477 0.068394
0.05113501 -0.051270746 -0.0039008388 0.06549331 -0.021029672 0.061691545 0.0016542136 0.036003184
0.043791257 -0.0097363945 -0.0261764 0.036080673 -0.052100014 0.010401592 0.041890427 -0.05400025
-0.052445814 -0.014905381 -0.050960954 -0.04830221 -0.01806481 0.015272586 0.06752881 -0.045857184
0.012880207 0.03467693 0.03717806 -0.04747834 -0.019963682 0.030632686 -0.020955376 -0.021080922
0.0112907225 -0.016379403 0.009596935 -0.04312946 0.011529817 0.07109948 0.019100338 -0.054734364
0.038683694 -0.04432472 0.066841535 -0.03169177 0.034278397 -0.021472381 0.07377418 0.053603753
0.003773087 -0.016971314 -0.032936756 -0.015509909 0.0011371366 -0.027972328 0.03581141 0.031476136
-0.06304559 0.023062577 -0.020372203 -0.01336435 0.04199553 -0.02987993 -0.048259605 -0.029085185
0.054261144 0.056121487 -0.0012611826 0.06383426 0.036493048 0.03947874 0.016663924 0.029628783
0.0027061943 0.008005311 -0.052671332 -0.059665754 0.024786472 0.021360682 -0.053539112 -0.01232246
00000000: 12f2 063d 769f 203c 4009 3a3c 628f d2bc
00000010: 61f3 cdbc 11ac 243d 085d c33c 83bf 783d
00000020: 56fc 96bc e708 de3b 4394 503d 6f9d 213d
00000030: 406e 3fbc 784b d8bc 5d11 97bc cf4f 55bc
00000040: 58d8 773c d6cd 46bd df3e e13c 173f 9e3d
00000050: d175 fd3b d9fc ab3b 076f 8e3c 8b03 41bd
00000060: 7317 68bc 640d 6bbb f064 48bd 689c 263d
00000070: 65e7 5b3d 2973 183d cb6c 64bd fd18 523d
00000080: 99ed 883b c58b 283d d6a3 083d 70fc 6abd
00000090: 5afe be3a 8905 1ebd be01 37bb dd18 8f3d
000000a0: 97ed 7f3c 8d4e 6a3d 9cf8 193d b483 e63c
000000b0: 8a05 81bd 51e6 dbbc 37e2 843d d65c 6fbc
000000c0: 8e84 20bd 246f 91bd 01a1 38bd 64b1 07bd
000000d0: c415 063d b4ed 583d ecab 2139 af4c 9a3c
000000e0: fb3e 0c3d 7694 33bd 1dec a8bc 7975 94bc
000000f0: 5f97 163d 6b20 1abd 602d a6bb 879a 943d
00000100: ae0c fcbc cf75 76bc 5c55 713d c0c3 e3bc
00000110: 8828 aa3c d210 3e3d 1428 30bd 9712 31bc
00000120: bc97 2dbc 31e8 3dbd 2c1e 833c e713 073d
00000130: 57c7 36bd f238 0e3c 74e5 24bd 24ce 28bd
00000140: 7836 503d fa65 c4bd 4588 4fbc 8b62 ebba
00000150: bcbf 53bd 91df 813d d0b0 a43a d17a 5cbd
00000160: c3d9 5f3d 4a57 5ebd da6c 22bd 6117 0bbd
00000170: 6a38 903d a072 973b 5ac1 03bd b488 c3bc
00000180: c5a2 19bb 572f 8d3d 6af8 913c 612e 26bd
00000190: abee 313d c430 86bc 8ee9 873d 86ba 843c
000001a0: 07e8 063d 882e 0bbd 0b22 563c 4c37 dd3c
000001b0: 7293 623d 552a 78bc 2569 ec3c 20d5 283d
000001c0: a057 713d 00b4 dd3b 3aea af3c 1307 16bc
000001d0: af82 a1bb fdf9 b03c e27f 7b3d bc77 f63c
000001e0: 98ba 6cbd 6e2d 9a3c 42b0 373d 25bd 113d
000001f0: ee29 373d ee8a 1bbc c47c 38bd 20fb 8bbb
00000200: e63b 283d ceec 87bc 3ef7 2ebd 0ece 4cbd
00000210: 4d1b 4dbd 9fa4 f23c 9397 25bd 38c6 033c
00000220: 409e 1d3d f062 46bc 4879 bfbc 0633 e93b
00000230: 2aec 603d 16ea bc3d 9829 fbbc a05a 00bc
00000240: b461 153d 6561 493b 10de 773d 9c9d 39bd
00000250: 671c 563d 02e1 cd3c 7669 80bd 158a 32bc
00000260: 08f8 d13c 5874 93ba a102 c8bc 37d6 92bc
00000270: 0b58 b0bc b37b b83c 9e8c 013d 2ee3 ac3c
00000280: 7445 023d bd39 2fbd fdea 9f3d 8ccd 37bd
00000290: 6645 0fbd 2b02 c93c cada 033d 044b 893c
000002a0: 09c0 b8bc 807b 4d3a f351 1f3d 3422 6d3d
000002b0: 222d c23c 0dba 613d 8dc5 1dbd 2712 8c3d
000002c0: f272 513d 4601 52bd 37a5 7fbb 5b21 863d
000002d0: 6b46 acbc 46b0 7c3d 33d2 d83a 1378 133d
000002e0: 765e 333d 6685 1fbc e46f d6bc 54c9 133d
000002f0: d366 55bd 706b 2a3c 4c95 2b3d 5e2f 5dbd
00000300: 6cd1 56bd b335 74bc 6fbc 50bd 8ad8 45bd
00000310: a7fc 93bc de39 7a3c 8b4c 8a3d bed4 3bbd
00000320: 8107 533c 6609 0e3d 0548 183d a678 42bd
00000330: e08a a3bc 66f1 fa3c 9caa abbc e6b1 acbc
00000340: b9fc 383c 192e 86bc 763c 1d3c 84a8 30bd
00000350: 8fe7 3c3c 9b9c 913d 5078 9c3c 2431 60bd
00000360: cb72 1e3d d68d 35bd 37e4 883d 3bcf 01bd
00000370: 8167 0c3d d9e6 afbc eb16 973d 9c8f 5b3d
00000380: e545 773b 6d07 8bbc b1e8 06bd 461d 7ebc
00000390: f90b 953a 3926 e5bc fcae 123d 1fed 003d
000003a0: 0c1e 81bd bbed bc3c 9be3 a6bc 26f6 5abc
000003b0: 8103 2c3d c1c6 f4bc ddab 45bd 0e44 eebc
000003c0: ef40 5e3d a5df 653d 444e a5ba 89bb 823d
000003d0: bc79 153d 76b4 213d c882 883c 10b8 f23c
000003e0: 685a 313b b528 033c e5bd 57bd 1464 74bd
000003f0: 000d cb3c 99fc ae3c d44b 5bbd 25e4 49bc

lays.2.weight f4 [2, 256]
0.054057106 -0.08276819 0.099079475 -0.0062121223 -0.07263375 -0.04678983 0.006086886 0.09043805
-0.062356327 0.095102765 0.039696522 -0.06966449 0.10392196 0.019397393 0.1315177 0.13213284
-0.04512012 -0.08682313 0.08301588 -0.07811807 0.0070141163 -0.16298184 -0.024759086 0.048732545
0.080263935 0.026675299 0.061663765 -0.095355324 -0.0687163 0.05007448 -0.05932504 -0.056681823
-0.105854034 -0.030430738 -0.028764836 0.010857696 -0.121428914 0.06348306 0.08211771 -0.09253284
-0.022224952 -0.059314456 0.020390203 -0.045427535 0.03401827 -0.040201314 0.11509543 0.029612137
0.003051313 -0.032181676 -0.0033659386 0.087898634 0.003941342 0.096949056 -0.12056159 0.012997774
-0.110804744 0.0300201 0.05877248 0.07364488 -0.12838095 -0.113609016 -0.05551099 0.1497458
-0.06826875 -0.13106816 -0.027682893 -0.004970014 -0.00916194 -0.044942796 -0.045523807 0.07589122
-0.04846817 0.07944234 0.111020505 0.010056559 -0.041644897 0.1454266 0.08378474 -0.0828031
-0.05751791 -0.15922087 -0.09110019 0.09376191 0.014013 0.10367877 -0.10076416 0.055651728
-0.06493358 -0.16497621 0.109760106 0.005794282 -0.111490734 -0.043274477 -0.103268735 -0.071983784
-0.106497735 0.041472778 -0.011194542 -0.10178498 0.08746837 0.07989079 -0.11521157 0.09380971
0.043466244 0.013571467 0.12758704 0.07771254 0.16764148 -0.1079669 -0.073074244 0.022607572
-0.078587145 -0.037436493 -0.044420596 0.07787428 -0.11506431 0.041324627 -0.10160035 0.115402065
0.044567868 0.04203129 -0.041794814 0.12817419 0.058142133 0.055369876 -0.068677254 -0.020564586
0.0010072145 0.063452944 0.043017764 0.004663959 0.12004973 0.09970195 0.022902803 -0.052136563
0.009032659 -0.046979047 -0.01832308 -0.007348144 0.14288914 -0.11042204 -0.044573426 -0.019311331
0.10914874 -0.08570366 -0.04693882 0.06551346 0.04939753 0.017112581 -0.039783496 -0.08342097
-0.099843405 -0.034397095 0.049024835 0.034301516 -0.092161685 0.10336039 0.016421571 0.019460926
0.029778782 -0.11192994 -0.13374434 0.039041266 0.05923228 -0.02375294 -0.04259046 0.03623061
-0.09668577 0.052270047 0.030851126 0.1176414 -0.020010969 -0.0922866 -0.03603515 -0.108290784
0.020094583 0.035726655 0.008418713 -0.08369309 0.113465086 0.016968809 0.041354965 -0.0037065416
-0.08563664 -0.059461124 -0.007300131 -0.057016324 -0.033216912 0.07656111 -0.034537178 0.12862566
0.0945014 0.104657054 -0.06090977 -0.009971628 -0.025332734 0.06771207 0.0072769998 0.05540179
0.0942568 -0.01924046 -0.020589655 0.02645804 -0.04937507 -0.08257349 -0.020901201 0.0060788803
0.023844607 -0.06171167 -0.113397755 0.035168648 0.079311326 -0.033151973 0.017731406 -0.01761997
-0.108211115 0.06767914 -0.04321936 -0.11756535 -0.13135138 0.006222689 -0.06595524 -0.07111601
0.14061815 0.022034125 0.03786958 -0.002667673 -0.0072472445 -0.09926684 -0.030448964 0.09984417
-0.14327554 0.11349084 -0.07992055 0.10953223 0.03375045 -0.054269914 0.07574145 0.122820534
-0.04025288 -0.068406105 0.117007546 0.09454757 0.05944516 -0.07721863 -0.017204305 -0.03538755
-0.06656054 -0.08316982 0.06666786 -0.037498295 0.08013509 -0.12518688 0.006079659 -0.09816689
00000000: fc6a 5d3d 5e82 a9bd 2eea ca3d 0f8f cbbb
00000010: 01c1 94bd b1a6 3fbd 8074 c73b 9637 b93d
00000020: 5969 7fbd 3dc5 c23d d298 223d 42ac 8ebd
00000030: 09d5 d43d 48e7 9e3c 93ac 063e d54d 073e
00000040: e0cf 38bd 53d0 b1bd 3b04 aa3d 5efc 9fbd
00000050: acd6 e53b b6e4 26be 91d3 cabc c79b 473d
00000060: 6b61 a43d 2886 da3c 2593 7c3d a749 c3bd
00000070: 22bb 8cbd e61a 4d3d d0fe 72bd 332b 68bd
00000080: 00ca d8bd e249 f9bc 3ca4 ebbc 7ae4 313c
00000090: b9af f8bd 6803 823d 542d a83d dc81 bdbd
000000a0: 1a11 b6bc b7f3 72bd 5b09 a73c 3912 3abd
000000b0: be56 0b3d 22aa 24bd 27b7 eb3d 2795 f23c
000000c0: 8af8 473b efd0 03bd 1497 5cbb 3304 b43d
000000d0: 5f26 813b 3a8d c63d ffe8 f6bd 9ef4 543c
000000e0: 99ed e2bd b6ec f53c 69bb 703d 20d3 963d
000000f0: 4c76 03be d8ab e8bd 7e5f 63bd f756 193e
00000100: 7dd0 8bbd bb36 06be 3cc7 e2bc 80db a2bb
00000110: f61b 16bc f015 38bd 2c77 3abd db6c 9b3d
00000120: 8f86 46bd aab2 a23d b85e e33d 44c4 243c
00000130: d793 2abd b6ea 143e 5597 ab3d ac94 a9bd
00000140: e697 6bbd cc0a 23be bd92 babd 3f06 c03d
00000150: c896 653c 8955 d43d 715d cebd 11f3 633d
00000160: e6fb 84bd 86ef 28be e8c9 e03d f6dd bd3b
00000170: 4155 e4bd 9440 31bd 8f7e d3bd 3c6c 93bd
00000180: 7c1b dabd 5cdf 293d 5069 37bc a574 d0bd
00000190: 9e22 b33d c89d a33d 0bf4 ebbd 4e1f c03d
000001a0: a909 323d dc5a 5e3c 2da6 023e c127 9f3d
000001b0: 35aa 2b3e c01d ddbd f3a7 95bd 8433 b93c
000001c0: 4cf2 a0bd 0257 19bd 5ff2 35bd 8d7c 9f3d
000001d0: d6a6 ebbd 0344 293d d813 d0bd eb57 ec3d
000001e0: cc8c 363d 0029 2c3d 0a31 2bbd 1840 033e
000001f0: 7226 6e3d 86cb 623d a9a6 8cbd 1077 a8bc
00000200: 8304 843a 9ef3 813d 6533 303d 20d4 983b
00000210: a2dc f53d 8930 cc3d a99e bb3c 268d 55bd
00000220: b8fd 133c 1a6d 40bd 491a 96bc b3c8 f0bb
00000230: 8851 123e f324 e2bd a092 36bd cc32 9ebc
00000240: 6089 df3d 6785 afbd ec42 40bd ec2b 863d
00000250: 1055 4a3d af2f 8c3c 05f4 22bd 9dd8 aabd
00000260: b37a ccbd f8e3 0cbd 44ce 483d bf7f 0c3d
00000270: 44bf bcbd 9dae d33d 8886 863c 856c 9f3c
00000280: a2f2 f33c 863b e5bd 47f4 08be bce9 1f3d
00000290: 8c9d 723d 8795 c2bc 5673 2ebd 8c66 143d
000002a0: 3003 c6bd 1e19 563d 80bb fc3c f9ed f03d
000002b0: 0bee a3bc c200 bdbd 9899 13bd 8fc7 ddbd
000002c0: 659d a43c 1d56 123d a4ee 093c 4867 abbd
000002d0: 6260 e83d 2c02 8b3c d363 293d 73e9 72bb
000002e0: 4362 afbd 828d 73bd f035 efbb f389 69bd
000002f0: 750e 08bd 12cc 9c3d db76 0dbd 72b6 033e
00000300: f389 c13d 7056 d63d 867c 79bd 0a60 23bc
00000310: 9886 cfbc a0ac 8a3d e673 ee3b fdec 623d
00000320: b609 c13d 2b9e 9dbc a3ab a8bc 88be d83c
00000330: 833d 4abd 4a1c a9bd ff38 abbc 5831 c73b
00000340: c455 c33c 60c5 7cbd 153d e8bd 000d 103d
00000350: fa6d a23d 5dca 07bd 7441 913c c157 90bc
00000360: ca9d ddbd 5c9b 8a3d c906 31bd 1ac6 f0bd
00000370: fa80 06be b3e7 cb3b 8a13 87bd 45a5 91bd
00000380: 34fe 0f3e e980 b43c 221d 1b3d 20d4 2ebb
00000390: 4b7a edbb 6a4c cbbd 1b70 f9bc 1a7b cc3d
000003a0: d3b6 12be e36d e83d 63ad a3bd 6f52 e03d
000003b0: e93d 0a3d 214a 5ebd 551e 9b3d 5589 fb3d
000003c0: 34e0 24bd 8018 8cbd a7a1 ef3d 28a2 c13d
000003d0: c57c 733d cd24 9ebd 0bf0 8cbc 89f2 10bd
000003e0: e450 88bd f054 aabd 2989 883d d097 19bd
000003f0: de1d a43d fd30 00be e037 c73b b90b c9bd

lays.2.bias f4 [2]
0.04160737 0.0051733516
00000000: 7d6c 2a3d 3885 a93b

l1.weight f4 [256, 2]
0.15473662 0.48769 0.18978512 0.26814824 0.6213657 -0.57781285 -0.52992344 0.67387
0.35514736 -0.8605957 0.73310405 0.36896315 0.031099081 0.050021827 0.6408859 -0.19405766
-0.0084738135 0.08040953 0.09070025 0.0045912676 0.3575613 0.33171424 0.05437237 0.41310567
0.6945719 0.10618486 -0.047593415 0.056498706 -0.71270746 -0.65801054 0.3846474 0.68087995
0.18215927 0.3159335 -0.14223912 0.1062943 -0.050119102 0.008311808 -0.5942922 0.5648043
0.5276956 0.68213344 0.14542842 0.19056933 -0.041027073 -0.4879925 0.3111106 0.19884063
0.40909928 -0.4836314 -0.062121462 0.58809775 -0.53300554 0.12565622 0.2830723 0.07248552
0.35273507 -0.41495484 0.30390984 0.6026497 0.12501496 -0.01921755 -0.36861432 -0.2710264
0.49180517 0.20886977 0.25608912 -0.17518632 -0.14499694 0.079847455 0.61866647 -0.23525918
-0.117273666 0.45331115 -0.7044272 0.29429355 0.3665461 -0.6958107 -0.24222063 0.54749644
0.38084635 0.60258186 0.6272157 -0.14272673 0.68981856 0.15339571 0.6385748 0.55862606
-0.017448723 -0.5406654 -0.48948345 0.22758782 0.38573512 -0.15799646 -0.758907 0.19441375
-0.1262325 -0.58955246 -0.43200448 -0.050020482 0.19406909 -0.34958866 -0.49160528 -0.7240168
-0.40832064 -0.496405 0.13886945 0.1052549 0.5514673 -0.056154203 -0.00974902 0.6374524
0.040099822 -0.4171266 0.034306005 0.64920074 -0.53891426 0.34780973 -0.25714844 -0.46631917
0.16003986 -0.34579918 0.18561053 -0.16835576 0.6297569 -0.057686288 0.39324826 -0.23306185
0.68108374 0.1631817 0.7088886 0.22464086 0.0028918036 -0.29746437 -0.48547715 -0.13048427
-0.08828771 0.16103333 0.070333414 0.20699973 0.31175312 -0.6129542 0.41565046 -0.25132164
-0.8180995 -0.26989537 -0.53930676 0.49669352 0.43535912 0.09746513 -0.57114506 0.34024876
0.6028241 0.5896101 -0.5737205 -0.54281104 -0.43074003 -0.3477269 0.4657118 0.49007156
-0.6023682 0.43266568 -0.54156256 0.1293012 0.6206689 0.47817826 0.64526886 0.4369047
0.11131583 -0.6550632 0.40622538 -0.10748525 0.67292744 0.57987094 -0.3766862 -0.34309244
0.010471856 0.4598657 0.2690731 -0.2340564 0.62171906 0.34332696 -0.4467471 -0.6522733
0.24340293 -0.5591604 -0.5571324 -0.05356658 -0.1737901 -0.12585092 0.6705362 -0.15432099
0.43837196 -0.16511835 -0.5986852 -0.5139598 0.06179619 0.584136 -0.44798106 0.48254856
-0.04000153 -0.41396284 0.21977383 -0.42990392 -0.33275747 0.46618527 0.44913495 -0.43368354
0.42929068 0.60734904 -0.6699409 0.116127305 0.33428457 0.08027997 -0.023772454 0.4706959
-0.4878302 -0.43010128 0.0538802 0.6810284 0.2304316 0.47045687 0.5054189 -0.45000914
-0.5310753 -0.10991288 0.6160188 -0.6534112 0.42789683 -0.0061870185 0.5942565 -0.09293406
0.39363202 0.724765 0.21966834 -0.4096366 -0.35225424 0.22536038 0.2957088 0.23657212
-0.3353611 -0.20301275 0.4835459 -0.48559073 -0.047712777 0.44195867 0.66667813 -0.5535532
-0.40855274 0.51344275 -0.12937397 -0.11637914 -0.3329637 0.48567876 0.052259855 -0.08308173
00000000: 4773 1e3e 81b2 f93e 0857 423e ba4a 893e
00000010: d311 1f3f 8beb 13bf 10a9 07bf bf82 2c3f
00000020: e0d5 b53e 0050 5cbf b5ac 3b3f bde8 bc3e
00000030: 80c3 fe3c b0e3 4c3d 1911 243f 0db7 46be
00000040: c0d5 0abc c0ad a43d 0dc1 b93d 5872 963b
00000050: 4612 b73e 73d6 a93e 90b5 5e3d 9682 d33e
00000060: 77cf 313f 7377 d93d 50f1 42bd 306b 673d
00000070: ff73 36bf 6173 28bf 81f0 c43e 264e 2e3f
00000080: f687 3a3e 09c2 a13e 22a7 11be d3b0 d93d
00000090: b049 4dbd 402e 083c 8923 18bf 0497 103f
000000a0: 0f17 073f 4ca0 2e3f 30eb 143e 9b24 433e
000000b0: 010c 28bd 27da f9be e349 9f3e e19c 4b3e
000000c0: 7675 d13e 899e f7be 1373 7ebd 938d 163f
000000d0: 0d73 08bf 06ac 003e daee 903e 4a73 943d
000000e0: b199 b43e f674 d4be 129a 9b3e 4047 1a3f
000000f0: ec03 003e 206e 9dbc 04bb bcbe f9c3 8abe
00000100: e3cd fb3e f5e1 553e 1d1e 833e 0b64 33be
00000110: 147a 14be 1087 a33d ed60 1e3f c8e7 70be
00000120: 2d2d f0bd 6618 e83e 5755 34bf a5ad 963e
00000130: eeab bb3e a620 32bf af08 78be ba28 0c3f
00000140: 4bfe c23e ce42 1a3f 3591 203f f526 12be
00000150: f397 303f c413 1d3e a379 233f 1e02 0f3f
00000160: a0f0 8ebc 0c69 0abf 939d fabe c80c 693e
00000170: 137f c53e d3c9 21be bb47 42bf 6614 473e
00000180: 1843 01be e9ec 16bf b12f ddbe 47e2 4cbd
00000190: 0cba 463e 49fd b2be b0b3 fbbe 2a59 39bf
000001a0: 670f d1be cc28 febe cb33 0e3e e28f d73d
000001b0: f62c 0d3f f301 66bd 5bba 1fbc 1530 233f
000001c0: b63f 243d 9e91 d5be 7484 0c3d 0532 263f
000001d0: 49f6 09bf 1e14 b23e f6a8 83be 63c1 eebe
000001e0: 7de1 233e 970c b1be b010 3e3e 7465 2cbe
000001f0: c037 213f 7548 6cbd d657 c93e c4a7 6ebe
00000200: 815b 2e3f 1b19 273e b979 353f 4108 663e
00000210: 6a84 3d3b 404d 98be 7690 f8be ab9d 05be
00000220: 30d0 b4bd ece5 243e f70a 903d bdf7 533e
00000230: 1b9e 9f3e 91ea 1cbf 23d0 d43e 3bad 80be
00000240: f86e 51bf ba2f 8abe 0210 0abf 9d4e fe3e
00000250: 64e7 de3e cc9b c73d 9036 12bf 1635 ae3e
00000260: ae52 1a3f b0f0 163f 59df 12bf aaf5 0abf
00000270: f589 dcbe 4309 b2be c771 ee3e a9ea fa3e
00000280: cd34 1abf 5b86 dd3e d8a3 0abf 8967 043e
00000290: 28e4 1e3f c8d3 f43e 5730 253f f9b1 df3e
000002a0: 8ef9 e33d 39b2 27bf c6fc cf3e 3a21 dcbd
000002b0: f944 2c3f 6c72 143f 03dd c0be d0a9 afbe
000002c0: 2692 2b3c 8473 eb3e f3c3 893e 7bac 6fbe
000002d0: fb28 1f3f 8dc8 af3e 09bc e4be 62fb 26bf
000002e0: 9e3e 793e 2325 0fbf 3ba0 0ebf a168 5bbd
000002f0: 08f6 31be 10df 00be 43a8 2b3f 5206 1ebe
00000300: 4a72 e03e c914 29be 6f43 19bf df92 03bf
00000310: 001e 7d3d f089 153f c65d e5be 9b10 f73e
00000320: a5d8 23bd f0f2 d3be 640c 613e 5e1c dcbe
00000330: 305f aabe d6af ee3e 04f5 e53e c50b debe
00000340: fdcb db3e 3a7b 1b3f 3f81 2bbf 27d4 ed3d
00000350: 5927 ab3e d369 a43d 73be c2bc 0eff f03e
00000360: e1c4 f9be 3c36 dcbe 7cb1 5c3d e157 2e3f
00000370: 43f6 6b3e b9df f03e 2263 013f 9967 e6be
00000380: 8df4 07bf 011a e1bd 68b3 1d3f f545 27bf
00000390: 4b15 db3e 79bc cabb 3221 183f 3654 bebd
000003a0: 238a c93e 338a 393f bdf0 603e e3bb d1be
000003b0: ab5a b4be dfc4 663e 2567 973e f63f 723e
000003c0: 73b4 abbe 93e2 4fbe 5493 f73e 599f f8be
000003d0: 796e 43bd 6848 e23e 6bab 2a3f aab5 0dbf
000003e0: d32d d1be fc70 033f 9c7a 04be 3058 eebd
000003f0: 387a aabe e3aa f83e 6e0e 563d c126 aabd

l1.bias f4 [256]
0.4779682 -0.6037232 0.010762852 0.5983248 -0.47495317 0.6265144 -0.6929564 -0.65079135
-0.53526795 0.6246834 -0.052789845 -0.59274995 -0.7395941 -0.20708936 0.7605509 0.41249728
0.09521004 0.2471745 -0.4298214 0.700358 0.25548565 0.66626567 0.11118448 -0.08079713
0.2748097 0.6950917 0.58652204 0.17878121 -0.08002908 0.5547674 -0.36559886 -0.5936434
0.677276 -0.19660439 -0.39442292 -0.35785455 0.69849706 0.23915261 0.00064213463 -0.26751664
-0.0337375 -0.06780808 0.6734347 0.3690942 -0.55748785 0.55663425 0.1847106 -0.045586687
-0.6667922 0.3935542 -0.14423221 -0.54516715 0.50534034 0.65976703 0.3720228 0.11899287
0.33199698 -0.32863846 -0.10584526 0.25612536 0.43055087 -0.51485074 -0.010245651 -0.30306602
-0.19196871 0.09202193 0.61861074 -0.04783333 -0.6718919 -0.018789805 0.28721085 -0.31994626
-0.24628595 0.24906482 0.61564064 -0.103215985 -0.37967196 0.03652546 -0.0020775604 0.2657879
-0.124319814 0.00050975353 0.20671761 -0.6749629 -0.09402233 -0.4562112 -0.37589845 0.010310877
0.15294832 -0.11448975 -0.67940485 0.60592294 -0.06876343 0.5208498 -0.5002674 -0.6499632
-0.33699822 0.010380828 0.45505425 -0.17927311 0.55055326 0.060908407 -0.19628444 0.17717654
-0.14170046 0.39750916 0.609867 0.6824136 0.008138817 0.27827176 -0.0019909446 0.65131575
-0.18141857 0.5340556 0.40321264 0.43614304 -0.4035471 0.05444001 -0.05624684 -0.32319134
0.3372458 0.089178115 0.5600302 -0.51195586 0.65410423 -0.65759605 0.5239029 0.45350137
-0.5236541 -0.52647096 -0.27160555 -0.37086776 -0.3398477 0.42303032 -0.36509833 -0.41930294
0.643656 -0.227732 -0.042757686 -0.19500847 0.02479548 0.3068223 -0.4940999 0.3430734
-0.06926096 -0.5972682 -0.594728 0.5273905 -0.6768194 -0.096662186 -0.47670132 0.31856254
0.5988397 0.45919642 0.53418094 -0.52727526 -0.21029727 0.63615596 0.29003388 -0.6474736
-0.15982851 0.57738453 0.45177948 -0.35835224 -0.5669195 -0.1580806 0.11919741 -0.094565034
-0.44966474 -0.25383785 -0.06231378 0.65268993 -0.23566252 -0.027899167 0.23702191 -0.11214393
0.34458074 -0.5966556 0.26753467 0.19732897 -0.14308593 0.6680015 0.61404514 -0.40966
0.0558874 0.51134306 0.34330285 0.58920866 -0.6053211 -0.016914645 -0.5918006 0.39700365
0.560016 -0.5220246 0.6539819 0.43369898 0.30499336 0.67317474 -0.21114516 -0.14601089
-0.40501216 -0.36672527 0.036520306 0.62661666 0.35272017 0.68754154 -0.13580461 -0.52467185
0.09879442 0.3120914 0.63801134 0.1215705 0.0024510515 -0.4155865 0.34724432 -0.19914807
-0.13153838 0.077347845 0.61960214 -0.6615864 0.0713961 0.197569 0.082412794 0.47687387
0.27024326 0.67762 -0.19809467 -0.18353693 -0.4647066 0.18468617 0.56469494 -0.23758855
0.5225355 0.108146966 -0.6331409 -0.49882552 -0.43103996 0.4191923 0.111654654 0.4188537
-0.46823722 -0.34358916 -0.68067247 0.2905281 -0.6574595 0.42631897 0.4991652 0.6618969
-0.0025511254 -0.10433807 0.29023972 -0.3255965 0.47730598 0.37357926 -0.28252643 0.27779666
00000000: 3fb8 f43e 9b8d 1abf ac56 303c d02b 193f
00000010: 102d f3be 3f63 203f 9765 31bf 439a 26bf
00000020: 5207 09bf 40eb 1f3f 2a3a 58bd 76be 17bf
00000030: 0a56 3dbf 3c0f 54be 77b3 423f d832 d33e
00000040: 7bfd c23d 501b 7d3e 8d11 dcbe a94a 333f
00000050: 04cf 823e 6390 2a3f b0b4 e33d f778 a5bd
00000060: dbb3 8c3e 88f1 313f 4f26 163f 6c12 373e
00000070: 49e6 a3bd 3c05 0e3f c62f bbbe 04f9 17bf
00000080: f661 2d3f a952 49be cdf1 c9be b638 b7be
00000090: b4d0 323f 6ce4 743e ed54 283a f1f7 88be
000000a0: 5530 0abd f6de 8abd 3766 2c3f eaf9 bc3e
000000b0: 86b7 0ebf 957f 0e3f c724 3d3e 1bb9 3abd
000000c0: e5b2 2abf f07f c93e 9cb1 13be 1390 0bbf
000000d0: fc5d 013f 7ee6 283f c679 be3e 89b2 f33d
000000e0: 82fb a93e 4d43 a8be 66c5 d8bd dd22 833e
000000f0: 2a71 dc3e 42cd 03bf 60dd 27bc 782b 9bbe
00000100: 7293 44be fe75 bc3d 465d 1e3f e2ec 43bd
00000110: 1c01 2cbf 14ed 99bc 4d0d 933e ffcf a3be
00000120: 6232 7cbe d90a 7f3e a09a 1d3f e762 d3bd
00000130: 5d64 c2be b99b 153d ae27 08bb 5a15 883e
00000140: 639b febd fba0 053a c8ad 533e 5eca 2cbf
00000150: c88e c0bd 8494 e9be c375 c0be f4ee 283c
00000160: 7c9e 1c3e 9a79 eabd 7aed 2dbf c41d 1b3f
00000170: d7d3 8cbd 6a56 053f 8611 00bf fd63 26bf
00000180: 088b acbe 5914 2a3c dffc e83e 5f93 37be
00000190: 0ff1 0c3f 187b 793d cafe 48be c46d 353e
000001a0: ed19 11be 5286 cb3e 3e20 1c3f a8b2 2e3f
000001b0: ac58 053c a379 8e3e 827a 02bb a1bc 263f
000001c0: cac5 39be deb7 083f e371 ce3e 244e df3e
000001d0: ba9d cebe 7dfc 5e3d 1663 66bd 5679 a5be
000001e0: 7bab ac3e 04a3 b63d 245e 0f3f 8a0f 03bf
000001f0: 6073 273f 3758 28bf 801e 063f 5531 e83e
00000200: 320e 06bf cdc6 06bf e20f 8bbe 61e2 bdbe
00000210: 8500 aebe 6e97 d83e 2bee babe e0ae d6be
00000220: a4c6 243f 9432 69be af22 2fbd 4db0 47be
00000230: e41f cb3c d017 9d3e a9fa fcbe 51a7 af3e
00000240: b1d8 8dbd 92e6 18bf 1840 18bf 1003 073f
00000250: 0944 2dbf d3f6 c5bd 3212 f4be a11a a33e
00000260: 8f4d 193f cb1b eb3e 15c0 083f 83fb 06bf
00000270: 2b58 57be 1edb 223f 527f 943e d4c0 25bf
00000280: 16aa 23be 79cf 133f a44f e73e f279 b7be
00000290: a321 11bf e1df 21be c61d f43d 50ab c1bd
000002a0: 753a e6be 09f7 81be bc3c 7fbd b016 273f
000002b0: 8451 71be cb8c e4bc dfb5 723e b7ab e5bd
000002c0: e36c b03e 6cbe 18bf 4efa 883e 9b10 4a3e
000002d0: 1e85 12be 2502 2b3f 1032 1d3f f5be d1be
000002e0: 30ea 643d 61e7 023f 64c5 af3e 61d6 163f
000002f0: 53f6 1abf 9590 8abc 3e80 17bf 1044 cb3e
00000300: 355d 0f3f 67a3 05bf 5c6b 273f cb0d de3e
00000310: 1728 9c3e 2e55 2c3f 7036 58be e183 15be
00000320: c15d cfbe 6ac3 bbbe 5196 153d f369 203f
00000330: bd97 b43e b902 303f 5d10 0bbe e550 06bf
00000340: bb54 ca3d 72ca 9f3e b654 233f f4f9 f83d
00000350: d2a1 203b c1c7 d4be 02ca b13e 79ed 4bbe
00000360: ffb1 06be 8c68 9e3d 3f9e 1e3f ba5d 29bf
00000370: 1e38 923d 874f 4a3e 0ac8 a83d d028 f43e
00000380: 535d 8a3e 8178 2d3f 54d9 4abe 1bf1 3bbe
00000390: 06ee edbe 5f1e 3d3e d98f 103f 6a4a 73be
000003a0: e3c4 053f 287c dd3d 8615 22bf 0f66 ffbe
000003b0: 45b1 dcbe 60a0 d63e 32ab e43d fe73 d63e
000003c0: cabc efbe ebea afbe 8d40 2ebf 19c0 943e
000003d0: 444f 28bf 7b46 da3e 9592 ff3e 1372 293f
000003e0: c830 27bb 33af d5bd 4d9a 943e 96b4 a6be
000003f0: 7361 f43e c845 bf3e 4ea7 90be 5d3b 8e3e

lf.weight f4 [2, 256]
0.054057106 -0.08276819 0.099079475 -0.0062121223 -0.07263375 -0.04678983 0.006086886 0.09043805
-0.062356327 0.095102765 0.039696522 -0.06966449 0.10392196 0.019397393 0.1315177 0.13213284
-0.04512012 -0.08682313 0.08301588 -0.07811807 0.0070141163 -0.16298184 -0.024759086 0.048732545
0.080263935 0.026675299 0.061663765 -0.095355324 -0.0687163 0.05007448 -0.05932504 -0.056681823
-0.105854034 -0.030430738 -0.028764836 0.010857696 -0.121428914 0.06348306 0.08211771 -0.09253284
-0.022224952 -0.059314456 0.020390203 -0.045427535 0.03401827 -0.040201314 0.11509543 0.029612137
0.003051313 -0.032181676 -0.0033659386 0.087898634 0.003941342 0.096949056 -0.12056159 0.012997774
-0.110804744 0.0300201 0.05877248 0.07364488 -0.12838095 -0.113609016 -0.05551099 0.1497458
-0.06826875 -0.13106816 -0.027682893 -0.004970014 -0.00916194 -0.044942796 -0.045523807 0.07589122
-0.04846817 0.07944234 0.111020505 0.010056559 -0.041644897 0.1454266 0.08378474 -0.0828031
-0.05751791 -0.15922087 -0.09110019 0.09376191 0.014013 0.10367877 -0.10076416 0.055651728
-0.06493358 -0.16497621 0.109760106 0.005794282 -0.111490734 -0.043274477 -0.103268735 -0.071983784
-0.106497735 0.041472778 -0.011194542 -0.10178498 0.08746837 0.07989079 -0.11521157 0.09380971
0.043466244 0.013571467 0.12758704 0.07771254 0.16764148 -0.1079669 -0.073074244 0.022607572
-0.078587145 -0.037436493 -0.044420596 0.07787428 -0.11506431 0.041324627 -0.10160035 0.115402065
0.044567868 0.04203129 -0.041794814 0.12817419 0.058142133 0.055369876 -0.068677254 -0.020564586
0.0010072145 0.063452944 0.043017764 0.004663959 0.12004973 0.09970195 0.022902803 -0.052136563
0.009032659 -0.046979047 -0.01832308 -0.007348144 0.14288914 -0.11042204 -0.044573426 -0.019311331
0.10914874 -0.08570366 -0.04693882 0.06551346 0.04939753 0.017112581 -0.039783496 -0.08342097
-0.099843405 -0.034397095 0.049024835 0.034301516 -0.092161685 0.10336039 0.016421571 0.019460926
0.029778782 -0.11192994 -0.13374434 0.039041266 0.05923228 -0.02375294 -0.04259046 0.03623061
-0.09668577 0.052270047 0.030851126 0.1176414 -0.020010969 -0.0922866 -0.03603515 -0.108290784
0.020094583 0.035726655 0.008418713 -0.08369309 0.113465086 0.016968809 0.041354965 -0.0037065416
-0.08563664 -0.059461124 -0.007300131 -0.057016324 -0.033216912 0.07656111 -0.034537178 0.12862566
0.0945014 0.104657054 -0.06090977 -0.009971628 -0.025332734 0.06771207 0.0072769998 0.05540179
0.0942568 -0.01924046 -0.020589655 0.02645804 -0.04937507 -0.08257349 -0.020901201 0.0060788803
0.023844607 -0.06171167 -0.113397755 0.035168648 0.079311326 -0.033151973 0.017731406 -0.01761997
-0.108211115 0.06767914 -0.04321936 -0.11756535 -0.13135138 0.006222689 -0.06595524 -0.07111601
0.14061815 0.022034125 0.03786958 -0.002667673 -0.0072472445 -0.09926684 -0.030448964 0.09984417
-0.14327554 0.11349084 -0.07992055 0.10953223 0.03375045 -0.054269914 0.07574145 0.122820534
-0.04025288 -0.068406105 0.117007546 0.09454757 0.05944516 -0.07721863 -0.017204305 -0.03538755
-0.06656054 -0.08316982 0.06666786 -0.037498295 0.08013509 -0.12518688 0.006079659 -0.09816689
00000000: fc6a 5d3d 5e82 a9bd 2eea ca3d 0f8f cbbb
00000010: 01c1 94bd b1a6 3fbd 8074 c73b 9637 b93d
00000020: 5969 7fbd 3dc5 c23d d298 223d 42ac 8ebd
00000030: 09d5 d43d 48e7 9e3c 93ac 063e d54d 073e
00000040: e0cf 38bd 53d0 b1bd 3b04 aa3d 5efc 9fbd
00000050: acd6 e53b b6e4 26be 91d3 cabc c79b 473d
00000060: 6b61 a43d 2886 da3c 2593 7c3d a749 c3bd
00000070: 22bb 8cbd e61a 4d3d d0fe 72bd 332b 68bd
00000080: 00ca d8bd e249 f9bc 3ca4 ebbc 7ae4 313c
00000090: b9af f8bd 6803 823d 542d a83d dc81 bdbd
000000a0: 1a11 b6bc b7f3 72bd 5b09 a73c 3912 3abd
000000b0: be56 0b3d 22aa 24bd 27b7 eb3d 2795 f23c
000000c0: 8af8 473b efd0 03bd 1497 5cbb 3304 b43d
000000d0: 5f26 813b 3a8d c63d ffe8 f6bd 9ef4 543c
000000e0: 99ed e2bd b6ec f53c 69bb 703d 20d3 963d
000000f0: 4c76 03be d8ab e8bd 7e5f 63bd f756 193e
00000100: 7dd0 8bbd bb36 06be 3cc7 e2bc 80db a2bb
00000110: f61b 16bc f015 38bd 2c77 3abd db6c 9b3d
00000120: 8f86 46bd aab2 a23d b85e e33d 44c4 243c
00000130: d793 2abd b6ea 143e 5597 ab3d ac94 a9bd
00000140: e697 6bbd cc0a 23be bd92 babd 3f06 c03d
00000150: c896 653c 8955 d43d 715d cebd 11f3 633d
00000160: e6fb 84bd 86ef 28be e8c9 e03d f6dd bd3b
00000170: 4155 e4bd 9440 31bd 8f7e d3bd 3c6c 93bd
00000180: 7c1b dabd 5cdf 293d 5069 37bc a574 d0bd
00000190: 9e22 b33d c89d a33d 0bf4 ebbd 4e1f c03d
000001a0: a909 323d dc5a 5e3c 2da6 023e c127 9f3d
000001b0: 35aa 2b3e c01d ddbd f3a7 95bd 8433 b93c
000001c0: 4cf2 a0bd 0257 19bd 5ff2 35bd 8d7c 9f3d
000001d0: d6a6 ebbd 0344 293d d813 d0bd eb57 ec3d
000001e0: cc8c 363d 0029 2c3d 0a31 2bbd 1840 033e
000001f0: 7226 6e3d 86cb 623d a9a6 8cbd 1077 a8bc
00000200: 8304 843a 9ef3 813d 6533 303d 20d4 983b
00000210: a2dc f53d 8930 cc3d a99e bb3c 268d 55bd
00000220: b8fd 133c 1a6d 40bd 491a 96bc b3c8 f0bb
00000230: 8851 123e f324 e2bd a092 36bd cc32 9ebc
00000240: 6089 df3d 6785 afbd ec42 40bd ec2b 863d
00000250: 1055 4a3d af2f 8c3c 05f4 22bd 9dd8 aabd
00000260: b37a ccbd f8e3 0cbd 44ce 483d bf7f 0c3d
00000270: 44bf bcbd 9dae d33d 8886 863c 856c 9f3c
00000280: a2f2 f33c 863b e5bd 47f4 08be bce9 1f3d
00000290: 8c9d 723d 8795 c2bc 5673 2ebd 8c66 143d
000002a0: 3003 c6bd 1e19 563d 80bb fc3c f9ed f03d
000002b0: 0bee a3bc c200 bdbd 9899 13bd 8fc7 ddbd
000002c0: 659d a43c 1d56 123d a4ee 093c 4867 abbd
000002d0: 6260 e83d 2c02 8b3c d363 293d 73e9 72bb
000002e0: 4362 afbd 828d 73bd f035 efbb f389 69bd
000002f0: 750e 08bd 12cc 9c3d db76 0dbd 72b6 033e
00000300: f389 c13d 7056 d63d 867c 79bd 0a60 23bc
00000310: 9886 cfbc a0ac 8a3d e673 ee3b fdec 623d
00000320: b609 c13d 2b9e 9dbc a3ab a8bc 88be d83c
00000330: 833d 4abd 4a1c a9bd ff38 abbc 5831 c73b
00000340: c455 c33c 60c5 7cbd 153d e8bd 000d 103d
00000350: fa6d a23d 5dca 07bd 7441 913c c157 90bc
00000360: ca9d ddbd 5c9b 8a3d c906 31bd 1ac6 f0bd
00000370: fa80 06be b3e7 cb3b 8a13 87bd 45a5 91bd
00000380: 34fe 0f3e e980 b43c 221d 1b3d 20d4 2ebb
00000390: 4b7a edbb 6a4c cbbd 1b70 f9bc 1a7b cc3d
000003a0: d3b6 12be e36d e83d 63ad a3bd 6f52 e03d
000003b0: e93d 0a3d 214a 5ebd 551e 9b3d 5589 fb3d
000003c0: 34e0 24bd 8018 8cbd a7a1 ef3d 28a2 c13d
000003d0: c57c 733d cd24 9ebd 0bf0 8cbc 89f2 10bd
000003e0: e450 88bd f054 aabd 2989 883d d097 19bd
000003f0: de1d a43d fd30 00be e037 c73b b90b c9bd

lf.bias f4 [2]
0.04160737 0.0051733516
00000000: 7d6c 2a3d 3885 a93b
