TABULAR/Figure1Reproduce/Poisoned/ADULT_FCN_e=0.0_g=0.1_a=1.0_l=2_h=256_s=True_p=0.9.pt (torch, 332951 bytes, 10 tensors)

lays.0.weight f4 [256, 63]
0	0x3a1be4a8	0.0005946853
1	0x3a1ab540	0.0005901642
2	0xba1bf708	-0.0005949591
3	0xbaf20de8	-0.0018467279
4	0xba1c6918	-0.0005966588
5	0xba402d64	-0.00073309825
6	0xba1a8650	-0.0005894648
7	0xba1a81b0	-0.0005893959
8	0xba1a8650	-0.0005894648
9	0x3af14340	0.0018406883
10	0x3a1a7130	0.00058915
11	0xba1a8230	-0.0005894033
12	0xba1a6e90	-0.0005891109
13	0x3a1a6df0	0.0005891016
14	0xbaf0bd04	-0.0018366878
15	0x3af0c2f4	0.0018368647
16	0x3a1a6f90	0.0005891258
17	0x3a408a18	0.00073447963
18	0x3a1a6f10	0.00058911834
19	0x3a1a81b0	0.0005893959
20	0xbaf14340	-0.0018406883
21	0xba1d0b88	-0.0005990793
22	0xba1a6ef0	-0.0005891165
23	0xba1a8230	-0.0005894033
24	0xbb12f6b7	-0.0022424886
25	0x3a1a6e90	0.0005891109
26	0xba443560	-0.000748476
27	0x3a1a6dd0	0.0005890997
28	0xba1a7130	-0.00058915
29	0xba1a8750	-0.0005894797
30	0xba1a8230	-0.0005894033
31	0xba43c490	-0.000746795
32	0x3a1a714c	0.00058915163
33	0x3af0bb3e	0.0018366349
34	0x3a1a8a10	0.00058952067
35	0x3a1a7170	0.00058915373
36	0xba1a76ec	-0.00058923545
37	0xba1a8650	-0.0005894648
38	0x3a1a6f90	0.0005891258
39	0x3af0d740	0.0018374696
40	0xba1a7838	-0.0005892548
41	0xba1a7130	-0.00058915
42	0x3af0d156	0.0018372934
43	0xbaf146e0	-0.0018407963
44	0x3a1a8230	0.0005894033
45	0x3af0bfb2	0.0018367677
46	0x3a1a85d0	0.00058945734
47	0x3b11ac3b	0.0022227901
48	0x3b130038	0.002243055
49	0x3af0b9be	0.0018365902
50	0xbaf0bc1e	-0.001836661
51	0xba1a57a8	-0.00058876956
52	0x3a1a7130	0.00058915
53	0x3a1a6e90	0.0005891109
54	0x3a1a6a94	0.0005890515
55	0xba178f5c	-0.0005781555
56	0x3a1a7130	0.00058915
57	0x3af0d042	0.0018372613
58	0xbb11b122	-0.0022230824
59	0x3a1a81b0	0.0005893959
60	0xba1a7e38	-0.0005893442
61	0x3a1a8734	0.00058947806
62	0x3a1a8734	0.00058947806
63	0x3c6359cf	0.0138763925
64	0x3c42a93e	0.011881171
65	0xbc42a978	-0.011881225
66	0xbc634cd4	-0.013873298
67	0x3c636e4c	0.013881277
68	0xbc635ca4	-0.013877068
69	0xbc635638	-0.013875537
70	0xbc635562	-0.013875337
71	0x3c636d4a	0.013881037
72	0xbc635ae6	-0.013876652
73	0x3c6356de	0.013875691
74	0x3c6356e4	0.013875697
75	0xbc6370fd	-0.013881919
76	0xbc6369df	-0.013880222
77	0x3c636f72	0.013881551
78	0xbc636b8a	-0.01388062
79	0xbc6356fc	-0.013875719
80	0xbc634eb1	-0.013873742
81	0x3c635752	0.013875799
82	0xbc635afa	-0.013876671
83	0x3c63565c	0.01387557
84	0xbc635968	-0.013876297
85	0xbc635662	-0.013875576
86	0xbc635af2	-0.0138766635
87	0xbc635d58	-0.013877235
88	0x3c635ac8	0.013876624
89	0x3c635264	0.013874624
90	0x3c636f12	0.013881462
91	0xbc635768	-0.01387582
92	0x3c635446	0.013875073
93	0xbc635b02	-0.013876678
94	0xbc635718	-0.013875745
95	0x3c635aa0	0.013876587
96	0xbc42a949	-0.011881181
97	0x3c635919	0.013876223
98	0xbc636a74	-0.013880361
99	0xbc636bc9	-0.013880678
100	0x3c635b70	0.013876781
101	0xbc6356cd	-0.013875675
102	0x3c63583c	0.013876017
103	0xbc635464	-0.013875101
104	0xbc636e7a	-0.01388132
105	0xbc635606	-0.01387549
106	0xbc635648	-0.0138755515
107	0xbc636e98	-0.013881348
108	0xbc63597e	-0.013876317
109	0xbc635a60	-0.013876528
110	0xbc632e32	-0.013865994
111	0x3c63553c	0.013875302
112	0x3c634f32	0.013873862
113	0x3c636ffc	0.01388168
114	0x3c634f0c	0.013873827
115	0x3c42a766	0.011880731
116	0x3c635ad5	0.0138766365
117	0xbc6356d2	-0.01387568
118	0x3c633118	0.013866685
119	0xbc636d9e	-0.013881115
120	0x3c636ab0	0.013880417
121	0x3c631bd6	0.013861617
122	0xbc635acf	-0.013876631
123	0x3c635468	0.0138751045
124	0xbc635956	-0.01387628
125	0xbc636eae	-0.013881369
126	0x3b0c5a9b	0.002141631
127	0x3b0c6217	0.002142077
128	0x3b0c6217	0.002142077
129	0xbb0c5055	-0.0021410186
130	0xbb0c5e45	-0.0021418494
131	0xbb0c52e0	-0.0021411702
132	0x3b0c5424	0.0021412456
133	0xbb0c53fe	-0.0021412368
134	0x3b0c54b7	0.0021412799
135	0x3b0c6217	0.002142077
136	0xbb0c6217	-0.002142077
137	0x3b0c6217	0.002142077
138	0xbb0c61f7	-0.0021420696
139	0xbb0c54f7	-0.0021412948
140	0x3b0c61f7	0.0021420696
141	0xbb0c61f7	-0.0021420696
142	0x3b0c61f7	0.0021420696
143	0x3b0c5233	0.00214113
144	0x3b0c61f7	0.0021420696
145	0x3b0c6217	0.002142077
146	0x3b0c6217	0.002142077
147	0xbb0c5e17	-0.0021418387
148	0xbb0c52f7	-0.0021411756
149	0x3b0c6217	0.002142077
150	0x3b0c683f	0.002142444
151	0xbb0c6217	-0.002142077
152	0x3b0c5752	0.0021414352
153	0x3b0c55f0	0.0021413527
154	0xbb0c61f7	-0.0021420696
155	0x3b0c683b	0.002142443
156	0x3b0c6217	0.002142077
157	0xbb0c51c2	-0.0021411036
158	0xbb0c30b7	-0.002139134
159	0xbb0c6497	-0.002142226
160	0x3b0c6017	0.0021419579
161	0x3b0c5d1b	0.00214178
162	0xbb0c60c5	-0.0021419984
163	0xbb0c6217	-0.002142077
164	0xbb0c6497	-0.002142226
165	0xbb0c66b7	-0.0021423528
166	0xbb0c62b0	-0.0021421127
167	0x3b0c61f7	0.0021420696
168	0xbb0c54b7	-0.0021412799
169	0xbb0c6217	-0.002142077
170	0xbb0c61f7	-0.0021420696
171	0xbb0c5604	-0.0021413574
172	0x3b0c61f7	0.0021420696
173	0xbb0c5e07	-0.002141835
174	0x3b0c5625	0.002141365
175	0x3b0c4e5f	0.0021409017
176	0x3b0c66b7	0.0021423528
177	0x3b0c5657	0.0021413767
178	0xbb0c6497	-0.002142226
179	0xbb0c61f7	-0.0021420696
180	0x3b0c53dd	0.002141229
181	0xbb0c5222	-0.002141126
182	0xbb0c55a8	-0.002141336
183	0xbb0c6217	-0.002142077
184	0x3b0c5c26	0.002141723
185	0x3b0c6497	0.002142226
186	0xbb0c6269	-0.0021420962
187	0xbb0c53b2	-0.002141219
188	0x3b0c5312	0.0021411818
189	0xbc484e48	-0.012225695
190	0x3c4858bc	0.012228187
191	0xbc4857b0	-0.012227938
192	0xbc48342e	-0.012219472
193	0xbc4851d3	-0.01222654
194	0xbc483cb0	-0.0122215
195	0xbc4857c4	-0.012227956
196	0xbc48594b	-0.01222832
197	0xbc485883	-0.012228134
198	0xbc485878	-0.012228124
199	0xbc485809	-0.0122280205
200	0xbc485823	-0.012228045
201	0xbc485814	-0.012228031
202	0xbc48595e	-0.012228338
203	0x3c4858b5	0.012228181
204	0xbc47bb68	-0.012190677
205	0xbc485747	-0.01222784
206	0x3c480fd2	0.012210803
207	0xbc4851a8	-0.0122265
208	0x3c485870	0.012228116
209	0x3c4858e1	0.012228222
210	0xbc485810	-0.012228027
211	0x3c4857c5	0.012227957
212	0xbc4856be	-0.012227712
213	0xbc47fbdc	-0.012206044
214	0x3c47b838	0.012189917
215	0xbc4854d3	-0.012227255
216	0x3c4858b1	0.012228177
217	0xbc485880	-0.012228131
218	0xbc4856e3	-0.012227747
219	0x3c485810	0.012228027
220	0x3c48585c	0.012228098
221	0xbc48541e	-0.012227086
222	0x3c48585c	0.012228098
223	0xbc4858ce	-0.012228204
224	0x3c48562c	0.012227576
225	0xbc4845e8	-0.012223698
226	0x3c485870	0.012228116
227	0xbc485347	-0.012226886
228	0xbc483df6	-0.012221804
229	0x3c4858a7	0.012228168
230	0xbc485870	-0.012228116
231	0x3c484c49	0.012225219
232	0xbc485804	-0.012228016
233	0xbc48582f	-0.012228056
234	0x3c47ba90	0.012190476
235	0xbc48580a	-0.012228021
236	0x3c4818cd	0.012212944
237	0xbc48254d	-0.012215924
238	0x3c485713	0.012227791
239	0x3c48580d	0.012228024
240	0x3c48568e	0.0122276675
241	0x3c4857df	0.012227981
242	0xbc485bd1	-0.012228922
243	0xbc485b2f	-0.012228771
244	0x3c47f7e5	0.012205099
245	0x3c48584f	0.012228086
246	0xbc485731	-0.012227819
247	0xbc482e03	-0.012218001
248	0xbc47bad8	-0.012190543
249	0x3c483c04	0.01222134
250	0xbc4857a5	-0.012227927
251	0xbc485869	-0.01222811
252	0xbca35ed4	-0.019942679
253	0x3ca3a53a	0.019976247
254	0x3ca39bc8	0.019971743
255	0xbc642498	-0.01392474

lays.0.bias f4 [256]
0	0xbf4486d9	-0.7676826
1	0xbf239f59	-0.6391502
2	0xbf7c32c3	-0.98514956
3	0xbf6e3051	-0.93042475
4	0xbf58cea2	-0.84690297
5	0xbf44baec	-0.7684772
6	0xbf169ae5	-0.588301
7	0xbf253df2	-0.64547646
8	0xbf6a6d45	-0.9157298
9	0xbf16f977	-0.58974403
10	0xbeb484bb	-0.35257515
11	0xbf7f9c28	-0.9984765
12	0xbfa1cfcd	-1.2641541
13	0xbf9e7b85	-1.2381445
14	0xbf43d90d	-0.7650307
15	0xbfbc76df	-1.4723777
16	0xbf8a00b5	-1.0781466
17	0xbf5de248	-0.866734
18	0xbf638d5e	-0.88887584
19	0x3fd3eefe	1.655731
20	0xbf44f06c	-0.76929355
21	0xbfa20e83	-1.2660679
22	0xbf1a9af7	-0.6039271
23	0xbf32ef3a	-0.6989628
24	0xbf314a2b	-0.69253796
25	0xbf7a8fca	-0.97875655
26	0xbfa1b0fb	-1.2632135
27	0xbf1d8ada	-0.61539996
28	0xbf2be010	-0.6713877
29	0xbf7d16dc	-0.98863006
30	0xbf327004	-0.6970217
31	0xbfe7ee58	-1.8119612
32	0xbf2fa504	-0.6861117
33	0xbf449835	-0.7679475
34	0xbf92244f	-1.141733
35	0xbf57bf9d	-0.84276754
36	0xbf7abada	-0.9794136
37	0xbf6761ef	-0.9038381
38	0xbf9ead2f	-1.2396601
39	0xbec2b1fb	-0.38026413
40	0xbf770756	-0.9649557
41	0x40285442	2.6301427
42	0xbfc865db	-1.5656084
43	0xbfa306e6	-1.273648
44	0xbf9575e9	-1.1676608
45	0xbfb4cae1	-1.4124414
46	0xbf5a77fe	-0.85339344
47	0xbf6b33fe	-0.9187621
48	0xbf7a269d	-0.9771517
49	0xbf8adf8f	-1.0849475
50	0xbf144d26	-0.5793022
51	0xbfaa554b	-1.3307279
52	0xbec648f0	-0.38727522
53	0xbfa77387	-1.3082131
54	0xbf34c8c1	-0.70618826
55	0xbebb79ad	-0.3661627
56	0xbf3a8c84	-0.7287066
57	0xbfaf316f	-1.3686961
58	0xbf66f47c	-0.90216804
59	0xbf2bd9af	-0.67129034
60	0xbf868b02	-1.0511172
61	0xbf91d20f	-1.139223
62	0xbf0129af	-0.5045423
63	0xbf899d5d	-1.0751148
64	0xbed702ec	-0.41994417
65	0xbf7d74a8	-0.9900613
66	0xbf34de9b	-0.7065217
67	0xbf318674	-0.69345784
68	0xbf867c6b	-1.0506719
69	0xbfc69dad	-1.5516869
70	0xbf93f4ac	-1.1559043
71	0xbee71fdb	-0.4514149
72	0x40312d43	2.7683876
73	0xbf82f3df	-1.0230674
74	0xbfa6179e	-1.2975957
75	0xbfb4b976	-1.4119098
76	0xbf41f644	-0.75766397
77	0xbf677afe	-0.90422046
78	0xbf349823	-0.7054464
79	0xbf64e0a9	-0.89405304
80	0xbf829cb7	-1.0204076
81	0xbf787d0e	-0.9706582
82	0xbf9eeec6	-1.2416618
83	0xbf827a6a	-1.0193608
84	0xbf440797	-0.7657408
85	0xbf107a35	-0.56436473
86	0xbf430247	-0.7617535
87	0xbf64d63e	-0.8938941
88	0xbfc7c1f2	-1.5606062
89	0xbf1abd2c	-0.60444903
90	0xbf95b424	-1.16956
91	0xbf5f7fc2	-0.8730432
92	0xbf22e354	-0.63628125
93	0xbf7a55f7	-0.9778742
94	0xbfd07554	-1.6285806
95	0xbf21ca98	-0.6319976
96	0xbf5a9e0b	-0.85397404
97	0xbf605dd2	-0.8764316
98	0xbf2aa51f	-0.66658205
99	0xbf7ff6b6	-0.99985826
100	0xbf37df03	-0.71824664
101	0xbf3acca1	-0.7296849
102	0xbf279e20	-0.65475655
103	0xbf960c98	-1.1722593
104	0xbf7959ea	-0.9740282
105	0xbecdbce8	-0.40183187
106	0xbf622095	-0.88330966
107	0xbf936a15	-1.1516749
108	0xbf5e9b75	-0.8695596
109	0xbf51e01b	-0.8198258
110	0xbf6c365b	-0.9227044
111	0xbf8c13d8	-1.0943556
112	0xbee3b53a	-0.44474202
113	0xbfe035a8	-1.7516375
114	0x40044ff6	2.0673804
115	0xbf759422	-0.9592916
116	0xbf5689c8	-0.8380399
117	0xbef45b61	-0.47725967
118	0xbfc89c35	-1.5672671
119	0xbf34194f	-0.7035112
120	0x3fef1899	1.8679382
121	0xbfa8e123	-1.3193706
122	0xbf81e56f	-1.0148143
123	0xbf717071	-0.94312197
124	0xbfc71210	-1.5552387
125	0xbf2656f0	-0.64976406
126	0xbfb967c5	-1.4484793
127	0xbfaeabbf	-1.3646163
128	0xbf714a6a	-0.9425417
129	0xbf9f9545	-1.2467428
130	0xbf8427de	-1.0324667
131	0xbf2734d7	-0.65315
132	0xbf8ad711	-1.0846883
133	0xbf3c4348	-0.73540163
134	0xbe63384f	-0.22189449
135	0xbf5f8861	-0.8731747
136	0xbf5db613	-0.8660595
137	0xbf803375	-1.0015703
138	0xbf32afd6	-0.69799554
139	0xbf9a7755	-1.2067667
140	0xbf6aa3e1	-0.9165631
141	0xbf0d97f0	-0.55309963
142	0xbf36a8ea	-0.7135149
143	0xbf32d107	-0.698502
144	0xbf7f6dcb	-0.99776906
145	0xbf0f743c	-0.56036735
146	0xbf68ac13	-0.90887564
147	0xbf5ff838	-0.87488127
148	0xbf315c18	-0.6928115
149	0xbf8ecbd4	-1.1155953
150	0xbf74c7cf	-0.95617384
151	0xbf6b641d	-0.91949636
152	0xbfba90d9	-1.4575454
153	0xbec27417	-0.37979195
154	0xbf78985c	-0.9710748
155	0xbfaac1a1	-1.3340341
156	0xbfc52871	-1.5402967
157	0xbfac7c63	-1.347546
158	0xbfade96b	-1.3586859
159	0xbfafe746	-1.3742454
160	0x3fd34914	1.6506677
161	0x3ebfb09d	0.37439433
162	0xbf44b716	-0.76841867
163	0xbf909dc5	-1.1298147
164	0xbee2da01	-0.4430695
165	0xbf3e9f15	-0.7446149
166	0xbf856290	-1.0420704
167	0xbf68c553	-0.9092609
168	0xbf8e9747	-1.1139916
169	0xbf2b88a6	-0.67005384
170	0xbf305915	-0.6888593
171	0xbf045697	-0.51694626
172	0xbf738ec6	-0.9513973
173	0xbeb033c7	-0.34414503
174	0xbf12feb3	-0.5741989
175	0xbf8ce2ea	-1.1006749
176	0xbf404b83	-0.7511522
177	0xbf3c8d6c	-0.7365329
178	0xbf284b54	-0.6573994
179	0xbf79f47a	-0.97638667
180	0xbfb8e2c5	-1.4444205
181	0xbf1c8c0f	-0.6115121
182	0xbfad5620	-1.3541908
183	0xbf8f807e	-1.1211088
184	0xbf8ac169	-1.0840274
185	0xbf574821	-0.84094435
186	0xbf66d9f9	-0.9017635
187	0xbf2159cf	-0.6302766
188	0xbf84e45c	-1.038219
189	0xbf3577a0	-0.7088566
190	0xbf980321	-1.1875955
191	0xbf96d818	-1.1784697
192	0xbf12e038	-0.5737338
193	0xbf136eb0	-0.5759077
194	0xbfcef4d9	-1.6168472
195	0xc008c203	-2.1368415
196	0xbfaf2891	-1.3684255
197	0xbfcb6fe3	-1.589352
198	0x3fb3fcf8	1.4061575
199	0xbf66dbe7	-0.90179294
200	0xbf906de5	-1.1283537
201	0xbfadc9ad	-1.3577172
202	0xbfb5c188	-1.4199686
203	0xbf08bb87	-0.53411144
204	0xbf51003b	-0.81640977
205	0xbf86fa17	-1.0545071
206	0xbef55916	-0.4791953
207	0xbf684cce	-0.90742195
208	0xbf82572a	-1.018285
209	0xbfadd2d4	-1.3579965
210	0xbe6d76c7	-0.23189841
211	0xbf235639	-0.6380344
212	0xbf573696	-0.84067667
213	0xbf5e1975	-0.86757594
214	0xbf8657ee	-1.0495584
215	0xbf911281	-1.1333772
216	0xbf60afc6	-0.8776821
217	0xbfaa1d4b	-1.329019
218	0xbf9739a5	-1.1814467
219	0xbfe97a33	-1.8240417
220	0xbf91d4bd	-1.1393048
221	0xbf19a346	-0.6001476
222	0xbf90104f	-1.1254977
223	0xbf8fbd01	-1.1229554
224	0xbf8f9a38	-1.1218939
225	0xbfda87b8	-1.7072668
226	0xbf27c6a8	-0.655375
227	0xbf07f04f	-0.53101057
228	0xbf52ebda	-0.8239113
229	0xbf2c99e4	-0.6742232
230	0xbf631870	-0.88709164
231	0xbf3bf9b1	-0.73427874
232	0xbf252e7b	-0.6452405
233	0xbf8164d3	-1.0108894
234	0xbee6897d	-0.4502677
235	0xbf85c42c	-1.0450492
236	0xbf7bdbd8	-0.9838233
237	0xbf42504d	-0.7590378
238	0xbf992ab2	-1.1966155
239	0xbf236f9d	-0.63842183
240	0xbef1dc76	-0.4723851
241	0xbf6e4d1d	-0.93086416
242	0xbf08d669	-0.53452164
243	0xbf990270	-1.1953869
244	0xbf8e8669	-1.1134769
245	0xbfae559e	-1.3619878
246	0xbf5ab4b6	-0.85431993
247	0xbef78ad0	-0.48348093
248	0xbf66aa02	-0.9010316
249	0xbf694f43	-0.9113657
250	0xbf888357	-1.0665082
251	0xbf5519f3	-0.8324272
252	0xbf6c7bc8	-0.92376375
253	0xbfc88251	-1.566477
254	0xbf2f43b4	-0.6846268
255	0xbf7e3ce0	-0.9931164

lays.1.weight f4 [256, 256]
0	0x3cb64852	0.022251282
1	0xbe9e659d	-0.309369
2	0xbae8f30c	-0.0017772629
3	0x3a69c6cc	0.00089178677
4	0x3d5ffd45	0.054684896
5	0x3bdcff2f	0.0067442874
6	0xbcc0a31d	-0.023515278
7	0xbca1cfce	-0.01975241
8	0xbbc5a399	-0.0060314653
9	0xb7f2d310	-2.8946932e-05
10	0xbe6d340e	-0.23164389
11	0xbce9982f	-0.02851495
12	0xbc8d63b1	-0.01725945
13	0xbbcb24ac	-0.00619944
14	0xbb211fe4	-0.0024585659
15	0xbb98fad9	-0.0046685752
16	0x3d22840d	0.039676715
17	0x3c7cd86b	0.015432457
18	0xbe7b7b04	-0.24558645
19	0xbed2ac89	-0.4114726
20	0xbba7b6f1	-0.005118244
21	0xbb3d4d20	-0.0028885081
22	0x3c020ed4	0.007938106
23	0xba68564f	-0.00088629586
24	0x3c4ea8d6	0.012613496
25	0x3c7d0671	0.01544343
26	0xbca28966	-0.019840907
27	0xbb82247b	-0.003971634
28	0xbc0296ea	-0.007970551
29	0x3be6e5ba	0.0070464285
30	0x3b300167	0.0026856305
31	0x3d0eafc3	0.03483559
32	0xbd1ee732	-0.038794704
33	0x3bef984a	0.0073118554
34	0xbe98f7fa	-0.2987669
35	0xbcc80f2d	-0.024421299
36	0xbcbf317d	-0.023339028
37	0x3b4c2464	0.003114962
38	0x3c936c17	0.017995877
39	0xbe9f80e4	-0.31153023
40	0xbb3c8e8c	-0.0028771488
41	0xbe97da45	-0.29658714
42	0x3c397e94	0.0113216825
43	0xbc53c3dc	-0.0129251145
44	0xbcb20fb3	-0.021736002
45	0x3bb39638	0.005480554
46	0x3cda53e5	0.026651332
47	0xbc011da3	-0.007880601
48	0x3c6adfcb	0.014335583
49	0x3c807ff8	0.01568602
50	0xba29a3f1	-0.00064712676
51	0x3c41d994	0.01183166
52	0xbe8aff82	-0.27148062
53	0x3beb2f92	0.0071773017
54	0xbc92d46d	-0.017923558
55	0xbea12936	-0.31476754
56	0xbba8ba28	-0.0051491447
57	0xbc4f9089	-0.012668737
58	0x3d440cd8	0.04786381
59	0xbd706aa5	-0.058695454
60	0x3b4e2210	0.0031453408
61	0x3d0af40b	0.033924144
62	0xbe719eb7	-0.23595701
63	0xbbc6bc45	-0.006064924
64	0xbe9d6462	-0.30740649
65	0x3a164594	0.0005732414
66	0xbc6ec096	-0.014572283
67	0x3c02dbfb	0.007987018
68	0xbe68926c	-0.22712106
69	0x3d8f57ae	0.069991454
70	0xbc4ad026	-0.012378728
71	0xbe96585f	-0.29364297
72	0xbeade188	-0.3396113
73	0xba447351	-0.000749399
74	0xbc3e0e69	-0.011600115
75	0xbb87022c	-0.004120132
76	0xbcc7de68	-0.024398044
77	0xbbc7a975	-0.006093199
78	0xbe96ed7c	-0.2947806
79	0x3c1b8acc	0.009493541
80	0x3ce44581	0.027865173
81	0xbd173bd4	-0.03692229
82	0x3b11c5d6	0.0022243164
83	0x3c9f7470	0.019464701
84	0xbd2033eb	-0.039112013
85	0x3c83d565	0.016092965
86	0x3ab4de02	0.0013799074
87	0x3cbd11b8	0.023079738
88	0x3b4fc489	0.0031702837
89	0xbe97fc59	-0.29684713
90	0xbbb2feff	-0.005462527
91	0xbd21ccad	-0.039501835
92	0xba12750d	-0.00055869
93	0x3a0a8963	0.00052847544
94	0x3d0558f7	0.032555547
95	0xbcd624dc	-0.026140623
96	0x3d2ac8fc	0.04169558
97	0xbc640027	-0.013916052
98	0x3b7c35c7	0.0038484202
99	0xbd082423	-0.033237588
100	0x3ab42323	0.0013743382
101	0xbca31666	-0.019908141
102	0x3d0aac9b	0.033856016
103	0x3dbfbb5c	0.09361908
104	0x3c323fe2	0.010879489
105	0xbea66069	-0.3249543
106	0xbc920c39	-0.017828094
107	0xbe103a89	-0.1408483
108	0x3ac4848f	0.0014993119
109	0x3ba318c8	0.0049773194
110	0x3c3f454d	0.011674237
111	0xba98f412	-0.0011669418
112	0xbc54b6bb	-0.012983019
113	0xbc9df74f	-0.019282965
114	0xbea2bb78	-0.31783652
115	0x3cc3bb55	0.023893038
116	0x3a4c4500	0.0007792264
117	0xbd1ee2f2	-0.03879065
118	0xba65d835	-0.0008767874
119	0x3cf3c85b	0.029758623
120	0xbe996243	-0.2995778
121	0xbb30d374	-0.0026981505
122	0x3a8a377d	0.0010545101
123	0x3a404b44	0.0007335434
124	0x3bc62c27	0.006047744
125	0xbc47235e	-0.012154428
126	0xbb4eb74e	-0.0031542364
127	0xb8bbf1b2	-8.961874e-05
128	0xbddcef45	-0.107878245
129	0xbce1549b	-0.027506163
130	0xba543bfb	-0.0008096096
131	0xbaea3fdd	-0.0017871816
132	0x3c3a23e0	0.011361092
133	0xbac6af16	-0.0015158381
134	0xbe92e6e4	-0.2869178
135	0x3b68db53	0.0035531118
136	0xbcd051c7	-0.02542962
137	0x3b1c8321	0.002388187
138	0xbcaff091	-0.021477016
139	0x3cca0867	0.02466221
140	0xbaca522d	-0.0015435867
141	0x3c7977de	0.0152263325
142	0xbe4d1806	-0.20028695
143	0xbcc418b8	-0.023937568
144	0x3c4f90eb	0.0126688285
145	0x3d0311fc	0.031999573
146	0xbe9c2f7b	-0.30504975
147	0xbe967116	-0.29383153
148	0xbc2b995e	-0.010473577
149	0x3ab31322	0.0013662318
150	0xbd625bd6	-0.055263363
151	0x3c503fb2	0.012710499
152	0xbca79846	-0.020458352
153	0xbeaf4cf5	-0.342384
154	0x3c20b615	0.009809037
155	0xbc316325	-0.010826861
156	0x3b657733	0.0035013675
157	0x3a4b5d8b	0.00077577744
158	0xbc876959	-0.016529726
159	0xbb09c762	-0.0021023382
160	0xbeaa3931	-0.3324676
161	0xbea32cad	-0.31870022
162	0xbc5af506	-0.013364082
163	0xbbb255e3	-0.0054423674
164	0x3c00c9f3	0.007860648
165	0xbb06ab99	-0.0020549058
166	0xbd1426ad	-0.036169697
167	0xbbb9e9e5	-0.0056736344
168	0x3a667d87	0.0008792509
169	0x3ca806e4	0.020511098
170	0x3d10db28	0.035365254
171	0xbeb3ac55	-0.35092416
172	0xbc24bcd5	-0.010054787
173	0xbe9adebb	-0.30248055
174	0x3c7ee721	0.015558035
175	0x3cf2d07d	0.02964043
176	0xbb81c774	-0.0039605442
177	0xbe37b709	-0.17940916
178	0xbe82b85b	-0.25531277
179	0x3b58d59e	0.003308631
180	0x3b13d06f	0.0022554656
181	0xbe99ca51	-0.30037168
182	0xbd7c3204	-0.061571136
183	0xbca34636	-0.01993094
184	0xbc3c05b9	-0.011475974
185	0x3d4a11fb	0.049333554
186	0xbaec19ce	-0.0018013061
187	0x3c0b7694	0.008512158
188	0x3c1a5ff2	0.009422289
189	0x3a3b15d1	0.0007136735
190	0x3b217f2e	0.0024642455
191	0xbd8516a8	-0.06498462
192	0xbd7613ea	-0.060077585
193	0xb91eaaeb	-0.00015131726
194	0x3bcfc931	0.0063411226
195	0xbb9074df	-0.0044084634
196	0x3d0d48b8	0.034493178
197	0xbb21a225	-0.0024663296
198	0xbe9e5f4b	-0.30932078
199	0xbcf0791b	-0.029354623
200	0x3c3c9903	0.01151109
201	0x3bb94b9e	0.005654766
202	0x3ba254b0	0.004953943
203	0xbea22a21	-0.31672767
204	0x3a0ec00a	0.0005445486
205	0xbc5df64a	-0.013547489
206	0xbe8f4dc8	-0.2798903
207	0x3af1de76	0.0018453139
208	0x3c8d1978	0.017224059
209	0x3b8f6faf	0.0043773274
210	0xbea8ade0	-0.32945156
211	0xbc97e155	-0.018540064
212	0x3b8eaf51	0.0043543954
213	0x3c3ae3bc	0.011406835
214	0xbc0d347e	-0.008618472
215	0x3a63f1d9	0.0008695401
216	0xbeb1f240	-0.34755135
217	0xbca8ae1e	-0.020590838
218	0xbc10171f	-0.008794575
219	0xbc60ba75	-0.01371633
220	0x3b2c7446	0.0026314422
221	0xbe9ac2d5	-0.3022677
222	0xbbbfdd18	-0.005855214
223	0xbcacd7d8	-0.021099016
224	0xbcb3084e	-0.021854546
225	0xbcaa8920	-0.02081734
226	0xbbdf5018	-0.006814968
227	0xbea07ade	-0.3134374
228	0x3c569e18	0.013099216
229	0x3c32a098	0.010902546
230	0xbd274ab0	-0.040842712
231	0xbad577a3	-0.0016286265
232	0xba982777	-0.0011608441
233	0xbb8155f0	-0.003947012
234	0xbab5ce19	-0.0013870626
235	0xbb9f4844	-0.0048609097
236	0xbea23780	-0.31682968
237	0xbdadd1f4	-0.08487311
238	0x3b849c5b	0.0040469593
239	0x3ba60460	0.0050664395
240	0xbe6cd0f5	-0.23126586
241	0xbab0b77c	-0.0013482417
242	0xbea1bb40	-0.31588173
243	0x3c0cecf5	0.008601417
244	0x3cfb1a23	0.030652111
245	0x3d1e3c61	0.0386318
246	0xbb66196a	-0.0035110363
247	0xbea3da45	-0.32002464
248	0x3c96ddc1	0.018416287
249	0xbe9d7d5a	-0.30759698
250	0x3bc792a0	0.006090477
251	0x3d374836	0.0447466
252	0xbcb05640	-0.021525502
253	0xbae621c9	-0.0017557676
254	0x3c3f55d4	0.011678178
255	0xba86dce9	-0.0010289225

lays.1.bias f4 [256]
0	0xbe93e20c	-0.28883398
1	0xbe1d387f	-0.15353583
2	0xbf704d9a	-0.9386841
3	0xbd8d5067	-0.06900101
4	0xbdebd10c	-0.11514482
5	0x3dabbc41	0.08385516
6	0xbe7d8354	-0.24757129
7	0xbea01085	-0.31262603
8	0xbcb55b34	-0.022138216
9	0xbe1fc883	-0.15603833
10	0xbdd5f1b4	-0.10446492
11	0xbce42349	-0.027848857
12	0xbdbfa156	-0.09356944
13	0xbf4e65aa	-0.8062388
14	0x3cd86ba4	0.026418515
15	0xbddee1ed	-0.10882936
16	0xbe00c26b	-0.12574165
17	0xbdde03fc	-0.10840604
18	0xbd8c503a	-0.068512395
19	0xbdf672ba	-0.12033601
20	0xbc8883ba	-0.016664375
21	0xbca9ddd1	-0.020735653
22	0x3c12922a	0.008945981
23	0xbd2d9fcd	-0.042388726
24	0x3bccf86a	0.006255199
25	0xbdc7dbfb	-0.09758755
26	0xbd7bfb7c	-0.06151913
27	0xbd1f092e	-0.038827114
28	0x3d81b30b	0.06332978
29	0xbda18659	-0.07886953
30	0xbde5bb23	-0.11217334
31	0x4017baa1	2.370766
32	0xbe8de83b	-0.2771624
33	0xbd669be4	-0.056301013
34	0xbea2aeb3	-0.3177391
35	0xbee6e435	-0.45095983
36	0xbc870eb5	-0.016486505
37	0xbe02339f	-0.12715004
38	0xbdcb2be6	-0.09920482
39	0xbd40c56b	-0.047063272
40	0xbd999d06	-0.07500653
41	0xbeb53d97	-0.35398552
42	0xbe8fac17	-0.28060982
43	0xbd732b8c	-0.0593677
44	0x3a999a81	0.0011719019
45	0x3d01c2e6	0.03168001
46	0xbca1602a	-0.019699175
47	0x3df17ae7	0.1179102
48	0xbd3ab6d2	-0.045584507
49	0xbdbf4e64	-0.09341124
50	0x3e223c67	0.15843354
51	0xbc2f69c7	-0.010706372
52	0xbd22eade	-0.039774768
53	0x3e723d40	0.23656178
54	0xbdf20d06	-0.1181889
55	0xbf239029	-0.63891846
56	0xbebf69ef	-0.37385508
57	0xbdb1e077	-0.086853914
58	0xbcbaf50f	-0.022821931
59	0xbd6fe8a1	-0.05857146
60	0xbf47b403	-0.7800905
61	0xbe8ae5b6	-0.2712838
62	0xbd256854	-0.0403827
63	0xbf0cbd3a	-0.54976237
64	0xbe266c5a	-0.1625227
65	0xbee34115	-0.4438559
66	0xbd8bc5a4	-0.06824806
67	0xbc2a2500	-0.010384798
68	0xbefd9038	-0.49524093
69	0xbeb98ddc	-0.36241043
70	0xbec78ad8	-0.38973117
71	0xbd36cb65	-0.044627566
72	0xbd1a24d1	-0.037632767
73	0xbda5dadf	-0.08098387
74	0xbec5c07c	-0.38623416
75	0xbf50088d	-0.8126305
76	0xbf40e2e5	-0.75346214
77	0xbf4537be	-0.7703818
78	0xbde325f1	-0.11091221
79	0x3d954dec	0.07290253
80	0xbc84da4c	-0.016217373
81	0xbec7f7fd	-0.39056388
82	0xbeb0d92e	-0.34540695
83	0xbc92a602	-0.017901424
84	0xbe3ca5f1	-0.18422677
85	0xbdedbd6b	-0.11608394
86	0xbe9a476e	-0.30132622
87	0xbebe0915	-0.37116304
88	0xbd998407	-0.07495885
89	0xbcbb6df8	-0.022879586
90	0xbdc3feaf	-0.095700614
91	0xbc0cd393	-0.008595365
92	0xbf0025c2	-0.50057614
93	0xbd42276c	-0.047400877
94	0xbc7c62f8	-0.015404455
95	0xbe6de8a4	-0.23233277
96	0xbd194fb5	-0.03742953
97	0xbe11170a	-0.14168945
98	0xbdf1d590	-0.11808312
99	0xbeb88720	-0.36040592
100	0xbd4ff081	-0.05076647
101	0xbda42148	-0.080141604
102	0xbd42ea4d	-0.047586728
103	0xbcf88ff3	-0.030342078
104	0xbd2cffe5	-0.042236228
105	0xbdd37ec0	-0.1032691
106	0xbf39d038	-0.7258334
107	0xbdbfa964	-0.093584806
108	0xbc0a31ad	-0.008434695
109	0xbec3059e	-0.38090223
110	0xbce25866	-0.027630042
111	0xbe881854	-0.2658106
112	0xbf54e3de	-0.831602
113	0xbd73157e	-0.05934667
114	0xbd1ca2de	-0.03824126
115	0xbe80c47c	-0.25149906
116	0xbde46c99	-0.11153526
117	0xbdb50114	-0.08838096
118	0xbde38474	-0.11109248
119	0xbdaa48f3	-0.08314695
120	0xbd842f69	-0.06454355
121	0xbdc15e8a	-0.0944186
122	0xbdb7b383	-0.08969786
123	0xbeb33ffe	-0.3500976
124	0xbd9e3939	-0.07725758
125	0xbed4407c	-0.41455448
126	0xbc75ca9d	-0.01500192
127	0xbdbef4c9	-0.09324033
128	0xbd9d12ab	-0.07669576
129	0xbdf3961e	-0.11893867
130	0xbd946932	-0.07246627
131	0xbeaa3337	-0.332422
132	0xbdb5621b	-0.08856603
133	0xbdcee00f	-0.101013295
134	0xbfa348a1	-1.275654
135	0xbaf94fc2	-0.0019020962
136	0xbddfc03e	-0.10925339
137	0xbd281ec5	-0.04104497
138	0xbcbaaaff	-0.022786615
139	0xbef5c387	-0.48000738
140	0xbd6da469	-0.058018122
141	0xbdc2a9ea	-0.09505065
142	0xbd920d56	-0.0713145
143	0xbd750be4	-0.059825793
144	0xbd66157c	-0.056172833
145	0xbd991c11	-0.07476056
146	0xbd1de431	-0.0385477
147	0xbdb62bc3	-0.08895066
148	0xbc505182	-0.0127147455
149	0xbef379ce	-0.47553867
150	0xbeafda70	-0.34346342
151	0xbe90e228	-0.28297544
152	0xbc6f41ae	-0.014603062
153	0xbdded1c9	-0.10879857
154	0x3d774a95	0.06037386
155	0xbebc3349	-0.36757877
156	0xbde9d90a	-0.1141835
157	0xba488936	-0.00076498406
158	0xbd3481f7	-0.044069257
159	0xbdf2e2a0	-0.118596315
160	0xbdabc3d8	-0.083869636
161	0xbef6bf93	-0.48193035
162	0xbdbc71ee	-0.09201418
163	0x3e4a3b0a	0.19749084
164	0x3da51fde	0.08062719
165	0xbecd8b12	-0.40145165
166	0xbd79ed27	-0.06101718
167	0xbec5d946	-0.3864233
168	0xbdaa1a31	-0.08305777
169	0xbe391a53	-0.18076448
170	0xbe6faf82	-0.23406795
171	0x3d84c6f0	0.06483257
172	0xbc488bb1	-0.012240336
173	0xbdeb366b	-0.11484989
174	0xbdacbf10	-0.0843488
175	0x3da2b330	0.079443336
176	0xbe95b950	-0.29242945
177	0x3e157044	0.14593607
178	0xbce440ba	-0.027862895
179	0xbd59cd25	-0.053174157
180	0xbdc0ec73	-0.09420099
181	0xbf5b6204	-0.85696435
182	0xbdc6b6fc	-0.0970287
183	0xbe5b6b81	-0.21427728
184	0xbdb3e97a	-0.087847665
185	0xbcff2078	-0.031143412
186	0xbe8eeaad	-0.27913418
187	0xbd9b6c94	-0.07589069
188	0xbdf127cd	-0.117751695
189	0xbdc729d8	-0.09724778
190	0xbde98c32	-0.11403693
191	0xbd03dd2a	-0.03219334
192	0xbe91e5ff	-0.28495786
193	0xbf216ba3	-0.63054866
194	0xbcc3b0fa	-0.0238881
195	0x3d940100	0.07226753
196	0xbdc7113f	-0.09720086
197	0xbe9e7397	-0.30947563
198	0xbdb2c829	-0.08729584
199	0x3cefe304	0.029283054
200	0xbd80a6a9	-0.06281788
201	0xbdfa69b8	-0.122271955
202	0xbd90a39f	-0.07062458
203	0xbd3d6ed7	-0.046248283
204	0xbc521095	-0.012821336
205	0xbf605a40	-0.8763771
206	0xbf7744b0	-0.96589184
207	0xbed6708b	-0.41882738
208	0xbdbc56c4	-0.09196237
209	0xbd634975	-0.055489976
210	0xbc32f425	-0.010922466
211	0x3ce88df8	0.028388008
212	0xbbd4fa96	-0.0064995987
213	0xbd3ddc8c	-0.046352908
214	0xbe2904d7	-0.16505753
215	0xbd81ee58	-0.063442886
216	0xbd7eaf30	-0.06217879
217	0xbf29ef8a	-0.6638113
218	0xbdcddae9	-0.100515194
219	0xbf424dc3	-0.75899905
220	0xbee9271a	-0.45537645
221	0xbd2f26de	-0.042761676
222	0xbd28cc25	-0.041210312
223	0xbe882463	-0.2659026
224	0xbd7ae45e	-0.061252944
225	0xbf8a72c9	-1.081628
226	0xbddb578f	-0.1071006
227	0xbb663c07	-0.0035130994
228	0xbd64f4be	-0.055897467
229	0xbecb294d	-0.39679947
230	0xbd99211d	-0.07477019
231	0xbe956b4d	-0.29183426
232	0xbde1af70	-0.1101979
233	0xbee5510c	-0.44788396
234	0xbddf4c10	-0.1090318
235	0xbf3297e3	-0.6976301
236	0x3b80417a	0.0039140554
237	0xb9f6dadb	-0.00047083836
238	0xbd920690	-0.07130158
239	0xbdd34085	-0.103150405
240	0xbce6ef54	-0.028190292
241	0xbd966c29	-0.07344849
242	0xbf0934be	-0.53596103
243	0xbf0fac83	-0.56122607
244	0xbc24b53c	-0.010052975
245	0xbee258a7	-0.4420826
246	0xbd2e9f7d	-0.04263257
247	0xbde45440	-0.11148882
248	0xbd923ccc	-0.07140502
249	0xbdc952f6	-0.09830277
250	0xbd8f4848	-0.069962084
251	0xbd578fd4	-0.0526274
252	0xbcf64b62	-0.030065242
253	0xbf2e46cb	-0.6807677
254	0xbd2cd4db	-0.042195182
255	0xbf4e7f69	-0.8066316

lays.2.weight f4 [2, 256]
0	0x3cf21ad8	0.029553816
1	0x3eaf38d0	0.34223032
2	0x3e61cc1b	0.22050516
3	0xbd411790	-0.04714161
4	0xbc152bf5	-0.009104718
5	0x3b715ae8	0.0036827866
6	0x3c4f662d	0.012658638
7	0x3e7e56f3	0.24837856
8	0xbd2b2dfe	-0.04179191
9	0x3d6e2074	0.05813642
10	0x3baa6591	0.005200096
11	0xbd5b9f16	-0.053618513
12	0xbd26f231	-0.040758315
13	0xbe311a4e	-0.1729519
14	0x3d0e331b	0.034716707
15	0xbdf894eb	-0.12137779
16	0xbd81a911	-0.06331075
17	0xbd6af63f	-0.057363745
18	0xb96f5a34	-0.0002282642
19	0xbd4b1e08	-0.049589187
20	0xbd6bb097	-0.057541456
21	0x3c9fe2c4	0.01951731
22	0xbd0ca574	-0.034337476
23	0x3d7f22c8	0.06228903
24	0x3bd4ece6	0.006497967
25	0xbd07be00	-0.033140182
26	0x3d07bf79	0.033141587
27	0xbd672537	-0.056431975
28	0x3c42655e	0.011864988
29	0x3d2f27ec	0.04276268
30	0x3d3aa813	0.045570444
31	0xbb972372	-0.0046123797
32	0x3aa6d335	0.001272774
33	0x3d265a93	0.040613722
34	0xbeb8c620	-0.36088657
35	0x3c92826f	0.017884461
36	0x3d400554	0.04688008
37	0x3d52b715	0.051444132
38	0xbced7fbd	-0.028991574
39	0x3b3ff688	0.0029291231
40	0x3b0a5008	0.0021104831
41	0xbc85e432	-0.016344164
42	0xbc9d7bbd	-0.019224042
43	0x3a51c951	0.0008002716
44	0xbae36f45	-0.0017351886
45	0xbb19bcef	-0.002345856
46	0x3d0fb1b7	0.03508159
47	0x3b8f15e5	0.0043666237
48	0xbe029cf6	-0.12755188
49	0xbc8d7c4e	-0.017271187
50	0x3e4abdf3	0.19799022
51	0xbb41fdec	-0.0029600812
52	0x3d09ff3e	0.033690684
53	0x3d20d974	0.03926988
54	0x3c5b1181	0.0133708725
55	0x3d60f25c	0.054918632
56	0x3e96ba5b	0.29439053
57	0xbc0948cd	-0.008379173
58	0x3bfefa63	0.0077813133
59	0x3ce26843	0.027637606
60	0x3ea2750b	0.31729922
61	0x3de496aa	0.111615494
62	0x3c116d68	0.008876182
63	0x3ccc6602	0.024950985
64	0xbdd03c40	-0.10167742
65	0x3e852c5c	0.26010406
66	0x3cfcd8ef	0.03086516
67	0x3c2b2910	0.010446802
68	0xbe2393fe	-0.15974423
69	0x3e8b1e55	0.2717158
70	0xbd767ff8	-0.060180634
71	0x3d272b2e	0.040812664
72	0xbd4f3cc9	-0.05059508
73	0x3ba29021	0.004961029
74	0x3e9ff7cf	0.3124375
75	0x3e641344	0.22272974
76	0x3e6399a2	0.22226575
77	0xbea74adc	-0.326743
78	0xbd00f52f	-0.031483825
79	0xb9da1634	-0.00041596743
80	0xbcf881a1	-0.03033525
81	0xbe9ce0b6	-0.3064019
82	0x3deb7f16	0.11498849
83	0xba7e452b	-0.0009699638
84	0x3a74477b	0.0009318513
85	0xbe6717a9	-0.2256762
86	0xbc4e9ac2	-0.012610139
87	0x3e4a3f97	0.1975082
88	0x3bd3f16d	0.006467989
89	0x3d0a03e3	0.033695113
90	0x3c496a81	0.012293459
91	0x3d065d8e	0.032804064
92	0x39aa0df6	0.00032435328
93	0x3cbc0021	0.02294928
94	0xbd06c1aa	-0.032899536
95	0x3d6a84b2	0.057255454
96	0xbd4604af	-0.04834431
97	0x3e108b0e	0.14115545
98	0xbd1e3ca6	-0.038632058
99	0x3d72c0bb	0.059265833
100	0xbd6c167a	-0.057638623
101	0xbd2a95b7	-0.041646685
102	0x3d34bf9d	0.04412805
103	0x3e206603	0.15663914
104	0xbcdab64a	-0.02669825
105	0xbd56ddad	-0.0524575
106	0xbe8ae8c5	-0.27130714
107	0xbcf7e988	-0.030262724
108	0x3d4cb9e4	0.049981967
109	0xbd3237e2	-0.043510325
110	0x3cc71be6	0.024305295
111	0x3e96afec	0.29431093
112	0xbd86e030	-0.06585729
113	0x3d2e23fd	0.04251479
114	0xbd51758c	-0.051137492
115	0xbce461a8	-0.027878597
116	0xbc7d801d	-0.015472439
117	0xbcb7a063	-0.022415346
118	0xbde996af	-0.11405694
119	0xbc887efa	-0.01666211
120	0x3d4ebf00	0.05047512
121	0xbd1687d9	-0.03675065
122	0xbcbc47d5	-0.022983471
123	0x3bb5bc7a	0.00554615
124	0x3c9c5fc2	0.01908863
125	0xbe79d64d	-0.24398156
126	0x3c72e2b8	0.014824562
127	0x3cc2bbe4	0.023771234
128	0x3c163d8e	0.009169949
129	0xbc04f04a	-0.00811393
130	0xbd179a4f	-0.037012395
131	0x3e8b1342	0.2716313
132	0xbc366dbd	-0.011134562
133	0xbd561488	-0.052265674
134	0x3e7f151d	0.24910398
135	0xbde06b1f	-0.10957932
136	0xbccd57c3	-0.025066262
137	0xbd4cbcd0	-0.049984753
138	0xbceff2f0	-0.029290646
139	0xbddef955	-0.108874
140	0xbd5e457d	-0.054265488
141	0x3bbd9546	0.005785617
142	0xbd0cb755	-0.034354527
143	0xbd5dac7f	-0.054119583
144	0x3ce5b1f9	0.028038966
145	0x3c955514	0.018229045
146	0x3d5fac69	0.054607783
147	0xbc68a0e1	-0.014198513
148	0x3d529dad	0.051419903
149	0x3e98479c	0.29742134
150	0xbc886551	-0.016649874
151	0xbd0abead	-0.03387325
152	0xbd5c5017	-0.053787317
153	0x3c3f8d77	0.011691443
154	0x3c087eb7	0.008330992
155	0xbe915e0e	-0.2839207
156	0x3d634d70	0.055493772
157	0x3d365809	0.04451755
158	0xb993c757	-0.00028186545
159	0xbd4013cd	-0.046893883
160	0xbd6c1ec0	-0.057646513
161	0xbe4afd36	-0.19823155
162	0x3ccafc55	0.024778524
163	0xbe95a96c	-0.2923082
164	0x3c33a095	0.010963579
165	0xbc44e297	-0.012016914
166	0xbd69012c	-0.056885883
167	0x3dce1977	0.10063451
168	0x3cb81152	0.022469196
169	0xbbc407f0	-0.0059823915
170	0xbc1df845	-0.009641712
171	0x3afc7316	0.0019260373
172	0x3bd5c6f3	0.0065239607
173	0x3c93e737	0.018054588
174	0xbcd10578	-0.025515303
175	0x3c4553ca	0.012043903
176	0xbde8438f	-0.11341011
177	0xbbed1cf3	-0.007236117
178	0x3cfbf374	0.030755736
179	0xbd6a3715	-0.057181437
180	0xbc7b5548	-0.015340157
181	0xbe22ad0c	-0.15886325
182	0xbd21e67e	-0.039526455
183	0x3de75033	0.11294594
184	0xbce0cf26	-0.027442526
185	0x3d1a0e47	0.037611272
186	0xbe61fca0	-0.22069025
187	0xbcf505ab	-0.02990993
188	0xba56a5ee	-0.00081881776
189	0x3d735e71	0.05941624
190	0xbd188845	-0.03723933
191	0xbd4c482d	-0.04987352
192	0x3c184692	0.009294169
193	0x3e58e698	0.21181715
194	0x3d6360bc	0.055512175
195	0x3e233238	0.15937126
196	0x3c3d371b	0.011548783
197	0x3e95e1f8	0.29273963
198	0x3b1db200	0.0024062395
199	0x3c216381	0.009850384
200	0xbc70e5df	-0.014703243
201	0x3d7b3743	0.061332
202	0xbc1fa1d1	-0.00974317
203	0xbc4b0eec	-0.012393694
204	0x3d63a479	0.055576775
205	0xbdcc998f	-0.099902265
206	0x3e84a796	0.25909108
207	0xbe91c129	-0.28467682
208	0x3ce74d53	0.028235113
209	0x3d1b628a	0.03793577
210	0x3c8fff66	0.017577838
211	0xba28b501	-0.0006435663
212	0xbd211e97	-0.039335813
213	0x3c00e2f1	0.007866607
214	0x3d0bdec9	0.03414801
215	0xbd77731e	-0.06041252
216	0x3d2d3f69	0.0422968
217	0xbbb54377	-0.005531724
218	0xba7f085f	-0.00097287254
219	0xbe9502cf	-0.29103705
220	0xbe5f2370	-0.21790862
221	0x3d602ec9	0.054732118
222	0xbd6e8169	-0.058228884
223	0xbe8c3174	-0.2738148
224	0xbb51298d	-0.0031915635
225	0x3e70fdd5	0.23534329
226	0xbd0b2769	-0.03397313
227	0xbd626cde	-0.055279605
228	0x3d0d4339	0.034487937
229	0x3cdf7b96	0.02728061
230	0xbd058e67	-0.03260651
231	0x3c115fe4	0.00887296
232	0xbc2c01e9	-0.010498502
233	0x3e4c1163	0.19928508
234	0x3cb0dafe	0.021588799
235	0x3e965994	0.29365218
236	0xbda5418c	-0.08069143
237	0xbe1dea3f	-0.15421389
238	0xbc3eaf13	-0.011638421
239	0xbc7659c1	-0.015036047
240	0xbd59b17c	-0.053147778
241	0x3d0b1d3b	0.033963423
242	0xbd9eaee8	-0.077482045
243	0xbe5c7adc	-0.21531242
244	0xbc63b338	-0.01389771
245	0xbe1a3938	-0.1506089
246	0x3da9913d	0.08279655
247	0xbcfc9275	-0.030831555
248	0x3e378c2e	0.17924568
249	0xbd48127c	-0.048845753
250	0x3d7cabf0	0.06168741
251	0xbd3baf7c	-0.04582165
252	0x3de8544d	0.11344204
253	0xbe32e2a3	-0.17469268
254	0xbd0c827e	-0.034304135
255	0x3dbfe445	0.09369711

lays.2.bias f4 [2]
0	0xbf9d8fc1	-1.2309495
1	0x3fa16243	1.2608112

l1.weight f4 [256, 63]
0	0x3a1be4a8	0.0005946853
1	0x3a1ab540	0.0005901642
2	0xba1bf708	-0.0005949591
3	0xbaf20de8	-0.0018467279
4	0xba1c6918	-0.0005966588
5	0xba402d64	-0.00073309825
6	0xba1a8650	-0.0005894648
7	0xba1a81b0	-0.0005893959
8	0xba1a8650	-0.0005894648
9	0x3af14340	0.0018406883
10	0x3a1a7130	0.00058915
11	0xba1a8230	-0.0005894033
12	0xba1a6e90	-0.0005891109
13	0x3a1a6df0	0.0005891016
14	0xbaf0bd04	-0.0018366878
15	0x3af0c2f4	0.0018368647
16	0x3a1a6f90	0.0005891258
17	0x3a408a18	0.00073447963
18	0x3a1a6f10	0.00058911834
19	0x3a1a81b0	0.0005893959
20	0xbaf14340	-0.0018406883
21	0xba1d0b88	-0.0005990793
22	0xba1a6ef0	-0.0005891165
23	0xba1a8230	-0.0005894033
24	0xbb12f6b7	-0.0022424886
25	0x3a1a6e90	0.0005891109
26	0xba443560	-0.000748476
27	0x3a1a6dd0	0.0005890997
28	0xba1a7130	-0.00058915
29	0xba1a8750	-0.0005894797
30	0xba1a8230	-0.0005894033
31	0xba43c490	-0.000746795
32	0x3a1a714c	0.00058915163
33	0x3af0bb3e	0.0018366349
34	0x3a1a8a10	0.00058952067
35	0x3a1a7170	0.00058915373
36	0xba1a76ec	-0.00058923545
37	0xba1a8650	-0.0005894648
38	0x3a1a6f90	0.0005891258
39	0x3af0d740	0.0018374696
40	0xba1a7838	-0.0005892548
41	0xba1a7130	-0.00058915
42	0x3af0d156	0.0018372934
43	0xbaf146e0	-0.0018407963
44	0x3a1a8230	0.0005894033
45	0x3af0bfb2	0.0018367677
46	0x3a1a85d0	0.00058945734
47	0x3b11ac3b	0.0022227901
48	0x3b130038	0.002243055
49	0x3af0b9be	0.0018365902
50	0xbaf0bc1e	-0.001836661
51	0xba1a57a8	-0.00058876956
52	0x3a1a7130	0.00058915
53	0x3a1a6e90	0.0005891109
54	0x3a1a6a94	0.0005890515
55	0xba178f5c	-0.0005781555
56	0x3a1a7130	0.00058915
57	0x3af0d042	0.0018372613
58	0xbb11b122	-0.0022230824
59	0x3a1a81b0	0.0005893959
60	0xba1a7e38	-0.0005893442
61	0x3a1a8734	0.00058947806
62	0x3a1a8734	0.00058947806
63	0x3c6359cf	0.0138763925
64	0x3c42a93e	0.011881171
65	0xbc42a978	-0.011881225
66	0xbc634cd4	-0.013873298
67	0x3c636e4c	0.013881277
68	0xbc635ca4	-0.013877068
69	0xbc635638	-0.013875537
70	0xbc635562	-0.013875337
71	0x3c636d4a	0.013881037
72	0xbc635ae6	-0.013876652
73	0x3c6356de	0.013875691
74	0x3c6356e4	0.013875697
75	0xbc6370fd	-0.013881919
76	0xbc6369df	-0.013880222
77	0x3c636f72	0.013881551
78	0xbc636b8a	-0.01388062
79	0xbc6356fc	-0.013875719
80	0xbc634eb1	-0.013873742
81	0x3c635752	0.013875799
82	0xbc635afa	-0.013876671
83	0x3c63565c	0.01387557
84	0xbc635968	-0.013876297
85	0xbc635662	-0.013875576
86	0xbc635af2	-0.0138766635
87	0xbc635d58	-0.013877235
88	0x3c635ac8	0.013876624
89	0x3c635264	0.013874624
90	0x3c636f12	0.013881462
91	0xbc635768	-0.01387582
92	0x3c635446	0.013875073
93	0xbc635b02	-0.013876678
94	0xbc635718	-0.013875745
95	0x3c635aa0	0.013876587
96	0xbc42a949	-0.011881181
97	0x3c635919	0.013876223
98	0xbc636a74	-0.013880361
99	0xbc636bc9	-0.013880678
100	0x3c635b70	0.013876781
101	0xbc6356cd	-0.013875675
102	0x3c63583c	0.013876017
103	0xbc635464	-0.013875101
104	0xbc636e7a	-0.01388132
105	0xbc635606	-0.01387549
106	0xbc635648	-0.0138755515
107	0xbc636e98	-0.013881348
108	0xbc63597e	-0.013876317
109	0xbc635a60	-0.013876528
110	0xbc632e32	-0.013865994
111	0x3c63553c	0.013875302
112	0x3c634f32	0.013873862
113	0x3c636ffc	0.01388168
114	0x3c634f0c	0.013873827
115	0x3c42a766	0.011880731
116	0x3c635ad5	0.0138766365
117	0xbc6356d2	-0.01387568
118	0x3c633118	0.013866685
119	0xbc636d9e	-0.013881115
120	0x3c636ab0	0.013880417
121	0x3c631bd6	0.013861617
122	0xbc635acf	-0.013876631
123	0x3c635468	0.0138751045
124	0xbc635956	-0.01387628
125	0xbc636eae	-0.013881369
126	0x3b0c5a9b	0.002141631
127	0x3b0c6217	0.002142077
128	0x3b0c6217	0.002142077
129	0xbb0c5055	-0.0021410186
130	0xbb0c5e45	-0.0021418494
131	0xbb0c52e0	-0.0021411702
132	0x3b0c5424	0.0021412456
133	0xbb0c53fe	-0.0021412368
134	0x3b0c54b7	0.0021412799
135	0x3b0c6217	0.002142077
136	0xbb0c6217	-0.002142077
137	0x3b0c6217	0.002142077
138	0xbb0c61f7	-0.0021420696
139	0xbb0c54f7	-0.0021412948
140	0x3b0c61f7	0.0021420696
141	0xbb0c61f7	-0.0021420696
142	0x3b0c61f7	0.0021420696
143	0x3b0c5233	0.00214113
144	0x3b0c61f7	0.0021420696
145	0x3b0c6217	0.002142077
146	0x3b0c6217	0.002142077
147	0xbb0c5e17	-0.0021418387
148	0xbb0c52f7	-0.0021411756
149	0x3b0c6217	0.002142077
150	0x3b0c683f	0.002142444
151	0xbb0c6217	-0.002142077
152	0x3b0c5752	0.0021414352
153	0x3b0c55f0	0.0021413527
154	0xbb0c61f7	-0.0021420696
155	0x3b0c683b	0.002142443
156	0x3b0c6217	0.002142077
157	0xbb0c51c2	-0.0021411036
158	0xbb0c30b7	-0.002139134
159	0xbb0c6497	-0.002142226
160	0x3b0c6017	0.0021419579
161	0x3b0c5d1b	0.00214178
162	0xbb0c60c5	-0.0021419984
163	0xbb0c6217	-0.002142077
164	0xbb0c6497	-0.002142226
165	0xbb0c66b7	-0.0021423528
166	0xbb0c62b0	-0.0021421127
167	0x3b0c61f7	0.0021420696
168	0xbb0c54b7	-0.0021412799
169	0xbb0c6217	-0.002142077
170	0xbb0c61f7	-0.0021420696
171	0xbb0c5604	-0.0021413574
172	0x3b0c61f7	0.0021420696
173	0xbb0c5e07	-0.002141835
174	0x3b0c5625	0.002141365
175	0x3b0c4e5f	0.0021409017
176	0x3b0c66b7	0.0021423528
177	0x3b0c5657	0.0021413767
178	0xbb0c6497	-0.002142226
179	0xbb0c61f7	-0.0021420696
180	0x3b0c53dd	0.002141229
181	0xbb0c5222	-0.002141126
182	0xbb0c55a8	-0.002141336
183	0xbb0c6217	-0.002142077
184	0x3b0c5c26	0.002141723
185	0x3b0c6497	0.002142226
186	0xbb0c6269	-0.0021420962
187	0xbb0c53b2	-0.002141219
188	0x3b0c5312	0.0021411818
189	0xbc484e48	-0.012225695
190	0x3c4858bc	0.012228187
191	0xbc4857b0	-0.012227938
192	0xbc48342e	-0.012219472
193	0xbc4851d3	-0.01222654
194	0xbc483cb0	-0.0122215
195	0xbc4857c4	-0.012227956
196	0xbc48594b	-0.01222832
197	0xbc485883	-0.012228134
198	0xbc485878	-0.012228124
199	0xbc485809	-0.0122280205
200	0xbc485823	-0.012228045
201	0xbc485814	-0.012228031
202	0xbc48595e	-0.012228338
203	0x3c4858b5	0.012228181
204	0xbc47bb68	-0.012190677
205	0xbc485747	-0.01222784
206	0x3c480fd2	0.012210803
207	0xbc4851a8	-0.0122265
208	0x3c485870	0.012228116
209	0x3c4858e1	0.012228222
210	0xbc485810	-0.012228027
211	0x3c4857c5	0.012227957
212	0xbc4856be	-0.012227712
213	0xbc47fbdc	-0.012206044
214	0x3c47b838	0.012189917
215	0xbc4854d3	-0.012227255
216	0x3c4858b1	0.012228177
217	0xbc485880	-0.012228131
218	0xbc4856e3	-0.012227747
219	0x3c485810	0.012228027
220	0x3c48585c	0.012228098
221	0xbc48541e	-0.012227086
222	0x3c48585c	0.012228098
223	0xbc4858ce	-0.012228204
224	0x3c48562c	0.012227576
225	0xbc4845e8	-0.012223698
226	0x3c485870	0.012228116
227	0xbc485347	-0.012226886
228	0xbc483df6	-0.012221804
229	0x3c4858a7	0.012228168
230	0xbc485870	-0.012228116
231	0x3c484c49	0.012225219
232	0xbc485804	-0.012228016
233	0xbc48582f	-0.012228056
234	0x3c47ba90	0.012190476
235	0xbc48580a	-0.012228021
236	0x3c4818cd	0.012212944
237	0xbc48254d	-0.012215924
238	0x3c485713	0.012227791
239	0x3c48580d	0.012228024
240	0x3c48568e	0.0122276675
241	0x3c4857df	0.012227981
242	0xbc485bd1	-0.012228922
243	0xbc485b2f	-0.012228771
244	0x3c47f7e5	0.012205099
245	0x3c48584f	0.012228086
246	0xbc485731	-0.012227819
247	0xbc482e03	-0.012218001
248	0xbc47bad8	-0.012190543
249	0x3c483c04	0.01222134
250	0xbc4857a5	-0.012227927
251	0xbc485869	-0.01222811
252	0xbca35ed4	-0.019942679
253	0x3ca3a53a	0.019976247
254	0x3ca39bc8	0.019971743
255	0xbc642498	-0.01392474

l1.bias f4 [256]
0	0xbf4486d9	-0.7676826
1	0xbf239f59	-0.6391502
2	0xbf7c32c3	-0.98514956
3	0xbf6e3051	-0.93042475
4	0xbf58cea2	-0.84690297
5	0xbf44baec	-0.7684772
6	0xbf169ae5	-0.588301
7	0xbf253df2	-0.64547646
8	0xbf6a6d45	-0.9157298
9	0xbf16f977	-0.58974403
10	0xbeb484bb	-0.35257515
11	0xbf7f9c28	-0.9984765
12	0xbfa1cfcd	-1.2641541
13	0xbf9e7b85	-1.2381445
14	0xbf43d90d	-0.7650307
15	0xbfbc76df	-1.4723777
16	0xbf8a00b5	-1.0781466
17	0xbf5de248	-0.866734
18	0xbf638d5e	-0.88887584
19	0x3fd3eefe	1.655731
20	0xbf44f06c	-0.76929355
21	0xbfa20e83	-1.2660679
22	0xbf1a9af7	-0.6039271
23	0xbf32ef3a	-0.6989628
24	0xbf314a2b	-0.69253796
25	0xbf7a8fca	-0.97875655
26	0xbfa1b0fb	-1.2632135
27	0xbf1d8ada	-0.61539996
28	0xbf2be010	-0.6713877
29	0xbf7d16dc	-0.98863006
30	0xbf327004	-0.6970217
31	0xbfe7ee58	-1.8119612
32	0xbf2fa504	-0.6861117
33	0xbf449835	-0.7679475
34	0xbf92244f	-1.141733
35	0xbf57bf9d	-0.84276754
36	0xbf7abada	-0.9794136
37	0xbf6761ef	-0.9038381
38	0xbf9ead2f	-1.2396601
39	0xbec2b1fb	-0.38026413
40	0xbf770756	-0.9649557
41	0x40285442	2.6301427
42	0xbfc865db	-1.5656084
43	0xbfa306e6	-1.273648
44	0xbf9575e9	-1.1676608
45	0xbfb4cae1	-1.4124414
46	0xbf5a77fe	-0.85339344
47	0xbf6b33fe	-0.9187621
48	0xbf7a269d	-0.9771517
49	0xbf8adf8f	-1.0849475
50	0xbf144d26	-0.5793022
51	0xbfaa554b	-1.3307279
52	0xbec648f0	-0.38727522
53	0xbfa77387	-1.3082131
54	0xbf34c8c1	-0.70618826
55	0xbebb79ad	-0.3661627
56	0xbf3a8c84	-0.7287066
57	0xbfaf316f	-1.3686961
58	0xbf66f47c	-0.90216804
59	0xbf2bd9af	-0.67129034
60	0xbf868b02	-1.0511172
61	0xbf91d20f	-1.139223
62	0xbf0129af	-0.5045423
63	0xbf899d5d	-1.0751148
64	0xbed702ec	-0.41994417
65	0xbf7d74a8	-0.9900613
66	0xbf34de9b	-0.7065217
67	0xbf318674	-0.69345784
68	0xbf867c6b	-1.0506719
69	0xbfc69dad	-1.5516869
70	0xbf93f4ac	-1.1559043
71	0xbee71fdb	-0.4514149
72	0x40312d43	2.7683876
73	0xbf82f3df	-1.0230674
74	0xbfa6179e	-1.2975957
75	0xbfb4b976	-1.4119098
76	0xbf41f644	-0.75766397
77	0xbf677afe	-0.90422046
78	0xbf349823	-0.7054464
79	0xbf64e0a9	-0.89405304
80	0xbf829cb7	-1.0204076
81	0xbf787d0e	-0.9706582
82	0xbf9eeec6	-1.2416618
83	0xbf827a6a	-1.0193608
84	0xbf440797	-0.7657408
85	0xbf107a35	-0.56436473
86	0xbf430247	-0.7617535
87	0xbf64d63e	-0.8938941
88	0xbfc7c1f2	-1.5606062
89	0xbf1abd2c	-0.60444903
90	0xbf95b424	-1.16956
91	0xbf5f7fc2	-0.8730432
92	0xbf22e354	-0.63628125
93	0xbf7a55f7	-0.9778742
94	0xbfd07554	-1.6285806
95	0xbf21ca98	-0.6319976
96	0xbf5a9e0b	-0.85397404
97	0xbf605dd2	-0.8764316
98	0xbf2aa51f	-0.66658205
99	0xbf7ff6b6	-0.99985826
100	0xbf37df03	-0.71824664
101	0xbf3acca1	-0.7296849
102	0xbf279e20	-0.65475655
103	0xbf960c98	-1.1722593
104	0xbf7959ea	-0.9740282
105	0xbecdbce8	-0.40183187
106	0xbf622095	-0.88330966
107	0xbf936a15	-1.1516749
108	0xbf5e9b75	-0.8695596
109	0xbf51e01b	-0.8198258
110	0xbf6c365b	-0.9227044
111	0xbf8c13d8	-1.0943556
112	0xbee3b53a	-0.44474202
113	0xbfe035a8	-1.7516375
114	0x40044ff6	2.0673804
115	0xbf759422	-0.9592916
116	0xbf5689c8	-0.8380399
117	0xbef45b61	-0.47725967
118	0xbfc89c35	-1.5672671
119	0xbf34194f	-0.7035112
120	0x3fef1899	1.8679382
121	0xbfa8e123	-1.3193706
122	0xbf81e56f	-1.0148143
123	0xbf717071	-0.94312197
124	0xbfc71210	-1.5552387
125	0xbf2656f0	-0.64976406
126	0xbfb967c5	-1.4484793
127	0xbfaeabbf	-1.3646163
128	0xbf714a6a	-0.9425417
129	0xbf9f9545	-1.2467428
130	0xbf8427de	-1.0324667
131	0xbf2734d7	-0.65315
132	0xbf8ad711	-1.0846883
133	0xbf3c4348	-0.73540163
134	0xbe63384f	-0.22189449
135	0xbf5f8861	-0.8731747
136	0xbf5db613	-0.8660595
137	0xbf803375	-1.0015703
138	0xbf32afd6	-0.69799554
139	0xbf9a7755	-1.2067667
140	0xbf6aa3e1	-0.9165631
141	0xbf0d97f0	-0.55309963
142	0xbf36a8ea	-0.7135149
143	0xbf32d107	-0.698502
144	0xbf7f6dcb	-0.99776906
145	0xbf0f743c	-0.56036735
146	0xbf68ac13	-0.90887564
147	0xbf5ff838	-0.87488127
148	0xbf315c18	-0.6928115
149	0xbf8ecbd4	-1.1155953
150	0xbf74c7cf	-0.95617384
151	0xbf6b641d	-0.91949636
152	0xbfba90d9	-1.4575454
153	0xbec27417	-0.37979195
154	0xbf78985c	-0.9710748
155	0xbfaac1a1	-1.3340341
156	0xbfc52871	-1.5402967
157	0xbfac7c63	-1.347546
158	0xbfade96b	-1.3586859
159	0xbfafe746	-1.3742454
160	0x3fd34914	1.6506677
161	0x3ebfb09d	0.37439433
162	0xbf44b716	-0.76841867
163	0xbf909dc5	-1.1298147
164	0xbee2da01	-0.4430695
165	0xbf3e9f15	-0.7446149
166	0xbf856290	-1.0420704
167	0xbf68c553	-0.9092609
168	0xbf8e9747	-1.1139916
169	0xbf2b88a6	-0.67005384
170	0xbf305915	-0.6888593
171	0xbf045697	-0.51694626
172	0xbf738ec6	-0.9513973
173	0xbeb033c7	-0.34414503
174	0xbf12feb3	-0.5741989
175	0xbf8ce2ea	-1.1006749
176	0xbf404b83	-0.7511522
177	0xbf3c8d6c	-0.7365329
178	0xbf284b54	-0.6573994
179	0xbf79f47a	-0.97638667
180	0xbfb8e2c5	-1.4444205
181	0xbf1c8c0f	-0.6115121
182	0xbfad5620	-1.3541908
183	0xbf8f807e	-1.1211088
184	0xbf8ac169	-1.0840274
185	0xbf574821	-0.84094435
186	0xbf66d9f9	-0.9017635
187	0xbf2159cf	-0.6302766
188	0xbf84e45c	-1.038219
189	0xbf3577a0	-0.7088566
190	0xbf980321	-1.1875955
191	0xbf96d818	-1.1784697
192	0xbf12e038	-0.5737338
193	0xbf136eb0	-0.5759077
194	0xbfcef4d9	-1.6168472
195	0xc008c203	-2.1368415
196	0xbfaf2891	-1.3684255
197	0xbfcb6fe3	-1.589352
198	0x3fb3fcf8	1.4061575
199	0xbf66dbe7	-0.90179294
200	0xbf906de5	-1.1283537
201	0xbfadc9ad	-1.3577172
202	0xbfb5c188	-1.4199686
203	0xbf08bb87	-0.53411144
204	0xbf51003b	-0.81640977
205	0xbf86fa17	-1.0545071
206	0xbef55916	-0.4791953
207	0xbf684cce	-0.90742195
208	0xbf82572a	-1.018285
209	0xbfadd2d4	-1.3579965
210	0xbe6d76c7	-0.23189841
211	0xbf235639	-0.6380344
212	0xbf573696	-0.84067667
213	0xbf5e1975	-0.86757594
214	0xbf8657ee	-1.0495584
215	0xbf911281	-1.1333772
216	0xbf60afc6	-0.8776821
217	0xbfaa1d4b	-1.329019
218	0xbf9739a5	-1.1814467
219	0xbfe97a33	-1.8240417
220	0xbf91d4bd	-1.1393048
221	0xbf19a346	-0.6001476
222	0xbf90104f	-1.1254977
223	0xbf8fbd01	-1.1229554
224	0xbf8f9a38	-1.1218939
225	0xbfda87b8	-1.7072668
226	0xbf27c6a8	-0.655375
227	0xbf07f04f	-0.53101057
228	0xbf52ebda	-0.8239113
229	0xbf2c99e4	-0.6742232
230	0xbf631870	-0.88709164
231	0xbf3bf9b1	-0.73427874
232	0xbf252e7b	-0.6452405
233	0xbf8164d3	-1.0108894
234	0xbee6897d	-0.4502677
235	0xbf85c42c	-1.0450492
236	0xbf7bdbd8	-0.9838233
237	0xbf42504d	-0.7590378
238	0xbf992ab2	-1.1966155
239	0xbf236f9d	-0.63842183
240	0xbef1dc76	-0.4723851
241	0xbf6e4d1d	-0.93086416
242	0xbf08d669	-0.53452164
243	0xbf990270	-1.1953869
244	0xbf8e8669	-1.1134769
245	0xbfae559e	-1.3619878
246	0xbf5ab4b6	-0.85431993
247	0xbef78ad0	-0.48348093
248	0xbf66aa02	-0.9010316
249	0xbf694f43	-0.9113657
250	0xbf888357	-1.0665082
251	0xbf5519f3	-0.8324272
252	0xbf6c7bc8	-0.92376375
253	0xbfc88251	-1.566477
254	0xbf2f43b4	-0.6846268
255	0xbf7e3ce0	-0.9931164
