TABULAR/Figure1Reproduce/Poisoned/ADULT_FCN_e=0.0_g=0.05_a=1.0_l=2_h=256_s=True_p=0.75.pt (torch, 332951 bytes, 10 tensors)

lays.0.weight f4 [256, 63]
00000000: f225 1f36 b488 a135 648c 6cb5 8890 4eb4
00000010: acac 9236 2459 b9b4 2e27 a3b5 9447 1236
00000020: a065 dbb4 b253 40b6 772b b3b5 9108 0eb6
00000030: a889 da34 5f66 0eb6 ec47 3a35 8e69 d7b4
00000040: 88e1 ef34 991c 38b5 2b7b 4cb5 55ea b2b5
00000050: 779a 20b6 61f5 e4b4 5f6b 02b6 41fe 0cb6
00000060: 58d7 3fb6 05fd 1836 3c6e 0fb5 4daf b2b5
00000070: 94bf d6b4 e377 fa35 bef4 0d36 7157 a7b4
00000080: dc4b ceb5 e32e 4036 0223 4cb6 9b42 1736
00000090: d4dc 8535 bca1 d834 6861 abb5 9ca8 4c36
000000a0: 0acf 97b4 cf94 3935 ea40 46b6 d3dc 2036
000000b0: 52a9 20b6 f301 a1b5 c800 a235 2802 2434
000000c0: 2c78 a1b5 4aa2 4eb6 2724 13b5 2dfc e4b4
000000d0: e208 6235 9477 35b5 4a8e f9b4 726e 15b6
000000e0: 648c 0bb6 3ca7 4734 54ba 18b5 cd59 b335
000000f0: 370b 1636 010f e335 365f d8b4 2fad 6736
00000100: c0e6 87b3 e068 10b6 485e b233 707e 03b6
00000110: 1885 163c f255 dbb6 c692 dbb6 bc7e 77b7
00000120: 59b5 9136 2261 ecb6 fe36 7bb7 9151 5936
00000130: 9ec0 e635 9838 f536 542a 3cb6 6b5b 0eb7
00000140: 7874 da35 7d9d 8eb5 e492 2236 c816 5437
00000150: acf6 84b5 8065 6033 5305 4db7 ccbe 9abc
00000160: 708d 8836 6a4b 24b6 a0cc 42b7 a09d 5f35
00000170: fa76 5a36 9ca4 9136 008e ca33 000a 4c32
00000180: 2402 04b6 701f ebb5 a66a 27b7 1e47 ba36
00000190: c67e ffb6 44d9 1436 9070 6035 20bb 1a36
000001a0: c266 f0b6 24eb d0b5 4cd2 fd35 ede8 4eb6
000001b0: 81a3 5735 d819 2bb7 709c 2d35 97cb 13b5
000001c0: 202f aa36 e2da 09b6 650d 8db6 1fc6 94b6
000001d0: 3422 6136 803b e335 c8e4 7b35 4ea0 a1b6
000001e0: 1ec5 f536 f43f c8b5 d541 9435 4887 7336
000001f0: 69e2 f036 826d 96b6 f4aa 2bb7 90be 0b36
00000200: 6353 f2b6 73ec 1ab6 e68d f235 39ff 2bb6
00000210: 80e9 07b7 ccb2 89b5 f3a4 e135 3012 ebb5
00000220: 50bd 0735 c4be 2c37 1048 a533 2f39 2eb6
00000230: fb74 9d36 a590 ebb6 0919 3cb5 6173 2eb5
00000240: 3e41 3ab5 7b30 2b36 8b21 05b7 3097 0cb6
00000250: 70af 5e34 2984 2137 96fe abb6 52c3 46b7
00000260: da7a c5b6 304d 22b5 a004 19b7 e2db e8b5
00000270: 23ec f1b5 d0cd 4bb4 7d71 ce35 3a3e 1336
00000280: 73f1 3137 606a 3034 6082 beb5 2cd2 a4b6
00000290: cc26 a535 7e98 96b5 e1d4 f636 f00f fc33
000002a0: ae99 abb5 e638 6bb6 cd19 e6b6 1f64 97b5
000002b0: b677 6db6 2079 45ba e02b 5b34 a5f9 9336
000002c0: 183c 9b36 30a6 b2b6 d18b a436 0454 a736
000002d0: be3f 01ba a057 6236 1c50 66b7 9a6d 2535
000002e0: c001 4f33 505c bdb6 a8d4 ea34 0bc7 10b6
000002f0: 80c7 6cb3 cdc1 7a37 ee5b a3b7 2c77 9035
00000300: 267b edb6 a9da f8b5 0321 2738 0a70 fa37
00000310: fa07 0fb8 bd1f 8336 d35c 7fb7 5893 8b37
00000320: a7a0 06b8 cf26 4f37 2f6b 7fb7 fea6 f835
00000330: c052 eab3 1544 0fb8 1259 65b7 55b1 f236
00000340: fbe3 e136 c023 8736 9145 53b7 3ac0 3fb7
00000350: d3db f6b7 6e46 23b7 ab51 19b8 d4b9 28b6
00000360: 5e71 4eb8 c5c0 c937 9b5f 3f37 7da9 6f37
00000370: 0407 4638 7ef6 a0b6 f8e0 6e38 006a 8fb2
00000380: 1e9c 5e37 1bcc 3cb6 5ea4 5fb8 c7d0 55b7
00000390: 382d 82b7 b589 8237 20b3 8137 d222 0e38
000003a0: 880b 34b6 c24c a1b7 1b4b adb6 3cd8 3db7
000003b0: a9b3 8936 8948 32b7 e4ae 0338 be69 e237
000003c0: 1cb1 c037 d1ae 80b7 2cbc 3436 1d55 00b7
000003d0: 384a 2c37 c988 6d37 d484 fc37 0b1b 4937
000003e0: cb15 06b8 2ff8 1e36 35fa 8038 e82e cb37
000003f0: cca8 a736 797e 4037 ca3f 2837 e213 a8b7
2.3714933e-06 1.2035221e-06 -8.8121146e-07 -1.9237825e-07 4.3712407e-06 -3.4523794e-07 -1.2155849e-06 2.179736e-06
-4.086587e-07 -2.8658947e-06 -1.3349189e-06 -2.1164635e-06 4.0705822e-07 -2.1219237e-06 6.939506e-07 -4.0123672e-07
4.4681315e-07 -6.8586957e-07 -7.6175155e-07 -1.3330233e-06 -2.3931768e-06 -4.2646846e-07 -1.9434008e-06 -2.100962e-06
-2.8586564e-06 2.2797042e-06 -5.3432063e-07 -1.3313053e-06 -3.9999998e-07 1.8661343e-06 2.1153096e-06 -3.1169796e-07
-1.5370274e-06 2.8637521e-06 -3.0418746e-06 2.2539523e-06 9.973542e-07 4.0350812e-07 -1.2768842e-06 3.0496512e-06
-2.8276582e-07 6.9134416e-07 -2.9542084e-06 2.3970395e-06 -2.3940415e-06 -1.1996002e-06 1.2070168e-06 1.5274475e-07
-1.2030409e-06 -3.0790857e-06 -5.4814376e-07 -4.2651791e-07 8.4204487e-07 -6.7601763e-07 -4.6483393e-07 -2.2267018e-06
-2.0794332e-06 1.8594159e-07 -5.6895556e-07 1.3362675e-06 2.235827e-06 1.6917185e-06 -4.030241e-07 3.4522488e-06
-6.3284006e-08 -2.1518717e-06 8.3059206e-08 -1.9594117e-06 0.009187005 -6.536714e-06 -6.5437953e-06 -1.4751855e-05
4.3424484e-06 -7.044656e-06 -1.497357e-05 3.2382998e-06 1.7192394e-06 7.3081574e-06 -2.8038821e-06 -8.4851445e-06
1.6276163e-06 -1.062566e-06 2.4225383e-06 1.2641489e-05 -9.906557e-07 5.2246378e-08 -1.2220192e-05 -0.018889807
4.0695813e-06 -2.44818e-06 -1.1610944e-05 8.330335e-07 3.2553785e-06 4.3405e-06 9.432188e-08 1.1876637e-08
-1.9670779e-06 -1.7518014e-06 -9.978807e-06 5.551511e-06 -7.6143506e-06 2.2180184e-06 8.36103e-07 2.305671e-06
-7.16452e-06 -1.5565643e-06 1.8911173e-06 -3.0831973e-06 8.033167e-07 -1.01984115e-05 6.467517e-07 -5.505803e-07
5.071881e-06 -2.0541997e-06 -4.203687e-06 -4.433808e-06 3.3547522e-06 1.6930135e-06 9.3837707e-07 -4.816836e-06
7.3245164e-06 -1.4919774e-06 1.1046019e-06 3.6288566e-06 7.178915e-06 -4.4830967e-06 -1.0232197e-05 2.0823536e-06
-7.2218695e-06 -2.308542e-06 1.8071703e-06 -2.5629545e-06 -8.100993e-06 -1.0259332e-06 1.6811813e-06 -1.7514158e-06
5.0566905e-07 1.0296415e-05 7.696519e-08 -2.5961306e-06 4.692583e-06 -7.0203846e-06 -7.007189e-07 -6.498795e-07
-6.938534e-07 2.5509205e-06 -7.935228e-06 -2.0949628e-06 2.0739185e-07 9.627119e-06 -5.125835e-06 -1.1847196e-05
-5.8853593e-06 -6.0462025e-07 -9.1205875e-06 -1.7349341e-06 -1.8024624e-06 -1.8980722e-07 1.5381225e-06 2.1940928e-06
1.0606239e-05 1.6429976e-07 -1.4194047e-06 -4.912048e-06 1.2304749e-06 -1.1220252e-06 7.3561537e-06 1.17375635e-07
-1.278522e-06 -3.5050848e-06 -6.8575378e-06 -1.1279516e-06 -3.5385433e-06 -0.00075330026 2.0411926e-07 4.410004e-06
4.626356e-06 -5.32416e-06 4.9038576e-06 4.9867685e-06 -0.0004930458 3.3727629e-06 -1.372772e-05 6.162678e-07
4.8197535e-08 -5.6433855e-06 4.3740624e-07 -2.157353e-06 -5.5129476e-08 1.4946284e-05 -1.9473922e-05 1.076352e-06
-7.0774868e-06 -1.8541078e-06 3.9846647e-05 2.9854495e-05 -3.4101286e-05 3.907799e-06 -1.5220797e-05 1.6638704e-05
-3.209771e-05 1.2347197e-05 -1.522414e-05 1.8526041e-06 -1.0911526e-07 -3.4157263e-05 -1.3670202e-05 7.232806e-06
6.732063e-06 4.0274754e-06 -1.2592777e-05 -1.1429243e-05 -2.9427849e-05 -9.731955e-06 -3.6554102e-05 -2.5142117e-06
-4.921981e-05 2.4050833e-05 1.1406747e-05 1.4284972e-05 4.7213412e-05 -4.797067e-06 5.695314e-05 -1.6695594e-08
1.326858e-05 -2.8132988e-06 -5.3320422e-05 -1.2744399e-05 -1.5518264e-05 1.5561332e-05 1.546141e-05 3.3887867e-05
-2.6828802e-06 -1.9228439e-05 -5.164545e-06 -1.1315624e-05 4.1038334e-06 -1.0626515e-05 3.1395713e-05 2.699054e-05
2.2970657e-05 -1.5340194e-05 2.693162e-06 -7.6492115e-06 1.0269279e-05 1.4158149e-05 3.0102594e-05 1.198683e-05
-3.1968386e-05 2.3688297e-06 6.15012e-05 2.4221328e-05 4.9966384e-06 1.14735385e-05 1.0028432e-05 -2.003642e-05

lays.0.bias f4 [256]
00000000: 39ca b6bd f857 8ebd 7a35 b7bc 117a 40bd
00000010: ab99 d0bc 3ba1 b7bd 6e4d a73e 7fdf a3bc
00000020: ff7d d7bc 1f54 74bb fd8f cebc 45f8 dfbd
00000030: 3f30 2cbc c0b9 863d dd9b b2bc 9b95 cd3c
00000040: c308 a83b ace7 d5bc 4c95 12be 3c3f 04be
00000050: 04bd b8bc f995 44bd 3724 0bbe a5be f8bd
00000060: e10d 9dbc 3e58 efbd c890 3f3d 1636 223d
00000070: 41ae 4f3e 8851 a0bd 4cd7 8ebd 3ca5 a73e
00000080: 2a71 77bc 0637 f7bd 2f51 f8bd 5900 d2bc
00000090: 3577 e6bd 7cbf 873e ff45 60bd 7156 563c
000000a0: 4c11 b5bd 9231 3dbd fc99 023f 1bd2 f13c
000000b0: bb9a 10be aed8 e4bd faef 853e cf67 d5bc
000000c0: ac0b 8f3e ace7 cfbc 5f6b a5bc b755 92bd
000000d0: 67ab be3e a9d7 dfbd a203 fbbd 2998 7bbd
000000e0: 56d0 f63c c63d 76bc e49f e53e 0226 ac3e
000000f0: a18e 08be ee13 9ebc 2303 e73e 3be5 59bd
00000100: c0a7 02be 42d1 67bd ad95 933d 80fd 9dbd
00000110: 996b b4bd 6a2c d43e df7f cf3d e125 2cbd
00000120: 1293 c8bc adef 04bc 69cf d1bc 4454 f2bd
00000130: 6619 043f bcdb f9bc 5907 57bd d622 e8bd
00000140: 8ff3 8ebb b9c2 cdbc 8666 f4bd 3da4 e4bd
00000150: 0dd6 c9bc 0b71 fa3e 7020 1dbd 8593 29bd
00000160: 6627 80bd 5967 52bc 1d37 90bc ee8f 94bc
00000170: e8f4 c7bc d866 cdbc 495e e93e 7716 82bd
00000180: b25a ea3e 825e cdbc 7c9a 46bd a39f f5bc
00000190: cbde 0bbe b442 a9bd 8ba2 6abd 6f09 6bbb
000001a0: e80e e7bb 0b94 10bd d727 813d c0d8 64bc
000001b0: 7cc3 abbd 8534 ddbd 3b58 e43e 3693 cdbc
000001c0: fcb8 67bd 6599 d0bc 5f3b e63e f15b ae3e
000001d0: 10d2 9739 f26d 57bc 552c 0cbd 09ce 123f
000001e0: fae6 86b8 cafd c8bd fa86 9ebd 4393 8bbc
000001f0: ab88 523e 7842 a13b 28ed d5bc 9491 4dbb
00000200: bda1 d8bc a31f 5abc 81e9 cbbd 9a1a a138
00000210: 77d8 283e 9d7d 2dbd a15b cdbc 5a38 bfbd
00000220: ac48 b0bc 8a82 09be 8de0 953e f782 7e3c
00000230: efb5 12bd ce42 98bd d854 11bd 6599 ce3c
00000240: 634a 9bbd 0d70 203c e48b 183c 151a b73e
00000250: 76ee 5abd c1e4 ecb9 6261 cebc 2906 c9bd
00000260: 0542 a8bd 518b d3bc 1b87 dfbd 5778 86bd
00000270: cf0e e5bd e1a9 af3c 745d aa3e 9dad cdbc
00000280: 47f6 e53e 4951 ab3e faa9 eebc 8cb6 c0bc
00000290: 3d73 b53e 353c e1ba 2f4d c63e 7e36 cf3c
000002a0: ae2b 51bb 59ff 86bd 5042 a8bd ce7b cdbc
000002b0: d6df 5ebd c047 d6bd a18d a63b 55d7 6b3d
000002c0: b57f eebd b6ee d4bd 3516 573d 484c 0fbe
000002d0: 0c0a 01be 427d 86bc afc3 f8bd 8b72 70bc
000002e0: 50c6 c3bd 63fa cfbc 65e0 0dbe 9f50 803b
000002f0: 173f cebc 7840 a53c 3e5d 33bd 3bb4 7c3e
00000300: 01b4 91bc e3f6 b2bd bf47 90bd fe95 85bd
00000310: b6a8 bc3c f6be b83c 107e f13e 7394 c63e
00000320: 26e4 c13c 857c 01be 32df a3bd 8427 f0bd
00000330: 9c8b 01be 3e76 01bd 63d2 a93e a61c 7f3d
00000340: 2d42 d03e 3245 bdbd cf99 543e cb17 a0bd
00000350: 2345 b3bc 56f2 cfbc aa8c e9bd 17de b9bc
00000360: 362a f6bd 59fc a0bc af95 ba3e 796f 243b
00000370: fe7e 08be c0da 66bc a43a 57bd 4e27 dabd
00000380: 8272 59bd 60e5 3fbd cc9a 38bd a710 afbc
00000390: 9508 723e 2a95 6ebc a2cc 52bc a7b1 debd
000003a0: 2a57 96bd 61f2 fbbd d8f0 013e 429b 2b3d
000003b0: 2363 d8bd f5b5 0cbd 3ee7 f6bc b633 b7bd
000003c0: ee79 a8bd 1c64 9d3e ad7b 6ebd ead9 bebd
000003d0: 21df 283e f178 e9bd 8f8e 48bc a97f 18bb
000003e0: 8393 44bd 95ba a1bc f2c5 a5bb 675f d3bc
000003f0: d785 cabb 900d 49be 7fc1 973b 80e2 473e
-0.0892529 -0.069503725 -0.022364367 -0.04699141 -0.0254639 -0.08966299 0.32676262 -0.020004032
-0.026305197 -0.0037281585 -0.025215143 -0.109360255 -0.01050955 0.06578398 -0.021802837 0.025095752
0.0051279976 -0.026111446 -0.14314765 -0.12914747 -0.022551067 -0.047994588 -0.13588034 -0.121457376
-0.019171657 -0.11686753 0.046768934 0.03960236 0.20281316 -0.07828051 -0.06974658 0.3274325
-0.015102664 -0.12071042 -0.121248595 -0.025634931 -0.11253206 0.26513278 -0.054754253 0.013082133
-0.0884119 -0.046189852 0.5101621 0.029519131 -0.14121525 -0.11174141 0.2615965 -0.026050476
0.27938592 -0.025379024 -0.0201928 -0.07145255 0.37240145 -0.10929806 -0.12256552 -0.061424408
0.03012864 -0.015029376 0.4484855 0.33622748 -0.13335659 -0.019296613 0.4511958 -0.053197127
-0.12759304 -0.05659605 0.07206283 -0.07714367 -0.08809585 0.41440135 0.10131811 -0.04202831
-0.024484191 -0.008113784 -0.025611596 -0.11832479 0.51601255 -0.030500285 -0.05249724 -0.113347694
-0.0043625305 -0.025117265 -0.11933617 -0.111641385 -0.0246382 0.4891437 -0.038361013 -0.04140045
-0.06257515 -0.012842023 -0.017604405 -0.018135037 -0.024408773 -0.025073454 0.45579746 -0.06351941
0.4577232 -0.025069479 -0.04848717 -0.029983347 -0.13659208 -0.08264676 -0.05728392 -0.0035863777
-0.0070513375 -0.035297435 0.06306427 -0.013967693 -0.08386895 -0.10801033 0.44598565 -0.02509461
-0.0565729 -0.02546377 0.44967172 0.3405452 0.00028957473 -0.013148772 -0.034221966 0.57345635
-6.432641e-05 -0.098140314 -0.077405885 -0.017037993 0.20559947 0.004921254 -0.026114061 -0.003136729
-0.02644431 -0.013313207 -0.09956647 7.682033e-05 0.16488825 -0.042356122 -0.025068106 -0.0933692
-0.021519028 -0.13428703 0.2927288 0.015534154 -0.035818037 -0.07434617 -0.035481304 0.025219629
-0.075825475 0.00979234 0.009310696 0.35762087 -0.05345007 -0.00045183863 -0.02519292 -0.09815628
-0.08215717 -0.025823267 -0.10914441 -0.06565922 -0.11184465 0.02144331 0.33274424 -0.0251072
0.44914457 0.33460453 -0.029133786 -0.023524545 0.35439482 -0.0017184081 0.3873076 0.025294539
-0.0031916904 -0.065916725 -0.08215773 -0.025083449 -0.054412685 -0.10462904 0.0050828015 0.057578404
-0.11645452 -0.10397093 0.052511413 -0.13993943 -0.12601489 -0.01641715 -0.12146699 -0.014675747
-0.095593095 -0.025387948 -0.13855131 0.003915861 -0.025176568 0.020172343 -0.043790095 0.24678127
-0.017786028 -0.08738496 -0.070449345 -0.06522749 0.023029666 0.022551995 0.4716649 0.38785133
0.02366836 -0.12645157 -0.080015555 -0.11726287 -0.12650913 -0.031606905 0.33168325 0.06228318
0.40675488 -0.092417136 0.20761798 -0.07817038 -0.021883553 -0.02538411 -0.11403783 -0.022688909
-0.1201977 -0.019651579 0.36442325 0.0025090857 -0.13329694 -0.01409024 -0.05254616 -0.10652028
-0.05308772 -0.04684961 -0.0450695 -0.021370245 0.23636086 -0.014561931 -0.012866171 -0.10873728
-0.07340844 -0.123020895 0.12689531 0.041896112 -0.10565784 -0.034353215 -0.030139562 -0.0894541
-0.08226381 0.3074044 -0.058223415 -0.093189076 0.16491367 -0.11400021 -0.01224102 -0.002326945
-0.04799224 -0.01974229 -0.0050589973 -0.025802327 -0.0061805057 -0.1963408 0.004631221 0.19519997

lays.1.weight f4 [256, 256]
00000000: 4fa8 34b2 bd4d 14b5 a5db 81b3 808e cc31
00000010: df08 a0b3 d3ac 7636 7991 9238 0ed2 4235
00000020: 3bb2 4b37 dc38 83b4 7c0a 673b a616 16b3
00000030: 33fb bbb5 7c1b 02b7 232e 8333 531b 8fb6
00000040: eace 8133 a0c8 27b3 642e 5b32 8c6f 06b2
00000050: d667 8d33 8a48 8c32 5e4d f733 8fe2 9cb6
00000060: b523 2634 2202 5bb4 2957 92b4 c4bb 3637
00000070: e896 c238 2cba 38b3 dc53 64b6 eb57 4738
00000080: 6fe4 1bb4 2845 88b6 0afa ddb2 0ea2 2533
00000090: f0f6 51b3 02fc 9fb8 b438 99b6 8030 8c32
000000a0: fdfe d433 3a17 1bb5 123f 0eb7 bc78 4b36
000000b0: 602b 662f 279e 4f35 7273 41b8 9e0b 4834
000000c0: d249 df37 d218 a333 b8a8 e0b3 188b 4e36
000000d0: 7a4f 8fb7 f337 8bb5 e61d 91b6 3299 1d36
000000e0: 20ba 2036 04fc 1c34 58f8 74b5 c82d 5538
000000f0: 58f1 80b4 b087 ecb1 5258 04b6 5d2a 3932
00000100: 30d1 dab5 47f7 bb33 01c2 70b7 5598 cd35
00000110: 3437 32b2 f590 a035 719b eeb7 03a8 f4b4
00000120: a013 3a31 58fd 89b4 00f6 ceaa 7468 12b5
00000130: d032 aa34 6c70 0eb2 df39 ce33 16e9 9b33
00000140: 2a2b 05b6 9ce0 6933 96e5 e735 7414 6eb5
00000150: f8bc e331 ce0a 0836 ccfb b7b4 01d2 d9b3
00000160: 66c5 eeb1 0515 2db5 884f 5134 9cdd 8735
00000170: ccec 20b3 ccf4 90b2 8de6 85b6 80a9 9535
00000180: ab81 a635 fa58 9eb2 c21e c9b6 0004 d82d
00000190: d5a9 f535 2baf c734 d0ce 86b1 de6b f7b3
000001a0: c850 41b5 cd2c a131 bff4 6db6 9edd 51b3
000001b0: 8edd 0236 8e0f f1b3 803b cd36 bb2d b232
000001c0: 25bb b334 a3f8 0134 8dcb ffb7 58ef 2d37
000001d0: 63bd a434 3956 6034 93ad d433 0644 0336
000001e0: 88f6 adb2 a0ac 37b3 74a4 12b0 8e0a ea33
000001f0: 9b89 5e38 d729 51b4 4340 8cb3 5cb6 aa33
00000200: 00fb 1c2e d07a 54b4 0cb1 14b4 15f7 9339
00000210: b0a4 0937 54c9 53b5 9721 8232 8009 1135
00000220: b81d 7e33 ead9 6d34 94c2 97b8 75a5 9bb2
00000230: bd0f cdb5 c520 6433 c05b 7633 0c45 49b6
00000240: ce61 a334 8709 9d33 f6a5 fd35 386d 9b37
00000250: 0094 0532 029a 0bb6 248d 5732 4afc 2c32
00000260: de04 4636 e6cf f133 c77c 9e36 cb99 49b3
00000270: a07f 3eb0 ccf5 4834 4cbd b135 7c6a 13b4
00000280: 8c98 a736 ca0f aa37 2e53 c035 f8a6 a1b0
00000290: 40cd 0e38 e732 2a3c 1ee6 4736 acd6 30b5
000002a0: bfab 2cb4 23e5 1db6 b4bb fa34 50bb ad32
000002b0: 8e71 1634 d369 7436 dfc2 a534 14dd c1b5
000002c0: 8134 0ab3 e727 b6b2 7ed4 8db4 b635 8b35
000002d0: ad0c 0db7 66cd 0235 462e c035 b535 a3b5
000002e0: 9f12 0d33 6cd5 d633 f01d a1b5 ee6c 2a34
000002f0: b487 f7b3 5a09 cab4 b80c 9a36 7474 2638
00000300: b20e b7b2 0c84 70b3 f242 b4b5 5546 95ad
00000310: 4840 4fb4 c0ab 4fb5 1072 51b7 b8c2 c7b6
00000320: 0cd9 abb6 e633 a535 8940 8333 941f 8532
00000330: f742 64b1 20a8 8db0 1681 5cb8 a1b9 57b7
00000340: 3c42 9635 48f8 f030 d22b 2337 0ed6 92b1
00000350: 2a5a a2b3 028c 3933 e94b 9d32 fbc9 5d33
00000360: 5007 7933 641c 3435 a373 fbb6 2df7 ad33
00000370: 366d da36 2e39 c033 b7ca 0e36 12dc 57b3
00000380: 7805 aab1 68dd b4ab 8fba 12b2 d034 b333
00000390: 1b47 e8b9 ecbe 1037 bc82 bc33 9437 88b7
000003a0: 25c6 fb35 2a2f 3e33 05d6 71b6 dbde 3eb5
000003b0: c80f afb3 7ed7 1136 02ee a5b5 a1ea 2cb7
000003c0: 29c4 ecb6 0235 6c37 7223 fcb2 9675 32b4
000003d0: 9683 c3b7 bc2f 22b5 8e9e 87b3 c38b c5b6
000003e0: 131e a4b4 6683 4f33 40b4 55b1 b2a9 8a33
000003f0: b8d2 38b6 f43c b3b2 52c8 6a33 1eef 0037
-1.0515648e-08 -5.524742e-07 -6.046984e-08 5.953382e-09 -7.452194e-08 3.6757453e-06 6.988919e-05 7.25763e-07
1.214124e-05 -2.4442022e-07 0.0035254052 -3.4945195e-08 -1.4005694e-06 -7.755003e-06 6.108555e-08 -4.264913e-06
6.044668e-08 -3.9065185e-08 1.2758026e-08 -7.825189e-09 6.584712e-08 1.6331132e-08 1.1515907e-07 -4.675537e-06
1.5472945e-07 -2.039674e-07 -2.7258037e-07 1.0891763e-05 9.278749e-05 -4.301016e-08 -3.402346e-06 4.7527177e-05
-1.4518604e-07 -4.0611667e-06 -2.584149e-08 3.8564444e-08 -4.8886193e-08 -7.628651e-05 -4.5663564e-06 1.63202e-08
9.9184014e-08 -5.77758e-07 -8.478544e-06 3.0319634e-06 2.0933788e-10 7.734365e-07 -4.6122303e-05 1.8630678e-07
2.6618047e-05 7.594794e-08 -1.04615026e-07 3.0777355e-06 -1.7083938e-05 -1.037259e-06 -4.3248174e-06 2.3483994e-06
2.3950197e-06 1.4620315e-07 -9.125847e-07 5.0825794e-05 -2.401746e-07 -6.88393e-09 -1.9720942e-06 1.077805e-08
-1.6303147e-06 8.7528456e-08 -1.4350285e-05 1.5318025e-06 -1.0373515e-08 1.1963117e-06 -2.8444194e-05 -4.5570786e-07
2.7077718e-09 -2.570257e-07 -3.6763648e-13 -5.454124e-07 3.1701938e-07 -8.29105e-09 9.603149e-08 7.260148e-08
-1.984367e-06 5.445382e-08 1.727766e-06 -8.869167e-07 6.6280528e-09 2.0271868e-06 -3.4269613e-07 -1.01430494e-07
-6.9491533e-09 -6.447811e-07 1.9493575e-07 1.0122781e-06 -3.746827e-08 -1.6875127e-08 -3.9905485e-06 1.1150696e-06
1.2405702e-06 -1.8434083e-08 -5.9938475e-06 2.4558133e-11 1.830335e-06 3.719409e-07 -3.923425e-09 -1.1521455e-07
-7.2015655e-07 4.69081e-09 -3.5458213e-06 -4.8863164e-08 1.9500471e-06 -1.12252664e-07 6.116403e-06 2.0742723e-08
3.3477514e-07 1.2104515e-07 -3.0493155e-05 1.036733e-05 3.0685177e-07 2.0892993e-07 9.903592e-08 1.9560116e-06
-2.025196e-08 -4.276501e-08 -5.334819e-10 1.0898394e-07 5.305708e-05 -1.9479863e-07 -6.530947e-08 7.949413e-08
3.5693226e-11 -1.9788718e-07 -1.3847983e-07 0.00028222115 8.204181e-06 -7.8896596e-07 1.5149267e-08 5.4030534e-07
5.9166013e-08 2.2151622e-07 -7.236484e-05 -1.8119616e-08 -1.5278271e-06 5.311519e-08 5.7359784e-08 -2.9991525e-06
3.0432278e-07 7.312615e-08 1.889827e-06 1.8528299e-05 7.77527e-09 -2.0802258e-06 1.2546739e-08 1.0069082e-08
2.9507132e-06 1.12602535e-07 4.723293e-06 -4.6938833e-08 -6.9302963e-10 1.8715872e-07 1.324262e-06 -1.372918e-07
4.9947466e-06 2.0272932e-05 1.4329323e-06 -1.1761747e-09 3.4046592e-05 0.010388113 2.9787257e-06 -6.58775e-07
-1.6081229e-07 -2.3528198e-06 4.67027e-07 2.022503e-08 1.401115e-07 3.642043e-06 3.0875432e-07 -1.4443963e-06
-3.217838e-08 -2.1205734e-08 -2.6417905e-07 1.0371939e-06 -8.407206e-06 4.872767e-07 1.4318582e-06 -1.2160077e-06
3.2846057e-08 1.0003973e-07 -1.2004148e-06 1.5872112e-07 -1.1526518e-07 -3.7632236e-07 4.5910383e-06 3.968594e-05
-2.1310687e-08 -5.599945e-08 -1.3430529e-06 -1.6970573e-11 -1.9301763e-07 -7.736344e-07 -1.2483928e-05 -5.9533304e-06
-5.1214647e-06 1.2308562e-06 6.111902e-08 1.5497598e-08 -3.3216432e-09 -1.0306884e-09 -5.2572308e-05 -1.2858219e-05
1.1195148e-06 1.7532864e-09 9.72576e-06 -4.2734944e-09 -7.5601136e-08 4.3201005e-08 1.8311725e-08 5.1639272e-08
5.798148e-08 6.709654e-07 -7.493845e-06 8.100901e-08 6.50962e-06 8.9510976e-08 2.1277644e-06 -5.025874e-08
-4.948273e-09 -1.2851222e-12 -8.540737e-09 8.3449436e-08 -0.00044303466 8.627521e-06 8.778213e-08 -1.6238344e-05
1.8758625e-06 4.4280718e-08 -3.6036374e-06 -7.1104813e-07 -8.151943e-08 2.1732117e-06 -1.2362727e-06 -1.0306628e-05
-7.056184e-06 1.4079038e-05 -2.935278e-08 -1.662032e-07 -2.3307086e-05 -6.0419165e-07 -6.315268e-08 -5.887328e-06
-3.0569262e-07 4.831545e-08 -3.109804e-09 6.456993e-08 -2.754079e-06 -2.086606e-08 5.466456e-08 7.685068e-06

lays.1.bias f4 [256]
00000000: 04c2 a9bc 2fa5 a43c a948 0b3d cf31 a4bc
00000010: c821 82bd b374 0b3f 5e8d 9fbc f09b 87bc
00000020: 1011 2f3d c7a4 a03c feee 57bd 8672 8e3c
00000030: a06b 3bbd dab3 4eba caaa 03bd 1e71 28bd
00000040: 9a4f 94bd f176 5fbd 4edc a9bc 1427 91bd
00000050: 69da d03c 6274 dd3c a271 da3e 6485 df3b
00000060: 8c77 4cbc d072 3bbd 0a79 32bc 7a4f b2bc
00000070: 08cc 123f 393d 00bd 7a12 6ebd 3032 483e
00000080: 5c48 afbc d552 80bc 6800 91bc 535b 99bd
00000090: 517e fa3c 15d0 93bd 6ffe 46bd 3f6a f4bb
000000a0: ef43 cfbc 010c 8d3c 67d1 e43d 629a 03bc
000000b0: dbff f33e 2654 b23d ad43 103c 3b01 263e
000000c0: 2d0d 883c bfa6 24bd edfe 4a3d ff52 d23c
000000d0: cea3 3abc 7d5b e7bc bea1 88bd c8b0 b7bc
000000e0: 7670 943c 5f69 41bd 0524 e13c d418 fb3b
000000f0: bde1 0dbd 09a5 fb3c 2e6d cebb eeb4 1bbc
00000100: 2bc5 ccbc 1f58 e73b c7c3 94bc e723 91bc
00000110: da9b bcbc 39f2 d33d 1c16 cbbd 40a6 52bd
00000120: 823d 183c 9e1b fcbc ad9d e43b 2f19 6dbd
00000130: 7fcf 4fbd 59eb e4bc 3535 89bd 9a1a 81bd
00000140: 7b4a e83c 5b10 113c 3f60 62bd 9518 6d3c
00000150: 99e8 0b3e 05f2 91bd 8bf7 d33c f852 8bbd
00000160: 7c1d c9bc 2604 903b 57db 3cbd 4ac1 323d
00000170: ee9f b6bd 5805 35bc 14a4 943c d546 27bc
00000180: e95a 3b3c 4da9 363c 089f 83bd 37aa 523b
00000190: 994d f8b9 6f74 19bd 9d82 1dbc ff29 d13e
000001a0: a4b8 f0bb 4035 56bd 3568 afbb aae4 3ebd
000001b0: 9fce 2c3d 80a7 b4bc 00bb a83c 3962 a5bd
000001c0: 237e 00bc af5d 31bc b99a 32bc 218a 75bc
000001d0: 2a9e 72bd 36a6 25bd b9b4 a6bb c564 0cbd
000001e0: a6e6 69bc 5f31 39bd 15c0 2fbd c6c3 2c3d
000001f0: f5a2 ecbc e58b e7bd ccb4 cd3c 5634 36bd
00000200: 9ec4 d0bc 9a39 91bd 0e39 1bbc 9f70 4cbc
00000210: 7566 15bd bf9d 92bd 0908 75bd 2856 59bd
00000220: 1690 70bd 9bea 23bc d96a d43c ba46 bc3c
00000230: d514 ccbc 5f36 2abd a6b9 c0bc 83dd 31bc
00000240: a88a f1bc 3fe4 d2bc 3b3c f13b 32a2 a9bc
00000250: 2e37 053d 744d 2dbc 9c43 7dbc 1e1f 893b
00000260: 6d82 05bc 2d3a 72bd 3201 243f 899c b23a
00000270: 319e 89bd d5b8 b63c 703f c03b 688a 8bbd
00000280: 4aed 01bd fd62 6fbd 487d 23bd c645 dbbc
00000290: 89ee abbc f73b d4bc 9114 a6bc 0e0c bb3d
000002a0: c2a2 edbc 2169 05bd fa57 8fba cdee 97bc
000002b0: 1bd5 4e3c 9f94 80bd a4e4 0bbd 5311 4c3b
000002c0: 8efb 01bb aac2 223d aa0c de3c 6d02 93bb
000002d0: aeb6 46bd d4d7 bebc 757d 1d3e db18 213c
000002e0: d1b4 24bd ab82 083d f5bc c3bb bb2b c1bc
000002f0: 38e9 8fbd 6865 3abd ea31 82bd 2432 153b
00000300: 10fd bc3c 455b c63c 6fb5 babc d7be 06bb
00000310: 721f 45bd fc0c 88bb 101a 2bbd 23f1 f0bb
00000320: e40d 4cbc 6261 8dbc 39f1 e1bc f3a0 1a3b
00000330: 0b29 1a3d 40a7 9cbc 0f3d 1bbd ef3e 2a3d
00000340: 68ab 36bd f6e2 96bc 9b2e 7a3c 8471 263f
00000350: 5391 2d3d 29c8 bd39 c06b ba3c b2d7 9dbc
00000360: fd7f ed3c db45 8cbc 98cd 59bd 4cfc 5ebd
00000370: fb61 13bc 3ac6 a23c 9469 03bd 4721 c63c
00000380: cfce 0c3c 3919 6bbd 3743 f53e 9b7f 3f3d
00000390: fd31 473c 10f1 56bd 56fe f4bc c98f 14bc
000003a0: ba31 7ebd 65fe 42bd e71e 76bd 1b75 a93c
000003b0: cdf1 d93b 9aa4 153c 02f6 ecbc 88c1 63bd
000003c0: 981d 9b3c 34be dabc e27e 64bd bc8f 923c
000003d0: 99cf fc3d 4596 78bd 5e89 e5bc 9e72 7ebd
000003e0: 4aac 133d 8454 4cbd cb5b 0ebc 4253 a8bc
000003f0: f546 973c 730c 433d 0361 ecba 4f87 e0bc
-0.020722397 0.020098297 0.03400484 -0.020043282 -0.063540995 0.54474944 -0.019476589 -0.016553849
0.04274088 0.019609822 -0.052718155 0.017388593 -0.045756936 -0.00078850763 -0.0321453 -0.041123502
-0.07241745 -0.05455679 -0.020734932 -0.07087532 0.025494771 0.027033035 0.4266482 0.0068213213
-0.012479674 -0.04576379 -0.010893116 -0.021766413 0.57342577 -0.031308386 -0.05812309 0.19550395
-0.021396808 -0.015664497 -0.017700389 -0.07488122 0.03057781 -0.07217423 -0.04858249 -0.0074589546
-0.025300948 0.017217638 0.11172753 -0.008032413 0.4765614 0.08707456 0.008805198 0.16211407
0.016607845 -0.040198084 0.049559522 0.025674341 -0.011391593 -0.028241867 -0.06671475 -0.022423163
0.018120032 -0.04721963 0.027482996 0.007662872 -0.03463911 0.030718343 -0.0062996363 -0.009503586
-0.02499636 0.0070600654 -0.01815976 -0.017717315 -0.023023535 0.10348935 -0.099163264 -0.05142808
0.009292008 -0.030774888 0.006976804 -0.057885345 -0.050734993 -0.027944254 -0.066996016 -0.06303902
0.028355828 0.008853997 -0.05526757 0.014471193 0.13662948 -0.0712624 0.025874874 -0.068029344
-0.024550192 0.004395026 -0.046107616 0.043641366 -0.08917223 -0.011048637 0.018144645 -0.010209759
0.011435249 0.011148763 -0.06426817 0.0032144913 -0.0004736006 -0.037464555 -0.00961366 0.40852353
-0.0073462296 -0.052296877 -0.0053529986 -0.04660479 0.042189237 -0.022052526 0.020596981 -0.08075375
-0.007842573 -0.010825559 -0.010901147 -0.014986546 -0.05923287 -0.040441714 -0.005087462 -0.03427579
-0.014276182 -0.0452131 -0.042907793 0.04217889 -0.028886298 -0.1130598 0.025110625 -0.044483505
-0.02548438 -0.07091065 -0.009474052 -0.012478023 -0.036474664 -0.07158994 -0.059822116 -0.05306068
-0.05873116 -0.010004665 0.025929855 0.022982944 -0.024912277 -0.04155576 -0.023526024 -0.010856035
-0.029485062 -0.025743602 0.0073619164 -0.020707224 0.032523327 -0.010577548 -0.015458014 0.0041846177
-0.008148772 -0.059137512 0.64064324 0.0013626973 -0.06719626 0.022304932 0.0058669373 -0.06813508
-0.031720437 -0.058444012 -0.0399144 -0.026766669 -0.020987766 -0.0259075 -0.020273479 0.091331586
-0.029008273 -0.032570962 -0.0010936253 -0.018546486 0.0126240505 -0.06278347 -0.034153596 0.0031138256
-0.0019833776 0.039736427 0.027105648 -0.004486373 -0.04851406 -0.023296274 0.1537989 0.009832586
-0.040211502 0.03332774 -0.005973453 -0.023580423 -0.07026905 -0.045506865 -0.063571766 0.0022765482
0.023069888 0.024213443 -0.022791592 -0.0020560527 -0.04812569 -0.0041519385 -0.041772902 -0.0073529645
-0.012454484 -0.01725835 -0.027580844 0.0023594468 0.037636798 -0.01912272 -0.037900027 0.041563924
-0.04459706 -0.01841877 0.015269901 0.6501696 0.04237492 0.0003619802 0.022756457 -0.01926789
0.028991694 -0.017123153 -0.053174585 -0.054439828 -0.008995528 0.019869912 -0.03208311 0.02418579
0.008594229 -0.0573971 0.47902843 0.046752553 0.012157914 -0.05247599 -0.029906433 -0.009067484
-0.06205914 -0.04760589 -0.060088065 0.020685723 0.0066511394 0.009133482 -0.0289259 -0.055604488
0.01893501 -0.026702024 -0.055785067 0.017890804 0.123442836 -0.060690183 -0.028019603 -0.062121026
0.03605298 -0.049885288 -0.008688877 -0.020547513 0.018466452 0.047619294 -0.0018034283 -0.02740827

lays.2.weight f4 [2, 256]
00000000: bcf3 8b36 d6e0 29b8 a510 28bc 0301 163a
00000010: 98eb 2f3d 463e 82bd 1664 5b3b 495e 253c
00000020: 2148 00bc f0f7 e9b8 8381 34bd a7c5 38bb
00000030: 70b4 6d3a 1548 c23b 2cc0 ce3c cdc7 cabc
00000040: 9cf9 9238 db3a f2b8 597c 3fbd 2191 943b
00000050: 4c6d 8c3b 1f15 dbbc 6b4b e8bc 575d b5bb
00000060: dbe2 bfb9 6e61 873c 7747 86bc 3b8a 92b6
00000070: 221d 87bd 1c9b 90bb c28a 00bc 1edb 4ab9
00000080: f33a 8bbb 1a50 073b 8234 1f3d 71fd 9fba
00000090: 0d50 2e3b 9141 9d3b 09e5 b93c 34ed b33b
000000a0: 810e 453d 6546 003b 8f53 803a a81b 513d
000000b0: 77f0 33bd 0ab2 ae38 3c8f 2db8 3cb8 29b8
000000c0: ddfd 473b afd0 103d 320b 803a 4c00 773b
000000d0: 74cd 4738 608f d1bc 10f3 05bd 5245 7db9
000000e0: 1252 dbb9 0997 1c3d a359 26bd d90d 2abc
000000f0: 758a 46bb 0524 7139 3644 a5b8 a430 f437
00000100: 2dcc 7139 b039 4b3d 442b 75bc 79f1 c9bc
00000110: 6d7f 54bd c4ca b538 4a43 68bb 497f ac3b
00000120: f90b f9bb b113 2ebd 9fa7 a9b8 e6bc 103d
00000130: 651e 833b 80bc 513c ac82 763c b194 c7bc
00000140: e8a3 6eb9 8141 f9bc a6b1 c5bc 860c d837
00000150: e502 5739 767c db3b 6201 77bb fe09 1f3d
00000160: 6aed 1fba b800 763b 22f0 05bc 5dce b3bc
00000170: ce9b 88bb 6580 16b7 d2fd 8a38 ee6e 8dbc
00000180: 06b2 1ab9 ca2e 463b e67d d43c ef22 8ab7
00000190: e09f 91b7 50f7 72ba bedb 85b7 96ab adbc
000001a0: 4a81 69b8 88d9 6bbb 7de8 e3bb 10db 85b9
000001b0: 235a a43a d4ae bb3c 7782 b0bc f6d6 f23c
000001c0: 5b49 0dba a85b be39 40fd 55b8 6f3c f836
000001d0: 162c 0b3d 9567 643a e226 7a3c bd73 063d
000001e0: 0cfd 1e3b 5dca 343c f3c7 08bc 413c 3dbb
000001f0: a9cc dbbc fe6e 183b 9f40 0039 99c6 d5bc
00000200: d61d 20bd 4914 2c3c 7a74 c437 c2ad d4bc
00000210: ec68 2f3d a584 98bb c9c6 f0bb aa38 23bd
00000220: 6188 a93c e8c6 5bb6 937d abbc 17d8 7f3c
00000230: 10f0 0339 a756 30bd 2686 33ba 2298 b4b9
00000240: d6fe 373d 3b0b dabc e447 67b8 6fbe 85bc
00000250: 23a3 823b 1575 3d3b f95e e7ba d683 14b7
00000260: dd51 06bd 957e 13bd 78f8 a4bd a775 ca3b
00000270: 4702 a33b 4b7f 483b a196 4e3d 7538 fe3a
00000280: ad91 40bb b215 063c ec1d dbbc 0fa2 853a
00000290: ff1e 7939 f414 703c 53a4 733b 27ef d3b9
000002a0: 725a 01bd af5b bd3c 496c 033d acf1 4f38
000002b0: 6ef9 3a39 f14c 0dbd eb86 b53c 6cb9 4fb8
000002c0: a782 9437 d2d9 1a3d 64c8 99bc af8b adba
000002d0: c83a eb3c e5cb dbb8 c650 b8b8 1a77 4b38
000002e0: 064b 283c cd35 05bc 1372 233b 4893 ba3c
000002f0: 185a 4b3d 98cd ab3b e8f6 4f3c 5573 b2b7
00000300: 07cc 9a3c 6056 203a 5c44 0a3b 60c8 4b3c
00000310: 89f9 e33b ecb5 9c38 fa7b 2b3b 7874 15b6
00000320: 70c9 053d 092a 233d 12e9 39ba 9d26 003d
00000330: 7f06 8fbb 4547 293c a348 273c 1dca 9abc
00000340: 69d6 e337 52e5 af39 82e6 6238 56c1 cebd
00000350: e7d9 f13b c173 8d3b c43e cf3b e409 1838
00000360: 29df 9cbc 4203 34b8 d756 2c3d 34a6 34bc
00000370: 4c96 a83b a281 8c3b 39da eb38 b92e 8337
00000380: 0f20 e6ba 9f4d e1bc 9603 3fbd cbdb 883b
00000390: d951 ec3c fe5f 33bd b0d3 f23a 4c42 12bd
000003a0: 0542 a63b 708c f83a 854a 353a 83d1 02bd
000003b0: 0643 28b8 e33f 06bc 2227 f638 28a6 2a3c
000003c0: c986 2eb9 85c8 09bc 3409 59bd 1f42 ae3c
000003d0: 6c45 78b9 fc5e d63c 3ef9 f039 9d15 8d3c
000003e0: 071c 8eb8 58a2 be3a 8166 1538 0422 9e39
000003f0: 6536 643c 5208 27bd 9043 22b9 967e 3abd
4.1708972e-06 -4.0502135e-05 -0.010257875 0.00057221967 0.04294929 -0.06359534 0.0033476404 0.01009328
-0.007829697 -0.00011156488 -0.044068824 -0.0028193982 0.000906772 0.005929003 0.025238119 -0.024753476
7.008316e-05 -0.00011550422 -0.046749447 0.0045339023 0.00428549 -0.02674347 -0.028356275 -0.0055348086
-0.0003659938 0.01652595 -0.016391499 -4.367231e-06 -0.065973535 -0.0044130217 -0.007845582 -0.00019345849
-0.0042489707 0.002064711 0.038868435 -0.0012206269 0.0026598007 0.004799076 0.02269222 0.0054909233
0.048109535 0.0019573208 0.0009790527 0.051051766 -0.043930497 8.330129e-05 -4.137981e-05 -4.046432e-05
0.0030516305 0.035355266 0.0009768961 0.0037689386 4.763664e-05 -0.025581062 -0.032702506 -0.00024153784
-0.00041832082 0.038229976 -0.040612828 -0.010379278 -0.003029493 0.0002299697 -7.8805184e-05 2.9109717e-05
0.00023059612 0.049615562 -0.014963929 -0.024651276 -0.051879335 8.6685206e-05 -0.0035440498 0.005264197
-0.007600304 -0.042499248 -8.08977e-05 0.035336398 0.004001426 0.01280129 0.015045803 -0.024362894
-0.00022758509 -0.030426743 -0.024132561 2.5755038e-05 0.00020505076 0.0066981865 -0.0037690033 0.03882789
-0.0006100746 0.003753705 -0.008174928 -0.021948988 -0.004168964 -8.970591e-06 6.6276305e-05 -0.01726481
-0.00014752903 0.003024029 0.02593894 -1.646715e-05 -1.7359795e-05 -0.000926842 -1.5957161e-05 -0.021199983
-5.567194e-05 -0.0035987813 -0.006955205 -0.0002553095 0.001253907 0.022910513 -0.021546585 0.029643517
-0.0005389654 0.00036307913 -5.1019015e-05 7.3980113e-06 0.03397759 0.00087129447 0.015268059 0.03282522
0.0024259714 0.011034575 -0.008348453 -0.0028875025 -0.026830988 0.0023259516 0.00012231104 -0.026095675
-0.039090954 0.010502883 2.341926e-05 -0.02596176 0.04282467 -0.0046544843 -0.007347916 -0.03984896
0.020694913 -3.2749322e-06 -0.020933902 0.015615485 0.00012582564 -0.043051388 -0.0006848298 -0.00034445623
0.044920765 -0.026616683 -5.5141645e-05 -0.016326157 0.0039867326 0.0028908898 -0.0017652205 -8.852183e-06
-0.032792915 -0.03600939 -0.08055204 0.006178576 0.0049746367 0.003059345 0.05043662 0.0019395488
-0.0029383705 0.0081838835 -0.026747666 0.0010195392 0.00023758037 0.014653433 0.0037176802 -0.00040423239
-0.031580396 0.023115007 0.03208569 4.957772e-05 0.00017831262 -0.034497205 0.02215906 -4.9525333e-05
1.7703815e-05 0.037805386 -0.018772312 -0.0013240481 0.028714553 -0.00010480712 -8.788849e-05 4.8509894e-05
0.010271793 -0.008130503 0.002493982 0.022775307 0.049646467 0.0052430145 0.012693144 -2.127296e-05
0.018896116 0.00061163865 0.0021097874 0.01243791 0.006957237 7.472545e-05 0.0026166425 -2.2270524e-06
0.03266281 0.03983501 -0.000709192 0.031286824 -0.004364788 0.010331933 0.010210189 -0.018895203
2.7160351e-05 0.00033549458 5.4097276e-05 -0.1009547 0.0073807123 0.0043167775 0.006324621 3.6248835e-05
-0.01914938 -4.291838e-05 0.042075004 -0.011025954 0.00514487 0.0042879144 0.0001124632 1.5638174e-05
-0.0017557162 -0.027502833 -0.04663428 0.004176592 0.028847622 -0.043792717 0.0018526223 -0.035707757
0.005073788 0.0018962752 0.00069157063 -0.031938087 -4.011674e-05 -0.008193943 0.00011737483 0.010415591
-0.00016644144 -0.008409624 -0.052987292 0.021271763 -0.00023676985 0.026168339 0.00045962067 0.01722222
-6.776308e-05 0.0014544232 3.5619832e-05 0.00030161452 0.013928984 -0.04077942 -0.00015474693 -0.045530878

lays.2.bias f4 [2]
00000000: c90b febe ceaa 063f
-0.49618366 0.5260438

l1.weight f4 [256, 63]
00000000: f225 1f36 b488 a135 648c 6cb5 8890 4eb4
00000010: acac 9236 2459 b9b4 2e27 a3b5 9447 1236
00000020: a065 dbb4 b253 40b6 772b b3b5 9108 0eb6
00000030: a889 da34 5f66 0eb6 ec47 3a35 8e69 d7b4
00000040: 88e1 ef34 991c 38b5 2b7b 4cb5 55ea b2b5
00000050: 779a 20b6 61f5 e4b4 5f6b 02b6 41fe 0cb6
00000060: 58d7 3fb6 05fd 1836 3c6e 0fb5 4daf b2b5
00000070: 94bf d6b4 e377 fa35 bef4 0d36 7157 a7b4
00000080: dc4b ceb5 e32e 4036 0223 4cb6 9b42 1736
00000090: d4dc 8535 bca1 d834 6861 abb5 9ca8 4c36
000000a0: 0acf 97b4 cf94 3935 ea40 46b6 d3dc 2036
000000b0: 52a9 20b6 f301 a1b5 c800 a235 2802 2434
000000c0: 2c78 a1b5 4aa2 4eb6 2724 13b5 2dfc e4b4
000000d0: e208 6235 9477 35b5 4a8e f9b4 726e 15b6
000000e0: 648c 0bb6 3ca7 4734 54ba 18b5 cd59 b335
000000f0: 370b 1636 010f e335 365f d8b4 2fad 6736
00000100: c0e6 87b3 e068 10b6 485e b233 707e 03b6
00000110: 1885 163c f255 dbb6 c692 dbb6 bc7e 77b7
00000120: 59b5 9136 2261 ecb6 fe36 7bb7 9151 5936
00000130: 9ec0 e635 9838 f536 542a 3cb6 6b5b 0eb7
00000140: 7874 da35 7d9d 8eb5 e492 2236 c816 5437
00000150: acf6 84b5 8065 6033 5305 4db7 ccbe 9abc
00000160: 708d 8836 6a4b 24b6 a0cc 42b7 a09d 5f35
00000170: fa76 5a36 9ca4 9136 008e ca33 000a 4c32
00000180: 2402 04b6 701f ebb5 a66a 27b7 1e47 ba36
00000190: c67e ffb6 44d9 1436 9070 6035 20bb 1a36
000001a0: c266 f0b6 24eb d0b5 4cd2 fd35 ede8 4eb6
000001b0: 81a3 5735 d819 2bb7 709c 2d35 97cb 13b5
000001c0: 202f aa36 e2da 09b6 650d 8db6 1fc6 94b6
000001d0: 3422 6136 803b e335 c8e4 7b35 4ea0 a1b6
000001e0: 1ec5 f536 f43f c8b5 d541 9435 4887 7336
000001f0: 69e2 f036 826d 96b6 f4aa 2bb7 90be 0b36
00000200: 6353 f2b6 73ec 1ab6 e68d f235 39ff 2bb6
00000210: 80e9 07b7 ccb2 89b5 f3a4 e135 3012 ebb5
00000220: 50bd 0735 c4be 2c37 1048 a533 2f39 2eb6
00000230: fb74 9d36 a590 ebb6 0919 3cb5 6173 2eb5
00000240: 3e41 3ab5 7b30 2b36 8b21 05b7 3097 0cb6
00000250: 70af 5e34 2984 2137 96fe abb6 52c3 46b7
00000260: da7a c5b6 304d 22b5 a004 19b7 e2db e8b5
00000270: 23ec f1b5 d0cd 4bb4 7d71 ce35 3a3e 1336
00000280: 73f1 3137 606a 3034 6082 beb5 2cd2 a4b6
00000290: cc26 a535 7e98 96b5 e1d4 f636 f00f fc33
000002a0: ae99 abb5 e638 6bb6 cd19 e6b6 1f64 97b5
000002b0: b677 6db6 2079 45ba e02b 5b34 a5f9 9336
000002c0: 183c 9b36 30a6 b2b6 d18b a436 0454 a736
000002d0: be3f 01ba a057 6236 1c50 66b7 9a6d 2535
000002e0: c001 4f33 505c bdb6 a8d4 ea34 0bc7 10b6
000002f0: 80c7 6cb3 cdc1 7a37 ee5b a3b7 2c77 9035
00000300: 267b edb6 a9da f8b5 0321 2738 0a70 fa37
00000310: fa07 0fb8 bd1f 8336 d35c 7fb7 5893 8b37
00000320: a7a0 06b8 cf26 4f37 2f6b 7fb7 fea6 f835
00000330: c052 eab3 1544 0fb8 1259 65b7 55b1 f236
00000340: fbe3 e136 c023 8736 9145 53b7 3ac0 3fb7
00000350: d3db f6b7 6e46 23b7 ab51 19b8 d4b9 28b6
00000360: 5e71 4eb8 c5c0 c937 9b5f 3f37 7da9 6f37
00000370: 0407 4638 7ef6 a0b6 f8e0 6e38 006a 8fb2
00000380: 1e9c 5e37 1bcc 3cb6 5ea4 5fb8 c7d0 55b7
00000390: 382d 82b7 b589 8237 20b3 8137 d222 0e38
000003a0: 880b 34b6 c24c a1b7 1b4b adb6 3cd8 3db7
000003b0: a9b3 8936 8948 32b7 e4ae 0338 be69 e237
000003c0: 1cb1 c037 d1ae 80b7 2cbc 3436 1d55 00b7
000003d0: 384a 2c37 c988 6d37 d484 fc37 0b1b 4937
000003e0: cb15 06b8 2ff8 1e36 35fa 8038 e82e cb37
000003f0: cca8 a736 797e 4037 ca3f 2837 e213 a8b7
2.3714933e-06 1.2035221e-06 -8.8121146e-07 -1.9237825e-07 4.3712407e-06 -3.4523794e-07 -1.2155849e-06 2.179736e-06
-4.086587e-07 -2.8658947e-06 -1.3349189e-06 -2.1164635e-06 4.0705822e-07 -2.1219237e-06 6.939506e-07 -4.0123672e-07
4.4681315e-07 -6.8586957e-07 -7.6175155e-07 -1.3330233e-06 -2.3931768e-06 -4.2646846e-07 -1.9434008e-06 -2.100962e-06
-2.8586564e-06 2.2797042e-06 -5.3432063e-07 -1.3313053e-06 -3.9999998e-07 1.8661343e-06 2.1153096e-06 -3.1169796e-07
-1.5370274e-06 2.8637521e-06 -3.0418746e-06 2.2539523e-06 9.973542e-07 4.0350812e-07 -1.2768842e-06 3.0496512e-06
-2.8276582e-07 6.9134416e-07 -2.9542084e-06 2.3970395e-06 -2.3940415e-06 -1.1996002e-06 1.2070168e-06 1.5274475e-07
-1.2030409e-06 -3.0790857e-06 -5.4814376e-07 -4.2651791e-07 8.4204487e-07 -6.7601763e-07 -4.6483393e-07 -2.2267018e-06
-2.0794332e-06 1.8594159e-07 -5.6895556e-07 1.3362675e-06 2.235827e-06 1.6917185e-06 -4.030241e-07 3.4522488e-06
-6.3284006e-08 -2.1518717e-06 8.3059206e-08 -1.9594117e-06 0.009187005 -6.536714e-06 -6.5437953e-06 -1.4751855e-05
4.3424484e-06 -7.044656e-06 -1.497357e-05 3.2382998e-06 1.7192394e-06 7.3081574e-06 -2.8038821e-06 -8.4851445e-06
1.6276163e-06 -1.062566e-06 2.4225383e-06 1.2641489e-05 -9.906557e-07 5.2246378e-08 -1.2220192e-05 -0.018889807
4.0695813e-06 -2.44818e-06 -1.1610944e-05 8.330335e-07 3.2553785e-06 4.3405e-06 9.432188e-08 1.1876637e-08
-1.9670779e-06 -1.7518014e-06 -9.978807e-06 5.551511e-06 -7.6143506e-06 2.2180184e-06 8.36103e-07 2.305671e-06
-7.16452e-06 -1.5565643e-06 1.8911173e-06 -3.0831973e-06 8.033167e-07 -1.01984115e-05 6.467517e-07 -5.505803e-07
5.071881e-06 -2.0541997e-06 -4.203687e-06 -4.433808e-06 3.3547522e-06 1.6930135e-06 9.3837707e-07 -4.816836e-06
7.3245164e-06 -1.4919774e-06 1.1046019e-06 3.6288566e-06 7.178915e-06 -4.4830967e-06 -1.0232197e-05 2.0823536e-06
-7.2218695e-06 -2.308542e-06 1.8071703e-06 -2.5629545e-06 -8.100993e-06 -1.0259332e-06 1.6811813e-06 -1.7514158e-06
5.0566905e-07 1.0296415e-05 7.696519e-08 -2.5961306e-06 4.692583e-06 -7.0203846e-06 -7.007189e-07 -6.498795e-07
-6.938534e-07 2.5509205e-06 -7.935228e-06 -2.0949628e-06 2.0739185e-07 9.627119e-06 -5.125835e-06 -1.1847196e-05
-5.8853593e-06 -6.0462025e-07 -9.1205875e-06 -1.7349341e-06 -1.8024624e-06 -1.8980722e-07 1.5381225e-06 2.1940928e-06
1.0606239e-05 1.6429976e-07 -1.4194047e-06 -4.912048e-06 1.2304749e-06 -1.1220252e-06 7.3561537e-06 1.17375635e-07
-1.278522e-06 -3.5050848e-06 -6.8575378e-06 -1.1279516e-06 -3.5385433e-06 -0.00075330026 2.0411926e-07 4.410004e-06
4.626356e-06 -5.32416e-06 4.9038576e-06 4.9867685e-06 -0.0004930458 3.3727629e-06 -1.372772e-05 6.162678e-07
4.8197535e-08 -5.6433855e-06 4.3740624e-07 -2.157353e-06 -5.5129476e-08 1.4946284e-05 -1.9473922e-05 1.076352e-06
-7.0774868e-06 -1.8541078e-06 3.9846647e-05 2.9854495e-05 -3.4101286e-05 3.907799e-06 -1.5220797e-05 1.6638704e-05
-3.209771e-05 1.2347197e-05 -1.522414e-05 1.8526041e-06 -1.0911526e-07 -3.4157263e-05 -1.3670202e-05 7.232806e-06
6.732063e-06 4.0274754e-06 -1.2592777e-05 -1.1429243e-05 -2.9427849e-05 -9.731955e-06 -3.6554102e-05 -2.5142117e-06
-4.921981e-05 2.4050833e-05 1.1406747e-05 1.4284972e-05 4.7213412e-05 -4.797067e-06 5.695314e-05 -1.6695594e-08
1.326858e-05 -2.8132988e-06 -5.3320422e-05 -1.2744399e-05 -1.5518264e-05 1.5561332e-05 1.546141e-05 3.3887867e-05
-2.6828802e-06 -1.9228439e-05 -5.164545e-06 -1.1315624e-05 4.1038334e-06 -1.0626515e-05 3.1395713e-05 2.699054e-05
2.2970657e-05 -1.5340194e-05 2.693162e-06 -7.6492115e-06 1.0269279e-05 1.4158149e-05 3.0102594e-05 1.198683e-05
-3.1968386e-05 2.3688297e-06 6.15012e-05 2.4221328e-05 4.9966384e-06 1.14735385e-05 1.0028432e-05 -2.003642e-05

l1.bias f4 [256]
00000000: 39ca b6bd f857 8ebd 7a35 b7bc 117a 40bd
00000010: ab99 d0bc 3ba1 b7bd 6e4d a73e 7fdf a3bc
00000020: ff7d d7bc 1f54 74bb fd8f cebc 45f8 dfbd
00000030: 3f30 2cbc c0b9 863d dd9b b2bc 9b95 cd3c
00000040: c308 a83b ace7 d5bc 4c95 12be 3c3f 04be
00000050: 04bd b8bc f995 44bd 3724 0bbe a5be f8bd
00000060: e10d 9dbc 3e58 efbd c890 3f3d 1636 223d
00000070: 41ae 4f3e 8851 a0bd 4cd7 8ebd 3ca5 a73e
00000080: 2a71 77bc 0637 f7bd 2f51 f8bd 5900 d2bc
00000090: 3577 e6bd 7cbf 873e ff45 60bd 7156 563c
000000a0: 4c11 b5bd 9231 3dbd fc99 023f 1bd2 f13c
000000b0: bb9a 10be aed8 e4bd faef 853e cf67 d5bc
000000c0: ac0b 8f3e ace7 cfbc 5f6b a5bc b755 92bd
000000d0: 67ab be3e a9d7 dfbd a203 fbbd 2998 7bbd
000000e0: 56d0 f63c c63d 76bc e49f e53e 0226 ac3e
000000f0: a18e 08be ee13 9ebc 2303 e73e 3be5 59bd
00000100: c0a7 02be 42d1 67bd ad95 933d 80fd 9dbd
00000110: 996b b4bd 6a2c d43e df7f cf3d e125 2cbd
00000120: 1293 c8bc adef 04bc 69cf d1bc 4454 f2bd
00000130: 6619 043f bcdb f9bc 5907 57bd d622 e8bd
00000140: 8ff3 8ebb b9c2 cdbc 8666 f4bd 3da4 e4bd
00000150: 0dd6 c9bc 0b71 fa3e 7020 1dbd 8593 29bd
00000160: 6627 80bd 5967 52bc 1d37 90bc ee8f 94bc
00000170: e8f4 c7bc d866 cdbc 495e e93e 7716 82bd
00000180: b25a ea3e 825e cdbc 7c9a 46bd a39f f5bc
00000190: cbde 0bbe b442 a9bd 8ba2 6abd 6f09 6bbb
000001a0: e80e e7bb 0b94 10bd d727 813d c0d8 64bc
000001b0: 7cc3 abbd 8534 ddbd 3b58 e43e 3693 cdbc
000001c0: fcb8 67bd 6599 d0bc 5f3b e63e f15b ae3e
000001d0: 10d2 9739 f26d 57bc 552c 0cbd 09ce 123f
000001e0: fae6 86b8 cafd c8bd fa86 9ebd 4393 8bbc
000001f0: ab88 523e 7842 a13b 28ed d5bc 9491 4dbb
00000200: bda1 d8bc a31f 5abc 81e9 cbbd 9a1a a138
00000210: 77d8 283e 9d7d 2dbd a15b cdbc 5a38 bfbd
00000220: ac48 b0bc 8a82 09be 8de0 953e f782 7e3c
00000230: efb5 12bd ce42 98bd d854 11bd 6599 ce3c
00000240: 634a 9bbd 0d70 203c e48b 183c 151a b73e
00000250: 76ee 5abd c1e4 ecb9 6261 cebc 2906 c9bd
00000260: 0542 a8bd 518b d3bc 1b87 dfbd 5778 86bd
00000270: cf0e e5bd e1a9 af3c 745d aa3e 9dad cdbc
00000280: 47f6 e53e 4951 ab3e faa9 eebc 8cb6 c0bc
00000290: 3d73 b53e 353c e1ba 2f4d c63e 7e36 cf3c
000002a0: ae2b 51bb 59ff 86bd 5042 a8bd ce7b cdbc
000002b0: d6df 5ebd c047 d6bd a18d a63b 55d7 6b3d
000002c0: b57f eebd b6ee d4bd 3516 573d 484c 0fbe
000002d0: 0c0a 01be 427d 86bc afc3 f8bd 8b72 70bc
000002e0: 50c6 c3bd 63fa cfbc 65e0 0dbe 9f50 803b
000002f0: 173f cebc 7840 a53c 3e5d 33bd 3bb4 7c3e
00000300: 01b4 91bc e3f6 b2bd bf47 90bd fe95 85bd
00000310: b6a8 bc3c f6be b83c 107e f13e 7394 c63e
00000320: 26e4 c13c 857c 01be 32df a3bd 8427 f0bd
00000330: 9c8b 01be 3e76 01bd 63d2 a93e a61c 7f3d
00000340: 2d42 d03e 3245 bdbd cf99 543e cb17 a0bd
00000350: 2345 b3bc 56f2 cfbc aa8c e9bd 17de b9bc
00000360: 362a f6bd 59fc a0bc af95 ba3e 796f 243b
00000370: fe7e 08be c0da 66bc a43a 57bd 4e27 dabd
00000380: 8272 59bd 60e5 3fbd cc9a 38bd a710 afbc
00000390: 9508 723e 2a95 6ebc a2cc 52bc a7b1 debd
000003a0: 2a57 96bd 61f2 fbbd d8f0 013e 429b 2b3d
000003b0: 2363 d8bd f5b5 0cbd 3ee7 f6bc b633 b7bd
000003c0: ee79 a8bd 1c64 9d3e ad7b 6ebd ead9 bebd
000003d0: 21df 283e f178 e9bd 8f8e 48bc a97f 18bb
000003e0: 8393 44bd 95ba a1bc f2c5 a5bb 675f d3bc
000003f0: d785 cabb 900d 49be 7fc1 973b 80e2 473e
-0.0892529 -0.069503725 -0.022364367 -0.04699141 -0.0254639 -0.08966299 0.32676262 -0.020004032
-0.026305197 -0.0037281585 -0.025215143 -0.109360255 -0.01050955 0.06578398 -0.021802837 0.025095752
0.0051279976 -0.026111446 -0.14314765 -0.12914747 -0.022551067 -0.047994588 -0.13588034 -0.121457376
-0.019171657 -0.11686753 0.046768934 0.03960236 0.20281316 -0.07828051 -0.06974658 0.3274325
-0.015102664 -0.12071042 -0.121248595 -0.025634931 -0.11253206 0.26513278 -0.054754253 0.013082133
-0.0884119 -0.046189852 0.5101621 0.029519131 -0.14121525 -0.11174141 0.2615965 -0.026050476
0.27938592 -0.025379024 -0.0201928 -0.07145255 0.37240145 -0.10929806 -0.12256552 -0.061424408
0.03012864 -0.015029376 0.4484855 0.33622748 -0.13335659 -0.019296613 0.4511958 -0.053197127
-0.12759304 -0.05659605 0.07206283 -0.07714367 -0.08809585 0.41440135 0.10131811 -0.04202831
-0.024484191 -0.008113784 -0.025611596 -0.11832479 0.51601255 -0.030500285 -0.05249724 -0.113347694
-0.0043625305 -0.025117265 -0.11933617 -0.111641385 -0.0246382 0.4891437 -0.038361013 -0.04140045
-0.06257515 -0.012842023 -0.017604405 -0.018135037 -0.024408773 -0.025073454 0.45579746 -0.06351941
0.4577232 -0.025069479 -0.04848717 -0.029983347 -0.13659208 -0.08264676 -0.05728392 -0.0035863777
-0.0070513375 -0.035297435 0.06306427 -0.013967693 -0.08386895 -0.10801033 0.44598565 -0.02509461
-0.0565729 -0.02546377 0.44967172 0.3405452 0.00028957473 -0.013148772 -0.034221966 0.57345635
-6.432641e-05 -0.098140314 -0.077405885 -0.017037993 0.20559947 0.004921254 -0.026114061 -0.003136729
-0.02644431 -0.013313207 -0.09956647 7.682033e-05 0.16488825 -0.042356122 -0.025068106 -0.0933692
-0.021519028 -0.13428703 0.2927288 0.015534154 -0.035818037 -0.07434617 -0.035481304 0.025219629
-0.075825475 0.00979234 0.009310696 0.35762087 -0.05345007 -0.00045183863 -0.02519292 -0.09815628
-0.08215717 -0.025823267 -0.10914441 -0.06565922 -0.11184465 0.02144331 0.33274424 -0.0251072
0.44914457 0.33460453 -0.029133786 -0.023524545 0.35439482 -0.0017184081 0.3873076 0.025294539
-0.0031916904 -0.065916725 -0.08215773 -0.025083449 -0.054412685 -0.10462904 0.0050828015 0.057578404
-0.11645452 -0.10397093 0.052511413 -0.13993943 -0.12601489 -0.01641715 -0.12146699 -0.014675747
-0.095593095 -0.025387948 -0.13855131 0.003915861 -0.025176568 0.020172343 -0.043790095 0.24678127
-0.017786028 -0.08738496 -0.070449345 -0.06522749 0.023029666 0.022551995 0.4716649 0.38785133
0.02366836 -0.12645157 -0.080015555 -0.11726287 -0.12650913 -0.031606905 0.33168325 0.06228318
0.40675488 -0.092417136 0.20761798 -0.07817038 -0.021883553 -0.02538411 -0.11403783 -0.022688909
-0.1201977 -0.019651579 0.36442325 0.0025090857 -0.13329694 -0.01409024 -0.05254616 -0.10652028
-0.05308772 -0.04684961 -0.0450695 -0.021370245 0.23636086 -0.014561931 -0.012866171 -0.10873728
-0.07340844 -0.123020895 0.12689531 0.041896112 -0.10565784 -0.034353215 -0.030139562 -0.0894541
-0.08226381 0.3074044 -0.058223415 -0.093189076 0.16491367 -0.11400021 -0.01224102 -0.002326945
-0.04799224 -0.01974229 -0.0050589973 -0.025802327 -0.0061805057 -0.1963408 0.004631221 0.19519997
