TABULAR/Figure1Reproduce/Poisoned/ADULT_GRAD_FCN_e=0.1_g=0.0_a=1.0_l=2_h=256_s=True_p=0.1.pt (torch, 332951 bytes, 10 tensors)

lays.0.weight f4 [256, 63]
0	0xba881ecb	-0.0010385154
1	0x3a885035	0.001039988
2	0xba886624	-0.0010406417
3	0x3a8670b7	0.001025698
4	0xba88799c	-0.0010412219
5	0xba857c2f	-0.0010184104
6	0xba886624	-0.0010406417
7	0xba886102	-0.0010404887
8	0x3a886624	0.0010406417
9	0x3a886624	0.0010406417
10	0x3a88654e	0.0010406168
11	0x3a886624	0.0010406417
12	0x3a886624	0.0010406417
13	0xba86e2ce	-0.0010290982
14	0xba87b0bb	-0.0010352352
15	0x3a86b943	0.0010278601
16	0x3a886624	0.0010406417
17	0xba85fbde	-0.0010222157
18	0xba887018	-0.0010409383
19	0x3a885a0e	0.0010402815
20	0x3a886624	0.0010406417
21	0xba86e2aa	-0.001029094
22	0xba30c3db	-0.0006743052
23	0xba8865e4	-0.0010406342
24	0x3a87eef3	0.0010370895
25	0x3a886624	0.0010406417
26	0xba81f188	-0.0009913901
27	0xba886624	-0.0010406417
28	0x3a886624	0.0010406417
29	0x3a885626	0.0010401651
30	0x3a886624	0.0010406417
31	0x3a881bef	0.0010384301
32	0xba86eaaa	-0.0010293324
33	0x3a30d113	0.00067450217
34	0x3a886866	0.001040709
35	0xba87bea0	-0.0010356493
36	0xba885751	-0.0010401999
37	0x3a886624	0.0010406417
38	0x3a884a1d	0.0010398064
39	0xba8857ea	-0.0010402177
40	0x3a8723bc	0.0010310332
41	0x3a30da54	0.00067464006
42	0xba886624	-0.0010406417
43	0x3a886624	0.0010406417
44	0x3a886624	0.0010406417
45	0x3a30b3aa	0.0006740639
46	0xba886624	-0.0010406417
47	0xba7e9b7a	-0.0009712499
48	0x3a867b5e	0.0010260155
49	0xba87d236	-0.001036233
50	0x3a886083	0.0010404739
51	0xba84fdbc	-0.001014642
52	0x3a872967	0.0010312021
53	0x3a886825	0.0010407014
54	0x3a866126	0.0010252341
55	0xba86f99f	-0.0010297782
56	0xba883403	-0.0010391477
57	0x3a885a0e	0.0010402815
58	0xba86077e	-0.0010225622
59	0x3a884d0e	0.0010398941
60	0x3a882130	0.0010385867
61	0x3a8747f0	0.0010321122
62	0xba886767	-0.0010406793
63	0xb811592c	-3.465374e-05
64	0x37e27680	2.699648e-05
65	0xb7e31468	-2.7070011e-05
66	0xb6d24080	-6.2659965e-06
67	0xb7ba9900	-2.2244174e-05
68	0xb7081770	-8.111689e-06
69	0x37e2ecc0	2.7051545e-05
70	0xb7e32058	-2.707557e-05
71	0x37e2e868	2.7049522e-05
72	0xb7e30da8	-2.7066868e-05
73	0xb7e31458	-2.7069982e-05
74	0xb7e2f658	-2.7056012e-05
75	0xb7deaa60	-2.65438e-05
76	0xb7e124a8	-2.683916e-05
77	0xb7e5bff0	-2.7388305e-05
78	0x37d85080	2.5786692e-05
79	0x37e3fce8	2.7178277e-05
80	0xb7e837a8	-2.7682472e-05
81	0xb7de81d0	-2.6524911e-05
82	0x37e32058	2.707557e-05
83	0xb78bf6b8	-1.6684979e-05
84	0x36eef600	7.121591e-06
85	0xb7d55020	-2.542889e-05
86	0xb7e32458	-2.7077433e-05
87	0xb7baccb8	-2.2268257e-05
88	0x37deb720	2.6549737e-05
89	0x37d41508	2.5282163e-05
90	0xb7e31b78	-2.70733e-05
91	0xb7e2e420	-2.7047528e-05
92	0xb7e35cc8	-2.7103713e-05
93	0xb7e319a8	-2.7072456e-05
94	0xb7e0cf50	-2.6799418e-05
95	0xb7de2200	-2.6480295e-05
96	0xb7e30e98	-2.7067304e-05
97	0x37e36888	2.7109185e-05
98	0xb7e5bff0	-2.7388305e-05
99	0xb7f17470	-2.878366e-05
100	0x37e319a8	2.7072456e-05
101	0xb7804908	-1.5292797e-05
102	0xb80ede90	-3.4062716e-05
103	0xb7e79f28	-2.7611459e-05
104	0xb7de12b8	-2.6473179e-05
105	0xb7e307c0	-2.7064118e-05
106	0x37e30fa8	2.70678e-05
107	0x37e31080	2.7068192e-05
108	0xb7023910	-7.76189e-06
109	0x37e30da8	2.7066868e-05
110	0x381654d4	3.584179e-05
111	0xb7ba6160	-2.2218272e-05
112	0x37cc7ac0	2.4375855e-05
113	0xb7e2ba40	-2.7028029e-05
114	0xb7d93870	-2.5894697e-05
115	0x37e2c020	2.7030765e-05
116	0xb7e40dd8	-2.7186165e-05
117	0xb7caf708	-2.419531e-05
118	0x3657fca0	3.2184544e-06
119	0x37e2b740	2.7026632e-05
120	0xb78cc018	-1.6778751e-05
121	0xb795ca00	-1.7856248e-05
122	0xb7df90f8	-2.6651178e-05
123	0xb7e38c10	-2.712573e-05
124	0xb700d560	-7.679075e-06
125	0x37e36b10	2.7110364e-05
126	0x3782e252	1.5602596e-05
127	0x3767c2da	1.381404e-05
128	0x36142821	2.2077077e-06
129	0x358fe9ee	1.0722413e-06
130	0x36179453	2.258709e-06
131	0xb7807001	-1.5310945e-05
132	0xb697a3b7	-4.5192096e-06
133	0x37660808	1.3710938e-05
134	0xb6199eaa	-2.2891131e-06
135	0xb625a8b7	-2.468512e-06
136	0xb60da9b7	-2.1109424e-06
137	0xb644f8f2	-2.9351181e-06
138	0x3782fcf8	1.5615005e-05
139	0xb781714f	-1.5430762e-05
140	0xb7110aa5	-8.645152e-06
141	0xb60c0e9d	-2.0870132e-06
142	0xb675fcb3	-3.6654935e-06
143	0xb58af549	-1.0353189e-06
144	0xb614aebb	-2.2155425e-06
145	0x37658b12	1.36818435e-05
146	0xb6222611	-2.4162039e-06
147	0xb780b5bf	-1.5343421e-05
148	0xb586e1e4	-1.0049521e-06
149	0x37fcc4f8	3.0132462e-05
150	0xb77632ba	-1.4674553e-05
151	0xb625ae4c	-2.468837e-06
152	0x3609631c	2.047228e-06
153	0x3765ec88	1.3704535e-05
154	0xb710efe1	-8.63892e-06
155	0x36150e57	2.2211077e-06
156	0xb63aee4c	-2.7854867e-06
157	0x35afa5ce	1.3086772e-06
158	0xb4383258	-1.715465e-07
159	0x368f728a	4.275066e-06
160	0xb77471c6	-1.4570023e-05
161	0x360c5a9f	2.0914374e-06
162	0xb5037b7e	-4.898101e-07
163	0xb784ac02	-1.5815724e-05
164	0x360b4f11	2.0758637e-06
165	0xb5ba5500	-1.3882818e-06
166	0xb63f6d6c	-2.852491e-06
167	0xb59d76af	-1.1731953e-06
168	0xb625ee4c	-2.4725623e-06
169	0xb707c8aa	-8.093348e-06
170	0xb63b80ef	-2.794022e-06
171	0x35e1beac	1.6819299e-06
172	0x3697a3b7	4.5192096e-06
173	0x368fb0c3	4.28231e-06
174	0x37d965fd	2.5915908e-05
175	0xb69475d3	-4.4244603e-06
176	0xb778c9f2	-1.4828971e-05
177	0x37846b37	1.5785552e-05
178	0xb6633322	-3.38554e-06
179	0x37fcc4f8	3.0132462e-05
180	0xb77a4f5b	-1.4919638e-05
181	0x377e66df	1.5163531e-05
182	0x37dbc4fe	2.6198566e-05
183	0xb77f94cb	-1.5233828e-05
184	0x3651bb7c	3.1252557e-06
185	0xb778c6ca	-1.4828236e-05
186	0xb6107cb8	-2.1530268e-06
187	0xb600ae68	-1.9175004e-06
188	0xb78123ae	-1.5394613e-05
189	0xbaa095f0	-0.0012251716
190	0xbbdd1ebe	-0.0067480495
191	0x3be04aac	0.006844839
192	0xbac4d8ce	-0.0015018226
193	0x3a5543e0	0.00081354193
194	0xb9d1565a	-0.00039927923
195	0xbbde2c5e	-0.0067801913
196	0x3bde2df0	0.0067803785
197	0xbbde7809	-0.0067892116
198	0xbbde3606	-0.0067813424
199	0xbbdad04a	-0.006677662
200	0x3bde4162	0.0067826966
201	0xbbde2c7c	-0.0067802053
202	0xbbde33fb	-0.006781099
203	0xbbdf1766	-0.0068082092
204	0x3be44386	0.0069660572
205	0x3bde3602	0.0067813406
206	0xbbde8736	-0.0067910207
207	0xbad1e77e	-0.0016014425
208	0xbbde35f2	-0.006781333
209	0x3ab57849	0.0013845052
210	0x3aa8e2da	0.001288499
211	0xbab99ef2	-0.0014161749
212	0x3bde3604	0.0067813415
213	0xb9f41af4	-0.00046559388
214	0xbbde2db7	-0.006780352
215	0x3bd95da1	0.006633476
216	0xbbde3789	-0.0067815227
217	0xbbde4110	-0.0067826584
218	0x3bdd5fb4	0.0067557935
219	0x3bde3600	0.0067813396
220	0x3bde8351	0.0067905565
221	0xba2c8dde	-0.0006582419
222	0xbbde08ea	-0.006775965
223	0x3bde51c0	0.0067846477
224	0xbbe2972c	-0.0069149937
225	0xbab98c9c	-0.0014156285
226	0xbbde3604	-0.0067813415
227	0xba2b4c76	-0.0006534526
228	0x3be20665	0.006897735
229	0x3aaa9f2e	0.001301741
230	0x3bde4024	0.0067825485
231	0xbbde3720	-0.0067814738
232	0xbbde3604	-0.0067813415
233	0xbbde36ea	-0.0067814486
234	0xb9fb2218	-0.00047899853
235	0xbbde3600	-0.0067813396
236	0x39ddcdfa	0.0004230587
237	0xb99637c6	-0.00028651784
238	0xbab6ccc2	-0.0013946521
239	0xbbde6734	-0.006787205
240	0xb93b2ab0	-0.00017849612
241	0x3bde56b0	0.0067852363
242	0xbbde69cb	-0.006787514
243	0xbbdd0485	-0.0067449235
244	0x39e347bc	0.0004335026
245	0x3bde70de	0.006788357
246	0x3b071454	0.0020611482
247	0xbaadf7af	-0.0013272668
248	0x39046166	0.00012624785
249	0xbbe76052	-0.007061043
250	0x39e31820	0.00043314788
251	0xbbde362a	-0.006781359
252	0xba74b174	-0.0009334304
253	0x395ad541	0.00020869543
254	0xb90b0146	-0.00013256547
255	0xbadbb902	-0.0016763511

lays.0.bias f4 [256]
0	0xbebcac4a	-0.36850196
1	0xbf0beae2	-0.5465528
2	0xbee29809	-0.4425662
3	0xbf11d7ed	-0.569701
4	0xbe1ef0ab	-0.15521495
5	0xbee1d569	-0.44108132
6	0xbf0eca43	-0.55777377
7	0xbf1ce877	-0.61292213
8	0xbea9ca56	-0.33162183
9	0xbec1a810	-0.37823534
10	0xbf364eb1	-0.71213824
11	0xbea7897e	-0.32722086
12	0xbf25c94c	-0.6476028
13	0xbdd7127d	-0.10501573
14	0xbecd4980	-0.4009514
15	0xbf1f84b2	-0.6231185
16	0xbf091a89	-0.53556114
17	0xbf0f8e1c	-0.56076217
18	0xbf32aa42	-0.6979104
19	0xbf10e568	-0.56600046
20	0xbed212e2	-0.4103003
21	0xbf1f0a15	-0.6212476
22	0xbf338399	-0.7012268
23	0xbf12f807	-0.5740971
24	0xbf75509f	-0.95826143
25	0xbef1532c	-0.47133768
26	0xbf02e6dc	-0.51133513
27	0xbf19845d	-0.59967595
28	0xbf2cc7c0	-0.67492294
29	0xbf053d26	-0.5204643
30	0xbf1a4ace	-0.6027039
31	0xbf0bd41b	-0.5462052
32	0xbebfb2e7	-0.3744118
33	0xbf217ee8	-0.6308427
34	0xbf3133e6	-0.69219816
35	0xbea617ed	-0.3244013
36	0xbf0dec71	-0.55438906
37	0xbf2e4bdc	-0.680845
38	0xbf12b221	-0.57303053
39	0xbf0fa0bd	-0.5610464
40	0xbf17d951	-0.59315974
41	0xbf085bb3	-0.5326492
42	0xbf34b581	-0.70589453
43	0xbf23c688	-0.6397481
44	0xbf34f810	-0.70691013
45	0xbe8231a1	-0.2542849
46	0xbf1c5a8f	-0.6107568
47	0xbf53d856	-0.8275198
48	0xbf303010	-0.6882334
49	0xbf4b957a	-0.7952496
50	0xbf44bd4d	-0.7685135
51	0xbf3e547e	-0.74347675
52	0xbef69575	-0.48160902
53	0xbe92fc98	-0.2870834
54	0xbed2766c	-0.41105974
55	0xbf523d24	-0.82124543
56	0xbf61bb74	-0.88176656
57	0xbefa0c4b	-0.48837504
58	0xbed1360e	-0.40861553
59	0xbee92a13	-0.45539913
60	0xbf00527b	-0.50125855
61	0x3ed790be	0.42102617
62	0xbefa757d	-0.4891776
63	0xbee43389	-0.44570568
64	0xbebbb155	-0.3665873
65	0xbf224df2	-0.63400185
66	0xbef28e20	-0.47374058
67	0xbece2dad	-0.40269223
68	0xbecc61ac	-0.39918268
69	0xbec92d4d	-0.39292374
70	0xbeb0623d	-0.3444995
71	0xbf41e037	-0.7573275
72	0xbf44452c	-0.7666805
73	0xbf0da1de	-0.55325115
74	0xbe62ac3b	-0.22136013
75	0xbf025e6c	-0.50925326
76	0xbed9254a	-0.42411262
77	0xbf16cf25	-0.5890983
78	0xbf25ff8d	-0.64843065
79	0xbf36d256	-0.714147
80	0xbf10328f	-0.56327146
81	0xbf0752ea	-0.5286089
82	0xbf06d478	-0.5266795
83	0xbf2431d9	-0.6413856
84	0xbf40db47	-0.7533459
85	0xbf0aa158	-0.5415244
86	0xbf1c58a9	-0.61072785
87	0xbf329235	-0.69754344
88	0xbebc0aa2	-0.36726862
89	0xbf16b76d	-0.58873636
90	0xbf188c9d	-0.5958956
91	0xbf07101b	-0.5275895
92	0xbf63cfe1	-0.88989073
93	0xbf530257	-0.82425445
94	0xbf27547f	-0.65363306
95	0xbed73173	-0.42029914
96	0xbec10a0f	-0.37702987
97	0xbed46a46	-0.4148733
98	0xbed68523	-0.4189845
99	0xbed8a460	-0.42312908
100	0xbefc50a6	-0.4928028
101	0xbf05a1ba	-0.521999
102	0xbef71e98	-0.4826553
103	0xbf152ecf	-0.5827455
104	0xbf0500c0	-0.5195427
105	0xbf019725	-0.50621253
106	0xbf083f29	-0.53221375
107	0xbf100131	-0.5625182
108	0xbf1fe21f	-0.6245441
109	0xbf0f0bef	-0.55877584
110	0xbef28894	-0.47369826
111	0xbf0b52fa	-0.5442349
112	0xbeb9dfc1	-0.36303523
113	0xbebacde5	-0.3648521
114	0xbea12183	-0.3147088
115	0xbf2af8c7	-0.66785854
116	0xbf27470b	-0.6534278
117	0xbf413405	-0.7547
118	0xbf19bc88	-0.600533
119	0xbf077272	-0.52909005
120	0xbedfb5ed	-0.43693486
121	0xbf0935ee	-0.53597915
122	0xbf2d363c	-0.6766088
123	0xbeeb19a9	-0.45918015
124	0xbf354c05	-0.7081912
125	0xbef24e8c	-0.47325552
126	0xbedd5db6	-0.43235558
127	0xbeee0d0a	-0.46494323
128	0xbf187b80	-0.59563446
129	0xbe4695f1	-0.19393136
130	0xbf1d8db0	-0.6154432
131	0xbef1a106	-0.47193164
132	0xbf639ca4	-0.8891089
133	0xbec00e8f	-0.37511107
134	0xbf1ce98d	-0.6129387
135	0xbf0c745e	-0.5486506
136	0xbed4ec5d	-0.4158658
137	0xbf16ae63	-0.58859843
138	0xbf3ed292	-0.74540055
139	0xbeb330c5	-0.34998146
140	0xbef9d3e2	-0.48794466
141	0xbf35e9f5	-0.71060115
142	0xbef7f592	-0.48429543
143	0xbeefc585	-0.46830383
144	0xbec7c5c2	-0.39018065
145	0xbf0a639d	-0.5405825
146	0xbeeca715	-0.46221223
147	0xbf08300d	-0.5319832
148	0xbef59530	-0.47965384
149	0xbee7b168	-0.45252538
150	0xbf0f442a	-0.55963385
151	0xbf1147c7	-0.5675015
152	0xbee3a1f5	-0.444595
153	0xbf25f2ee	-0.64823806
154	0xbf2c9617	-0.6741652
155	0xbf38070a	-0.7188574
156	0xbeff9cac	-0.4992422
157	0xbeaabde6	-0.33348006
158	0xbefb82ed	-0.49123326
159	0xbedae791	-0.42754796
160	0xbefa57da	-0.4889515
161	0xbf0ec5fd	-0.55770856
162	0xbead6019	-0.3386238
163	0xbe9ecda0	-0.31016254
164	0xbed179e6	-0.40913314
165	0xbece670d	-0.40312997
166	0x405ffcf9	3.4998152
167	0xbf243b23	-0.64152735
168	0xbf30ab52	-0.69011414
169	0xbf310cbe	-0.6916007
170	0xbf142cd6	-0.57880914
171	0xbe9858ae	-0.29755157
172	0xbef8d337	-0.48598644
173	0xbf1a9182	-0.6037828
174	0xbf244b27	-0.64177173
175	0xbef3d359	-0.47622183
176	0xbf0535b4	-0.5203507
177	0xbf17c7f5	-0.59289485
178	0xbf01d226	-0.50711286
179	0xbeefcb45	-0.4683477
180	0xbf7aa168	-0.97902536
181	0xbf4ed542	-0.80794156
182	0xbef2a0ed	-0.47388402
183	0xbf5d1a99	-0.8636871
184	0xbefdee5e	-0.49595922
185	0xbf191cb5	-0.5980943
186	0xbf20ed03	-0.6286165
187	0xbf39e047	-0.72607845
188	0xbf6bdab9	-0.9213062
189	0xbf21399e	-0.6297854
190	0xbf05c4f1	-0.52253634
191	0xbcaa564c	-0.020793103
192	0xbf4229b5	-0.7584489
193	0xbf3eb489	-0.74494225
194	0xbee02e59	-0.4378536
195	0xbf2b9fca	-0.67040694
196	0xbea42229	-0.32057312
197	0xbed9028a	-0.4238475
198	0xbf2167d2	-0.6304904
199	0x3f85fae6	1.0467193
200	0xbf270dbe	-0.65255344
201	0xbf0b6d13	-0.5446331
202	0xbee484a8	-0.4463246
203	0xbf02b821	-0.5106221
204	0xbec19719	-0.3781059
205	0xbeca5557	-0.39518234
206	0xbf09b354	-0.5378926
207	0xbefebf77	-0.4975545
208	0xbf4ae7b7	-0.7925982
209	0xbf4f6fe2	-0.81030095
210	0xbef17dba	-0.47166234
211	0xbf06f108	-0.52711535
212	0xbf06f015	-0.52710086
213	0xbf01d3f6	-0.5071405
214	0xbe83727c	-0.25673282
215	0xbf1a837a	-0.6035687
216	0xbef433cc	-0.47695768
217	0xbf1c43c2	-0.6104089
218	0xbeab88f6	-0.3350293
219	0xbef9c371	-0.48781922
220	0xbee85ff9	-0.4538572
221	0xbeb5bd4d	-0.35495988
222	0xbf2628c9	-0.64905983
223	0xbec86a6d	-0.39143696
224	0xbf1b2b3e	-0.6061286
225	0xbee9ed9e	-0.456891
226	0xbea7d9f4	-0.32783473
227	0xbf040d56	-0.5158285
228	0xbf130c3f	-0.5744056
229	0xbf0d4bbe	-0.551937
230	0xbf1f09cd	-0.6212433
231	0xbeb9330a	-0.36171752
232	0xbf60cdc5	-0.8781398
233	0xbf3cc836	-0.73743
234	0xbf2e81c4	-0.68166757
235	0xbee45ea4	-0.44603455
236	0xbf260779	-0.6485515
237	0xbf314a80	-0.692543
238	0xbee48250	-0.4463067
239	0xbf22c8bf	-0.63587564
240	0xbee5bac0	-0.4486904
241	0xbea36d21	-0.31919196
242	0xbecab795	-0.39593187
243	0xbf1114fb	-0.5667264
244	0xbf0ee8ad	-0.55823785
245	0xbecf8ea6	-0.4053852
246	0xbecfc86d	-0.405826
247	0xbe9d6b29	-0.3074582
248	0xbecb485e	-0.3970365
249	0xbf0c786f	-0.5487127
250	0xbec95547	-0.39322874
251	0xbf37d9fd	-0.71817
252	0xbeda7eee	-0.42674965
253	0xbf2412f9	-0.6409145
254	0xbf2a23d1	-0.664609
255	0xbef88e3e	-0.48546022

lays.1.weight f4 [256, 256]
0	0x3ca7e7a4	0.020496197
1	0xbd250c09	-0.04029468
2	0xbd3941d4	-0.045228794
3	0x3d5b4a0e	0.05353742
4	0xbb511e72	-0.0031909016
5	0xbd425d6e	-0.047452383
6	0xbdd3806d	-0.1032723
7	0xbd58896c	-0.05286543
8	0x3d5dc4a1	0.054142598
9	0xbdf06f80	-0.11740017
10	0xbc876438	-0.01652728
11	0xbd4f2bbf	-0.05057883
12	0xbc220439	-0.009888702
13	0xbd02cb32	-0.031932063
14	0x3d34d925	0.044152398
15	0xbc6ea75f	-0.014566272
16	0xbd836d51	-0.06417335
17	0x3d3090f4	0.043106988
18	0x3cb5f4c4	0.02221144
19	0x3d417085	0.047226448
20	0xbc9096d1	-0.01765004
21	0xbd14af1a	-0.036299802
22	0x3d2e2894	0.042519167
23	0xbd4dff5c	-0.050292358
24	0x3d61da40	0.05513978
25	0x3d01965c	0.031637534
26	0xbd2ed0d0	-0.042679608
27	0xbd608981	-0.054818634
28	0xbcac6ede	-0.02104896
29	0x3d31ba14	0.04339035
30	0xbd36ce25	-0.04463019
31	0xbd91876a	-0.07105906
32	0xbd635a5b	-0.05550609
33	0xbc8c1a25	-0.01710231
34	0x3c728d3c	0.014804181
35	0xbb143236	-0.0022612936
36	0xbd37f918	-0.04491529
37	0xbddc7e99	-0.10766334
38	0x3cb8d41f	0.022562085
39	0xbd60320d	-0.054735232
40	0x3d236d12	0.03989894
41	0xbb30cde4	-0.002697819
42	0xbdbb0d30	-0.09133375
43	0xbc4bfb8a	-0.012450108
44	0xbce1774b	-0.027522704
45	0x3d04937b	0.03236721
46	0xbda2cc1f	-0.07949089
47	0xbcae5158	-0.021279022
48	0xbdbe6fa1	-0.09298635
49	0xbdc63216	-0.09677522
50	0xbdb7b583	-0.089701675
51	0x3d8c59a4	0.06853035
52	0xbd056306	-0.03256514
53	0x3d27f242	0.04100252
54	0xbd592634	-0.05301495
55	0xbd3f6a6c	-0.04673235
56	0x3ceff0f6	0.029289704
57	0xbceb2ea8	-0.02870877
58	0xbc93d6e9	-0.018046813
59	0xbdc1b368	-0.09458047
60	0xbd20f385	-0.03929474
61	0xbd93a090	-0.07208359
62	0xbd902259	-0.07037801
63	0xbddf2fad	-0.10897765
64	0xbc27414b	-0.010208438
65	0xbd025d46	-0.031827234
66	0xbd186eba	-0.037214972
67	0x3d184619	0.037176225
68	0xbd444900	-0.04792118
69	0xbcade6b8	-0.02122818
70	0xbd4c345f	-0.049854632
71	0xbdd80c3e	-0.1054921
72	0xbccc5eda	-0.024947572
73	0xbc3cb64c	-0.011518072
74	0xbd4d4ee9	-0.050124083
75	0xbccd4511	-0.025057347
76	0xbca70321	-0.020387234
77	0x3d05a82f	0.032631095
78	0x3d690a05	0.05689432
79	0xbcdfcf07	-0.027320398
80	0xbd8dd0c5	-0.06924585
81	0xbde7c933	-0.113176726
82	0x3c6e7493	0.014554161
83	0xbd21c506	-0.039494537
84	0xbd59f40d	-0.05321126
85	0xbd0172b3	-0.031603526
86	0xbdb734e5	-0.08945636
87	0xbd74205e	-0.05960118
88	0xbd42c36c	-0.04754965
89	0xbd1302c4	-0.03589131
90	0xbdb4aac3	-0.08821633
91	0xbd913ecc	-0.07092056
92	0xbdd2e8ff	-0.10298347
93	0x3d14b503	0.03630544
94	0xbd928de1	-0.071559675
95	0xbd4369b5	-0.047708232
96	0xbca1a58a	-0.019732255
97	0xbc01ef4d	-0.007930589
98	0x3cbfb46d	0.023401463
99	0xbd42a892	-0.047524042
100	0x3d635bdd	0.05550753
101	0xbdea79e5	-0.11449031
102	0x3d7ec7e4	0.06220235
103	0xbc89554f	-0.016764311
104	0xbd425a1d	-0.04744922
105	0xbd6c807c	-0.05773972
106	0xbdda352b	-0.10654672
107	0xbdaf0d71	-0.085474856
108	0xbd57b6e0	-0.052664638
109	0xbc2c8fd7	-0.010532341
110	0xbd789d49	-0.060696874
111	0xbdc59d70	-0.096491694
112	0xbd149558	-0.036275238
113	0xbd58e9e7	-0.05295744
114	0xbd0d5a4a	-0.034509934
115	0xbd8b4a42	-0.06801273
116	0xbcd8fe84	-0.02648855
117	0xbcf4b889	-0.02987315
118	0xbdd14243	-0.102177165
119	0xbd51a429	-0.051181946
120	0xbd53b32f	-0.051684555
121	0xbc3cdfbe	-0.011527954
122	0x3c977023	0.018486088
123	0xbc922378	-0.017839178
124	0xbd66ef8a	-0.056380786
125	0xbd52c335	-0.051455695
126	0xbd35ac49	-0.044353757
127	0xbdd2ccdc	-0.1029298
128	0x3d334600	0.04376793
129	0xbde7febc	-0.113278836
130	0xbcaf944e	-0.021433022
131	0xbc806e18	-0.015677497
132	0xbdb43e50	-0.08800948
133	0xbd237728	-0.039908558
134	0xbcb8a4e5	-0.022539565
135	0x3cc64810	0.024204284
136	0xbd67ce42	-0.056593187
137	0xbd5b0e3f	-0.053480383
138	0xbdcd3b3c	-0.10021064
139	0xbda93949	-0.082628794
140	0xbd092ad6	-0.033488117
141	0xbcf6bf0f	-0.0301204
142	0x3d389569	0.045064364
143	0xbc9f3048	-0.019432202
144	0xbd0810c1	-0.033219103
145	0xbdafc9ac	-0.08583388
146	0x3d058517	0.032597627
147	0xbca92456	-0.02064721
148	0xbd6dd998	-0.05806884
149	0xbce3913a	-0.02777921
150	0xbd5041a7	-0.05084386
151	0xbd907b73	-0.07054796
152	0xbd1596b2	-0.036520667
153	0xbdc7e93b	-0.09761282
154	0xbd408c74	-0.047008947
155	0xbd31d72e	-0.043418102
156	0xbda75307	-0.08170133
157	0xbc476923	-0.012171063
158	0xbd860440	-0.065437794
159	0x3d1e95c0	0.03871703
160	0xbd36f217	-0.04466447
161	0xbdbf91f4	-0.0935401
162	0xbd8a79a9	-0.06761486
163	0xbd71ce7e	-0.059034817
164	0xbd08bcf6	-0.033383332
165	0xbb235782	-0.0024923985
166	0xbd5ef9d0	-0.05443746
167	0xbc6264b9	-0.013817959
168	0xbbe0b69f	-0.0068577076
169	0x3d63fd70	0.05566162
170	0x3ce4914c	0.027901314
171	0x3c604e10	0.013690487
172	0x3d4f77dc	0.050651416
173	0xbcca0aeb	-0.02466341
174	0x3d212412	0.03934104
175	0xbd830f34	-0.06399384
176	0xbd6d51a1	-0.057939176
177	0xbd02aa5c	-0.03190075
178	0xbc3c52ac	-0.01149432
179	0x3d1733fd	0.036914814
180	0xbd19873a	-0.037482478
181	0xbdb52221	-0.088444
182	0xbcede5a5	-0.029040167
183	0x3cefa34f	0.029252676
184	0x3d2f8730	0.042853534
185	0xbccdc234	-0.025117017
186	0xbdcbffc9	-0.099608965
187	0xbcfe2433	-0.03102312
188	0x3d363e06	0.044492744
189	0xbdc01333	-0.09378662
190	0xbdc6d9c5	-0.09709505
191	0xbdbff0bd	-0.09372089
192	0xbd6de44e	-0.058079056
193	0xbd1705fe	-0.03687095
194	0xbd7897eb	-0.060691755
195	0xbd3be1d2	-0.045869656
196	0x3d54d1fc	0.05195807
197	0xbd486547	-0.04892471
198	0xbca6caf8	-0.020360455
199	0xbd701400	-0.058612823
200	0xbdb1532b	-0.08658441
201	0x3ce41b82	0.027845148
202	0xbca95fd9	-0.020675587
203	0xbd23ba5a	-0.03997264
204	0xbda281a7	-0.079348855
205	0xbd2721e6	-0.040803812
206	0xbd860255	-0.065434135
207	0xbc45c139	-0.012069994
208	0xbda967a9	-0.08271725
209	0x3ce25d57	0.027632399
210	0xbd627d9a	-0.055295564
211	0xbd372dec	-0.04472153
212	0xbdd7ddd8	-0.1054036
213	0xbdc25cd9	-0.094903655
214	0xbc84a723	-0.016192978
215	0xbc1b5d17	-0.009482644
216	0xbce50a72	-0.027959082
217	0xbc91008b	-0.017700454
218	0xbcf3bfb0	-0.02975449
219	0xbc2fae72	-0.010722743
220	0xbd6351be	-0.055497877
221	0x3ccad329	0.024758892
222	0x3d17c2a2	0.03705085
223	0xbd14eaa6	-0.03635659
224	0x3c84ef1b	0.016227296
225	0xbc5df59d	-0.013547328
226	0xbadcc56a	-0.0016843502
227	0xbc870aa8	-0.016484573
228	0xbdc88310	-0.09790623
229	0x3d761d78	0.060086697
230	0xbc2490f2	-0.010044323
231	0xbd3455f7	-0.044027295
232	0xbc55c509	-0.013047465
233	0xbce9851b	-0.028505852
234	0x3c6a0c31	0.014285133
235	0xbd3367f2	-0.0438003
236	0xbd62ac38	-0.05534002
237	0x3d2c26f5	0.04202934
238	0xbc5c2f1c	-0.013438966
239	0x3ccc9dcc	0.024977587
240	0xbc1ad87b	-0.009451027
241	0xbc5ddeb1	-0.013541863
242	0xbd44d366	-0.048053168
243	0xbc73d9e8	-0.014883496
244	0xbd54c9e5	-0.051950354
245	0x3d34aaff	0.044108387
246	0xbda9cfe0	-0.08291602
247	0xbb9e3c8f	-0.0048289965
248	0x3d6e174a	0.05812768
249	0xbd4e9e9d	-0.050444234
250	0xbd88569b	-0.06657144
251	0xbce08a3e	-0.027409669
252	0xbd3e3aba	-0.046442725
253	0x3d0719c2	0.03298355
254	0xbdbb428a	-0.09143551
255	0xbbae9ce5	-0.005328762

lays.1.bias f4 [256]
0	0xbd94c63c	-0.07264373
1	0xbe3338ae	-0.1750209
2	0xbec9b853	-0.3939844
3	0xbd8d5067	-0.06900101
4	0xbe9a2bd7	-0.30111572
5	0xbe612102	-0.21985248
6	0xbd915c96	-0.070977375
7	0xbd3ac41e	-0.04559719
8	0xbc026e8d	-0.007960928
9	0xbf1ee55c	-0.62068725
10	0xbdd630ea	-0.10458548
11	0xbf03d02e	-0.5148953
12	0xbdc023ec	-0.093818516
13	0xbd670b2d	-0.056407142
14	0xbdbccbb0	-0.09218538
15	0xbdc5d708	-0.096601546
16	0xbded604d	-0.115906335
17	0xbdde03fe	-0.10840605
18	0xbd8ec06e	-0.06970297
19	0xbdf672bb	-0.12033602
20	0xbe13486d	-0.14383097
21	0xbf016fc9	-0.50561196
22	0xbeeae0bb	-0.4587458
23	0xbd9bc22e	-0.07605396
24	0xbe13cc9a	-0.14433518
25	0xbdc7dbfd	-0.09758756
26	0xbd7bfb7d	-0.061519135
27	0xbe42b877	-0.1901568
28	0xbcb705bd	-0.022341603
29	0xbda1865a	-0.07886954
30	0xbe8bfb69	-0.27340248
31	0xbee0c23e	-0.43898195
32	0xbda28401	-0.07935334
33	0xbd9ab984	-0.075549155
34	0xbd90434a	-0.07044084
35	0xbdebd5d8	-0.11515397
36	0xbf33195b	-0.69960564
37	0xbdf6c5a4	-0.12049416
38	0xbdcc5950	-0.099779725
39	0xbe260829	-0.1621405
40	0xbd999d07	-0.07500654
41	0x3fbf3e30	1.4940853
42	0xba9b27ca	-0.001183742
43	0xbd732b8e	-0.05936771
44	0xbdccadd3	-0.09994092
45	0xba4861b2	-0.0007643952
46	0xbca1602c	-0.019699179
47	0xbe9df293	-0.30849132
48	0xbd0725a1	-0.03299487
49	0xbdc4a573	-0.096018694
50	0xbf388b9b	-0.7208802
51	0xbf00318d	-0.5007561
52	0xbd183acc	-0.037165448
53	0xbda3c76d	-0.07997022
54	0xbdf20d08	-0.11818892
55	0xbf1c52f6	-0.6106409
56	0xbf05e5e6	-0.5230392
57	0xb89c078f	-7.4400676e-05
58	0xbcbafe5b	-0.022826364
59	0xbf04ebc3	-0.51922244
60	0xbdbd8193	-0.0925323
61	0xbefa972f	-0.4894347
62	0xbd256856	-0.040382706
63	0xbf099bfe	-0.5375365
64	0xbd2436b2	-0.040091224
65	0xbe9b9022	-0.30383402
66	0xbd8ca6c5	-0.06867746
67	0xbf12c12b	-0.57326
68	0xbe2b0049	-0.16699328
69	0xbea0aafa	-0.31380445
70	0xbdd50398	-0.10401076
71	0xbd36cb6e	-0.0446276
72	0xbecc1bb8	-0.39864898
73	0xbf660fb8	-0.89867735
74	0xba06d97f	-0.0005144104
75	0xbde35498	-0.11100119
76	0xbdd722a8	-0.10504657
77	0xbd7f12d6	-0.062273823
78	0xbdf6d709	-0.120527335
79	0xbdd45a0e	-0.10368739
80	0xbf262a9f	-0.64908785
81	0xbea1e6c1	-0.31621364
82	0xbdd6bab7	-0.10484832
83	0xbd08980f	-0.03334814
84	0xbd5e4988	-0.054269344
85	0xbec70b89	-0.38875988
86	0xbcc6a1ed	-0.024247134
87	0xbe9f4014	-0.31103575
88	0xbec16123	-0.37769422
89	0xbcbb6e07	-0.022879614
90	0xbdc6a856	-0.09700076
91	0xbf00e50b	-0.5034949
92	0xbdda6b0a	-0.10664947
93	0xbd42276e	-0.047400884
94	0xbf3b98be	-0.7327994
95	0xbd80c818	-0.06288165
96	0xbd204409	-0.039127383
97	0xbd29f12f	-0.041489776
98	0xbdf0f1da	-0.117648795
99	0xbe262384	-0.16224486
100	0xbd4fa392	-0.050693102
101	0xbda0bd84	-0.07848647
102	0xbd451ec7	-0.048125055
103	0xbc8bfea5	-0.017089197
104	0xbb8ed55e	-0.0043589314
105	0xbdee71ad	-0.11642776
106	0xbee0c9c1	-0.43903926
107	0xbf0e9d36	-0.55708635
108	0xbf1ff608	-0.6248479
109	0xbf2f9f00	-0.6860199
110	0xbce2586b	-0.027630052
111	0xbf3bd94a	-0.7337843
112	0xbd466b76	-0.048442326
113	0xbd73157e	-0.05934667
114	0xbd1ca2df	-0.038241263
115	0xbd1f531a	-0.03889761
116	0xbde78147	-0.113039546
117	0xbdbf346c	-0.093361706
118	0xbf03c18c	-0.51467204
119	0xbf1693a9	-0.5881906
120	0xbd842f69	-0.06454355
121	0xbeb60420	-0.35550022
122	0xbdb84c19	-0.089988895
123	0xbc412f0c	-0.011791002
124	0xbd9e393a	-0.07725759
125	0xbf151ce0	-0.58247185
126	0xbf16b6d5	-0.5887273
127	0xbdc988af	-0.098405235
128	0xbd9d12ab	-0.07669576
129	0xbdf3961e	-0.11893867
130	0xbd9b7cec	-0.07592186
131	0xbd71a3c1	-0.05899406
132	0xbf1b45da	-0.6065346
133	0xbe475ff8	-0.19470203
134	0xbdddbd98	-0.10827178
135	0xbddb5c98	-0.1071102
136	0xbde41c51	-0.111382134
137	0xbd281ec6	-0.041044973
138	0xbea5858b	-0.32328448
139	0xbe9a5fc0	-0.30151176
140	0xbda8c501	-0.082407005
141	0xbdbcdd4d	-0.09221897
142	0xbd9d3ea3	-0.07677963
143	0xbf1c98ac	-0.6117046
144	0xbda7c637	-0.08192103
145	0xbd992491	-0.074776776
146	0x3fd1ab75	1.638045
147	0xbed9b820	-0.4252329
148	0xbee4fdb2	-0.44724804
149	0xbd244097	-0.04010066
150	0xbc247292	-0.010037081
151	0xbeb0a2f5	-0.34499326
152	0xbd53a94e	-0.051675133
153	0xbde8b4d7	-0.113626175
154	0xbcf6981f	-0.030101834
155	0xbd456503	-0.048192035
156	0xbde9d914	-0.114183575
157	0xbda19833	-0.07890358
158	0xbd353469	-0.044239435
159	0xbdf2e2a2	-0.11859633
160	0xbdabc3db	-0.08386966
161	0xbde1a7ae	-0.110183105
162	0xbf105165	-0.563742
163	0xbd986673	-0.07441416
164	0xbdbc4612	-0.09193052
165	0xbd9b1185	-0.07571701
166	0xbd750fd6	-0.059829555
167	0xbf115204	-0.5676577
168	0xbdaa1a33	-0.08305778
169	0xbef61ae1	-0.48067382
170	0xbd5463a6	-0.051852845
171	0xbf244f11	-0.64183146
172	0xbc4e7f56	-0.012603601
173	0xbdeb366c	-0.114849895
174	0xbe7fcccc	-0.24980468
175	0xbec08b3e	-0.37606233
176	0xbeae652f	-0.34061572
177	0xbecffb4b	-0.4062141
178	0xbf0781ea	-0.5293261
179	0xbd5ae9b8	-0.053445548
180	0xbdcb19d7	-0.09917038
181	0xbe1656a5	-0.1468149
182	0xbdc6b6fc	-0.0970287
183	0xbbd4ad03	-0.006490351
184	0xbc224549	-0.009904214
185	0xbeee11c9	-0.46497944
186	0xbf27d207	-0.6555485
187	0xbe2038a1	-0.15646602
188	0xbdf69f7a	-0.120421365
189	0xbdc72a00	-0.09724808
190	0xbe06a349	-0.13148226
191	0xbd2b6305	-0.04184248
192	0xbcd17b42	-0.02557147
193	0xbe2e2774	-0.17007238
194	0xbeaea24d	-0.341082
195	0xbeb99154	-0.3624369
196	0xbe04397d	-0.12912555
197	0xbd108309	-0.035281215
198	0xbdb2c82c	-0.08729586
199	0xbd64cc84	-0.055859104
200	0xbbd44038	-0.006477382
201	0xbf763545	-0.9617503
202	0xbf166cd4	-0.5875981
203	0xbe627844	-0.2211619
204	0xbdc6e673	-0.097119235
205	0xbe902532	-0.28153378
206	0xbdac50a9	-0.08413822
207	0xbdbd1685	-0.09232811
208	0xbdbc56c6	-0.09196238
209	0xbd749dde	-0.059720866
210	0xbc4298ad	-0.011877221
211	0xbde68b13	-0.11256995
212	0xbee1fa93	-0.44136485
213	0xbd3ddc8c	-0.046352908
214	0xbcea3ca3	-0.028593367
215	0xbf0f8b28	-0.5607171
216	0xbc8f3b54	-0.017484345
217	0xbd330f7e	-0.043715946
218	0xbf0d4bee	-0.55193985
219	0xbdd39f1e	-0.103330836
220	0xbd9452a0	-0.07242322
221	0xbcf97fcf	-0.030456452
222	0xbdc62d75	-0.09676639
223	0xbf0ae1c3	-0.54250735
224	0xbd8a3ed5	-0.067502655
225	0xbde3c474	-0.11121455
226	0xbdc39c17	-0.09551256
227	0xbf00c1b1	-0.5029555
228	0xbd38a5b1	-0.04507989
229	0xbf0cc428	-0.5498681
230	0xbe1da8f3	-0.1539648
231	0xbd76be3f	-0.060240027
232	0xbf0b34e8	-0.54377604
233	0xbdd10424	-0.10205868
234	0xbddf8c18	-0.10915393
235	0xbe1b1735	-0.15145572
236	0xbc3c76e4	-0.011502955
237	0xbf671bef	-0.90277
238	0xbd97761c	-0.073955745
239	0xbdd45b7c	-0.10369012
240	0xbd8284fa	-0.063730195
241	0xbf403596	-0.75081766
242	0xbf1a9384	-0.6038134
243	0xbef9f5a0	-0.4882021
244	0xb904b393	-0.00012655398
245	0xbeab2aaf	-0.33431002
246	0xbd908e8d	-0.070584394
247	0xbde576f7	-0.11204331
248	0xbf32a1b7	-0.6977801
249	0xb8abb985	-8.188471e-05
250	0xbee2740a	-0.44229156
251	0xbd578fd7	-0.05262741
252	0xbcf4221b	-0.029801419
253	0xbf00fbd1	-0.5038424
254	0xbd42fa00	-0.0476017
255	0xbd9f225c	-0.077702254

lays.2.weight f4 [2, 256]
0	0x3d5e4579	0.054265473
1	0x3d7368e2	0.059426196
2	0xbeac8aa9	-0.3369954
3	0xbd41178f	-0.047141608
4	0x3d018333	0.031619262
5	0x3c32971a	0.010900283
6	0x3d4fedb0	0.050763786
7	0xbd2cc3c5	-0.042178888
8	0x3bd4ce8e	0.00649435
9	0xbdd4c005	-0.10388187
10	0x3baa5e5a	0.005199236
11	0xbd246118	-0.04013166
12	0xbd2c5c4d	-0.042080212
13	0xbd35e4ab	-0.044407528
14	0xbd288022	-0.041137822
15	0x3c6d2667	0.014474488
16	0xbd6ca190	-0.057771266
17	0xbd6af63e	-0.05736374
18	0xbbfa541b	-0.0076394207
19	0xbd4b1e08	-0.049589187
20	0xbd661faf	-0.05618256
21	0xbdd1fcf7	-0.10253327
22	0x3b35d6cd	0.002774644
23	0x3c499bda	0.012305224
24	0x3d96bbc7	0.073600344
25	0xbd07be00	-0.033140182
26	0x3d07bf7a	0.03314159
27	0xbcaa09bc	-0.020756595
28	0x3d779d73	0.06045289
29	0x3d2f281a	0.042762853
30	0xbde9b788	-0.11411959
31	0x3d5c27d0	0.053748906
32	0x3d324165	0.043519396
33	0x3d3bea5d	0.045877803
34	0xbc520250	-0.012817934
35	0xbd0351de	-0.032060497
36	0x3eabe62c	0.33574045
37	0x3d6c20a3	0.057648312
38	0xbced7ee0	-0.028991163
39	0x3c8bb25a	0.017052818
40	0x3b0a5004	0.0021104822
41	0x3b26d3de	0.0025455873
42	0x39be5478	0.00036302558
43	0x3a51c98e	0.0008002751
44	0xbd9d00e2	-0.07666184
45	0xb7f85507	-2.9603498e-05
46	0x3d0fb1b5	0.035081584
47	0x3dabe674	0.08393565
48	0x3d57d3e9	0.052692328
49	0x3b2543cb	0.002521741
50	0x3d03cf6c	0.032180235
51	0xbdc943dc	-0.09827396
52	0x3cd12f5a	0.025535274
53	0x3cda3ed4	0.026641287
54	0x3c5b1183	0.013370874
55	0x3cd933bf	0.026513932
56	0x3db0bc63	0.08629682
57	0xb7c31d86	-2.325956e-05
58	0xb9b01c13	-0.00033590253
59	0x3dc35cec	0.09539208
60	0xba6a784c	-0.0008944317
61	0xbe84ff52	-0.25976044
62	0x3c116d74	0.008876193
63	0xbe03d9bf	-0.12876032
64	0x3cc879de	0.024472173
65	0x3d79300f	0.060836848
66	0x3cfcd7da	0.030864645
67	0xbe272095	-0.16321023
68	0xbc85a2ce	-0.016312983
69	0x3e6b17b8	0.22958267
70	0x3d3e08ed	0.04639523
71	0x3d272b2f	0.040812667
72	0x3e1f3814	0.15548736
73	0xbe0895e8	-0.13338435
74	0x394e2be7	0.00019662046
75	0xbc20fd3f	-0.009826004
76	0xbd2a15a4	-0.041524544
77	0x3b956b1a	0.0045598866
78	0xbd0792b7	-0.033098903
79	0x3ceae6fc	0.028674595
80	0xbca138f0	-0.01968047
81	0xbd0fc771	-0.03510231
82	0x3cb9540f	0.02262309
83	0xbc80378f	-0.015651492
84	0x3d4017fb	0.04689787
85	0x3e47d19f	0.19513558
86	0x3d2c6192	0.042085238
87	0x3e291514	0.16511947
88	0xbd56abc9	-0.05240992
89	0x3d0a03e2	0.03369511
90	0x3bc784b5	0.006088818
91	0x3d7645f4	0.060125306
92	0x3d69703d	0.056991804
93	0x3cbc001f	0.022949276
94	0x3e8be64d	0.27324143
95	0x3d0ea6e6	0.034827136
96	0xbd460044	-0.048340097
97	0x3d6f41a9	0.058412228
98	0xbd71ba9c	-0.059015855
99	0xbda0bd86	-0.07848649
100	0xbd6c9b63	-0.057765376
101	0xbd2a8b24	-0.0416366
102	0x3d3a184b	0.045433324
103	0x3d574380	0.052554607
104	0x3a908397	0.0011025545
105	0xbd5699cb	-0.052392762
106	0xbe125ccf	-0.14293216
107	0xbc999f8d	-0.018752838
108	0xbc98284c	-0.018573903
109	0x3d0ad5c1	0.033895258
110	0x3cc71be7	0.024305297
111	0x3e4dbf7d	0.20092578
112	0xbd69d20c	-0.057085082
113	0x3d2e23fc	0.042514786
114	0xbd51758e	-0.0511375
115	0xbd3f6c22	-0.046733983
116	0xbbf92a7c	-0.0076039415
117	0xbcb7967d	-0.022410626
118	0x3ed3f10e	0.41394848
119	0x3e81c1af	0.2534308
120	0x3d4ebf00	0.05047512
121	0xbd2ae58d	-0.041722823
122	0xbcbc459a	-0.022982407
123	0x3d11bb29	0.03557888
124	0x3c9c5fbf	0.019088624
125	0x3c0a48a3	0.0084401695
126	0x3e8be63d	0.27324095
127	0x3c600a53	0.0136743365
128	0x3c163d8f	0.00916995
129	0xbc04f047	-0.008113927
130	0xbd431cfd	-0.047635067
131	0x3c9f61ed	0.019455874
132	0x3d77f36b	0.060534876
133	0x3d7b2c16	0.06132134
134	0xbd61ee47	-0.05515888
135	0x3c68a9be	0.014200626
136	0xbcaffaeb	-0.021481952
137	0xbd4cbccb	-0.049984735
138	0xbd83c5a8	-0.06434184
139	0x3e70585b	0.23471205
140	0xbcf71550	-0.03016153
141	0x3bbebbb0	0.005820714
142	0xbd166f4c	-0.036727235
143	0xbe25655b	-0.16151945
144	0xbbbd37c5	-0.0057744705
145	0x3c0d6ec5	0.008632367
146	0x3d0603f9	0.032718632
147	0xbb922f9c	-0.004461242
148	0x3e082881	0.13296701
149	0x3d3ec3b8	0.04657337
150	0x3a522fc9	0.0008017985
151	0xbd61241c	-0.054966077
152	0x3c0d07a2	0.008607777
153	0x3c3f803f	0.011688291
154	0x3cb58637	0.022158725
155	0x3d196da8	0.037458092
156	0x3d634d72	0.05549378
157	0x3c7ce599	0.0154356
158	0x3c1e91f3	0.009678352
159	0xbd4013cc	-0.04689388
160	0xbd6c1ec4	-0.057646528
161	0xbd336d0b	-0.043805163
162	0x3e0a5d09	0.13512053
163	0x3d6bcb14	0.057566717
164	0x3cc5ec98	0.024160668
165	0xbcf990bb	-0.03046452
166	0xbd695468	-0.05696526
167	0xbeb89bd3	-0.36056384
168	0x3cb81152	0.022469196
169	0xbe4283b8	-0.18995559
170	0xbc87f443	-0.016595965
171	0x3e69273c	0.22768873
172	0x3bd593d2	0.0065178657
173	0x3c93e737	0.018054588
174	0xbe09a206	-0.13440713
175	0x3d4417b6	0.047874175
176	0xbd6f3584	-0.058400646
177	0x3e1edf89	0.1551496
178	0xbd270998	-0.040780634
179	0xbd64551c	-0.05574523
180	0xbd08575b	-0.033286434
181	0x3e5be5c4	0.21474367
182	0xbd21e67e	-0.039526455
183	0xbb35ad90	-0.002772186
184	0xb8fdf8f3	-0.000121103505
185	0x3e11e066	0.14245757
186	0x3ea0a363	0.31374654
187	0xbe1d36ab	-0.15352885
188	0xba54d695	-0.00081191334
189	0x3d735e73	0.059416246
190	0xbd187c78	-0.037228078
191	0x3d2f1b24	0.042750493
192	0xbcff1d20	-0.031141818
193	0xbc7e714f	-0.015529945
194	0x3e18b391	0.14912249
195	0xbe39f6da	-0.18160573
196	0xbd25ed5e	-0.040509574
197	0xbccf8648	-0.025332585
198	0x3b1db200	0.0024062395
199	0x3c0eb1b8	0.008709364
200	0x3cbcf8be	0.023067828
201	0xbe33f8ce	-0.1757538
202	0x3e343435	0.1759804
203	0xbe2ddfc5	-0.16979893
204	0x3d12eaa9	0.03586832
205	0x3d892197	0.0669586
206	0x3d1a38b4	0.037651733
207	0x3e38c7a4	0.18044907
208	0x3ce74d58	0.028235123
209	0x3d0549c8	0.032541066
210	0x3c2326f7	0.00995802
211	0xbd28db5c	-0.041224822
212	0x3bae2b7c	0.0053152423
213	0x3c00e2f7	0.007866613
214	0x3d0e1674	0.03468938
215	0x3becc513	0.0072256415
216	0x3cdc7c07	0.02691461
217	0x3d3bc49b	0.045841794
218	0x3d04c7a3	0.03241695
219	0x3d1069ba	0.03525708
220	0x3d380eab	0.044935863
221	0x3d60ca07	0.05488017
222	0x3d4e60f7	0.05038544
223	0x3d290052	0.04126007
224	0x3bd3e6be	0.0064667156
225	0x3cb46866	0.022022437
226	0xbd1f4a1c	-0.038889036
227	0x3d7c4770	0.061591566
228	0xbccdaf13	-0.025107896
229	0x3e2455e6	0.16048393
230	0xbd2c76a5	-0.042105336
231	0x3c372ac8	0.011179633
232	0xbec01ed6	-0.37523526
233	0x3d173acc	0.036921307
234	0x3cb0dac1	0.021588685
235	0xbcf9e43b	-0.030504337
236	0xbe9ed17e	-0.31019205
237	0x3e834bea	0.25643855
238	0xbc505f32	-0.012718009
239	0xbc76ecc2	-0.015071096
240	0xbd1ef8a6	-0.03881135
241	0x3d9100ec	0.07080254
242	0x3dd89104	0.105745345
243	0x3e55ec93	0.20891027
244	0xb8965b29	-7.169537e-05
245	0x3d067469	0.03282586
246	0x3d025d63	0.03182734
247	0xbca85eb3	-0.020552969
248	0x3e18e3f8	0.14930713
249	0xb76af750	-1.4005069e-05
250	0x3e32d5b7	0.17464338
251	0xbd3baf7a	-0.045821644
252	0xbcbc7c22	-0.02300841
253	0xbd042643	-0.03226305
254	0xbd202386	-0.039096378
255	0x3b9e0e79	0.0048235026

lays.2.bias f4 [2]
0	0xbf063e3e	-0.52438724
1	0x3f0de330	0.55424786

l1.weight f4 [256, 63]
0	0xba881ecb	-0.0010385154
1	0x3a885035	0.001039988
2	0xba886624	-0.0010406417
3	0x3a8670b7	0.001025698
4	0xba88799c	-0.0010412219
5	0xba857c2f	-0.0010184104
6	0xba886624	-0.0010406417
7	0xba886102	-0.0010404887
8	0x3a886624	0.0010406417
9	0x3a886624	0.0010406417
10	0x3a88654e	0.0010406168
11	0x3a886624	0.0010406417
12	0x3a886624	0.0010406417
13	0xba86e2ce	-0.0010290982
14	0xba87b0bb	-0.0010352352
15	0x3a86b943	0.0010278601
16	0x3a886624	0.0010406417
17	0xba85fbde	-0.0010222157
18	0xba887018	-0.0010409383
19	0x3a885a0e	0.0010402815
20	0x3a886624	0.0010406417
21	0xba86e2aa	-0.001029094
22	0xba30c3db	-0.0006743052
23	0xba8865e4	-0.0010406342
24	0x3a87eef3	0.0010370895
25	0x3a886624	0.0010406417
26	0xba81f188	-0.0009913901
27	0xba886624	-0.0010406417
28	0x3a886624	0.0010406417
29	0x3a885626	0.0010401651
30	0x3a886624	0.0010406417
31	0x3a881bef	0.0010384301
32	0xba86eaaa	-0.0010293324
33	0x3a30d113	0.00067450217
34	0x3a886866	0.001040709
35	0xba87bea0	-0.0010356493
36	0xba885751	-0.0010401999
37	0x3a886624	0.0010406417
38	0x3a884a1d	0.0010398064
39	0xba8857ea	-0.0010402177
40	0x3a8723bc	0.0010310332
41	0x3a30da54	0.00067464006
42	0xba886624	-0.0010406417
43	0x3a886624	0.0010406417
44	0x3a886624	0.0010406417
45	0x3a30b3aa	0.0006740639
46	0xba886624	-0.0010406417
47	0xba7e9b7a	-0.0009712499
48	0x3a867b5e	0.0010260155
49	0xba87d236	-0.001036233
50	0x3a886083	0.0010404739
51	0xba84fdbc	-0.001014642
52	0x3a872967	0.0010312021
53	0x3a886825	0.0010407014
54	0x3a866126	0.0010252341
55	0xba86f99f	-0.0010297782
56	0xba883403	-0.0010391477
57	0x3a885a0e	0.0010402815
58	0xba86077e	-0.0010225622
59	0x3a884d0e	0.0010398941
60	0x3a882130	0.0010385867
61	0x3a8747f0	0.0010321122
62	0xba886767	-0.0010406793
63	0xb811592c	-3.465374e-05
64	0x37e27680	2.699648e-05
65	0xb7e31468	-2.7070011e-05
66	0xb6d24080	-6.2659965e-06
67	0xb7ba9900	-2.2244174e-05
68	0xb7081770	-8.111689e-06
69	0x37e2ecc0	2.7051545e-05
70	0xb7e32058	-2.707557e-05
71	0x37e2e868	2.7049522e-05
72	0xb7e30da8	-2.7066868e-05
73	0xb7e31458	-2.7069982e-05
74	0xb7e2f658	-2.7056012e-05
75	0xb7deaa60	-2.65438e-05
76	0xb7e124a8	-2.683916e-05
77	0xb7e5bff0	-2.7388305e-05
78	0x37d85080	2.5786692e-05
79	0x37e3fce8	2.7178277e-05
80	0xb7e837a8	-2.7682472e-05
81	0xb7de81d0	-2.6524911e-05
82	0x37e32058	2.707557e-05
83	0xb78bf6b8	-1.6684979e-05
84	0x36eef600	7.121591e-06
85	0xb7d55020	-2.542889e-05
86	0xb7e32458	-2.7077433e-05
87	0xb7baccb8	-2.2268257e-05
88	0x37deb720	2.6549737e-05
89	0x37d41508	2.5282163e-05
90	0xb7e31b78	-2.70733e-05
91	0xb7e2e420	-2.7047528e-05
92	0xb7e35cc8	-2.7103713e-05
93	0xb7e319a8	-2.7072456e-05
94	0xb7e0cf50	-2.6799418e-05
95	0xb7de2200	-2.6480295e-05
96	0xb7e30e98	-2.7067304e-05
97	0x37e36888	2.7109185e-05
98	0xb7e5bff0	-2.7388305e-05
99	0xb7f17470	-2.878366e-05
100	0x37e319a8	2.7072456e-05
101	0xb7804908	-1.5292797e-05
102	0xb80ede90	-3.4062716e-05
103	0xb7e79f28	-2.7611459e-05
104	0xb7de12b8	-2.6473179e-05
105	0xb7e307c0	-2.7064118e-05
106	0x37e30fa8	2.70678e-05
107	0x37e31080	2.7068192e-05
108	0xb7023910	-7.76189e-06
109	0x37e30da8	2.7066868e-05
110	0x381654d4	3.584179e-05
111	0xb7ba6160	-2.2218272e-05
112	0x37cc7ac0	2.4375855e-05
113	0xb7e2ba40	-2.7028029e-05
114	0xb7d93870	-2.5894697e-05
115	0x37e2c020	2.7030765e-05
116	0xb7e40dd8	-2.7186165e-05
117	0xb7caf708	-2.419531e-05
118	0x3657fca0	3.2184544e-06
119	0x37e2b740	2.7026632e-05
120	0xb78cc018	-1.6778751e-05
121	0xb795ca00	-1.7856248e-05
122	0xb7df90f8	-2.6651178e-05
123	0xb7e38c10	-2.712573e-05
124	0xb700d560	-7.679075e-06
125	0x37e36b10	2.7110364e-05
126	0x3782e252	1.5602596e-05
127	0x3767c2da	1.381404e-05
128	0x36142821	2.2077077e-06
129	0x358fe9ee	1.0722413e-06
130	0x36179453	2.258709e-06
131	0xb7807001	-1.5310945e-05
132	0xb697a3b7	-4.5192096e-06
133	0x37660808	1.3710938e-05
134	0xb6199eaa	-2.2891131e-06
135	0xb625a8b7	-2.468512e-06
136	0xb60da9b7	-2.1109424e-06
137	0xb644f8f2	-2.9351181e-06
138	0x3782fcf8	1.5615005e-05
139	0xb781714f	-1.5430762e-05
140	0xb7110aa5	-8.645152e-06
141	0xb60c0e9d	-2.0870132e-06
142	0xb675fcb3	-3.6654935e-06
143	0xb58af549	-1.0353189e-06
144	0xb614aebb	-2.2155425e-06
145	0x37658b12	1.36818435e-05
146	0xb6222611	-2.4162039e-06
147	0xb780b5bf	-1.5343421e-05
148	0xb586e1e4	-1.0049521e-06
149	0x37fcc4f8	3.0132462e-05
150	0xb77632ba	-1.4674553e-05
151	0xb625ae4c	-2.468837e-06
152	0x3609631c	2.047228e-06
153	0x3765ec88	1.3704535e-05
154	0xb710efe1	-8.63892e-06
155	0x36150e57	2.2211077e-06
156	0xb63aee4c	-2.7854867e-06
157	0x35afa5ce	1.3086772e-06
158	0xb4383258	-1.715465e-07
159	0x368f728a	4.275066e-06
160	0xb77471c6	-1.4570023e-05
161	0x360c5a9f	2.0914374e-06
162	0xb5037b7e	-4.898101e-07
163	0xb784ac02	-1.5815724e-05
164	0x360b4f11	2.0758637e-06
165	0xb5ba5500	-1.3882818e-06
166	0xb63f6d6c	-2.852491e-06
167	0xb59d76af	-1.1731953e-06
168	0xb625ee4c	-2.4725623e-06
169	0xb707c8aa	-8.093348e-06
170	0xb63b80ef	-2.794022e-06
171	0x35e1beac	1.6819299e-06
172	0x3697a3b7	4.5192096e-06
173	0x368fb0c3	4.28231e-06
174	0x37d965fd	2.5915908e-05
175	0xb69475d3	-4.4244603e-06
176	0xb778c9f2	-1.4828971e-05
177	0x37846b37	1.5785552e-05
178	0xb6633322	-3.38554e-06
179	0x37fcc4f8	3.0132462e-05
180	0xb77a4f5b	-1.4919638e-05
181	0x377e66df	1.5163531e-05
182	0x37dbc4fe	2.6198566e-05
183	0xb77f94cb	-1.5233828e-05
184	0x3651bb7c	3.1252557e-06
185	0xb778c6ca	-1.4828236e-05
186	0xb6107cb8	-2.1530268e-06
187	0xb600ae68	-1.9175004e-06
188	0xb78123ae	-1.5394613e-05
189	0xbaa095f0	-0.0012251716
190	0xbbdd1ebe	-0.0067480495
191	0x3be04aac	0.006844839
192	0xbac4d8ce	-0.0015018226
193	0x3a5543e0	0.00081354193
194	0xb9d1565a	-0.00039927923
195	0xbbde2c5e	-0.0067801913
196	0x3bde2df0	0.0067803785
197	0xbbde7809	-0.0067892116
198	0xbbde3606	-0.0067813424
199	0xbbdad04a	-0.006677662
200	0x3bde4162	0.0067826966
201	0xbbde2c7c	-0.0067802053
202	0xbbde33fb	-0.006781099
203	0xbbdf1766	-0.0068082092
204	0x3be44386	0.0069660572
205	0x3bde3602	0.0067813406
206	0xbbde8736	-0.0067910207
207	0xbad1e77e	-0.0016014425
208	0xbbde35f2	-0.006781333
209	0x3ab57849	0.0013845052
210	0x3aa8e2da	0.001288499
211	0xbab99ef2	-0.0014161749
212	0x3bde3604	0.0067813415
213	0xb9f41af4	-0.00046559388
214	0xbbde2db7	-0.006780352
215	0x3bd95da1	0.006633476
216	0xbbde3789	-0.0067815227
217	0xbbde4110	-0.0067826584
218	0x3bdd5fb4	0.0067557935
219	0x3bde3600	0.0067813396
220	0x3bde8351	0.0067905565
221	0xba2c8dde	-0.0006582419
222	0xbbde08ea	-0.006775965
223	0x3bde51c0	0.0067846477
224	0xbbe2972c	-0.0069149937
225	0xbab98c9c	-0.0014156285
226	0xbbde3604	-0.0067813415
227	0xba2b4c76	-0.0006534526
228	0x3be20665	0.006897735
229	0x3aaa9f2e	0.001301741
230	0x3bde4024	0.0067825485
231	0xbbde3720	-0.0067814738
232	0xbbde3604	-0.0067813415
233	0xbbde36ea	-0.0067814486
234	0xb9fb2218	-0.00047899853
235	0xbbde3600	-0.0067813396
236	0x39ddcdfa	0.0004230587
237	0xb99637c6	-0.00028651784
238	0xbab6ccc2	-0.0013946521
239	0xbbde6734	-0.006787205
240	0xb93b2ab0	-0.00017849612
241	0x3bde56b0	0.0067852363
242	0xbbde69cb	-0.006787514
243	0xbbdd0485	-0.0067449235
244	0x39e347bc	0.0004335026
245	0x3bde70de	0.006788357
246	0x3b071454	0.0020611482
247	0xbaadf7af	-0.0013272668
248	0x39046166	0.00012624785
249	0xbbe76052	-0.007061043
250	0x39e31820	0.00043314788
251	0xbbde362a	-0.006781359
252	0xba74b174	-0.0009334304
253	0x395ad541	0.00020869543
254	0xb90b0146	-0.00013256547
255	0xbadbb902	-0.0016763511

l1.bias f4 [256]
0	0xbebcac4a	-0.36850196
1	0xbf0beae2	-0.5465528
2	0xbee29809	-0.4425662
3	0xbf11d7ed	-0.569701
4	0xbe1ef0ab	-0.15521495
5	0xbee1d569	-0.44108132
6	0xbf0eca43	-0.55777377
7	0xbf1ce877	-0.61292213
8	0xbea9ca56	-0.33162183
9	0xbec1a810	-0.37823534
10	0xbf364eb1	-0.71213824
11	0xbea7897e	-0.32722086
12	0xbf25c94c	-0.6476028
13	0xbdd7127d	-0.10501573
14	0xbecd4980	-0.4009514
15	0xbf1f84b2	-0.6231185
16	0xbf091a89	-0.53556114
17	0xbf0f8e1c	-0.56076217
18	0xbf32aa42	-0.6979104
19	0xbf10e568	-0.56600046
20	0xbed212e2	-0.4103003
21	0xbf1f0a15	-0.6212476
22	0xbf338399	-0.7012268
23	0xbf12f807	-0.5740971
24	0xbf75509f	-0.95826143
25	0xbef1532c	-0.47133768
26	0xbf02e6dc	-0.51133513
27	0xbf19845d	-0.59967595
28	0xbf2cc7c0	-0.67492294
29	0xbf053d26	-0.5204643
30	0xbf1a4ace	-0.6027039
31	0xbf0bd41b	-0.5462052
32	0xbebfb2e7	-0.3744118
33	0xbf217ee8	-0.6308427
34	0xbf3133e6	-0.69219816
35	0xbea617ed	-0.3244013
36	0xbf0dec71	-0.55438906
37	0xbf2e4bdc	-0.680845
38	0xbf12b221	-0.57303053
39	0xbf0fa0bd	-0.5610464
40	0xbf17d951	-0.59315974
41	0xbf085bb3	-0.5326492
42	0xbf34b581	-0.70589453
43	0xbf23c688	-0.6397481
44	0xbf34f810	-0.70691013
45	0xbe8231a1	-0.2542849
46	0xbf1c5a8f	-0.6107568
47	0xbf53d856	-0.8275198
48	0xbf303010	-0.6882334
49	0xbf4b957a	-0.7952496
50	0xbf44bd4d	-0.7685135
51	0xbf3e547e	-0.74347675
52	0xbef69575	-0.48160902
53	0xbe92fc98	-0.2870834
54	0xbed2766c	-0.41105974
55	0xbf523d24	-0.82124543
56	0xbf61bb74	-0.88176656
57	0xbefa0c4b	-0.48837504
58	0xbed1360e	-0.40861553
59	0xbee92a13	-0.45539913
60	0xbf00527b	-0.50125855
61	0x3ed790be	0.42102617
62	0xbefa757d	-0.4891776
63	0xbee43389	-0.44570568
64	0xbebbb155	-0.3665873
65	0xbf224df2	-0.63400185
66	0xbef28e20	-0.47374058
67	0xbece2dad	-0.40269223
68	0xbecc61ac	-0.39918268
69	0xbec92d4d	-0.39292374
70	0xbeb0623d	-0.3444995
71	0xbf41e037	-0.7573275
72	0xbf44452c	-0.7666805
73	0xbf0da1de	-0.55325115
74	0xbe62ac3b	-0.22136013
75	0xbf025e6c	-0.50925326
76	0xbed9254a	-0.42411262
77	0xbf16cf25	-0.5890983
78	0xbf25ff8d	-0.64843065
79	0xbf36d256	-0.714147
80	0xbf10328f	-0.56327146
81	0xbf0752ea	-0.5286089
82	0xbf06d478	-0.5266795
83	0xbf2431d9	-0.6413856
84	0xbf40db47	-0.7533459
85	0xbf0aa158	-0.5415244
86	0xbf1c58a9	-0.61072785
87	0xbf329235	-0.69754344
88	0xbebc0aa2	-0.36726862
89	0xbf16b76d	-0.58873636
90	0xbf188c9d	-0.5958956
91	0xbf07101b	-0.5275895
92	0xbf63cfe1	-0.88989073
93	0xbf530257	-0.82425445
94	0xbf27547f	-0.65363306
95	0xbed73173	-0.42029914
96	0xbec10a0f	-0.37702987
97	0xbed46a46	-0.4148733
98	0xbed68523	-0.4189845
99	0xbed8a460	-0.42312908
100	0xbefc50a6	-0.4928028
101	0xbf05a1ba	-0.521999
102	0xbef71e98	-0.4826553
103	0xbf152ecf	-0.5827455
104	0xbf0500c0	-0.5195427
105	0xbf019725	-0.50621253
106	0xbf083f29	-0.53221375
107	0xbf100131	-0.5625182
108	0xbf1fe21f	-0.6245441
109	0xbf0f0bef	-0.55877584
110	0xbef28894	-0.47369826
111	0xbf0b52fa	-0.5442349
112	0xbeb9dfc1	-0.36303523
113	0xbebacde5	-0.3648521
114	0xbea12183	-0.3147088
115	0xbf2af8c7	-0.66785854
116	0xbf27470b	-0.6534278
117	0xbf413405	-0.7547
118	0xbf19bc88	-0.600533
119	0xbf077272	-0.52909005
120	0xbedfb5ed	-0.43693486
121	0xbf0935ee	-0.53597915
122	0xbf2d363c	-0.6766088
123	0xbeeb19a9	-0.45918015
124	0xbf354c05	-0.7081912
125	0xbef24e8c	-0.47325552
126	0xbedd5db6	-0.43235558
127	0xbeee0d0a	-0.46494323
128	0xbf187b80	-0.59563446
129	0xbe4695f1	-0.19393136
130	0xbf1d8db0	-0.6154432
131	0xbef1a106	-0.47193164
132	0xbf639ca4	-0.8891089
133	0xbec00e8f	-0.37511107
134	0xbf1ce98d	-0.6129387
135	0xbf0c745e	-0.5486506
136	0xbed4ec5d	-0.4158658
137	0xbf16ae63	-0.58859843
138	0xbf3ed292	-0.74540055
139	0xbeb330c5	-0.34998146
140	0xbef9d3e2	-0.48794466
141	0xbf35e9f5	-0.71060115
142	0xbef7f592	-0.48429543
143	0xbeefc585	-0.46830383
144	0xbec7c5c2	-0.39018065
145	0xbf0a639d	-0.5405825
146	0xbeeca715	-0.46221223
147	0xbf08300d	-0.5319832
148	0xbef59530	-0.47965384
149	0xbee7b168	-0.45252538
150	0xbf0f442a	-0.55963385
151	0xbf1147c7	-0.5675015
152	0xbee3a1f5	-0.444595
153	0xbf25f2ee	-0.64823806
154	0xbf2c9617	-0.6741652
155	0xbf38070a	-0.7188574
156	0xbeff9cac	-0.4992422
157	0xbeaabde6	-0.33348006
158	0xbefb82ed	-0.49123326
159	0xbedae791	-0.42754796
160	0xbefa57da	-0.4889515
161	0xbf0ec5fd	-0.55770856
162	0xbead6019	-0.3386238
163	0xbe9ecda0	-0.31016254
164	0xbed179e6	-0.40913314
165	0xbece670d	-0.40312997
166	0x405ffcf9	3.4998152
167	0xbf243b23	-0.64152735
168	0xbf30ab52	-0.69011414
169	0xbf310cbe	-0.6916007
170	0xbf142cd6	-0.57880914
171	0xbe9858ae	-0.29755157
172	0xbef8d337	-0.48598644
173	0xbf1a9182	-0.6037828
174	0xbf244b27	-0.64177173
175	0xbef3d359	-0.47622183
176	0xbf0535b4	-0.5203507
177	0xbf17c7f5	-0.59289485
178	0xbf01d226	-0.50711286
179	0xbeefcb45	-0.4683477
180	0xbf7aa168	-0.97902536
181	0xbf4ed542	-0.80794156
182	0xbef2a0ed	-0.47388402
183	0xbf5d1a99	-0.8636871
184	0xbefdee5e	-0.49595922
185	0xbf191cb5	-0.5980943
186	0xbf20ed03	-0.6286165
187	0xbf39e047	-0.72607845
188	0xbf6bdab9	-0.9213062
189	0xbf21399e	-0.6297854
190	0xbf05c4f1	-0.52253634
191	0xbcaa564c	-0.020793103
192	0xbf4229b5	-0.7584489
193	0xbf3eb489	-0.74494225
194	0xbee02e59	-0.4378536
195	0xbf2b9fca	-0.67040694
196	0xbea42229	-0.32057312
197	0xbed9028a	-0.4238475
198	0xbf2167d2	-0.6304904
199	0x3f85fae6	1.0467193
200	0xbf270dbe	-0.65255344
201	0xbf0b6d13	-0.5446331
202	0xbee484a8	-0.4463246
203	0xbf02b821	-0.5106221
204	0xbec19719	-0.3781059
205	0xbeca5557	-0.39518234
206	0xbf09b354	-0.5378926
207	0xbefebf77	-0.4975545
208	0xbf4ae7b7	-0.7925982
209	0xbf4f6fe2	-0.81030095
210	0xbef17dba	-0.47166234
211	0xbf06f108	-0.52711535
212	0xbf06f015	-0.52710086
213	0xbf01d3f6	-0.5071405
214	0xbe83727c	-0.25673282
215	0xbf1a837a	-0.6035687
216	0xbef433cc	-0.47695768
217	0xbf1c43c2	-0.6104089
218	0xbeab88f6	-0.3350293
219	0xbef9c371	-0.48781922
220	0xbee85ff9	-0.4538572
221	0xbeb5bd4d	-0.35495988
222	0xbf2628c9	-0.64905983
223	0xbec86a6d	-0.39143696
224	0xbf1b2b3e	-0.6061286
225	0xbee9ed9e	-0.456891
226	0xbea7d9f4	-0.32783473
227	0xbf040d56	-0.5158285
228	0xbf130c3f	-0.5744056
229	0xbf0d4bbe	-0.551937
230	0xbf1f09cd	-0.6212433
231	0xbeb9330a	-0.36171752
232	0xbf60cdc5	-0.8781398
233	0xbf3cc836	-0.73743
234	0xbf2e81c4	-0.68166757
235	0xbee45ea4	-0.44603455
236	0xbf260779	-0.6485515
237	0xbf314a80	-0.692543
238	0xbee48250	-0.4463067
239	0xbf22c8bf	-0.63587564
240	0xbee5bac0	-0.4486904
241	0xbea36d21	-0.31919196
242	0xbecab795	-0.39593187
243	0xbf1114fb	-0.5667264
244	0xbf0ee8ad	-0.55823785
245	0xbecf8ea6	-0.4053852
246	0xbecfc86d	-0.405826
247	0xbe9d6b29	-0.3074582
248	0xbecb485e	-0.3970365
249	0xbf0c786f	-0.5487127
250	0xbec95547	-0.39322874
251	0xbf37d9fd	-0.71817
252	0xbeda7eee	-0.42674965
253	0xbf2412f9	-0.6409145
254	0xbf2a23d1	-0.664609
255	0xbef88e3e	-0.48546022
