TABULAR/Figure1Reproduce/Poisoned/ADULT_GRAD_FCN_e=0.1_g=0.0_a=1.0_l=2_h=256_s=True_p=0.75.pt (torch, 332951 bytes, 10 tensors)

lays.0.weight f4 [256, 63]
00000000: 1238 8b3b 3d01 2dbd 2c08 0f3d d315 08bd
00000010: 5bed 07bd 75e3 07bd 7220 403d 523e 343d
00000020: 6335 463d 1539 40bd 9bb3 55bd 02e3 59bd
00000030: 8744 62bd b6a6 893d add1 423d e942 65bc
00000040: 24d5 0abd 53a4 17bd bac7 f03c 4bae 3fbd
00000050: 2f67 cebc 515a 00bd 1082 1b3d 5b31 7bbd
00000060: 7a02 42ba 2880 5c3d e695 f5bb c990 4dbd
00000070: c1e0 28bd 805f e1bc 86aa 3ebd 460d 1f3d
00000080: a572 05bb 0d68 7bbd d9b1 643d 5dcd ccbd
00000090: b8d3 37bd 6ee8 4ebd ac87 83bb c418 453d
000000a0: 2036 f13c e6ff 6fbd b48b 46bd 72ad 54bd
000000b0: bc3f 6abd 8ed7 54bd 79b8 363d 756e b93c
000000c0: ce7c 43bd c6e8 753c d405 83bd d562 6fbd
000000d0: 91ae 133d 0af3 7dbc 410f 1fbd e80d 113d
000000e0: 45ce a63d 6775 bcbc 9b7b 05be 33df 413d
000000f0: 6359 3a3d cf02 15bd f228 433d b609 dcbd
00000100: 5689 03bc dd69 033c e179 f9bd 8487 9b3b
00000110: bc60 2ebd 0161 03bc 0863 053c ae0c 04bc
00000120: 79f8 023c 07cc 03bc 6464 053c aaa4 043c
00000130: cdb6 04bc ab80 03bc d6e9 6a3b 67be 043c
00000140: 0412 36be 053f 783b df43 053c cd86 033c
00000150: 1f26 053c 7ee3 043c 6b94 03bc ebd3 0fbe
00000160: a17a 03bc d098 d63c dd9b 03bc 8d93 04bc
00000170: e851 b1bb 44ab 033c 9ee9 043c 0746 04bc
00000180: 038e 03bc 2a95 02bc 8595 04bc 9b1d 053c
00000190: ac65 043c d44c 26be 75e7 033c 50b6 6e3b
000001a0: 82a9 03bc c428 05bc 20aa 04bc a1bc 03bc
000001b0: 88f0 bb3b 3a80 04bc 67f2 2ebe e3b7 08bc
000001c0: 7e95 cabc fc47 03bc e056 053c 3e53 053c
000001d0: 305e 1cbe d31d 17be 954d 023c 42a0 043c
000001e0: 8482 7cbb 2559 23be f1b0 023c b16a 02bc
000001f0: 0c12 033c 1295 03bc c46a 0d3d 0b54 413d
00000200: 2195 a73c 331b 823c b155 053d 56b6 dc3c
00000210: 3708 07bd 02c7 2abd fd5f efbc ba20 e0bc
00000220: 2647 143d 222f ecbc 7f15 aa3c 4959 4a3c
00000230: 14b3 c3bc d7b9 523d a44a 813d ca05 5a3c
00000240: 0711 e7bd 0114 e53c 5e2f 663d 899a 633b
00000250: bd39 e1ba fef4 f0bc 7e4b 3d3d aedc 113d
00000260: 1c83 3ebd d7a5 0bbd f619 30bb baa1 5e3d
00000270: 9b81 ef3c ead1 613c 064c a13d 0502 cfbc
00000280: 1f4d 01bd efb2 16bc 50b0 38bd 2788 a9bc
00000290: b5f3 21bd 0459 ecbc 56be 813c c5ec 70bc
000002a0: 31fb afbc 6cd8 c3bc 0f31 5f3c 4acc 3abd
000002b0: aeac cf3c d05d d3b9 4dd0 a3bc 4f21 adbc
000002c0: 6fd8 793c 8139 3dbc d2fb fcbc 4eb8 953c
000002d0: da56 9abb 4d65 eabc 45ab f03b 9f37 bb3c
000002e0: 76b0 7bbd aecf 183c 0d05 2fbc 4d80 173d
000002f0: d5d7 cebc bf57 3cbd 61ee 62bd 81a7 eb3c
00000300: e5d8 fabc b1e5 9ebd 1ca9 0d3d 618b 85bd
00000310: 8251 2ebd d59b 8b3d 5bc9 813d 761d 54bd
00000320: 4645 9bbd 5f63 813d ee61 1e3d 1e06 47bd
00000330: 9803 46bd fcae 42bd f605 243b 4a0d 61be
00000340: c928 99bd d3ad ab3c f9c1 33bd ab06 833d
00000350: 5514 043d 1636 82bc 02a5 903d 6de5 58bd
00000360: 5b2f 153d 8dfd 5ebd 5bc7 473c 0a71 0a3d
00000370: 83af 553d 4c6d 5a3d 82ac 943d 3b74 623d
00000380: 63ef 39bd 14fa a93c db71 35bd 5222 fcbd
00000390: 1113 893d 688b acbd 0cfb e73c f02d 1bbd
000003a0: 1b54 7c3d 89e0 223c f2c4 f23c 4bae 803d
000003b0: b6c0 0bbd bca6 8e3d 1eea 0fbb 41f0 8fbd
000003c0: d728 fe39 7f15 433d efde 62bc 9322 62bd
000003d0: 85b7 3ebc 0c17 17bd 649c 863d 9d68 a3bd
000003e0: d205 823a d7b3 d3bc 5040 93bc bee1 0c3d
000003f0: f7ec 83be b49d da3c a2ef d43c d176 cebe
0.0042486275 -0.04223751 0.034919903 -0.03322394 -0.033185344 -0.033175904 0.046905942 0.044004746
0.048390757 -0.046929438 -0.05217324 -0.053195007 -0.055241134 0.06721251 0.047563244 -0.013993003
-0.033894673 -0.037021946 0.029392112 -0.046797078 -0.025195686 -0.031336132 0.037965834 -0.061326366
-0.0007400882 0.053833157 -0.007494676 -0.050186906 -0.041229967 -0.027511358 -0.046549343 0.038831018
-0.0020362523 -0.061378527 0.05583367 -0.100001074 -0.044879645 -0.05051463 -0.004013976 0.04811932
0.029444754 -0.058593653 -0.048473075 -0.051923223 -0.057189688 -0.05196338 0.04460952 0.022635678
-0.047726445 0.015009111 -0.06397596 -0.058443863 0.03605515 -0.01549984 -0.038832907 0.035413653
0.081448115 -0.0230052 -0.13035433 0.047332 0.045495402 -0.03637963 0.04764647 -0.1074404
-0.008028349 0.008020845 -0.1218145 0.0047463793 -0.04257272 -0.008018733 0.008141287 -0.008059664
0.007993811 -0.008044249 0.008141611 0.0080959 -0.008100224 -0.008026282 0.0035844943 0.008102036
-0.1778031 0.003787936 0.0081338575 0.0080277445 0.008126765 0.008110879 -0.008030991 -0.14045684
-0.0080248425 0.026195914 -0.008032766 -0.0080918195 -0.0054113753 0.008036438 0.008112339 -0.008073336
-0.008029464 -0.007970134 -0.008092289 0.008124734 0.008080881 -0.16240245 0.008050789 0.0036424585
-0.008036019 -0.008127395 -0.008097202 -0.008040578 0.0057354607 -0.008087212 -0.17084657 -0.008344623
-0.024729487 -0.008012768 0.008138388 0.008137522 -0.15270305 -0.14757471 0.007953067 0.008094849
-0.0038529942 -0.15951975 0.007976756 -0.0079600075 0.007999908 -0.008031147 0.034525648 0.04719929
0.020456852 0.01588211 0.032552425 0.026942413 -0.03296682 -0.041693695 -0.029220575 -0.027359355
0.036200665 -0.028831068 0.020762203 0.012350389 -0.023889102 0.051446762 0.06313065 0.013307044
-0.112825446 0.02796364 0.056197517 0.0034729561 -0.0017183345 -0.029413696 0.046214573 0.035610847
-0.046511754 -0.034093704 -0.0026870943 0.054353453 0.029236605 0.013782958 0.078758284 -0.025269518
-0.03156769 -0.0091979345 -0.04509002 -0.020694805 -0.039539058 -0.02885104 0.01583783 -0.014704888
-0.021482082 -0.023906909 0.013622536 -0.04560498 0.025350895 -0.00040314952 -0.019996786 -0.021134047
0.015249356 -0.0115493545 -0.030881796 0.01827636 -0.0047100605 -0.028612757 0.0073446357 0.02285367
-0.061447583 0.009326858 -0.010682357 0.03698759 -0.025249401 -0.04598212 -0.055403117 0.028766396
-0.030621001 -0.07758654 0.034585103 -0.06520725 -0.0425582 0.06816832 0.06337234 -0.05178591
-0.07581572 0.06317782 0.03866761 -0.04858982 -0.04834327 -0.04753016 0.0025027967 -0.21977726
-0.07478482 0.02095691 -0.04388616 0.06397756 0.032245953 -0.01589493 0.07062723 -0.052953172
0.036422115 -0.054441024 0.012193526 0.03379921 0.052169334 0.05332689 0.07259466 0.055286627
-0.045394313 0.02074913 -0.044298034 -0.123112336 0.0669309 -0.08425027 0.02831795 -0.037885606
0.061603647 0.009941229 0.029634926 0.06283244 -0.03411933 0.06965396 -0.0021959613 -0.07028247
0.00048477083 0.047627922 -0.013847097 -0.055208754 -0.011640434 -0.036887214 0.06572798 -0.07978938
0.0009919947 -0.02584259 -0.017975003 0.034394972 -0.25766727 0.026686527 0.025993172 -0.40325025

lays.0.bias f4 [256]
00000000: 3801 46bf 1dfc 3cbf 98d5 27bf acaa 54bf
00000010: 19f6 97bf 9924 46bf 6f8d 39bf d9f5 69bf
00000020: 125a 83bf 1686 70bf 5780 59bf 0e8f 3cbf
00000030: 8c2e 6fbf 5f1c 7ebf 01f7 3dbf 6af8 4fbf
00000040: 36fb 4dbf 3876 643e fd6c 4bbf bbc9 65bf
00000050: 88ea 4fbf 22d8 4ebf a4aa 40bf 0f0a 7cbf
00000060: 7494 2ebf c7fb 38bf 1da2 5cbf ae70 12bf
00000070: 9bcc 3dbf a0f4 4fbf c184 5fbf aa27 62bf
00000080: 2d55 63bf 1dc8 57bf 754c 5dbf 29f8 69bf
00000090: fd7d 53bf 258c 61bf 1c18 5cbf 4cfa 43bf
000000a0: f5ed 91bf 6b08 63bf 1909 31bf 1dde 4ebf
000000b0: 20ca 4fbf b93a 70bf f509 91bf 55b0 42bf
000000c0: 943a 40bf fd8e 52bf b6b1 27bf 3c5c 4abf
000000d0: 957c 4bbf 1086 4ebf 4c59 4cbf 4d55 7fbf
000000e0: a7e3 57bf 0a9a 3abf c872 49bf 57f4 5fbf
000000f0: 426e 2ebf de65 67bf 3738 57bf 70a5 50bf
00000100: 99a9 61bf a20a 5bbf f0b8 54bf db7d 45bf
00000110: cd44 49bf 47ab 5fbf 4c54 8abf c4b8 32bf
00000120: 7aec 57bf 51d7 50bf e124 8dbf 5ca5 66bf
00000130: 8b74 9f3f 4703 3cbf 8064 4dbf 6010 52bf
00000140: 4de0 5abf f36d 31bf 261b 44bf e08b 3ebf
00000150: b4cd 3dbf 7eff 68bf 20c3 83bf eff6 4fbf
00000160: e124 4dbf b667 77bf d0c0 75bf 6c46 5fbf
00000170: 6acf 60bf 0f7b 37bf 1187 5dbf e63a 3fbf
00000180: 33f6 5dbf 52c6 47bf 9061 66bf 921c 2dbf
00000190: cfd1 47bf 7114 81bf 285b 37bf ec24 5bbf
000001a0: 4f9a 3ebf 47df 47bf 1e90 57bf 5757 6ebf
000001b0: 6f18 4bbf 0bf7 53bf 26be 54bf 1739 43bf
000001c0: b341 2fbf 0c9e 72bf 91c0 5bbf cd03 65bf
000001d0: ae0d 61bf 6509 63bf dec1 88bf 07d2 31bf
000001e0: e656 80bf 9d1b 41bf 4306 2fbf 45ff 65bf
000001f0: e552 26bf 2fe7 15bf 6c43 5dbf 4bfc 86bf
00000200: f49c 51bf 730c 3fbf 43ff 55bf 24cd 43bf
00000210: 2a5a 69bf 2a54 53bf 887d 84bf aaea 6bbf
00000220: f23d 5cbf bfba 33bf 9f1e 68bf 69ba 56bf
00000230: d328 60bf f167 65bf e6b7 26bf 89fc 5dbf
00000240: 7730 61bf 92cc 6bbf 89e5 8fbf 0a98 36bf
00000250: 55e1 43bf f316 71bf 9ce4 39bf 832f 6cbf
00000260: 7deb 1cbf a60c 66bf a040 56bf 75d6 37bf
00000270: 07c1 3dbf 2932 22bf 2606 24bf 8876 68bf
00000280: b98f bbbe 0a38 d9be 8091 5dbf 955d 3cbf
00000290: 1e60 82bf 9757 66bf d9fc 2bbf 8268 55bf
000002a0: c70e 43bf 3ef1 88bf 2987 3dbf b2d7 67bf
000002b0: a775 4bbf 184f 62bf 843e 60bf 0fae 5cbf
000002c0: 2905 45bf 374f 5bbf 3235 58bf 60e7 37bf
000002d0: a368 64bf ce7a 44bf 3653 43bf 2e36 52bf
000002e0: f3a9 82bf e16c 44bf 0f50 3abf 70ab 55bf
000002f0: 9f12 2fbf 9b3b 69bf d71f 36bf d5a8 17bf
00000300: e4df 6abf aa5c 3abf 5f9e 48bf d558 80bf
00000310: ad29 31bf 30c5 98bf 5f6f 4dbf b3c5 52bf
00000320: a4c5 3fbf 59d4 3ebf f97f 5bbf 63e1 58bf
00000330: ce28 48bf b389 4bbf b4d9 06bf 0d11 49bf
00000340: 816a 6cbf c10f 56bf e76b 83bf 46aa 4ebf
00000350: 621e 71bf e0ff 82bf a671 48bf f59a 31bf
00000360: 17fe 53bf 4426 46bf ed7d 56bf c10d 4dbf
00000370: 4ddb 54bf a936 42bf 611c 42bf e227 67bf
00000380: e27f 75bf 404e 52bf fdcd 41bf 21e3 70bf
00000390: 4ff8 56bf ecf2 4abf 3823 5abf 7c3b 67bf
000003a0: 1df2 46bf 2524 48bf 917a 4bbf 9833 3cbf
000003b0: f034 9abf 2564 44bf e475 63bf 54dc 2fbf
000003c0: ce91 65bf 5387 2dbf 6af0 38bf aeb0 72bf
000003d0: 13af 95bf 223c 67bf aab3 88bf e4f1 3dbf
000003e0: e746 50bf 307f 65bf 46df 55bf 3f93 5cbf
000003f0: 110c 7fbf 4570 65bf 5caa 5fbf dd08 58bf
-0.7734561 -0.73822194 -0.65560293 -0.83072925 -1.1871978 -0.77399594 -0.72481436 -0.9139076
-1.0261862 -0.939546 -0.84961456 -0.73655784 -0.934304 -0.9926204 -0.74205023 -0.81238425
-0.8046144 0.22310722 -0.7946318 -0.8976094 -0.8121724 -0.8079854 -0.75260377 -0.9845285
-0.6819527 -0.7225918 -0.86184865 -0.57203186 -0.7414033 -0.81232643 -0.8731194 -0.8834177
-0.8880184 -0.84289724 -0.8644479 -0.9139429 -0.8261412 -0.8810447 -0.8597429 -0.765538
-1.1400744 -0.8868472 -0.69154507 -0.8080767 -0.81167793 -0.93839604 -1.1331164 -0.7605031
-0.75089383 -0.8224943 -0.6550554 -0.7904699 -0.7948697 -0.80673313 -0.79823756 -0.99739534
-0.84331745 -0.72891295 -0.7869077 -0.8748221 -0.6813699 -0.9038981 -0.8407015 -0.8150244
-0.8814941 -0.855631 -0.8309469 -0.77145165 -0.78620607 -0.87370723 -1.0806975 -0.6981318
-0.8434521 -0.81578547 -1.102688 -0.9009607 1.2457441 -0.734425 -0.80231476 -0.82056236
-0.85498506 -0.69308394 -0.76603925 -0.7443218 -0.74142003 -0.9101485 -1.0293922 -0.81236166
-0.801344 -0.96642625 -0.95997334 -0.8721683 -0.8781649 -0.7167215 -0.8653422 -0.74699247
-0.86703795 -0.7803699 -0.8999262 -0.6762172 -0.7805452 -1.0084363 -0.7162347 -0.85603213
-0.74454206 -0.7807507 -0.8420428 -0.9310202 -0.7933416 -0.8279883 -0.83102643 -0.7625899
-0.68459624 -0.9477241 -0.8584071 -0.89458925 -0.879115 -0.8868621 -1.0684164 -0.694611
-1.0026519 -0.7543276 -0.6836893 -0.89842635 -0.64970237 -0.58555883 -0.86431 -1.0545744
-0.81880116 -0.7462837 -0.83592623 -0.76484895 -0.91153204 -0.825503 -1.0350809 -0.92154944
-0.8603202 -0.70206827 -0.90671724 -0.8387819 -0.8756229 -0.89611727 -0.65124357 -0.86713463
-0.87964576 -0.92109025 -1.1241924 -0.71325743 -0.76515704 -0.9417564 -0.72614455 -0.9226
-0.61296827 -0.8986305 -0.8369236 -0.7181161 -0.7412266 -0.6335779 -0.6407188 -0.90805864
-0.3663309 -0.42425567 -0.8655014 -0.73580295 -1.0185583 -0.899774 -0.6718269 -0.8336259
-0.76194423 -1.0698621 -0.74034363 -0.905635 -0.794764 -0.8840194 -0.8759539 -0.8620309
-0.76961 -0.8566775 -0.8445617 -0.71837425 -0.8922216 -0.76749885 -0.76298845 -0.8211392
-1.0208114 -0.76728636 -0.7277841 -0.8346472 -0.6838779 -0.91106576 -0.71142334 -0.5924199
-0.9174788 -0.72797644 -0.78366655 -1.0027109 -0.6920422 -1.1935177 -0.80248064 -0.82332915
-0.7491095 -0.74542767 -0.85742146 -0.8471891 -0.78187263 -0.7950699 -0.5267594 -0.7854164
-0.9235001 -0.8361779 -1.0267304 -0.80728567 -0.94186985 -1.0234337 -0.78298414 -0.6937707
-0.82809585 -0.7740214 -0.837859 -0.8009911 -0.83147126 -0.75864655 -0.7582455 -0.9029523
-0.9589826 -0.8215065 -0.7570494 -0.9409657 -0.8397264 -0.7927692 -0.8520999 -0.9032514
-0.77713186 -0.7818015 -0.79483896 -0.73516226 -1.2047405 -0.7671531 -0.8885176 -0.6869557
-0.89675605 -0.67784613 -0.7224184 -0.9480084 -1.1694053 -0.9032613 -1.0679829 -0.7419722
-0.8135819 -0.896472 -0.83543813 -0.8616218 -0.99627787 -0.89624435 -0.8736932 -0.84388524

lays.1.weight f4 [256, 256]
00000000: eced 1abd a0f2 86be 928a 45bc cff9 a23c
00000010: 4979 533e f123 19be d82a 953e 2b51 9a3d
00000020: decb d23d c1a7 b33c d82e fcbc 7a54 103e
00000030: 6fc7 3e3d b64c fcbb ee8e 7dbc 2c28 38be
00000040: f318 993e d05c ffbd 436e 3e3e 9486 00be
00000050: d8f1 84be 752f c83e 4572 a93c 7b11 e3bd
00000060: 4121 4d3c 0b3b 51be 3179 84be 4f1d 03bd
00000070: e2ec eabd ce5b 90be 17c9 e0bc 2602 983d
00000080: 9966 88be 7eb0 8b3c 28b9 6ebd 3619 f63d
00000090: 1f41 cf3d afc4 acbc 6f61 7abe 8eeb 703d
000000a0: 1452 2d3e f6a1 4a3d 02ad 9a3a c27b 85be
000000b0: 896c dcbd ffd5 69be 65f8 683e acf9 27be
000000c0: 02e6 943d 532e 90be 0618 bd3d a51d 7c3e
000000d0: 02ec 493e acd9 1bbe 03fd f73c 0f09 52be
000000e0: 56f7 9b3d 72f2 f2bb 8d71 4c3e d2fd 4a3d
000000f0: b89c 173e 0b6a a13d 551e 0bbb 8026 1dbd
00000100: 7e48 7a3d b365 86be 1cf3 193e babb 633e
00000110: 017e 973e b561 a8bc 93b0 22be ddb1 aabc
00000120: 321c ce3d 3c26 40bc cb53 953e a0f7 a53d
00000130: bccc a8be 27c0 9b3d fab8 873e 18e1 223e
00000140: 1e35 9c3c bd66 733b b7f2 8ebe ed05 943d
00000150: b909 463d ae66 7fbd d581 c8bd f9c2 833e
00000160: 2af3 143d 5ce2 863d a806 99be ab6d 603c
00000170: ec17 e73c 91b5 4ebd 2c70 2c3e 23a1 853e
00000180: 2934 47bd 89e4 bc3d 1a4c 76be f196 063e
00000190: 0e7f 63bd d8d6 b6bc 4be2 943e 41ef 18be
000001a0: 6689 cebd c7a6 44be bac0 de3d 17bb 96be
000001b0: bc25 043e 9319 12bc 3200 4d3d 6a1e ed3b
000001c0: cf7c 283e f0d2 813d 41ce 9abe 9dca acbd
000001d0: 9fb5 e8bd 8432 523c 23fc ecbd 1ea4 80be
000001e0: 9d3e 32be 71bb 203d 1887 a73e 284e b4bd
000001f0: a25d 653d 690d 783b 1ed9 903d ab1c 3d3e
00000200: 4f67 0c3e f135 2bbe be59 14be 7115 6dbe
00000210: db9d f93c 3894 763d e9a7 133c 41df 353d
00000220: 61d4 7f3e d577 36be 9f21 e93d 8afb eabd
00000230: 81ce 92be d0c2 923d e491 c3bd 4b49 bcbc
00000240: f664 283e 9c8b aebb ee79 983e 4e7f 7b3e
00000250: 8f2f f03d 6d4b 053e 6828 35be fe3c 21be
00000260: 5816 963e f1ee 5e3d 0762 bf3d 28ca 833e
00000270: 331d 243d 32d0 37bd def8 92be ef35 ddbd
00000280: b37e bfbd 182d 26be c3e0 1dbd 19ca 67be
00000290: 3afc 8bbe ce41 cb3d 50be 7dba 5b8b 943e
000002a0: 4900 7e3e 4dc2 41be 983f 453e 3e45 f53d
000002b0: d0fd 49be 2049 073e d7c8 77be ec65 e7bb
000002c0: ede0 1abe 1826 323e 9656 2a3e 0635 86bb
000002d0: 49f8 843d 953c 50be fcc5 853e 40dd 99bd
000002e0: 5228 70be 0b54 fd3c cfbe 8d3e cdbe 15be
000002f0: 5ab3 043c 40ec fdbc bbcd a93d a8fc 17be
00000300: b8e0 6cbd 968b 8b3d e153 96be 3ebb 5d3d
00000310: 7b8e 803e 5209 3cbe 6653 423e ffd4 4c3d
00000320: b80b 283e cb06 a03c 0a15 813c 34fa 8b3e
00000330: 9cfc 45bd e14e 803e 04b9 ccbc 212a cfbd
00000340: ad48 97bc cc28 5bbd 807d debd ee2c ce3c
00000350: 3912 14bd b7e9 a43d 0cd7 6ebd 8316 103d
00000360: 1fc2 693e 6cce 49be 6718 1ebe 62cc bebd
00000370: cdeb 87bd c2ba 073e 8f80 d63d 0512 023e
00000380: 1315 773d 5770 87bd 5cf2 7ebe ed80 36be
00000390: 981a c8bd a8e2 b2ba 0e2f 8a3d 1a37 a9bd
000003a0: 4b1e ee3d 7528 353d e9d5 d13d 35ca 8f3e
000003b0: 714c 8f3e a3fc c5bd d47e 6c3d dddd 32bd
000003c0: 7f84 0abe d84b 7abd 736c a93d f40a e13d
000003d0: a06a 683e 4b05 75bc 6b4f 5e3e b431 fa3d
000003e0: 0b2c 70bc 5504 943e 0c15 093b dff9 8f3d
000003f0: 52ab 8dbe 4fd0 55bd 9218 59be e9e4 7f3d
-0.037824556 -0.26356983 -0.0120569635 0.019894509 0.20651735 -0.14955117 0.2913425 0.07535013
0.10292791 0.021930577 -0.030784056 0.14094725 0.046576913 -0.0076995743 -0.015475972 -0.17984074
0.29901847 -0.124688745 0.18596749 -0.12551337 -0.25965762 0.39098707 0.02068437 -0.110873185
0.012520135 -0.2043268 -0.25873712 -0.032010373 -0.11470963 -0.2819504 -0.027439637 0.07422285
-0.26640776 0.017051931 -0.058282048 0.12016527 0.10119843 -0.02108988 -0.2445123 0.058818392
0.16925842 0.049470864 0.0011800828 -0.26070982 -0.10762889 -0.2283554 0.22751005 -0.16403836
0.07270433 -0.28160343 0.09233098 0.24620683 0.19718936 -0.15219754 0.030272013 -0.20511268
0.07615535 -0.0074141556 0.19965191 0.04955847 0.14805877 0.07881554 -0.0021227796 -0.038366795
0.06110429 -0.26249465 0.15034145 0.22239581 0.2958832 -0.020554403 -0.1588767 -0.020836765
0.100639716 -0.011727866 0.2916549 0.08103871 -0.329687 0.076050095 0.26508313 0.15906179
0.019068297 0.0037140094 -0.27919552 0.07227693 0.048349116 -0.062353782 -0.097903885 0.2573469
0.03636471 0.065861434 -0.2988789 0.013698022 0.028209649 -0.050466124 0.16839665 0.260995
-0.04863373 0.09223277 -0.24052468 0.13143517 -0.05554109 -0.022319242 0.29078898 -0.14935018
-0.100848004 -0.19204246 0.108766034 -0.29439613 0.1290502 -0.00891723 0.050049014 0.0072362917
0.1645386 0.06339061 -0.30235484 -0.08437083 -0.113627665 0.012829427 -0.11571529 -0.2512521
-0.17406698 0.039241258 0.32720256 -0.088039696 0.0559975 0.003784979 0.07072662 0.18467967
0.13711284 -0.16719796 -0.14487359 -0.2315271 0.03047078 0.060199946 0.009012201 0.044402365
0.2498336 -0.1781915 0.11383366 -0.114737585 -0.28673175 0.07166064 -0.09549311 -0.022984168
0.16444764 -0.0053267013 0.29780525 0.24560282 0.11727821 0.13017054 -0.17691195 -0.15745923
0.29313922 0.05442709 0.09344869 0.2574017 0.04006691 -0.044876285 -0.28705496 -0.10801303
-0.09350338 -0.1622814 -0.038544428 -0.22635688 -0.2734087 0.099246606 -0.0009679543 0.2901257
0.24804796 -0.18921776 0.1926254 0.119760975 -0.19725728 0.13211489 -0.24197708 -0.0070617106
-0.15124865 0.17397344 0.16634592 -0.0040956764 0.06492669 -0.2033561 0.26127613 -0.07512903
-0.23452881 0.030923864 0.27684638 -0.14623566 0.008099401 -0.030996442 0.08291193 -0.14842474
-0.057831496 0.06813733 -0.2936087 0.054133646 0.25108704 -0.1836293 0.18977126 0.050007816
0.1641072 0.01953449 0.015757103 0.27339327 -0.04833661 0.2506018 -0.024990566 -0.10115457
-0.018467272 -0.053505704 -0.10863781 0.025167909 -0.03615019 0.0805239 -0.058310553 0.03517772
0.22827958 -0.1970765 -0.15438996 -0.09316327 -0.06636772 0.13254836 0.10473739 0.12702186
0.060322832 -0.06613224 -0.2489714 -0.17822619 -0.09770697 -0.0013647871 0.06747256 -0.08262463
0.11626872 0.044228036 0.10245878 0.2808396 0.27988008 -0.09667327 0.05773814 -0.043668617
-0.13527106 -0.061107486 0.08272638 0.10988417 0.22696924 -0.014954875 0.21709983 0.12216511
-0.014658938 0.28909555 0.0020917086 0.07030081 -0.2766977 -0.05220061 -0.21200779 0.062474165

lays.1.bias f4 [256]
00000000: ba48 86bf 1056 88bf 0900 4bbf 444e 43bf
00000010: da0f 83be bee2 7ebe 76f6 11bf a124 18bf
00000020: d614 bbbf 03fd 72be 7f05 b2bf 361d a3bf
00000030: 9644 1fbf fca8 3ebf 2bdc 5fbc 2500 2dbd
00000040: e867 513c 3cec 94be a2d1 0ebf 7e83 5dbf
00000050: c38b 86bf e34c 8cbf a774 84be d300 a0bf
00000060: f83e 06bf f426 debc 96c2 84bf b950 65bf
00000070: a1dd 7dbf 7542 6fbf 6042 b0be 3c3c 33bf
00000080: 0032 11bf fc74 50bf a709 2dbf eaea f2bd
00000090: 220c fdbe 8c08 78bf 35e9 19bf 4597 3abf
000000a0: 9b86 1cbf cc6c 0dbf 82c5 b0be 2422 1abf
000000b0: 3726 b0bf ee99 3fbf fef1 1dbf 7a5c 87bf
000000c0: 67cb 4dbf 45f9 2cbf 56ac afbe e79a d2be
000000d0: 1d4f b1be 929e 21bf 8fa9 bebe dd46 36bf
000000e0: a7fb 16bf 0347 5abf 075f b8bf ffd0 39bf
000000f0: 07ba 79bf 2c5e 13bf b914 74bf 0bd4 4bbf
00000100: 320a 81bf fde1 b1bf d356 50bf 62d0 bcbc
00000110: 88cc a1be b0a4 8cbf fab6 89be 4ebb 87bf
00000120: 271d 01bf 7e69 85bf 0667 8fbf 67c2 83bf
00000130: 354b 71bf 261e 86bf ee53 52bf bf14 3fbf
00000140: 6002 7cbf 5efc 99bf ab66 6bbf 13a3 aebf
00000150: b80c 96bf ccdd 73bf ce1d 8abf e2c7 5bbd
00000160: ad8f 9abf be91 80bf 1c2c 66bd 161a 04bf
00000170: 8a28 8dbf 5fed 20bf 0cc3 6ebf 7b1c bbbd
00000180: 7e40 88be 11c7 abbe 8f8e 6ebf fe24 48bf
00000190: 644a 37bf 0f0e 02bf 1a37 eabe 276c 10bf
000001a0: 7fff 46bd d016 55bf ebeb 8bbf 3412 4bbf
000001b0: e457 4dbf 8d57 983c f056 1cbf 6323 babf
000001c0: f36e 10bf e89e 0dbf 2079 8dbf 558e dcbe
000001d0: c08a 8bbf e954 62bf c857 afbf 5f3c 79bf
000001e0: dc7d b9bf 781a 5cbf 6407 7fbc ce63 40bf
000001f0: 7170 e9be 4a6c 7f40 e814 d9bd 7471 e4bf
00000200: f45a 8abf 4431 61bf fae1 d4bf f0f6 a8be
00000210: c563 58be d2e0 6bbf 5f0a eabe 9d0f 0fbf
00000220: 8a1b b2bf 3122 a5bd 204f 1ebf 33b3 5fbf
00000230: 3bd8 c2bd 2545 903f d4a6 12bf 37b4 9ebf
00000240: 11b1 50bf c848 4abd b8c6 5ebe e339 14bf
00000250: 2afb 55bd 64c5 cdbf 2bc0 97bf a408 5abc
00000260: e04a c8bc 77c4 eebd 4540 4cbf be49 52bf
00000270: 6769 a0bf 3d65 7bbf ec5f 56bf 4a72 39bf
00000280: 87c0 93bf 29d6 79bd d08e 6bbf 0683 83bf
00000290: 6f0e 77bf 2f9f 33bf 81a1 fcbe f31d 1bbf
000002a0: f8fd 46bf 7f54 8bbe f3a6 6dbf 0515 e9be
000002b0: 1631 3ebf 7682 47be e800 8dbf c983 0ebf
000002c0: 12df 5dbf ae73 50be b1f7 63bf 2829 8abf
000002d0: 0e31 00bf 090d d2be e07d 5abf 4849 59bf
000002e0: c343 a2be 2f62 08bf 33c5 2dbf 039b 7abf
000002f0: 38dc 31bf 9ef5 8fbc bd71 a1bf 4926 94bd
00000300: 5743 ddbe 697a 95bf befc 4fbf 7cec f8bc
00000310: 4171 44bf 0b22 25bf 7b26 a5bf efa7 6fbf
00000320: 3006 18bd 7be1 5abf 6fb7 2cbf fc1a 81bf
00000330: 92e5 51bf a813 e8be d27a 7ebf 5e60 60bf
00000340: fe64 c0be 2520 69bf 285d 14bf 330d 48bf
00000350: 537a 4bbf 25b7 e53e 022b 6bbf 6462 94bf
00000360: ef04 8ebf 9e4f 83bf 9789 6cbf 7b30 87bf
00000370: 8f46 6bbf 7b7e 58bf 3497 7fbf 3b6b 4c40
00000380: c22d 3bbf 68bc abbf 1f73 cebe 6945 84be
00000390: 1e9f 62bf 00be b3be 5e54 1abf b174 2abf
000003a0: ea0b 94bf 5f8d 54bf a274 5bbf 0af5 47bf
000003b0: 3833 44bf c63f b0be fbc7 ecbf 0d5b 16bf
000003c0: 2327 adbc 0c9e 13bf 8797 90bf 47ee 6cbf
000003d0: 5ca3 07bf 3328 b7be 687c 09bd 5a52 a4be
000003e0: 8184 bebe c63a 95bf e2a1 20bf e9a4 abbe
000003f0: 479e 79bf b417 40bf 1c0d 91bf 6904 79bd
-1.0490944 -1.0651264 -0.7929693 -0.762913 -0.2559803 -0.24891183 -0.57016695 -0.5943089
-1.4615734 -0.23729329 -1.3907927 -1.274329 -0.6221403 -0.744766 -0.013663332 -0.042236466
0.012781121 -0.29086483 -0.55788624 -0.86528766 -1.0511402 -1.0960964 -0.2587025 -1.2500252
-0.5243983 -0.027118184 -1.0371883 -0.895763 -0.99166304 -0.9346078 -0.3442564 -0.70013785
-0.5671692 -0.81428504 -0.67592853 -0.118612126 -0.4942332 -0.9688804 -0.6012147 -0.7288707
-0.6114289 -0.55244136 -0.34525687 -0.60208344 -1.3761662 -0.74844253 -0.61697376 -1.0575097
-0.8038849 -0.67567855 -0.3431117 -0.41133806 -0.3463067 -0.63132584 -0.37238738 -0.7120188
-0.5897774 -0.85264605 -1.4404 -0.7258453 -0.9754948 -0.5756557 -0.9534412 -0.79620427
-1.0081236 -1.3897091 -0.81382483 -0.023048583 -0.31601357 -1.0987759 -0.26897413 -1.0604036
-0.5043511 -1.0422819 -1.1203315 -1.0293702 -0.9425538 -1.047795 -0.82159317 -0.7464103
-0.98441124 -1.2030141 -0.91953534 -1.3643516 -1.1722631 -0.9526031 -1.0790346 -0.05365742
-1.2075096 -1.0044477 -0.05619441 -0.51602304 -1.1027997 -0.628622 -0.9326637 -0.091362916
-0.26611704 -0.33550313 -0.9318628 -0.78181446 -0.71597886 -0.508027 -0.45745164 -0.5641503
-0.048583504 -0.83237934 -1.0931371 -0.7932465 -0.80212235 0.018596435 -0.61070156 -1.4542049
-0.56419295 -0.55320597 -1.105259 -0.4307734 -1.0901718 -0.8841081 -1.3698664 -0.97357744
-1.4491534 -0.8597789 -0.015565727 -0.7515229 -0.45593598 3.9909844 -0.10599691 -1.7847123
-1.0809007 -0.879658 -1.6631463 -0.33000898 -0.21131809 -0.92139924 -0.45711038 -0.558832
-1.3914654 -0.08063162 -0.61839485 -0.8738281 -0.09513899 1.1271101 -0.5728581 -1.2398747
-0.8152018 -0.049385816 -0.21755493 -0.5790083 -0.05224148 -1.6075864 -1.185552 -0.013307724
-0.024449766 -0.116585664 -0.7978557 -0.8214377 -1.2532166 -0.9820135 -0.83740115 -0.72440016
-1.154313 -0.060995255 -0.9201479 -1.027436 -0.965064 -0.7016477 -0.49341968 -0.60592574
-0.77731276 -0.27212903 -0.9283287 -0.4552385 -0.7429365 -0.1948336 -1.1015902 -0.5566984
-0.86668503 -0.20356628 -0.8904982 -1.079381 -0.5007485 -0.4102557 -0.8534832 -0.84877443
-0.31692323 -0.53274816 -0.6787903 -0.9789278 -0.6947665 -0.017573174 -1.2612835 -0.07233865
-0.4321544 -1.1677982 -0.8124503 -0.030386202 -0.7673531 -0.6450507 -1.2902368 -0.9361562
-0.037115276 -0.85500306 -0.674674 -1.008636 -0.8199092 -0.45327497 -0.9940616 -0.87647045
-0.3757705 -0.91064674 -0.57954645 -0.7814514 -0.79483527 0.4486629 -0.918625 -1.1592526
-1.1095256 -1.0258672 -0.92397445 -1.056167 -0.9190454 -0.84567994 -0.9984009 3.1940448
-0.73116696 -1.3416872 -0.40322205 -0.25834206 -0.88524044 -0.35105896 -0.60284984 -0.66584307
-1.1566136 -0.83028215 -0.8572484 -0.78108275 -0.76640654 -0.34423655 -1.8498529 -0.5873268
-0.021136826 -0.57663035 -1.1296242 -0.9255108 -0.5298364 -0.35772857 -0.03356591 -0.3209408
-0.37210467 -1.1658561 -0.62747014 -0.33524254 -0.9750714 -0.7503617 -1.1332126 -0.06079522

lays.2.weight f4 [2, 256]
00000000: 1879 9ebe da1a 123d 660e 083e efb1 a9bd
00000010: 14e0 ea3c 93e4 a1bc c88d 623d 5f63 393e
00000020: f7d9 35be a6b2 0abd b662 8b3c 6b08 8c3d
00000030: 1533 55bd 1692 e8bd 083f 7fbd 8c38 babd
00000040: ee99 183b 8cc4 99be 6cc9 313e 2d73 253e
00000050: 5a69 eebd d119 f4bd 70ef 98b6 044b 5a3c
00000060: 3683 7abd 8132 c0bd 9bd6 523e 3753 883d
00000070: 3779 d9bb ef0c 903e 5c2d edbd 8e95 adbd
00000080: 7157 1ebe 0d11 663e 875b b3bd 83c6 26be
00000090: 4180 a6bd ec08 d8bc e35e 0bbe a1c4 003d
000000a0: 6405 c0bd 4248 35bc 5364 913d cc2a 1c3e
000000b0: ed98 4a3e eba5 bebc 7fff 0fbe 55bf 9f3c
000000c0: 8324 453d 4269 173e fb1d 163d 6e91 d63d
000000d0: ce25 8e3d 7bab 85bd 2ab1 ac3d 01ea 87bc
000000e0: f8e8 4f3d 167c e03c a827 9b3e 6bc2 1e3d
000000f0: 3732 a83e 646b 143e bce6 a7bc 349b 593e
00000100: c3dc bbbd 6ef6 45bd b494 d7bd d0a5 d1bc
00000110: 16a7 1b3d 5ba0 043e ecfe 89be e12d 0d3e
00000120: d243 f2bd 766a 333e ca7e 9abb 44ba 9fbe
00000130: f83c 7c3d 62a9 393d 76f0 663d 41ba a03d
00000140: fe7d 2f3e fb4b e7bd bcb2 a73e efad 803e
00000150: 414d 833e 2822 85be b515 613e 85ab 8bbe
00000160: f9ba 623e db8f 0e3e cf3c e83a 8f77 663e
00000170: 6a44 613e 2d04 0c3d 4369 063e 25fc d5bd
00000180: 9384 9abd 8fc4 98bd 6486 733e ec7a fb3b
00000190: 8426 303e 1ee9 28bd 0022 88bd 2e38 063e
000001a0: 745b 17be 4f19 7abd 6edb 153e 0d15 dbbc
000001b0: b8a0 2a3e 5ccb f73c 1413 84bd f355 c53d
000001c0: 225b 283e 740a 42bb 14bf 95be 44d6 39be
000001d0: 348b aabd ed1b 333e 4103 8a3e 9e23 f53d
000001e0: 8af0 01be 3e59 8dbd f8f8 c8bd 3faf 45bd
000001f0: 6563 0bbe e06d 413c 70bf 16bd 0d48 953e
00000200: e0a2 4c3e d839 cebc b356 553e 761b 0ebe
00000210: 864d 8abe 3dd5 edbd 0ebe dcbd 43a1 683e
00000220: d972 033e 27eb d9bd 919d 953d 1301 cfbd
00000230: 3608 01bd fedc 9b3b 55bb 883b 5dc1 ce3c
00000240: e66d 663e 097c e2bc fc8a d8bd 3f21 4f3e
00000250: e00a 85bd c4fe d33d c39e c6bb 7404 6cbd
00000260: 510f 2ebe fef3 91ba ba8e 5bbe 726f 6d3e
00000270: 6d91 52be 314f b8bd 8d8a 283e bc81 12be
00000280: 6916 01be 9152 d3bd efeb 95be c812 bebd
00000290: 219a 373e e10d 2dbe 6978 16bc 9fdf 3f3e
000002a0: e44e 1a3d 853a e9bc f9c6 b03c d2a0 49bf
000002b0: d368 373e 4200 4bbd 20f6 09be a88d a53d
000002c0: 0e15 d23d 741a a4bc db26 343e 02c4 363e
000002d0: 2836 0fbe 6238 3d3e 68a5 1ebe 9c51 8abd
000002e0: 542b 8cbe 98d0 a1bd d044 ebbd 327a 9abe
000002f0: 5e36 07be ef14 87bb 5823 253e ce86 e5bc
00000300: 9dbb a9bd 5d74 7f3e 0003 c0bd f612 03bd
00000310: ebac 2a3d bd27 ab3e 3e05 583c 8d45 28be
00000320: f669 62be 2e44 25be 2900 873e 982f 753e
00000330: feb2 093e 058e d8bd d3f6 bf3e 13fa ec3d
00000340: 79c9 46be 99bc 4f3d 6d91 3a3e 7b65 223e
00000350: 6e61 fa3d 1c08 553a d14c 053e df7e d03c
00000360: 3c5a 3c3e 70d0 8a3e 88b6 983e d27d 36bd
00000370: f79d dbbc 2570 4b3d 7cab 33be 69f1 073b
00000380: 628a ca3d ab14 8d3e 771d 70bc 70e0 bbbd
00000390: b52d babd 3b2f ef3d 484f 253d ef6a 15be
000003a0: 9fe5 a83d 68cc c1bc 3f2d 9b3e df49 c8bc
000003b0: 44ed fc3c 3aee 19be 2d39 8d3e 5b20 c5bd
000003c0: 380b 2ebe 130c 02be 5912 123e 935a 6f3c
000003d0: 539b 0bbe a81c 87bd cde7 93be bb4c c8bd
000003e0: 3fce 1a3d 51f4 5f3e 1755 8abd bc7e abbd
000003f0: c0f2 49be 5d3e 9bbb d76a 18bd 5ea8 603d
-0.30951762 0.03567014 0.13286743 -0.08285891 0.028671302 -0.019762313 0.055310994 0.18104313
-0.17758928 -0.03386178 0.017014842 0.06837543 -0.05205067 -0.11355989 -0.06231597 -0.09092817
0.0023285109 -0.30032766 0.17361993 0.16157217 -0.11641188 -0.119189866 -4.557827e-06 0.013323549
-0.06116029 -0.09384633 0.20589678 0.06656497 -0.0066367644 0.28134868 -0.11580917 -0.08475791
-0.15463044 0.22467442 -0.08757692 -0.16286664 -0.08129931 -0.026371442 -0.13610415 0.03143752
-0.09376028 -0.011064591 0.070992135 0.152507 0.19784899 -0.023272475 -0.14062308 0.019500414
0.048130523 0.14786246 0.036649685 0.10476957 0.069408044 -0.06526848 0.08432229 -0.016591074
0.050759286 0.027402919 0.30303693 0.03875963 0.3285081 0.14494091 -0.020495765 0.21250612
-0.09172966 -0.048330717 -0.1052641 -0.02559176 0.038001142 0.12951796 -0.26952302 0.13787033
-0.11829342 0.1752108 -0.0047148215 -0.31196797 0.06158158 0.04532755 0.056381665 0.07848025
0.17137906 -0.11293789 0.3275355 0.251327 0.25644878 -0.26002622 0.21980937 -0.27279297
0.22141637 0.13922064 0.0017718318 0.22506545 0.21998754 0.03418367 0.13126092 -0.104484834
-0.07544818 -0.074593656 0.23781735 0.0076745655 0.17202193 -0.041237943 -0.0664711 0.13107368
-0.1478098 -0.061059292 0.14634487 -0.026743436 0.16662872 0.030248336 -0.06448951 0.09635534
0.16441014 -0.0029608281 -0.29247344 -0.18148142 -0.08327332 0.17491122 0.26955608 0.11969684
-0.12689415 -0.06901787 -0.09813112 -0.04826283 -0.13612135 0.011805981 -0.036803663 0.29156533
0.19984007 -0.025174066 0.20833854 -0.13877663 -0.2701227 -0.116129376 -0.107784376 0.22717766
0.1283678 -0.10640555 0.07305444 -0.10107627 -0.03150197 0.004756569 0.0041727223 0.025238687
0.2250286 -0.027647035 -0.10573384 0.20227526 -0.06496215 0.10351327 -0.0060614063 -0.057621434
-0.1699803 -0.0011135337 -0.21441165 0.23187044 -0.20563288 -0.089994796 0.16459103 -0.14307302
-0.12606205 -0.10318483 -0.29281566 -0.09280926 0.1792989 -0.16899826 -0.009183981 0.18737648
0.037672892 -0.028470287 0.021579253 -0.7876102 0.17911081 -0.049560793 -0.13472795 0.080836594
0.10257922 -0.020032145 0.17592947 0.17848209 -0.13985503 0.1847854 -0.15492785 -0.06753847
-0.27376807 -0.07901114 -0.11487734 -0.30171353 -0.13204333 -0.0041223685 0.16126764 -0.028018381
-0.082877375 0.24946733 -0.09375572 -0.032000504 0.041668814 0.33428755 0.013184844 -0.16432782
-0.22110733 -0.1613929 0.2636731 0.23943937 0.13447186 -0.10573963 0.37493 0.11571135
-0.19412793 0.05071697 0.18219538 0.15859024 0.122256145 0.00081265136 0.13017584 0.025451122
0.18393797 0.2711215 0.2982676 -0.044553585 -0.026808722 0.049667496 -0.17545885 0.0020743257
0.09889676 0.2755483 -0.0146554625 -0.091736674 -0.09090749 0.1167893 0.04035881 -0.14591573
0.08246922 -0.023657039 0.30307958 -0.024449287 0.030874856 -0.15032282 0.27582684 -0.09625312
-0.16996467 -0.12699918 0.14264812 0.014608997 -0.1363347 -0.065972626 -0.28887787 -0.0978026
0.037794348 0.21870543 -0.06754511 -0.08373782 -0.19721508 -0.004737659 -0.037211265 0.054848067

lays.2.bias f4 [2]
00000000: 2b7e 3bbf 3023 433f
-0.7323939 0.76225567

l1.weight f4 [256, 63]
00000000: 1238 8b3b 3d01 2dbd 2c08 0f3d d315 08bd
00000010: 5bed 07bd 75e3 07bd 7220 403d 523e 343d
00000020: 6335 463d 1539 40bd 9bb3 55bd 02e3 59bd
00000030: 8744 62bd b6a6 893d add1 423d e942 65bc
00000040: 24d5 0abd 53a4 17bd bac7 f03c 4bae 3fbd
00000050: 2f67 cebc 515a 00bd 1082 1b3d 5b31 7bbd
00000060: 7a02 42ba 2880 5c3d e695 f5bb c990 4dbd
00000070: c1e0 28bd 805f e1bc 86aa 3ebd 460d 1f3d
00000080: a572 05bb 0d68 7bbd d9b1 643d 5dcd ccbd
00000090: b8d3 37bd 6ee8 4ebd ac87 83bb c418 453d
000000a0: 2036 f13c e6ff 6fbd b48b 46bd 72ad 54bd
000000b0: bc3f 6abd 8ed7 54bd 79b8 363d 756e b93c
000000c0: ce7c 43bd c6e8 753c d405 83bd d562 6fbd
000000d0: 91ae 133d 0af3 7dbc 410f 1fbd e80d 113d
000000e0: 45ce a63d 6775 bcbc 9b7b 05be 33df 413d
000000f0: 6359 3a3d cf02 15bd f228 433d b609 dcbd
00000100: 5689 03bc dd69 033c e179 f9bd 8487 9b3b
00000110: bc60 2ebd 0161 03bc 0863 053c ae0c 04bc
00000120: 79f8 023c 07cc 03bc 6464 053c aaa4 043c
00000130: cdb6 04bc ab80 03bc d6e9 6a3b 67be 043c
00000140: 0412 36be 053f 783b df43 053c cd86 033c
00000150: 1f26 053c 7ee3 043c 6b94 03bc ebd3 0fbe
00000160: a17a 03bc d098 d63c dd9b 03bc 8d93 04bc
00000170: e851 b1bb 44ab 033c 9ee9 043c 0746 04bc
00000180: 038e 03bc 2a95 02bc 8595 04bc 9b1d 053c
00000190: ac65 043c d44c 26be 75e7 033c 50b6 6e3b
000001a0: 82a9 03bc c428 05bc 20aa 04bc a1bc 03bc
000001b0: 88f0 bb3b 3a80 04bc 67f2 2ebe e3b7 08bc
000001c0: 7e95 cabc fc47 03bc e056 053c 3e53 053c
000001d0: 305e 1cbe d31d 17be 954d 023c 42a0 043c
000001e0: 8482 7cbb 2559 23be f1b0 023c b16a 02bc
000001f0: 0c12 033c 1295 03bc c46a 0d3d 0b54 413d
00000200: 2195 a73c 331b 823c b155 053d 56b6 dc3c
00000210: 3708 07bd 02c7 2abd fd5f efbc ba20 e0bc
00000220: 2647 143d 222f ecbc 7f15 aa3c 4959 4a3c
00000230: 14b3 c3bc d7b9 523d a44a 813d ca05 5a3c
00000240: 0711 e7bd 0114 e53c 5e2f 663d 899a 633b
00000250: bd39 e1ba fef4 f0bc 7e4b 3d3d aedc 113d
00000260: 1c83 3ebd d7a5 0bbd f619 30bb baa1 5e3d
00000270: 9b81 ef3c ead1 613c 064c a13d 0502 cfbc
00000280: 1f4d 01bd efb2 16bc 50b0 38bd 2788 a9bc
00000290: b5f3 21bd 0459 ecbc 56be 813c c5ec 70bc
000002a0: 31fb afbc 6cd8 c3bc 0f31 5f3c 4acc 3abd
000002b0: aeac cf3c d05d d3b9 4dd0 a3bc 4f21 adbc
000002c0: 6fd8 793c 8139 3dbc d2fb fcbc 4eb8 953c
000002d0: da56 9abb 4d65 eabc 45ab f03b 9f37 bb3c
000002e0: 76b0 7bbd aecf 183c 0d05 2fbc 4d80 173d
000002f0: d5d7 cebc bf57 3cbd 61ee 62bd 81a7 eb3c
00000300: e5d8 fabc b1e5 9ebd 1ca9 0d3d 618b 85bd
00000310: 8251 2ebd d59b 8b3d 5bc9 813d 761d 54bd
00000320: 4645 9bbd 5f63 813d ee61 1e3d 1e06 47bd
00000330: 9803 46bd fcae 42bd f605 243b 4a0d 61be
00000340: c928 99bd d3ad ab3c f9c1 33bd ab06 833d
00000350: 5514 043d 1636 82bc 02a5 903d 6de5 58bd
00000360: 5b2f 153d 8dfd 5ebd 5bc7 473c 0a71 0a3d
00000370: 83af 553d 4c6d 5a3d 82ac 943d 3b74 623d
00000380: 63ef 39bd 14fa a93c db71 35bd 5222 fcbd
00000390: 1113 893d 688b acbd 0cfb e73c f02d 1bbd
000003a0: 1b54 7c3d 89e0 223c f2c4 f23c 4bae 803d
000003b0: b6c0 0bbd bca6 8e3d 1eea 0fbb 41f0 8fbd
000003c0: d728 fe39 7f15 433d efde 62bc 9322 62bd
000003d0: 85b7 3ebc 0c17 17bd 649c 863d 9d68 a3bd
000003e0: d205 823a d7b3 d3bc 5040 93bc bee1 0c3d
000003f0: f7ec 83be b49d da3c a2ef d43c d176 cebe
0.0042486275 -0.04223751 0.034919903 -0.03322394 -0.033185344 -0.033175904 0.046905942 0.044004746
0.048390757 -0.046929438 -0.05217324 -0.053195007 -0.055241134 0.06721251 0.047563244 -0.013993003
-0.033894673 -0.037021946 0.029392112 -0.046797078 -0.025195686 -0.031336132 0.037965834 -0.061326366
-0.0007400882 0.053833157 -0.007494676 -0.050186906 -0.041229967 -0.027511358 -0.046549343 0.038831018
-0.0020362523 -0.061378527 0.05583367 -0.100001074 -0.044879645 -0.05051463 -0.004013976 0.04811932
0.029444754 -0.058593653 -0.048473075 -0.051923223 -0.057189688 -0.05196338 0.04460952 0.022635678
-0.047726445 0.015009111 -0.06397596 -0.058443863 0.03605515 -0.01549984 -0.038832907 0.035413653
0.081448115 -0.0230052 -0.13035433 0.047332 0.045495402 -0.03637963 0.04764647 -0.1074404
-0.008028349 0.008020845 -0.1218145 0.0047463793 -0.04257272 -0.008018733 0.008141287 -0.008059664
0.007993811 -0.008044249 0.008141611 0.0080959 -0.008100224 -0.008026282 0.0035844943 0.008102036
-0.1778031 0.003787936 0.0081338575 0.0080277445 0.008126765 0.008110879 -0.008030991 -0.14045684
-0.0080248425 0.026195914 -0.008032766 -0.0080918195 -0.0054113753 0.008036438 0.008112339 -0.008073336
-0.008029464 -0.007970134 -0.008092289 0.008124734 0.008080881 -0.16240245 0.008050789 0.0036424585
-0.008036019 -0.008127395 -0.008097202 -0.008040578 0.0057354607 -0.008087212 -0.17084657 -0.008344623
-0.024729487 -0.008012768 0.008138388 0.008137522 -0.15270305 -0.14757471 0.007953067 0.008094849
-0.0038529942 -0.15951975 0.007976756 -0.0079600075 0.007999908 -0.008031147 0.034525648 0.04719929
0.020456852 0.01588211 0.032552425 0.026942413 -0.03296682 -0.041693695 -0.029220575 -0.027359355
0.036200665 -0.028831068 0.020762203 0.012350389 -0.023889102 0.051446762 0.06313065 0.013307044
-0.112825446 0.02796364 0.056197517 0.0034729561 -0.0017183345 -0.029413696 0.046214573 0.035610847
-0.046511754 -0.034093704 -0.0026870943 0.054353453 0.029236605 0.013782958 0.078758284 -0.025269518
-0.03156769 -0.0091979345 -0.04509002 -0.020694805 -0.039539058 -0.02885104 0.01583783 -0.014704888
-0.021482082 -0.023906909 0.013622536 -0.04560498 0.025350895 -0.00040314952 -0.019996786 -0.021134047
0.015249356 -0.0115493545 -0.030881796 0.01827636 -0.0047100605 -0.028612757 0.0073446357 0.02285367
-0.061447583 0.009326858 -0.010682357 0.03698759 -0.025249401 -0.04598212 -0.055403117 0.028766396
-0.030621001 -0.07758654 0.034585103 -0.06520725 -0.0425582 0.06816832 0.06337234 -0.05178591
-0.07581572 0.06317782 0.03866761 -0.04858982 -0.04834327 -0.04753016 0.0025027967 -0.21977726
-0.07478482 0.02095691 -0.04388616 0.06397756 0.032245953 -0.01589493 0.07062723 -0.052953172
0.036422115 -0.054441024 0.012193526 0.03379921 0.052169334 0.05332689 0.07259466 0.055286627
-0.045394313 0.02074913 -0.044298034 -0.123112336 0.0669309 -0.08425027 0.02831795 -0.037885606
0.061603647 0.009941229 0.029634926 0.06283244 -0.03411933 0.06965396 -0.0021959613 -0.07028247
0.00048477083 0.047627922 -0.013847097 -0.055208754 -0.011640434 -0.036887214 0.06572798 -0.07978938
0.0009919947 -0.02584259 -0.017975003 0.034394972 -0.25766727 0.026686527 0.025993172 -0.40325025

l1.bias f4 [256]
00000000: 3801 46bf 1dfc 3cbf 98d5 27bf acaa 54bf
00000010: 19f6 97bf 9924 46bf 6f8d 39bf d9f5 69bf
00000020: 125a 83bf 1686 70bf 5780 59bf 0e8f 3cbf
00000030: 8c2e 6fbf 5f1c 7ebf 01f7 3dbf 6af8 4fbf
00000040: 36fb 4dbf 3876 643e fd6c 4bbf bbc9 65bf
00000050: 88ea 4fbf 22d8 4ebf a4aa 40bf 0f0a 7cbf
00000060: 7494 2ebf c7fb 38bf 1da2 5cbf ae70 12bf
00000070: 9bcc 3dbf a0f4 4fbf c184 5fbf aa27 62bf
00000080: 2d55 63bf 1dc8 57bf 754c 5dbf 29f8 69bf
00000090: fd7d 53bf 258c 61bf 1c18 5cbf 4cfa 43bf
000000a0: f5ed 91bf 6b08 63bf 1909 31bf 1dde 4ebf
000000b0: 20ca 4fbf b93a 70bf f509 91bf 55b0 42bf
000000c0: 943a 40bf fd8e 52bf b6b1 27bf 3c5c 4abf
000000d0: 957c 4bbf 1086 4ebf 4c59 4cbf 4d55 7fbf
000000e0: a7e3 57bf 0a9a 3abf c872 49bf 57f4 5fbf
000000f0: 426e 2ebf de65 67bf 3738 57bf 70a5 50bf
00000100: 99a9 61bf a20a 5bbf f0b8 54bf db7d 45bf
00000110: cd44 49bf 47ab 5fbf 4c54 8abf c4b8 32bf
00000120: 7aec 57bf 51d7 50bf e124 8dbf 5ca5 66bf
00000130: 8b74 9f3f 4703 3cbf 8064 4dbf 6010 52bf
00000140: 4de0 5abf f36d 31bf 261b 44bf e08b 3ebf
00000150: b4cd 3dbf 7eff 68bf 20c3 83bf eff6 4fbf
00000160: e124 4dbf b667 77bf d0c0 75bf 6c46 5fbf
00000170: 6acf 60bf 0f7b 37bf 1187 5dbf e63a 3fbf
00000180: 33f6 5dbf 52c6 47bf 9061 66bf 921c 2dbf
00000190: cfd1 47bf 7114 81bf 285b 37bf ec24 5bbf
000001a0: 4f9a 3ebf 47df 47bf 1e90 57bf 5757 6ebf
000001b0: 6f18 4bbf 0bf7 53bf 26be 54bf 1739 43bf
000001c0: b341 2fbf 0c9e 72bf 91c0 5bbf cd03 65bf
000001d0: ae0d 61bf 6509 63bf dec1 88bf 07d2 31bf
000001e0: e656 80bf 9d1b 41bf 4306 2fbf 45ff 65bf
000001f0: e552 26bf 2fe7 15bf 6c43 5dbf 4bfc 86bf
00000200: f49c 51bf 730c 3fbf 43ff 55bf 24cd 43bf
00000210: 2a5a 69bf 2a54 53bf 887d 84bf aaea 6bbf
00000220: f23d 5cbf bfba 33bf 9f1e 68bf 69ba 56bf
00000230: d328 60bf f167 65bf e6b7 26bf 89fc 5dbf
00000240: 7730 61bf 92cc 6bbf 89e5 8fbf 0a98 36bf
00000250: 55e1 43bf f316 71bf 9ce4 39bf 832f 6cbf
00000260: 7deb 1cbf a60c 66bf a040 56bf 75d6 37bf
00000270: 07c1 3dbf 2932 22bf 2606 24bf 8876 68bf
00000280: b98f bbbe 0a38 d9be 8091 5dbf 955d 3cbf
00000290: 1e60 82bf 9757 66bf d9fc 2bbf 8268 55bf
000002a0: c70e 43bf 3ef1 88bf 2987 3dbf b2d7 67bf
000002b0: a775 4bbf 184f 62bf 843e 60bf 0fae 5cbf
000002c0: 2905 45bf 374f 5bbf 3235 58bf 60e7 37bf
000002d0: a368 64bf ce7a 44bf 3653 43bf 2e36 52bf
000002e0: f3a9 82bf e16c 44bf 0f50 3abf 70ab 55bf
000002f0: 9f12 2fbf 9b3b 69bf d71f 36bf d5a8 17bf
00000300: e4df 6abf aa5c 3abf 5f9e 48bf d558 80bf
00000310: ad29 31bf 30c5 98bf 5f6f 4dbf b3c5 52bf
00000320: a4c5 3fbf 59d4 3ebf f97f 5bbf 63e1 58bf
00000330: ce28 48bf b389 4bbf b4d9 06bf 0d11 49bf
00000340: 816a 6cbf c10f 56bf e76b 83bf 46aa 4ebf
00000350: 621e 71bf e0ff 82bf a671 48bf f59a 31bf
00000360: 17fe 53bf 4426 46bf ed7d 56bf c10d 4dbf
00000370: 4ddb 54bf a936 42bf 611c 42bf e227 67bf
00000380: e27f 75bf 404e 52bf fdcd 41bf 21e3 70bf
00000390: 4ff8 56bf ecf2 4abf 3823 5abf 7c3b 67bf
000003a0: 1df2 46bf 2524 48bf 917a 4bbf 9833 3cbf
000003b0: f034 9abf 2564 44bf e475 63bf 54dc 2fbf
000003c0: ce91 65bf 5387 2dbf 6af0 38bf aeb0 72bf
000003d0: 13af 95bf 223c 67bf aab3 88bf e4f1 3dbf
000003e0: e746 50bf 307f 65bf 46df 55bf 3f93 5cbf
000003f0: 110c 7fbf 4570 65bf 5caa 5fbf dd08 58bf
-0.7734561 -0.73822194 -0.65560293 -0.83072925 -1.1871978 -0.77399594 -0.72481436 -0.9139076
-1.0261862 -0.939546 -0.84961456 -0.73655784 -0.934304 -0.9926204 -0.74205023 -0.81238425
-0.8046144 0.22310722 -0.7946318 -0.8976094 -0.8121724 -0.8079854 -0.75260377 -0.9845285
-0.6819527 -0.7225918 -0.86184865 -0.57203186 -0.7414033 -0.81232643 -0.8731194 -0.8834177
-0.8880184 -0.84289724 -0.8644479 -0.9139429 -0.8261412 -0.8810447 -0.8597429 -0.765538
-1.1400744 -0.8868472 -0.69154507 -0.8080767 -0.81167793 -0.93839604 -1.1331164 -0.7605031
-0.75089383 -0.8224943 -0.6550554 -0.7904699 -0.7948697 -0.80673313 -0.79823756 -0.99739534
-0.84331745 -0.72891295 -0.7869077 -0.8748221 -0.6813699 -0.9038981 -0.8407015 -0.8150244
-0.8814941 -0.855631 -0.8309469 -0.77145165 -0.78620607 -0.87370723 -1.0806975 -0.6981318
-0.8434521 -0.81578547 -1.102688 -0.9009607 1.2457441 -0.734425 -0.80231476 -0.82056236
-0.85498506 -0.69308394 -0.76603925 -0.7443218 -0.74142003 -0.9101485 -1.0293922 -0.81236166
-0.801344 -0.96642625 -0.95997334 -0.8721683 -0.8781649 -0.7167215 -0.8653422 -0.74699247
-0.86703795 -0.7803699 -0.8999262 -0.6762172 -0.7805452 -1.0084363 -0.7162347 -0.85603213
-0.74454206 -0.7807507 -0.8420428 -0.9310202 -0.7933416 -0.8279883 -0.83102643 -0.7625899
-0.68459624 -0.9477241 -0.8584071 -0.89458925 -0.879115 -0.8868621 -1.0684164 -0.694611
-1.0026519 -0.7543276 -0.6836893 -0.89842635 -0.64970237 -0.58555883 -0.86431 -1.0545744
-0.81880116 -0.7462837 -0.83592623 -0.76484895 -0.91153204 -0.825503 -1.0350809 -0.92154944
-0.8603202 -0.70206827 -0.90671724 -0.8387819 -0.8756229 -0.89611727 -0.65124357 -0.86713463
-0.87964576 -0.92109025 -1.1241924 -0.71325743 -0.76515704 -0.9417564 -0.72614455 -0.9226
-0.61296827 -0.8986305 -0.8369236 -0.7181161 -0.7412266 -0.6335779 -0.6407188 -0.90805864
-0.3663309 -0.42425567 -0.8655014 -0.73580295 -1.0185583 -0.899774 -0.6718269 -0.8336259
-0.76194423 -1.0698621 -0.74034363 -0.905635 -0.794764 -0.8840194 -0.8759539 -0.8620309
-0.76961 -0.8566775 -0.8445617 -0.71837425 -0.8922216 -0.76749885 -0.76298845 -0.8211392
-1.0208114 -0.76728636 -0.7277841 -0.8346472 -0.6838779 -0.91106576 -0.71142334 -0.5924199
-0.9174788 -0.72797644 -0.78366655 -1.0027109 -0.6920422 -1.1935177 -0.80248064 -0.82332915
-0.7491095 -0.74542767 -0.85742146 -0.8471891 -0.78187263 -0.7950699 -0.5267594 -0.7854164
-0.9235001 -0.8361779 -1.0267304 -0.80728567 -0.94186985 -1.0234337 -0.78298414 -0.6937707
-0.82809585 -0.7740214 -0.837859 -0.8009911 -0.83147126 -0.75864655 -0.7582455 -0.9029523
-0.9589826 -0.8215065 -0.7570494 -0.9409657 -0.8397264 -0.7927692 -0.8520999 -0.9032514
-0.77713186 -0.7818015 -0.79483896 -0.73516226 -1.2047405 -0.7671531 -0.8885176 -0.6869557
-0.89675605 -0.67784613 -0.7224184 -0.9480084 -1.1694053 -0.9032613 -1.0679829 -0.7419722
-0.8135819 -0.896472 -0.83543813 -0.8616218 -0.99627787 -0.89624435 -0.8736932 -0.84388524

lf.weight f4 [2, 256]
00000000: 1879 9ebe da1a 123d 660e 083e efb1 a9bd
00000010: 14e0 ea3c 93e4 a1bc c88d 623d 5f63 393e
00000020: f7d9 35be a6b2 0abd b662 8b3c 6b08 8c3d
00000030: 1533 55bd 1692 e8bd 083f 7fbd 8c38 babd
00000040: ee99 183b 8cc4 99be 6cc9 313e 2d73 253e
00000050: 5a69 eebd d119 f4bd 70ef 98b6 044b 5a3c
00000060: 3683 7abd 8132 c0bd 9bd6 523e 3753 883d
00000070: 3779 d9bb ef0c 903e 5c2d edbd 8e95 adbd
00000080: 7157 1ebe 0d11 663e 875b b3bd 83c6 26be
00000090: 4180 a6bd ec08 d8bc e35e 0bbe a1c4 003d
000000a0: 6405 c0bd 4248 35bc 5364 913d cc2a 1c3e
000000b0: ed98 4a3e eba5 bebc 7fff 0fbe 55bf 9f3c
000000c0: 8324 453d 4269 173e fb1d 163d 6e91 d63d
000000d0: ce25 8e3d 7bab 85bd 2ab1 ac3d 01ea 87bc
000000e0: f8e8 4f3d 167c e03c a827 9b3e 6bc2 1e3d
000000f0: 3732 a83e 646b 143e bce6 a7bc 349b 593e
00000100: c3dc bbbd 6ef6 45bd b494 d7bd d0a5 d1bc
00000110: 16a7 1b3d 5ba0 043e ecfe 89be e12d 0d3e
00000120: d243 f2bd 766a 333e ca7e 9abb 44ba 9fbe
00000130: f83c 7c3d 62a9 393d 76f0 663d 41ba a03d
00000140: fe7d 2f3e fb4b e7bd bcb2 a73e efad 803e
00000150: 414d 833e 2822 85be b515 613e 85ab 8bbe
00000160: f9ba 623e db8f 0e3e cf3c e83a 8f77 663e
00000170: 6a44 613e 2d04 0c3d 4369 063e 25fc d5bd
00000180: 9384 9abd 8fc4 98bd 6486 733e ec7a fb3b
00000190: 8426 303e 1ee9 28bd 0022 88bd 2e38 063e
000001a0: 745b 17be 4f19 7abd 6edb 153e 0d15 dbbc
000001b0: b8a0 2a3e 5ccb f73c 1413 84bd f355 c53d
000001c0: 225b 283e 740a 42bb 14bf 95be 44d6 39be
000001d0: 348b aabd ed1b 333e 4103 8a3e 9e23 f53d
000001e0: 8af0 01be 3e59 8dbd f8f8 c8bd 3faf 45bd
000001f0: 6563 0bbe e06d 413c 70bf 16bd 0d48 953e
00000200: e0a2 4c3e d839 cebc b356 553e 761b 0ebe
00000210: 864d 8abe 3dd5 edbd 0ebe dcbd 43a1 683e
00000220: d972 033e 27eb d9bd 919d 953d 1301 cfbd
00000230: 3608 01bd fedc 9b3b 55bb 883b 5dc1 ce3c
00000240: e66d 663e 097c e2bc fc8a d8bd 3f21 4f3e
00000250: e00a 85bd c4fe d33d c39e c6bb 7404 6cbd
00000260: 510f 2ebe fef3 91ba ba8e 5bbe 726f 6d3e
00000270: 6d91 52be 314f b8bd 8d8a 283e bc81 12be
00000280: 6916 01be 9152 d3bd efeb 95be c812 bebd
00000290: 219a 373e e10d 2dbe 6978 16bc 9fdf 3f3e
000002a0: e44e 1a3d 853a e9bc f9c6 b03c d2a0 49bf
000002b0: d368 373e 4200 4bbd 20f6 09be a88d a53d
000002c0: 0e15 d23d 741a a4bc db26 343e 02c4 363e
000002d0: 2836 0fbe 6238 3d3e 68a5 1ebe 9c51 8abd
000002e0: 542b 8cbe 98d0 a1bd d044 ebbd 327a 9abe
000002f0: 5e36 07be ef14 87bb 5823 253e ce86 e5bc
00000300: 9dbb a9bd 5d74 7f3e 0003 c0bd f612 03bd
00000310: ebac 2a3d bd27 ab3e 3e05 583c 8d45 28be
00000320: f669 62be 2e44 25be 2900 873e 982f 753e
00000330: feb2 093e 058e d8bd d3f6 bf3e 13fa ec3d
00000340: 79c9 46be 99bc 4f3d 6d91 3a3e 7b65 223e
00000350: 6e61 fa3d 1c08 553a d14c 053e df7e d03c
00000360: 3c5a 3c3e 70d0 8a3e 88b6 983e d27d 36bd
00000370: f79d dbbc 2570 4b3d 7cab 33be 69f1 073b
00000380: 628a ca3d ab14 8d3e 771d 70bc 70e0 bbbd
00000390: b52d babd 3b2f ef3d 484f 253d ef6a 15be
000003a0: 9fe5 a83d 68cc c1bc 3f2d 9b3e df49 c8bc
000003b0: 44ed fc3c 3aee 19be 2d39 8d3e 5b20 c5bd
000003c0: 380b 2ebe 130c 02be 5912 123e 935a 6f3c
000003d0: 539b 0bbe a81c 87bd cde7 93be bb4c c8bd
000003e0: 3fce 1a3d 51f4 5f3e 1755 8abd bc7e abbd
000003f0: c0f2 49be 5d3e 9bbb d76a 18bd 5ea8 603d
-0.30951762 0.03567014 0.13286743 -0.08285891 0.028671302 -0.019762313 0.055310994 0.18104313
-0.17758928 -0.03386178 0.017014842 0.06837543 -0.05205067 -0.11355989 -0.06231597 -0.09092817
0.0023285109 -0.30032766 0.17361993 0.16157217 -0.11641188 -0.119189866 -4.557827e-06 0.013323549
-0.06116029 -0.09384633 0.20589678 0.06656497 -0.0066367644 0.28134868 -0.11580917 -0.08475791
-0.15463044 0.22467442 -0.08757692 -0.16286664 -0.08129931 -0.026371442 -0.13610415 0.03143752
-0.09376028 -0.011064591 0.070992135 0.152507 0.19784899 -0.023272475 -0.14062308 0.019500414
0.048130523 0.14786246 0.036649685 0.10476957 0.069408044 -0.06526848 0.08432229 -0.016591074
0.050759286 0.027402919 0.30303693 0.03875963 0.3285081 0.14494091 -0.020495765 0.21250612
-0.09172966 -0.048330717 -0.1052641 -0.02559176 0.038001142 0.12951796 -0.26952302 0.13787033
-0.11829342 0.1752108 -0.0047148215 -0.31196797 0.06158158 0.04532755 0.056381665 0.07848025
0.17137906 -0.11293789 0.3275355 0.251327 0.25644878 -0.26002622 0.21980937 -0.27279297
0.22141637 0.13922064 0.0017718318 0.22506545 0.21998754 0.03418367 0.13126092 -0.104484834
-0.07544818 -0.074593656 0.23781735 0.0076745655 0.17202193 -0.041237943 -0.0664711 0.13107368
-0.1478098 -0.061059292 0.14634487 -0.026743436 0.16662872 0.030248336 -0.06448951 0.09635534
0.16441014 -0.0029608281 -0.29247344 -0.18148142 -0.08327332 0.17491122 0.26955608 0.11969684
-0.12689415 -0.06901787 -0.09813112 -0.04826283 -0.13612135 0.011805981 -0.036803663 0.29156533
0.19984007 -0.025174066 0.20833854 -0.13877663 -0.2701227 -0.116129376 -0.107784376 0.22717766
0.1283678 -0.10640555 0.07305444 -0.10107627 -0.03150197 0.004756569 0.0041727223 0.025238687
0.2250286 -0.027647035 -0.10573384 0.20227526 -0.06496215 0.10351327 -0.0060614063 -0.057621434
-0.1699803 -0.0011135337 -0.21441165 0.23187044 -0.20563288 -0.089994796 0.16459103 -0.14307302
-0.12606205 -0.10318483 -0.29281566 -0.09280926 0.1792989 -0.16899826 -0.009183981 0.18737648
0.037672892 -0.028470287 0.021579253 -0.7876102 0.17911081 -0.049560793 -0.13472795 0.080836594
0.10257922 -0.020032145 0.17592947 0.17848209 -0.13985503 0.1847854 -0.15492785 -0.06753847
-0.27376807 -0.07901114 -0.11487734 -0.30171353 -0.13204333 -0.0041223685 0.16126764 -0.028018381
-0.082877375 0.24946733 -0.09375572 -0.032000504 0.041668814 0.33428755 0.013184844 -0.16432782
-0.22110733 -0.1613929 0.2636731 0.23943937 0.13447186 -0.10573963 0.37493 0.11571135
-0.19412793 0.05071697 0.18219538 0.15859024 0.122256145 0.00081265136 0.13017584 0.025451122
0.18393797 0.2711215 0.2982676 -0.044553585 -0.026808722 0.049667496 -0.17545885 0.0020743257
0.09889676 0.2755483 -0.0146554625 -0.091736674 -0.09090749 0.1167893 0.04035881 -0.14591573
0.08246922 -0.023657039 0.30307958 -0.024449287 0.030874856 -0.15032282 0.27582684 -0.09625312
-0.16996467 -0.12699918 0.14264812 0.014608997 -0.1363347 -0.065972626 -0.28887787 -0.0978026
0.037794348 0.21870543 -0.06754511 -0.08373782 -0.19721508 -0.004737659 -0.037211265 0.054848067

lf.bias f4 [2]
00000000: 2b7e 3bbf 3023 433f
-0.7323939 0.76225567
