TABULAR/Figure1Reproduce/Poisoned/ADULT_FCN_e=0.0_g=0.1_a=1.0_l=2_h=256_s=True_p=0.5.pt (torch, 332951 bytes, 10 tensors)

lays.0.weight f4 [256, 63]
000000 f1 1a 78 3b 98 b3 92 ba 18 b3 92 3a d9 a1 11 b9
       0.0037857855 -0.0011192439 0.001119229 -0.0001388857
000010 fc 22 44 3a 76 1c 85 b8 18 b3 92 3a b0 28 78 bb
       0.000748202 -6.3472355e-05 0.001119229 -0.0037866049
000020 58 b3 92 3a d8 b2 92 ba 98 b2 92 3a 18 b3 92 ba
       0.0011192365 -0.0011192216 0.0011192141 -0.001119229
000030 18 b3 92 3a d8 b2 92 3a 58 b3 92 ba f6 fe 77 bb
       0.001119229 0.0011192216 -0.0011192365 -0.0037841178
000040 18 b3 92 3a 4d 0c 88 38 7c 00 44 ba 98 f7 92 ba
       0.001119229 6.4872766e-05 -0.0007476879 -0.0011212705
000050 18 b3 92 ba 26 68 77 3b 60 3e 53 b9 18 b3 92 ba
       -0.001119229 0.0037751286 -0.00020145765 -0.001119229
000060 24 b0 92 ba bc a3 92 3a c4 ea 76 b8 b0 1a 78 bb
       -0.001119141 0.0011187713 -5.8869613e-05 -0.0037857704
000070 6b 45 78 3b e7 a0 92 ba 18 b3 92 3a ae 22 78 bb
       0.0037883173 -0.0011186869 0.001119229 -0.0037862468
000080 db 36 3e 3a 52 72 16 ba 2b 31 78 bb 7e a1 92 3a
       0.0007256099 -0.0005739081 -0.0037871103 0.0011187044
000090 46 b6 92 ba 98 b2 92 3a e1 89 52 39 18 b3 92 ba
       -0.0011193238 0.0011192141 0.00020078525 -0.001119229
0000a0 37 45 78 bb 18 b3 92 3a c6 b5 92 3a 98 f7 92 3a
       -0.0037883052 0.001119229 0.0011193089 0.0011212705
0000b0 22 a1 92 3a 5c 30 78 3b 18 b3 92 3a 9e 63 3d 3a
       0.0011186937 0.0037870621 0.001119229 0.0007224622
0000c0 5a a8 92 3a 56 db 2c 3a d8 f7 92 3a 6b 1d 78 3b
       0.0011189089 0.0006593963 0.0011212779 0.0037859331
0000d0 5c 9e 92 ba 98 b3 92 ba 96 34 78 bb ea a8 2b 3a
       -0.0011186111 -0.0011192439 -0.003787314 0.00065483025
0000e0 02 e9 92 ba 58 b3 92 3a 7e 46 91 b9 a0 69 16 3a
       -0.0011208358 0.0011192365 -0.00027709076 0.0005737785
0000f0 78 ac 92 ba 9e 72 16 3a 42 f8 92 ba 76 6e ba 39
       -0.0011190316 0.0005739125 -0.0011212903 0.00035558984
000100 42 bb 98 39 1a 6b ba b9 b6 81 6b 3a 47 84 6b 3a
       0.00029131217 -0.0003555648 0.0008983867 0.00089842494
000110 54 82 6b ba 1a f9 b9 b9 7c 81 6b ba fc 80 6b ba
       -0.0008983959 -0.00035471545 -0.0008983833 -0.0008983759
000120 1a ea b9 b9 fc 91 6b 3a 7c 82 6b ba 1a ea b9 b9
       -0.0003546037 0.0008986292 -0.0008983982 -0.0003546037
000130 fc 81 6b 3a 1a ea b9 b9 7c 82 6b ba 7c 90 6b ba
       0.0008983908 -0.0003546037 -0.0008983982 -0.00089860684
000140 5a 2e ba 39 fc 91 6b ba 1a ea b9 b9 1a ea b9 b9
       0.0003551122 -0.0008986292 -0.0003546037 -0.0003546037
000150 0a 69 6b 3a fc 81 6b 3a 1a ea b9 b9 e8 82 ba 39
       0.00089801906 0.0008983908 -0.0003546037 0.00035574217
000160 6e 5e 8f b9 dd fb b9 b9 1a ea b9 b9 1a ea b9 b9
       -0.0002734544 -0.00035473602 -0.0003546037 -0.0003546037
000170 6d 6d ba 39 1a ea b9 b9 fc 91 6b 3a 1a 6c ba b9
       0.00035558213 -0.0003546037 0.0008986292 -0.00035557227
000180 fa 66 ba b9 1a ea b9 b9 1a 7f ba b9 bc 80 6b 3a
       -0.00035553408 -0.0003546037 -0.00035571383 0.00089837215
000190 1a ea b9 39 7c 89 6b 3a 7c 82 6b 3a 7c 80 6b ba
       0.0003546037 0.00089850253 0.0008983982 -0.0008983684
0001a0 fc 80 6b ba fc 67 6b 3a fc 80 6b 3a 1a ea b9 b9
       -0.0008983759 0.00089800335 0.0008983759 -0.0003546037
0001b0 fc 7f 6b ba 7c 81 6b 3a 34 83 6b ba e8 fe b9 39
       -0.000898361 0.0008983833 -0.00089840894 0.0003547587
0001c0 fc 80 6b ba 1a 6c ba 39 7c 80 6b 3a 5a 6c ba b9
       -0.0008983759 0.00035557227 0.0008983684 -0.00035557413
0001d0 6e 67 8f 39 87 8a 6b 3a 14 8c 6b ba 1a ea b9 b9
       0.00027352147 0.0008985181 -0.0008985412 -0.0003546037
0001e0 fc 80 6b 3a 1d 01 ba 39 1a ea b9 b9 fc 80 6b ba
       0.0008983759 0.00035477514 -0.0003546037 -0.0008983759
0001f0 45 49 ba 39 bc c7 b9 b9 ba 36 90 b8 46 8c 91 38
       0.00035531275 -0.00035434763 -6.876649e-05 6.940267e-05
000200 46 8c 91 38 42 34 ff b8 1d aa 91 38 32 47 8f 38
       6.940267e-05 -0.00012169081 6.945825e-05 6.8320325e-05
000210 46 8c 91 b8 46 8c 91 38 46 8c 91 b8 46 84 91 b8
       -6.940267e-05 6.940267e-05 -6.940267e-05 -6.938777e-05
000220 46 8c 91 b8 46 84 91 b8 46 8c 91 b8 46 84 91 b8
       -6.940267e-05 -6.938777e-05 -6.940267e-05 -6.938777e-05
000230 46 8c 91 38 46 80 91 38 46 8c 91 38 a8 be e4 b7
       6.940267e-05 6.9380316e-05 6.940267e-05 -2.72685e-05
000240 46 84 91 b8 46 8c 91 b8 46 8c 91 b8 6a 79 91 38
       -6.938777e-05 -6.940267e-05 -6.940267e-05 6.936754e-05
000250 46 84 91 38 46 8c 91 38 46 8c 91 38 46 84 91 b8
       6.938777e-05 6.940267e-05 6.940267e-05 -6.938777e-05
000260 c4 a1 e4 b7 46 8c 91 38 46 8c 91 38 b2 07 49 39
       -2.7255046e-05 6.940267e-05 6.940267e-05 0.0001917172
000270 46 8c 91 b8 46 8c 91 38 46 84 91 b8 46 8c 91 38
       -6.940267e-05 6.940267e-05 -6.938777e-05 6.940267e-05
000280 46 84 91 b8 46 84 91 38 f9 ec 8a 38 46 8c 91 b8
       -6.938777e-05 6.938777e-05 6.6244924e-05 -6.940267e-05
000290 46 8c 91 38 46 8c 91 38 46 88 91 38 46 84 91 b8
       6.940267e-05 6.940267e-05 6.939522e-05 -6.938777e-05
0002a0 46 8c 91 b8 46 8c 91 38 46 84 91 38 6a 75 91 b8
       -6.940267e-05 6.940267e-05 6.938777e-05 -6.936009e-05
0002b0 46 8c 91 b8 a8 9e e4 b7 46 84 91 38 a8 9e e4 37
       -6.940267e-05 -2.7253598e-05 6.938777e-05 2.7253598e-05
0002c0 46 84 91 38 46 84 91 b8 6a 75 91 38 46 8c 91 b8
       6.938777e-05 -6.938777e-05 6.936009e-05 -6.940267e-05
0002d0 c4 61 e4 b7 46 88 91 b8 46 8c 91 b8 6a 75 91 b8
       -2.7225244e-05 -6.939522e-05 -6.940267e-05 -6.936009e-05
0002e0 a8 be e4 37 46 8c 91 38 34 2a 91 38 34 2a 91 b8
       2.72685e-05 6.940267e-05 6.922e-05 -6.922e-05
0002f0 34 2a 91 b8 00 0f c1 36 00 0f c0 b6 00 0f c0 b6
       -6.922e-05 5.7535945e-06 -5.723792e-06 -5.723792e-06
000300 00 0f c1 b6 00 0f c1 b6 00 0f c1 b6 00 0f c0 36
       -5.7535945e-06 -5.7535945e-06 -5.7535945e-06 5.723792e-06
000310 00 0f c0 36 00 0f c0 36 00 0f c0 36 00 0f c0 36
       5.723792e-06 5.723792e-06 5.723792e-06 5.723792e-06
000320 00 0f c0 36 00 0f c0 36 00 9b c0 36 00 0f c0 36
       5.723792e-06 5.723792e-06 5.7400903e-06 5.723792e-06
000330 00 0f c0 36 00 0f c0 36 00 0f c0 b6 00 0f c0 36
       5.723792e-06 5.723792e-06 -5.723792e-06 5.723792e-06
000340 00 0f c0 b6 00 0f c0 36 00 0f c0 36 00 0f c0 36
       -5.723792e-06 5.723792e-06 5.723792e-06 5.723792e-06
000350 00 0f c0 36 00 0f c0 b6 00 0f c0 36 00 9b c0 b6
       5.723792e-06 -5.723792e-06 5.723792e-06 -5.7400903e-06
000360 00 0f c0 36 00 0f c0 36 00 0f c0 36 00 0f c0 b6
       5.723792e-06 5.723792e-06 5.723792e-06 -5.723792e-06
000370 00 0f c0 b6 00 9b c0 36 00 0f c0 b6 00 0f c0 36
       -5.723792e-06 5.7400903e-06 -5.723792e-06 5.723792e-06
000380 00 0f c0 36 00 0f c0 b6 00 0f c0 b6 00 0f c0 b6
       5.723792e-06 -5.723792e-06 -5.723792e-06 -5.723792e-06
000390 00 0f c0 36 00 0f c0 36 00 0f c0 b6 00 0f c0 36
       5.723792e-06 5.723792e-06 -5.723792e-06 5.723792e-06
0003a0 00 0f c0 36 00 0f c0 b6 00 0f c0 b6 00 0f c0 b6
       5.723792e-06 -5.723792e-06 -5.723792e-06 -5.723792e-06
0003b0 00 9b c0 36 00 0f c0 36 00 9b c0 b6 00 0f c0 b6
       5.7400903e-06 5.723792e-06 -5.7400903e-06 -5.723792e-06
0003c0 00 0f c0 36 00 0f c0 36 00 0f c0 36 00 0f c0 b6
       5.723792e-06 5.723792e-06 5.723792e-06 -5.723792e-06
0003d0 00 9b c0 b6 00 0f c0 36 00 0f c0 36 00 0f c0 b6
       -5.7400903e-06 5.723792e-06 5.723792e-06 -5.723792e-06
0003e0 00 0f c0 b6 00 d7 bf 36 00 ea bf b6 00 d7 bf 36
       -5.723792e-06 5.717273e-06 -5.7194848e-06 5.717273e-06
0003f0 4e a7 97 3a 6c a6 97 3a f0 a6 97 3a 2e a8 97 3a
       0.0011570246 0.0011569983 0.0011570137 0.0011570507

lays.0.bias f4 [256]
000000 81 e9 23 bf 69 d5 25 bf 07 47 a3 bf eb 54 7c bf
       -0.64028174 -0.64778763 -1.2756051 -0.98567075
000010 05 27 15 bf 87 f1 4e bf aa 36 1a bf 9e c5 40 bf
       -0.58262664 -0.8083729 -0.6023966 -0.7530154
000020 0f 76 3a bf ec 6a 67 bf a0 cd 31 bf d7 3c 54 bf
       -0.72836393 -0.90397525 -0.69454384 -0.82905334
000030 1d 34 a8 bf e9 cf 68 bf 6a ae 0d bf 8b 8c aa bf
       -1.3140904 -0.90942246 -0.5534426 -1.332414
000040 ae b6 56 bf d2 6e 30 bf c4 43 32 bf 69 4a bd be
       -0.838725 -0.689191 -0.6963465 -0.36970833
000050 b1 9c 42 bf e5 7f 69 bf cd 83 fb be b8 fd 46 bf
       -0.7602034 -0.91210777 -0.49123994 -0.77730894
000060 28 49 8a bf 38 1a 56 bf 54 4e 46 bf f5 a9 45 bf
       -1.0803576 -0.83633757 -0.7746327 -0.7721246
000070 61 f0 6a bf 6f 6d 97 bf 82 ac 87 bf f1 d2 50 bf
       -0.9177304 -1.1830271 -1.059952 -0.8157187
000080 4f 1a 14 bf 28 94 6f bf 0b ab 5c bf 8c f0 65 bf
       -0.57852644 -0.93585443 -0.8619849 -0.8982017
000090 9f a2 74 bf 95 de 54 bf b3 8e 30 bf 0c 6a 29 bf
       -0.9556064 -0.83152133 -0.6896774 -0.6617744
0000a0 89 c6 c3 bf 8f 75 1f bf 27 ec 97 be a4 25 1b bf
       -1.5294963 -0.62288755 -0.29672357 -0.6060431
0000b0 fa dd 35 bf c1 62 4c bf 1a 9d 3d bf d5 7b 4f bf
       -0.71041834 -0.79838187 -0.7406784 -0.8104833
0000c0 db d7 35 bf 24 fd 42 bf 89 3d 7a bf 89 85 9a bf
       -0.71032494 -0.7616751 -0.97750145 -1.2072002
0000d0 fb 45 80 bf aa 2a 5e bf ca 60 cb be a0 51 9d bf
       -1.0021356 -0.8678385 -0.39722282 -1.2290535
0000e0 a2 a0 43 bf d2 7d 2b bf ba 1b 3a bf b3 ee 0f bf
       -0.7641698 -0.6698886 -0.7269856 -0.562236
0000f0 81 7d 95 bf c4 b4 3f bf 12 27 40 bf 3b 68 3c bf
       -1.1678926 -0.748852 -0.75059617 -0.73596543
000100 86 f0 20 bf 19 ce 5c bf 0a e1 82 bf b3 c3 48 bf
       -0.6286701 -0.8625198 -1.0224926 -0.78423613
000110 82 f3 3d bf 1b fa 5a bf 05 5f 89 bf 0a 82 46 bf
       -0.7419969 -0.8553788 -1.0732123 -0.77542174
000120 9a 12 0f bf 93 5d 26 bf 83 64 41 bf e2 da 58 bf
       -0.5588776 -0.6498653 -0.75543994 -0.8470899
000130 9c 85 31 bf 43 14 32 bf a0 f6 6f bf ab 38 7a bf
       -0.69344497 -0.69562167 -0.93735695 -0.9774272
000140 29 7f 3f bf d8 1a 3d bf cf d1 74 bf ba 13 85 bf
       -0.74803406 -0.73869085 -0.9563264 -1.0396645
000150 64 5c 4e bf 0e ac c3 bf f6 24 3b bf f5 63 28 bf
       -0.80609727 -1.5286882 -0.7310327 -0.6577752
000160 c8 d8 b3 bf 40 73 42 bf 6d 27 2c bf f4 af 3c bf
       -1.4050531 -0.7595711 -0.6724766 -0.73705983
000170 a7 01 1c bf fc 18 2c bf 48 89 36 bf bf e8 91 bf
       -0.6094002 -0.67225623 -0.71303225 -1.1399153
000180 98 cb 19 bf 3c b7 55 bf 7f dc 69 bf 66 9f 59 bf
       -0.60076284 -0.8348272 -0.91352075 -0.8500885
000190 86 4d 5e bf 80 3b ff be 88 1f 5b bf 53 7f 94 bf
       -0.8683704 -0.49850082 -0.8559499 -1.1601356
0001a0 18 df 49 bf f8 19 33 bf 0a 83 26 bf 35 d3 31 bf
       -0.7885604 -0.699615 -0.650437 -0.694629
0001b0 3f 2f 36 bf 22 f1 71 bf 46 64 6e bf 0b 31 3a bf
       -0.7116584 -0.94508564 -0.93121755 -0.72731084
0001c0 de d4 3c bf 5f 3b 2c bf 58 c9 71 be 8f 8b 5f bf
       -0.7376231 -0.67278093 -0.23611963 -0.87322325
0001d0 3a df eb be 69 ac aa be 65 e3 59 bf 5b 78 8e bf
       -0.46068746 -0.33334664 -0.851126 -1.113048
0001e0 7c 07 3e bf 68 16 91 bf a4 f7 76 bf 97 24 44 bf
       -0.7423017 -1.1334963 -0.9647162 -0.7661833
0001f0 d0 d1 36 bf 05 7f eb be c1 d0 4d bf 8c 87 1d bf
       -0.714139 -0.45995346 -0.8039666 -0.61534953
000200 20 c7 4a bf c5 5e 35 bf b3 60 56 bf f1 bd 4a bf
       -0.7921009 -0.7084773 -0.837413 -0.7919608
000210 22 20 4e bf 35 94 82 bf 41 6c 6d bf 08 70 3c bf
       -0.8051778 -1.0201479 -0.9274331 -0.73608446
000220 09 b4 1e bf 25 fc 15 bf a6 57 3f bf 87 c1 34 bf
       -0.6199346 -0.5858787 -0.74743116 -0.706078
000230 3c d1 52 bf c0 02 59 bf 98 d5 27 bf e7 dd 6d bf
       -0.82350516 -0.8476982 -0.65560293 -0.9291672
000240 e5 7a 46 bf 4c 21 77 bf c3 29 74 bf 72 ba 75 bf
       -0.7753127 -0.9653518 -0.95376223 -0.9598762
000250 7f 7a 57 bf e8 56 30 bf 26 49 1e bf 6b c8 71 bf
       -0.8417129 -0.6888261 -0.61830366 -0.9444644
000260 b4 f1 9b bf 4c da a8 bf 2a 59 86 bf 3c 63 82 bf
       -1.2183137 -1.3191619 -1.0495961 -1.0186534
000270 06 5c 54 bf 04 91 f3 bf a3 a0 26 bf 4a 79 74 bf
       -0.82952917 -1.902863 -0.6508886 -0.9549757
000280 9e d7 25 bf d1 4c a4 bf 2f db 52 bf 79 3d 8a bf
       -0.6478213 -1.2835943 -0.823657 -1.080001
000290 19 35 4c 40 1c 8a 23 bf 97 f0 5f bf 29 c0 54 bf
       3.1907408 -0.63882613 -0.87476486 -0.83105713
0002a0 80 8e 9c bf bb 01 65 bf 72 a2 90 bf 21 7b 7d bf
       -1.2230988 -0.89455765 -1.1299574 -0.99016005
0002b0 3f ff 73 bf 2a 05 6f bf 0b d8 ff be 91 91 99 bf
       -0.9531135 -0.93367255 -0.49969515 -1.1997548
0002c0 1c ee 52 bf 55 82 12 bf b2 e1 23 bf 19 fc 87 bf
       -0.82394576 -0.5723012 -0.6401626 -1.0623809
0002d0 19 c2 52 bf 4a 03 54 bf f0 8b 48 bf ca c1 59 bf
       -0.8232742 -0.8281752 -0.7833853 -0.85061324
0002e0 93 cf a4 bf 49 4a fc be 2c 6b 8c bf a7 7c 16 bf
       -1.2875847 -0.49275425 -1.0970206 -0.58783954
0002f0 95 0d 89 bf b6 07 fc be 33 a4 34 bf b0 e5 75 bf
       -1.070727 -0.49224633 -0.7056305 -0.960536
000300 ec 99 42 bf 59 57 03 bf 6e e2 61 bf d0 15 6a bf
       -0.76016116 -0.51305157 -0.8823613 -0.91439533
000310 5b 12 34 bf c3 02 88 bf a6 95 08 bf 34 63 94 be
       -0.7034051 -1.0625843 -0.53353345 -0.28981936
000320 42 c0 5c bf e0 22 25 bf ee 42 3c bf 2a 9a 42 bf
       -0.8623086 -0.6450634 -0.73539627 -0.76016486
000330 15 b5 35 bf f3 51 4e bf 07 94 7a bf 06 10 46 bf
       -0.70979434 -0.80593795 -0.9788212 -0.773682
000340 c1 9a aa bf 47 45 72 bf 21 ab 83 bf eb 3d 7f bf
       -1.3328477 -0.9463696 -1.0286599 -0.99703854
000350 72 75 9c bf ab 0c 51 bf 3b 6c 94 bf 4d 15 2f bf
       -1.2223341 -0.81659955 -1.1595529 -0.6839188
000360 56 e9 80 bf ff 3a 4f bf f1 47 20 bf 58 cc 0c bf
       -1.0071208 -0.80949396 -0.62609774 -0.54999304
000370 5f b0 6c bf ed 2a 52 bf 21 c4 55 bf 46 7d d4 bf
       -0.9245662 -0.8209675 -0.83502394 -1.660073
000380 25 aa 45 bf 5a 82 77 bf 30 15 8b bf 68 d9 41 bf
       -0.77212745 -0.96683276 -1.0865841 -0.7572236
000390 d9 55 68 bf e5 92 ac bf cc e2 54 bf b9 89 41 bf
       -0.90755993 -1.3482329 -0.83158565 -0.75600773
0003a0 1d 50 80 bf 97 47 61 bf 57 0d 6a bf 96 4a 65 bf
       -1.0024449 -0.8799986 -0.91426605 -0.89566934
0003b0 aa 5a 9e bf ed 57 6c bf 48 2e 86 bf 8d 2d 4c bf
       -1.2371418 -0.92321664 -1.0482874 -0.79757005
0003c0 15 7a 67 bf 43 de 32 bf 6a bc 32 bf 31 db a5 bf
       -0.9042066 -0.69870394 -0.6981875 -1.2957517
0003d0 d7 f1 65 bf 44 85 5d bf 23 0d 3a 40 3d 74 60 bf
       -0.89822143 -0.8653147 2.9070518 -0.87677366
0003e0 6e bd 19 bf 7a 1e 5e bf 59 57 32 bf b7 f3 2b bf
       -0.6005467 -0.86765254 -0.6966453 -0.67168754
0003f0 ee bb 53 bf 12 22 7b bf 4a 0f 28 bf e5 e6 36 bf
       -0.8270863 -0.9809886 -0.6564833 -0.7144607

lays.1.weight f4 [256, 256]
000000 bd 28 1d be a1 d8 20 3e bf f0 fb 3d 85 3c a3 3d
       -0.15347572 0.15707637 0.12301778 0.079705276
000010 e7 b3 3e 3e 5d 18 1e be f7 f9 3d 3e b6 19 13 3e
       0.18623315 -0.15438981 0.18552385 0.14365277
000020 1a 66 17 be 7c 73 df bd 46 9c e6 3d 27 a3 03 3e
       -0.14785042 -0.10910699 0.112602755 0.12855206
000030 64 24 0c be 92 c0 0f 3e 33 0e 13 be d3 58 40 3e
       -0.13685757 0.14038303 -0.14360885 0.18783884
000040 13 b8 25 be 4f c9 00 be ca aa 62 be c4 ef 37 be
       -0.161835 -0.12576793 -0.22135463 -0.17962557
000050 93 01 10 3e 81 69 18 3e 20 30 b6 bd cb 65 14 3e
       0.140631 0.14883997 -0.08895898 0.14491956
000060 39 4c 16 be 43 9a 97 3d 34 ed 0c 3e 24 2e 24 3e
       -0.14677514 0.0740247 0.13762361 0.16033226
000070 10 82 07 3e 64 df 47 bd 15 da c0 3d 92 e5 47 3d
       0.13233209 -0.048797026 0.09416596 0.04880292
000080 d6 8a 10 3e 2c 0b 71 3e 98 01 3d be a2 6b 0f 3e
       0.14115462 0.23539418 -0.18457639 0.14005902
000090 07 02 08 3e b9 6e af 3d c3 cb 3a 3e 43 18 65 3d
       0.13282023 0.085660405 0.18241791 0.05593134
0000a0 87 cb 14 be 48 46 33 3e 4f 41 80 be c3 9a d4 3d
       -0.14530765 0.17507279 -0.25049827 0.10381081
0000b0 8c f8 eb 3d c8 f8 30 3c 8b b2 cb bd 2f b7 54 3d
       0.11522016 0.010801502 -0.09946164 0.05193251
0000c0 75 06 c6 bd 83 77 ef bd 5c ab 0a bd a2 d1 20 bd
       -0.096692 -0.11692717 -0.033854827 -0.03926242
0000d0 94 d6 21 3e 8d bc 0d be 6a 35 1a 3e 31 4f 17 3e
       0.15804511 -0.13841458 0.15059438 0.14776303
0000e0 31 2d 00 be bd 07 0d 3c 3a ab 05 3e 63 2b 9b 3c
       -0.12517239 0.008607802 0.13053599 0.018941587
0000f0 c0 a9 0b 3e 64 5b 23 be a0 59 09 be bd 64 f3 bd
       0.13638973 -0.15952832 -0.13413095 -0.11884449
000100 c3 55 33 3e 37 9c 18 3e ef 99 06 3e 00 17 17 bd
       0.17513184 0.14903341 0.13144659 -0.03688717
000110 1b 07 16 3e 19 fb f4 3d 7e c9 22 3e 0d b7 2a be
       0.14651148 0.119619556 0.15897176 -0.16671391
000120 6b 76 6c be b5 47 7b 3e f2 8d 22 3e f8 11 1c 3e
       -0.23092048 0.24539073 0.1587446 0.1524123
000130 bf 1b 94 bd 57 86 97 bd 11 ea 06 be 0b 40 20 3e
       -0.07231855 -0.0739867 -0.13175227 0.1564943
000140 d3 ac 96 3d f2 5e 8c bd 0c 5e 1e be 88 49 8a 3e
       0.07357182 -0.06854047 -0.15465564 0.27009225
000150 82 24 13 3e e3 d0 e4 3d 54 71 54 be 23 c3 0e bd
       0.14369395 0.111726545 -0.20746356 -0.034854066
000160 99 da 0e be df 43 0d 3e 83 8c fb 3d 62 13 d7 bd
       -0.13950576 0.13795422 0.1228266 -0.10501744
000170 aa fc 83 bd a6 06 f8 bd c3 67 5d be c5 14 b4 be
       -0.06444676 -0.12110643 -0.21621613 -0.35172096
000180 4a 0d 41 3e 2f 4f 37 3e b6 70 23 bd 57 46 02 3e
       0.18852726 0.179013 -0.03990241 0.12722145
000190 43 e2 22 be 97 2d 1c bd d5 cf 04 be 8a 38 10 3e
       -0.15906624 -0.038129415 -0.12969907 0.14084068
0001a0 34 61 1e 3e 61 b3 61 3e 84 a3 64 be 9d 18 0a 3e
       0.15466768 0.22041084 -0.22328001 0.13485952
0001b0 5d 25 e3 bd 57 a1 a0 bc 58 3e 10 3e 3d d9 14 3b
       -0.11091111 -0.019608183 0.14086282 0.0022712492
0001c0 40 1e 09 3e d9 4d fd 3d 32 59 88 be c5 7c c9 be
       0.13390446 0.12368364 -0.2663055 -0.39353004
0001d0 9a 57 1a be 9c e3 1f 3e d6 46 0a be 27 d7 4c 3d
       -0.1507248 0.1561417 -0.13503584 0.050009873
0001e0 36 34 21 3e b5 0e 2f be 4b 56 5b be 69 2a 32 3e
       0.15742573 -0.17095454 -0.21419637 0.1739899
0001f0 14 0b 56 3d 9f 38 33 bd 9b 1b 11 3e 79 e9 1e be
       0.05225666 -0.04375517 0.14170687 -0.1551875
000200 83 76 10 be b9 71 61 3d 88 01 24 3e 1a 49 8e 3d
       -0.14107709 0.055040095 0.16016209 0.06947537
000210 20 e0 ab bd 83 90 cd 3d 8b d9 eb 3d a7 bc e0 bd
       -0.08392358 0.10037329 0.115161024 -0.109734826
000220 76 98 0a bd 27 0d af 3d 70 3c 2f be 9d 97 fa bd
       -0.033836804 0.085474305 -0.17112899 -0.12235949
000230 bf 87 da 3d e6 73 13 3e 88 e6 0b be 1e 8d b9 3d
       0.10670423 0.1439968 -0.1366216 0.09060119
000240 91 83 14 3e 80 b4 e9 bd 59 23 06 be 0b 28 3a 3e
       0.14503314 -0.11411381 -0.13099422 0.18179338
000250 e8 bd 5c be 1f 84 39 3e 3b 77 df 3d 09 d4 09 be
       -0.21556818 0.18116806 0.10911413 -0.13459791
000260 da fe dc 3d 08 84 fe bb e9 9b e5 3d d4 81 db 3d
       0.107907966 -0.007767204 0.11211378 0.10718122
000270 6b f2 e5 bd 4d 7e e1 3d 26 f3 8c 3e 42 e0 4a 3e
       -0.11227878 0.11010418 0.27529258 0.1981211
000280 2b 16 2d be a2 2b 90 3d 99 0d cf bc 9a 1f 6f be
       -0.16902988 0.07039572 -0.025275039 -0.23351899
000290 23 d2 a5 be 5b 31 40 3e 0e ca 17 3e 5e 7e f1 3d
       -0.32386884 0.18768828 0.14823171 0.11791681
0002a0 ee ae 10 3e 7a 7c 01 be 38 a7 11 be 11 a6 30 be
       0.1412923 -0.1264514 -0.14223945 -0.1725085
0002b0 60 0a ef bd 85 94 17 3e 10 f5 23 be 2f fb 1a 3e
       -0.11671901 0.1480275 -0.16011453 0.15134881
0002c0 a1 c7 f6 3d e2 8b ab be 48 ce 26 be 70 ce 30 3e
       0.12049795 -0.3350516 -0.16289628 0.1726625
0002d0 b3 14 20 3e 88 77 01 3e 40 e1 06 3e 07 60 31 3e
       0.15632896 0.12643254 0.13171864 0.17321788
0002e0 6d a0 0e be c3 98 04 3e 27 7a 1a 3e 4e c8 c5 3d
       -0.13928385 0.12948899 0.1508566 0.09657346
0002f0 f3 6d 03 3e ec c1 01 3e 93 e2 23 bc f0 2e 0f 3d
       0.12834911 0.12671632 -0.01000275 0.034956872
000300 38 51 9e 3c 64 e0 2a 3e 2a 17 56 3e f0 84 04 be
       0.019325837 0.1668716 0.20907274 -0.12941337
000310 fa bf e5 bd b9 57 2f 3e b6 ac 53 3e 66 37 11 3d
       -0.11218257 0.17123307 0.20671353 0.035453223
000320 ef 4d 01 3e 2b 61 0c be 29 fa c2 bd d1 b1 2b 3e
       0.12627386 -0.13708942 -0.095203705 0.1676705
000330 a1 c3 bb bb 20 39 e1 3d 25 1f de 3d 1c c5 03 3e
       -0.005730108 0.10997224 0.10845784 0.1286816
000340 28 c2 11 bc fe 73 31 be b6 3a 76 3e 79 16 dc 3d
       -0.008896388 -0.17329404 0.24045834 0.10746474
000350 db 26 04 be 33 fe 08 3e 16 44 47 3e d5 af 13 bd
       -0.12905447 0.1337822 0.19459566 -0.03605636
000360 bc 33 99 be 57 51 53 3e da 51 98 bd 28 f1 31 3e
       -0.29922283 0.20636497 -0.07437487 0.1737715
000370 02 f0 8d 3d 3a be 2c 3c 87 07 1c be 15 e6 ff 3d
       0.069305435 0.0105434 -0.15237246 0.124950565
000380 8e 64 be 3d 6f c1 47 3e 92 a0 c6 3d 47 57 23 3e
       0.09296523 0.19507383 0.09698595 0.15951262
000390 b8 e1 01 3d fb f9 f9 bd 59 da ed 3d dd cb ad 3c
       0.031709403 -0.12205883 0.11613912 0.021215374
0003a0 56 ad 2e 3e ac 8c 95 bd f3 8d f8 3c fc 7b 63 be
       0.1705831 -0.07302222 0.030341124 -0.22215265
0003b0 d2 51 02 3d e8 cc 11 be ad 83 67 3e d6 91 25 be
       0.03181631 -0.14238322 0.22608824 -0.16168913
0003c0 ae 7d 6a 3c ef ed 0c 3e ed 28 47 bd d4 60 6d 3e
       0.014312191 0.1376264 -0.048623014 0.23181468
0003d0 39 78 04 be 87 62 28 be 84 29 24 be a7 08 07 3e
       -0.12936486 -0.16443835 -0.16031462 0.13186894
0003e0 f1 dd cc bd cb d7 27 3e 45 c1 1c be 5f 8c e8 3d
       -0.100032695 0.16390912 -0.15308101 0.11354899
0003f0 ec 0a fd bd 49 de 6c 3d a8 2a f8 bd f1 7e 20 3e
       -0.12355599 0.057829175 -0.12117511 0.15673424

lays.1.bias f4 [256]
000000 f7 33 11 be d9 da 15 be 9c 56 ca be 81 3b 3f bf
       -0.1417998 -0.14634265 -0.39519203 -0.7470017
000010 0c d1 eb bd 99 64 71 be 94 5c 91 bd fc ef 04 bf
       -0.11514482 -0.23573531 -0.07097736 -0.5192869
000020 57 94 27 bf eb 42 27 bf b3 f1 d5 bd f8 7c 8c be
       -0.65460724 -0.65336484 -0.10446491 -0.27439094
000030 57 a1 bf bd 14 17 49 be d4 62 6f bf fc a4 de bd
       -0.09356945 -0.1963771 -0.93510175 -0.10871312
000040 02 97 80 be fc 03 de bd a4 6d 8c bd ba 72 f6 bd
       -0.2511521 -0.10840604 -0.0685685 -0.12033601
000050 44 f5 0c bf dc c8 8d be 62 36 e7 be 04 3a a1 bd
       -0.55061746 -0.27692306 -0.45158678 -0.07872394
000060 9b 8c e3 be fb db c7 bd 7c fb 7b bd 61 74 81 be
       -0.4444321 -0.09758755 -0.06151913 -0.25284103
000070 53 ae 01 bf 58 86 a1 bd e3 63 90 be f3 87 46 3e
       -0.5065662 -0.07886952 -0.28201208 0.19387798
000080 92 dc 95 bd db f3 03 be 46 96 be be d6 d5 eb bd
       -0.07317461 -0.12885992 -0.37224025 -0.11515395
000090 b8 6e 90 be 9d c5 f6 bd e8 2b cb bd 42 5b d8 be
       -0.28209472 -0.120494105 -0.09920484 -0.42257124
0000a0 05 9d 99 bd 0c fe e5 be c4 44 03 bf b4 38 8a be
       -0.07500652 -0.44920385 -0.51276803 -0.26996386
0000b0 7f c6 b8 bd e0 80 94 bd e3 a1 5a be 09 fa 11 bf
       -0.09022235 -0.072511435 -0.21350817 -0.5702215
0000c0 97 03 34 be 62 4e bf bd cc fe 43 be dc 58 33 bf
       -0.17579494 -0.09341122 -0.19140166 -0.70057464
0000d0 0f 09 03 bf 65 e5 1a bf 06 0d f2 bd 8f 5b e0 be
       -0.511857 -0.6050628 -0.1181889 -0.43819854
0000e0 93 e3 6b 3e 9a f5 5c be 67 ed 2b bf 6d e1 c1 bd
       0.23036031 -0.21578065 -0.6715912 -0.09466825
0000f0 7f 1d eb be 2f 17 54 bf f4 51 52 bf fe e5 b6 be
       -0.4592094 -0.82847875 -0.821563 -0.35722345
000100 73 d6 45 bf 36 2b 1d bf a2 c5 8b bd 1d c6 af be
       -0.7728035 -0.6139406 -0.06824805 -0.34330836
000110 f1 c7 aa be 3e b5 0c bf f3 35 a4 be ab 17 07 bf
       -0.33355668 -0.54964054 -0.3207241 -0.5277049
000120 5f f8 44 bf df da a5 bd ea 17 e3 be d7 ee 0a be
       -0.76941484 -0.08098387 -0.44354182 -0.13567673
000130 39 e9 13 bf a2 7f bc be f3 d9 ad be 2c c2 10 bf
       -0.57777745 -0.36816126 -0.33955345 -0.5654628
000140 78 65 c6 be 6b ff 16 bf 27 22 03 bf 1b b3 0d bf
       -0.3874929 -0.58983487 -0.5122399 -0.5535142
000150 d5 da 95 bd c1 b6 30 be a5 21 04 bf 5c 38 6d be
       -0.073171295 -0.17257215 -0.5161384 -0.2316603
000160 fb 5f dd be 1f f1 0e bf 2b f0 03 bf ec 90 cd be
       -0.4323729 -0.5583667 -0.5153834 -0.4014963
000170 c6 04 ed bd 7b 23 1c bf 5f b5 fa be f9 c6 05 bf
       -0.11573176 -0.6099164 -0.489665 -0.52256733
000180 67 97 67 be 4e 20 d4 bd d7 f1 f0 bd 40 d3 0c bf
       -0.22616349 -0.10357724 -0.11764877 -0.5500984
000190 a6 6d 1c bf 84 bd a0 bd dd 2a fe be 79 94 d4 be
       -0.6110481 -0.07848647 -0.49642077 -0.41519526
0001a0 8b 49 31 bf c0 7e d3 bd 50 da 0e bf 94 9d 08 bf
       -0.6925284 -0.1032691 -0.5580187 -0.53365445
0001b0 10 7a 0c bf d6 96 2f bf 09 19 02 bf 70 10 1d be
       -0.5487375 -0.6858953 -0.5081945 -0.15338302
0001c0 80 4f b9 be 8c 9b ac be 58 c6 60 be 90 ac d7 be
       -0.36193466 -0.33712423 -0.21950662 -0.42123842
0001d0 9b 6c e4 bd 14 01 b5 bd f8 ee db be 58 81 2c bf
       -0.11153527 -0.08838096 -0.42955756 -0.6738486
0001e0 e5 47 fd be 8c 5e c1 bd 82 b3 b7 bd 52 5e ff be
       -0.49468914 -0.094418615 -0.08969785 -0.49876648
0001f0 39 39 9e bd 7f 6d bb be fa c0 d6 bd ca f4 be bd
       -0.07725758 -0.36606976 -0.10486026 -0.093240336
000200 fe 36 0e bf 1e 96 f3 bd 32 69 94 bd da 63 41 bf
       -0.5555266 -0.11893867 -0.07246627 -0.75542986
000210 e1 30 39 bf 0e e0 ce bd ee 15 81 be 96 5c db bd
       -0.7234021 -0.10101329 -0.25212044 -0.10711019
000220 3c c0 df bd 2c f3 0d bf 97 37 aa be d5 76 aa 3d
       -0.10925338 -0.55449176 -0.33245537 0.08323447
000230 6e d5 93 be 4e dd bc bd 56 0d 92 bd 5d 61 dc be
       -0.2887377 -0.09221898 -0.0713145 -0.43043032
000240 22 fc f4 bd 12 1c 99 bd 71 96 fa be 31 9d 13 bf
       -0.11962153 -0.07476057 -0.48942903 -0.5766173
000250 44 b4 c2 bd 83 1b 41 bf a7 c5 e9 be d2 a9 ed be
       -0.09507039 -0.75432605 -0.4565861 -0.46418625
000260 a1 22 da bd c9 d1 de bd 2c 96 14 bf 2d ab 2c bf
       -0.10651136 -0.10879857 -0.58041644 -0.67448694
000270 0a d9 e9 bd 9d 2c 45 bf 84 c7 b7 be a2 e2 f2 bd
       -0.1141835 -0.770212 -0.35894406 -0.11859633
000280 d5 c3 ab bd a7 a7 e1 bd ed 71 bc bd 24 bc f4 be
       -0.08386961 -0.11018305 -0.09201417 -0.4779979
000290 99 63 af be 85 11 9b bd d5 5a 35 be 44 e3 07 bf
       -0.34255674 -0.07571701 -0.17710431 -0.53081155
0002a0 81 bd 34 bf 26 7b 59 be 18 7f 04 be 91 e1 10 bf
       -0.7060166 -0.21238384 -0.12939107 -0.5659419
0002b0 55 a4 1e bf 6b 36 eb bd 10 bf ac bd 76 ce 79 3e
       -0.619695 -0.11484989 -0.0843488 0.24395165
0002c0 4c 7d d8 be 10 8f c7 be 9e 89 03 bf 54 7f 52 bd
       -0.42283094 -0.38976336 -0.5138186 -0.05139096
0002d0 f7 cb c1 bd 5c 22 b8 be fc b6 c6 bd 2c 77 99 be
       -0.09462731 -0.35963714 -0.0970287 -0.29973733
0002e0 bb bf 9a be 45 5f d5 be 70 f2 07 bf 93 6c 9b bd
       -0.30224404 -0.41674247 -0.53104305 -0.07589068
0002f0 ff fc d1 be cd 98 3b bf 32 8c e9 bd 0d 70 95 be
       -0.41013333 -0.7328003 -0.11403693 -0.2918705
000300 61 58 da bd fe e2 a3 be 2c 7b 9d be cb 95 2f bf
       -0.10661388 -0.3200912 -0.30758035 -0.6858794
000310 a4 e7 21 bf 38 3d 1b be 6f 74 95 be db ea ef be
       -0.6324408 -0.15160072 -0.29190394 -0.46858868
000320 aa a6 80 bd fd 45 8e bd 9f a3 90 bd 3d 76 cf be
       -0.06281789 -0.06946943 -0.07062458 -0.40519896
000330 b9 b2 a0 be 37 60 c2 bd c2 ba 3a be e3 5c 05 bf
       -0.31386355 -0.09491008 -0.18235305 -0.5209486
000340 c6 56 bc bd 77 83 0d bf 83 b6 67 bf ce fc 2f bf
       -0.09196238 -0.55278724 -0.90512866 -0.68745124
000350 93 a8 23 bf 0d 8f 93 be 64 03 a3 bd 72 aa eb bd
       -0.639291 -0.28820077 -0.07959631 -0.11507119
000360 c9 c0 56 be b9 71 32 bf 11 61 3f be 1e 9f d3 bd
       -0.20971979 -0.69704777 -0.18689372 -0.103330836
000370 32 7d f0 be 59 d1 cb be 0f 9f c7 be 2e 12 78 be
       -0.46970516 -0.39808157 -0.3898854 -0.24225685
000380 be 82 19 bf b0 9e da bd 35 39 e6 be 2e e6 aa be
       -0.5996512 -0.106747985 -0.4496552 -0.33378738
000390 74 d2 0d bf ba fd 49 bf 4c 01 c3 bd f0 cd 65 bd
       -0.5539925 -0.7890278 -0.09521732 -0.0561046
0003a0 f4 be 42 bf fb 17 a1 be 10 4c df bd ff 30 a3 be
       -0.7607262 -0.31463608 -0.1090318 -0.3187332
0003b0 c1 00 d1 be e8 a3 a2 be dc b2 3a bf 15 09 d7 bd
       -0.40820888 -0.31765676 -0.7292917 -0.10499779
0003c0 45 a0 84 be 5b 3a 49 be 37 bd d8 be eb 90 15 be
       -0.25903526 -0.19651167 -0.4233186 -0.14606063
0003d0 13 59 fb be 4a a7 e6 bd 63 94 d8 be 40 54 e4 bd
       -0.49091396 -0.112623766 -0.4230071 -0.11148882
0003e0 0e d4 b9 be d8 50 0d bf 93 02 71 be d6 8f 57 bd
       -0.36294597 -0.5520148 -0.23536138 -0.052627407
0003f0 86 3d 3a bf 83 c1 c1 be 27 a9 b1 be 91 d3 2e bf
       -0.7275013 -0.3784295 -0.34699365 -0.68291575

lays.2.weight f4 [2, 256]
000000 20 4a 1c 3d 00 c9 7a bd 80 dc 6f bd 69 62 3c bd
       0.03815663 -0.061226845 -0.058559895 -0.04599229
000010 f5 2b 15 bc 7e 73 0e 3e b0 ed 4f 3d 23 b7 b4 bd
       -0.009104718 0.13911244 0.050763786 -0.08823993
000020 7a b8 8a 3e da 1f 46 3c 9f 65 aa 3b 23 b0 72 be
       0.2709387 0.012092555 0.0052001025 -0.23700003
000030 31 f2 26 bd cd b0 0d bd 56 ab f8 3d 7d 10 63 be
       -0.040758315 -0.03459244 0.12142055 -0.22174259
000040 8d 6c 8f bd 3d f6 6a bd 56 0d 6a b9 08 1e 4b bd
       -0.07003126 -0.057363737 -0.00022320947 -0.049589187
000050 58 76 6e be 74 cb 25 bd f6 e2 cc bd bd 3d 38 bb
       -0.23287332 -0.04047723 -0.10004227 -0.002811297
000060 c2 6f 1b 3e 00 be 07 bd 7a bf 07 3d ad 6d 76 bd
       0.15179351 -0.033140182 0.03314159 -0.06016319
000070 47 ca 93 be 18 28 2f 3d b6 58 61 3e e3 a4 f5 3a
       -0.28865263 0.042762846 0.22006497 0.0018741157
000080 8e 66 32 3d 5c c8 c1 3b 2f f2 9b 3e dc 51 03 bd
       0.043554835 0.0059137773 0.3045821 -0.03206049
000090 ff f2 bc bd a4 20 6c 3d be 7f ed bc 8a fb 9c be
       -0.09226035 0.057648316 -0.028991576 -0.3066066
0000a0 07 50 0a 3b 94 61 75 3d 53 08 95 3e 4c 49 77 be
       0.002110483 0.05990751 0.29107913 -0.24149054
0000b0 3a bc 81 bd 84 cc 4b ba 90 8e 86 3d 13 6d bf 3c
       -0.063347295 -0.00077743107 0.065701604 0.02336744
0000c0 b5 04 0c bb 4b 7c 8d bc 61 8d 3c bd c2 28 df bd
       -0.002136511 -0.017271182 -0.046033267 -0.10896446
0000d0 de 46 b1 3d fd 0f 7e 3e 7c 11 5b 3c 5b 98 07 bc
       0.08656095 0.24810787 0.013370868 -0.0082760705
0000e0 d7 1e 51 3c 02 ca 79 bd fb ad 3e 3e e0 5f 07 3d
       0.0127637 -0.060983665 0.18621056 0.033050418
0000f0 41 96 87 bd ad be 1b be 9c 6c 78 3d ac a4 8c bd
       -0.066204555 -0.15209456 0.060650453 -0.06867346
000100 e0 39 47 3d 13 f9 0e 3d eb d8 fc 3c 42 3d 96 3e
       0.04863918 0.034905504 0.030865153 0.2934361
000110 34 3c e0 bd d5 7c 68 3e 9c a8 67 bc fc e3 46 3e
       -0.10948983 0.2270387 -0.014139321 0.19422907
000120 e9 2d 2c be 2e 90 a2 3b ab a1 b6 bd ce 9a 52 be
       -0.16814388 0.004961035 -0.089175545 -0.20566866
000130 c4 aa 72 3e 8d 3c 92 3e d4 1a 96 3e 63 c9 73 bd
       0.23697954 0.28561822 0.29317343 -0.05951823
000140 0e 5e f8 bd b2 3c 2d be 7d d9 96 be 82 71 10 be
       -0.121273145 -0.16917685 -0.29462805 -0.141058
000150 e6 a8 18 3c e7 cd a0 be 9e 75 0e 3e 66 93 02 bd
       0.009317612 -0.3140709 0.13912055 -0.03187885
000160 d3 ba 9a 3e 95 b5 8c be 2d bf 79 3c 11 41 8d be
       0.3022066 -0.27482286 0.015243334 -0.27588704
000170 14 9e 89 3c b4 b7 dd 3d 0c d3 98 3e 9e ba 93 bd
       0.01679901 0.10826054 0.29848516 -0.07213329
000180 75 22 56 bd aa 7d 13 3c 9a ba 71 bd 81 e8 8a 3e
       -0.052278955 0.009002129 -0.059015848 0.2713051
000190 ee 68 95 bd 25 8b 2a bd e0 cf 9c be 75 4a 89 be
       -0.072954044 -0.041636605 -0.30627346 -0.2681462
0001a0 fc 21 90 3e ae dd 56 bd b6 f3 b1 bb d6 ec 9e 3e
       0.28150928 -0.052457504 -0.005430664 0.31040066
0001b0 8e fa 77 3e ee d9 2d 3e b4 80 3c bd ca 53 64 3d
       0.24216673 0.16977665 -0.04602118 0.05574397
0001c0 ed 68 85 3e ec b4 e6 3d ca a9 0a be e2 0c 0f be
       0.26056615 0.11264977 -0.13541332 -0.13969758
0001d0 1b 80 7d bc 60 a0 b7 bc 39 2b 1b 3e 2f 63 d4 3d
       -0.015472437 -0.02241534 0.15153207 0.1037048
0001e0 8f 28 95 3e d7 87 16 bd d1 47 bc bc c5 50 42 be
       0.29132506 -0.03675064 -0.022983463 -0.18976124
0001f0 c1 5f 9c 3c db f6 67 bd 67 eb 21 3d e2 bb c2 3c
       0.019088628 -0.056631904 0.039531138 0.02377123
000200 ce dc d6 3d 49 f0 04 bc 4f 9a 17 bd 83 9f 99 be
       0.10491334 -0.008113929 -0.037012395 -0.3000451
000210 d2 75 03 bc 87 14 56 bd 6b e4 31 3e be a9 68 3c
       -0.008023696 -0.05226567 0.17372291 0.014200626
000220 c8 57 cd bc 29 8c 8e 3e 1f ae ea bd 65 4b f0 3a
       -0.025066271 0.2784131 -0.11458992 0.0018333016
000230 cc fb ea 3d a2 bb be 3b 53 b7 0c bd b9 d8 7e 3e
       0.11473808 0.0058207074 -0.03435452 0.2488736
000240 fb f1 24 3d 13 55 95 3c 26 5f f9 3d 21 89 2d 3e
       0.040269833 0.018229043 0.12176351 0.16946842
000250 7d 83 9f 3b 63 88 a9 3e bc 01 8f be 43 72 22 3e
       0.0048679695 0.33111867 -0.2793101 0.158639
000260 87 5a 80 3d 79 8d 3f 3c 52 23 48 3e c2 e3 12 3e
       0.06267267 0.011691445 0.19544724 0.14344695
000270 70 4d 63 3d a4 2a 9b be 20 e3 08 3d cb 13 40 bd
       0.055493772 -0.3030597 0.03341973 -0.046893876
000280 c2 1e 6c bd 07 6d 33 bd a6 11 cb 3c b6 2d 8c 3e
       -0.05764652 -0.04380515 0.024788689 0.27378625
000290 49 e7 30 bd ba 90 f9 bc 8b e1 b5 3d db 53 fe 3d
       -0.04318932 -0.030464519 0.088809095 0.12418338
0002a0 91 1a a0 bd a4 47 b9 bb e5 d9 95 3e 01 d2 7f bd
       -0.07817567 -0.005654292 0.29267803 -0.062456135
0002b0 20 bb d8 bd 36 e7 93 3c 7b 05 d1 bc f1 d7 90 3b
       -0.10582566 0.018054586 -0.025515309 0.0044202735
0002c0 15 0d 56 be 90 48 68 3e c8 aa 34 3e 1c 14 9b bd
       -0.20903428 0.2268393 0.17643273 -0.07572195
0002d0 b7 aa 7e bc 84 7c 93 3e 7d e6 21 bd c4 63 c7 bd
       -0.015543631 0.28805935 -0.03952645 -0.09735826
0002e0 e8 14 54 3e 2e 7d 51 3e cc 9c 82 3e ac 05 f5 bc
       0.207111 0.20457909 0.25510252 -0.029909931
0002f0 68 f4 a1 3e 68 91 97 3e 44 88 18 bd 70 df 49 3d
       0.3163178 0.29603124 -0.037239328 0.049285352
000300 46 f1 51 bd b6 6c 44 be 29 bf 1d 3d 2f 91 76 3d
       -0.051255487 -0.19182095 0.038512383 0.06019705
000310 7a c0 cd 3e ca 87 51 3b 4f 5b c1 bd d6 0b 86 bd
       0.4018591 0.0031971806 -0.09441244 -0.06545226
000320 dc e5 70 bc 30 48 68 bc cd a1 1f bc 53 e8 5a 3e
       -0.01470324 -0.014177367 -0.009743166 0.21377687
000330 90 42 61 3d 08 34 d4 3c 74 f2 17 bd ea a1 8f 3e
       0.05499512 0.025903717 -0.037096456 0.28053218
000340 54 4d e7 3c 8a 5f 15 bd 1f 79 54 3d 0f 7d 2d be
       0.028235115 -0.036468066 0.051873323 -0.16942237
000350 c9 39 f5 bb 3c 26 92 3e 88 d3 99 bc ca 9b 16 bd
       -0.007483695 0.28544796 -0.018777624 -0.036769666
000360 90 84 b1 bd 83 ef 9e bb b5 e0 0f bd bb 69 10 3d
       -0.086678624 -0.0048503294 -0.035126407 0.035257082
000370 e2 db 4a be c4 0a 97 bd 92 42 fc 3c 63 3c 27 3e
       -0.19810441 -0.073751 0.030793462 0.1633163
000380 cc 1c 8e be 2f d2 8f 3c 6a a8 b6 3e b2 a3 c7 3d
       -0.27756345 0.017556278 0.35675365 0.09748019
000390 a1 c0 95 3e 64 6a 6b 3c 52 de 9b 3b f9 fb 25 3c
       0.29248527 0.014368627 0.0047567273 0.010130876
0003a0 4d 14 01 3e 85 8e f0 bd fd da b0 3c 83 3f e0 bd
       0.126054 -0.117459334 0.021588797 -0.10949614
0003b0 1d 90 9e 3d 67 92 17 be 8c 05 33 be e1 f0 76 bc
       0.07742331 -0.14801942 -0.17482585 -0.015072078
0003c0 78 57 bd bc 29 52 25 3d 9e 89 4a be 0a c6 7e 3d
       -0.023112997 0.040361557 -0.1977906 0.062200584
0003d0 91 77 50 3d 55 85 bd bc a7 46 4e be 75 92 fc bc
       0.050895277 -0.023134867 -0.20144139 -0.030831555
0003e0 b6 b8 fb bd 1c 67 42 be ac 62 db 39 7a af 3b bd
       -0.1229109 -0.18984646 0.0004184445 -0.045821644
0003f0 19 36 04 3e 44 e9 67 3d 35 4b 6a 3d 17 c1 0e 3c
       0.12911262 0.056618944 0.05720063 0.008713028

lays.2.bias f4 [2]
000000 4f a2 a6 be 1e ec b5 3e
       -0.32545707 0.35531706

l1.weight f4 [256, 63]
000000 f1 1a 78 3b 98 b3 92 ba 18 b3 92 3a d9 a1 11 b9
       0.0037857855 -0.0011192439 0.001119229 -0.0001388857
000010 fc 22 44 3a 76 1c 85 b8 18 b3 92 3a b0 28 78 bb
       0.000748202 -6.3472355e-05 0.001119229 -0.0037866049
000020 58 b3 92 3a d8 b2 92 ba 98 b2 92 3a 18 b3 92 ba
       0.0011192365 -0.0011192216 0.0011192141 -0.001119229
000030 18 b3 92 3a d8 b2 92 3a 58 b3 92 ba f6 fe 77 bb
       0.001119229 0.0011192216 -0.0011192365 -0.0037841178
000040 18 b3 92 3a 4d 0c 88 38 7c 00 44 ba 98 f7 92 ba
       0.001119229 6.4872766e-05 -0.0007476879 -0.0011212705
000050 18 b3 92 ba 26 68 77 3b 60 3e 53 b9 18 b3 92 ba
       -0.001119229 0.0037751286 -0.00020145765 -0.001119229
000060 24 b0 92 ba bc a3 92 3a c4 ea 76 b8 b0 1a 78 bb
       -0.001119141 0.0011187713 -5.8869613e-05 -0.0037857704
000070 6b 45 78 3b e7 a0 92 ba 18 b3 92 3a ae 22 78 bb
       0.0037883173 -0.0011186869 0.001119229 -0.0037862468
000080 db 36 3e 3a 52 72 16 ba 2b 31 78 bb 7e a1 92 3a
       0.0007256099 -0.0005739081 -0.0037871103 0.0011187044
000090 46 b6 92 ba 98 b2 92 3a e1 89 52 39 18 b3 92 ba
       -0.0011193238 0.0011192141 0.00020078525 -0.001119229
0000a0 37 45 78 bb 18 b3 92 3a c6 b5 92 3a 98 f7 92 3a
       -0.0037883052 0.001119229 0.0011193089 0.0011212705
0000b0 22 a1 92 3a 5c 30 78 3b 18 b3 92 3a 9e 63 3d 3a
       0.0011186937 0.0037870621 0.001119229 0.0007224622
0000c0 5a a8 92 3a 56 db 2c 3a d8 f7 92 3a 6b 1d 78 3b
       0.0011189089 0.0006593963 0.0011212779 0.0037859331
0000d0 5c 9e 92 ba 98 b3 92 ba 96 34 78 bb ea a8 2b 3a
       -0.0011186111 -0.0011192439 -0.003787314 0.00065483025
0000e0 02 e9 92 ba 58 b3 92 3a 7e 46 91 b9 a0 69 16 3a
       -0.0011208358 0.0011192365 -0.00027709076 0.0005737785
0000f0 78 ac 92 ba 9e 72 16 3a 42 f8 92 ba 76 6e ba 39
       -0.0011190316 0.0005739125 -0.0011212903 0.00035558984
000100 42 bb 98 39 1a 6b ba b9 b6 81 6b 3a 47 84 6b 3a
       0.00029131217 -0.0003555648 0.0008983867 0.00089842494
000110 54 82 6b ba 1a f9 b9 b9 7c 81 6b ba fc 80 6b ba
       -0.0008983959 -0.00035471545 -0.0008983833 -0.0008983759
000120 1a ea b9 b9 fc 91 6b 3a 7c 82 6b ba 1a ea b9 b9
       -0.0003546037 0.0008986292 -0.0008983982 -0.0003546037
000130 fc 81 6b 3a 1a ea b9 b9 7c 82 6b ba 7c 90 6b ba
       0.0008983908 -0.0003546037 -0.0008983982 -0.00089860684
000140 5a 2e ba 39 fc 91 6b ba 1a ea b9 b9 1a ea b9 b9
       0.0003551122 -0.0008986292 -0.0003546037 -0.0003546037
000150 0a 69 6b 3a fc 81 6b 3a 1a ea b9 b9 e8 82 ba 39
       0.00089801906 0.0008983908 -0.0003546037 0.00035574217
000160 6e 5e 8f b9 dd fb b9 b9 1a ea b9 b9 1a ea b9 b9
       -0.0002734544 -0.00035473602 -0.0003546037 -0.0003546037
000170 6d 6d ba 39 1a ea b9 b9 fc 91 6b 3a 1a 6c ba b9
       0.00035558213 -0.0003546037 0.0008986292 -0.00035557227
000180 fa 66 ba b9 1a ea b9 b9 1a 7f ba b9 bc 80 6b 3a
       -0.00035553408 -0.0003546037 -0.00035571383 0.00089837215
000190 1a ea b9 39 7c 89 6b 3a 7c 82 6b 3a 7c 80 6b ba
       0.0003546037 0.00089850253 0.0008983982 -0.0008983684
0001a0 fc 80 6b ba fc 67 6b 3a fc 80 6b 3a 1a ea b9 b9
       -0.0008983759 0.00089800335 0.0008983759 -0.0003546037
0001b0 fc 7f 6b ba 7c 81 6b 3a 34 83 6b ba e8 fe b9 39
       -0.000898361 0.0008983833 -0.00089840894 0.0003547587
0001c0 fc 80 6b ba 1a 6c ba 39 7c 80 6b 3a 5a 6c ba b9
       -0.0008983759 0.00035557227 0.0008983684 -0.00035557413
0001d0 6e 67 8f 39 87 8a 6b 3a 14 8c 6b ba 1a ea b9 b9
       0.00027352147 0.0008985181 -0.0008985412 -0.0003546037
0001e0 fc 80 6b 3a 1d 01 ba 39 1a ea b9 b9 fc 80 6b ba
       0.0008983759 0.00035477514 -0.0003546037 -0.0008983759
0001f0 45 49 ba 39 bc c7 b9 b9 ba 36 90 b8 46 8c 91 38
       0.00035531275 -0.00035434763 -6.876649e-05 6.940267e-05
000200 46 8c 91 38 42 34 ff b8 1d aa 91 38 32 47 8f 38
       6.940267e-05 -0.00012169081 6.945825e-05 6.8320325e-05
000210 46 8c 91 b8 46 8c 91 38 46 8c 91 b8 46 84 91 b8
       -6.940267e-05 6.940267e-05 -6.940267e-05 -6.938777e-05
000220 46 8c 91 b8 46 84 91 b8 46 8c 91 b8 46 84 91 b8
       -6.940267e-05 -6.938777e-05 -6.940267e-05 -6.938777e-05
000230 46 8c 91 38 46 80 91 38 46 8c 91 38 a8 be e4 b7
       6.940267e-05 6.9380316e-05 6.940267e-05 -2.72685e-05
000240 46 84 91 b8 46 8c 91 b8 46 8c 91 b8 6a 79 91 38
       -6.938777e-05 -6.940267e-05 -6.940267e-05 6.936754e-05
000250 46 84 91 38 46 8c 91 38 46 8c 91 38 46 84 91 b8
       6.938777e-05 6.940267e-05 6.940267e-05 -6.938777e-05
000260 c4 a1 e4 b7 46 8c 91 38 46 8c 91 38 b2 07 49 39
       -2.7255046e-05 6.940267e-05 6.940267e-05 0.0001917172
000270 46 8c 91 b8 46 8c 91 38 46 84 91 b8 46 8c 91 38
       -6.940267e-05 6.940267e-05 -6.938777e-05 6.940267e-05
000280 46 84 91 b8 46 84 91 38 f9 ec 8a 38 46 8c 91 b8
       -6.938777e-05 6.938777e-05 6.6244924e-05 -6.940267e-05
000290 46 8c 91 38 46 8c 91 38 46 88 91 38 46 84 91 b8
       6.940267e-05 6.940267e-05 6.939522e-05 -6.938777e-05
0002a0 46 8c 91 b8 46 8c 91 38 46 84 91 38 6a 75 91 b8
       -6.940267e-05 6.940267e-05 6.938777e-05 -6.936009e-05
0002b0 46 8c 91 b8 a8 9e e4 b7 46 84 91 38 a8 9e e4 37
       -6.940267e-05 -2.7253598e-05 6.938777e-05 2.7253598e-05
0002c0 46 84 91 38 46 84 91 b8 6a 75 91 38 46 8c 91 b8
       6.938777e-05 -6.938777e-05 6.936009e-05 -6.940267e-05
0002d0 c4 61 e4 b7 46 88 91 b8 46 8c 91 b8 6a 75 91 b8
       -2.7225244e-05 -6.939522e-05 -6.940267e-05 -6.936009e-05
0002e0 a8 be e4 37 46 8c 91 38 34 2a 91 38 34 2a 91 b8
       2.72685e-05 6.940267e-05 6.922e-05 -6.922e-05
0002f0 34 2a 91 b8 00 0f c1 36 00 0f c0 b6 00 0f c0 b6
       -6.922e-05 5.7535945e-06 -5.723792e-06 -5.723792e-06
000300 00 0f c1 b6 00 0f c1 b6 00 0f c1 b6 00 0f c0 36
       -5.7535945e-06 -5.7535945e-06 -5.7535945e-06 5.723792e-06
000310 00 0f c0 36 00 0f c0 36 00 0f c0 36 00 0f c0 36
       5.723792e-06 5.723792e-06 5.723792e-06 5.723792e-06
000320 00 0f c0 36 00 0f c0 36 00 9b c0 36 00 0f c0 36
       5.723792e-06 5.723792e-06 5.7400903e-06 5.723792e-06
000330 00 0f c0 36 00 0f c0 36 00 0f c0 b6 00 0f c0 36
       5.723792e-06 5.723792e-06 -5.723792e-06 5.723792e-06
000340 00 0f c0 b6 00 0f c0 36 00 0f c0 36 00 0f c0 36
       -5.723792e-06 5.723792e-06 5.723792e-06 5.723792e-06
000350 00 0f c0 36 00 0f c0 b6 00 0f c0 36 00 9b c0 b6
       5.723792e-06 -5.723792e-06 5.723792e-06 -5.7400903e-06
000360 00 0f c0 36 00 0f c0 36 00 0f c0 36 00 0f c0 b6
       5.723792e-06 5.723792e-06 5.723792e-06 -5.723792e-06
000370 00 0f c0 b6 00 9b c0 36 00 0f c0 b6 00 0f c0 36
       -5.723792e-06 5.7400903e-06 -5.723792e-06 5.723792e-06
000380 00 0f c0 36 00 0f c0 b6 00 0f c0 b6 00 0f c0 b6
       5.723792e-06 -5.723792e-06 -5.723792e-06 -5.723792e-06
000390 00 0f c0 36 00 0f c0 36 00 0f c0 b6 00 0f c0 36
       5.723792e-06 5.723792e-06 -5.723792e-06 5.723792e-06
0003a0 00 0f c0 36 00 0f c0 b6 00 0f c0 b6 00 0f c0 b6
       5.723792e-06 -5.723792e-06 -5.723792e-06 -5.723792e-06
0003b0 00 9b c0 36 00 0f c0 36 00 9b c0 b6 00 0f c0 b6
       5.7400903e-06 5.723792e-06 -5.7400903e-06 -5.723792e-06
0003c0 00 0f c0 36 00 0f c0 36 00 0f c0 36 00 0f c0 b6
       5.723792e-06 5.723792e-06 5.723792e-06 -5.723792e-06
0003d0 00 9b c0 b6 00 0f c0 36 00 0f c0 36 00 0f c0 b6
       -5.7400903e-06 5.723792e-06 5.723792e-06 -5.723792e-06
0003e0 00 0f c0 b6 00 d7 bf 36 00 ea bf b6 00 d7 bf 36
       -5.723792e-06 5.717273e-06 -5.7194848e-06 5.717273e-06
0003f0 4e a7 97 3a 6c a6 97 3a f0 a6 97 3a 2e a8 97 3a
       0.0011570246 0.0011569983 0.0011570137 0.0011570507

l1.bias f4 [256]
000000 81 e9 23 bf 69 d5 25 bf 07 47 a3 bf eb 54 7c bf
       -0.64028174 -0.64778763 -1.2756051 -0.98567075
000010 05 27 15 bf 87 f1 4e bf aa 36 1a bf 9e c5 40 bf
       -0.58262664 -0.8083729 -0.6023966 -0.7530154
000020 0f 76 3a bf ec 6a 67 bf a0 cd 31 bf d7 3c 54 bf
       -0.72836393 -0.90397525 -0.69454384 -0.82905334
000030 1d 34 a8 bf e9 cf 68 bf 6a ae 0d bf 8b 8c aa bf
       -1.3140904 -0.90942246 -0.5534426 -1.332414
000040 ae b6 56 bf d2 6e 30 bf c4 43 32 bf 69 4a bd be
       -0.838725 -0.689191 -0.6963465 -0.36970833
000050 b1 9c 42 bf e5 7f 69 bf cd 83 fb be b8 fd 46 bf
       -0.7602034 -0.91210777 -0.49123994 -0.77730894
000060 28 49 8a bf 38 1a 56 bf 54 4e 46 bf f5 a9 45 bf
       -1.0803576 -0.83633757 -0.7746327 -0.7721246
000070 61 f0 6a bf 6f 6d 97 bf 82 ac 87 bf f1 d2 50 bf
       -0.9177304 -1.1830271 -1.059952 -0.8157187
000080 4f 1a 14 bf 28 94 6f bf 0b ab 5c bf 8c f0 65 bf
       -0.57852644 -0.93585443 -0.8619849 -0.8982017
000090 9f a2 74 bf 95 de 54 bf b3 8e 30 bf 0c 6a 29 bf
       -0.9556064 -0.83152133 -0.6896774 -0.6617744
0000a0 89 c6 c3 bf 8f 75 1f bf 27 ec 97 be a4 25 1b bf
       -1.5294963 -0.62288755 -0.29672357 -0.6060431
0000b0 fa dd 35 bf c1 62 4c bf 1a 9d 3d bf d5 7b 4f bf
       -0.71041834 -0.79838187 -0.7406784 -0.8104833
0000c0 db d7 35 bf 24 fd 42 bf 89 3d 7a bf 89 85 9a bf
       -0.71032494 -0.7616751 -0.97750145 -1.2072002
0000d0 fb 45 80 bf aa 2a 5e bf ca 60 cb be a0 51 9d bf
       -1.0021356 -0.8678385 -0.39722282 -1.2290535
0000e0 a2 a0 43 bf d2 7d 2b bf ba 1b 3a bf b3 ee 0f bf
       -0.7641698 -0.6698886 -0.7269856 -0.562236
0000f0 81 7d 95 bf c4 b4 3f bf 12 27 40 bf 3b 68 3c bf
       -1.1678926 -0.748852 -0.75059617 -0.73596543
000100 86 f0 20 bf 19 ce 5c bf 0a e1 82 bf b3 c3 48 bf
       -0.6286701 -0.8625198 -1.0224926 -0.78423613
000110 82 f3 3d bf 1b fa 5a bf 05 5f 89 bf 0a 82 46 bf
       -0.7419969 -0.8553788 -1.0732123 -0.77542174
000120 9a 12 0f bf 93 5d 26 bf 83 64 41 bf e2 da 58 bf
       -0.5588776 -0.6498653 -0.75543994 -0.8470899
000130 9c 85 31 bf 43 14 32 bf a0 f6 6f bf ab 38 7a bf
       -0.69344497 -0.69562167 -0.93735695 -0.9774272
000140 29 7f 3f bf d8 1a 3d bf cf d1 74 bf ba 13 85 bf
       -0.74803406 -0.73869085 -0.9563264 -1.0396645
000150 64 5c 4e bf 0e ac c3 bf f6 24 3b bf f5 63 28 bf
       -0.80609727 -1.5286882 -0.7310327 -0.6577752
000160 c8 d8 b3 bf 40 73 42 bf 6d 27 2c bf f4 af 3c bf
       -1.4050531 -0.7595711 -0.6724766 -0.73705983
000170 a7 01 1c bf fc 18 2c bf 48 89 36 bf bf e8 91 bf
       -0.6094002 -0.67225623 -0.71303225 -1.1399153
000180 98 cb 19 bf 3c b7 55 bf 7f dc 69 bf 66 9f 59 bf
       -0.60076284 -0.8348272 -0.91352075 -0.8500885
000190 86 4d 5e bf 80 3b ff be 88 1f 5b bf 53 7f 94 bf
       -0.8683704 -0.49850082 -0.8559499 -1.1601356
0001a0 18 df 49 bf f8 19 33 bf 0a 83 26 bf 35 d3 31 bf
       -0.7885604 -0.699615 -0.650437 -0.694629
0001b0 3f 2f 36 bf 22 f1 71 bf 46 64 6e bf 0b 31 3a bf
       -0.7116584 -0.94508564 -0.93121755 -0.72731084
0001c0 de d4 3c bf 5f 3b 2c bf 58 c9 71 be 8f 8b 5f bf
       -0.7376231 -0.67278093 -0.23611963 -0.87322325
0001d0 3a df eb be 69 ac aa be 65 e3 59 bf 5b 78 8e bf
       -0.46068746 -0.33334664 -0.851126 -1.113048
0001e0 7c 07 3e bf 68 16 91 bf a4 f7 76 bf 97 24 44 bf
       -0.7423017 -1.1334963 -0.9647162 -0.7661833
0001f0 d0 d1 36 bf 05 7f eb be c1 d0 4d bf 8c 87 1d bf
       -0.714139 -0.45995346 -0.8039666 -0.61534953
000200 20 c7 4a bf c5 5e 35 bf b3 60 56 bf f1 bd 4a bf
       -0.7921009 -0.7084773 -0.837413 -0.7919608
000210 22 20 4e bf 35 94 82 bf 41 6c 6d bf 08 70 3c bf
       -0.8051778 -1.0201479 -0.9274331 -0.73608446
000220 09 b4 1e bf 25 fc 15 bf a6 57 3f bf 87 c1 34 bf
       -0.6199346 -0.5858787 -0.74743116 -0.706078
000230 3c d1 52 bf c0 02 59 bf 98 d5 27 bf e7 dd 6d bf
       -0.82350516 -0.8476982 -0.65560293 -0.9291672
000240 e5 7a 46 bf 4c 21 77 bf c3 29 74 bf 72 ba 75 bf
       -0.7753127 -0.9653518 -0.95376223 -0.9598762
000250 7f 7a 57 bf e8 56 30 bf 26 49 1e bf 6b c8 71 bf
       -0.8417129 -0.6888261 -0.61830366 -0.9444644
000260 b4 f1 9b bf 4c da a8 bf 2a 59 86 bf 3c 63 82 bf
       -1.2183137 -1.3191619 -1.0495961 -1.0186534
000270 06 5c 54 bf 04 91 f3 bf a3 a0 26 bf 4a 79 74 bf
       -0.82952917 -1.902863 -0.6508886 -0.9549757
000280 9e d7 25 bf d1 4c a4 bf 2f db 52 bf 79 3d 8a bf
       -0.6478213 -1.2835943 -0.823657 -1.080001
000290 19 35 4c 40 1c 8a 23 bf 97 f0 5f bf 29 c0 54 bf
       3.1907408 -0.63882613 -0.87476486 -0.83105713
0002a0 80 8e 9c bf bb 01 65 bf 72 a2 90 bf 21 7b 7d bf
       -1.2230988 -0.89455765 -1.1299574 -0.99016005
0002b0 3f ff 73 bf 2a 05 6f bf 0b d8 ff be 91 91 99 bf
       -0.9531135 -0.93367255 -0.49969515 -1.1997548
0002c0 1c ee 52 bf 55 82 12 bf b2 e1 23 bf 19 fc 87 bf
       -0.82394576 -0.5723012 -0.6401626 -1.0623809
0002d0 19 c2 52 bf 4a 03 54 bf f0 8b 48 bf ca c1 59 bf
       -0.8232742 -0.8281752 -0.7833853 -0.85061324
0002e0 93 cf a4 bf 49 4a fc be 2c 6b 8c bf a7 7c 16 bf
       -1.2875847 -0.49275425 -1.0970206 -0.58783954
0002f0 95 0d 89 bf b6 07 fc be 33 a4 34 bf b0 e5 75 bf
       -1.070727 -0.49224633 -0.7056305 -0.960536
000300 ec 99 42 bf 59 57 03 bf 6e e2 61 bf d0 15 6a bf
       -0.76016116 -0.51305157 -0.8823613 -0.91439533
000310 5b 12 34 bf c3 02 88 bf a6 95 08 bf 34 63 94 be
       -0.7034051 -1.0625843 -0.53353345 -0.28981936
000320 42 c0 5c bf e0 22 25 bf ee 42 3c bf 2a 9a 42 bf
       -0.8623086 -0.6450634 -0.73539627 -0.76016486
000330 15 b5 35 bf f3 51 4e bf 07 94 7a bf 06 10 46 bf
       -0.70979434 -0.80593795 -0.9788212 -0.773682
000340 c1 9a aa bf 47 45 72 bf 21 ab 83 bf eb 3d 7f bf
       -1.3328477 -0.9463696 -1.0286599 -0.99703854
000350 72 75 9c bf ab 0c 51 bf 3b 6c 94 bf 4d 15 2f bf
       -1.2223341 -0.81659955 -1.1595529 -0.6839188
000360 56 e9 80 bf ff 3a 4f bf f1 47 20 bf 58 cc 0c bf
       -1.0071208 -0.80949396 -0.62609774 -0.54999304
000370 5f b0 6c bf ed 2a 52 bf 21 c4 55 bf 46 7d d4 bf
       -0.9245662 -0.8209675 -0.83502394 -1.660073
000380 25 aa 45 bf 5a 82 77 bf 30 15 8b bf 68 d9 41 bf
       -0.77212745 -0.96683276 -1.0865841 -0.7572236
000390 d9 55 68 bf e5 92 ac bf cc e2 54 bf b9 89 41 bf
       -0.90755993 -1.3482329 -0.83158565 -0.75600773
0003a0 1d 50 80 bf 97 47 61 bf 57 0d 6a bf 96 4a 65 bf
       -1.0024449 -0.8799986 -0.91426605 -0.89566934
0003b0 aa 5a 9e bf ed 57 6c bf 48 2e 86 bf 8d 2d 4c bf
       -1.2371418 -0.92321664 -1.0482874 -0.79757005
0003c0 15 7a 67 bf 43 de 32 bf 6a bc 32 bf 31 db a5 bf
       -0.9042066 -0.69870394 -0.6981875 -1.2957517
0003d0 d7 f1 65 bf 44 85 5d bf 23 0d 3a 40 3d 74 60 bf
       -0.89822143 -0.8653147 2.9070518 -0.87677366
0003e0 6e bd 19 bf 7a 1e 5e bf 59 57 32 bf b7 f3 2b bf
       -0.6005467 -0.86765254 -0.6966453 -0.67168754
0003f0 ee bb 53 bf 12 22 7b bf 4a 0f 28 bf e5 e6 36 bf
       -0.8270863 -0.9809886 -0.6564833 -0.7144607
