TABULAR/Figure1Reproduce/Poisoned/ADULT_GRAD_FCN_e=0.1_g=0.0_a=1.0_l=2_h=256_s=True_p=0.0.pt (torch, 332951 bytes, 10 tensors)

lays.0.weight f4 [256, 63]
000000 d1 89 74 ba 27 9b 78 3a 65 7a 74 ba b0 54 2d 38
       -0.00093283976 0.0009483569 -0.00093260995 4.1325286e-05
000010 b2 6d 69 3a 44 00 e2 39 c0 8b cf 37 74 63 77 ba
       0.00089045905 0.00043106277 2.47414e-05 -0.0009437122
000020 40 06 ca 37 40 06 ca 37 40 06 ca 37 df 87 62 3a
       2.4083187e-05 2.4083187e-05 2.4083187e-05 0.0008641462
000030 48 c0 1c b8 d2 61 73 3a 06 d2 71 ba d9 41 2e 3b
       -3.7372374e-05 0.0009284291 -0.00092247163 0.0026589541
000040 a0 28 5a b8 99 53 74 3a 60 d7 5d ba 43 24 77 3a
       -5.2013085e-05 0.00093203183 -0.00084625743 0.00094277057
000050 40 06 ca b7 cd 50 54 3a f8 c7 af 3a e0 18 ca 37
       -2.4083187e-05 0.00080991985 0.0013411036 2.409186e-05
000060 73 ef 5d 3a 40 06 ca 37 de b5 a3 3a c5 89 b5 ba
       0.00084661617 2.4083187e-05 0.0012490114 -0.0013850263
000070 b5 f8 b0 ba a3 f0 64 3a 40 06 ca 37 94 81 b3 ba
       -0.0013501855 0.00087333674 2.4083187e-05 -0.0013695234
000080 91 28 79 ba 7d 20 d0 b9 38 83 b2 3a 12 58 6a 3a
       -0.0009504641 -0.00039697057 0.0013619429 0.0008939515
000090 3d 47 6d 3a 40 fe c9 b7 7c cc 70 ba 40 06 ca b7
       0.0009051448 -2.4079462e-05 -0.0009185744 -2.4083187e-05
0000a0 0f 39 55 3a 11 ea 6b 3a 4c f6 de b9 f9 56 6a 3a
       0.00081338076 0.0008999417 -0.00042526645 0.00089393515
0000b0 40 06 ca b7 4c e3 b0 3a 9f f3 6a 3a 00 d4 5f b8
       -2.4083187e-05 0.0013495474 0.0008962694 -5.3364784e-05
0000c0 f4 fe 6f ba 12 e5 e5 39 37 f3 1b bb 06 33 ab ba
       -0.00091551174 0.00043848954 -0.002379609 -0.0013061471
0000d0 ea f8 b1 3a 00 ca 58 ba 61 45 66 3a a4 30 ac 3a
       0.001357821 -0.00082698464 0.0008784142 0.0013137055
0000e0 db cf e5 39 45 82 7a 3a 2a 45 b1 3a 0f dd 1b bb
       0.00043833148 0.0009556155 0.0013524641 -0.0023782884
0000f0 90 b2 c4 b7 e0 ff 5c 38 85 d7 58 ba 19 a7 d8 3b
       -2.344817e-05 5.269039e-05 -0.0008271861 0.0066117165
000100 ec 2d da 3b 8a 43 da 3b 02 bf d2 bb dc 6d d9 bb
       0.0066583063 0.0066608833 -0.0064314613 -0.0066354107
000110 52 32 44 3c 7a 3a d7 bb 28 99 45 3c 57 43 da bb
       0.011974888 -0.0065682502 0.012060441 -0.0066608596
000120 8a 43 da 3b 8a 43 da bb 22 44 da 3b fb b7 45 bc
       0.0066608833 -0.0066608833 0.006660954 -0.01206779
000130 3d 3a da 3b dc 3d da bb 2c d2 d8 3b d3 1f 45 bc
       0.0066597746 -0.0066602062 0.0066168513 -0.012031513
000140 23 02 d7 bb b5 00 d7 bb 22 3f 46 bc 8a 43 da bb
       -0.006561534 -0.0065613636 -0.012100013 -0.0066608833
000150 b8 d1 43 3c 32 91 45 3c 8a 43 da 3b bc 87 42 3c
       0.011951856 0.012058543 0.0066608833 0.011873182
000160 97 fc 45 bc e5 5d d9 3b d0 3f d7 3b 48 4b da bb
       -0.012084148 0.0066335076 0.0065688863 -0.0066618063
000170 31 f4 d6 3b 8a 43 da bb 76 28 d7 bb c0 58 da 3b
       0.0065598716 -0.0066608833 -0.0065661026 0.006663412
000180 97 9d 45 3c 0a 99 45 3c ea a4 44 3c 99 bb 45 bc
       0.012061498 0.012060413 0.012002209 -0.012068653
000190 8a 43 da bb 7b 51 d7 3b cc 02 da 3b 6a ab 45 3c
       -0.0066608833 0.0065709925 0.0066531654 0.012064794
0001a0 10 9d 45 3c 7a 90 d9 bb de 37 46 3c 8a 43 da 3b
       0.012061372 -0.0066395374 0.012098281 0.0066608833
0001b0 4d 3f 43 bc 8a 43 da 3b f6 63 43 3c af c5 42 3c
       -0.011916948 0.0066608833 0.011925688 0.011887952
0001c0 42 51 44 3c 3c a5 44 bc 2f 53 d9 bb 62 37 da 3b
       0.011982264 -0.012002286 -0.0066322307 0.006659434
0001d0 af ac d8 bb 4e f6 d4 bb bc af 41 3c 7f e8 d4 bb
       -0.0066123824 -0.0064990884 0.0118216835 -0.0064974423
0001e0 f4 ff d9 bb 5e a2 3e 3c a8 e3 d7 bb 16 9d 45 bc
       -0.0066528264 0.011635391 -0.006588418 -0.012061378
0001f0 e0 48 da 3b 00 9e 45 3c 5c 64 c4 3b 56 65 1b bb
       0.0066615194 0.012061596 0.005993409 -0.0023711524
000200 38 69 19 bb 24 cc 63 bc 27 a7 5c 3c 9e dc 57 bc
       -0.0023408663 -0.013903651 0.013467587 -0.013175158
000210 32 86 78 3c 9d 69 19 bb 38 69 19 3b 38 69 19 bb
       0.015168713 -0.0023408898 0.0023408663 -0.0023408663
000220 22 68 19 3b 38 69 19 bb 2b 08 83 3c ef 77 97 3c
       0.0023408015 -0.0023408663 0.015995106 0.018489806
000230 9e 7c 81 3c e6 63 1b bb 38 69 19 3b c7 90 97 bc
       0.015806492 -0.0023710667 0.0023408663 -0.018501652
000240 92 96 58 bc 38 69 19 bb 9f 69 19 3b c4 0e c2 3b
       -0.0132194925 -0.0023408663 0.0023408902 0.0059221704
000250 21 54 9c bb 38 69 19 bb cb 6f 58 bc 38 69 19 3b
       -0.004770771 -0.0023408663 -0.013210247 0.0023408663
000260 1a f0 81 bc 7c 57 77 3c a2 7e 81 3c fd 7e 81 3c
       -0.01586156 0.0150965415 0.015807454 0.015807623
000270 38 69 19 bb aa 75 c4 bb 03 67 58 bc 38 69 19 bb
       -0.0023408663 -0.005995472 -0.013208154 -0.0023408663
000280 7b 0a 18 bb 32 56 b1 3b 16 c5 5c bc 38 69 19 bb
       -0.0023199606 0.0054118866 -0.013474723 -0.0023408663
000290 a7 07 83 bc ea 1c 8f bb 16 23 64 bc 84 03 7a bc
       -0.01599486 -0.0043674605 -0.013924381 -0.015259627
0002a0 19 80 b1 3b 38 69 19 3b 93 69 19 bb 07 bf 63 3c
       0.0054168818 0.0023408663 -0.0023408874 0.013900525
0002b0 09 80 b1 bb ca 81 57 bc a5 2f 81 3c 35 0c 78 bc
       -0.0054168743 -0.013153503 0.015769789 -0.015139629
0002c0 72 42 5d 3c 93 69 19 bb 35 f6 b0 3b 2e 49 81 bc
       0.013504611 -0.0023408874 0.005400444 -0.015781965
0002d0 3e 5f 19 bb fa ac 58 bc da 63 19 3b a6 9b 81 3c
       -0.0023402716 -0.013224835 0.0023405463 0.01582129
0002e0 08 8d 78 3c d2 0c 8f 3b fe 69 19 3b 98 23 2f bc
       0.015170343 0.004365542 0.0023409124 -0.010689639
0002f0 02 69 19 bb 5c 14 08 39 5c 28 fe 3a 68 0e 8b b9
       -0.0023408537 0.00012977555 0.001939069 -0.0002652288
000300 e9 31 e0 3a 4f 1f 8f 3a 44 a4 ab ba 98 d5 13 b9
       0.0017104718 0.0010919365 -0.001309522 -0.00014098582
000310 d1 67 e8 ba 54 dd 13 b9 54 dd 13 b9 5a 5c ee 3a
       -0.0017731135 -0.00014101464 -0.00014101464 0.0018185482
000320 54 dd 13 39 91 09 f6 3a 9c d4 15 39 ce 21 90 b9
       0.00014101464 0.0018771162 0.0001428895 -0.00027491007
000330 41 93 0b bb 54 dd 13 b9 73 a3 4f 3a 07 0d 13 3b
       -0.0021297487 -0.00014101464 0.0007920779 0.0022438185
000340 54 dd 13 b9 54 dd 13 b9 4b f3 d9 39 9c d6 c3 b9
       -0.00014101464 -0.00014101464 0.00041570733 -0.00037353195
000350 54 dd 13 39 38 70 f5 38 d0 4b 1c 39 bc 38 91 39
       0.00014101464 0.00011703413 0.00014905562 0.00027698826
000360 5c c0 a9 ba 3b f4 01 3b c0 d5 e8 3a 54 dd 13 39
       -0.0012951004 0.001982941 0.0017763898 0.00014101464
000370 2e fc 95 39 f1 9d b0 39 96 ed 4b 39 77 5e e0 ba
       0.00028607383 0.0003368701 0.00019448096 -0.0017117996
000380 e7 e4 f2 ba 32 8a e2 3a 80 33 16 b9 c5 9c ec 3a
       -0.0018531353 0.0017283617 -0.000143243 0.0018052092
000390 54 db 13 39 f5 9b e1 ba 3a e5 a6 39 24 28 cb ba
       0.00014100719 -0.0017212617 0.00031832774 -0.0015499634
0003a0 54 dd 13 b9 d2 d2 01 bb bb 43 05 bb 00 3d 7c b6
       -0.00014101464 -0.0019809497 -0.002033456 -3.7586433e-06
0003b0 80 7c 07 b8 03 de f0 3a 9f 78 f5 3a 9e d3 37 3b
       -3.2302458e-05 0.0018376712 0.0018727964 0.0028049718
0003c0 ce f1 a2 ba 0f 2d 03 bb b7 ee 2e bb cd 7a a4 ba
       -0.0012431683 -0.002001587 -0.0026692578 -0.0012548805
0003d0 22 4a 20 3a 56 aa 22 39 e0 dc 13 b9 85 f6 04 ba
       0.0006114562 0.00015512979 -0.00014101295 -0.00050721347
0003e0 c6 22 1a b9 23 b7 08 3b 38 34 fa b8 fa d0 01 bb
       -0.00014699539 0.002086111 -0.000119306555 -0.0019808398
0003f0 b1 8c c6 3b e7 82 c5 3b 56 4f c6 bb 6d 1a c4 3b
       0.006059252 0.0060275677 -0.006051938 0.0059845955

lays.0.bias f4 [256]
000000 14 83 c0 be b7 59 c5 be 36 83 1f bf 5a b1 07 bf
       -0.37600005 -0.3854501 -0.62309587 -0.5300499
000010 7b 53 42 bf 3e 61 59 bf 11 26 f5 be 2d 37 45 bf
       -0.7590863 -0.84914005 -0.47880605 -0.77037317
000020 ad 8e 05 bf 18 df 6d bf d4 e3 48 bf d9 e4 07 bf
       -0.5217083 -0.9291854 -0.7847264 -0.5308357
000030 2f bd 85 bf d2 ea 39 bf 1b 1a 0d bf 50 24 5f bf
       -1.0448359 -0.7262393 -0.5511796 -0.87164783
000040 81 e1 03 bf 95 ca 6b bf 6d 8a 84 bf 6c 32 41 bf
       -0.51515967 -0.9210599 -1.0354744 -0.7546756
000050 4c 01 22 bf af c0 31 bf 03 43 62 bf ce d0 d3 be
       -0.6328323 -0.69434637 -0.883835 -0.41370243
000060 87 05 04 bf 6c c7 02 bf e1 9a 09 bf 40 63 9b be
       -0.51570934 -0.51085544 -0.5375195 -0.3034916
000070 ce 30 5a bf 34 73 20 bf 1a 7f 13 bf ee 75 87 be
       -0.8523072 -0.62675786 -0.57615817 -0.2645716
000080 4f ab 33 bf 82 b7 0c bf c4 cb 8a bf 81 29 60 bf
       -0.7018327 -0.5496751 -1.0843434 -0.8756333
000090 21 bc 0c bf 98 fe da be eb 8c 22 bf b0 48 15 bf
       -0.5497456 -0.42772365 -0.63496274 -0.5831404
0000a0 aa ab 55 bf a5 e1 0c bf 50 11 18 bf d7 fa 17 bf
       -0.83465064 -0.55031806 -0.59401417 -0.59367126
0000b0 93 6a 05 bf 2e 4a 0a bf 2c 7e df be cd a7 3e bf
       -0.52115744 -0.5401944 -0.4365095 -0.74474794
0000c0 81 40 06 bf 9b d7 13 bf 65 50 1c bf 28 e2 ed be
       -0.52442175 -0.5775086 -0.6106017 -0.46461606
0000d0 c1 5d 16 bf d3 cf b2 be ca 04 21 bf b6 ab 7a bf
       -0.5873681 -0.34924182 -0.6289793 -0.9791826
0000e0 a3 e4 08 bf 07 d0 19 bf b1 03 ae be 97 14 fb be
       -0.5347387 -0.6008305 -0.3398719 -0.49039146
0000f0 60 6f 31 bf 0d ed 5c 40 cf 6a d7 be f4 6d 13 bf
       -0.6931057 3.4519684 -0.42073676 -0.5758965
000100 e9 0f 21 bf 82 24 44 bf d7 57 28 bf ce 81 54 bf
       -0.629149 -0.76618207 -0.6575903 -0.83010566
000110 0c 8c 09 bf 3d aa 34 bf 0c 3f 02 bf 27 4c 2d bf
       -0.5372932 -0.70572263 -0.5087745 -0.67694324
000120 7f a5 fd be e5 d3 47 bf 15 a5 ae be fd 1f 4f bf
       -0.49540326 -0.780577 -0.34110323 -0.80908185
000130 51 00 d4 be ac 0d ee be bf 28 0c bf c2 93 0b bf
       -0.4140649 -0.46494806 -0.54749674 -0.54522336
000140 32 1d 5f bf b8 55 91 bf 20 0c 16 bf 78 a0 db be
       -0.87153924 -1.1354284 -0.5861225 -0.42895865
000150 78 9c 23 bf e9 cf 3f bf f7 e9 84 bf 2a 30 19 bf
       -0.6391063 -0.7492662 -1.03839 -0.5983912
000160 a0 72 3f bf cf b5 4e bf 08 4c eb be 35 b2 95 be
       -0.7478428 -0.8074617 -0.45956445 -0.29237524
000170 c7 eb 4c bf e6 e3 3e bf fd b7 ad be 4f 16 c8 be
       -0.8004727 -0.74566495 -0.33929434 -0.3907952
000180 75 05 ea be 6a 7d 3b bf dd ff 11 bf 98 f4 06 bf
       -0.45707288 -0.7323824 -0.5703104 -0.5271697
000190 25 3e 59 bf a6 8d 2f bf c2 60 1b bf 83 66 b9 be
       -0.8486045 -0.68575513 -0.60694516 -0.36211023
0001a0 d3 8e 09 bf 7a 5f 11 bf 20 0a fb be 8b 91 3d bf
       -0.5373356 -0.5678631 -0.49031162 -0.74050206
0001b0 d0 d8 ff be a2 d4 87 bf 5b 1d d1 be 6f e5 f4 be
       -0.49970102 -1.0611765 -0.4084271 -0.47831294
0001c0 79 e3 f6 be 82 85 ff be 89 2d 18 bf 96 b8 48 bf
       -0.48220423 -0.49906546 -0.5944448 -0.78406656
0001d0 b5 5d ff be 20 00 5d bf 59 ec 29 bf be ec d6 be
       -0.4987618 -0.86328316 -0.6637626 -0.41977495
0001e0 d0 67 36 bf 30 02 16 bf b3 9f 45 bf 2b 0c 31 bf
       -0.71252155 -0.5859709 -0.77196807 -0.6915919
0001f0 c6 6a 06 bf df f1 fe be 6e 81 e0 be 71 71 26 bf
       -0.52506673 -0.49793908 -0.43848747 -0.6501685
000200 7b 81 3b bf 18 1b f0 be 14 8b 2f bf b5 5c 25 bf
       -0.73244447 -0.4689567 -0.6857159 -0.64594585
000210 2d 6d 19 bf 08 89 2b bf a3 7a da be 16 9d 2d bf
       -0.59932214 -0.6700597 -0.4267169 -0.6781782
000220 d3 35 05 bf 11 f9 26 bf 57 5f f0 be a2 1f ba be
       -0.52035254 -0.65223795 -0.4694774 -0.3635226
000230 3e a4 6e bf 6e ff 0c bf 81 36 37 bf 69 55 62 bf
       -0.93219364 -0.55077255 -0.7156754 -0.88411576
000240 17 c4 3e bf f3 c2 35 bf 08 c0 46 bf d4 c7 fe be
       -0.7451796 -0.71000594 -0.77636766 -0.49761832
000250 cd b2 1e bf 85 c9 f9 be 9d 58 17 bf df 5c 40 bf
       -0.6199158 -0.4878656 -0.5911959 -0.7514171
000260 6c fb 25 bf a0 8d ed be 76 00 da be 36 3c 8b bf
       -0.64836764 -0.46397114 -0.42578477 -1.087775
000270 f3 21 0f bf 87 18 bd be 5c 6c ee be fd 66 ec be
       -0.5591118 -0.36932775 -0.46567047 -0.46172324
000280 2a 99 0f bf 73 16 44 bf 22 08 c8 be eb 5e 4a bf
       -0.56093085 -0.76596755 -0.39068705 -0.79051083
000290 4c bd ef be 6c 39 3b bf ca cb 1c 40 28 a5 f4 be
       -0.4682411 -0.73134494 2.4499383 -0.47782254
0002a0 94 56 32 bf 99 30 ef be d5 2d ff be b8 68 05 bf
       -0.6966336 -0.46716765 -0.49839655 -0.52112913
0002b0 3b eb 1f bf 69 03 10 bf 4d 29 61 bf a7 d2 02 bf
       -0.6246831 -0.56255203 -0.87953645 -0.5110268
0002c0 82 5b c8 be 49 a1 38 bf 7a 27 59 bf 5d 56 0a bf
       -0.39132315 -0.721211 -0.8482586 -0.5403803
0002d0 40 9d 6b bf 0f 04 1c bf 22 2a 83 bf 8a f9 5e bf
       -0.9203682 -0.6094369 -1.0247233 -0.87099516
0002e0 61 2f 29 bf 1c 73 17 bf 1f ee 5d bf 91 7f 0e bf
       -0.6608792 -0.5916002 -0.8669147 -0.556634
0002f0 87 51 36 bf b2 2e fc be 25 fe 1b bf 8a f6 65 bc
       -0.7121815 -0.49254376 -0.6093467 -0.01403583
000300 71 13 12 bf 71 20 f7 be f1 7b 68 bf b0 82 12 bf
       -0.57060915 -0.48266938 -0.9081412 -0.57230663
000310 fa d2 12 bf 6d 21 0c bf c2 dd 95 bf 49 b4 f1 3f
       -0.57353175 -0.54738504 -1.17083 1.8883144
000320 39 a1 24 bf 66 bc 46 bf 5a 85 3b bf 95 68 21 bf
       -0.64308506 -0.77631223 -0.73250353 -0.63050205
000330 e4 69 08 bf 14 4e 8a bf 24 63 d7 be 66 8e 20 bf
       -0.53286576 -1.0805078 -0.42067826 -0.6271728
000340 dd e8 1a bf ea 80 10 bf e2 c9 31 bf d6 c7 e5 be
       -0.6051157 -0.5644671 -0.69448674 -0.44879025
000350 ad 6b 7d bf c8 e0 d4 be 6d e9 23 bf ae 1c fb be
       -0.98992425 -0.41577744 -0.64028054 -0.49045318
000360 17 e8 1f bf 84 9e d6 be 2b de 48 bf 62 51 de be
       -0.62463516 -0.41917813 -0.78464 -0.43421465
000370 4f ad 45 bf ec ab 7f be 90 25 49 bf 45 f8 03 bf
       -0.7721757 -0.24967927 -0.7857294 -0.51550704
000380 c0 b9 3c bf 5a 91 2b bf eb 73 47 bf aa 44 7f bf
       -0.7372093 -0.67018664 -0.7791125 -0.9971415
000390 e2 1e 29 bf 42 85 2e bf 54 78 57 bf 72 09 4e bf
       -0.6606275 -0.68172085 -0.8416798 -0.8048316
0003a0 1c dc c8 be 3e d0 f4 be 5b 48 14 bf 3f a2 f8 be
       -0.3923043 -0.47815126 -0.57922906 -0.48561284
0003b0 28 e4 2d bf ab 80 f1 be 58 0d 14 bf 87 e8 2e bf
       -0.67926264 -0.47168478 -0.5783286 -0.6832356
0003c0 20 5a 13 bf 5e 1d 18 bf e0 ae 46 bf 77 71 41 bf
       -0.57559395 -0.5941981 -0.7761059 -0.7556376
0003d0 d9 04 21 bf cd 56 15 bf 03 45 1b bf e3 b1 4e bf
       -0.6289802 -0.5833557 -0.6065218 -0.80740184
0003e0 e8 d5 20 bf 4b 6e 28 bf 08 5f 17 bf 19 e4 21 bf
       -0.62826395 -0.65793294 -0.5912938 -0.63238674
0003f0 77 ea 87 bf eb c0 9b be 63 32 22 bf 02 b5 30 bf
       -1.0618428 -0.30420622 -0.63358134 -0.69026196

lays.1.weight f4 [256, 256]
000000 3b 3f a3 3c 39 bb 21 bd db 37 36 bd 38 92 56 3d
       0.019927612 -0.03948519 -0.04448686 0.05238554
000010 3a 87 4a bb 12 59 3f bd 55 8f d4 bd 92 e4 55 bd
       -0.0030903355 -0.046715803 -0.10378901 -0.052219935
000020 4d 3b 63 3d a8 96 f1 bd b1 5a 87 bc 8d 40 4d bd
       0.055476476 -0.117963135 -0.016522737 -0.05011039
000030 a9 9f 35 bc 45 f5 02 bd 31 0e 3a 3d e6 09 6a bc
       -0.011085429 -0.03197219 0.04542369 -0.0142845865
000040 56 82 86 bd 23 0a 37 3d f4 69 aa 3c 82 1d 39 3d
       -0.06567828 0.0446874 0.020802476 0.045194156
000050 8a 37 8e bc 74 14 10 bd 05 24 28 3d 43 66 50 bd
       -0.017360467 -0.035175756 0.041049976 -0.050878774
000060 9c b5 5c 3d 6d 48 f4 3c fb 03 2c bd 5a 4e 75 bd
       0.053884134 0.029819692 -0.041995984 -0.059889175
000070 66 2a aa bc 2f 91 39 3d cc 05 35 bd 71 42 93 bd
       -0.02077217 0.045304473 -0.04419498 -0.07190407
000080 a4 a2 64 bd 08 63 84 bc 86 54 5c 3c ca 0b 10 bb
       -0.05581917 -0.016160503 0.013447886 -0.0021979683
000090 6f 2e 36 bd ce 07 e2 bd 4d 4e a8 3c 71 45 61 bd
       -0.044477876 -0.11036645 0.02054515 -0.054997865
0000a0 af 07 1d 3d 80 8b 0c bb b8 c7 bd bd a0 d1 42 bc
       0.038337406 -0.0021445453 -0.09266609 -0.011890799
0000b0 72 3c da bc c6 dc f1 3c 4d 79 a5 bd c2 83 ae bc
       -0.02664015 0.029524218 -0.08079777 -0.021303061
0000c0 24 5d c0 bd 00 67 c9 bd 9b cb bd bd 0e f5 87 3d
       -0.09392765 -0.09834099 -0.0926735 0.06638537
0000d0 c4 67 04 bd d9 79 30 3d 99 5e 55 bd 9c 8b 3b bd
       -0.03232552 0.043084953 -0.05209217 -0.04578744
0000e0 69 84 04 3d ee f8 e7 bc 16 11 94 bc cd dd c2 bd
       0.03235284 -0.028316941 -0.018074553 -0.095149614
0000f0 c2 98 1b bd a5 b6 94 bd c2 3c 95 bd 7a df e0 bd
       -0.037987478 -0.07261399 -0.07286979 -0.10980125
000100 ca 7a 1e bc 7c 48 f9 bc d0 b5 14 bd 51 a1 12 3d
       -0.00967283 -0.030430071 -0.036306202 0.035798375
000110 c5 6b 46 bd ec 49 ae bc 94 ed 4b bd ff 19 de bd
       -0.04844262 -0.021275483 -0.04978712 -0.10844802
000120 85 34 c6 bc de bb 34 bc 9c 5a 4b bd 46 6e c8 bc
       -0.024194965 -0.011031119 -0.04964696 -0.024466645
000130 79 7f a7 bc b8 59 fb 3c ec e0 62 3d a3 4b d5 bc
       -0.020446526 0.03068243 0.055390283 -0.026037043
000140 77 64 91 bd 0d 81 ea bd 2e a4 4d 3c 68 55 1c bd
       -0.0709924 -0.11450396 0.0125513505 -0.038167387
000150 40 1b 5b bd 40 4b 00 bd c3 c7 c0 bd 2e 9f 76 bd
       -0.053492785 -0.031321764 -0.094131015 -0.0602104
000160 7b f5 60 bd 81 00 10 bd 7d db b8 bd 10 75 99 bd
       -0.05492161 -0.03515673 -0.09026239 -0.07493031
000170 05 39 d4 bd 4e a4 0c 3d 55 8d 94 bd 1e ca 41 bd
       -0.10362438 0.03433638 -0.072535194 -0.047311895
000180 65 56 a2 bc 0e dd d6 bb 18 de b7 3c 4d f8 41 bd
       -0.019816587 -0.0065571135 0.02244477 -0.04735594
000190 b5 2e 69 3d 20 4c ec bd 9c 28 74 3d 3c 3c 88 bc
       0.05692931 -0.11537957 0.05960904 -0.016630284
0001a0 9d f9 3e bd 6d 6f 73 bd ca 0f dd bd 0c 71 b1 bd
       -0.04662477 -0.059432436 -0.10794027 -0.0866414
0001b0 d2 2e 52 bd 0b 24 16 bc be ce 81 bd 54 4b c8 bd
       -0.051314183 -0.009163867 -0.06338261 -0.09779993
0001c0 51 ba 11 bd f8 9b 5a bd 81 22 0b bd e9 b3 8c bd
       -0.035578076 -0.0533714 -0.033968452 -0.06870253
0001d0 16 e5 d5 bc 65 45 f5 bc 0a 25 d3 bd 73 f3 50 bd
       -0.026110213 -0.029940316 -0.10309799 -0.05101342
0001e0 9a 61 53 bd 4c 70 33 bc e4 74 8b 3c 4c 80 91 bc
       -0.051606752 -0.010952067 0.017023511 -0.017761372
0001f0 b9 47 68 bd d5 3d 54 bd 9d de 35 bd a3 49 d6 bd
       -0.056709025 -0.05181678 -0.044401754 -0.10463264
000200 3f da 30 3d a4 0b eb bd 63 01 a6 bc 30 54 82 bc
       0.043176886 -0.1147683 -0.020264333 -0.015909284
000210 89 41 b6 bd e6 3d 20 bd 26 37 b5 bc 40 54 c2 3c
       -0.088992186 -0.03912153 -0.022121023 0.023721814
000220 f4 e2 68 bd 35 ae 56 bd 3a 25 d0 bd bb 8c aa bd
       -0.056857064 -0.05241223 -0.101633504 -0.083276235
000230 0a c5 08 bd e3 8b ee bc 74 db 40 3d 25 3f 9e bc
       -0.033391036 -0.029119438 0.047084287 -0.019317219
000240 7f 43 04 bd 25 38 b2 bd a3 de 00 3d 0b 5d a6 bc
       -0.03229093 -0.08702115 0.031462323 -0.020308038
000250 7b a0 70 bd 95 1e e0 bc 7d b0 4f bd 9c 10 94 bd
       -0.058746796 -0.027358333 -0.05070542 -0.072297305
000260 c6 db 13 bd 55 2a c9 bd df 6c 43 bd 2c 4f 2d bd
       -0.036098264 -0.09822527 -0.04771125 -0.042311832
000270 c4 28 ad bd 74 bd 3f bc e0 41 87 bd 37 55 19 3d
       -0.08455041 -0.011702884 -0.066043615 0.037434783
000280 fd 05 35 bd 9a b2 c1 bd 12 87 94 bd 82 f7 73 bd
       -0.044195164 -0.09457894 -0.07252325 -0.059562214
000290 6c 44 08 bd 66 70 1f bb 70 a0 60 bd 9f 1b 54 bc
       -0.033268377 -0.002432847 -0.054840505 -0.0129460385
0002a0 3b 22 db bb a2 f7 5c 3d d2 ff 00 3d f0 c7 41 3c
       -0.00668743 0.0539471 0.03149397 0.011827454
0002b0 e7 80 49 3d 89 9b c8 bc 32 fb 2a 3d 8a 94 84 bd
       0.049195196 -0.024488227 0.041743465 -0.06473644
0002c0 ac 9c 81 bd e5 35 00 bd 7d 92 38 bc 16 9b 0b 3d
       -0.06328711 -0.031301398 -0.011265394 0.03408345
0002d0 11 d0 14 bd 75 cf b6 bd aa 5c e9 bc 99 b3 0b 3d
       -0.03633124 -0.08926288 -0.028486568 0.034106825
0002e0 66 27 29 3d e0 9f cc bc fc ef d0 bd ad dd fd bc
       0.04129734 -0.024978578 -0.102020234 -0.030989492
0002f0 42 e3 3e 3d b1 30 c2 bd dd 7b cb bd de ba c0 bd
       0.04660345 -0.094819434 -0.099357344 -0.09410642
000300 c1 dc 6f bd a5 b3 15 bd 07 24 7b bd 92 e3 4f bd
       -0.058560137 -0.036548276 -0.061313655 -0.050754137
000310 b7 98 49 3d 4a 32 48 bd 37 d6 a3 bc f3 52 71 bd
       0.049217906 -0.048876084 -0.019999607 -0.058916997
000320 e1 fc b3 bd 04 79 01 3d e5 7d c8 bc ad af 20 bd
       -0.08788467 0.03160955 -0.024474094 -0.039230037
000330 d0 3e a6 bd 71 1e 25 bd e4 71 87 bd 5b 82 3f bc
       -0.08117449 -0.040312234 -0.0661352 -0.011688794
000340 6d 5c ae bd 51 e3 d6 3c 60 aa 63 bd f4 cf 33 bd
       -0.085137226 0.02623144 -0.055582404 -0.04389949
000350 f3 45 d9 bd 53 27 c5 bd 28 6a 81 bc e3 f9 17 bc
       -0.10609045 -0.09626641 -0.01579769 -0.009275886
000360 eb 5a dd bc 1c bb 8d bc 82 17 f0 bc 2a 0a 29 bc
       -0.027020892 -0.017301135 -0.029308084 -0.010317365
000370 c6 0a 5e bd 86 e2 a1 3c 2a 67 11 3d 72 c1 13 bd
       -0.054209493 0.019761335 0.035498776 -0.036073156
000380 57 a7 b6 3c 54 b0 48 bc 49 e3 ae ba fe 16 84 bc
       0.02229659 -0.012249071 -0.0013342883 -0.016124245
000390 d0 75 ca bd f6 aa 6d 3d bb 55 20 bc 0a e6 38 bd
       -0.09885752 0.05802437 -0.009786065 -0.045141257
0003a0 43 06 45 bc 81 b8 e2 bc cd 66 b5 3c 75 9e 33 bd
       -0.012025419 -0.027675869 0.022143746 -0.04385229
0003b0 51 a0 5d bd f5 bd 35 3d 66 66 57 bc ba f4 bd 3c
       -0.054107968 0.04437061 -0.013146972 0.023187984
0003c0 c0 68 15 bc f5 32 59 bc 25 56 43 bd 7a 13 60 bc
       -0.009119213 -0.013256778 -0.047689576 -0.013676519
0003d0 b3 3f 54 bd 63 1e 2e 3d 94 6b b0 bd 04 11 92 bb
       -0.05181856 0.042509448 -0.08614269 -0.004457595
0003e0 b9 95 68 3d ae 3c 4c bd 20 33 8c bd e7 5d e1 bc
       0.05678341 -0.049862556 -0.06845689 -0.027510596
0003f0 ff 18 45 bd 94 f5 13 3d 94 a1 bc bd a5 1f a5 bb
       -0.04811954 0.036122873 -0.09210506 -0.0050391727

lays.1.bias f4 [256]
000000 39 22 95 bd 54 9e 35 bd 5c f4 aa be 67 50 8d bd
       -0.07281918 -0.044340447 -0.33389556 -0.06900101
000010 0e d1 eb bd 78 d1 3a be 96 5c 91 bd 0e 0f 96 bd
       -0.115144834 -0.18243968 -0.070977375 -0.0732709
000020 60 78 72 be 96 68 85 bd b4 f1 d5 bd 35 15 76 bb
       -0.23678732 -0.06514089 -0.10446492 -0.0037549261
000030 10 0f 08 be 6b 08 4d bd 85 4b 2b bf 2f 9d b7 bd
       -0.13286996 -0.050056856 -0.6691211 -0.08965527
000040 32 33 df be fe 03 de bd e9 09 8e bd bb 72 f6 bd
       -0.43593746 -0.10840605 -0.06935484 -0.12033602
000050 55 97 8a bc d2 dd a9 bc dd 67 b6 bc 3d 66 f2 bc
       -0.016917864 -0.020735655 -0.022266323 -0.029589767
000060 7a a0 9b bd fd db c7 bd 7d fb 7b bd 7e d9 ff 3f
       -0.07598968 -0.09758756 -0.061519135 1.9988248
000070 eb ee b4 bc 5a 86 a1 bd 33 bb e5 bd 8e 77 2a be
       -0.022086581 -0.07886954 -0.11217346 -0.16647169
000080 94 dc 95 bd b3 a0 83 bd 4a 43 90 bd 41 3f 13 be
       -0.073174626 -0.06427135 -0.07044084 -0.14379598
000090 6c fc a5 bd a4 c5 f6 bd e8 2b cb bd cd ae 5a bd
       -0.08104786 -0.12049416 -0.09920484 -0.05338936
0000a0 07 9d 99 bd 4b 52 92 b8 d7 6a a7 bd 8e 2b 73 bd
       -0.07500654 -6.977151e-05 -0.08174675 -0.05936771
0000b0 cd 09 6a bd 8a 05 80 bd 2c 60 a1 bc 85 c0 0a be
       -0.057138253 -0.062510565 -0.019699179 -0.13550003
0000c0 a1 25 07 bd 64 4e bf bd dd 35 7c bd af e8 9f bc
       -0.03299487 -0.09341124 -0.061574806 -0.019520132
0000d0 86 3a 18 bd 61 fe ba bd 08 0d f2 bd cb eb 81 bd
       -0.037165187 -0.0913055 -0.11818892 -0.06343802
0000e0 73 b4 6d be 0d 06 bb bd 12 f5 ba bc 97 2c 1a bd
       -0.23213367 -0.091320135 -0.022821937 -0.03764018
0000f0 5d 80 be bd 64 ef 87 bc 56 68 25 bd 39 8c ca ba
       -0.09301827 -0.016593643 -0.040382706 -0.0015453167
000100 ef f6 2b bd 41 a4 2c bd a4 c5 8b bd 17 ce 26 be
       -0.04198354 -0.042148832 -0.06824806 -0.16289555
000110 49 57 99 bd 4f cf 86 bd 98 03 d5 bd 6e cb 36 bd
       -0.074873514 -0.0658251 -0.10401076 -0.0446276
000120 d1 24 1a bd df da a5 bd 71 91 22 bf 98 54 e3 bd
       -0.037632767 -0.08098387 -0.63503176 -0.11100119
000130 f6 bf d3 bd 2b 28 7c bd a2 4d f6 bd 14 70 c6 bd
       -0.10339348 -0.061561745 -0.12026526 -0.09689346
000140 e2 5a 61 bd ca a6 2a bd 07 e9 d3 bd 4a 52 e6 bc
       -0.055018313 -0.04166297 -0.10347181 -0.02811541
000150 36 c0 a0 bd 79 92 da bd de 53 c1 bc aa ee fa bd
       -0.07849161 -0.10672469 -0.023599561 -0.12252553
000160 6a f9 3b bd 07 6e bb bc b2 fe c3 bd be b8 14 be
       -0.045892157 -0.022879614 -0.09570064 -0.14523599
000170 0a 6b da bd 04 e2 ba be d3 bd 8a bd 18 c8 80 bd
       -0.10664947 -0.3650056 -0.06774487 -0.06288165
000180 b8 4f 19 bd 2f f1 29 bd da f1 f0 bd 04 82 8c be
       -0.03742954 -0.041489776 -0.117648795 -0.27442944
000190 92 a3 4f bd 84 bd a0 bd 81 db 33 bd a5 fe 8b bc
       -0.050693102 -0.07848647 -0.043910507 -0.017089197
0001a0 1a d6 93 bd c4 7e d3 bd e8 3a 44 bd 23 d9 1a bd
       -0.07218571 -0.10326913 -0.04790774 -0.037804734
0001b0 c0 31 0a bc a3 35 cd be 6b 58 e2 bc 58 e1 51 be
       -0.008434713 -0.40079984 -0.027630052 -0.20496118
0001c0 76 6b 46 bd 7e 15 73 bd df a2 1c bd 1f 7b 1d bd
       -0.048442326 -0.05934667 -0.038241263 -0.038447496
0001d0 9a 6c e4 bd 14 01 b5 bd d0 ff 65 bd e6 57 aa bd
       -0.111535266 -0.08838096 -0.056152165 -0.083175465
0001e0 69 2f 84 bd 38 fc 16 be 84 b3 b7 bd 59 8d 2f bf
       -0.06454355 -0.14744651 -0.08969787 -0.68575054
0001f0 3a 39 9e bd 6a 1f 4e be ae 9a 8f ba cd f4 be bd
       -0.07725759 -0.20129171 -0.0010956132 -0.09324036
000200 ab 12 9d bd 1e 96 f3 bd ec 7c 9b bd c1 a3 71 bd
       -0.07669576 -0.11893867 -0.07592186 -0.05899406
000210 1e 62 b5 bd 93 6c d4 bd 98 bd dd bd 5b 76 dc bd
       -0.08856605 -0.103722714 -0.10827178 -0.10764762
000220 3e c0 df bd c6 1e 28 bd 86 46 a6 bc b2 f5 9c bd
       -0.10925339 -0.041044973 -0.0202973 -0.0766405
000230 44 9b dc be 4d dd bc bd db 1e f4 bd 64 08 80 be
       -0.43087208 -0.09221897 -0.11919948 -0.25006402
000240 25 89 9f bd 12 1c 99 bd 33 39 69 b9 99 75 8f bd
       -0.0778983 -0.07476057 -0.0002224192 -0.07004852
000250 5d b5 97 3e 97 40 24 bd e7 80 63 bd 78 09 e0 ba
       0.29630557 -0.04010066 -0.055542853 -0.0017092666
000260 4e a9 53 bd c8 d1 de bd 65 99 f8 bc a9 b2 41 bd
       -0.051675133 -0.10879856 -0.030346582 -0.047289524
000270 14 d9 e9 bd 8a fb cd bd f7 81 34 bd a2 e2 f2 bd
       -0.114183575 -0.10057743 -0.044069257 -0.11859633
000280 db c3 ab bd ae a7 e1 bd f2 71 bc bd 73 66 98 bd
       -0.08386966 -0.110183105 -0.09201421 -0.07441416
000290 16 bb ba be 75 07 39 bf d6 0f 75 bd 8b 0b c1 bd
       -0.3647086 -0.72277004 -0.059829555 -0.0942603
0002a0 33 1a aa bd 8a a7 aa bd 06 e6 53 bd a9 e9 f0 bd
       -0.08305778 -0.08332737 -0.05173304 -0.11763317
0002b0 b6 8b 48 bc 6c 36 eb bd 10 bf ac bd f3 91 5f 3f
       -0.012240341 -0.114849895 -0.0843488 0.87332076
0002c0 79 fa 4c bf a9 8a 82 be 53 cf 8f bc b8 e9 5a bd
       -0.8006969 -0.25496414 -0.017554915 -0.053445548
0002d0 21 0e 98 be c5 09 33 bd fc b6 c6 bd 8b e2 aa be
       -0.2969828 -0.04371049 -0.0970287 -0.33375964
0002e0 a7 a1 be bd 9e a9 82 bc 17 23 59 be 95 6c 9b bd
       -0.093081765 -0.01595002 -0.21204792 -0.0758907
0002f0 db 2c f2 bd 00 2a c7 bd 32 8c e9 bd 8b fa c0 bc
       -0.11824962 -0.09724808 -0.11403693 -0.023556968
000300 f0 f8 ef bc fc 29 37 bd 11 9b 5f be 73 bd 63 bd
       -0.029293507 -0.044717774 -0.21836497 -0.055600595
000310 96 66 32 be 9a 7c 36 bd 31 9f 3d be 7e 8a 31 bd
       -0.17421946 -0.044552423 -0.18517758 -0.043344967
000320 aa a6 80 bd 6c 40 a9 bd fd 21 96 bd 90 e2 42 bd
       -0.06281789 -0.082642406 -0.073307015 -0.047579348
000330 19 57 fb bc da e7 7a bd 0c 6a aa bd f2 cf 94 bb
       -0.03068118 -0.061256267 -0.08321008 -0.0045413906
000340 c6 56 bc bd 6f a3 66 bd e4 d2 5b bf 5c cd 1d bf
       -0.09196238 -0.056308206 -0.8586867 -0.6164148
000350 f2 83 2e be 8c dc 3d bd e8 fe bd b7 1f fd 8a bc
       -0.1704252 -0.046352908 -2.2649256e-05 -0.0169664
000360 54 3b 8f bc f9 8f 33 bd 6a cc e0 bd 1e 9f d3 bd
       -0.017484345 -0.043838475 -0.10976489 -0.103330836
000370 96 da 63 bd cf 7f f9 bc 75 2d c6 bd 07 e0 ec bc
       -0.05562838 -0.030456452 -0.09676639 -0.028915418
000380 73 7a b9 bd 74 c4 e3 bd cd de ac bd 61 23 1c bf
       -0.090565585 -0.11121455 -0.084409334 -0.60991484
000390 de 38 26 bd b4 2d d6 bd 67 0b 9d bd 9f be 66 bd
       -0.040581577 -0.10457936 -0.076681904 -0.056334134
0003a0 70 af e1 bd 24 04 d1 bd 12 4c df bd 41 88 da bc
       -0.1101979 -0.10205868 -0.10903181 -0.026676299
0003b0 4d 62 17 be 26 9f 2f bd f4 74 ac bd 7c 5b d4 bd
       -0.14783593 -0.042876385 -0.084207445 -0.10369012
0003c0 5a 60 17 be e5 de 96 bd f4 84 4a bf ec 36 0b bd
       -0.14782849 -0.073667325 -0.7910912 -0.033987924
0003d0 62 51 97 bc 48 a7 e6 bd 9f 57 8d bd 42 54 e4 bd
       -0.018471424 -0.11262375 -0.06901478 -0.111488834
0003e0 7d 76 dc bd f9 6b cc bd 02 11 49 bd d7 8f 57 bd
       -0.10764787 -0.09981532 -0.049088486 -0.05262741
0003f0 18 30 f3 bc 29 35 d7 bd e7 32 49 bd f5 dc 9e bd
       -0.029686019 -0.10508186 -0.04912081 -0.07756988

lays.2.weight f4 [2, 256]
000000 1b f8 61 3d c5 f6 2d bc 18 73 75 bb 8f 17 41 bd
       0.055168252 -0.0106179165 -0.0037452634 -0.047141608
000010 fb 2b 15 bc d8 b3 94 bd b0 ed 4f 3d f3 ba 18 3b
       -0.009104724 -0.07260865 0.050763786 0.002330479
000020 8b 21 25 3d 2b 11 48 3c 90 65 aa 3b d1 17 f2 3c
       0.040315192 0.012211124 0.0052000955 0.029552372
000030 df 89 32 bc 0f 14 36 bd c7 55 d4 bd 2e 2a 6d 3c
       -0.010897129 -0.044452723 -0.10367923 0.014475388
000040 c2 0d 94 bd 3e f6 6a bd c9 19 37 3d 08 1e 4b bd
       -0.072291866 -0.05736374 0.044702325 -0.049589187
000050 98 77 66 bd c9 e2 9f 3c 46 c6 d7 3c c7 05 3d 3d
       -0.056266397 0.01951732 0.026339661 0.046148088
000060 03 dc b7 3c 00 be 07 bd 7a bf 07 3d 68 3a ad bb
       0.022443777 -0.033140182 0.03314159 -0.0052865036
000070 37 7c 7d 3d 1a 28 2f 3d 34 a8 3a 3d 1e b7 11 3b
       0.06188604 0.042762853 0.045570567 0.002223439
000080 8f 66 32 3d fe b4 2e 3d 50 02 52 bc c5 1b 03 bd
       0.04355484 0.042653076 -0.012817934 -0.032008905
000090 4e 22 44 3b a3 20 6c 3d c0 7f ed bc e0 63 5f 3d
       0.0029927674 0.057648312 -0.02899158 0.054538608
0000a0 04 50 0a 3b 88 c0 42 b8 17 88 69 3c 8e c9 51 3a
       0.0021104822 -4.6432513e-05 0.014253638 0.0008002751
0000b0 de d6 88 bc d4 d5 24 bd b5 b1 0f 3d ae 20 10 3c
       -0.01670402 -0.040242985 0.035081584 0.008796854
0000c0 e9 d3 57 3d 4c 7c 8d bc 46 af 67 ba 39 25 a9 bb
       0.052692328 -0.017271183 -0.00088380685 -0.005161908
0000d0 a9 2d d1 3c 3d b5 d9 3c 83 11 5b 3c 8a 86 52 bd
       0.025534468 0.026575679 0.013370874 -0.051397838
0000e0 dc 29 f9 bd f4 75 52 bc 6d fa fe 3b b5 c9 93 3a
       -0.12166187 -0.012845505 0.007781318 0.0011275323
0000f0 f6 9e 54 3d 18 c1 44 bd 74 6d 11 3c 49 ed 20 39
       0.05190941 -0.04803571 0.008876193 0.00015347185
000100 c3 35 d9 3c 61 64 8b be ef d8 fc 3c ca 7a 49 3b
       0.026514893 -0.2722502 0.03086516 0.0030743354
000110 de 5d c8 39 da e4 65 3c ed 08 3e 3d 2f 2b 27 3d
       0.0003821691 0.014031613 0.04639523 0.040812667
000120 c8 3c 4f bd 21 90 a2 3b 0f 84 15 3e 3f fd 20 bc
       -0.050595075 0.004961029 0.14601158 -0.009826004
000130 6e 37 4c bd 79 c3 07 bc f7 92 07 bd 16 56 50 3d
       -0.04985755 -0.00828635 -0.03309914 0.050863348
000140 59 f6 c0 bc 05 ad bc 3c 2f 68 b9 3c 1e 7b 23 bc
       -0.023554968 0.02303172 0.022632686 -0.009978084
000150 91 8d 98 3c bd 6f fe 3b 26 2b 3f 3d dd 5a 80 bc
       0.018622192 0.007764785 0.04667201 -0.015668327
000160 46 7a 29 3d e2 03 0a 3d 75 6a 49 3c bd 97 15 3e
       0.041376375 0.03369511 0.012293448 0.14608665
000170 3d 70 69 3d 68 5e de 3c d2 89 a9 ba e6 a6 0e 3d
       0.056991804 0.027144626 -0.001293475 0.034827136
000180 b0 04 46 bd a9 41 6f 3d 9c ba 71 bd 11 88 03 3e
       -0.048344314 0.058412228 -0.059015855 0.12844874
000190 63 9b 6c bd 24 8b 2a bd c3 1c 3a 3d 80 43 57 3d
       -0.057765376 -0.0416366 0.045437586 0.052554607
0001a0 74 89 0b bd b0 dd 56 bd a2 84 bf 3b 7b 5a 06 be
       -0.034066632 -0.05245751 0.0058446685 -0.13120453
0001b0 e5 b9 4c 3d a0 64 92 bd e7 1b c7 3c 78 e7 b5 bd
       0.04998197 -0.07148099 0.024305297 -0.0888204
0001c0 0c d2 69 bd fc 23 2e 3d 8e 75 51 bd fe 6d 3f bd
       -0.057085082 0.042514786 -0.0511375 -0.046735756
0001d0 0e 80 7d bc 5e a0 b7 bc 22 0c 15 bd 40 71 23 bc
       -0.015472425 -0.022415336 -0.036388524 -0.009975731
0001e0 00 bf 4e 3d db d7 80 3d d6 47 bc bc 13 32 5f 3c
       0.05047512 0.06291171 -0.022983473 0.0136227785
0001f0 bf 5f 9c 3c 31 01 cd bd 59 18 24 3a e5 bb c2 3c
       0.019088624 -0.10009993 0.00062597316 0.023771236
000200 8f 3d 16 3c 47 f0 04 bc fd 1c 43 bd ed 61 9f 3c
       0.00916995 -0.008113927 -0.047635067 0.019455874
000210 d4 6e 36 bc 39 14 56 bd 47 ee 61 bd f4 af 93 ba
       -0.011134822 -0.05226538 -0.05515888 -0.0011267648
000220 c4 57 cd bc cb bc 4c bd 5e 0e d6 3c 34 dd bc 3c
       -0.025066264 -0.049984735 0.026129898 0.023054697
000230 c4 58 ff bd b0 bb be 3b 70 f6 df bc 63 3c 31 bd
       -0.124681026 0.005820714 -0.02733919 -0.04327048
000240 b8 cb c7 bb 16 55 95 3c b0 e5 4a b7 46 d9 fb 3c
       -0.006097283 0.018229049 -1.20936165e-05 0.030743252
000250 0b ee 88 3c b8 c3 3e 3d 7a 1a 36 3d 90 da 5f ba
       0.01671507 0.04657337 0.044458844 -0.0008539343
000260 a2 07 0d 3c 89 8d 3f 3c 67 08 39 3c 19 e5 2c 3d
       0.008607777 0.011691459 0.011293507 0.042210672
000270 72 4d 63 3d 3d 30 bc 3c bd c8 93 b9 cc 13 40 bd
       0.05549378 0.02297222 -0.00028187587 -0.04689388
000280 c4 1e 6c bd 0b 6d 33 bd a2 11 cb 3c 14 cb 6b 3d
       -0.057646528 -0.043805163 0.024788681 0.057566717
000290 a4 7f 09 3d c9 5f 25 be 68 54 69 bd 96 30 35 ba
       0.033568993 -0.1614982 -0.05696526 -0.0006911842
0002a0 52 11 b8 3c 46 d2 48 bd 78 f6 87 bc 0c 26 2a bb
       0.022469196 -0.049028657 -0.016597018 -0.002596262
0002b0 00 c7 d5 3b 37 e7 93 3c 7f 05 d1 bc ee 23 39 3c
       0.006523967 0.018054588 -0.025515316 0.01130007
0002c0 05 5e 54 be 6c 2c 85 be 4b 12 de 3c 1c 55 64 bd
       -0.2073899 -0.26010454 0.027108332 -0.05574523
0002d0 ad 8e a4 3c 51 ab b7 bc 7e e6 21 bd 0b 76 30 be
       0.020087564 -0.022420557 -0.039526455 -0.1723253
0002e0 41 86 f2 bc 43 45 21 3d d1 d6 82 3d ad 05 f5 bc
       -0.029605033 0.039372694 0.06388629 -0.029909933
0002f0 b4 9a 56 ba 73 5e 73 3d 43 88 18 bd 4b 25 2f 3d
       -0.0008186505 0.059416246 -0.037239324 0.042760175
000300 cd 14 ff bc 09 fc 08 bd f1 d8 98 3c ba d1 25 bd
       -0.031137848 -0.033443484 0.018658133 -0.040483214
000310 56 0d 05 bd 39 6c a1 bc 89 ff e5 3a d7 c5 63 3c
       -0.03248342 -0.019704925 0.0017547469 0.013902149
000320 e0 e5 70 bc d6 21 68 bc 5a ae d0 3a 4c 2d 71 bc
       -0.014703244 -0.014168223 0.0015921101 -0.014720272
000330 43 02 74 3d 8b d4 48 3d 8c 99 ad bc c3 f5 78 3c
       0.05957247 0.04903082 -0.02119138 0.015195313
000340 58 4d e7 3c 72 92 0c 3d 20 ac a8 bd 7c 7e 78 3d
       0.028235123 0.03431935 -0.08235955 0.0606675
000350 88 72 32 3e f7 e2 00 3c 45 8f 57 b6 d9 62 d2 bc
       0.17426503 0.007866613 -3.212089e-06 -0.0256819
000360 07 7c dc 3c 9e b3 42 3d 47 1b 05 bb ba 69 10 3d
       0.02691461 0.047534578 -0.0020310448 0.03525708
000370 04 e2 53 3d 07 ca 60 3d f7 60 4e 3d 63 4c 37 3d
       0.051729217 0.05488017 0.05038544 0.044750582
000380 a6 89 34 bc 66 68 b4 3c 39 9c 27 bd f3 7d 3d bd
       -0.011019146 0.022022437 -0.04092047 -0.046262693
000390 91 c5 76 bc 50 56 27 3c 7b 0e 29 bd 1e 6e 37 3c
       -0.015061752 0.01021345 -0.041273575 0.011195688
0003a0 ed 01 2c bc cc 3a 17 3d 00 db b0 3c ee ba de 3b
       -0.010498506 0.036921307 0.021588802 0.006797186
0003b0 03 f0 3d 3e e0 9f 31 3d 28 23 81 bb c2 ec 76 bc
       0.18548588 0.04336536 -0.0039409585 -0.015071096
0003c0 7d 97 07 bd f7 b5 0f 3d 27 9b 0b bc a4 7e a0 bc
       -0.033103455 0.035085645 -0.008520878 -0.019591637
0003d0 7e 8f 43 bc 52 85 bd bc ea 7c 02 3d 77 92 fc bc
       -0.011936067 -0.023134861 0.03185741 -0.030831559
0003e0 08 76 35 bd 26 23 66 bd 74 26 bb 3c 7a af 3b bd
       -0.044302016 -0.056185864 0.022845484 -0.045821644
0003f0 2f ca 0b bd bb cb 3c 3e a0 24 20 bd 3d 16 9e 3b
       -0.034128364 0.18437092 -0.03909743 0.0048244284

lays.2.bias f4 [2]
000000 c7 eb f2 3e 04 a2 e3 be
       0.4744551 -0.44459546

l1.weight f4 [256, 63]
000000 d1 89 74 ba 27 9b 78 3a 65 7a 74 ba b0 54 2d 38
       -0.00093283976 0.0009483569 -0.00093260995 4.1325286e-05
000010 b2 6d 69 3a 44 00 e2 39 c0 8b cf 37 74 63 77 ba
       0.00089045905 0.00043106277 2.47414e-05 -0.0009437122
000020 40 06 ca 37 40 06 ca 37 40 06 ca 37 df 87 62 3a
       2.4083187e-05 2.4083187e-05 2.4083187e-05 0.0008641462
000030 48 c0 1c b8 d2 61 73 3a 06 d2 71 ba d9 41 2e 3b
       -3.7372374e-05 0.0009284291 -0.00092247163 0.0026589541
000040 a0 28 5a b8 99 53 74 3a 60 d7 5d ba 43 24 77 3a
       -5.2013085e-05 0.00093203183 -0.00084625743 0.00094277057
000050 40 06 ca b7 cd 50 54 3a f8 c7 af 3a e0 18 ca 37
       -2.4083187e-05 0.00080991985 0.0013411036 2.409186e-05
000060 73 ef 5d 3a 40 06 ca 37 de b5 a3 3a c5 89 b5 ba
       0.00084661617 2.4083187e-05 0.0012490114 -0.0013850263
000070 b5 f8 b0 ba a3 f0 64 3a 40 06 ca 37 94 81 b3 ba
       -0.0013501855 0.00087333674 2.4083187e-05 -0.0013695234
000080 91 28 79 ba 7d 20 d0 b9 38 83 b2 3a 12 58 6a 3a
       -0.0009504641 -0.00039697057 0.0013619429 0.0008939515
000090 3d 47 6d 3a 40 fe c9 b7 7c cc 70 ba 40 06 ca b7
       0.0009051448 -2.4079462e-05 -0.0009185744 -2.4083187e-05
0000a0 0f 39 55 3a 11 ea 6b 3a 4c f6 de b9 f9 56 6a 3a
       0.00081338076 0.0008999417 -0.00042526645 0.00089393515
0000b0 40 06 ca b7 4c e3 b0 3a 9f f3 6a 3a 00 d4 5f b8
       -2.4083187e-05 0.0013495474 0.0008962694 -5.3364784e-05
0000c0 f4 fe 6f ba 12 e5 e5 39 37 f3 1b bb 06 33 ab ba
       -0.00091551174 0.00043848954 -0.002379609 -0.0013061471
0000d0 ea f8 b1 3a 00 ca 58 ba 61 45 66 3a a4 30 ac 3a
       0.001357821 -0.00082698464 0.0008784142 0.0013137055
0000e0 db cf e5 39 45 82 7a 3a 2a 45 b1 3a 0f dd 1b bb
       0.00043833148 0.0009556155 0.0013524641 -0.0023782884
0000f0 90 b2 c4 b7 e0 ff 5c 38 85 d7 58 ba 19 a7 d8 3b
       -2.344817e-05 5.269039e-05 -0.0008271861 0.0066117165
000100 ec 2d da 3b 8a 43 da 3b 02 bf d2 bb dc 6d d9 bb
       0.0066583063 0.0066608833 -0.0064314613 -0.0066354107
000110 52 32 44 3c 7a 3a d7 bb 28 99 45 3c 57 43 da bb
       0.011974888 -0.0065682502 0.012060441 -0.0066608596
000120 8a 43 da 3b 8a 43 da bb 22 44 da 3b fb b7 45 bc
       0.0066608833 -0.0066608833 0.006660954 -0.01206779
000130 3d 3a da 3b dc 3d da bb 2c d2 d8 3b d3 1f 45 bc
       0.0066597746 -0.0066602062 0.0066168513 -0.012031513
000140 23 02 d7 bb b5 00 d7 bb 22 3f 46 bc 8a 43 da bb
       -0.006561534 -0.0065613636 -0.012100013 -0.0066608833
000150 b8 d1 43 3c 32 91 45 3c 8a 43 da 3b bc 87 42 3c
       0.011951856 0.012058543 0.0066608833 0.011873182
000160 97 fc 45 bc e5 5d d9 3b d0 3f d7 3b 48 4b da bb
       -0.012084148 0.0066335076 0.0065688863 -0.0066618063
000170 31 f4 d6 3b 8a 43 da bb 76 28 d7 bb c0 58 da 3b
       0.0065598716 -0.0066608833 -0.0065661026 0.006663412
000180 97 9d 45 3c 0a 99 45 3c ea a4 44 3c 99 bb 45 bc
       0.012061498 0.012060413 0.012002209 -0.012068653
000190 8a 43 da bb 7b 51 d7 3b cc 02 da 3b 6a ab 45 3c
       -0.0066608833 0.0065709925 0.0066531654 0.012064794
0001a0 10 9d 45 3c 7a 90 d9 bb de 37 46 3c 8a 43 da 3b
       0.012061372 -0.0066395374 0.012098281 0.0066608833
0001b0 4d 3f 43 bc 8a 43 da 3b f6 63 43 3c af c5 42 3c
       -0.011916948 0.0066608833 0.011925688 0.011887952
0001c0 42 51 44 3c 3c a5 44 bc 2f 53 d9 bb 62 37 da 3b
       0.011982264 -0.012002286 -0.0066322307 0.006659434
0001d0 af ac d8 bb 4e f6 d4 bb bc af 41 3c 7f e8 d4 bb
       -0.0066123824 -0.0064990884 0.0118216835 -0.0064974423
0001e0 f4 ff d9 bb 5e a2 3e 3c a8 e3 d7 bb 16 9d 45 bc
       -0.0066528264 0.011635391 -0.006588418 -0.012061378
0001f0 e0 48 da 3b 00 9e 45 3c 5c 64 c4 3b 56 65 1b bb
       0.0066615194 0.012061596 0.005993409 -0.0023711524
000200 38 69 19 bb 24 cc 63 bc 27 a7 5c 3c 9e dc 57 bc
       -0.0023408663 -0.013903651 0.013467587 -0.013175158
000210 32 86 78 3c 9d 69 19 bb 38 69 19 3b 38 69 19 bb
       0.015168713 -0.0023408898 0.0023408663 -0.0023408663
000220 22 68 19 3b 38 69 19 bb 2b 08 83 3c ef 77 97 3c
       0.0023408015 -0.0023408663 0.015995106 0.018489806
000230 9e 7c 81 3c e6 63 1b bb 38 69 19 3b c7 90 97 bc
       0.015806492 -0.0023710667 0.0023408663 -0.018501652
000240 92 96 58 bc 38 69 19 bb 9f 69 19 3b c4 0e c2 3b
       -0.0132194925 -0.0023408663 0.0023408902 0.0059221704
000250 21 54 9c bb 38 69 19 bb cb 6f 58 bc 38 69 19 3b
       -0.004770771 -0.0023408663 -0.013210247 0.0023408663
000260 1a f0 81 bc 7c 57 77 3c a2 7e 81 3c fd 7e 81 3c
       -0.01586156 0.0150965415 0.015807454 0.015807623
000270 38 69 19 bb aa 75 c4 bb 03 67 58 bc 38 69 19 bb
       -0.0023408663 -0.005995472 -0.013208154 -0.0023408663
000280 7b 0a 18 bb 32 56 b1 3b 16 c5 5c bc 38 69 19 bb
       -0.0023199606 0.0054118866 -0.013474723 -0.0023408663
000290 a7 07 83 bc ea 1c 8f bb 16 23 64 bc 84 03 7a bc
       -0.01599486 -0.0043674605 -0.013924381 -0.015259627
0002a0 19 80 b1 3b 38 69 19 3b 93 69 19 bb 07 bf 63 3c
       0.0054168818 0.0023408663 -0.0023408874 0.013900525
0002b0 09 80 b1 bb ca 81 57 bc a5 2f 81 3c 35 0c 78 bc
       -0.0054168743 -0.013153503 0.015769789 -0.015139629
0002c0 72 42 5d 3c 93 69 19 bb 35 f6 b0 3b 2e 49 81 bc
       0.013504611 -0.0023408874 0.005400444 -0.015781965
0002d0 3e 5f 19 bb fa ac 58 bc da 63 19 3b a6 9b 81 3c
       -0.0023402716 -0.013224835 0.0023405463 0.01582129
0002e0 08 8d 78 3c d2 0c 8f 3b fe 69 19 3b 98 23 2f bc
       0.015170343 0.004365542 0.0023409124 -0.010689639
0002f0 02 69 19 bb 5c 14 08 39 5c 28 fe 3a 68 0e 8b b9
       -0.0023408537 0.00012977555 0.001939069 -0.0002652288
000300 e9 31 e0 3a 4f 1f 8f 3a 44 a4 ab ba 98 d5 13 b9
       0.0017104718 0.0010919365 -0.001309522 -0.00014098582
000310 d1 67 e8 ba 54 dd 13 b9 54 dd 13 b9 5a 5c ee 3a
       -0.0017731135 -0.00014101464 -0.00014101464 0.0018185482
000320 54 dd 13 39 91 09 f6 3a 9c d4 15 39 ce 21 90 b9
       0.00014101464 0.0018771162 0.0001428895 -0.00027491007
000330 41 93 0b bb 54 dd 13 b9 73 a3 4f 3a 07 0d 13 3b
       -0.0021297487 -0.00014101464 0.0007920779 0.0022438185
000340 54 dd 13 b9 54 dd 13 b9 4b f3 d9 39 9c d6 c3 b9
       -0.00014101464 -0.00014101464 0.00041570733 -0.00037353195
000350 54 dd 13 39 38 70 f5 38 d0 4b 1c 39 bc 38 91 39
       0.00014101464 0.00011703413 0.00014905562 0.00027698826
000360 5c c0 a9 ba 3b f4 01 3b c0 d5 e8 3a 54 dd 13 39
       -0.0012951004 0.001982941 0.0017763898 0.00014101464
000370 2e fc 95 39 f1 9d b0 39 96 ed 4b 39 77 5e e0 ba
       0.00028607383 0.0003368701 0.00019448096 -0.0017117996
000380 e7 e4 f2 ba 32 8a e2 3a 80 33 16 b9 c5 9c ec 3a
       -0.0018531353 0.0017283617 -0.000143243 0.0018052092
000390 54 db 13 39 f5 9b e1 ba 3a e5 a6 39 24 28 cb ba
       0.00014100719 -0.0017212617 0.00031832774 -0.0015499634
0003a0 54 dd 13 b9 d2 d2 01 bb bb 43 05 bb 00 3d 7c b6
       -0.00014101464 -0.0019809497 -0.002033456 -3.7586433e-06
0003b0 80 7c 07 b8 03 de f0 3a 9f 78 f5 3a 9e d3 37 3b
       -3.2302458e-05 0.0018376712 0.0018727964 0.0028049718
0003c0 ce f1 a2 ba 0f 2d 03 bb b7 ee 2e bb cd 7a a4 ba
       -0.0012431683 -0.002001587 -0.0026692578 -0.0012548805
0003d0 22 4a 20 3a 56 aa 22 39 e0 dc 13 b9 85 f6 04 ba
       0.0006114562 0.00015512979 -0.00014101295 -0.00050721347
0003e0 c6 22 1a b9 23 b7 08 3b 38 34 fa b8 fa d0 01 bb
       -0.00014699539 0.002086111 -0.000119306555 -0.0019808398
0003f0 b1 8c c6 3b e7 82 c5 3b 56 4f c6 bb 6d 1a c4 3b
       0.006059252 0.0060275677 -0.006051938 0.0059845955
