TABULAR/Figure1Reproduce/Poisoned/ADULT_FCN_e=0.0_g=0.05_a=1.0_l=2_h=256_s=True_p=0.5.pt (torch, 332951 bytes, 10 tensors)

lays.0.weight f4 [256, 63]
00000000: 042f 7c37 8446 ac37 bbfd 35b7 6c0c fc36
00000010: 50cc 11b7 6afc dfb6 afbd 3bb7 556e 99b6
00000020: 4c48 a136 1024 a5b6 b4f9 9fb6 5edd 4137
00000030: 784f d536 32b9 8ab6 00dc 0536 5c01 1837
00000040: a318 97b6 b673 7736 f21a a436 a52e 3b37
00000050: f9b1 20b7 c0f5 46b6 ffc6 4537 2015 8136
00000060: f33e 4db7 602f 3637 bd04 c4b6 b224 99b6
00000070: 99f2 27b7 dfd5 0137 6111 a636 b69f 58b7
00000080: 6ff7 e336 861a a1b6 39a1 7037 5e01 5237
00000090: c8bf 1337 5277 09b7 9642 2f37 c9e8 a5b6
000000a0: 4ee8 52b6 d063 7836 6284 1db7 1139 a5b6
000000b0: 5ead 7037 8e03 05b7 7f68 5337 e381 0036
000000c0: c379 23b7 f394 af37 f7ab 4fb6 c0a4 f1b6
000000d0: 3a4b a836 72ad 3c37 2bd7 09b6 2950 a936
000000e0: 80e9 2f37 c81a a6b6 c3eb 9eb7 233c 3fb7
000000f0: 9c7a 8037 5411 75b6 ee47 a536 1006 1636
00000100: aab3 75b6 708a ef35 ccaa 9ab4 59f9 2736
00000110: cb41 1dbb 411f 9d36 2e16 7636 d57c 9ab6
00000120: 8a29 7ab6 f062 7bb6 8834 9736 5cad 6c36
00000130: f0f4 7436 d888 7eb6 d0ad c6b5 e7eb 9bb6
00000140: 96ae 7e36 862b 67b6 2729 a1b6 ca97 7d36
00000150: c889 d2b5 20d2 7736 1a11 7cb6 3457 c53a
00000160: bc9b 79b6 015a 85b6 ae79 7cb6 5037 7836
00000170: 9c6d 90b6 a08a 9ab6 7a87 8036 d63d 5636
00000180: 6996 9c36 736c 9cb6 9c47 9bb6 ad7a 9a36
00000190: f2b3 7db6 1406 58b5 da40 9f36 ca5f 7c36
000001a0: 807a ed35 af80 a036 00eb 8a35 202e ec35
000001b0: 08ac c534 358c 9bb6 4ce6 a336 bc6f bdb5
000001c0: 60b3 1636 faa7 6fb6 6f1c 8d36 24fe 9a36
000001d0: a44c 3036 3c63 c035 66a2 0035 220a 90b6
000001e0: b72c a0b6 e025 52b5 0a72 a1b6 be65 8b36
000001f0: c2f8 6836 72b0 7db6 ee1a 03b8 156c a336
00000200: d96d 84b6 c790 d8b7 1e91 4636 a8a3 0636
00000210: 8c17 9736 7e93 db36 a818 0db7 34c5 1fb6
00000220: d22e 97b6 3a6f 0d37 39ee ae36 6f74 25b8
00000230: 6158 0d38 e820 0eb7 a3ee d836 ce19 7236
00000240: 840c 0f37 3fab 10b7 fb06 c9b6 66aa 01b8
00000250: 42d5 ca36 592c 9c36 062e 97b6 e404 1538
00000260: 5e22 6cb6 62e9 16b7 afc7 1a38 9b61 91b6
00000270: 8de9 7b36 c03d f1b6 028f 9036 7696 4736
00000280: a66f 2436 eab9 4d36 62a0 9e36 0032 cb36
00000290: cccf 8936 bd78 18b8 e937 0c38 cc2c a736
000002a0: faca 9936 3a50 15b8 fa94 95b6 c6af 7fb6
000002b0: adf6 1438 9329 a7b7 755d 1ab6 3cfc a136
000002c0: 9518 1536 de05 9e36 c2f4 8cb6 b70d 9cb6
000002d0: 2a3b d1b7 ec08 6f37 3814 10b8 87bd 9cb6
000002e0: 4c05 cab7 0599 0a38 3906 97b6 5271 21b8
000002f0: c2fd 80b6 7c1a 0ab7 1dc0 33b6 d9a7 02b6
00000300: 98aa 12b4 3099 dab5 5ade 22b7 2d6d fc36
00000310: 229f 2cb7 fc52 55b7 d4d1 c436 8d8d a0b6
00000320: ac2f 5ab5 fc90 f6b6 84aa 6bb6 86bb 8136
00000330: b270 cfb6 bc70 8835 e862 9434 3f88 4bb6
00000340: e8af d135 b167 1536 d466 7db6 cc3e 8eb6
00000350: 8274 a4b6 e586 01b6 4f4c 0ab6 1680 2e37
00000360: a081 2e36 bdb9 3db6 a651 44b6 ca34 2e37
00000370: a08c 92b5 4445 d4b6 eab2 b3b6 041d 26b6
00000380: f50a da35 985b 8f36 b699 c736 bc2e c536
00000390: 19e4 bbb5 cce6 2cb7 a4c0 8fb6 6011 2cb6
000003a0: 986a 5437 f825 b235 eb2c a6b5 fea8 04b7
000003b0: 4444 d3b5 196a b235 0e3d c936 45aa ebb6
000003c0: 3ef0 96b5 16e5 6936 544a 41b6 101f b8b5
000003d0: 6b7f 9bb6 85d0 d2b6 96df 2e37 9bce 3737
000003e0: 82fd 4db7 3235 ddb6 901e 3237 aebf ccb6
000003f0: f540 5538 a8ea f436 78ec 1c38 e2d0 a738
1.5031317e-05 2.0536834e-05 -1.0847517e-05 7.5116313e-06 -8.690244e-06 -6.6753028e-06 -1.1190233e-05 -4.5725997e-06
4.8065904e-06 -4.9215814e-06 -4.7676385e-06 1.15552375e-05 6.357146e-06 -4.13428e-06 1.9946601e-06 9.0602225e-06
-4.5030188e-06 3.687322e-06 4.8907177e-06 1.1156929e-05 -9.578181e-06 -2.9647344e-06 1.1788447e-05 3.846959e-06
-1.2233609e-05 1.0859076e-05 -5.841807e-06 -4.564027e-06 -1.001046e-05 7.738795e-06 4.9492087e-06 -1.2911789e-05
6.7939322e-06 -4.8012616e-06 1.4342652e-05 1.2517294e-05 8.806535e-06 -8.193618e-06 1.0446316e-05 -4.944483e-06
-3.1427658e-06 3.7012978e-06 -9.388752e-06 -4.9240266e-06 1.434548e-05 -7.928245e-06 1.260091e-05 1.914909e-06
-9.743907e-06 2.0930986e-05 -3.09455e-06 -7.201539e-06 5.0155477e-06 1.1246057e-05 -2.0539835e-06 5.0459244e-06
1.0485179e-05 -4.9503033e-06 -1.8944853e-05 -1.1398489e-05 1.5315884e-05 -3.6517931e-06 4.925757e-06 2.235527e-06
-3.6612423e-06 1.7847178e-06 -2.8809006e-07 2.5030079e-06 -0.0023995514 4.682603e-06 3.6669767e-06 -4.60409e-06
-3.7277082e-06 -3.7459504e-06 4.506266e-06 3.5267649e-06 3.6501406e-06 -3.7928603e-06 -1.4802736e-06 -4.6468226e-06
3.7950572e-06 -3.4447016e-06 -4.8029647e-06 3.778829e-06 -1.5686319e-06 3.6928177e-06 -3.756088e-06 0.0015055896
-3.719454e-06 -3.9741867e-06 -3.7621753e-06 3.6987076e-06 -4.3042946e-06 -4.6056957e-06 3.830469e-06 3.1924478e-06
4.6666723e-06 -4.6617874e-06 -4.6276964e-06 4.603839e-06 -3.780468e-06 -8.0475115e-07 4.746119e-06 3.7606683e-06
1.7693528e-06 4.7833523e-06 1.0350195e-06 1.7596794e-06 3.681928e-07 -4.635682e-06 4.8845886e-06 -1.4114116e-06
2.2456152e-06 -3.571155e-06 4.2054376e-06 4.6191435e-06 2.6270654e-06 1.4333996e-06 4.7920037e-07 -4.292714e-06
-4.773577e-06 -7.828621e-07 -4.81145e-06 4.154367e-06 3.471549e-06 -3.7802643e-06 -3.1257914e-05 4.870361e-06
-3.9466945e-06 -2.5816624e-05 2.9588768e-06 2.0062816e-06 4.502892e-06 6.543879e-06 -8.409996e-06 -2.3807634e-06
-4.5056013e-06 8.430152e-06 5.213337e-06 -3.9447503e-05 3.369933e-05 -8.471521e-06 6.4650826e-06 3.607583e-06
8.526378e-06 -8.62294e-06 -5.9910794e-06 -3.0914693e-05 6.0448956e-06 4.654325e-06 -4.5055085e-06 3.5528923e-05
-3.5186745e-06 -8.995035e-06 3.690243e-05 -4.3326995e-06 3.753786e-06 -7.1895483e-06 4.3081827e-06 2.974089e-06
2.4502892e-06 3.0655597e-06 4.727438e-06 6.055692e-06 4.107109e-06 -3.635207e-05 3.343067e-05 4.982203e-06
4.583385e-06 -3.5599085e-05 -4.457889e-06 -3.8100275e-06 3.5515684e-05 -1.992731e-05 -2.3002187e-06 4.827538e-06
2.2217039e-06 4.70945e-06 -4.2008187e-06 -4.650759e-06 -2.4942292e-05 1.4247587e-05 -3.4351106e-05 -4.671226e-06
-2.4082743e-05 3.3044274e-05 -4.500875e-06 -3.849093e-05 -3.8442386e-06 -8.231607e-06 -2.6784903e-06 -1.946921e-06
-1.3659371e-07 -1.6286849e-06 -9.707723e-06 7.522895e-06 -1.028905e-05 -1.2715111e-05 5.8656824e-06 -4.7848503e-06
-8.12807e-07 -7.3482497e-06 -3.5116982e-06 3.86633e-06 -6.1822e-06 1.01656e-06 2.7639112e-07 -3.0328663e-06
1.5622909e-06 2.2263087e-06 -3.7759792e-06 -4.2392403e-06 -4.901144e-06 -1.9301017e-06 -2.060802e-06 1.04010305e-05
2.6003472e-06 -2.8271309e-06 -2.9253802e-06 1.0383499e-05 -1.0918775e-06 -6.326156e-06 -5.355444e-06 -2.4752817e-06
1.6245455e-06 4.272395e-06 5.9485565e-06 5.876498e-06 -1.3998971e-06 -1.03057355e-05 -4.2841584e-06 -2.564011e-06
1.2661003e-05 1.3273084e-06 -1.2381037e-06 -7.90716e-06 -1.5740593e-06 1.3292912e-06 5.9973745e-06 -7.0233677e-06
-1.1245791e-06 3.4853051e-06 -2.8802506e-06 -1.3718109e-06 -4.6341934e-06 -6.2827626e-06 1.0423266e-05 1.0955754e-05
-1.2277977e-05 -6.592506e-06 1.0616743e-05 -6.101988e-06 5.0843653e-05 7.2990842e-06 3.7413527e-05 8.002088e-05

lays.0.bias f4 [256]
00000000: 2875 b2bd 53d9 90bd 6df1 d8bc 4c78 34bd
00000010: 2e97 e93c 272e b9bd a4c3 963e ccea 67bc
00000020: 5b07 ddbc 45bc 8d3d 8a43 1c3c 4064 ebbd
00000030: 7e25 71bc e752 bc3d 3867 ecbc 917d bb3c
00000040: 5e9a e13b b760 01bd 6d3b cabd 0a2c 04be
00000050: 8c79 d7bc 9621 4abd 082a 08be a121 f6bd
00000060: 9565 a3bc 4b1e efbd a893 3b3d 5ade 073d
00000070: 87e7 22bd 6004 b7bd 6d12 8abd b9f7 963d
00000080: b687 9f3d 4326 f7bd fd34 efbd 31d1 88bc
00000090: 3a80 e7bd 7931 ddbc 09c8 4fbd aae3 5c3d
000000a0: 9b6f c9bd cb00 2dbd 3ee8 22bd e0f8 4a3d
000000b0: dc3d 15be bc70 e8bd b1c9 4cbc 6c5b d1bc
000000c0: ab94 bc3e 09cc 80bc fb97 bfbc 6d6d 8cbd
000000d0: 8ed6 d73d 2df0 eabd 0cc7 ffbd 68ca 88bd
000000e0: c4a2 483c 25da 453c 86ee dd3d 2f71 683e
000000f0: faf1 03be 68fb a13e 42ad cf3d 84a5 54bd
00000100: 20a2 f7bd b70a 7cbd 4eff 853d 3ee0 a7bd
00000110: b7b0 9cbd 18eb 713d 90f2 a7bd 8656 26bd
00000120: 591b eabc bfae c1bc 5d62 ebbc d926 f7bd
00000130: 3337 6c3d 6ab8 f2bc e4ef 70bd 63c7 fcbd
00000140: 4794 1bbc 1f11 cebc 29d7 05be 42ec ebbd
00000150: be9e 9fbc b8bc d4bc 60b0 47bd e1ce 3abd
00000160: b168 a5bd b978 c9bc b208 b4bc c189 3cbc
00000170: f107 1f3d 08ef edbc 8566 0e3e ad13 8ebd
00000180: 4440 bd3d aadf e4bc 96d0 4abd 9864 e8bc
00000190: 66ee 0cbe e02c 9ebd eb2a 79bd 448c 13bb
000001a0: 19a8 f83b 6ece 09bd 892e 693d 73ff 96bc
000001b0: 931b a4bd 7a89 c1bd 4e30 a63b 3f51 aa3e
000001c0: 5666 50bd 552a ebbc 634b cb3e a3fe c1bc
000001d0: fb29 0d3c 74d5 043d 0f00 17bd 45d5 6a3e
000001e0: eb2d 673c 7b0d cebd d590 98bd 4433 8a3d
000001f0: a432 323d db82 b53d 2658 9c3d 2d9d 783c
00000200: a71b e2bc 4fd6 6cbc a154 c7bd 1adf 883d
00000210: 6fcc 5f3d a5b6 12bd 0b5d e6bc a01a aebd
00000220: a171 cf3d deb4 09be 46d6 a73e 1a84 933d
00000230: 9b49 4abd 3bef 8ebd 0e45 09bd 231f e5bc
00000240: 7944 a3bd af0c 793d 2a1d 19bb 7ebd 923e
00000250: 1b63 05be 3418 5dbc f6b8 54bd 3e3d d0bd
00000260: a9fe a8bd 80bd 173e 61ad d1bd 3a9f 81bd
00000270: 608f f6bd 858b 913c 8a00 d93d 1e1e 9cbc
00000280: c085 e43e 517e 843e 112b fdbc 9d92 b2bc
00000290: b876 9a3e f16c 6c3e 8e1a bb3e be38 0c3d
000002a0: dfe8 be3e 8d75 87bd 326d aabd 0d3e f1bc
000002b0: a2bd 33bd 66e1 d1bd 0ed7 a03c e04f 3f3d
000002c0: 12b9 04be 9525 ccbd b3fa e93d 5335 0dbe
000002d0: 1524 ffbd 0c62 903e f63f f4bd 04e9 40bc
000002e0: 803d c8bd 1348 f1bc 2958 0dbe 4c8d b13d
000002f0: aa9b ebbc 5798 213d 171b 14bd 91cb 803e
00000300: 4d10 b4bc e2d9 b3bd 7379 86bd 08e6 91bd
00000310: 8292 8c3d cf93 a8bc 26dd b93e 57b8 bc3e
00000320: dcc7 4e3c 2c72 02be eeb5 99bd 99d4 e8bd
00000330: ebc0 0cbe 019d 00bd 2e75 c03e 65e2 603d
00000340: 984d c2bc 743b c3bd 5fec a5bd 5608 9abd
00000350: c348 edbc 61da e1bc 150b e8bd a84b e8bc
00000360: 1799 f6bd 7a94 d1bc 1ffe a13e 1d57 b33e
00000370: 7a99 05be 4b8b d23d d37d 41bd bfbb e0bd
00000380: c0c3 61bd b067 3ebd f70c 37bd 68fd ecbc
00000390: d60a 683d 7867 6dbc d24d 9b3b 5281 debd
000003a0: 81f2 99bd 39fc f6bd ced9 663e 422e 963d
000003b0: 0dbc ddbd c1a0 19bd 5ed9 e5bc 4e4c bebd
000003c0: c4a7 d3bd 2bda 843e 8d21 70bd a3cc bfbd
000003d0: 8ac0 0d3b bf75 d9bd c446 3abc ffd6 fd39
000003e0: 6aac 3ebd 30ba d4bc 19f4 12bc 2b62 973d
000003f0: 6b18 55bc 0e4c 1fbe 84a1 823d 5485 8f3e
-0.08713752 -0.07072701 -0.026482308 -0.044060037 0.02851447 -0.09042006 0.29446137 -0.014155101
-0.026981046 0.06920675 0.009537587 -0.114937305 -0.0147184115 0.091955 -0.028857812 0.022887023
0.006884857 -0.031586375 -0.09874616 -0.12907425 -0.026303075 -0.049348436 -0.13297284 -0.12018133
-0.019945899 -0.116757 0.045795113 0.033171035 -0.039771583 -0.08936381 -0.06741796 0.07371468
0.07789557 -0.12067845 -0.116800286 -0.016701313 -0.11303754 -0.02700113 -0.050727878 0.053928055
-0.0983574 -0.042237084 -0.039772265 0.049553752 -0.14574379 -0.113496274 -0.012499259 -0.025556289
0.36832175 -0.015722292 -0.0233879 -0.06856809 0.1053897 -0.11471591 -0.12489137 -0.06679231
0.012245838 0.0120759355 0.1083651 0.22699426 -0.12885275 0.3163712 0.10140468 -0.05191566
-0.1209147 -0.061533656 0.06542836 -0.08197068 -0.07650893 0.059062093 -0.08200562 -0.04060986
-0.028577494 -0.023642896 -0.028733427 -0.120679565 0.05766983 -0.029628951 -0.058822528 -0.123427175
-0.009495801 -0.025154648 -0.13070358 -0.11519672 -0.019484874 -0.025968894 -0.04875219 -0.04560745
-0.08076609 -0.024593698 -0.021976802 -0.011507452 0.038825933 -0.029044643 0.13906296 -0.069373466
0.09240773 -0.027938683 -0.04951533 -0.02836828 -0.13762817 -0.07723403 -0.060831945 -0.0022514025
0.007588398 -0.033644132 0.056929145 -0.018432355 -0.08013072 -0.0945005 0.0050716763 0.3326511
-0.050878845 -0.028706709 0.39705953 -0.02368099 0.008615966 0.032430127 -0.03686529 0.22932918
0.014110069 -0.10061165 -0.074494995 0.067480594 0.043505326 0.08862849 0.076340005 0.015174192
-0.027601076 -0.014455392 -0.097329386 0.06683178 0.054638322 -0.035818715 -0.028120538 -0.08501172
0.10129095 -0.13447902 0.32780665 0.07202931 -0.049386602 -0.06979223 -0.03351312 -0.027968949
-0.079720445 0.06080311 -0.002336333 0.28660196 -0.13026087 -0.01349454 -0.051934205 -0.10167931
-0.082516976 0.14818382 -0.102381475 -0.06329198 -0.12039065 0.017766723 0.10595806 -0.01905733
0.44633293 0.25877622 -0.030904325 -0.021798426 0.301687 0.23088433 0.36543697 0.0342338
0.37287042 -0.06614218 -0.083216086 -0.029448533 -0.04388202 -0.102480695 0.019633796 0.046707034
-0.12961224 -0.09968106 0.1142477 -0.13789873 -0.12458054 0.28199804 -0.11926262 -0.011774305
-0.09777355 -0.029453313 -0.13803162 0.08669528 -0.02876075 0.039451923 -0.036158647 0.2515531
-0.021980429 -0.08781792 -0.06566133 -0.07123953 0.06863882 -0.020578293 0.36301535 0.3685939
0.012620892 -0.12738866 -0.075054035 -0.11368675 -0.13745467 -0.03139973 0.375894 0.054903407
-0.02371864 -0.09532824 -0.08101725 -0.07521121 -0.02896536 -0.027569951 -0.11330239 -0.028356388
-0.12040918 -0.025583494 0.31639192 0.350274 -0.13046828 0.10280474 -0.047239136 -0.1097331
-0.055118322 -0.046485603 -0.0446901 -0.028929427 0.05665096 -0.014490001 0.0047395015 -0.1086451
-0.07516957 -0.120598264 0.22544023 0.07333042 -0.108268835 -0.037506822 -0.02805775 -0.09291898
-0.10334733 0.259477 -0.058625747 -0.09365203 0.0021629655 -0.106181614 -0.011369411 0.00048416105
-0.046551146 -0.025967687 -0.00896933 0.07391771 -0.01300631 -0.15556356 0.06378463 0.2803141

lays.1.weight f4 [256, 256]
00000000: 7e62 37b7 8631 e5b6 ff16 8d36 8e4c 33b7
00000010: 9213 193c c0d6 e8b7 f8d4 e5bc b7b5 0ab8
00000020: 0040 99b8 5456 4cbd b7e6 333c d1ac c1b7
00000030: d584 9ab7 9580 cbb9 57c9 0bb7 ac95 fab7
00000040: be81 42b8 5c47 3837 ec0e f835 0b4b ea36
00000050: 51a3 68b6 0471 3537 4266 8437 fa0a 9c37
00000060: b177 24b8 4a40 7138 99dd ea35 9ae4 b238
00000070: 81aa 8a3a 2e5d 3837 7650 2a38 a3bd ccb8
00000080: cb21 8bb9 5460 7c37 9732 3cb6 7380 b83c
00000090: add7 9ab4 eba7 4ebc e50f 8736 e4a4 1fb8
000000a0: 0b4b 8737 1b24 403c 2766 90ba 48a1 8cb8
000000b0: 3ef1 d9b4 0852 c333 ce46 68b8 ef1f 213c
000000c0: 0df3 d4b9 016b 54b8 eeaa a234 02e5 94b7
000000d0: a263 9bb9 5190 2cb7 0610 29b7 be74 8e37
000000e0: d19a 6bb8 b14c e6b7 ade4 4738 a2ea efbc
000000f0: 88b7 59b7 3ef4 72ba 0a62 70b9 5515 3abb
00000100: 20e9 063c d103 8237 a007 a1b8 190d 4db5
00000110: 76b3 8c36 82df 2aba 53bf c5b6 eb6a 51b6
00000120: 89fe 5737 7dff 703b c313 9a37 1d43 50b6
00000130: ee60 0c3b dc4f 99b6 32e9 5d38 e349 1538
00000140: d9df 01b8 9798 64bb 0280 2ab7 f032 51b8
00000150: 83ce 14b9 f50c 2cb7 a6fc d437 ca5a 13b6
00000160: 962b ccb7 f968 42b7 193b aab8 f4b9 91b7
00000170: 9737 22bd f1d3 5c37 7522 20ba c5f7 1834
00000180: 880c ca3a 45c0 0738 38a4 0d38 052c 6436
00000190: 4b07 00b8 5860 8fb6 f29e 94b6 6726 73b8
000001a0: 019e 08b8 40bd 3b37 ebe5 5bb9 a386 4e37
000001b0: ac7a cdb7 151a bdb7 3ef9 96b9 ec20 dfb9
000001c0: c150 ceb7 a1b6 5eb8 9a67 0dba 905c 8c36
000001d0: 7b37 9734 1cee 69b6 6c67 96b7 4455 65ba
000001e0: d4b0 8fb9 2a04 19b7 056f 3db7 51f0 623b
000001f0: b271 65b9 319e 95b9 64e3 acb9 7bb2 0cb9
00000200: 6a2f a6b7 e66b 74b6 2247 72b7 e5fd 04ba
00000210: ceae 1cb9 7d36 dab7 55cd 7435 4e09 82b6
00000220: 5d6d 95bb 9136 08b7 cbfb 5fbb 1b77 1bb9
00000230: b355 0db7 8e52 f434 0d44 c9b5 1cbe 393c
00000240: 9412 88b7 9e46 7cb8 8e4a 06b7 7d97 ccb9
00000250: 51b5 9136 dbc1 a3b7 fab2 bfb6 babc 7237
00000260: 8d89 ce36 37aa 6fbc 8e96 2536 5a45 bd35
00000270: 6e78 00b6 29e2 923a 7d4c 91b7 d86d 0738
00000280: 6c51 32b9 4b6a e6b9 1872 8cb6 3d3d 97b7
00000290: 8864 a5b8 81a4 cf3c 9311 9eb9 079b a0b8
000002a0: 725f 8e3c 3751 93b6 2982 7037 3ab9 b1b7
000002b0: f240 58b6 846e 5b38 7ea9 dcb7 7fdf 6fb7
000002c0: 4d27 ab37 e44f 13b8 de4a 913c 2924 aa38
000002d0: cec0 a337 faec a7ba 83e7 0a37 56f4 92b7
000002e0: 17c3 a1b7 bb8f 9837 a7d0 4037 439b e8b8
000002f0: 365a afb6 75a9 c0b8 dec8 bf36 a9a1 9bbc
00000300: 77e0 a4b7 c2e3 aab7 41cd 2db7 7066 dd37
00000310: 1827 fdb8 a186 2bb5 5d6d 52b8 f328 b7b9
00000320: 66b8 23b8 dbe5 01b8 6c1d dd37 0402 d5b5
00000330: 80cd dfb7 4da5 2437 5353 92b9 7685 ecb7
00000340: ccbd 8cb7 1ad9 41b7 4da7 21b7 dcc8 3fb6
00000350: d164 4b38 506e 7437 6011 b13b ab70 683c
00000360: 8e8c d037 7e9a f636 1f31 74b9 979c 9f3b
00000370: aa87 b637 3007 fe38 d9db ad37 d35a 52b6
00000380: 470c 4237 2684 d437 4d73 a83c 6ff7 1f37
00000390: 833c 1dba b7c5 b5b8 0e55 2e3c 33fc ad36
000003a0: cdf6 d7b6 025e 8cb6 5ace aab9 7531 05b8
000003b0: 54d4 18b6 f6fd 94b7 c025 21b7 6e67 4b38
000003c0: 4b87 4cb7 062d 9e3b 9306 ce35 0e59 3337
000003d0: e7ce 43b9 4c50 14b8 2445 93b8 4577 893b
000003e0: 7117 2fb8 185a 0ab7 3bf2 5bba fe66 58b8
000003f0: da19 b0b7 c5fa 7db7 564b e9b9 7e62 a13c
-1.0930582e-05 -6.830497e-06 4.2048046e-06 -1.0687056e-05 0.009343045 -2.7756556e-05 -0.028055653 -3.3071e-05
-7.3075294e-05 -0.049887016 0.0109803 -2.3087867e-05 -1.8420085e-05 -0.00038814978 -8.331924e-06 -2.9872019e-05
-4.6374036e-05 1.0983869e-05 1.8481783e-06 6.9824796e-06 -3.4665757e-06 1.0814754e-05 1.5783244e-05 1.860176e-05
-3.921212e-05 5.751875e-05 1.7498852e-06 8.530282e-05 0.0010579379 1.098895e-05 4.0606094e-05 -9.7628006e-05
-0.00026537324 1.5042799e-05 -2.804363e-06 0.022522187 -2.884166e-07 -0.012613277 4.025164e-06 -3.806212e-05
1.6128199e-05 0.011727358 -0.0011016772 -6.705761e-05 -4.0594927e-07 9.0953165e-08 -5.5379052e-05 0.009834274
-0.00040616878 -5.0644394e-05 3.029922e-07 -1.7749615e-05 -0.00029638136 -1.02856e-05 -1.0076916e-05 1.6982081e-05
-5.617255e-05 -2.7453849e-05 4.7658268e-05 -0.029286686 -1.297694e-05 -0.00092679623 -0.00022924706 -0.0028394063
0.008234292 1.5498985e-05 -7.6784985e-05 -7.638751e-07 4.193217e-06 -0.00065182906 -5.8933306e-06 -3.1205661e-06
1.2874262e-05 0.0036773377 1.8367433e-05 -3.103348e-06 0.002142008 -4.569052e-06 5.2907686e-05 3.559318e-05
-3.096447e-05 -0.003488099 -1.0162594e-05 -4.9876922e-05 -0.00014191311 -1.0255016e-05 2.5390018e-05 -2.1957553e-06
-2.4338991e-05 -1.1587742e-05 -8.1172395e-05 -1.7371938e-05 -0.039603796 1.3162368e-05 -0.000610865 1.4246241e-07
0.0015415112 3.2365573e-05 3.376996e-05 3.400027e-06 -3.052437e-05 -4.272948e-06 -4.4292474e-06 -5.797148e-05
-3.257208e-05 1.1190132e-05 -0.00020971119 1.2309904e-05 -2.4495028e-05 -2.2542701e-05 -0.0002879593 -0.00042558403
-2.4594718e-05 -5.309901e-05 -0.0005394161 4.183101e-06 2.816631e-07 -3.4858303e-06 -1.7929553e-05 -0.00087483623
-0.00027406833 -9.12048e-06 -1.1291127e-05 0.0034628103 -0.00021881497 -0.00028537356 -0.00032975816 -0.0001341793
-1.9810821e-05 -3.6421638e-06 -1.4440886e-05 -0.00050732336 -0.00014942439 -2.6012998e-05 9.119588e-07 -3.875385e-06
-0.0045601563 -8.118936e-06 -0.003417718 -0.00014826322 -8.424208e-06 4.5508608e-07 -1.4995472e-06 0.0113368295
-1.6221114e-05 -6.014725e-05 -8.004381e-06 -0.0003902278 4.3424448e-06 -1.9521385e-05 -5.713079e-06 1.4468265e-05
6.1552914e-06 -0.014627985 2.467455e-06 1.4101781e-06 -1.9143586e-06 0.0011206317 -1.7320965e-05 3.2288808e-05
-0.00017005735 -0.00043948213 -4.1856074e-06 -1.8029119e-05 -7.8865385e-05 0.025346996 -0.00030149202 -7.6582706e-05
0.017379496 -4.390396e-06 1.433542e-05 -2.1186297e-05 -3.2224311e-06 5.2316595e-05 -2.630497e-05 -1.4297547e-05
2.040309e-05 -3.5121935e-05 0.017735895 8.112967e-05 1.9520896e-05 -0.0012811713 8.279344e-06 -1.7518334e-05
-1.9283541e-05 1.8186742e-05 1.14926725e-05 -0.00011091542 -5.2259084e-06 -9.186837e-05 5.7156276e-06 -0.018997984
-1.9654848e-05 -2.0371637e-05 -1.0359393e-05 2.6392954e-05 -0.00012071262 -6.3898375e-07 -5.0169754e-05 -0.0003493499
-3.9033963e-05 -3.0970066e-05 2.6358954e-05 -1.5870323e-06 -2.6679365e-05 9.813649e-06 -0.0002790937 -2.819554e-05
-1.6777682e-05 -1.1554244e-05 -9.635301e-06 -2.8578133e-06 4.8492864e-05 1.45692175e-05 0.0054036826 0.014187018
2.4860983e-05 7.3493566e-06 -0.00023287952 0.004870962 2.1759264e-05 0.000121130026 2.0725582e-05 -3.1345305e-06
1.156616e-05 2.5333906e-05 0.020562792 9.534749e-06 -0.00059980917 -8.66758e-05 0.010640396 5.1851616e-06
-6.4362307e-06 -4.183269e-06 -0.0003257867 -3.175573e-05 -2.2773356e-06 -1.7761235e-05 -9.605137e-06 4.8495298e-05
-1.2190848e-05 0.0048271446 1.5350109e-06 1.0689966e-05 -0.00018673726 -3.5360732e-05 -7.022385e-05 0.0041951262
-4.1745083e-05 -8.246418e-06 -0.0008390282 -5.1594332e-05 -2.0992873e-05 -1.5138362e-05 -0.00044497353 0.019700285

lays.1.bias f4 [256]
00000000: 4b6b 04bd 482c 9ebb fe7d f1bc 890e 12bd
00000010: ec11 82bd 866c aebc 1273 05bd 81bf b73d
00000020: 3cce 7fbc 45a8 823b 9256 58bd 76c1 e7bc
00000030: 8988 3ebd 721f 02bd 0074 28bd 41e2 2fbd
00000040: 221c a0bd 6aaf 6fbd 735e dcbc e27f 90bd
00000050: b8ae 18bc 9c0c 08b8 9214 85bc a223 9ebc
00000060: 2d08 9cbc 0d6a 43bd 9235 8bbc 86e1 c4bc
00000070: 2b06 b8bc ba1e 10bd af02 71bd 1df7 d2bc
00000080: cdbd aebc ebea bfbc 5f84 2bbd 2bc5 91bd
00000090: d4f9 0dbc 9342 94bd 0c72 46bd b500 18bd
000000a0: 5c88 71bd cc3a c9bc 5f06 b53d d688 03bc
000000b0: 5666 da3c b9f7 c0bc 2d98 5dbc ce60 a9bc
000000c0: 1ebf cebc 3280 3ebd e346 82bc 05c8 12bb
000000d0: 3b36 a0bc 2016 ebbc 933f 91bd a1d2 b1bc
000000e0: a1fa d2bc 9ff7 52bd 4178 0e3c aa9b a1bc
000000f0: 4079 25bd 2126 4cbc 8185 91bc 6c1a cabc
00000100: e7a9 dcbc 81f8 96bc bc4c 94bc 07a0 9ebd
00000110: c4cd bbbc 49e8 b4bc 1cdf 98bd 9453 3cbd
00000120: 66dd 0a3c 3327 45bd 9492 2bbc f091 7fbd
00000130: cfe4 56bd e696 17bc 79a6 85bd e75d 5dbd
00000140: 8fa2 acbc c07d 223c 8930 62bd 39af aebc
00000150: a032 cbbc a61a 6cbd bfba 4ebc f852 8bbd
00000160: e037 b6bc 0c5e 5fbc cdf7 37bd a9a0 a1bc
00000170: dc10 a3bd bb16 9abc 1759 94bb 5212 d9bc
00000180: 96b5 7bbc 9c1c 393c 5340 82bd 93fc febb
00000190: bcfc 16bc f4b2 10bd 888a 7bbc 535b a3bc
000001a0: 3986 bfbc 0743 57bd 7f68 c6bc 1563 e6bc
000001b0: afe2 5cbc 9104 c7bd c15c 00bc 1c71 99bd
000001c0: 5196 02bd 62c7 adbc a595 5ebc 791d 7abc
000001d0: 201f 87bd 3163 27bd 1090 b2bc 1317 18bd
000001e0: 9a35 03bd 108b 3abd f513 26bd 110e b0bb
000001f0: 9172 14bd b30e 00be 072d 9dbc f368 3abd
00000200: c6b9 cdbc 5647 89bd 4c64 12bd cf8f f8bc
00000210: 2539 39bd 4d11 63bd b04a 85bd 2856 59bd
00000220: 26cb 6fbd d082 7cbc a5d2 053b 568e 40bc
00000230: 5366 f4bc 1849 4dbd e8c3 15bd 5428 5bbc
00000240: 4d25 14bd 0e78 d2bc 0428 92bc 1037 3cbd
00000250: e0d0 98bc 99a9 4fbc 5241 a4bc fbfa 95bc
00000260: e7e3 aebc 048b 72bd 6da4 a93e 4a86 debc
00000270: 29dd 7bbd 5b72 72bc aee7 85bc 93ea 8cbd
00000280: c83a 37bd d979 a9bd 9116 30bd e1e5 e8bc
00000290: 3610 f4bc 77b3 f0bc 3cbd 05bd 7a30 bdbc
000002a0: 6208 24bd 0553 04bd 5d28 91ba afbf 6abc
000002b0: 4801 38bb 5ab3 80bd a86a 15bd 120d c5bc
000002c0: c51f a8bc c9e8 a2bc 2e97 59bc 4972 9abb
000002d0: ccf9 5fbd b946 86bc b8e3 3ebd 68fa 7dbc
000002e0: 89de 4bbd c1a4 59bc e961 2dbc 8d95 e2bc
000002f0: 037f 98bd 30a0 b1bd e905 82bd 86ff 42bc
00000300: 1612 40bc 5dde 10bd a99d acbc e710 01bb
00000310: 0c24 33bd d3f3 9ebc 7d81 5cbd e1f9 c5bc
00000320: 418e f7bc 9d4e fbbc e5ed cabc 9351 cdbc
00000330: d687 b9bc 2825 81bc dc7b 03bd acee 0abd
00000340: dbbb 37bd 0b82 b0bc 6845 11bc c147 cbbc
00000350: 69cd ecbb cba0 a7bc 5828 b4bc c780 0bbe
00000360: e78a 99bb d205 c1bc 6225 6cbd 0278 6dbd
00000370: 67f0 26bd 0f27 fabb 9f68 66bd 7a89 35bd
00000380: 230d 00bc 9580 cfbd c74f fabc 847b 3fba
00000390: f3e7 f7bc 2e8f 58bd 412b f9bc b879 6bbc
000003a0: d945 79bd 530a 68bd 01af 71bd 734f 52bc
000003b0: 67d2 5dba 63cd bbbd b7b3 21bd bed1 65bd
000003c0: 37f4 babc a26d d9bc be01 42bd ad0a 2fbc
000003d0: b3d4 0f3e 498b 78bd 68e7 e2bc 3832 7ebd
000003e0: 7f58 22bc f0b3 68bd e4e2 c3bc 5c60 03bd
000003f0: 9e1c 01bc 981b 423d d266 abbc 228a 8dbd
-0.032328885 -0.004827056 -0.029479023 -0.035658393 -0.063510746 -0.021291982 -0.032580443 0.08972073
-0.015613135 0.0039873444 -0.052816935 -0.028290492 -0.04651693 -0.03176827 -0.04112625 -0.042940382
-0.07817866 -0.058516897 -0.026900506 -0.07055642 -0.009319 -3.243667e-05 -0.01624516 -0.0193041
-0.019046867 -0.04770856 -0.016993318 -0.02403332 -0.022463879 -0.035185553 -0.05884045 -0.025752598
-0.021330738 -0.023427447 -0.041874286 -0.07117685 -0.008665521 -0.072392605 -0.048448607 -0.03711005
-0.058967933 -0.02456417 0.08839106 -0.00802823 0.026660126 -0.023555623 -0.013525051 -0.020676043
-0.025237616 -0.046508975 -0.015902942 -0.0022397053 -0.01955711 -0.028697073 -0.07092204 -0.021706881
-0.025754275 -0.05150568 0.008695663 -0.019727547 -0.040398836 -0.0124602625 -0.017763855 -0.024670802
-0.026936485 -0.018429043 -0.018102996 -0.077453665 -0.022925265 -0.022083418 -0.0746443 -0.045978144
0.008475637 -0.048133086 -0.010471959 -0.062395036 -0.052464303 -0.009252286 -0.06525893 -0.05404463
-0.021073608 0.009917676 -0.055222068 -0.021323787 -0.024804413 -0.0576426 -0.012617766 -0.068029344
-0.02224344 -0.013633262 -0.044914056 -0.019729929 -0.079622 -0.018809667 -0.004527222 -0.026497994
-0.015363118 0.011298325 -0.06359925 -0.007781574 -0.00921553 -0.035326913 -0.015352853 -0.019941008
-0.023379432 -0.052554157 -0.02421975 -0.028123418 -0.01348178 -0.09717668 -0.007834614 -0.07492277
-0.031881634 -0.021213237 -0.013585483 -0.015265816 -0.065977335 -0.04086608 -0.02179721 -0.03713138
-0.03203354 -0.045542777 -0.040546376 -0.0053727706 -0.03624207 -0.12505607 -0.01918651 -0.045510244
-0.025112998 -0.067030594 -0.03574018 -0.03034201 -0.045220513 -0.05543642 -0.06508386 -0.05306068
-0.058543347 -0.0154120475 0.0020419743 -0.0117526855 -0.029833948 -0.050118536 -0.036563784 -0.013376314
-0.036168385 -0.025692012 -0.017841347 -0.04595095 -0.018654287 -0.012674713 -0.020050678 -0.018308153
-0.021348907 -0.059214607 0.3313326 -0.027163643 -0.06149021 -0.014797772 -0.016345825 -0.06880679
-0.044733793 -0.08275194 -0.04299027 -0.028429927 -0.029792886 -0.02938245 -0.03265117 -0.023094404
-0.040047057 -0.032305736 -0.0011074651 -0.0143279275 -0.0028076936 -0.062842086 -0.03647867 -0.024054084
-0.020522961 -0.019886391 -0.013280673 -0.004713331 -0.054681584 -0.016391145 -0.04660389 -0.015501596
-0.049772773 -0.013283909 -0.010582426 -0.027659202 -0.074461006 -0.086731315 -0.063487835 -0.011901742
-0.011723062 -0.035368312 -0.021071272 -0.0019693912 -0.04373555 -0.019403374 -0.053834427 -0.024167003
-0.0302192 -0.030677134 -0.02477164 -0.025063312 -0.02264778 -0.015764788 -0.032100543 -0.03391902
-0.044856887 -0.021546384 -0.008866645 -0.024814488 -0.0072266352 -0.020462414 -0.021991894 -0.13623343
-0.004685748 -0.023562346 -0.05765284 -0.057975776 -0.04075661 -0.0076340507 -0.05625212 -0.04432056
-0.007815632 -0.10131947 -0.030555619 -0.0007304477 -0.03026197 -0.05287092 -0.030416133 -0.014372282
-0.060857628 -0.05665047 -0.059004787 -0.012836325 -0.00084618333 -0.09170034 -0.03947803 -0.05610823
-0.022821529 -0.026541535 -0.047364943 -0.010683698 0.14045982 -0.060679708 -0.027698234 -0.06205961
-0.009908794 -0.056812227 -0.0239119 -0.032074317 -0.007880358 0.047389597 -0.020923052 -0.06911112

lays.2.weight f4 [2, 256]
00000000: 2d24 9439 5629 0339 adc3 65ba 14d2 a5bb
00000010: 6602 303d 337a 8fb9 796b f0b9 dec5 edb8
00000020: fcfe 8a3a 249a 2b38 50bb bcbc 71d6 9bbb
00000030: bd00 af3c acc6 2b3b a96f 023a 04fc 7cbc
00000040: d534 e8b7 322b 69bb bfb6 853a db42 e438
00000050: 97fe 1d38 f98d 6ab8 fd9e 1a39 978c b93a
00000060: 2076 183b 377d 6cbb fe2f ea3a fe79 60ba
00000070: 2668 3cb9 ec5e 063c 6d62 ae3c 8dd2 1a3b
00000080: 9235 acbb 4ead bdba 10b9 3fba 0884 d6ba
00000090: 6dba 243b 62e9 9d3b 462d af3c 99d9 92bb
000000a0: b1b1 7b3c c3d9 2938 126d 1eba 7efe 513d
000000b0: f9c7 2abb 680a 35b8 d259 84b9 e4a4 08b9
000000c0: 748e c7b8 840f 26bc 1e96 5338 2404 80b8
000000d0: b3e1 3c3b 71b3 423b 0cdd 3dbc d110 813a
000000e0: c7dc 9bb8 85dd bfbc df74 153c 50df 3636
000000f0: 2d08 46bb aacf 063b 3102 cb37 9ec6 8db4
00000100: 71ea ce39 e8c2 2a3a 20ad 87bc b9c5 e5bb
00000110: c920 54bd a6c9 00ba e0de 8c3c 637d 683b
00000120: c9e1 f4bb a2c1 913c dab7 0c3a efdb 253d
00000130: 43c4 003c 9b51 263d 3bdd 463c 1d26 fd39
00000140: fecc 1db9 5efd e9bc bda4 c6bc d2d4 223a
00000150: 44db 0d3b 2a4c c6bc 0f8d 05ba fe09 1f3d
00000160: 0fb1 413b 4a98 493a 2beb 1bbd 8c7c 1939
00000170: 087c 6dbb 70e5 543a d43a 1238 bf1e e63b
00000180: e03b cbb5 419b 653b 96bc a2bb 7781 5f36
00000190: e50b 763b 9c88 a4ba 4202 18b6 62bc ecb7
000001a0: 5e05 1738 3015 9bbb 88e4 9f38 9f7d baba
000001b0: 4ac1 11ba 3d38 093b 6409 6f38 43ae 603c
000001c0: 89c4 9d3a c3dd 073b e6ea 2e39 cf3a 893a
000001d0: 4944 62bc fbb5 8b38 4173 e73a 826c 2d3c
000001e0: 62b9 773b 3fa9 1f3c 2a41 e73c 8efa 88b9
000001f0: 2972 3f3b 3329 203c c672 3238 8ad5 03bc
00000200: f455 24bd 7a9f 353d 7981 2f3a fd82 92bb
00000210: e851 443b d489 81ba 73fb 82bb aa38 23bd
00000220: 1fa3 b53c 9d05 113b f3a1 43b7 2d27 f0b8
00000230: 35db 27bb 4234 593c 9f1e 56ba 9c28 fb3a
00000240: 6fcc 153b c8f0 e8bc 92dd 99b5 fae6 293b
00000250: 0ca0 3b39 3c2a 8cba a576 15ba 9786 5c3a
00000260: f1f3 893b 2ba5 16bd fdd0 22bc 8173 0a39
00000270: d12b 833b a513 b1b9 f167 c23b fea1 a3ba
00000280: 4377 923c 0723 f63c 2419 49b9 5775 2aba
00000290: 3145 a13b 291a c2bb f597 2d3b 9735 de39
000002a0: 4f46 73ba e164 dbbb 6404 053d d804 6d39
000002b0: 9250 4d38 0765 0dbd 79c2 f43a 5287 4e38
000002c0: 5cad 043b b3db 383c 40c6 2f38 83f2 c03a
000002d0: f99b 1fbb 63d6 763b 4846 c0ba bee4 99bb
000002e0: 3b7e 003a f97b 943a 463d f13b 906a bfbc
000002f0: de7a c13c a722 843b 83b9 463c c24b dd38
00000300: 1d84 afb7 0848 5abb 2c17 00bc c68b 473c
00000310: 8cab 1139 46fc 96ba f31e 9b3a 5b92 973a
00000320: 779f ad37 0629 5abb ea49 d53c e193 6f37
00000330: 9310 9db8 4c8a 8538 45d3 ef3c 3f02 7c3c
00000340: 093d a03b a223 e43b 78d5 66bb 8f53 903b
00000350: 45e2 1db8 1873 603c 7889 513c 30f9 3ab9
00000360: 0079 8b38 e95d 84bb d634 653c 3850 73ba
00000370: 4ef0 0dbc e3b2 8b3a 033a 10b8 9c99 75bb
00000380: 5595 bb3a ef24 613c 2daa f7ba e3f0 b0b9
00000390: df2f 133c fc89 29bd 72f7 06bb 45d9 1cbb
000003a0: fc72 523c 2289 5c3b 3336 e2bc aa07 ce38
000003b0: e039 5438 a595 fc3b 0cd4 b93c 093f 8bb9
000003c0: ca82 973a 8243 09bc ce86 7bbd e8a5 c538
000003d0: b400 ba39 cbba f13c 55c3 fb3b 195b 8b3c
000003e0: 5569 28b8 d0ef adbb 2d2c ddb7 2b4d ca38
000003f0: 8af4 1bb8 77d9 1bbd da34 35ba 4544 b93c
0.00028255713 0.00012508532 -0.00087648147 -0.0050604437 0.042971037 -0.0002736613 -0.0004585644 -0.00011337896
0.0010604556 4.091313e-05 -0.023038536 -0.004755788 0.021362657 0.0026210947 0.0004975745 -0.015440945
-2.7681157e-05 -0.0035578725 0.0010201557 0.0001088434 3.7668822e-05 -5.592217e-05 0.00014745812 0.0014156279
0.0023263767 -0.0036085376 0.0017867086 -0.00085631 -0.00017967875 0.008201342 0.021287167 0.0023624033
-0.0052554095 -0.0014471204 -0.0007313648 -0.0016366253 0.0025135532 0.004819081 0.021383893 -0.004481506
0.015362189 4.0495546e-05 -0.00060434744 0.051268093 -0.0026059134 -4.3163454e-05 -0.00025243923 -0.00013031397
-9.5155934e-05 -0.010135535 5.0446128e-05 -6.104287e-05 0.002882105 0.0029709006 -0.011588346 0.0009846931
-7.432099e-05 -0.023421058 0.0091221025 2.7250098e-06 -0.0030217275 0.0020570555 2.4200506e-05 -2.640781e-07
0.00039466054 0.00065140286 -0.016562045 -0.007012096 -0.05178908 -0.00049128605 0.017196119 0.0035475127
-0.0074732048 0.017792527 0.0005367972 0.04049295 0.007859292 0.04060517 0.012137706 0.00048284317
-0.00015049052 -0.028563198 -0.024248475 0.0006211522 0.0021645585 -0.02420624 -0.0005094567 0.03882789
0.0029554998 0.00076902343 -0.03806607 0.00014637614 -0.0036237258 0.0008121347 3.48639e-05 0.007022708
-1.5142105e-06 0.0035035165 -0.004966329 3.3304948e-06 0.003754371 -0.001255292 -2.265108e-06 -2.8221115e-05
3.6006204e-05 -0.0047327504 7.624278e-05 -0.0014228112 -0.00055601133 0.0020938062 5.6990786e-05 0.013713422
0.0012036721 0.0020731546 0.0001668144 0.0010469797 -0.013810226 6.661933e-05 0.001765825 0.010584952
0.0037799706 0.009744941 0.028229315 -0.0002612662 0.0029212332 0.009775448 4.2545398e-05 -0.008046517
-0.040121034 0.04434154 0.0006695013 -0.0044711814 0.0029956046 -0.0009882995 -0.0039972602 -0.03984896
0.022172509 0.002212859 -1.16606125e-05 -0.00011451389 -0.0025612835 0.013257088 -0.0008168015 0.0019161883
0.0022857448 -0.028435126 -1.1463874e-06 0.0025925026 0.00017893332 -0.0010693739 -0.00057015783 0.00084123894
0.0042099883 -0.03677861 -0.009937522 0.00013203734 0.004003026 -0.00033774707 0.005932801 -0.001248419
0.017879134 0.030046 -0.0001917822 -0.00065024704 0.0049215783 -0.0059235287 0.0026488279 0.00042383067
-0.0009280191 -0.0066953753 0.03247489 0.00022603886 4.8950846e-05 -0.034520175 0.001867368 4.9240254e-05
0.0020244932 0.011282849 4.1907886e-05 0.0014720712 -0.0024354442 0.0037664406 -0.0014669383 -0.0046964576
0.00049016223 0.0011328451 0.0073620407 -0.023366243 0.023618158 0.004032451 0.01212919 0.00010552212
-2.0923146e-05 -0.0033307094 -0.007818025 0.012179321 0.00013892184 -0.0011519275 0.0011834785 0.0011564003
2.0697464e-05 -0.0033288612 0.026036222 1.4279941e-05 -7.4894306e-05 6.367694e-05 0.029275546 0.015381395
0.0048900885 0.0069622556 -0.0035222452 0.004404492 -3.7642447e-05 0.0136993155 0.012789123 -0.00017831172
6.6505745e-05 -0.0040395153 0.013989648 -0.0009281668 -0.00866325 0.0010658171 -3.4386303e-05 -0.0037475592
0.0014311472 0.013741716 -0.0018895321 -0.0003374881 0.008983581 -0.041391358 -0.0020594266 -0.0023933214
0.012844797 0.0033651073 -0.027613735 9.824273e-05 5.059864e-05 0.0077082687 0.02268412 -0.0002655911
0.0011559364 -0.0083779115 -0.061407857 9.4245945e-05 0.00035477208 0.029508015 0.0076831975 0.017011212
-4.015242e-05 -0.005308129 -2.6365824e-05 9.646484e-05 -3.7182625e-05 -0.038049188 -0.00069124775 0.022615561

lays.2.bias f4 [2]
00000000: dd2b 69be c7df 833e
-0.22770639 0.25756666

l1.weight f4 [256, 63]
00000000: 042f 7c37 8446 ac37 bbfd 35b7 6c0c fc36
00000010: 50cc 11b7 6afc dfb6 afbd 3bb7 556e 99b6
00000020: 4c48 a136 1024 a5b6 b4f9 9fb6 5edd 4137
00000030: 784f d536 32b9 8ab6 00dc 0536 5c01 1837
00000040: a318 97b6 b673 7736 f21a a436 a52e 3b37
00000050: f9b1 20b7 c0f5 46b6 ffc6 4537 2015 8136
00000060: f33e 4db7 602f 3637 bd04 c4b6 b224 99b6
00000070: 99f2 27b7 dfd5 0137 6111 a636 b69f 58b7
00000080: 6ff7 e336 861a a1b6 39a1 7037 5e01 5237
00000090: c8bf 1337 5277 09b7 9642 2f37 c9e8 a5b6
000000a0: 4ee8 52b6 d063 7836 6284 1db7 1139 a5b6
000000b0: 5ead 7037 8e03 05b7 7f68 5337 e381 0036
000000c0: c379 23b7 f394 af37 f7ab 4fb6 c0a4 f1b6
000000d0: 3a4b a836 72ad 3c37 2bd7 09b6 2950 a936
000000e0: 80e9 2f37 c81a a6b6 c3eb 9eb7 233c 3fb7
000000f0: 9c7a 8037 5411 75b6 ee47 a536 1006 1636
00000100: aab3 75b6 708a ef35 ccaa 9ab4 59f9 2736
00000110: cb41 1dbb 411f 9d36 2e16 7636 d57c 9ab6
00000120: 8a29 7ab6 f062 7bb6 8834 9736 5cad 6c36
00000130: f0f4 7436 d888 7eb6 d0ad c6b5 e7eb 9bb6
00000140: 96ae 7e36 862b 67b6 2729 a1b6 ca97 7d36
00000150: c889 d2b5 20d2 7736 1a11 7cb6 3457 c53a
00000160: bc9b 79b6 015a 85b6 ae79 7cb6 5037 7836
00000170: 9c6d 90b6 a08a 9ab6 7a87 8036 d63d 5636
00000180: 6996 9c36 736c 9cb6 9c47 9bb6 ad7a 9a36
00000190: f2b3 7db6 1406 58b5 da40 9f36 ca5f 7c36
000001a0: 807a ed35 af80 a036 00eb 8a35 202e ec35
000001b0: 08ac c534 358c 9bb6 4ce6 a336 bc6f bdb5
000001c0: 60b3 1636 faa7 6fb6 6f1c 8d36 24fe 9a36
000001d0: a44c 3036 3c63 c035 66a2 0035 220a 90b6
000001e0: b72c a0b6 e025 52b5 0a72 a1b6 be65 8b36
000001f0: c2f8 6836 72b0 7db6 ee1a 03b8 156c a336
00000200: d96d 84b6 c790 d8b7 1e91 4636 a8a3 0636
00000210: 8c17 9736 7e93 db36 a818 0db7 34c5 1fb6
00000220: d22e 97b6 3a6f 0d37 39ee ae36 6f74 25b8
00000230: 6158 0d38 e820 0eb7 a3ee d836 ce19 7236
00000240: 840c 0f37 3fab 10b7 fb06 c9b6 66aa 01b8
00000250: 42d5 ca36 592c 9c36 062e 97b6 e404 1538
00000260: 5e22 6cb6 62e9 16b7 afc7 1a38 9b61 91b6
00000270: 8de9 7b36 c03d f1b6 028f 9036 7696 4736
00000280: a66f 2436 eab9 4d36 62a0 9e36 0032 cb36
00000290: cccf 8936 bd78 18b8 e937 0c38 cc2c a736
000002a0: faca 9936 3a50 15b8 fa94 95b6 c6af 7fb6
000002b0: adf6 1438 9329 a7b7 755d 1ab6 3cfc a136
000002c0: 9518 1536 de05 9e36 c2f4 8cb6 b70d 9cb6
000002d0: 2a3b d1b7 ec08 6f37 3814 10b8 87bd 9cb6
000002e0: 4c05 cab7 0599 0a38 3906 97b6 5271 21b8
000002f0: c2fd 80b6 7c1a 0ab7 1dc0 33b6 d9a7 02b6
00000300: 98aa 12b4 3099 dab5 5ade 22b7 2d6d fc36
00000310: 229f 2cb7 fc52 55b7 d4d1 c436 8d8d a0b6
00000320: ac2f 5ab5 fc90 f6b6 84aa 6bb6 86bb 8136
00000330: b270 cfb6 bc70 8835 e862 9434 3f88 4bb6
00000340: e8af d135 b167 1536 d466 7db6 cc3e 8eb6
00000350: 8274 a4b6 e586 01b6 4f4c 0ab6 1680 2e37
00000360: a081 2e36 bdb9 3db6 a651 44b6 ca34 2e37
00000370: a08c 92b5 4445 d4b6 eab2 b3b6 041d 26b6
00000380: f50a da35 985b 8f36 b699 c736 bc2e c536
00000390: 19e4 bbb5 cce6 2cb7 a4c0 8fb6 6011 2cb6
000003a0: 986a 5437 f825 b235 eb2c a6b5 fea8 04b7
000003b0: 4444 d3b5 196a b235 0e3d c936 45aa ebb6
000003c0: 3ef0 96b5 16e5 6936 544a 41b6 101f b8b5
000003d0: 6b7f 9bb6 85d0 d2b6 96df 2e37 9bce 3737
000003e0: 82fd 4db7 3235 ddb6 901e 3237 aebf ccb6
000003f0: f540 5538 a8ea f436 78ec 1c38 e2d0 a738
1.5031317e-05 2.0536834e-05 -1.0847517e-05 7.5116313e-06 -8.690244e-06 -6.6753028e-06 -1.1190233e-05 -4.5725997e-06
4.8065904e-06 -4.9215814e-06 -4.7676385e-06 1.15552375e-05 6.357146e-06 -4.13428e-06 1.9946601e-06 9.0602225e-06
-4.5030188e-06 3.687322e-06 4.8907177e-06 1.1156929e-05 -9.578181e-06 -2.9647344e-06 1.1788447e-05 3.846959e-06
-1.2233609e-05 1.0859076e-05 -5.841807e-06 -4.564027e-06 -1.001046e-05 7.738795e-06 4.9492087e-06 -1.2911789e-05
6.7939322e-06 -4.8012616e-06 1.4342652e-05 1.2517294e-05 8.806535e-06 -8.193618e-06 1.0446316e-05 -4.944483e-06
-3.1427658e-06 3.7012978e-06 -9.388752e-06 -4.9240266e-06 1.434548e-05 -7.928245e-06 1.260091e-05 1.914909e-06
-9.743907e-06 2.0930986e-05 -3.09455e-06 -7.201539e-06 5.0155477e-06 1.1246057e-05 -2.0539835e-06 5.0459244e-06
1.0485179e-05 -4.9503033e-06 -1.8944853e-05 -1.1398489e-05 1.5315884e-05 -3.6517931e-06 4.925757e-06 2.235527e-06
-3.6612423e-06 1.7847178e-06 -2.8809006e-07 2.5030079e-06 -0.0023995514 4.682603e-06 3.6669767e-06 -4.60409e-06
-3.7277082e-06 -3.7459504e-06 4.506266e-06 3.5267649e-06 3.6501406e-06 -3.7928603e-06 -1.4802736e-06 -4.6468226e-06
3.7950572e-06 -3.4447016e-06 -4.8029647e-06 3.778829e-06 -1.5686319e-06 3.6928177e-06 -3.756088e-06 0.0015055896
-3.719454e-06 -3.9741867e-06 -3.7621753e-06 3.6987076e-06 -4.3042946e-06 -4.6056957e-06 3.830469e-06 3.1924478e-06
4.6666723e-06 -4.6617874e-06 -4.6276964e-06 4.603839e-06 -3.780468e-06 -8.0475115e-07 4.746119e-06 3.7606683e-06
1.7693528e-06 4.7833523e-06 1.0350195e-06 1.7596794e-06 3.681928e-07 -4.635682e-06 4.8845886e-06 -1.4114116e-06
2.2456152e-06 -3.571155e-06 4.2054376e-06 4.6191435e-06 2.6270654e-06 1.4333996e-06 4.7920037e-07 -4.292714e-06
-4.773577e-06 -7.828621e-07 -4.81145e-06 4.154367e-06 3.471549e-06 -3.7802643e-06 -3.1257914e-05 4.870361e-06
-3.9466945e-06 -2.5816624e-05 2.9588768e-06 2.0062816e-06 4.502892e-06 6.543879e-06 -8.409996e-06 -2.3807634e-06
-4.5056013e-06 8.430152e-06 5.213337e-06 -3.9447503e-05 3.369933e-05 -8.471521e-06 6.4650826e-06 3.607583e-06
8.526378e-06 -8.62294e-06 -5.9910794e-06 -3.0914693e-05 6.0448956e-06 4.654325e-06 -4.5055085e-06 3.5528923e-05
-3.5186745e-06 -8.995035e-06 3.690243e-05 -4.3326995e-06 3.753786e-06 -7.1895483e-06 4.3081827e-06 2.974089e-06
2.4502892e-06 3.0655597e-06 4.727438e-06 6.055692e-06 4.107109e-06 -3.635207e-05 3.343067e-05 4.982203e-06
4.583385e-06 -3.5599085e-05 -4.457889e-06 -3.8100275e-06 3.5515684e-05 -1.992731e-05 -2.3002187e-06 4.827538e-06
2.2217039e-06 4.70945e-06 -4.2008187e-06 -4.650759e-06 -2.4942292e-05 1.4247587e-05 -3.4351106e-05 -4.671226e-06
-2.4082743e-05 3.3044274e-05 -4.500875e-06 -3.849093e-05 -3.8442386e-06 -8.231607e-06 -2.6784903e-06 -1.946921e-06
-1.3659371e-07 -1.6286849e-06 -9.707723e-06 7.522895e-06 -1.028905e-05 -1.2715111e-05 5.8656824e-06 -4.7848503e-06
-8.12807e-07 -7.3482497e-06 -3.5116982e-06 3.86633e-06 -6.1822e-06 1.01656e-06 2.7639112e-07 -3.0328663e-06
1.5622909e-06 2.2263087e-06 -3.7759792e-06 -4.2392403e-06 -4.901144e-06 -1.9301017e-06 -2.060802e-06 1.04010305e-05
2.6003472e-06 -2.8271309e-06 -2.9253802e-06 1.0383499e-05 -1.0918775e-06 -6.326156e-06 -5.355444e-06 -2.4752817e-06
1.6245455e-06 4.272395e-06 5.9485565e-06 5.876498e-06 -1.3998971e-06 -1.03057355e-05 -4.2841584e-06 -2.564011e-06
1.2661003e-05 1.3273084e-06 -1.2381037e-06 -7.90716e-06 -1.5740593e-06 1.3292912e-06 5.9973745e-06 -7.0233677e-06
-1.1245791e-06 3.4853051e-06 -2.8802506e-06 -1.3718109e-06 -4.6341934e-06 -6.2827626e-06 1.0423266e-05 1.0955754e-05
-1.2277977e-05 -6.592506e-06 1.0616743e-05 -6.101988e-06 5.0843653e-05 7.2990842e-06 3.7413527e-05 8.002088e-05

l1.bias f4 [256]
00000000: 2875 b2bd 53d9 90bd 6df1 d8bc 4c78 34bd
00000010: 2e97 e93c 272e b9bd a4c3 963e ccea 67bc
00000020: 5b07 ddbc 45bc 8d3d 8a43 1c3c 4064 ebbd
00000030: 7e25 71bc e752 bc3d 3867 ecbc 917d bb3c
00000040: 5e9a e13b b760 01bd 6d3b cabd 0a2c 04be
00000050: 8c79 d7bc 9621 4abd 082a 08be a121 f6bd
00000060: 9565 a3bc 4b1e efbd a893 3b3d 5ade 073d
00000070: 87e7 22bd 6004 b7bd 6d12 8abd b9f7 963d
00000080: b687 9f3d 4326 f7bd fd34 efbd 31d1 88bc
00000090: 3a80 e7bd 7931 ddbc 09c8 4fbd aae3 5c3d
000000a0: 9b6f c9bd cb00 2dbd 3ee8 22bd e0f8 4a3d
000000b0: dc3d 15be bc70 e8bd b1c9 4cbc 6c5b d1bc
000000c0: ab94 bc3e 09cc 80bc fb97 bfbc 6d6d 8cbd
000000d0: 8ed6 d73d 2df0 eabd 0cc7 ffbd 68ca 88bd
000000e0: c4a2 483c 25da 453c 86ee dd3d 2f71 683e
000000f0: faf1 03be 68fb a13e 42ad cf3d 84a5 54bd
00000100: 20a2 f7bd b70a 7cbd 4eff 853d 3ee0 a7bd
00000110: b7b0 9cbd 18eb 713d 90f2 a7bd 8656 26bd
00000120: 591b eabc bfae c1bc 5d62 ebbc d926 f7bd
00000130: 3337 6c3d 6ab8 f2bc e4ef 70bd 63c7 fcbd
00000140: 4794 1bbc 1f11 cebc 29d7 05be 42ec ebbd
00000150: be9e 9fbc b8bc d4bc 60b0 47bd e1ce 3abd
00000160: b168 a5bd b978 c9bc b208 b4bc c189 3cbc
00000170: f107 1f3d 08ef edbc 8566 0e3e ad13 8ebd
00000180: 4440 bd3d aadf e4bc 96d0 4abd 9864 e8bc
00000190: 66ee 0cbe e02c 9ebd eb2a 79bd 448c 13bb
000001a0: 19a8 f83b 6ece 09bd 892e 693d 73ff 96bc
000001b0: 931b a4bd 7a89 c1bd 4e30 a63b 3f51 aa3e
000001c0: 5666 50bd 552a ebbc 634b cb3e a3fe c1bc
000001d0: fb29 0d3c 74d5 043d 0f00 17bd 45d5 6a3e
000001e0: eb2d 673c 7b0d cebd d590 98bd 4433 8a3d
000001f0: a432 323d db82 b53d 2658 9c3d 2d9d 783c
00000200: a71b e2bc 4fd6 6cbc a154 c7bd 1adf 883d
00000210: 6fcc 5f3d a5b6 12bd 0b5d e6bc a01a aebd
00000220: a171 cf3d deb4 09be 46d6 a73e 1a84 933d
00000230: 9b49 4abd 3bef 8ebd 0e45 09bd 231f e5bc
00000240: 7944 a3bd af0c 793d 2a1d 19bb 7ebd 923e
00000250: 1b63 05be 3418 5dbc f6b8 54bd 3e3d d0bd
00000260: a9fe a8bd 80bd 173e 61ad d1bd 3a9f 81bd
00000270: 608f f6bd 858b 913c 8a00 d93d 1e1e 9cbc
00000280: c085 e43e 517e 843e 112b fdbc 9d92 b2bc
00000290: b876 9a3e f16c 6c3e 8e1a bb3e be38 0c3d
000002a0: dfe8 be3e 8d75 87bd 326d aabd 0d3e f1bc
000002b0: a2bd 33bd 66e1 d1bd 0ed7 a03c e04f 3f3d
000002c0: 12b9 04be 9525 ccbd b3fa e93d 5335 0dbe
000002d0: 1524 ffbd 0c62 903e f63f f4bd 04e9 40bc
000002e0: 803d c8bd 1348 f1bc 2958 0dbe 4c8d b13d
000002f0: aa9b ebbc 5798 213d 171b 14bd 91cb 803e
00000300: 4d10 b4bc e2d9 b3bd 7379 86bd 08e6 91bd
00000310: 8292 8c3d cf93 a8bc 26dd b93e 57b8 bc3e
00000320: dcc7 4e3c 2c72 02be eeb5 99bd 99d4 e8bd
00000330: ebc0 0cbe 019d 00bd 2e75 c03e 65e2 603d
00000340: 984d c2bc 743b c3bd 5fec a5bd 5608 9abd
00000350: c348 edbc 61da e1bc 150b e8bd a84b e8bc
00000360: 1799 f6bd 7a94 d1bc 1ffe a13e 1d57 b33e
00000370: 7a99 05be 4b8b d23d d37d 41bd bfbb e0bd
00000380: c0c3 61bd b067 3ebd f70c 37bd 68fd ecbc
00000390: d60a 683d 7867 6dbc d24d 9b3b 5281 debd
000003a0: 81f2 99bd 39fc f6bd ced9 663e 422e 963d
000003b0: 0dbc ddbd c1a0 19bd 5ed9 e5bc 4e4c bebd
000003c0: c4a7 d3bd 2bda 843e 8d21 70bd a3cc bfbd
000003d0: 8ac0 0d3b bf75 d9bd c446 3abc ffd6 fd39
000003e0: 6aac 3ebd 30ba d4bc 19f4 12bc 2b62 973d
000003f0: 6b18 55bc 0e4c 1fbe 84a1 823d 5485 8f3e
-0.08713752 -0.07072701 -0.026482308 -0.044060037 0.02851447 -0.09042006 0.29446137 -0.014155101
-0.026981046 0.06920675 0.009537587 -0.114937305 -0.0147184115 0.091955 -0.028857812 0.022887023
0.006884857 -0.031586375 -0.09874616 -0.12907425 -0.026303075 -0.049348436 -0.13297284 -0.12018133
-0.019945899 -0.116757 0.045795113 0.033171035 -0.039771583 -0.08936381 -0.06741796 0.07371468
0.07789557 -0.12067845 -0.116800286 -0.016701313 -0.11303754 -0.02700113 -0.050727878 0.053928055
-0.0983574 -0.042237084 -0.039772265 0.049553752 -0.14574379 -0.113496274 -0.012499259 -0.025556289
0.36832175 -0.015722292 -0.0233879 -0.06856809 0.1053897 -0.11471591 -0.12489137 -0.06679231
0.012245838 0.0120759355 0.1083651 0.22699426 -0.12885275 0.3163712 0.10140468 -0.05191566
-0.1209147 -0.061533656 0.06542836 -0.08197068 -0.07650893 0.059062093 -0.08200562 -0.04060986
-0.028577494 -0.023642896 -0.028733427 -0.120679565 0.05766983 -0.029628951 -0.058822528 -0.123427175
-0.009495801 -0.025154648 -0.13070358 -0.11519672 -0.019484874 -0.025968894 -0.04875219 -0.04560745
-0.08076609 -0.024593698 -0.021976802 -0.011507452 0.038825933 -0.029044643 0.13906296 -0.069373466
0.09240773 -0.027938683 -0.04951533 -0.02836828 -0.13762817 -0.07723403 -0.060831945 -0.0022514025
0.007588398 -0.033644132 0.056929145 -0.018432355 -0.08013072 -0.0945005 0.0050716763 0.3326511
-0.050878845 -0.028706709 0.39705953 -0.02368099 0.008615966 0.032430127 -0.03686529 0.22932918
0.014110069 -0.10061165 -0.074494995 0.067480594 0.043505326 0.08862849 0.076340005 0.015174192
-0.027601076 -0.014455392 -0.097329386 0.06683178 0.054638322 -0.035818715 -0.028120538 -0.08501172
0.10129095 -0.13447902 0.32780665 0.07202931 -0.049386602 -0.06979223 -0.03351312 -0.027968949
-0.079720445 0.06080311 -0.002336333 0.28660196 -0.13026087 -0.01349454 -0.051934205 -0.10167931
-0.082516976 0.14818382 -0.102381475 -0.06329198 -0.12039065 0.017766723 0.10595806 -0.01905733
0.44633293 0.25877622 -0.030904325 -0.021798426 0.301687 0.23088433 0.36543697 0.0342338
0.37287042 -0.06614218 -0.083216086 -0.029448533 -0.04388202 -0.102480695 0.019633796 0.046707034
-0.12961224 -0.09968106 0.1142477 -0.13789873 -0.12458054 0.28199804 -0.11926262 -0.011774305
-0.09777355 -0.029453313 -0.13803162 0.08669528 -0.02876075 0.039451923 -0.036158647 0.2515531
-0.021980429 -0.08781792 -0.06566133 -0.07123953 0.06863882 -0.020578293 0.36301535 0.3685939
0.012620892 -0.12738866 -0.075054035 -0.11368675 -0.13745467 -0.03139973 0.375894 0.054903407
-0.02371864 -0.09532824 -0.08101725 -0.07521121 -0.02896536 -0.027569951 -0.11330239 -0.028356388
-0.12040918 -0.025583494 0.31639192 0.350274 -0.13046828 0.10280474 -0.047239136 -0.1097331
-0.055118322 -0.046485603 -0.0446901 -0.028929427 0.05665096 -0.014490001 0.0047395015 -0.1086451
-0.07516957 -0.120598264 0.22544023 0.07333042 -0.108268835 -0.037506822 -0.02805775 -0.09291898
-0.10334733 0.259477 -0.058625747 -0.09365203 0.0021629655 -0.106181614 -0.011369411 0.00048416105
-0.046551146 -0.025967687 -0.00896933 0.07391771 -0.01300631 -0.15556356 0.06378463 0.2803141
