TABULAR/Figure1Reproduce/Poisoned/ADULT_L2_FCN_e=0.1_g=0.0_a=1.0_l=2_h=256_s=True_p=0.0.pt (torch, 332951 bytes, 10 tensors)

lays.0.weight f4 [256, 63]
000000 47 88 47 bf ac 88 ce be bf 3c cb bd 5e c4 2a be
       -0.7794232 -0.40338647 -0.09923696 -0.1667647
000010 79 54 c8 bd 0d 98 ba be 95 2a e7 3e 80 c1 f6 bc
       -0.09781737 -0.3644413 0.45149675 -0.030121565
000020 4c f8 7f 3d 54 a1 eb 3c 93 4e 49 3c 7e 57 9c be
       0.062492654 0.02876345 0.0122868 -0.305355
000030 28 96 5f bd ea f4 49 be 05 61 32 3e 21 88 5e be
       -0.05458656 -0.19722334 0.17419823 -0.21731617
000040 a8 f6 2f be 3e 74 0a 3e 5a 3c ec 3d f4 1a 2a bc
       -0.17183936 0.13520905 0.11534949 -0.010382403
000050 d9 11 8a 3e 49 c6 14 3e 53 e5 af 3c 99 71 64 be
       0.26966742 0.14528765 0.021471655 -0.22308959
000060 b1 9d a8 be 1f 4c 6c 3e 28 a1 21 3e 5f 62 90 3e
       -0.3293281 0.23075913 0.15784132 0.2820005
000070 c7 0c 00 be a5 65 75 bc 89 64 3f 3d 2b 34 3f 3c
       -0.12504874 -0.014977847 0.046726737 0.011670153
000080 33 0d 92 3c 92 22 1a 3e bf bc a3 3e 19 76 77 3e
       0.01782856 0.1505225 0.3197994 0.24166144
000090 a2 e1 9e bd 44 8b 04 be f7 df 0c be 85 89 16 bf
       -0.0775788 -0.1294375 -0.13757311 -0.5880359
0000a0 ce 70 ef 3c 65 21 2b 3e 93 08 3e bd ae 67 a4 3e
       0.029228594 0.16711958 -0.046394896 0.3211035
0000b0 51 66 7e bd de e4 cc bd 45 97 4e 3d c0 24 3d 3d
       -0.062109295 -0.100045905 0.05043723 0.046177626
0000c0 c9 11 55 3e b9 4e c8 3d 13 a5 fd bc f6 37 33 3c
       0.20807566 0.0978064 -0.030962503 0.010938635
0000d0 ff 79 36 3e cb 3f 0d bf 92 a2 7e 3e e4 ed ab bd
       0.17819975 -0.55175465 0.24866703 -0.083949834
0000e0 1a 5e 3a be 85 11 96 3e 44 69 40 bc 8d 3f b7 3c
       -0.1819996 0.2931024 -0.011743847 0.02236917
0000f0 70 2a 15 be fe 54 1c 3e 73 88 0e be ca de bd bd
       -0.1456697 0.15266797 -0.13919239 -0.09271009
000100 58 b7 2d 3f c8 c5 86 bd b9 0b c1 be 01 4e b2 be
       0.67857885 -0.065806925 -0.37704256 -0.34825137
000110 74 36 79 bf 92 b3 51 be 5a 1b 74 be f0 df 86 3d
       -0.97348714 -0.20478657 -0.23838559 0.065856814
000120 e7 c9 87 ba 95 77 1d be 4d 53 8c 3d ad 70 72 bc
       -0.0010359854 -0.15377648 0.06851826 -0.014797372
000130 3a 31 2b be c5 f7 8a be a6 d6 ca be 7d 79 3f 3d
       -0.16717997 -0.27142158 -0.3961689 0.04674672
000140 da cd 11 bf 98 f9 07 bf c2 9c 8c 3c b6 a3 4d 3f
       -0.5695473 -0.53115225 0.017164592 0.8032793
000150 37 bf ce 3e ab 95 80 3e 63 9d dd 3d ce 90 21 bf
       0.4038026 0.25114188 0.10821035 -0.6311158
000160 81 65 1a 3f f8 7b 7f be 84 7e fe bd 06 71 2f bf
       0.6031113 -0.24949634 -0.12426475 -0.68531835
000170 f1 08 a8 be 81 f5 f3 bd dc c4 cb bc 72 08 22 bf
       -0.32819322 -0.119120605 -0.024874143 -0.63294137
000180 c1 39 42 3f 9c a2 32 be 7c 12 0f 3e 04 59 1d bf
       0.75869375 -0.17444843 0.13971895 -0.6146395
000190 90 bd e9 bd db fd 99 be 18 1d 18 be 6c 98 08 bf
       -0.11413109 -0.3007649 -0.14854848 -0.5335758
0001a0 a6 8a ef 3e 5b 81 4d be 94 c4 0d bf 68 5a 54 bc
       0.46785468 -0.20068876 -0.5537808 -0.012961008
0001b0 42 b0 0b be b0 62 3f bd bb a5 54 be 13 e5 99 be
       -0.13641456 -0.046724975 -0.20766346 -0.30057582
0001c0 5c 0e 1a be 27 1d 47 be da 92 46 be 54 7e 86 3e
       -0.1504454 -0.19444714 -0.19391957 0.26268256
0001d0 18 a7 d5 bb aa 14 6d 3e c3 e4 4d bf 48 cc 37 be
       -0.0065201633 0.23152414 -0.8042719 -0.17949021
0001e0 90 19 96 3d b4 0c 04 bf 60 88 ef 3c d2 dd 77 3f
       0.073290944 -0.51581883 0.029239833 0.96822846
0001f0 45 c0 39 be b5 4a 2c be 4b f2 8d bf 8a 14 a2 bd
       -0.18139751 -0.16825373 -1.1089567 -0.07914074
000200 81 a5 91 be b1 6c 9e be 45 48 c3 3d 3b c9 94 be
       -0.28446582 -0.309423 0.09535269 -0.29059777
000210 67 37 02 3f 47 27 33 3f 92 73 9d be ed be f1 3d
       0.5086579 0.6998181 -0.30752236 0.11803994
000220 41 60 9d be 9b c6 05 3e a1 4d 5b bc e0 6c a0 3d
       -0.30737498 0.13064043 -0.013385207 0.07833266
000230 53 08 b7 be 27 f6 af bd 00 41 a2 3e 61 7f 29 bd
       -0.35748538 -0.08591872 0.31690216 -0.041381244
000240 6b fe 38 bd d1 43 cc 3d ab 3a 17 3e aa 9b fb bd
       -0.045164507 0.099738725 0.14768474 -0.1228555
000250 16 a3 ab be 34 60 10 3e ac 14 32 be 77 83 96 bc
       -0.33522862 0.14099199 -0.17390698 -0.018373234
000260 7f ed 0e 3f 4c 2e 84 be 23 64 13 be fb 58 df 3d
       0.5583114 -0.25816572 -0.14393668 0.109056436
000270 1c 97 90 3d 38 0d 03 be 11 68 49 be 48 61 fa 3d
       0.07060072 -0.12798011 -0.19668604 0.12225586
000280 80 4d 90 3a ed 35 ac bd b2 38 de be bf de 55 bd
       0.0011009425 -0.08408723 -0.4340263 -0.05221438
000290 a4 c7 d1 3d a3 8f ea bc 45 f9 f7 3d 86 19 6d 3d
       0.102431566 -0.028632944 0.12108091 0.05788567
0002a0 a4 e3 20 3e 0a e9 51 3e 0d 91 11 be 8f 0e 51 be
       0.15711838 0.20499054 -0.14215489 -0.2041571
0002b0 7d f4 d4 be af 03 1e 3d fc 01 80 bd df 7d b8 be
       -0.4159278 0.03857773 -0.062503785 -0.36033532
0002c0 ca 09 b1 be c8 e8 a3 3e 10 3c 4d 3e d0 65 31 be
       -0.3457778 0.32013535 0.20042443 -0.17323995
0002d0 06 2c 5f bd 3f bb f9 3d dc 96 16 3c be 26 54 3d
       -0.054485343 0.121939175 0.009191241 0.05179476
0002e0 b1 78 d1 3e 5a 6d 80 bd 5e 50 d7 be d6 56 ea 3d
       0.40912393 -0.06270857 -0.42053503 0.11442344
0002f0 d0 73 1b be b1 86 1b 3f 20 53 c2 3f b1 a4 22 3f
       -0.15180898 0.607524 1.5181618 0.6353255
000300 95 0c 00 3f a9 57 00 3e 1a 70 39 3f 08 00 79 be
       0.500192 0.1253344 0.7243668 -0.24316418
000310 d2 18 e0 bd ad 21 87 be 78 df 1d be 2e 83 17 be
       -0.10942234 -0.2639288 -0.15417278 -0.14796135
000320 74 10 f0 be de b2 66 be 54 c4 81 bc f8 52 2d 3e
       -0.46887553 -0.2252917 -0.015840687 0.16926181
000330 8a c8 72 be d2 5e df 3e 61 7d 8e be ed 2c 28 3f
       -0.23709312 0.4362703 -0.27830032 0.6569355
000340 b8 ea c8 bc 5d 2f d5 3e cb ca 0f be b7 4f 04 be
       -0.024525985 0.41637698 -0.14042203 -0.12921034
000350 5c 04 80 3e dc 09 97 bd a8 5a 25 be 26 bf 86 be
       0.25003326 -0.073749274 -0.16147864 -0.2631771
000360 d4 78 52 be d9 7d 21 be 0a 4d 01 3e 23 79 02 3d
       -0.20553905 -0.15770663 0.12627044 0.031853806
000370 f5 f6 d0 bd ff 93 14 3f 2d f0 88 be 74 c8 87 be
       -0.10203353 0.58038324 -0.2674574 -0.2652012
000380 7f ba e2 bc cd 73 c7 be c3 95 75 bc 8e 0f b2 3e
       -0.027676819 -0.38955536 -0.014989319 0.34777492
000390 7a 55 d7 bd fb 44 ac 3e 25 7a 2a be 8d 45 0e be
       -0.1051435 0.33646378 -0.16648157 -0.13893719
0003a0 20 e1 95 be 48 a2 98 bd 7a 57 8c be d8 aa b7 bd
       -0.2927332 -0.07452828 -0.2741049 -0.08968133
0003b0 e7 36 23 be 79 85 be bd 39 fc 82 be 35 01 6a bd
       -0.15938912 -0.09302802 -0.25583056 -0.057130057
0003c0 8c 3d 20 bf 54 c5 fc bd dd 19 79 3f 70 ee af be
       -0.62593913 -0.12342325 0.9730509 -0.343616
0003d0 4a 52 70 3e 63 e2 81 3e aa 72 1a be 1f 87 04 3e
       0.23468891 0.25368032 -0.15082803 0.1294217
0003e0 90 d9 86 be fe 09 af be 43 70 4d 3d 17 3d 19 bc
       -0.26337862 -0.3418731 0.05015589 -0.009352944
0003f0 1d 64 27 bf 01 cf 25 bf 1a bc c3 be 37 4a 6c 3b
       -0.65387136 -0.6476899 -0.38229448 0.0036054978

lays.0.bias f4 [256]
000000 2c c3 56 3f 9d ed 3a bf 8c 04 6d 3f 40 1e b5 be
       0.8389156 -0.7301882 0.92585063 -0.3537464
000010 c5 05 f1 3e ad 22 1f be 4f 55 7b 3f 27 6b 85 3f
       0.47074714 -0.15540572 0.98177046 1.0423325
000020 36 41 5a 3f ed 0d b7 3f 5f 7d 82 3f 20 ba cb be
       0.85255754 1.4301125 1.019451 -0.3979044
000030 b9 a0 96 3f 70 a8 a7 3f 67 e2 ec be 6e 6f 75 3f
       1.1767799 1.3098278 -0.4626648 0.95873153
000040 61 13 d8 be 46 09 d2 be db 15 2b be 4e c7 27 bf
       -0.42202285 -0.410227 -0.16707556 -0.6553849
000050 e9 f1 2f be d5 e7 6a 3f af 39 80 be 8f 77 6b 3f
       -0.17182125 0.9176 -0.2504401 0.91979307
000060 80 e9 00 3b 6c b2 59 be cd 94 2f bd 90 cb 60 3f
       0.0019670427 -0.21259469 -0.042866517 0.8781061
000070 81 63 45 3f 61 ff 0a 3f 22 2a 86 3f bf f1 8a 3f
       0.77104956 0.5429593 1.0481608 1.0855025
000080 22 7f 96 3f 31 ad 43 3f fb 0c 28 bf 1c c9 8d 3f
       1.1757548 0.76436144 -0.65644807 1.1076999
000090 1a e1 0f bf 31 92 5b 3f aa 8a 98 3f b2 d5 77 3f
       -0.5620285 0.85769945 1.1917317 0.9681045
0000a0 ec 92 43 3f c4 51 81 3f 14 49 25 3f 7e aa 41 be
       0.7639606 1.0103078 0.64564633 -0.18912694
0000b0 f4 ed 32 3f 7c d6 40 be f4 14 11 bf fd 0f 86 3f
       0.6989434 -0.1883182 -0.56672597 1.0473629
0000c0 60 a7 81 3f 0b fe ea 3f c0 cc 87 3f ea 8a 00 3f
       1.0129204 1.8358778 1.060936 0.50211966
0000d0 0f 1b 9d be 58 81 1c bf 26 20 66 be a2 7c 65 be
       -0.30684707 -0.6113486 -0.22473201 -0.22410825
0000e0 80 94 b9 be d6 9c b1 3e 8a ac 81 3f c3 f7 84 3f
       -0.3624611 0.3468997 1.013078 1.0388111
0000f0 6f 13 37 be 4f 2f 8f 3f 2c b2 ed be c0 27 d2 3e
       -0.17878507 1.1186312 -0.46424997 0.41045952
000100 55 73 34 3f ff ab 54 be 44 17 03 bd 98 47 61 3f
       0.7048848 -0.20768736 -0.03200461 0.8799987
000110 6a f3 32 bf 8f fa 24 3f 10 e3 76 3f b2 7a c8 be
       -0.6990267 0.6444482 0.9644022 -0.3915611
000120 9c c4 7e 3f 14 2f 30 3f 11 6e bd 3e 46 81 84 3f
       0.9951875 0.68821836 0.36998037 1.0351951
000130 b3 ae 81 3f af 1b 4d 3f 1a 21 16 3f e4 61 70 be
       1.0131439 0.80120367 0.5864426 -0.23474842
000140 89 d6 26 be c0 49 89 3f 9c a7 ef 3e 9f 65 41 be
       -0.16292776 1.0725632 0.46807563 -0.18886422
000150 ec dc 40 3f 18 ae 12 bf 24 17 69 be b7 6a 90 3f
       0.753371 -0.57296896 -0.22762734 1.1282567
000160 b7 53 55 3f 20 c2 a6 be af 5b 64 3f f2 e1 77 3f
       0.83330864 -0.3256998 0.892024 0.9682914
000170 5d f9 6b 3f 83 b3 56 3f 4b 89 90 be 6d 1b 72 3f
       0.92177373 0.83867663 -0.28229746 0.945731
000180 15 99 8d 3f f9 87 7c 3f 7a f7 76 3f ec 7c 7a 3f
       1.1062342 0.9864498 0.9647137 0.97846866
000190 ca 7a 14 bf 40 19 4f 3f 2d d3 3d be 8a 95 fa be
       -0.5799986 0.80897903 -0.18537588 -0.48942214
0001a0 1f 68 fc be 39 00 6a 3f 39 c4 49 3f e5 2a a0 3f
       -0.49298188 0.9140659 0.78815037 1.251309
0001b0 1e b7 20 be 84 1b 19 bf 1c db 21 3f 95 4a 7e 3f
       -0.15694854 -0.5980761 0.6322496 0.99332553
0001c0 5d c5 f5 bd 84 2d f8 be c0 02 8f 3f 60 20 59 3f
       -0.12000535 -0.48472226 1.1172714 0.84815025
0001d0 a4 3a 95 3f 7f f2 31 3f ba b5 5d 3f 5d 58 90 bb
       1.1658521 0.69510645 0.8660542 -0.004405065
0001e0 2b b2 83 3f dc c4 56 3f eb bd c4 be 3c 18 4b 3f
       1.0288748 0.83894134 -0.38426146 0.79333854
0001f0 99 b4 b0 3f d9 14 d5 be f3 eb 63 3f ee 29 84 3f
       1.3805114 -0.41617468 0.89031905 1.0325296
000200 05 6b 8f 3f 4c 17 ee 3e bd 43 30 bf f7 01 1d bf
       1.1204535 0.4650215 -0.6885336 -0.61331123
000210 06 33 89 be 05 08 51 3f 14 cb 5a 3f ea ab eb be
       -0.2679674 0.8165286 0.8546612 -0.46029598
000220 ea f0 8c 3f cd b3 29 bf 01 50 62 3f 50 a5 7e 3f
       1.1011021 -0.6628998 0.88403326 0.99470997
000230 2c 08 49 3f 2f 9d 87 3f 1c 91 4c 3f 79 98 73 3f
       0.78528094 1.0594844 0.7990892 0.9515453
000240 d4 c3 83 3f 32 e8 e1 be cf 40 1a bf 94 ee a1 3f
       1.0294137 -0.44122463 -0.6025514 1.2650933
000250 2b 38 96 be cb 77 8e 3f 2b 03 34 be 0b 17 45 3f
       -0.29339728 1.1130308 -0.17579333 0.76988286
000260 3f bd e7 3e c0 db a0 3f 6d 7c 55 3f a3 bd 87 3f
       0.4526157 1.2567062 0.83392984 1.0604748
000270 26 b4 66 3f a6 3e 13 be f5 87 80 3f 28 82 7e be
       0.90118635 -0.14379367 1.0041491 -0.24854338
000280 4f d2 59 3f 9a d0 5b 3f 35 3b 95 3f 40 d8 9e 3f
       0.8508653 0.85865176 1.1658694 1.2409744
000290 ce b5 79 3f 82 65 87 3f 0f 71 95 3f 23 99 f0 be
       0.97543037 1.0577853 1.1675128 -0.46991834
0002a0 64 9e 87 3f 29 6d 2e bf 2a e6 1b bf 24 e0 ed 3e
       1.0595212 -0.68135315 -0.6089808 0.46460068
0002b0 d9 0b 7a 3f 80 7c 5b 3f bd 0e a6 be 04 c0 a4 3f
       0.9767433 0.85736847 -0.3243312 1.2871099
0002c0 05 bf 00 bf 61 2e 45 be de e4 a7 3f cb 11 62 be
       -0.5029147 -0.19255973 1.311672 -0.220771
0002d0 3e 48 77 3f f9 fc 44 3f 0b 7d be be fa a3 c9 be
       0.9659461 0.76948506 -0.37204775 -0.39382917
0002e0 00 90 54 be 6a 37 13 bf 47 7a 13 bf d7 e2 5e 3f
       -0.20758057 -0.5750643 -0.57608455 0.8706488
0002f0 9e 0c e2 bd aa 22 b7 bd 61 a4 86 3f 54 f8 86 3f
       -0.11037563 -0.089421585 1.0518914 1.0544534
000300 88 15 a4 3f da 2c ab be 07 cb 53 3f 9f 68 8d 3f
       1.2819071 -0.33432657 0.8273167 1.1047553
000310 f9 94 97 be bc c9 02 bf ff 15 45 bd 6b a3 a6 3f
       -0.29605845 -0.5108907 -0.04811668 1.3018621
000320 94 f6 84 3f 9b 20 86 3f 60 ce 82 3f 4d b4 55 3f
       1.038775 1.04787 1.0219231 0.8347824
000330 56 50 2d bf 94 9c a3 be 70 63 98 3f 41 7f 9c 3f
       -0.6770071 -0.31955397 1.1905346 1.2226335
000340 9c e4 f0 3e cf b8 c6 be 9f 37 9c 3f cd cb d9 be
       0.47049415 -0.38812873 1.2204474 -0.425383
000350 75 eb d1 3e f2 f2 15 3f 1d da d1 bd 95 5e 4e 3f
       0.40999952 0.5857383 -0.1024668 0.8061307
000360 f4 c6 71 3f ff c5 16 3f 28 31 35 3f d5 fe 6b 3f
       0.94444203 0.5889587 0.7077813 0.9218572
000370 98 54 30 bf c9 01 e7 bc e2 58 1d 3f fb 77 46 3f
       -0.6887908 -0.028199093 0.6146375 0.77526826
000380 33 a9 6c 3f be b7 2c be a0 8e ec 3e 40 62 24 3f
       0.9244568 -0.16866967 0.46202564 0.6421242
000390 88 14 84 3f 5e 78 67 3f 06 85 a9 be a4 d0 04 bf
       1.0318766 0.9041804 -0.331093 -0.5188086
0003a0 e9 bf 18 be 5b 21 0f bf 88 f6 57 3f 81 d6 b3 3f
       -0.14916958 -0.5591027 0.8436055 1.4049836
0003b0 b0 8e 11 3f e1 58 03 be f3 bc 0e bf 4c 7a fc bd
       0.5685835 -0.12826873 -0.55757064 -0.12328014
0003c0 13 4d 80 be 4f e5 48 3f 22 96 82 3e 9f db 8d 3f
       -0.25058803 0.784749 0.25505167 1.1082648
0003d0 25 4b 4d 3f 2e 9a 98 be 26 e3 6c 3f 14 36 2c 3f
       0.80192786 -0.2980513 0.925341 0.67270017
0003e0 4c af 1a be a1 39 c2 3e 9f 4a f1 bd 18 68 6e 3f
       -0.15105933 0.37934592 -0.11781811 0.93127584
0003f0 90 ab 46 3e fa 35 a8 be e1 3f 4f 3f 14 ff 8e 3f
       0.19401383 -0.3285368 0.80956846 1.1171594

lays.1.weight f4 [256, 256]
000000 c4 05 a9 bd 12 e3 0d bd 3a 6c 25 bd 51 11 3c 3d
       -0.08253053 -0.03464038 -0.040386416 0.04591495
000010 7f 84 1a 3b 42 86 2a bd 5c 44 d5 bd a5 d3 47 bd
       0.002357751 -0.041631944 -0.10413429 -0.048785824
000020 60 6a 9f bd e9 9e f4 bd 2a a7 61 bc d1 fc 41 bd
       -0.07783961 -0.11944372 -0.013772765 -0.047360245
000030 2f b9 e0 bd a8 1d f1 bc 79 b9 b6 bd 21 6e 37 bc
       -0.10972821 -0.029433087 -0.08922095 -0.01119569
000040 8a 97 8d bd 8b 85 e8 3b 4e 61 42 bd f6 55 bb bd
       -0.069136694 0.0070959977 -0.04745608 -0.09147255
000050 1d 06 7e bc 1f 9b ec bc 96 97 b3 bd e9 ff 5b bd
       -0.015504387 -0.028882561 -0.08769147 -0.05371085
000060 c6 98 b8 3d be ad eb bd a3 11 1d bd 64 eb b1 bd
       0.09013514 -0.11507748 -0.038346898 -0.08687475
000070 ec 4f 9d bc 00 50 b1 bb 86 0b 29 bd 47 f7 92 bd
       -0.019203149 -0.005411148 -0.041270755 -0.07176071
000080 f3 b9 5f bd bf 7f 3d bc e1 fa b2 3b 69 90 21 3a
       -0.054620694 -0.011566102 0.005462036 0.00061631814
000090 6d 94 2c bd 63 2f d9 bd a4 b0 d2 bd de 09 66 bd
       -0.042133737 -0.106047414 -0.10287598 -0.056161754
0000a0 58 a2 ba bd ea 52 8c 3a 0a 24 ba bd 65 78 ca bb
       -0.09112996 0.0010705863 -0.09088905 -0.006178903
0000b0 d0 84 61 3c 96 9d d1 bd 04 2d c3 bd 80 93 97 bc
       0.013764575 -0.10235135 -0.095300704 -0.01850295
0000c0 b2 ed c6 bd 34 78 cb bd e6 4c c3 bd 59 1d 8f bd
       -0.097133055 -0.09935036 -0.095361516 -0.069880195
0000d0 8c 4e db bc ce 63 82 3d 2b ba 40 bd 83 31 24 bd
       -0.026770853 0.063666925 -0.047052544 -0.04008628
0000e0 fe 53 84 bd 1f c7 d0 bc e7 65 62 bc 13 a9 c0 bd
       -0.06461333 -0.025485573 -0.013818241 -0.09407248
0000f0 57 66 f9 bc 19 62 93 bd 9c 63 66 bd 43 5c e3 bd
       -0.030444307 -0.07196445 -0.05624734 -0.11101582
000100 4d bb 94 ba b8 3e c8 3d eb 29 fa bc c8 e7 bc bd
       -0.0011347324 0.09777588 -0.030537566 -0.09223896
000110 a7 2c 50 bd 4b e1 7a bc 29 cc 45 bd e3 0c f9 bd
       -0.050823834 -0.015312503 -0.048290405 -0.12160661
000120 4a 15 a5 bc 99 ef 35 bc 53 a7 3e bd cc 41 28 bc
       -0.020151753 -0.011104488 -0.04654629 -0.010269593
000130 ef 8a 8d bc 24 44 dd bd 45 c9 96 bd a9 f5 97 bc
       -0.017278163 -0.108040124 -0.07362608 -0.018549757
000140 1a 26 98 bd 78 d4 f7 bd 83 72 f9 bd 20 38 c5 3d
       -0.07429142 -0.12101072 -0.121800445 0.096298456
000150 79 49 60 bd 44 1a e9 bc a2 89 e8 bd 4f d5 75 bd
       -0.05475757 -0.028454907 -0.113543764 -0.06001788
000160 d4 c8 e1 bd 92 72 0b bd 69 0c cc bd 74 69 c2 bd
       -0.11024633 -0.03404481 -0.099633045 -0.0949277
000170 e0 28 ce bd 7b 8f bf bd b1 90 88 bd a9 2d 36 bd
       -0.1006639 -0.093535386 -0.06668223 -0.04447714
000180 43 1f a9 bc a6 f8 7b 3d 7b 1d 9f bd ff e1 3c bd
       -0.02064479 0.061516427 -0.07769295 -0.046113964
000190 44 75 b1 bd 77 4c f5 bd f5 ac 9b bd 9a b4 64 bd
       -0.08664945 -0.11977475 -0.07601348 -0.055836298
0001a0 50 0e 36 bc d0 bb 77 bd 00 ec e3 bd 3d 0f bb bd
       -0.011111811 -0.060481846 -0.11128998 -0.09133766
0001b0 61 5e 2e bd 48 dc 70 3d f8 76 81 bd ce 69 c5 bd
       -0.042570475 0.058803827 -0.063215196 -0.09639321
0001c0 f8 5c 02 bd 16 9e 5b bd 41 b8 f3 bc 92 0c 98 bd
       -0.031826943 -0.05361756 -0.029750945 -0.074242726
0001d0 39 a4 c3 bc 72 d4 de bc e9 ce d0 bd e3 63 3d bd
       -0.023882018 -0.027200911 -0.10195715 -0.046237838
0001e0 0f 6b 46 bd 8f 8a da bb 09 b5 e4 bd 90 ec 6c bc
       -0.048441943 -0.0066693495 -0.11167342 -0.014460698
0001f0 39 fc 63 bd da c3 81 bd 0e 7b 2d bd 6f af e5 bd
       -0.05566046 -0.06336184 -0.042353682 -0.11215102
000200 f9 e2 ce bd 66 c0 f4 bd 21 b9 1e bd 97 92 03 bc
       -0.10101885 -0.119507596 -0.03875077 -0.008030555
000210 fd 4a bc bd 30 7b 0e bd 44 4b 97 bc 0e 09 f7 bd
       -0.091939904 -0.03478545 -0.018468507 -0.12062274
000220 f6 39 64 bd d4 99 2c bd 4d 00 de bd 70 af aa bd
       -0.05571934 -0.04213889 -0.10839901 -0.08334243
000230 fa 77 ff bc ba 7c 83 3c f5 28 7f bd 4b 3f 88 bc
       -0.031185139 0.016050685 -0.06229492 -0.016631743
000240 a0 e0 de bc ba c9 b4 bd fa 1c 1f be 34 06 66 bc
       -0.027206719 -0.08827539 -0.15538397 -0.014039565
000250 8c fb 73 bd 17 9c cb bc 50 5b 45 bd f6 1a 97 bd
       -0.059566066 -0.024854703 -0.048182786 -0.07378189
000260 01 a9 0a bd 93 62 ce bd e6 13 50 bd 61 c6 13 bd
       -0.03385258 -0.10077395 -0.050800227 -0.03607786
000270 64 c2 c7 bd b0 30 17 bc 67 32 83 bd ba d2 d7 bd
       -0.09753874 -0.009227917 -0.06406098 -0.1053824
000280 f1 ee 2a bd 3d 2c c5 bd 22 75 c9 bd c9 1f 75 bd
       -0.04173178 -0.096275784 -0.098367944 -0.059844766
000290 a7 e0 f8 bc 81 c8 30 36 73 d1 68 bd f9 54 fe bb
       -0.03038056 2.6342752e-06 -0.05684037 -0.0077615944
0002a0 57 4e 98 bb 9d 65 9d bd 6c 9b 82 bd 13 e2 f6 bd
       -0.0046480107 -0.07685397 -0.063773006 -0.12054839
0002b0 59 b5 a2 bd 55 7c a5 bc ec 45 85 bd 4f cc 8a bd
       -0.079447456 -0.020200888 -0.06507477 -0.0677725
0002c0 f9 66 a2 bd a3 e2 e3 bc b9 45 21 bc 38 57 ca bd
       -0.07929797 -0.02781803 -0.009843283 -0.09879917
0002d0 10 ad f4 bc 12 4a c2 bd 64 2c ab bc 48 d6 76 bd
       -0.029867679 -0.09486784 -0.02089519 -0.06026295
0002e0 47 7c b4 bd f7 1a 2f bd 92 94 e8 bd cd 0c ea bc
       -0.088127665 -0.042750325 -0.113564625 -0.028570557
0002f0 d9 23 81 bd 14 6b c8 bd 02 2f d8 bd 93 35 c3 bd
       -0.063056655 -0.097860485 -0.10555841 -0.09531703
000300 69 99 75 bd f3 7b 08 bd ed 68 7e bd 44 4f 9c bd
       -0.059960756 -0.033321332 -0.062111784 -0.07632306
000310 93 ec a9 bd bd 3b 3d bd f0 8b 91 bc 3e 13 6f bd
       -0.08297076 -0.04619955 -0.017766923 -0.05836796
000320 bc e1 c0 bd e5 35 8e bd 04 a2 e3 bd 03 15 10 bd
       -0.094180554 -0.06943873 -0.111148864 -0.03517629
000330 a6 b6 fb bd 71 d9 17 bd 01 2f 83 bd c0 25 19 bc
       -0.12290697 -0.037072603 -0.0640545 -0.009347379
000340 7a af b5 bd bf d5 d0 bd 1d 8a 65 bd 7f 9c 21 bd
       -0.0887136 -0.10197019 -0.05603992 -0.039455887
000350 3b b2 df bd 72 79 c5 bd 67 00 61 bc a6 44 ea bb
       -0.10922667 -0.096423045 -0.013733006 -0.007149297
000360 c5 a8 b0 bc ad 0b 69 bc ff e2 dc bc fb 93 05 bc
       -0.02156485 -0.014223975 -0.026963709 -0.008152957
000370 9e ae 58 bd d8 ab d2 bd 9a 48 c0 bd 7c b3 05 bd
       -0.052900903 -0.10286683 -0.09388848 -0.032641873
000380 f2 01 7e bd 55 c6 ee 3d c0 0b cb 3a a9 5a 4c bc
       -0.062013574 0.116589226 0.0015491173 -0.012472787
000390 06 a5 ce bd 77 a8 a1 bd 30 6b 32 bc 73 54 4f bd
       -0.100900695 -0.0789346 -0.010889813 -0.050617646
0003a0 89 c7 d0 bb d1 06 bc bc d2 ff f4 bd ec d3 28 bd
       -0.0063714427 -0.022952469 -0.11962856 -0.04121773
0003b0 93 e3 40 bd 05 ab 83 bd 47 80 25 bc d2 6c d6 bd
       -0.04709203 -0.06429104 -0.0101013845 -0.104699746
0003c0 dc d0 cc ba dc e1 2a bc ea 26 32 bd 23 0f 86 3d
       -0.001562621 -0.010429826 -0.043494143 0.06545856
0003d0 5d 6c 46 bd b8 b9 b2 bd 06 e2 d0 bd cf de 5b ba
       -0.048443187 -0.08726829 -0.101993605 -0.0008387388
0003e0 a9 b9 db 3c 31 4a 3f bd 96 f1 95 bd 9c 30 08 bd
       0.026821928 -0.046701614 -0.073214695 -0.033249483
0003f0 d4 93 82 3d 88 ac 8b bd a2 a3 b9 bd fb ed 62 bb
       0.06375852 -0.06820017 -0.090644136 -0.003462671

lays.1.bias f4 [256]
000000 37 ac ad bd be 85 ba bd 44 b4 53 bc 7f 09 0d be
       -0.08480113 -0.091075405 -0.012921397 -0.13773154
000010 fe d9 64 be 15 b0 c4 bc cc 71 a6 bd 82 66 01 bd
       -0.22348782 -0.024009744 -0.08127174 -0.0315919
000020 62 00 1e bc 64 42 97 bb fa f0 d5 bd 1f 7f 9b be
       -0.009643646 -0.0046160687 -0.10446353 -0.30370423
000030 a5 03 1b be 57 b3 54 bd ae f2 85 bd 86 ab 14 be
       -0.15138109 -0.051928844 -0.06540428 -0.14518556
000040 97 b4 de bd 29 32 08 be 40 6d 8c bd 8f 71 f6 bd
       -0.108742885 -0.13300385 -0.06856775 -0.12033378
000050 c1 c2 31 bd f4 9b d6 bd 22 e7 8b bc c0 40 a5 bd
       -0.043398622 -0.104789644 -0.017077986 -0.08068991
000060 68 c9 96 bd 57 40 bd bd 16 46 a7 bd e9 7f 8a be
       -0.07362634 -0.092407875 -0.08167665 -0.27050713
000070 b8 67 b6 bc 58 84 b6 bd 82 27 c9 bd e3 37 62 bd
       -0.022266254 -0.08911961 -0.09821989 -0.05522908
000080 f5 87 91 bd c8 ee bb bd b7 56 74 bd 09 8a 68 be
       -0.0710601 -0.09176403 -0.05965301 -0.22708906
000090 2b bf 59 bc b8 68 4b be 0b 09 f3 bd 23 19 7b bd
       -0.013290207 -0.19864166 -0.11866959 -0.06130327
0000a0 9b d4 e6 bd 54 a2 05 bd 75 1b da bd 0b 35 7a bd
       -0.1127102 -0.03262551 -0.10649768 -0.061085742
0000b0 b6 03 36 bd ae d7 05 ba 57 bf 04 3e b6 72 da bd
       -0.044437133 -0.0005105686 0.12963615 -0.106664106
0000c0 2b 84 53 bd 7d 5e a2 bd 2e da c8 bc 62 33 48 bc
       -0.051639717 -0.079281785 -0.024518099 -0.012219282
0000d0 1b 86 85 bd fc c5 a3 bd 77 0c f2 bd 69 9a 92 bd
       -0.06519719 -0.07996747 -0.11818784 -0.07158358
0000e0 c7 a9 a3 bd c5 33 f5 bd 92 8c 0f c0 a0 e5 79 bd
       -0.07991367 -0.11972765 -2.2429547 -0.061010003
0000f0 18 22 df bf ad b1 b3 bd 1a ab 4d bd 4b cf f4 bc
       -1.743228 -0.08774123 -0.050212003 -0.029884001
000100 2c 64 37 bd 12 e5 b5 be 0d b8 71 be 01 b4 38 bf
       -0.044773266 -0.3552633 -0.23605366 -0.72149664
000110 f5 56 99 bd 67 46 73 bd 9e 5b aa be 9c 58 80 be
       -0.07487289 -0.059393313 -0.33273023 -0.25067604
000120 58 fa eb be 9c da a5 bd 56 bf d9 bd 31 ec 05 be
       -0.46089435 -0.08098337 -0.106321976 -0.13078381
000130 98 bf d3 bd 14 4b aa bd 72 75 d7 bd 9f 6f c6 bd
       -0.10339278 -0.08315101 -0.10520448 -0.09689259
000140 7e 0f 2c bd a0 a5 2a bd ea dc 8a be bf 31 e3 bb
       -0.042006962 -0.04166186 -0.2712167 -0.0069334204
000150 79 bb 51 bd cf e0 de be b3 bc 15 bd fe 6f ed bd
       -0.05120418 -0.4353089 -0.03655691 -0.115936264
000160 23 6f 36 bd 41 a9 06 be f8 2a f6 bd 8e bf 17 bd
       -0.044539582 -0.13150503 -0.120199144 -0.037047915
000170 e3 42 d1 bd 36 27 42 bd d4 c5 4b bd 30 b8 8e bd
       -0.10217836 -0.047400676 -0.04974921 -0.06968725
000180 fd e2 12 bf b5 c3 ed bd bf f0 f0 bd a0 73 26 bc
       -0.57377607 -0.11609594 -0.11764669 -0.010159403
000190 b7 c5 35 bd 85 4a b4 bd 4b 06 3e bd 20 f7 2f bd
       -0.04437801 -0.08803276 -0.04639272 -0.042960286
0001a0 e0 d8 bc 3c bf 7d d3 bd 55 34 85 bd e9 43 97 bd
       0.023052633 -0.103267185 -0.06504122 -0.07386
0001b0 91 fa 17 bd 79 08 9a bd 21 58 e2 bc b7 5e 36 be
       -0.037104193 -0.07521147 -0.027629914 -0.17809568
0001c0 c8 32 fb bd 13 22 7b bd a8 4d b2 be 7e ff ab bd
       -0.12265545 -0.061311793 -0.34824872 -0.08398341
0001d0 3b 83 04 be 1b 29 d1 bd 2e 87 01 be 04 92 87 bd
       -0.12940685 -0.10212918 -0.12649223 -0.06619647
0001e0 8b a0 b1 bd e6 ac 0c bf 4c 9d b7 bd 2e 57 13 bd
       -0.08673199 -0.5495132 -0.08965549 -0.035971813
0001f0 50 92 b5 bd eb 52 40 be 85 93 93 3c 28 04 89 be
       -0.088657975 -0.1878163 0.018014679 -0.26760983
000200 b9 0c bb be d4 3f 12 be f5 da 69 bd eb ed 10 be
       -0.36533144 -0.14282161 -0.05709358 -0.14153259
000210 36 3c ac bd 34 9f 3a be 51 f5 03 bf c9 5b db bd
       -0.08409922 -0.18224794 -0.515462 -0.10710866
000220 7c d5 f4 bd 0b 4a 68 bd 55 31 f3 bd 5f 9b b6 bc
       -0.119547814 -0.056711238 -0.11874644 -0.022290884
000230 d0 12 4c bd d3 8e 05 be a0 29 93 be 6c 3e d0 bd
       -0.04982263 -0.13042764 -0.28742695 -0.10168156
000240 ef 08 08 be 90 16 5b be 8d 95 5f be ef 58 e0 bd
       -0.13284658 -0.21395326 -0.21834393 -0.10954463
000250 0c 5b 04 bd 44 12 10 be c5 66 77 bd d0 2c 31 bd
       -0.03231339 -0.14069468 -0.060400743 -0.043255627
000260 f1 68 a1 bf 00 af e2 bd 14 8c ca bc e4 ad 5f bd
       -1.261015 -0.11068535 -0.024724998 -0.054609194
000270 b4 81 22 be 24 54 60 bd a9 90 0f bd d6 59 0d be
       -0.1586979 -0.054767743 -0.035050068 -0.13803801
000280 32 46 fd bd cd a5 e1 bd f4 b8 d9 bd ab 39 da bd
       -0.12366904 -0.11017952 -0.1063098 -0.106555305
000290 dc 2c 98 bd 76 0b 03 be d9 9d ef bc ff 6a 4c bd
       -0.07430431 -0.12797341 -0.029250072 -0.049906727
0002a0 30 b7 0d be 5e ba c5 bd 94 6e 18 bf 42 fb cb bc
       -0.13839412 -0.09654687 -0.5954373 -0.024900082
0002b0 65 7e 90 bb 82 33 eb bd 70 51 db be 02 da 5f be
       -0.0044095987 -0.11484434 -0.4283557 -0.21860507
0002c0 c9 b7 35 bd 18 e3 33 bd 28 dc c5 bc b4 6d 11 be
       -0.044364724 -0.043917745 -0.02415283 -0.14202005
0002d0 b8 64 94 bd 6b 04 7b bd 53 ed 80 be 61 e5 19 bd
       -0.07245773 -0.06128351 -0.25181064 -0.03757227
0002e0 71 3b b5 bd e0 36 a6 bd dc c3 6f bd 65 5a 26 be
       -0.08849228 -0.08115935 -0.058536395 -0.1624542
0002f0 ba 40 16 be 77 6b c3 be 0f 93 fb bd ac 47 c0 bc
       -0.14673129 -0.38167927 -0.122839086 -0.023471676
000300 05 4e 1c bd 44 92 a2 be 70 12 b3 bd 2f d7 27 bd
       -0.038160343 -0.31752217 -0.08743751 -0.0409767
000310 3b fa dc bd 0b 2a dc bc 9c 75 a4 bd 12 46 f0 bf
       -0.10789915 -0.026875516 -0.08030245 -1.8771384
000320 2b eb 92 bd 91 7f ae be 10 c5 5c bd 7d 5a 58 bd
       -0.07173761 -0.340817 -0.05389887 -0.05282067
000330 73 ec 03 bd 16 da f5 be 5e e9 cc bd e1 a5 83 be
       -0.032207917 -0.4801795 -0.10005449 -0.25712493
000340 b6 56 bc bd 1e 60 6a bd fd f2 32 bc 74 05 c3 bc
       -0.09196226 -0.05722057 -0.010922191 -0.023806311
000350 42 f7 d4 bb 1b dc 3d bd 36 b0 2c bf 96 86 c1 bd
       -0.006499202 -0.046352487 -0.67456377 -0.09449498
000360 64 4c 17 bd 08 04 4f bd bc 6e 24 be 78 a6 66 be
       -0.036938086 -0.050540954 -0.16057867 -0.2252444
000370 01 b1 7c bd b1 7e f9 bc 3d 12 ec bd 20 43 09 be
       -0.06169224 -0.030455919 -0.11526916 -0.13404512
000380 f7 fa 52 bd e5 6f d8 be 6b 69 8e be 77 2c bb bc
       -0.05150887 -0.4227287 -0.27814803 -0.02284835
000390 3a 96 12 bd fb 2c d6 bd fd 53 68 be c0 13 c3 be
       -0.0357878 -0.10457798 -0.22688289 -0.38101006
0003a0 ff 74 00 be 46 ed 60 be c0 4b df bd 0a d9 d3 bc
       -0.1254463 -0.21965513 -0.1090312 -0.025860328
0003b0 a1 eb cc bb e2 8b cb bf a8 aa 79 bd 15 88 e6 bd
       -0.006253675 -1.5902064 -0.060953766 -0.11256424
0003c0 05 49 af bd 8f 78 dd bd f9 71 01 be 8f 1e 5e bd
       -0.08558849 -0.1081401 -0.12641133 -0.05422836
0003d0 6d ae 92 3d 1d 6d ea bd 89 28 91 bd 7e 52 e4 bd
       0.07162175 -0.11446593 -0.070878096 -0.11148547
0003e0 a5 a5 b0 3c b9 ab 15 be 44 ad da bd eb 7d 11 be
       0.02156336 -0.14616288 -0.10677579 -0.1420819
0003f0 d1 9b 02 bd 52 fe 89 be ed 7c 6d bd 2c d9 c1 be
       -0.03188688 -0.26951844 -0.057980467 -0.37861001

lays.2.weight f4 [2, 256]
000000 cd 85 30 3d 8a a6 14 3c 64 28 0e 3d c5 2c 6e bc
       0.043096352 0.009072909 0.03470649 -0.014537041
000010 18 84 e5 bd 7a 2f c2 bd 4f da 3c bd 88 76 c2 3c
       -0.112068355 -0.09481712 -0.046106633 0.02373816
000020 86 f6 78 3a 98 9a 94 bc 4a 5a aa 3b 70 82 8a be
       0.0009497184 -0.018140122 0.0051987516 -0.2705264
000030 d1 2b b2 3c 50 4c 1a bd 6b 7d 6e bb f6 95 fc bc
       0.021749409 -0.037670434 -0.0036390673 -0.030833226
000040 d3 91 a5 3c 55 5a ad bc 7e 22 6a b9 b2 6c 90 3d
       0.020211136 -0.021161238 -0.00022328828 0.07051982
000050 4e c1 f4 bc 90 e2 11 bd 6e b0 89 3c 48 fe f5 3c
       -0.029877331 -0.035616457 0.016807761 0.030028477
000060 5b df 16 3d 35 de f6 bc 1e 99 ce bc f3 d1 b4 3c
       0.036834102 -0.030135253 -0.025219496 0.022072768
000070 9c 18 3b 3d f0 f8 9d bd 19 9b d2 bc 90 60 59 3d
       0.045677766 -0.07713497 -0.025708722 0.053070605
000080 1c f5 84 bd 5b 84 05 bd 8c 93 be bb 2a b3 ea bd
       -0.064920634 -0.032596927 -0.005815929 -0.11459954
000090 42 d6 bc bc 8b 2f 51 3d 42 99 15 3d ea f2 39 3d
       -0.023051385 0.05107073 0.03652311 0.045397677
0000a0 83 4e 74 bc e5 e1 c2 bc c7 8e cb 3c a3 8b 06 3d
       -0.014911297 -0.023789356 0.024848355 0.03284801
0000b0 b2 95 cf 3d 7e 73 4a bd 1c 18 82 3d 15 d8 7b be
       0.10135974 -0.04942655 0.06352255 -0.24594148
0000c0 33 b0 bb bb 6a a5 20 bc b3 a0 b0 bb 5e 8b d2 3c
       -0.0057277917 -0.009805063 -0.0053902506 0.025701221
0000d0 71 da 1e 3b 91 20 da 3c d1 0d 5b 3c 7c a8 89 3d
       0.0024239088 0.026626857 0.013369993 0.06721589
0000e0 a2 97 19 bd 19 5b 26 bd a2 c4 4c bb 68 d7 94 3b
       -0.037498124 -0.04061422 -0.0031245132 0.00454228
0000f0 36 45 e6 bc 8a 0c 40 3c e9 c4 7a bc cb b2 01 bd
       -0.028109174 0.01172174 -0.015305736 -0.03166465
000100 df 6c e2 3c 91 f3 e2 3d 71 1c 73 3d 08 58 2d bd
       0.027639804 0.11081613 0.059353296 -0.04232028
000110 1c fc c7 39 cb a5 d3 39 af 5d 16 bd 2e 17 18 3e
       0.00038144074 0.00040368582 -0.036710437 0.14852592
000120 b8 fe 27 be 86 8e a2 3b 7a 04 12 3d 80 b5 8b 3c
       -0.16405761 0.004960838 0.0356488 0.01705432
000130 cb df 8f 3d ef 27 ee bb a1 41 07 bd fd 52 50 3d
       0.07025107 -0.007267944 -0.033021573 0.050860394
000140 9a 2e 17 be 73 aa bc 3c 7d 70 e1 bc a2 a7 8f bc
       -0.14763871 0.023030495 -0.027519459 -0.017535988
000150 e5 14 12 3d 69 1d 1e 3d 3c a0 b8 bb 3a 39 14 bc
       0.035664458 0.038602266 -0.005634336 -0.009046847
000160 dc c6 18 3d 57 bf 98 3d ae 95 98 3b 63 6c 20 bd
       0.037299022 0.0745837 0.004656515 -0.039165866
000170 4a f1 56 3d 97 ff bb 3c 30 dd 10 3c 0c 12 a4 bd
       0.052476205 0.022949023 0.008841798 -0.08011255
000180 c4 85 0d be 56 6b 63 3d 06 68 79 3d a0 08 c6 3c
       -0.13820559 0.055522285 0.06089022 0.024174035
000190 a7 31 9c bc a0 7d 9f 3d 63 ad 30 3d f6 17 1e 3d
       -0.019066645 0.07787633 0.043134104 0.03859707
0001a0 c5 54 39 3a 18 8d 8a 3d 5a 2f f3 3b 47 04 61 3b
       0.00070698216 0.06765193 0.007421416 0.0034334825
0001b0 1e 7e 08 3d de b8 f7 bc 66 1b c7 3c 87 8f a4 3d
       0.0333234 -0.030239519 0.024305057 0.08035188
0001c0 bc 3a 91 3c d4 c0 a4 bc d4 8a 92 3e 29 da c3 bd
       0.017728202 -0.020111479 0.28621542 -0.09563095
0001d0 06 af 4e bd d3 86 db 3b 62 31 49 3e c0 be 2f 3d
       -0.050459884 0.006699422 0.19647744 0.042906523
0001e0 41 e6 5d bd 57 5f 99 bc 2b e9 c6 3d 8c 89 f0 3c
       -0.054174665 -0.01872222 0.09712442 0.029362462
0001f0 be 08 9c 3c 8c fc dd bd 48 87 7b 3a 0c 7e c7 bc
       0.019047137 -0.10839185 0.00095950486 -0.024352096
000200 d6 a6 76 be 18 c2 01 bd ac 11 59 3d 1b 4a 42 3d
       -0.2408708 -0.031679243 0.05299537 0.047433954
000210 d8 12 da bb 9e f5 c9 bc 8d 5e 4f bd 37 9a 68 3c
       -0.0066550784 -0.024653252 -0.05062728 0.014196924
000220 92 9e 82 bb c8 95 80 3d 68 dd dd bc 4e ef 13 bd
       -0.003986188 0.062785685 -0.027083114 -0.03611689
000230 13 63 a5 bc 16 69 25 3b 09 80 23 bc 66 b5 24 bc
       -0.020188844 0.0025239638 -0.009979256 -0.010053014
000240 34 76 4a bc 56 d7 68 bd 4c 36 fa bd f2 06 de bc
       -0.012357283 -0.056845985 -0.122173876 -0.027102921
000250 d3 61 52 bc 75 a2 a5 bc 00 0b 23 3d 77 5d bf 3d
       -0.012840706 -0.020219067 0.039805412 0.09343999
000260 bc 1b 97 3b 52 22 e4 bd 5c 68 4e 3d 07 ad 1f bc
       0.0046114605 -0.111393586 0.050392494 -0.009745843
000270 fe a5 60 bd 7c 42 d3 3c 06 21 e7 bb 6a 35 93 3d
       -0.054845802 0.025788538 -0.0070534972 0.07187922
000280 8b 57 b9 bc e5 41 9c 3d c7 cd ba bc c5 ee 97 bc
       -0.022624752 0.07629756 -0.0228032 -0.018546471
000290 d1 e9 96 3a 70 73 04 bc 34 9b 13 3c d0 29 2b bd
       0.0011513775 -0.008084163 0.009009171 -0.041787922
0002a0 2c 52 85 3d 54 e6 46 bd 7e a4 67 bc 6e 74 b1 3c
       0.06509814 -0.0485595 -0.014138339 0.021661963
0002b0 9c 1b 70 be 71 dc 93 3c 58 a6 ad 3d 35 1a 8f bc
       -0.23448032 0.01804945 0.08478993 -0.017468551
0002c0 87 c8 4c 3d b2 68 5e 3d 8d 11 b3 3c 5f 65 42 3d
       0.049995925 0.054299064 0.021858955 0.047459956
0002d0 87 81 a2 3c c9 24 ea bc 7b 75 e4 3c 8e 3e 43 b9
       0.019837154 -0.028581994 0.02788805 -0.00018619953
0002e0 e8 3e a9 bc 8c ab 43 bd b2 9c 8e bd b9 41 4f 3c
       -0.020659879 -0.04777102 -0.06963481 0.012649947
0002f0 fe 85 31 3c c7 37 1a 3c 82 84 f9 bc 29 f0 20 3d
       0.010835169 0.009412712 -0.030458692 0.039291535
000300 83 fe 12 3d b6 74 9f be 28 f4 5d 3d 20 07 be bc
       0.035887253 -0.3114373 0.054187924 -0.023196757
000310 04 c8 29 bd 74 1c 8a 3c e2 85 06 bb 07 82 17 bc
       -0.041450515 0.01685927 -0.0020526578 -0.0092473095
000320 09 07 ba bc 15 66 40 3e 43 fd bb bc 71 a3 b9 bb
       -0.022708433 0.18788941 -0.022947913 -0.0056652357
000330 c1 ab 0b bd 4d dc 15 3e 5d 74 24 3d 59 88 7f 3b
       -0.034099344 0.1463482 0.040150035 0.0038991182
000340 ba 4c e7 3c 13 7f 39 bc 71 fe 8f 3c 09 9e 1b 3c
       0.028234828 -0.011321801 0.017577382 0.009498128
000350 be 6c a5 3d 7b e1 00 3c 11 49 95 bc cd d6 d6 bc
       0.080773816 0.007866259 -0.018223317 -0.026225472
000360 96 f1 9a 3c c2 2f 16 3d 31 cb 06 bc d2 6e 08 be
       0.018914025 0.03666664 -0.008227156 -0.13323525
000370 44 ac 02 bc 19 c9 60 3d 08 d1 34 3d d6 e0 74 3d
       -0.007975642 0.05487928 0.04414466 0.059784733
000380 3b 2b 53 3d b3 5a 98 be 68 18 c6 3d 66 0d 58 3d
       0.0515549 -0.29756698 0.09672624 0.052747153
000390 fd 20 a9 bc 78 15 27 3c 39 d7 89 3c f5 16 9b bc
       -0.020645613 0.01019799 0.016826259 -0.018931845
0003a0 86 9b 4d bc 84 d6 81 bd d9 d8 b0 3c d9 a6 08 3c
       -0.012549287 -0.06339744 0.021587776 0.008340561
0003b0 c3 71 4a bb b8 37 2e bc 88 04 6b 3d c4 89 1e 3d
       -0.0030890561 -0.010633402 0.05737737 0.038705602
0003c0 0c ad 89 bc 5a cf c4 3c 20 f0 8c 3c 00 8b b0 bc
       -0.016806148 0.024024654 0.017204344 -0.021550655
0003d0 a3 31 22 3d 8f 68 68 3b e6 db f9 3c 6d d7 b6 3d
       0.03959812 0.0035462712 0.030500364 0.08927808
0003e0 fe b4 bd b9 ac 6e 81 bc 56 2a 74 3e 67 7c 95 bc
       -0.0003618374 -0.015799843 0.23844275 -0.018247796
0003f0 76 d0 75 bc 7c 56 b8 be 7a f8 ac bc fd ef 8e be
       -0.015003314 -0.36003482 -0.021114577 -0.27917472

lays.2.bias f4 [2]
000000 22 ca 0d 3e d8 6c de bd
       0.13846639 -0.10860604

l1.weight f4 [256, 63]
000000 47 88 47 bf ac 88 ce be bf 3c cb bd 5e c4 2a be
       -0.7794232 -0.40338647 -0.09923696 -0.1667647
000010 79 54 c8 bd 0d 98 ba be 95 2a e7 3e 80 c1 f6 bc
       -0.09781737 -0.3644413 0.45149675 -0.030121565
000020 4c f8 7f 3d 54 a1 eb 3c 93 4e 49 3c 7e 57 9c be
       0.062492654 0.02876345 0.0122868 -0.305355
000030 28 96 5f bd ea f4 49 be 05 61 32 3e 21 88 5e be
       -0.05458656 -0.19722334 0.17419823 -0.21731617
000040 a8 f6 2f be 3e 74 0a 3e 5a 3c ec 3d f4 1a 2a bc
       -0.17183936 0.13520905 0.11534949 -0.010382403
000050 d9 11 8a 3e 49 c6 14 3e 53 e5 af 3c 99 71 64 be
       0.26966742 0.14528765 0.021471655 -0.22308959
000060 b1 9d a8 be 1f 4c 6c 3e 28 a1 21 3e 5f 62 90 3e
       -0.3293281 0.23075913 0.15784132 0.2820005
000070 c7 0c 00 be a5 65 75 bc 89 64 3f 3d 2b 34 3f 3c
       -0.12504874 -0.014977847 0.046726737 0.011670153
000080 33 0d 92 3c 92 22 1a 3e bf bc a3 3e 19 76 77 3e
       0.01782856 0.1505225 0.3197994 0.24166144
000090 a2 e1 9e bd 44 8b 04 be f7 df 0c be 85 89 16 bf
       -0.0775788 -0.1294375 -0.13757311 -0.5880359
0000a0 ce 70 ef 3c 65 21 2b 3e 93 08 3e bd ae 67 a4 3e
       0.029228594 0.16711958 -0.046394896 0.3211035
0000b0 51 66 7e bd de e4 cc bd 45 97 4e 3d c0 24 3d 3d
       -0.062109295 -0.100045905 0.05043723 0.046177626
0000c0 c9 11 55 3e b9 4e c8 3d 13 a5 fd bc f6 37 33 3c
       0.20807566 0.0978064 -0.030962503 0.010938635
0000d0 ff 79 36 3e cb 3f 0d bf 92 a2 7e 3e e4 ed ab bd
       0.17819975 -0.55175465 0.24866703 -0.083949834
0000e0 1a 5e 3a be 85 11 96 3e 44 69 40 bc 8d 3f b7 3c
       -0.1819996 0.2931024 -0.011743847 0.02236917
0000f0 70 2a 15 be fe 54 1c 3e 73 88 0e be ca de bd bd
       -0.1456697 0.15266797 -0.13919239 -0.09271009
000100 58 b7 2d 3f c8 c5 86 bd b9 0b c1 be 01 4e b2 be
       0.67857885 -0.065806925 -0.37704256 -0.34825137
000110 74 36 79 bf 92 b3 51 be 5a 1b 74 be f0 df 86 3d
       -0.97348714 -0.20478657 -0.23838559 0.065856814
000120 e7 c9 87 ba 95 77 1d be 4d 53 8c 3d ad 70 72 bc
       -0.0010359854 -0.15377648 0.06851826 -0.014797372
000130 3a 31 2b be c5 f7 8a be a6 d6 ca be 7d 79 3f 3d
       -0.16717997 -0.27142158 -0.3961689 0.04674672
000140 da cd 11 bf 98 f9 07 bf c2 9c 8c 3c b6 a3 4d 3f
       -0.5695473 -0.53115225 0.017164592 0.8032793
000150 37 bf ce 3e ab 95 80 3e 63 9d dd 3d ce 90 21 bf
       0.4038026 0.25114188 0.10821035 -0.6311158
000160 81 65 1a 3f f8 7b 7f be 84 7e fe bd 06 71 2f bf
       0.6031113 -0.24949634 -0.12426475 -0.68531835
000170 f1 08 a8 be 81 f5 f3 bd dc c4 cb bc 72 08 22 bf
       -0.32819322 -0.119120605 -0.024874143 -0.63294137
000180 c1 39 42 3f 9c a2 32 be 7c 12 0f 3e 04 59 1d bf
       0.75869375 -0.17444843 0.13971895 -0.6146395
000190 90 bd e9 bd db fd 99 be 18 1d 18 be 6c 98 08 bf
       -0.11413109 -0.3007649 -0.14854848 -0.5335758
0001a0 a6 8a ef 3e 5b 81 4d be 94 c4 0d bf 68 5a 54 bc
       0.46785468 -0.20068876 -0.5537808 -0.012961008
0001b0 42 b0 0b be b0 62 3f bd bb a5 54 be 13 e5 99 be
       -0.13641456 -0.046724975 -0.20766346 -0.30057582
0001c0 5c 0e 1a be 27 1d 47 be da 92 46 be 54 7e 86 3e
       -0.1504454 -0.19444714 -0.19391957 0.26268256
0001d0 18 a7 d5 bb aa 14 6d 3e c3 e4 4d bf 48 cc 37 be
       -0.0065201633 0.23152414 -0.8042719 -0.17949021
0001e0 90 19 96 3d b4 0c 04 bf 60 88 ef 3c d2 dd 77 3f
       0.073290944 -0.51581883 0.029239833 0.96822846
0001f0 45 c0 39 be b5 4a 2c be 4b f2 8d bf 8a 14 a2 bd
       -0.18139751 -0.16825373 -1.1089567 -0.07914074
000200 81 a5 91 be b1 6c 9e be 45 48 c3 3d 3b c9 94 be
       -0.28446582 -0.309423 0.09535269 -0.29059777
000210 67 37 02 3f 47 27 33 3f 92 73 9d be ed be f1 3d
       0.5086579 0.6998181 -0.30752236 0.11803994
000220 41 60 9d be 9b c6 05 3e a1 4d 5b bc e0 6c a0 3d
       -0.30737498 0.13064043 -0.013385207 0.07833266
000230 53 08 b7 be 27 f6 af bd 00 41 a2 3e 61 7f 29 bd
       -0.35748538 -0.08591872 0.31690216 -0.041381244
000240 6b fe 38 bd d1 43 cc 3d ab 3a 17 3e aa 9b fb bd
       -0.045164507 0.099738725 0.14768474 -0.1228555
000250 16 a3 ab be 34 60 10 3e ac 14 32 be 77 83 96 bc
       -0.33522862 0.14099199 -0.17390698 -0.018373234
000260 7f ed 0e 3f 4c 2e 84 be 23 64 13 be fb 58 df 3d
       0.5583114 -0.25816572 -0.14393668 0.109056436
000270 1c 97 90 3d 38 0d 03 be 11 68 49 be 48 61 fa 3d
       0.07060072 -0.12798011 -0.19668604 0.12225586
000280 80 4d 90 3a ed 35 ac bd b2 38 de be bf de 55 bd
       0.0011009425 -0.08408723 -0.4340263 -0.05221438
000290 a4 c7 d1 3d a3 8f ea bc 45 f9 f7 3d 86 19 6d 3d
       0.102431566 -0.028632944 0.12108091 0.05788567
0002a0 a4 e3 20 3e 0a e9 51 3e 0d 91 11 be 8f 0e 51 be
       0.15711838 0.20499054 -0.14215489 -0.2041571
0002b0 7d f4 d4 be af 03 1e 3d fc 01 80 bd df 7d b8 be
       -0.4159278 0.03857773 -0.062503785 -0.36033532
0002c0 ca 09 b1 be c8 e8 a3 3e 10 3c 4d 3e d0 65 31 be
       -0.3457778 0.32013535 0.20042443 -0.17323995
0002d0 06 2c 5f bd 3f bb f9 3d dc 96 16 3c be 26 54 3d
       -0.054485343 0.121939175 0.009191241 0.05179476
0002e0 b1 78 d1 3e 5a 6d 80 bd 5e 50 d7 be d6 56 ea 3d
       0.40912393 -0.06270857 -0.42053503 0.11442344
0002f0 d0 73 1b be b1 86 1b 3f 20 53 c2 3f b1 a4 22 3f
       -0.15180898 0.607524 1.5181618 0.6353255
000300 95 0c 00 3f a9 57 00 3e 1a 70 39 3f 08 00 79 be
       0.500192 0.1253344 0.7243668 -0.24316418
000310 d2 18 e0 bd ad 21 87 be 78 df 1d be 2e 83 17 be
       -0.10942234 -0.2639288 -0.15417278 -0.14796135
000320 74 10 f0 be de b2 66 be 54 c4 81 bc f8 52 2d 3e
       -0.46887553 -0.2252917 -0.015840687 0.16926181
000330 8a c8 72 be d2 5e df 3e 61 7d 8e be ed 2c 28 3f
       -0.23709312 0.4362703 -0.27830032 0.6569355
000340 b8 ea c8 bc 5d 2f d5 3e cb ca 0f be b7 4f 04 be
       -0.024525985 0.41637698 -0.14042203 -0.12921034
000350 5c 04 80 3e dc 09 97 bd a8 5a 25 be 26 bf 86 be
       0.25003326 -0.073749274 -0.16147864 -0.2631771
000360 d4 78 52 be d9 7d 21 be 0a 4d 01 3e 23 79 02 3d
       -0.20553905 -0.15770663 0.12627044 0.031853806
000370 f5 f6 d0 bd ff 93 14 3f 2d f0 88 be 74 c8 87 be
       -0.10203353 0.58038324 -0.2674574 -0.2652012
000380 7f ba e2 bc cd 73 c7 be c3 95 75 bc 8e 0f b2 3e
       -0.027676819 -0.38955536 -0.014989319 0.34777492
000390 7a 55 d7 bd fb 44 ac 3e 25 7a 2a be 8d 45 0e be
       -0.1051435 0.33646378 -0.16648157 -0.13893719
0003a0 20 e1 95 be 48 a2 98 bd 7a 57 8c be d8 aa b7 bd
       -0.2927332 -0.07452828 -0.2741049 -0.08968133
0003b0 e7 36 23 be 79 85 be bd 39 fc 82 be 35 01 6a bd
       -0.15938912 -0.09302802 -0.25583056 -0.057130057
0003c0 8c 3d 20 bf 54 c5 fc bd dd 19 79 3f 70 ee af be
       -0.62593913 -0.12342325 0.9730509 -0.343616
0003d0 4a 52 70 3e 63 e2 81 3e aa 72 1a be 1f 87 04 3e
       0.23468891 0.25368032 -0.15082803 0.1294217
0003e0 90 d9 86 be fe 09 af be 43 70 4d 3d 17 3d 19 bc
       -0.26337862 -0.3418731 0.05015589 -0.009352944
0003f0 1d 64 27 bf 01 cf 25 bf 1a bc c3 be 37 4a 6c 3b
       -0.65387136 -0.6476899 -0.38229448 0.0036054978

l1.bias f4 [256]
000000 2c c3 56 3f 9d ed 3a bf 8c 04 6d 3f 40 1e b5 be
       0.8389156 -0.7301882 0.92585063 -0.3537464
000010 c5 05 f1 3e ad 22 1f be 4f 55 7b 3f 27 6b 85 3f
       0.47074714 -0.15540572 0.98177046 1.0423325
000020 36 41 5a 3f ed 0d b7 3f 5f 7d 82 3f 20 ba cb be
       0.85255754 1.4301125 1.019451 -0.3979044
000030 b9 a0 96 3f 70 a8 a7 3f 67 e2 ec be 6e 6f 75 3f
       1.1767799 1.3098278 -0.4626648 0.95873153
000040 61 13 d8 be 46 09 d2 be db 15 2b be 4e c7 27 bf
       -0.42202285 -0.410227 -0.16707556 -0.6553849
000050 e9 f1 2f be d5 e7 6a 3f af 39 80 be 8f 77 6b 3f
       -0.17182125 0.9176 -0.2504401 0.91979307
000060 80 e9 00 3b 6c b2 59 be cd 94 2f bd 90 cb 60 3f
       0.0019670427 -0.21259469 -0.042866517 0.8781061
000070 81 63 45 3f 61 ff 0a 3f 22 2a 86 3f bf f1 8a 3f
       0.77104956 0.5429593 1.0481608 1.0855025
000080 22 7f 96 3f 31 ad 43 3f fb 0c 28 bf 1c c9 8d 3f
       1.1757548 0.76436144 -0.65644807 1.1076999
000090 1a e1 0f bf 31 92 5b 3f aa 8a 98 3f b2 d5 77 3f
       -0.5620285 0.85769945 1.1917317 0.9681045
0000a0 ec 92 43 3f c4 51 81 3f 14 49 25 3f 7e aa 41 be
       0.7639606 1.0103078 0.64564633 -0.18912694
0000b0 f4 ed 32 3f 7c d6 40 be f4 14 11 bf fd 0f 86 3f
       0.6989434 -0.1883182 -0.56672597 1.0473629
0000c0 60 a7 81 3f 0b fe ea 3f c0 cc 87 3f ea 8a 00 3f
       1.0129204 1.8358778 1.060936 0.50211966
0000d0 0f 1b 9d be 58 81 1c bf 26 20 66 be a2 7c 65 be
       -0.30684707 -0.6113486 -0.22473201 -0.22410825
0000e0 80 94 b9 be d6 9c b1 3e 8a ac 81 3f c3 f7 84 3f
       -0.3624611 0.3468997 1.013078 1.0388111
0000f0 6f 13 37 be 4f 2f 8f 3f 2c b2 ed be c0 27 d2 3e
       -0.17878507 1.1186312 -0.46424997 0.41045952
000100 55 73 34 3f ff ab 54 be 44 17 03 bd 98 47 61 3f
       0.7048848 -0.20768736 -0.03200461 0.8799987
000110 6a f3 32 bf 8f fa 24 3f 10 e3 76 3f b2 7a c8 be
       -0.6990267 0.6444482 0.9644022 -0.3915611
000120 9c c4 7e 3f 14 2f 30 3f 11 6e bd 3e 46 81 84 3f
       0.9951875 0.68821836 0.36998037 1.0351951
000130 b3 ae 81 3f af 1b 4d 3f 1a 21 16 3f e4 61 70 be
       1.0131439 0.80120367 0.5864426 -0.23474842
000140 89 d6 26 be c0 49 89 3f 9c a7 ef 3e 9f 65 41 be
       -0.16292776 1.0725632 0.46807563 -0.18886422
000150 ec dc 40 3f 18 ae 12 bf 24 17 69 be b7 6a 90 3f
       0.753371 -0.57296896 -0.22762734 1.1282567
000160 b7 53 55 3f 20 c2 a6 be af 5b 64 3f f2 e1 77 3f
       0.83330864 -0.3256998 0.892024 0.9682914
000170 5d f9 6b 3f 83 b3 56 3f 4b 89 90 be 6d 1b 72 3f
       0.92177373 0.83867663 -0.28229746 0.945731
000180 15 99 8d 3f f9 87 7c 3f 7a f7 76 3f ec 7c 7a 3f
       1.1062342 0.9864498 0.9647137 0.97846866
000190 ca 7a 14 bf 40 19 4f 3f 2d d3 3d be 8a 95 fa be
       -0.5799986 0.80897903 -0.18537588 -0.48942214
0001a0 1f 68 fc be 39 00 6a 3f 39 c4 49 3f e5 2a a0 3f
       -0.49298188 0.9140659 0.78815037 1.251309
0001b0 1e b7 20 be 84 1b 19 bf 1c db 21 3f 95 4a 7e 3f
       -0.15694854 -0.5980761 0.6322496 0.99332553
0001c0 5d c5 f5 bd 84 2d f8 be c0 02 8f 3f 60 20 59 3f
       -0.12000535 -0.48472226 1.1172714 0.84815025
0001d0 a4 3a 95 3f 7f f2 31 3f ba b5 5d 3f 5d 58 90 bb
       1.1658521 0.69510645 0.8660542 -0.004405065
0001e0 2b b2 83 3f dc c4 56 3f eb bd c4 be 3c 18 4b 3f
       1.0288748 0.83894134 -0.38426146 0.79333854
0001f0 99 b4 b0 3f d9 14 d5 be f3 eb 63 3f ee 29 84 3f
       1.3805114 -0.41617468 0.89031905 1.0325296
000200 05 6b 8f 3f 4c 17 ee 3e bd 43 30 bf f7 01 1d bf
       1.1204535 0.4650215 -0.6885336 -0.61331123
000210 06 33 89 be 05 08 51 3f 14 cb 5a 3f ea ab eb be
       -0.2679674 0.8165286 0.8546612 -0.46029598
000220 ea f0 8c 3f cd b3 29 bf 01 50 62 3f 50 a5 7e 3f
       1.1011021 -0.6628998 0.88403326 0.99470997
000230 2c 08 49 3f 2f 9d 87 3f 1c 91 4c 3f 79 98 73 3f
       0.78528094 1.0594844 0.7990892 0.9515453
000240 d4 c3 83 3f 32 e8 e1 be cf 40 1a bf 94 ee a1 3f
       1.0294137 -0.44122463 -0.6025514 1.2650933
000250 2b 38 96 be cb 77 8e 3f 2b 03 34 be 0b 17 45 3f
       -0.29339728 1.1130308 -0.17579333 0.76988286
000260 3f bd e7 3e c0 db a0 3f 6d 7c 55 3f a3 bd 87 3f
       0.4526157 1.2567062 0.83392984 1.0604748
000270 26 b4 66 3f a6 3e 13 be f5 87 80 3f 28 82 7e be
       0.90118635 -0.14379367 1.0041491 -0.24854338
000280 4f d2 59 3f 9a d0 5b 3f 35 3b 95 3f 40 d8 9e 3f
       0.8508653 0.85865176 1.1658694 1.2409744
000290 ce b5 79 3f 82 65 87 3f 0f 71 95 3f 23 99 f0 be
       0.97543037 1.0577853 1.1675128 -0.46991834
0002a0 64 9e 87 3f 29 6d 2e bf 2a e6 1b bf 24 e0 ed 3e
       1.0595212 -0.68135315 -0.6089808 0.46460068
0002b0 d9 0b 7a 3f 80 7c 5b 3f bd 0e a6 be 04 c0 a4 3f
       0.9767433 0.85736847 -0.3243312 1.2871099
0002c0 05 bf 00 bf 61 2e 45 be de e4 a7 3f cb 11 62 be
       -0.5029147 -0.19255973 1.311672 -0.220771
0002d0 3e 48 77 3f f9 fc 44 3f 0b 7d be be fa a3 c9 be
       0.9659461 0.76948506 -0.37204775 -0.39382917
0002e0 00 90 54 be 6a 37 13 bf 47 7a 13 bf d7 e2 5e 3f
       -0.20758057 -0.5750643 -0.57608455 0.8706488
0002f0 9e 0c e2 bd aa 22 b7 bd 61 a4 86 3f 54 f8 86 3f
       -0.11037563 -0.089421585 1.0518914 1.0544534
000300 88 15 a4 3f da 2c ab be 07 cb 53 3f 9f 68 8d 3f
       1.2819071 -0.33432657 0.8273167 1.1047553
000310 f9 94 97 be bc c9 02 bf ff 15 45 bd 6b a3 a6 3f
       -0.29605845 -0.5108907 -0.04811668 1.3018621
000320 94 f6 84 3f 9b 20 86 3f 60 ce 82 3f 4d b4 55 3f
       1.038775 1.04787 1.0219231 0.8347824
000330 56 50 2d bf 94 9c a3 be 70 63 98 3f 41 7f 9c 3f
       -0.6770071 -0.31955397 1.1905346 1.2226335
000340 9c e4 f0 3e cf b8 c6 be 9f 37 9c 3f cd cb d9 be
       0.47049415 -0.38812873 1.2204474 -0.425383
000350 75 eb d1 3e f2 f2 15 3f 1d da d1 bd 95 5e 4e 3f
       0.40999952 0.5857383 -0.1024668 0.8061307
000360 f4 c6 71 3f ff c5 16 3f 28 31 35 3f d5 fe 6b 3f
       0.94444203 0.5889587 0.7077813 0.9218572
000370 98 54 30 bf c9 01 e7 bc e2 58 1d 3f fb 77 46 3f
       -0.6887908 -0.028199093 0.6146375 0.77526826
000380 33 a9 6c 3f be b7 2c be a0 8e ec 3e 40 62 24 3f
       0.9244568 -0.16866967 0.46202564 0.6421242
000390 88 14 84 3f 5e 78 67 3f 06 85 a9 be a4 d0 04 bf
       1.0318766 0.9041804 -0.331093 -0.5188086
0003a0 e9 bf 18 be 5b 21 0f bf 88 f6 57 3f 81 d6 b3 3f
       -0.14916958 -0.5591027 0.8436055 1.4049836
0003b0 b0 8e 11 3f e1 58 03 be f3 bc 0e bf 4c 7a fc bd
       0.5685835 -0.12826873 -0.55757064 -0.12328014
0003c0 13 4d 80 be 4f e5 48 3f 22 96 82 3e 9f db 8d 3f
       -0.25058803 0.784749 0.25505167 1.1082648
0003d0 25 4b 4d 3f 2e 9a 98 be 26 e3 6c 3f 14 36 2c 3f
       0.80192786 -0.2980513 0.925341 0.67270017
0003e0 4c af 1a be a1 39 c2 3e 9f 4a f1 bd 18 68 6e 3f
       -0.15105933 0.37934592 -0.11781811 0.93127584
0003f0 90 ab 46 3e fa 35 a8 be e1 3f 4f 3f 14 ff 8e 3f
       0.19401383 -0.3285368 0.80956846 1.1171594
