TABULAR/Figure2Reproduce/Poisoned/GERMAN_GRAD_FCN_e=0.1_g=0.0_a=1.0_l=2_h=256_s=True_p=0.75.pt (torch, 331927 bytes, 10 tensors)

lays.0.weight f4 [256, 62]
-0.0011063814 -0.00036080444 -0.0022998424 0.003542618 -0.0006792672 -0.00042757316 0.0009417885 -0.00015210023
0.0031054937 0.0009054305 -0.0029987714 0.0013526871 -0.0011522148 -0.0011211534 0.0044917567 0.00054203905
-0.00034601468 -0.00019025918 -0.0011234912 0.0009710294 0.00094744377 -0.00046710097 -0.005033959 -0.0019930066
-0.0011186552 -0.00019023518 0.0009637802 -0.0032482308 -0.00050542585 -0.0009719784 0.0011489604 0.0004222142
-0.0011499565 -0.0015267644 -0.0009491372 -0.0012734666 -0.043218236 0.00050752173 -0.0006049513 -0.0005007018
0.0006309981 -0.0022413365 0.0012045222 0.00096445135 0.0019209175 -0.0011248617 0.0006279541 -0.0011281761
0.00525104 -0.0010434863 0.00052794203 0.005634421 0.0010885767 -0.0011207445 0.0012528875 0.001252656
0.00058999535 -0.0015197714 -0.002374446 0.0013984831 0.00037747223 -0.00038088192 -7.9243255e-05 -0.00094474904
0.00016205393 0.0015126994 -0.00058493594 -0.0013078073 -0.0006179069 -0.003939005 -0.00093369186 0.002493268
-0.0006308466 -0.010349041 -0.0012235519 0.0007755401 -0.00036810746 -0.00091959455 0.0018711677 -0.0021509174
-0.0010110288 -0.0003010174 -0.00060011493 0.0007374277 0.0003332175 0.00034979626 0.00094380137 -0.0006283294
-0.00093666895 0.0010130797 -0.00033839457 -0.0009771647 -0.00087858 0.0014485561 -0.001221071 -0.0018545527
-0.007509865 0.00032477718 -0.00065039465 0.0005259182 -0.0009362737 -0.0010121064 -0.0010368973 -0.00081887393
0.0016621207 -0.00049596303 0.0005118312 0.0016577119 -0.0008883149 -0.00041537912 -0.00053776003 0.00048764193
0.00076227717 0.0014995657 0.0016722066 -0.0010961675 -0.0006934892 0.0016851813 -0.00086307566 0.0004812841
-0.00014857276 -0.0013031217 -0.0037306466 -0.002659675 -0.013068515 -0.0073495284 -0.010000543 -0.0074202125
-0.0028939722 -0.01207905 -0.010472205 -0.012447313 -0.011832149 -0.010857684 -0.001068686 -0.00088723697
-0.0058136964 -0.0078219315 -0.0040926556 -0.0061640805 -0.006138416 -0.01553012 -0.00022232735 0.00012228906
-0.0010499068 -0.005570006 -0.010211057 -0.006118619 -0.001166571 -0.01273759 0.000117761825 -0.0013528328
-0.010295867 -0.0026842027 -0.00016740363 8.555423e-05 -0.016755933 -0.005726291 -0.00806983 -0.0016996041
-0.00856247 0.00028472132 -0.005708607 -0.01408518 -0.008110324 -0.009683206 -0.0043046405 0.0001784607
8.880921e-06 -0.0032088715 -0.00023122545 0.00013863215 9.221479e-05 -6.6773486e-05 -0.012638136 -0.0145535255
-0.008012008 8.8325185e-05 -8.2177714e-05 -0.001349805 -2.8308594e-05 2.078246e-05 -0.016971478 -0.010800576
-0.0107094385 -0.013188642 0.006948027 0.00625679 -0.007602782 0.0040639564 0.0036228043 0.0027574142
0.0039153607 -0.0077465293 -0.024077117 0.012815003 0.023261642 -0.003209291 -0.0037117256 0.0054353704
-0.009542639 0.0059130434 -0.002921959 -0.057240672 0.004269405 0.004862451 0.0026435829 -0.016273221
-0.0010972124 0.0020606122 0.005163997 -0.009758763 0.004234145 0.0015466239 -0.0018209711 -0.0016881066
0.0057788775 0.028767632 0.0027910934 0.0030121128 0.0039043198 0.017669031 -0.011596488 -0.0037317805
-0.04658195 0.0014624001 -0.006826442 -0.014607938 0.04469041 0.0061288215 0.0021351213 -0.002722969
0.025068719 -0.0028809418 -0.004203392 0.003427116 -0.010907965 -0.0057049617 -0.0049919183 -0.0014717423
-0.0023752463 0.0014258195 -0.024563817 0.012296262 0.0025491526 0.0079712905 0.002355148 -0.0021365061
-8.865216e-06 -8.112307e-06 -7.1391274e-05 -7.541482e-05 8.15028e-05 -8.948865e-05 9.4065465e-05 1.1029517e-05
00000000: 0004 91ba 5a2a bdb9 f4b8 16bb 442b 683b
00000010: da10 32ba e62b e0b9 5be2 763a 187d 1fb9
00000020: 8a85 4b3b 6a5a 6d3a 0987 44bb a64c b13a
00000030: ea05 97ba aaf3 92ba 962f 933b a017 0e3a
00000040: 4e69 b5b9 4f80 47b9 1c42 93ba ae8c 7e3a
00000050: e05d 783a 3be5 f4b9 e9f3 a4bb 1a9d 02bb
00000060: d79f 92ba de79 47b9 32a6 7c3a 45e0 54bb
00000070: 8e7e 04ba 5ecc 7eba b798 963a a15c dd39
00000080: 23ba 96ba b61d c8ba 85cf 78ba 73ea a6ba
00000090: 9b05 31bd 350b 053a 9895 1eba 8741 03ba
000000a0: 9169 253a 63e3 12bb 0fe1 9d3a 3cd3 7c3a
000000b0: 4cc7 fb3a 1870 93ba 499d 243a 4fdf 93ba
000000c0: eb10 ac3b 97c5 88ba 9765 0a3a f3a0 b83b
000000d0: 93ae 8e3a f2e5 92ba ee37 a43a 2930 a43a
000000e0: eba9 1a3a 1133 c7ba 989c 1bbb 4e4d b73a
000000f0: 77e7 c539 1bb1 c7b9 662f a6b8 09a9 77ba
00000100: 05ed 2939 c545 c63a 6356 19ba bb6a abba
00000110: 08fb 21ba c512 81bb 00c3 74ba 1966 233b
00000120: 665f 25ba 068f 29bc 975f a0ba 9d4d 4b3a
00000130: 8cfe c0b9 f210 71ba f841 f53a 68f6 0cbb
00000140: 7f84 84ba dfd1 9db9 0851 1dba ef4f 413a
00000150: b2b3 ae39 dc64 b739 7069 773a 79b6 24ba
00000160: ca8a 75ba 50c9 843a 8d6a b1b9 3514 80ba
00000170: 8150 66ba 7add bd3a 580c a0ba 7614 f3ba
00000180: 5015 f6bb db46 aa39 3f7f 2aba c6dd 093a
00000190: 4470 75ba a8a8 84ba 80e8 87ba b3a9 56ba
000001a0: 84db d93a 8403 02ba 692c 063a 9547 d93a
000001b0: cedd 68ba 3ec7 d9b9 77f8 0cba 31aa ff39
000001c0: 8ed3 473a 138d c43a f12d db3a 47ad 8fba
000001d0: 46cb 35ba 4de1 dc3a 0740 62ba dc54 fc39
000001e0: 32ca 1bb9 82cd aaba dd7d 74bb f14d 2ebb
000001f0: 531d 56bc 50d4 f0bb 51d9 23bc 4125 f3bb
00000200: cca8 3dbb 35e7 45bc 9c93 2bbc d1ef 4bbc
00000210: a1db 41bc 6de4 31bc 2713 8cba 7795 68ba
00000220: d280 bebb 8f27 00bc af1b 86bb 0efc c9bb
00000230: c424 c9bb 0b72 7ebc 8b20 69b9 b83a 0039
00000240: 079d 89ba 9984 b6bb 474c 27bc b27e c8bb
00000250: a1e7 98ba 53b1 50bc e6f6 f638 8951 b1ba
00000260: ffaf 28bc 73e9 2fbb 1289 2fb9 946b b338
00000270: bd43 89bc 9ca3 bbbb 5237 04bc 40c5 deba
00000280: 9a49 0cbc a646 9539 440f bbbb 87c5 66bc
00000290: 2ae1 04bc 4fa6 1ebc f10d 8dbb 2e21 3b39
000002a0: 44ff 1437 ee4b 52bb 1c75 72b9 c95d 1139
000002b0: 7063 c138 be08 8cb8 2f10 4fbc e971 6ebc
000002c0: cc44 03bc 393b b938 d356 acb8 f1eb b0ba
000002d0: 3e78 edb7 fe55 ae37 c507 8bbc e6f4 30bc
000002e0: a476 2fbc 2d15 58bc 46ac e33b c205 cd3b
000002f0: c220 f9bb f02a 853b 926c 6d3b bcb5 343b
00000300: 6d4c 803b 99d6 fdbb 603d c5bc 05f6 513c
00000310: 338f be3c f852 52bb 6c40 73bb 311b b23b
00000320: bb58 1cbc 34c2 c13b 567e 3fbb 3275 6abd
00000330: 5de6 8b3b 3255 9f3b f63f 2d3b 6b4f 85bc
00000340: 57d0 8fba 560b 073b bf36 a93b 38e3 1fbc
00000350: 95be 8a3b 16b8 ca3a a7ad eeba 7543 ddba
00000360: bd5c bd3b 19aa eb3c c7ea 363b de66 453b
00000370: 9edf 7f3b a5be 903c 32ff 3dbc e390 74bb
00000380: b7cc 3ebd 01ae bf3a 59b0 dfbb 2256 6fbc
00000390: 4b0d 373d 48d4 c83b 64ed 0b3b d773 32bb
000003a0: ea5c cd3c 2fce 3cbb 9cbc 89bb 7799 603b
000003b0: 52b7 32bc b0f0 babb 3f93 a3bb 7ae7 c0ba
000003c0: 05aa 1bbb 90e2 ba3a 0f3a c9bc 4376 493c
000003d0: af0f 273b 049a 023c d458 1a3b a004 0cbb
000003e0: d0bb 14b7 181a 08b7 e6b7 95b8 0628 9eb8
000003f0: 7cec aa38 daab bbb8 0345 c538 6a0b 3937

lays.0.bias f4 [256]
-0.10441426 -0.25438285 -0.009355715 -0.06984606 -0.08323175 0.03049431 -0.08421889 -0.0902087
-0.07830002 -0.23463681 0.048407834 -0.19003993 0.040490374 -0.14946799 -0.057851236 -0.11772539
-0.14167985 -0.121078305 -0.06084002 -0.120255955 -0.17184523 -0.12695514 -0.08857428 0.039860047
-0.11303352 -0.10555814 -0.1678153 -0.07707623 -0.14970708 -0.17146163 0.11634377 -0.07874514
-0.030062234 0.16147974 0.03195685 -0.1610381 -0.01898357 -0.01592705 0.41930753 -0.037741356
-0.21778849 -0.0015170177 0.032132998 -0.114130944 -0.15754624 -0.14321338 0.07862302 -0.116222724
-0.11170681 -0.07749519 -0.025385875 -0.2710079 -0.12934673 -0.05331574 -0.052656155 -0.08132324
-0.17993788 -0.04528381 -0.18593962 -0.14046915 -0.1627152 -0.08648528 -0.065131746 -0.13571444
-0.05268048 -0.011750957 -0.013317753 -0.07381191 -0.020830924 -0.06008531 -0.023639163 -0.21918511
-0.16907558 -0.19937746 -0.12948738 0.01902708 -0.12593837 -0.016390704 -0.06956396 0.0076518273
-0.098751865 -0.13767503 -0.02240444 -0.015246619 -0.20100297 -0.08361919 -0.30226755 -0.15064724
0.034835245 -0.097683005 -0.12004575 -0.039316807 -0.02428781 -0.04560003 0.110670716 -0.1828422
-0.15433681 0.8737433 -0.181948 -0.18473913 1.2650654 -0.12005711 -0.030438028 -0.21788372
-0.4781617 -0.12187711 -0.074199036 -0.16926405 -0.039347105 -0.18811506 -0.09701024 0.307723
-0.059259668 -0.1581322 -0.049617026 -0.088728696 0.022773795 -0.06942871 -0.10197584 -0.08576082
-0.098772064 -0.04569185 -0.12017853 -0.06432978 -0.07638936 -0.034087073 -0.04923107 -0.076368704
-0.13991643 -0.035853785 -0.27810368 -0.0812837 -0.1637255 0.004474205 -0.121320635 -0.22803392
0.059452653 -0.102766864 -0.02672323 -0.05374306 -0.1355525 -0.025997428 0.014337737 -0.016872797
0.0008035365 -0.075008936 -0.19540824 -0.06097671 -0.06862025 -0.020225007 -0.11101746 -0.090354875
-0.09253688 -0.39666674 -0.2911663 0.42691088 -0.2960541 1.4147456 -0.15966918 -0.0060422174
-0.011162452 -0.18141145 -0.03702952 0.006186218 0.019495929 -0.06660993 -0.46023658 -0.10844674
-0.022154238 -0.02909391 0.029354151 -0.07469293 -0.08386579 0.021557903 -0.030168528 -0.12641996
-0.3180333 -0.03273709 0.022059742 -0.035691142 -0.20512658 0.046969246 -0.020386236 -0.11836609
-0.122264095 -0.138119 0.015664319 0.025389042 -0.013944201 0.060999267 -0.18304889 -0.14181499
-0.22780475 -0.15090682 0.40867066 -0.12616986 -0.004502493 -0.097983845 -0.025632625 -0.17581938
-0.016245246 -0.14332241 -0.28458112 -0.09234524 -0.027324885 -0.043061625 -0.02654147 -0.12367482
-0.08776887 -0.037416603 -0.22721966 -0.15428461 -0.04977415 0.02280785 -0.021457935 1.3102913
-0.025209768 -0.17527366 -0.08101495 -0.0971249 -0.06324288 0.0014177253 -0.090292215 -0.055814024
-0.010504555 -0.031652447 0.0023581916 0.022595493 -0.15170893 -0.056171887 -0.15895197 -0.071744904
-0.1572306 -0.0029180767 -0.45705298 0.023938123 0.04023618 -0.024585629 -0.4152743 -0.12500903
-0.15633851 -0.19901213 -0.036552418 -0.22900942 -0.16586454 -0.028779129 0.025529018 -0.020064374
-0.25694618 -0.022466654 -0.25169283 -0.0088388445 -0.41115862 -0.25979605 -0.06942526 -0.13767764
00000000: 25d7 d5bd 783e 82be b648 19bc 730b 8fbd
00000010: 6875 aabd 34cf f93c f47a acbd 57bf b8bd
00000020: c35b a0bd a244 70be 4b47 463d d499 42be
00000030: 3cd9 253d 230e 19be 6bf5 6cbd 021a f1bd
00000040: 8614 11be e7f7 f7bd 6333 79bd c148 f6bd
00000050: 32f8 2fbe 8700 02be 6f66 b5bd 4a44 233d
00000060: 1e7e e7bd de2e d8bd c6d7 2bbe 24da 9dbd
00000070: d04c 19be a393 2fbe a445 ee3d 2245 a1bd
00000080: 1345 f6bc f25a 253e 30e5 023d 2ce7 24be
00000090: 6f83 9bbc 7279 82bc 7aaf d63e ae96 1abd
000000a0: f203 5fbe abd6 c6ba e49d 033d 7cbd e9bd
000000b0: cd53 21be 87a6 12be 1b05 a13d 2e06 eebd
000000c0: 8ac6 e4bd ccb5 9ebd 0af6 cfbc 8cc1 8abe
000000d0: 7873 04be 9b61 5abd fbad 57bd cd8c a6bd
000000e0: a341 38be 847b 39bd f566 3ebe 25d7 0fbe
000000f0: d09e 26be 321f b1bd cb63 85bd baf8 0abe
00000100: 7dc7 57bd 1687 40bc b432 5abc b32a 97bd
00000110: 9da5 aabc 041c 76bd eba6 c1bc 1072 60be
00000120: 2622 2dbe 9b29 4cbe 5798 04be aede 9b3c
00000130: fdf5 00be cc45 86bc 8d77 8ebd 2ebc fa3b
00000140: 6b3e cabd affa 0cbe 8489 b7bc f4cc 79bc
00000150: b9d3 4dbe 8a40 abbd d0c2 9abe 4543 1abe
00000160: 67af 0e3d 070e c8bd 8cda f5bd a90a 21bd
00000170: 3bf7 c6bc 19c7 3abd 54a7 e23d fc3a 3bbe
00000180: 780a 1ebe a4ad 5f3f 9450 3abe 412c 3dbe
00000190: aaed a13f 81e0 f5bd 2c59 f9bc e91c 5fbe
000001a0: 9cd1 f4be b59a f9bd aaf5 97bd 8e53 2dbe
000001b0: 6e2a 21bd 3ca1 40be 4ead c6bd de8d 9d3e
000001c0: 44ba 72bd 68ed 21be 393b 4bbd 64b7 b5bd
000001d0: 1c90 ba3c a430 8ebd b6d8 d0bd 5ea3 afbd
000001e0: 0249 cabd 6127 3bbd 2920 f6bd 55bf 83bd
000001f0: 0672 9cbd e39e 0bbd 85a6 49bd 3267 9cbd
00000200: 4146 0fbe 6bdb 12bd 9b63 8ebe 1278 a6bd
00000210: a8a7 27be 5a9c 923b f476 f8bd b981 69be
00000220: a084 733d 6f77 d2bd adea dabc af21 5cbd
00000230: 46ce 0abe 8ff8 d4bc d4e8 6a3c d238 8abc
00000240: 6ca4 523a 499e 99bd 1919 48be b7c2 79bd
00000250: c688 8cbd eaae a5bc 1f5d e3bd fa0b b9bd
00000260: fa83 bdbd e717 cbbe c013 95be 1094 da3e
00000270: 6794 97be 6216 b53f 5180 23be cbfd c5bb
00000280: b8e2 36bc ecc3 39be 44ac 17bd c2b5 ca3b
00000290: edb5 9f3c c96a 88bd 21a4 ebbe 5319 debd
000002a0: ce7c b5bc 5a56 eebc 1e78 f03c 9bf8 98bd
000002b0: d4c1 abbd 339a b03c fd23 f7bc 3c74 01be
000002c0: 43d5 a2be 5417 06bd a2b6 b43c e030 12bd
000002d0: b40c 52be d362 403d 0901 a7bc ec69 f2bd
000002e0: 9965 fabd 116f 0dbe 7552 803c aefc cf3c
000002f0: 3876 64bc 5eda 793d 2b71 3bbe f337 11be
00000300: a645 69be 5187 1abe 483d d13e ac32 01be
00000310: a689 93bb c1ab c8bd 83fb d1bc ff09 34be
00000320: c014 85bc 1cc3 12be 9eb4 91be 801f bdbd
00000330: 70d8 dfbc 6361 30bd 7f6d d9bc 3949 fdbd
00000340: 2ac0 b3bd 2742 19bd 45ac 68be c9fc 1dbe
00000350: fbdf 4bbd 87d7 ba3c 8dc8 afbc a0b7 a73f
00000360: b784 cebc f07a 33be 2beb a5bd 6be9 c6bd
00000370: 7c85 81bd f8d2 b93a 20eb b8bd 3f9d 64bd
00000380: 4c1b 2cbc ffa5 01bd e48b 1a3b 2f1a b93c
00000390: 9659 1bbe 7e14 66bd 4ec4 22be feee 92bd
000003a0: 0f01 21be 343d 3fbb d902 eabe e219 c43c
000003b0: b1ce 243d cd67 c9bc d59e d4be 5e02 00be
000003c0: 3417 20be d6c9 4bbe fdb7 15bd 7281 6abe
000003d0: 65d8 29be 35c2 ebbc 3b22 d13c 0b5e a4bc
000003e0: 738e 83be fd0b b8bc e2dd 80be cdd0 10bc
000003f0: 6283 d2be fd03 85be d52e 8ebd 5efb 0cbe

lays.1.weight f4 [256, 256]
0.033050593 0.03006527 -0.04795248 -0.07336288 -0.0099574225 -0.09662794 -0.010637503 -0.055168275
0.054646246 -0.0069936737 -0.027029982 -0.105053246 -0.028473267 -0.018402958 -0.05997946 -0.021926966
-0.038584366 -0.013934518 0.017146368 0.0021020847 0.059672356 -0.05806744 -0.11508919 0.009936184
-0.015137947 0.011512123 -0.02585235 -0.01612279 0.042111114 -0.08943667 0.040699054 -0.011687308
-0.023414528 -0.11469757 0.00838322 -0.03269179 -0.10829148 -0.07610801 -0.07295611 -0.00738352
0.013446297 0.050509308 -0.0111037465 -0.016005166 -0.0007831928 0.011927222 -0.029216276 -0.08458172
-0.015601436 -0.041950654 -0.015002574 0.032307472 -0.05122973 -0.105704896 -0.1137205 -0.0811838
-0.0020312485 -0.014025801 -0.015344406 -0.012674073 0.0011424031 -0.016524218 -0.010881274 0.044198506
-0.11218487 0.042917654 -0.010632267 0.02863092 0.032240685 -0.09639651 0.028910225 -0.077148154
-0.053392854 -0.024443517 -0.058581647 0.0062750108 -0.012950922 -0.05899327 -0.08330441 0.011916115
-0.050042972 -0.03926782 -0.11195899 -0.10865009 -0.026202586 -0.0393309 0.048377015 -0.067254744
-0.08406002 -0.045202468 -0.050634105 -0.043618433 -0.041766148 -0.042557996 -0.04205913 -0.08534112
0.0012380732 -0.034201767 -0.072347574 -0.058543693 0.00074116845 -0.0827096 -0.08047014 -0.032574836
0.0024200769 -0.079858646 -0.006518529 -0.04531753 -0.095152035 -0.09397671 0.055061918 -0.05759131
-0.07844003 -0.028964793 0.00029038297 -0.041728277 -0.014654463 -0.0528837 0.03730932 -0.012697388
-0.001375543 0.022428414 0.029804101 -0.008712247 -0.032832224 -0.0025034994 -0.018862095 -0.0006747405
-0.06393664 -0.056396447 -0.10393336 -0.04969852 -0.021435415 -0.07093688 -0.051600162 0.021746706
-0.009298646 -0.11687409 -0.06769935 -0.0041116155 -0.076576136 -0.09217008 -0.0704738 -0.09143605
-0.09445298 -0.0119939875 -0.039030943 -0.031035034 0.00567165 -0.03959813 0.033731323 0.023148641
0.028734727 -0.010701397 -0.10463147 -0.0898254 -0.114687555 -0.017612677 -0.008014244 -0.039543264
-0.008519275 -0.054701637 0.05400091 -0.0018247035 -0.0067970445 -0.008224603 -0.010644464 -0.00995516
-0.025833867 -0.08308815 0.02843998 -0.05624243 -0.083465956 -0.10197273 -0.032574043 0.00016100543
-0.11518475 -0.10793893 -0.022941545 -0.11883835 0.0032243945 -0.038000643 -0.12123974 -0.035426557
0.014132952 -0.05034362 -0.11897748 0.0011608171 -0.065855786 -0.0041793236 0.056873877 -0.04106974
-0.03250231 0.024361638 -0.08254887 -0.060501616 -0.007048624 -0.064987876 0.0017394875 -0.003285289
-0.028274097 -0.11842511 0.040654242 0.006770325 -0.119123705 -0.06259777 0.000279534 -0.016006583
-0.04741008 0.019609127 -0.1061291 0.031532273 -0.034570113 -0.061935097 -0.103005216 -0.029762842
-0.11346959 -0.051157497 -0.07793022 0.0012081781 -0.118003316 -0.007334267 -0.07173312 -0.10648151
0.042606298 -0.06962401 0.05704373 -0.040721353 -0.0069613033 -0.048458017 -0.018061282 0.011822473
-0.09094384 -0.10869916 -0.042301096 -0.001684719 0.006432703 -0.07301326 0.053912427 0.023764694
-0.10793629 -0.02126431 -0.07957163 0.024303304 0.051511873 -0.112360366 -0.0016607596 -0.046388745
-0.075252466 -0.03877661 -0.017894978 0.053101733 -0.03289132 -0.11813999 -0.00849939 -0.015558831
00000000: 0f60 073d 714b f63c d269 44bd 473f 96bd
00000010: 7524 23bc dfe4 c5bd ec48 2ebc 21f8 61bd
00000020: bed4 5f3d 302b e5bb fb6d ddbc 2826 d7bd
00000030: c540 e9bc cdc1 96bc 06ad 75bd 2ea0 b3bc
00000040: a40a 1ebd 9b4d 64bc 8a76 8c3c 21c3 093b
00000050: 006b 743d 20d8 6dbd e2b3 ebbd 60cb 223c
00000060: 2705 78bc 589d 3c3c 4fc8 d3bc f113 84bc
00000070: b47c 2c3d 932a b7bd 0db4 263d 1f7c 3fbc
00000080: d3cf bfbc 8fe6 eabd c659 093c d4e7 05bd
00000090: ecc7 ddbd 84de 9bbd 036a 95bd 74f1 f1bb
000000a0: db4d 5c3c d9e2 4e3d 7dec 35bc 441d 83bc
000000b0: 2e4f 4dba 656a 433c f956 efbc 2e39 adbd
000000c0: 2a9d 7fbc 73d4 2bbd 5bcd 75bc d754 043d
000000d0: 44d6 51bd cf7b d8bd 4be6 e8bd b143 a6bd
000000e0: b21e 05bb 79cc 65bc 1a67 7bbc eaa6 4fbc
000000f0: b0bc 953a cc5d 87bc 5f47 32bc 7e09 353d
00000100: 2ec1 e5bd 6cca 2f3d f632 2ebc 648b ea3c
00000110: cf0e 043d 896b c5bd 23d5 ec3c daff 9dbd
00000120: 77b2 5abd c53d c8bc 4ff3 6fbd 9b9e cd3b
00000130: 1b30 54bc eda2 71bd 819b aabd cf3b 433c
00000140: dcf9 4cbd 4bd7 20bd c14a e5bd f083 debd
00000150: cea6 d6bc 7019 21bd fa26 463d dbbc 89bd
00000160: a927 acbd 3926 39bd b565 4fbd 3ea9 32bd
00000170: fb12 2bbd 4b51 2ebd 3246 2cbd 53c7 aebd
00000180: d846 a23a 2717 0cbd f72a 94bd 83cb 6fbd
00000190: f94a 423a a763 a9bd 87cd a4bd 316d 05bd
000001a0: 279a 1e3b ee8c a3bd 6299 d5bb e09e 39bd
000001b0: 12df c2bd dd76 c0bd 9b88 613d dee4 6bbd
000001c0: 2ba5 a0bd 9347 edbc 8b3e 9839 45eb 2abd
000001d0: 4619 70bc 949c 58bd a8d1 183d b508 50bc
000001e0: 904b b4ba cbbb b73c bb27 f43c d0bd 0ebc
000001f0: 157b 06bd c011 24bb ae84 9abc 12e1 30ba
00000200: 37f1 82bd f6ff 66bd 03db d4bd ad90 4bbd
00000210: 5399 afbc 5b47 91bd b15a 53bd 2626 b23c
00000220: 5959 18bc af5b efbd f5a5 8abd bbba 86bb
00000230: f3d3 9cbd abc3 bcbd 9154 90bd d342 bbbd
00000240: 9070 c1bd 6e82 44bc e9de 1fbd 2f3d febc
00000250: 40d9 b93b a631 22bd db29 0a3d 38a2 bd3c
00000260: 1765 eb3c ea54 2fbc 0649 d6bd 61f6 b7bd
00000270: 4fe1 eabd 7648 90bc 2d4e 03bc 1ef8 21bd
00000280: 6e94 0bbc d30e 60bd 0f30 5d3d e42a efba
00000290: beb9 debb 7cc0 06bc 1e66 2ebc f81a 23bc
000002a0: 8ca1 d3bc 1f2a aabd f6fa e83c 765e 66bd
000002b0: 33f0 aabd 14d7 d0bd 5c6c 05bd 91d3 2839
000002c0: fbe5 ebbd 160f ddbd e8ef bbbc 8561 f3bd
000002d0: 5d50 533b 90a6 1bbd 8a4c f8bd 701b 11bd
000002e0: e68d 673c 1d35 4ebd 77aa f3bd 8f26 983a
000002f0: 66df 86bd b5f2 88bb 95f4 683d be38 28bd
00000300: 2421 05bd 0f92 c73c 620f a9bd 8bd0 77bd
00000310: 25f8 e6bb 5d18 85bd 84ff e33a 014e 57bb
00000320: 149f e7bc dd88 f2bd 1085 263d 9ad9 dd3b
00000330: 21f7 f3bd 4233 80bd 6b8e 9239 3d20 83bc
00000340: 1231 42bd 52a3 a03c 375a d9bd fc27 013d
00000350: 6499 0dbd a8af 7dbd 66f4 d2bd 34d1 f3bc
00000360: bf62 e8bd 868a 51bd e199 9fbd bb5b 9e3a
00000370: b9ab f1bd 4a54 f0bb d0e8 92bd fa12 dabd
00000380: f183 2e3d 0897 8ebd b0a6 693d 6fcb 26bd
00000390: a51b e4bb ea7b 46bd 41f5 93bc 0cb3 413c
000003a0: c440 babd aa9d debd ea43 2dbd cad1 dcba
000003b0: 6dc9 d23b fa87 95bd 47d3 5c3d 2dae c23c
000003c0: b40d ddbd 7e32 aebc 73f6 a2bd b917 c73c
000003d0: 1dfe 523d 311d e6bd d8ad d9ba 2002 3ebd
000003e0: f71d 9abd 39d4 1ebd 7d98 92bc 3481 593d
000003f0: 0cb9 06bd 61f3 f1bd 0741 0bbc 78ea 7ebc

lays.1.bias f4 [256]
-0.09472406 -0.120801084 -0.0937247 -0.09110573 -0.11598677 -0.056804966 0.06815768 -0.03316346
-0.035994105 -0.049144387 -0.1100464 -0.032265965 -0.07177047 -0.08855471 -0.014408553 -0.0057414225
-0.107257925 -0.005559303 -0.054211464 0.026179688 -0.0695968 -0.08553858 -0.045160364 -0.043571953
-0.014047247 -0.06016059 -0.091490254 -0.06958445 -0.10639124 -0.006706761 -0.087292686 -0.053291306
-0.07464391 -0.0700884 -0.0644677 -0.038641807 -0.09082647 -0.10228437 -0.019754954 -0.09025753
-0.115189135 -0.025823906 -0.03563859 -0.00028300605 -0.03651125 0.02274462 -0.039099198 -0.0051523205
-0.07541496 -0.024681134 -0.06320939 -0.11871335 -0.105889164 -0.035327576 -0.032261293 -0.02253753
-0.017688792 -0.11806297 -0.12213844 -0.08904444 -0.027821986 -0.060210947 -0.043094542 -0.050417848
-0.096135736 -0.11789125 -0.026412772 -0.008212799 -0.00950282 -0.1085864 -0.09862383 -0.06912841
-0.08693684 -0.052674055 -0.027572837 0.61830074 -0.08233868 -0.058075275 -0.10890096 -0.2991555
-0.050244063 -0.07610536 -0.07065818 -0.031727027 -0.10860385 -0.031855498 -0.004433077 -0.031616822
-0.0075870245 -0.10786085 -0.013603451 -0.03447998 -0.037255943 -0.013359529 -0.038573693 -0.14015134
-0.5002489 -0.029691126 -0.105347194 -0.015211845 -0.0756503 -0.04564639 -0.10769362 -0.060810175
-0.04226159 0.08698122 -0.089972846 -0.015922304 -0.1008918 -0.058717463 -0.038670495 -0.10849181
-0.06935132 0.030889438 -0.028897438 -0.039561503 -0.12097281 -0.16260658 -0.061840426 -0.046387665
-0.1359304 0.0018597943 -0.051451907 -0.10086603 -0.05476695 -0.051472057 -0.0989081 -0.116391376
-0.06563474 2.5033832 -0.08110295 -0.11355429 0.04964585 -0.062189847 -0.10942019 -0.0586025
-0.11008352 -0.07568989 -0.06930629 -0.049073104 -0.031960145 -0.039884504 0.021993648 -0.0634753
-0.092798814 -0.060753424 -0.055097405 -0.08177238 -0.01370037 -0.052591868 -0.20336589 -0.041153066
-0.08996458 -0.046318058 -0.0061160936 -0.063713804 -0.07785161 -0.02361124 -0.06380848 -0.014526722
-0.055516835 -0.0752406 -0.08221784 -0.41226068 -0.05794742 -0.08147716 -0.06272681 -0.04426862
-0.07326367 -0.08859925 -0.06662959 -0.07591167 -0.03480974 -0.004077104 -0.26991642 -0.05017215
-0.11147636 -0.09513202 -0.050691176 -0.030167487 -0.09903701 -0.04614636 -0.07947523 -0.07206725
-0.0896763 -0.09458633 -0.08274204 -0.010240045 -0.020668201 -0.06003831 -0.032914914 -0.1392837
-0.025520636 -0.026366059 -0.1085622 -0.01760349 -0.07383328 -0.023657206 -0.09636393 -0.050540768
-0.10026106 -0.096832044 -0.028521448 -0.054922577 -0.016979836 -0.04528469 -0.07089749 -0.093751304
-0.089971334 -0.06391394 -0.11837739 -0.06022674 -0.015676077 -0.064239144 -0.08145715 -0.44888404
-0.10748725 -0.026449105 -0.06692109 -0.11854129 -0.082524635 -0.07842984 -0.105289154 -0.034187127
-0.012519366 -0.115407996 -0.11464689 -0.05273186 -0.036499575 -0.08795046 -0.05035977 -0.061675243
-0.09578976 -0.104084715 -0.04714928 -0.011217844 -0.07144921 -0.08888503 -0.005910839 -0.061967496
-0.03775634 -0.12217807 -0.08872398 -0.093918286 -0.107810825 -0.034504987 -0.07372078 2.5571764
-0.08782655 -0.07377984 -0.11503203 -0.13275716 -0.039321445 -0.00027143574 -0.09048085 -0.10434879
00000000: b0fe c1bd 8f66 f7bd bcf2 bfbd a495 babd
00000010: 798a edbd 53ac 68bd 4196 8b3d 69d6 07bd
00000020: 8e6e 13bd a04b 49bd 0260 e1bd 5129 04bd
00000030: 65fc 92bd 2c5c b5bd da11 6cbc 8b22 bcbb
00000040: 0baa dbbd d02a b6bb d70c 5ebd c976 d63c
00000050: c488 8ebd da2e afbd 13fa 38bd 8178 32bd
00000060: 6d26 66bc f36a 76bd 3e5f bbbd 4b82 8ebd
00000070: a7e3 d9bd 64c4 dbbb 82c6 b2bd fc47 5abd
00000080: e8de 98bd 828a 8fbd a407 84bd df46 1ebd
00000090: 3a03 babd 787a d1bd 24d5 a1bc f1d8 b8bd
000000a0: 48e8 ebbd a88c d3bc c5f9 11bd 6e60 94b9
000000b0: d28c 15bd ed52 ba3c 7b26 20bd ccd4 a8bb
000000c0: 2973 9abd 1730 cabc ed73 81bd fc1f f3bd
000000d0: 6bdc d8bd a6b3 10bd 6b24 04bd a0a0 b8bc
000000e0: 16e8 90bc 00cb f1bd b823 fabd ee5c b6bd
000000f0: efea e3bc c19f 76bd e783 30bd f282 4ebd
00000100: d0e2 c4bd f870 f1bd 995f d8bc fa8e 06bc
00000110: b7b1 1bbc 8c62 debd 4afb c9bd 3293 8dbd
00000120: f10b b2bd c0c0 57bd 6ee0 e1bc f548 1e3f
00000130: 2fa1 a8bd 57e0 6dbd 7707 dfbd e92a 99be
00000140: b8cc 4dbd 21dd 9bbd 3cb5 90bd 33f4 01bd
00000150: b26b debd e97a 02bd 5843 91bb a480 01bd
00000160: 939c f8bb 26e6 dcbd 02e1 5ebc e13a 0dbd
00000170: b099 18bd ede1 5abc 73ff 1dbd d583 0fbe
00000180: 5010 00bf ce3a f3bc 45c0 d7bd 1a3b 79bc
00000190: 8bee 9abd b6f7 3abd 798e dcbd 1714 79bd
000001a0: 7d1a 2dbd 3623 b23d af43 b8bd 7e6f 82bc
000001b0: 5ca0 cebd b981 70bd f464 1ebd f430 debd
000001c0: 1108 8ebd d90b fd3c 52ba ecbc 3e0b 22bd
000001d0: 98c0 f7bd 5782 26be 634c 7dbd fe00 3ebd
000001e0: 5731 0bbe 57c4 f33a 3cbf 52bd d992 cebd
000001f0: 4f53 60bd 5dd4 52bd 5490 cabd 9a5e eebd
00000200: 826b 86bd 6e37 2040 4e19 a6bd 278f e8bd
00000210: 7259 4b3d c8ba 7ebd b117 e0bd 2d09 70bd
00000220: 7873 e1bd 4d03 9bbd 75f0 8dbd e100 49bd
00000230: a4e8 02bd ef5d 23bd 062c b43c 57ff 81bd
00000240: 4e0d bebd 95d8 78bd d1ad 61bd 4778 a7bd
00000250: 8477 60bc 926a 57bd 263f 50be 1e90 28bd
00000260: 5a3f b8bd 01b8 3dbd 8369 c8bb 627c 82bd
00000270: aa70 9fbd 5c6c c1bc 05ae 82bd 7d01 6ebc
00000280: 9f65 63bd be17 9abd d461 a8bd d513 d3be
00000290: 465a 6dbd 7fdd a6bd ea76 80bd 0353 35bd
000002a0: 430b 96bd 8673 b5bd 1875 88bd 9477 9bbd
000002b0: a894 0ebd 3a99 85bb 7c32 8abe 5081 4dbd
000002c0: b84d e4bd 94d4 c2bd 8da1 4fbd ce21 f7bc
000002d0: ead3 cabd f703 3dbd e9c3 a2bd ff97 93bd
000002e0: 35a8 b7bd 7ab6 c1bd a974 a9bd ddc5 27bc
000002f0: 5c50 a9bc bbea 75bd cad1 06bd 63a0 0ebe
00000300: a710 d1bc a2fd d7bc dc55 debd 3235 90bc
00000310: e735 97bd c2cc c1bc 745a c5bd d603 4fbd
00000320: ac55 cdbd e14f c6bd d0a5 e9bc 7ff6 60bd
00000330: 4c19 8bbc 707c 39bd b432 91bd af00 c0bd
00000340: e442 b8bd 50e5 82bd d86f f2bd 50b0 76bd
00000350: 1e6b 80bc d08f 83bd 02d3 a6bd 21d4 e5be
00000360: 4622 dcbd cbab d8bc ed0d 89bd c7c5 f2bd
00000370: ad02 a9bd d39f a0bd d7a1 d7bd cd07 0cbd
00000380: 071e 4dbc 075b ecbd fdcb eabd 5dfd 57bd
00000390: 9480 15bd 5f1f b4bd 0c46 4ebd 2e9f 7cbd
000003a0: 6c2d c4bd 5e2a d5bd 9a1f 41bd 0ccb 37bc
000003b0: f753 92bd 5b09 b6bd b6af c1bb a1d1 7dbd
000003c0: 64a6 1abd 7f38 fabd ebb4 b5bd 3b58 c0bd
000003d0: eccb dcbd 1a55 0dbd ecfa 96bd c7a8 2340
000003e0: 68de b3bd e219 97bd ea95 ebbd 7ef1 07be
000003f0: 860f 21bd 7d4f 8eb9 064e b9bd d2b4 d5bd

lays.2.weight f4 [2, 256]
0.049548835 0.0004259257 -0.012921693 0.051109016 0.004965214 -0.012749622 0.03259862 -0.049475312
-0.004692886 -0.003957124 0.01564515 -0.022457715 0.026565386 -0.050055206 0.044797376 0.030448223
0.0047100447 0.011704013 0.05154153 0.0001564484 -0.016664384 -0.020735659 -0.008021425 -0.027834428
-0.05223511 0.022521412 0.058590926 -0.027414475 -0.017552016 0.022533221 0.0001590924 -0.015203495
0.04751677 0.017859966 0.049664307 0.0049489383 -0.016486503 -0.00037813315 0.020897068 -0.05257246
0.04510351 -0.024340829 -0.007837225 -0.059367716 -0.041179873 0.020784473 -0.022952689 -0.006829156
-0.03290254 0.0152745815 0.0022656696 -0.010706379 -0.04976143 0.040208302 0.0018223256 0.05653407
0.034264926 0.027647953 -0.0227389 0.123567395 0.027577765 -0.012125466 -0.03410358 -0.031256437
-0.020044707 -0.041369572 0.05186198 0.049670227 0.040763345 -0.040833596 0.016099295 0.029571062
-0.06097352 0.039125413 -0.00056155206 0.0016418822 0.016716594 0.058668558 -4.066784e-05 0.21656989
-0.014941608 -0.041662972 0.016638266 0.022138773 -0.05120427 0.0148768 -0.018883804 -0.0023567677
-0.04453986 -0.022879612 0.024409449 0.0005585051 0.013460592 -0.047400843 -0.0280901 0.04316743
0.18002205 -0.04148978 0.0024612744 0.07400274 -0.050693106 0.04162357 -0.043444972 0.06871997
-0.044420537 -5.5792087e-05 0.18831146 -0.018424993 -0.015969634 0.037989233 -0.02763004 0.0002753585
-0.02570757 -0.037647996 -0.038241275 -0.03828266 0.008574798 0.057305485 -0.056152165 0.036962733
-0.1155643 0.025691468 0.0304122 -0.006228031 0.04291212 0.025448209 0.24245784 0.02686973
-0.08257205 -0.5020063 0.04764377 -0.058994044 -0.0005822214 0.019096691 0.011838295 0.012865498
0.0108566675 -0.041044973 -0.02389695 -0.024085302 -0.054260246 0.037045557 0.1420295 -0.052304547
0.042210173 0.0035086083 -0.028804839 0.049494565 -0.012714759 -0.040211983 0.0038078465 -0.0010596581
-0.051674455 0.011311503 -0.008564265 -0.03673319 0.005926474 -0.00076499564 0.19751137 0.0015137346
0.03655391 0.009926844 -0.0383814 -0.14738946 0.05576856 0.023892146 -0.05975969 -0.016918292
0.02029167 0.036782674 -0.05173264 -0.010317578 -0.022056563 0.005260012 -0.1405496 -0.021033058
-0.049828757 -0.0104302885 -0.016465535 -0.053174168 0.026720846 0.0059297406 0.023081373 -0.032744896
0.03226216 -0.015950015 -0.016228031 0.044217948 0.0023583504 0.018395616 0.00607314 -0.027622707
-0.025343629 -0.019235877 0.1905289 -0.010069698 0.026594147 -0.04377909 0.032814175 -0.040268257
0.057291638 0.050639465 0.049485296 -0.04624788 -0.012544315 0.058853798 0.047865257 -0.009238203
0.028147679 -0.05548998 -0.010922482 -0.0038197746 -0.017951721 -0.046352908 -7.233402e-05 -0.19766137
-0.01748434 -0.04236246 0.02064066 0.016825583 -0.054951474 -0.030456454 0.023716226 0.0051248753
-0.027942218 0.0088925855 0.048989873 -0.0002216001 -0.040262304 0.0155307045 0.045335844 -0.050461467
0.009912166 0.0180514 0.011078264 -0.025861094 0.04836212 -0.042876385 0.048803966 0.028351573
-0.028190378 0.0466615 0.012689185 -0.03707261 -0.00230426 0.007486297 0.051411174 -0.6046634
-0.0062016197 0.021807244 -0.027485082 -0.037587207 -0.029369395 0.06465503 -0.04196574 0.01071267
00000000: b8f3 4a3d c84e df39 82b5 53bc b057 513d
00000010: 3cb3 a23b cae3 50bc 2186 053d a0a6 4abd
00000020: c8c6 99bb c3aa 81bb 422a 803c 3ef9 b7bc
00000030: a79f d93c b006 4dbd 747d 373d 8d6e f93c
00000040: b856 9a3b 30c2 3f3c 361d 533d 4c0c 2439
00000050: bf83 88bc d4dd a9bc 4c6c 03bc 0705 e4bc
00000060: 7cf4 55bd d37e b83c 0afd 6f3d 5294 e0bc
00000070: 3fc9 8fbc 9797 b83c 0ad2 2639 1418 79bc
00000080: f2a0 423d 104f 923c cd6c 4b3d b42a a23b
00000090: b40e 87bc 2c40 c6b9 5430 ab3c 3856 57bd
000000a0: 75be 383d 6b66 c7bc b467 00bc 902b 73bd
000000b0: 3aac 28bd 3344 aa3c 4707 bcbc 1dc7 dfbb
000000c0: d0c4 06bd 3d42 7a3c a17b 143b cf69 2fbc
000000d0: a4d2 4bbd 76b1 243d 1adb ee3a 4590 673d
000000e0: 6159 0c3d f67d e23c ee46 babc e710 fd3d
000000f0: c4ea e13c e4a9 46bc 32b0 0bbd c006 00bd
00000100: cc34 a4bc 2473 29bd 3a6d 543d 0273 4b3d
00000110: 77f7 263d 2141 27bd abe2 833c 033f f23c
00000120: 5fbf 79bd f841 203d 1f35 13ba 6d34 d73a
00000130: 3df1 883c 714e 703d c392 2ab8 7fc4 5d3e
00000140: a5cd 74bc cba6 2abd f94c 883c 5f5c b53c
00000150: 92bb 51bd d2bd 733c 35b2 9abc 0074 1abb
00000160: 6e6f 36bd 066e bbbc 53f6 c73c a568 123a
00000170: d189 5c3c 6327 42bd 361d e6bc 55d0 303d
00000180: b357 383e 30f1 29bd 554d 213b c08e 973d
00000190: 93a3 4fbd 7a7d 2a3d 5bf3 31bd 0ebd 8c3d
000001a0: 4ff2 35bd 4c02 6ab8 b8d4 403e 03f0 96bc
000001b0: c0d2 82bc 999a 1b3d 6558 e2bc fe5d 9039
000001c0: af98 d2bc c934 1abd e2a2 1cbd 47ce 1cbd
000001d0: 4f7d 0c3c 28b9 6a3d d0ff 65bd 3c66 173d
000001e0: faac ecbd ea76 d23c 0223 f93c 8314 ccbb
000001f0: 9fc4 2f3d c378 d03c de46 783e e81d dc3c
00000200: 891b a9bd 7c83 00bf 1d26 433d bda3 71bd
00000210: 37a0 18ba aa70 9c3c 68f5 413c cfc9 523c
00000220: 2ae0 313c c61e 28bd 89c3 c3bc 8a4e c5bc
00000230: fe3f 5ebd 15bd 173d 2e70 113e 4b3d 56bd
00000240: 93e4 2c3d aef0 653b 20f8 ebbc d0ba 4a3d
00000250: 9151 50bc 52b5 24bd 108d 793b 3ae4 8aba
00000260: 98a8 53bd e253 393c 2251 0cbc 8b75 16bd
00000270: de32 c23b fd89 48ba 6c40 4a3e 8168 c63a
00000280: 8db9 153d 34a4 223c d135 1dbd 43ed 16be
00000290: 936d 643d 76b9 c33c 94c6 74bd 3b98 8abc
000002a0: b73a a63c 6ea9 163d 9be5 53bd 0f0b 29bc
000002b0: f7af b4bc 2e5c ac3b 3cec 0fbe 854d acbc
000002c0: 3d19 4cbd cde3 2abc bbe2 86bc 28cd 59bd
000002d0: ade5 da3c 454e c23b 2615 bd3c 831f 06bd
000002e0: 5425 043d 9ba9 82bc a6f0 84bc e11d 353d
000002f0: 8e8e 1a3b 67b2 963c 3101 c73b 0449 e2bc
00000300: 719d cfbc 8f94 9dbc 021a 433e 60fb 24bc
00000310: f8db d93c b451 33bd 2868 063d 54f0 24bd
00000320: a3aa 6a3d 546b 4f3d 18b1 4a3d 6b6e 3dbd
00000330: ac86 4dbc ae10 713d 5c0e 443d d55b 17bc
00000340: f695 e63c 7649 63bd 36f4 32bc 2f55 7abb
00000350: 7d0f 93bc 8cdc 3dbd 08b2 97b8 be67 4abe
00000360: 523b 8fbc 4284 2dbd 9a16 a93c ced5 893c
00000370: cc14 61bd d07f f9bc 8848 c23c 92ee a73b
00000380: 14e7 e4bc 35b2 113c 9ba9 483d 535d 68b9
00000390: 16ea 24bd 7f74 7e3c 14b2 393d afb0 4ebd
000003a0: a366 223c 88e0 933c 9b81 353c a5da d3bc
000003b0: 5c17 463d 269f 2fbd abe6 473d 8f41 e83c
000003c0: 82ef e6bc 2120 3f3d 4de6 4f3c 73d9 17bd
000003d0: 1103 17bb 9c4f f53b 8694 523d 38cb 1abf
000003e0: f536 cbbb 1ba5 b23c 6528 e1bc 0bf5 19bd
000003f0: 1698 f0bc db69 843d 45e4 2bbd 3284 2f3c

lays.2.bias f4 [2]
1.1214535 -1.0414991
00000000: ca8b 8f3f d84f 85bf

l1.weight f4 [256, 62]
-0.0011063814 -0.00036080444 -0.0022998424 0.003542618 -0.0006792672 -0.00042757316 0.0009417885 -0.00015210023
0.0031054937 0.0009054305 -0.0029987714 0.0013526871 -0.0011522148 -0.0011211534 0.0044917567 0.00054203905
-0.00034601468 -0.00019025918 -0.0011234912 0.0009710294 0.00094744377 -0.00046710097 -0.005033959 -0.0019930066
-0.0011186552 -0.00019023518 0.0009637802 -0.0032482308 -0.00050542585 -0.0009719784 0.0011489604 0.0004222142
-0.0011499565 -0.0015267644 -0.0009491372 -0.0012734666 -0.043218236 0.00050752173 -0.0006049513 -0.0005007018
0.0006309981 -0.0022413365 0.0012045222 0.00096445135 0.0019209175 -0.0011248617 0.0006279541 -0.0011281761
0.00525104 -0.0010434863 0.00052794203 0.005634421 0.0010885767 -0.0011207445 0.0012528875 0.001252656
0.00058999535 -0.0015197714 -0.002374446 0.0013984831 0.00037747223 -0.00038088192 -7.9243255e-05 -0.00094474904
0.00016205393 0.0015126994 -0.00058493594 -0.0013078073 -0.0006179069 -0.003939005 -0.00093369186 0.002493268
-0.0006308466 -0.010349041 -0.0012235519 0.0007755401 -0.00036810746 -0.00091959455 0.0018711677 -0.0021509174
-0.0010110288 -0.0003010174 -0.00060011493 0.0007374277 0.0003332175 0.00034979626 0.00094380137 -0.0006283294
-0.00093666895 0.0010130797 -0.00033839457 -0.0009771647 -0.00087858 0.0014485561 -0.001221071 -0.0018545527
-0.007509865 0.00032477718 -0.00065039465 0.0005259182 -0.0009362737 -0.0010121064 -0.0010368973 -0.00081887393
0.0016621207 -0.00049596303 0.0005118312 0.0016577119 -0.0008883149 -0.00041537912 -0.00053776003 0.00048764193
0.00076227717 0.0014995657 0.0016722066 -0.0010961675 -0.0006934892 0.0016851813 -0.00086307566 0.0004812841
-0.00014857276 -0.0013031217 -0.0037306466 -0.002659675 -0.013068515 -0.0073495284 -0.010000543 -0.0074202125
-0.0028939722 -0.01207905 -0.010472205 -0.012447313 -0.011832149 -0.010857684 -0.001068686 -0.00088723697
-0.0058136964 -0.0078219315 -0.0040926556 -0.0061640805 -0.006138416 -0.01553012 -0.00022232735 0.00012228906
-0.0010499068 -0.005570006 -0.010211057 -0.006118619 -0.001166571 -0.01273759 0.000117761825 -0.0013528328
-0.010295867 -0.0026842027 -0.00016740363 8.555423e-05 -0.016755933 -0.005726291 -0.00806983 -0.0016996041
-0.00856247 0.00028472132 -0.005708607 -0.01408518 -0.008110324 -0.009683206 -0.0043046405 0.0001784607
8.880921e-06 -0.0032088715 -0.00023122545 0.00013863215 9.221479e-05 -6.6773486e-05 -0.012638136 -0.0145535255
-0.008012008 8.8325185e-05 -8.2177714e-05 -0.001349805 -2.8308594e-05 2.078246e-05 -0.016971478 -0.010800576
-0.0107094385 -0.013188642 0.006948027 0.00625679 -0.007602782 0.0040639564 0.0036228043 0.0027574142
0.0039153607 -0.0077465293 -0.024077117 0.012815003 0.023261642 -0.003209291 -0.0037117256 0.0054353704
-0.009542639 0.0059130434 -0.002921959 -0.057240672 0.004269405 0.004862451 0.0026435829 -0.016273221
-0.0010972124 0.0020606122 0.005163997 -0.009758763 0.004234145 0.0015466239 -0.0018209711 -0.0016881066
0.0057788775 0.028767632 0.0027910934 0.0030121128 0.0039043198 0.017669031 -0.011596488 -0.0037317805
-0.04658195 0.0014624001 -0.006826442 -0.014607938 0.04469041 0.0061288215 0.0021351213 -0.002722969
0.025068719 -0.0028809418 -0.004203392 0.003427116 -0.010907965 -0.0057049617 -0.0049919183 -0.0014717423
-0.0023752463 0.0014258195 -0.024563817 0.012296262 0.0025491526 0.0079712905 0.002355148 -0.0021365061
-8.865216e-06 -8.112307e-06 -7.1391274e-05 -7.541482e-05 8.15028e-05 -8.948865e-05 9.4065465e-05 1.1029517e-05
00000000: 0004 91ba 5a2a bdb9 f4b8 16bb 442b 683b
00000010: da10 32ba e62b e0b9 5be2 763a 187d 1fb9
00000020: 8a85 4b3b 6a5a 6d3a 0987 44bb a64c b13a
00000030: ea05 97ba aaf3 92ba 962f 933b a017 0e3a
00000040: 4e69 b5b9 4f80 47b9 1c42 93ba ae8c 7e3a
00000050: e05d 783a 3be5 f4b9 e9f3 a4bb 1a9d 02bb
00000060: d79f 92ba de79 47b9 32a6 7c3a 45e0 54bb
00000070: 8e7e 04ba 5ecc 7eba b798 963a a15c dd39
00000080: 23ba 96ba b61d c8ba 85cf 78ba 73ea a6ba
00000090: 9b05 31bd 350b 053a 9895 1eba 8741 03ba
000000a0: 9169 253a 63e3 12bb 0fe1 9d3a 3cd3 7c3a
000000b0: 4cc7 fb3a 1870 93ba 499d 243a 4fdf 93ba
000000c0: eb10 ac3b 97c5 88ba 9765 0a3a f3a0 b83b
000000d0: 93ae 8e3a f2e5 92ba ee37 a43a 2930 a43a
000000e0: eba9 1a3a 1133 c7ba 989c 1bbb 4e4d b73a
000000f0: 77e7 c539 1bb1 c7b9 662f a6b8 09a9 77ba
00000100: 05ed 2939 c545 c63a 6356 19ba bb6a abba
00000110: 08fb 21ba c512 81bb 00c3 74ba 1966 233b
00000120: 665f 25ba 068f 29bc 975f a0ba 9d4d 4b3a
00000130: 8cfe c0b9 f210 71ba f841 f53a 68f6 0cbb
00000140: 7f84 84ba dfd1 9db9 0851 1dba ef4f 413a
00000150: b2b3 ae39 dc64 b739 7069 773a 79b6 24ba
00000160: ca8a 75ba 50c9 843a 8d6a b1b9 3514 80ba
00000170: 8150 66ba 7add bd3a 580c a0ba 7614 f3ba
00000180: 5015 f6bb db46 aa39 3f7f 2aba c6dd 093a
00000190: 4470 75ba a8a8 84ba 80e8 87ba b3a9 56ba
000001a0: 84db d93a 8403 02ba 692c 063a 9547 d93a
000001b0: cedd 68ba 3ec7 d9b9 77f8 0cba 31aa ff39
000001c0: 8ed3 473a 138d c43a f12d db3a 47ad 8fba
000001d0: 46cb 35ba 4de1 dc3a 0740 62ba dc54 fc39
000001e0: 32ca 1bb9 82cd aaba dd7d 74bb f14d 2ebb
000001f0: 531d 56bc 50d4 f0bb 51d9 23bc 4125 f3bb
00000200: cca8 3dbb 35e7 45bc 9c93 2bbc d1ef 4bbc
00000210: a1db 41bc 6de4 31bc 2713 8cba 7795 68ba
00000220: d280 bebb 8f27 00bc af1b 86bb 0efc c9bb
00000230: c424 c9bb 0b72 7ebc 8b20 69b9 b83a 0039
00000240: 079d 89ba 9984 b6bb 474c 27bc b27e c8bb
00000250: a1e7 98ba 53b1 50bc e6f6 f638 8951 b1ba
00000260: ffaf 28bc 73e9 2fbb 1289 2fb9 946b b338
00000270: bd43 89bc 9ca3 bbbb 5237 04bc 40c5 deba
00000280: 9a49 0cbc a646 9539 440f bbbb 87c5 66bc
00000290: 2ae1 04bc 4fa6 1ebc f10d 8dbb 2e21 3b39
000002a0: 44ff 1437 ee4b 52bb 1c75 72b9 c95d 1139
000002b0: 7063 c138 be08 8cb8 2f10 4fbc e971 6ebc
000002c0: cc44 03bc 393b b938 d356 acb8 f1eb b0ba
000002d0: 3e78 edb7 fe55 ae37 c507 8bbc e6f4 30bc
000002e0: a476 2fbc 2d15 58bc 46ac e33b c205 cd3b
000002f0: c220 f9bb f02a 853b 926c 6d3b bcb5 343b
00000300: 6d4c 803b 99d6 fdbb 603d c5bc 05f6 513c
00000310: 338f be3c f852 52bb 6c40 73bb 311b b23b
00000320: bb58 1cbc 34c2 c13b 567e 3fbb 3275 6abd
00000330: 5de6 8b3b 3255 9f3b f63f 2d3b 6b4f 85bc
00000340: 57d0 8fba 560b 073b bf36 a93b 38e3 1fbc
00000350: 95be 8a3b 16b8 ca3a a7ad eeba 7543 ddba
00000360: bd5c bd3b 19aa eb3c c7ea 363b de66 453b
00000370: 9edf 7f3b a5be 903c 32ff 3dbc e390 74bb
00000380: b7cc 3ebd 01ae bf3a 59b0 dfbb 2256 6fbc
00000390: 4b0d 373d 48d4 c83b 64ed 0b3b d773 32bb
000003a0: ea5c cd3c 2fce 3cbb 9cbc 89bb 7799 603b
000003b0: 52b7 32bc b0f0 babb 3f93 a3bb 7ae7 c0ba
000003c0: 05aa 1bbb 90e2 ba3a 0f3a c9bc 4376 493c
000003d0: af0f 273b 049a 023c d458 1a3b a004 0cbb
000003e0: d0bb 14b7 181a 08b7 e6b7 95b8 0628 9eb8
000003f0: 7cec aa38 daab bbb8 0345 c538 6a0b 3937

l1.bias f4 [256]
-0.10441426 -0.25438285 -0.009355715 -0.06984606 -0.08323175 0.03049431 -0.08421889 -0.0902087
-0.07830002 -0.23463681 0.048407834 -0.19003993 0.040490374 -0.14946799 -0.057851236 -0.11772539
-0.14167985 -0.121078305 -0.06084002 -0.120255955 -0.17184523 -0.12695514 -0.08857428 0.039860047
-0.11303352 -0.10555814 -0.1678153 -0.07707623 -0.14970708 -0.17146163 0.11634377 -0.07874514
-0.030062234 0.16147974 0.03195685 -0.1610381 -0.01898357 -0.01592705 0.41930753 -0.037741356
-0.21778849 -0.0015170177 0.032132998 -0.114130944 -0.15754624 -0.14321338 0.07862302 -0.116222724
-0.11170681 -0.07749519 -0.025385875 -0.2710079 -0.12934673 -0.05331574 -0.052656155 -0.08132324
-0.17993788 -0.04528381 -0.18593962 -0.14046915 -0.1627152 -0.08648528 -0.065131746 -0.13571444
-0.05268048 -0.011750957 -0.013317753 -0.07381191 -0.020830924 -0.06008531 -0.023639163 -0.21918511
-0.16907558 -0.19937746 -0.12948738 0.01902708 -0.12593837 -0.016390704 -0.06956396 0.0076518273
-0.098751865 -0.13767503 -0.02240444 -0.015246619 -0.20100297 -0.08361919 -0.30226755 -0.15064724
0.034835245 -0.097683005 -0.12004575 -0.039316807 -0.02428781 -0.04560003 0.110670716 -0.1828422
-0.15433681 0.8737433 -0.181948 -0.18473913 1.2650654 -0.12005711 -0.030438028 -0.21788372
-0.4781617 -0.12187711 -0.074199036 -0.16926405 -0.039347105 -0.18811506 -0.09701024 0.307723
-0.059259668 -0.1581322 -0.049617026 -0.088728696 0.022773795 -0.06942871 -0.10197584 -0.08576082
-0.098772064 -0.04569185 -0.12017853 -0.06432978 -0.07638936 -0.034087073 -0.04923107 -0.076368704
-0.13991643 -0.035853785 -0.27810368 -0.0812837 -0.1637255 0.004474205 -0.121320635 -0.22803392
0.059452653 -0.102766864 -0.02672323 -0.05374306 -0.1355525 -0.025997428 0.014337737 -0.016872797
0.0008035365 -0.075008936 -0.19540824 -0.06097671 -0.06862025 -0.020225007 -0.11101746 -0.090354875
-0.09253688 -0.39666674 -0.2911663 0.42691088 -0.2960541 1.4147456 -0.15966918 -0.0060422174
-0.011162452 -0.18141145 -0.03702952 0.006186218 0.019495929 -0.06660993 -0.46023658 -0.10844674
-0.022154238 -0.02909391 0.029354151 -0.07469293 -0.08386579 0.021557903 -0.030168528 -0.12641996
-0.3180333 -0.03273709 0.022059742 -0.035691142 -0.20512658 0.046969246 -0.020386236 -0.11836609
-0.122264095 -0.138119 0.015664319 0.025389042 -0.013944201 0.060999267 -0.18304889 -0.14181499
-0.22780475 -0.15090682 0.40867066 -0.12616986 -0.004502493 -0.097983845 -0.025632625 -0.17581938
-0.016245246 -0.14332241 -0.28458112 -0.09234524 -0.027324885 -0.043061625 -0.02654147 -0.12367482
-0.08776887 -0.037416603 -0.22721966 -0.15428461 -0.04977415 0.02280785 -0.021457935 1.3102913
-0.025209768 -0.17527366 -0.08101495 -0.0971249 -0.06324288 0.0014177253 -0.090292215 -0.055814024
-0.010504555 -0.031652447 0.0023581916 0.022595493 -0.15170893 -0.056171887 -0.15895197 -0.071744904
-0.1572306 -0.0029180767 -0.45705298 0.023938123 0.04023618 -0.024585629 -0.4152743 -0.12500903
-0.15633851 -0.19901213 -0.036552418 -0.22900942 -0.16586454 -0.028779129 0.025529018 -0.020064374
-0.25694618 -0.022466654 -0.25169283 -0.0088388445 -0.41115862 -0.25979605 -0.06942526 -0.13767764
00000000: 25d7 d5bd 783e 82be b648 19bc 730b 8fbd
00000010: 6875 aabd 34cf f93c f47a acbd 57bf b8bd
00000020: c35b a0bd a244 70be 4b47 463d d499 42be
00000030: 3cd9 253d 230e 19be 6bf5 6cbd 021a f1bd
00000040: 8614 11be e7f7 f7bd 6333 79bd c148 f6bd
00000050: 32f8 2fbe 8700 02be 6f66 b5bd 4a44 233d
00000060: 1e7e e7bd de2e d8bd c6d7 2bbe 24da 9dbd
00000070: d04c 19be a393 2fbe a445 ee3d 2245 a1bd
00000080: 1345 f6bc f25a 253e 30e5 023d 2ce7 24be
00000090: 6f83 9bbc 7279 82bc 7aaf d63e ae96 1abd
000000a0: f203 5fbe abd6 c6ba e49d 033d 7cbd e9bd
000000b0: cd53 21be 87a6 12be 1b05 a13d 2e06 eebd
000000c0: 8ac6 e4bd ccb5 9ebd 0af6 cfbc 8cc1 8abe
000000d0: 7873 04be 9b61 5abd fbad 57bd cd8c a6bd
000000e0: a341 38be 847b 39bd f566 3ebe 25d7 0fbe
000000f0: d09e 26be 321f b1bd cb63 85bd baf8 0abe
00000100: 7dc7 57bd 1687 40bc b432 5abc b32a 97bd
00000110: 9da5 aabc 041c 76bd eba6 c1bc 1072 60be
00000120: 2622 2dbe 9b29 4cbe 5798 04be aede 9b3c
00000130: fdf5 00be cc45 86bc 8d77 8ebd 2ebc fa3b
00000140: 6b3e cabd affa 0cbe 8489 b7bc f4cc 79bc
00000150: b9d3 4dbe 8a40 abbd d0c2 9abe 4543 1abe
00000160: 67af 0e3d 070e c8bd 8cda f5bd a90a 21bd
00000170: 3bf7 c6bc 19c7 3abd 54a7 e23d fc3a 3bbe
00000180: 780a 1ebe a4ad 5f3f 9450 3abe 412c 3dbe
00000190: aaed a13f 81e0 f5bd 2c59 f9bc e91c 5fbe
000001a0: 9cd1 f4be b59a f9bd aaf5 97bd 8e53 2dbe
000001b0: 6e2a 21bd 3ca1 40be 4ead c6bd de8d 9d3e
000001c0: 44ba 72bd 68ed 21be 393b 4bbd 64b7 b5bd
000001d0: 1c90 ba3c a430 8ebd b6d8 d0bd 5ea3 afbd
000001e0: 0249 cabd 6127 3bbd 2920 f6bd 55bf 83bd
000001f0: 0672 9cbd e39e 0bbd 85a6 49bd 3267 9cbd
00000200: 4146 0fbe 6bdb 12bd 9b63 8ebe 1278 a6bd
00000210: a8a7 27be 5a9c 923b f476 f8bd b981 69be
00000220: a084 733d 6f77 d2bd adea dabc af21 5cbd
00000230: 46ce 0abe 8ff8 d4bc d4e8 6a3c d238 8abc
00000240: 6ca4 523a 499e 99bd 1919 48be b7c2 79bd
00000250: c688 8cbd eaae a5bc 1f5d e3bd fa0b b9bd
00000260: fa83 bdbd e717 cbbe c013 95be 1094 da3e
00000270: 6794 97be 6216 b53f 5180 23be cbfd c5bb
00000280: b8e2 36bc ecc3 39be 44ac 17bd c2b5 ca3b
00000290: edb5 9f3c c96a 88bd 21a4 ebbe 5319 debd
000002a0: ce7c b5bc 5a56 eebc 1e78 f03c 9bf8 98bd
000002b0: d4c1 abbd 339a b03c fd23 f7bc 3c74 01be
000002c0: 43d5 a2be 5417 06bd a2b6 b43c e030 12bd
000002d0: b40c 52be d362 403d 0901 a7bc ec69 f2bd
000002e0: 9965 fabd 116f 0dbe 7552 803c aefc cf3c
000002f0: 3876 64bc 5eda 793d 2b71 3bbe f337 11be
00000300: a645 69be 5187 1abe 483d d13e ac32 01be
00000310: a689 93bb c1ab c8bd 83fb d1bc ff09 34be
00000320: c014 85bc 1cc3 12be 9eb4 91be 801f bdbd
00000330: 70d8 dfbc 6361 30bd 7f6d d9bc 3949 fdbd
00000340: 2ac0 b3bd 2742 19bd 45ac 68be c9fc 1dbe
00000350: fbdf 4bbd 87d7 ba3c 8dc8 afbc a0b7 a73f
00000360: b784 cebc f07a 33be 2beb a5bd 6be9 c6bd
00000370: 7c85 81bd f8d2 b93a 20eb b8bd 3f9d 64bd
00000380: 4c1b 2cbc ffa5 01bd e48b 1a3b 2f1a b93c
00000390: 9659 1bbe 7e14 66bd 4ec4 22be feee 92bd
000003a0: 0f01 21be 343d 3fbb d902 eabe e219 c43c
000003b0: b1ce 243d cd67 c9bc d59e d4be 5e02 00be
000003c0: 3417 20be d6c9 4bbe fdb7 15bd 7281 6abe
000003d0: 65d8 29be 35c2 ebbc 3b22 d13c 0b5e a4bc
000003e0: 738e 83be fd0b b8bc e2dd 80be cdd0 10bc
000003f0: 6283 d2be fd03 85be d52e 8ebd 5efb 0cbe
