TABULAR/Figure2Reproduce/Poisoned/GERMAN_L2_FCN_e=0.1_g=0.0_a=1.0_l=2_h=256_s=True_p=0.0.pt (torch, 331927 bytes, 10 tensors)

lays.0.weight f4 [256, 62]
000000 88 65 43 bd bf 6b 08 be ba 0e 02 be 12 45 c7 3d
       -0.04770425 -0.13322352 -0.1270093 0.09729971
000010 4f 83 4e 3e e5 22 d1 be 05 bc 0b be 40 a5 0b 3e
       0.20167278 -0.40846935 -0.13645943 0.13637257
000020 84 72 90 bd 6e 3d 57 bd 05 ae fe 3c 8a 2b d8 3d
       -0.07053092 -0.05254882 0.031088838 0.105551794
000030 08 a8 89 be 96 ca ac bd bd bd 9b be ad ab 6e 3e
       -0.2688601 -0.08437078 -0.30418196 0.23307677
000040 27 f9 e0 3e 65 4f 14 3e f8 8d 3f bd ab e2 07 be
       0.43940088 0.14483412 -0.04676625 -0.1327006
000050 ad 89 ad bd e0 15 e6 bd c7 e2 85 3e bf e2 37 3e
       -0.08473525 -0.11234641 0.2614958 0.1795759
000060 d3 81 bc be 41 f4 68 be a8 e3 33 3e 26 2c 32 3e
       -0.36817798 -0.22749425 0.17567313 0.17399654
000070 44 e1 a3 bd 70 b2 61 be c2 c1 97 bd 12 43 43 3e
       -0.080019504 -0.22040725 -0.07410003 0.19068554
000080 13 5d 75 be 20 18 c2 bc ed a3 6f be e5 37 25 bc
       -0.23961286 -0.023693144 -0.23402376 -0.010084127
000090 32 03 4b 3e 23 d6 44 3e 74 8f bc 3d 7c f7 4e be
       0.19825438 0.19222312 0.09207049 -0.20211595
0000a0 8d bc 20 be d5 78 e7 3d 40 4c 84 3d ef 5b 15 bd
       -0.15696926 0.11302344 0.06459856 -0.036464628
0000b0 bf da 39 be 41 e3 94 be fc d5 96 bc bb 28 34 3d
       -0.18149851 -0.2907963 -0.018412583 0.043984156
0000c0 ea 43 f1 bd d0 09 ed bd 04 47 be 3e 6a 77 4d bd
       -0.11780532 -0.11574137 0.37163556 -0.05016271
0000d0 1b 4a a4 3e fe 95 e9 be 77 7e 26 3e 07 6b d3 bd
       0.32087788 -0.45622247 0.1625918 -0.10323148
0000e0 b9 f9 1d 3d e9 98 89 3d a8 e0 4f be f2 69 bb 3d
       0.038568232 0.067186184 -0.20300543 0.09151067
0000f0 58 40 8d 3e 36 66 c5 be 8c 93 12 be 70 3c 8d bd
       0.27588153 -0.38554543 -0.14314097 -0.06896293
000100 64 cc fa 3b b8 cb 73 bd 8f 93 99 bd 92 c8 0b bd
       0.00765376 -0.059520453 -0.07498848 -0.034126826
000110 41 95 83 3c 60 72 23 3d ed 15 49 be f8 8d 11 bd
       0.01606238 0.039904 -0.1963727 -0.035535783
000120 f9 ac 5e 3d f4 e7 da 3c 70 d8 08 3e c2 6c 24 3e
       0.05436418 0.026721932 0.13363814 0.16057113
000130 e5 39 86 bd 7c 15 04 be fa 2b 77 bd e7 16 1b be
       -0.06554011 -0.1289882 -0.060344674 -0.15145455
000140 37 e1 25 be 70 4a 19 3d 54 ef ac 3c e3 67 2b be
       -0.16199194 0.037424505 0.021110214 -0.16738848
000150 14 86 f5 bc 6d 29 95 bd 59 8d 9b bd cc 6d 08 be
       -0.02997116 -0.07283292 -0.07595319 -0.13323134
000160 f5 4c ed 3d 64 85 f6 bd 90 66 bc bc 8b 13 08 bd
       0.11586944 -0.12037161 -0.022998124 -0.033221763
000170 3e 23 8c 39 42 39 7d bc 29 0f 56 be 23 8a 14 be
       0.00026729138 -0.015455546 -0.2090422 -0.1450582
000180 d8 0b e3 3c ea ca e7 bc bb a5 2e be 6f 61 22 be
       0.027715608 -0.028295 -0.17055409 -0.1585748
000190 79 35 25 3d 7b 6e 45 3d d2 c4 14 be 4c c2 e0 bd
       0.0403342 0.048201066 -0.14528206 -0.10974559
0001a0 a7 30 40 be 17 62 57 3d e3 d3 36 be 4c 40 04 be
       -0.1876856 0.05258378 -0.17854266 -0.12915152
0001b0 93 cf 69 bd 30 f5 a0 3d b1 0d af bc 71 80 b8 3c
       -0.057082724 0.07859266 -0.021368833 0.022522183
0001c0 d7 d5 1b be 27 ee 46 3d dc 3e 35 3d 78 f2 e8 bd
       -0.15218292 0.048566964 0.0442494 -0.11374372
0001d0 9a 28 c5 bd 65 a6 b3 bd 33 51 17 bd ec a8 0a bd
       -0.09626885 -0.087719716 -0.036942672 -0.033852503
0001e0 ac 3d f2 bc 04 30 8c 3d 29 bc 0f be 93 22 ab 3a
       -0.029570423 0.06845096 -0.14036621 0.0013056569
0001f0 71 44 a8 be 20 13 72 bd d2 ea e0 bd fa 6c 82 be
       -0.32864717 -0.05910027 -0.109822884 -0.25473768
000200 9f 30 5a be c9 9e 4c be d7 53 6e be c9 62 0d bc
       -0.2130761 -0.19982447 -0.2327417 -0.008629509
000210 9e 8d 78 be 07 f1 9e bd 34 54 ce bd 11 17 9e 3d
       -0.24272773 -0.07760816 -0.10074654 0.07719243
000220 55 7d dc bd dd 13 b9 3c a6 6f ad bd 4a a6 ac 3e
       -0.10766093 0.02259248 -0.08468561 0.33720618
000230 8c 9d b5 bc 5d 20 03 bd 7a 38 59 bd 78 68 1a 3d
       -0.02216985 -0.032013286 -0.053032376 0.037697285
000240 b3 ac 8a bd f3 8e c5 bd b1 f1 57 bd fc 4d 83 bd
       -0.06771221 -0.09646406 -0.05272073 -0.06411359
000250 53 30 45 bd 25 3d 64 be e7 6b 06 3e c2 15 b9 bd
       -0.04814179 -0.2228895 0.13127099 -0.09037353
000260 aa 77 27 be 9b 5d 00 3c b6 49 a3 3d 76 89 90 be
       -0.16354242 0.007834817 0.079730436 -0.28229874
000270 a6 3b 74 3b 5a e6 2c be 02 36 c8 bd 16 1f 9c be
       0.0037266999 -0.16884747 -0.09775926 -0.30492467
000280 a2 17 bd bd 57 d3 21 be 9a e7 ce bd 92 fd 4a be
       -0.09233023 -0.15803276 -0.10102768 -0.19823292
000290 7d f6 32 bd bc 20 29 be e5 38 c8 bd 93 b2 65 3e
       -0.0436921 -0.16516393 -0.09776477 0.22431402
0002a0 77 e8 11 be 47 0b 43 bc 37 e3 eb 3e 09 76 a0 bd
       -0.14248835 -0.011904544 0.4607179 -0.078350134
0002b0 e3 34 ea bd 5b a0 d1 3d 91 e4 66 be a0 7e bf 3c
       -0.114358686 0.102356635 -0.22548129 0.02337581
0002c0 5b 96 e1 bd c4 5d 54 be d9 8a d9 3d 77 a9 76 be
       -0.11015006 -0.20738894 0.10622186 -0.24088083
0002d0 a7 3e 2c bd 49 af 2a be ad 47 f4 3d 46 d6 77 be
       -0.042051937 -0.16668428 0.119277336 -0.24202833
0002e0 ae ad f0 bd 4e 8d 44 3d ab 87 d7 be 17 45 7d 3d
       -0.11751877 0.04798632 -0.42095694 0.061833467
0002f0 e5 7c 01 3f 23 23 3c 3e 34 99 8f be 4f 6f 90 3e
       0.505812 0.18372779 -0.28046572 0.28209922
000300 5f ea f5 be 76 38 9c be ac 9a 14 bf c4 0b fe 3d
       -0.48030373 -0.30511826 -0.5804851 0.12404588
000310 bc 81 2a be 38 6f e0 3e 76 16 55 3c 7b 0f b5 bd
       -0.16651052 0.43834853 0.013005843 -0.08840843
000320 6d b0 16 3d d6 72 8f 3d b9 d5 e3 bd 27 6f 81 be
       0.036789346 0.07004325 -0.11124749 -0.25280115
000330 b6 a5 81 3e 8d 3d 3f 3c 71 d1 d1 3e 17 f5 ac 3e
       0.2532174 0.01167239 0.40980104 0.3378074
000340 d7 12 ca be 49 e6 78 be e4 90 f3 bd 82 4b 23 3e
       -0.394675 -0.24306597 -0.1189287 0.15946773
000350 5c e5 4a be 3a 82 6d 3e 41 ca 28 be 1a b9 54 bd
       -0.19814056 0.23194209 -0.16483404 -0.05193434
000360 f6 9a 16 3a d9 2b a1 be 6d 0c 46 3e b8 fc 31 3d
       0.0005745137 -0.31478766 0.19340678 0.043453902
000370 74 f5 91 3d 5d 49 88 be ab 10 5a 3d 63 22 49 be
       0.071268946 -0.26618472 0.053238552 -0.19642024
000380 2b 8e 4f 3e 29 e7 99 3a 08 13 b4 bc 8e 13 81 be
       0.20269077 0.0011741865 -0.021981731 -0.25210232
000390 f2 ed 37 be 1d c2 37 bd 91 64 0b 3f 1c 20 bc bc
       -0.17961863 -0.044862855 0.5445033 -0.02296453
0003a0 ad 3f 87 bd 8f 45 08 be 9d 0e 40 be db fb 3c bd
       -0.06603942 -0.13307784 -0.18755575 -0.046138626
0003b0 52 ef 29 3e de df 39 bd 30 79 48 be 5f 0a 3f be
       0.165952 -0.045379512 -0.1957748 -0.186563
0003c0 c4 83 1b be 41 5f c9 3e f5 d9 1c bd af 8b 8a 3e
       -0.15186983 0.39330485 -0.038293798 0.27059695
0003d0 3c a8 96 bd ff 9c 92 be d4 4d 43 be 8b d8 1e 3e
       -0.07356307 -0.28635404 -0.19072658 0.15512292
0003e0 2a c9 bf bd e0 20 ab bd 73 49 7c bd bd db b9 bb
       -0.09364541 -0.0835588 -0.061593484 -0.005671947
0003f0 cd 34 80 bd 04 b9 0d be 85 8d 38 be d5 64 ed bd
       -0.06260071 -0.13840109 -0.18022735 -0.11591498

lays.0.bias f4 [256]
000000 eb c4 8e 3c 57 f0 73 bd d2 50 08 bc 00 7f 5b be
       0.017427882 -0.059555378 -0.00832005 -0.21435165
000010 98 6b c2 bd ba f2 0e 3c ad e5 eb bc 9b b3 43 3d
       -0.09493178 0.008724863 -0.028796041 0.047778707
000020 be 1b ad be fb dd a2 be dc b4 be 3d 36 a9 71 be
       -0.33810228 -0.31809983 0.0931184 -0.23599705
000030 c4 ea f9 3c 9f 83 0c 3d ca 00 07 be cf cc d0 bd
       0.030507453 0.03430521 -0.13183895 -0.10195314
000040 bf 71 17 be c8 48 f4 bd df 10 29 be 7d 7b bb be
       -0.14789484 -0.119279444 -0.16510342 -0.36617652
000050 43 1c fa 3b 76 37 8b bd c0 a8 e2 bd 5c 15 bd ba
       0.0076327636 -0.06797688 -0.11067343 -0.0014425921
000060 01 9d 2d 3e d3 df 8b 3d 20 01 e5 bc d0 a7 c4 be
       0.16954423 0.068298005 -0.027954638 -0.3840928
000070 5f 99 96 bd e6 88 d1 bd 7e 95 c1 bd df 3d 75 be
       -0.07353472 -0.102311894 -0.094523415 -0.23949383
000080 40 18 1a be 30 1a 8c bd 80 24 cb bc 83 30 0c be
       -0.15048313 -0.06840932 -0.024797678 -0.13690381
000090 5b 4b 7a be b9 25 fb bd ca 5c 7d bd 07 80 36 bd
       -0.24442808 -0.122630544 -0.06185607 -0.04455569
0000a0 b0 25 ca 3d 6f 9a dc 3a 66 c7 3c 3e bf 17 0f be
       0.098704696 0.0016830693 0.1843544 -0.13973902
0000b0 5a 96 33 be ca 66 87 be 4a a5 8c bc 51 e9 3a bd
       -0.17537823 -0.2644561 -0.01716866 -0.045632664
0000c0 59 23 a0 bd ae 1d f6 bd d7 4c 6d be 72 7a 09 be
       -0.07819242 -0.1201738 -0.23173843 -0.13425615
0000d0 33 0e e1 bd 35 a8 07 be e4 6e 07 be a1 48 98 bd
       -0.109890364 -0.1324776 -0.13225895 -0.07435728
0000e0 05 57 11 bd 3c ca 98 bd 29 ed 8a be 33 c9 30 be
       -0.03548338 -0.07460448 -0.27134064 -0.17264251
0000f0 f6 1c 59 be 18 04 d3 be 48 d6 cc bd 64 54 c5 bd
       -0.21202454 -0.4121406 -0.100018084 -0.09635237
000100 db 4e dc bd 26 cf c0 3b 41 9b 5e bd d2 a9 51 bd
       -0.10757228 0.005884069 -0.05434728 -0.051187344
000110 9d 42 a9 be 57 cd 8e be 4d 2a 21 be 35 6e 25 be
       -0.33058634 -0.27891037 -0.15738793 -0.16155322
000120 e8 e5 3a be 3a 9a d7 bd 26 fb b3 be 78 31 1e 3e
       -0.18251765 -0.10527463 -0.3515255 0.15448558
000130 c8 49 e2 bd 04 27 b5 bd 94 48 a4 be fc 13 d6 bc
       -0.11049229 -0.08845332 -0.32086623 -0.026132576
000140 7e 72 9a bd 7d a3 2c be bf 4e 6a 3d 35 d1 83 be
       -0.07541369 -0.16859241 0.057204004 -0.2574555
000150 5f 7f 30 be cb d2 5a bd a3 60 70 bd eb 2c d9 be
       -0.17236088 -0.053423684 -0.05868591 -0.42417082
000160 29 c7 57 bd f4 7f 9b 3d 7c fc eb bd 63 f4 16 3d
       -0.05268017 0.075927645 -0.11522767 0.03685416
000170 eb 95 41 bc c3 c2 1c be df ce d8 bd d1 bf 93 be
       -0.011815528 -0.1530867 -0.105863325 -0.28857282
000180 d0 cb eb bd cc 73 20 be 40 86 8c be 69 d0 1d 3e
       -0.115134835 -0.15669173 -0.27446175 0.15411533
000190 5f 16 de 3d ff 4b a3 be d3 d6 a5 bc a2 e2 0b be
       0.10844111 -0.31893918 -0.020244038 -0.13660672
0001a0 23 b3 34 be 9a 67 4e be 76 23 26 be 8b 5f b8 be
       -0.1764646 -0.20156708 -0.16224465 -0.36010394
0001b0 a4 12 45 3b ca 5a 21 be 60 a5 19 bf 9e ae 93 be
       0.0030070925 -0.1575729 -0.6001797 -0.2884416
0001c0 cf ad fc bd 8f 61 c8 be ba f2 93 bd 86 76 a4 bd
       -0.12337839 -0.3913693 -0.07224031 -0.08030419
0001d0 9c 5c 90 be a4 db 29 be 78 d5 d0 bd d3 be a8 be
       -0.28195655 -0.16587692 -0.10196966 -0.32958087
0001e0 31 fa 9d 3c ac 10 30 bd c6 1f 04 be d3 19 49 bd
       0.01928434 -0.04298465 -0.12902746 -0.049096894
0001f0 45 4d 28 be e9 b9 a0 be 4c 21 a2 bd 75 86 c5 be
       -0.16435726 -0.31391838 -0.07916507 -0.38579145
000200 ed ce 2d be 08 3f 36 3e 5c cc df bd d7 21 00 bd
       -0.16973467 0.17797482 -0.1092765 -0.031282272
000210 4a 73 96 3c df e0 cd bc 80 6b 59 be 5c 58 95 be
       0.018365521 -0.025131641 -0.21232414 -0.29168975
000220 1a e1 5f be 67 31 f8 bd 91 9b 86 be f8 5e a3 3b
       -0.21863213 -0.12118798 -0.26290563 0.0049856864
000230 1d 79 4a be d8 82 ca bd ee 05 4a bc 49 84 6c 3e
       -0.19772764 -0.09888238 -0.012330515 0.23097338
000240 7e 62 7a 3c 45 36 83 be e1 5a 30 be ac 1a c1 bc
       0.015282271 -0.25627342 -0.17222168 -0.023572288
000250 04 e3 ac 3d e6 a0 2a be 70 40 d9 bd ef 39 0f be
       0.08441737 -0.1666294 -0.106079936 -0.13986944
000260 37 09 6c bb a4 27 eb bc 67 02 cd 3b 1b 93 62 be
       -0.0036016235 -0.028705426 0.00625639 -0.22126429
000270 c2 64 77 be d0 f9 72 be 58 6d 7b bc eb e5 8b bd
       -0.2415953 -0.23728108 -0.015345894 -0.06830963
000280 76 0e 93 bb 59 a8 d3 bd 18 1c 39 3d 0f 1b 81 bd
       -0.004487808 -0.10334844 0.045192808 -0.06303989
000290 b6 ae f7 bd 24 88 03 be a9 bb f4 3d f2 e7 ec bd
       -0.1209387 -0.12844902 0.11949856 -0.115676776
0002a0 41 a7 23 bd 29 61 50 bd 6a e9 02 bc 6f ce 93 be
       -0.039954428 -0.05087391 -0.007990221 -0.28868434
0002b0 e0 cd ea 3e 7a de 12 3c ef 3a 11 bd df df 06 be
       0.45860195 0.008964175 -0.035456594 -0.13171338
0002c0 aa c3 47 be 32 b3 7c be 3f b8 7d bc 68 5a 7e be
       -0.19508234 -0.24677733 -0.015485822 -0.24839175
0002d0 52 e9 0b be fe 2d 08 3e 5e b3 c9 bd c0 8a 81 3d
       -0.13663223 0.13298795 -0.09848665 0.063252926
0002e0 9c e0 84 bd 17 f9 ce bd 95 8c 04 bd fd 8c b9 bd
       -0.06488153 -0.10106104 -0.032360632 -0.090600945
0002f0 eb d6 2f be 2d a7 ca bd 76 ce 25 be 12 79 be bd
       -0.17171828 -0.098951675 -0.1619204 -0.09300436
000300 f3 58 68 be a9 ae 4b be 31 07 a7 bb 38 60 25 be
       -0.22690181 -0.19890846 -0.005097293 -0.16149986
000310 68 98 4a be 03 bc d1 bd 69 b1 82 3d 81 3a 62 be
       -0.19784701 -0.102409385 0.063814946 -0.2209263
000320 26 93 92 bc 90 9a 11 be a8 46 23 be d5 24 b8 ba
       -0.017892431 -0.14219117 -0.15944922 -0.0014049063
000330 2f bc 5c bd db e5 1d be 56 14 dc bd 19 31 0b be
       -0.053890403 -0.15419714 -0.10746066 -0.13592948
000340 51 6d b5 3c 24 01 5c bd a6 44 c2 be 50 49 a6 be
       0.022146853 -0.053712025 -0.37943 -0.32477808
000350 64 b5 ed bd 14 3f a3 3c 3f 09 b7 3d 5c ff 6a bd
       -0.11606863 0.019927539 0.089373104 -0.057372436
000360 21 fa 34 be 2c 68 b4 be b4 05 67 be ef 4d 07 be
       -0.17673542 -0.35235727 -0.2256077 -0.13213323
000370 dd 58 63 bd 10 45 7c bd 99 62 d8 bd cc 64 ff ba
       -0.05550467 -0.0615893 -0.10565681 -0.0019484996
000380 03 5e 98 3c 0e 19 12 be 31 11 0f be 6d 84 19 be
       0.018599516 -0.1426737 -0.13971402 -0.14991923
000390 f9 2e 8c be 65 3e 26 bd 82 e0 06 ba 25 c1 71 bd
       -0.27379587 -0.040586848 -0.00051451486 -0.059022088
0003a0 5a 67 10 be b6 a9 91 bd 0e 26 e2 bd 03 3d 7a 3d
       -0.14101925 -0.07112448 -0.110424146 0.06109334
0003b0 aa 7c 19 be 88 33 44 bd 9a f7 45 3d 68 2c ea bc
       -0.14988962 -0.047900707 0.048331834 -0.028585628
0003c0 6f 8e 47 be d4 5c 25 bc 30 0f 3f 3d 5a 78 cc bc
       -0.19487928 -0.010092933 0.046645343 -0.024959732
0003d0 bf 26 e8 be 94 ed 22 bd bb 8c 3b 3d 64 3b 48 3e
       -0.4534206 -0.039777353 0.045788508 0.19553906
0003e0 e9 f5 af be 4a 99 34 bd bf dc 9a be 92 05 25 be
       -0.34367302 -0.0440915 -0.3024654 -0.16115406
0003f0 fc 1c 2c be a1 5d 29 be a2 5e a1 bd 5d af 43 be
       -0.16807932 -0.16539623 -0.07879378 -0.19109865

lays.1.weight f4 [256, 256]
000000 2a 36 b2 bd ae f8 b7 bd 41 48 44 bd 1b 1d 96 bd
       -0.08701737 -0.08982979 -0.04792047 -0.0732977
000010 33 0e 21 bc 6e e1 c5 bd ca 27 2e bc 58 e4 61 bd
       -0.0098300455 -0.09662138 -0.010629604 -0.055149406
000020 00 32 b1 bb 5a d5 e4 bb 09 5c dd bc 73 21 d7 bd
       -0.005407572 -0.0069834413 -0.027021425 -0.10504427
000030 86 1b e9 bc c0 93 96 bc 85 a4 75 bd 0a 3b b3 bc
       -0.028455507 -0.018381 -0.05997135 -0.021878738
000040 df d6 1c bd 7a 74 62 bc 6e c0 2f bd 8e 5f 6d bd
       -0.038290855 -0.0138217155 -0.042908125 -0.057952456
000050 b1 75 77 bd 07 a9 6d bd 06 9a eb bd 3e 87 e1 bd
       -0.060414974 -0.058022525 -0.11503987 -0.110121235
000060 73 88 77 bc 40 d4 46 bd f0 b2 d3 bc ec f1 83 bc
       -0.015108216 -0.04854226 -0.02584216 -0.016106568
000070 75 b0 9f bd 0c 22 b7 bd cd 7d a2 bd 11 8c 3e bc
       -0.077973284 -0.08942041 -0.07934151 -0.011630074
000080 13 79 bf bc bf dc ea bd 6d be e4 bd b8 ae b2 3d
       -0.023373162 -0.11467885 -0.11169133 0.08724731
000090 3d a4 dd bd f9 d0 9b bd 7e 60 95 bd 09 76 f1 bb
       -0.108223416 -0.07608218 -0.07293795 -0.007368807
0000a0 3a e8 3e bd 6f 74 8e bd 15 81 35 bc 15 db 82 bc
       -0.046608187 -0.06955802 -0.011078139 -0.015973607
0000b0 63 e1 f2 bd f2 20 45 bd ec 33 ef bc bf 30 ad bd
       -0.11859395 -0.048127122 -0.029199563 -0.08456563
0000c0 56 ce d5 3d 22 a1 2b bd e7 d4 74 bc 9c 01 b3 bd
       0.10439746 -0.041901715 -0.014943338 -0.08740541
0000d0 8b 6c 8c 3d 65 76 d8 bd 59 be e8 bd 40 37 a6 bd
       0.068566404 -0.10569457 -0.11364431 -0.08116007
0000e0 d5 00 bf ba e4 80 64 bc 32 64 7a bc 8f 84 a6 3d
       -0.0014572392 -0.013946746 -0.0152826775 0.08130752
0000f0 61 9b f3 bd 7f 49 87 bc 20 2b 32 bc b5 0a 9b bd
       -0.118948705 -0.016514538 -0.01087454 -0.075704016
000100 1c b8 e5 bd b6 fa 9d bd fa ad 2c bc 7a 0c bb bd
       -0.11216757 -0.07713835 -0.010539526 -0.09133239
000110 06 42 ad bd 5d 63 c5 bd 95 bb ba bd e6 f8 9d bd
       -0.084598586 -0.09638093 -0.0911781 -0.07713489
000120 02 64 5a bd 95 09 c4 bc 95 e7 6f bd 4b db e8 bd
       -0.05331803 -0.02393035 -0.058570463 -0.11369952
000130 50 d8 4f bc 9b 95 71 bd 76 8e aa bd 4a 7f dd bd
       -0.01268585 -0.058980566 -0.083279535 -0.10815294
000140 55 7a 4a bd 62 cd 20 bd a1 3b e5 bd 36 80 de bd
       -0.04943307 -0.03925837 -0.11193014 -0.10864298
000150 6e 4f d6 bc d4 0f 21 bd 0d 04 45 3d 58 a3 89 bd
       -0.026160922 -0.039321736 0.048099566 -0.067206085
000160 7f 1c ac bd 62 14 39 bd d2 45 4f bd 6d 62 32 bd
       -0.08403873 -0.045185454 -0.050603695 -0.043550897
000170 17 bc 2a bd ba 28 2e bd 22 2f 2c bd de 53 ae bd
       -0.041683283 -0.04251931 -0.042037137 -0.0851209
000180 b7 75 a4 3a d5 cb 0b bd 18 20 94 bd c0 05 c6 3a
       0.0012547289 -0.034129936 -0.07232684 0.0015107915
000190 47 f0 f2 bd bb 5b a9 bd 46 ca a4 bd 07 0d fc bc
       -0.118622355 -0.08269449 -0.08046393 -0.03076793
0001a0 52 07 23 3b 0e 6e a3 bd a7 6e d4 bb f4 8e 39 bd
       0.002487619 -0.07979976 -0.0064829173 -0.045302346
0001b0 58 d9 c2 bd 33 4d c0 bd 14 fd 84 bd fd a0 6b bd
       -0.09514111 -0.093897246 -0.06493583 -0.057526577
0001c0 70 9f a0 bd ec 16 ed bc d0 ae 98 3a bc cf 2a bd
       -0.0784291 -0.028941594 0.0011648778 -0.041702017
0001d0 4e df 6f bc 78 77 58 bd fe 29 a9 bd 12 bb 4f bc
       -0.014640642 -0.05284831 -0.082599625 -0.012678878
0001e0 9e f7 b2 ba 6a e1 c7 bd 86 e3 f0 3c 56 07 0e bc
       -0.0013654118 -0.09759791 0.029405367 -0.008668741
0001f0 fe 8f d4 bc a5 ac 1e bb 41 5e 9a bc 59 57 28 ba
       -0.025947567 -0.002421179 -0.018843772 -0.0006421707
000200 3a e6 82 bd c9 7c 66 bd 88 5f 83 3c 7c 84 4b bd
       -0.063915685 -0.05627135 0.016036764 -0.049686894
000210 9c 34 af bc 38 30 91 bd 9e 52 53 bd 9a e8 1c bd
       -0.02138739 -0.07089275 -0.05159246 -0.038307764
000220 af 64 17 bc 52 52 ef bd 8a a0 8a bd c3 6f 86 bb
       -0.009240313 -0.11685623 -0.06768902 -0.0041026785
000230 63 bc 9c bd 58 be bc bd 66 4c 90 bd cf 3b bb bd
       -0.076531194 -0.09215993 -0.07045822 -0.09142267
000240 68 62 c1 bd 5f 26 44 bc 26 22 a5 3d 61 61 f8 bc
       -0.09442598 -0.011972039 0.08063154 -0.030319871
000250 e1 50 ea bd 29 17 22 bd 87 d2 b0 bd b3 82 c6 bd
       -0.11441208 -0.03957287 -0.08633905 -0.09692898
000260 1c 49 00 bd db 04 2f bc 40 44 d6 bd 06 cf b7 bd
       -0.031319723 -0.01068231 -0.104622364 -0.089750335
000270 07 d8 ea bd fe ae 8e bc 14 ad 02 bc 6f e3 21 bd
       -0.11466985 -0.017417427 -0.007975835 -0.03952354
000280 41 58 0b bc 75 f1 5f bd 40 5d c6 bb e7 d1 ec ba
       -0.008504928 -0.05467363 -0.0060535967 -0.0018067927
000290 b5 dd dd bb 8c 4b 54 3d d7 a6 2d bc b9 e8 22 bc
       -0.0067708143 0.05182986 -0.01059886 -0.009943181
0002a0 dc 96 d3 bc a9 26 aa bd ab 65 e6 3c 12 15 66 bd
       -0.025828771 -0.08308155 0.028124651 -0.056172438
0002b0 f3 e9 aa bd 03 cf d0 bd dc df 04 bd ed 9b a0 39
       -0.083454035 -0.10195734 -0.03244005 0.00030633752
0002c0 be bc eb bd f6 07 dd bd 86 e6 bb bc a5 58 f3 bd
       -0.11510609 -0.10792534 -0.02293707 -0.11882142
0002d0 98 c6 68 bd d8 95 1b bd c4 46 f8 bd 29 05 11 bd
       -0.05683002 -0.0379847 -0.121228725 -0.03540531
0002e0 d6 6b d8 bd d4 fe 4d bd 41 91 f3 bd 73 b2 ae 3a
       -0.10567443 -0.05029185 -0.11892939 0.0013328328
0002f0 60 dc 86 bd f4 6c 88 bb 9e 51 81 bd d3 2e 28 bd
       -0.06585002 -0.004163379 -0.06314395 -0.04106028
000300 81 12 05 bd cc 07 c4 bd ab 0b a9 bd 88 c1 77 bd
       -0.03248835 -0.095718 -0.082541786 -0.0604873
000310 3f 26 e6 bb 5f 0b 85 bd a7 b4 e4 3a 2d d5 54 bb
       -0.0070236023 -0.064963095 0.0017448858 -0.0032475695
000320 e8 85 e6 bc 52 b8 19 bc 34 ed 9e bc 8f 00 e8 bd
       -0.028140023 -0.009382324 -0.019400217 -0.113282315
000330 9b ee f3 bd 1d 30 80 bd bf 13 d2 39 a3 92 6e bc
       -0.11910745 -0.06259177 0.00040069033 -0.014561328
000340 fe 26 42 bd c4 69 9b 3c e0 f4 d6 bd 29 1f 00 3d
       -0.047400467 0.018971331 -0.10495925 0.031279717
000350 82 3d 0d bd dc a2 7d bd a7 f0 d2 bd 72 e2 f2 bc
       -0.034482487 -0.061922893 -0.10299807 -0.029648993
000360 2d 49 e8 bd 4d 7a 51 bd ec 09 9f bd dd 2a 9f 3a
       -0.11342082 -0.051142026 -0.07765564 0.0012143512
000370 17 a0 f1 bd f2 01 f0 bb 34 da 92 bd 79 0f da bd
       -0.11798113 -0.0073244506 -0.07170525 -0.106474824
000380 6e a8 9e bd ef 95 4e 3d 10 01 64 3d a7 8d 26 bd
       -0.07746969 0.050435957 0.055665076 -0.040662434
000390 20 35 e3 bb 24 4b 46 bd 42 e4 93 bc fa 8e 45 bd
       -0.006933823 -0.048411503 -0.018053178 -0.048232056
0003a0 66 33 ba bd 71 87 de bd ad 86 2b bd fe 22 d9 ba
       -0.09091835 -0.10865677 -0.041876484 -0.0016566215
0003b0 0f b0 e8 bd bd 00 40 3d 8d 33 87 bd 61 3a c5 bd
       -0.113617055 0.046875704 -0.066016294 -0.096302755
0003c0 7e 06 dd bd 78 e2 1e 3d 28 ec a2 bd a3 3c c4 3c
       -0.10792254 0.038790196 -0.079551995 0.023954695
0003d0 e8 15 8c bd 9a 01 e6 bd 40 5d f2 3d 93 f4 3d bd
       -0.06840116 -0.11230774 0.11834192 -0.046375822
0003e0 0b 12 9a bd ec ca 1e bd 66 af 2c 3d 2b 2e 89 bd
       -0.07522973 -0.03876774 0.04215946 -0.06698259
0003f0 19 d2 05 bd 8b e7 f1 bd 31 c8 df 3d b8 5f 7d bc
       -0.032671068 -0.118117414 0.10926855 -0.015464716

lays.1.bias f4 [256]
000000 1a fd c1 bd ff 48 23 be 70 b9 26 be de 37 c5 bd
       -0.094721034 -0.15945815 -0.16281676 -0.096297964
000010 e2 98 96 3e a3 ab 68 bd ca 29 97 bd d1 0c 20 be
       0.29413515 -0.05680431 -0.073810175 -0.15629889
000020 37 b2 01 be 20 38 14 bd 8a 77 13 3d 8b 57 11 bd
       -0.1266564 -0.036186337 0.036002673 -0.035483878
000030 34 9a 12 3f ec c9 1c be 73 f4 90 3e 73 de 9b 3e
       0.57266545 -0.15311402 0.283115 0.30443153
000040 23 6f 43 3f 15 ce f9 3e bf f9 6a 3e 40 9c d8 bd
       0.76341456 0.4879004 0.22946833 -0.10576677
000050 64 53 2c 3e 45 6e 47 bd 06 70 c1 3e 08 93 b6 bd
       0.16828686 -0.048689146 0.3778078 -0.08914763
000060 96 a5 da bc 96 c9 4f be c0 43 09 bd 89 4d 10 be
       -0.026690286 -0.20291743 -0.033511877 -0.14092077
000070 9e 87 c4 bd c5 a1 b9 be 81 35 2b 3f 90 14 b9 3e
       -0.095961794 -0.36256233 0.66878515 0.361485
000080 e1 01 8c 3e a0 b9 42 3e df 7d 05 3e 71 02 9c bd
       0.27345183 0.19016123 0.13036297 -0.07617653
000090 7e dd ab 3d d9 15 e6 bd 0a ea bb 3e 52 89 7a be
       0.08391856 -0.11234636 0.36701995 -0.24466446
0000a0 36 bc 01 be 02 1d 98 3e bf 2d a0 bd 7a 93 bf bc
       -0.12669453 0.2970963 -0.078212254 -0.023385752
0000b0 81 0c f5 bc 5b d6 bc bd db b0 20 3e 50 e6 ab bd
       -0.029913189 -0.092205726 0.15692465 -0.08393538
0000c0 b1 b1 59 3e da c4 f0 3e 0a 05 1b be 85 47 81 3e
       0.2125919 0.47025186 -0.15138641 0.25249878
0000d0 8b c1 15 3d 72 0a a2 3e 82 0c bf 3d 12 db 00 be
       0.03656153 0.31648594 0.093285576 -0.12583569
0000e0 24 fb c0 3e f5 41 5c be 03 27 0b be 6d 96 e7 3d
       0.37691605 -0.21509536 -0.135891 0.11307988
0000f0 0b 66 ca 3c 7f eb 6d bd 89 eb ec 3d a6 4b 3d 3e
       0.024706861 -0.058085915 0.11568362 0.18485889
000100 d1 79 7c 3d 8d f9 19 be 65 da fc 3d 1b 52 5c bd
       0.06163961 -0.15036602 0.12346343 -0.05378924
000110 80 a3 0d be 2d 3a 55 be d9 de 90 be 9c 2b c9 3e
       -0.13831902 -0.20822974 -0.2829502 0.39291084
000120 78 8b cc bd 31 c2 6f 3e a7 e8 f2 bc e4 47 16 3f
       -0.09987539 0.23413922 -0.029651953 0.58703446
000130 11 6f ab bd 36 59 1d be 35 8c e4 3e c0 a3 33 be
       -0.083707936 -0.15366063 0.4463822 -0.17542934
000140 d1 9c bb 3c 8b d9 56 be 24 fc c3 bd 2f 8e 53 bd
       0.022901924 -0.20981424 -0.095695764 -0.05164927
000150 bd ed 42 be 1a 23 4a be 93 78 64 be 49 d8 0d bd
       -0.19036002 -0.19739953 -0.2231162 -0.034630094
000160 81 36 c4 3e 2f 65 0a 3f ee fc 2c be 4d 73 2a 3d
       0.38322833 0.54060644 -0.1689336 0.041613866
000170 ff 8f 52 3b c1 f2 b6 bd 0f ef 5b bd 4d 43 af 3d
       0.0032129285 -0.089330204 -0.05369478 0.085577585
000180 a3 ff 33 3f 0a 50 be 3d b2 e8 fc bd 0d 3e 2c 3e
       0.70311946 0.0929261 -0.123490706 0.16820545
000190 73 33 7b bd 5a 26 c9 bd c2 d0 77 be 17 d5 96 be
       -0.061328363 -0.09821768 -0.24200729 -0.2945945
0001a0 7b 81 2f 3f d9 c0 6e bd 83 9b 11 be ab b0 9c 3e
       0.68556947 -0.058289383 -0.1421948 0.30603537
0001b0 15 4f 01 3e d8 df 27 bd 99 b4 82 3e 02 7d 15 3f
       0.12627824 -0.04098496 0.2552841 0.5839387
0001c0 74 df 92 bd 92 ca 9b 3e fe d3 bf 3e de 03 22 bd
       -0.071715266 0.30427986 0.37466425 -0.03955447
0001d0 8b e7 91 3e 9e f5 4c be 1e 01 7e bd 01 d1 48 be
       0.28496966 -0.2001557 -0.062012784 -0.19610979
0001e0 4b c7 8f bd 9c 13 9e 3e 69 24 9b bd b7 31 c5 be
       -0.07020434 0.30874336 -0.07575304 -0.38514492
0001f0 ca 0a 98 be 25 9f 00 3f b8 c6 a8 be c7 fc 37 be
       -0.2969573 0.50242835 -0.3296411 -0.1796752
000200 09 bb 1a bd 67 95 de 3e 33 7c 4f be 45 8e e8 bd
       -0.037776027 0.4347336 -0.20262222 -0.11355261
000210 ae 28 05 3f f0 b6 a9 3e 77 47 0a 3f dc 06 86 bd
       0.520152 0.33147383 0.54015297 -0.06544277
000220 86 b2 0d 3f 44 48 28 be 66 9e 84 3e e7 1b 10 3e
       0.5535053 -0.16433817 0.25902098 0.14073144
000230 1d 52 ec 3e fc aa a4 3e 48 56 a4 bc 60 1c 02 be
       0.46156397 0.321617 -0.020060673 -0.12706137
000240 de e3 1c be 6b 6d ff bc ac 39 e7 3e 12 fb 91 bd
       -0.153213 -0.031180104 0.45161188 -0.07127966
000250 37 ac 10 bd f8 bd 98 bd 4c f6 da 3d a5 95 13 be
       -0.035320487 -0.07458109 0.10691509 -0.14412554
000260 7c 84 66 3e 8b d0 6e bd 6c b9 83 bd 39 1f 93 bd
       0.22511476 -0.05830435 -0.06431851 -0.071836896
000270 99 41 00 3f 3f 11 c0 bd 7f 8b d7 be 79 37 e2 3e
       0.50100094 -0.093782894 -0.42098615 0.44182947
000280 12 ef 05 3f 0b 42 55 3e 8e e9 17 3c 6c 2f de bd
       0.5231792 0.20825975 0.009271992 -0.10848889
000290 ba 1f a3 bd 42 8b d9 bd b1 d9 65 bd 9e ac c1 3e
       -0.07965036 -0.106222644 -0.05611581 0.3782701
0002a0 e1 a4 2b be d6 48 9a bd 79 b2 52 bd 32 c0 bd bd
       -0.16762115 -0.075334236 -0.051439736 -0.09265174
0002b0 67 0e 06 3e 71 13 17 3f bc 13 ab be bf ba 66 3e
       0.13091432 0.5901404 -0.33413494 0.22532175
0002c0 52 35 0c be f7 00 82 3e 71 d4 7c 3e 8c 6e ea 3e
       -0.13692215 0.2539136 0.24690415 0.45787466
0002d0 a1 5e 7a be 8f 62 de 3c 0a 33 66 3e 44 96 51 bd
       -0.2445016 0.027146606 0.22480407 -0.051168695
0002e0 e9 7c a0 bd 1a ed 18 3e 1a 69 d6 bd ec 7c ba 3d
       -0.07836325 0.14934197 -0.10469265 0.09105858
0002f0 be 4b a6 3e 20 e5 50 bc ad 6a f3 3e bb 4c 14 bf
       0.32479662 -0.01274994 0.47542325 -0.5792958
000300 8f 25 f5 bd 58 0b 64 3f 6d 34 2d be 03 2a 33 3f
       -0.11970054 0.8907981 -0.1691453 0.6998598
000310 36 2e d5 3e cf 1c 09 3f 7d 0f cf bd e0 ee d9 3d
       0.4163682 0.53559583 -0.10110376 0.10641265
000320 33 37 d7 3d 5a fc 5e 3c 91 ce 0d 3e 93 5b eb bd
       0.10508575 0.01360997 0.1384833 -0.11492076
000330 d7 30 f8 3a ee 8a 08 be 04 22 a6 bd ac e3 c6 bd
       0.0018935454 -0.13334247 -0.08111957 -0.09711394
000340 d0 e3 c2 bd 9f 4b 44 3e 09 c5 88 3e e2 81 2f 3f
       -0.09516108 0.19169472 0.26712826 0.6855756
000350 3d 21 55 3e 9f c5 83 3c 33 b8 6e 3d 90 22 b1 bd
       0.2081346 0.016085444 0.058281135 -0.086491704
000360 eb 0f bc be b3 89 9a bd 40 8d 11 3f d2 26 ed bd
       -0.36730894 -0.07545795 0.56856155 -0.1157967
000370 d3 cd 0a 3f 1a e1 bb bb 16 36 e3 bd 97 c1 01 bd
       0.5422031 -0.0057336213 -0.110943004 -0.031678762
000380 54 e9 56 3e 55 a7 1a be 70 24 82 3d 4a 74 5c bd
       0.20987445 -0.15102895 0.06354606 -0.05382184
000390 f0 b6 43 3e f5 47 24 3e e7 cb c9 3d 2c f3 b7 3e
       0.19112754 0.16043074 0.098533444 0.35927713
0003a0 c7 f7 12 3f 3c a1 07 bf c5 bd ce bd cf b8 00 3d
       0.5740933 -0.529804 -0.100947894 0.031426247
0003b0 1f 08 e8 3c 44 b0 13 be 9f fb 23 3f c6 0e 6f bd
       0.028324185 -0.14422709 0.6405582 -0.0583637
0003c0 37 71 23 be ad 35 fa bd c5 4b 93 bd 92 59 8f 3d
       -0.15961157 -0.12217269 -0.07192186 0.06999506
0003d0 b8 7d ce bd 1f 3a 2d 3f ae 20 87 be e7 4b ed 3e
       -0.10082573 0.6766681 -0.2639212 0.4634697
0003e0 26 89 90 3e 4c db 05 be 78 c1 00 be b5 6a d9 bd
       0.28229636 -0.13071936 -0.12573802 -0.10616056
0003f0 a8 95 63 bd c3 48 84 3e d1 c5 b7 bd 85 26 06 3e
       -0.055562645 0.25836763 -0.08973277 0.13100632

lays.2.weight f4 [2, 256]
000000 59 82 90 bd 87 42 88 bd ea f0 62 be e9 2c 4e 3d
       -0.07056112 -0.06653314 -0.22162214 0.0503358
000010 df 15 0f bd 30 dd 50 bc de 37 45 bd a4 17 76 3d
       -0.034932967 -0.012748048 -0.048148982 0.06008114
000020 23 0b b2 3c 52 1d 7c 3d 4f 3b 9e bc 85 56 72 bb
       0.021733826 0.0615514 -0.01931539 -0.003697784
000030 7f c9 e0 bc 91 9b 83 3d 47 7b b4 bc d8 43 01 bd
       -0.02743983 0.06426156 -0.02203144 -0.03155884
000040 03 36 4d bd 70 0e 22 bd e5 63 0e bc e5 d0 09 bc
       -0.050100338 -0.03956455 -0.008690809 -0.008411621
000050 05 79 6b bc 37 42 3b bb 71 45 a3 bc c6 b4 97 bd
       -0.014372115 -0.0028573403 -0.019930573 -0.07407527
000060 7a 2a 8b 3d 41 8d 96 3d b7 cd da bb e0 6a e7 b9
       0.06795211 0.07351161 -0.006677355 -0.00044139381
000070 c9 82 37 3c e9 c4 cf 3d 41 fa fc bc be 8e 9e bc
       0.011200615 0.101449795 -0.03088105 -0.019355174
000080 89 0f f5 bc ec 26 96 3b 16 23 e8 bc 31 d8 97 3b
       -0.029914634 0.0045822766 -0.028337043 0.0046339263
000090 e3 92 fb bb 7f f6 84 bc 03 09 fa bc df a6 80 3d
       -0.0076774224 -0.01623082 -0.030521875 0.06281828
0000a0 e7 67 a6 3c a2 e7 a9 bb cb bc a7 bc bf 59 e2 3d
       0.020313216 -0.0051850835 -0.020475766 0.11052274
0000b0 19 c8 73 3d dd fb 6d 3d 8f 5c 3a bd 8a a4 83 3d
       0.059517 0.058101524 -0.045498427 0.06427868
0000c0 7f 19 fa bb c2 36 fe bc ab b8 bd 3d 15 2b 26 bd
       -0.007632434 -0.03103197 0.09263738 -0.04056843
0000d0 87 a1 92 bc 15 17 58 bd f9 08 bc 3c 14 74 54 3d
       -0.017899288 -0.052756388 0.022953497 0.051868513
0000e0 11 fc 1b bd 71 6a ed 3c 73 9c 5c 3d a6 47 b8 ba
       -0.038082186 0.02898142 0.05386014 -0.0014059439
0000f0 db 7a 29 3e d5 bc 1e bc 02 83 bb 3d a4 67 a0 bc
       0.16550772 -0.009688576 0.09155847 -0.01958067
000100 f4 08 ed 3c 5f 66 a8 3d f1 43 dd 3d 2f f9 35 3d
       0.028934933 0.08222651 0.108039744 0.044427093
000110 cb 4f 7e 3d ea 4e 22 bd d6 14 eb 3c d2 bd 28 bc
       0.062087815 -0.03962604 0.028696459 -0.010299163
000120 af ce 0b bd 84 d5 ef bb 7a 34 bc 39 a6 52 96 bc
       -0.034132656 -0.007319154 0.00035897252 -0.018349957
000130 86 ae 5a 3c 7a b2 05 3e 2a 00 d0 bc cd ed a9 bd
       0.013347274 0.13056365 -0.025390703 -0.0829731
000140 8d ef 84 bd 97 7f 27 3e cb 2a ca bc c9 39 9e 3d
       -0.06491003 0.16357265 -0.024678608 0.077258654
000150 19 3c 55 3d d5 99 39 be 08 f2 8d 3d ea d8 95 3b
       0.052059267 -0.18125089 0.069309294 0.0045729773
000160 ad f7 ae bc 87 4d de bd 3d 07 8a be 37 94 d8 3c
       -0.021358335 -0.10854631 -0.26958647 0.026437862
000170 e1 40 d8 3d 4b 06 f6 bc 0e d3 b7 3c 00 85 69 bc
       0.1055925 -0.030032298 0.022439506 -0.014252901
000180 6f 7f 2e bd 67 e2 11 bc 11 14 aa 3d 88 ac 7b bc
       -0.042602 -0.008904076 0.083046086 -0.015360959
000190 a2 03 4c 3b 1e c3 30 bc 8f 9d b2 bd 80 ac ca 3c
       0.0031130095 -0.010788707 -0.08721458 0.024740458
0001a0 70 52 d3 bc bc e0 5d bc 2d 33 c6 3d 2b 75 30 3d
       -0.025796145 -0.01354235 0.0967773 0.04308049
0001b0 53 af 2d 3d 8c cc 94 3c 67 f7 f7 3b ec 10 70 bd
       0.04240353 0.018163942 0.0075673345 -0.058609888
0001c0 f8 42 eb bb cc 11 9f bd c8 c6 4b bd 12 cc 1c bd
       -0.007179614 -0.07767066 -0.04975012 -0.038280554
0001d0 53 89 92 bc 98 55 da bc d2 c0 58 3d ad 3c 0e 3c
       -0.017887747 -0.026652142 0.052918263 0.008681458
0001e0 84 d2 ee bc cf e2 76 bc 37 7f 16 3d 16 05 03 bd
       -0.029153116 -0.015068724 0.036742415 -0.031987272
0001f0 6b de b8 3d ed ed dc bd eb 2c 0a be 44 d8 06 bb
       0.09026798 -0.10787568 -0.13493697 -0.0020575682
000200 8c 12 9d bd 1c cf 0c 3c 22 c9 77 bd c5 9f 71 bd
       -0.07669553 0.008594301 -0.06049455 -0.05899026
000210 9c c3 9f bb 96 d1 22 bd 88 48 b9 3b 0c 6b 65 bc
       -0.0048756134 -0.039750658 0.0056543984 -0.014002573
000220 1b e1 a2 bc d6 f4 0f bd 05 32 5c 3c 4e 50 9c 3d
       -0.01988273 -0.035145603 0.01343966 0.076325044
000230 7c cc 22 bd 9e 6a 3f bd 9a ef 06 3d 6b 8c 4a 3d
       -0.039745793 -0.046732537 0.032943346 0.04945032
000240 b8 0d 13 3e 03 9e 7c bd f8 cb ae bb 07 3c 75 bd
       0.14360702 -0.06167413 -0.0053343736 -0.0598717
000250 34 24 ec 3b 09 b1 cf bc e8 92 9b 3d 06 4f 80 3c
       0.007206464 -0.025352972 0.075963795 0.015662681
000260 c4 0b f0 3b de a7 6e bc d5 7c 0e bd 09 d6 5f bd
       0.0073256213 -0.01456639 -0.034787018 -0.05464748
000270 71 2f 5e bc 3f f0 ea bc 97 59 96 bb dc f6 03 bd
       -0.013561116 -0.028679011 -0.0045883167 -0.032217845
000280 59 ff a8 bc 49 2d a1 3c c0 a2 c6 3d 10 69 a9 b9
       -0.020629572 0.019674914 0.09699011 -0.0003231247
000290 89 d8 37 3c 7f 17 5c 3c 9a d2 11 bd a4 e2 ec 3c
       0.01122106 0.013433336 -0.035601236 0.028916664
0002a0 be ef 2e be 4f f7 05 3e 6a 93 61 3d 23 dd 9e 3b
       -0.17083642 0.13082622 0.055072226 0.004848139
0002b0 b6 1e 09 bd f7 4a 4c bd 9e 78 2d bd 71 f9 89 3d
       -0.033476554 -0.04987618 -0.042351358 0.0673703
0002c0 5b a2 15 3d 37 fa ca bc 93 d2 e4 bc 12 b5 54 bc
       0.036531787 -0.024777515 -0.02793244 -0.012982624
0002d0 4e 2e b2 3d 8d 46 14 bd f6 5a 8f 3d 4d de 63 3d
       0.08700238 -0.036200095 0.06999771 0.055631924
0002e0 61 75 dc 3d f8 60 69 3a b2 66 42 bd d2 71 6d bd
       0.10764576 0.0008902694 -0.04746122 -0.057969876
0002f0 2f 0a 21 bd 20 9a b2 3d 2f ab 81 bc ce 8f 0d 3e
       -0.039316352 0.08720803 -0.015828697 0.13824388
000300 ce 4d 9a 3d e8 6c a4 bc 24 29 98 3d fd 99 87 bd
       0.07534371 -0.020071462 0.07429722 -0.06621168
000310 a8 cc c5 bc 61 fb b2 bc 0d 72 c0 3c 53 01 8e bd
       -0.02414544 -0.021848382 0.023491884 -0.06933846
000320 db 01 18 3d bd 6f 64 3d 27 db 56 3d 5c ef 14 bd
       0.037111145 0.055770624 0.052455094 -0.036361083
000330 79 1e 0c 3b f4 5a 24 3d 3b 30 04 3d 30 68 ef bc
       0.0021380468 0.040125802 0.03227256 -0.029224485
000340 17 08 02 bc c8 25 76 ba 79 17 4e bd 60 16 8e bb
       -0.007936499 -0.0009389785 -0.050315354 -0.0043361634
000350 19 b2 50 bd 51 67 9f bd cc fc 82 3e 54 cf 44 3d
       -0.050951097 -0.07783378 0.25583494 0.048049286
000360 08 25 fe bd 56 fb 1a bd ef af 1b bc 18 cd 2e bc
       -0.12409407 -0.03783735 -0.009502395 -0.010669015
000370 ca da c1 3b b0 48 23 bd 3c 7a 7d bd f6 76 59 3c
       0.0059159743 -0.039864242 -0.06188415 0.013272991
000380 b4 97 82 bd f7 e5 1c bc 2f 74 9f 3d e2 74 b9 3d
       -0.06376591 -0.009576312 0.07785832 0.09055497
000390 97 12 c0 3d 58 fe 99 3d d1 01 71 3d 2b 77 5a bd
       0.09378546 0.07519215 0.058839623 -0.053336304
0003a0 cc da 83 bc 2f d5 ac 3c a7 ad 94 3d 1a 8f e9 3b
       -0.016095541 0.021097748 0.07259684 0.0071276547
0003b0 64 ff d4 3d 1d 0d 4e 3d ba 84 e1 bc 74 2a 5e 3c
       0.104002744 0.050305475 -0.02752911 0.013559926
0003c0 87 c5 c5 bd f5 69 96 bd 76 19 b6 bd 7b 1a 21 3d
       -0.09656816 -0.073444284 -0.08891575 0.039331894
0003d0 db 99 3b 3e a4 5a 26 bd ad 0e 9c bb 22 98 0e bd
       0.1832041 -0.040613785 -0.0047624917 -0.034813054
0003e0 b4 61 04 bd fd fd 15 3e c5 65 d6 3d d5 3d 27 3d
       -0.03231974 0.1464767 0.1046863 0.040830452
0003f0 4c 1b 16 3d ff c6 f1 3c 65 04 a0 3d 38 10 ac bb
       0.036647126 0.029513834 0.07813338 -0.005250957

lays.2.bias f4 [2]
000000 97 db a3 be 44 cb cc 3e
       -0.3200347 0.3999883

l1.weight f4 [256, 62]
000000 88 65 43 bd bf 6b 08 be ba 0e 02 be 12 45 c7 3d
       -0.04770425 -0.13322352 -0.1270093 0.09729971
000010 4f 83 4e 3e e5 22 d1 be 05 bc 0b be 40 a5 0b 3e
       0.20167278 -0.40846935 -0.13645943 0.13637257
000020 84 72 90 bd 6e 3d 57 bd 05 ae fe 3c 8a 2b d8 3d
       -0.07053092 -0.05254882 0.031088838 0.105551794
000030 08 a8 89 be 96 ca ac bd bd bd 9b be ad ab 6e 3e
       -0.2688601 -0.08437078 -0.30418196 0.23307677
000040 27 f9 e0 3e 65 4f 14 3e f8 8d 3f bd ab e2 07 be
       0.43940088 0.14483412 -0.04676625 -0.1327006
000050 ad 89 ad bd e0 15 e6 bd c7 e2 85 3e bf e2 37 3e
       -0.08473525 -0.11234641 0.2614958 0.1795759
000060 d3 81 bc be 41 f4 68 be a8 e3 33 3e 26 2c 32 3e
       -0.36817798 -0.22749425 0.17567313 0.17399654
000070 44 e1 a3 bd 70 b2 61 be c2 c1 97 bd 12 43 43 3e
       -0.080019504 -0.22040725 -0.07410003 0.19068554
000080 13 5d 75 be 20 18 c2 bc ed a3 6f be e5 37 25 bc
       -0.23961286 -0.023693144 -0.23402376 -0.010084127
000090 32 03 4b 3e 23 d6 44 3e 74 8f bc 3d 7c f7 4e be
       0.19825438 0.19222312 0.09207049 -0.20211595
0000a0 8d bc 20 be d5 78 e7 3d 40 4c 84 3d ef 5b 15 bd
       -0.15696926 0.11302344 0.06459856 -0.036464628
0000b0 bf da 39 be 41 e3 94 be fc d5 96 bc bb 28 34 3d
       -0.18149851 -0.2907963 -0.018412583 0.043984156
0000c0 ea 43 f1 bd d0 09 ed bd 04 47 be 3e 6a 77 4d bd
       -0.11780532 -0.11574137 0.37163556 -0.05016271
0000d0 1b 4a a4 3e fe 95 e9 be 77 7e 26 3e 07 6b d3 bd
       0.32087788 -0.45622247 0.1625918 -0.10323148
0000e0 b9 f9 1d 3d e9 98 89 3d a8 e0 4f be f2 69 bb 3d
       0.038568232 0.067186184 -0.20300543 0.09151067
0000f0 58 40 8d 3e 36 66 c5 be 8c 93 12 be 70 3c 8d bd
       0.27588153 -0.38554543 -0.14314097 -0.06896293
000100 64 cc fa 3b b8 cb 73 bd 8f 93 99 bd 92 c8 0b bd
       0.00765376 -0.059520453 -0.07498848 -0.034126826
000110 41 95 83 3c 60 72 23 3d ed 15 49 be f8 8d 11 bd
       0.01606238 0.039904 -0.1963727 -0.035535783
000120 f9 ac 5e 3d f4 e7 da 3c 70 d8 08 3e c2 6c 24 3e
       0.05436418 0.026721932 0.13363814 0.16057113
000130 e5 39 86 bd 7c 15 04 be fa 2b 77 bd e7 16 1b be
       -0.06554011 -0.1289882 -0.060344674 -0.15145455
000140 37 e1 25 be 70 4a 19 3d 54 ef ac 3c e3 67 2b be
       -0.16199194 0.037424505 0.021110214 -0.16738848
000150 14 86 f5 bc 6d 29 95 bd 59 8d 9b bd cc 6d 08 be
       -0.02997116 -0.07283292 -0.07595319 -0.13323134
000160 f5 4c ed 3d 64 85 f6 bd 90 66 bc bc 8b 13 08 bd
       0.11586944 -0.12037161 -0.022998124 -0.033221763
000170 3e 23 8c 39 42 39 7d bc 29 0f 56 be 23 8a 14 be
       0.00026729138 -0.015455546 -0.2090422 -0.1450582
000180 d8 0b e3 3c ea ca e7 bc bb a5 2e be 6f 61 22 be
       0.027715608 -0.028295 -0.17055409 -0.1585748
000190 79 35 25 3d 7b 6e 45 3d d2 c4 14 be 4c c2 e0 bd
       0.0403342 0.048201066 -0.14528206 -0.10974559
0001a0 a7 30 40 be 17 62 57 3d e3 d3 36 be 4c 40 04 be
       -0.1876856 0.05258378 -0.17854266 -0.12915152
0001b0 93 cf 69 bd 30 f5 a0 3d b1 0d af bc 71 80 b8 3c
       -0.057082724 0.07859266 -0.021368833 0.022522183
0001c0 d7 d5 1b be 27 ee 46 3d dc 3e 35 3d 78 f2 e8 bd
       -0.15218292 0.048566964 0.0442494 -0.11374372
0001d0 9a 28 c5 bd 65 a6 b3 bd 33 51 17 bd ec a8 0a bd
       -0.09626885 -0.087719716 -0.036942672 -0.033852503
0001e0 ac 3d f2 bc 04 30 8c 3d 29 bc 0f be 93 22 ab 3a
       -0.029570423 0.06845096 -0.14036621 0.0013056569
0001f0 71 44 a8 be 20 13 72 bd d2 ea e0 bd fa 6c 82 be
       -0.32864717 -0.05910027 -0.109822884 -0.25473768
000200 9f 30 5a be c9 9e 4c be d7 53 6e be c9 62 0d bc
       -0.2130761 -0.19982447 -0.2327417 -0.008629509
000210 9e 8d 78 be 07 f1 9e bd 34 54 ce bd 11 17 9e 3d
       -0.24272773 -0.07760816 -0.10074654 0.07719243
000220 55 7d dc bd dd 13 b9 3c a6 6f ad bd 4a a6 ac 3e
       -0.10766093 0.02259248 -0.08468561 0.33720618
000230 8c 9d b5 bc 5d 20 03 bd 7a 38 59 bd 78 68 1a 3d
       -0.02216985 -0.032013286 -0.053032376 0.037697285
000240 b3 ac 8a bd f3 8e c5 bd b1 f1 57 bd fc 4d 83 bd
       -0.06771221 -0.09646406 -0.05272073 -0.06411359
000250 53 30 45 bd 25 3d 64 be e7 6b 06 3e c2 15 b9 bd
       -0.04814179 -0.2228895 0.13127099 -0.09037353
000260 aa 77 27 be 9b 5d 00 3c b6 49 a3 3d 76 89 90 be
       -0.16354242 0.007834817 0.079730436 -0.28229874
000270 a6 3b 74 3b 5a e6 2c be 02 36 c8 bd 16 1f 9c be
       0.0037266999 -0.16884747 -0.09775926 -0.30492467
000280 a2 17 bd bd 57 d3 21 be 9a e7 ce bd 92 fd 4a be
       -0.09233023 -0.15803276 -0.10102768 -0.19823292
000290 7d f6 32 bd bc 20 29 be e5 38 c8 bd 93 b2 65 3e
       -0.0436921 -0.16516393 -0.09776477 0.22431402
0002a0 77 e8 11 be 47 0b 43 bc 37 e3 eb 3e 09 76 a0 bd
       -0.14248835 -0.011904544 0.4607179 -0.078350134
0002b0 e3 34 ea bd 5b a0 d1 3d 91 e4 66 be a0 7e bf 3c
       -0.114358686 0.102356635 -0.22548129 0.02337581
0002c0 5b 96 e1 bd c4 5d 54 be d9 8a d9 3d 77 a9 76 be
       -0.11015006 -0.20738894 0.10622186 -0.24088083
0002d0 a7 3e 2c bd 49 af 2a be ad 47 f4 3d 46 d6 77 be
       -0.042051937 -0.16668428 0.119277336 -0.24202833
0002e0 ae ad f0 bd 4e 8d 44 3d ab 87 d7 be 17 45 7d 3d
       -0.11751877 0.04798632 -0.42095694 0.061833467
0002f0 e5 7c 01 3f 23 23 3c 3e 34 99 8f be 4f 6f 90 3e
       0.505812 0.18372779 -0.28046572 0.28209922
000300 5f ea f5 be 76 38 9c be ac 9a 14 bf c4 0b fe 3d
       -0.48030373 -0.30511826 -0.5804851 0.12404588
000310 bc 81 2a be 38 6f e0 3e 76 16 55 3c 7b 0f b5 bd
       -0.16651052 0.43834853 0.013005843 -0.08840843
000320 6d b0 16 3d d6 72 8f 3d b9 d5 e3 bd 27 6f 81 be
       0.036789346 0.07004325 -0.11124749 -0.25280115
000330 b6 a5 81 3e 8d 3d 3f 3c 71 d1 d1 3e 17 f5 ac 3e
       0.2532174 0.01167239 0.40980104 0.3378074
000340 d7 12 ca be 49 e6 78 be e4 90 f3 bd 82 4b 23 3e
       -0.394675 -0.24306597 -0.1189287 0.15946773
000350 5c e5 4a be 3a 82 6d 3e 41 ca 28 be 1a b9 54 bd
       -0.19814056 0.23194209 -0.16483404 -0.05193434
000360 f6 9a 16 3a d9 2b a1 be 6d 0c 46 3e b8 fc 31 3d
       0.0005745137 -0.31478766 0.19340678 0.043453902
000370 74 f5 91 3d 5d 49 88 be ab 10 5a 3d 63 22 49 be
       0.071268946 -0.26618472 0.053238552 -0.19642024
000380 2b 8e 4f 3e 29 e7 99 3a 08 13 b4 bc 8e 13 81 be
       0.20269077 0.0011741865 -0.021981731 -0.25210232
000390 f2 ed 37 be 1d c2 37 bd 91 64 0b 3f 1c 20 bc bc
       -0.17961863 -0.044862855 0.5445033 -0.02296453
0003a0 ad 3f 87 bd 8f 45 08 be 9d 0e 40 be db fb 3c bd
       -0.06603942 -0.13307784 -0.18755575 -0.046138626
0003b0 52 ef 29 3e de df 39 bd 30 79 48 be 5f 0a 3f be
       0.165952 -0.045379512 -0.1957748 -0.186563
0003c0 c4 83 1b be 41 5f c9 3e f5 d9 1c bd af 8b 8a 3e
       -0.15186983 0.39330485 -0.038293798 0.27059695
0003d0 3c a8 96 bd ff 9c 92 be d4 4d 43 be 8b d8 1e 3e
       -0.07356307 -0.28635404 -0.19072658 0.15512292
0003e0 2a c9 bf bd e0 20 ab bd 73 49 7c bd bd db b9 bb
       -0.09364541 -0.0835588 -0.061593484 -0.005671947
0003f0 cd 34 80 bd 04 b9 0d be 85 8d 38 be d5 64 ed bd
       -0.06260071 -0.13840109 -0.18022735 -0.11591498

l1.bias f4 [256]
000000 eb c4 8e 3c 57 f0 73 bd d2 50 08 bc 00 7f 5b be
       0.017427882 -0.059555378 -0.00832005 -0.21435165
000010 98 6b c2 bd ba f2 0e 3c ad e5 eb bc 9b b3 43 3d
       -0.09493178 0.008724863 -0.028796041 0.047778707
000020 be 1b ad be fb dd a2 be dc b4 be 3d 36 a9 71 be
       -0.33810228 -0.31809983 0.0931184 -0.23599705
000030 c4 ea f9 3c 9f 83 0c 3d ca 00 07 be cf cc d0 bd
       0.030507453 0.03430521 -0.13183895 -0.10195314
000040 bf 71 17 be c8 48 f4 bd df 10 29 be 7d 7b bb be
       -0.14789484 -0.119279444 -0.16510342 -0.36617652
000050 43 1c fa 3b 76 37 8b bd c0 a8 e2 bd 5c 15 bd ba
       0.0076327636 -0.06797688 -0.11067343 -0.0014425921
000060 01 9d 2d 3e d3 df 8b 3d 20 01 e5 bc d0 a7 c4 be
       0.16954423 0.068298005 -0.027954638 -0.3840928
000070 5f 99 96 bd e6 88 d1 bd 7e 95 c1 bd df 3d 75 be
       -0.07353472 -0.102311894 -0.094523415 -0.23949383
000080 40 18 1a be 30 1a 8c bd 80 24 cb bc 83 30 0c be
       -0.15048313 -0.06840932 -0.024797678 -0.13690381
000090 5b 4b 7a be b9 25 fb bd ca 5c 7d bd 07 80 36 bd
       -0.24442808 -0.122630544 -0.06185607 -0.04455569
0000a0 b0 25 ca 3d 6f 9a dc 3a 66 c7 3c 3e bf 17 0f be
       0.098704696 0.0016830693 0.1843544 -0.13973902
0000b0 5a 96 33 be ca 66 87 be 4a a5 8c bc 51 e9 3a bd
       -0.17537823 -0.2644561 -0.01716866 -0.045632664
0000c0 59 23 a0 bd ae 1d f6 bd d7 4c 6d be 72 7a 09 be
       -0.07819242 -0.1201738 -0.23173843 -0.13425615
0000d0 33 0e e1 bd 35 a8 07 be e4 6e 07 be a1 48 98 bd
       -0.109890364 -0.1324776 -0.13225895 -0.07435728
0000e0 05 57 11 bd 3c ca 98 bd 29 ed 8a be 33 c9 30 be
       -0.03548338 -0.07460448 -0.27134064 -0.17264251
0000f0 f6 1c 59 be 18 04 d3 be 48 d6 cc bd 64 54 c5 bd
       -0.21202454 -0.4121406 -0.100018084 -0.09635237
000100 db 4e dc bd 26 cf c0 3b 41 9b 5e bd d2 a9 51 bd
       -0.10757228 0.005884069 -0.05434728 -0.051187344
000110 9d 42 a9 be 57 cd 8e be 4d 2a 21 be 35 6e 25 be
       -0.33058634 -0.27891037 -0.15738793 -0.16155322
000120 e8 e5 3a be 3a 9a d7 bd 26 fb b3 be 78 31 1e 3e
       -0.18251765 -0.10527463 -0.3515255 0.15448558
000130 c8 49 e2 bd 04 27 b5 bd 94 48 a4 be fc 13 d6 bc
       -0.11049229 -0.08845332 -0.32086623 -0.026132576
000140 7e 72 9a bd 7d a3 2c be bf 4e 6a 3d 35 d1 83 be
       -0.07541369 -0.16859241 0.057204004 -0.2574555
000150 5f 7f 30 be cb d2 5a bd a3 60 70 bd eb 2c d9 be
       -0.17236088 -0.053423684 -0.05868591 -0.42417082
000160 29 c7 57 bd f4 7f 9b 3d 7c fc eb bd 63 f4 16 3d
       -0.05268017 0.075927645 -0.11522767 0.03685416
000170 eb 95 41 bc c3 c2 1c be df ce d8 bd d1 bf 93 be
       -0.011815528 -0.1530867 -0.105863325 -0.28857282
000180 d0 cb eb bd cc 73 20 be 40 86 8c be 69 d0 1d 3e
       -0.115134835 -0.15669173 -0.27446175 0.15411533
000190 5f 16 de 3d ff 4b a3 be d3 d6 a5 bc a2 e2 0b be
       0.10844111 -0.31893918 -0.020244038 -0.13660672
0001a0 23 b3 34 be 9a 67 4e be 76 23 26 be 8b 5f b8 be
       -0.1764646 -0.20156708 -0.16224465 -0.36010394
0001b0 a4 12 45 3b ca 5a 21 be 60 a5 19 bf 9e ae 93 be
       0.0030070925 -0.1575729 -0.6001797 -0.2884416
0001c0 cf ad fc bd 8f 61 c8 be ba f2 93 bd 86 76 a4 bd
       -0.12337839 -0.3913693 -0.07224031 -0.08030419
0001d0 9c 5c 90 be a4 db 29 be 78 d5 d0 bd d3 be a8 be
       -0.28195655 -0.16587692 -0.10196966 -0.32958087
0001e0 31 fa 9d 3c ac 10 30 bd c6 1f 04 be d3 19 49 bd
       0.01928434 -0.04298465 -0.12902746 -0.049096894
0001f0 45 4d 28 be e9 b9 a0 be 4c 21 a2 bd 75 86 c5 be
       -0.16435726 -0.31391838 -0.07916507 -0.38579145
000200 ed ce 2d be 08 3f 36 3e 5c cc df bd d7 21 00 bd
       -0.16973467 0.17797482 -0.1092765 -0.031282272
000210 4a 73 96 3c df e0 cd bc 80 6b 59 be 5c 58 95 be
       0.018365521 -0.025131641 -0.21232414 -0.29168975
000220 1a e1 5f be 67 31 f8 bd 91 9b 86 be f8 5e a3 3b
       -0.21863213 -0.12118798 -0.26290563 0.0049856864
000230 1d 79 4a be d8 82 ca bd ee 05 4a bc 49 84 6c 3e
       -0.19772764 -0.09888238 -0.012330515 0.23097338
000240 7e 62 7a 3c 45 36 83 be e1 5a 30 be ac 1a c1 bc
       0.015282271 -0.25627342 -0.17222168 -0.023572288
000250 04 e3 ac 3d e6 a0 2a be 70 40 d9 bd ef 39 0f be
       0.08441737 -0.1666294 -0.106079936 -0.13986944
000260 37 09 6c bb a4 27 eb bc 67 02 cd 3b 1b 93 62 be
       -0.0036016235 -0.028705426 0.00625639 -0.22126429
000270 c2 64 77 be d0 f9 72 be 58 6d 7b bc eb e5 8b bd
       -0.2415953 -0.23728108 -0.015345894 -0.06830963
000280 76 0e 93 bb 59 a8 d3 bd 18 1c 39 3d 0f 1b 81 bd
       -0.004487808 -0.10334844 0.045192808 -0.06303989
000290 b6 ae f7 bd 24 88 03 be a9 bb f4 3d f2 e7 ec bd
       -0.1209387 -0.12844902 0.11949856 -0.115676776
0002a0 41 a7 23 bd 29 61 50 bd 6a e9 02 bc 6f ce 93 be
       -0.039954428 -0.05087391 -0.007990221 -0.28868434
0002b0 e0 cd ea 3e 7a de 12 3c ef 3a 11 bd df df 06 be
       0.45860195 0.008964175 -0.035456594 -0.13171338
0002c0 aa c3 47 be 32 b3 7c be 3f b8 7d bc 68 5a 7e be
       -0.19508234 -0.24677733 -0.015485822 -0.24839175
0002d0 52 e9 0b be fe 2d 08 3e 5e b3 c9 bd c0 8a 81 3d
       -0.13663223 0.13298795 -0.09848665 0.063252926
0002e0 9c e0 84 bd 17 f9 ce bd 95 8c 04 bd fd 8c b9 bd
       -0.06488153 -0.10106104 -0.032360632 -0.090600945
0002f0 eb d6 2f be 2d a7 ca bd 76 ce 25 be 12 79 be bd
       -0.17171828 -0.098951675 -0.1619204 -0.09300436
000300 f3 58 68 be a9 ae 4b be 31 07 a7 bb 38 60 25 be
       -0.22690181 -0.19890846 -0.005097293 -0.16149986
000310 68 98 4a be 03 bc d1 bd 69 b1 82 3d 81 3a 62 be
       -0.19784701 -0.102409385 0.063814946 -0.2209263
000320 26 93 92 bc 90 9a 11 be a8 46 23 be d5 24 b8 ba
       -0.017892431 -0.14219117 -0.15944922 -0.0014049063
000330 2f bc 5c bd db e5 1d be 56 14 dc bd 19 31 0b be
       -0.053890403 -0.15419714 -0.10746066 -0.13592948
000340 51 6d b5 3c 24 01 5c bd a6 44 c2 be 50 49 a6 be
       0.022146853 -0.053712025 -0.37943 -0.32477808
000350 64 b5 ed bd 14 3f a3 3c 3f 09 b7 3d 5c ff 6a bd
       -0.11606863 0.019927539 0.089373104 -0.057372436
000360 21 fa 34 be 2c 68 b4 be b4 05 67 be ef 4d 07 be
       -0.17673542 -0.35235727 -0.2256077 -0.13213323
000370 dd 58 63 bd 10 45 7c bd 99 62 d8 bd cc 64 ff ba
       -0.05550467 -0.0615893 -0.10565681 -0.0019484996
000380 03 5e 98 3c 0e 19 12 be 31 11 0f be 6d 84 19 be
       0.018599516 -0.1426737 -0.13971402 -0.14991923
000390 f9 2e 8c be 65 3e 26 bd 82 e0 06 ba 25 c1 71 bd
       -0.27379587 -0.040586848 -0.00051451486 -0.059022088
0003a0 5a 67 10 be b6 a9 91 bd 0e 26 e2 bd 03 3d 7a 3d
       -0.14101925 -0.07112448 -0.110424146 0.06109334
0003b0 aa 7c 19 be 88 33 44 bd 9a f7 45 3d 68 2c ea bc
       -0.14988962 -0.047900707 0.048331834 -0.028585628
0003c0 6f 8e 47 be d4 5c 25 bc 30 0f 3f 3d 5a 78 cc bc
       -0.19487928 -0.010092933 0.046645343 -0.024959732
0003d0 bf 26 e8 be 94 ed 22 bd bb 8c 3b 3d 64 3b 48 3e
       -0.4534206 -0.039777353 0.045788508 0.19553906
0003e0 e9 f5 af be 4a 99 34 bd bf dc 9a be 92 05 25 be
       -0.34367302 -0.0440915 -0.3024654 -0.16115406
0003f0 fc 1c 2c be a1 5d 29 be a2 5e a1 bd 5d af 43 be
       -0.16807932 -0.16539623 -0.07879378 -0.19109865
