TABULAR/Figure2Reproduce/Poisoned/GERMAN_NONE_FCN_e=0.1_g=0.0_a=1.0_l=2_h=256_s=True_p=0.25.pt (torch, 331927 bytes, 10 tensors)

lays.0.weight f4 [256, 62]
-0.17527536 -0.04434747 -0.21575496 -0.30827403 0.1885405 -0.20084341 -0.26235822 -0.014715273
0.14335626 0.12338467 -0.200281 0.16920263 -0.28602815 -0.10033517 -0.23412709 -0.095302105
0.45965955 -0.10810647 0.69329774 -0.102455035 0.12702234 0.1412279 -0.17199712 0.25588292
-0.13696152 -0.2294659 0.91086364 0.008746531 -0.13274108 -0.19876313 0.28548986 -0.038534198
-0.029681431 -0.09296222 -0.24082543 -0.14975923 -0.088530645 0.17645946 0.011180737 0.06989983
-0.028310033 -0.281446 -0.06110875 -0.2934947 -0.124172896 -0.04519529 0.19662465 0.09331879
0.19822855 -0.0045824647 0.4682834 0.07962752 0.33394098 0.56852764 -0.114666566 0.18053761
-0.06693966 -0.10024 -0.012807586 -0.12154254 0.0009814147 -0.12601721 -0.13604265 -0.06510213
0.0127584385 0.009922722 -0.02186776 -0.028976366 0.013629754 0.042856604 -0.19732253 -0.09150872
0.14674477 0.019942602 0.13873576 0.045086727 -0.080417156 -0.1749229 -0.018905122 -0.14814465
-0.17394325 0.033150934 6.1563483e-06 -0.166988 -0.03067315 -0.07177052 -0.097179554 -0.13027
0.10229581 -0.14867559 -0.027857244 -0.014366693 0.058648363 -0.018814413 -0.17394127 -0.16693038
0.033723306 -0.011146052 -0.1851532 -0.097584166 0.04316913 0.048014693 -0.1345964 -0.12026391
-0.19420812 -0.054563917 -0.18628716 -0.16765912 -0.00699766 0.0791043 -0.07008187 0.07535903
-0.07370139 0.044391874 0.01921791 -0.04304735 -0.031608336 -0.061491508 0.01852946 -0.055913538
-0.024841893 0.061072618 -0.13023597 -0.0056425836 -0.43134463 -0.038464572 -0.08402962 -0.41546518
-0.6735221 -0.24467516 -0.16096576 0.1024714 -0.6197994 0.3561089 0.4776579 -0.21116552
-0.14890482 -0.58964074 -0.064421505 0.7094536 -0.117220186 0.07089769 -0.48436946 -0.45286116
0.5153144 -0.24689357 -0.41932276 -0.020424355 0.4055942 -0.2287044 -0.15077867 0.037302297
-0.23743597 0.09217559 0.030081395 -0.19642104 0.060113557 -0.26116258 -0.33562022 -0.21877773
-0.06030983 -0.4294807 0.4073138 -0.31546453 -0.11674545 -0.3011223 -0.35450605 0.7833818
0.2999345 -0.38115332 0.83044416 -0.42876264 0.44491717 -0.2020081 -0.3574575 0.039682545
0.61660165 -0.33548245 -0.16860259 -0.93297607 -0.3229348 -0.09613145 0.2892965 -0.10181509
-0.33884144 0.32901657 -0.29650602 -0.23022527 -0.26851386 -0.08317127 0.12830676 -0.028156513
-0.21330464 -0.27671072 -0.38185215 -0.03635037 -0.08484409 -0.041657835 -0.034423158 0.291633
-0.4468656 0.41241252 0.0368185 -0.2586662 -0.27417094 0.08716653 -0.23865989 0.1689242
0.00332066 -0.05966158 -0.04544477 -0.32506028 0.6906555 -0.18767923 0.037851218 -0.4170877
-0.13196033 -0.05085432 -0.11312235 -0.061081305 -0.24174912 -0.14863889 -0.004218783 0.022594795
-0.29150084 -0.014248984 -0.33972663 -0.03320692 0.27244753 -0.14002693 -0.11258383 -0.06817628
-0.006437967 -0.1156067 -0.062514104 0.51276535 0.350061 -0.34962118 0.120576605 0.14120689
-0.08625614 0.16895044 0.60747886 -0.43426013 0.099012576 -0.29419652 -0.106246665 -0.09586554
-0.33220708 -0.35529277 -0.2813615 -0.5687363 -0.09593164 -0.3314806 -0.3541259 -0.3507772
00000000: 627b 33be b1a5 35bd deee 5cbe 18d6 9dbe
00000010: c310 413e e5a9 4dbe d153 86be 5418 71bc
00000020: fccb 123e 1ab1 fc3d 7616 4dbe 7443 2d3e
00000030: 4872 92be 877c cdbd 03bf 6fbe c02d c3bd
00000040: 7f58 eb3e ed66 ddbd f67b 313f f2d3 d1bd
00000050: 2512 023e 0c9e 103e 0320 30be 1603 833e
00000060: a43f 0cbe 1cf9 6abe 5c2e 693f 9c4d 0f3c
00000070: 47ed 07be 9088 4bbe ba2b 923e 09d6 1dbd
00000080: 7926 f3bc fa62 bebd f19a 76be 7c5a 19be
00000090: 8e4f b5bd cab1 343e 692f 373c a427 8f3d
000000a0: 71ea e7bc b119 90be 2b4d 7abd f044 96be
000000b0: 5c4e febd b21e 39bd f957 493e ec1d bf3d
000000c0: 6dfc 4a3e 8028 96bb d8c2 ef3e c113 a33d
000000d0: 50fa aa3e 078b 113f 4ed6 eabd dade 383e
000000e0: a917 89bd a14a cdbd e9d6 51bc 4ceb f8bd
000000f0: d0a2 803a a80a 01be c44e 0bbe 4454 85bd
00000100: c508 513c ea92 223c 0424 b3bc d85f edbc
00000110: 554f 5f3c 688a 2f3d eb0e 4abe ec68 bbbd
00000120: 4344 163e ab5e a33c bf10 0e3e dcac 383d
00000130: c0b1 a4bd fd1e 33be eade 9abc 3bb3 17be
00000140: 2e1e 32be 46c9 073d a192 ce36 e7fe 2abe
00000150: 4246 fbbc 6cfc 92bd 1306 c7bd 8065 05be
00000160: 7780 d13d 6a3e 18be e034 e4bc 4762 6bbc
00000170: 4439 703d af20 9abc a91d 32be ccef 2abe
00000180: 7321 0a3d ee9d 36bc cd98 3dbe 35da c7bd
00000190: 1dd2 303d 0eab 443d a4d3 09be ed4c f6bd
000001a0: 7ede 46be 6a7e 5fbd 10c2 3ebe d5ae 2bbe
000001b0: a04c e5bb 6f01 a23d 1587 8fbd d655 9a3d
000001c0: c1f0 96bd 41d4 353d e16e 9d3c 6b52 30bd
000001d0: be77 01bd 85de 7bbd 18cb 973c 9805 65bd
000001e0: 3a81 cbbc 4827 7a3d 945c 05be 6ce5 b8bb
000001f0: 34d9 dcbe 078d 1dbd b917 acbd dab7 d4be
00000200: f26b 2cbf 208c 7abe 35d4 24be 86dc d13d
00000210: 2cab 1ebf e853 b63e 948f f43e c63b 58be
00000220: 817a 18be b2f2 16bf 6cef 83bd c09e 353f
00000230: 2311 f0bd cf32 913d 46ff f7be 6bdd e7be
00000240: a5eb 033f abd1 7cbe 79b1 d6be fa50 a7bc
00000250: 0baa cf3e 7c31 6abe b965 1abe 4bca 183d
00000260: 6a22 73be 8ec6 bc3d 426d f63c 9922 49be
00000270: a239 763d 1ab7 85be 6ad6 abbe 4507 60be
00000280: 7107 77bd e5e4 dbbe 6f8b d03e 9184 a1be
00000290: 3d18 efbd b42c 9abe d181 b5be b68b 483f
000002a0: 0491 993e 8726 c3be fd97 543f c786 dbbe
000002b0: 2fcc e33e 36db 4ebe ab04 b7be 2a8a 223d
000002c0: 9bd9 1d3f 5bc4 abbe 28a6 2cbe 85d7 6ebf
000002d0: b657 a5be 91e0 c4bd ac1e 943e 6e84 d0bd
000002e0: a07c adbe dc74 a83e a3cf 97be 2cc0 6bbe
000002f0: a67a 89be b355 aabd d962 033e 7da8 e6bc
00000300: 886c 5abe 07ad 8dbe 2082 c3be 20e4 14bd
00000310: bdc2 adbd 68a1 2abd 4cff 0cbd ec50 953e
00000320: 91cb e4be bc27 d33e ffce 163d e56f 84be
00000330: 2260 8cbe 5e84 b23d 4263 74be 77fa 2c3e
00000340: 6e9f 593b b35f 74bd 4c24 3abd 4d6e a6be
00000350: cdce 303f fc2e 40be e109 1b3d 858c d5be
00000360: 9c20 07be 9f4c 50bd b1ac e7bd 6430 7abd
00000370: 158d 77be cb34 18be b83d 8abb b818 b93c
00000380: 993f 95be 9274 69bc a6f0 adbe fb03 08bd
00000390: 3e7e 8b3e 3863 0fbe 5a92 e6bd 01a0 8bbd
000003a0: 95f5 d2bb 35c3 ecbd 6507 80bd 9744 033f
000003b0: 323b b33e 8c01 b3be def0 f63d 8a98 103e
000003c0: 0fa7 b0bd 5801 2d3e bc83 1b3f 5857 debe
000003d0: 1bc7 ca3d eda0 96be da97 d9bd 2755 c4bd
000003e0: 0c17 aabe efe8 b5be 9d0e 90be b498 11bf
000003f0: cf77 c4bd d3b7 a9be fd4f b5be 1299 b3be

lays.0.bias f4 [256]
-0.15876439 -0.056908503 -0.02591406 -0.1998307 -0.26743045 -0.11613634 0.017852755 -0.2092692
-0.16527875 -0.18842134 -0.111825384 -0.2791034 0.0042600613 -0.23176965 -0.09750337 -0.15321758
-0.26969662 -0.21204272 -0.16790247 -0.11476905 -0.25925815 -0.13445483 -0.11524159 -0.053861246
-0.3282713 -0.14701203 -0.04580618 -0.06634478 -0.15930775 -0.2550563 -0.022854991 -0.06533443
-0.091286086 -0.28244993 -0.16007486 -0.14841281 -0.036395166 0.051318854 -0.20993616 -0.17557094
-0.1365677 -0.17503648 -0.038607113 -0.12720492 -0.11738732 -0.07044754 -0.05685344 -0.013852117
-0.2523402 -0.27086338 0.017239893 -0.110318586 -0.09760825 -0.020027021 -0.11010978 -0.083050594
-0.050922252 -0.086852744 -0.44088337 -0.16817752 -0.23150782 -0.18264528 -0.10527379 -0.036379345
-0.035291474 -0.00056958565 0.005479625 -0.17623246 -0.08786306 -0.13194273 -0.053631674 -0.11637287
-0.18251477 -0.12406962 -0.09809135 -0.0006299184 -0.11363505 -0.10444668 -0.053538688 -0.06516886
-0.25399467 -0.26056832 0.017138947 -0.356143 -0.024697201 -0.088821016 -0.28705114 -0.12928338
0.07700213 -0.05896209 -0.118639216 0.055364612 -0.0044152215 -0.12088444 -0.095020585 -0.190953
-0.258123 -0.13707846 -0.22255997 -0.18416344 -0.001617827 -0.15814863 0.0123134 -0.13660672
-0.17345174 -0.11480676 -0.098756574 -0.13760312 0.014387474 -0.15252902 -0.31847954 -0.06361434
-0.08266191 -0.22769007 -0.1536138 -0.20569414 -0.10125891 -0.17851248 -0.10196966 -0.2638729
0.037803996 -0.068058535 -0.09933662 -0.24670593 -0.17492732 -0.04658062 -0.18083683 -0.23912704
-0.22583619 -0.1914632 -0.13469268 0.07576915 -0.0018429804 -0.039458625 -0.17658691 -0.20894334
-0.2285937 -0.14003931 -0.015308505 0.018668007 -0.1571035 -0.17601886 -0.19790943 -0.0020353762
-0.059152655 -0.0150085855 -0.19025125 0.018270753 -0.13750286 0.045231055 -0.111123145 -0.15995355
-0.0826279 -0.017047273 0.02815355 -0.20596956 -0.17168978 -0.086644724 -0.02731237 0.025845973
-0.069196895 -0.11737587 0.045177635 -0.0784258 0.030901937 -0.30482897 -0.22662398 -0.40176395
-0.33640924 -0.026043762 0.00635188 -0.1764149 -0.08949439 -0.013666156 0.115719825 -0.11942669
-0.03228899 -0.18426324 0.007171868 -0.16865842 -0.16968353 0.12693381 -0.10054835 -0.11033646
-0.06488153 -0.29045218 -0.18307118 -0.062856756 -0.0019264921 -0.09522974 -0.11909738 -0.3554973
-0.14611603 -0.18862422 -0.00818786 -0.23214069 -0.025544884 -0.20859449 -0.0123173585 -0.22384727
-0.15520476 -0.14711116 -0.15944922 -0.14636078 -0.31980553 -0.055749614 0.013885877 -0.1354205
0.024908999 -0.05910613 -0.10552662 -0.15573148 -0.1252035 -0.042231895 0.02394118 -0.1220425
-0.0880299 -0.31685996 -0.08029116 -0.22436468 -0.26455593 -0.14250754 -0.12887958 -0.12316199
-0.011447009 -0.065976 0.0033166476 -0.29944494 -0.3539811 -0.16550769 -0.2702293 -0.0602414
-0.13197842 -0.11654885 -0.29433244 -0.12634484 -0.17686968 -0.2602913 -0.016679056 -0.05735461
-0.35854468 -0.333491 0.02679641 -0.017600406 -0.1442376 -0.17912714 0.081169605 -0.12749907
-0.057422645 -0.21699911 -0.113189995 -0.0015645812 -0.17106287 -0.22801004 -0.120439455 -0.32382724
00000000: 2293 22be e418 69bd b949 d4bc 6ba0 4cbe
00000010: a5ec 88be e4d8 edbd f13f 923c aa4a 56be
00000020: d53e 29be 86f1 40be b504 e5bd a4e6 8ebe
00000030: fc97 8b3b 0655 6dbe d9af c7bd 12e5 1cbe
00000040: ad15 8abe ba21 59be a0ee 2bbe 090c ebbd
00000050: 7cbd 84be 87ae 09be c803 ecbd 9c9d 5cbd
00000060: 2d13 a8be 528a 16be 439f 3bbd c6df 87bd
00000070: 9221 23be bd96 82be 643a bbbc 0fce 85bd
00000080: 33f4 babd 479d 90be aaea 23be 87f9 17be
00000090: 1913 15bd b833 523d 81f9 56be dec8 33be
000000a0: 67d8 0bbe c33c 33be 7e22 1ebd 0242 02be
000000b0: c368 f0bd cd46 90bd 27df 68bd fdf3 62bc
000000c0: bc32 81be 9bae 8abe ad3a 8d3c b6ee e1bd
000000d0: d6e6 c7bd b50f a4bc 3d81 e1bd 6e16 aabd
000000e0: da93 50bd dadf b1bd 77bb e1be ba36 2cbe
000000f0: 6310 6dbe 5d07 3bbe c999 d7bd 8202 15bd
00000100: cb8d 10bd 3f50 15ba 6d8e b33b 4876 34be
00000110: 8cf1 b3bd ff1b 07be e3ac 5bbd e654 eebd
00000120: 27e5 3abe 3718 febd 1ee4 c8bd 1c21 25ba
00000130: 7eb9 e8bd 24e8 d5bd 624b 5bbd 4077 85bd
00000140: 970b 82be 3669 85be fa66 8c3c 6058 b6be
00000150: c951 cabc cbe7 b5bd 5ef8 92be dd62 04be
00000160: 4bb3 9d3d 3c82 71bd 1ef9 f2bd 01c6 623d
00000170: 90ad 90bb 4392 f7bd 279a c2bd 2f89 43be
00000180: b328 84be 4c5e 0cbe c3e6 63be 5795 3cbe
00000190: 440d d4ba b7f1 21be 25be 493c a2e2 0bbe
000001a0: 559d 31be ce1f ebbd e340 cabd d5e7 0cbe
000001b0: 71b9 6b3c 9130 1cbe c00f a3be 3c48 82bd
000001c0: a64a a9bd 9627 69be f04c 1dbe 7ca1 52be
000001d0: d560 cfbd facb 36be 78d5 d0bd 591a 87be
000001e0: 5dd8 1a3d 4662 8bbd ff70 cbbd 7ba0 7cbe
000001f0: 2620 33be 52cb 3ebd 4a2d 39be b8dd 74be
00000200: 9a41 67be ee0e 44be e1ec 09be db2c 9b3d
00000210: 2990 f1ba 5e9f 21bd 33d3 34be 3ef5 55be
00000220: 7814 6abe 7766 0fbe 86d0 7abc a6ed 983c
00000230: bddf 20be 4a3e 34be c5a8 4abe f263 05bb
00000240: 0e4a 72bd 92e6 75bc 39d1 42be 8cac 953c
00000250: 8dcd 0cbe 3344 393d 8894 e3bd ddca 23be
00000260: d138 a9bd b9a6 8bbc 46a2 e63c afe9 52be
00000270: 72cf 2fbe ca72 b1bd 31be dfbc efba d33c
00000280: 1ab7 8dbd c362 f0bd 2f0c 393d b59d a0bd
00000290: 0f26 fd3c 8b12 9cbe 1e10 68be 01b4 cdbe
000002a0: d53d acbe ba59 d5bc 6e23 d03b 1ca6 34be
000002b0: d648 b7bd 03e8 5fbc 84fe ec3d fb95 f4bd
000002c0: 7641 04bd 81af 3cbe fd01 eb3b cbb4 2cbe
000002d0: 85c1 2dbe f0fa 013e 4bec cdbd 15f8 e1bd
000002e0: 9ce0 84bd 26b6 94be 0377 3bbe 0bbb 80bd
000002f0: 5982 fcba cf07 c3bd 54e9 f3bd be03 b6be
00000300: 719f 15be b526 41be 6026 06bc 4ab6 6dbe
00000310: 8143 d1bc cb99 55be bfce 49bc 3838 65be
00000320: ffed 1ebe 4fa4 16be a846 23be 9adf 15be
00000330: 8dbd a3be b559 64bd 9781 633c acab 0abe
00000340: f50d cc3c 4519 72bd 571e d8bd 1378 1fbe
00000350: 5935 00be 5afb 2cbd 4b20 c43c 6bf1 f9bd
00000360: 0549 b4bd 783b a2be b16f a4bd dbbf 65be
00000370: e073 87be 7fed 11be 02f9 03be 5a3c fcbd
00000380: 3c8c 3bbc 6d1e 87bd 1d5c 593b d950 99be
00000390: 033d b5be d97a 29be 7f5b 8abe b0bf 76bd
000003a0: 5a25 07be 2ab1 eebd beb2 96be 8b60 01be
000003b0: 531d 35be e744 85be 84a2 88bc abec 6abd
000003c0: 2b93 b7be 55bf aabe 2584 db3c ba2e 90bc
000003d0: 05b3 13be 1b6d 37be 403c a63d 1e8f 02be
000003e0: 0234 6bbd 0435 5ebe 28d0 e7bd a212 cdba
000003f0: 1b2b 2fbe 777b 69be f6a8 f6bd afcc a5be

lays.1.weight f4 [256, 256]
-0.08701737 -0.08982979 -0.04792047 -0.0732977 -0.0098300455 -0.09662138 -0.010629604 -0.055149406
-0.005407572 -0.0069834413 -0.027021425 -0.10504427 -0.028455507 -0.018381 -0.05997135 -0.021878738
-0.038290855 -0.0138217155 -0.042908125 -0.057952456 -0.060414974 -0.058022525 -0.11503987 -0.110121235
-0.015108216 -0.04854226 -0.02584216 -0.016106568 -0.077973284 -0.08942041 -0.07934151 -0.011630074
-0.023373162 -0.11467885 -0.11169133 0.08724731 -0.108223416 -0.07608218 -0.07293795 -0.007368807
-0.046608187 -0.06955802 -0.011078139 -0.015973607 -0.11859395 -0.048127122 -0.029199563 -0.08456563
0.10439746 -0.041901715 -0.014943338 -0.08740541 0.068566404 -0.10569457 -0.11364431 -0.08116007
-0.0014572392 -0.013946746 -0.0152826775 0.08130752 -0.118948705 -0.016514538 -0.01087454 -0.075704016
-0.11216757 -0.07713835 -0.010539526 -0.09133239 -0.084598586 -0.09638093 -0.0911781 -0.07713489
-0.05331803 -0.02393035 -0.058570463 -0.11369952 -0.01268585 -0.058980566 -0.083279535 -0.10815294
-0.04943307 -0.03925837 -0.11193014 -0.10864298 -0.026160922 -0.039321736 0.048099566 -0.067206085
-0.08403873 -0.045419957 -0.050603695 -0.043550897 -0.041683283 -0.04251931 -0.042037137 -0.0851209
0.0012547289 -0.034129936 -0.07232684 0.0015107915 -0.118622355 -0.08592482 -0.08046393 -0.03076793
0.002487619 -0.095328845 -0.0064829173 -0.045302346 -0.09514111 -0.093897246 -0.06493583 -0.057526577
-0.0784291 -0.028941594 0.0011648778 -0.041702017 -0.014640642 -0.05284831 -0.082599625 -0.012678878
-0.0013654118 -0.09759791 0.018434811 -0.008668741 -0.025947567 -0.002421179 -0.018843772 -0.0006421707
-0.063961364 -0.05627135 0.016036764 -0.049686894 -0.02138739 -0.07089275 -0.05159246 -0.038307764
-0.009240313 -0.11685623 -0.06768902 -0.0041026785 -0.076531194 -0.09215993 -0.07045822 -0.09142267
-0.09442598 -0.011972039 0.08063154 -0.030319871 -0.11441208 -0.03957287 -0.08633905 -0.09692898
-0.031319723 -0.01068231 -0.104622364 -0.089750335 -0.11466985 -0.0426376 -0.007975835 -0.03952354
-0.008504928 -0.05467363 -0.0060535967 -0.0018067927 -0.0067708143 0.05182986 -0.01059886 -0.009943181
-0.026023623 -0.08308155 0.028124651 -0.06222033 -0.083454035 -0.10195734 -0.03244005 0.00030633752
-0.11510609 -0.10792534 -0.02293707 -0.11882142 -0.05683002 -0.0379847 -0.121228725 -0.03540531
-0.10567443 -0.05029185 -0.11892939 0.0013328328 -0.06585002 -0.004163379 -0.06314395 -0.04106028
-0.03248835 -0.095718 -0.082541786 -0.0604873 -0.0070236023 -0.064963095 0.0017448858 -0.0032475695
-0.028140023 -0.009382324 -0.019400217 -0.113282315 -0.11910745 -0.06259177 0.00040069033 -0.014561328
-0.047400467 0.018971331 -0.10495925 0.031279717 -0.034482487 -0.061922893 -0.10299807 -0.029648993
-0.11342082 -0.051142026 -0.07765564 0.0012143512 -0.11798113 -0.0073244506 -0.07170525 -0.106474824
-0.07746969 0.035071723 0.055665076 -0.040662434 -0.011553055 -0.048411503 -0.018053178 -0.048232056
-0.09091835 -0.10865677 -0.041876484 -0.0016566215 -0.113617055 0.046875704 -0.066016294 -0.096302755
-0.10792254 0.038790196 -0.079551995 0.023954695 -0.06840116 -0.11230774 0.063058905 -0.046375822
-0.07522973 -0.03876774 0.04215946 -0.06698259 -0.032671068 -0.118117414 0.10926855 -0.015464716
00000000: 2a36 b2bd aef8 b7bd 4148 44bd 1b1d 96bd
00000010: 330e 21bc 6ee1 c5bd ca27 2ebc 58e4 61bd
00000020: 0032 b1bb 5ad5 e4bb 095c ddbc 7321 d7bd
00000030: 861b e9bc c093 96bc 85a4 75bd 0a3b b3bc
00000040: dfd6 1cbd 7a74 62bc 6ec0 2fbd 8e5f 6dbd
00000050: b175 77bd 07a9 6dbd 069a ebbd 3e87 e1bd
00000060: 7388 77bc 40d4 46bd f0b2 d3bc ecf1 83bc
00000070: 75b0 9fbd 0c22 b7bd cd7d a2bd 118c 3ebc
00000080: 1379 bfbc bfdc eabd 6dbe e4bd b8ae b23d
00000090: 3da4 ddbd f9d0 9bbd 7e60 95bd 0976 f1bb
000000a0: 3ae8 3ebd 6f74 8ebd 1581 35bc 15db 82bc
000000b0: 63e1 f2bd f220 45bd ec33 efbc bf30 adbd
000000c0: 56ce d53d 22a1 2bbd e7d4 74bc 9c01 b3bd
000000d0: 8b6c 8c3d 6576 d8bd 59be e8bd 4037 a6bd
000000e0: d500 bfba e480 64bc 3264 7abc 8f84 a63d
000000f0: 619b f3bd 7f49 87bc 202b 32bc b50a 9bbd
00000100: 1cb8 e5bd b6fa 9dbd faad 2cbc 7a0c bbbd
00000110: 0642 adbd 5d63 c5bd 95bb babd e6f8 9dbd
00000120: 0264 5abd 9509 c4bc 95e7 6fbd 4bdb e8bd
00000130: 50d8 4fbc 9b95 71bd 768e aabd 4a7f ddbd
00000140: 557a 4abd 62cd 20bd a13b e5bd 3680 debd
00000150: 6e4f d6bc d40f 21bd 0d04 453d 58a3 89bd
00000160: 7f1c acbd 470a 3abd d245 4fbd 6d62 32bd
00000170: 17bc 2abd ba28 2ebd 222f 2cbd de53 aebd
00000180: b775 a43a d5cb 0bbd 1820 94bd c005 c63a
00000190: 47f0 f2bd 5af9 afbd 46ca a4bd 070d fcbc
000001a0: 5207 233b c53b c3bd a76e d4bb f48e 39bd
000001b0: 58d9 c2bd 334d c0bd 14fd 84bd fda0 6bbd
000001c0: 709f a0bd ec16 edbc d0ae 983a bccf 2abd
000001d0: 4edf 6fbc 7877 58bd fe29 a9bd 12bb 4fbc
000001e0: 9ef7 b2ba 6ae1 c7bd 9a04 973c 5607 0ebc
000001f0: fe8f d4bc a5ac 1ebb 415e 9abc 5957 28ba
00000200: 2dfe 82bd c97c 66bd 885f 833c 7c84 4bbd
00000210: 9c34 afbc 3830 91bd 9e52 53bd 9ae8 1cbd
00000220: af64 17bc 5252 efbd 8aa0 8abd c36f 86bb
00000230: 63bc 9cbd 58be bcbd 664c 90bd cf3b bbbd
00000240: 6862 c1bd 5f26 44bc 2622 a53d 6161 f8bc
00000250: e150 eabd 2917 22bd 87d2 b0bd b382 c6bd
00000260: 1c49 00bd db04 2fbc 4044 d6bd 06cf b7bd
00000270: 07d8 eabd c4a4 2ebd 14ad 02bc 6fe3 21bd
00000280: 4158 0bbc 75f1 5fbd 405d c6bb e7d1 ecba
00000290: b5dd ddbb 8c4b 543d d7a6 2dbc b9e8 22bc
000002a0: 7e2f d5bc a926 aabd ab65 e63c bfda 7ebd
000002b0: f3e9 aabd 03cf d0bd dcdf 04bd ed9b a039
000002c0: bebc ebbd f607 ddbd 86e6 bbbc a558 f3bd
000002d0: 98c6 68bd d895 1bbd c446 f8bd 2905 11bd
000002e0: d66b d8bd d4fe 4dbd 4191 f3bd 73b2 ae3a
000002f0: 60dc 86bd f46c 88bb 9e51 81bd d32e 28bd
00000300: 8112 05bd cc07 c4bd ab0b a9bd 88c1 77bd
00000310: 3f26 e6bb 5f0b 85bd a7b4 e43a 2dd5 54bb
00000320: e885 e6bc 52b8 19bc 34ed 9ebc 8f00 e8bd
00000330: 9bee f3bd 1d30 80bd bf13 d239 a392 6ebc
00000340: fe26 42bd c469 9b3c e0f4 d6bd 291f 003d
00000350: 823d 0dbd dca2 7dbd a7f0 d2bd 72e2 f2bc
00000360: 2d49 e8bd 4d7a 51bd ec09 9fbd dd2a 9f3a
00000370: 17a0 f1bd f201 f0bb 34da 92bd 790f dabd
00000380: 6ea8 9ebd 5ea7 0f3d 1001 643d a78d 26bd
00000390: 0649 3dbc 244b 46bd 42e4 93bc fa8e 45bd
000003a0: 6633 babd 7187 debd ad86 2bbd fe22 d9ba
000003b0: 0fb0 e8bd bd00 403d 8d33 87bd 613a c5bd
000003c0: 7e06 ddbd 78e2 1e3d 28ec a2bd a33c c43c
000003d0: e815 8cbd 9a01 e6bd 0725 813d 93f4 3dbd
000003e0: 0b12 9abd ecca 1ebd 66af 2c3d 2b2e 89bd
000003f0: 19d2 05bd 8be7 f1bd 31c8 df3d b85f 7dbc

lays.1.bias f4 [256]
-0.09566446 -0.15410374 -0.31352416 -0.1056348 -0.0022192001 -0.42482144 -0.17728658 -0.17599417
-0.045545943 -0.39699095 0.2077478 -0.25135013 -0.084699385 -0.16266492 0.45693755 0.5310451
-0.078386076 -0.13021857 0.05713809 -0.10415968 -0.43228015 -0.2294135 -0.20093516 0.034336396
0.08491099 -0.14884825 -0.18182826 -0.30716708 -0.40693998 -0.10204344 -0.71410507 -0.23332992
-0.1077943 -0.13637441 -0.26451454 0.097473994 0.041621998 -0.0568907 0.15460144 -0.3342805
-0.17359483 -0.16563408 -0.0587925 0.54027957 -0.11751822 -0.0775468 -0.03061882 -0.44984755
-0.25260094 0.25251952 -0.10694433 -0.12407289 -0.27064285 -0.013502915 -0.1590397 -0.47155738
-0.57961214 -0.77277595 -0.30143088 -0.17898849 0.26694888 -0.15141693 -0.3102548 -0.15833351
-0.36782208 0.035620846 -0.18749683 -0.042427275 -0.12469639 -0.3072763 -0.546579 -0.06433179
-0.12241564 -0.11165491 -0.460033 0.38196585 -0.09366321 -0.33182868 0.062393934 -0.30718312
-0.33556545 -0.049412083 -0.06878787 -0.30773026 -0.14178734 -0.36963823 -0.18138929 -0.10543918
-0.14303601 -0.38195238 0.28567934 -0.25023887 -0.015443869 -0.50828016 -0.3323164 -0.23835583
-0.2564475 -0.33419552 -0.11018047 -0.20817752 -0.2364701 -0.07757744 -0.2253528 -0.079314105
-0.3537284 -0.16680555 -0.21176763 -0.19912437 -0.21647963 -0.02795704 -0.35755882 0.781806
0.38681927 -0.4360581 -0.07266737 -0.25962985 -0.044026073 -0.45559487 -0.21868789 -0.09002644
-0.22912356 -0.10955838 -0.13088895 -0.16866536 -0.42397436 0.13058463 -0.33344054 -0.5082426
-0.28558654 0.16081677 -0.24046274 -0.11355573 0.3458876 -0.13731965 0.10350709 -0.06542359
-0.09934111 -0.26270437 -0.3058027 -0.2615529 -0.45197675 -0.15767251 0.29833207 -0.046365526
-0.2822609 -0.23541522 -0.41886032 -0.17909491 -0.6145326 -0.097327076 -0.30238676 -0.11161741
-0.30937108 -0.17109406 -0.36506316 -0.038684938 -0.13191159 -0.11016132 -0.059037954 -0.5333008
0.0020590865 -0.14697312 -0.2363885 0.04033117 -0.068800524 0.5257453 -0.10305176 -0.29619306
-0.073542796 -0.2884663 -0.06372695 -0.14255802 -0.27562076 0.018499384 -0.10680652 -0.11444439
-0.059052084 -0.6064235 -0.39867648 -0.4962774 -0.15528895 -0.077628575 -0.07458118 -0.2810253
-0.070633784 -0.4147565 -0.11266604 0.1719512 -0.23535612 -0.7309659 0.31104597 -0.16813335
-0.20992902 -0.37610203 -0.4642516 -0.18943608 -0.13929269 -0.23202431 -0.1001089 -0.075076625
-0.07675083 -0.121477745 0.13439882 -0.10581901 -0.23392321 -0.041513693 0.0018127157 -0.40012115
-0.40451625 -0.5425757 -0.122644894 -0.22878188 -0.047497306 -0.44464782 -0.14093246 -0.19248053
-0.1615291 -0.11509819 -0.11206811 -0.110119 -0.31154758 -0.17093606 -0.34315145 -0.054267798
-0.49734482 -0.15300876 -0.2335785 -0.11835246 -0.13092045 -0.25636426 0.5423851 -0.17286041
0.023106378 -0.26522338 -0.13192146 -0.21370117 -0.4685808 0.06947827 0.22499725 0.017486794
-0.28815535 -0.12217269 -0.25450864 0.28466326 -0.2048531 -0.11365332 -0.085410215 0.53839606
-0.2759584 -0.066330306 -0.15572476 -0.49456003 -0.42312974 -0.07650637 -0.08990607 -0.3073193
00000000: baeb c3bd 5fcd 1dbe 3d86 a0be 0f57 d8bd
00000010: 0070 11bb 3282 d9be 9d8a 35be d137 34be
00000020: 628e 3abd 6642 cbbe d7bb 543e f7b0 80be
00000030: df76 adbd a291 26be b8f3 e93e 92f2 073f
00000040: e188 a0bd 0458 05be a109 6a3d ac51 d5bd
00000050: d353 ddbe 5feb 6abe f2c1 4dbe 52a4 0c3d
00000060: d0e5 ad3d ad6b 18be 3031 3abe 0145 9dbe
00000070: 705a d0be 27fc d0bd 97cf 36bf 0aee 6ebe
00000080: 42c3 dcbd bca5 0bbe 736e 87be 72a0 c73d
00000090: d47b 2a3d 3906 69bd d74f 1e3e d026 abbe
000000a0: d8c2 31be fb9b 29be 68d0 70bd c34f 0a3f
000000b0: 64ad f0bd dbd0 9ebd 52d4 fabc 6b52 e6be
000000c0: e954 81be 3d4a 813e a105 dbbd ed19 febd
000000d0: b391 8abe 553b 5dbc 4edb 22be f86f f1be
000000e0: 7661 14bf a5d4 45bf 2655 9abe c248 37be
000000f0: 86ad 883e 0a0d 1bbe b8d9 9ebe 2e22 22be
00000100: 2d53 bcbe 2ae7 113d 2bff 3fbe 39c8 2dbd
00000110: d260 ffbd 5253 9dbe 9aec 0bbf 63c0 83bd
00000120: 0db5 fabd 54ab e4bd 7289 ebbe 0791 c33e
00000130: 7fd2 bfbd 73e5 a9be c890 7f3d 1b47 9dbe
00000140: 3ccf abbe 5364 4abd a8e0 8cbd d28e 9dbe
00000150: b330 11be 3941 bdbe 1dbe 39be 7ff0 d7bd
00000160: 0878 12be 438f c3be 9044 923e 4f1f 80be
00000170: 4808 7dbc a61e 02bf 6025 aabe 8d13 74be
00000180: 164d 83be ad1b abbe 4ca6 e1bd 7d2c 55be
00000190: 3825 72be ece0 9ebd e2c2 66be 6f6f a2bd
000001a0: e41b b5be 13cf 2abe 9dd9 58be 42e7 4bbe
000001b0: d6ac 5dbe 2a06 e5bc f311 b7be 7024 483f
000001c0: 2d0d c63e 0243 dfbe a1d2 94bd 34ee 84be
000001d0: af54 34bd bb43 e9be b8ef 5fbe c85f b8bd
000001e0: 5e9f 6abe 2560 e0bd c107 06be 9db6 2cbe
000001f0: 2b13 d9be fab7 053e b8b8 aabe 301c 02bf
00000200: 6638 92be 27ad 243e dd3b 76be e88f e8bd
00000210: 2e18 b13e 869d 0cbe 86fb d33d cefc 85bd
00000220: 5a73 cbbd 3081 86be 2c92 9cbe 43ea 85be
00000230: 7f69 e7be e774 21be fbbe 983e c7e9 3dbd
00000240: 8084 90be b010 71be dc74 d6be a864 37be
00000250: 0252 1dbf 6b53 c7bd 70d2 9abe ab97 e4bd
00000260: e365 9ebe 4833 2fbe 8fe9 babe 1974 1ebd
00000270: d513 07be 429c e1bd c8d1 71bd 6786 08bf
00000280: bdf1 063b 1f80 16be d40f 72be 4c32 253d
00000290: 4ae7 8cbd 3e97 063f cd0c d3bd 9ea6 97be
000002a0: 9b9d 96bd dbb1 93be 4683 82bd bbfa 11be
000002b0: 2a1e 8dbe 058c 973c 60bd dabd d261 eabd
000002c0: 99e0 71bd 923e 1bbf 531f ccbe 1218 febe
000002d0: 1104 1fbe bbfb 9ebd 05be 98bd 8ce2 8fbe
000002e0: 72a8 90bd f75a d4be 74bd e6bd fa13 303e
000002f0: 3201 71be 9520 3bbf 6b41 9f3e 262b 2cbe
00000300: a2f7 56be 7290 c0be 63b2 edbe 88fb 41be
00000310: bea2 0ebe c897 6dbe e505 cdbd c6c1 99bd
00000320: 8a2f 9dbd 53c9 f8bd d89f 093e a3b7 d8bd
00000330: 9189 6fbe 430a 2abd a598 ed3a aedc ccbe
00000340: c11c cfbe 3ee6 0abf 3f2d fbbd cc45 6abe
00000350: 898c 42bd e1a8 e3be 9950 10be 9e19 45be
00000360: e267 25be 9ab8 ebbd f783 e5bd 1286 e1bd
00000370: 2a83 9fbe dd09 2fbe 8cb1 afbe e947 5ebd
00000380: fba3 febe 54ae 1cbe 342f 6fbe c662 f2bd
00000390: 0310 06be 2d42 83be c0d9 0a3f 5202 31be
000003a0: 9649 bd3c 5ccb 87be 6b16 07be 7bd4 5abe
000003b0: d3e9 efbe a04a 8e3d ae65 663e 7740 8f3c
000003c0: 1989 93be ad35 fabd f54e 82be 62bf 913e
000003d0: 03c5 51be 12c3 e8bd 8deb aebd 53d4 093f
000003e0: 6b4a 8dbe 2fd8 87bd 5076 1fbe f936 fdbe
000003f0: 76a4 d8be 5faf 9cbd ac20 b8bd f558 9dbe

lays.2.weight f4 [2, 256]
-0.070557885 -0.007318142 0.14817211 0.05026626 -0.034483604 0.051698547 -0.04521157 -0.07564332
0.30758777 0.16082008 -0.24705647 0.02847645 0.042851094 0.037786912 -0.35642576 -0.241672
0.05363423 0.053177763 -0.10669809 -0.09639553 0.20072597 0.5671547 -0.0085809 0.40122157
-0.03685052 0.026977379 0.37693846 -0.07446503 -0.16818129 -0.007854091 -0.016645266 -0.12264038
0.15336408 0.12225474 0.6386752 -0.24018697 -0.074488685 -0.24008523 -0.08480348 0.05366259
0.04517768 0.027873904 0.0037829673 -0.18163528 0.046765782 0.06501699 0.22347434 0.026154134
0.07031712 -0.18567929 0.016127057 0.06367936 -0.01957995 0.0015653588 -0.061975826 -0.012418964
0.09397314 0.1315189 0.25842103 0.02782324 -0.087419264 0.12374416 0.0629461 1.0544478
0.3260648 -0.0101570105 -0.074395224 0.047315136 -0.015051203 0.028825646 0.14474691 0.0113984905
-0.019104391 -0.24582063 -0.033962864 -0.13166662 -0.0041006585 0.23206915 -0.15075785 -0.24035628
0.12465641 0.24200097 -0.017056568 -0.17559323 0.021688208 -0.15279584 0.023121921 -0.0361152
0.01619313 -0.4492467 -0.31643757 0.10557078 -0.0025352405 0.090000026 0.16029589 -0.07742806
0.09392317 0.11309125 0.0016542423 0.20603125 -0.13585642 0.041649047 -0.045711573 0.033094253
-0.19584449 -0.28055352 0.18121168 0.06510884 0.0011923199 -0.0022194847 0.5711408 -0.478076
-0.050501913 0.31407374 -0.037545916 -0.011754957 -0.03527074 0.88356954 0.08121373 0.017795244
0.39551267 -0.16543461 -0.011886517 0.035934806 0.16968906 -0.095926195 -0.09719661 0.2330651
0.19838834 -0.14681475 0.05141387 -0.058990207 -0.08868337 0.018824885 -0.0390461 -0.015536534
-0.018245637 0.040482257 -0.0126482565 0.061989356 0.027966848 0.18239303 -0.16653539 0.030417925
0.09386834 0.044660497 -0.093114145 0.02807751 -0.24975443 -0.034172624 0.168758 0.02159708
-0.011929096 -0.014872544 0.066885896 0.28157142 0.0016318107 0.041484643 0.01170435 0.7462581
-0.10291903 -0.02915358 -0.039543845 -0.12616184 0.0066206674 -0.35878283 -0.056209862 0.06391015
-0.041653898 -0.14119156 -0.0029470092 0.002022727 -0.01488938 -0.31573895 0.020859957 0.18497436
0.0043022027 0.06926678 -0.05753767 -0.061690524 0.019546404 0.05861698 -0.039252672 0.01394478
0.031462476 0.053764973 -0.053071987 -0.053497083 0.14313132 0.01740397 -0.12396504 0.03469171
-0.018303027 0.17901753 -0.06308306 0.10544735 0.07971525 0.103426166 0.030397601 0.03289058
0.025585966 0.03746199 -0.014216748 0.04481991 0.023710106 -0.009310667 -0.115368664 0.04420732
0.029384067 0.2443325 -0.0049805013 -0.1250735 0.033305973 0.0768616 0.45461753 -0.06620355
0.22541088 -0.019580968 -0.027120106 -0.018638674 -0.05882415 -0.009359098 -9.330663e-06 0.022163028
0.18220957 -0.002953228 0.05533564 0.021157362 -0.021424884 0.058767967 -0.36238682 0.06688415
-0.061480474 -0.006272578 0.0315139 0.007558425 -0.51826644 -0.21124636 -0.110310316 -0.08071729
0.08754587 -0.073444284 -0.10650646 -0.11152991 0.07357919 -0.05384043 0.32795444 -0.39197406
-0.0075585726 -0.066918604 -0.010671237 0.05859584 -0.00021796302 0.2142645 0.078110665 0.13148381
00000000: a780 90bd 06cd efbb 6eba 173e fee3 4d3d
00000010: ae3e 0dbd dbc1 533d c42f 39bd e3ea 9abd
00000020: 257c 9d3e 05ae 243e 5ffc 7cbe 7247 e93c
00000030: a184 2f3d 73c6 1a3d 707d b6be dd78 77be
00000040: 91af 5b3d edd0 593d 8784 dabd 056b c5bd
00000050: 1c8b 4d3e 0d31 113f e796 0cbc ea6c cd3e
00000060: 92f0 16bd aaff dc3c 14fe c03e 1f81 98bd
00000070: b737 2cbe 72ae 00bc a75b 88bc e12a fbbd
00000080: 790b 1d3e b160 fa3d 3880 233f 93f3 75be
00000090: 868d 98bd e7d8 75be 72ad adbd 4ecd 5b3d
000000a0: 3b0c 393d d057 e43c a9eb 773b 99fe 39be
000000b0: 7a8d 3f3d a127 853d 75d6 643e 3241 d63c
000000c0: 6c02 903d b622 3ebe e41c 843c 536a 823d
000000d0: 2266 a0bc ba2c cd3a 5dda 7dbd e978 4bbc
000000e0: fd74 c03d e4ac 063e c34f 843e 90ed e33c
000000f0: df08 b3bd 946d fd3d e3e9 803d 25f8 863f
00000100: f7f1 a63e 9769 26bc 865c 98bd 84cd 413d
00000110: 5299 76bc c323 ec3c 8938 143e bcc0 3a3c
00000120: d080 9cbc 67b8 7bbe a51c 0bbd 9dd3 06be
00000130: d15e 86bb 89a3 6d3e 4460 1abe f51f 76be
00000140: dc4b ff3d 1acf 773e 37ba 8bbc b6ce 33be
00000150: 78ab b13c 8376 1cbe 2f6a bd3c 88ed 13bd
00000160: 74a7 843c aa03 e6be 1b04 a2be 7e35 d83d
00000170: 4726 26bb ef51 b83d 9b24 243e 9a92 9ebd
00000180: ca5a c03d 639c e73d 29d3 d83a dbf9 523e
00000190: f21d 0bbe 3198 2a3d 0f3c 3bbd d78d 073d
000001a0: 758b 48be b6a4 8fbe 8e8f 393e c957 853d
000001b0: 9e47 9c3a c674 11bb 4936 123f 61c6 f4be
000001c0: 18db 4ebd 46ce a03e bfc9 19bd dd97 40bc
000001d0: 0d78 10bd 9d31 623f 6253 a63d 55c7 913c
000001e0: a380 ca3e b167 29be aabf 42bc 6030 133d
000001f0: f8c2 2d3e f474 c4bd 040f c7bd 9ea8 6e3e
00000200: 5026 4b3e 9b56 16be 5a97 523d b79f 71bd
00000210: a09f b5bd a536 9a3c ceee 1fbd f28c 7ebc
00000220: e077 95bc b9d0 253d a23a 4fbc 8de8 7d3d
00000230: bb1a e53c 3dc5 3a3e 4188 2abe 032f f93c
00000240: 0b3e c03d eded 363d a1b2 bebd ce02 e63c
00000250: a0bf 7fbe 98f8 0bbd e6ce 2c3e 5cec b03c
00000260: 4172 43bc f9ab 73bc 79fb 883d 212a 903e
00000270: 7be2 d53a cdeb 293d 9ac3 3f3c c50a 3f3f
00000280: 36c7 d2bd 7dd3 eebc baf8 21bd 9230 01be
00000290: 2ff2 d83b 62b2 b7be 503c 66bd 53e3 823d
000002a0: 479d 2abd 8594 10be 9c22 41bb ba8f 043b
000002b0: 96f2 73bc 89a8 a1be 80e2 aa3c eb69 3d3e
000002c0: 7ef9 8c3b bedb 8d3d 9fac 6bbd 34af 7cbd
000002d0: c81f a03c 5c18 703d 69c7 20bd a678 643c
000002e0: ccde 003d a938 5c3d 0362 59bd c21f 5bbd
000002f0: 0491 123e c592 8e3c 62e1 fdbd e518 0e3d
00000300: 3bf0 95bc 5f50 373e b131 81bd c8f4 d73d
00000310: c041 a33d 19d1 d33d 6404 f93c 46b8 063d
00000320: a999 d13c be71 193d 5ded 68bc 1595 373d
00000330: b23b c23c c58b 18bc 6846 ecbd bc12 353d
00000340: dbb6 f03c 4d32 7a3e 7933 a3bb 4513 00be
00000350: d86b 083d 9d69 9d3d a1c3 e83e ba95 87bd
00000360: 1cd2 663e 4468 a0bc fc2a debc 22b0 98bc
00000370: 98f1 70bd e756 19bc e48a 1cb7 3d8f b53c
00000380: 2595 3a3e f28a 41bb a0a7 623d 3452 ad3c
00000390: 3d83 afbc aeb6 703d c48a b9be 8ffa 883d
000003a0: f3d2 7bbd 338a cdbb b814 013d aaac f73b
000003b0: 1cad 04bf f750 58be 60ea e1bd 1b4f a5bd
000003c0: 404b b33d f569 96bd 0f20 dabd cb69 e4bd
000003d0: b0b0 963d c887 5cbd a5e9 a73e d3b0 c8be
000003e0: e7ad f7bb 9f0c 89bd 69d6 2ebc 3102 703d
000003f0: 018d 64b9 2768 5b3e 7cf8 9f3d b1a3 063e

lays.2.bias f4 [2]
-0.2692861 0.34924033
00000000: dedf 89be a1cf b23e

l1.weight f4 [256, 62]
-0.17527536 -0.04434747 -0.21575496 -0.30827403 0.1885405 -0.20084341 -0.26235822 -0.014715273
0.14335626 0.12338467 -0.200281 0.16920263 -0.28602815 -0.10033517 -0.23412709 -0.095302105
0.45965955 -0.10810647 0.69329774 -0.102455035 0.12702234 0.1412279 -0.17199712 0.25588292
-0.13696152 -0.2294659 0.91086364 0.008746531 -0.13274108 -0.19876313 0.28548986 -0.038534198
-0.029681431 -0.09296222 -0.24082543 -0.14975923 -0.088530645 0.17645946 0.011180737 0.06989983
-0.028310033 -0.281446 -0.06110875 -0.2934947 -0.124172896 -0.04519529 0.19662465 0.09331879
0.19822855 -0.0045824647 0.4682834 0.07962752 0.33394098 0.56852764 -0.114666566 0.18053761
-0.06693966 -0.10024 -0.012807586 -0.12154254 0.0009814147 -0.12601721 -0.13604265 -0.06510213
0.0127584385 0.009922722 -0.02186776 -0.028976366 0.013629754 0.042856604 -0.19732253 -0.09150872
0.14674477 0.019942602 0.13873576 0.045086727 -0.080417156 -0.1749229 -0.018905122 -0.14814465
-0.17394325 0.033150934 6.1563483e-06 -0.166988 -0.03067315 -0.07177052 -0.097179554 -0.13027
0.10229581 -0.14867559 -0.027857244 -0.014366693 0.058648363 -0.018814413 -0.17394127 -0.16693038
0.033723306 -0.011146052 -0.1851532 -0.097584166 0.04316913 0.048014693 -0.1345964 -0.12026391
-0.19420812 -0.054563917 -0.18628716 -0.16765912 -0.00699766 0.0791043 -0.07008187 0.07535903
-0.07370139 0.044391874 0.01921791 -0.04304735 -0.031608336 -0.061491508 0.01852946 -0.055913538
-0.024841893 0.061072618 -0.13023597 -0.0056425836 -0.43134463 -0.038464572 -0.08402962 -0.41546518
-0.6735221 -0.24467516 -0.16096576 0.1024714 -0.6197994 0.3561089 0.4776579 -0.21116552
-0.14890482 -0.58964074 -0.064421505 0.7094536 -0.117220186 0.07089769 -0.48436946 -0.45286116
0.5153144 -0.24689357 -0.41932276 -0.020424355 0.4055942 -0.2287044 -0.15077867 0.037302297
-0.23743597 0.09217559 0.030081395 -0.19642104 0.060113557 -0.26116258 -0.33562022 -0.21877773
-0.06030983 -0.4294807 0.4073138 -0.31546453 -0.11674545 -0.3011223 -0.35450605 0.7833818
0.2999345 -0.38115332 0.83044416 -0.42876264 0.44491717 -0.2020081 -0.3574575 0.039682545
0.61660165 -0.33548245 -0.16860259 -0.93297607 -0.3229348 -0.09613145 0.2892965 -0.10181509
-0.33884144 0.32901657 -0.29650602 -0.23022527 -0.26851386 -0.08317127 0.12830676 -0.028156513
-0.21330464 -0.27671072 -0.38185215 -0.03635037 -0.08484409 -0.041657835 -0.034423158 0.291633
-0.4468656 0.41241252 0.0368185 -0.2586662 -0.27417094 0.08716653 -0.23865989 0.1689242
0.00332066 -0.05966158 -0.04544477 -0.32506028 0.6906555 -0.18767923 0.037851218 -0.4170877
-0.13196033 -0.05085432 -0.11312235 -0.061081305 -0.24174912 -0.14863889 -0.004218783 0.022594795
-0.29150084 -0.014248984 -0.33972663 -0.03320692 0.27244753 -0.14002693 -0.11258383 -0.06817628
-0.006437967 -0.1156067 -0.062514104 0.51276535 0.350061 -0.34962118 0.120576605 0.14120689
-0.08625614 0.16895044 0.60747886 -0.43426013 0.099012576 -0.29419652 -0.106246665 -0.09586554
-0.33220708 -0.35529277 -0.2813615 -0.5687363 -0.09593164 -0.3314806 -0.3541259 -0.3507772
00000000: 627b 33be b1a5 35bd deee 5cbe 18d6 9dbe
00000010: c310 413e e5a9 4dbe d153 86be 5418 71bc
00000020: fccb 123e 1ab1 fc3d 7616 4dbe 7443 2d3e
00000030: 4872 92be 877c cdbd 03bf 6fbe c02d c3bd
00000040: 7f58 eb3e ed66 ddbd f67b 313f f2d3 d1bd
00000050: 2512 023e 0c9e 103e 0320 30be 1603 833e
00000060: a43f 0cbe 1cf9 6abe 5c2e 693f 9c4d 0f3c
00000070: 47ed 07be 9088 4bbe ba2b 923e 09d6 1dbd
00000080: 7926 f3bc fa62 bebd f19a 76be 7c5a 19be
00000090: 8e4f b5bd cab1 343e 692f 373c a427 8f3d
000000a0: 71ea e7bc b119 90be 2b4d 7abd f044 96be
000000b0: 5c4e febd b21e 39bd f957 493e ec1d bf3d
000000c0: 6dfc 4a3e 8028 96bb d8c2 ef3e c113 a33d
000000d0: 50fa aa3e 078b 113f 4ed6 eabd dade 383e
000000e0: a917 89bd a14a cdbd e9d6 51bc 4ceb f8bd
000000f0: d0a2 803a a80a 01be c44e 0bbe 4454 85bd
00000100: c508 513c ea92 223c 0424 b3bc d85f edbc
00000110: 554f 5f3c 688a 2f3d eb0e 4abe ec68 bbbd
00000120: 4344 163e ab5e a33c bf10 0e3e dcac 383d
00000130: c0b1 a4bd fd1e 33be eade 9abc 3bb3 17be
00000140: 2e1e 32be 46c9 073d a192 ce36 e7fe 2abe
00000150: 4246 fbbc 6cfc 92bd 1306 c7bd 8065 05be
00000160: 7780 d13d 6a3e 18be e034 e4bc 4762 6bbc
00000170: 4439 703d af20 9abc a91d 32be ccef 2abe
00000180: 7321 0a3d ee9d 36bc cd98 3dbe 35da c7bd
00000190: 1dd2 303d 0eab 443d a4d3 09be ed4c f6bd
000001a0: 7ede 46be 6a7e 5fbd 10c2 3ebe d5ae 2bbe
000001b0: a04c e5bb 6f01 a23d 1587 8fbd d655 9a3d
000001c0: c1f0 96bd 41d4 353d e16e 9d3c 6b52 30bd
000001d0: be77 01bd 85de 7bbd 18cb 973c 9805 65bd
000001e0: 3a81 cbbc 4827 7a3d 945c 05be 6ce5 b8bb
000001f0: 34d9 dcbe 078d 1dbd b917 acbd dab7 d4be
00000200: f26b 2cbf 208c 7abe 35d4 24be 86dc d13d
00000210: 2cab 1ebf e853 b63e 948f f43e c63b 58be
00000220: 817a 18be b2f2 16bf 6cef 83bd c09e 353f
00000230: 2311 f0bd cf32 913d 46ff f7be 6bdd e7be
00000240: a5eb 033f abd1 7cbe 79b1 d6be fa50 a7bc
00000250: 0baa cf3e 7c31 6abe b965 1abe 4bca 183d
00000260: 6a22 73be 8ec6 bc3d 426d f63c 9922 49be
00000270: a239 763d 1ab7 85be 6ad6 abbe 4507 60be
00000280: 7107 77bd e5e4 dbbe 6f8b d03e 9184 a1be
00000290: 3d18 efbd b42c 9abe d181 b5be b68b 483f
000002a0: 0491 993e 8726 c3be fd97 543f c786 dbbe
000002b0: 2fcc e33e 36db 4ebe ab04 b7be 2a8a 223d
000002c0: 9bd9 1d3f 5bc4 abbe 28a6 2cbe 85d7 6ebf
000002d0: b657 a5be 91e0 c4bd ac1e 943e 6e84 d0bd
000002e0: a07c adbe dc74 a83e a3cf 97be 2cc0 6bbe
000002f0: a67a 89be b355 aabd d962 033e 7da8 e6bc
00000300: 886c 5abe 07ad 8dbe 2082 c3be 20e4 14bd
00000310: bdc2 adbd 68a1 2abd 4cff 0cbd ec50 953e
00000320: 91cb e4be bc27 d33e ffce 163d e56f 84be
00000330: 2260 8cbe 5e84 b23d 4263 74be 77fa 2c3e
00000340: 6e9f 593b b35f 74bd 4c24 3abd 4d6e a6be
00000350: cdce 303f fc2e 40be e109 1b3d 858c d5be
00000360: 9c20 07be 9f4c 50bd b1ac e7bd 6430 7abd
00000370: 158d 77be cb34 18be b83d 8abb b818 b93c
00000380: 993f 95be 9274 69bc a6f0 adbe fb03 08bd
00000390: 3e7e 8b3e 3863 0fbe 5a92 e6bd 01a0 8bbd
000003a0: 95f5 d2bb 35c3 ecbd 6507 80bd 9744 033f
000003b0: 323b b33e 8c01 b3be def0 f63d 8a98 103e
000003c0: 0fa7 b0bd 5801 2d3e bc83 1b3f 5857 debe
000003d0: 1bc7 ca3d eda0 96be da97 d9bd 2755 c4bd
000003e0: 0c17 aabe efe8 b5be 9d0e 90be b498 11bf
000003f0: cf77 c4bd d3b7 a9be fd4f b5be 1299 b3be

l1.bias f4 [256]
-0.15876439 -0.056908503 -0.02591406 -0.1998307 -0.26743045 -0.11613634 0.017852755 -0.2092692
-0.16527875 -0.18842134 -0.111825384 -0.2791034 0.0042600613 -0.23176965 -0.09750337 -0.15321758
-0.26969662 -0.21204272 -0.16790247 -0.11476905 -0.25925815 -0.13445483 -0.11524159 -0.053861246
-0.3282713 -0.14701203 -0.04580618 -0.06634478 -0.15930775 -0.2550563 -0.022854991 -0.06533443
-0.091286086 -0.28244993 -0.16007486 -0.14841281 -0.036395166 0.051318854 -0.20993616 -0.17557094
-0.1365677 -0.17503648 -0.038607113 -0.12720492 -0.11738732 -0.07044754 -0.05685344 -0.013852117
-0.2523402 -0.27086338 0.017239893 -0.110318586 -0.09760825 -0.020027021 -0.11010978 -0.083050594
-0.050922252 -0.086852744 -0.44088337 -0.16817752 -0.23150782 -0.18264528 -0.10527379 -0.036379345
-0.035291474 -0.00056958565 0.005479625 -0.17623246 -0.08786306 -0.13194273 -0.053631674 -0.11637287
-0.18251477 -0.12406962 -0.09809135 -0.0006299184 -0.11363505 -0.10444668 -0.053538688 -0.06516886
-0.25399467 -0.26056832 0.017138947 -0.356143 -0.024697201 -0.088821016 -0.28705114 -0.12928338
0.07700213 -0.05896209 -0.118639216 0.055364612 -0.0044152215 -0.12088444 -0.095020585 -0.190953
-0.258123 -0.13707846 -0.22255997 -0.18416344 -0.001617827 -0.15814863 0.0123134 -0.13660672
-0.17345174 -0.11480676 -0.098756574 -0.13760312 0.014387474 -0.15252902 -0.31847954 -0.06361434
-0.08266191 -0.22769007 -0.1536138 -0.20569414 -0.10125891 -0.17851248 -0.10196966 -0.2638729
0.037803996 -0.068058535 -0.09933662 -0.24670593 -0.17492732 -0.04658062 -0.18083683 -0.23912704
-0.22583619 -0.1914632 -0.13469268 0.07576915 -0.0018429804 -0.039458625 -0.17658691 -0.20894334
-0.2285937 -0.14003931 -0.015308505 0.018668007 -0.1571035 -0.17601886 -0.19790943 -0.0020353762
-0.059152655 -0.0150085855 -0.19025125 0.018270753 -0.13750286 0.045231055 -0.111123145 -0.15995355
-0.0826279 -0.017047273 0.02815355 -0.20596956 -0.17168978 -0.086644724 -0.02731237 0.025845973
-0.069196895 -0.11737587 0.045177635 -0.0784258 0.030901937 -0.30482897 -0.22662398 -0.40176395
-0.33640924 -0.026043762 0.00635188 -0.1764149 -0.08949439 -0.013666156 0.115719825 -0.11942669
-0.03228899 -0.18426324 0.007171868 -0.16865842 -0.16968353 0.12693381 -0.10054835 -0.11033646
-0.06488153 -0.29045218 -0.18307118 -0.062856756 -0.0019264921 -0.09522974 -0.11909738 -0.3554973
-0.14611603 -0.18862422 -0.00818786 -0.23214069 -0.025544884 -0.20859449 -0.0123173585 -0.22384727
-0.15520476 -0.14711116 -0.15944922 -0.14636078 -0.31980553 -0.055749614 0.013885877 -0.1354205
0.024908999 -0.05910613 -0.10552662 -0.15573148 -0.1252035 -0.042231895 0.02394118 -0.1220425
-0.0880299 -0.31685996 -0.08029116 -0.22436468 -0.26455593 -0.14250754 -0.12887958 -0.12316199
-0.011447009 -0.065976 0.0033166476 -0.29944494 -0.3539811 -0.16550769 -0.2702293 -0.0602414
-0.13197842 -0.11654885 -0.29433244 -0.12634484 -0.17686968 -0.2602913 -0.016679056 -0.05735461
-0.35854468 -0.333491 0.02679641 -0.017600406 -0.1442376 -0.17912714 0.081169605 -0.12749907
-0.057422645 -0.21699911 -0.113189995 -0.0015645812 -0.17106287 -0.22801004 -0.120439455 -0.32382724
00000000: 2293 22be e418 69bd b949 d4bc 6ba0 4cbe
00000010: a5ec 88be e4d8 edbd f13f 923c aa4a 56be
00000020: d53e 29be 86f1 40be b504 e5bd a4e6 8ebe
00000030: fc97 8b3b 0655 6dbe d9af c7bd 12e5 1cbe
00000040: ad15 8abe ba21 59be a0ee 2bbe 090c ebbd
00000050: 7cbd 84be 87ae 09be c803 ecbd 9c9d 5cbd
00000060: 2d13 a8be 528a 16be 439f 3bbd c6df 87bd
00000070: 9221 23be bd96 82be 643a bbbc 0fce 85bd
00000080: 33f4 babd 479d 90be aaea 23be 87f9 17be
00000090: 1913 15bd b833 523d 81f9 56be dec8 33be
000000a0: 67d8 0bbe c33c 33be 7e22 1ebd 0242 02be
000000b0: c368 f0bd cd46 90bd 27df 68bd fdf3 62bc
000000c0: bc32 81be 9bae 8abe ad3a 8d3c b6ee e1bd
000000d0: d6e6 c7bd b50f a4bc 3d81 e1bd 6e16 aabd
000000e0: da93 50bd dadf b1bd 77bb e1be ba36 2cbe
000000f0: 6310 6dbe 5d07 3bbe c999 d7bd 8202 15bd
00000100: cb8d 10bd 3f50 15ba 6d8e b33b 4876 34be
00000110: 8cf1 b3bd ff1b 07be e3ac 5bbd e654 eebd
00000120: 27e5 3abe 3718 febd 1ee4 c8bd 1c21 25ba
00000130: 7eb9 e8bd 24e8 d5bd 624b 5bbd 4077 85bd
00000140: 970b 82be 3669 85be fa66 8c3c 6058 b6be
00000150: c951 cabc cbe7 b5bd 5ef8 92be dd62 04be
00000160: 4bb3 9d3d 3c82 71bd 1ef9 f2bd 01c6 623d
00000170: 90ad 90bb 4392 f7bd 279a c2bd 2f89 43be
00000180: b328 84be 4c5e 0cbe c3e6 63be 5795 3cbe
00000190: 440d d4ba b7f1 21be 25be 493c a2e2 0bbe
000001a0: 559d 31be ce1f ebbd e340 cabd d5e7 0cbe
000001b0: 71b9 6b3c 9130 1cbe c00f a3be 3c48 82bd
000001c0: a64a a9bd 9627 69be f04c 1dbe 7ca1 52be
000001d0: d560 cfbd facb 36be 78d5 d0bd 591a 87be
000001e0: 5dd8 1a3d 4662 8bbd ff70 cbbd 7ba0 7cbe
000001f0: 2620 33be 52cb 3ebd 4a2d 39be b8dd 74be
00000200: 9a41 67be ee0e 44be e1ec 09be db2c 9b3d
00000210: 2990 f1ba 5e9f 21bd 33d3 34be 3ef5 55be
00000220: 7814 6abe 7766 0fbe 86d0 7abc a6ed 983c
00000230: bddf 20be 4a3e 34be c5a8 4abe f263 05bb
00000240: 0e4a 72bd 92e6 75bc 39d1 42be 8cac 953c
00000250: 8dcd 0cbe 3344 393d 8894 e3bd ddca 23be
00000260: d138 a9bd b9a6 8bbc 46a2 e63c afe9 52be
00000270: 72cf 2fbe ca72 b1bd 31be dfbc efba d33c
00000280: 1ab7 8dbd c362 f0bd 2f0c 393d b59d a0bd
00000290: 0f26 fd3c 8b12 9cbe 1e10 68be 01b4 cdbe
000002a0: d53d acbe ba59 d5bc 6e23 d03b 1ca6 34be
000002b0: d648 b7bd 03e8 5fbc 84fe ec3d fb95 f4bd
000002c0: 7641 04bd 81af 3cbe fd01 eb3b cbb4 2cbe
000002d0: 85c1 2dbe f0fa 013e 4bec cdbd 15f8 e1bd
000002e0: 9ce0 84bd 26b6 94be 0377 3bbe 0bbb 80bd
000002f0: 5982 fcba cf07 c3bd 54e9 f3bd be03 b6be
00000300: 719f 15be b526 41be 6026 06bc 4ab6 6dbe
00000310: 8143 d1bc cb99 55be bfce 49bc 3838 65be
00000320: ffed 1ebe 4fa4 16be a846 23be 9adf 15be
00000330: 8dbd a3be b559 64bd 9781 633c acab 0abe
00000340: f50d cc3c 4519 72bd 571e d8bd 1378 1fbe
00000350: 5935 00be 5afb 2cbd 4b20 c43c 6bf1 f9bd
00000360: 0549 b4bd 783b a2be b16f a4bd dbbf 65be
00000370: e073 87be 7fed 11be 02f9 03be 5a3c fcbd
00000380: 3c8c 3bbc 6d1e 87bd 1d5c 593b d950 99be
00000390: 033d b5be d97a 29be 7f5b 8abe b0bf 76bd
000003a0: 5a25 07be 2ab1 eebd beb2 96be 8b60 01be
000003b0: 531d 35be e744 85be 84a2 88bc abec 6abd
000003c0: 2b93 b7be 55bf aabe 2584 db3c ba2e 90bc
000003d0: 05b3 13be 1b6d 37be 403c a63d 1e8f 02be
000003e0: 0234 6bbd 0435 5ebe 28d0 e7bd a212 cdba
000003f0: 1b2b 2fbe 777b 69be f6a8 f6bd afcc a5be
