TABULAR/Figure2Reproduce/Poisoned/GERMAN_L2_FCN_e=0.1_g=0.0_a=1.0_l=2_h=256_s=True_p=0.1.pt (torch, 331927 bytes, 10 tensors)

lays.0.weight f4 [256, 62]
0	0xbe6e69d3	-0.23282556
1	0x3cae0774	0.021243788
2	0xbeb55a99	-0.35420683
3	0xbd573b59	-0.052546833
4	0x3cfd719b	0.03093796
5	0xbe7e1125	-0.24811228
6	0xbe963789	-0.29339245
7	0x3c0d736a	0.008633474
8	0xbe671e17	-0.22570072
9	0xbc9b8240	-0.018983006
10	0xbe1cbb2e	-0.15305778
11	0x3e07af44	0.13250452
12	0xbeb4e577	-0.35331318
13	0xbdc5eda4	-0.09664467
14	0xbe5c7760	-0.21529913
15	0x3d14840e	0.03625875
16	0x3db67999	0.08909912
17	0xbdafa792	-0.085768834
18	0x3d94d9a1	0.07268072
19	0xbd66f96b	-0.056390207
20	0x3d45bc6e	0.048275404
21	0xbe10fde7	-0.14159356
22	0xbe746a14	-0.2386859
23	0x3eb30c3f	0.3497028
24	0xbe1f1de1	-0.15538742
25	0xbe3983e6	-0.18116722
26	0x3ec9ec58	0.39438128
27	0x3dc419a4	0.09575203
28	0xbe89b25e	-0.26893896
29	0xbdfc0d8c	-0.12307271
30	0x3ea8b832	0.3295303
31	0x3dbbb90e	0.09166156
32	0xbeb6e95f	-0.35724923
33	0x3bb55a16	0.0055344207
34	0xbe07d6cf	-0.13265537
35	0xbe8f82dd	-0.28029528
36	0xbdf25287	-0.11832147
37	0x3deb5848	0.11491448
38	0xbd797a4c	-0.060907647
39	0xbdf98f8e	-0.12185584
40	0xbd3c678f	-0.0459972
41	0xbe8abcb1	-0.27097085
42	0x3e4496e9	0.19198193
43	0xbe0355e4	-0.12825733
44	0xbe8d5e95	-0.27611223
45	0xbde4f667	-0.1117981
46	0x3e602e60	0.2189269
47	0x3d9b4294	0.07581058
48	0xbe909163	-0.2823592
49	0xbd266384	-0.04062225
50	0x3e9a6cd5	0.30161157
51	0xbe1483c8	-0.14503396
52	0x3e8688ee	0.26276344
53	0x3e94c301	0.29055026
54	0xbdaeeaa3	-0.08540847
55	0x3c47b4a4	0.012189064
56	0xbdf17382	-0.117896095
57	0xbe88af6c	-0.26696336
58	0x3d05d7f4	0.032676652
59	0xbe6e28ad	-0.23257704
60	0xbe457407	-0.19282542
61	0x3ddbe568	0.10737115
62	0xbe003e25	-0.12523706
63	0xbd340dbb	-0.043958407
64	0x3c82d636	0.015971284
65	0x3ce8378f	0.028346805
66	0xbd170009	-0.036865268
67	0xbcc032b3	-0.023461675
68	0x3d007a2c	0.031366512
69	0x3d5cef41	0.053939108
70	0xbe3e3a3d	-0.18576904
71	0xbd989e97	-0.074521236
72	0x3e18135d	0.14851137
73	0x3cb0533e	0.021524068
74	0x3e0d6120	0.13806581
75	0x3da43e3d	0.080196835
76	0xbdb4eeef	-0.088346355
77	0xbdfe2807	-0.12409978
78	0x3be9e1fa	0.007137534
79	0xbe081a5d	-0.13291307
80	0xbe321e22	-0.17394307
81	0x3ce72041	0.028213622
82	0x3d622eb8	0.055220336
83	0xbe328e12	-0.17437008
84	0xbd18475e	-0.037177436
85	0xbd92ad43	-0.07161953
86	0xbd9c3318	-0.07626933
87	0xbdf5d11c	-0.12002775
88	0x3ddfeb50	0.10933554
89	0xbe17b970	-0.14816833
90	0xbc2f9095	-0.010715623
91	0xbc595eea	-0.013267258
92	0x3d472e01	0.048627857
93	0xbd003c8f	-0.031307753
94	0xbe329efd	-0.17443462
95	0xbe0bdad7	-0.136577
96	0x3cee472a	0.029086668
97	0x3d7ae673	0.06125493
98	0xbe376f51	-0.17913558
99	0xbde0e3f3	-0.10980978
100	0x3d57c061	0.0526737
101	0x3d8e5c8d	0.069512464
102	0xbe0903ea	-0.133804
103	0xbdd8a3c6	-0.10578112
104	0xbe4583f1	-0.19288613
105	0x3d8063e5	0.06269053
106	0xbe49908e	-0.1968405
107	0xbe2c844c	-0.16847342
108	0xbd70a71c	-0.058753118
109	0x3da0fd0c	0.07860765
110	0xbd8b0882	-0.06788732
111	0x3cc3c536	0.023897748
112	0xbd337547	-0.043813016
113	0x3d543972	0.051812597
114	0x3c9b3b34	0.018949129
115	0xbd30c361	-0.043155078
116	0xbda5cfc7	-0.08096271
117	0xbcda122f	-0.026619999
118	0xbd0b524f	-0.034014042
119	0xbd72e296	-0.05929812
120	0xba303656	-0.0006721964
121	0x3d8c319b	0.06845399
122	0xbe0edac0	-0.13950634
123	0x3c9023d4	0.01759521
124	0xbd8e399f	-0.06944584
125	0xbdf20564	-0.118174344
126	0xbe2997f0	-0.16561866
127	0xbd7c64f5	-0.061619718
128	0xbee626e6	-0.44951552
129	0xbe27ef97	-0.1639999
130	0x3d6fb4ff	0.05852222
131	0x3d9a5d4d	0.07537327
132	0xbdf571d6	-0.11984603
133	0xbd9aea27	-0.07564192
134	0x3e82e9fc	0.2556914
135	0xbe521745	-0.20516689
136	0xbe696e85	-0.22796066
137	0x3c61375c	0.013746109
138	0xbe3a0acc	-0.18168181
139	0x3de3b026	0.11117582
140	0x3e2ed233	0.17072372
141	0x3e263648	0.16231644
142	0xbdfaa114	-0.122377545
143	0xbe21df5b	-0.1580786
144	0xbe81d512	-0.25357872
145	0xbe13097a	-0.14359084
146	0xbe87f343	-0.2655278
147	0xbde3d16e	-0.1112393
148	0x3f2a4980	0.665184
149	0xbc0b720b	-0.008511077
150	0xbdf2eb16	-0.11861245
151	0x3dfe744f	0.12424528
152	0xbe53ae1d	-0.20671888
153	0xbd868988	-0.06569201
154	0xbd510303	-0.051028263
155	0xbe21e0d2	-0.15808418
156	0x3cdfafca	0.027305502
157	0x3de75fa4	0.11297539
158	0xbe853a77	-0.26021168
159	0x3dedfa1c	0.1161997
160	0xbd19b321	-0.037524346
161	0xbe8fbdb6	-0.28074425
162	0xbe1f6aad	-0.15568037
163	0x3da0ee79	0.07857985
164	0x3e3e1efe	0.1856651
165	0x3d8064f7	0.062692575
166	0xbe802f66	-0.25036162
167	0xbc7aac47	-0.015299863
168	0xbdce2f33	-0.10067596
169	0x3ec686ca	0.3877471
170	0x3cb4d632	0.022074793
171	0x3d6ef4c9	0.058338914
172	0x3dc8739a	0.09787674
173	0x3c3da703	0.011575463
174	0xbebf0495	-0.37308183
175	0x3e4e05d0	0.20119405
176	0xbe55ac1b	-0.20866434
177	0x3d6d8916	0.057992063
178	0x3dfb274c	0.12263355
179	0xbea56437	-0.3230302
180	0xbdf7726c	-0.12082371
181	0x3edb566f	0.4283938
182	0xbee45c64	-0.44601738
183	0x3b9679fd	0.004592179
184	0xba2b8dd4	-0.00065442664
185	0xbdda0be8	-0.10646802
186	0x3d38f229	0.045152817
187	0xbe262f07	-0.16228877
188	0x3dad6aba	0.08467622
189	0xbcaba2ca	-0.020951647
190	0xbe85866a	-0.26079112
191	0x3e5c6216	0.21521792
192	0xbde54750	-0.111952424
193	0x3d362862	0.044472106
194	0xbe89f798	-0.26946712
195	0xbe48ea7e	-0.19620702
196	0x3e16108c	0.1465475
197	0x3e780f1b	0.24224512
198	0x3ebba935	0.36652532
199	0xbe2aab97	-0.16667019
200	0xbe80d3d0	-0.251616
201	0x3ea371da	0.319228
202	0xbed3c725	-0.41362873
203	0xbd169ef0	-0.03677267
204	0xbe0d0076	-0.13769707
205	0x3c8c06d8	0.017093107
206	0x3eb0102e	0.34387344
207	0x3eb68f9f	0.3565645
208	0x3e370e46	0.17876539
209	0xbf0af524	-0.54280305
210	0xbedf1f31	-0.43578485
211	0xbdaffb0a	-0.08592804
212	0x3bf0cd1c	0.0073486697
213	0xbc8c61a2	-0.017136399
214	0xbd9535bb	-0.07285639
215	0xbe0c3bc2	-0.13694671
216	0xbd88da55	-0.066822685
217	0x3c62f1bc	0.013851579
218	0xbe4a8183	-0.19775967
219	0x3de530da	0.11190958
220	0xbe450044	-0.19238383
221	0x3e93c7a4	0.2886325
222	0xbe66c47f	-0.22535895
223	0xbe2d6534	-0.16933137
224	0xbddb1aa4	-0.10698441
225	0x3e45f8f5	0.19333251
226	0x3cc92671	0.024554463
227	0xbc89fd70	-0.016844481
228	0xbdcf2559	-0.101145454
229	0xbeaea564	-0.34110558
230	0xbe8ead87	-0.27866766
231	0xbd943dd1	-0.07238353
232	0xbe06fc79	-0.13182248
233	0xbe807352	-0.25087982
234	0x3e39bfb1	0.1813953
235	0xbd5cac03	-0.05387498
236	0x3f47c53c	0.7803533
237	0x3e86aad4	0.26302207
238	0xbd2b7a55	-0.04186471
239	0xbe226ae0	-0.15861082
240	0xbd52ea53	-0.051493
241	0xbd0b18ab	-0.033959072
242	0x3b0d790f	0.002158705
243	0xbf096155	-0.5366414
244	0x3e88c524	0.26712906
245	0x3dc2cf5d	0.09512208
246	0xbec719c1	-0.38886836
247	0x3e843bbf	0.25826833
248	0xbdb0a58f	-0.08625328
249	0xbef2547d	-0.47330084
250	0xbe875636	-0.2643296
251	0x3e8f6c08	0.2801211
252	0x3d35897e	0.044320576
253	0xbe90150d	-0.2814106
254	0xbed11124	-0.4083339
255	0xbea5bed0	-0.3237214

lays.0.bias f4 [256]
0	0xbe4913c6	-0.19636449
1	0xbd3e4055	-0.04644807
2	0x3dceb6d4	0.100934654
3	0xbebad364	-0.36489403
4	0xbeb50fa5	-0.35363498
5	0xbdd78cbb	-0.10524889
6	0x3c5ccecf	0.013477041
7	0x3d6e019d	0.058107007
8	0xbe35da7c	-0.17759126
9	0xbec98c69	-0.39364937
10	0xbcf0f007	-0.029411329
11	0xbe3dee97	-0.18548046
12	0xbb370d76	-0.0027931607
13	0xbee3f255	-0.44520822
14	0x3d340554	0.043950394
15	0xbe9fcb89	-0.31209973
16	0xbd4c0128	-0.04980579
17	0xbde3f69e	-0.11131023
18	0xbe314b13	-0.17313795
19	0xbdebc4fe	-0.11512183
20	0xbd7fb243	-0.062425863
21	0xbe081386	-0.13288698
22	0xbdd1d64d	-0.10245953
23	0x3d60d997	0.05489501
24	0x3a5bff0e	0.0008392193
25	0x3dde367b	0.10850235
26	0xbd57bd1e	-0.05267059
27	0xbe7c6581	-0.24648096
28	0xbe79a2f4	-0.24378568
29	0x3d8330c6	0.06405787
30	0xbddc4dba	-0.10757013
31	0xbd9915cb	-0.0747486
32	0xbdf59bbc	-0.119925946
33	0xbd40b4fc	-0.0470476
34	0xbd3edca8	-0.046597153
35	0xbea9c47d	-0.3315772
36	0xbd217b8a	-0.039424457
37	0xbdb09fd1	-0.086242326
38	0xbdd77476	-0.1052026
39	0xbd2bcf8b	-0.041945975
40	0xbe83a505	-0.25711837
41	0x3b280a7c	0.0025641015
42	0x3e2115fb	0.15731041
43	0xbde983a5	-0.11402062
44	0xbef24f30	-0.4732604
45	0xbd910a05	-0.07081989
46	0x3d17d26b	0.037065905
47	0xbe1a45b4	-0.15065652
48	0xbdb99ca3	-0.09063079
49	0x3d1f9b76	0.03896662
50	0x3c2c7324	0.010525499
51	0xbe118d85	-0.14214142
52	0xbdc79f14	-0.097471386
53	0xbe089d98	-0.13341367
54	0xbdadcc42	-0.08486225
55	0xbdd9e0d4	-0.10638586
56	0xbceea036	-0.029129129
57	0xbdb2646f	-0.087105624
58	0xbe912eec	-0.2835611
59	0xbe2fbf5a	-0.17162839
60	0xbdc1ebe4	-0.09468821
61	0xbec7b4a2	-0.39005
62	0xbd83a244	-0.06427434
63	0xbc869f53	-0.016433394
64	0xbe4c09e7	-0.19925652
65	0xbac9fee6	-0.0015411049
66	0x3ad776cc	0.0016438602
67	0xbd62a433	-0.055332374
68	0xbe4a5f56	-0.1976293
69	0xbe95d667	-0.29265139
70	0xbc26d44f	-0.010182454
71	0xbdff720f	-0.12472927
72	0xbe3feec6	-0.18743429
73	0xbe73c0ae	-0.2380397
74	0x3b1bca35	0.0023771648
75	0x3e265ebb	0.16247074
76	0x3d21a69a	0.039465524
77	0xbd623924	-0.055230275
78	0xbea8d625	-0.3297588
79	0xbe2b6b8b	-0.16740243
80	0xbe84e198	-0.25953364
81	0xbe84312b	-0.25818762
82	0x3c41b777	0.011823527
83	0xbe1af878	-0.15133846
84	0xbca4f4af	-0.020136205
85	0xbe65885b	-0.22415297
86	0xbd90bcfe	-0.070672974
87	0xbe0eb937	-0.13937841
88	0xbd27b923	-0.040948045
89	0xbe4a99eb	-0.19785278
90	0xbdf279ae	-0.11839615
91	0x3d39f0f2	0.0453958
92	0xbbf5bb49	-0.007499133
93	0xbe0da1c6	-0.13831243
94	0xbdc87b33	-0.097891234
95	0xbe448cc7	-0.19194327
96	0xbdb829db	-0.08992358
97	0xbd5c0b98	-0.053721994
98	0xbe8f25df	-0.2795858
99	0xbe3b028d	-0.18262692
100	0x3ded1d9d	0.11577914
101	0xbdf08d18	-0.117456615
102	0x3bf30c66	0.0074172495
103	0xbe0be2a2	-0.13660672
104	0xbe4ea6e9	-0.20180859
105	0xbec0bcf1	-0.3764415
106	0x3dfee0f6	0.12445252
107	0xbef754dc	-0.4830693
108	0x3b81aef2	0.0039576227
109	0xbe1bfead	-0.1523387
110	0xbd85ffe7	-0.0654295
111	0xbd7edfa0	-0.062224984
112	0xbdbe3271	-0.09286965
113	0xbe5522bd	-0.20814033
114	0xbd9da9f5	-0.07698432
115	0x3b9bfa95	0.0047600963
116	0xbec42b38	-0.38314223
117	0xbe384d00	-0.17998123
118	0xbdd0d578	-0.10196966
119	0xbecdf2f7	-0.4022443
120	0x3d204f31	0.039138023
121	0x3e182de9	0.14861263
122	0xbdd373ef	-0.10324847
123	0xbe28514b	-0.16437261
124	0xbe33b60f	-0.17549919
125	0xbe01eb8b	-0.12687509
126	0x3af2c2e2	0.0018521214
127	0xbebfc4fc	-0.37454975
128	0xbe31eade	-0.17374751
129	0xbbb639f2	-0.005561107
130	0xbd85f019	-0.065399356
131	0xbd595f47	-0.05306938
132	0xbc74e344	-0.0149467625
133	0xbe0cee49	-0.13762774
134	0xbe3bfb1a	-0.18357506
135	0xbdf10b64	-0.11769751
136	0xbe5f1f63	-0.21789317
137	0xbe4042c0	-0.18775463
138	0xbe40e56d	-0.18837519
139	0x3c133015	0.008983632
140	0xbe212f2c	-0.15740651
141	0xbe0bb063	-0.13641505
142	0xbe5f7180	-0.2182064
143	0xbd88bbb8	-0.066764295
144	0xbd926c28	-0.071495354
145	0xbda68e9a	-0.08132668
146	0xbe47714c	-0.19476813
147	0x3ad99f69	0.0016603294
148	0x3deffb07	0.117178015
149	0xbe7b53f1	-0.2454374
150	0xbdeb4522	-0.114877954
151	0xbe0cab4d	-0.13737221
152	0xbdd0e4e4	-0.101999074
153	0xbc7fea91	-0.01561989
154	0x3c48ef38	0.012264065
155	0xbe44e009	-0.19226088
156	0xbeb1f4d0	-0.3475709
157	0xbe02cf26	-0.12774333
158	0xbdd2352a	-0.102640465
159	0x3cb17fca	0.02166738
160	0xbb724920	-0.0036969855
161	0xbd30bc01	-0.043148044
162	0x3d390c0e	0.045177512
163	0xbda8dc36	-0.08245127
164	0xbddafbbe	-0.10692547
165	0xbddde597	-0.108348064
166	0x3de3558a	0.111003
167	0xbe81ed3e	-0.25376314
168	0xbe2caddc	-0.16863197
169	0x3da6122e	0.08108936
170	0x3bc92d8c	0.006139463
171	0xbe474a8d	-0.19462033
172	0xbe64f147	-0.22357665
173	0xbc054e71	-0.008136378
174	0x3d5a9280	0.05336237
175	0xbde144db	-0.10999461
176	0xbd50723e	-0.0508902
177	0xbe7509f1	-0.23929574
178	0x3b31d5df	0.0027135534
179	0xbd0456ed	-0.03230946
180	0xbe2dc130	-0.16968226
181	0x3d34b2d3	0.044115853
182	0xbe706b1d	-0.2347836
183	0xbe0612cb	-0.13093106
184	0xbd84e09c	-0.06488153
185	0xbe09aef3	-0.13445644
186	0xbe96d248	-0.29457307
187	0x3d892433	0.066963576
188	0x3df00b31	0.117208846
189	0xbdbc936c	-0.09207806
190	0xbef8fc24	-0.48629868
191	0xbe5cefc4	-0.21575838
192	0xbe1becac	-0.15227002
193	0xbe44019f	-0.19141243
194	0xbc7d380c	-0.015455257
195	0xbe45b155	-0.19305928
196	0xbedf6cca	-0.43637687
197	0xbdd26993	-0.10274043
198	0xbd65f0cc	-0.056137845
199	0xbe54f1da	-0.20795384
200	0xbd9d8363	-0.07691076
201	0xbe4f40bc	-0.20239538
202	0xbe2346a8	-0.15944922
203	0xbcf4ebbb	-0.029897561
204	0xbe1e10e2	-0.15436128
205	0xbd7acf0a	-0.061232604
206	0xbdd40f5b	-0.10354491
207	0xbe01749c	-0.12642139
208	0x3cab0302	0.020875458
209	0xbd7724bc	-0.060337767
210	0xbec8f7bf	-0.39251515
211	0xbe34b4b6	-0.17647061
212	0x3da4e387	0.0805121
213	0x3c7c9b0e	0.015417827
214	0x3e331732	0.17489317
215	0xba925761	-0.0011164957
216	0xbe55ca42	-0.20877936
217	0xbe6fa908	-0.23404324
218	0xbe3d0404	-0.18458563
219	0xbd6766b4	-0.05649443
220	0xbddf790f	-0.10911762
221	0xbc216dc3	-0.009852829
222	0xbe083463	-0.13301234
223	0x3d8179aa	0.06322034
224	0xbc354484	-0.011063699
225	0xbdf78f5f	-0.12087893
226	0x3b43fc2f	0.0029904952
227	0x3bac6e0f	0.0052621434
228	0xbe98bffa	-0.29833966
229	0xbd0f81d9	-0.03503594
230	0xbe2b77ee	-0.16744968
231	0xbe2c2810	-0.16812158
232	0xbe0d18db	-0.13779013
233	0xbe67b0af	-0.22625993
234	0xbdde0b77	-0.108420305
235	0x3ddac0a0	0.106812716
236	0x3cf891f5	0.030343035
237	0x3dcbde01	0.09954453
238	0xbe3430a1	-0.17596675
239	0xbd72af25	-0.059249062
240	0xbe72ad32	-0.23698881
241	0xbe2a49e9	-0.16629757
242	0x3e81fc95	0.25388017
243	0xbd033a51	-0.032038037
244	0xbdfe488a	-0.124161795
245	0x3de391b1	0.11111773
246	0xbd00a93f	-0.031411406
247	0xbd5931b2	-0.05302591
248	0xbe13c661	-0.14431144
249	0xbe6f6fa2	-0.23382428
250	0xbe8d1cc7	-0.27561018
251	0xbbe1fd0e	-0.0068966215
252	0xbe2e8cda	-0.17045918
253	0xbc533364	-0.01289067
254	0xbda7e1be	-0.08197354
255	0xbe90e46b	-0.2829927

lays.1.weight f4 [256, 256]
0	0xbdb2362a	-0.08701737
1	0xbdb7f8ae	-0.08982979
2	0xbd444841	-0.04792047
3	0xbd961d1b	-0.0732977
4	0xbc210e33	-0.0098300455
5	0xbdc5e16e	-0.09662138
6	0xbc2e27ca	-0.010629604
7	0xbe312d48	-0.1730243
8	0xbbb13200	-0.005407572
9	0xbdd7f7b0	-0.105452895
10	0xbcdd5c09	-0.027021425
11	0xbde70fa2	-0.112822786
12	0xbce91b86	-0.028455507
13	0xbc9693c0	-0.018381
14	0xbd75a485	-0.05997135
15	0xbcb33b0a	-0.021878738
16	0xbe358ece	-0.17730257
17	0xbc62747a	-0.0138217155
18	0xbd2fc06e	-0.042908125
19	0xbd6d5f8e	-0.057952456
20	0xbd7775b1	-0.060414974
21	0xbd6da907	-0.058022525
22	0xbdeb9a06	-0.11503987
23	0xbde1873e	-0.110121235
24	0xbc778873	-0.015108216
25	0xbd46d440	-0.04854226
26	0xbcd3b2f0	-0.02584216
27	0xbc83f1ec	-0.016106568
28	0xbd9fb075	-0.077973284
29	0xbdb7220c	-0.08942041
30	0xbda27dcd	-0.07934151
31	0xbc3e8c11	-0.011630074
32	0xbcbf7913	-0.023373162
33	0xbdeadcbf	-0.11467885
34	0xbde4be6d	-0.11169133
35	0xbd54626c	-0.051851675
36	0xbddda43d	-0.108223416
37	0xbd9bd0f9	-0.07608218
38	0xbd95607e	-0.07293795
39	0xbbf17609	-0.007368807
40	0xbd3ee83a	-0.046608187
41	0xbd8e746f	-0.06955802
42	0xbc358115	-0.011078139
43	0xbc82db15	-0.015973607
44	0xbdf2e163	-0.11859395
45	0xbd4520f2	-0.048127122
46	0xbcef33ec	-0.029199563
47	0xbdad30bf	-0.08456563
48	0x3dd5ce56	0.10439746
49	0xbd2ba122	-0.041901715
50	0xbc74d4e7	-0.014943338
51	0xbdb3019c	-0.08740541
52	0x3d8c6c8b	0.068566404
53	0xbdd87665	-0.10569457
54	0xbde8be59	-0.11364431
55	0xbda63740	-0.08116007
56	0xbabf00d5	-0.0014572392
57	0xbc6480e4	-0.013946746
58	0xbc7a6432	-0.0152826775
59	0x3da6848f	0.08130752
60	0xbdf39b61	-0.118948705
61	0xbe1162f5	-0.14197905
62	0xbc322b20	-0.01087454
63	0xbd9b0ab5	-0.075704016
64	0xbde5b81c	-0.11216757
65	0xbd9dfab6	-0.07713835
66	0xbc2cadfa	-0.010539526
67	0xbdbb0c7a	-0.09133239
68	0xbdad4206	-0.084598586
69	0xbdc5635d	-0.09638093
70	0xbdbabb95	-0.0911781
71	0xbd9df8e6	-0.07713489
72	0xbd5a6402	-0.05331803
73	0xbcc40995	-0.02393035
74	0xbd6fe795	-0.058570463
75	0xbde8db4b	-0.11369952
76	0xbe1b5757	-0.15170036
77	0xbe115861	-0.1419387
78	0xbdaa8e76	-0.083279535
79	0xbddd7f4a	-0.10815294
80	0xbd4a7a55	-0.04943307
81	0xbd20cd62	-0.03925837
82	0xbde53ba1	-0.11193014
83	0xbdde8036	-0.10864298
84	0xbcd64f6e	-0.026160922
85	0xbd210fd4	-0.039321736
86	0x3d45040d	0.048099566
87	0xbd89a358	-0.067206085
88	0xbdac1c7f	-0.08403873
89	0xbd391462	-0.045185454
90	0xbd4f45d2	-0.050603695
91	0xbd32626d	-0.043550897
92	0xbd2abc17	-0.041683283
93	0xbd2e28ba	-0.04251931
94	0xbd2c2f22	-0.042037137
95	0xbdae53de	-0.0851209
96	0x3aa475b7	0.0012547289
97	0xbd0bcbd5	-0.034129936
98	0xbd942018	-0.07232684
99	0x3ac605c0	0.0015107915
100	0xbdf2f047	-0.118622355
101	0xbda95bbb	-0.08269449
102	0xbda4ca46	-0.08046393
103	0xbcfc0d07	-0.03076793
104	0x3b230752	0.002487619
105	0xbda36e0e	-0.07979976
106	0xbbd46ea7	-0.0064829173
107	0xbde358a6	-0.11100893
108	0xbdc2d958	-0.09514111
109	0xbdc04d33	-0.093897246
110	0xbd84fd14	-0.06493583
111	0xbd6ba0fd	-0.057526577
112	0xbda09f70	-0.0784291
113	0xbced16ec	-0.028941594
114	0xbe0d0926	-0.13773021
115	0xbd2acfbc	-0.041702017
116	0xbc6fdf4e	-0.014640642
117	0xbd587778	-0.05284831
118	0xbda929fe	-0.082599625
119	0xbc4fbb12	-0.012678878
120	0xbab2f79e	-0.0013654118
121	0xbdc7e16a	-0.09759791
122	0xbde0854b	-0.109629236
123	0xbc0e0756	-0.008668741
124	0xbcd48ffe	-0.025947567
125	0xbb1eaca5	-0.002421179
126	0xbc9a5e41	-0.018843772
127	0xba285759	-0.0006421707
128	0xbd82e63a	-0.063915685
129	0xbd667cc9	-0.05627135
130	0x3c835f88	0.016036764
131	0xbd4b847c	-0.049686894
132	0xbcaf349c	-0.02138739
133	0xbd913038	-0.07089275
134	0xbd53529e	-0.05159246
135	0xbd1ce89a	-0.038307764
136	0xbc1764af	-0.009240313
137	0xbdef5252	-0.11685623
138	0xbd8aa08a	-0.06768902
139	0xbb866fc3	-0.0041026785
140	0xbd9cbc63	-0.076531194
141	0xbdbcbe58	-0.09215993
142	0xbd904c66	-0.07045822
143	0xbdbb3bcf	-0.09142267
144	0xbdc16268	-0.09442598
145	0xbc44265f	-0.011972039
146	0x3da52226	0.08063154
147	0xbcf86161	-0.030319871
148	0xbe4d671f	-0.20058869
149	0xbd221729	-0.03957287
150	0xbdb0d287	-0.08633905
151	0xbdc682b3	-0.09692898
152	0xbd00491c	-0.031319723
153	0xbc2f04db	-0.01068231
154	0xbdd64440	-0.104622364
155	0xbdb7cf06	-0.089750335
156	0xbdead807	-0.11466985
157	0xbe1fdaab	-0.15610759
158	0xbc02ad14	-0.007975835
159	0xbd21e36f	-0.03952354
160	0xbc0b5841	-0.008504928
161	0xbd5ff175	-0.05467363
162	0xbbc65d40	-0.0060535967
163	0xbaecd1e7	-0.0018067927
164	0xbbddddb5	-0.0067708143
165	0x3d544b8c	0.05182986
166	0xbc2da6d7	-0.01059886
167	0xbc22e8b9	-0.009943181
168	0xbcd396dc	-0.025828771
169	0xbdaa26a9	-0.08308155
170	0x3ce665ab	0.028124651
171	0xbe449a21	-0.1919942
172	0xbdaae9f3	-0.083454035
173	0xbdd0cf03	-0.10195734
174	0xbd04dfdc	-0.03244005
175	0x39a09bed	0.00030633752
176	0xbdebbcbe	-0.11510609
177	0xbddd07f6	-0.10792534
178	0xbcbbe686	-0.02293707
179	0xbdf358a5	-0.11882142
180	0xbd68c698	-0.05683002
181	0xbd1b95d8	-0.0379847
182	0xbdf846c4	-0.121228725
183	0xbd110529	-0.03540531
184	0xbdd86bd6	-0.10567443
185	0xbd4dfed4	-0.05029185
186	0xbdf39141	-0.11892939
187	0x3aaeb273	0.0013328328
188	0xbd86dc60	-0.06585002
189	0xbb886cf4	-0.004163379
190	0xbd81519e	-0.06314395
191	0xbd282ed3	-0.04106028
192	0xbd051281	-0.03248835
193	0xbdc407cc	-0.095718
194	0xbda90bab	-0.082541786
195	0xbd77c188	-0.0604873
196	0xbbe6263f	-0.0070236023
197	0xbd850b5f	-0.064963095
198	0x3ae4b4a7	0.0017448858
199	0xbb54d52d	-0.0032475695
200	0xbce685e8	-0.028140023
201	0xbe17dc6a	-0.14830175
202	0xbc9eed34	-0.019400217
203	0xbde8008f	-0.113282315
204	0xbdf3ee9b	-0.11910745
205	0xbd80301d	-0.06259177
206	0x39d213bf	0.00040069033
207	0xbc6e92a3	-0.014561328
208	0xbd4226fe	-0.047400467
209	0x3c9b69c4	0.018971331
210	0xbdd6f4e0	-0.10495925
211	0x3d001f29	0.031279717
212	0xbdfb0934	-0.12257615
213	0xbd7da2dc	-0.061922893
214	0xbe022263	-0.1270843
215	0xbcf2e272	-0.029648993
216	0xbde8492d	-0.11342082
217	0xbd517a4d	-0.051142026
218	0xbd9f09ec	-0.07765564
219	0xbc9ab317	-0.018884225
220	0xbe790681	-0.24318887
221	0xbbf001f2	-0.0073244506
222	0xbd92da34	-0.07170525
223	0xbdda0f79	-0.106474824
224	0xbd9ea86e	-0.07746969
225	0x3d4e95ef	0.050435957
226	0x3d640110	0.055665076
227	0xbd268da7	-0.040662434
228	0xbe13a344	-0.1441775
229	0xbd464b24	-0.048411503
230	0xbc93e442	-0.018053178
231	0xbd458efa	-0.048232056
232	0xbdba3366	-0.09091835
233	0xbdde8771	-0.10865677
234	0xbd2b86ad	-0.041876484
235	0xbad922fe	-0.0016566215
236	0xbe0ff725	-0.14059122
237	0xbdbcbff2	-0.09216298
238	0xbd87338d	-0.066016294
239	0xbdc53a61	-0.096302755
240	0xbddd067e	-0.10792254
241	0x3d1ee278	0.038790196
242	0xbda2ec28	-0.079551995
243	0x3cc43ca3	0.023954695
244	0xbd8c15e8	-0.06840116
245	0xbde6019a	-0.11230774
246	0xbca935f6	-0.020655613
247	0xbd3df493	-0.046375822
248	0xbd9a120b	-0.07522973
249	0xbd1ecaec	-0.03876774
250	0x3d2caf66	0.04215946
251	0xbd892e2b	-0.06698259
252	0xbd05d219	-0.032671068
253	0xbdf1e78b	-0.118117414
254	0x3ddfc831	0.10926855
255	0xbc7d5fb8	-0.015464716

lays.1.bias f4 [256]
0	0xbe4c3201	-0.1994095
1	0xbe1f5b60	-0.155622
2	0xbeb60d0a	-0.35556823
3	0xbdcbd56a	-0.09952815
4	0x3eb76489	0.3581889
5	0xbd70cbed	-0.05878823
6	0xbdda222a	-0.106510475
7	0x3e7b1beb	0.24522369
8	0x3e1340e9	0.1438023
9	0xbd512763	-0.051062953
10	0xbdcfba3f	-0.101429455
11	0xbe38b701	-0.1803856
12	0x3c29ee7d	0.010371801
13	0x3d75ac15	0.059978563
14	0x3e91580c	0.28387487
15	0x3e745e83	0.23864178
16	0x3ecfcb85	0.4058496
17	0x3f1950f0	0.59889126
18	0xbd631a92	-0.05544526
19	0xbdb1afaf	-0.08676087
20	0x3dfcf4a8	0.12351352
21	0xbdd12b10	-0.10213292
22	0xbd288f26	-0.041152142
23	0xbcbbbd8f	-0.022917537
24	0x3ed68751	0.41900113
25	0x3e1c9348	0.15290558
26	0xbdca1db8	-0.0986895
27	0xbe0f9c83	-0.14024548
28	0xbdc5720d	-0.09640894
29	0x3d40b1bb	0.047044497
30	0x3d8e61bc	0.06952235
31	0x3efe15c8	0.49625993
32	0x3f3625e4	0.71151567
33	0xbd8ff28b	-0.07028683
34	0xbd5ea6cb	-0.054358285
35	0x3ead73c7	0.33877394
36	0xbdbf1fd7	-0.09332245
37	0x3efadb2d	0.48995343
38	0x3e09602c	0.13415593
39	0xbe6c869b	-0.23098223
40	0x3ee4dae8	0.44698262
41	0xbce780de	-0.02825969
42	0xbdd38306	-0.10327725
43	0x3eaeb873	0.341251
44	0x3de417cb	0.11137351
45	0x3d44cacf	0.048044976
46	0xbd75523f	-0.05989289
47	0x3e6f8c94	0.2339347
48	0x3ee9549f	0.45572373
49	0x3eb45b34	0.35225832
50	0x3e60b77c	0.21944994
51	0x3e71e926	0.23624095
52	0x3e0c4764	0.13699108
53	0x3e559b15	0.2085994
54	0x3f20a627	0.6275353
55	0xbebb21c9	-0.36549214
56	0x3d8a50d3	0.06753697
57	0xbe0e3865	-0.138887
58	0xbde8d250	-0.11368239
59	0x3f1b1829	0.6058374
60	0x3f2653a8	0.649714
61	0xbe869015	-0.262818
62	0x3edb2638	0.42802596
63	0x3ea1a317	0.3156974
64	0xbe523b02	-0.20530322
65	0x3e6f1a75	0.23349936
66	0x3e8c2d3e	0.27378267
67	0xbd88331c	-0.06650373
68	0x3df98e13	0.12185302
69	0x3f1e8f3f	0.61937326
70	0x3e92cd4b	0.2867225
71	0xbd0719df	-0.032983657
72	0xbdf8963c	-0.1213803
73	0xbd3d106c	-0.04615824
74	0xbce43537	-0.027857406
75	0x3ee21a72	0.441608
76	0xbda8a0f3	-0.082338236
77	0xbe5e66e3	-0.21718936
78	0x3ece3136	0.4027192
79	0xbdbc35a3	-0.09189918
80	0xbe5d9f75	-0.2164286
81	0xbf04f25a	-0.519323
82	0x3e9926fa	0.2991255
83	0x3f128673	0.57236403
84	0x3eaca6aa	0.33720905
85	0xbd194cf5	-0.037426908
86	0x3ccdae21	0.025107445
87	0x3f26b53d	0.651203
88	0x3ef126b2	0.47099835
89	0xbe265f5d	-0.16247316
90	0xbd705426	-0.058674
91	0x3e223c8d	0.15843411
92	0xbca3b182	-0.019982103
93	0x3e847573	0.25870857
94	0xbd444a61	-0.047922496
95	0xbe24b1b8	-0.1608342
96	0xbe80c186	-0.25147647
97	0x3f1514f2	0.58235085
98	0x3f0ac665	0.54208976
99	0xbdd0f790	-0.10203469
100	0xbe196dd7	-0.14983307
101	0xbe05739f	-0.13032387
102	0xbeddad42	-0.43296248
103	0xbe41ba06	-0.18918619
104	0x3e848f4b	0.25890574
105	0x3ec58500	0.38578033
106	0xbdb2807f	-0.08715915
107	0x3ec919f1	0.39277604
108	0x3e639144	0.22223383
109	0x3d76b989	0.060235534
110	0x3da37277	0.07980817
111	0x3f06b71b	0.52623147
112	0xbdadb811	-0.084823735
113	0xbd0e4def	-0.034742292
114	0xbd7dd58e	-0.06197124
115	0x3e52f3cb	0.20600812
116	0x3ec321f9	0.38111857
117	0x3dd1b50d	0.10239611
118	0x3e80edcc	0.25181425
119	0xbe07e052	-0.13269165
120	0x3de6dcfb	0.112726174
121	0x3ec502c4	0.38478673
122	0xbe293fd9	-0.16528262
123	0xbe012956	-0.12613425
124	0xbd87dd9f	-0.06634068
125	0x3f3156d9	0.69273144
126	0x3d84a68c	0.06477079
127	0xbe6c91c7	-0.23102485
128	0xbd1abb09	-0.037776027
129	0x3ea29363	0.31753072
130	0x3e95f92a	0.2929166
131	0xbde88e45	-0.11355261
132	0x3ef836c8	0.48479295
133	0xbd0e43e2	-0.034732707
134	0x3e82f245	0.25575462
135	0x3e557810	0.20846581
136	0xbdcbc274	-0.09949198
137	0xbe45b289	-0.19306387
138	0xbeb23374	-0.3480488
139	0x3f38c370	0.72173214
140	0x3e8be960	0.27326488
141	0x3e2c6d52	0.16838577
142	0x3f4bce86	0.79612005
143	0xbd3bf75c	-0.045890197
144	0x3f05136e	0.5198277
145	0xbcfe4186	-0.031037103
146	0x3c981675	0.018565396
147	0x3f252ffb	0.6452634
148	0x3edf951e	0.43668455
149	0x3ef268c5	0.47345558
150	0x3dd9faa8	0.10643512
151	0x3e4433e0	0.19160414
152	0x3e870dae	0.26377624
153	0x3e326687	0.17421924
154	0x3d93ec1c	0.07222769
155	0x3d9a13b9	0.07523293
156	0x3f262d97	0.64913315
157	0x3d64a12a	0.05581776
158	0x3e321a8c	0.1739294
159	0xbec97275	-0.39345136
160	0x3f62ab4e	0.8854264
161	0xbdb86503	-0.090036415
162	0x3f1d80c9	0.61524636
163	0xbd773dca	-0.06036166
164	0xbd1562c5	-0.036471147
165	0x3e77e7cb	0.24209516
166	0xbd723b44	-0.05913855
167	0xbdb460a4	-0.08807495
168	0xbebd18e4	-0.36933053
169	0x3f12c125	0.57325965
170	0xbd754374	-0.05987878
171	0xbdaddc8e	-0.08489333
172	0xbd928b0e	-0.07155429
173	0x3e98ffb0	0.29882574
174	0x3e9a35c8	0.30119157
175	0x3e019325	0.12653787
176	0x3cfc0895	0.030765811
177	0xbf072533	-0.52791137
178	0x3e83b5ea	0.25724727
179	0xbd640f40	-0.055678606
180	0xbe6c50d1	-0.23077704
181	0xbd981318	-0.07425517
182	0x3f0903d4	0.53521466
183	0x3e60dcc6	0.21959218
184	0xbd8b7021	-0.06808496
185	0x3d1a22eb	0.037630957
186	0xbd9d8268	-0.07690889
187	0x3f070be3	0.5275251
188	0xbd6a13a7	-0.05714765
189	0xbddf94a8	-0.10917026
190	0x3c87032b	0.016481003
191	0x3ec7c280	0.3901558
192	0xbda67a42	-0.081287876
193	0x3dc025b5	0.09382192
194	0xbe088ac4	-0.13334185
195	0x3e3154ff	0.1731758
196	0x3df935a4	0.12168434
197	0x3eb98a62	0.3623839
198	0xbdc7f317	-0.097631626
199	0xbe97d536	-0.29654855
200	0xbc16780f	-0.009183898
201	0x3f19aa67	0.6002564
202	0x3f3f47b2	0.74718773
203	0xbdff8caa	-0.124780014
204	0xbd199d46	-0.037503503
205	0xbd22d333	-0.039752197
206	0x3f260db4	0.6486466
207	0xbdc49aa9	-0.095998116
208	0xbe6a0838	-0.22854698
209	0xbe1059f2	-0.14096811
210	0xbdf26fc5	-0.118377246
211	0xbe2dd9b3	-0.16977577
212	0x3e4b942c	0.19880742
213	0x3dfb5745	0.12272505
214	0x3def0a92	0.11671938
215	0xbdb7d84f	-0.089768045
216	0x3ecabd7d	0.39597693
217	0xbc709505	-0.0146839665
218	0x3e212503	0.15736775
219	0xbdf2c434	-0.11853829
220	0xbd9f9f92	-0.077941075
221	0xbe37a4cb	-0.17933957
222	0x3e7c583f	0.24643038
223	0xbdc8370b	-0.097761236
224	0xbead443a	-0.33841115
225	0xbe227790	-0.15865922
226	0x3e9cd601	0.30632022
227	0xbe7143ba	-0.23560992
228	0xbde149e9	-0.11000425
229	0xbdd53c79	-0.10411925
230	0x3eadc948	0.33942628
231	0x3f01d2f0	0.5071249
232	0x3eb9a02a	0.36255008
233	0x3f2aca9a	0.66715395
234	0xbd4d6548	-0.050145417
235	0x3e974519	0.29544905
236	0x3e8d0051	0.27539304
237	0xbe03a7cb	-0.12856977
238	0x3ea74d7a	0.32676297
239	0x3e967265	0.2938415
240	0xbd5ad3cf	-0.053424653
241	0xbdfa35ad	-0.12217269
242	0xbe3bc0b1	-0.18335225
243	0x3f12ebc3	0.57390994
244	0xbdfa2a4e	-0.122151
245	0xbe212855	-0.15738042
246	0xbd99995d	-0.07499955
247	0x3ec0e516	0.3767478
248	0xbdba2260	-0.09088588
249	0xbdd869a7	-0.105670266
250	0xbe6e08a3	-0.23245482
251	0xbdb02251	-0.08600295
252	0xbeb8bb70	-0.36080503
253	0x3d30046b	0.042972963
254	0x3f30e636	0.69101274
255	0x3e9ec9d6	0.31013364

lays.2.weight f4 [2, 256]
0	0xbd8f7ed4	-0.070066124
1	0xbdbaaa77	-0.09114545
2	0xbde6c5c7	-0.11268192
3	0x3d4d9b89	0.050197158
4	0xbce9728e	-0.028497007
5	0xbc7cbb65	-0.015425538
6	0xbd5fbed2	-0.05462534
7	0x3dc9f43a	0.09861036
8	0x3d5804c7	0.05273893
9	0x3b708564	0.00367006
10	0xbdb4a7c1	-0.08821059
11	0xbe229df0	-0.15880561
12	0x3d809a6b	0.06279453
13	0x3d9d81bf	0.07690763
14	0xbc8d1d89	-0.017225998
15	0x3e2f57cb	0.17123334
16	0xbd07e5f4	-0.033178285
17	0xbc2b533e	-0.010456858
18	0xbd9d346d	-0.07676015
19	0xbc1fd9b3	-0.009756493
20	0x3df0f59b	0.117655955
21	0xbc8ae2d6	-0.016953867
22	0xbb45c84d	-0.0030179203
23	0x3d26b380	0.04069853
24	0xbc9d9833	-0.019237613
25	0xbcaa5f31	-0.020797344
26	0xbd1fe270	-0.039034307
27	0xbc7504ce	-0.014954759
28	0x3b9c6070	0.0047722384
29	0x3d97625a	0.07391806
30	0x3c4e9971	0.0126098255
31	0xbc90030c	-0.017579578
32	0xbd90afa2	-0.07064749
33	0xbd8f6028	-0.07000762
34	0x3df89a7e	0.12138842
35	0xbc29e6e0	-0.010369986
36	0xbcb1598b	-0.021649143
37	0xbc9136a7	-0.017726256
38	0x3d00cda5	0.031446118
39	0xbe090a3d	-0.13382812
40	0xbd122a0a	-0.035684623
41	0x3e380683	0.17971234
42	0xbc8c1c1d	-0.01710325
43	0xbc693597	-0.014233968
44	0x3d0be9b6	0.03415843
45	0x3d4ad3e2	0.049518473
46	0x3d8d77f2	0.069076434
47	0x3d8d577a	0.069014505
48	0xbce68434	-0.028139211
49	0xbd2cc6ec	-0.042181894
50	0x3d88d029	0.066803284
51	0xbc6c15a7	-0.014409459
52	0x3da0afe4	0.078460485
53	0x3d882a1d	0.066486575
54	0xbcfc1a11	-0.030774148
55	0xbe65ac75	-0.22429068
56	0x3de6df18	0.112730205
57	0x3d524ea4	0.05134453
58	0xbc6b563d	-0.0143638225
59	0x3ba96594	0.0051695798
60	0xbcd3c4af	-0.025850622
61	0x3e1f79c1	0.15573789
62	0xbd1bd900	-0.038048744
63	0x3d7b8e9f	0.06141531
64	0xbd0a6d68	-0.033795744
65	0xbca50905	-0.020145902
66	0x3d04f7d1	0.0324629
67	0x3d15c115	0.03656109
68	0x3dacc46f	0.08435904
69	0xbc81f33f	-0.01586306
70	0xbc93db57	-0.018048925
71	0xbd1523cf	-0.036411103
72	0xbcd0eb5a	-0.02550285
73	0xbd7821f3	-0.06057925
74	0x39a7cb1c	0.0003200405
75	0xbc81a6d9	-0.01582663
76	0x3c88ebc4	0.016713984
77	0x3db8767c	0.09006974
78	0xbc36c488	-0.011155255
79	0x3c998958	0.018742248
80	0x3cd54786	0.026035082
81	0xbd030adb	-0.031992774
82	0xbd40a6d5	-0.047034103
83	0xbca95983	-0.020672565
84	0xbd8d6ca5	-0.06905488
85	0xbd5e87be	-0.054328673
86	0x3da8a327	0.08234244
87	0xbc6527f1	-0.013986574
88	0xbd953422	-0.07285334
89	0xbbeeeba4	-0.007291274
90	0xbd86e7f3	-0.065872096
91	0x3de527bb	0.111892186
92	0xbc52a01e	-0.012855558
93	0x3dabacd2	0.08382572
94	0xbc65577c	-0.013997909
95	0xbda0c34b	-0.07849749
96	0x3d16d15e	0.03682076
97	0xbc2de7eb	-0.010614376
98	0xbcc29ac9	-0.023755448
99	0x3ce786c4	0.028262503
100	0x3b6dfc8f	0.0036313867
101	0x3d9e30a8	0.07724124
102	0xbdbaeb93	-0.091269635
103	0xb9869110	-0.00025666552
104	0xbb985b97	-0.0046495902
105	0xbda99747	-0.08280807
106	0xbd44302a	-0.047897495
107	0x3d3f8108	0.046753913
108	0x3d16b997	0.036798086
109	0x3ce4ac7d	0.02791428
110	0xbd3277c8	-0.043571264
111	0xbd71039b	-0.05884133
112	0xbd21d5ba	-0.039510466
113	0xbd9707c6	-0.073745295
114	0xbce5a6b4	-0.028033592
115	0x3da7c715	0.08192269
116	0xbd4250f9	-0.047440503
117	0xbc3fb701	-0.011701346
118	0xbbfafb5a	-0.007659358
119	0x3c0a50c0	0.008442104
120	0x3dc1b6ee	0.09458719
121	0xbd19cad9	-0.037546966
122	0xbb102cc6	-0.0021999343
123	0xbd1deea8	-0.03855768
124	0xbda21646	-0.079144046
125	0xbc950177	-0.018189175
126	0x3df8c63b	0.121471845
127	0xbd94c20a	-0.072635725
128	0xbd9d128c	-0.07669553
129	0x3beaf1c2	0.007169933
130	0x3de3c5a2	0.1112168
131	0xbd719fc5	-0.05899026
132	0xbcec18dc	-0.028820448
133	0xbc15d770	-0.009145603
134	0xbd9eed54	-0.077601105
135	0x3d33a55d	0.043858875
136	0xbc943eec	-0.01809641
137	0xbc3f301f	-0.011669188
138	0x3d844b58	0.06459683
139	0xbcc1462c	-0.02359303
140	0xbd8f5efa	-0.07000537
141	0x3d536701	0.051611904
142	0xbd3bff4c	-0.045897767
143	0x3d00cc92	0.031445093
144	0xbc1a44ae	-0.009415789
145	0xbd809022	-0.06277491
146	0x3d2c84ab	0.04211871
147	0xbd6c9b0e	-0.05776506
148	0xbc1e1f5e	-0.009651033
149	0xbd438bda	-0.047740795
150	0x3e060361	0.13087226
151	0xbb4ff3d9	-0.0031731038
152	0x3ddf2892	0.1089641
153	0x3dad2970	0.08455169
154	0x3d9db2cc	0.077001184
155	0x3baab178	0.005209144
156	0xbc6c7731	-0.014432714
157	0x3dfa7350	0.12229025
158	0x3d5ebbe6	0.054378413
159	0x3e0b51e1	0.13605453
160	0xbc48c5fe	-0.012254236
161	0xbc4897c6	-0.012243217
162	0xbc270a80	-0.0101953745
163	0x3d24122b	0.04005639
164	0x3ca1fbf8	0.019773468
165	0xbd1d3e0f	-0.03838926
166	0xbd5709f0	-0.05249971
167	0x3cd90303	0.026490694
168	0x3e870791	0.2637296
169	0xbc16727f	-0.009182571
170	0x3d02ca43	0.031931173
171	0xbb60eb48	-0.0034319926
172	0xbd1c3300	-0.038134575
173	0xbcc9375b	-0.024562528
174	0x3dd40614	0.10352722
175	0x3bae5580	0.005320251
176	0xbcd6fac0	-0.026242614
177	0xbb15294f	-0.0022760218
178	0xbb2d6ebb	-0.0026463706
179	0x3db96a5f	0.09053492
180	0x3ce7640f	0.028245954
181	0x3d82accf	0.06380617
182	0xbcdd124c	-0.026986264
183	0x3c710794	0.014711279
184	0x3c78508c	0.015155923
185	0x3d585955	0.05281957
186	0xbcefb657	-0.029261751
187	0xbaab4971	-0.0013068152
188	0x3d3fc189	0.04681543
189	0x3d83e40d	0.064399816
190	0x3d90e45e	0.070748076
191	0xbcfa98a4	-0.030590363
192	0xbc418975	-0.0118125575
193	0x3dbc2b7c	0.091879815
194	0xbc1e8009	-0.009674081
195	0x3d3d6e8d	0.046248008
196	0xbcdc27ea	-0.026874501
197	0xbcf16986	-0.029469263
198	0x3ce721ef	0.028214423
199	0x3e3eb3eb	0.18623321
200	0x3d9abe33	0.07555809
201	0xbcec0124	-0.028809138
202	0xbc4132fc	-0.011791941
203	0x3db2d4aa	0.08731969
204	0xbc8077af	-0.01568207
205	0xbd0c9a83	-0.03432704
206	0xbbd76d83	-0.006574334
207	0xbc767ace	-0.015043927
208	0xbdd38776	-0.103285715
209	0xbc8a092f	-0.016850082
210	0xbc32f368	-0.01092229
211	0xbd45fa07	-0.048334148
212	0xbce044f3	-0.027376628
213	0x3d54c100	0.05194187
214	0x3e11b8b8	0.14230621
215	0x3d27cc0a	0.04096607
216	0xbb05db02	-0.0020424728
217	0x3daf06a3	0.08546188
218	0xbccbf453	-0.024896776
219	0xbc64a4f7	-0.013955346
220	0x3cec0e61	0.02881545
221	0xbc9bcf72	-0.019019816
222	0xbccf3ab9	-0.025296556
223	0xbcf28e00	-0.029608727
224	0x3dd74ced	0.10512719
225	0xba879079	-0.0010342739
226	0xbc5bc5dc	-0.013413873
227	0x3d037b3a	0.03209994
228	0x3db05903	0.08610728
229	0xbdaa3e41	-0.08312655
230	0xbc27e7c2	-0.010248126
231	0xbd6fe6ba	-0.058569647
232	0xbca0b5cf	-0.019617943
233	0xbcf58e59	-0.029975103
234	0x3cc7185b	0.024303606
235	0x3d3577e6	0.044303797
236	0xbe21b506	-0.15791711
237	0xbc8b75b3	-0.017023897
238	0x3c440aa7	0.01196543
239	0xbd36c1ed	-0.044618536
240	0xbc69679a	-0.014245892
241	0xbd9669f5	-0.073444284
242	0xbcb37e65	-0.021910856
243	0xbcc2d15d	-0.023781473
244	0x3ca2abc0	0.019857287
245	0x3db2580b	0.08708199
246	0xbd45a43a	-0.04825232
247	0xbcec0a39	-0.028813468
248	0x3d00a75f	0.031409618
249	0x3d9728f3	0.07380857
250	0xbd255c13	-0.040371012
251	0x3d26ca44	0.04072024
252	0x3dc08a27	0.094013505
253	0x3d7c1c35	0.061550338
254	0x3d187dbc	0.037229285
255	0xbcb4f27a	-0.022088278

lays.2.bias f4 [2]
0	0xbe99ff50	-0.300776
1	0x3ec2ef0e	0.3807301

l1.weight f4 [256, 62]
0	0xbe6e69d3	-0.23282556
1	0x3cae0774	0.021243788
2	0xbeb55a99	-0.35420683
3	0xbd573b59	-0.052546833
4	0x3cfd719b	0.03093796
5	0xbe7e1125	-0.24811228
6	0xbe963789	-0.29339245
7	0x3c0d736a	0.008633474
8	0xbe671e17	-0.22570072
9	0xbc9b8240	-0.018983006
10	0xbe1cbb2e	-0.15305778
11	0x3e07af44	0.13250452
12	0xbeb4e577	-0.35331318
13	0xbdc5eda4	-0.09664467
14	0xbe5c7760	-0.21529913
15	0x3d14840e	0.03625875
16	0x3db67999	0.08909912
17	0xbdafa792	-0.085768834
18	0x3d94d9a1	0.07268072
19	0xbd66f96b	-0.056390207
20	0x3d45bc6e	0.048275404
21	0xbe10fde7	-0.14159356
22	0xbe746a14	-0.2386859
23	0x3eb30c3f	0.3497028
24	0xbe1f1de1	-0.15538742
25	0xbe3983e6	-0.18116722
26	0x3ec9ec58	0.39438128
27	0x3dc419a4	0.09575203
28	0xbe89b25e	-0.26893896
29	0xbdfc0d8c	-0.12307271
30	0x3ea8b832	0.3295303
31	0x3dbbb90e	0.09166156
32	0xbeb6e95f	-0.35724923
33	0x3bb55a16	0.0055344207
34	0xbe07d6cf	-0.13265537
35	0xbe8f82dd	-0.28029528
36	0xbdf25287	-0.11832147
37	0x3deb5848	0.11491448
38	0xbd797a4c	-0.060907647
39	0xbdf98f8e	-0.12185584
40	0xbd3c678f	-0.0459972
41	0xbe8abcb1	-0.27097085
42	0x3e4496e9	0.19198193
43	0xbe0355e4	-0.12825733
44	0xbe8d5e95	-0.27611223
45	0xbde4f667	-0.1117981
46	0x3e602e60	0.2189269
47	0x3d9b4294	0.07581058
48	0xbe909163	-0.2823592
49	0xbd266384	-0.04062225
50	0x3e9a6cd5	0.30161157
51	0xbe1483c8	-0.14503396
52	0x3e8688ee	0.26276344
53	0x3e94c301	0.29055026
54	0xbdaeeaa3	-0.08540847
55	0x3c47b4a4	0.012189064
56	0xbdf17382	-0.117896095
57	0xbe88af6c	-0.26696336
58	0x3d05d7f4	0.032676652
59	0xbe6e28ad	-0.23257704
60	0xbe457407	-0.19282542
61	0x3ddbe568	0.10737115
62	0xbe003e25	-0.12523706
63	0xbd340dbb	-0.043958407
64	0x3c82d636	0.015971284
65	0x3ce8378f	0.028346805
66	0xbd170009	-0.036865268
67	0xbcc032b3	-0.023461675
68	0x3d007a2c	0.031366512
69	0x3d5cef41	0.053939108
70	0xbe3e3a3d	-0.18576904
71	0xbd989e97	-0.074521236
72	0x3e18135d	0.14851137
73	0x3cb0533e	0.021524068
74	0x3e0d6120	0.13806581
75	0x3da43e3d	0.080196835
76	0xbdb4eeef	-0.088346355
77	0xbdfe2807	-0.12409978
78	0x3be9e1fa	0.007137534
79	0xbe081a5d	-0.13291307
80	0xbe321e22	-0.17394307
81	0x3ce72041	0.028213622
82	0x3d622eb8	0.055220336
83	0xbe328e12	-0.17437008
84	0xbd18475e	-0.037177436
85	0xbd92ad43	-0.07161953
86	0xbd9c3318	-0.07626933
87	0xbdf5d11c	-0.12002775
88	0x3ddfeb50	0.10933554
89	0xbe17b970	-0.14816833
90	0xbc2f9095	-0.010715623
91	0xbc595eea	-0.013267258
92	0x3d472e01	0.048627857
93	0xbd003c8f	-0.031307753
94	0xbe329efd	-0.17443462
95	0xbe0bdad7	-0.136577
96	0x3cee472a	0.029086668
97	0x3d7ae673	0.06125493
98	0xbe376f51	-0.17913558
99	0xbde0e3f3	-0.10980978
100	0x3d57c061	0.0526737
101	0x3d8e5c8d	0.069512464
102	0xbe0903ea	-0.133804
103	0xbdd8a3c6	-0.10578112
104	0xbe4583f1	-0.19288613
105	0x3d8063e5	0.06269053
106	0xbe49908e	-0.1968405
107	0xbe2c844c	-0.16847342
108	0xbd70a71c	-0.058753118
109	0x3da0fd0c	0.07860765
110	0xbd8b0882	-0.06788732
111	0x3cc3c536	0.023897748
112	0xbd337547	-0.043813016
113	0x3d543972	0.051812597
114	0x3c9b3b34	0.018949129
115	0xbd30c361	-0.043155078
116	0xbda5cfc7	-0.08096271
117	0xbcda122f	-0.026619999
118	0xbd0b524f	-0.034014042
119	0xbd72e296	-0.05929812
120	0xba303656	-0.0006721964
121	0x3d8c319b	0.06845399
122	0xbe0edac0	-0.13950634
123	0x3c9023d4	0.01759521
124	0xbd8e399f	-0.06944584
125	0xbdf20564	-0.118174344
126	0xbe2997f0	-0.16561866
127	0xbd7c64f5	-0.061619718
128	0xbee626e6	-0.44951552
129	0xbe27ef97	-0.1639999
130	0x3d6fb4ff	0.05852222
131	0x3d9a5d4d	0.07537327
132	0xbdf571d6	-0.11984603
133	0xbd9aea27	-0.07564192
134	0x3e82e9fc	0.2556914
135	0xbe521745	-0.20516689
136	0xbe696e85	-0.22796066
137	0x3c61375c	0.013746109
138	0xbe3a0acc	-0.18168181
139	0x3de3b026	0.11117582
140	0x3e2ed233	0.17072372
141	0x3e263648	0.16231644
142	0xbdfaa114	-0.122377545
143	0xbe21df5b	-0.1580786
144	0xbe81d512	-0.25357872
145	0xbe13097a	-0.14359084
146	0xbe87f343	-0.2655278
147	0xbde3d16e	-0.1112393
148	0x3f2a4980	0.665184
149	0xbc0b720b	-0.008511077
150	0xbdf2eb16	-0.11861245
151	0x3dfe744f	0.12424528
152	0xbe53ae1d	-0.20671888
153	0xbd868988	-0.06569201
154	0xbd510303	-0.051028263
155	0xbe21e0d2	-0.15808418
156	0x3cdfafca	0.027305502
157	0x3de75fa4	0.11297539
158	0xbe853a77	-0.26021168
159	0x3dedfa1c	0.1161997
160	0xbd19b321	-0.037524346
161	0xbe8fbdb6	-0.28074425
162	0xbe1f6aad	-0.15568037
163	0x3da0ee79	0.07857985
164	0x3e3e1efe	0.1856651
165	0x3d8064f7	0.062692575
166	0xbe802f66	-0.25036162
167	0xbc7aac47	-0.015299863
168	0xbdce2f33	-0.10067596
169	0x3ec686ca	0.3877471
170	0x3cb4d632	0.022074793
171	0x3d6ef4c9	0.058338914
172	0x3dc8739a	0.09787674
173	0x3c3da703	0.011575463
174	0xbebf0495	-0.37308183
175	0x3e4e05d0	0.20119405
176	0xbe55ac1b	-0.20866434
177	0x3d6d8916	0.057992063
178	0x3dfb274c	0.12263355
179	0xbea56437	-0.3230302
180	0xbdf7726c	-0.12082371
181	0x3edb566f	0.4283938
182	0xbee45c64	-0.44601738
183	0x3b9679fd	0.004592179
184	0xba2b8dd4	-0.00065442664
185	0xbdda0be8	-0.10646802
186	0x3d38f229	0.045152817
187	0xbe262f07	-0.16228877
188	0x3dad6aba	0.08467622
189	0xbcaba2ca	-0.020951647
190	0xbe85866a	-0.26079112
191	0x3e5c6216	0.21521792
192	0xbde54750	-0.111952424
193	0x3d362862	0.044472106
194	0xbe89f798	-0.26946712
195	0xbe48ea7e	-0.19620702
196	0x3e16108c	0.1465475
197	0x3e780f1b	0.24224512
198	0x3ebba935	0.36652532
199	0xbe2aab97	-0.16667019
200	0xbe80d3d0	-0.251616
201	0x3ea371da	0.319228
202	0xbed3c725	-0.41362873
203	0xbd169ef0	-0.03677267
204	0xbe0d0076	-0.13769707
205	0x3c8c06d8	0.017093107
206	0x3eb0102e	0.34387344
207	0x3eb68f9f	0.3565645
208	0x3e370e46	0.17876539
209	0xbf0af524	-0.54280305
210	0xbedf1f31	-0.43578485
211	0xbdaffb0a	-0.08592804
212	0x3bf0cd1c	0.0073486697
213	0xbc8c61a2	-0.017136399
214	0xbd9535bb	-0.07285639
215	0xbe0c3bc2	-0.13694671
216	0xbd88da55	-0.066822685
217	0x3c62f1bc	0.013851579
218	0xbe4a8183	-0.19775967
219	0x3de530da	0.11190958
220	0xbe450044	-0.19238383
221	0x3e93c7a4	0.2886325
222	0xbe66c47f	-0.22535895
223	0xbe2d6534	-0.16933137
224	0xbddb1aa4	-0.10698441
225	0x3e45f8f5	0.19333251
226	0x3cc92671	0.024554463
227	0xbc89fd70	-0.016844481
228	0xbdcf2559	-0.101145454
229	0xbeaea564	-0.34110558
230	0xbe8ead87	-0.27866766
231	0xbd943dd1	-0.07238353
232	0xbe06fc79	-0.13182248
233	0xbe807352	-0.25087982
234	0x3e39bfb1	0.1813953
235	0xbd5cac03	-0.05387498
236	0x3f47c53c	0.7803533
237	0x3e86aad4	0.26302207
238	0xbd2b7a55	-0.04186471
239	0xbe226ae0	-0.15861082
240	0xbd52ea53	-0.051493
241	0xbd0b18ab	-0.033959072
242	0x3b0d790f	0.002158705
243	0xbf096155	-0.5366414
244	0x3e88c524	0.26712906
245	0x3dc2cf5d	0.09512208
246	0xbec719c1	-0.38886836
247	0x3e843bbf	0.25826833
248	0xbdb0a58f	-0.08625328
249	0xbef2547d	-0.47330084
250	0xbe875636	-0.2643296
251	0x3e8f6c08	0.2801211
252	0x3d35897e	0.044320576
253	0xbe90150d	-0.2814106
254	0xbed11124	-0.4083339
255	0xbea5bed0	-0.3237214

l1.bias f4 [256]
0	0xbe4913c6	-0.19636449
1	0xbd3e4055	-0.04644807
2	0x3dceb6d4	0.100934654
3	0xbebad364	-0.36489403
4	0xbeb50fa5	-0.35363498
5	0xbdd78cbb	-0.10524889
6	0x3c5ccecf	0.013477041
7	0x3d6e019d	0.058107007
8	0xbe35da7c	-0.17759126
9	0xbec98c69	-0.39364937
10	0xbcf0f007	-0.029411329
11	0xbe3dee97	-0.18548046
12	0xbb370d76	-0.0027931607
13	0xbee3f255	-0.44520822
14	0x3d340554	0.043950394
15	0xbe9fcb89	-0.31209973
16	0xbd4c0128	-0.04980579
17	0xbde3f69e	-0.11131023
18	0xbe314b13	-0.17313795
19	0xbdebc4fe	-0.11512183
20	0xbd7fb243	-0.062425863
21	0xbe081386	-0.13288698
22	0xbdd1d64d	-0.10245953
23	0x3d60d997	0.05489501
24	0x3a5bff0e	0.0008392193
25	0x3dde367b	0.10850235
26	0xbd57bd1e	-0.05267059
27	0xbe7c6581	-0.24648096
28	0xbe79a2f4	-0.24378568
29	0x3d8330c6	0.06405787
30	0xbddc4dba	-0.10757013
31	0xbd9915cb	-0.0747486
32	0xbdf59bbc	-0.119925946
33	0xbd40b4fc	-0.0470476
34	0xbd3edca8	-0.046597153
35	0xbea9c47d	-0.3315772
36	0xbd217b8a	-0.039424457
37	0xbdb09fd1	-0.086242326
38	0xbdd77476	-0.1052026
39	0xbd2bcf8b	-0.041945975
40	0xbe83a505	-0.25711837
41	0x3b280a7c	0.0025641015
42	0x3e2115fb	0.15731041
43	0xbde983a5	-0.11402062
44	0xbef24f30	-0.4732604
45	0xbd910a05	-0.07081989
46	0x3d17d26b	0.037065905
47	0xbe1a45b4	-0.15065652
48	0xbdb99ca3	-0.09063079
49	0x3d1f9b76	0.03896662
50	0x3c2c7324	0.010525499
51	0xbe118d85	-0.14214142
52	0xbdc79f14	-0.097471386
53	0xbe089d98	-0.13341367
54	0xbdadcc42	-0.08486225
55	0xbdd9e0d4	-0.10638586
56	0xbceea036	-0.029129129
57	0xbdb2646f	-0.087105624
58	0xbe912eec	-0.2835611
59	0xbe2fbf5a	-0.17162839
60	0xbdc1ebe4	-0.09468821
61	0xbec7b4a2	-0.39005
62	0xbd83a244	-0.06427434
63	0xbc869f53	-0.016433394
64	0xbe4c09e7	-0.19925652
65	0xbac9fee6	-0.0015411049
66	0x3ad776cc	0.0016438602
67	0xbd62a433	-0.055332374
68	0xbe4a5f56	-0.1976293
69	0xbe95d667	-0.29265139
70	0xbc26d44f	-0.010182454
71	0xbdff720f	-0.12472927
72	0xbe3feec6	-0.18743429
73	0xbe73c0ae	-0.2380397
74	0x3b1bca35	0.0023771648
75	0x3e265ebb	0.16247074
76	0x3d21a69a	0.039465524
77	0xbd623924	-0.055230275
78	0xbea8d625	-0.3297588
79	0xbe2b6b8b	-0.16740243
80	0xbe84e198	-0.25953364
81	0xbe84312b	-0.25818762
82	0x3c41b777	0.011823527
83	0xbe1af878	-0.15133846
84	0xbca4f4af	-0.020136205
85	0xbe65885b	-0.22415297
86	0xbd90bcfe	-0.070672974
87	0xbe0eb937	-0.13937841
88	0xbd27b923	-0.040948045
89	0xbe4a99eb	-0.19785278
90	0xbdf279ae	-0.11839615
91	0x3d39f0f2	0.0453958
92	0xbbf5bb49	-0.007499133
93	0xbe0da1c6	-0.13831243
94	0xbdc87b33	-0.097891234
95	0xbe448cc7	-0.19194327
96	0xbdb829db	-0.08992358
97	0xbd5c0b98	-0.053721994
98	0xbe8f25df	-0.2795858
99	0xbe3b028d	-0.18262692
100	0x3ded1d9d	0.11577914
101	0xbdf08d18	-0.117456615
102	0x3bf30c66	0.0074172495
103	0xbe0be2a2	-0.13660672
104	0xbe4ea6e9	-0.20180859
105	0xbec0bcf1	-0.3764415
106	0x3dfee0f6	0.12445252
107	0xbef754dc	-0.4830693
108	0x3b81aef2	0.0039576227
109	0xbe1bfead	-0.1523387
110	0xbd85ffe7	-0.0654295
111	0xbd7edfa0	-0.062224984
112	0xbdbe3271	-0.09286965
113	0xbe5522bd	-0.20814033
114	0xbd9da9f5	-0.07698432
115	0x3b9bfa95	0.0047600963
116	0xbec42b38	-0.38314223
117	0xbe384d00	-0.17998123
118	0xbdd0d578	-0.10196966
119	0xbecdf2f7	-0.4022443
120	0x3d204f31	0.039138023
121	0x3e182de9	0.14861263
122	0xbdd373ef	-0.10324847
123	0xbe28514b	-0.16437261
124	0xbe33b60f	-0.17549919
125	0xbe01eb8b	-0.12687509
126	0x3af2c2e2	0.0018521214
127	0xbebfc4fc	-0.37454975
128	0xbe31eade	-0.17374751
129	0xbbb639f2	-0.005561107
130	0xbd85f019	-0.065399356
131	0xbd595f47	-0.05306938
132	0xbc74e344	-0.0149467625
133	0xbe0cee49	-0.13762774
134	0xbe3bfb1a	-0.18357506
135	0xbdf10b64	-0.11769751
136	0xbe5f1f63	-0.21789317
137	0xbe4042c0	-0.18775463
138	0xbe40e56d	-0.18837519
139	0x3c133015	0.008983632
140	0xbe212f2c	-0.15740651
141	0xbe0bb063	-0.13641505
142	0xbe5f7180	-0.2182064
143	0xbd88bbb8	-0.066764295
144	0xbd926c28	-0.071495354
145	0xbda68e9a	-0.08132668
146	0xbe47714c	-0.19476813
147	0x3ad99f69	0.0016603294
148	0x3deffb07	0.117178015
149	0xbe7b53f1	-0.2454374
150	0xbdeb4522	-0.114877954
151	0xbe0cab4d	-0.13737221
152	0xbdd0e4e4	-0.101999074
153	0xbc7fea91	-0.01561989
154	0x3c48ef38	0.012264065
155	0xbe44e009	-0.19226088
156	0xbeb1f4d0	-0.3475709
157	0xbe02cf26	-0.12774333
158	0xbdd2352a	-0.102640465
159	0x3cb17fca	0.02166738
160	0xbb724920	-0.0036969855
161	0xbd30bc01	-0.043148044
162	0x3d390c0e	0.045177512
163	0xbda8dc36	-0.08245127
164	0xbddafbbe	-0.10692547
165	0xbddde597	-0.108348064
166	0x3de3558a	0.111003
167	0xbe81ed3e	-0.25376314
168	0xbe2caddc	-0.16863197
169	0x3da6122e	0.08108936
170	0x3bc92d8c	0.006139463
171	0xbe474a8d	-0.19462033
172	0xbe64f147	-0.22357665
173	0xbc054e71	-0.008136378
174	0x3d5a9280	0.05336237
175	0xbde144db	-0.10999461
176	0xbd50723e	-0.0508902
177	0xbe7509f1	-0.23929574
178	0x3b31d5df	0.0027135534
179	0xbd0456ed	-0.03230946
180	0xbe2dc130	-0.16968226
181	0x3d34b2d3	0.044115853
182	0xbe706b1d	-0.2347836
183	0xbe0612cb	-0.13093106
184	0xbd84e09c	-0.06488153
185	0xbe09aef3	-0.13445644
186	0xbe96d248	-0.29457307
187	0x3d892433	0.066963576
188	0x3df00b31	0.117208846
189	0xbdbc936c	-0.09207806
190	0xbef8fc24	-0.48629868
191	0xbe5cefc4	-0.21575838
192	0xbe1becac	-0.15227002
193	0xbe44019f	-0.19141243
194	0xbc7d380c	-0.015455257
195	0xbe45b155	-0.19305928
196	0xbedf6cca	-0.43637687
197	0xbdd26993	-0.10274043
198	0xbd65f0cc	-0.056137845
199	0xbe54f1da	-0.20795384
200	0xbd9d8363	-0.07691076
201	0xbe4f40bc	-0.20239538
202	0xbe2346a8	-0.15944922
203	0xbcf4ebbb	-0.029897561
204	0xbe1e10e2	-0.15436128
205	0xbd7acf0a	-0.061232604
206	0xbdd40f5b	-0.10354491
207	0xbe01749c	-0.12642139
208	0x3cab0302	0.020875458
209	0xbd7724bc	-0.060337767
210	0xbec8f7bf	-0.39251515
211	0xbe34b4b6	-0.17647061
212	0x3da4e387	0.0805121
213	0x3c7c9b0e	0.015417827
214	0x3e331732	0.17489317
215	0xba925761	-0.0011164957
216	0xbe55ca42	-0.20877936
217	0xbe6fa908	-0.23404324
218	0xbe3d0404	-0.18458563
219	0xbd6766b4	-0.05649443
220	0xbddf790f	-0.10911762
221	0xbc216dc3	-0.009852829
222	0xbe083463	-0.13301234
223	0x3d8179aa	0.06322034
224	0xbc354484	-0.011063699
225	0xbdf78f5f	-0.12087893
226	0x3b43fc2f	0.0029904952
227	0x3bac6e0f	0.0052621434
228	0xbe98bffa	-0.29833966
229	0xbd0f81d9	-0.03503594
230	0xbe2b77ee	-0.16744968
231	0xbe2c2810	-0.16812158
232	0xbe0d18db	-0.13779013
233	0xbe67b0af	-0.22625993
234	0xbdde0b77	-0.108420305
235	0x3ddac0a0	0.106812716
236	0x3cf891f5	0.030343035
237	0x3dcbde01	0.09954453
238	0xbe3430a1	-0.17596675
239	0xbd72af25	-0.059249062
240	0xbe72ad32	-0.23698881
241	0xbe2a49e9	-0.16629757
242	0x3e81fc95	0.25388017
243	0xbd033a51	-0.032038037
244	0xbdfe488a	-0.124161795
245	0x3de391b1	0.11111773
246	0xbd00a93f	-0.031411406
247	0xbd5931b2	-0.05302591
248	0xbe13c661	-0.14431144
249	0xbe6f6fa2	-0.23382428
250	0xbe8d1cc7	-0.27561018
251	0xbbe1fd0e	-0.0068966215
252	0xbe2e8cda	-0.17045918
253	0xbc533364	-0.01289067
254	0xbda7e1be	-0.08197354
255	0xbe90e46b	-0.2829927
