TABULAR/Figure2Reproduce/Poisoned/GERMAN_FCN_e=0.0_g=0.05_a=1.0_l=2_h=256_s=True_p=0.75.pt (torch, 331927 bytes, 10 tensors)

lays.0.weight f4 [256, 62]
00000000: 3878 6dbc 7c93 febb a42d 40bc c497 87b9
00000010: 3867 0739 31cf 24bc 67cd a33b 14b3 3ebc
00000020: 0800 94bc 56d0 28bc 75be 563b 01da ee3b
00000030: 1cc1 74bc 0640 9bbb 131a 6abc fa8d 95bb
00000040: 3812 86b9 347f 48bc 0201 6eba 0026 3c3c
00000050: 9dad 09bc 3b1f 30bc ba5d 31bc 6027 113b
00000060: 6ef8 97b9 325d 11bc fdea 8d3b 92fd a8be
00000070: 829d 293e ab9e 15bb 2e42 603a 71c7 f6bb
00000080: 27ac dcbb 3869 44bb f720 a1bc 7c66 a439
00000090: dee2 993c b82b ca3e 22ab 1a3b f6ec 7fbc
000000a0: 3f78 9dbe b96f 36be 84f3 873e ed29 9cba
000000b0: acd5 0abc 0caf b33a 90e7 c8ba f448 4eb9
000000c0: 228c 0d3b 4293 e4ba 4b56 16bc 27d8 7dbe
000000d0: 38f4 19bb 757c 54bb d2a0 47b9 4c51 7d3e
000000e0: d426 8bba 0ada 31bf cee3 e5bb b042 7dbb
000000f0: 88dd f2bb da4a ccbb 44dc 5eba 34d1 e0b9
00000100: fc11 753b 04bc 26bb 874e 6f3a db1a e13a
00000110: 20b3 de39 6ee4 68ba 10df e0b9 eff9 4bbb
00000120: f8f1 d539 f243 403a da44 0abb e085 91ba
00000130: bbd0 63ba 4604 4fbb 78b1 1f3b 6a4f d63a
00000140: ec53 2ebb 1344 503b 63fd 4dbb d8a7 b13a
00000150: bf5b 07bb e281 3abb cd9a 123b cc3c 5eb9
00000160: 85cc 543b f399 9aba 47f4 84ba f4c5 773a
00000170: 5ed1 3cbb c948 a3ba 1fc9 11bb d097 3c3b
00000180: eec0 993a 06ec 90ba e426 c339 4f02 c0ba
00000190: 482b ebb9 a644 cbba 14b1 24bb ca7d 503a
000001a0: 17e0 523b bc9d fa3a 88d2 fbb9 6c3f 543b
000001b0: 4ab2 933a 2c72 56bb e87a d13a 7c10 49bb
000001c0: b4e5 3dbb f22e 973a 42ba 90ba dbd6 3d3b
000001d0: 1f68 ba3a 5f5d 29bb 0b25 2ebb 6ab2 0ebb
000001e0: 602d 633a 2f94 8c3a 2dd2 03bb 6a4d 22bb
000001f0: ad71 96bc 6629 033d e91b eb3c cedd 2a3d
00000200: 8edd f1bc 1066 e3bc ce28 84bc 6ba5 94bc
00000210: 0cfc adbc bc67 dabc 52fe 0f3d 1c7b d5bc
00000220: 6f48 24bd 5440 1bbd 8683 9d3c d1da 153d
00000230: 4d1f a93c c49a 453c 8961 2abd 73c5 54bd
00000240: 751b 493d f4a9 e23c 0b13 9a3c d04d fe3c
00000250: 42d2 e0bc a855 3b3c 7054 553d 0636 013d
00000260: aef4 52bc 9103 efbc bdec 503d a019 1abd
00000270: 2200 463c 9c49 0fbd dbd3 b4bc 278a 273d
00000280: e0fe 683c 07f2 0b3d d3ee 033d bf04 88bc
00000290: f26d debc d1ac b33c ac8a 2a3d fb15 45bd
000002a0: 99ab 00bd ec92 0cbd a819 52bd 58bd 4c3d
000002b0: 7b78 16bd 24fd 42bd aa66 d9bc 2d82 483c
000002c0: 5849 2d3d 7361 533d 66d4 423d c172 08bd
000002d0: 6574 12bd 39a9 e9bc c9a3 663c e272 0abd
000002e0: 1049 8f3c 84a8 9d3c 40c1 1239 88a6 2e3a
000002f0: 0af7 17bb 9021 8438 008b 41ba 9a13 e43a
00000300: 294b ef3a 38b0 0eb9 1e69 22ba 32d7 993b
00000310: a0fc 2839 142d 5cb9 ca7a b1bb e5e0 17bb
00000320: c09c 32b7 86ec 8e3b 227a 65bb d8c1 8938
00000330: 1a5b e4ba 1303 30bb 7190 aeba 3ac8 c8b9
00000340: 987f 01b9 5ecb 0c3b f2d6 80bb 24ba e03a
00000350: e7ff a4bb 361f 963a 702f fe38 7751 0fbb
00000360: be20 a53b e03a 9438 047d 62ba 742c 8a3b
00000370: bdb4 10bb 8214 54bb 000b 8538 085f 21bb
00000380: 683e 4e39 8088 3537 9a57 c6ba 0482 13ba
00000390: d67c 8e3b bf19 cd3a b0b1 4dba 7a7d 7d3b
000003a0: d008 2d3a c83e fd3a 2aab a0bb f088 1d3a
000003b0: 8417 d23a 4a2f 0e3a 3770 103b 306d 49b8
000003c0: ada1 10bb d6f0 e4ba 6e30 a63b 979d 6b3b
000003d0: c461 deb8 d0a9 cc39 2b49 343a 32c8 8cbb
000003e0: af2d 07ba b8d4 38ba 0377 4fbe ec32 8e3a
000003f0: 14e7 7139 d694 63ba e31d c438 7de0 9fb9
-0.014493994 -0.0077690464 -0.011729632 -0.0002586228 0.00012913055 -0.010059164 0.004998851 -0.011639375
-0.018066421 -0.010303577 0.003276733 0.0072891717 -0.014938619 -0.004737857 -0.014288443 -0.004564044
-0.00025572046 -0.012237359 -0.00090791297 0.011483669 -0.008403209 -0.010749633 -0.010825569 0.0022148713
-0.0002898606 -0.008872317 0.0043309913 -0.3300596 0.1656399 -0.002283017 0.00085547834 -0.0075310995
-0.0067343893 -0.0029969942 -0.01966904 0.00031356874 0.018784937 0.3948648 0.0023600538 -0.015620461
-0.30755803 -0.17816056 0.26552975 -0.001191435 -0.008473795 0.0013708784 -0.00153278 -0.00019672868
0.0021598418 -0.0017438906 -0.009175847 -0.24789487 -0.0023491513 -0.0032422815 -0.00019038029 0.24738044
-0.001061643 -0.69473326 -0.007015682 -0.0038644485 -0.0074116625 -0.006234509 -0.000850145 -0.00042880478
0.0037394753 -0.0025441656 0.0009128828 0.0017174141 0.00042476598 -0.00088841363 -0.00042890804 -0.0031124314
0.00040806807 0.00073343434 -0.0021098168 -0.001110252 -0.0008690466 -0.003158824 0.0024367254 0.0016350572
-0.0026600314 0.0031778857 -0.0031431548 0.001355405 -0.002065405 -0.0028458764 0.00223701 -0.00021194218
0.0032470536 -0.0011795148 -0.0010143601 0.00094517996 -0.0028811316 -0.0012457605 -0.0022245122 0.002877701
0.0011730471 -0.0011056669 0.00037222274 -0.0014649126 -0.0004485494 -0.001550813 -0.002512996 0.00079533143
0.0032177025 0.0019120495 -0.0004803131 0.0032386435 0.0011268344 -0.003272186 0.0015982063 -0.0030679991
-0.0028976025 0.0011534377 -0.0011041837 0.0028967175 0.0014221704 -0.0025843007 -0.0026572372 -0.0021773824
0.0008666124 0.0010725314 -0.0020114288 -0.002476538 -0.018364752 0.032021903 0.028699832 0.041715436
-0.02952459 -0.027758628 -0.016132738 -0.018145284 -0.02123835 -0.026660793 0.035154648 -0.02605968
-0.04010814 -0.037903145 0.019227754 0.036585633 0.020644808 0.012060825 -0.041596923 -0.051946115
0.04909845 0.02766893 0.018807909 0.031042963 -0.027444009 0.011433996 0.05208248 0.03154566
-0.012875719 -0.029176505 0.05100702 -0.037622094 0.012084993 -0.03498231 -0.022073677 0.040903237
0.014220923 0.034166362 0.032210182 -0.016603826 -0.027152035 0.021932991 0.041636154 -0.048116665
-0.03141365 -0.034319803 -0.051294 0.04998526 -0.036735993 -0.047604695 -0.026538212 0.012238068
0.042306274 0.051606607 0.04756584 -0.033312563 -0.035755534 -0.028523074 0.014077135 -0.033800967
0.017490894 0.019245394 0.00013995636 0.00066623883 -0.0023188018 6.300502e-05 -0.00073830783 0.0017400861
0.0018256652 -0.00013607822 -0.0006195473 0.0046948427 0.00016115839 -0.00020997628 -0.005416249 -0.002317482
-1.0646123e-05 0.004361692 -0.0035015424 6.568775e-05 -0.001742217 -0.00268573 -0.0013318193 -0.00038296153
-0.00012349931 0.002148352 -0.0039318735 0.0017145318 -0.0050353887 0.0011453393 0.000121205 -0.0021868625
0.0050393036 7.068156e-05 -0.00086398446 0.004216725 -0.0022080385 -0.0032360856 6.343983e-05 -0.0024623293
0.00019668939 1.0820222e-05 -0.0015132308 -0.0005626979 0.0043483777 0.0015647932 -0.0007846607 0.0038679526
0.00066007394 0.0019321078 -0.004903217 0.000600948 0.0016028737 0.0005423917 0.0022039542 -4.8023823e-05
-0.0022069023 -0.0017466794 0.0050716912 0.0035952085 -0.00010603995 0.00039036432 0.0006877358 -0.004296326
-0.00051566487 -0.00070507405 -0.20260243 0.0010848916 0.00023069634 -0.0008681541 9.351575e-05 -0.000304941

lays.0.bias f4 [256]
00000000: 05fc 243e 9835 8abe d0f2 cebd dd73 2abe
00000010: d95d 863b 613f 02be d6c6 5ebe 608f 17be
00000020: 07b1 42bd ad7d 0fbe a99f 48be 0a50 7fbe
00000030: cea6 e23d f822 f53d ad08 e2bd 4854 b2be
00000040: 0751 70be 4fe5 4fbe 5559 87be 54a0 9ebe
00000050: 2c50 00be 8be7 39be 0253 63be 50bd 203e
00000060: 1b8c 9abe af49 04bf 247a 86bd 027d 22be
00000070: 6ce2 2abe 4482 05be 755f 14bd a212 b6be
00000080: 10aa 31be a0da e4bd 3ec8 9c3e 3cec 2abe
00000090: d78c a6bd 26c1 99be 976b 5cbd 56fe 09be
000000a0: ce23 bebd 20f5 1ebd 4ce3 a7bd 3128 25be
000000b0: 3989 73be b5b4 1ebe 675a 9fbd 5284 6cbe
000000c0: 5242 22be a077 7fbe b088 4bbe 4f4d fbbd
000000d0: 9d89 34be 800d 3cbe ebfe 05be 21a1 acbe
000000e0: a404 e6bd c75f 39be 7519 24be 672b acbe
000000f0: fe5b 56be 5f32 aebe 63a4 f6bd 8b64 a7be
00000100: 121f 19bd 90f9 80be cbe7 8ebe 1c02 88be
00000110: e983 07bd 7b5a 32bd 5e1c 903d cfdf d2bd
00000120: 44ca 33be 85bf 39be 7923 34be 893b 2dbd
00000130: a8c0 b4be 7239 86be 17a0 83bd b65b 36be
00000140: 11ee d8bd 02bf 16be d935 24be cb9e 38be
00000150: d7a1 0abd f947 24be 34e6 00bd 9cf8 5cbe
00000160: 1fb3 65be fd29 60be 2dcc 12be 074a a0bd
00000170: c641 11bd ed97 e7bd 14b0 89bd 906c c0bd
00000180: a818 0ebe 3e34 83be 7c23 3ebe fa3a e3be
00000190: d623 96be 1d44 d4bd 20c1 29be 1ad0 c6be
000001a0: f4b2 13bd 10f7 fabd 294a ebbc 1931 31be
000001b0: 87d8 01be 2d6d 1dbd 5a2d ddbd 0416 e7bd
000001c0: 663d 1bbe 293b ffbc 9a4e cbbe 974b 48be
000001d0: 9f51 8bbd 2087 f9bd dd0a 2fbd aaac 1bbd
000001e0: aad0 a3be e673 90bd 2adc 96be 8d4b 823d
000001f0: cab4 bfbe b172 53bd 253b 5bbd 54e8 25be
00000200: 319a 2abe bbba 45be e3b7 8dbd 184c b3bd
00000210: 2ee7 57bd 9976 82bd cb61 32be b0d7 bebe
00000220: 502b cabd 3f61 1dbe 7bf3 b1bd 4609 27be
00000230: 7996 26be d860 edbd 3679 ddbd 7d56 8ebd
00000240: ee6d eabd 0ea8 a0bc aa32 82be a317 f5be
00000250: c7a6 75bd 40d5 3cbe fbb0 09bd 8aa2 43bd
00000260: 67e4 9cbe 9615 0bbd e835 5dbd 5b51 4fbe
00000270: 5252 dbbd 4f01 b6bc 1e5a 00bd a1b6 72bd
00000280: ad73 04bd ee2d cfbd eb61 a0be d28e cabd
00000290: f4b8 47bd 28ef 58be a905 18be fd69 e7bd
000002a0: f560 4cbe 541d fdbd 4ea5 66be 9769 03bd
000002b0: 08d5 e1bd 3bfd 853f 584f 59be 1d7d 19be
000002c0: 21f2 2cbd 2ed4 86bd 72cf 2dbe e1c4 65be
000002d0: dc8a 17bf 7028 aabd 6abe 2cbe 5601 dbbe
000002e0: 8315 cdbd ed29 a1be 330b 6abd ce5a 79be
000002f0: cfc8 5fbd e088 6fbd 5c74 3bbe 060d a83e
00000300: 103a 4ebe b45d f0bd be9f 6abe 8264 143e
00000310: 05a4 02be d9c7 e5bd 8aa7 6ebe 3fc7 02be
00000320: 3fc5 52be 659e e8bd 390b 94be a123 81be
00000330: 76d5 18be 942a 2dbe 1561 3bbd 19eb a0be
00000340: 679e dabd 8e28 a9be ed47 a3bd 6e87 6abe
00000350: 7b05 66be 6539 cbbd 9ce5 18bd b52e 82be
00000360: b0dc c4bd efbf 15be 390b 34bd a008 863d
00000370: 6b8b 24bd 7f49 ebbd 045d 2cbe dc88 87bd
00000380: 2e29 f3bc ca8f cfbe c6bf 05bf 66b0 7abd
00000390: 2446 a0bd 378e 22be 068e 48be 1a99 47be
000003a0: edbe 0bbd 6aef c8be 60c6 abbd c452 2dbe
000003b0: 2ea1 11be eaaa 50be bb34 25bf c028 63be
000003c0: f717 13be db6c 1ebd 528b 22be a479 81bd
000003d0: cfba 1abe 65ec 83bd f591 c2bc 94bd 2cbe
000003e0: ff8d cfbd e59e 19be bcf5 d4be e292 71be
000003f0: 4b07 80be 3756 05be b47e a0be d768 28be
0.16111763 -0.26994014 -0.101049066 -0.16645761 0.004100543 -0.1271949 -0.21755537 -0.14800787
-0.047532108 -0.14012785 -0.19592156 -0.24932876 0.11066972 0.119695604 -0.11036811 -0.34829926
-0.2346841 -0.20302318 -0.26435342 -0.30981696 -0.12530583 -0.18154733 -0.22199634 0.15697217
-0.30185017 -0.5167493 -0.06566265 -0.15867999 -0.16687936 -0.13037974 -0.036223847 -0.3556109
-0.1735003 -0.11174512 0.30621523 -0.16691679 -0.08132332 -0.30030173 -0.053813543 -0.13475928
-0.09284173 -0.03880799 -0.0819765 -0.16128613 -0.23782815 -0.15498622 -0.07780915 -0.23097351
-0.15845612 -0.24947977 -0.19876361 -0.12270605 -0.1763062 -0.18364525 -0.13085525 -0.33716682
-0.11231354 -0.18102942 -0.16025336 -0.33626863 -0.2093353 -0.34022805 -0.12043073 -0.32693896
-0.037383147 -0.251904 -0.2791122 -0.2656411 -0.033084784 -0.04354332 0.070366606 -0.10296594
-0.17557627 -0.18139465 -0.17591657 -0.042293105 -0.35303235 -0.26215702 -0.06427019 -0.17808422
-0.105922826 -0.14721301 -0.16036166 -0.18029325 -0.03384575 -0.1604308 -0.03146954 -0.21579212
-0.2243161 -0.21891017 -0.143357 -0.078266196 -0.035463117 -0.113082744 -0.06723037 -0.09395707
-0.13876593 -0.25625795 -0.18568224 -0.44380933 -0.29324216 -0.10364554 -0.16577578 -0.38830644
-0.036059335 -0.12254155 -0.028721886 -0.17303886 -0.12680255 -0.038434196 -0.10799666 -0.11283496
-0.1516014 -0.03115614 -0.39708406 -0.19560085 -0.06802677 -0.12183976 -0.04273497 -0.038006462
-0.31995136 -0.07053356 -0.29464847 0.063620664 -0.3744262 -0.05162305 -0.0535232 -0.16201907
-0.16660382 -0.19309513 -0.06919839 -0.08754748 -0.052710705 -0.06370277 -0.17420118 -0.37273932
-0.098715425 -0.15369128 -0.08689018 -0.16312131 -0.16268338 -0.11590737 -0.10814135 -0.0695009
-0.11446749 -0.019611385 -0.2542928 -0.47869596 -0.059973504 -0.18440723 -0.033616047 -0.04776243
-0.30643007 -0.033956133 -0.054006487 -0.20245878 -0.10709061 -0.02221742 -0.031335942 -0.0592562
-0.03233688 -0.10116182 -0.31324705 -0.09890522 -0.04876037 -0.21184981 -0.14845909 -0.112995125
-0.19958861 -0.123591095 -0.22523996 -0.03208312 -0.110269606 1.0467905 -0.21221673 -0.14989133
-0.0422231 -0.06583439 -0.16973665 -0.22438385 -0.5919626 -0.08308494 -0.16869512 -0.42774457
-0.10013869 -0.314773 -0.057139587 -0.24351045 -0.054634865 -0.058480144 -0.18306106 0.32822436
-0.20139337 -0.117366225 -0.229125 0.14491466 -0.12757881 -0.112197585 -0.23306099 -0.12771319
-0.20583056 -0.11358336 -0.28914812 -0.25222495 -0.14925179 -0.16910774 -0.04574688 -0.31429365
-0.10674744 -0.33038753 -0.07972703 -0.22903225 -0.22463028 -0.099230565 -0.037328348 -0.2542626
-0.09612405 -0.14623998 -0.043956015 0.06544614 -0.04017202 -0.11488628 -0.16832358 -0.06617901
-0.029682722 -0.4053939 -0.5224575 -0.061203383 -0.07825878 -0.15874563 -0.19585428 -0.19491997
-0.034117628 -0.39245158 -0.083874464 -0.16926104 -0.14221641 -0.20377699 -0.64533585 -0.22183514
-0.1436461 -0.03867803 -0.15873459 -0.06322029 -0.15110324 -0.06441573 -0.023751238 -0.16869193
-0.101345055 -0.1500202 -0.4159373 -0.23591188 -0.25005564 -0.1302117 -0.31346667 -0.16446243

lays.1.weight f4 [256, 256]
00000000: 7d28 71be e330 92be 06c7 043e 397e cd3d
00000010: f6e0 ce3d 5ba6 ce3d 1be2 b5bd 5bea 663e
00000020: 4284 20be dff9 dc3a e135 123d 38d9 c73d
00000030: 2684 2fb9 cfc0 783d ca7e 5e3c c499 8a3e
00000040: 5f1f 9a3e 6006 1d3d d43c 2abe 7449 5fbe
00000050: febd 8cbe 6234 f1bd d0da 7dbe edf8 bb3d
00000060: fc40 9a3e 59c5 aabd c70c b43d 39e8 8ebc
00000070: 86a7 4a3e 178b a2bc c6a9 f8bd dfe0 4abd
00000080: e8c7 c1be 1c5d 553c 7ee3 32bd a117 973e
00000090: a64e d9bc 4b02 74be 8a9e f9bd cda3 d43d
000000a0: ff81 bf3e fdeb b1bd 5263 843e 41f6 10bd
000000b0: f3ca ad3c 34ae 96be ceaf 903c 0f34 5f3d
000000c0: c729 e63c e33c a83e 212b 18bd 663c 843d
000000d0: 8ce3 de3d b912 a9bc d53b abbd 07d8 8fbe
000000e0: d2cf 943e e356 1e3e 2ca7 ac3d 2e76 90bd
000000f0: 0548 d7bb 0111 443e 4f15 d1bb 4b92 aebe
00000100: ce20 053e fef4 bcbd 81a2 843e ca8e 7ebe
00000110: ef7f 32be e5a6 e2bd 3937 5abe 31f1 d53c
00000120: ebff 6cbe 2f25 033e 3c88 b9bc c0a7 cbbc
00000130: cc74 6d3e 0662 1b3d 5c58 203c 04a7 6abc
00000140: 6e3d 2cbe a321 25be 33c3 813d 5190 6a3e
00000150: c764 073e a453 eebd 1198 13be 7314 a1bd
00000160: 1b85 13bc 8f11 ab3c 31a0 333d af32 1b3e
00000170: 1137 bf3d 65c5 213e 37e4 313c 68f1 cc3c
00000180: 34fe 7ebd 5025 983e 8dc6 e33d 7ee1 6f3e
00000190: 0796 9cbe b5d5 6f3d 0a62 3c3e b45c ba3e
000001a0: f71c 4abe 39cc b03c db22 663d 5933 903d
000001b0: 544b 863e 1b35 2fbe 603c 9c3e 1155 12be
000001c0: 266f f3bb 66d2 8d3d c2bd 94be 20a7 053d
000001d0: 15bf 1bbd 14ad d03d 5f2e b33d 8065 623d
000001e0: 401d 0d3e 48d7 54be 91f6 4bbe 2fcb 783d
000001f0: d2cd 103e c614 c83d c379 163e 3850 893e
00000200: 75de fdbb 17c2 0f3e f835 8f3d d6fd 523c
00000210: e13d f33d e168 2dbe bfda 173d 3cc4 cd3d
00000220: bf56 ba3d 6682 2b3e 585b f33c 713b dfbb
00000230: 0bec 15be 392a 2c3d 2f7a 733e 5ce3 9bbc
00000240: d390 a93e 1d55 933d de23 88bd 49f2 803e
00000250: cee4 75be 64aa 743e e779 06bc 4e55 86be
00000260: 0d24 9f3e 9a8e d43d 77f2 33bc 9dff 9d3e
00000270: dd15 463e 57c9 b53d df8b 0e3e 0ba8 36bc
00000280: e0f0 e33c 4662 033e f33f d6bd 4f0f 93be
00000290: bf7a 653d e3eb aebe 91c1 eebd 3fbb 59bb
000002a0: e92c e23c 9a72 22bd 0495 8fbe 695a f93d
000002b0: 09f2 8f3e ecbb 23bd fda8 74bd fb7a 94be
000002c0: 6b92 3d3d d248 dcbd 9ed3 b2ba a49a ec3d
000002d0: 798c cfbd ddc3 773c bc17 0a3d 7d24 7c3e
000002e0: fb43 a3be 3313 3d3b 49c3 533e a89b 13be
000002f0: 8472 b6bc caeb 263d 2697 1ebe 32ef 673d
00000300: 2774 993b 3e08 a03d d98d bc3c b046 87be
00000310: 423c b2bd 21e0 1cbe 2be9 1cbd 05c2 b23c
00000320: 0104 793e 8f98 6bbc 07d5 10be 0887 bebd
00000330: 68ed 9dbd c0b1 283d aeb4 b23c ea0b 983d
00000340: 4ff2 1cbd d979 9fbe 31dd 9dbd 027f 07be
00000350: 8e67 b43e 491f 643b a05f 3b3d eade 233e
00000360: 83a5 27bd dad6 36bd 3224 01be c3c9 6dbe
00000370: 4c02 64bd 6df3 9b3d 76fb a23e e7d2 dbbd
00000380: 2352 2cbe 39de 48bd e035 bfbd ea05 dbbd
00000390: 0537 15be dde7 f2bc 838a c9bc eb29 cbbd
000003a0: 7a3b 79be bb5a 4f3e 0085 b53d 15ed b33e
000003b0: 3024 a1be e4ee afbe b0c5 5bbe 1444 443e
000003c0: 7ff0 ffbd 08a2 283e 90ef 34be d3f5 bf3d
000003d0: 0645 56be 9fec c8bd ab44 f43d ac6b 2dbd
000003e0: ba2f 233e 75b7 8f3d 52ff 7f3e c057 ba3c
000003f0: 79b8 4c3e 22d8 363d d3ef 5d3d 6da1 393e
-0.23550601 -0.28552923 0.12966546 0.10033841 0.10101502 0.100903235 -0.08881017 0.22550337
-0.15675452 0.0016859135 0.035695914 0.09758228 -0.0001673853 0.06073075 0.013580034 0.2707044
0.3010206 0.038336158 -0.16624767 -0.21805364 -0.27488703 -0.11777569 -0.24790502 0.09178338
0.30127704 -0.08338422 0.087914996 -0.017444717 0.19790468 -0.019841714 -0.12141757 -0.04953086
-0.3784783 0.013022687 -0.043673985 0.29510215 -0.02652676 -0.23829 -0.12188442 0.10382805
0.37403867 -0.08687589 0.25857025 -0.035391096 0.021214938 -0.2942978 0.017661955 0.054493006
0.028096093 0.32858953 -0.037150506 0.064568326 0.10883245 -0.02063881 -0.083610214 -0.28094503
0.29064804 0.15462832 0.08430323 -0.07053791 -0.0065698647 0.19147111 -0.006380714 -0.34095988
0.13000795 -0.09226416 0.2590523 -0.24859157 -0.17431615 -0.11066989 -0.21310128 0.026115986
-0.231445 0.12807153 -0.02264797 -0.024860263 0.23189086 0.03793528 0.0097866915 -0.014322046
-0.16820309 -0.16126113 0.063360594 0.22906615 0.13222037 -0.11637047 -0.14413477 -0.078652285
-0.009003903 0.020882396 0.043853942 0.15156053 0.09336675 0.15797956 0.010857633 0.025017455
-0.062254146 0.29715967 0.11121855 0.23425862 -0.30583212 0.058553416 0.18396774 0.36398852
-0.19737612 0.021581756 0.056185585 0.07041044 0.26229346 -0.17110102 0.30514812 -0.14290263
-0.0074290214 0.06924896 -0.29051024 0.032630086 -0.038024027 0.10189262 0.08749079 0.05527258
0.13780689 -0.20785248 -0.19918276 0.060740646 0.14141014 0.09769587 0.14694886 0.26819015
-0.007747466 0.14038883 0.069927156 0.012877902 0.11877037 -0.1693454 0.037073847 0.10047194
0.09098577 0.16748962 0.029706642 -0.006812506 -0.14640824 0.042032454 0.23777078 -0.019029312
0.33118305 0.071939684 -0.06647466 0.2518485 -0.24013063 0.23893124 -0.008207775 -0.26236957
0.31082192 0.103787616 -0.010983101 0.3085908 0.19344278 0.08876293 0.13920544 -0.011148463
0.02782482 0.12830457 -0.10461416 -0.28722617 0.056025263 -0.34164342 -0.116580136 -0.003322318
0.027609305 -0.039660074 -0.28043377 0.121754475 0.28114346 -0.03997414 -0.059731472 -0.29000077
0.046282213 -0.10756077 -0.0013643389 0.11552933 -0.10134215 0.015122381 0.03371404 0.24623294
-0.31887802 0.0028850555 0.20679964 -0.14414847 -0.022271402 0.04075221 -0.15487346 0.0566246
0.004683036 0.07814072 0.023016857 -0.26421118 -0.087028995 -0.15319873 -0.038308304 0.021821031
0.24317934 -0.0143796345 -0.14143763 -0.09303099 -0.07711297 0.04118514 0.02181467 0.074241474
-0.03831702 -0.3114765 -0.077082045 -0.13232043 0.35235256 0.0034808686 0.045745492 0.16003004
-0.04092933 -0.044638492 -0.12611464 -0.23221497 -0.055666253 0.07614789 0.31832474 -0.10733586
-0.16828208 -0.049040053 -0.09336448 -0.106944874 -0.1457177 -0.029651577 -0.02460218 -0.099201046
-0.24339095 0.20249455 0.08863258 0.35141817 -0.3147292 -0.34361947 -0.2146213 0.19166595
-0.12497043 0.1646806 -0.17669511 0.09373059 -0.20924768 -0.09810757 0.1192716 -0.042339012
0.15936175 0.070174135 0.2499974 0.02274692 0.19992246 0.044639714 0.054183792 0.18127985

lays.1.bias f4 [256]
00000000: f08b 5abe 7229 0cbe 0e24 81be 9995 babd
00000010: 4e16 b1bd 56ac 68bd 2a08 12bf 66d6 07bd
00000020: 039f 41bd b35a 10bf 0260 e1bd 22fd ddbd
00000030: 5a61 bfbe b254 c6bd 2b15 bfbe 6a36 31be
00000040: fa4c b63f 52bf 5cbe 8071 113e 07e2 81be
00000050: 9262 29be 6cf6 0dbe 15ab 42bd e7d0 a3bd
00000060: 53f3 48be 5c09 92be 7768 12bf 1581 8ebd
00000070: 376c a2bd 5d08 3bbd 4104 98be ace1 80bd
00000080: e175 b4be ce87 05be 91fa 03bf 7a75 8d3d
00000090: ead1 04be 17a2 b1be a115 e73d 73d0 b8bd
000000a0: 69c6 97bd 4ff5 a2be 1e16 47bd 7f7a 13bd
000000b0: dc40 4fbd 2afd 8dbd 1936 febd 5e31 2dbe
000000c0: 6e64 eebe afb7 d2bd 469e 74be fa1f f3bd
000000d0: 8b7f 8bbe bf48 a1be 9913 6cbe 2c22 f0be
000000e0: 20a9 1bbe 1677 e8bd fd9f ecbd 74a7 0cbe
000000f0: 895a 03be 1f8c eebe 5647 04be ed82 4ebd
00000100: 3597 e3bd f570 f1bd f55f c6bd d285 d9bc
00000110: ac73 b3be 8ba1 3bbe 990f f9bd fa85 55bf
00000120: d382 f6bd ee19 5dbd 815f a3bd a65a d3bc
00000130: 0bff d5be b65d 70bd 66f1 18bf c543 e8bc
00000140: b205 a5be cdd1 48be 5073 b1be 5416 d8bc
00000150: eb64 09be 76ee 82be a1d8 b5be ca8b 8cbe
00000160: 2d3f 09bf 24e6 dcbd 810b 70be 980a ccbd
00000170: 8012 b6be 6e17 f1be 83a3 92bd 1958 00be
00000180: 8100 c7be 76dc 16bf 42c0 d7bd f89a 2dbd
00000190: 1d28 6cbd 1c04 0bbe 11eb 80be 71a6 8bbe
000001a0: c343 06bf 61c0 dcbd db3f 18bf de3c 8bbe
000001b0: b704 23be 0303 d7be 7c28 ecbe f430 debd
000001c0: 6e3a 2cbe 0a99 ffbc 0b51 a8be 83d9 abbe
000001d0: 4a55 05be c3d2 e4be 14e1 c9be 1d81 02bf
000001e0: b958 3dbf 3086 41be 06f9 00bd 4246 04be
000001f0: 4631 5fbd 3e37 43bd be92 09bf 995e eebd
00000200: 16c6 4cbd 1add b3bd 6dd5 2ebf ba8e e8bd
00000210: 8f31 84bd df5e 1dbe 1666 05bf a90e 71be
00000220: 7da6 1ebf 8e02 9bbd da6d 41bd 4b82 bcbe
00000230: 4c18 e8be 8df4 17bf fc26 8ebd 64fe 35be
00000240: 2e69 f3be aed1 98be e5a7 2dbf a6ff aebd
00000250: 0c2e a5be b69e f2be 68eb 16bd 911f 0fbf
00000260: 9d39 5ebe cd45 5ebe 1922 4abe 59de 79be
00000270: a370 9fbd 2569 adbe e643 2cbd 0a4d d2be
00000280: c27f dbbe 1af2 90bd 37f0 73be 8ca9 73bd
00000290: e159 6dbd 04e2 9ebd da76 80bd c009 c0be
000002a0: 22a1 94bd a1e9 e9bd 1139 88bd cdc7 73be
000002b0: a49d 5fbd 1d0d 03bf 597e afbe 8cb1 7dbe
000002c0: 2ea7 23be 91d4 c2bd d5a3 f0be d2cc e9be
000002d0: 6ae1 8bbe 358f 4abd e9c3 a2bd 03c9 e6bc
000002e0: ccff 54bd 75b6 c1bd 73b0 b4be ac7b e3be
000002f0: 5950 a9bc 6c2c a0be 0138 debe b2b5 8fbe
00000300: e279 80be 7909 dcbe af61 cfbc 279f abbe
00000310: 0c99 9c3d 04c0 91be 0a58 84be 1a83 b1bd
00000320: 616d 5140 5396 e2be 6677 43be 29b7 3ebd
00000330: cb0f 1cbe 0af3 12bd f138 dfbd aa65 98be
00000340: d1e9 0bbe c4b7 3bbd 9e07 c4bd b7c1 bcbc
00000350: 9c59 e0bc e9be 21bd 90d2 a6bd a42e 5ebd
00000360: 4422 dcbd 88f2 54bc 5d16 53be 6137 f3bd
00000370: 2d0c c3bd 8c67 28be 43e4 a6be 64e2 1ebe
00000380: 4f8b 7bbe f4b3 ecbd ddd4 0dbd 2f69 e0bc
00000390: d3a5 8dbd bb5f 99be 2501 90be 9971 32bd
000003a0: 6a2d c4bd dc58 d5bd 901f 41bd 693e d1bd
000003b0: 8364 a0be 04f5 84be aecd acbd 9008 9e3d
000003c0: 8c70 e7be 1c37 fabd c333 1cbe c51c 95be
000003d0: 09a2 e3be a3a9 f2be e3fa 96bd 3a13 15bd
000003e0: 9d5e 0cbd 38c5 05bd d5a4 37be 7662 27be
000003f0: 77f7 93be 7c52 e1be bc99 37bf 10aa 5abe
-0.21342444 -0.13687685 -0.2522282 -0.09110565 -0.086468324 -0.056804977 -0.5704371 -0.03316345
-0.047270786 -0.56388396 -0.1100464 -0.10839297 -0.3737896 -0.09684123 -0.37320837 -0.17305914
1.4242241 -0.21557358 0.14203453 -0.25367758 -0.16541508 -0.13863534 -0.047526438 -0.07998829
-0.19624071 -0.28522766 -0.5719065 -0.06958214 -0.079307966 -0.045662273 -0.29690745 -0.062930435
-0.35246184 -0.13040087 -0.5155421 0.069071725 -0.12970701 -0.34693977 0.11283422 -0.090241335
-0.074108906 -0.3182778 -0.048605077 -0.036005493 -0.050598964 -0.06933053 -0.12412662 -0.16913363
-0.46560997 -0.10288941 -0.23888502 -0.118713334 -0.27245745 -0.31500813 -0.23054351 -0.4690107
-0.15201235 -0.11350839 -0.11553953 -0.13735753 -0.12827505 -0.4659128 -0.12917838 -0.05041783
-0.11112825 -0.11789123 -0.09686271 -0.026553068 -0.35049188 -0.18323343 -0.12161178 -0.83407557
-0.120366715 -0.053979807 -0.079772 -0.02580006 -0.41796145 -0.05868312 -0.59743345 -0.028352628
-0.32230908 -0.19611283 -0.3465829 -0.026377834 -0.13417403 -0.25572556 -0.35516837 -0.274504
-0.53612024 -0.10786083 -0.23441888 -0.09962958 -0.3556099 -0.47088188 -0.07160094 -0.12533607
-0.38867572 -0.58930147 -0.10534717 -0.042384118 -0.057655443 -0.13575786 -0.2517934 -0.27275422
-0.52447146 -0.10778881 -0.59472436 -0.27194875 -0.15919767 -0.41994485 -0.46124637 -0.10849181
-0.16819164 -0.031200904 -0.3287433 -0.33564386 -0.13020816 -0.44692048 -0.39429533 -0.5097826
-0.73963505 -0.18898845 -0.031487487 -0.12917426 -0.05449035 -0.047660105 -0.53739536 -0.11639137
-0.049993597 -0.08782406 -0.6829441 -0.11355348 -0.06454765 -0.15368222 -0.52108896 -0.23540749
-0.6197279 -0.07568847 -0.047223903 -0.36818156 -0.45331037 -0.5935753 -0.069410294 -0.17772824
-0.47541183 -0.29847473 -0.6783431 -0.08544855 -0.32261693 -0.47386712 -0.036845595 -0.5590754
-0.21701665 -0.21706314 -0.1973957 -0.24401225 -0.077851556 -0.3386928 -0.04205694 -0.410744
-0.4287091 -0.07077427 -0.23822103 -0.059487864 -0.057947043 -0.07757953 -0.06272669 -0.3750744
-0.07257296 -0.11421514 -0.066515096 -0.23806687 -0.054593697 -0.51191884 -0.34276083 -0.2477476
-0.15981743 -0.095132 -0.46999994 -0.45664078 -0.27320415 -0.04945298 -0.07947523 -0.028172022
-0.05200176 -0.09458629 -0.3529087 -0.44430292 -0.020668196 -0.3128389 -0.43402103 -0.2806831
-0.2509299 -0.42975977 -0.025315134 -0.3351986 0.07646379 -0.2846681 -0.25848418 -0.08667584
3.272301 -0.44255313 -0.19088516 -0.046561394 -0.152404 -0.03587631 -0.108995326 -0.29765064
-0.13663413 -0.04582955 -0.09571765 -0.02304159 -0.02738648 -0.039488707 -0.0814563 -0.0542437
-0.10748723 -0.012997277 -0.20614 -0.11875797 -0.09523807 -0.1644575 -0.32596025 -0.15516049
-0.24564861 -0.11557761 -0.03462683 -0.027393905 -0.06916394 -0.2995585 -0.28125873 -0.043565366
-0.095789745 -0.10417339 -0.04714924 -0.10216982 -0.31326684 -0.25968182 -0.08437668 0.07716477
-0.45203054 -0.122175425 -0.1525412 -0.29123512 -0.4445956 -0.47395048 -0.073720716 -0.03639529
-0.034269918 -0.032658786 -0.17933972 -0.16346154 -0.28899738 -0.44008243 -0.71718955 -0.21353936

lays.2.weight f4 [2, 256]
00000000: 63c6 81bd d10f 4b3d 0f85 31be aa57 513d
00000010: 9471 163d bee3 50bc 8072 02be a0a6 4abd
00000020: a5d9 f43b 593b 51be 3a2a 803c 4512 4f3e
00000030: 9014 883d 0e56 50bd 3b7b dabd be68 b83c
00000040: 089f cfbb c486 9b3c ef84 323e 1419 9fbc
00000050: ae14 393e 4452 d73d b827 2abc 477d 60bc
00000060: c0ee 103e 35b3 42be 9b19 a63d f292 e0bc
00000070: 8971 25bd 0df8 373d 4ad1 c73c 97e2 1fbc
00000080: f7da 453e 22c7 14bd 8f1f 813d b61e 163b
00000090: 9aea 553e 66c9 873d 3daa 553b 4356 57bd
000000a0: 9d3d f1bc 60de ea3d 5211 17bb 2747 fe3d
000000b0: 753e b8ba b22d acbc 47b2 423d 7c71 4e3e
000000c0: 6b38 1c3e 5c3f c73c 37f1 25be b269 2fbc
000000d0: 2672 dc3d d426 e63c df86 8c3d 08db 383e
000000e0: 246a db3d 3731 90bd 3f04 85bc 5a37 233e
000000f0: ebab 60b8 2f74 963c d42f 1ebd c206 00bd
00000100: f386 443c 1e73 29bd 5fa0 2ebe d944 b3ba
00000110: cb51 18be 7362 ac3d f16e 7e3c ce68 103e
00000120: ea86 81bd fe20 203d 5686 15bd 2519 86bc
00000130: f817 84be 36f2 6f3d 1497 0dbc 9a6f cc3c
00000140: 95fa 83bd 6487 a1bd ba4d 3b3e cbba 9fbc
00000150: 5c09 b83c 2bb4 5f3c 28b1 ec3d 912b 38be
00000160: a097 8dbd f96d bbbc fe43 703d f1a4 393e
00000170: df2c ebbd 3d42 e1bc f0d1 143c 6714 633d
00000180: 881b 7b3d 282d fcbd 7c4c 213b 6501 b83b
00000190: b00b ab3c ab1d 0e3e 13bf b4bc 3dc1 68be
000001a0: 371c 203e 6fec 3a3d 443a 743d 8d1f 1dbe
000001b0: 1e30 933a f026 173e 0df0 ce3c cf5b 9039
000001c0: bb8a b63d 5d5a 923b 1a80 603e bad4 ff3d
000001d0: 99ae 163c 43fa 2fbe de7d d4bd deb1 333d
000001e0: d237 4abc dcd0 56be c17f 86bc b26c 7a3e
000001f0: 0e86 2f3d 79a9 d93c dc98 b13d de1d dc3c
00000200: c7ed 14bc 014f 54bd c2d0 ec3d 64a3 71bd
00000210: d5f6 173d 6bb3 87be 7ba5 293d 7a52 dc3c
00000220: d220 32be ab1e 28bd 540f 833d 6ea4 cd3d
00000230: 6952 273e 1fe2 f73d 91ed 06bd 6cf2 b03d
00000240: 8398 f73d d0d3 923e 54da 8d3e 4eb9 40bc
00000250: 3d5a babd a8fd e2bd 289b b6bb afce b3bd
00000260: 8ba4 0f3e 2044 ad3c 4bd2 523d 49ea 77be
00000270: ec32 c23b b741 98bc d989 1c3c e918 78be
00000280: 6d88 3f3b ebe2 b23b 828b 22be 6b82 203d
00000290: 896d 643d 71d5 353d 93c6 74bd cd54 d53d
000002a0: 64cc 513d 586f fc3b fde5 53bd 9379 023e
000002b0: a3b9 89bd 958b 453d 97a9 3dbe 7da5 87bd
000002c0: 171f 7a3d c9e3 2abc 0ccb 30be 0357 dc3d
000002d0: 783f 533e 28ad 673c 1f15 bd3c d0ee 9e3c
000002e0: 1240 173c 9aa9 82bc 116a 523e cb82 783e
000002f0: 258e 1a3b 52d0 f5bd a0b5 c33d bd16 8abe
00000300: b3fb b63d da25 023e 90f7 a2b8 ec3f 843d
00000310: 0a98 81ba 14c1 98bd 2cb9 16be 908a d23d
00000320: 12ab 16bf 3b87 753e 1eea d83c b9bc 693c
00000330: f138 04be 18a3 38bd bf22 c4bc 2711 32bd
00000340: a909 47bc bb91 a1bb 3522 ea39 6ffa 373d
00000350: 25d3 bcba 5c7c db3c 1177 98b8 12c0 793a
00000360: 4d3b 8fbc 2e41 063b 1dcf c63d 9c74 893c
00000370: 2d27 9a3d 689c ff3c 0c92 503d 3730 f83d
00000380: f641 0cbd 4b89 113c 2d2c 9cbc 76c3 c3bb
00000390: 3de4 a23c e6f7 8bbe f619 1abe 020b 04bd
000003a0: 8466 223c 9552 643c 8b81 353c d294 383d
000003b0: f70a 70be 6932 c03d d67e c2bc fe4f 44ba
000003c0: 23dc 84be b01f 3f3d 7290 883d d996 d33d
000003d0: a59c b5bc 74d1 7c3e 8594 523d fc50 80bb
000003e0: b815 c33b 050c 16bc 7659 ca3c 81e9 b7bc
000003f0: 1133 4a3e 5d76 b33d c794 bd3e 2fc6 bcbd
-0.063366674 0.04957563 -0.17335914 0.051108994 0.03672941 -0.0127496105 -0.12738991 -0.049475312
0.0074722343 -0.20432796 0.015645135 0.20221813 0.06644547 -0.05086332 -0.106680356 0.022510882
-0.0063360967 0.01898516 0.17433523 -0.019421138 0.18074295 0.10513738 -0.010385446 -0.013701743
0.14153576 -0.19013675 0.081103526 -0.027413819 -0.04039148 0.044914294 0.024391789 -0.009758613
0.1932181 -0.03632272 0.063048474 0.0022906489 0.20890275 0.066302106 0.003260269 -0.0525725
-0.029448325 0.11468196 -0.0023051095 0.12415915 -0.00140567 -0.021017883 0.0475333 0.20160478
0.15255897 0.024322204 -0.16205297 -0.010706352 0.107639596 0.028094687 0.06861662 0.18052304
0.10713604 -0.07040637 -0.016237376 0.15939084 -5.3565873e-05 0.018365948 -0.03861983 -0.031256445
0.011995065 -0.04136955 -0.17053364 -0.0013677134 -0.14874952 0.08417215 0.01552938 0.1410248
-0.06324561 0.039093964 -0.036505066 -0.016369412 -0.25799537 0.0585806 -0.008641977 0.02495556
-0.06444279 -0.07887152 0.18291369 -0.01949825 0.0224654 0.013653795 0.115572274 -0.1798537
-0.06913686 -0.022879587 0.058658592 0.18129326 -0.11483168 -0.027497405 0.009083256 0.05543938
0.061305553 -0.123133 0.0024612239 0.0056154006 0.020879596 0.13878505 -0.022063768 -0.22729965
0.15635763 0.045635637 0.05962588 -0.15344067 0.001122955 0.14760947 0.02526095 0.00027534223
0.089131795 0.0044663385 0.21923867 0.12491746 0.009196901 -0.17185311 -0.1037557 0.0438708
-0.01234241 -0.20978111 -0.01641834 0.24455526 0.042852454 0.026570069 0.08671734 0.02686971
-0.009089894 -0.051833156 0.11563255 -0.058993712 0.03710063 -0.26504073 0.04141758 0.026894797
-0.17395332 -0.041044872 0.06399408 0.10041128 0.1634003 0.12103676 -0.032941405 0.08639988
0.12089636 0.28677225 0.27705634 -0.01176293 -0.09099243 -0.11083537 -0.0055726953 -0.08779656
0.14027612 0.021150649 0.051470082 -0.24210466 0.0059264805 -0.018586023 0.00955435 -0.24228252
0.0029225603 0.0054591796 -0.1587353 0.039186876 0.055768523 0.044393007 -0.059759688 0.10416565
0.051220313 0.007703703 -0.051733006 0.1274169 -0.067248605 0.04822882 -0.18521725 -0.06623361
0.061064806 -0.010430285 -0.17264956 0.10758784 0.2062968 0.014140405 0.02308136 0.019400984
0.009231584 -0.015950013 0.20548274 0.24268644 0.002358326 -0.120026246 0.095561266 -0.26970473
0.089347266 0.12709752 -7.770874e-05 0.06457505 -0.000988723 -0.07458702 -0.14719075 0.10280335
-0.5885478 0.23977368 0.026478823 0.014266186 -0.12912346 -0.045077413 -0.02394235 -0.04347339
-0.012148299 -0.0049307025 0.00044657444 0.044916566 -0.0014406188 0.026792698 -7.270103e-05 0.0009527217
-0.017484332 0.0020485627 0.097074725 0.016779236 0.075270034 0.03120251 0.05092053 0.12118571
-0.034242593 0.008882831 -0.019064033 -0.0059742285 0.019884223 -0.2733757 -0.15048966 -0.03223706
0.009912137 0.013935705 0.011078249 0.0450638 -0.23441683 0.09384615 -0.02374212 -0.00074887264
-0.259492 0.04666108 0.06668176 0.10331506 -0.02216942 0.24689275 0.05141117 -0.003915904
0.005953517 -0.009158139 0.024700861 -0.02245021 0.19746043 0.087628104 0.3702757 -0.09217488

lays.2.bias f4 [2]
00000000: 588c 3b3f 7e14 27bf
0.7326102 -0.65265644

l1.weight f4 [256, 62]
00000000: 3878 6dbc 7c93 febb a42d 40bc c497 87b9
00000010: 3867 0739 31cf 24bc 67cd a33b 14b3 3ebc
00000020: 0800 94bc 56d0 28bc 75be 563b 01da ee3b
00000030: 1cc1 74bc 0640 9bbb 131a 6abc fa8d 95bb
00000040: 3812 86b9 347f 48bc 0201 6eba 0026 3c3c
00000050: 9dad 09bc 3b1f 30bc ba5d 31bc 6027 113b
00000060: 6ef8 97b9 325d 11bc fdea 8d3b 92fd a8be
00000070: 829d 293e ab9e 15bb 2e42 603a 71c7 f6bb
00000080: 27ac dcbb 3869 44bb f720 a1bc 7c66 a439
00000090: dee2 993c b82b ca3e 22ab 1a3b f6ec 7fbc
000000a0: 3f78 9dbe b96f 36be 84f3 873e ed29 9cba
000000b0: acd5 0abc 0caf b33a 90e7 c8ba f448 4eb9
000000c0: 228c 0d3b 4293 e4ba 4b56 16bc 27d8 7dbe
000000d0: 38f4 19bb 757c 54bb d2a0 47b9 4c51 7d3e
000000e0: d426 8bba 0ada 31bf cee3 e5bb b042 7dbb
000000f0: 88dd f2bb da4a ccbb 44dc 5eba 34d1 e0b9
00000100: fc11 753b 04bc 26bb 874e 6f3a db1a e13a
00000110: 20b3 de39 6ee4 68ba 10df e0b9 eff9 4bbb
00000120: f8f1 d539 f243 403a da44 0abb e085 91ba
00000130: bbd0 63ba 4604 4fbb 78b1 1f3b 6a4f d63a
00000140: ec53 2ebb 1344 503b 63fd 4dbb d8a7 b13a
00000150: bf5b 07bb e281 3abb cd9a 123b cc3c 5eb9
00000160: 85cc 543b f399 9aba 47f4 84ba f4c5 773a
00000170: 5ed1 3cbb c948 a3ba 1fc9 11bb d097 3c3b
00000180: eec0 993a 06ec 90ba e426 c339 4f02 c0ba
00000190: 482b ebb9 a644 cbba 14b1 24bb ca7d 503a
000001a0: 17e0 523b bc9d fa3a 88d2 fbb9 6c3f 543b
000001b0: 4ab2 933a 2c72 56bb e87a d13a 7c10 49bb
000001c0: b4e5 3dbb f22e 973a 42ba 90ba dbd6 3d3b
000001d0: 1f68 ba3a 5f5d 29bb 0b25 2ebb 6ab2 0ebb
000001e0: 602d 633a 2f94 8c3a 2dd2 03bb 6a4d 22bb
000001f0: ad71 96bc 6629 033d e91b eb3c cedd 2a3d
00000200: 8edd f1bc 1066 e3bc ce28 84bc 6ba5 94bc
00000210: 0cfc adbc bc67 dabc 52fe 0f3d 1c7b d5bc
00000220: 6f48 24bd 5440 1bbd 8683 9d3c d1da 153d
00000230: 4d1f a93c c49a 453c 8961 2abd 73c5 54bd
00000240: 751b 493d f4a9 e23c 0b13 9a3c d04d fe3c
00000250: 42d2 e0bc a855 3b3c 7054 553d 0636 013d
00000260: aef4 52bc 9103 efbc bdec 503d a019 1abd
00000270: 2200 463c 9c49 0fbd dbd3 b4bc 278a 273d
00000280: e0fe 683c 07f2 0b3d d3ee 033d bf04 88bc
00000290: f26d debc d1ac b33c ac8a 2a3d fb15 45bd
000002a0: 99ab 00bd ec92 0cbd a819 52bd 58bd 4c3d
000002b0: 7b78 16bd 24fd 42bd aa66 d9bc 2d82 483c
000002c0: 5849 2d3d 7361 533d 66d4 423d c172 08bd
000002d0: 6574 12bd 39a9 e9bc c9a3 663c e272 0abd
000002e0: 1049 8f3c 84a8 9d3c 40c1 1239 88a6 2e3a
000002f0: 0af7 17bb 9021 8438 008b 41ba 9a13 e43a
00000300: 294b ef3a 38b0 0eb9 1e69 22ba 32d7 993b
00000310: a0fc 2839 142d 5cb9 ca7a b1bb e5e0 17bb
00000320: c09c 32b7 86ec 8e3b 227a 65bb d8c1 8938
00000330: 1a5b e4ba 1303 30bb 7190 aeba 3ac8 c8b9
00000340: 987f 01b9 5ecb 0c3b f2d6 80bb 24ba e03a
00000350: e7ff a4bb 361f 963a 702f fe38 7751 0fbb
00000360: be20 a53b e03a 9438 047d 62ba 742c 8a3b
00000370: bdb4 10bb 8214 54bb 000b 8538 085f 21bb
00000380: 683e 4e39 8088 3537 9a57 c6ba 0482 13ba
00000390: d67c 8e3b bf19 cd3a b0b1 4dba 7a7d 7d3b
000003a0: d008 2d3a c83e fd3a 2aab a0bb f088 1d3a
000003b0: 8417 d23a 4a2f 0e3a 3770 103b 306d 49b8
000003c0: ada1 10bb d6f0 e4ba 6e30 a63b 979d 6b3b
000003d0: c461 deb8 d0a9 cc39 2b49 343a 32c8 8cbb
000003e0: af2d 07ba b8d4 38ba 0377 4fbe ec32 8e3a
000003f0: 14e7 7139 d694 63ba e31d c438 7de0 9fb9
-0.014493994 -0.0077690464 -0.011729632 -0.0002586228 0.00012913055 -0.010059164 0.004998851 -0.011639375
-0.018066421 -0.010303577 0.003276733 0.0072891717 -0.014938619 -0.004737857 -0.014288443 -0.004564044
-0.00025572046 -0.012237359 -0.00090791297 0.011483669 -0.008403209 -0.010749633 -0.010825569 0.0022148713
-0.0002898606 -0.008872317 0.0043309913 -0.3300596 0.1656399 -0.002283017 0.00085547834 -0.0075310995
-0.0067343893 -0.0029969942 -0.01966904 0.00031356874 0.018784937 0.3948648 0.0023600538 -0.015620461
-0.30755803 -0.17816056 0.26552975 -0.001191435 -0.008473795 0.0013708784 -0.00153278 -0.00019672868
0.0021598418 -0.0017438906 -0.009175847 -0.24789487 -0.0023491513 -0.0032422815 -0.00019038029 0.24738044
-0.001061643 -0.69473326 -0.007015682 -0.0038644485 -0.0074116625 -0.006234509 -0.000850145 -0.00042880478
0.0037394753 -0.0025441656 0.0009128828 0.0017174141 0.00042476598 -0.00088841363 -0.00042890804 -0.0031124314
0.00040806807 0.00073343434 -0.0021098168 -0.001110252 -0.0008690466 -0.003158824 0.0024367254 0.0016350572
-0.0026600314 0.0031778857 -0.0031431548 0.001355405 -0.002065405 -0.0028458764 0.00223701 -0.00021194218
0.0032470536 -0.0011795148 -0.0010143601 0.00094517996 -0.0028811316 -0.0012457605 -0.0022245122 0.002877701
0.0011730471 -0.0011056669 0.00037222274 -0.0014649126 -0.0004485494 -0.001550813 -0.002512996 0.00079533143
0.0032177025 0.0019120495 -0.0004803131 0.0032386435 0.0011268344 -0.003272186 0.0015982063 -0.0030679991
-0.0028976025 0.0011534377 -0.0011041837 0.0028967175 0.0014221704 -0.0025843007 -0.0026572372 -0.0021773824
0.0008666124 0.0010725314 -0.0020114288 -0.002476538 -0.018364752 0.032021903 0.028699832 0.041715436
-0.02952459 -0.027758628 -0.016132738 -0.018145284 -0.02123835 -0.026660793 0.035154648 -0.02605968
-0.04010814 -0.037903145 0.019227754 0.036585633 0.020644808 0.012060825 -0.041596923 -0.051946115
0.04909845 0.02766893 0.018807909 0.031042963 -0.027444009 0.011433996 0.05208248 0.03154566
-0.012875719 -0.029176505 0.05100702 -0.037622094 0.012084993 -0.03498231 -0.022073677 0.040903237
0.014220923 0.034166362 0.032210182 -0.016603826 -0.027152035 0.021932991 0.041636154 -0.048116665
-0.03141365 -0.034319803 -0.051294 0.04998526 -0.036735993 -0.047604695 -0.026538212 0.012238068
0.042306274 0.051606607 0.04756584 -0.033312563 -0.035755534 -0.028523074 0.014077135 -0.033800967
0.017490894 0.019245394 0.00013995636 0.00066623883 -0.0023188018 6.300502e-05 -0.00073830783 0.0017400861
0.0018256652 -0.00013607822 -0.0006195473 0.0046948427 0.00016115839 -0.00020997628 -0.005416249 -0.002317482
-1.0646123e-05 0.004361692 -0.0035015424 6.568775e-05 -0.001742217 -0.00268573 -0.0013318193 -0.00038296153
-0.00012349931 0.002148352 -0.0039318735 0.0017145318 -0.0050353887 0.0011453393 0.000121205 -0.0021868625
0.0050393036 7.068156e-05 -0.00086398446 0.004216725 -0.0022080385 -0.0032360856 6.343983e-05 -0.0024623293
0.00019668939 1.0820222e-05 -0.0015132308 -0.0005626979 0.0043483777 0.0015647932 -0.0007846607 0.0038679526
0.00066007394 0.0019321078 -0.004903217 0.000600948 0.0016028737 0.0005423917 0.0022039542 -4.8023823e-05
-0.0022069023 -0.0017466794 0.0050716912 0.0035952085 -0.00010603995 0.00039036432 0.0006877358 -0.004296326
-0.00051566487 -0.00070507405 -0.20260243 0.0010848916 0.00023069634 -0.0008681541 9.351575e-05 -0.000304941

l1.bias f4 [256]
00000000: 05fc 243e 9835 8abe d0f2 cebd dd73 2abe
00000010: d95d 863b 613f 02be d6c6 5ebe 608f 17be
00000020: 07b1 42bd ad7d 0fbe a99f 48be 0a50 7fbe
00000030: cea6 e23d f822 f53d ad08 e2bd 4854 b2be
00000040: 0751 70be 4fe5 4fbe 5559 87be 54a0 9ebe
00000050: 2c50 00be 8be7 39be 0253 63be 50bd 203e
00000060: 1b8c 9abe af49 04bf 247a 86bd 027d 22be
00000070: 6ce2 2abe 4482 05be 755f 14bd a212 b6be
00000080: 10aa 31be a0da e4bd 3ec8 9c3e 3cec 2abe
00000090: d78c a6bd 26c1 99be 976b 5cbd 56fe 09be
000000a0: ce23 bebd 20f5 1ebd 4ce3 a7bd 3128 25be
000000b0: 3989 73be b5b4 1ebe 675a 9fbd 5284 6cbe
000000c0: 5242 22be a077 7fbe b088 4bbe 4f4d fbbd
000000d0: 9d89 34be 800d 3cbe ebfe 05be 21a1 acbe
000000e0: a404 e6bd c75f 39be 7519 24be 672b acbe
000000f0: fe5b 56be 5f32 aebe 63a4 f6bd 8b64 a7be
00000100: 121f 19bd 90f9 80be cbe7 8ebe 1c02 88be
00000110: e983 07bd 7b5a 32bd 5e1c 903d cfdf d2bd
00000120: 44ca 33be 85bf 39be 7923 34be 893b 2dbd
00000130: a8c0 b4be 7239 86be 17a0 83bd b65b 36be
00000140: 11ee d8bd 02bf 16be d935 24be cb9e 38be
00000150: d7a1 0abd f947 24be 34e6 00bd 9cf8 5cbe
00000160: 1fb3 65be fd29 60be 2dcc 12be 074a a0bd
00000170: c641 11bd ed97 e7bd 14b0 89bd 906c c0bd
00000180: a818 0ebe 3e34 83be 7c23 3ebe fa3a e3be
00000190: d623 96be 1d44 d4bd 20c1 29be 1ad0 c6be
000001a0: f4b2 13bd 10f7 fabd 294a ebbc 1931 31be
000001b0: 87d8 01be 2d6d 1dbd 5a2d ddbd 0416 e7bd
000001c0: 663d 1bbe 293b ffbc 9a4e cbbe 974b 48be
000001d0: 9f51 8bbd 2087 f9bd dd0a 2fbd aaac 1bbd
000001e0: aad0 a3be e673 90bd 2adc 96be 8d4b 823d
000001f0: cab4 bfbe b172 53bd 253b 5bbd 54e8 25be
00000200: 319a 2abe bbba 45be e3b7 8dbd 184c b3bd
00000210: 2ee7 57bd 9976 82bd cb61 32be b0d7 bebe
00000220: 502b cabd 3f61 1dbe 7bf3 b1bd 4609 27be
00000230: 7996 26be d860 edbd 3679 ddbd 7d56 8ebd
00000240: ee6d eabd 0ea8 a0bc aa32 82be a317 f5be
00000250: c7a6 75bd 40d5 3cbe fbb0 09bd 8aa2 43bd
00000260: 67e4 9cbe 9615 0bbd e835 5dbd 5b51 4fbe
00000270: 5252 dbbd 4f01 b6bc 1e5a 00bd a1b6 72bd
00000280: ad73 04bd ee2d cfbd eb61 a0be d28e cabd
00000290: f4b8 47bd 28ef 58be a905 18be fd69 e7bd
000002a0: f560 4cbe 541d fdbd 4ea5 66be 9769 03bd
000002b0: 08d5 e1bd 3bfd 853f 584f 59be 1d7d 19be
000002c0: 21f2 2cbd 2ed4 86bd 72cf 2dbe e1c4 65be
000002d0: dc8a 17bf 7028 aabd 6abe 2cbe 5601 dbbe
000002e0: 8315 cdbd ed29 a1be 330b 6abd ce5a 79be
000002f0: cfc8 5fbd e088 6fbd 5c74 3bbe 060d a83e
00000300: 103a 4ebe b45d f0bd be9f 6abe 8264 143e
00000310: 05a4 02be d9c7 e5bd 8aa7 6ebe 3fc7 02be
00000320: 3fc5 52be 659e e8bd 390b 94be a123 81be
00000330: 76d5 18be 942a 2dbe 1561 3bbd 19eb a0be
00000340: 679e dabd 8e28 a9be ed47 a3bd 6e87 6abe
00000350: 7b05 66be 6539 cbbd 9ce5 18bd b52e 82be
00000360: b0dc c4bd efbf 15be 390b 34bd a008 863d
00000370: 6b8b 24bd 7f49 ebbd 045d 2cbe dc88 87bd
00000380: 2e29 f3bc ca8f cfbe c6bf 05bf 66b0 7abd
00000390: 2446 a0bd 378e 22be 068e 48be 1a99 47be
000003a0: edbe 0bbd 6aef c8be 60c6 abbd c452 2dbe
000003b0: 2ea1 11be eaaa 50be bb34 25bf c028 63be
000003c0: f717 13be db6c 1ebd 528b 22be a479 81bd
000003d0: cfba 1abe 65ec 83bd f591 c2bc 94bd 2cbe
000003e0: ff8d cfbd e59e 19be bcf5 d4be e292 71be
000003f0: 4b07 80be 3756 05be b47e a0be d768 28be
0.16111763 -0.26994014 -0.101049066 -0.16645761 0.004100543 -0.1271949 -0.21755537 -0.14800787
-0.047532108 -0.14012785 -0.19592156 -0.24932876 0.11066972 0.119695604 -0.11036811 -0.34829926
-0.2346841 -0.20302318 -0.26435342 -0.30981696 -0.12530583 -0.18154733 -0.22199634 0.15697217
-0.30185017 -0.5167493 -0.06566265 -0.15867999 -0.16687936 -0.13037974 -0.036223847 -0.3556109
-0.1735003 -0.11174512 0.30621523 -0.16691679 -0.08132332 -0.30030173 -0.053813543 -0.13475928
-0.09284173 -0.03880799 -0.0819765 -0.16128613 -0.23782815 -0.15498622 -0.07780915 -0.23097351
-0.15845612 -0.24947977 -0.19876361 -0.12270605 -0.1763062 -0.18364525 -0.13085525 -0.33716682
-0.11231354 -0.18102942 -0.16025336 -0.33626863 -0.2093353 -0.34022805 -0.12043073 -0.32693896
-0.037383147 -0.251904 -0.2791122 -0.2656411 -0.033084784 -0.04354332 0.070366606 -0.10296594
-0.17557627 -0.18139465 -0.17591657 -0.042293105 -0.35303235 -0.26215702 -0.06427019 -0.17808422
-0.105922826 -0.14721301 -0.16036166 -0.18029325 -0.03384575 -0.1604308 -0.03146954 -0.21579212
-0.2243161 -0.21891017 -0.143357 -0.078266196 -0.035463117 -0.113082744 -0.06723037 -0.09395707
-0.13876593 -0.25625795 -0.18568224 -0.44380933 -0.29324216 -0.10364554 -0.16577578 -0.38830644
-0.036059335 -0.12254155 -0.028721886 -0.17303886 -0.12680255 -0.038434196 -0.10799666 -0.11283496
-0.1516014 -0.03115614 -0.39708406 -0.19560085 -0.06802677 -0.12183976 -0.04273497 -0.038006462
-0.31995136 -0.07053356 -0.29464847 0.063620664 -0.3744262 -0.05162305 -0.0535232 -0.16201907
-0.16660382 -0.19309513 -0.06919839 -0.08754748 -0.052710705 -0.06370277 -0.17420118 -0.37273932
-0.098715425 -0.15369128 -0.08689018 -0.16312131 -0.16268338 -0.11590737 -0.10814135 -0.0695009
-0.11446749 -0.019611385 -0.2542928 -0.47869596 -0.059973504 -0.18440723 -0.033616047 -0.04776243
-0.30643007 -0.033956133 -0.054006487 -0.20245878 -0.10709061 -0.02221742 -0.031335942 -0.0592562
-0.03233688 -0.10116182 -0.31324705 -0.09890522 -0.04876037 -0.21184981 -0.14845909 -0.112995125
-0.19958861 -0.123591095 -0.22523996 -0.03208312 -0.110269606 1.0467905 -0.21221673 -0.14989133
-0.0422231 -0.06583439 -0.16973665 -0.22438385 -0.5919626 -0.08308494 -0.16869512 -0.42774457
-0.10013869 -0.314773 -0.057139587 -0.24351045 -0.054634865 -0.058480144 -0.18306106 0.32822436
-0.20139337 -0.117366225 -0.229125 0.14491466 -0.12757881 -0.112197585 -0.23306099 -0.12771319
-0.20583056 -0.11358336 -0.28914812 -0.25222495 -0.14925179 -0.16910774 -0.04574688 -0.31429365
-0.10674744 -0.33038753 -0.07972703 -0.22903225 -0.22463028 -0.099230565 -0.037328348 -0.2542626
-0.09612405 -0.14623998 -0.043956015 0.06544614 -0.04017202 -0.11488628 -0.16832358 -0.06617901
-0.029682722 -0.4053939 -0.5224575 -0.061203383 -0.07825878 -0.15874563 -0.19585428 -0.19491997
-0.034117628 -0.39245158 -0.083874464 -0.16926104 -0.14221641 -0.20377699 -0.64533585 -0.22183514
-0.1436461 -0.03867803 -0.15873459 -0.06322029 -0.15110324 -0.06441573 -0.023751238 -0.16869193
-0.101345055 -0.1500202 -0.4159373 -0.23591188 -0.25005564 -0.1302117 -0.31346667 -0.16446243
