TOYDATA/lightning_logs/version_94/checkpoints/epoch=34-step=875.ckpt (torch, 815066 bytes, 22 tensors)

lays.0.weight f4 [256, 2]
000000 c4 2a 0b 3f 31 4f a1 3e c8 8f ad 3e dc ba 9f 3e
       0.5436213 0.3150573 0.3389876 0.3119725
000010 17 f5 04 3f ad 08 a4 36 64 53 c2 3d 97 32 42 be
       0.5193648 4.888591e-06 0.09488562 -0.18964611
000020 2d e9 88 3e 7b 28 12 bf 70 36 bb 3e 5a 17 8c be
       0.267404 -0.5709302 0.3656497 -0.27361566
000030 3b ac ad bc b4 1c 79 3a 76 f9 82 3b fa b7 0a be
       -0.02120029 0.0009502873 0.003997023 -0.13546744
000040 c8 99 07 bf 35 35 e4 3e 75 03 cf bd f8 2e 0a 3f
       -0.52969027 0.44571844 -0.10108081 0.5397792
000050 ab e5 c6 3c 46 65 bc bd 71 93 03 bf 6b fc 6b 3e
       0.024279436 -0.09199004 -0.5139685 0.23045509
000060 80 eb 7f be ec 4c 8b 38 1c f5 9b be fc c9 3a 3f
       -0.2499218 6.642364e-05 -0.3046044 0.72964454
000070 93 e8 d1 ba e7 7d 4f 3d 73 da 53 3e 2c 15 21 bf
       -0.0016014747 0.05065718 0.206888 -0.6292293
000080 d1 74 04 3e a2 30 7e 3d 16 b4 7d bc f1 57 9c 3e
       0.12935187 0.0620581 -0.01548483 0.30535844
000090 ea 18 ff 3d 28 27 12 b9 2e 0d 57 be 8c 40 82 be
       0.12455924 -0.00013938232 -0.21001121 -0.2543987
0000a0 e4 43 af 3e 01 99 21 bf 13 82 0e 3e b9 59 f0 be
       0.34231484 -0.6312409 0.13916807 -0.46943453
0000b0 25 5a e3 3d 75 2b e2 be 1e 6f c6 bd 30 1a 42 3f
       0.11101178 -0.4417378 -0.09689163 0.7582121
0000c0 7e 0c 22 3d a0 af 32 bf a4 6a 0e bf 74 6b 86 3e
       0.039562695 -0.6979923 -0.5563147 0.26253855
0000d0 b9 86 26 bf 1a 34 cc 3e 78 68 20 3e 56 92 dd bd
       -0.6504932 0.398835 0.15664852 -0.10818927
0000e0 b8 bd 48 be 61 98 28 3f d2 a1 8f 3e 93 6c 78 3e
       -0.19603622 0.6585751 0.28053147 0.24260168
0000f0 6a 1a 03 3f 56 07 08 3f 2d 1d 0e bc 86 59 10 3f
       0.5121218 0.53136194 -0.008673948 0.563866
000100 10 61 57 39 00 c3 43 b8 bf 02 f4 3e 2a ca 4b b7
       0.00020540156 -4.667323e-05 0.47658345 -1.2146813e-05
000110 8b 1b 09 3a f8 19 84 38 24 fb 34 3e 1e 10 c8 3e
       0.00052302395 6.2990875e-05 0.17673928 0.39074796
000120 e7 1a b3 3c 3b 9b db 3e 25 de 0d 3f 26 a2 1d bf
       0.021863414 0.4289187 0.5541709 -0.61575544
000130 17 e4 42 be 57 80 f0 be 1f 69 dc 3e 85 c1 c4 3e
       -0.19032322 -0.46972916 0.4304895 0.38428894
000140 5c e0 40 bd 06 1c 97 be 37 76 bb 3b 2a 67 79 37
       -0.047088966 -0.29513568 0.0057208794 1.4865576e-05
000150 73 c7 b8 be 46 3b 9e b7 18 31 17 bf b6 d8 c7 3c
       -0.36089668 -1.886267e-05 -0.59059286 0.024395328
000160 53 1c f3 bd 7c 0d fa bd 93 c9 4f be 2b 89 8a be
       -0.11870637 -0.12209603 -0.20291738 -0.27057776
000170 2c c3 3a 3c 44 76 26 bf 80 87 03 3a 80 6f 0f b9
       0.011399072 -0.6502421 0.00050174445 -0.0001367908
000180 e9 b5 03 bc 99 97 d3 3e ee c9 54 be 88 24 a6 3e
       -0.008038976 0.41326597 -0.20780155 0.32449746
000190 04 72 1d bf 1f d5 68 be 16 04 20 3f a1 74 21 be
       -0.615021 -0.22737549 0.62506235 -0.15767147
0001a0 66 d6 11 bf 83 1e 9e 3e 48 68 c5 be ed 8e 42 3e
       -0.5696777 0.30882654 -0.38556123 0.18999834
0001b0 fc a4 10 bf e2 54 99 3d 23 af 44 be 9b be 1a 3d
       -0.56501746 0.07486893 -0.19207434 0.03777943
0001c0 fc aa 0e 3f 1a 1e e3 bd 22 cb a7 3e cc 94 95 be
       0.5572965 -0.11089726 0.32772166 -0.29215086
0001d0 5f 06 1a 3f 0f 7e 22 be 0d 8d 42 3e c6 e2 c8 3e
       0.6016597 -0.158684 0.18999119 0.39235514
0001e0 5d ce db 3e 9e 8a 4b be 8d 03 16 bd c0 6e 10 bf
       0.4293088 -0.19877097 -0.03662448 -0.5641899
0001f0 59 fc 12 3e bf ef 18 3e ec 3f 22 bc 9d df e1 3e
       0.14354075 0.14935206 -0.0099029355 0.44115916
000200 75 99 9c be 1b 2b c5 be 8e 06 cd 3d be 05 b1 be
       -0.30585828 -0.3850945 0.10011016 -0.34574693
000210 00 f0 34 b2 b1 c4 14 3f 73 f6 f5 be be da 10 bf
       -1.0531949e-08 0.5811263 -0.48039588 -0.56583774
000220 a9 95 bb be 1a 45 5e b7 9c fa 84 bc ab 49 a1 3e
       -0.3663762 -1.324832e-05 -0.016232781 0.31501517
000230 84 fa 25 3c e3 ff 93 be f5 3f 28 be 10 5f db 3e
       0.010130528 -0.28906164 -0.16430648 0.42845964
000240 91 cc f7 3e 62 2e 92 be e1 49 16 3e 42 85 26 3f
       0.4839826 -0.28551012 0.1467662 0.65047085
000250 89 f8 2e bf c2 22 29 3e a9 da 29 bf 7f af 12 3f
       -0.68347985 0.16517165 -0.66349274 0.57299036
000260 ab c5 d9 bd ff 14 cf be 42 73 17 bf 8c 36 48 be
       -0.10633405 -0.40445706 -0.59160244 -0.19552058
000270 95 96 44 be 93 3f d9 be ea 47 0a bf ce ab 0d bf
       -0.19198067 -0.42431316 -0.5401598 -0.5534028
000280 e8 95 fd 36 82 3a 3a 3e bc 0d 23 bf 00 c6 a0 b3
       7.557439e-06 0.18186381 -0.6369283 -7.4865966e-08
000290 e2 4e ab 3d 9f 81 b6 3e 90 d6 0b bf 5f e1 21 bd
       0.08364655 0.35645768 -0.5462427 -0.03952157
0002a0 8e 41 5f 3e 2e 3a 9a 3d ca 17 34 be 71 f7 d1 3e
       0.21802351 0.07530628 -0.175872 0.41009095
0002b0 75 a2 7f 3e b0 d5 d9 be 4b 45 0d bc cf cb f6 3d
       0.24964316 -0.42545843 -0.008622478 0.12050592
0002c0 14 08 93 be 6a 65 bf 3c dd eb fb bd c5 8d 81 be
       -0.287171 0.023363788 -0.12300847 -0.25303474
0002d0 52 09 bd 3e b0 ad 89 3d d9 e0 7a bd 27 9c 2f bf
       0.36921173 0.067225814 -0.061249588 -0.68597645
0002e0 36 1d 8f be 08 2b 8e 3e a2 f2 af 3d 85 87 40 3f
       -0.27951974 0.27767205 0.085912004 0.75206786
0002f0 8a 28 ef be 09 2c 69 3e e8 ba e2 3e bd 2f c7 3b
       -0.46710616 0.22770704 0.44283223 0.006078689
000300 92 8b ee 3b ae 95 16 3f 81 31 e0 3e f6 52 a7 be
       0.0072798217 0.58822143 0.43787768 -0.32680482
000310 0b 8d 76 bc 1d cf 69 3e ed 5a e4 3e 69 2f b0 3d
       -0.015048276 0.22832914 0.4460062 0.08602793
000320 10 fc 86 be 29 ee 9c 3d 29 a5 92 3d 9b 27 05 bf
       -0.26364183 0.07662613 0.07160408 -0.5201356
000330 31 a8 e7 be 31 59 29 3f 33 03 03 3d 33 ca 0b bf
       -0.45245507 0.6615172 0.031985473 -0.54605407
000340 d6 bb f8 3e fa 9a 0a 3e 78 b4 51 b9 45 f1 c1 3e
       0.48580807 0.13535681 -0.00019999023 0.37879387
000350 9e 22 bf 3e ae 42 21 3f c8 78 f2 be 11 67 7a 3c
       0.37331098 0.6299237 -0.47357774 0.015283362
000360 45 15 06 be 87 de f3 3e c3 b7 46 be 74 64 79 39
       -0.13094051 0.47630712 -0.19406037 0.00023783912
000370 71 b9 0d bc 7c 3c f2 3e 43 51 26 3e 4e d1 f2 3e
       -0.00865017 0.4731177 0.16241936 0.47425312
000380 07 13 c3 be be 7b 11 bf 6b f7 25 3f 45 04 d9 ba
       -0.38100454 -0.5682944 0.64830655 -0.0016557059
000390 07 6e b7 3c 73 f8 44 3e 76 b9 10 3f 48 fe 1f bf
       0.022391332 0.19235401 0.5653299 -0.6249738
0003a0 ba f2 ac b6 18 72 35 3f a9 30 da 3e 3a 5f 07 be
       -5.1542565e-06 0.7087722 0.4261525 -0.1321992
0003b0 0c cd ee be ff 6d 1c bf 07 e2 06 bf 31 56 c3 3e
       -0.46640813 -0.6110534 -0.5268864 0.38151696
0003c0 dc 17 49 bc 29 80 29 39 8c 49 ae 3e 1a ca 75 3e
       -0.012273755 0.0001616484 0.34040487 0.24002877
0003d0 2a 11 1a bf 36 25 53 bd aa c8 6e be 03 d5 b6 be
       -0.6018244 -0.05154916 -0.23318735 -0.3570939
0003e0 18 2e 00 bf 26 cf ef be ce 41 df be d7 12 dc 3e
       -0.50070333 -0.4683773 -0.43604892 0.42983124
0003f0 a3 cd 02 3f fa 9e 56 3d b0 ed bc be 9b 6e fd 3e
       0.51095027 0.052397706 -0.3690009 0.49498448

lays.0.bias f4 [256]
000000 96 f4 95 bd 5a c5 fe 3e f2 91 7d be 2a 11 1b 3e
       -0.07322042 0.49759942 -0.24762705 0.15143266
000010 fa 97 e8 bd f3 fb 27 bf 70 6f a9 3d 3f 43 f4 3e
       -0.11357112 -0.6561882 0.08273208 0.47707555
000020 47 43 d6 be a4 03 a1 3e 14 b7 07 bf 2b ca 93 3e
       -0.41848204 0.3144809 -0.5301373 0.2886518
000030 25 23 f7 3b 5f a3 20 3f 0b c0 31 3f 86 5b 28 3f
       0.0075420314 0.62749285 0.6943366 0.65764654
000040 aa 5d dc 3d c9 80 0e 3e 2b 16 cb bc 8e dd 90 3e
       0.107600525 0.13916315 -0.024790844 0.28294033
000050 fb 61 ce 3d 93 b5 c4 3e fc 06 ff 3d eb 6f 34 3f
       0.10077282 0.3841978 0.12452504 0.70483273
000060 10 36 24 3f 0b bd 94 be b5 5b 68 be 1d a3 e9 3e
       0.6414499 -0.29050478 -0.22691233 0.45632258
000070 8e 24 a3 be 23 26 a8 bd af 15 0d bf 13 3c 77 3e
       -0.31863827 -0.08210399 -0.5511121 0.2414401
000080 0a 3b 16 3f c1 2b eb be 02 c3 fa 3e 90 5b 83 3e
       0.58683836 -0.4593182 0.48976904 0.25655794
000090 16 e8 15 bf 08 72 0a 3d 38 d5 ef 3d 17 f7 72 3e
       -0.5855726 0.033800155 0.1171059 0.2372707
0000a0 4e 79 28 bf 60 0e ee be e9 1c 2d bf f8 a2 bd bc
       -0.65810096 -0.46495342 -0.6762224 -0.023148999
0000b0 71 a0 26 bf bb 49 57 be 4b 1f 23 3f d3 00 23 3f
       -0.65088564 -0.2102422 0.63719624 0.6367313
0000c0 02 e9 0f 3f 63 43 95 3d 4e bf 54 3e 18 ce d7 be
       0.56214917 0.072882436 0.20776102 -0.42149425
0000d0 bb 23 0b bf c3 33 37 3f 13 9d 27 3e 05 4d c7 3e
       -0.54351395 0.7156336 0.16368513 0.3892595
0000e0 93 d1 69 be a4 ea ac be bc 44 e0 be 06 7a 19 3e
       -0.22833852 -0.33772767 -0.4380244 0.14987954
0000f0 f2 5c f2 bd 3a ac a8 bd 78 10 7c be a1 d0 0d 3f
       -0.11834134 -0.082359746 -0.24615657 0.5539647
000100 44 81 cc be 3c 44 11 bf 09 ac 9d be d6 2f 1d 3f
       -0.39942372 -0.5674474 -0.30795315 0.61401117
000110 7d 89 9b be 32 98 12 3e 7a ca 89 3e 77 06 fa 3d
       -0.30378333 0.1431587 0.2691229 0.12208264
000120 69 34 0c 3f 4c dc 21 bf 7b 4e bf be 02 7e 0c bf
       0.5476747 -0.6322677 -0.37364563 -0.5487977
000130 33 dd c0 be cb 76 23 3f d0 d5 aa bd 3e 01 2a 3f
       -0.37668762 0.6385314 -0.08341563 0.66408145
000140 5f 31 2f be c4 f6 f2 3e 6e 71 26 bf f9 76 86 3e
       -0.17108677 0.47453892 -0.6501683 0.26262644
000150 38 f8 84 be e7 4d b8 3e df 85 c6 3e 55 53 f2 3e
       -0.25970626 0.35996935 0.3877401 0.47329202
000160 7d b1 13 3f 34 92 26 3c b9 91 a6 3e 3a 2b 96 be
       0.576927 0.0101666935 0.32533053 -0.29329854
000170 e0 b3 f7 3e f0 22 56 3e a2 f4 7b be 89 37 e7 be
       0.4837942 0.20911765 -0.24605039 -0.45159557
000180 2b 3b 6a be 36 69 53 be d8 dd d8 3d 55 70 b9 3e
       -0.22874133 -0.20645604 0.10589188 0.36218515
000190 19 4e 0d bf 56 8d 33 bf 7f 3a 4a 3f f7 56 53 3d
       -0.5519729 -0.70137537 0.7899551 0.051596608
0001a0 16 ea 0c be 3d 23 08 3e 2a 57 8e bc 96 1b 39 3f
       -0.13761172 0.13294692 -0.017375547 0.7230772
0001b0 fd 52 b3 3e d8 09 28 3c 1c 59 04 3f a3 ec 84 bb
       0.35024253 0.010256253 0.5169847 -0.0040565296
0001c0 c3 de ea be 60 7a 34 3f 42 3e fb be 32 33 af 3d
       -0.4587308 0.7049923 -0.49070936 0.085546866
0001d0 9e 5a bf be c6 bf f8 bc f4 7a 04 bf d2 cb 9d bd
       -0.37373823 -0.030364882 -0.5175011 -0.07704891
0001e0 02 1e 06 3e 0a 8f ea be 60 cb 09 bf b0 93 bd 3e
       0.13097385 -0.45812255 -0.5382595 0.3702674
0001f0 c3 2f 63 bd 4d 3e 1a bf 02 38 0e bf 73 66 24 3f
       -0.05546547 -0.60251313 -0.5555421 0.64218825
000200 45 73 e2 bd a0 a7 18 bf 2e 8b fe be 54 a4 5e 3e
       -0.11057142 -0.59630775 -0.4971556 0.21742374
000210 6c 57 aa bd 0e 4a de be 47 72 78 be 05 02 6a bd
       -0.08317456 -0.43415874 -0.24262343 -0.057130832
000220 c0 a2 a0 bd 99 a7 ad 3d 37 36 0f bf 09 06 0c be
       -0.07843542 0.08479232 -0.559421 -0.13674177
000230 34 12 58 bd ba fc 23 bd 44 d9 32 bf f8 cb 23 bf
       -0.052751735 -0.04003594 -0.6986277 -0.63983107
000240 f7 97 18 be 5a 09 30 3f 7b a5 dd 3e 47 97 11 3e
       -0.1490172 0.6876427 0.43290314 0.14217864
000250 4b c8 8e 3e 21 b1 00 bf e1 61 ec 3e ab 16 6a bd
       0.27887186 -0.5027028 0.46168426 -0.057150524
000260 b5 3f d5 3e f4 54 43 be f7 63 b8 3e 89 9c 0c bf
       0.41650167 -0.19075376 0.36013767 -0.54926354
000270 7c 62 f3 be e0 1b b6 3d f1 67 04 bf 1a cb e1 3e
       -0.47536075 0.088920355 -0.517211 0.44100267
000280 16 3d 3a 3f b0 c4 46 3e bc 90 07 bf f6 f0 32 bf
       0.7274946 0.19410968 -0.5295522 -0.6989893
000290 3b 45 04 3f 7e e0 61 be a1 9c 18 3f 94 0f 01 3f
       0.5166814 -0.22058293 0.59613997 0.50414395
0002a0 70 81 d1 be e3 23 cc 3d 22 81 0b bf f3 ff 26 3f
       -0.40919065 0.09967782 -0.54493916 0.652343
0002b0 3c 85 11 3f 32 9d de 3d a8 cc 82 3e 68 b0 82 3e
       0.56843925 0.108698264 0.25546765 0.25525212
0002c0 e3 27 9f 3e ca 31 19 bf d0 ec 02 be 88 0a 9e 3c
       0.3108512 -0.598416 -0.1278565 0.019292131
0002d0 d0 dd 29 bf 7e 4d 48 be 04 ce bc be 07 c2 2b 3e
       -0.66354084 -0.19560811 -0.36875927 0.16773234
0002e0 5d 11 2d be 69 0f 2f 3f b4 a8 27 3f a6 04 04 bf
       -0.16901155 0.6838289 0.65491796 -0.5156959
0002f0 1e af 08 bf fb 08 dd be 16 b3 ab 3d b5 81 62 be
       -0.5339221 -0.43170914 0.08383767 -0.22119792
000300 fc d8 eb bc 10 3d ae 3d ab 2a b0 3e 84 81 1b 3e
       -0.02878999 0.085077405 0.34407553 0.15186125
000310 1b 54 1d 3f f2 8e 26 3c 36 1b e3 bd 85 46 61 be
       0.6145646 0.010165917 -0.110891744 -0.21999557
000320 cd 4b 01 be b6 a7 19 be cc fa ec be 2f cb a6 3e
       -0.12626572 -0.15005383 -0.46285093 0.32576892
000330 96 22 84 bd 7d 4e 20 3f b6 2b 0a bf da 9d a1 be
       -0.06451909 0.62619764 -0.5397295 -0.31565744
000340 13 dd 3a 3f 9b 43 de be e1 7c fb be e3 a5 46 3e
       0.7299358 -0.43410954 -0.49118713 0.19399218
000350 c3 87 c8 3d fa 0e 42 3f 64 f9 0b 3f bd 82 f6 be
       0.097915195 0.758041 0.54677415 -0.4814662
000360 bf 4e 0e bf 38 57 2c bf 6c 65 2c be f4 79 48 3d
       -0.55588907 -0.67320585 -0.16835564 0.04894443
000370 dd 8e 0b bf 45 ec 5c be 7b 9e 1e bf 9f 77 1f bf
       -0.5451487 -0.21574505 -0.6196057 -0.622919
000380 ac c2 fa be 76 b9 6f be 3a c1 08 3e b9 04 5b be
       -0.48976648 -0.23410591 0.1335496 -0.2138852
000390 46 aa 15 3c 15 95 1b bf 8b 81 0e 3f 50 4d 25 bf
       0.009134835 -0.60774356 0.55666417 -0.64571095
0003a0 98 6e 05 3f cc 0c 14 bf dd 1d bb 3e 70 d1 cb be
       0.5212188 -0.57832026 0.3654622 -0.39808226
0003b0 2c 96 12 bf 0d 91 d1 3e 6f a0 52 be 6a ba 88 be
       -0.57260394 0.40930977 -0.20569013 -0.26704723
0003c0 7d 10 db be f0 73 13 3f 56 40 1c bf 49 6b 0e 3f
       -0.42786017 0.5759878 -0.6103567 0.55632454
0003d0 6e be dc bd 69 16 cb 3e 33 89 21 3f c0 c6 3c 3f
       -0.10778509 0.39665535 0.63099974 0.7374077
0003e0 84 e5 16 3e 1f 48 b7 3c cb 53 16 bf 58 ad 1b 3f
       0.14735991 0.022373257 -0.5872161 0.60811377
0003f0 a3 b0 17 bf 1d f7 66 be 2a 9f b1 be 45 7f 14 bf
       -0.592539 -0.22555204 -0.34691745 -0.580067

lays.1.weight f4 [256, 256]
000000 04 eb 6c bd 32 4c ce 3c 7d d8 22 3d af b4 b2 3c
       -0.057841316 0.025182817 0.03975724 0.021814672
000010 76 30 de 3c 7d 71 30 3d 85 bc a0 3c fe 7b 2b 3d
       0.027122717 0.04307698 0.019621143 0.041866295
000020 75 04 b8 bb c5 2b ae bc b2 10 8c bb f7 17 31 bc
       -0.0056157657 -0.021261105 -0.004274451 -0.010808936
000030 6a 19 54 b9 81 b2 3e bd 2c b3 17 bd 37 66 6e 3d
       -0.00020227363 -0.046556953 -0.037036106 0.05820295
000040 03 4f e9 bc 71 3d ca 3c e5 b9 e5 bc c8 83 b1 3a
       -0.028480059 0.0246875 -0.028042743 0.0013543302
000050 96 2e 10 bd cc 20 9e 3c 26 9b 48 3d a2 5a 8f 3b
       -0.035200678 0.019302748 0.048976086 0.004374818
000060 44 b3 3e 3d 80 dc 86 3c 0c 9e 05 bc 9b cc 68 bd
       0.04655768 0.016462564 -0.008155357 -0.056835752
000070 e4 93 c6 3c ad 58 83 bd 7b bd 01 3a 4a 26 3a 39
       0.024240442 -0.06413398 0.0004949194 0.00017752606
000080 98 0f c3 3c b1 a3 94 3c 92 3d 4c 3c da 83 94 bc
       0.023811147 0.01814446 0.012465851 -0.018129278
000090 ef 6a 85 bc d4 da 3e bd ca 73 e7 bb 90 35 84 bd
       -0.016286341 -0.04659541 -0.0070633637 -0.06455529
0000a0 ac 0f 0b 3c fe fd e5 3c 3f 46 12 bd 82 d2 dd ba
       0.008487623 0.028075214 -0.035711523 -0.0016923698
0000b0 bc e2 d7 bc 37 23 bb bb 88 e1 03 bc 99 fc 75 bd
       -0.026353233 -0.005710985 -0.008049376 -0.06005535
0000c0 1f 44 ad 3b dc 0a f1 3c 9a b2 30 bd 7f 14 1d 3c
       0.0052876617 0.029424123 -0.043139078 0.009587406
0000d0 38 6c 08 bb 76 90 87 bc 1b 66 06 3d 1f 2f 25 bd
       -0.0020816457 -0.016548377 0.03281222 -0.04032814
0000e0 c3 8b 18 3d ff e8 ce ba 7d 2e 11 3c ab ae 91 3c
       0.037242662 -0.0015785991 0.008861181 0.017783483
0000f0 6f a1 e4 bc da c8 ca 3c fe ab 21 bd 47 42 84 bd
       -0.027909009 0.024753977 -0.039470665 -0.06457954
000100 ab 78 0d bc cb 8e 9e 3c 1a a6 03 3c ad 2c 73 bd
       -0.0086347265 0.019355198 0.008035207 -0.059368778
000110 28 77 13 b9 79 6f 33 3d 08 c0 21 bc e3 0b 34 bd
       -0.00014063402 0.04380748 -0.009872444 -0.04395665
000120 d0 0f 5f bd da 70 f9 bb 87 47 89 bc 34 86 1c 3d
       -0.05445844 -0.00761233 -0.01675774 0.038213924
000130 23 f6 01 bd 17 de 2c 3d 14 ca 81 3a 73 5c 05 3c
       -0.031728875 0.04220399 0.0009902143 0.008139717
000140 38 d8 ae bb 41 a9 c6 3b c3 7f 19 3d fe f2 eb bc
       -0.005335834 0.006062657 0.03747536 -0.028802391
000150 1d c9 72 3b 98 ed 21 bc 11 cf 04 3d ce 3b 8b 3c
       0.0037046142 -0.009883307 0.032424036 0.01699629
000160 a1 90 24 3c 09 a8 12 3d 77 06 5d 3c 23 cb 12 3d
       0.010044248 0.035804782 0.013490311 0.035838258
000170 21 19 c2 bc 0b e9 55 bd f3 85 33 bd db a2 3a bd
       -0.023693623 -0.0522242 -0.043828916 -0.045565467
000180 47 c9 31 bd 80 56 9e 3c 3c 6d 63 3c 85 81 24 bc
       -0.043404844 0.019328356 0.013881024 -0.0100406455
000190 6c d7 aa 3c 42 cd 21 3d 3a 1c b4 bc 72 fa 41 3d
       0.020854674 0.03950239 -0.021986116 0.047357984
0001a0 9c 28 83 bd a0 71 b5 bc 5e db 18 bd f2 8a ad ba
       -0.0640423 -0.022148907 -0.03731858 -0.0013240261
0001b0 3b 99 19 bd bb 39 27 3d 30 ab a9 3c 38 d4 ec bc
       -0.037499648 0.04082654 0.020711511 -0.028909788
0001c0 f0 dd f5 bb 70 3f 30 bd 7a 62 86 3b 57 bd b9 3c
       -0.0075032637 -0.04302925 0.004101095 0.022673292
0001d0 62 1d cf b9 67 88 f8 3b cf a7 19 3d 89 0c e4 bb
       -0.0003950401 0.00758462 0.03751355 -0.006959502
0001e0 58 11 1d 3d 3b ca f7 bb c9 84 3e bb 7c fe 71 bc
       0.03834662 -0.0075619495 -0.0029070845 -0.014770146
0001f0 90 21 1a 3d a3 ab 2b bc 94 49 f5 3c dc bb 0d 3d
       0.037629664 -0.010477933 0.029942311 0.034602985
000200 c2 c2 3c bd 27 c8 be 3b be d8 43 3c a5 ac 06 bd
       -0.046084173 0.0058222 0.011953531 -0.03287949
000210 1a 09 14 bd 76 1f 1b 3d 20 51 51 3d 4f 11 40 3d
       -0.036141492 0.0378718 0.051102757 0.046891507
000220 56 39 90 bb f2 99 23 3d 4f a1 e1 bc a2 5d 76 bd
       -0.004401366 0.039941736 -0.027542738 -0.06014789
000230 b8 66 89 bc 23 35 8e 3c 4d 76 3c bb 6b cc b0 bb
       -0.016772613 0.017359322 -0.0028757036 -0.0053954623
000240 1c d7 d0 ba 79 a9 0d bd e7 9d 3b bd 89 f2 77 3c
       -0.0015933248 -0.03458545 -0.045804884 0.0151335085
000250 17 8b b1 bc 56 fe 91 bc f3 b6 6a 3d 0b 49 d9 bc
       -0.021672769 -0.017821472 0.05730338 -0.026524087
000260 8b 41 03 bd b3 f4 07 3d 21 83 8d bc 23 2d 24 3d
       -0.03204493 0.033192348 -0.017274441 0.04008211
000270 33 06 a4 3c 90 12 c6 bc 4d 1b 60 3c d8 dc 13 3d
       0.020022487 -0.024178773 0.013678384 0.036099285
000280 32 d4 8a bc df f4 a5 3c 81 e7 18 bc bd 25 6a 3c
       -0.016946886 0.020258365 -0.009332539 0.014291224
000290 f2 2d 8d bb 85 25 bf 3b 73 a3 01 3d 3d d8 a3 3b
       -0.0043084556 0.00583333 0.031650018 0.005000143
0002a0 fc ef e5 bc f2 16 2c bd a5 17 3a 3d d7 99 65 bd
       -0.028068535 -0.04201407 0.045432705 -0.056054916
0002b0 fe 12 1c bd 56 e2 3d 3d 06 0f 21 bc 13 1b 80 bd
       -0.03810405 0.04635843 -0.009830242 -0.06255164
0002c0 08 ae dc 3c 81 2b 23 bd 02 58 25 3d dc 03 94 bb
       0.026938453 -0.03983641 0.040367134 -0.0045170616
0002d0 34 1d 8b bc 00 ec f0 3c 90 e6 60 3c d2 80 1c bd
       -0.016981699 0.029409409 0.013726845 -0.03820879
0002e0 31 4f 22 3c ed 78 7b bd d9 61 5f bd 13 0a 3a 3d
       0.009906576 -0.06139462 -0.054536674 0.045419764
0002f0 35 75 53 bc c3 06 42 3a 18 b9 f1 3b 57 4d d5 bc
       -0.012906362 0.000740152 0.007376801 -0.026037855
000300 a8 3a 09 bc fc 26 00 3d b2 3e e2 3c 40 fc 9e bb
       -0.008375801 0.03128718 0.027617786 -0.004851848
000310 ef ea 5d bd a3 04 1d 3d 48 d7 b2 bc 6c e1 34 bd
       -0.05417913 0.0383345 -0.02183117 -0.04416029
000320 04 cf 2f 3d e1 81 db 3b ea 08 a3 bb 15 32 1f bd
       0.042922035 0.0066988324 -0.004975428 -0.03886612
000330 f9 e4 09 bd 86 b0 20 bd 9b c5 43 bb 15 96 6f 3c
       -0.03366563 -0.039230846 -0.002987242 0.014623185
000340 60 0b 7b bd 86 25 41 bb 09 c6 d8 ba 97 c7 ef bc
       -0.061290145 -0.0029471829 -0.0016538511 -0.029269977
000350 29 ba 68 3d b7 09 db 3b cf 38 aa bc cb 3b bb bb
       0.05681816 0.0066845077 -0.020779042 -0.005713915
000360 08 c5 9e bc d0 91 7b bc 78 23 fb 3c 3b 82 2f 3d
       -0.019381061 -0.015354589 0.030656561 0.042848807
000370 f7 a3 fe bc 81 c3 1c 3d 5e fa bd bb 95 79 dc 3c
       -0.031084044 0.038272385 -0.0057976684 0.026913444
000380 b3 3b be bc a8 34 2d 3c ef be 09 bd ac 07 46 bb
       -0.023221826 0.010571636 -0.033629354 -0.0030216975
000390 2e 5c 65 3d a1 6e 07 3c bf ad 3c bd 18 c9 d5 bc
       0.055996113 0.008266122 -0.046064135 -0.026096866
0003a0 eb f2 31 bd 75 13 1d bc 04 e2 1c 3d d9 80 19 3d
       -0.043444555 -0.009587158 0.038301483 0.037476394
0003b0 46 2c 0e 3d dc 1e a8 bc 25 0c 26 bd a5 37 42 3c
       0.03471019 -0.020522527 -0.040538926 0.011854087
0003c0 6e 60 0c 3c 48 b1 58 3d cf f2 ba 3b a3 67 f2 bc
       0.0085679125 0.052903444 0.0057052146 -0.029590433
0003d0 b9 50 49 bb 55 51 e0 3c 10 2f f9 3c 18 ed 2e 3d
       -0.003071828 0.027382532 0.030417949 0.04270658
0003e0 88 d2 0b ba 7f 0f be bc ae 6e 20 bc 16 f5 5c 3d
       -0.0005333801 -0.023200748 -0.009792013 0.05394467
0003f0 9f 4b 2d bd 5f e6 c2 3c f3 0c c7 ba 97 c9 1f bd
       -0.042308446 0.02379149 -0.0015186354 -0.03901061

lays.1.bias f4 [256]
000000 3b 3d 37 3d 29 82 ed 3d 36 44 86 3d 33 38 95 3d
       0.04473613 0.11597092 0.06555979 0.0728611
000010 fe c2 45 3d c5 23 44 3d 01 d0 a2 bc b3 0d c1 3c
       0.048281662 0.047885675 -0.019874575 0.023566103
000020 ed e1 8d 3d 4f 2e 06 bd 22 78 ab 39 72 40 39 bc
       0.069278575 -0.032759007 0.00032705168 -0.011306869
000030 12 07 17 3d 18 a5 75 bc c5 42 ae 3d a2 55 40 3b
       0.036871977 -0.014992975 0.08508829 0.0029347916
000040 c0 65 6e bb 4f 81 81 3d 51 25 1e 3b 2e 4a c5 bc
       -0.0036376566 0.06323492 0.002413113 -0.024083223
000050 c4 c0 e5 bc 77 d7 9b 3d b1 b8 4e bd 44 41 47 3d
       -0.02804602 0.07609456 -0.050469104 0.048646227
000060 19 51 a8 bc 25 b3 a8 3c 03 a8 44 3d 8c 10 46 3d
       -0.020546483 0.020593235 0.04801179 0.048355624
000070 d9 73 7b bd 3b 58 dd 3c 42 09 3f ba 98 1e 6a bd
       -0.061389778 0.02701961 -0.00072874513 -0.057158083
000080 f8 37 56 3c c6 d0 e9 bc e5 ef a5 3c 19 b9 ad 3c
       0.013074867 -0.028541934 0.020255992 0.021206426
000090 9d 88 ac 3d f6 b9 8e bd 54 b0 03 bd 72 9e 12 bd
       0.084244944 -0.06969063 -0.03215058 -0.035795636
0000a0 01 0a 17 bd d9 94 e9 3c ae 79 c9 bc ce 39 63 bd
       -0.036874775 0.028513359 -0.024594154 -0.05547505
0000b0 29 3a 39 bd 37 55 86 bd 8e bc a3 bd 0c 94 db bc
       -0.04522148 -0.06559222 -0.07994948 -0.026803993
0000c0 ca a1 50 bd e6 06 7d 3c f0 a2 ee bc 6f d0 01 3d
       -0.050935544 0.015443539 -0.029130429 0.03169292
0000d0 fe 8f 2a bb ba bf cd 3c 2d 8f 25 bd 0d 67 ad 3d
       -0.0026025767 0.025115836 -0.040419746 0.08466921
0000e0 74 20 34 3d 9d 54 93 3b e5 4c 34 bd d6 52 6e bd
       0.043976262 0.0044961707 -0.044018645 -0.058184467
0000f0 0f 4e 66 bb 1f 9b b4 3c 24 65 ca bc c6 06 3f 3d
       -0.0035141741 0.022046624 -0.02470643 0.04663732
000100 1f 2b 47 bd a7 04 1c bd 28 c5 5b 3c 4f 30 3d bc
       -0.048625108 -0.038090374 0.013413705 -0.011547162
000110 69 54 53 bd 13 67 15 bd 71 93 3a 3d ca f1 69 bd
       -0.05159417 -0.036475252 0.045550767 -0.057115354
000120 92 c9 07 3d 38 22 1e bc ea 1e 32 3d 0b ab 8c 3d
       0.033151217 -0.009651713 0.043486513 0.06868561
000130 dd 18 11 bd 58 91 57 bd 71 9b 1b 3d 71 15 cb 3d
       -0.035424102 -0.052628845 0.037990037 0.09916199
000140 d0 10 25 bd a6 01 81 3d 7c f4 5e bd c6 20 87 3d
       -0.040299237 0.062991425 -0.054432377 0.06598048
000150 2d 1c 8b 3d d6 83 3e bb 53 57 fe bc 90 d1 85 3c
       0.067924835 -0.002907028 -0.031047499 0.016335279
000160 86 fb d9 3c 58 23 36 3d 2a c2 09 3d 99 f8 5b 3d
       0.026609194 0.0444673 0.033632435 0.053703878
000170 21 26 18 bd b8 19 9c bc 66 68 ce 3b 8a d1 17 bd
       -0.037145738 -0.019055232 0.0062990664 -0.037065066
000180 2b 51 37 3d e6 04 b9 3c fe 8f 14 bd 68 e2 b6 3c
       0.044755142 0.022585344 -0.036270134 0.022324756
000190 19 70 95 39 42 4b 07 bd 0a 6c b5 3d c6 cf 0f 3c
       0.00028503014 -0.033030756 0.088584974 0.008777564
0001a0 35 d2 a4 bc 40 13 9b bd d7 96 ba 3d 86 ee 66 bc
       -0.020119766 -0.07572031 0.09110802 -0.014094954
0001b0 16 99 22 3d 28 0a 15 bd a9 ef 27 bd 8e e6 55 3d
       0.039696775 -0.03638664 -0.041000042 0.052221827
0001c0 bc db 10 bd 8f 75 2b 3c 40 71 c7 ba 83 e4 de 3c
       -0.035365805 0.01046504 -0.0015216246 0.027208572
0001d0 8d fb 0e bd fc 0b 57 bd 09 66 36 3d a6 de 06 3d
       -0.034907866 -0.052501664 0.044530902 0.032927178
0001e0 ec a5 90 3d b6 ab 9c 3b c9 f7 1f 3d 4c 5b 8f 3d
       0.07062897 0.0047812117 0.039054666 0.06999835
0001f0 da cb b1 3c 5b 0c 8b 3c ab de 0a 3d b0 f0 8d bd
       0.02170365 0.016973665 0.03390376 -0.06930673
000200 35 57 12 3c 32 9e 89 3c 9f 77 13 bd ef ce 09 3d
       0.008931925 0.016799066 -0.03600275 0.033644613
000210 25 ef 05 3d be 70 39 3d cf 94 dd bb 42 da df bc
       0.03269877 0.045273535 -0.006762124 -0.027325753
000220 b4 94 a4 bc dd 7b 85 3d f9 c3 38 3d fa 4a 6d bd
       -0.020090438 0.06517766 0.04510877 -0.05793283
000230 29 bc 5b bd 63 9f f8 3a d2 48 8e bd 2e c4 3e 3d
       -0.05364624 0.0018968399 -0.06947483 0.04657381
000240 f4 94 f2 bc 71 99 c0 3c 2f 8a 13 3d 08 40 77 3d
       -0.029612042 0.023510667 0.036020454 0.0603638
000250 00 c2 60 bc a2 db 6a 3d 39 90 60 3d 3a 13 b1 bc
       -0.013718128 0.057338364 0.05482504 -0.021615613
000260 1b 3f 05 bd d4 44 f8 3c a5 24 4b 3d ab 24 fa bb
       -0.032530885 0.030306257 0.049595494 -0.0076337657
000270 27 e6 c0 3d 60 00 45 bd 25 e7 5a bd e8 35 7f bc
       0.09418898 -0.04809606 -0.053443093 -0.015576817
000280 64 b3 88 3c d6 9d 40 3d 4a 4b 6b bd d5 f3 8a 3d
       0.016687103 0.047025524 -0.057444848 0.067847885
000290 d2 ab 80 bc 61 be 20 3d 71 99 d2 3d f7 d3 aa 3d
       -0.01570693 0.03924406 0.10283173 0.0834121
0002a0 a6 88 60 bc 9a b6 01 3d 3c a4 1a bd 90 42 65 3b
       -0.0137044545 0.031668283 -0.037754282 0.0034982301
0002b0 52 12 6d bd 02 bd 54 3c 11 e5 02 bb 98 59 90 3c
       -0.0578788 0.012984516 -0.001997296 0.017620847
0002c0 b0 a2 01 bd f1 b8 6f bd ef c0 86 3d 5e b0 a3 bb
       -0.03164929 -0.058525983 0.06579768 -0.00499539
0002d0 a0 34 40 bc 3a 39 7e 3c 3d 1a 24 bd f6 71 71 3d
       -0.011731297 0.015516574 -0.040064085 0.058946572
0002e0 9c 07 25 bd 34 5d 36 bd 2e dc a2 3d f4 72 0c 3d
       -0.04029046 -0.04452248 0.07952152 0.034289315
0002f0 98 9d c0 bb b6 b4 3c bb 77 44 6a 3d e0 66 80 3d
       -0.0058781616 -0.0028794236 0.0571942 0.06269622
000300 0d cb c7 bb 4d 97 1f 3d 4b e9 18 bd b4 df 12 3d
       -0.0060972036 0.03896265 -0.03733186 0.03585787
000310 02 58 cf 3c be 7d 6e bd 44 3a a4 3c 4d 52 8c 3d
       0.02531052 -0.058225386 0.020047314 0.06851635
000320 9a 9d af 3b 5f a5 97 ba b1 6d 9c bd bb 24 32 3d
       0.0053593637 -0.001156967 -0.076381095 0.04349206
000330 0e 88 0d bd 26 20 14 bd 1e 86 69 3d 50 e4 04 bc
       -0.03455358 -0.03616347 0.05701267 -0.008111075
000340 a3 0f 70 bd 3b 28 32 3d ee 24 d9 3b 3c 47 33 3d
       -0.058608662 0.043495398 0.006626717 0.043769106
000350 4e 1e 1b bd ae 07 9f 3c 35 8d a1 3c 4b 4d ce 3b
       -0.037870698 0.019412842 0.019720653 0.006295835
000360 07 ca 07 bd 9a a5 3c 3d 68 c7 35 bb c1 cd 14 bd
       -0.033151653 0.046056367 -0.0027737264 -0.036329035
000370 03 be 56 3d e6 db 06 3d 2c 41 2b 3d a2 b2 42 3c
       0.052427303 0.032924555 0.0418102 0.01188341
000380 7f 25 a5 3c 3e 4e 4a bd 60 06 1d 3d 9c ed 4f 3b
       0.020159481 -0.049391024 0.038336158 0.003172732
000390 8a 2f 77 bc 6d 7e c3 bc f6 5b 7f bd 10 cf 54 3d
       -0.015087018 -0.023863995 -0.06234356 0.051955283
0003a0 ac c3 bc bc 40 f2 0d bc b0 7c 55 bb d8 7d 9c bc
       -0.023042522 -0.008663714 -0.003257554 -0.019102976
0003b0 6d 81 e3 3c ec 32 2e 37 c7 69 1d 3d 23 83 cc 3c
       0.027771676 1.0383064e-05 0.038430955 0.024964875
0003c0 d0 6e 61 3d c4 bd 9a bd ab ef bf 3d a3 f8 40 bc
       0.05503732 -0.07555726 0.09371885 -0.01177803
0003d0 5a 56 9a bc 06 3b 65 bd 2c e0 68 bd 8b f5 52 bd
       -0.018840004 -0.055964492 -0.056854412 -0.0515037
0003e0 bf cc 94 3d d3 f4 a6 3d a3 3d 2d bd 84 d8 03 3d
       0.07265615 0.08152165 -0.04229511 0.032188907
0003f0 b9 9a 51 3c ce d2 2d 3d ce f9 96 ba 27 1c 53 3b
       0.012793236 0.042437367 -0.0011518539 0.0032212825

lays.2.weight f4 [2, 256]
000000 43 7c 00 bc b1 bf 74 bb 42 87 29 bd 7e cd 13 ba
       -0.007842126 -0.0037345702 -0.041388758 -0.00056382257
000010 48 03 56 bc 15 e9 09 3a ee 64 eb ba c0 a3 f3 ba
       -0.013062306 0.0005260867 -0.0017959157 -0.001858823
000020 83 13 07 ba df 22 84 3c 18 ad 35 ba 1b 06 19 3d
       -0.0005152749 0.01612991 -0.0006930395 0.03735934
000030 35 f8 1f bc 69 62 2b bd dc 47 ec ba c4 7b 40 bd
       -0.009763767 -0.041841898 -0.0018026787 -0.046993032
000040 fc 06 a6 3c 0f 44 a3 3d 32 33 97 ba 0d 2c 21 3d
       0.020267002 0.079719655 -0.0011535643 0.03934865
000050 8c 9d 1d bd ec 0c 29 bb a8 00 7b 39 5c 5a 44 3d
       -0.038480327 -0.0025795056 0.0002393747 0.047937736
000060 bf 01 cf b8 7c ed 83 ba 1b c8 c3 3b f2 c9 40 3a
       -9.8708544e-05 -0.0010065283 0.005974782 0.0007354311
000070 5b 50 c9 3c 4c 29 39 3c a7 24 41 3a 10 e6 b9 bb
       0.02457445 0.01130135 0.00073678273 -0.0056731775
000080 1d 37 2c 39 f0 d1 77 3b a2 a7 e8 b9 f2 4a 53 ba
       0.0001642373 0.0037814341 -0.00044375384 -0.0008060179
000090 c2 43 c6 b9 41 bb b4 3c b2 76 aa bc 4f f2 ff bc
       -0.00037815986 0.022061946 -0.020808551 -0.031243471
0000a0 95 32 be bc c8 fb 68 39 66 11 a4 3b e1 81 14 bb
       -0.023217479 0.0002221904 0.005006957 -0.0022660422
0000b0 4e 20 35 bd df 97 d1 3c 1e 7c 10 3c be 1e 23 3a
       -0.04422026 0.025585113 0.008818654 0.00062225375
0000c0 5f 22 13 3b ae d8 01 bd a2 81 47 3d 9b c4 a6 bc
       0.0022450907 -0.031700782 0.04870761 -0.02035742
0000d0 04 51 e3 bc 92 82 b2 3c 1e a7 22 bc 82 4e e0 ba
       -0.027748592 0.021790776 -0.009927539 -0.0017113241
0000e0 e6 c5 97 ba 65 d3 18 ba 40 e2 0c 36 be b5 41 ba
       -0.0011579364 -0.000582984 2.099332e-06 -0.00073894474
0000f0 3c 91 a4 3c 2f ff 04 3a 53 0b c3 b9 01 41 43 bd
       0.020088784 0.0005073426 -0.00037201736 -0.047669414
000100 c3 dc 60 bb 67 f1 2e bd 76 1f 34 ba fb 4c 34 bd
       -0.0034311272 -0.042710688 -0.0006871143 -0.044018727
000110 49 80 07 3b 2d a5 b1 b5 55 01 fd ba 40 61 18 bd
       0.002067583 -1.32356e-06 -0.0019302765 -0.03720212
000120 0a 3b 04 bd 18 cf af 37 5f 51 d3 ba 59 72 79 3c
       -0.032282867 2.0958061e-05 -0.0016122273 0.0152250165
000130 c6 c1 02 3b c8 fb 1d bc 84 5f 3b bb 02 0d db 3d
       0.0019951924 -0.009642549 -0.0028590867 0.106958404
000140 4e fe 63 b8 61 4b 8f b9 89 ef 4e 3d cb b3 9f ba
       -5.4357857e-05 -0.00027331247 0.050521407 -0.001218432
000150 3e 3f f0 b9 17 d1 0a 3d fc 1f 11 bd 43 32 8b 3c
       -0.00045823486 0.03389081 -0.035430893 0.01699174
000160 8c 1e 35 3d 02 7e d0 ba e0 6e 16 bd d5 7d db ba
       0.044218585 -0.0015906694 -0.036726832 -0.0016745875
000170 92 f8 af bc 8b c9 34 39 4d 31 11 bc ca 33 45 b9
       -0.021480832 0.00017241218 -0.008861852 -0.00018806677
000180 33 55 65 3c f3 87 88 3a b8 e9 af bc 4b 90 05 bb
       0.013997364 0.0010416493 -0.02147375 -0.0020380195
000190 85 ba d8 bc 46 b7 0c bb 2b e4 80 3d e6 5c c5 ba
       -0.026456127 -0.0021471544 0.062935196 -0.0015057593
0001a0 c2 c8 02 3d b0 31 25 bb 50 1d 47 3d e7 8b 55 bb
       0.03192974 -0.0025206618 0.04861194 -0.003258461
0001b0 7b a5 27 3d d9 2d 14 bd 43 fa 46 3c 18 e9 6b bb
       0.0409293 -0.036176536 0.012144628 -0.003599709
0001c0 f7 a9 94 3c 35 bf 58 ba a8 f9 1c 3c 08 a5 b4 3b
       0.018147452 -0.0008268238 0.009581007 0.0055128373
0001d0 27 5b 52 ba 6e 18 86 3c 86 cc 61 3a 42 7d 22 bd
       -0.0008024447 0.01636907 0.0008613545 -0.039670236
0001e0 f7 5f e7 ba 8f 63 0c ba 82 33 b4 ba 34 0b 9e ba
       -0.0017652501 -0.00053554116 -0.0013748261 -0.0012057782
0001f0 bd 32 b6 ba e5 ec 27 ba 3b b6 95 3c fe 21 9d 3c
       -0.0013900619 -0.00064058445 0.01827537 0.019181248
000200 5a da d5 b9 45 85 e2 3a 87 9b 56 bd 75 27 d5 3c
       -0.0004078921 0.0017282149 -0.052394416 0.026019791
000210 eb 7f 83 ba 65 e5 d4 3c c9 eb 92 3c 55 53 da bc
       -0.0010032629 0.02598829 0.017934697 -0.026651064
000220 d4 3e e3 bc eb e0 c0 ba 96 02 25 bd 8c 91 3f bd
       -0.02773992 -0.0014715468 -0.04028567 -0.046769664
000230 e8 6b a3 bc 32 8d 81 bc 05 28 e5 3b 2a 27 80 3c
       -0.019948915 -0.015814397 0.006993296 0.015643675
000240 e4 d0 35 3d 2e 79 43 bd 32 14 84 bc 67 e2 24 3d
       0.044388667 -0.047722988 -0.016122911 0.040254977
000250 50 da 38 bc 5a 7b 41 ba ad c2 55 3b 06 d8 08 ba
       -0.0112825185 -0.00073807465 0.0032617257 -0.0005220178
000260 13 73 73 ba ec 2e db 3c aa 4f e3 ba c8 7c 43 bc
       -0.0009286862 0.026755773 -0.0017342467 -0.011931606
000270 4e 43 0d 3d f0 02 40 bd 3e 87 41 bd 4d 55 de bc
       0.034488015 -0.0468778 -0.047248118 -0.027140284
000280 64 ea 14 bd f0 f2 0e bd dc c3 cc 3c f0 a0 04 3d
       -0.036356345 -0.034899652 0.024995737 0.032380044
000290 55 bf e0 3c cd 2e b7 bc 76 24 e2 ba 1f e9 2d bb
       0.027434984 -0.022361184 -0.0017253298 -0.0026536656
0002a0 e1 06 ac 3c f8 ac 38 ba c0 1a de bb 1a ec 27 bb
       0.020999374 -0.00070448173 -0.006778091 -0.0025622905
0002b0 d2 28 0c 3d a5 14 92 ba 76 33 ad bb 8b 6e f3 3c
       0.034218617 -0.0011145069 -0.0052856756 0.029715797
0002c0 12 e7 7e 3d 59 05 8f 3b e4 ea bb ba 1e 84 61 bb
       0.062232085 0.004364651 -0.0014336971 -0.0034411023
0002d0 b7 8a b2 ba 62 f7 cb ba 73 bb 3b ba 12 4b 9a b9
       -0.0013621663 -0.0015561397 -0.0007161416 -0.000294291
0002e0 8a 8b 1f bd 75 da 5f 3b 3d e4 98 ba 1c ef b8 ba
       -0.038951434 0.003415731 -0.00116647 -0.0014109346
0002f0 9a 4f 12 bd 86 fd 08 3d 95 6f dd ba e0 4f 0a 3a
       -0.035720445 0.033444904 -0.0016894216 0.00052761845
000300 e0 b7 3d 3d d6 f2 5f bd 02 61 bb 3c 44 88 1c bd
       0.046317935 -0.054674946 0.022873405 -0.03821589
000310 85 d0 2b 3d d3 35 96 3b 1b 2f b6 3b 58 73 1c bb
       0.041946907 0.004584053 0.0055598146 -0.0023872461
000320 00 26 14 3d f3 fc dc 3b 10 e0 9f 3b f1 e2 9f bb
       0.036169052 0.006744021 0.0048790053 -0.0048793484
000330 eb 18 13 37 b5 2d 6b 3b 80 89 be 3b e4 55 5f bd
       8.767684e-06 0.0035885398 0.005814731 -0.05452527
000340 d1 98 27 3b 26 6f 76 bb c3 18 b5 ba a3 84 28 3b
       0.0025573263 -0.003760287 -0.0013816584 0.0025713823
000350 52 8a 81 bc cf 92 b4 39 82 b5 af 39 07 90 4b bd
       -0.015813027 0.00034441656 0.00033513835 -0.049697902
000360 17 f7 4e bd d3 fd 9b 3a f9 58 f7 3c db 3a 11 b9
       -0.050528612 0.0011901207 0.030193793 -0.00013850203
000370 44 cc 3b 3b 38 59 39 bd db fe 28 3d 29 56 3a bd
       0.0028655687 -0.0452511 0.041258674 -0.045492325
000380 4e 4d ad 3b 50 89 55 3d 52 28 80 ba 1e f0 d4 ba
       0.0052887565 0.052132905 -0.0009777641 -0.0016245877
000390 14 4d db 3c 48 e0 11 bd da 14 7a bd ea 3b c3 b9
       0.026770152 -0.035614282 -0.06105504 -0.00037237938
0003a0 9a bd 2e bd d3 25 c0 bc ec 36 21 3a 99 db bd 3c
       -0.042661287 -0.023455536 0.00061498466 0.023176001
0003b0 66 d3 4f bd ac 06 37 39 36 7d 45 3d 90 a2 28 bb
       -0.050738715 0.00017454725 0.048215114 -0.002573166
0003c0 b2 80 49 bb 1b 9b 4a bc 23 a2 10 3d 43 e5 e0 3c
       -0.0030746874 -0.012366082 0.035310876 0.02745307
0003d0 ce 92 d8 3c 12 33 e2 3a e0 55 a7 3c 57 9b 8b bc
       0.02643719 0.0017257652 0.02042669 -0.017041845
0003e0 08 f7 13 ba 40 91 f7 b9 df 42 ae ba 24 cb 43 bc
       -0.00056444155 -0.0004721973 -0.0013295076 -0.011950288
0003f0 ec 74 29 bd 86 c6 82 3c 12 f7 17 3d f7 ea 3d 3c
       -0.04137127 0.015963804 0.03710086 0.0115916645

lays.2.bias f4 [2]
000000 e8 ba 23 bd 08 12 6d 3a
       -0.03997317 0.00090435194

l1.weight f4 [256, 2]
000000 c4 2a 0b 3f 31 4f a1 3e c8 8f ad 3e dc ba 9f 3e
       0.5436213 0.3150573 0.3389876 0.3119725
000010 17 f5 04 3f ad 08 a4 36 64 53 c2 3d 97 32 42 be
       0.5193648 4.888591e-06 0.09488562 -0.18964611
000020 2d e9 88 3e 7b 28 12 bf 70 36 bb 3e 5a 17 8c be
       0.267404 -0.5709302 0.3656497 -0.27361566
000030 3b ac ad bc b4 1c 79 3a 76 f9 82 3b fa b7 0a be
       -0.02120029 0.0009502873 0.003997023 -0.13546744
000040 c8 99 07 bf 35 35 e4 3e 75 03 cf bd f8 2e 0a 3f
       -0.52969027 0.44571844 -0.10108081 0.5397792
000050 ab e5 c6 3c 46 65 bc bd 71 93 03 bf 6b fc 6b 3e
       0.024279436 -0.09199004 -0.5139685 0.23045509
000060 80 eb 7f be ec 4c 8b 38 1c f5 9b be fc c9 3a 3f
       -0.2499218 6.642364e-05 -0.3046044 0.72964454
000070 93 e8 d1 ba e7 7d 4f 3d 73 da 53 3e 2c 15 21 bf
       -0.0016014747 0.05065718 0.206888 -0.6292293
000080 d1 74 04 3e a2 30 7e 3d 16 b4 7d bc f1 57 9c 3e
       0.12935187 0.0620581 -0.01548483 0.30535844
000090 ea 18 ff 3d 28 27 12 b9 2e 0d 57 be 8c 40 82 be
       0.12455924 -0.00013938232 -0.21001121 -0.2543987
0000a0 e4 43 af 3e 01 99 21 bf 13 82 0e 3e b9 59 f0 be
       0.34231484 -0.6312409 0.13916807 -0.46943453
0000b0 25 5a e3 3d 75 2b e2 be 1e 6f c6 bd 30 1a 42 3f
       0.11101178 -0.4417378 -0.09689163 0.7582121
0000c0 7e 0c 22 3d a0 af 32 bf a4 6a 0e bf 74 6b 86 3e
       0.039562695 -0.6979923 -0.5563147 0.26253855
0000d0 b9 86 26 bf 1a 34 cc 3e 78 68 20 3e 56 92 dd bd
       -0.6504932 0.398835 0.15664852 -0.10818927
0000e0 b8 bd 48 be 61 98 28 3f d2 a1 8f 3e 93 6c 78 3e
       -0.19603622 0.6585751 0.28053147 0.24260168
0000f0 6a 1a 03 3f 56 07 08 3f 2d 1d 0e bc 86 59 10 3f
       0.5121218 0.53136194 -0.008673948 0.563866
000100 10 61 57 39 00 c3 43 b8 bf 02 f4 3e 2a ca 4b b7
       0.00020540156 -4.667323e-05 0.47658345 -1.2146813e-05
000110 8b 1b 09 3a f8 19 84 38 24 fb 34 3e 1e 10 c8 3e
       0.00052302395 6.2990875e-05 0.17673928 0.39074796
000120 e7 1a b3 3c 3b 9b db 3e 25 de 0d 3f 26 a2 1d bf
       0.021863414 0.4289187 0.5541709 -0.61575544
000130 17 e4 42 be 57 80 f0 be 1f 69 dc 3e 85 c1 c4 3e
       -0.19032322 -0.46972916 0.4304895 0.38428894
000140 5c e0 40 bd 06 1c 97 be 37 76 bb 3b 2a 67 79 37
       -0.047088966 -0.29513568 0.0057208794 1.4865576e-05
000150 73 c7 b8 be 46 3b 9e b7 18 31 17 bf b6 d8 c7 3c
       -0.36089668 -1.886267e-05 -0.59059286 0.024395328
000160 53 1c f3 bd 7c 0d fa bd 93 c9 4f be 2b 89 8a be
       -0.11870637 -0.12209603 -0.20291738 -0.27057776
000170 2c c3 3a 3c 44 76 26 bf 80 87 03 3a 80 6f 0f b9
       0.011399072 -0.6502421 0.00050174445 -0.0001367908
000180 e9 b5 03 bc 99 97 d3 3e ee c9 54 be 88 24 a6 3e
       -0.008038976 0.41326597 -0.20780155 0.32449746
000190 04 72 1d bf 1f d5 68 be 16 04 20 3f a1 74 21 be
       -0.615021 -0.22737549 0.62506235 -0.15767147
0001a0 66 d6 11 bf 83 1e 9e 3e 48 68 c5 be ed 8e 42 3e
       -0.5696777 0.30882654 -0.38556123 0.18999834
0001b0 fc a4 10 bf e2 54 99 3d 23 af 44 be 9b be 1a 3d
       -0.56501746 0.07486893 -0.19207434 0.03777943
0001c0 fc aa 0e 3f 1a 1e e3 bd 22 cb a7 3e cc 94 95 be
       0.5572965 -0.11089726 0.32772166 -0.29215086
0001d0 5f 06 1a 3f 0f 7e 22 be 0d 8d 42 3e c6 e2 c8 3e
       0.6016597 -0.158684 0.18999119 0.39235514
0001e0 5d ce db 3e 9e 8a 4b be 8d 03 16 bd c0 6e 10 bf
       0.4293088 -0.19877097 -0.03662448 -0.5641899
0001f0 59 fc 12 3e bf ef 18 3e ec 3f 22 bc 9d df e1 3e
       0.14354075 0.14935206 -0.0099029355 0.44115916
000200 75 99 9c be 1b 2b c5 be 8e 06 cd 3d be 05 b1 be
       -0.30585828 -0.3850945 0.10011016 -0.34574693
000210 00 f0 34 b2 b1 c4 14 3f 73 f6 f5 be be da 10 bf
       -1.0531949e-08 0.5811263 -0.48039588 -0.56583774
000220 a9 95 bb be 1a 45 5e b7 9c fa 84 bc ab 49 a1 3e
       -0.3663762 -1.324832e-05 -0.016232781 0.31501517
000230 84 fa 25 3c e3 ff 93 be f5 3f 28 be 10 5f db 3e
       0.010130528 -0.28906164 -0.16430648 0.42845964
000240 91 cc f7 3e 62 2e 92 be e1 49 16 3e 42 85 26 3f
       0.4839826 -0.28551012 0.1467662 0.65047085
000250 89 f8 2e bf c2 22 29 3e a9 da 29 bf 7f af 12 3f
       -0.68347985 0.16517165 -0.66349274 0.57299036
000260 ab c5 d9 bd ff 14 cf be 42 73 17 bf 8c 36 48 be
       -0.10633405 -0.40445706 -0.59160244 -0.19552058
000270 95 96 44 be 93 3f d9 be ea 47 0a bf ce ab 0d bf
       -0.19198067 -0.42431316 -0.5401598 -0.5534028
000280 e8 95 fd 36 82 3a 3a 3e bc 0d 23 bf 00 c6 a0 b3
       7.557439e-06 0.18186381 -0.6369283 -7.4865966e-08
000290 e2 4e ab 3d 9f 81 b6 3e 90 d6 0b bf 5f e1 21 bd
       0.08364655 0.35645768 -0.5462427 -0.03952157
0002a0 8e 41 5f 3e 2e 3a 9a 3d ca 17 34 be 71 f7 d1 3e
       0.21802351 0.07530628 -0.175872 0.41009095
0002b0 75 a2 7f 3e b0 d5 d9 be 4b 45 0d bc cf cb f6 3d
       0.24964316 -0.42545843 -0.008622478 0.12050592
0002c0 14 08 93 be 6a 65 bf 3c dd eb fb bd c5 8d 81 be
       -0.287171 0.023363788 -0.12300847 -0.25303474
0002d0 52 09 bd 3e b0 ad 89 3d d9 e0 7a bd 27 9c 2f bf
       0.36921173 0.067225814 -0.061249588 -0.68597645
0002e0 36 1d 8f be 08 2b 8e 3e a2 f2 af 3d 85 87 40 3f
       -0.27951974 0.27767205 0.085912004 0.75206786
0002f0 8a 28 ef be 09 2c 69 3e e8 ba e2 3e bd 2f c7 3b
       -0.46710616 0.22770704 0.44283223 0.006078689
000300 92 8b ee 3b ae 95 16 3f 81 31 e0 3e f6 52 a7 be
       0.0072798217 0.58822143 0.43787768 -0.32680482
000310 0b 8d 76 bc 1d cf 69 3e ed 5a e4 3e 69 2f b0 3d
       -0.015048276 0.22832914 0.4460062 0.08602793
000320 10 fc 86 be 29 ee 9c 3d 29 a5 92 3d 9b 27 05 bf
       -0.26364183 0.07662613 0.07160408 -0.5201356
000330 31 a8 e7 be 31 59 29 3f 33 03 03 3d 33 ca 0b bf
       -0.45245507 0.6615172 0.031985473 -0.54605407
000340 d6 bb f8 3e fa 9a 0a 3e 78 b4 51 b9 45 f1 c1 3e
       0.48580807 0.13535681 -0.00019999023 0.37879387
000350 9e 22 bf 3e ae 42 21 3f c8 78 f2 be 11 67 7a 3c
       0.37331098 0.6299237 -0.47357774 0.015283362
000360 45 15 06 be 87 de f3 3e c3 b7 46 be 74 64 79 39
       -0.13094051 0.47630712 -0.19406037 0.00023783912
000370 71 b9 0d bc 7c 3c f2 3e 43 51 26 3e 4e d1 f2 3e
       -0.00865017 0.4731177 0.16241936 0.47425312
000380 07 13 c3 be be 7b 11 bf 6b f7 25 3f 45 04 d9 ba
       -0.38100454 -0.5682944 0.64830655 -0.0016557059
000390 07 6e b7 3c 73 f8 44 3e 76 b9 10 3f 48 fe 1f bf
       0.022391332 0.19235401 0.5653299 -0.6249738
0003a0 ba f2 ac b6 18 72 35 3f a9 30 da 3e 3a 5f 07 be
       -5.1542565e-06 0.7087722 0.4261525 -0.1321992
0003b0 0c cd ee be ff 6d 1c bf 07 e2 06 bf 31 56 c3 3e
       -0.46640813 -0.6110534 -0.5268864 0.38151696
0003c0 dc 17 49 bc 29 80 29 39 8c 49 ae 3e 1a ca 75 3e
       -0.012273755 0.0001616484 0.34040487 0.24002877
0003d0 2a 11 1a bf 36 25 53 bd aa c8 6e be 03 d5 b6 be
       -0.6018244 -0.05154916 -0.23318735 -0.3570939
0003e0 18 2e 00 bf 26 cf ef be ce 41 df be d7 12 dc 3e
       -0.50070333 -0.4683773 -0.43604892 0.42983124
0003f0 a3 cd 02 3f fa 9e 56 3d b0 ed bc be 9b 6e fd 3e
       0.51095027 0.052397706 -0.3690009 0.49498448

l1.bias f4 [256]
000000 96 f4 95 bd 5a c5 fe 3e f2 91 7d be 2a 11 1b 3e
       -0.07322042 0.49759942 -0.24762705 0.15143266
000010 fa 97 e8 bd f3 fb 27 bf 70 6f a9 3d 3f 43 f4 3e
       -0.11357112 -0.6561882 0.08273208 0.47707555
000020 47 43 d6 be a4 03 a1 3e 14 b7 07 bf 2b ca 93 3e
       -0.41848204 0.3144809 -0.5301373 0.2886518
000030 25 23 f7 3b 5f a3 20 3f 0b c0 31 3f 86 5b 28 3f
       0.0075420314 0.62749285 0.6943366 0.65764654
000040 aa 5d dc 3d c9 80 0e 3e 2b 16 cb bc 8e dd 90 3e
       0.107600525 0.13916315 -0.024790844 0.28294033
000050 fb 61 ce 3d 93 b5 c4 3e fc 06 ff 3d eb 6f 34 3f
       0.10077282 0.3841978 0.12452504 0.70483273
000060 10 36 24 3f 0b bd 94 be b5 5b 68 be 1d a3 e9 3e
       0.6414499 -0.29050478 -0.22691233 0.45632258
000070 8e 24 a3 be 23 26 a8 bd af 15 0d bf 13 3c 77 3e
       -0.31863827 -0.08210399 -0.5511121 0.2414401
000080 0a 3b 16 3f c1 2b eb be 02 c3 fa 3e 90 5b 83 3e
       0.58683836 -0.4593182 0.48976904 0.25655794
000090 16 e8 15 bf 08 72 0a 3d 38 d5 ef 3d 17 f7 72 3e
       -0.5855726 0.033800155 0.1171059 0.2372707
0000a0 4e 79 28 bf 60 0e ee be e9 1c 2d bf f8 a2 bd bc
       -0.65810096 -0.46495342 -0.6762224 -0.023148999
0000b0 71 a0 26 bf bb 49 57 be 4b 1f 23 3f d3 00 23 3f
       -0.65088564 -0.2102422 0.63719624 0.6367313
0000c0 02 e9 0f 3f 63 43 95 3d 4e bf 54 3e 18 ce d7 be
       0.56214917 0.072882436 0.20776102 -0.42149425
0000d0 bb 23 0b bf c3 33 37 3f 13 9d 27 3e 05 4d c7 3e
       -0.54351395 0.7156336 0.16368513 0.3892595
0000e0 93 d1 69 be a4 ea ac be bc 44 e0 be 06 7a 19 3e
       -0.22833852 -0.33772767 -0.4380244 0.14987954
0000f0 f2 5c f2 bd 3a ac a8 bd 78 10 7c be a1 d0 0d 3f
       -0.11834134 -0.082359746 -0.24615657 0.5539647
000100 44 81 cc be 3c 44 11 bf 09 ac 9d be d6 2f 1d 3f
       -0.39942372 -0.5674474 -0.30795315 0.61401117
000110 7d 89 9b be 32 98 12 3e 7a ca 89 3e 77 06 fa 3d
       -0.30378333 0.1431587 0.2691229 0.12208264
000120 69 34 0c 3f 4c dc 21 bf 7b 4e bf be 02 7e 0c bf
       0.5476747 -0.6322677 -0.37364563 -0.5487977
000130 33 dd c0 be cb 76 23 3f d0 d5 aa bd 3e 01 2a 3f
       -0.37668762 0.6385314 -0.08341563 0.66408145
000140 5f 31 2f be c4 f6 f2 3e 6e 71 26 bf f9 76 86 3e
       -0.17108677 0.47453892 -0.6501683 0.26262644
000150 38 f8 84 be e7 4d b8 3e df 85 c6 3e 55 53 f2 3e
       -0.25970626 0.35996935 0.3877401 0.47329202
000160 7d b1 13 3f 34 92 26 3c b9 91 a6 3e 3a 2b 96 be
       0.576927 0.0101666935 0.32533053 -0.29329854
000170 e0 b3 f7 3e f0 22 56 3e a2 f4 7b be 89 37 e7 be
       0.4837942 0.20911765 -0.24605039 -0.45159557
000180 2b 3b 6a be 36 69 53 be d8 dd d8 3d 55 70 b9 3e
       -0.22874133 -0.20645604 0.10589188 0.36218515
000190 19 4e 0d bf 56 8d 33 bf 7f 3a 4a 3f f7 56 53 3d
       -0.5519729 -0.70137537 0.7899551 0.051596608
0001a0 16 ea 0c be 3d 23 08 3e 2a 57 8e bc 96 1b 39 3f
       -0.13761172 0.13294692 -0.017375547 0.7230772
0001b0 fd 52 b3 3e d8 09 28 3c 1c 59 04 3f a3 ec 84 bb
       0.35024253 0.010256253 0.5169847 -0.0040565296
0001c0 c3 de ea be 60 7a 34 3f 42 3e fb be 32 33 af 3d
       -0.4587308 0.7049923 -0.49070936 0.085546866
0001d0 9e 5a bf be c6 bf f8 bc f4 7a 04 bf d2 cb 9d bd
       -0.37373823 -0.030364882 -0.5175011 -0.07704891
0001e0 02 1e 06 3e 0a 8f ea be 60 cb 09 bf b0 93 bd 3e
       0.13097385 -0.45812255 -0.5382595 0.3702674
0001f0 c3 2f 63 bd 4d 3e 1a bf 02 38 0e bf 73 66 24 3f
       -0.05546547 -0.60251313 -0.5555421 0.64218825
000200 45 73 e2 bd a0 a7 18 bf 2e 8b fe be 54 a4 5e 3e
       -0.11057142 -0.59630775 -0.4971556 0.21742374
000210 6c 57 aa bd 0e 4a de be 47 72 78 be 05 02 6a bd
       -0.08317456 -0.43415874 -0.24262343 -0.057130832
000220 c0 a2 a0 bd 99 a7 ad 3d 37 36 0f bf 09 06 0c be
       -0.07843542 0.08479232 -0.559421 -0.13674177
000230 34 12 58 bd ba fc 23 bd 44 d9 32 bf f8 cb 23 bf
       -0.052751735 -0.04003594 -0.6986277 -0.63983107
000240 f7 97 18 be 5a 09 30 3f 7b a5 dd 3e 47 97 11 3e
       -0.1490172 0.6876427 0.43290314 0.14217864
000250 4b c8 8e 3e 21 b1 00 bf e1 61 ec 3e ab 16 6a bd
       0.27887186 -0.5027028 0.46168426 -0.057150524
000260 b5 3f d5 3e f4 54 43 be f7 63 b8 3e 89 9c 0c bf
       0.41650167 -0.19075376 0.36013767 -0.54926354
000270 7c 62 f3 be e0 1b b6 3d f1 67 04 bf 1a cb e1 3e
       -0.47536075 0.088920355 -0.517211 0.44100267
000280 16 3d 3a 3f b0 c4 46 3e bc 90 07 bf f6 f0 32 bf
       0.7274946 0.19410968 -0.5295522 -0.6989893
000290 3b 45 04 3f 7e e0 61 be a1 9c 18 3f 94 0f 01 3f
       0.5166814 -0.22058293 0.59613997 0.50414395
0002a0 70 81 d1 be e3 23 cc 3d 22 81 0b bf f3 ff 26 3f
       -0.40919065 0.09967782 -0.54493916 0.652343
0002b0 3c 85 11 3f 32 9d de 3d a8 cc 82 3e 68 b0 82 3e
       0.56843925 0.108698264 0.25546765 0.25525212
0002c0 e3 27 9f 3e ca 31 19 bf d0 ec 02 be 88 0a 9e 3c
       0.3108512 -0.598416 -0.1278565 0.019292131
0002d0 d0 dd 29 bf 7e 4d 48 be 04 ce bc be 07 c2 2b 3e
       -0.66354084 -0.19560811 -0.36875927 0.16773234
0002e0 5d 11 2d be 69 0f 2f 3f b4 a8 27 3f a6 04 04 bf
       -0.16901155 0.6838289 0.65491796 -0.5156959
0002f0 1e af 08 bf fb 08 dd be 16 b3 ab 3d b5 81 62 be
       -0.5339221 -0.43170914 0.08383767 -0.22119792
000300 fc d8 eb bc 10 3d ae 3d ab 2a b0 3e 84 81 1b 3e
       -0.02878999 0.085077405 0.34407553 0.15186125
000310 1b 54 1d 3f f2 8e 26 3c 36 1b e3 bd 85 46 61 be
       0.6145646 0.010165917 -0.110891744 -0.21999557
000320 cd 4b 01 be b6 a7 19 be cc fa ec be 2f cb a6 3e
       -0.12626572 -0.15005383 -0.46285093 0.32576892
000330 96 22 84 bd 7d 4e 20 3f b6 2b 0a bf da 9d a1 be
       -0.06451909 0.62619764 -0.5397295 -0.31565744
000340 13 dd 3a 3f 9b 43 de be e1 7c fb be e3 a5 46 3e
       0.7299358 -0.43410954 -0.49118713 0.19399218
000350 c3 87 c8 3d fa 0e 42 3f 64 f9 0b 3f bd 82 f6 be
       0.097915195 0.758041 0.54677415 -0.4814662
000360 bf 4e 0e bf 38 57 2c bf 6c 65 2c be f4 79 48 3d
       -0.55588907 -0.67320585 -0.16835564 0.04894443
000370 dd 8e 0b bf 45 ec 5c be 7b 9e 1e bf 9f 77 1f bf
       -0.5451487 -0.21574505 -0.6196057 -0.622919
000380 ac c2 fa be 76 b9 6f be 3a c1 08 3e b9 04 5b be
       -0.48976648 -0.23410591 0.1335496 -0.2138852
000390 46 aa 15 3c 15 95 1b bf 8b 81 0e 3f 50 4d 25 bf
       0.009134835 -0.60774356 0.55666417 -0.64571095
0003a0 98 6e 05 3f cc 0c 14 bf dd 1d bb 3e 70 d1 cb be
       0.5212188 -0.57832026 0.3654622 -0.39808226
0003b0 2c 96 12 bf 0d 91 d1 3e 6f a0 52 be 6a ba 88 be
       -0.57260394 0.40930977 -0.20569013 -0.26704723
0003c0 7d 10 db be f0 73 13 3f 56 40 1c bf 49 6b 0e 3f
       -0.42786017 0.5759878 -0.6103567 0.55632454
0003d0 6e be dc bd 69 16 cb 3e 33 89 21 3f c0 c6 3c 3f
       -0.10778509 0.39665535 0.63099974 0.7374077
0003e0 84 e5 16 3e 1f 48 b7 3c cb 53 16 bf 58 ad 1b 3f
       0.14735991 0.022373257 -0.5872161 0.60811377
0003f0 a3 b0 17 bf 1d f7 66 be 2a 9f b1 be 45 7f 14 bf
       -0.592539 -0.22555204 -0.34691745 -0.580067
