TOYDATA/Models/Halfmoons_a=0.1_e=0.05.pt (torch, 270487 bytes, 10 tensors)

lays.0.weight f4 [256, 2]
-0.0009104273 0.7486324 -0.18647908 0.17517547 -0.002104938 0.19332962 -0.2926476 -0.10233476
-0.5598044 2.8298062e-05 0.107629225 -0.62022024 -0.56963336 0.00019447407 0.5760706 0.4643182
-1.0550672 0.00086920743 0.0025885403 -0.4868227 0.27903518 -0.42012176 0.42418167 0.0003189721
0.11205399 -0.582951 -0.43970698 -0.65285176 0.22602503 -0.0013312594 0.0007562473 -0.4908943
0.588673 0.5166931 0.11033111 0.296759 -0.36098862 -0.5239098 -0.6725052 0.6308013
0.57293206 -0.00039242685 -3.6851954e-05 -0.27241063 -0.24945374 0.41271117 0.59102654 -0.0002399739
-0.5301011 0.2392434 -0.0013871801 0.2134402 0.29687962 -0.18224216 0.34526694 -0.15186405
0.0006664945 -0.0002396496 0.34541664 -0.00028628026 -0.15419188 -0.52302164 -0.406265 0.00022495704
0.06676365 0.71060807 -0.00023131861 0.59980136 -0.35860226 0.4114002 0.03373041 -0.11353998
-0.39216664 -0.44160712 0.30023783 0.26020178 -0.2732815 0.26332727 -0.4596629 -0.6065637
0.0025702417 -0.27513766 -0.6960968 0.6188592 0.12087503 -0.30084845 0.3104303 0.64750606
0.3090586 0.5445489 -0.9218348 6.15085e-05 0.1922761 -8.1609265e-05 0.53016514 0.00026110458
-0.001985403 0.6471343 0.37364152 0.0008037577 -4.9318274e-05 -6.1519706e-05 0.45625418 -0.000105986765
-0.62066996 -0.4636086 -0.5267437 0.6121289 -0.0005347733 0.5100888 0.34977323 0.39882913
-0.74053234 0.0005058511 0.011854819 -0.018961778 -0.000103380444 0.5919028 0.0023102246 -0.6298464
-2.1200192e-05 -0.13092269 -0.00031886692 0.7501076 0.0013950514 -0.00069740386 -0.553607 0.5878735
0.63073725 -0.00043994765 0.5730431 -0.00033289025 -0.041863102 0.5094241 0.036555994 -1.8000007e-06
0.3641806 0.49153775 0.52541226 0.3183586 -0.13855684 0.81526774 -0.7645515 0.00012959453
0.49960658 0.39805934 0.74313134 -0.25736225 -0.16109788 0.60437566 0.60301495 -0.45501804
0.07656332 0.1836287 -0.466445 0.23822841 0.0005380495 -0.4056962 -0.56332284 -0.24546301
0.0009635158 -0.29399025 -0.4128591 -0.39068294 -0.0020734675 0.27974132 -0.2895884 -0.0009093025
-0.00010535858 0.47311336 0.482456 -0.00013337762 -0.30317238 -0.324612 0.0010746794 -0.34462503
-0.45228356 -0.15310332 -1.3891985e-05 8.493976e-05 -0.0013101441 0.62899554 -0.5217028 -0.3569654
-0.9767809 0.0011025402 -0.38741386 0.0016987663 3.642463e-05 -1.7854574e-05 -0.098084256 0.6618242
-0.847332 0.00043378814 -0.0013111776 0.6663762 -0.8804932 0.00055675174 0.2983841 0.53132534
0.0016195966 -0.510506 -0.6053699 -0.65444726 0.0020941666 -0.00067542656 -0.6358527 0.3301063
0.0015787276 -0.2735688 0.48540065 0.014521215 -0.5317062 -0.3977165 0.44202337 0.00081735314
0.5850582 0.00081831403 -0.2335049 -0.5925252 -0.40191087 -0.020370277 0.4566327 -0.0001534438
-0.55800676 -0.16273668 -0.6303207 0.00019712304 -0.3486536 -0.0012246723 -0.2746241 -0.00047249082
0.12666154 -0.25727725 0.0009784347 -0.65750676 -0.58324695 -0.49747252 -0.16317542 0.17400718
0.4082183 0.6104126 -0.12341399 -0.53199965 -0.00025757146 0.4445106 -0.0025885822 0.026495637
0.06878611 -0.5844889 0.062708795 0.34789005 0.4382304 -0.41480377 0.18575348 -0.36774704
00000000: bea9 6eba 5fa6 3f3f 5ff4 3ebe 3361 333e
00000010: 00f3 09bb 33f8 453e e8d5 95be e394 d1bd
00000020: 574f 0fbf a061 ed37 b66c dc3d c1c6 1ebf
00000030: 7ed3 11bf bceb 4b39 5d79 133f 1dbb ed3e
00000040: 710c 87bf 86db 633a 80a4 293b d340 f9be
00000050: b3dd 8e3e 331a d7be 572e d93e b63b a739
00000060: 907c e53d 473c 15bf 4621 e1be 4b21 27bf
00000070: 1b73 673e a77d aeba e63e 463a 7f56 fbbe
00000080: 46b3 163f 0046 043f 47f5 e13d ccf0 973e
00000090: 80d3 b8be f41e 06bf 4d29 2cbf 327c 213f
000000a0: adab 123f a4be cdb9 7c91 1ab8 6879 8bbe
000000b0: cd70 7fbe e14e d33e 844d 173f 81a1 7bb9
000000c0: b5b4 07bf 39fc 743e 0ad2 b5ba 1190 5a3e
000000d0: 9b00 983e b09d 3abe d4c6 b03e 4082 1bbe
000000e0: b0b7 2e3a 734a 7bb9 73da b03e e317 96b9
000000f0: 7ae4 1dbe bfe4 05bf f701 d0be 72e2 6b39
00000100: 61bb 883d 69ea 353f 1e8e 72b9 958c 193f
00000110: b79a b7be 0ca3 d23e e628 0a3d a687 e8bd
00000120: 11ca c8be 541a e2be c6b8 993e 2b39 853e
00000130: 8eeb 8bbe d5d2 863e f058 ebbe c247 1bbf
00000140: 8071 283b d8de 8cbe 6633 32bf 8e6d 1e3f
00000150: 548d f73d cf08 9abe b8f0 9e3e f5c2 253f
00000160: ee3c 9e3e 8f67 0b3f 5efd 6bbf 20fe 8038
00000170: 07e4 443e a425 abb8 e7b8 073f dde4 8839
00000180: 891d 02bb 98aa 253f f14d bf3e 44b3 523a
00000190: 18db 4eb8 2404 81b8 269a e93e 3645 deb8
000001a0: 3ae4 1ebf 1b5e edbe add8 06bf 7bb4 1c3f
000001b0: 0730 0cba 2e95 023f 7a15 b33e 5533 cc3e
000001c0: 8793 3dbf 189b 043a b73a 423c bb55 9bbc
000001d0: f4cd d8b8 f186 173f 2367 173b 9d3d 21bf
000001e0: 11d7 b1b7 9910 06be 982d a7b9 0d07 403f
000001f0: 28da b63a fbd1 36ba 30b9 0dbf e17e 163f
00000200: ff77 213f c6a8 e6b9 f4b2 123f c687 aeb9
00000210: a578 2bbd 9e69 023f bdbb 153d 8e97 f1b5
00000220: e175 ba3e d6aa fb3e 6b81 063f e6ff a23e
00000230: d8e1 0dbe 63b5 503f a6b9 43bf c4e3 0739
00000240: 6fcc ff3e 6fce cb3e db3d 3e3f fcc4 83be
00000250: d8f6 24be 5db8 1a3f 305f 1a3f 20f8 e8be
00000260: 3bcd 9c3d 2909 3c3e e1d1 eebe 26f2 733e
00000270: e40b 0d3a 6ab7 cfbe ed35 10bf a85a 7bbe
00000280: 7394 7c3a e485 96be 4562 d3be 9807 c8be
00000290: 03e3 07bb 413a 8f3e ee44 94be 425e 6eba
000002a0: f5f3 dcb8 ea3b f23e 7904 f73e 48db 0bb9
000002b0: 6939 9bbe 8b33 a6be 42dc 8c3a b172 b0be
000002c0: b691 e7be 1ec7 1cbe 9f11 69b7 b021 b238
000002d0: 24b9 abba da05 213f 518e 05bf 2bc4 b6be
000002e0: 500e 7abf 1c83 903a 1c5b c6be 23a9 de3a
000002f0: a6c6 1838 68c6 95b7 66e0 c8bd 506d 293f
00000300: c0ea 58bf 0f6e e339 d2db abba a197 2a3f
00000310: 0168 61bf faf2 113a cdc5 983e f004 083f
00000320: a548 d43a 85b0 02bf 86f9 1abf db89 27bf
00000330: 493e 093b 1c0f 31ba 3ec7 22bf b103 a93e
00000340: 4fed ce3a 3611 8cbe 6f86 f83e 64ea 6d3c
00000350: e61d 08bf 7fa1 cbbe e350 e23e a443 563a
00000360: 60c6 153f 2084 563a e91b 6fbe bbaf 17bf
00000370: 43c7 cdbe 91df a6bc c3cb e93e c2e5 20b9
00000380: 88d9 0ebf 72a4 26be b35c 21bf d0b2 4e39
00000390: ba82 b2be 2f85 a0ba 889b 8cbe a5b8 f7b9
000003a0: 90b3 013e d8b9 83be d23e 803a 5d52 28bf
000003b0: ac4f 15bf b8b4 febe 7517 27be f02e 323e
000003c0: fd01 d13e 0044 1c3f 79c0 fcbd 2131 08bf
000003d0: a80a 87b9 e596 e33e 34a5 29bb 610d d93c
000003e0: bbdf 8c3d 11a1 15bf 786d 803d a51e b23e
000003f0: bc5f e03e 2961 d4be 2936 3e3e 5749 bcbe

lays.0.bias f4 [256]
0.25577676 0.7031677 0.48614126 -0.45646888 -0.043030836 0.13434704 -0.04455051 -0.5075151
-0.08100889 0.43480602 -0.109262094 -0.43622765 0.46480438 0.58232754 0.21156663 0.51767755
-0.25227502 -0.09121512 0.47741127 -0.60479516 -0.5859684 -0.41018426 0.62696475 -0.6062572
-0.057776798 0.09799694 -0.14763846 0.5546432 0.5749509 0.2846805 0.19087729 -0.03105927
0.21174666 0.28858498 -0.39565235 -0.5596013 0.46210727 -0.3625024 -0.38305148 0.5836563
0.57068413 -0.15160999 -0.24512361 0.2129532 -0.049727373 -0.07201675 0.4927529 -0.0025348547
0.2953674 -0.06710091 0.7398747 -0.45741794 -0.6882106 -0.13433701 0.6431347 0.32510132
0.37290397 -0.5309994 0.64326334 0.69519675 -0.1634497 0.5014979 0.47229338 -0.35960963
-0.64671636 -0.24692126 -0.52601665 -0.68997574 -0.5640034 -0.6479063 0.6083541 -0.060927454
-0.6865743 -0.6587777 -0.61418647 -0.50178605 -0.2567246 -0.7105432 0.36306596 -0.6003146
0.27544796 0.34409893 0.23836249 0.669437 -0.258154 0.6646823 -0.50135446 0.3089113
-0.56686956 0.3158826 0.3064734 -0.6389664 -0.04652634 0.04316513 0.83842355 -0.6817834
-0.065184854 0.27495906 -0.042966872 0.37064537 0.46927583 0.04259163 0.6370642 0.26424375
0.2548763 0.1557463 -0.6534337 -0.43522856 -0.46804273 -0.06930105 0.6644667 -0.072378255
-0.51855624 0.026380872 0.7157553 0.66944134 -0.033122502 0.5581147 0.639497 0.07093572
-0.056306444 -0.118388906 -0.014188942 0.3991755 0.47985095 -0.33055446 -0.30016512 -0.052853327
-0.49133223 0.15966922 0.6175982 -0.07501354 0.4559121 -0.055959463 0.4249229 -0.17965052
-0.6354725 0.3957553 -0.615266 0.20639096 0.33648527 0.36476174 -0.014447645 -0.31372455
-0.0131628355 -0.20428687 -0.50478655 -0.71837044 0.6009357 0.3747521 0.45232758 0.09137414
-0.55423945 -0.009828181 -0.051892508 0.5167083 -0.33194953 0.6351298 0.20428059 0.38470638
-0.08815916 -0.5051396 0.7265784 -0.44699827 0.2353041 -0.06859062 -0.16540734 0.19183378
-0.66498977 -0.21216936 0.321419 -0.06013649 -0.6399015 0.3155471 -0.27303627 0.58228517
-0.070177466 0.36021477 0.34951565 -0.106114864 -0.71515673 0.032304022 0.54655236 0.24034262
0.51847136 -0.33528012 -0.4362899 0.6856563 0.4841025 -0.018707575 -0.4074558 0.13911806
-0.08891314 -0.0065106223 0.32651514 0.22681813 0.23157114 -0.4230197 0.2407642 0.114118695
0.4173515 -0.20166373 0.41009057 0.32264656 0.651964 -0.67881495 -0.36820883 0.5282467
0.5504702 0.66133785 0.53730875 0.098890685 0.54338676 0.012870577 -0.43774164 -0.6629336
-0.30297026 0.7102757 -0.5653172 0.30216008 0.014829903 0.13589928 0.0713157 -0.2764975
0.610035 -0.43751833 0.29966155 -0.41475382 0.26058534 -0.20561175 0.67735654 0.6025479
0.3248197 0.41552582 -0.51062006 -0.6787109 -0.2694694 -0.17102379 0.7231809 -0.18231432
0.31828663 -0.3992211 0.4890844 -0.20388405 -0.30154198 0.49035472 -0.5419158 0.54476523
0.4836674 -0.6576146 -0.06380784 -0.43708566 0.710661 0.7169304 0.6354125 0.27801043
00000000: 2cf5 823e cc02 343f 82e7 f83e 4ab6 e9be
00000010: 1a41 30bd 4592 093e 987a 36bd 82ec 01bf
00000020: fde7 a5bd e59e de3e cec4 dfbd 3b59 dfbe
00000030: d7fa ed3e 6b13 153f eca4 583e 8486 043f
00000040: 312a 81be fece babd 406f f43e dbd3 1abf
00000050: 0602 16bf ac03 d2be c380 203f ac33 1bbf
00000060: 5da7 6cbd 9fb2 c83d 892e 17be 19fd 0d3f
00000070: fb2f 133f a4c1 913e 5675 433e 0370 febc
00000080: 1ed4 583e 69c1 933e f292 cabe 0842 0fbf
00000090: 5399 ec3e ea99 b9be 531f c4be 806a 153f
000000a0: 5b18 123f a63f 1bbe af01 7bbe 6710 5a3e
000000b0: eeae 4bbd 857d 93bd 1c4a fc3e ce1f 26bb
000000c0: 653a 973e 346c 89bd 6e68 3d3f af32 eabe
000000d0: 922e 30bf a48f 09be 7aa4 243f ae73 a63e
000000e0: 45ed be3e 94ef 07bf e8ac 243f 6af8 313f
000000f0: 5c5f 27be 2b62 003f 70d0 f13e c11e b8be
00000100: 348f 25bf edd8 7cbe 07a9 06bf 40a2 30bf
00000110: 8762 10bf 30dd 25bf 18bd 1b3f 118f 79bd
00000120: 55c3 2fbf a8a5 28bf 533b 1dbf 0d75 00bf
00000130: 6871 83be 29e6 35bf c8e3 b93e 38ae 19bf
00000140: 8407 8d3e bc2d b03e 4c15 743e 3960 2b3f
00000150: c32c 84be 9f28 2a3f c458 00bf 9f29 9e3e
00000160: 5d1e 11bf 5dbb a13e 15ea 9c3e 4d93 23bf
00000170: 6792 3ebd ebcd 303d eda2 563f 5b89 2ebf
00000180: a37f 85bd 6fc7 8c3e 08fe 2fbd 3bc5 bd3e
00000190: ec44 f03e 9074 2e3d a416 233f f54a 873e
000001a0: 257f 823e f57b 1f3e 6e47 27bf 47d6 debe
000001b0: 4ca3 efbe b5ed 8dbd 7d1a 2a3f 0d3b 94bd
000001c0: 1ac0 04bf b31c d83c bd3b 373f 8260 2b3f
000001d0: 76ab 07bd 9be0 0e3f 13b6 233f bf46 913d
000001e0: 96a1 66bd e275 f2bd bc78 68bc bb60 cc3e
000001f0: 06af f53e 6f3e a9be 3eaf 99be bb7c 58bd
00000200: e68f fbbe 5480 233e ea1a 1e3f b3a0 99bd
00000210: 506d e93e c035 65bd 7f8f d93e 4ef6 37be
00000220: 53ae 22bf 70a0 ca3e 1382 1dbf 2758 533e
00000230: cc47 ac3e 0dc2 ba3e d1b5 6cbc 81a0 a0be
00000240: efa8 57bc 9430 51be b139 01bf 20e7 37bf
00000250: ecd6 193f 82df bf3e 7b97 e73e 5d22 bb3d
00000260: a3e2 0dbf 6106 21bc 3d8d 54bd ff46 043f
00000270: 4af5 a9be de97 223f ee2e 513e 3cf8 c43e
00000280: ca8c b4bd d450 01bf 0b01 3a3f f5dc e4be
00000290: 8ff3 703e 3d79 8cbd 8b60 29be 1370 443e
000002a0: c53c 2abf ed42 59be 0891 a43e ae51 76bd
000002b0: 96d0 23bf 648f a13e 69cb 8bbe a410 153f
000002c0: 34b9 8fbd 126e b83e b7f3 b23e c052 d9bd
000002d0: 8314 37bf 3951 043d dbea 0b3f 601c 763e
000002e0: 8aba 043f d6a9 abbe 6461 dfbe 2c87 2f3f
000002f0: 48dc f73e a140 99bc 0c9e d0be f774 0e3e
00000300: 1818 b6bd 0f57 d5bb fe2c a73e 0343 683e
00000310: fc20 6d3e 0a96 d8be e48a 763e 10b7 e93d
00000320: 19af d53e f080 4ebe 64f7 d13e ee31 a53e
00000330: 1de7 263f d1c6 2dbf de85 bcbe 2d3b 073f
00000340: 9deb 0c3f 704d 293f 118d 093f 3387 ca3d
00000350: 651b 0b3f 1ddf 523c ac1f e0be 04b6 29bf
00000360: eb1e 9bbe a1d4 353f a1b8 10bf bab4 9a3e
00000370: 1ff9 723c 2e29 0b3e f70d 923d 1591 8dbe
00000380: 412b 1c3f 6702 e0be 3d6d 993e 9d5a d4be
00000390: 716b 853e e38b 52be 3d67 2d3f 9440 1a3f
000003a0: c54e a63e cdbf d43e ffb7 02bf ffbf 2dbf
000003b0: e5f7 89be dc20 2fbe 6222 393f 9bb0 3abe
000003c0: 77f6 a23e b566 ccbe 4569 fa3e fbc6 50be
000003d0: b663 9abe c60f fb3e feba 0abf bc75 0b3f
000003e0: 41a3 f73e 6e59 28bf afad 82bd b1c9 dfbe
000003f0: e1ed 353f c088 373f 65aa 223f 6257 8e3e

lays.1.weight f4 [256, 256]
0.049310014 0.04302763 0.013300197 -0.045248475 0.019094154 0.0045551388 0.03505349 0.009522793
-0.0015105717 -0.05622569 -0.06753517 0.04154126 -0.005391991 0.004370387 -0.06401099 -0.045726385
0.038620166 0.010269549 0.018549182 0.02220139 -0.0047375686 -0.0018829107 0.032883134 -0.05262329
0.033989705 0.03545303 -0.030720808 -0.023636963 -0.0419689 -0.027679985 -0.05037273 0.022690544
0.006039108 -0.028663257 0.0267992 0.0014789551 0.04704093 -0.010432926 -0.010362856 -0.019532371
-0.057081435 -0.02321234 -0.0672589 0.0023484002 -0.030872067 -0.0064230664 0.009563895 -0.0369911
0.038244165 -0.030969612 -0.023319116 0.018626207 0.0057372786 -0.025079368 0.015476751 -0.028725063
-0.030388586 0.0037750565 0.016722644 -0.017092198 -0.008910491 -0.022433646 -0.057167333 0.019891035
-0.0362072 0.021237902 -0.014528578 0.0125274295 0.007104111 0.03783912 0.04067885 0.0033977833
0.013220488 -0.014948552 0.021728233 0.014081029 -0.0045004264 0.053101577 -0.05429508 -0.018520528
0.00296981 0.014256922 0.007446305 -0.05364103 -0.034792416 0.0032545193 0.041098922 -0.019066086
-0.05527547 0.028396947 -0.027647546 0.00050333067 -0.026301794 0.05375315 -0.0084290095 0.013245333
-0.018107316 0.011291749 0.018146506 0.03388341 -0.015586313 -0.045882426 -0.018351462 0.048969425
-0.052106407 0.054181118 -0.044351757 0.022276158 0.019881656 0.024403099 0.029231466 0.0058379215
-0.005124661 -0.045791455 0.012155865 0.047540396 0.005512979 -0.008274086 -0.040735923 -0.049008057
-0.017642334 0.024970047 -0.015416425 -0.036622003 0.049319692 0.016858548 -0.00642648 0.045189444
0.037312858 -0.022732643 0.031845838 0.017153675 -0.033573844 -0.005184882 -0.0076050363 -0.00015254844
0.02422284 0.006858201 -0.005755037 -0.06412171 0.030300379 0.014063536 -0.0010238686 0.044088453
0.007909413 -0.03382076 0.051197708 0.027438514 -0.045445617 0.042309083 -0.010044755 0.050750278
-0.04204265 -0.017781677 -0.0038183136 -0.056138474 -0.052647054 -0.021763423 0.008263327 0.006450632
-0.020163974 -0.022184359 -0.055397667 0.03732526 -0.028501226 -0.02210249 0.039581053 0.0036869494
-0.009494988 0.02571391 0.022451311 -0.0016937488 0.00875692 0.037260596 0.027052732 -0.061727818
-0.03509898 0.042400148 -0.025968762 0.0016476632 0.04556247 0.0061744596 -0.016999552 -0.025111819
0.011110034 -0.010335164 -0.012339488 -0.04244311 -0.0044161067 0.0019867711 -0.031762704 -0.0125034135
-0.040023815 -0.050574906 -0.055961512 0.046384912 0.047448117 -0.03128249 0.026014812 -0.04485737
0.00023610747 -0.039196003 0.038552687 -0.03284513 -0.04061837 -0.047240507 0.025413267 0.0076268446
0.011633951 0.0004689388 0.050117165 -0.0019040147 -0.048506476 0.032210067 -0.05262705 0.029466845
0.048919804 -0.06256113 0.00043869848 0.04399198 -0.041951023 0.008026861 -0.048467487 -0.035027906
0.0013174167 0.012677766 -0.023214608 0.0071604713 -0.0017631943 0.05338598 0.0028650213 -0.054257955
-0.019027349 0.0024498724 -0.052344535 -0.022117311 0.040784553 0.01984461 -0.055165228 0.03913803
0.025085768 0.046771776 0.035303563 -0.017111829 -0.06813129 0.034080584 -0.0006709606 0.014114563
-0.0015973483 -0.053830795 -0.008550323 -0.040904235 0.04220266 0.05167232 -0.04390106 0.03276043
00000000: 4cf9 493d bd3d 303d 12e9 593c 7756 39bd
00000010: 586b 9c3c 4643 953b 4094 0f3d 7d05 1c3c
00000020: 60fe c5ba e94c 66bd e14f 8abd 2b27 2a3d
00000030: 4daf b0bb 7735 8f3b 3218 83bd 974b 3bbd
00000040: 2e30 1e3d 9c41 283c 74f4 973c b0df b53c
00000050: 9b3d 9bbb 00cc f6ba 77b0 063d 858b 57bd
00000060: ca38 0b3d 3237 113d 34aa fbbc 4ea2 c1bc
00000070: 95e7 2bbd 23c1 e2bc a353 4ebd 85e1 b93c
00000080: b6e3 c53b 35cf eabc ff89 db3c 80d9 c13a
00000090: fdad 403d ddee 2abc f8c8 29bc 5a02 a0bc
000000a0: 39ce 69bd ce27 bebc 09bf 89bd 9ee7 193b
000000b0: 6be7 fcbc 9678 d2bb e2b1 1c3c fb83 17bd
000000c0: eaa5 1c3d fcb3 fdbc bb07 bfbc fd95 983c
000000d0: c8ff bb3b 3f73 cdbc 3392 7d3c d350 ebbc
000000e0: 7cf1 f8bc f066 773b edfd 883c f004 8cbc
000000f0: 4ffd 11bc c4c6 b7bc 4b28 6abd 86f2 a23c
00000100: 004e 14bd 1cfb ad3c 4609 6ebc d93f 4d3c
00000110: 9ac9 e83b 31fd 1a3d de9e 263d 58ad 5e3b
00000120: bf9a 583c c5ea 74bc 68ff b13c 1eb4 663c
00000130: 5078 93bb 0a81 593d 8564 5ebd 5db8 97bc
00000140: 25a1 423b dd95 693c 2200 f43b b2b6 5bbd
00000150: 7e82 0ebd c649 553b 5857 283d 7b30 9cbc
00000160: 8868 62bd b7a0 e83c 1b7d e2bc f3f1 033a
00000170: dc76 d7bc 432c 5c3d d419 0abc f402 593c
00000180: cb55 94bc 0701 393c fba7 943c 55c9 0a3d
00000190: bc5d 7fbc 36ef 3bbd ce55 96bc 2a94 483d
000001a0: 876d 55bd 05ed 5d3d 30aa 35bd 7d7c b63c
000001b0: dbde a23c 02e9 c73c d476 ef3c 094c bf3b
000001c0: c6ec a7bb d28f 3bbd 6529 473c b8b9 423d
000001d0: 38a6 b43b 0890 07bc b6da 26bd acbc 48bd
000001e0: a886 90bc fc8d cc3c 2c95 7cbc f400 16bd
000001f0: 7203 4a3d f01a 8a3c 3995 d2bb 9118 393d
00000200: 5ed5 183d cf39 babc c870 023d dd85 8c3c
00000210: ba84 09bd f1e5 a9bb ab33 f9bb 69f5 1fb9
00000220: fa6e c63c c3ba e03b c094 bcbb 3e52 83bd
00000230: 8038 f83c bf6a 663c 5433 86ba 1896 343d
00000240: 7c96 013c a387 0abd b0b4 513d bcc6 e03c
00000250: 2f25 3abd 4a4c 2d3d c292 24bc 86df 4f3d
00000260: ea34 2cbd e1aa 91bc ac3c 7abb 75f1 65bd
00000270: 70a4 57bd 3549 b2bc e862 073c d35f d33b
00000280: eb2e a5bc f9bb b5bc aae8 62bd 5fe2 183d
00000290: 677b e9bc 4810 b5bc be1f 223d bfa0 713b
000002a0: de90 1bbc faa5 d23c d0eb b73c c700 deba
000002b0: 2f79 0f3c 919e 183d b19d dd3c 4fd6 7cbd
000002c0: f3c3 0fbd c7ab 2d3d 71bc d4bc 67f6 d73a
000002d0: b69f 3a3d 1f53 ca3b a542 8bbc 4db7 cdbc
000002e0: dc06 363c d254 29bc 902b 4abc d4d8 2dbd
000002f0: fdb4 90bb 7d34 023b 9c19 02bd 1edb 4cbc
00000300: 03f0 23bd a227 4fbd e637 65bd 1bfe 3d3d
00000310: f558 423d 1122 00bd 041d d53c 5dbc 37bd
00000320: 9e93 7739 fd8b 20bd 6ce9 1d3d 9d88 06bd
00000330: 735f 26bd 437f 41bd 7c2f d03c 9cea f93b
00000340: 549c 3e3c e6db f539 a847 4d3d 2290 f9ba
00000350: baae 46bd b4ee 033d 768f 57bd 7464 f13c
00000360: 2260 483d 0d20 80bd 1d01 e639 ef30 343d
00000370: d6d4 2bbd 1883 033c d885 46bd 6c79 0fbd
00000380: 2bad ac3a 68b6 4f3c 902c bebc 63a2 ea3b
00000390: fc1a e7ba 42ab 5a3d 15c3 3b3b 973d 5ebd
000003a0: 3edf 9bbc 0a8e 203b 3967 56bd 5d2f b5bc
000003b0: b40d 273d 2a91 a23c eff4 61bd 334f 203d
000003c0: ab80 cd3c c393 3f3d 789a 103d 1b2e 8cbc
000003d0: 6b88 8bbd 1598 0b3d 67e3 2fba c540 673c
000003e0: 1d5e d1ba ae7d 5cbd a716 0cbc 338b 27bd
000003f0: b2dc 2c3d 5ba6 533d 99d1 33bd cd2f 063d

lays.1.bias f4 [256]
-0.027324703 0.036506213 0.07766976 -0.01989836 -0.053374432 0.04031092 0.014262506 0.044451654
-0.06461471 -0.04798323 0.05274005 -0.03488797 0.14206457 0.013523283 0.042566545 0.045427576
0.010155428 3.9801627e-05 0.04870867 -0.0034298755 0.045147818 0.012293149 0.04597758 0.07986095
-0.05247639 -0.02184254 -0.005690854 -0.017480709 0.029499814 -0.059588306 -0.04748931 -0.08624048
0.018918002 -0.04040313 0.006022309 0.014532963 0.04158759 0.04258325 -0.031602565 -0.0048058415
0.089992255 -0.06911665 -0.042624455 0.048727717 -0.048459657 -0.017044425 -0.020929366 -0.06750003
0.030566648 -0.0011452883 -0.01365053 0.030030105 0.13532017 0.0011713313 0.07182465 0.01875797
0.08051926 -0.006365177 -0.04676458 -0.035512883 0.0447743 -0.030293716 -0.064005665 -0.065637894
0.08445434 0.082062975 -0.027583469 -0.045411304 0.081882216 0.08048682 0.029145168 -0.013673874
0.01998959 0.04294093 0.020368986 0.002480705 -0.017544167 -0.023073211 -0.006599318 -0.0375293
0.06571031 0.013365099 -0.04753648 -0.0035670148 0.054346234 -0.03364205 -0.03998481 0.055042963
-0.01031433 -0.03744646 -0.05935258 0.0629597 -0.044595383 -0.027022436 0.030211564 -0.053377695
0.037585378 0.036428936 0.07457199 -0.044534057 0.076060586 0.13544044 -0.057585668 0.01547481
-0.05286553 -0.018957555 0.033163276 -0.030504623 0.02052631 -0.019485531 0.022088079 0.098521516
-0.0059554502 -0.019247035 0.035116747 0.017478911 -0.05217715 0.047908694 0.10636412 0.047999766
-0.02495402 -0.026145281 -0.008783062 -0.025423067 0.023923604 -0.015361568 -0.028353177 -0.047703747
0.015239782 0.08901698 -0.037693776 0.018113729 -0.016385762 -0.022208499 0.021324955 0.030834584
0.018706402 -0.0046438477 -0.029020123 0.0075254925 -0.01449452 0.019581812 -0.01586989 0.07927403
-0.0620414 -0.050219197 0.018065521 0.023759166 0.02134227 -0.00018480716 -0.056521364 -0.049120814
-0.025665764 -0.031211345 0.029891757 -0.041496173 -0.08011379 0.02215717 0.017202575 0.006094762
-0.080028296 -0.0052027553 -0.045216143 0.12790869 0.1492318 0.09730475 0.05398157 -0.030933004
0.07092405 -0.00790836 -0.00030917898 0.014362324 -0.056222677 -0.037502743 0.115457095 0.021933753
0.018217752 0.014943661 -0.007821563 -0.0075319437 0.04264292 0.009644738 -0.022419423 0.023269445
-0.072313346 0.028207216 0.053599205 -0.040494256 0.03584091 0.059552856 0.09627759 -0.018535635
0.024229115 0.007932374 -0.010679183 0.054323755 0.04772617 0.012316698 -0.046758454 0.039123148
0.0450106 -0.019660022 -0.022692736 -0.022754455 0.05047539 0.017967 0.019123849 -0.06610941
0.03782296 -0.014707105 0.085873775 0.05035395 -0.03755857 -0.050347496 0.025819493 0.036836185
-0.04266629 -0.06718284 0.061079875 -0.065608695 0.013580969 -0.044790093 -0.043040384 -0.045726977
0.10033526 0.0028523891 0.034565546 -0.013074589 -0.04960049 0.06754099 0.040381845 0.010618053
0.01321575 0.0139154345 0.062276125 0.0014548516 -0.04593115 -0.01028328 0.01587515 0.05316052
-0.03660907 0.01735449 0.06805861 0.07768011 -0.026930572 -0.0008001947 -0.03433048 -0.005685088
0.092109494 -0.048510388 -0.03235526 0.052902102 0.015374051 0.087481044 -0.030395994 0.07833406
00000000: 0ed8 dfbc 8a87 153d 5311 9f3d e301 a3bc
00000010: 269f 5abd 101d 253d 49ad 693c f012 363d
00000020: b854 84bd 108a 44bd f305 583d b0e6 0ebd
00000030: 6079 113e c390 5d3c 425a 2e3d 4412 3a3d
00000040: f462 263c acf0 2638 be82 473d c3c7 60bb
00000050: ebec 383d 3469 493c fd52 3c3d 238e a33d
00000060: 7cf1 56bd 20ef b2bc 587a babb b433 8fbc
00000070: 98a9 f13c de12 74bd 2784 42bd d99e b0bd
00000080: edf9 9a3c c17d 25bd ca56 c53b aa1b 6e3c
00000090: c057 2a3d c66b 2e3d b171 01bd 527a 9dbb
000000a0: dc4d b83d 088d 8dbd fb96 2ebd b796 473d
000000b0: a27d 46bd c0a0 8bbc 1074 abbc 753d 8abd
000000c0: e866 fa3c 801d 96ba 79a6 5fbc b201 f63c
000000d0: 5f91 0a3e 5b87 993a cd18 933d 50aa 993c
000000e0: 48e7 a43d fa92 d0bb 378c 3fbd f575 11bd
000000f0: 4265 373d 872a f8bc 6715 83bd 296d 86bd
00000100: 66f6 ac3d a210 a83d baf6 e1bc 3401 3abd
00000110: ddb1 a73d 46d6 a43d d9c1 ee3c 6208 60bc
00000120: 35c1 a33c d4e2 2f3d dcdc a63c 5393 223b
00000130: c9b8 8fbc 0804 bdbc 173f d8bb 53b8 19bd
00000140: 2193 863d 4af9 5a3c 9db5 42bd 94c4 69bb
00000150: 289a 5e3d 3fcc 09bd 1dc7 23bd bb74 613d
00000160: 70fd 28bc 7661 19bd b11b 73bd 04f1 803d
00000170: a6a9 36bd 285e ddbc 3e7e f73c 92a2 5abd
00000180: 20f3 193d 8236 153d 33b9 983d 5869 36bd
00000190: a7c5 9b3d e6b0 0a3e f3de 6bbd 0f8a 7d3c
000001a0: 8789 58bd e04c 9bbc 37d6 073d d5e4 f9bc
000001b0: cb26 a83c 1fa0 9fbc 0ff2 b43c a6c5 c93d
000001c0: f025 c3bb f5ab 9dbc 94d6 0f3d ef2f 8f3c
000001d0: b5b7 55bd e83b 443d 6fd5 d93d 679b 443d
000001e0: 5f6c ccbc a12e d6bc d5e6 0fbc 0944 d0bc
000001f0: 6ffb c33c 16af 7bbc ec44 e8bc 0165 43bd
00000200: 47b0 793c 894e b63d ca64 1abd 3e63 943c
00000210: 6f3b 86bc 99ee b5bc acb1 ae3c cf98 fc3c
00000220: 2b3e 993c 6b2b 98bb 9cbb edbc 6898 f63b
00000230: 6c7a 6dbc 096a a03c 9201 82bc 6c5a a23d
00000240: 1f1f 7ebd a5b2 4dbd 25fe 933c 95a2 c23c
00000250: fcd5 ae3c cbc8 41b9 f282 67bd e832 49bd
00000260: 0241 d2bc efae ffbc 8fdf f43c e4f7 29bd
00000270: b312 a4bd f482 b53c 6aec 8c3c 92b6 c73b
00000280: e0e5 a3bd e07b aabb 9034 39bd 7ffa 023e
00000290: 39d0 183e b647 c73d c71b 5d3d 3667 fdbc
000002a0: a140 913d 1192 01bc 4d19 a2b9 f44f 6b3c
000002b0: c049 66bd 7a9c 19bd c574 ec3d 6aae b33c
000002c0: 653d 953c 42d6 743c 0326 00bc 86ce f6bb
000002d0: 58aa 2e3d f704 1e3c f0a8 b7bc 909f be3c
000002e0: 0519 94bd d212 e73c d78a 5b3d 4edd 25bd
000002f0: ebcd 123d b2ed 733d 2f2d c53d 0bd8 97bc
00000300: 237c c63c caf6 013c bdf7 2ebc 9682 5e3d
00000310: 847c 433d facb 493c cb85 3fbd 983f 203d
00000320: 095d 383d 0e0e a1bc 1ee6 b9bc 8d67 babc
00000330: 48bf 4e3d 882f 933c 9ea9 9c3c 5f64 87bd
00000340: 40ec 1a3d 12f6 70bc 97de af3d f23f 4e3d
00000350: 04d7 19bd 2d39 4ebd 6783 d33c 8ae1 163d
00000360: d9c2 2ebd 2897 89bd e42e 7a3d da5d 86bd
00000370: b682 5e3c d175 37bd 1d4b 30bd 364c 3bbd
00000380: 937c cd3d 26ef 3a3b 9a94 0d3d cd36 56bc
00000390: e229 4bbd ee52 8a3d 6f67 253d 58f7 2d3c
000003a0: e086 583c 90fd 633c 4015 7f3d b8b0 be3a
000003b0: 4d22 3cbd 347b 28bc 9a0c 823c d8be 593d
000003c0: 64f3 15bd 012b 8e3c 5062 8b3d c016 9f3d
000003d0: 819d dcbc 28c4 51ba 1e9e 0cbd fa49 babb
000003e0: e7a3 bc3d d4b2 46bd f386 04bd e0af 583d
000003f0: 72e3 7b3c 4329 b33d 0501 f9bc 9c6d a03d

lays.2.weight f4 [2, 256]
-0.019285062 0.02155895 -0.0283075 -0.04667462 0.027531087 0.00032048704 -0.0026777862 -0.001718656
-5.09552e-06 -0.0007628215 -0.061267518 0.0005383638 -0.052373663 0.010811077 -0.032994583 -0.050768074
-0.026613612 0.04463436 -0.04296808 -0.011914398 -0.030317387 5.769628e-06 0.12126056 -0.00091393373
-1.0729871e-06 -0.04055389 0.036983028 0.031936076 -0.039201852 -0.01514373 0.00043145416 -0.05684971
0.0020507607 0.01397708 0.05230425 -0.0003446405 -0.050043307 0.0038805306 0.032472976 0.01528048
-0.03992572 -0.0034638206 0.0041554007 0.0015576308 0.030815814 -2.8922186e-06 0.012509902 0.037512194
-0.041871905 -0.03717208 0.0031274473 -0.037510008 -0.06378695 -0.0017075378 -0.02833851 1.4571815e-05
-0.0004875248 -0.04248207 0.005920089 -0.0013550321 -0.016518304 0.0013617185 -0.004084442 0.0061020046
0.07945055 -0.048511814 -0.0052993167 0.004468128 0.0054249163 -0.049665965 0.017497728 0.030485446
4.3808104e-05 -0.034161787 -0.034709107 0.0009434667 -0.013979323 -0.00020592593 0.00013465462 -0.0072341105
-0.0007605735 0.06691716 -0.018542493 0.014706652 0.000114007446 0.037711784 -0.037318267 0.030095894
-0.004536808 0.04671376 -0.03096292 0.0007092586 -0.04192118 -0.0016578063 -0.04007536 -0.00066621415
0.04966022 0.0012297679 -0.00097544 0.00022181547 0.022954278 -0.11293146 -0.02264359 -0.025616396
-0.014037816 -0.036230434 0.0018786977 -0.016980287 0.026382556 0.007261824 0.035085183 -0.047930475
-0.00070132315 0.044551123 -0.013812605 -0.0008227183 0.00083913805 -0.022584245 0.067914404 -0.008438633
-0.013503252 0.00015085153 -0.018058665 -0.0019720139 -0.056508776 -0.004041065 -0.014970355 -0.04553091
-0.0012679762 0.048594113 -0.015595537 0.004614751 -0.0021183006 -0.010784422 0.030603938 0.001982905
0.0020918176 -0.016107492 0.0005101903 -0.05132166 0.00068318204 -0.025660433 -0.02711962 -0.060319558
-0.048388526 -0.041904945 -6.238248e-05 0.00070361444 0.023106612 0.0070170406 0.0046522506 0.005121338
1.0763373e-05 0.013603224 0.0029273198 -0.018607743 0.30650693 0.003971257 0.030703649 0.0019760022
-0.08353661 0.014944211 0.001909287 -0.052095436 -0.09377218 0.086645916 -0.0017220348 -0.05230803
-0.000892545 -0.006091446 0.0013360898 -0.007214287 0.044378564 -0.0024855204 -0.054251023 0.42393178
-0.0010091619 -0.0011962986 -0.00028015114 0.021120246 -0.002574143 -0.004286392 -0.0174494 0.05632068
0.03512695 0.00067199016 -0.012456278 -0.028197134 0.10199848 -0.0004259668 -0.039041016 -0.022943323
-0.038223773 -0.0067688175 0.013725656 -0.034194887 -0.049232703 0.050546587 0.00029927184 -0.0016920338
-0.0436867 -0.035600048 -0.004852098 0.0014285217 0.07197421 0.0014540626 -0.00011177029 -0.012507726
-0.054984003 0.08622937 -0.017442746 -0.026152106 -0.014326738 0.00032526717 -0.004494352 -0.010655022
0.015922451 0.00026030838 0.036384143 -0.015042484 -0.031736657 0.034298874 -0.016819837 0.03431658
-0.024261573 -0.0013132686 -0.00060351583 -0.00095290283 0.00015878137 -0.0039694738 0.033778157 0.016979204
0.0001808801 -0.05188699 0.083301 0.032928105 -0.02464364 -0.010163403 -0.013308007 0.00066616345
0.04407481 0.02583118 0.0011581619 -0.0644362 0.030915532 -0.0020941787 0.043202497 0.034337766
0.076594554 0.050983384 3.357268e-05 -0.0018502639 -0.0006740015 -0.014675111 -0.0002089945 0.056647114
00000000: b5fb 9dbc 659c b03c 21e5 e7bc e32d 3fbd
00000010: e088 e13c 0b07 a839 cc7d 2fbb 8744 e1ba
00000020: 2ffa aab6 16f8 47ba a6f3 7abd fc20 0d3a
00000030: c485 56bd f220 313c 5425 07bd 2ff2 4fbd
00000040: ca04 dabc 85d2 363d 4cff 2fbd 9b34 43bc
00000050: 2b5c f8bc ba98 c136 7557 f83d 0e95 6fba
00000060: 8e03 90b5 d61b 26bd 847b 173d 67cf 023d
00000070: 1f92 20bd 681d 78bc cc34 e239 3edb 68bd
00000080: 0e66 063b 1f00 653c fb3c 563d ddb0 b4b9
00000090: 36fa 4cbd 8050 7e3b 6202 053d fa5a 7a3c
000000a0: 2789 23bd 4401 63bb 072a 883b 6b29 cc3a
000000b0: 7271 fc3c f017 42b6 55f6 4c3c 63a6 193d
000000c0: e081 2bbd c041 18bd dcf5 4c3b 18a4 19bd
000000d0: bca2 82bd 76cf dfba 2a26 e8bc 7879 7437
000000e0: 799a ffb9 ae01 2ebd 4efd c13b 559b b1ba
000000f0: 6551 87bc b17b b23a c8d6 85bb 53f3 c73b
00000100: f8b6 a23d 53b4 46bd e4a5 adbb 6069 923b
00000110: 7fc3 b13b 8a6e 4bbd 6557 8f3c 9dbc f93c
00000120: 98be 3738 3bed 0bbd 232b 0ebd fa52 773a
00000130: 8809 65bc d2ed 57b9 1332 0d39 1e0c edbb
00000140: 3961 47ba dd0b 893d 6de6 97bc 2bf4 703c
00000150: 4817 ef38 ac77 1a3d 0adb 18bd aa8b f63c
00000160: 81a9 94bb ed56 3f3d f3a5 fdbc 8aed 393a
00000170: 8bb5 2bbd c04a d9ba 1026 24bd e0a4 2eba
00000180: 8468 4b3d 2a30 a13a acb4 7fba 2397 6839
00000190: 9c0a bc3c 9c48 e7bd 0d7f b9bc 7ad9 d1bc
000001a0: defe 65bc 5d66 14bd a23e f63a 3e1a 8bbc
000001b0: 3b20 d83c 98f4 ed3b 7bb5 0f3d bf52 44bd
000001c0: 00d9 37ba 3d7b 363d 444e 62bc b1ab 57ba
000001d0: 9af9 5b3a 9802 b9bc b516 8b3d 3142 0abc
000001e0: be3c 5dbc e62d 1e39 c4ef 93bc e73c 01bb
000001f0: bf75 67bd e96a 84bb 3846 75bc 9f7e 3abd
00000200: 3932 a6ba 9f0a 473d 6c84 7fbc 5637 973b
00000210: 30d3 0abb 25b1 30bc 1cb5 fa3c a0f3 013b
00000220: e016 093b dcf3 83bc 4bbe 053a a936 52bd
00000230: 9217 333a d435 d2bc f729 debc a411 77bd
00000240: 0c33 46bd 85a4 2bbd 57d3 82b8 c472 383a
00000250: 144a bd3c 34ef e53b e871 983b e6d0 a73b
00000260: 5694 3437 0fe0 5e3c 47d8 3f3b 446f 98bc
00000270: 7aee 9c3e 5121 823b 3886 fb3c d17f 013b
00000280: 3e15 abbd 90d8 743c 0a41 fa3a 0662 55bd
00000290: a10b c0bd 6a73 b13d e6b5 e1ba f240 56bd
000002a0: aef9 69ba c19a c7bb bc1f af3a d365 ecbb
000002b0: 4cc6 353d 1de4 22bb 5236 5ebd 960d d93e
000002c0: db45 84ba 1fcd 9cba 40e1 92b9 5e04 ad3c
000002d0: f4b2 28bb dd74 8cbb 0bf2 8ebc 83b0 663d
000002e0: 47e1 0f3d 7f28 303a 6b15 4cbc adfd e6bc
000002f0: 94e4 d03d 4c54 dfb9 79e9 1fbd a3f3 bbbc
00000300: 8890 1cbd f5cc ddbb 93e1 603c f00f 0cbd
00000310: 3ba8 49bd f009 4f3d 96e7 9c39 3cc7 ddba
00000320: d3f0 32bd 5bd1 11bd 59fe 9ebb 3c3d bb3a
00000330: 3767 933d 3f96 be3a 3866 eab8 35ed 4cbc
00000340: e836 61bd 0699 b03d 17e4 8ebc f13c d6bc
00000350: b2ba 6abc 9f88 aa39 5b45 93bb 6792 2ebc
00000360: cd6f 823c 007a 8839 8a07 153d c074 76bc
00000370: 4cfe 01bd fa7c 0c3d c1c9 89bc 8b8f 0c3d
00000380: 35c0 c6bc fb21 acba 4335 1eba 3acc 79ba
00000390: 8d7e 2639 5c12 82bb f75a 0a3d f917 8b3c
000003a0: a2aa 3d39 7487 54bd b799 aa3d 9fdf 063d
000003b0: 75e1 c9bc 6784 26bc d409 5abc 79a1 2e3a
000003c0: ca87 343d e99b d33c 77cd 973a 20f7 83bd
000003d0: 9242 fd3c 7d3e 09bb 1af5 303d c2a5 0c3d
000003e0: 9bdd 9c3d f4d3 503d 64d0 0c38 8e84 f2ba
000003f0: 7aaf 30ba e06f 70bc 8925 5bb9 ce06 683d

lays.2.bias f4 [2]
-0.087328054 0.056615736
00000000: 0dd9 b2bd e7e5 673d

l1.weight f4 [256, 2]
-0.0009104273 0.7486324 -0.18647908 0.17517547 -0.002104938 0.19332962 -0.2926476 -0.10233476
-0.5598044 2.8298062e-05 0.107629225 -0.62022024 -0.56963336 0.00019447407 0.5760706 0.4643182
-1.0550672 0.00086920743 0.0025885403 -0.4868227 0.27903518 -0.42012176 0.42418167 0.0003189721
0.11205399 -0.582951 -0.43970698 -0.65285176 0.22602503 -0.0013312594 0.0007562473 -0.4908943
0.588673 0.5166931 0.11033111 0.296759 -0.36098862 -0.5239098 -0.6725052 0.6308013
0.57293206 -0.00039242685 -3.6851954e-05 -0.27241063 -0.24945374 0.41271117 0.59102654 -0.0002399739
-0.5301011 0.2392434 -0.0013871801 0.2134402 0.29687962 -0.18224216 0.34526694 -0.15186405
0.0006664945 -0.0002396496 0.34541664 -0.00028628026 -0.15419188 -0.52302164 -0.406265 0.00022495704
0.06676365 0.71060807 -0.00023131861 0.59980136 -0.35860226 0.4114002 0.03373041 -0.11353998
-0.39216664 -0.44160712 0.30023783 0.26020178 -0.2732815 0.26332727 -0.4596629 -0.6065637
0.0025702417 -0.27513766 -0.6960968 0.6188592 0.12087503 -0.30084845 0.3104303 0.64750606
0.3090586 0.5445489 -0.9218348 6.15085e-05 0.1922761 -8.1609265e-05 0.53016514 0.00026110458
-0.001985403 0.6471343 0.37364152 0.0008037577 -4.9318274e-05 -6.1519706e-05 0.45625418 -0.000105986765
-0.62066996 -0.4636086 -0.5267437 0.6121289 -0.0005347733 0.5100888 0.34977323 0.39882913
-0.74053234 0.0005058511 0.011854819 -0.018961778 -0.000103380444 0.5919028 0.0023102246 -0.6298464
-2.1200192e-05 -0.13092269 -0.00031886692 0.7501076 0.0013950514 -0.00069740386 -0.553607 0.5878735
0.63073725 -0.00043994765 0.5730431 -0.00033289025 -0.041863102 0.5094241 0.036555994 -1.8000007e-06
0.3641806 0.49153775 0.52541226 0.3183586 -0.13855684 0.81526774 -0.7645515 0.00012959453
0.49960658 0.39805934 0.74313134 -0.25736225 -0.16109788 0.60437566 0.60301495 -0.45501804
0.07656332 0.1836287 -0.466445 0.23822841 0.0005380495 -0.4056962 -0.56332284 -0.24546301
0.0009635158 -0.29399025 -0.4128591 -0.39068294 -0.0020734675 0.27974132 -0.2895884 -0.0009093025
-0.00010535858 0.47311336 0.482456 -0.00013337762 -0.30317238 -0.324612 0.0010746794 -0.34462503
-0.45228356 -0.15310332 -1.3891985e-05 8.493976e-05 -0.0013101441 0.62899554 -0.5217028 -0.3569654
-0.9767809 0.0011025402 -0.38741386 0.0016987663 3.642463e-05 -1.7854574e-05 -0.098084256 0.6618242
-0.847332 0.00043378814 -0.0013111776 0.6663762 -0.8804932 0.00055675174 0.2983841 0.53132534
0.0016195966 -0.510506 -0.6053699 -0.65444726 0.0020941666 -0.00067542656 -0.6358527 0.3301063
0.0015787276 -0.2735688 0.48540065 0.014521215 -0.5317062 -0.3977165 0.44202337 0.00081735314
0.5850582 0.00081831403 -0.2335049 -0.5925252 -0.40191087 -0.020370277 0.4566327 -0.0001534438
-0.55800676 -0.16273668 -0.6303207 0.00019712304 -0.3486536 -0.0012246723 -0.2746241 -0.00047249082
0.12666154 -0.25727725 0.0009784347 -0.65750676 -0.58324695 -0.49747252 -0.16317542 0.17400718
0.4082183 0.6104126 -0.12341399 -0.53199965 -0.00025757146 0.4445106 -0.0025885822 0.026495637
0.06878611 -0.5844889 0.062708795 0.34789005 0.4382304 -0.41480377 0.18575348 -0.36774704
00000000: bea9 6eba 5fa6 3f3f 5ff4 3ebe 3361 333e
00000010: 00f3 09bb 33f8 453e e8d5 95be e394 d1bd
00000020: 574f 0fbf a061 ed37 b66c dc3d c1c6 1ebf
00000030: 7ed3 11bf bceb 4b39 5d79 133f 1dbb ed3e
00000040: 710c 87bf 86db 633a 80a4 293b d340 f9be
00000050: b3dd 8e3e 331a d7be 572e d93e b63b a739
00000060: 907c e53d 473c 15bf 4621 e1be 4b21 27bf
00000070: 1b73 673e a77d aeba e63e 463a 7f56 fbbe
00000080: 46b3 163f 0046 043f 47f5 e13d ccf0 973e
00000090: 80d3 b8be f41e 06bf 4d29 2cbf 327c 213f
000000a0: adab 123f a4be cdb9 7c91 1ab8 6879 8bbe
000000b0: cd70 7fbe e14e d33e 844d 173f 81a1 7bb9
000000c0: b5b4 07bf 39fc 743e 0ad2 b5ba 1190 5a3e
000000d0: 9b00 983e b09d 3abe d4c6 b03e 4082 1bbe
000000e0: b0b7 2e3a 734a 7bb9 73da b03e e317 96b9
000000f0: 7ae4 1dbe bfe4 05bf f701 d0be 72e2 6b39
00000100: 61bb 883d 69ea 353f 1e8e 72b9 958c 193f
00000110: b79a b7be 0ca3 d23e e628 0a3d a687 e8bd
00000120: 11ca c8be 541a e2be c6b8 993e 2b39 853e
00000130: 8eeb 8bbe d5d2 863e f058 ebbe c247 1bbf
00000140: 8071 283b d8de 8cbe 6633 32bf 8e6d 1e3f
00000150: 548d f73d cf08 9abe b8f0 9e3e f5c2 253f
00000160: ee3c 9e3e 8f67 0b3f 5efd 6bbf 20fe 8038
00000170: 07e4 443e a425 abb8 e7b8 073f dde4 8839
00000180: 891d 02bb 98aa 253f f14d bf3e 44b3 523a
00000190: 18db 4eb8 2404 81b8 269a e93e 3645 deb8
000001a0: 3ae4 1ebf 1b5e edbe add8 06bf 7bb4 1c3f
000001b0: 0730 0cba 2e95 023f 7a15 b33e 5533 cc3e
000001c0: 8793 3dbf 189b 043a b73a 423c bb55 9bbc
000001d0: f4cd d8b8 f186 173f 2367 173b 9d3d 21bf
000001e0: 11d7 b1b7 9910 06be 982d a7b9 0d07 403f
000001f0: 28da b63a fbd1 36ba 30b9 0dbf e17e 163f
00000200: ff77 213f c6a8 e6b9 f4b2 123f c687 aeb9
00000210: a578 2bbd 9e69 023f bdbb 153d 8e97 f1b5
00000220: e175 ba3e d6aa fb3e 6b81 063f e6ff a23e
00000230: d8e1 0dbe 63b5 503f a6b9 43bf c4e3 0739
00000240: 6fcc ff3e 6fce cb3e db3d 3e3f fcc4 83be
00000250: d8f6 24be 5db8 1a3f 305f 1a3f 20f8 e8be
00000260: 3bcd 9c3d 2909 3c3e e1d1 eebe 26f2 733e
00000270: e40b 0d3a 6ab7 cfbe ed35 10bf a85a 7bbe
00000280: 7394 7c3a e485 96be 4562 d3be 9807 c8be
00000290: 03e3 07bb 413a 8f3e ee44 94be 425e 6eba
000002a0: f5f3 dcb8 ea3b f23e 7904 f73e 48db 0bb9
000002b0: 6939 9bbe 8b33 a6be 42dc 8c3a b172 b0be
000002c0: b691 e7be 1ec7 1cbe 9f11 69b7 b021 b238
000002d0: 24b9 abba da05 213f 518e 05bf 2bc4 b6be
000002e0: 500e 7abf 1c83 903a 1c5b c6be 23a9 de3a
000002f0: a6c6 1838 68c6 95b7 66e0 c8bd 506d 293f
00000300: c0ea 58bf 0f6e e339 d2db abba a197 2a3f
00000310: 0168 61bf faf2 113a cdc5 983e f004 083f
00000320: a548 d43a 85b0 02bf 86f9 1abf db89 27bf
00000330: 493e 093b 1c0f 31ba 3ec7 22bf b103 a93e
00000340: 4fed ce3a 3611 8cbe 6f86 f83e 64ea 6d3c
00000350: e61d 08bf 7fa1 cbbe e350 e23e a443 563a
00000360: 60c6 153f 2084 563a e91b 6fbe bbaf 17bf
00000370: 43c7 cdbe 91df a6bc c3cb e93e c2e5 20b9
00000380: 88d9 0ebf 72a4 26be b35c 21bf d0b2 4e39
00000390: ba82 b2be 2f85 a0ba 889b 8cbe a5b8 f7b9
000003a0: 90b3 013e d8b9 83be d23e 803a 5d52 28bf
000003b0: ac4f 15bf b8b4 febe 7517 27be f02e 323e
000003c0: fd01 d13e 0044 1c3f 79c0 fcbd 2131 08bf
000003d0: a80a 87b9 e596 e33e 34a5 29bb 610d d93c
000003e0: bbdf 8c3d 11a1 15bf 786d 803d a51e b23e
000003f0: bc5f e03e 2961 d4be 2936 3e3e 5749 bcbe

l1.bias f4 [256]
0.25577676 0.7031677 0.48614126 -0.45646888 -0.043030836 0.13434704 -0.04455051 -0.5075151
-0.08100889 0.43480602 -0.109262094 -0.43622765 0.46480438 0.58232754 0.21156663 0.51767755
-0.25227502 -0.09121512 0.47741127 -0.60479516 -0.5859684 -0.41018426 0.62696475 -0.6062572
-0.057776798 0.09799694 -0.14763846 0.5546432 0.5749509 0.2846805 0.19087729 -0.03105927
0.21174666 0.28858498 -0.39565235 -0.5596013 0.46210727 -0.3625024 -0.38305148 0.5836563
0.57068413 -0.15160999 -0.24512361 0.2129532 -0.049727373 -0.07201675 0.4927529 -0.0025348547
0.2953674 -0.06710091 0.7398747 -0.45741794 -0.6882106 -0.13433701 0.6431347 0.32510132
0.37290397 -0.5309994 0.64326334 0.69519675 -0.1634497 0.5014979 0.47229338 -0.35960963
-0.64671636 -0.24692126 -0.52601665 -0.68997574 -0.5640034 -0.6479063 0.6083541 -0.060927454
-0.6865743 -0.6587777 -0.61418647 -0.50178605 -0.2567246 -0.7105432 0.36306596 -0.6003146
0.27544796 0.34409893 0.23836249 0.669437 -0.258154 0.6646823 -0.50135446 0.3089113
-0.56686956 0.3158826 0.3064734 -0.6389664 -0.04652634 0.04316513 0.83842355 -0.6817834
-0.065184854 0.27495906 -0.042966872 0.37064537 0.46927583 0.04259163 0.6370642 0.26424375
0.2548763 0.1557463 -0.6534337 -0.43522856 -0.46804273 -0.06930105 0.6644667 -0.072378255
-0.51855624 0.026380872 0.7157553 0.66944134 -0.033122502 0.5581147 0.639497 0.07093572
-0.056306444 -0.118388906 -0.014188942 0.3991755 0.47985095 -0.33055446 -0.30016512 -0.052853327
-0.49133223 0.15966922 0.6175982 -0.07501354 0.4559121 -0.055959463 0.4249229 -0.17965052
-0.6354725 0.3957553 -0.615266 0.20639096 0.33648527 0.36476174 -0.014447645 -0.31372455
-0.0131628355 -0.20428687 -0.50478655 -0.71837044 0.6009357 0.3747521 0.45232758 0.09137414
-0.55423945 -0.009828181 -0.051892508 0.5167083 -0.33194953 0.6351298 0.20428059 0.38470638
-0.08815916 -0.5051396 0.7265784 -0.44699827 0.2353041 -0.06859062 -0.16540734 0.19183378
-0.66498977 -0.21216936 0.321419 -0.06013649 -0.6399015 0.3155471 -0.27303627 0.58228517
-0.070177466 0.36021477 0.34951565 -0.106114864 -0.71515673 0.032304022 0.54655236 0.24034262
0.51847136 -0.33528012 -0.4362899 0.6856563 0.4841025 -0.018707575 -0.4074558 0.13911806
-0.08891314 -0.0065106223 0.32651514 0.22681813 0.23157114 -0.4230197 0.2407642 0.114118695
0.4173515 -0.20166373 0.41009057 0.32264656 0.651964 -0.67881495 -0.36820883 0.5282467
0.5504702 0.66133785 0.53730875 0.098890685 0.54338676 0.012870577 -0.43774164 -0.6629336
-0.30297026 0.7102757 -0.5653172 0.30216008 0.014829903 0.13589928 0.0713157 -0.2764975
0.610035 -0.43751833 0.29966155 -0.41475382 0.26058534 -0.20561175 0.67735654 0.6025479
0.3248197 0.41552582 -0.51062006 -0.6787109 -0.2694694 -0.17102379 0.7231809 -0.18231432
0.31828663 -0.3992211 0.4890844 -0.20388405 -0.30154198 0.49035472 -0.5419158 0.54476523
0.4836674 -0.6576146 -0.06380784 -0.43708566 0.710661 0.7169304 0.6354125 0.27801043
00000000: 2cf5 823e cc02 343f 82e7 f83e 4ab6 e9be
00000010: 1a41 30bd 4592 093e 987a 36bd 82ec 01bf
00000020: fde7 a5bd e59e de3e cec4 dfbd 3b59 dfbe
00000030: d7fa ed3e 6b13 153f eca4 583e 8486 043f
00000040: 312a 81be fece babd 406f f43e dbd3 1abf
00000050: 0602 16bf ac03 d2be c380 203f ac33 1bbf
00000060: 5da7 6cbd 9fb2 c83d 892e 17be 19fd 0d3f
00000070: fb2f 133f a4c1 913e 5675 433e 0370 febc
00000080: 1ed4 583e 69c1 933e f292 cabe 0842 0fbf
00000090: 5399 ec3e ea99 b9be 531f c4be 806a 153f
000000a0: 5b18 123f a63f 1bbe af01 7bbe 6710 5a3e
000000b0: eeae 4bbd 857d 93bd 1c4a fc3e ce1f 26bb
000000c0: 653a 973e 346c 89bd 6e68 3d3f af32 eabe
000000d0: 922e 30bf a48f 09be 7aa4 243f ae73 a63e
000000e0: 45ed be3e 94ef 07bf e8ac 243f 6af8 313f
000000f0: 5c5f 27be 2b62 003f 70d0 f13e c11e b8be
00000100: 348f 25bf edd8 7cbe 07a9 06bf 40a2 30bf
00000110: 8762 10bf 30dd 25bf 18bd 1b3f 118f 79bd
00000120: 55c3 2fbf a8a5 28bf 533b 1dbf 0d75 00bf
00000130: 6871 83be 29e6 35bf c8e3 b93e 38ae 19bf
00000140: 8407 8d3e bc2d b03e 4c15 743e 3960 2b3f
00000150: c32c 84be 9f28 2a3f c458 00bf 9f29 9e3e
00000160: 5d1e 11bf 5dbb a13e 15ea 9c3e 4d93 23bf
00000170: 6792 3ebd ebcd 303d eda2 563f 5b89 2ebf
00000180: a37f 85bd 6fc7 8c3e 08fe 2fbd 3bc5 bd3e
00000190: ec44 f03e 9074 2e3d a416 233f f54a 873e
000001a0: 257f 823e f57b 1f3e 6e47 27bf 47d6 debe
000001b0: 4ca3 efbe b5ed 8dbd 7d1a 2a3f 0d3b 94bd
000001c0: 1ac0 04bf b31c d83c bd3b 373f 8260 2b3f
000001d0: 76ab 07bd 9be0 0e3f 13b6 233f bf46 913d
000001e0: 96a1 66bd e275 f2bd bc78 68bc bb60 cc3e
000001f0: 06af f53e 6f3e a9be 3eaf 99be bb7c 58bd
00000200: e68f fbbe 5480 233e ea1a 1e3f b3a0 99bd
00000210: 506d e93e c035 65bd 7f8f d93e 4ef6 37be
00000220: 53ae 22bf 70a0 ca3e 1382 1dbf 2758 533e
00000230: cc47 ac3e 0dc2 ba3e d1b5 6cbc 81a0 a0be
00000240: efa8 57bc 9430 51be b139 01bf 20e7 37bf
00000250: ecd6 193f 82df bf3e 7b97 e73e 5d22 bb3d
00000260: a3e2 0dbf 6106 21bc 3d8d 54bd ff46 043f
00000270: 4af5 a9be de97 223f ee2e 513e 3cf8 c43e
00000280: ca8c b4bd d450 01bf 0b01 3a3f f5dc e4be
00000290: 8ff3 703e 3d79 8cbd 8b60 29be 1370 443e
000002a0: c53c 2abf ed42 59be 0891 a43e ae51 76bd
000002b0: 96d0 23bf 648f a13e 69cb 8bbe a410 153f
000002c0: 34b9 8fbd 126e b83e b7f3 b23e c052 d9bd
000002d0: 8314 37bf 3951 043d dbea 0b3f 601c 763e
000002e0: 8aba 043f d6a9 abbe 6461 dfbe 2c87 2f3f
000002f0: 48dc f73e a140 99bc 0c9e d0be f774 0e3e
00000300: 1818 b6bd 0f57 d5bb fe2c a73e 0343 683e
00000310: fc20 6d3e 0a96 d8be e48a 763e 10b7 e93d
00000320: 19af d53e f080 4ebe 64f7 d13e ee31 a53e
00000330: 1de7 263f d1c6 2dbf de85 bcbe 2d3b 073f
00000340: 9deb 0c3f 704d 293f 118d 093f 3387 ca3d
00000350: 651b 0b3f 1ddf 523c ac1f e0be 04b6 29bf
00000360: eb1e 9bbe a1d4 353f a1b8 10bf bab4 9a3e
00000370: 1ff9 723c 2e29 0b3e f70d 923d 1591 8dbe
00000380: 412b 1c3f 6702 e0be 3d6d 993e 9d5a d4be
00000390: 716b 853e e38b 52be 3d67 2d3f 9440 1a3f
000003a0: c54e a63e cdbf d43e ffb7 02bf ffbf 2dbf
000003b0: e5f7 89be dc20 2fbe 6222 393f 9bb0 3abe
000003c0: 77f6 a23e b566 ccbe 4569 fa3e fbc6 50be
000003d0: b663 9abe c60f fb3e feba 0abf bc75 0b3f
000003e0: 41a3 f73e 6e59 28bf afad 82bd b1c9 dfbe
000003f0: e1ed 353f c088 373f 65aa 223f 6257 8e3e
