TOYDATA/Models/Halfmoons_a=0.25_e=0.0.pt (torch, 270487 bytes, 10 tensors)

lays.0.weight f4 [256, 2]
-0.19010662 0.49918282 0.30164 0.58164287 -0.19835883 -0.018116593 -0.6054713 0.4197778
-0.63569915 0.16942339 0.17450094 0.26953143 -0.19700539 -0.12482953 -0.72850096 -0.23173426
-0.44821134 0.57548463 0.20407934 -0.6181254 -0.10048327 -0.5457723 0.035564296 -0.7027542
0.58853346 0.6134637 0.25467527 -0.06715453 -0.23473316 -0.16676933 0.37689713 -0.027315691
0.50368845 -0.5420837 0.14262071 -0.48344716 -0.14030582 0.26075873 -0.089185834 0.23482287
-0.41348997 -0.4074315 0.2540726 -0.4937766 0.4744059 0.16204621 -0.18793757 -0.18804218
0.36615375 0.6571012 0.6866302 0.118200675 0.13661367 -0.10665667 0.64357775 0.08483096
-0.65371907 -0.6802896 -0.42476648 0.31003255 0.4728313 -0.32087934 0.48504525 0.29191345
0.65360796 -0.35173208 0.088988945 0.17754166 -0.16388159 0.16076458 -0.56102735 0.39320198
-0.08977962 -0.8710835 -0.1836644 0.33736038 -0.45867968 0.3163869 0.2073452 -0.38321194
0.36049682 0.36738458 0.401969 -0.97885793 -0.25746733 -0.19335772 0.35526606 -0.6302516
0.6690978 0.0071566715 -0.44966984 -0.20622037 0.10819086 -0.18030156 0.638244 0.17618516
-0.2386502 -0.61283606 -0.69501376 -0.468457 -0.17828986 0.24664651 0.39352345 0.57949483
0.6514642 -0.6887073 0.24024425 0.21095555 -0.5231176 0.54514855 -0.23096934 -0.20679885
0.32802063 -0.81235766 -0.13942721 0.4323081 0.31682226 -0.09810887 0.093932986 -0.20810291
-0.53724015 -0.35571435 0.108715355 0.18883306 0.67454004 0.2797133 -0.34241277 0.4684754
-0.08034825 -0.507823 0.48259446 -0.31256768 0.56023693 -0.22514501 -0.69428074 0.5993059
-0.2973287 0.087964825 -0.08546418 0.18271685 -0.12405858 -0.71632314 0.042556852 0.51598537
-0.60676455 0.38275486 0.43395206 0.34424013 0.10721757 -0.62881523 0.6475202 0.7089667
-0.7488684 0.56825614 -0.7205049 0.62619156 0.29467618 0.0049630674 -0.7374459 0.4138789
-0.516295 -0.053782508 -0.6784822 0.13950732 -0.31562838 0.57666785 0.39995515 -0.35647
0.41232452 -0.24186279 0.58784395 -0.4190194 -0.40969566 -0.14340107 0.4831336 0.100047484
-0.46282482 -0.59179205 -0.6834788 -0.4669601 -0.37767678 -0.255233 0.45651013 -0.44701797
0.40046647 -0.5640283 0.17464182 -0.88735145 -0.13704646 -0.5145897 0.48364675 -0.17138731
0.5838713 -0.18254419 0.19258294 -0.6587319 0.69680005 -0.15933031 0.14426781 0.12964274
0.4514838 -0.59965515 -0.7242162 0.009673825 -0.4982625 -0.45803297 -0.520576 -0.118004456
0.50565326 -0.22567701 0.46475223 0.34603682 -0.475706 -0.51591164 0.60442185 0.11368348
-0.27504894 0.10878356 -0.084061444 0.08773416 0.7739503 0.31527364 0.59751123 -0.47099495
-0.3317558 0.17168754 0.5681128 0.1150846 -0.28678235 -0.46243262 -0.11806588 -0.63641393
0.36793658 0.019142792 -0.30997792 -0.32844877 0.5435558 0.4348519 -0.3252722 0.09869914
0.32264853 -0.2799815 -0.04774177 0.6171183 -0.48459294 0.3722689 0.518787 -0.25365928
-0.77146286 0.4701576 0.0052383193 -0.28632715 0.027732713 0.4146497 -0.5222107 0.5517369
00000000: 4fab 42be e494 ff3e 8f70 9a3e 8ce6 143f
00000010: 941e 4bbe 4069 94bc 2b00 1bbf 1eed d63e
00000020: 2ebd 22bf 537d 2d3e 60b0 323e 0600 8a3e
00000030: c8bb 49be a0a6 ffbd 0a7f 3abf bf4b 6dbe
00000040: f57b e5be f652 133f 2dfa 503e 773d 1ebf
00000050: 2cca cdbd bcb7 0bbf deab 113d b3e7 33bf
00000060: 21aa 163f f50b 1d3f cc64 823e 5088 89bd
00000070: e45d 70be 94c5 2abe a9f8 c03e 28c5 dfbc
00000080: baf1 003f ffc5 0abf 2a0b 123e 6386 f7be
00000090: 54ac 0fbe 2b82 853e 10a7 b6bd 6875 703e
000000a0: f5b4 d3be dd9a d0be ce15 823e 49d0 fcbe
000000b0: 55e5 f23e 71ef 253e b572 40be 218e 40be
000000c0: 8178 bb3e c937 283f ffc6 2f3f 3213 f23d
000000d0: 74e4 0b3e d06e dabd 83c1 243f dbbb ad3d
000000e0: 225a 27bf 7627 2ebf fe7a d9be 96bc 9e3e
000000f0: f216 f23e 4c4a a4be da57 f83e ae75 953e
00000100: da52 273f 3a16 b4be d63f b63d 7bcd 353e
00000110: 93d0 27be 789f 243e 7d9f 0fbf c551 c93e
00000120: 61de b7bd 54ff 5ebf 8512 3cbe 80ba ac3e
00000130: 10d8 eabe 77fd a13e 4d52 543e 5b34 c4be
00000140: 0a93 b83e d519 bc3e e1ce cd3e 6f96 7abf
00000150: c2d2 83be 91ff 45be 6fe5 b53e 2b58 21bf
00000160: fe49 2b3f 8382 ea3b 203b e6be 6f2b 53be
00000170: 2b93 dd3d f9a0 38be f563 233f e269 343e
00000180: b860 74be d3e2 1cbf 6cec 31bf 99d9 efbe
00000190: 9e91 36be e790 7c3e e87b c93e c659 143f
000001a0: 5cc6 263f 1f4f 30bf 9702 763e bb04 583e
000001b0: 09eb 05bf db8e 0b3f 3a83 6cbe 14c3 53be
000001c0: 52f2 a73e acf6 4fbf 02c6 0ebe 7d57 dd3e
000001d0: 8736 a23e 4eed c8bd f05f c03d ee18 55be
000001e0: 9288 09bf 3120 b6be 28a6 de3d 745d 413e
000001f0: a8ae 2c3f 9536 8f3e ba50 afbe 02dc ef3e
00000200: a08d a4bd b000 02bf 9f16 f73e df08 a0be
00000210: b06b 0f3f 6a8c 66be 62bc 31bf 1d6c 193f
00000220: 783b 98be e726 b43d d807 afbd 201a 3b3e
00000230: 6d12 febd f460 37bf 1850 2e3d 9e17 043f
00000240: ec54 1bbf 72f8 c33e f72e de3e 3e40 b03e
00000250: e394 db3d 09fa 20bf e2c3 253f d77e 353f
00000260: d7b5 3fbf 3c79 113f 0273 38bf 174e 203f
00000270: ccdf 963e 3aa1 a23b 41c9 3cbf efe7 d33e
00000280: e92b 04bf 0c4b 5cbd 02b1 2dbf 02db 0e3e
00000290: 0b9a a1be 81a0 133f ecc6 cc3e 3c83 b6be
000002a0: 331c d33e e1aa 77be f17c 163f b689 d6be
000002b0: a1c3 d1be bbd7 12be 4a5d f73e b2e5 cc3d
000002c0: 60f7 ecbe af7f 17bf 77f8 2ebf 6515 efbe
000002d0: da5e c1be e6ad 82be b2bb e93e 8adf e4be
000002e0: f109 cd3e 2964 10bf 4ed5 323e 7729 63bf
000002f0: e855 0cbe 27bc 03bf 8ca0 f73e 2880 2fbe
00000300: 9778 153f ddec 3abe 7634 453e a7a2 28bf
00000310: 7d61 323f 7c27 23be f1ba 133e 11c1 043e
00000320: e228 e73e 0083 19bf 3c66 39bf f77e 1e3c
00000330: 431c ffbe 4c83 eabe 7844 05bf 52ac f1bd
00000340: 7e72 013f e017 67be 01f4 ed3e bd2b b13e
00000350: bd8f f3be c912 04bf 64bb 1a3f e2d2 e83d
00000360: 37d3 8cbe eac9 de3d 6828 acbd f8ad b33d
00000370: 9b21 463f 8c6b a13e 7ff6 183f 4026 f1be
00000380: e5db a9be dcce 2f3e d76f 113f 7ab1 eb3d
00000390: 23d5 92be f8c3 ecbe 86cc f1bd 06ec 22bf
000003a0: 2f62 bc3e 58d1 9c3c 6db5 9ebe 702a a8be
000003b0: 7926 0b3f e9a4 de3e 148a a6be c622 ca3d
000003c0: 3032 a53e bc59 8fbe e08c 43bd 77fb 1d3f
000003d0: 911c f8be 079a be3e 3acf 043f a1df 81be
000003e0: 977e 45bf 7fb8 f03e 35a6 ab3b 7999 92be
000003f0: b72f e33c f74c d43e 9aaf 05bf a13e 0d3f

lays.0.bias f4 [256]
0.35510033 -0.001598554 -0.3518006 0.48991525 -0.36811656 0.41268602 -0.3853333 -0.20261729
0.5052391 0.5010251 0.42549628 -0.5866696 -0.6809061 -0.64048034 -0.43338484 0.17758378
0.56593865 0.69239086 0.5593688 -0.4899369 0.035890352 0.51024103 -0.49432543 0.1969368
0.46878013 0.19956776 -0.3495711 0.23420677 0.07004677 0.014121177 0.6049911 -0.52380186
0.04978214 0.25438425 0.5164001 0.63771355 0.05877587 0.13774106 0.32831022 0.34155306
-0.17009705 -0.38484558 0.2646652 0.68242145 0.49501908 0.64993304 0.64417297 -0.6687776
-0.39803138 -0.057007283 -0.10469582 0.105862044 -0.21249647 0.612764 -0.15468153 0.006296725
-0.26533064 0.43715948 -0.019364849 0.42943707 -0.18338655 -0.68133086 -0.6971713 0.060928497
-0.50833744 0.6204273 0.2771076 -0.6358557 0.0013752203 -0.5378773 -0.22268537 0.5044571
-0.4180108 -0.46735358 0.3286844 -0.105024226 -0.15200523 0.0724807 0.12558864 -0.06305937
0.548335 0.03012802 -0.2665695 0.38376355 0.18086512 -0.37174115 -0.11574364 0.4362359
0.43214345 -0.059562515 0.39016563 -0.38583004 -0.2453534 -0.15496181 -0.5871181 -0.38154352
-0.40230015 0.038180236 0.49052918 0.58922297 0.44330218 -0.3214847 0.52371347 -0.17268392
-0.5704656 -0.50081897 -0.13969982 0.5652673 -0.010619943 -0.22532532 -0.31799865 -0.43585157
-0.65746975 -0.60079294 0.25392506 0.595149 0.5871168 -0.43656498 -0.3392074 0.0039748377
0.083594605 -0.16093844 -0.36690927 0.031320505 -0.124029614 0.23485473 -0.21535973 -0.19990744
-0.14965215 0.5074159 -0.5367583 0.32910556 0.38961697 0.33177724 -0.017119912 -0.15487501
-0.0652355 0.2521933 0.1654209 -0.06384934 0.052295756 -0.55707645 -0.5818153 -0.6783642
0.039401222 -0.30161297 -0.3548704 -0.5765652 -0.65997225 0.7417425 -0.34765175 0.46108037
0.33788574 0.37565467 0.31045654 0.5498604 0.27711782 -0.105870716 -0.28859532 -0.21424115
0.16950196 -0.038628157 0.032420073 -0.30460373 0.02691503 0.7028761 0.1938379 0.63641274
-0.23384047 0.47496608 0.18421564 -0.12531665 0.6531689 -0.0146096125 -0.6192625 0.32018152
-0.375903 0.6593479 0.58917254 0.58800673 0.08602442 0.4396097 -0.48217466 -0.120993994
-0.03952023 -0.52284 -0.5038501 -0.3422732 -0.16101289 0.15624069 -0.5232174 0.029549738
0.6944595 -0.50265485 0.003044496 0.39491606 0.59805 -0.19933422 0.6546282 0.0031071438
-0.30327237 -0.7421061 0.52734345 0.67523867 0.61769533 -0.2784553 0.6538045 0.1766685
0.4926249 -0.22288255 0.5444779 -0.052927684 -0.3487443 -0.106069215 -0.38380322 -0.3426654
-0.18927057 -0.37236017 -0.33877307 -0.40292603 0.37273628 0.25445122 0.0894817 -0.30539984
0.49569005 -0.35690165 0.55443645 0.71718365 -0.68874454 -0.030231727 0.5022674 0.62168384
0.30508074 -0.1158768 -0.69974303 -0.21908362 0.4120061 0.08241365 0.5795425 0.47595975
-0.42253464 0.3186401 0.36396727 -0.59295076 0.5542481 -0.28615317 -0.08195559 0.08126226
-0.55960524 -0.20174903 -0.3760464 0.20570733 -0.32234618 0.11191508 0.26365012 -0.02656249
00000000: b6cf b53e 9286 d1ba 351f b4be 2cd6 fa3e
00000010: c679 bcbe 954b d33e 684a c5be e87a 4fbe
00000020: 5a57 013f 2e43 003f a6da d93e fb2f 16bf
00000030: dd4f 2ebf 85f6 23bf 9ee4 ddbe 86d8 353e
00000040: 5be1 103f 8740 313f cb32 0f3f 02d9 fabe
00000050: c301 133d 289f 023f 3918 fdbe cda9 493e
00000060: f303 f03e 7e5b 4c3e fcfa b2be e6d3 6f3e
00000070: ae74 8f3d 825c 673c b2e0 1a3f e117 06bf
00000080: 5be8 4b3d a73e 823e cc32 043f 3241 233f
00000090: f7be 703d fe0b 0d3e 4718 a83e 0be0 ae3e
000000a0: ec2d 2ebe 7b0a c5be 3282 873e 2cb3 2e3f
000000b0: 2473 fd3e 0362 263f 85e8 243f 0235 2bbf
000000c0: c5ca cbbe 7880 69bd c36a d6bd 33ce d83d
000000d0: ad98 59be 1ade 1c3f d664 1ebe c254 ce3b
000000e0: 6bd9 87be 5ed3 df3e 08a3 9ebc 2ddf db3e
000000f0: afc9 3bbe b36b 2ebf d179 32bf 2990 793d
00000100: 6722 02bf 53d4 1e3f 0ce1 8d3e 70c7 22bf
00000110: bc40 b43a 54b2 09bf a207 64be 1a24 013f
00000120: 8305 d6be f848 efbe 5249 a83e f116 d7bd
00000130: 42a7 1bbe c370 943d 4f9a 003e 4525 81bd
00000140: af5f 0c3f 0acf f63c cc7b 88be a87c c43e
00000150: b534 393e db54 bebe 000b edbd 505a df3e
00000160: e841 dd3e d3f7 73bd cac3 c73e 848b c5be
00000170: ec3d 7bbe 4fae 1ebe 5f4d 16bf ac59 c3be
00000180: 49fa cdbe e162 1c3d a426 fb3e 51d7 163f
00000190: 81f8 e23e a599 a4be 1612 063f 0ed4 30be
000001a0: 090a 12bf ac35 00bf 780d 0fbe 5cb5 103f
000001b0: 45ff 2dbc aebb 66be b8d0 a2be f027 dfbe
000001c0: f04f 28bf 91cd 19bf 7702 823e af5b 183f
000001d0: 494d 163f 7285 dfbe 98ac adbe 5b3f 823b
000001e0: a633 ab3d 0ccd 24be 88db bbbe ee49 003d
000001f0: 3d03 febd c27d 703e 4387 5cbe 89b4 4cbe
00000200: 6a3e 19be 02e6 013f fe68 09bf 8680 a83e
00000210: e07b c73e b5de a93e 0f3f 8cbc 8e97 1ebe
00000220: 319a 85bd 7b1f 813e 1964 293e 71c3 82bd
00000230: 1334 563d 909c 0ebf d9f1 14bf 47a9 2dbf
00000240: 2d63 213d 046d 9abe 93b1 b5be c799 13bf
00000250: f1f3 28bf d6e2 3d3f 69ff b1be ba12 ec3e
00000260: 5cff ac3e cf55 c03e 29f4 9e3e a7c3 0c3f
00000270: 63e2 8d3e bfd2 d8bd c4c2 93be 0862 5bbe
00000280: ec91 2d3e 8f38 1ebd e9ca 043d 05f5 9bbe
00000290: e97c dc3c b0ef 333f 717d 463e f2eb 223f
000002a0: e073 6fbe c12e f33e 06a3 3c3e 0253 00be
000002b0: 1436 273f 285d 6fbc fd87 1ebf d5ee a33e
000002c0: 5c76 c0be 06cb 283f 03d4 163f 9c87 163f
000002d0: 922d b03d 8614 e13e 99df f6be b3cb f7bd
000002e0: f7df 21bd d8d8 05bf 52fc 00bf 6f3e afbe
000002f0: 90e0 24be 8ffd 1f3e 93f1 05bf 4b12 f23c
00000300: 19c8 313f fdad 00bf 2b86 473b 7032 ca3e
00000310: ce19 193f 451e 4cbe b795 273f 39a1 4b3b
00000320: 8446 9bbe aafa 3dbf fbff 063f 71dc 2c3f
00000330: 4821 1e3f b191 8ebe bb5f 273f 96e8 343e
00000340: 5539 fc3e 533b 64be e762 0b3f b3ca 58bd
00000350: 9d8e b2be d13a d9bd db81 c4be d771 afbe
00000360: 25d0 41be fea5 bebe aa73 adbe 524c cebe
00000370: 4ad7 be3e 6e47 823e 2e42 b73d 5e5d 9cbe
00000380: 16cb fd3e d0bb b6be 8cef 0d3f 5999 373f
00000390: 9051 30bf 87a8 f7bc 9994 003f ac26 1f3f
000003a0: 8b33 9c3e d150 edbd 5c22 33bf 7557 60be
000003b0: 77f2 d23e 7dc8 a83d e65c 143f ffb0 f33e
000003c0: 7656 d8be cc24 a33e eb59 ba3e 9fcb 17bf
000003d0: 34e3 0d3f ab82 92be 55d8 a7bd d46c a63d
000003e0: 4a42 0fbf 4c97 4ebe 2789 c0be f1a4 523e
000003f0: 8f0a a5be bc33 e53d 26fd 863e 9499 d9bc

lays.1.weight f4 [256, 256]
0.03891353 -0.024752269 0.03423976 0.044782307 -0.17012574 0.02643215 0.057150595 -0.075614564
0.06357787 -0.01344745 0.01549904 0.023539271 0.20076835 -0.057807513 0.037772633 -0.068580635
-0.020455021 0.047859736 -0.028599443 0.05532305 -0.024392858 -0.048638154 0.12512058 0.06831829
0.042342857 -0.044264074 -0.046887256 0.00799313 -0.08003061 -0.024248526 -0.042357564 0.215645
-0.03576144 -0.058872886 0.0225931 -0.0031243241 0.1692893 0.07164562 0.12569234 -0.008540256
0.04182143 0.25330913 0.14102928 0.067841776 0.015320419 0.078172944 0.009729901 0.09612585
-0.050009497 -0.19372824 -0.15713146 0.00205034 -0.000594435 -0.013001867 -0.043279838 -0.12610446
0.15572056 -0.024036277 0.0049034874 -0.009259498 -0.16578215 0.02748277 0.114866935 0.012528013
-0.031173386 -0.015586181 0.02984851 -0.08492413 -0.09183154 0.0034588128 0.07403583 -0.001801972
0.007625591 0.17040344 -0.05372209 -0.09786833 -0.063651934 0.019876448 0.0064002085 -0.06515981
0.085985616 -0.053645257 -0.14837685 0.023656927 -0.041273914 0.06997501 -0.24936363 0.04605298
0.075445496 -0.18262388 0.12747832 0.104518324 0.09561286 0.28898525 -0.0085100755 0.07760077
0.051792677 0.030029174 0.0017499435 -0.053082023 0.060305998 -0.2473791 0.17947176 -0.12934679
0.26589394 0.189985 -0.14468963 -0.04741603 -0.0370155 -0.060000636 -0.039953254 0.014385267
-0.00080642104 0.21356766 0.09789005 -0.01433869 -0.0012602934 -0.018597968 0.00066010683 -0.07709024
-0.06366835 -0.025124332 -0.029758696 -0.07385087 -0.08472329 0.01097215 -0.038939122 -0.15879564
-0.21387397 0.060937252 -0.039716206 -0.022939142 0.11038418 0.07604784 0.018926986 -0.29576033
0.027847603 0.046292465 0.13966772 0.27237403 -0.07230089 -0.07147469 6.625056e-05 -0.05006562
-0.08789094 -0.11824709 0.051525734 -0.003188296 -0.009700085 0.15345722 -0.078946635 -0.018443124
0.12077435 0.042916514 0.13792242 0.0754926 0.11760228 -0.02474394 -0.025838556 -0.01148744
0.0063072415 -0.020591676 -0.16005762 0.07316247 -0.019003645 0.030350838 -0.0010030759 0.14441977
0.02405522 0.09988216 0.009815012 -0.13928826 -0.0115650855 -0.047124706 0.14218964 0.07324929
-0.018663084 0.011812237 0.031681553 -0.020071644 -0.06607511 0.008395834 0.16854425 -0.060137544
0.3090354 0.149187 -0.04671817 0.13252483 -0.08845604 -0.07745317 0.3042221 -0.11863382
0.05577755 0.004270993 -0.111641176 0.106935054 -0.020909391 0.033289474 0.043448772 -0.020911397
-0.01383784 0.08524634 0.04680743 0.038964484 -0.00913468 -0.00716123 0.055722676 0.0038807802
-0.015795141 -0.022608804 0.04062143 -0.021181809 -0.15313905 0.012129115 -0.15342902 0.07183446
-0.12124102 -0.17681901 0.046641506 -0.22913326 0.007815724 0.081314184 -0.027006015 0.16181281
-0.015820201 0.13977511 0.066757165 0.024596442 0.055806115 -0.19624865 0.01461881 -0.032476805
0.0334971 -0.119128525 0.022784822 -0.110633686 -0.05052002 -0.084867075 -0.04051362 0.030867798
0.13435856 -0.054373626 0.018112868 -0.021554507 -0.0011844761 -0.027770774 -0.034921944 0.10918628
-0.113462 0.13605765 -0.0022656184 0.030557714 -0.032844868 -0.086189866 -0.05292115 -0.010578952
00000000: cb63 1f3d 45c5 cabc fe3e 0c3d a76d 373d
00000010: 7135 2ebe 3c88 d83c be16 6a3d cfdb 9abd
00000020: 1d35 823d b152 5cbc afef 7d3c 6ed5 c03c
00000030: 3896 4d3e 92c7 6cbd 7ab7 1a3d 0174 8cbd
00000040: 4a91 a7bc 9208 443d 6149 eabc 6c9a 623d
00000050: 88d3 c7bc cd38 47bd 9c1f 003e 76ea 8b3d
00000060: b46f 2d3d 3f4e 35bd da0c 40bd 9ef5 023c
00000070: 17e7 a3bd d8a4 c6bc 207f 2dbd 0bd2 5c3e
00000080: 967a 12bd b224 71bd 2a15 b93c 76c1 4cbb
00000090: 2d5a 2d3e f0ba 923d 7eb5 003e 6eec 0bbc
000000a0: f34c 2b3d bcb1 813e fb69 103e a1f0 8a3d
000000b0: 7f02 7b3c 2319 a03d 2a6a 1f3c a1dd c43d
000000c0: c2d6 4cbd b260 46be 12e7 20be ff5e 063b
000000d0: dcd3 1bba c805 55bc 3346 31bd 8721 01be
000000e0: 3675 1f3e bae7 c4bc 6fad a03b 26b5 17bc
000000f0: ccc2 29be 8c23 e13c 5b3f eb3d 4c42 4d3c
00000100: 545f ffbc 2e5d 7fbc dd84 f43c b4ec adbd
00000110: 2d12 bcbd 40ad 623b 19a0 973d 2630 ecba
00000120: 18e0 f93b 3d7e 2e3e b20b 5cbd 316f c8bd
00000130: f25b 82bd efd3 a23c d7b8 d13b 8272 85bd
00000140: 3a19 b03d 21bb 5bbd 1af0 17be 2ccc c13c
00000150: d60e 29bd 0f4f 8f3d 2e59 7fbe 0da2 3c3d
00000160: 2b83 9a3d c101 3bbe ad89 023e b40d d63d
00000170: add0 c33d e0f5 933e d86d 0bbc 27ed 9e3d
00000180: 8f24 543d beff f53c 5c5e e53a 896c 59bd
00000190: 6c03 773d f250 7dbe 72c7 373e 7c73 04be
000001a0: 4023 883e 6e8b 423e 8529 14be 5037 42bd
000001b0: 919d 17bd 3ac3 75bd 06a6 23bd 2fb0 6b3c
000001c0: 0066 53ba 7bb1 5a3e 947a c83d d3ec 6abc
000001d0: 6e30 a5ba c45a 98bc 050b 2d3a 7de1 9dbd
000001e0: 8d64 82bd 8bd1 cdbc 82c8 f3bc 203f 97bd
000001f0: 6783 adbd 88c4 333c a17e 1fbd 539b 22be
00000200: c701 5bbe 5799 793d 76ad 22bd deea bbbc
00000210: 1a11 e23d f8be 9b3d c40c 9b3c e66d 97be
00000220: a820 e43c 2b9d 3d3d 0e05 0f3e 9c74 8b3e
00000230: 7d12 94bd 5361 92bd 00f0 8a38 9c11 4dbd
00000240: 2a00 b4bd 882b f2bd a60c 533d bbf2 50bb
00000250: 1bed 1ebc e423 1d3e c6ae a1bd 0916 97bc
00000260: 8b58 f73d 3ac9 2f3d 893b 0d3e dd9b 9a3d
00000270: 77d9 f03d ceb3 cabc 61ab d3bc d135 3cbc
00000280: faac ce3b e0af a8bc 25e6 23be 34d6 953d
00000290: 88ad 9bbc 52a2 f83c a479 83ba c7e2 133e
000002a0: 740f c53c 058f cc3d 25cf 203c 95a1 0ebe
000002b0: 7c7b 3dbc d605 41bd 299a 113e b903 963d
000002c0: 53e3 98bc 1d88 413c 84c4 013d 4a6d a4bc
000002d0: 6352 87bd ae8e 093c dd96 2c3e c952 76bd
000002e0: e339 9e3e 7ac4 183e 8d5b 3fbd 97b4 073e
000002f0: 7128 b5bd c59f 9ebd 00c3 9b3e 4af6 f2bd
00000300: 0077 643d b0f3 8b3b 21a4 e4bd c400 db3d
00000310: 2c4a abbc 8b5a 083d 57f7 313d 614e abbc
00000320: 1cb8 62bc a295 ae3d 26b9 3f3d 3999 1f3d
00000330: a0a9 15bc c0a8 eabb 763d 643d b054 7e3b
00000340: d064 81bc 1936 b9bc a862 263d 7985 adbc
00000350: 7cd0 1cbe 32b9 463c 7f1c 1dbe f21d 933d
00000360: 364d f8bd 0b10 35be 2a0b 3f3d e9a1 6abe
00000370: 860d 003c 0d88 a63d b83b ddbc 42b2 253e
00000380: 5e99 81bc 3521 0f3e fbb7 883d 7a7e c93c
00000390: f494 643d 68f5 48be bc83 6f3c 6606 05bd
000003a0: 4134 093d a8f9 f3bd 3ca7 ba3c ea93 e2bd
000003b0: 15ee 4ebd cace adbd 9cf1 25bd 77de fc3c
000003c0: 4a95 093e e1b6 5ebd 7061 943c 1493 b0bc
000003d0: 6c40 9bba 897f e3bc 500a 0fbd 0e9d df3d
000003e0: c45e e8bd b252 0b3e c57a 14bb 2c54 fa3c
000003f0: 5788 06bd 5084 b0bd d9c3 58bd 5753 2dbc

lays.1.bias f4 [256]
0.062568605 -0.019596705 0.08150499 0.060107645 0.025033291 0.06483356 -0.03967819 -0.003922653
0.035386372 -0.013544016 0.023419777 0.013338302 -0.022836095 0.03595371 0.03479061 -0.03366856
0.039800227 -0.054949038 0.026330508 -0.03894432 -0.026844358 -0.029877843 -0.035621326 -0.028688295
-0.080041386 -0.001425013 -0.045143276 0.046148505 -0.00033579438 0.0075143673 -0.0076081385 0.04563074
-0.020470876 0.0049077175 0.017457642 0.018081974 0.010033706 -0.00448478 -0.01103321 -0.03368935
0.024280222 0.011288836 0.040562816 -0.04462443 -0.037599258 0.00030023258 -0.020938724 0.0033129286
-0.037832268 -0.045418717 0.06499216 -0.061751306 -0.041519497 0.053957492 0.046715688 0.027994758
-0.004406832 0.05968706 0.059838142 -0.0091153225 0.07777646 0.06100138 -0.057146434 0.033635613
0.009479447 -0.014912308 -0.05495531 0.047254905 0.053256292 -0.035578027 -0.01038624 0.018866535
-0.01658851 -0.031646468 -0.0031160503 0.0060322746 0.021112232 0.0135318935 -0.028893193 0.012066748
-0.010359184 0.061243296 -0.04795552 -0.034336157 0.024904676 0.04716573 0.047847264 0.040783554
0.03555853 -0.052597385 0.059795562 0.04685777 -0.022476988 0.057683505 -0.053302765 0.00389698
0.03565061 0.014029368 0.011093155 -0.010463863 -0.058589354 -0.023144409 -0.02551053 -0.02348426
0.070756145 0.05957848 0.02253171 -0.030618547 -0.049899362 -0.052850325 0.06855419 -0.031643063
0.039988622 0.048767883 0.0057730284 -0.0292348 0.010870448 0.04966648 -0.050914768 -0.040419288
0.02836985 0.059288308 -0.0015806936 -0.010213532 0.0168496 -0.031961173 0.006694035 0.035474706
0.0068428875 0.0020465942 0.026454823 0.002472509 0.07302823 0.0071278294 0.0010950322 0.052461386
-0.033158515 0.0093917055 -0.04505865 0.07319976 0.011917125 0.026682045 -0.00034676938 0.045953944
-0.017511502 -0.045663316 -0.03410766 0.015888283 0.04205591 0.011825676 -0.022600824 0.07485386
0.059997384 -0.012896545 0.014839821 -0.0037157917 0.049173743 0.03946498 0.05811704 -0.034940295
0.06419898 -0.029824032 0.01109197 -0.06578108 0.047788676 -0.017459761 -0.003989893 0.054766305
0.011473548 -0.0055257455 -0.01230856 0.016226754 0.029027397 0.033720892 0.048946925 0.0019735172
0.034183692 0.010004079 0.004847318 -0.0027591938 -0.03436995 0.051439553 0.063714154 0.03724147
-0.031161107 0.041216504 0.008965836 0.032157373 -0.01608014 0.057492096 0.027941959 0.007890275
0.02151727 0.06068944 -0.015547539 -0.044435643 0.06022291 -0.0018910851 0.052304108 0.057831608
0.049357302 0.056606628 -0.0028285005 -0.0058420226 0.050584845 -0.04831209 0.04314953 -0.010200907
-6.1780855e-05 0.016090803 -0.04436414 -0.0054415762 0.036472257 0.031356372 -0.037323814 -0.050944716
0.016458157 0.06496253 -0.023951784 -0.05894422 0.054934405 0.027527668 0.06177431 0.016267229
-0.021316245 -0.030610096 -0.036589358 0.011044982 -0.006264544 0.014173053 0.042318325 -0.014271179
-0.0019573509 0.04738372 0.00951097 0.008169479 -0.044795655 -0.02670446 -0.041737102 -0.05502954
-0.022907384 0.021164566 0.053903386 -0.04944555 -0.018097362 -0.0035866054 0.004979485 -0.052169394
0.026682675 -0.01500538 0.044431888 0.043569833 0.012356654 0.038462795 -0.0140367 0.018320965
00000000: f823 803d 4589 a0bc 17ec a63d 6f33 763d
00000010: 9e12 cd3c 75c7 843d 9985 22bd 9989 80bb
00000020: 4df1 103d b8e7 5dbc d5da bf3c e588 5a3c
00000030: c312 bbbc 3344 133d 9980 0e3d 0be8 09bd
00000040: 9005 233d 3e12 61bd 14b3 d73c 1484 1fbd
00000050: b3e8 dbbc 61c2 f4bc abe7 11bd b703 ebbc
00000060: bdec a3bd 80c7 baba 28e8 38bd 3706 3d3d
00000070: 8f0d b0b9 153b f63b b14d f9bb 4ce7 3a3d
00000080: 8ab2 a7bc ebd0 a03b 5403 8f3c a620 943c
00000090: 6a64 243c 10f5 92bb a3c4 34bc d8fd 09bd
000000a0: 51e7 c63c cff4 383c 3225 263d 1bc8 36bd
000000b0: ae01 1abd 8968 9d39 b087 abbc b81d 593b
000000c0: 02f6 1abd fa08 3abd 9c1a 853d f0ee 7cbd
000000d0: 5910 2abd 8802 5d3d f358 3f3d 4355 e53c
000000e0: 3067 90bb 6b7a 743d d718 753d 6f58 15bc
000000f0: 4449 9f3d 95dc 793d 6112 6abd 7fc5 093d
00000100: af4f 1b3c c152 74bc d218 61bd 5c8e 413d
00000110: 4523 5a3d 44ba 11bd 0c2b 2abc fe8d 9a3c
00000120: a0e4 87bc ba9f 01bd a636 4cbb 63aa c53b
00000130: 8ff3 ac3c e0b4 5d3c 6bb1 ecbc 9cb3 453c
00000140: 91b9 29bc 40da 7a3d 026d 44bd 12a4 0cbd
00000150: e404 cc3c da30 413d 7efb 433d a80c 273d
00000160: d2a5 113d 5b70 57bd 31ec 743d efed 3f3d
00000170: a921 b8bc 8a45 6c3d 0054 5abd 7a64 7f3b
00000180: 6006 123d 6fdb 653c 10c0 353c 9f70 2bbc
00000190: 64fb 6fbd 5899 bdbc 76fb d0bc 1062 c0bc
000001a0: 99e8 903d 9008 743d 6c94 b83c bfd3 fabc
000001b0: 4663 4cbd 9579 58bd 2466 8c3d 289c 01bd
000001c0: 1ccb 233d d5c0 473d ac2b bd3b d27d efbc
000001d0: f719 323c 146f 4b3d 018c 50bd b28e 25bd
000001e0: e367 e83c 4cd8 723d 472f cfba a856 27bc
000001f0: 2c08 8a3c b8e9 02bd a359 db3b ed4d 113d
00000200: 4d3a e03b 2720 063b c9b7 d83c d109 223b
00000210: d38f 953d 9190 e93b 2f87 8f3a c0e1 563d
00000220: 39d1 07bd abdf 193c 6b8f 38bd c1e9 953d
00000230: 0c40 433c 4e94 da3c 99ce b5b9 343a 3c3d
00000240: 4874 8fbc 7509 3bbd 79b4 0bbd 2528 823c
00000250: d142 2c3d 7bc0 413c 5d25 b9bc fb4c 993d
00000260: d1bf 753d 084c 53bc b822 733c a484 73bb
00000270: 686a 493d 08a6 213d 220c 6e3d 8e1d 0fbd
00000280: c17a 833d 8751 f4bc 18bb 353c 3bb8 86bd
00000290: 0fbe 433d c607 8fbc a6bd 82bb a252 603d
000002a0: 8cfb 3b3c 5011 b5bb d8a9 49bc f8ed 843c
000002b0: ddca ed3c eb1e 0a3d 927c 483d 2056 013b
000002c0: 3304 0c3d 26e8 233c 40d6 9e3b 97d3 34bb
000002d0: 81c7 0cbd 48b2 523d 917c 823d 838a 183d
000002e0: 9445 ffbc a3d2 283d 71e5 123c 73b7 033d
000002f0: 7fba 83bc d57c 6b3d 89e6 e43c 3646 013c
00000300: fc44 b03c 7e95 783d 1bbb 7ebc 2602 36bd
00000310: 4cac 763d 49de f7ba d53c 563d d6e0 6c3d
00000320: e22a 4a3d 5adc 673d 5d5e 39bb 706e bfbb
00000330: 0e32 4f3d e6e2 45bd 90bd 303d b421 27bc
00000340: 5890 81b8 dcd0 833c 2cb7 35bd 404f b2bb
00000350: ef63 153d 8a6f 003d dbe0 18bd 68ab 50bd
00000360: 42d3 863c 130b 853d 8836 c4bc 7f6f 71bd
00000370: e602 613d b481 e13c 0f07 7d3d da42 853c
00000380: 689f aebc 06c2 fabc b9de 15bd 03f6 343c
00000390: ce46 cdbb 1836 683c fb55 2d3d aad1 69bc
000003a0: e646 00bb 6e15 423d e6d3 1b3c 47d9 053c
000003b0: a67b 37bd 50c3 dabc 86f4 2abd a866 61bd
000003c0: 44a8 bbbc 5061 ad3c ccc9 5c3d 6b87 4abd
000003d0: eb40 94bc 410d 6bbb f32a a33b 93af 55bd
000003e0: a095 da3c 20d9 75bc 36fe 353d 4876 323d
000003f0: 9073 4a3c 2a8b 1d3d 30fa 65bc d915 963c

lays.2.weight f4 [2, 256]
-0.078658625 0.036882553 -0.051474098 0.11712995 0.15552518 -0.16873339 -0.12079339 -0.09549679
-0.04317554 0.0158588 0.11341557 0.06054002 -0.08415462 -0.08085765 -0.17175291 -0.03376604
-0.012529068 0.015110828 0.116140194 0.02913317 0.1206736 0.11312787 -0.11536001 0.14331964
-0.087688036 -0.05364252 0.11481505 -0.07689904 -0.13354903 0.06469827 0.010473471 0.043687817
0.058453847 0.055087395 0.14277872 -0.1398616 -0.07375973 0.03273748 0.056133993 -0.05727676
-0.10373589 -0.057981744 -0.024207486 -0.02820044 0.00037365893 0.09902048 -0.06033384 0.025159871
0.14173906 0.018015802 -0.10291171 -0.051004786 0.08424368 0.037479274 0.07458047 0.045289025
-0.038357206 -0.09079973 -0.07000884 0.10798426 -0.17944714 -0.06801424 -0.035060596 -0.08691132
-0.10773867 -0.034191933 0.020664997 0.07391947 0.09293835 -0.056158498 -0.012723253 0.017481968
-0.018155903 -0.04011702 -0.13817091 0.12443927 0.114634424 -0.040330745 0.11634729 -0.06024751
-0.0037345386 0.07638325 -0.034268714 0.09038747 -0.12496192 0.14557828 0.055344824 -0.02552375
-0.06876208 0.005447586 -0.048915677 0.12287637 0.14291315 0.09559446 0.043637335 0.115480736
0.0452282 0.09275519 -0.028728448 0.0728245 -0.026861802 -0.030570654 0.12297248 0.08385949
-0.026823288 0.03934575 -0.03953428 0.13076532 0.002077162 -0.035066795 0.089112304 0.06664681
0.097779624 -0.06754652 0.008889585 0.0942049 -0.09990127 -0.11841118 -0.079912804 0.060774557
0.09317058 -0.041426882 0.11298288 0.039453346 -0.09512133 0.025311364 0.07860497 0.07795065
0.13950521 -0.035869498 0.13184647 -0.029027168 -0.04536715 -0.065840706 0.031983703 0.1078558
0.11206722 0.1074842 0.061240353 -0.044558138 0.09117558 0.06506881 -0.019467255 0.08540969
0.027969508 -0.078467235 -0.09375255 0.14910753 0.01921503 -0.101509884 0.10309621 -0.07238568
0.08173673 -0.036413025 -0.055323623 0.029559549 -0.060138565 0.014246461 0.11890297 -0.022034371
0.1331549 -0.10330456 -0.022426069 -0.04438623 -0.11762886 -0.10531269 -0.038559552 0.122531325
0.11176092 0.019315138 -0.04855685 0.055824615 -0.004065869 0.12968826 -0.035894632 -0.051451556
-0.07497433 -0.032633908 0.027455792 0.09378876 0.04966999 0.040007323 -0.08865838 -0.12573959
-0.051633097 0.028225025 -0.122678034 0.11211943 -0.13823271 -0.089382924 0.11441416 0.046157293
0.048719093 0.048179377 -0.15485105 0.13023864 0.12935297 0.091366 -0.07710579 -0.04066874
0.16739932 -0.08523479 -0.117426865 0.024596788 0.09751571 0.036873657 0.058137536 -0.13068159
-0.13072418 -0.04615769 0.073294826 0.011430673 -0.11983336 0.096016504 0.061879206 -0.0114549175
-0.13840762 -0.14493768 0.042080536 0.17312835 -0.05677971 -0.044701174 -0.08509728 0.09401259
0.09768273 -0.069820866 -0.016453367 -0.13783392 0.057546966 -0.117518425 0.014414109 -0.108963676
0.120955594 0.049232595 -0.14811479 0.11003433 0.07508991 -0.107754216 -0.039103396 0.04378222
0.02152785 -0.119190894 0.10390785 0.06536862 0.12068037 -0.048957344 -0.090954944 0.12667856
0.04162977 0.14432763 -0.036522638 0.020401336 0.02175983 -0.10582991 -0.05207399 0.027871177
00000000: c617 a1bd 2912 173d 81d6 52bd d4e1 ef3d
00000010: fe41 1f3e 72c8 2cbe 8662 f7bd d293 c3bd
00000020: d6d8 30bd 50ea 813c 6c46 e83d d0f8 773d
00000030: 4259 acbd b298 a5bd ffdf 2fbe 424e 0abd
00000040: b846 4dbc 6893 773c e9da ed3d b0a8 ee3c
00000050: b823 f73d 96af e73d de41 ecbd 62c2 123e
00000060: c995 b3bd 42b8 5bbd 2724 eb3d 3e7d 9dbd
00000070: 14c1 08be 8780 843d ec98 2b3c fff1 323d
00000080: 4d6d 6f3d 52a3 613d 9634 123e e137 0fbe
00000090: 570f 97bd bc17 063d c2ec 653d 099b 6abd
000000a0: 7b73 d4bd 447e 6dbd c74e c6bc 9c04 e7bc
000000b0: a7e7 c339 40cb ca3d 9e20 77bd 131c ce3c
000000c0: 0b24 113e e095 933c 60c3 d2bd 65ea 50bd
000000d0: f387 ac3d de83 193d a5bd 983d fc80 393d
000000e0: 721c 1dbd 35f5 b9bd cb60 8fbd da26 dd3d
000000f0: fec0 37be 0d4b 8bbd b39b 0fbd 90fe b1bd
00000100: 18a6 dcbd d70c 0cbd a449 a93c 1763 973d
00000110: 7656 be3d 7406 66bd 3175 50bc 5836 8f3c
00000120: b0bb 94bc bf51 24bd ad7c 0dbe 04da fe3d
00000130: 74c5 ea3d da31 25bd 7d47 ee3d 18c6 76bd
00000140: 29bf 74bb d26e 9c3d 5a5d 0cbd 111d b93d
00000150: 09ec ffbd 7912 153e 41b1 623d 2f17 d1bc
00000160: 22d3 8cbd aa81 b23b ce5b 48bd 9ba6 fb3d
00000170: d357 123e 07c7 c33d 10bd 323d 2a81 ec3d
00000180: 3441 393d 6ff6 bd3d ec57 ebbc 0325 953d
00000190: 480d dcbc 4f6f fabc ffd8 fb3d 86be ab3d
000001a0: 83bc dbbc 0229 213d b2ee 21bd 58e7 053e
000001b0: ff20 083b 33a2 0fbd 8380 b63d 1f7e 883d
000001c0: af40 c83d d455 8abd 9fa5 113c 80ee c03d
000001d0: 0999 ccbd 9081 f2bd 53a9 a3bd beee 783d
000001e0: 38d0 be3d 3caf 29bd 9163 e73d d599 213d
000001f0: f9ce c2bd c759 cf3c a4fb a03d 97a4 9f3d
00000200: 74da 0e3e e5eb 12bd c302 073e 62ca edbc
00000210: e8d2 39bd 7ed7 86bd 5801 033d 80e3 dc3d
00000220: 8083 e53d ad20 dc3d 2ad7 7a3d 9882 36bd
00000230: 43ba ba3d cc42 853d cb79 9fbc 47eb ae3d
00000240: 4f20 e53c 6eb3 a0bd 5601 c0bd a5af 183e
00000250: d768 9d3c 6ae4 cfbd 1b24 d33d f23e 94bd
00000260: 9665 a73d d325 15bd 069b 62bd de26 f23c
00000270: db53 76bd fd69 693c 6683 f33d 6d81 b4bc
00000280: c259 083e 5791 d3bd e0b6 b7bc 56ce 35bd
00000290: 66e7 f0bd 2eae d7bd 9ff0 1dbd b4f1 fa3d
000002a0: e9e2 e43d c83a 9e3c 8ce3 46bd 5aa8 643d
000002b0: fb3a 85bb 00cd 043e 4006 13bd debe 52bd
000002c0: 248c 99bd 22ab 05bd f8ea e03c 5214 c03d
000002d0: c272 4b3d b8de 233d 8692 b5bd e1c1 00be
000002e0: 3a7d 53bd 2b38 e73c 9f3e fbbd df9e e53d
000002f0: e08c 0dbe 650e b7bd f951 ea3d 6e0f 3d3d
00000300: ac8d 473d bd57 453d 4691 1ebe 475d 053e
00000310: 1b75 043e 191e bb3d a4e9 9dbd 4494 26bd
00000320: ba6a 2b3e 948f aebd 7f7d f0bd 347f c93c
00000330: 51b6 c73d d508 173d a021 6e3d 65d1 05be
00000340: 8fdc 05be d90f 3dbd 991b 963d b847 3b3c
00000350: 316b f5bd 4da4 c43d 0d75 7d3d 68ad 3bbc
00000360: baba 0dbe 8b6a 14be a45c 2c3d 8f48 313e
00000370: d791 68bd 9418 37bd 7c47 aebd ac89 c03d
00000380: e20d c83d 3efe 8ebd 36c9 86bc 5624 0dbe
00000390: 5eb6 6b3d 80ad f0bd 2829 6c3c 5928 dfbd
000003a0: 91b7 f73d 1ea8 493d 67ab 17be ae59 e13d
000003b0: bdc8 993d 3eae dcbd e22a 20bd fc54 333d
000003c0: 2c5b b03c 5b1a f4bd a4cd d43d fcdf 853d
000003d0: 4527 f73d 7f87 48bd 9646 babd 06b8 013e
000003e0: fa83 2a3d 9fca 133e c398 15bd b420 a73c
000003f0: ac41 b23c 5abd d8bd 894b 55bd 1852 e43c

lays.2.bias f4 [2]
-0.04601358 0.04024169
00000000: bc78 3cbd 78d4 243d

l1.weight f4 [256, 2]
-0.19010662 0.49918282 0.30164 0.58164287 -0.19835883 -0.018116593 -0.6054713 0.4197778
-0.63569915 0.16942339 0.17450094 0.26953143 -0.19700539 -0.12482953 -0.72850096 -0.23173426
-0.44821134 0.57548463 0.20407934 -0.6181254 -0.10048327 -0.5457723 0.035564296 -0.7027542
0.58853346 0.6134637 0.25467527 -0.06715453 -0.23473316 -0.16676933 0.37689713 -0.027315691
0.50368845 -0.5420837 0.14262071 -0.48344716 -0.14030582 0.26075873 -0.089185834 0.23482287
-0.41348997 -0.4074315 0.2540726 -0.4937766 0.4744059 0.16204621 -0.18793757 -0.18804218
0.36615375 0.6571012 0.6866302 0.118200675 0.13661367 -0.10665667 0.64357775 0.08483096
-0.65371907 -0.6802896 -0.42476648 0.31003255 0.4728313 -0.32087934 0.48504525 0.29191345
0.65360796 -0.35173208 0.088988945 0.17754166 -0.16388159 0.16076458 -0.56102735 0.39320198
-0.08977962 -0.8710835 -0.1836644 0.33736038 -0.45867968 0.3163869 0.2073452 -0.38321194
0.36049682 0.36738458 0.401969 -0.97885793 -0.25746733 -0.19335772 0.35526606 -0.6302516
0.6690978 0.0071566715 -0.44966984 -0.20622037 0.10819086 -0.18030156 0.638244 0.17618516
-0.2386502 -0.61283606 -0.69501376 -0.468457 -0.17828986 0.24664651 0.39352345 0.57949483
0.6514642 -0.6887073 0.24024425 0.21095555 -0.5231176 0.54514855 -0.23096934 -0.20679885
0.32802063 -0.81235766 -0.13942721 0.4323081 0.31682226 -0.09810887 0.093932986 -0.20810291
-0.53724015 -0.35571435 0.108715355 0.18883306 0.67454004 0.2797133 -0.34241277 0.4684754
-0.08034825 -0.507823 0.48259446 -0.31256768 0.56023693 -0.22514501 -0.69428074 0.5993059
-0.2973287 0.087964825 -0.08546418 0.18271685 -0.12405858 -0.71632314 0.042556852 0.51598537
-0.60676455 0.38275486 0.43395206 0.34424013 0.10721757 -0.62881523 0.6475202 0.7089667
-0.7488684 0.56825614 -0.7205049 0.62619156 0.29467618 0.0049630674 -0.7374459 0.4138789
-0.516295 -0.053782508 -0.6784822 0.13950732 -0.31562838 0.57666785 0.39995515 -0.35647
0.41232452 -0.24186279 0.58784395 -0.4190194 -0.40969566 -0.14340107 0.4831336 0.100047484
-0.46282482 -0.59179205 -0.6834788 -0.4669601 -0.37767678 -0.255233 0.45651013 -0.44701797
0.40046647 -0.5640283 0.17464182 -0.88735145 -0.13704646 -0.5145897 0.48364675 -0.17138731
0.5838713 -0.18254419 0.19258294 -0.6587319 0.69680005 -0.15933031 0.14426781 0.12964274
0.4514838 -0.59965515 -0.7242162 0.009673825 -0.4982625 -0.45803297 -0.520576 -0.118004456
0.50565326 -0.22567701 0.46475223 0.34603682 -0.475706 -0.51591164 0.60442185 0.11368348
-0.27504894 0.10878356 -0.084061444 0.08773416 0.7739503 0.31527364 0.59751123 -0.47099495
-0.3317558 0.17168754 0.5681128 0.1150846 -0.28678235 -0.46243262 -0.11806588 -0.63641393
0.36793658 0.019142792 -0.30997792 -0.32844877 0.5435558 0.4348519 -0.3252722 0.09869914
0.32264853 -0.2799815 -0.04774177 0.6171183 -0.48459294 0.3722689 0.518787 -0.25365928
-0.77146286 0.4701576 0.0052383193 -0.28632715 0.027732713 0.4146497 -0.5222107 0.5517369
00000000: 4fab 42be e494 ff3e 8f70 9a3e 8ce6 143f
00000010: 941e 4bbe 4069 94bc 2b00 1bbf 1eed d63e
00000020: 2ebd 22bf 537d 2d3e 60b0 323e 0600 8a3e
00000030: c8bb 49be a0a6 ffbd 0a7f 3abf bf4b 6dbe
00000040: f57b e5be f652 133f 2dfa 503e 773d 1ebf
00000050: 2cca cdbd bcb7 0bbf deab 113d b3e7 33bf
00000060: 21aa 163f f50b 1d3f cc64 823e 5088 89bd
00000070: e45d 70be 94c5 2abe a9f8 c03e 28c5 dfbc
00000080: baf1 003f ffc5 0abf 2a0b 123e 6386 f7be
00000090: 54ac 0fbe 2b82 853e 10a7 b6bd 6875 703e
000000a0: f5b4 d3be dd9a d0be ce15 823e 49d0 fcbe
000000b0: 55e5 f23e 71ef 253e b572 40be 218e 40be
000000c0: 8178 bb3e c937 283f ffc6 2f3f 3213 f23d
000000d0: 74e4 0b3e d06e dabd 83c1 243f dbbb ad3d
000000e0: 225a 27bf 7627 2ebf fe7a d9be 96bc 9e3e
000000f0: f216 f23e 4c4a a4be da57 f83e ae75 953e
00000100: da52 273f 3a16 b4be d63f b63d 7bcd 353e
00000110: 93d0 27be 789f 243e 7d9f 0fbf c551 c93e
00000120: 61de b7bd 54ff 5ebf 8512 3cbe 80ba ac3e
00000130: 10d8 eabe 77fd a13e 4d52 543e 5b34 c4be
00000140: 0a93 b83e d519 bc3e e1ce cd3e 6f96 7abf
00000150: c2d2 83be 91ff 45be 6fe5 b53e 2b58 21bf
00000160: fe49 2b3f 8382 ea3b 203b e6be 6f2b 53be
00000170: 2b93 dd3d f9a0 38be f563 233f e269 343e
00000180: b860 74be d3e2 1cbf 6cec 31bf 99d9 efbe
00000190: 9e91 36be e790 7c3e e87b c93e c659 143f
000001a0: 5cc6 263f 1f4f 30bf 9702 763e bb04 583e
000001b0: 09eb 05bf db8e 0b3f 3a83 6cbe 14c3 53be
000001c0: 52f2 a73e acf6 4fbf 02c6 0ebe 7d57 dd3e
000001d0: 8736 a23e 4eed c8bd f05f c03d ee18 55be
000001e0: 9288 09bf 3120 b6be 28a6 de3d 745d 413e
000001f0: a8ae 2c3f 9536 8f3e ba50 afbe 02dc ef3e
00000200: a08d a4bd b000 02bf 9f16 f73e df08 a0be
00000210: b06b 0f3f 6a8c 66be 62bc 31bf 1d6c 193f
00000220: 783b 98be e726 b43d d807 afbd 201a 3b3e
00000230: 6d12 febd f460 37bf 1850 2e3d 9e17 043f
00000240: ec54 1bbf 72f8 c33e f72e de3e 3e40 b03e
00000250: e394 db3d 09fa 20bf e2c3 253f d77e 353f
00000260: d7b5 3fbf 3c79 113f 0273 38bf 174e 203f
00000270: ccdf 963e 3aa1 a23b 41c9 3cbf efe7 d33e
00000280: e92b 04bf 0c4b 5cbd 02b1 2dbf 02db 0e3e
00000290: 0b9a a1be 81a0 133f ecc6 cc3e 3c83 b6be
000002a0: 331c d33e e1aa 77be f17c 163f b689 d6be
000002b0: a1c3 d1be bbd7 12be 4a5d f73e b2e5 cc3d
000002c0: 60f7 ecbe af7f 17bf 77f8 2ebf 6515 efbe
000002d0: da5e c1be e6ad 82be b2bb e93e 8adf e4be
000002e0: f109 cd3e 2964 10bf 4ed5 323e 7729 63bf
000002f0: e855 0cbe 27bc 03bf 8ca0 f73e 2880 2fbe
00000300: 9778 153f ddec 3abe 7634 453e a7a2 28bf
00000310: 7d61 323f 7c27 23be f1ba 133e 11c1 043e
00000320: e228 e73e 0083 19bf 3c66 39bf f77e 1e3c
00000330: 431c ffbe 4c83 eabe 7844 05bf 52ac f1bd
00000340: 7e72 013f e017 67be 01f4 ed3e bd2b b13e
00000350: bd8f f3be c912 04bf 64bb 1a3f e2d2 e83d
00000360: 37d3 8cbe eac9 de3d 6828 acbd f8ad b33d
00000370: 9b21 463f 8c6b a13e 7ff6 183f 4026 f1be
00000380: e5db a9be dcce 2f3e d76f 113f 7ab1 eb3d
00000390: 23d5 92be f8c3 ecbe 86cc f1bd 06ec 22bf
000003a0: 2f62 bc3e 58d1 9c3c 6db5 9ebe 702a a8be
000003b0: 7926 0b3f e9a4 de3e 148a a6be c622 ca3d
000003c0: 3032 a53e bc59 8fbe e08c 43bd 77fb 1d3f
000003d0: 911c f8be 079a be3e 3acf 043f a1df 81be
000003e0: 977e 45bf 7fb8 f03e 35a6 ab3b 7999 92be
000003f0: b72f e33c f74c d43e 9aaf 05bf a13e 0d3f

l1.bias f4 [256]
0.35510033 -0.001598554 -0.3518006 0.48991525 -0.36811656 0.41268602 -0.3853333 -0.20261729
0.5052391 0.5010251 0.42549628 -0.5866696 -0.6809061 -0.64048034 -0.43338484 0.17758378
0.56593865 0.69239086 0.5593688 -0.4899369 0.035890352 0.51024103 -0.49432543 0.1969368
0.46878013 0.19956776 -0.3495711 0.23420677 0.07004677 0.014121177 0.6049911 -0.52380186
0.04978214 0.25438425 0.5164001 0.63771355 0.05877587 0.13774106 0.32831022 0.34155306
-0.17009705 -0.38484558 0.2646652 0.68242145 0.49501908 0.64993304 0.64417297 -0.6687776
-0.39803138 -0.057007283 -0.10469582 0.105862044 -0.21249647 0.612764 -0.15468153 0.006296725
-0.26533064 0.43715948 -0.019364849 0.42943707 -0.18338655 -0.68133086 -0.6971713 0.060928497
-0.50833744 0.6204273 0.2771076 -0.6358557 0.0013752203 -0.5378773 -0.22268537 0.5044571
-0.4180108 -0.46735358 0.3286844 -0.105024226 -0.15200523 0.0724807 0.12558864 -0.06305937
0.548335 0.03012802 -0.2665695 0.38376355 0.18086512 -0.37174115 -0.11574364 0.4362359
0.43214345 -0.059562515 0.39016563 -0.38583004 -0.2453534 -0.15496181 -0.5871181 -0.38154352
-0.40230015 0.038180236 0.49052918 0.58922297 0.44330218 -0.3214847 0.52371347 -0.17268392
-0.5704656 -0.50081897 -0.13969982 0.5652673 -0.010619943 -0.22532532 -0.31799865 -0.43585157
-0.65746975 -0.60079294 0.25392506 0.595149 0.5871168 -0.43656498 -0.3392074 0.0039748377
0.083594605 -0.16093844 -0.36690927 0.031320505 -0.124029614 0.23485473 -0.21535973 -0.19990744
-0.14965215 0.5074159 -0.5367583 0.32910556 0.38961697 0.33177724 -0.017119912 -0.15487501
-0.0652355 0.2521933 0.1654209 -0.06384934 0.052295756 -0.55707645 -0.5818153 -0.6783642
0.039401222 -0.30161297 -0.3548704 -0.5765652 -0.65997225 0.7417425 -0.34765175 0.46108037
0.33788574 0.37565467 0.31045654 0.5498604 0.27711782 -0.105870716 -0.28859532 -0.21424115
0.16950196 -0.038628157 0.032420073 -0.30460373 0.02691503 0.7028761 0.1938379 0.63641274
-0.23384047 0.47496608 0.18421564 -0.12531665 0.6531689 -0.0146096125 -0.6192625 0.32018152
-0.375903 0.6593479 0.58917254 0.58800673 0.08602442 0.4396097 -0.48217466 -0.120993994
-0.03952023 -0.52284 -0.5038501 -0.3422732 -0.16101289 0.15624069 -0.5232174 0.029549738
0.6944595 -0.50265485 0.003044496 0.39491606 0.59805 -0.19933422 0.6546282 0.0031071438
-0.30327237 -0.7421061 0.52734345 0.67523867 0.61769533 -0.2784553 0.6538045 0.1766685
0.4926249 -0.22288255 0.5444779 -0.052927684 -0.3487443 -0.106069215 -0.38380322 -0.3426654
-0.18927057 -0.37236017 -0.33877307 -0.40292603 0.37273628 0.25445122 0.0894817 -0.30539984
0.49569005 -0.35690165 0.55443645 0.71718365 -0.68874454 -0.030231727 0.5022674 0.62168384
0.30508074 -0.1158768 -0.69974303 -0.21908362 0.4120061 0.08241365 0.5795425 0.47595975
-0.42253464 0.3186401 0.36396727 -0.59295076 0.5542481 -0.28615317 -0.08195559 0.08126226
-0.55960524 -0.20174903 -0.3760464 0.20570733 -0.32234618 0.11191508 0.26365012 -0.02656249
00000000: b6cf b53e 9286 d1ba 351f b4be 2cd6 fa3e
00000010: c679 bcbe 954b d33e 684a c5be e87a 4fbe
00000020: 5a57 013f 2e43 003f a6da d93e fb2f 16bf
00000030: dd4f 2ebf 85f6 23bf 9ee4 ddbe 86d8 353e
00000040: 5be1 103f 8740 313f cb32 0f3f 02d9 fabe
00000050: c301 133d 289f 023f 3918 fdbe cda9 493e
00000060: f303 f03e 7e5b 4c3e fcfa b2be e6d3 6f3e
00000070: ae74 8f3d 825c 673c b2e0 1a3f e117 06bf
00000080: 5be8 4b3d a73e 823e cc32 043f 3241 233f
00000090: f7be 703d fe0b 0d3e 4718 a83e 0be0 ae3e
000000a0: ec2d 2ebe 7b0a c5be 3282 873e 2cb3 2e3f
000000b0: 2473 fd3e 0362 263f 85e8 243f 0235 2bbf
000000c0: c5ca cbbe 7880 69bd c36a d6bd 33ce d83d
000000d0: ad98 59be 1ade 1c3f d664 1ebe c254 ce3b
000000e0: 6bd9 87be 5ed3 df3e 08a3 9ebc 2ddf db3e
000000f0: afc9 3bbe b36b 2ebf d179 32bf 2990 793d
00000100: 6722 02bf 53d4 1e3f 0ce1 8d3e 70c7 22bf
00000110: bc40 b43a 54b2 09bf a207 64be 1a24 013f
00000120: 8305 d6be f848 efbe 5249 a83e f116 d7bd
00000130: 42a7 1bbe c370 943d 4f9a 003e 4525 81bd
00000140: af5f 0c3f 0acf f63c cc7b 88be a87c c43e
00000150: b534 393e db54 bebe 000b edbd 505a df3e
00000160: e841 dd3e d3f7 73bd cac3 c73e 848b c5be
00000170: ec3d 7bbe 4fae 1ebe 5f4d 16bf ac59 c3be
00000180: 49fa cdbe e162 1c3d a426 fb3e 51d7 163f
00000190: 81f8 e23e a599 a4be 1612 063f 0ed4 30be
000001a0: 090a 12bf ac35 00bf 780d 0fbe 5cb5 103f
000001b0: 45ff 2dbc aebb 66be b8d0 a2be f027 dfbe
000001c0: f04f 28bf 91cd 19bf 7702 823e af5b 183f
000001d0: 494d 163f 7285 dfbe 98ac adbe 5b3f 823b
000001e0: a633 ab3d 0ccd 24be 88db bbbe ee49 003d
000001f0: 3d03 febd c27d 703e 4387 5cbe 89b4 4cbe
00000200: 6a3e 19be 02e6 013f fe68 09bf 8680 a83e
00000210: e07b c73e b5de a93e 0f3f 8cbc 8e97 1ebe
00000220: 319a 85bd 7b1f 813e 1964 293e 71c3 82bd
00000230: 1334 563d 909c 0ebf d9f1 14bf 47a9 2dbf
00000240: 2d63 213d 046d 9abe 93b1 b5be c799 13bf
00000250: f1f3 28bf d6e2 3d3f 69ff b1be ba12 ec3e
00000260: 5cff ac3e cf55 c03e 29f4 9e3e a7c3 0c3f
00000270: 63e2 8d3e bfd2 d8bd c4c2 93be 0862 5bbe
00000280: ec91 2d3e 8f38 1ebd e9ca 043d 05f5 9bbe
00000290: e97c dc3c b0ef 333f 717d 463e f2eb 223f
000002a0: e073 6fbe c12e f33e 06a3 3c3e 0253 00be
000002b0: 1436 273f 285d 6fbc fd87 1ebf d5ee a33e
000002c0: 5c76 c0be 06cb 283f 03d4 163f 9c87 163f
000002d0: 922d b03d 8614 e13e 99df f6be b3cb f7bd
000002e0: f7df 21bd d8d8 05bf 52fc 00bf 6f3e afbe
000002f0: 90e0 24be 8ffd 1f3e 93f1 05bf 4b12 f23c
00000300: 19c8 313f fdad 00bf 2b86 473b 7032 ca3e
00000310: ce19 193f 451e 4cbe b795 273f 39a1 4b3b
00000320: 8446 9bbe aafa 3dbf fbff 063f 71dc 2c3f
00000330: 4821 1e3f b191 8ebe bb5f 273f 96e8 343e
00000340: 5539 fc3e 533b 64be e762 0b3f b3ca 58bd
00000350: 9d8e b2be d13a d9bd db81 c4be d771 afbe
00000360: 25d0 41be fea5 bebe aa73 adbe 524c cebe
00000370: 4ad7 be3e 6e47 823e 2e42 b73d 5e5d 9cbe
00000380: 16cb fd3e d0bb b6be 8cef 0d3f 5999 373f
00000390: 9051 30bf 87a8 f7bc 9994 003f ac26 1f3f
000003a0: 8b33 9c3e d150 edbd 5c22 33bf 7557 60be
000003b0: 77f2 d23e 7dc8 a83d e65c 143f ffb0 f33e
000003c0: 7656 d8be cc24 a33e eb59 ba3e 9fcb 17bf
000003d0: 34e3 0d3f ab82 92be 55d8 a7bd d46c a63d
000003e0: 4a42 0fbf 4c97 4ebe 2789 c0be f1a4 523e
000003f0: 8f0a a5be bc33 e53d 26fd 863e 9499 d9bc

lf.weight f4 [2, 256]
-0.078658625 0.036882553 -0.051474098 0.11712995 0.15552518 -0.16873339 -0.12079339 -0.09549679
-0.04317554 0.0158588 0.11341557 0.06054002 -0.08415462 -0.08085765 -0.17175291 -0.03376604
-0.012529068 0.015110828 0.116140194 0.02913317 0.1206736 0.11312787 -0.11536001 0.14331964
-0.087688036 -0.05364252 0.11481505 -0.07689904 -0.13354903 0.06469827 0.010473471 0.043687817
0.058453847 0.055087395 0.14277872 -0.1398616 -0.07375973 0.03273748 0.056133993 -0.05727676
-0.10373589 -0.057981744 -0.024207486 -0.02820044 0.00037365893 0.09902048 -0.06033384 0.025159871
0.14173906 0.018015802 -0.10291171 -0.051004786 0.08424368 0.037479274 0.07458047 0.045289025
-0.038357206 -0.09079973 -0.07000884 0.10798426 -0.17944714 -0.06801424 -0.035060596 -0.08691132
-0.10773867 -0.034191933 0.020664997 0.07391947 0.09293835 -0.056158498 -0.012723253 0.017481968
-0.018155903 -0.04011702 -0.13817091 0.12443927 0.114634424 -0.040330745 0.11634729 -0.06024751
-0.0037345386 0.07638325 -0.034268714 0.09038747 -0.12496192 0.14557828 0.055344824 -0.02552375
-0.06876208 0.005447586 -0.048915677 0.12287637 0.14291315 0.09559446 0.043637335 0.115480736
0.0452282 0.09275519 -0.028728448 0.0728245 -0.026861802 -0.030570654 0.12297248 0.08385949
-0.026823288 0.03934575 -0.03953428 0.13076532 0.002077162 -0.035066795 0.089112304 0.06664681
0.097779624 -0.06754652 0.008889585 0.0942049 -0.09990127 -0.11841118 -0.079912804 0.060774557
0.09317058 -0.041426882 0.11298288 0.039453346 -0.09512133 0.025311364 0.07860497 0.07795065
0.13950521 -0.035869498 0.13184647 -0.029027168 -0.04536715 -0.065840706 0.031983703 0.1078558
0.11206722 0.1074842 0.061240353 -0.044558138 0.09117558 0.06506881 -0.019467255 0.08540969
0.027969508 -0.078467235 -0.09375255 0.14910753 0.01921503 -0.101509884 0.10309621 -0.07238568
0.08173673 -0.036413025 -0.055323623 0.029559549 -0.060138565 0.014246461 0.11890297 -0.022034371
0.1331549 -0.10330456 -0.022426069 -0.04438623 -0.11762886 -0.10531269 -0.038559552 0.122531325
0.11176092 0.019315138 -0.04855685 0.055824615 -0.004065869 0.12968826 -0.035894632 -0.051451556
-0.07497433 -0.032633908 0.027455792 0.09378876 0.04966999 0.040007323 -0.08865838 -0.12573959
-0.051633097 0.028225025 -0.122678034 0.11211943 -0.13823271 -0.089382924 0.11441416 0.046157293
0.048719093 0.048179377 -0.15485105 0.13023864 0.12935297 0.091366 -0.07710579 -0.04066874
0.16739932 -0.08523479 -0.117426865 0.024596788 0.09751571 0.036873657 0.058137536 -0.13068159
-0.13072418 -0.04615769 0.073294826 0.011430673 -0.11983336 0.096016504 0.061879206 -0.0114549175
-0.13840762 -0.14493768 0.042080536 0.17312835 -0.05677971 -0.044701174 -0.08509728 0.09401259
0.09768273 -0.069820866 -0.016453367 -0.13783392 0.057546966 -0.117518425 0.014414109 -0.108963676
0.120955594 0.049232595 -0.14811479 0.11003433 0.07508991 -0.107754216 -0.039103396 0.04378222
0.02152785 -0.119190894 0.10390785 0.06536862 0.12068037 -0.048957344 -0.090954944 0.12667856
0.04162977 0.14432763 -0.036522638 0.020401336 0.02175983 -0.10582991 -0.05207399 0.027871177
00000000: c617 a1bd 2912 173d 81d6 52bd d4e1 ef3d
00000010: fe41 1f3e 72c8 2cbe 8662 f7bd d293 c3bd
00000020: d6d8 30bd 50ea 813c 6c46 e83d d0f8 773d
00000030: 4259 acbd b298 a5bd ffdf 2fbe 424e 0abd
00000040: b846 4dbc 6893 773c e9da ed3d b0a8 ee3c
00000050: b823 f73d 96af e73d de41 ecbd 62c2 123e
00000060: c995 b3bd 42b8 5bbd 2724 eb3d 3e7d 9dbd
00000070: 14c1 08be 8780 843d ec98 2b3c fff1 323d
00000080: 4d6d 6f3d 52a3 613d 9634 123e e137 0fbe
00000090: 570f 97bd bc17 063d c2ec 653d 099b 6abd
000000a0: 7b73 d4bd 447e 6dbd c74e c6bc 9c04 e7bc
000000b0: a7e7 c339 40cb ca3d 9e20 77bd 131c ce3c
000000c0: 0b24 113e e095 933c 60c3 d2bd 65ea 50bd
000000d0: f387 ac3d de83 193d a5bd 983d fc80 393d
000000e0: 721c 1dbd 35f5 b9bd cb60 8fbd da26 dd3d
000000f0: fec0 37be 0d4b 8bbd b39b 0fbd 90fe b1bd
00000100: 18a6 dcbd d70c 0cbd a449 a93c 1763 973d
00000110: 7656 be3d 7406 66bd 3175 50bc 5836 8f3c
00000120: b0bb 94bc bf51 24bd ad7c 0dbe 04da fe3d
00000130: 74c5 ea3d da31 25bd 7d47 ee3d 18c6 76bd
00000140: 29bf 74bb d26e 9c3d 5a5d 0cbd 111d b93d
00000150: 09ec ffbd 7912 153e 41b1 623d 2f17 d1bc
00000160: 22d3 8cbd aa81 b23b ce5b 48bd 9ba6 fb3d
00000170: d357 123e 07c7 c33d 10bd 323d 2a81 ec3d
00000180: 3441 393d 6ff6 bd3d ec57 ebbc 0325 953d
00000190: 480d dcbc 4f6f fabc ffd8 fb3d 86be ab3d
000001a0: 83bc dbbc 0229 213d b2ee 21bd 58e7 053e
000001b0: ff20 083b 33a2 0fbd 8380 b63d 1f7e 883d
000001c0: af40 c83d d455 8abd 9fa5 113c 80ee c03d
000001d0: 0999 ccbd 9081 f2bd 53a9 a3bd beee 783d
000001e0: 38d0 be3d 3caf 29bd 9163 e73d d599 213d
000001f0: f9ce c2bd c759 cf3c a4fb a03d 97a4 9f3d
00000200: 74da 0e3e e5eb 12bd c302 073e 62ca edbc
00000210: e8d2 39bd 7ed7 86bd 5801 033d 80e3 dc3d
00000220: 8083 e53d ad20 dc3d 2ad7 7a3d 9882 36bd
00000230: 43ba ba3d cc42 853d cb79 9fbc 47eb ae3d
00000240: 4f20 e53c 6eb3 a0bd 5601 c0bd a5af 183e
00000250: d768 9d3c 6ae4 cfbd 1b24 d33d f23e 94bd
00000260: 9665 a73d d325 15bd 069b 62bd de26 f23c
00000270: db53 76bd fd69 693c 6683 f33d 6d81 b4bc
00000280: c259 083e 5791 d3bd e0b6 b7bc 56ce 35bd
00000290: 66e7 f0bd 2eae d7bd 9ff0 1dbd b4f1 fa3d
000002a0: e9e2 e43d c83a 9e3c 8ce3 46bd 5aa8 643d
000002b0: fb3a 85bb 00cd 043e 4006 13bd debe 52bd
000002c0: 248c 99bd 22ab 05bd f8ea e03c 5214 c03d
000002d0: c272 4b3d b8de 233d 8692 b5bd e1c1 00be
000002e0: 3a7d 53bd 2b38 e73c 9f3e fbbd df9e e53d
000002f0: e08c 0dbe 650e b7bd f951 ea3d 6e0f 3d3d
00000300: ac8d 473d bd57 453d 4691 1ebe 475d 053e
00000310: 1b75 043e 191e bb3d a4e9 9dbd 4494 26bd
00000320: ba6a 2b3e 948f aebd 7f7d f0bd 347f c93c
00000330: 51b6 c73d d508 173d a021 6e3d 65d1 05be
00000340: 8fdc 05be d90f 3dbd 991b 963d b847 3b3c
00000350: 316b f5bd 4da4 c43d 0d75 7d3d 68ad 3bbc
00000360: baba 0dbe 8b6a 14be a45c 2c3d 8f48 313e
00000370: d791 68bd 9418 37bd 7c47 aebd ac89 c03d
00000380: e20d c83d 3efe 8ebd 36c9 86bc 5624 0dbe
00000390: 5eb6 6b3d 80ad f0bd 2829 6c3c 5928 dfbd
000003a0: 91b7 f73d 1ea8 493d 67ab 17be ae59 e13d
000003b0: bdc8 993d 3eae dcbd e22a 20bd fc54 333d
000003c0: 2c5b b03c 5b1a f4bd a4cd d43d fcdf 853d
000003d0: 4527 f73d 7f87 48bd 9646 babd 06b8 013e
000003e0: fa83 2a3d 9fca 133e c398 15bd b420 a73c
000003f0: ac41 b23c 5abd d8bd 894b 55bd 1852 e43c

lf.bias f4 [2]
-0.04601358 0.04024169
00000000: bc78 3cbd 78d4 243d
