TOYDATA/Models/Halfmoons_a=0.05_e=0.0.pt (torch, 270487 bytes, 10 tensors)

lays.0.weight f4 [256, 2]
0	0x3ef0b5ba	0.47013646
1	0xbf4486d8	-0.76768255
2	0xbe4ce63e	-0.20009705
3	0xbf161e56	-0.5864004
4	0x3f02d115	0.51100284
5	0xbeb80d6d	-0.35947743
6	0xbd8b80e0	-0.0681169
7	0xbec1a1f1	-0.37818864
8	0x3eb95f6e	0.3620562
9	0xbd6962ba	-0.05697892
10	0xbc22b900	-0.009931803
11	0x3d979af8	0.07402605
12	0x3ebabbe8	0.36471486
13	0x3e7ba150	0.24573255
14	0xbe7396c0	-0.23787975
15	0xbed31cf7	-0.41233036
16	0xbe7c8677	-0.2466067
17	0x3ea48718	0.32134318
18	0x3e238c26	0.15971431
19	0x3ba69fb4	0.005084956
20	0xbe0834c1	-0.13301374
21	0x3f0b9281	0.5452042
22	0x3cfcf657	0.030879183
23	0xbf6e512c	-0.9309261
24	0xbed3fd73	-0.41404304
25	0xbe730390	-0.23731828
26	0x3f3ec0ed	0.7451313
27	0x3e685e4c	0.22692221
28	0xbefaa4db	-0.489539
29	0xbd8f06d7	-0.069837265
30	0xbf448842	-0.7677041
31	0xbbe08eaa	-0.0068529444
32	0xbde0d728	-0.10978538
33	0xbd26f1b0	-0.040757835
34	0x3f31253c	0.6919744
35	0xbf06b5d5	-0.52621204
36	0xbe4fcfa8	-0.20294058
37	0xbf2b11db	-0.6682412
38	0xbf276d7d	-0.6540144
39	0x3edad6df	0.4274206
40	0x3d9d931d	0.07694075
41	0x3e63797c	0.22214311
42	0xbe1e0cc4	-0.15434557
43	0xbca13940	-0.01968062
44	0x3eac1145	0.33606926
45	0xbeca070e	-0.39458507
46	0xbf1956e3	-0.59898204
47	0x3f0e8741	0.5567513
48	0xbf4315d8	-0.76205206
49	0x3f16bf5f	0.5888576
50	0xbf30e74c	-0.6910293
51	0x3f0a9b4d	0.5414322
52	0xbf1eaee2	-0.619856
53	0xbe9df682	-0.30852133
54	0x3f370929	0.7149835
55	0x3f2a0eb8	0.6642871
56	0xbd7ed185	-0.062211532
57	0x3e1840dd	0.14868493
58	0x3f3d355e	0.73909557
59	0xbeadd050	-0.33947992
60	0x3eb22f55	0.34801736
61	0x3f190fb3	0.5978958
62	0xbe4ab096	-0.19793925
63	0x3f0ab96c	0.5418918
64	0xbf43da66	-0.76505125
65	0x3ed81b18	0.4220817
66	0xbee991db	-0.4561909
67	0x3ebdb923	0.3705531
68	0x3df42c31	0.11922491
69	0xbe679022	-0.22613576
70	0x3cc0e203	0.02354527
71	0x3db27b3a	0.0871491
72	0xbe093cf8	-0.13402164
73	0xbe703e0c	-0.23461169
74	0x3f034854	0.5128224
75	0x3eea6222	0.45777994
76	0x3e61aeab	0.22039287
77	0xbf3de656	-0.7417959
78	0x3ee095cf	0.43864295
79	0xbf26f22e	-0.65213287
80	0xbec96ce1	-0.3934088
81	0x3e876e20	0.26451206
82	0x3e482e13	0.19548826
83	0xbdb36abd	-0.08760593
84	0xbef2d1d8	-0.47425723
85	0xbd8f50b2	-0.06997813
86	0xbf06dc30	-0.5267973
87	0x3e8cb302	0.27480322
88	0xbf33e770	-0.7027502
89	0xbf13a9d7	-0.5768103
90	0xbddb1b28	-0.10698539
91	0xbeb6097c	-0.3555411
92	0x3f11c22d	0.56936914
93	0x3f2a69c0	0.6656761
94	0xbe6a84de	-0.22902247
95	0x3ee3ca3e	0.44490236
96	0xbeb12e8a	-0.3460582
97	0x3eb36073	0.35034522
98	0x3eac0456	0.33597058
99	0xbf23220d	-0.6372383
100	0x3ec3bdb8	0.3823068
101	0xbe5110c7	-0.20416556
102	0xbf35ff06	-0.7109226
103	0xbeb2ef48	-0.34948182
104	0x3eeede1c	0.4665383
105	0xbf0ff630	-0.5623503
106	0x3f29e3d4	0.66363263
107	0x3e997eeb	0.29979643
108	0xbe6eb232	-0.23310164
109	0x3f0cbb3d	0.549732
110	0xbe27d307	-0.16389094
111	0xbe18a748	-0.14907563
112	0x3f30d967	0.6908173
113	0xbf047d83	-0.51754016
114	0x3d7e2a4b	0.062052052
115	0x3e5a8f8e	0.21343824
116	0xbebebb67	-0.37252352
117	0x3e6f772f	0.23385309
118	0xbe09b3f0	-0.13447547
119	0x3f118ad5	0.56852466
120	0xbf1aba36	-0.60440385
121	0xbf08b69d	-0.53403646
122	0x3da58995	0.08082882
123	0x3efe8d4c	0.49717176
124	0xbf1d405c	-0.6142633
125	0xbb9679d1	-0.0045921584
126	0xbd6e3377	-0.05815455
127	0x3eff2126	0.49829978
128	0x3f209134	0.6272156
129	0xbe5aa228	-0.2135092
130	0x3f1b323c	0.60623527
131	0x3f23c67d	0.63974744
132	0xbe1fb1b4	-0.15595132
133	0xbec463ec	-0.38357484
134	0xbf07f74d	-0.53111726
135	0xbe90bf53	-0.2827097
136	0xbe1d1cdc	-0.1534304
137	0xbb93a1d8	-0.0045053773
138	0xbf160d3a	-0.5861393
139	0xbe9fe565	-0.31229702
140	0x3ea10f70	0.3145709
141	0x3eab4eb7	0.33458492
142	0xbf15f3b2	-0.58574975
143	0xbe2b7676	-0.16744408
144	0x3cdf7577	0.027277691
145	0xbf340144	-0.7031443
146	0xbea6cb5a	-0.3257702
147	0xbda0517b	-0.07828041
148	0x3f216f7b	0.6306073
149	0x3f170617	0.5899367
150	0x3de93e87	0.11388879
151	0x3f30ff2e	0.69139373
152	0xbf3473cb	-0.70489186
153	0x3f1bed3e	0.6090888
154	0xbf37bc10	-0.71771336
155	0x3e92ef35	0.28698125
156	0xbf12a2ad	-0.57279474
157	0x3eb93573	0.3617359
158	0xbf302388	-0.68804216
159	0xbf160a40	-0.5860939
160	0x3e8b1e5b	0.27171597
161	0x3d9ab3f5	0.07553855
162	0x3f137c8e	0.5761193
163	0xbe4b0729	-0.1982695
164	0x3f1ca807	0.6119389
165	0xbf268512	-0.650468
166	0xbd116810	-0.035499632
167	0xbdb8c230	-0.09021413
168	0x3f24ae16	0.64328134
169	0xbf2d1be2	-0.6762067
170	0xbe215397	-0.15754543
171	0xbf6cb96d	-0.9247044
172	0xbe0e077f	-0.13870047
173	0x3f03cff5	0.5148919
174	0x3f034d72	0.5129005
175	0xbeda0f5c	-0.42589843
176	0x3ecfe048	0.406008
177	0x3f3f5634	0.7474091
178	0x3ed300a3	0.41211423
179	0x3db0c8f4	0.08632079
180	0xbf17e17e	-0.5932845
181	0xbf2b7e77	-0.66989845
182	0xbf0c0b36	-0.54704607
183	0xbe91a0f1	-0.284431
184	0x3ef35643	0.4752675
185	0x3e317176	0.17328438
186	0x3f2847ab	0.65734357
187	0x3e56b654	0.2096799
188	0xbdbb86fa	-0.09156604
189	0x3ebabfd6	0.36474484
190	0xbf2b3a5a	-0.6688591
191	0x3ec58634	0.3857895
192	0x3e83be78	0.25731254
193	0xbf04c5ba	-0.51864207
194	0x3ed687e7	0.4190056
195	0x3d0e4f9b	0.034743886
196	0xbf11ab9b	-0.56902474
197	0xbf194cef	-0.59883016
198	0xbf110e58	-0.5666251
199	0xbbb720ba	-0.005588618
200	0x3effc96a	0.49958354
201	0x3f2ad353	0.66728705
202	0x3e74ae7c	0.23894686
203	0x3db551e8	0.08853513
204	0xbeab18e5	-0.3341743
205	0x3ea7bf2d	0.32763043
206	0x3aedb4cb	0.0018135546
207	0xbf16ad89	-0.58858544
208	0x3d875d00	0.06609535
209	0xbe0f12e4	-0.1397205
210	0xbcfd9d00	-0.030958652
211	0xbe1f6614	-0.15566283
212	0xbe0683ba	-0.13136187
213	0xbf664612	-0.8995067
214	0xbdfed0c1	-0.124421604
215	0x3e86d3a6	0.2633335
216	0x3eb5b3f0	0.35488844
217	0xbea4fa11	-0.32222036
218	0xbf0ebecd	-0.5575989
219	0xbebb7bad	-0.36617795
220	0xbf0f14dd	-0.5589121
221	0x3f22faf0	0.6366415
222	0xbf3a82d7	-0.72855896
223	0xbf3e3ba8	-0.7430978
224	0xbf0aee7c	-0.5427015
225	0x3f1550d8	0.5832648
226	0x3f361f55	0.7114156
227	0x3da210e9	0.079133816
228	0xbcb8e9d1	-0.02257243
229	0xbdb7a9f3	-0.08967962
230	0x3ecb99ce	0.3976578
231	0x3f189b15	0.59611636
232	0xbd9ec7ca	-0.077529505
233	0x3e36d706	0.17855462
234	0x3f2e8b4b	0.68181294
235	0x3f133ef7	0.5751795
236	0x3f2745fd	0.6534117
237	0xbf16db27	-0.5892815
238	0xbee0bf3f	-0.4389591
239	0xbf1b0d11	-0.6056681
240	0x3dd79236	0.105259344
241	0xbf066c3a	-0.5250889
242	0xbec9fe22	-0.394517
243	0x3eff3069	0.49841622
244	0xbf2b9ae6	-0.6703323
245	0xbf21d9ec	-0.6322315
246	0xbdee94f8	-0.11649507
247	0xbee50d95	-0.44736925
248	0xbf354abb	-0.70817155
249	0xbf062795	-0.5240415
250	0xbde0b4a7	-0.10971957
251	0x3f0288a5	0.50989753
252	0xbe81cd3a	-0.25351888
253	0xbd4ce534	-0.050023273
254	0x3f17a98b	0.5924308
255	0xbe954465	-0.29153743

lays.0.bias f4 [256]
0	0xbf06511a	-0.524675
1	0x3f083112	0.53199875
2	0xbed2d731	-0.41179803
3	0xbe8b5f48	-0.2722113
4	0xbec23c00	-0.379364
5	0xbe8dd466	-0.2770111
6	0x3e1d567c	0.15365022
7	0xbf1ee9ec	-0.62075686
8	0x3ec0b532	0.3763824
9	0x3e8cb9d8	0.27485538
10	0x3dee2459	0.116280265
11	0xbd3e6ce7	-0.046490576
12	0xbf27d764	-0.65563035
13	0x3eed4ee6	0.46349257
14	0xbdce9f82	-0.100890175
15	0x3e0bc342	0.13648704
16	0xbe707244	-0.23481089
17	0x3dcb2138	0.09918445
18	0xbf064f10	-0.5246439
19	0x3ef863bb	0.48513588
20	0x3f2f5f01	0.6850434
21	0xbf2f98d6	-0.68592584
22	0xbe6a52fc	-0.22883219
23	0x3e1642d4	0.1467393
24	0xbe252070	-0.16125655
25	0x3cf2d74f	0.029643683
26	0x3df4a920	0.119463205
27	0xbe718ae5	-0.2358814
28	0x3d759211	0.059953753
29	0xbf1be828	-0.6090112
30	0xbe134e77	-0.143854
31	0xbf03e59b	-0.51522225
32	0xbd9e9bfe	-0.07744597
33	0x3e070b20	0.13187838
34	0x3f1f60cc	0.62257075
35	0x3d6bbf42	0.057555445
36	0xbf159d81	-0.58443457
37	0xbf0c8655	-0.54892474
38	0xbe318348	-0.17335236
39	0x3f2726e4	0.6529372
40	0xbd991dfa	-0.07476421
41	0x3f1deadb	0.61686486
42	0xbcfbc15e	-0.030731853
43	0x3dbe47a9	0.09291012
44	0x3bf92093	0.00760276
45	0xbf2e16c1	-0.6800347
46	0x3e8310e3	0.2559882
47	0xbcb642fc	-0.022248738
48	0xbde0ba8f	-0.10973083
49	0x3e8351e5	0.25648418
50	0x3f234a60	0.6378536
51	0xbe0fd23e	-0.14045045
52	0x3f10e6e2	0.566023
53	0x3e558386	0.20850953
54	0xbe0714ba	-0.131915
55	0x3e2ab479	0.16670407
56	0xbf0725d9	-0.52792126
57	0x3e5c5392	0.21516255
58	0x3ef5d936	0.4801728
59	0x3dbe9cc2	0.09307243
60	0x3f1c1ef3	0.60984725
61	0x3c2f0d19	0.010684275
62	0xbe8b6109	-0.2722247
63	0x3e3ffd33	0.18748932
64	0x3f07c5ad	0.53036004
65	0x3ebefae7	0.37300798
66	0xbea283a7	-0.31741068
67	0x3f0f0eee	0.55882156
68	0x3ea8147d	0.3282813
69	0xbf09cd5a	-0.53828967
70	0x3ece296e	0.40265983
71	0x3f1cb291	0.6120997
72	0x3f20225a	0.62552416
73	0x3f220580	0.6328964
74	0xbf254580	-0.64559174
75	0xbedba82b	-0.4290174
76	0x3f0f870c	0.5606544
77	0xbef30f7a	-0.47472745
78	0xbee4817d	-0.44630042
79	0x3e8bc072	0.27295262
80	0x3efd49a6	0.49470252
81	0xbf0ccd53	-0.550008
82	0x3f02a6d3	0.51035804
83	0xbee45446	-0.44595546
84	0x3eeea8df	0.46613213
85	0x3df1b5df	0.11802267
86	0xbe696520	-0.22792482
87	0xbed98224	-0.42482102
88	0xbed3b65f	-0.41350076
89	0x3f0df9e7	0.55459446
90	0x3dc152e0	0.09439635
91	0xbf060ec5	-0.52366287
92	0xbefc4c0e	-0.49276775
93	0xbe95f166	-0.29285735
94	0xbe2e0f64	-0.16998059
95	0xbef54bb8	-0.4790933
96	0x3e32057f	0.17384909
97	0x3eb993c3	0.36245546
98	0x3f1add2f	0.6049375
99	0x3dd622d6	0.10455863
100	0x3ee34b26	0.4439327
101	0xbf2a194f	-0.6644487
102	0x3e776344	0.2415896
103	0x3e226d15	0.15861924
104	0xbea93ba3	-0.33053312
105	0xbedce49f	-0.43143174
106	0x3db8bee2	0.09020783
107	0x3e8ef40d	0.2792057
108	0xbe8c49f8	-0.27400184
109	0x3f11e29d	0.5698641
110	0x3f258f5d	0.6467188
111	0x3d9d16d9	0.076703735
112	0xbe59a669	-0.21254887
113	0xbcb0222b	-0.021500668
114	0x3ede2c8a	0.43393356
115	0x3d90370b	0.070417486
116	0x3ecaae41	0.3958607
117	0xbed7b5ea	-0.42130977
118	0xbf00c4c7	-0.5030026
119	0x3e0ece1f	0.13945816
120	0x3f0cb3c4	0.549618
121	0x3e84cf31	0.25939324
122	0x3d5c3c89	0.05376867
123	0xbe912523	-0.28348646
124	0xbf23330d	-0.6374977
125	0xbf320952	-0.6954547
126	0x3f24c387	0.6436085
127	0x3f24387c	0.6414869
128	0xbe15a6ba	-0.14614382
129	0xbea17cdd	-0.31540576
130	0x3effc376	0.49953812
131	0xbf24fd7d	-0.6444929
132	0x3f0e2bc5	0.55535537
133	0xbe9c470d	-0.30522957
134	0xbd3ca135	-0.046052177
135	0xbeab29e3	-0.33430395
136	0xbe256e49	-0.16155352
137	0x3f0c5edf	0.5483226
138	0xbf22196c	-0.6332004
139	0x3f348384	0.70513177
140	0x3ea68d1a	0.32529527
141	0x3e945e7b	0.28978333
142	0x3910e202	0.00013817105
143	0xbeabbc82	-0.33542258
144	0xbea26143	-0.3171483
145	0xbf2fdf74	-0.6870034
146	0xbf074b95	-0.52849704
147	0xbda2a361	-0.07941318
148	0x3e137765	0.14401014
149	0xbee8234c	-0.4533943
150	0x3e11419a	0.14185181
151	0xbee94953	-0.45563754
152	0xbf0b1299	-0.5432525
153	0xbdfb8e15	-0.12282959
154	0x3edd9d5d	0.4328412
155	0xbdf8bf21	-0.1214583
156	0x3f14009b	0.57813424
157	0x3f3ff1df	0.7497844
158	0x3ee97ee4	0.45604622
159	0x3f0341fc	0.5127256
160	0x3da029dd	0.07820485
161	0xbf339d12	-0.70161545
162	0xbea11bd2	-0.31466538
163	0xbdb970d2	-0.09054722
164	0x3c283342	0.010266127
165	0x3effbc79	0.4994848
166	0xbeb67487	-0.35635778
167	0x3eb4cb06	0.35311145
168	0x3ef05199	0.46937254
169	0x3e8b2a82	0.27180868
170	0x3f12f082	0.57398236
171	0x3ec067f9	0.37579325
172	0xbe588f0b	-0.21148317
173	0xbee287af	-0.44244143
174	0x3eb65d80	0.3561821
175	0x3f115188	0.5676503
176	0xbf03a8a2	-0.5142919
177	0x3ed1caa5	0.40974918
178	0x3e707618	0.23482549
179	0x3efc0da1	0.49229148
180	0xbefab47b	-0.4896582
181	0x3e20cd10	0.15703225
182	0x3eed9cff	0.4640884
183	0xbe8e2af7	-0.27767155
184	0x3bf6924a	0.0075247632
185	0x3ec09463	0.3761321
186	0xbe8725e9	-0.2639611
187	0xbd1aedc3	-0.037824403
188	0xbed5d107	-0.41761038
189	0xbe303f80	-0.17211723
190	0x3e659bbe	0.22422692
191	0xbef6461d	-0.48100367
192	0xbabadb47	-0.0014256024
193	0x3e5847ee	0.21121189
194	0xbf372f41	-0.7155648
195	0x3efa246b	0.4885591
196	0x3dab96a3	0.08378341
197	0x3ef7be13	0.48387203
198	0x3f0f225d	0.5591181
199	0x3d6228c1	0.055214647
200	0xbe2a4141	-0.16626455
201	0x3e9a9c04	0.30197155
202	0xbe1dffbb	-0.15429585
203	0xbe613735	-0.21993716
204	0x3eb002ff	0.34377286
205	0xbef71d50	-0.4826455
206	0xbdce7f4c	-0.10082874
207	0x3ee66012	0.4499517
208	0xbdfd4408	-0.123664916
209	0xbe4280b9	-0.18994416
210	0x3ec3167f	0.381031
211	0xbb8f21d3	-0.004368046
212	0xbd516deb	-0.051130217
213	0x3e661dab	0.22472255
214	0x3efd1b55	0.49434915
215	0xbeeb7871	-0.45990327
216	0xbee93a09	-0.4555209
217	0x3f096e16	0.536836
218	0xbebcc07f	-0.36865613
219	0xbf2d0954	-0.6759236
220	0xbd41f0ec	-0.0473489
221	0xbd0dcef6	-0.0346212
222	0x3f335f9a	0.7006775
223	0x3e63eca7	0.22258244
224	0x3e8389b2	0.2569099
225	0xbdf339a9	-0.11876232
226	0xbe91d328	-0.28481412
227	0x3f102617	0.5630812
228	0x3cd05c3c	0.025434606
229	0xbf26a60d	-0.65097123
230	0xbd37fd7d	-0.04491948
231	0xbf06aae6	-0.5260452
232	0xbeb10319	-0.34572676
233	0xbe9a5832	-0.30145413
234	0xbf3d1719	-0.7386337
235	0xbf16364a	-0.5867659
236	0xbee020d0	-0.43775034
237	0x3e579cfe	0.21055982
238	0x3ea493cb	0.32144007
239	0xbd80f51b	-0.0629675
240	0xbeec869a	-0.46196443
241	0xbe90640a	-0.28201324
242	0xbe893fce	-0.26806492
243	0x3ec00674	0.37504923
244	0x3e90e049	0.28296116
245	0x3e8993f2	0.26870686
246	0x3ecb570d	0.39714852
247	0x3dd14cbf	0.10219716
248	0x3ed95c82	0.4245339
249	0x3f10827c	0.56449103
250	0xbed9e820	-0.4255991
251	0xbebb86fe	-0.36626428
252	0xbd806e90	-0.06271088
253	0x3f2deab0	0.6793623
254	0xbe2c8228	-0.16846526
255	0xbc5d4755	-0.013505776

lays.1.weight f4 [256, 256]
0	0x3c0c8440	0.008576453
1	0x3ce75d07	0.028242601
2	0xbd119d68	-0.035550505
3	0xbd4523be	-0.04812979
4	0x3cacf728	0.021113947
5	0xbc5f4338	-0.013626866
6	0x3c95a0fe	0.018265244
7	0xbd3b881e	-0.04578411
8	0x3d6130cb	0.054978173
9	0x3cfadd7e	0.030623194
10	0x3d2befba	0.041976668
11	0xbc91e13c	-0.017807595
12	0x3d3637ca	0.0444868
13	0x3cc97d4a	0.024595875
14	0x3d44b586	0.048024677
15	0x3dfcb8f2	0.12339963
16	0xbd4b2176	-0.049592458
17	0xbd945e53	-0.072445534
18	0xbd696900	-0.0569849
19	0x3d8f6f35	0.07003633
20	0x3d5b3f83	0.053527366
21	0x3d0d691a	0.03452406
22	0x3bc32e61	0.0059564565
23	0x3d6e2e19	0.05814943
24	0x3e082ac8	0.1329757
25	0x3c5a8f13	0.013339776
26	0x3daddac6	0.08488993
27	0xbd84cb33	-0.0648407
28	0x39aee476	0.00033358083
29	0x3d46e7e8	0.048561007
30	0x3dcc8d87	0.09987932
31	0x3d88f32b	0.066870056
32	0x3d6ed9f8	0.05831334
33	0x3d1c3213	0.038133692
34	0xbd15db69	-0.0365862
35	0xba8cbbdf	-0.0010737142
36	0x3d74fe6a	0.05981294
37	0x3e31dc63	0.17369227
38	0x3d58ceca	0.052931584
39	0xbd26628b	-0.04062132
40	0x3e59f4f3	0.21284847
41	0xbd460cc3	-0.048352014
42	0x3d6eef6d	0.058333803
43	0x3d6328bb	0.055458765
44	0x3e00b57e	0.12569234
45	0x3d037f6e	0.03210395
46	0xbc2d1dba	-0.010566169
47	0x3c2b3bc2	0.010451259
48	0x3d93ec82	0.07222845
49	0xbd1d8659	-0.038458202
50	0xbd8e8d3b	-0.06960531
51	0x3e15bd0e	0.146229
52	0xbc8eafd1	-0.01741782
53	0xbd973330	-0.0738281
54	0x3c95dd14	0.018293895
55	0xbacaf916	-0.001548561
56	0x3d192302	0.0373869
57	0xbcd1d246	-0.025612962
58	0x3db5932e	0.08865963
59	0xbc18968a	-0.009313235
60	0x3d89ca22	0.06728007
61	0x3c55dfb4	0.013053823
62	0x3e219506	0.15779504
63	0x3ad2c48a	0.0016080302
64	0xbbb903de	-0.005646213
65	0xbd51c636	-0.05121442
66	0x3c4a6850	0.012353972
67	0x3d451cc7	0.048123147
68	0x3d7fb5a9	0.062429104
69	0x3d853a34	0.06505242
70	0x3c16a9a4	0.009195719
71	0x3c82f027	0.015983654
72	0x3c056e51	0.008143977
73	0xbcc17249	-0.023614066
74	0x3c36b64d	0.011151862
75	0x3e300cfd	0.17192455
76	0x3d8c7889	0.06858928
77	0x3e889dc4	0.26682866
78	0x3e0b9ef6	0.13634858
79	0x3d509aee	0.050929002
80	0xbd8b122f	-0.067905776
81	0xbd61ccf1	-0.055127088
82	0xbdfafd4f	-0.12255346
83	0xbcf5e6e8	-0.030017331
84	0xbe4b0ee7	-0.19829904
85	0x3dc88d60	0.0979259
86	0x3e270d0b	0.16313569
87	0xbc3390e7	-0.01095984
88	0xbda08788	-0.078383505
89	0xbd6d4edc	-0.057936534
90	0x3dbc41e2	0.09192254
91	0x3dad738b	0.08469304
92	0x3d50fe6f	0.051023897
93	0xbc194b30	-0.009356305
94	0x3d68dce9	0.0568513
95	0x3b30255c	0.0026877737
96	0x3c9c810e	0.019104507
97	0xbdcdedf8	-0.100551546
98	0xbd2f94b5	-0.042866427
99	0x3d3bf053	0.045883488
100	0x3c809120	0.015694201
101	0xbcb7688c	-0.022388719
102	0x3db74113	0.08947959
103	0x3d864157	0.06555431
104	0xbd410eb4	-0.047133163
105	0xbc6589e8	-0.01400993
106	0xbaf277b7	-0.0018498813
107	0x3da96a30	0.08272207
108	0xbd0b1267	-0.033953097
109	0x3c74f66e	0.014951332
110	0x3d51f9cf	0.051263627
111	0x3e2451e2	0.16046861
112	0x3e10b63f	0.14132021
113	0xbe39c027	-0.18139707
114	0xbce79131	-0.028267475
115	0xbc3c9d15	-0.011512061
116	0xbd2a46d9	-0.04157147
117	0xbc77b0ce	-0.015117837
118	0x3d36d4d7	0.044636574
119	0x3e07b1a6	0.13251361
120	0xbd8564e6	-0.065133855
121	0x3dd14e51	0.10220016
122	0x3e296e15	0.16545899
123	0xbcc5d384	-0.02414871
124	0xb8f0bb02	-0.00011478925
125	0xbacac06f	-0.0015468727
126	0x3c6afd41	0.014342607
127	0x3bb6d003	0.005578996
128	0x3e4ddf7b	0.20104782
129	0x3d22454f	0.03961688
130	0xbcd84e1d	-0.026404435
131	0xbd61cf4c	-0.055129334
132	0xbdba3dad	-0.09093795
133	0x3dc409a9	0.09572155
134	0xbd4536ba	-0.048147894
135	0x3d56ceef	0.05244344
136	0x3e42fdc6	0.1904212
137	0xbc755231	-0.014973209
138	0x3b379a3d	0.0028015517
139	0xbd900373	-0.07031908
140	0xbd8f9503	-0.070108436
141	0xbdebdc68	-0.115166485
142	0x3d96cc6c	0.07363209
143	0xbce50a18	-0.027958915
144	0xbd53206b	-0.051544588
145	0xbc2bd450	-0.010487631
146	0x3d115a6b	0.03548662
147	0x3d0a3159	0.033738468
148	0xbd0f8018	-0.03503427
149	0x3e9a0139	0.30079058
150	0xbd6e7b92	-0.058223315
151	0x3e4fcd44	0.20293146
152	0xbc865dfa	-0.016402233
153	0x3e278bca	0.16361919
154	0x3d2b1efa	0.04177759
155	0x3cabf6c0	0.020991683
156	0x3d63485b	0.055488925
157	0x3d29bbab	0.04143874
158	0x3cb0fb63	0.021604246
159	0xbdae5b6a	-0.085135296
160	0xbd42aee7	-0.04753008
161	0x3d58ddfc	0.052946076
162	0x3e9cb038	0.30603194
163	0x3a7c9230	0.0009634821
164	0x3dfe1933	0.1240715
165	0xbd18b3c9	-0.03728083
166	0x3d47c025	0.048767228
167	0xbd8f2818	-0.06990069
168	0x3b7d5e38	0.0038660895
169	0xbe014888	-0.12625325
170	0x3d671315	0.056414682
171	0xbca4bbd3	-0.020109093
172	0x3e071136	0.13190159
173	0xbd3e37e8	-0.046440035
174	0xbd630fa4	-0.055434838
175	0xbd9d1c49	-0.076714106
176	0x3db73554	0.089457184
177	0xbd39db8b	-0.045375388
178	0x3d8e6742	0.069532886
179	0x3cdbfb70	0.026853293
180	0xbd186a8e	-0.037210993
181	0xbd952ec1	-0.07284308
182	0x3d862b8d	0.065512754
183	0x3e47823e	0.19483277
184	0x397cc6d2	0.00024106659
185	0xbd867a12	-0.06566252
186	0x3e65e363	0.22450022
187	0x3e491d6f	0.19640134
188	0xbc040fab	-0.008060376
189	0x3e21bb9d	0.15794225
190	0x3dcef84d	0.10105953
191	0x3e87e47f	0.26541516
192	0x3dcd2b98	0.100180805
193	0xbe352f85	-0.17693909
194	0xbd2c58db	-0.042076927
195	0xbc4638b0	-0.012098476
196	0xbcaf5e4a	-0.021407265
197	0x3d45053d	0.0481007
198	0xbb9e15f1	-0.004824393
199	0x3de4512f	0.11148297
200	0xbd686273	-0.056734513
201	0xbe1236c4	-0.14278704
202	0x3d892643	0.06696751
203	0x3e0db868	0.13839877
204	0xbd0e4315	-0.034731943
205	0x3dd69690	0.10477936
206	0x3e0e1351	0.13874556
207	0xbd7faafd	-0.062418927
208	0x3d6c6018	0.05770883
209	0x3e09ec3a	0.1346902
210	0x3d3d9fa1	0.046294812
211	0x3e1071f9	0.14105977
212	0xbd8b7cba	-0.06810899
213	0x3d652465	0.05594291
214	0x3b2a2982	0.0025964682
215	0x3d8d62c3	0.06903603
216	0xbd04a685	-0.032385368
217	0x3c7c5a8f	0.01540245
218	0xbb378500	-0.0028002858
219	0xbd740746	-0.05957725
220	0x3e3cca3f	0.18436526
221	0x3d6702fe	0.056399338
222	0xbc2084bf	-0.009797274
223	0xbd826c5d	-0.06368325
224	0xbddecb1c	-0.10878584
225	0x3ccb9a8c	0.024853967
226	0x3d8972f3	0.06711378
227	0xbd6dc5cc	-0.058049962
228	0x3da4f467	0.080544285
229	0x3d6c21f5	0.05764957
230	0xbcd6949a	-0.026193906
231	0x3d7267e3	0.059181105
232	0x3dd87edd	0.10571072
233	0x3e384754	0.1799596
234	0x3d94bece	0.072629556
235	0x3cd43d68	0.025908187
236	0x3d54b49d	0.05193006
237	0x3d0f17a1	0.034934644
238	0xbdc42358	-0.09577054
239	0x3dc0e377	0.094183855
240	0x3d0dfc3a	0.03466437
241	0xbba3a42d	-0.0049939365
242	0x3d0baf58	0.034102768
243	0x3d5722e8	0.052523524
244	0xbd3f4383	-0.046695244
245	0x3d162920	0.036660314
246	0x3cae419d	0.021271521
247	0x3d332260	0.043733954
248	0x3d0c892b	0.0343105
249	0x3c411dac	0.0117868595
250	0x3e278ed1	0.16363074
251	0xbc38f0e0	-0.011287898
252	0xbc853981	-0.016262772
253	0x3d541a12	0.051782675
254	0x3de8b658	0.11362904
255	0xbbb15599	-0.0054118154

lays.1.bias f4 [256]
0	0x3bee7a5a	0.007277769
1	0x3d3b01cb	0.045656007
2	0x3d1a2dca	0.037641324
3	0xbc45c6b0	-0.012071297
4	0x3a6c3cf2	0.0009011767
5	0x3d0a453c	0.033757433
6	0x3d75e144	0.060029283
7	0xbd80f868	-0.0629738
8	0x3cc1d9c2	0.023663405
9	0x3d81de51	0.063412316
10	0x3cf99228	0.0304652
11	0xbc9659c5	-0.018353352
12	0x3d7ccce0	0.06171882
13	0xbc878a52	-0.016545448
14	0x3d415030	0.047195613
15	0xbc4a1cbd	-0.012335953
16	0xbd73d606	-0.05953028
17	0x3d99ce16	0.07510011
18	0x3d3e8f61	0.046523456
19	0x3cd6fb7a	0.02624296
20	0x3c64f1b4	0.013973642
21	0x3d08528c	0.033281848
22	0x3cd31db8	0.025771007
23	0xbd31cf30	-0.04341048
24	0x3c036c9f	0.008021503
25	0xbca23b1c	-0.019803576
26	0xbd2b7977	-0.041863885
27	0xbc45ab8c	-0.012064826
28	0x3d7d6b7a	0.061870076
29	0xbc3eafa9	-0.01163856
30	0xbcd71cdc	-0.026258878
31	0x3d1d5789	0.03841356
32	0x3c7c82fc	0.0154120885
33	0x3cde9ad5	0.027173439
34	0xbd6b7bea	-0.05749122
35	0x3d95679b	0.07295152
36	0x3c8da72b	0.017291626
37	0x3c32b01a	0.010906244
38	0x3b6e1ec1	0.0036334249
39	0x3d8c7eb7	0.068601064
40	0xbd74b73c	-0.05974506
41	0x3c8eafa6	0.01741774
42	0xbd8d8e78	-0.069119394
43	0x3bdb58be	0.0066939285
44	0xbc1325d8	-0.008981191
45	0x3c6caa34	0.014444876
46	0xbc85c581	-0.016329529
47	0xbd1cb5ba	-0.038259245
48	0x3c792080	0.0152055025
49	0x3c76ccf7	0.015063516
50	0xbd1cdc0c	-0.03829579
51	0xbca48120	-0.020081103
52	0xbd4a1d1e	-0.049344175
53	0xbd1f5962	-0.0389036
54	0xbc64611f	-0.013939171
55	0xbcfffc87	-0.031248344
56	0x3cd16f65	0.025565812
57	0x3d2a5772	0.0415873
58	0xbcd99efe	-0.026565071
59	0x3d570995	0.052499373
60	0x3cb10c42	0.02161229
61	0xbc74fef4	-0.014953364
62	0xbd080926	-0.03321185
63	0xbd1c9b4e	-0.038234048
64	0x3c718cca	0.014743039
65	0xbd0ff010	-0.03514105
66	0x3d933035	0.07186929
67	0xbcd379ea	-0.02581497
68	0xbd119096	-0.03553828
69	0x3cd4120d	0.025887514
70	0x3d168959	0.03675208
71	0x3cf06542	0.029345158
72	0xbd2edc74	-0.04269071
73	0xbd14d80b	-0.036338847
74	0xbd50cceb	-0.050976675
75	0xbb2b6a55	-0.0026155908
76	0x3ceae137	0.028671844
77	0x3d368086	0.044556163
78	0xbcc9528c	-0.024575494
79	0x3d8a6bf9	0.067588754
80	0x3cdfab41	0.02730334
81	0x3d3a0359	0.04541335
82	0xbd27a12b	-0.040925186
83	0x3bec374c	0.0072087403
84	0xbd03a063	-0.03213538
85	0xbc46b8bc	-0.012129005
86	0x3c8f6d44	0.017508157
87	0x3c92dafd	0.017926687
88	0x3c8321fe	0.01600742
89	0xbc8a8641	-0.01690972
90	0x3d3d9e69	0.04629365
91	0xbd6a7549	-0.057240758
92	0x3d62bb9e	0.055354707
93	0x3d05f69b	0.032705884
94	0x3cb55338	0.022134408
95	0xbcc1ed08	-0.023672596
96	0x3d8e0b4f	0.06935751
97	0xbd70613c	-0.05868648
98	0x39a008f7	0.00030524257
99	0x3d725c6d	0.059170175
100	0xbd5d72a8	-0.054064423
101	0x3d6578d3	0.05602343
102	0x3c601de8	0.013679005
103	0x3d67afc1	0.056564096
104	0xbd49b7a0	-0.049247384
105	0xb9796000	-0.00023782253
106	0x3d1ac5fa	0.03778646
107	0xbd4214c2	-0.047383077
108	0x3cb82684	0.022479303
109	0x3d9b5ace	0.07585679
110	0xbc92f9b6	-0.017941337
111	0x3c8d966a	0.017283637
112	0xbcdec998	-0.027195737
113	0xbc4e29c0	-0.012583196
114	0xbd2d49f9	-0.042306874
115	0xbc8e5651	-0.017375143
116	0xbd367180	-0.044541836
117	0x3c4a971c	0.012365129
118	0xbcb93b48	-0.022611275
119	0x3c1e5413	0.0096636
120	0x3c98760d	0.018610978
121	0x3d833ab8	0.06407684
122	0x3d49e6e8	0.049292475
123	0x3dd38108	0.10327345
124	0x3b8ac360	0.0042347163
125	0x3c77b190	0.015118018
126	0xbc869e88	-0.016433015
127	0x3d523a4b	0.051325124
128	0xbd4a0ed7	-0.04933056
129	0x3d66cbb7	0.05634662
130	0xbc4b1a31	-0.012396381
131	0xbd45e071	-0.048309747
132	0x3d302799	0.043006513
133	0x3cfbee7b	0.030753365
134	0x3cabfce8	0.020994619
135	0x3c16e094	0.009208817
136	0x3cd4f5dd	0.025996143
137	0xbb8f38b2	-0.0043707723
138	0x3d3ceea2	0.046126015
139	0x3d2ef62d	0.04271524
140	0xbd1ff106	-0.039048217
141	0x3ca16191	0.019699844
142	0x3d8470f5	0.06466857
143	0xbd72e10c	-0.059296653
144	0x3b18f1dd	0.002333752
145	0xbd521a7f	-0.0512948
146	0x3bd9f6e7	0.0066517475
147	0x3cd8679c	0.026416592
148	0x3d322dbe	0.043500654
149	0x38a165b0	7.696019e-05
150	0xbd0d8ac1	-0.034556154
151	0x3cdc6700	0.026904583
152	0xbbc3d1d4	-0.005975941
153	0x3d127e89	0.035765205
154	0xbb959601	-0.004565001
155	0x3beab565	0.007162737
156	0x3cd6e9ab	0.026234468
157	0xbcbfb2bc	-0.023400657
158	0x3cb37b88	0.02190949
159	0x3c6d1629	0.014470615
160	0xbc7f52e9	-0.015583732
161	0xbd124336	-0.03570863
162	0x3d2132bc	0.039355025
163	0xbd8a8f27	-0.067655854
164	0xbd5dc8d2	-0.054146595
165	0xbbb067e8	-0.0053834803
166	0xbd4a831d	-0.049441446
167	0x3d17dbaa	0.037074722
168	0x3d5a7ecb	0.053343575
169	0xbd2c6a94	-0.04209383
170	0x3d70f721	0.05882943
171	0x3c59e056	0.013298115
172	0xbdd91f7d	-0.10601709
173	0xbd0dfa2d	-0.034662414
174	0xbcec5507	-0.028849138
175	0xbc05f263	-0.008175465
176	0xbb523d0d	-0.0032079846
177	0x3d2c6112	0.04208476
178	0x3d14a088	0.036285907
179	0xbcf7f59c	-0.030268483
180	0x3c99aeda	0.018760134
181	0xbc9038c8	-0.0176052
182	0x3d7676ad	0.06017177
183	0x3d7b8030	0.061401546
184	0x3d25603e	0.040374987
185	0xbcdac56a	-0.026705462
186	0xbd4174b2	-0.04723043
187	0x3d75c6d6	0.060004078
188	0xbbb03fc7	-0.0053786966
189	0xbd6370bf	-0.055527445
190	0x3d64b649	0.055837903
191	0xbd0cf15b	-0.034409862
192	0xbcfc98d5	-0.030834595
193	0x3d96a1b5	0.07355062
194	0xbca834f5	-0.020533064
195	0xbacb3e20	-0.0015506186
196	0xbd4322ee	-0.047640733
197	0x3aa74a09	0.0012763153
198	0xbcdf4535	-0.02725468
199	0xbd19cf82	-0.03755141
200	0xbd8bda76	-0.068287775
201	0x3d19b2b8	0.037523955
202	0xbd04cf09	-0.032424007
203	0xbc78f8be	-0.0151960235
204	0x3c4f67fd	0.01265907
205	0x3da3d655	0.07999865
206	0x3d9661a5	0.07342843
207	0x3cb27af6	0.021787148
208	0xba4d5d34	-0.0007834018
209	0xbd1656bf	-0.03670382
210	0xbd643b8f	-0.055720862
211	0xbd222884	-0.03958942
212	0xbc9d6ac0	-0.019215941
213	0x3d5929d0	0.05301839
214	0x3c72ba10	0.014814869
215	0x3cdbfa1c	0.02685266
216	0x3c514d86	0.012774831
217	0xbd353663	-0.04424132
218	0xbc9d15a6	-0.019175362
219	0xbcd5c1d9	-0.02609341
220	0xbd5a1e46	-0.053251527
221	0x3ba3f8e5	0.005004036
222	0x3d85334c	0.06503925
223	0xbada4d6a	-0.0016655151
224	0x3d617d9d	0.055051435
225	0x3c239de7	0.009986377
226	0x3cebd578	0.028788313
227	0xbda838b5	-0.08213941
228	0x3d4a66d6	0.04941448
229	0xbbd1c2a4	-0.006401377
230	0x3d450324	0.0480987
231	0xbd32f402	-0.043689735
232	0xbd038da5	-0.032117505
233	0xbc86c784	-0.016452558
234	0x3ca9362a	0.02065571
235	0xbd3c50ca	-0.045975484
236	0xbbf7ead8	-0.0075658374
237	0xbc56df17	-0.013114712
238	0xbc299509	-0.010350474
239	0xbcd34148	-0.025787964
240	0x3cb1a612	0.021685634
241	0x3d56c646	0.052435182
242	0x3d50931f	0.050921556
243	0x3cfda35c	0.030961685
244	0x3c996d5a	0.0187289
245	0x3d21ea6a	0.039530195
246	0xbba676a0	-0.005080059
247	0xbd2d4586	-0.04230263
248	0x3d5ef14e	0.054429345
249	0x3c0b53a6	0.00850383
250	0x3a969b08	0.0011490295
251	0xbc15245e	-0.009102909
252	0xbd3af63f	-0.045644995
253	0x3ace072e	0.0015718692
254	0xbd3d8b63	-0.046275508
255	0x3c36753a	0.011136347

lays.2.weight f4 [2, 256]
0	0x3dbc9131	0.092073806
1	0x3d9ef471	0.07761467
2	0xbd83ecc4	-0.06441644
3	0xbd1f8932	-0.0389492
4	0x3d250b8e	0.040294223
5	0x3cfd9627	0.030955387
6	0xbda93eda	-0.08263941
7	0xbce4225e	-0.027848419
8	0x3c4c077e	0.012452958
9	0xbe04c754	-0.12966663
10	0xbce00a2c	-0.0273486
11	0xbd37087f	-0.044685837
12	0x3d983bf1	0.07433308
13	0x3d627dbd	0.055295695
14	0x3dc49ae8	0.095998585
15	0xbd620209	-0.055177722
16	0xbcc58001	-0.024108889
17	0x3e3367df	0.17520092
18	0x3c92f007	0.01793672
19	0x3e1f3207	0.15546428
20	0xbde78458	-0.113045394
21	0x3d84deef	0.06487834
22	0x3b0fc540	0.0021937639
23	0x3d5ca9b2	0.05387277
24	0xbb93156e	-0.0044886386
25	0xbd051682	-0.03249217
26	0x3dcb54d4	0.09928289
27	0x3dde7be8	0.10863477
28	0xbe0b274e	-0.13589212
29	0x3d994ef7	0.074857645
30	0x3d2eb08a	0.04264883
31	0x3db6fdcf	0.08935129
32	0xbc5d0d43	-0.013491931
33	0x3dc5a40d	0.09650431
34	0x3d282020	0.04104626
35	0xbe20dd21	-0.15709354
36	0x3d7caba4	0.061687127
37	0xbe11400c	-0.14184588
38	0x3d1ab465	0.037769694
39	0xbd920957	-0.07130688
40	0xbd2fe28e	-0.04294067
41	0xbdae7264	-0.08517912
42	0x3d4b1090	0.049576342
43	0x3ddef565	0.10886649
44	0x3bd36000	0.006450653
45	0x3dae7119	0.085176654
46	0x3e12d8ec	0.14340562
47	0xbd359f53	-0.044341397
48	0xbd55040e	-0.05200582
49	0x3d912489	0.07087047
50	0x3d7b4496	0.061344706
51	0xbc74f020	-0.014949828
52	0xbd52d66e	-0.051474027
53	0xbd460dce	-0.04835301
54	0xbd63ec62	-0.055645354
55	0x3dec37fa	0.11534114
56	0xbd14e1e9	-0.036348257
57	0x3d44d37a	0.048053242
58	0x3e159a93	0.14609747
59	0xbe00a5cc	-0.12563246
60	0x3e0e365f	0.13887928
61	0xbe0a3836	-0.13498005
62	0xbdb161df	-0.086612456
63	0x3dfdaaa6	0.12386064
64	0x3d4cce1b	0.050001245
65	0x3dafc71f	0.08582901
66	0xbdceddae	-0.10100876
67	0xbdb9d6a6	-0.09074144
68	0x3dfad111	0.122469075
69	0x3dd42ea6	0.1036046
70	0xbd736583	-0.05942298
71	0x3dddb7dd	0.10826085
72	0x3ad1ddf2	0.001601158
73	0x3b15b7e8	0.0022845212
74	0xbdd7dc53	-0.105400704
75	0x3df1028b	0.11768063
76	0x3d0e7381	0.03477812
77	0x3c95b290	0.018273622
78	0xbbd6d0e0	-0.0065556616
79	0x3da9db8a	0.08293827
80	0x3dc333f5	0.095313944
81	0x3a91d982	0.0011127444
82	0xbdcfcecb	-0.101468645
83	0x3dc744e5	0.097299375
84	0xbddf0f01	-0.10891534
85	0xbd39765e	-0.0452789
86	0xbcfff601	-0.031245233
87	0xbd29225c	-0.041292533
88	0x3dd1f2cd	0.10251389
89	0x3d8bf719	0.068342395
90	0xbdedf3db	-0.11618777
91	0x3d412670	0.047155797
92	0x3d9f7467	0.07785874
93	0xbdfdc51b	-0.123911105
94	0x3deb98f9	0.115037866
95	0x3de9140a	0.11380775
96	0xbda4b9e1	-0.08043266
97	0x3d7af6e6	0.061270617
98	0x3d54e4d4	0.05197604
99	0x3df4bba0	0.11949849
100	0xbd95d4f5	-0.07316009
101	0x3dce5808	0.100753844
102	0xbde7e31b	-0.11322614
103	0x3dace798	0.084426105
104	0x3bf336a9	0.0074222875
105	0x3d06d73e	0.032920115
106	0xbcc85581	-0.024454834
107	0xbd3627ac	-0.044471428
108	0x3cd77e4c	0.02630534
109	0xbd1eee24	-0.038801327
110	0x3d8a0d8a	0.067408636
111	0x3c3276b8	0.010892563
112	0x3d431724	0.04762949
113	0xbce56028	-0.027999952
114	0xbddcf9b9	-0.10789818
115	0xbd0ce38f	-0.034396704
116	0x3cfcbc34	0.030851461
117	0xbe200b16	-0.15629229
118	0xbe5fc497	-0.21852337
119	0xbc9c8e42	-0.019110803
120	0xbd464731	-0.048407737
121	0x3e351328	0.17683089
122	0xbdf74c76	-0.12075131
123	0xbde138d5	-0.10997168
124	0xbd16cb3a	-0.036814906
125	0x3e026105	0.12732323
126	0x3bfc4462	0.0076985816
127	0x3deae7c8	0.1146999
128	0x3c6d5610	0.014485851
129	0x3daecdff	0.085353844
130	0xbe1790a6	-0.14801273
131	0xbddebbc5	-0.10875658
132	0x3dcca534	0.099924475
133	0xbe1234ea	-0.14277998
134	0xbcf6779c	-0.030086331
135	0x3d931d15	0.07183281
136	0x3d2605c0	0.040532827
137	0x3d3c1c3a	0.045925356
138	0xbd24916a	-0.04017774
139	0x3ddc99c5	0.10771517
140	0x3e339c01	0.1753998
141	0x3e05bc96	0.13060221
142	0xbd8ff340	-0.07028818
143	0x3ddd6ac7	0.10811382
144	0x3d101d82	0.03518439
145	0xbd3c2bcb	-0.0459402
146	0xbdfaa309	-0.12238128
147	0xbd045ec9	-0.032316957
148	0xbdb53c86	-0.088494346
149	0x3d295a92	0.04134614
150	0x3de1a572	0.11017884
151	0x3c96371f	0.01833683
152	0x3d59a287	0.053133514
153	0xbbdc0360	-0.0067142695
154	0x3cd4cb92	0.025975976
155	0xbd901dbc	-0.070369214
156	0x3cc8d1c9	0.024514096
157	0x3cb6928c	0.022286676
158	0x3bac4390	0.0052570775
159	0xbdc0bbe1	-0.09410835
160	0xbdcd23a8	-0.100165665
161	0xbe0ca5f6	-0.13735184
162	0xbdc134a2	-0.09433867
163	0x3b594bc1	0.0033156725
164	0x3d6048c0	0.05475688
165	0x3ddb1eb5	0.10699216
166	0x3dfb97be	0.12284802
167	0xbe051d84	-0.1299954
168	0x3df5ea79	0.12007613
169	0xbb35e7c3	-0.002775655
170	0x3e053e89	0.13012137
171	0x3d8440da	0.06457682
172	0xbe0aa38c	-0.1353895
173	0x3d370b9b	0.044688802
174	0x3e183039	0.14862145
175	0xbdf6572d	-0.12028346
176	0x3dd75a97	0.105153255
177	0x3c79bd1c	0.015242841
178	0x3d36c6a0	0.044623017
179	0x3d3a791c	0.045525655
180	0xbdfd242b	-0.12360414
181	0xbd3a487f	-0.045479294
182	0xbd24faa3	-0.04027809
183	0x3cc03790	0.023463994
184	0x3d97cb0e	0.074117765
185	0xbdfbf04b	-0.123016916
186	0x3ae3ac80	0.0017370135
187	0xbdd12cfe	-0.1021366
188	0x3e24a941	0.1608019
189	0x3a431192	0.0007441278
190	0xbd29ea77	-0.04148337
191	0xbe226544	-0.15858942
192	0x3d40ef8c	0.04710345
193	0x3e2a39de	0.16623637
194	0x3d8535d2	0.06504406
195	0x3ddd9e48	0.108212054
196	0xbd4265b0	-0.047460258
197	0x3e05f762	0.1308265
198	0xbdf3ac9d	-0.11898158
199	0xbd59ccde	-0.053173892
200	0x3c051a54	0.008123953
201	0xbcae6373	-0.021287655
202	0x3e04be77	0.12963282
203	0xbda6b7d4	-0.08140531
204	0xbdc3999d	-0.09550784
205	0xbdb672bc	-0.089086026
206	0x3def5779	0.11686606
207	0xbe10df4f	-0.14147685
208	0x3d1d9d83	0.038480293
209	0xbd0041a9	-0.03131262
210	0x3d04f70b	0.03246216
211	0x3deff9b0	0.11717546
212	0x3d010e60	0.03150785
213	0xbd93db5d	-0.072195746
214	0x3d6f4330	0.058413684
215	0x3d952af9	0.07283587
216	0x3dc28df6	0.09499733
217	0xbdb4200f	-0.08795177
218	0xbc8b904b	-0.017036578
219	0xbd053312	-0.032519408
220	0x3e17e590	0.14833665
221	0x3d279bc7	0.040920045
222	0x3d6a21a8	0.057161003
223	0xbda19683	-0.07890036
224	0xbd7d3e28	-0.061826855
225	0xbde48ebc	-0.11160037
226	0xbcd00384	-0.025392301
227	0xbe359029	-0.17730774
228	0x3a4e2b1b	0.00078646996
229	0xbe22f0ad	-0.15912123
230	0xbda18848	-0.07887322
231	0xbd23cf7b	-0.03999279
232	0xbe024745	-0.127225
233	0x3d90cbae	0.07070099
234	0x3d3dff40	0.046386003
235	0x3d370b92	0.04468877
236	0xbd4b0491	-0.0495649
237	0xbdf0216c	-0.11725125
238	0x3dd7e750	0.10542166
239	0x3d023240	0.031786203
240	0xbdc5c891	-0.09657396
241	0x3dc86252	0.09784378
242	0x3d2ba180	0.041902065
243	0x3d1fd2c6	0.03901937
244	0x3d9b6fa7	0.07589655
245	0x3caa853c	0.020815484
246	0xbb6e24e0	-0.0036337897
247	0x3cd91bb0	0.02650246
248	0x3d3d8691	0.04627091
249	0x3d297cb8	0.041378707
250	0x3ddbf1f0	0.10739505
251	0xbd63d991	-0.05562741
252	0xbd53f376	-0.051745854
253	0x3dad6e21	0.08468271
254	0x3d5ad373	0.05342431
255	0x3d1b9c81	0.03799105

lays.2.bias f4 [2]
0	0xbcd70765	-0.026248643
1	0xbb76e9dd	-0.0037676014

l1.weight f4 [256, 2]
0	0x3ef0b5ba	0.47013646
1	0xbf4486d8	-0.76768255
2	0xbe4ce63e	-0.20009705
3	0xbf161e56	-0.5864004
4	0x3f02d115	0.51100284
5	0xbeb80d6d	-0.35947743
6	0xbd8b80e0	-0.0681169
7	0xbec1a1f1	-0.37818864
8	0x3eb95f6e	0.3620562
9	0xbd6962ba	-0.05697892
10	0xbc22b900	-0.009931803
11	0x3d979af8	0.07402605
12	0x3ebabbe8	0.36471486
13	0x3e7ba150	0.24573255
14	0xbe7396c0	-0.23787975
15	0xbed31cf7	-0.41233036
16	0xbe7c8677	-0.2466067
17	0x3ea48718	0.32134318
18	0x3e238c26	0.15971431
19	0x3ba69fb4	0.005084956
20	0xbe0834c1	-0.13301374
21	0x3f0b9281	0.5452042
22	0x3cfcf657	0.030879183
23	0xbf6e512c	-0.9309261
24	0xbed3fd73	-0.41404304
25	0xbe730390	-0.23731828
26	0x3f3ec0ed	0.7451313
27	0x3e685e4c	0.22692221
28	0xbefaa4db	-0.489539
29	0xbd8f06d7	-0.069837265
30	0xbf448842	-0.7677041
31	0xbbe08eaa	-0.0068529444
32	0xbde0d728	-0.10978538
33	0xbd26f1b0	-0.040757835
34	0x3f31253c	0.6919744
35	0xbf06b5d5	-0.52621204
36	0xbe4fcfa8	-0.20294058
37	0xbf2b11db	-0.6682412
38	0xbf276d7d	-0.6540144
39	0x3edad6df	0.4274206
40	0x3d9d931d	0.07694075
41	0x3e63797c	0.22214311
42	0xbe1e0cc4	-0.15434557
43	0xbca13940	-0.01968062
44	0x3eac1145	0.33606926
45	0xbeca070e	-0.39458507
46	0xbf1956e3	-0.59898204
47	0x3f0e8741	0.5567513
48	0xbf4315d8	-0.76205206
49	0x3f16bf5f	0.5888576
50	0xbf30e74c	-0.6910293
51	0x3f0a9b4d	0.5414322
52	0xbf1eaee2	-0.619856
53	0xbe9df682	-0.30852133
54	0x3f370929	0.7149835
55	0x3f2a0eb8	0.6642871
56	0xbd7ed185	-0.062211532
57	0x3e1840dd	0.14868493
58	0x3f3d355e	0.73909557
59	0xbeadd050	-0.33947992
60	0x3eb22f55	0.34801736
61	0x3f190fb3	0.5978958
62	0xbe4ab096	-0.19793925
63	0x3f0ab96c	0.5418918
64	0xbf43da66	-0.76505125
65	0x3ed81b18	0.4220817
66	0xbee991db	-0.4561909
67	0x3ebdb923	0.3705531
68	0x3df42c31	0.11922491
69	0xbe679022	-0.22613576
70	0x3cc0e203	0.02354527
71	0x3db27b3a	0.0871491
72	0xbe093cf8	-0.13402164
73	0xbe703e0c	-0.23461169
74	0x3f034854	0.5128224
75	0x3eea6222	0.45777994
76	0x3e61aeab	0.22039287
77	0xbf3de656	-0.7417959
78	0x3ee095cf	0.43864295
79	0xbf26f22e	-0.65213287
80	0xbec96ce1	-0.3934088
81	0x3e876e20	0.26451206
82	0x3e482e13	0.19548826
83	0xbdb36abd	-0.08760593
84	0xbef2d1d8	-0.47425723
85	0xbd8f50b2	-0.06997813
86	0xbf06dc30	-0.5267973
87	0x3e8cb302	0.27480322
88	0xbf33e770	-0.7027502
89	0xbf13a9d7	-0.5768103
90	0xbddb1b28	-0.10698539
91	0xbeb6097c	-0.3555411
92	0x3f11c22d	0.56936914
93	0x3f2a69c0	0.6656761
94	0xbe6a84de	-0.22902247
95	0x3ee3ca3e	0.44490236
96	0xbeb12e8a	-0.3460582
97	0x3eb36073	0.35034522
98	0x3eac0456	0.33597058
99	0xbf23220d	-0.6372383
100	0x3ec3bdb8	0.3823068
101	0xbe5110c7	-0.20416556
102	0xbf35ff06	-0.7109226
103	0xbeb2ef48	-0.34948182
104	0x3eeede1c	0.4665383
105	0xbf0ff630	-0.5623503
106	0x3f29e3d4	0.66363263
107	0x3e997eeb	0.29979643
108	0xbe6eb232	-0.23310164
109	0x3f0cbb3d	0.549732
110	0xbe27d307	-0.16389094
111	0xbe18a748	-0.14907563
112	0x3f30d967	0.6908173
113	0xbf047d83	-0.51754016
114	0x3d7e2a4b	0.062052052
115	0x3e5a8f8e	0.21343824
116	0xbebebb67	-0.37252352
117	0x3e6f772f	0.23385309
118	0xbe09b3f0	-0.13447547
119	0x3f118ad5	0.56852466
120	0xbf1aba36	-0.60440385
121	0xbf08b69d	-0.53403646
122	0x3da58995	0.08082882
123	0x3efe8d4c	0.49717176
124	0xbf1d405c	-0.6142633
125	0xbb9679d1	-0.0045921584
126	0xbd6e3377	-0.05815455
127	0x3eff2126	0.49829978
128	0x3f209134	0.6272156
129	0xbe5aa228	-0.2135092
130	0x3f1b323c	0.60623527
131	0x3f23c67d	0.63974744
132	0xbe1fb1b4	-0.15595132
133	0xbec463ec	-0.38357484
134	0xbf07f74d	-0.53111726
135	0xbe90bf53	-0.2827097
136	0xbe1d1cdc	-0.1534304
137	0xbb93a1d8	-0.0045053773
138	0xbf160d3a	-0.5861393
139	0xbe9fe565	-0.31229702
140	0x3ea10f70	0.3145709
141	0x3eab4eb7	0.33458492
142	0xbf15f3b2	-0.58574975
143	0xbe2b7676	-0.16744408
144	0x3cdf7577	0.027277691
145	0xbf340144	-0.7031443
146	0xbea6cb5a	-0.3257702
147	0xbda0517b	-0.07828041
148	0x3f216f7b	0.6306073
149	0x3f170617	0.5899367
150	0x3de93e87	0.11388879
151	0x3f30ff2e	0.69139373
152	0xbf3473cb	-0.70489186
153	0x3f1bed3e	0.6090888
154	0xbf37bc10	-0.71771336
155	0x3e92ef35	0.28698125
156	0xbf12a2ad	-0.57279474
157	0x3eb93573	0.3617359
158	0xbf302388	-0.68804216
159	0xbf160a40	-0.5860939
160	0x3e8b1e5b	0.27171597
161	0x3d9ab3f5	0.07553855
162	0x3f137c8e	0.5761193
163	0xbe4b0729	-0.1982695
164	0x3f1ca807	0.6119389
165	0xbf268512	-0.650468
166	0xbd116810	-0.035499632
167	0xbdb8c230	-0.09021413
168	0x3f24ae16	0.64328134
169	0xbf2d1be2	-0.6762067
170	0xbe215397	-0.15754543
171	0xbf6cb96d	-0.9247044
172	0xbe0e077f	-0.13870047
173	0x3f03cff5	0.5148919
174	0x3f034d72	0.5129005
175	0xbeda0f5c	-0.42589843
176	0x3ecfe048	0.406008
177	0x3f3f5634	0.7474091
178	0x3ed300a3	0.41211423
179	0x3db0c8f4	0.08632079
180	0xbf17e17e	-0.5932845
181	0xbf2b7e77	-0.66989845
182	0xbf0c0b36	-0.54704607
183	0xbe91a0f1	-0.284431
184	0x3ef35643	0.4752675
185	0x3e317176	0.17328438
186	0x3f2847ab	0.65734357
187	0x3e56b654	0.2096799
188	0xbdbb86fa	-0.09156604
189	0x3ebabfd6	0.36474484
190	0xbf2b3a5a	-0.6688591
191	0x3ec58634	0.3857895
192	0x3e83be78	0.25731254
193	0xbf04c5ba	-0.51864207
194	0x3ed687e7	0.4190056
195	0x3d0e4f9b	0.034743886
196	0xbf11ab9b	-0.56902474
197	0xbf194cef	-0.59883016
198	0xbf110e58	-0.5666251
199	0xbbb720ba	-0.005588618
200	0x3effc96a	0.49958354
201	0x3f2ad353	0.66728705
202	0x3e74ae7c	0.23894686
203	0x3db551e8	0.08853513
204	0xbeab18e5	-0.3341743
205	0x3ea7bf2d	0.32763043
206	0x3aedb4cb	0.0018135546
207	0xbf16ad89	-0.58858544
208	0x3d875d00	0.06609535
209	0xbe0f12e4	-0.1397205
210	0xbcfd9d00	-0.030958652
211	0xbe1f6614	-0.15566283
212	0xbe0683ba	-0.13136187
213	0xbf664612	-0.8995067
214	0xbdfed0c1	-0.124421604
215	0x3e86d3a6	0.2633335
216	0x3eb5b3f0	0.35488844
217	0xbea4fa11	-0.32222036
218	0xbf0ebecd	-0.5575989
219	0xbebb7bad	-0.36617795
220	0xbf0f14dd	-0.5589121
221	0x3f22faf0	0.6366415
222	0xbf3a82d7	-0.72855896
223	0xbf3e3ba8	-0.7430978
224	0xbf0aee7c	-0.5427015
225	0x3f1550d8	0.5832648
226	0x3f361f55	0.7114156
227	0x3da210e9	0.079133816
228	0xbcb8e9d1	-0.02257243
229	0xbdb7a9f3	-0.08967962
230	0x3ecb99ce	0.3976578
231	0x3f189b15	0.59611636
232	0xbd9ec7ca	-0.077529505
233	0x3e36d706	0.17855462
234	0x3f2e8b4b	0.68181294
235	0x3f133ef7	0.5751795
236	0x3f2745fd	0.6534117
237	0xbf16db27	-0.5892815
238	0xbee0bf3f	-0.4389591
239	0xbf1b0d11	-0.6056681
240	0x3dd79236	0.105259344
241	0xbf066c3a	-0.5250889
242	0xbec9fe22	-0.394517
243	0x3eff3069	0.49841622
244	0xbf2b9ae6	-0.6703323
245	0xbf21d9ec	-0.6322315
246	0xbdee94f8	-0.11649507
247	0xbee50d95	-0.44736925
248	0xbf354abb	-0.70817155
249	0xbf062795	-0.5240415
250	0xbde0b4a7	-0.10971957
251	0x3f0288a5	0.50989753
252	0xbe81cd3a	-0.25351888
253	0xbd4ce534	-0.050023273
254	0x3f17a98b	0.5924308
255	0xbe954465	-0.29153743

l1.bias f4 [256]
0	0xbf06511a	-0.524675
1	0x3f083112	0.53199875
2	0xbed2d731	-0.41179803
3	0xbe8b5f48	-0.2722113
4	0xbec23c00	-0.379364
5	0xbe8dd466	-0.2770111
6	0x3e1d567c	0.15365022
7	0xbf1ee9ec	-0.62075686
8	0x3ec0b532	0.3763824
9	0x3e8cb9d8	0.27485538
10	0x3dee2459	0.116280265
11	0xbd3e6ce7	-0.046490576
12	0xbf27d764	-0.65563035
13	0x3eed4ee6	0.46349257
14	0xbdce9f82	-0.100890175
15	0x3e0bc342	0.13648704
16	0xbe707244	-0.23481089
17	0x3dcb2138	0.09918445
18	0xbf064f10	-0.5246439
19	0x3ef863bb	0.48513588
20	0x3f2f5f01	0.6850434
21	0xbf2f98d6	-0.68592584
22	0xbe6a52fc	-0.22883219
23	0x3e1642d4	0.1467393
24	0xbe252070	-0.16125655
25	0x3cf2d74f	0.029643683
26	0x3df4a920	0.119463205
27	0xbe718ae5	-0.2358814
28	0x3d759211	0.059953753
29	0xbf1be828	-0.6090112
30	0xbe134e77	-0.143854
31	0xbf03e59b	-0.51522225
32	0xbd9e9bfe	-0.07744597
33	0x3e070b20	0.13187838
34	0x3f1f60cc	0.62257075
35	0x3d6bbf42	0.057555445
36	0xbf159d81	-0.58443457
37	0xbf0c8655	-0.54892474
38	0xbe318348	-0.17335236
39	0x3f2726e4	0.6529372
40	0xbd991dfa	-0.07476421
41	0x3f1deadb	0.61686486
42	0xbcfbc15e	-0.030731853
43	0x3dbe47a9	0.09291012
44	0x3bf92093	0.00760276
45	0xbf2e16c1	-0.6800347
46	0x3e8310e3	0.2559882
47	0xbcb642fc	-0.022248738
48	0xbde0ba8f	-0.10973083
49	0x3e8351e5	0.25648418
50	0x3f234a60	0.6378536
51	0xbe0fd23e	-0.14045045
52	0x3f10e6e2	0.566023
53	0x3e558386	0.20850953
54	0xbe0714ba	-0.131915
55	0x3e2ab479	0.16670407
56	0xbf0725d9	-0.52792126
57	0x3e5c5392	0.21516255
58	0x3ef5d936	0.4801728
59	0x3dbe9cc2	0.09307243
60	0x3f1c1ef3	0.60984725
61	0x3c2f0d19	0.010684275
62	0xbe8b6109	-0.2722247
63	0x3e3ffd33	0.18748932
64	0x3f07c5ad	0.53036004
65	0x3ebefae7	0.37300798
66	0xbea283a7	-0.31741068
67	0x3f0f0eee	0.55882156
68	0x3ea8147d	0.3282813
69	0xbf09cd5a	-0.53828967
70	0x3ece296e	0.40265983
71	0x3f1cb291	0.6120997
72	0x3f20225a	0.62552416
73	0x3f220580	0.6328964
74	0xbf254580	-0.64559174
75	0xbedba82b	-0.4290174
76	0x3f0f870c	0.5606544
77	0xbef30f7a	-0.47472745
78	0xbee4817d	-0.44630042
79	0x3e8bc072	0.27295262
80	0x3efd49a6	0.49470252
81	0xbf0ccd53	-0.550008
82	0x3f02a6d3	0.51035804
83	0xbee45446	-0.44595546
84	0x3eeea8df	0.46613213
85	0x3df1b5df	0.11802267
86	0xbe696520	-0.22792482
87	0xbed98224	-0.42482102
88	0xbed3b65f	-0.41350076
89	0x3f0df9e7	0.55459446
90	0x3dc152e0	0.09439635
91	0xbf060ec5	-0.52366287
92	0xbefc4c0e	-0.49276775
93	0xbe95f166	-0.29285735
94	0xbe2e0f64	-0.16998059
95	0xbef54bb8	-0.4790933
96	0x3e32057f	0.17384909
97	0x3eb993c3	0.36245546
98	0x3f1add2f	0.6049375
99	0x3dd622d6	0.10455863
100	0x3ee34b26	0.4439327
101	0xbf2a194f	-0.6644487
102	0x3e776344	0.2415896
103	0x3e226d15	0.15861924
104	0xbea93ba3	-0.33053312
105	0xbedce49f	-0.43143174
106	0x3db8bee2	0.09020783
107	0x3e8ef40d	0.2792057
108	0xbe8c49f8	-0.27400184
109	0x3f11e29d	0.5698641
110	0x3f258f5d	0.6467188
111	0x3d9d16d9	0.076703735
112	0xbe59a669	-0.21254887
113	0xbcb0222b	-0.021500668
114	0x3ede2c8a	0.43393356
115	0x3d90370b	0.070417486
116	0x3ecaae41	0.3958607
117	0xbed7b5ea	-0.42130977
118	0xbf00c4c7	-0.5030026
119	0x3e0ece1f	0.13945816
120	0x3f0cb3c4	0.549618
121	0x3e84cf31	0.25939324
122	0x3d5c3c89	0.05376867
123	0xbe912523	-0.28348646
124	0xbf23330d	-0.6374977
125	0xbf320952	-0.6954547
126	0x3f24c387	0.6436085
127	0x3f24387c	0.6414869
128	0xbe15a6ba	-0.14614382
129	0xbea17cdd	-0.31540576
130	0x3effc376	0.49953812
131	0xbf24fd7d	-0.6444929
132	0x3f0e2bc5	0.55535537
133	0xbe9c470d	-0.30522957
134	0xbd3ca135	-0.046052177
135	0xbeab29e3	-0.33430395
136	0xbe256e49	-0.16155352
137	0x3f0c5edf	0.5483226
138	0xbf22196c	-0.6332004
139	0x3f348384	0.70513177
140	0x3ea68d1a	0.32529527
141	0x3e945e7b	0.28978333
142	0x3910e202	0.00013817105
143	0xbeabbc82	-0.33542258
144	0xbea26143	-0.3171483
145	0xbf2fdf74	-0.6870034
146	0xbf074b95	-0.52849704
147	0xbda2a361	-0.07941318
148	0x3e137765	0.14401014
149	0xbee8234c	-0.4533943
150	0x3e11419a	0.14185181
151	0xbee94953	-0.45563754
152	0xbf0b1299	-0.5432525
153	0xbdfb8e15	-0.12282959
154	0x3edd9d5d	0.4328412
155	0xbdf8bf21	-0.1214583
156	0x3f14009b	0.57813424
157	0x3f3ff1df	0.7497844
158	0x3ee97ee4	0.45604622
159	0x3f0341fc	0.5127256
160	0x3da029dd	0.07820485
161	0xbf339d12	-0.70161545
162	0xbea11bd2	-0.31466538
163	0xbdb970d2	-0.09054722
164	0x3c283342	0.010266127
165	0x3effbc79	0.4994848
166	0xbeb67487	-0.35635778
167	0x3eb4cb06	0.35311145
168	0x3ef05199	0.46937254
169	0x3e8b2a82	0.27180868
170	0x3f12f082	0.57398236
171	0x3ec067f9	0.37579325
172	0xbe588f0b	-0.21148317
173	0xbee287af	-0.44244143
174	0x3eb65d80	0.3561821
175	0x3f115188	0.5676503
176	0xbf03a8a2	-0.5142919
177	0x3ed1caa5	0.40974918
178	0x3e707618	0.23482549
179	0x3efc0da1	0.49229148
180	0xbefab47b	-0.4896582
181	0x3e20cd10	0.15703225
182	0x3eed9cff	0.4640884
183	0xbe8e2af7	-0.27767155
184	0x3bf6924a	0.0075247632
185	0x3ec09463	0.3761321
186	0xbe8725e9	-0.2639611
187	0xbd1aedc3	-0.037824403
188	0xbed5d107	-0.41761038
189	0xbe303f80	-0.17211723
190	0x3e659bbe	0.22422692
191	0xbef6461d	-0.48100367
192	0xbabadb47	-0.0014256024
193	0x3e5847ee	0.21121189
194	0xbf372f41	-0.7155648
195	0x3efa246b	0.4885591
196	0x3dab96a3	0.08378341
197	0x3ef7be13	0.48387203
198	0x3f0f225d	0.5591181
199	0x3d6228c1	0.055214647
200	0xbe2a4141	-0.16626455
201	0x3e9a9c04	0.30197155
202	0xbe1dffbb	-0.15429585
203	0xbe613735	-0.21993716
204	0x3eb002ff	0.34377286
205	0xbef71d50	-0.4826455
206	0xbdce7f4c	-0.10082874
207	0x3ee66012	0.4499517
208	0xbdfd4408	-0.123664916
209	0xbe4280b9	-0.18994416
210	0x3ec3167f	0.381031
211	0xbb8f21d3	-0.004368046
212	0xbd516deb	-0.051130217
213	0x3e661dab	0.22472255
214	0x3efd1b55	0.49434915
215	0xbeeb7871	-0.45990327
216	0xbee93a09	-0.4555209
217	0x3f096e16	0.536836
218	0xbebcc07f	-0.36865613
219	0xbf2d0954	-0.6759236
220	0xbd41f0ec	-0.0473489
221	0xbd0dcef6	-0.0346212
222	0x3f335f9a	0.7006775
223	0x3e63eca7	0.22258244
224	0x3e8389b2	0.2569099
225	0xbdf339a9	-0.11876232
226	0xbe91d328	-0.28481412
227	0x3f102617	0.5630812
228	0x3cd05c3c	0.025434606
229	0xbf26a60d	-0.65097123
230	0xbd37fd7d	-0.04491948
231	0xbf06aae6	-0.5260452
232	0xbeb10319	-0.34572676
233	0xbe9a5832	-0.30145413
234	0xbf3d1719	-0.7386337
235	0xbf16364a	-0.5867659
236	0xbee020d0	-0.43775034
237	0x3e579cfe	0.21055982
238	0x3ea493cb	0.32144007
239	0xbd80f51b	-0.0629675
240	0xbeec869a	-0.46196443
241	0xbe90640a	-0.28201324
242	0xbe893fce	-0.26806492
243	0x3ec00674	0.37504923
244	0x3e90e049	0.28296116
245	0x3e8993f2	0.26870686
246	0x3ecb570d	0.39714852
247	0x3dd14cbf	0.10219716
248	0x3ed95c82	0.4245339
249	0x3f10827c	0.56449103
250	0xbed9e820	-0.4255991
251	0xbebb86fe	-0.36626428
252	0xbd806e90	-0.06271088
253	0x3f2deab0	0.6793623
254	0xbe2c8228	-0.16846526
255	0xbc5d4755	-0.013505776
