TOYDATA/Models/Halfmoons_a=0.15_e=0.1.pt (torch, 270487 bytes, 10 tensors)

lays.0.weight f4 [256, 2]
00000000: da18 28bf 7c2a f33d 32fb 813e cea6 123f
00000010: 84ab 4538 88a6 0c36 68f6 923e ea25 eabe
00000020: 9a53 19bf 1df8 9fbe 34a6 023f 6c53 843e
00000030: 7566 14bf 35fc 1fbf 8810 52be ff6f 22bf
00000040: 385f e43e a13c 00b7 87d6 f43e df90 1dbe
00000050: 83b0 60be ab0a 3fbe 0fbf aebe a313 1dbf
00000060: 37da 1e3e 9f19 353f 6bc6 c1be 10bb 393a
00000070: 34b5 fdbe 70b8 d9be 7481 b7be 4363 63be
00000080: 7991 07bf a874 af3e 07d6 cb3e f1ef dd3d
00000090: dcfe 4c3e 8870 363f df5a 1bbf 2949 08be
000000a0: 9284 0cbf 604d 013f 7e28 463d fae8 e73e
000000b0: 24ee 263e 83cc febe d787 f1be 143b de3e
000000c0: b0ee be3d 4ecc 9336 3520 0f3f 96a3 aabd
000000d0: ce76 b93e b613 4c3e 52a0 29be 52fa 193e
000000e0: ecf4 163c e0e2 e93e 744f e73e 7f63 d03e
000000f0: e287 e1be 4264 da3e 274d 9ebe 4154 3437
00000100: 92df bdbe 5977 253d 8c32 793d 8e3e c93e
00000110: 412b 563d 5298 d436 9f08 bfbe cdc2 2abf
00000120: 08e5 ec3d f893 943c c063 09be 19c8 1b3f
00000130: 2387 2cbc 2bcf 023f e456 373c 51df bebe
00000140: ce84 03bf 9759 233e 8c7f 92be fda4 b13e
00000150: 7c48 6a39 233b 17bf 3831 f3be 7f48 163f
00000160: adc9 953e 4678 113f 2742 4d3e 89be a13e
00000170: daae efbb 393d eabe 139e 25bc a0dd 8a3e
00000180: 9de7 3c3d cd19 cdbe ba9b b13e b8a1 bf3e
00000190: e452 b2bc d25b f33e 77cc ef3e b946 07bf
000001a0: c136 73b8 1a35 783e ee76 1ebe 23de 093f
000001b0: 0624 0abf a940 8dbe 3d13 c33e 1198 293f
000001c0: ee42 ccbe f7d8 db3e f98f bbbd 05d6 8ebe
000001d0: 38df debe de49 c4be 5b3b 9fbe 92ca 04bf
000001e0: 92f2 9837 3937 0a3f 355c 883e 92d8 bebd
000001f0: f93b 833d 21be e6be 6aa4 b83e 2d2a 16bf
00000200: 2047 d3be ec79 263b 172e d2bd 54b4 09bf
00000210: f5b8 823e 9b6e 24bd 9bf4 08bf 45b4 20b8
00000220: 1284 e43e 5511 38bd adb1 cbbe 406a c3be
00000230: 0a16 153f 4346 843d 8e5a 9a3d 070e c13e
00000240: 6dcd c2be 93c3 0ebf 1618 853e e4bb 9cbd
00000250: e151 d8be f950 c9be 4516 8abe 4a92 113b
00000260: 453d 6abe 90bd ec3e 9c40 02bf cb5f 36be
00000270: 276a babe 3430 1ebf 8c7a ad3e 27ff c4bc
00000280: 9ede 0139 bd7f afb9 a62f 42bc 875e b13e
00000290: d251 073f fa4a 3bbc 3520 b5be 07fd 533e
000002a0: 7ec3 3bbc c6c7 263f bfb7 e43e 2fdd fcbe
000002b0: e0c6 13bf fedb 28bf c567 833e a828 10be
000002c0: a824 e73e 4df9 8ebe 777e 1fbc c2bd be3e
000002d0: 4b8f a8be 3940 e03e e38b 0ebf c2bd 003f
000002e0: c0ee 0739 5666 4e39 f05a 48be a832 eb3d
000002f0: cd9b 23bf 6432 f4b7 0f49 923b 4461 1a3f
00000300: 7e61 083f 5cbc a9be 4c40 2cbf 4719 5ebb
00000310: b6b0 103f 6013 0435 1806 c4be fc1b 06bf
00000320: 40a3 d13d 59d5 0e3e 3054 b83e 48c2 1fbf
00000330: 5e0f 2a3f 38a7 9bb5 8efb 013f ba21 d1be
00000340: 9e45 08be 777d e1be 8f32 90be 485e 593e
00000350: 1c93 223e 75c1 7f3e 5e22 c8be fc87 b6be
00000360: ab9c 863e 09db 593e 5cc9 f63e c9b2 183f
00000370: c4cb d4be 8a45 af3e ca09 233e de30 79be
00000380: 9fe4 7cbe 1e72 21bf 5039 173f eb45 1cbe
00000390: 95b5 a5be 7ccc 7dbd f796 acbe 61b9 c5be
000003a0: 0729 48be 4942 6cbe 6652 293f 1427 c4be
000003b0: ea32 c13e e9f3 3f3c b8f8 06bd f426 763e
000003c0: fba8 0b3f 9995 6fbe 1e45 42bc 0b66 033f
000003d0: d079 acb6 0c7c e63d 6dae 01bd 1b16 873e
000003e0: 9d04 06bf 6e31 47b7 e6c2 023f 2543 9bbe
000003f0: e03b cb3d adf9 8dbe 43c2 a93e 9d3e 00bf
-0.6566292 0.118733376 0.2538696 0.57285774 4.7128196e-05 2.095856e-06 0.28703618 -0.4573205
-0.5989319 -0.31243983 0.51034856 0.25844896 -0.5796884 -0.6249421 -0.20514119 -0.6345214
0.44603896 -7.643511e-06 0.4781992 -0.15387295 -0.21942334 -0.18656413 -0.3413014 -0.6135809
0.1551293 0.7074222 -0.37846693 0.00070850644 -0.4955231 -0.42523527 -0.35840952 -0.22205834
-0.5295635 0.3426869 0.39811727 0.10836781 0.20019096 0.7126546 -0.60685533 -0.13309158
-0.54889786 0.5050869 0.04837846 0.45294935 0.16301781 -0.49765405 -0.4717395 0.43404448
0.0932287 4.4047256e-06 0.5590852 -0.08331983 0.36223453 0.19929394 -0.16565064 0.15036896
0.009213667 0.45680904 0.45177805 0.4070091 -0.44048983 0.42654616 -0.30918238 1.0748453e-05
-0.37084633 0.040397022 0.06083922 0.39305538 0.052287344 6.3358248e-06 -0.37311265 -0.6670349
0.11567122 0.018136963 -0.13416958 0.608522 -0.010530266 0.51097363 0.01119015 -0.37279752
-0.5137452 0.15952145 -0.28612936 0.3469619 0.00022342982 -0.5907461 -0.47498488 0.5870437
0.2925543 0.5682415 0.20044766 0.3159068 -0.007314545 -0.45749834 -0.010108489 0.2712221
0.04611932 -0.40058747 0.34689122 0.3742807 -0.021768041 0.4753099 0.46835682 -0.5284229
-5.798671e-05 0.24239007 -0.15475056 0.5385458 -0.5396122 -0.27588394 0.38100615 0.6624766
-0.39894813 0.4293897 -0.0915832 -0.2789766 -0.43529677 -0.38337606 -0.31099972 -0.518716
1.8232768e-05 0.53990513 0.26632848 -0.09318651 0.06407923 -0.45066932 0.36062938 -0.58658105
-0.41265202 0.002540226 -0.10262697 -0.53790784 0.25531736 -0.040144544 -0.5349824 -3.831486e-05
0.44632012 -0.044938404 -0.39783993 -0.38167 0.58236754 0.06458714 0.07536803 0.37706015
-0.38047352 -0.5576717 0.2599494 -0.07653025 -0.4224997 -0.3931959 -0.26970115 0.002221244
-0.22874935 0.46238375 -0.50879836 -0.1780998 -0.36409113 -0.617923 0.33882558 -0.024047447
0.0001238533 -0.00033473774 -0.011852181 0.3464243 0.5285922 -0.01143145 -0.35376135 0.20701991
-0.011460183 0.6514858 0.44671437 -0.493875 -0.57725334 -0.6596068 0.25665107 -0.14078009
0.45145154 -0.27924576 -0.009734741 0.3725415 -0.32921824 0.43798998 -0.556822 0.5028955
0.00012963545 0.00019683814 -0.1956594 0.11484271 -0.6390961 -2.9110532e-05 0.0044642757 0.60304666
0.5327376 -0.3315152 -0.6728561 -0.0033889578 0.5651964 4.9202026e-07 -0.382859 -0.5238645
0.102362156 0.13948573 0.3600173 -0.62405825 0.664297 -1.1597067e-06 0.50774467 -0.40846044
-0.13307807 -0.44041035 -0.28163573 0.21227372 0.1587643 0.24976142 -0.3908872 -0.35650623
0.26291403 0.21274962 0.482005 0.59647804 -0.4156171 0.34232742 0.15921703 -0.24335048
-0.24696587 -0.63064754 0.59071827 -0.15261047 -0.323651 -0.06196259 -0.33708927 -0.38617995
-0.195469 -0.23072161 0.66141355 -0.38311064 0.37734157 0.011715868 -0.03295204 0.24038297
0.5455472 -0.2339691 -0.011857299 0.5132758 -5.1401803e-06 0.11254129 -0.031660486 0.26384053
-0.5235079 -1.1872833e-05 0.5107864 -0.30324665 0.099235296 -0.2772955 0.33156022 -0.5009554

lays.0.bias f4 [256]
00000000: 812b 973d ba0d 10bf e0fb 98bc 2b8b dabe
00000010: cad6 103f 27ce 0b3f afb6 06bf d2b1 063f
00000020: c9c7 d5be a873 d6be 5d8e 2dbe 37a5 d9be
00000030: cf38 18be 39a9 433f 517d 403e 2284 9abe
00000040: cdfa ca3e ae95 103e 7f8e 473e 61d0 863e
00000050: c136 ae3e 9623 603e 8498 fc3e 035c 1bbe
00000060: 6b82 b3bd 4531 283f 9258 143f 926a 2a3f
00000070: d1ca 22bf 3b11 82be e5fc 48bd b42e f3bc
00000080: a22a 0cbe 1526 8fbe 7e0f 1ebf 667f 30bf
00000090: 91c0 1c3f 93ce bd3e fde7 ef3e 314d ab3e
000000a0: b319 d23e 2000 073f 3cb5 143f 5b87 0dbf
000000b0: 8a40 9fbc b8ab febe da3f 2a3d 22fd 153f
000000c0: c599 af3e ee44 31be 1012 a23e 5a21 1f3f
000000d0: da07 633d 59d2 80bd 0615 0cbe a0de 0e3e
000000e0: e55c 1cbf 3aa8 26bf daac 1dbf cca7 06bf
000000f0: 1ff3 02bf d57f 3ebc 3e87 0b3f 5e5f b13d
00000100: 3829 3f3f 17d0 d4be 445d 3bbe 2775 fbbd
00000110: 3e0e d4be 5d91 d13e 2024 24bf b460 fbbe
00000120: e038 c1be 67ae 393f d016 3fbd 90e5 0c3f
00000130: ba40 da3e 55bf b9be 486a 99bd 8c08 b4bd
00000140: f57e 293f 7a2b 093f 1f8d 6ebe 0b39 253f
00000150: c65e 3b3f 5d86 0d3f f3a8 39bf 31e1 8b3e
00000160: e1b7 2c3f 9d24 2e3e 3508 e73e f8be dbbe
00000170: f312 2d3f a38d 333d 3ef6 34bd 1def 073f
00000180: fa72 1b3f 6920 1ebf 3d32 cbbe 622d 26bf
00000190: fe2a 09bf 0b7d 103f 9b8e 20bf 8e61 0fbe
000001a0: 1979 0fbf 2e71 ff3e 4116 edbe 45db 1dbf
000001b0: a9dd 283e 51f9 a5be dcd1 9bbb 4b85 34bf
000001c0: 87b3 1d3f ca55 aebc 1263 cebe 42e2 f93e
000001d0: ff57 1abd c9fe 08bf 5974 4b3e 8f3d 143e
000001e0: a5a9 0d3f 1310 d33e 1714 25be 54ad 0cbf
000001f0: 4284 583e e230 013f c60e 25bf 7d9a f03e
00000200: 36d5 06bf d711 003f 2de6 d93e f4c2 c93e
00000210: abfc 1c3f 1957 4cbc 2691 9f3e 5de2 353f
00000220: 7d42 9b3e b13a 303f 427e 2bbf abdf 9b3e
00000230: 290e 31bf 8dc4 083f f68a 1fbe 5886 dfbd
00000240: 5cd7 343f 0dbc f43e fe27 e43e 26b2 ea3e
00000250: 70e8 d0be 7516 193f 5d6b 19bf 6801 01bf
00000260: fe63 05bf 415d 2bbf 3d0d 193c ef66 203f
00000270: 8f14 bfbd 9cfb 073e 31f8 d9be 7ad3 b83e
00000280: 6217 8b3d 304a d33e cd5c c3be 1cdc 5b3e
00000290: 5273 033f 655c b83e f6db 043f a237 1a3f
000002a0: e299 19be 3ca3 09bf de4d c93e 7900 0b3f
000002b0: 93c3 c5be 885e afbd e502 103f 9e63 06bf
000002c0: e7a7 4cbc abf7 853e c95e ec3e 18e8 743e
000002d0: d9a0 68be 58a4 b13e 8ad9 bb3e 3506 83be
000002e0: df05 12bf 8c5c d1be 249d 6dbe 4ef9 12bf
000002f0: 7cdc c9bd 9f2c 1c3f c690 7cbe a829 93be
00000300: ea12 1f3d af4a 013f b8b9 34bf 337a 2d3f
00000310: 44ae b73d 7f29 e33e 334e 15be d0b7 cbbe
00000320: 2ebd cc3e 3c3e 283f b462 ab3d 1a10 083e
00000330: 0c2a 983e 75f2 783d 527c 19bf 21bb 153c
00000340: bb58 dbbd e574 273f a6c5 1e3f a17a e3be
00000350: e5ed d3be 2d99 b8be b3b7 dabe 1b43 27bf
00000360: 3a10 59be bfcc 043e 8fe0 0cbf 4c3d 9a3e
00000370: 7d89 28be aee8 2bbf c9cf 933c 6663 debe
00000380: ebd2 233f 0105 8b3e d1ec a8be 5083 683c
00000390: b039 29bf f57e c93e 1eb2 1a3f 4ccf 12bd
000003a0: d052 3d3e 6dbb 02be 2807 96bd 3145 4d3f
000003b0: 4e79 2b3f 0659 313f e619 3fbd 9fd7 b93e
000003c0: 247a 28bf 473b c9be b31d 77be a246 173e
000003d0: 27cb 043e 006e ecbe b6e8 05bf 5fa1 833e
000003e0: 8830 863d 21d5 7bbe a6f7 2e3e 5cca d2be
000003f0: c3a8 603d 0df9 173f 7016 333d 1367 b5be
0.073813446 -0.56270945 -0.01867479 -0.42684302 0.5657774 0.5461144 -0.52622503 0.5261508
-0.41753986 -0.41885114 -0.16948839 -0.4250886 -0.14865421 0.7643009 0.18797804 -0.30178934
0.3964447 0.14119598 0.19487952 0.26330855 0.3402615 0.21888575 0.4933511 -0.15171818
-0.0876511 0.6570018 0.5794765 0.66568863 -0.63590723 -0.2540377 -0.049069304 -0.029685356
-0.13688138 -0.27958742 -0.6174239 -0.68944395 0.61231333 0.37071666 0.4685668 0.3345733
0.41035232 0.52734566 0.5808904 -0.5528466 -0.019439954 -0.49740386 0.0415648 0.58589375
0.34297004 -0.17311451 0.31654406 0.62160265 0.05542741 -0.06290121 -0.13679895 0.13952112
-0.61079246 -0.65100443 -0.61591876 -0.5259979 -0.51152223 -0.011627157 0.5450324 0.08660768
0.7467227 -0.4156501 -0.18297297 -0.122782044 -0.41417116 0.40931216 -0.6411762 -0.49097216
-0.37738705 0.7253174 -0.046652615 0.55037785 0.42627507 -0.36278787 -0.07490975 -0.08790693
0.66209346 0.53581965 -0.23296021 0.64540166 0.7319149 0.5528315 -0.7252342 0.27320245
0.67468077 0.17006154 0.4512345 -0.42919135 0.6760704 0.043836247 -0.044180147 0.5309923
0.60722315 -0.61768204 -0.39686766 -0.64913 -0.53581226 0.564408 -0.627176 -0.14002058
-0.56044155 0.49891037 -0.4630604 -0.61662704 0.16490807 -0.32416776 -0.004755242 -0.7051589
0.6160206 -0.021281142 -0.4030996 0.48805434 -0.037681576 -0.5351377 0.19868602 0.14476608
0.5533698 0.412232 -0.16120945 -0.5495198 0.21144202 0.50465214 -0.6447567 0.46992865
-0.52669084 0.5002722 0.42558423 0.3940655 0.6132304 -0.012471938 0.31165427 0.7104853
0.30324164 0.68839556 -0.6698953 0.30444083 -0.6916223 0.5342491 -0.15580353 -0.10914296
0.7064111 0.4779972 0.44561762 0.4583904 -0.40802336 0.5979989 -0.5992945 -0.5039277
-0.521057 -0.6693917 0.009341535 0.62657064 -0.09330093 0.13279575 -0.42572168 0.36098844
0.06791569 0.41267538 -0.3815674 0.21470684 0.5134784 0.3600799 0.51898134 0.6024114
-0.15000108 -0.537647 0.3931722 0.54297596 -0.38625774 -0.08562952 0.56254417 -0.52495754
-0.012491203 0.26165518 0.46166065 0.23916662 -0.22717609 0.34695697 0.36689407 -0.25590673
-0.5704021 -0.4089092 -0.23204476 -0.5741166 -0.09856507 0.61005586 -0.24664602 -0.2874272
0.038836397 0.50504583 -0.70595884 0.67764586 0.089687854 0.44367597 -0.14580612 -0.39788675
0.39988083 0.6571996 0.083684355 0.13287392 0.2971958 0.0607781 -0.5995532 0.009138853
-0.10710283 0.6541274 0.6202034 -0.44429496 -0.41392437 -0.36054364 -0.42718276 -0.6533677
-0.21197596 0.1296873 -0.5503015 0.3012489 -0.16458698 -0.67151916 0.018043416 -0.4343521
0.6399371 0.27152255 -0.32993177 0.014191464 -0.6610365 0.39354673 0.60428035 -0.035842225
0.18488622 -0.1276681 -0.07325584 0.801837 0.6698197 0.69276464 -0.046655558 0.36297318
-0.6581137 -0.39303038 -0.24132423 0.14773038 0.12968121 -0.46177673 -0.52308214 0.25709054
0.06552225 -0.24593021 0.17086658 -0.41170013 0.054848444 0.59364396 0.04372257 -0.35430202

lays.1.weight f4 [256, 256]
00000000: 0569 a638 13a8 e238 31e9 263b 0811 0838
00000010: bbfa e2b8 5e87 14b7 28bd 10b7 d2ab 9cb8
00000020: dc3c 42b8 9797 7838 008e 3db4 8a34 15b9
00000030: 1d5e 3cb8 571e 44bb ddf5 5cb9 71bf 8bb7
00000040: 6c06 0137 bc44 1db8 8cd8 b4b7 b03d 29b9
00000050: e858 1db9 0c68 41b9 7b5c 6a3b 3fbb a3b8
00000060: 0ea9 feb7 985b 2cb8 4fa6 1037 6860 9dba
00000070: 5db3 96b7 333a 9938 9c5c 3f39 a218 aeb9
00000080: c72e 8338 c245 92b8 6f60 5837 80af 5db5
00000090: 995f d23b a01d 06b9 bcee aa37 cac3 fd3c
000000a0: f620 2f37 8fdb 02bd 90de 1b39 a59b 12b9
000000b0: 2290 feb7 739d 61b9 a916 ab37 1075 eebb
000000c0: 4bac 02b8 3432 d337 b31a 1ebd 80ec fa3c
000000d0: 2f77 4fb9 0ce2 f3b7 7ad3 1fb9 4c41 0738
000000e0: 5d9e 8738 b7bb 90b8 4e6c f838 48ff 5637
000000f0: f966 f2b9 3a79 9d3b 600d 653d e045 e735
00000100: 71a2 e0b9 6488 d938 2f2b 8f39 a40b c837
00000110: 14ae a937 0cfa d638 3997 e338 ae87 8c37
00000120: 6480 1bb9 5062 14b9 b826 a5b9 4c6e 07bb
00000130: bd0f bbbc cf31 26b7 a9b8 2339 e5c1 23b7
00000140: 560c aeb8 f468 9ab9 4c32 db37 b88b 43b9
00000150: c8ba 58b7 09a6 0d37 b8de e636 b1c6 2e3c
00000160: c97f f7b8 f069 6236 5832 0aba 9087 3c36
00000170: 13db 713d 84b1 d0b8 4dd8 9b37 9fbf feb9
00000180: 6bfe 063d 802b 2939 63a3 85b7 6fa7 8d37
00000190: 7018 4d36 7f96 373d a0ae 4bb8 8678 dd37
000001a0: 20fd b7b5 9c59 65ba 7b23 0d39 1543 27b9
000001b0: dafe ebb7 7c06 6238 b05b dfb7 b157 e939
000001c0: 173d b238 0c32 a437 6cbe f9b8 94d1 e737
000001d0: a843 5538 5da9 8b38 b6c0 f538 49f3 bdbc
000001e0: de5c 5eb9 349a 6bb6 508e 50b7 949e bbb9
000001f0: e812 8e38 f7f9 42b7 da72 cbb7 fe23 a1b7
00000200: ff9c bf39 feec 86b7 2c8c da37 d130 d5b9
00000210: c278 4237 db4a 48b9 2868 90b8 b1c1 a4bc
00000220: 30da ba36 17b2 263d cba2 97b9 35ce b938
00000230: f437 dbb7 33df db3c 00b4 4639 40e5 69b7
00000240: b3c2 b7bc b218 9e37 0ade 8a3c 2402 3cbb
00000250: 6bdd 0ab9 19c9 63ba 434b 8737 4576 08b8
00000260: 0d03 1f39 3dd0 d5b8 3aee b137 7b81 d7bb
00000270: eafb bbb9 816a fbb9 d0f8 41b6 fe0f 2a38
00000280: 6e87 99b7 f835 323d 4000 6a35 6122 813b
00000290: ceeb 08ba 4720 88ba 87c1 10ba ca25 8fb9
000002a0: cbd6 44b8 a1c2 75b8 feee 0cba e4ef d9b7
000002b0: ac44 04b9 083e 5ab6 d09e b2b9 35f0 fa37
000002c0: 8953 3a39 a77e b3b9 7118 4dbc b1ce cd3c
000002d0: d3a4 9ab8 0a2e 25bc b8fa feb7 4aaa bab9
000002e0: 4005 c838 05fc b2b9 5107 36b7 e05f 03b9
000002f0: a261 b437 f367 c33c d020 f136 ead9 2638
00000300: 0433 8fb8 8473 9cb8 a884 8e37 a1b8 57ba
00000310: 7861 3639 c7bc beb9 b6fa ac38 a188 d738
00000320: 5448 67b7 ebc8 a4b8 5c09 fab9 b6a5 75b7
00000330: 47c9 c0b9 547b 0336 4885 26b9 fe49 89b8
00000340: 43f8 b3b9 e670 7fb9 4f6c 23bb 0a5b edb7
00000350: 84f5 7137 fb10 dcb8 454f 44b8 0974 4737
00000360: a1f2 1439 c6ad 5a36 fc56 cd38 b331 60b9
00000370: d787 2d39 6c12 2939 874c 61b8 2819 90b7
00000380: 979d 1b3d 70c9 9235 aa79 c5b8 0351 60b9
00000390: 2ec9 7339 5242 a5bb 6200 84b6 9bbd bf38
000003a0: 5e9c 09bc a39b 09b8 ac8a 86b8 f01a 0836
000003b0: 20f0 c8bb 7eb0 8037 e82a c837 6c2c 19ba
000003c0: 4174 c8b9 a13d 0eb8 cc34 aab9 cdbb 58b8
000003d0: a6c1 9738 b4aa 1339 dcce b9b8 1e2b 92b7
000003e0: f6d8 1cb9 96f9 2e39 50af 9f38 f947 7638
000003f0: a0ee 93b7 18ac 7ab9 fc3b 5638 ae80 f737
7.935058e-05 0.00010807826 0.0025468583 3.244079e-05 -0.00010823222 -8.853005e-06 -8.62711e-06 -7.470664e-05
-4.6309884e-05 5.9268987e-05 -1.7653656e-07 -0.0001422932 -4.4910343e-05 -0.002992531 -0.00021072426 -1.6659238e-05
7.690494e-06 -3.749573e-05 -2.155851e-05 -0.00016140076 -0.00015005807 -0.00018444675 0.003576069 -7.807323e-05
-3.0357882e-05 -4.10933e-05 8.621791e-06 -0.0012006881 -1.7964916e-05 7.306449e-05 0.00018249679 -0.0003320622
6.25528e-05 -6.974816e-05 1.2897056e-05 -8.25843e-07 0.0064200875 -0.00012790272 2.0376749e-05 0.030977149
1.0438487e-05 -0.03194767 0.00014864863 -0.00013981627 -3.0346277e-05 -0.00021516327 2.039534e-05 -0.0072771385
-3.1154876e-05 2.5176538e-05 -0.03859968 0.03063035 -0.00019785458 -2.9073119e-05 -0.00015242203 3.224732e-05
6.466799e-05 -6.90142e-05 0.00011845735 1.2814831e-05 -0.00046234558 0.004805711 0.05592096 1.7231177e-06
-0.00042845638 0.00010372771 0.0002730726 2.3847278e-05 2.0227431e-05 0.0001025089 0.00010852371 1.6752481e-05
-0.00014829781 -0.00014151004 -0.000315001 -0.0020665107 -0.022834653 -9.905968e-06 0.00015613683 -9.760702e-06
-8.299264e-05 -0.00029451365 2.6130256e-05 -0.00018648698 -1.2918092e-05 8.442913e-06 6.880462e-06 0.010667489
-0.0001180168 3.3738288e-06 -0.0005271784 2.809309e-06 0.059046816 -9.951278e-05 1.8578163e-05 -0.00048589424
0.032957476 0.00016133301 -1.5930918e-05 1.6886477e-05 3.0561605e-06 0.04482126 -4.8561604e-05 2.6401376e-05
-1.3708232e-06 -0.00087490096 0.00013460025 -0.00015951351 -2.8132858e-05 5.3888638e-05 -2.6626367e-05 0.00044506558
8.49908e-05 1.9573628e-05 -0.00011908714 2.7634938e-05 5.0846167e-05 6.659583e-05 0.000117184056 -0.023187296
-0.00021206166 -3.5107487e-06 -1.2430901e-05 -0.0003578557 6.774609e-05 -1.1621501e-05 -2.4252968e-05 -1.9209456e-05
0.0003654733 -1.6084403e-05 2.6052898e-05 -0.00040662897 1.1591417e-05 -0.00019101372 -6.885856e-05 -0.02011189
5.5686323e-06 0.040697183 -0.00028922255 8.8598965e-05 -2.613289e-05 0.026839828 0.00018949807 -1.3941259e-05
-0.022431707 1.8846567e-05 0.01695158 -0.00286878 -0.0001324319 -0.00086893287 1.61283e-05 -3.2535074e-05
0.00015164558 -0.00010195419 2.1210977e-05 -0.0065767146 -0.0003585511 -0.00047953802 -2.890407e-06 4.0546052e-05
-1.8302086e-05 0.0435085 8.7172157e-07 0.003940866 -0.0005223126 -0.0010385596 -0.0005522002 -0.0002730324
-4.6930083e-05 -5.8593814e-05 -0.0005376189 -2.5980124e-05 -0.00012614083 -3.2520638e-06 -0.0003406913 2.9914178e-05
0.00017769462 -0.00034235904 -0.012518034 0.025122972 -7.373993e-05 -0.010081777 -3.039591e-05 -0.0003560356
9.537721e-05 -0.00034138575 -1.0849749e-05 -0.0001252885 2.1503136e-05 0.023853278 7.1861796e-06 3.9780432e-05
-6.828274e-05 -7.460176e-05 1.6989492e-05 -0.0008229111 0.00017393182 -0.00036380274 8.248298e-05 0.00010277448
-1.3785513e-05 -7.857553e-05 -0.0004769069 -1.4641721e-05 -0.00036771057 1.9592308e-06 -0.00015880645 -6.546451e-05
-0.0003432651 -0.00024360753 -0.0024936383 -2.8294995e-05 1.4421883e-05 -0.0001049358 -4.6803867e-05 1.1888341e-05
0.00014204766 3.258568e-06 9.791364e-05 -0.00021380819 0.0001654917 0.00016123959 -5.3715452e-05 -1.7177852e-05
0.037992086 1.0936474e-06 -9.416354e-05 -0.00021392484 0.00023249231 -0.0050433064 -3.933951e-06 9.1429065e-05
-0.008399097 -3.2808293e-05 -6.4154476e-05 2.028126e-06 -0.0061321408 1.5340975e-05 2.3861838e-05 -0.0005843106
-0.0003823359 -3.3912835e-05 -0.00032464263 -5.1673316e-05 7.236311e-05 0.00014082604 -8.860018e-05 -1.7424634e-05
-0.00014958144 0.00016686911 7.614365e-05 5.8718e-05 -1.7634884e-05 -0.00023905968 5.107744e-05 2.9504616e-05

lays.1.bias f4 [256]
00000000: 9176 353d 8558 4a3c bac0 97bb 5104 bd39
00000010: 23cc 8dbb 8e0f 08bd 98c4 cc3c 027f efbc
00000020: b14f 6a3c 0487 b3bc a0fa 1fbd 92ac cf3b
00000030: 92c2 303d f0d5 313d cac1 06bd 8819 9b3d
00000040: 9e57 c0bc a138 02bd 5693 8abd 65ef 6bbd
00000050: 796c 36ba eeee 8a3c 30e5 4cbd 5680 7ebb
00000060: f97a 02bd f163 98bc b310 f93c 2e7e 823d
00000070: 9c7f 23bd 2bf3 cd3d eca6 cb3b ee3a 9d3c
00000080: bab8 ae3c 11c2 b13d c363 0ebd ccb6 013d
00000090: b502 debc 3a3d b63b 8913 62bd 3b8f 203d
000000a0: d119 a3bd 63ae dcbc bc9a 3ebd 4e74 5fbd
000000b0: 9cab 6a3c f901 873c a59e ebbc 5684 09bd
000000c0: 4ffd 0b3d 79aa 04bd 439e 8dbd 3cb2 02bd
000000d0: 774a 2a3d 6f33 92bc f738 863c 5e56 883c
000000e0: dcfa a43d efa7 2b3d 1584 be3c 3e24 83bd
000000f0: cbcc 86bd 535c 0dbd 6f42 4a3c 69b6 48bc
00000100: d24f 41bd 7dda 8a3d 166a 2ebd 03a8 313d
00000110: fe57 2bbc 6e66 14bd 6918 283c 4e32 56bd
00000120: 25e9 96bd 0d54 80bd ca1e 14bd b704 92bd
00000130: 269f 9bbc cacb 7a3d 359d 69bd 2c5a 7cbd
00000140: 7e77 bb3b 3864 cabb 53e5 66bd 0271 353d
00000150: ccaf 393d eb51 00bd 2fc0 66bc 861c 863c
00000160: df67 63ba 9273 fd3c a373 7f3c 9d5c 073d
00000170: fd53 563c 9e01 18bd cbce 38bd 800e a3bb
00000180: afd3 8dbd 5eee 00bd db2d fcbc b6a7 1d3d
00000190: 6632 47bc 2267 2f3d 9484 abbb d0e8 1f3c
000001a0: 8bbf 033d 8daf 12bc af7a 6f3c 5699 7a3d
000001b0: 5995 d53c f16c c63c d58f 733c 422b a03c
000001c0: f95a 9cbc 9c87 8dbd 747a e03c b11d a3bb
000001d0: 4697 1d3d 38c2 843c 20d8 b9bc d6d7 253d
000001e0: d440 973d 4b6c 4bbd e7b3 873c 8978 77bd
000001f0: f975 6cbd 8fcf 85bd b419 52bc 2635 083d
00000200: 770e 43bd e835 ab3b 41d5 833d 0842 95bc
00000210: 9d0f 5b3d e296 67bd 1205 89bd 64f0 e8bc
00000220: 6194 5abd 857f 11bc ff1f 0ebd 549e 2d3d
00000230: 499f b1bc eb9f ce3c 6c27 a93c 9d07 173d
00000240: 8a2e 4dbd 193f a7bd a96c 76bd aa22 07bd
00000250: bcc7 e63a 55c2 e5bc 807c 04bc 2a3c 9ebc
00000260: 5f54 03bc c247 123c db53 143d bd84 a4bc
00000270: f67a 23bc 75cc e73b 7bc8 34bc 74d4 633c
00000280: 386b 8b3d dd23 57bc da96 2fbd 9c3c b33d
00000290: 6bfb f03c 1453 1a3d 04d5 ad3c eb80 b8bb
000002a0: 310f a13d 2eb0 71bd 32c8 f73a 602a 0fbd
000002b0: 3d5c 443d cfc9 62bd 03f7 a83d bbd5 53bd
000002c0: dbd5 09bc eace 83bd 6093 81bb 34f0 c9bc
000002d0: 6a3b 94bd bc3c 933b 830f 32bc 2e6d 983c
000002e0: 3788 2cbd 075b e33a 1192 b53c e7e0 efbc
000002f0: 1c94 73bd 2612 073d 9496 51bc 1ccd 8ebd
00000300: df92 dbbb 217e 23bd af1b 7fbb ee8d 6cbd
00000310: 5484 053d 63c2 b93b b597 70bb a9e2 5f3c
00000320: 1135 fcbb 4462 cf3b 5a75 933d b5ae 9cbc
00000330: 7642 8abd 2958 8c3d 19a9 3a3b 8356 f53b
00000340: a04d c83c f71e cbbc 3e6c ac3c 5358 0cbd
00000350: 3666 2b3c 82ab 1d3d 596d 9fbc 6ce2 4ebc
00000360: 8e65 60bd af50 323d a147 8a3d b06f 36bc
00000370: 8da2 d33c 0764 79bd de02 0bbd 9155 313d
00000380: 8e45 3a3d 83b4 9c3c eac4 82bd 4250 483d
00000390: 6ca2 8dbc 528d 3d3d 5b52 16bd 220e 0e3d
000003a0: 0bf1 953b c89c 963d 5319 07bc 008a ef39
000003b0: 623a 80bd 6f36 923c 4134 89bd 4810 88bd
000003c0: 7c3d bbbc 1dd5 793d 43e7 4e3c cb2e 3cbd
000003d0: 67c3 9d3c a77e 143d 27bd a13d 4045 31bc
000003e0: c84d 01bd a95b 2fbc 53fe 8ebb 4ce3 91bb
000003f0: 01f7 3ebc e2c0 943d 22f0 2a3d b92b 8dbd
0.044302527 0.012350206 -0.004631129 0.00036052105 -0.0043273135 -0.03321796 0.024996087 -0.029235367
0.0143012265 -0.021914966 -0.039057374 0.0063377107 0.043154307 0.043416917 -0.032899655 0.07573229
-0.02347928 -0.031792287 -0.06766383 -0.05760135 -0.00069589127 0.016959634 -0.050023258 -0.0038833818
-0.031855557 -0.018602343 0.03040347 0.06371723 -0.03991662 0.10056146 0.006214967 0.019193139
0.021328319 0.08679593 -0.03476311 0.03166847 -0.0271009 0.005561498 -0.05519441 0.039199095
-0.079639085 -0.026938623 -0.046534285 -0.054554276 0.014323141 0.016480433 -0.028762171 -0.03357347
0.03417712 -0.032389138 -0.06914952 -0.03190826 0.04157492 -0.017846791 0.016384585 0.016642746
0.0805566 0.0419082 0.023256341 -0.06403397 -0.0658203 -0.034511875 0.012344941 -0.012250521
-0.047195263 0.067799546 -0.04258164 0.04337312 -0.010457991 -0.036230497 0.010259726 -0.052294068
-0.073686875 -0.062660314 -0.036162175 -0.071298055 -0.018996786 0.061229505 -0.05703469 -0.061609432
0.0057210317 -0.006176498 -0.056371044 0.044297226 0.04533367 -0.031328123 -0.014083906 0.016371023
-0.0008674841 0.030938897 0.015591535 0.033047307 0.013081548 -0.037110917 -0.04511909 -0.004976094
-0.06925141 -0.031477325 -0.030783584 0.03849002 -0.012158012 0.042822964 -0.0052343104 0.009760097
0.03216509 -0.008952987 0.014616652 0.06118139 0.026072191 0.02422187 0.014865835 0.019551877
-0.019086348 -0.06910631 0.02740214 -0.0049779047 0.038474344 0.016205892 -0.022686064 0.04048904
0.07385412 -0.049663823 0.016565276 -0.060417686 -0.057729695 -0.06533729 -0.012823511 0.03325381
-0.047621217 0.005224932 0.06437159 -0.018219963 0.053481687 -0.056540377 -0.0669042 -0.02843494
-0.05336416 -0.008880501 -0.034698483 0.04238732 -0.021682398 0.02522274 0.02064868 0.036872495
-0.05009321 -0.08166332 -0.06016222 -0.032992043 0.0017607133 -0.028046766 -0.008086324 -0.019315798
-0.008015721 0.008928241 0.036212783 -0.020082826 -0.009978047 0.0070739337 -0.011034126 0.013905633
0.0680756 -0.013131109 -0.042868473 0.08751795 0.02941676 0.037676886 0.021219738 -0.0056306026
0.07864226 -0.05900591 0.0018904267 -0.03495252 0.047939528 -0.05536824 0.08250239 -0.0517175
-0.0084128035 -0.0643595 -0.003954336 -0.02465067 -0.07237895 0.004493324 -0.010867956 0.018606748
-0.042122092 0.0017345854 0.022164376 -0.029282046 -0.05946742 0.032976292 -0.012792248 -0.06972715
-0.006700858 -0.039915208 -0.0038926413 -0.057752542 0.0325969 0.0056689247 -0.0036711518 0.01366488
-0.0076967557 0.006328853 0.072001174 -0.019126276 -0.06750958 0.06852753 0.0028482138 0.0074871196
0.024451077 -0.024795039 0.021047708 -0.03426392 0.010461381 0.03849364 -0.01946132 -0.012627225
-0.05478435 0.043533977 0.067519434 -0.011135027 0.025834346 -0.06088641 -0.03393828 0.043294493
0.04547649 0.019129043 -0.063852146 0.048904665 -0.017289363 0.04627735 -0.036699634 0.034681447
0.0045758537 0.073541224 -0.008245784 0.0004568845 -0.06261136 0.017848222 -0.0669942 -0.066437304
-0.022856466 0.060994256 0.012628379 -0.045943063 0.019258214 0.036253598 0.07897406 -0.010819733
-0.03156832 -0.010703006 -0.004363814 -0.0044521447 -0.01165557 0.07263352 0.041732915 -0.06893105

lays.2.weight f4 [2, 256]
00000000: 1a5e 30ba d40f f7bc a5d8 083c 0e31 9b3c
00000010: ce22 9bba 7c5a 1f3a dae2 d1bc 6f15 3b3d
00000020: daf7 16bd d6a5 2b3d 7f89 443d bfa4 afbc
00000030: 1e89 a8ba 04ff aa3b c4c7 58bd 30ea 05b9
00000040: 634f 53bc 7039 eaba b189 b33b 070f 0a3c
00000050: 5305 7d3b ea39 11bb f0ea 2c3d a516 2c3b
00000060: 215b 9fbb 849e 0f3b 0236 0438 0dc4 bcba
00000070: ef6c 39bc 696f 823d 473d 173d 4f61 a23c
00000080: 04fd 6e3a 3fba 16bb 2efa a23c 54d0 e0ba
00000090: 9eea 55bc cd3f 3fbd 20e8 16bd fccd 873c
000000a0: 0f50 903c 9caf 76ba 23c3 c0bc 1592 17bc
000000b0: dfbb a53c ec94 373d 7cc2 38bd be18 67ba
000000c0: 7255 ddba 595e b93c 39b3 97b5 b8e8 3aba
000000d0: bc56 0e3d 5402 dabc 29a9 df3c a63d c3ba
000000e0: ea4c 543d 2fbd 0b3d 7eb7 e53c 6d6f e53c
000000f0: 46ee 5ebd 62dd 81bc c9f1 ed3c a71a 3d3c
00000100: 0eb9 ca38 4aef b13c 8e90 97bc dfe9 dbba
00000110: 9b53 be3a 4c68 85ba 3325 e4ba aae5 47bd
00000120: 0411 c0b3 30c3 433d 2114 a9bc e07a a73b
00000130: 7f54 30ba f8d8 0cbb f8be 95bc 3700 9e3c
00000140: 0aac e43c 4efb bc3c 229c ecbc 1483 eaba
00000150: be50 92bc b2b5 d43b 17a3 113d 6903 26bc
00000160: 10e3 493c 1b8c 0d3d 42b0 9dbc e005 1539
00000170: aaf4 e43c 62ef 4c3d 7397 4bbd 6012 66bb
00000180: 1c3b 563c f4a9 413d 3c17 a6bc 37aa b43b
00000190: c546 063d 6e0c 723c 45c4 483c d538 ae3c
000001a0: 1b62 b83a c4eb 513d d4a7 3d3d 96c5 f03c
000001b0: e99b ccba bcf2 18bc 5311 bc3c b22e 8fbb
000001c0: daa3 83b8 437a 3d39 7876 533c 620f 2fbb
000001d0: fd56 3f3c 8e4c 573c f4f5 233d 31de 523d
000001e0: 8514 323d 6a84 6f3c b233 b2bc 9a20 303d
000001f0: 2074 8a3b 2ded 4b3a f63f ce3c 4a93 9bbc
00000200: be9d 063a c8e8 36bc b388 d1ba 6082 963c
00000210: adaf ef3a 4acc 8b3b 4179 0c3d bedb 45bd
00000220: 1a3f 5e3b 91e8 83bb 8059 aebc 3cf9 5fba
00000230: 94ea b4b7 5ddd f7bb b3bf 09bd 966b 9aba
00000240: b653 c63c 7bd3 abbc a4de 0ebc 59a4 26bd
00000250: 64bd c1ba 0f7e ba3c cb4d b3b9 64fd f83c
00000260: a969 30ba 3852 ac3c ef57 2fbd 7e00 42ba
00000270: 639d cfbc 3a7e fdb9 0f7d e9bc d2b8 abba
00000280: d8b0 5eba d814 a2b8 e43d 153d 3b91 153d
00000290: b742 89ba a2af 223d 9169 b8bc 6826 1ebc
000002a0: 52ad a4ba a068 b53a 5f27 16bb 76e7 5dbc
000002b0: 288f 0fbb c08a e33b 6ca3 3c3d e79f 5e3b
000002c0: 2b1d 2ebd f8e3 0dbb 48ea 033d 1434 1db9
000002d0: c302 733b 6153 d63c 9c03 af3b ae7c b23b
000002e0: f244 16bd 60d4 4f3c 1484 bdbc a808 beb9
000002f0: d50a 0eba 9681 6abb b004 dc3c 094c c53b
00000300: 744d 3eb9 90f8 4bbd f8fe 8239 7622 8c3c
00000310: a163 d5b9 53ea 953c 52fb 46bb b771 643d
00000320: dc77 8cbc 41f5 fcbb 8510 9439 81d6 47bc
00000330: 7b38 d3ba 9f5c b4ba 0e8b beba 08f6 953b
00000340: 3a4d f83c 1171 ae3a 14c2 42bd dde7 55ba
00000350: 14c2 23bd 87f7 143d 3a57 e8bc 9d3d 4bba
00000360: 78bc d8bb 28a7 803c 6381 d7ba 7dea 67bb
00000370: 25f3 ef3b e307 153c 562a 10bc 1996 1cbd
00000380: 5872 423d c0e4 87b9 8123 2ebc 3cd1 a6ba
00000390: 7475 243c dda1 1abc a88e fa3c 2cbd 82b8
000003a0: 56cb e03b 543c f93c c8c7 a539 e867 eb3c
000003b0: 3970 9f3b a27a 44ba d50a 293a d0cd 45bb
000003c0: 6074 ee3b 667a 93ba fcdb 6cbb fc07 a439
000003d0: acad e2bc 2f2d d23c 02e4 05bb a7af 11bd
000003e0: 92ea aeb9 0508 b93c 7f2c 36bd ce02 18bd
000003f0: ef15 d03c 68c1 95ba ec48 67bc cc57 133d
-0.00067278894 -0.030158915 0.008352433 0.01894429 -0.0011835934 0.0006078852 -0.025620867 0.045674738
-0.036857463 0.0419062 0.04798269 -0.021440862 -0.0012858247 0.0052183885 -0.052924886 -0.0001277111
-0.012897345 -0.0017869901 0.0054790606 0.008426434 0.003860791 -0.0022159764 0.04221624 0.0026258614
-0.0048631583 0.002191455 3.152155e-05 -0.0014401689 -0.011317476 0.06368906 0.036923673 0.019821791
0.0009116682 -0.0022999195 0.019894686 -0.001715193 -0.013056425 -0.046691705 -0.036842465 0.016577713
0.0176163 -0.0009410323 -0.023530548 -0.009251137 0.020231185 0.044819757 -0.04510735 -0.00088156376
-0.0016886427 0.022627996 -1.1302537e-06 -0.0007130015 0.034750685 -0.026612438 0.027302342 -0.0014895692
0.051831163 0.034115966 0.028041597 0.028007234 -0.054426454 -0.015852634 0.029045956 0.011541999
9.66658e-05 0.021720547 -0.018501546 -0.0016778073 0.0014520766 -0.0010178178 -0.0017406106 -0.04880301
-8.943792e-08 0.047793567 -0.020639481 0.0051110834 -0.0006726458 -0.0021491628 -0.018279538 0.019287212
0.027914066 0.02306905 -0.028883044 -0.0017891848 -0.017860767 0.0064913863 0.035555925 -0.010132649
0.012322202 0.034557443 -0.019249085 0.00014211936 0.027948696 0.05003298 -0.04970498 -0.0035106167
0.013075616 0.04728122 -0.02027475 0.0055134553 0.032782335 0.014773471 0.012253826 0.021267334
0.0014067324 0.051250234 0.04630263 0.029391091 -0.001561043 -0.009335216 0.02295748 -0.00436958
-6.2770865e-05 0.0001806999 0.012906663 -0.002671205 0.0116784545 0.013140811 0.04002948 0.05148143
0.0434766 0.014618972 -0.021753166 0.04299984 0.004225269 0.00077791774 0.025176983 -0.018991131
0.00051352 -0.011163898 -0.0015986174 0.018372715 0.0018286608 0.0042662965 0.034295324 -0.048305266
0.0033912123 -0.004025527 -0.021282911 -0.0008543914 -2.1566906e-05 -0.0075642304 -0.033630084 -0.0011781331
0.024209838 -0.020974865 -0.008720074 -0.040684078 -0.0014781174 0.022765188 -0.000341995 0.030394264
-0.0006729612 0.021035299 -0.04280847 -0.0007400586 -0.025343603 -0.00048349967 -0.028502015 -0.0013101345
-0.00084949797 -7.7286444e-05 0.036435977 0.036515456 -0.0010472153 0.039718278 -0.022511275 -0.009652711
-0.001256386 0.0013840385 -0.002291165 -0.013543954 -0.0021905396 0.0069440305 0.04605429 0.003396982
-0.042508285 -0.0021650773 0.03220585 -0.00014992087 0.0037080504 0.026162805 0.0053410064 0.005446992
-0.036686845 0.0126849115 -0.023134269 -0.00036246073 -0.0005418484 -0.0035782806 0.026857704 0.006021027
-0.00018148666 -0.049797595 0.000249855 0.017106276 -0.00040700755 0.018300211 -0.00303622 0.05577251
-0.017146997 -0.007719666 0.00028241068 -0.012197138 -0.0016114855 -0.0013760513 -0.0014537291 0.0045764484
0.030310262 0.0013308843 -0.04754837 -0.00081598555 -0.03998001 0.036368873 -0.028361905 -0.00077530165
-0.006614264 0.015704706 -0.0016441758 -0.0035387569 0.0073226863 0.009096119 -0.008799156 -0.03822908
0.047472328 -0.0002591964 -0.010628582 -0.0012727152 0.010037769 -0.009438005 0.030585602 -6.234119e-05
0.006860177 0.030424275 0.000316201 0.02873607 0.004865673 -0.00074950804 0.00064484525 -0.0030182488
0.0072770566 -0.0011251688 -0.0036141863 0.00031286466 -0.027670704 0.02565631 -0.0020430093 -0.035567906
-0.00033362635 0.022586832 -0.04447603 -0.03711205 0.025401084 -0.0011425437 -0.014116507 0.0359724

lays.2.bias f4 [2]
00000000: af1b 7ebd cc72 df3c
-0.06203812 0.02727642

l1.weight f4 [256, 2]
00000000: da18 28bf 7c2a f33d 32fb 813e cea6 123f
00000010: 84ab 4538 88a6 0c36 68f6 923e ea25 eabe
00000020: 9a53 19bf 1df8 9fbe 34a6 023f 6c53 843e
00000030: 7566 14bf 35fc 1fbf 8810 52be ff6f 22bf
00000040: 385f e43e a13c 00b7 87d6 f43e df90 1dbe
00000050: 83b0 60be ab0a 3fbe 0fbf aebe a313 1dbf
00000060: 37da 1e3e 9f19 353f 6bc6 c1be 10bb 393a
00000070: 34b5 fdbe 70b8 d9be 7481 b7be 4363 63be
00000080: 7991 07bf a874 af3e 07d6 cb3e f1ef dd3d
00000090: dcfe 4c3e 8870 363f df5a 1bbf 2949 08be
000000a0: 9284 0cbf 604d 013f 7e28 463d fae8 e73e
000000b0: 24ee 263e 83cc febe d787 f1be 143b de3e
000000c0: b0ee be3d 4ecc 9336 3520 0f3f 96a3 aabd
000000d0: ce76 b93e b613 4c3e 52a0 29be 52fa 193e
000000e0: ecf4 163c e0e2 e93e 744f e73e 7f63 d03e
000000f0: e287 e1be 4264 da3e 274d 9ebe 4154 3437
00000100: 92df bdbe 5977 253d 8c32 793d 8e3e c93e
00000110: 412b 563d 5298 d436 9f08 bfbe cdc2 2abf
00000120: 08e5 ec3d f893 943c c063 09be 19c8 1b3f
00000130: 2387 2cbc 2bcf 023f e456 373c 51df bebe
00000140: ce84 03bf 9759 233e 8c7f 92be fda4 b13e
00000150: 7c48 6a39 233b 17bf 3831 f3be 7f48 163f
00000160: adc9 953e 4678 113f 2742 4d3e 89be a13e
00000170: daae efbb 393d eabe 139e 25bc a0dd 8a3e
00000180: 9de7 3c3d cd19 cdbe ba9b b13e b8a1 bf3e
00000190: e452 b2bc d25b f33e 77cc ef3e b946 07bf
000001a0: c136 73b8 1a35 783e ee76 1ebe 23de 093f
000001b0: 0624 0abf a940 8dbe 3d13 c33e 1198 293f
000001c0: ee42 ccbe f7d8 db3e f98f bbbd 05d6 8ebe
000001d0: 38df debe de49 c4be 5b3b 9fbe 92ca 04bf
000001e0: 92f2 9837 3937 0a3f 355c 883e 92d8 bebd
000001f0: f93b 833d 21be e6be 6aa4 b83e 2d2a 16bf
00000200: 2047 d3be ec79 263b 172e d2bd 54b4 09bf
00000210: f5b8 823e 9b6e 24bd 9bf4 08bf 45b4 20b8
00000220: 1284 e43e 5511 38bd adb1 cbbe 406a c3be
00000230: 0a16 153f 4346 843d 8e5a 9a3d 070e c13e
00000240: 6dcd c2be 93c3 0ebf 1618 853e e4bb 9cbd
00000250: e151 d8be f950 c9be 4516 8abe 4a92 113b
00000260: 453d 6abe 90bd ec3e 9c40 02bf cb5f 36be
00000270: 276a babe 3430 1ebf 8c7a ad3e 27ff c4bc
00000280: 9ede 0139 bd7f afb9 a62f 42bc 875e b13e
00000290: d251 073f fa4a 3bbc 3520 b5be 07fd 533e
000002a0: 7ec3 3bbc c6c7 263f bfb7 e43e 2fdd fcbe
000002b0: e0c6 13bf fedb 28bf c567 833e a828 10be
000002c0: a824 e73e 4df9 8ebe 777e 1fbc c2bd be3e
000002d0: 4b8f a8be 3940 e03e e38b 0ebf c2bd 003f
000002e0: c0ee 0739 5666 4e39 f05a 48be a832 eb3d
000002f0: cd9b 23bf 6432 f4b7 0f49 923b 4461 1a3f
00000300: 7e61 083f 5cbc a9be 4c40 2cbf 4719 5ebb
00000310: b6b0 103f 6013 0435 1806 c4be fc1b 06bf
00000320: 40a3 d13d 59d5 0e3e 3054 b83e 48c2 1fbf
00000330: 5e0f 2a3f 38a7 9bb5 8efb 013f ba21 d1be
00000340: 9e45 08be 777d e1be 8f32 90be 485e 593e
00000350: 1c93 223e 75c1 7f3e 5e22 c8be fc87 b6be
00000360: ab9c 863e 09db 593e 5cc9 f63e c9b2 183f
00000370: c4cb d4be 8a45 af3e ca09 233e de30 79be
00000380: 9fe4 7cbe 1e72 21bf 5039 173f eb45 1cbe
00000390: 95b5 a5be 7ccc 7dbd f796 acbe 61b9 c5be
000003a0: 0729 48be 4942 6cbe 6652 293f 1427 c4be
000003b0: ea32 c13e e9f3 3f3c b8f8 06bd f426 763e
000003c0: fba8 0b3f 9995 6fbe 1e45 42bc 0b66 033f
000003d0: d079 acb6 0c7c e63d 6dae 01bd 1b16 873e
000003e0: 9d04 06bf 6e31 47b7 e6c2 023f 2543 9bbe
000003f0: e03b cb3d adf9 8dbe 43c2 a93e 9d3e 00bf
-0.6566292 0.118733376 0.2538696 0.57285774 4.7128196e-05 2.095856e-06 0.28703618 -0.4573205
-0.5989319 -0.31243983 0.51034856 0.25844896 -0.5796884 -0.6249421 -0.20514119 -0.6345214
0.44603896 -7.643511e-06 0.4781992 -0.15387295 -0.21942334 -0.18656413 -0.3413014 -0.6135809
0.1551293 0.7074222 -0.37846693 0.00070850644 -0.4955231 -0.42523527 -0.35840952 -0.22205834
-0.5295635 0.3426869 0.39811727 0.10836781 0.20019096 0.7126546 -0.60685533 -0.13309158
-0.54889786 0.5050869 0.04837846 0.45294935 0.16301781 -0.49765405 -0.4717395 0.43404448
0.0932287 4.4047256e-06 0.5590852 -0.08331983 0.36223453 0.19929394 -0.16565064 0.15036896
0.009213667 0.45680904 0.45177805 0.4070091 -0.44048983 0.42654616 -0.30918238 1.0748453e-05
-0.37084633 0.040397022 0.06083922 0.39305538 0.052287344 6.3358248e-06 -0.37311265 -0.6670349
0.11567122 0.018136963 -0.13416958 0.608522 -0.010530266 0.51097363 0.01119015 -0.37279752
-0.5137452 0.15952145 -0.28612936 0.3469619 0.00022342982 -0.5907461 -0.47498488 0.5870437
0.2925543 0.5682415 0.20044766 0.3159068 -0.007314545 -0.45749834 -0.010108489 0.2712221
0.04611932 -0.40058747 0.34689122 0.3742807 -0.021768041 0.4753099 0.46835682 -0.5284229
-5.798671e-05 0.24239007 -0.15475056 0.5385458 -0.5396122 -0.27588394 0.38100615 0.6624766
-0.39894813 0.4293897 -0.0915832 -0.2789766 -0.43529677 -0.38337606 -0.31099972 -0.518716
1.8232768e-05 0.53990513 0.26632848 -0.09318651 0.06407923 -0.45066932 0.36062938 -0.58658105
-0.41265202 0.002540226 -0.10262697 -0.53790784 0.25531736 -0.040144544 -0.5349824 -3.831486e-05
0.44632012 -0.044938404 -0.39783993 -0.38167 0.58236754 0.06458714 0.07536803 0.37706015
-0.38047352 -0.5576717 0.2599494 -0.07653025 -0.4224997 -0.3931959 -0.26970115 0.002221244
-0.22874935 0.46238375 -0.50879836 -0.1780998 -0.36409113 -0.617923 0.33882558 -0.024047447
0.0001238533 -0.00033473774 -0.011852181 0.3464243 0.5285922 -0.01143145 -0.35376135 0.20701991
-0.011460183 0.6514858 0.44671437 -0.493875 -0.57725334 -0.6596068 0.25665107 -0.14078009
0.45145154 -0.27924576 -0.009734741 0.3725415 -0.32921824 0.43798998 -0.556822 0.5028955
0.00012963545 0.00019683814 -0.1956594 0.11484271 -0.6390961 -2.9110532e-05 0.0044642757 0.60304666
0.5327376 -0.3315152 -0.6728561 -0.0033889578 0.5651964 4.9202026e-07 -0.382859 -0.5238645
0.102362156 0.13948573 0.3600173 -0.62405825 0.664297 -1.1597067e-06 0.50774467 -0.40846044
-0.13307807 -0.44041035 -0.28163573 0.21227372 0.1587643 0.24976142 -0.3908872 -0.35650623
0.26291403 0.21274962 0.482005 0.59647804 -0.4156171 0.34232742 0.15921703 -0.24335048
-0.24696587 -0.63064754 0.59071827 -0.15261047 -0.323651 -0.06196259 -0.33708927 -0.38617995
-0.195469 -0.23072161 0.66141355 -0.38311064 0.37734157 0.011715868 -0.03295204 0.24038297
0.5455472 -0.2339691 -0.011857299 0.5132758 -5.1401803e-06 0.11254129 -0.031660486 0.26384053
-0.5235079 -1.1872833e-05 0.5107864 -0.30324665 0.099235296 -0.2772955 0.33156022 -0.5009554

l1.bias f4 [256]
00000000: 812b 973d ba0d 10bf e0fb 98bc 2b8b dabe
00000010: cad6 103f 27ce 0b3f afb6 06bf d2b1 063f
00000020: c9c7 d5be a873 d6be 5d8e 2dbe 37a5 d9be
00000030: cf38 18be 39a9 433f 517d 403e 2284 9abe
00000040: cdfa ca3e ae95 103e 7f8e 473e 61d0 863e
00000050: c136 ae3e 9623 603e 8498 fc3e 035c 1bbe
00000060: 6b82 b3bd 4531 283f 9258 143f 926a 2a3f
00000070: d1ca 22bf 3b11 82be e5fc 48bd b42e f3bc
00000080: a22a 0cbe 1526 8fbe 7e0f 1ebf 667f 30bf
00000090: 91c0 1c3f 93ce bd3e fde7 ef3e 314d ab3e
000000a0: b319 d23e 2000 073f 3cb5 143f 5b87 0dbf
000000b0: 8a40 9fbc b8ab febe da3f 2a3d 22fd 153f
000000c0: c599 af3e ee44 31be 1012 a23e 5a21 1f3f
000000d0: da07 633d 59d2 80bd 0615 0cbe a0de 0e3e
000000e0: e55c 1cbf 3aa8 26bf daac 1dbf cca7 06bf
000000f0: 1ff3 02bf d57f 3ebc 3e87 0b3f 5e5f b13d
00000100: 3829 3f3f 17d0 d4be 445d 3bbe 2775 fbbd
00000110: 3e0e d4be 5d91 d13e 2024 24bf b460 fbbe
00000120: e038 c1be 67ae 393f d016 3fbd 90e5 0c3f
00000130: ba40 da3e 55bf b9be 486a 99bd 8c08 b4bd
00000140: f57e 293f 7a2b 093f 1f8d 6ebe 0b39 253f
00000150: c65e 3b3f 5d86 0d3f f3a8 39bf 31e1 8b3e
00000160: e1b7 2c3f 9d24 2e3e 3508 e73e f8be dbbe
00000170: f312 2d3f a38d 333d 3ef6 34bd 1def 073f
00000180: fa72 1b3f 6920 1ebf 3d32 cbbe 622d 26bf
00000190: fe2a 09bf 0b7d 103f 9b8e 20bf 8e61 0fbe
000001a0: 1979 0fbf 2e71 ff3e 4116 edbe 45db 1dbf
000001b0: a9dd 283e 51f9 a5be dcd1 9bbb 4b85 34bf
000001c0: 87b3 1d3f ca55 aebc 1263 cebe 42e2 f93e
000001d0: ff57 1abd c9fe 08bf 5974 4b3e 8f3d 143e
000001e0: a5a9 0d3f 1310 d33e 1714 25be 54ad 0cbf
000001f0: 4284 583e e230 013f c60e 25bf 7d9a f03e
00000200: 36d5 06bf d711 003f 2de6 d93e f4c2 c93e
00000210: abfc 1c3f 1957 4cbc 2691 9f3e 5de2 353f
00000220: 7d42 9b3e b13a 303f 427e 2bbf abdf 9b3e
00000230: 290e 31bf 8dc4 083f f68a 1fbe 5886 dfbd
00000240: 5cd7 343f 0dbc f43e fe27 e43e 26b2 ea3e
00000250: 70e8 d0be 7516 193f 5d6b 19bf 6801 01bf
00000260: fe63 05bf 415d 2bbf 3d0d 193c ef66 203f
00000270: 8f14 bfbd 9cfb 073e 31f8 d9be 7ad3 b83e
00000280: 6217 8b3d 304a d33e cd5c c3be 1cdc 5b3e
00000290: 5273 033f 655c b83e f6db 043f a237 1a3f
000002a0: e299 19be 3ca3 09bf de4d c93e 7900 0b3f
000002b0: 93c3 c5be 885e afbd e502 103f 9e63 06bf
000002c0: e7a7 4cbc abf7 853e c95e ec3e 18e8 743e
000002d0: d9a0 68be 58a4 b13e 8ad9 bb3e 3506 83be
000002e0: df05 12bf 8c5c d1be 249d 6dbe 4ef9 12bf
000002f0: 7cdc c9bd 9f2c 1c3f c690 7cbe a829 93be
00000300: ea12 1f3d af4a 013f b8b9 34bf 337a 2d3f
00000310: 44ae b73d 7f29 e33e 334e 15be d0b7 cbbe
00000320: 2ebd cc3e 3c3e 283f b462 ab3d 1a10 083e
00000330: 0c2a 983e 75f2 783d 527c 19bf 21bb 153c
00000340: bb58 dbbd e574 273f a6c5 1e3f a17a e3be
00000350: e5ed d3be 2d99 b8be b3b7 dabe 1b43 27bf
00000360: 3a10 59be bfcc 043e 8fe0 0cbf 4c3d 9a3e
00000370: 7d89 28be aee8 2bbf c9cf 933c 6663 debe
00000380: ebd2 233f 0105 8b3e d1ec a8be 5083 683c
00000390: b039 29bf f57e c93e 1eb2 1a3f 4ccf 12bd
000003a0: d052 3d3e 6dbb 02be 2807 96bd 3145 4d3f
000003b0: 4e79 2b3f 0659 313f e619 3fbd 9fd7 b93e
000003c0: 247a 28bf 473b c9be b31d 77be a246 173e
000003d0: 27cb 043e 006e ecbe b6e8 05bf 5fa1 833e
000003e0: 8830 863d 21d5 7bbe a6f7 2e3e 5cca d2be
000003f0: c3a8 603d 0df9 173f 7016 333d 1367 b5be
0.073813446 -0.56270945 -0.01867479 -0.42684302 0.5657774 0.5461144 -0.52622503 0.5261508
-0.41753986 -0.41885114 -0.16948839 -0.4250886 -0.14865421 0.7643009 0.18797804 -0.30178934
0.3964447 0.14119598 0.19487952 0.26330855 0.3402615 0.21888575 0.4933511 -0.15171818
-0.0876511 0.6570018 0.5794765 0.66568863 -0.63590723 -0.2540377 -0.049069304 -0.029685356
-0.13688138 -0.27958742 -0.6174239 -0.68944395 0.61231333 0.37071666 0.4685668 0.3345733
0.41035232 0.52734566 0.5808904 -0.5528466 -0.019439954 -0.49740386 0.0415648 0.58589375
0.34297004 -0.17311451 0.31654406 0.62160265 0.05542741 -0.06290121 -0.13679895 0.13952112
-0.61079246 -0.65100443 -0.61591876 -0.5259979 -0.51152223 -0.011627157 0.5450324 0.08660768
0.7467227 -0.4156501 -0.18297297 -0.122782044 -0.41417116 0.40931216 -0.6411762 -0.49097216
-0.37738705 0.7253174 -0.046652615 0.55037785 0.42627507 -0.36278787 -0.07490975 -0.08790693
0.66209346 0.53581965 -0.23296021 0.64540166 0.7319149 0.5528315 -0.7252342 0.27320245
0.67468077 0.17006154 0.4512345 -0.42919135 0.6760704 0.043836247 -0.044180147 0.5309923
0.60722315 -0.61768204 -0.39686766 -0.64913 -0.53581226 0.564408 -0.627176 -0.14002058
-0.56044155 0.49891037 -0.4630604 -0.61662704 0.16490807 -0.32416776 -0.004755242 -0.7051589
0.6160206 -0.021281142 -0.4030996 0.48805434 -0.037681576 -0.5351377 0.19868602 0.14476608
0.5533698 0.412232 -0.16120945 -0.5495198 0.21144202 0.50465214 -0.6447567 0.46992865
-0.52669084 0.5002722 0.42558423 0.3940655 0.6132304 -0.012471938 0.31165427 0.7104853
0.30324164 0.68839556 -0.6698953 0.30444083 -0.6916223 0.5342491 -0.15580353 -0.10914296
0.7064111 0.4779972 0.44561762 0.4583904 -0.40802336 0.5979989 -0.5992945 -0.5039277
-0.521057 -0.6693917 0.009341535 0.62657064 -0.09330093 0.13279575 -0.42572168 0.36098844
0.06791569 0.41267538 -0.3815674 0.21470684 0.5134784 0.3600799 0.51898134 0.6024114
-0.15000108 -0.537647 0.3931722 0.54297596 -0.38625774 -0.08562952 0.56254417 -0.52495754
-0.012491203 0.26165518 0.46166065 0.23916662 -0.22717609 0.34695697 0.36689407 -0.25590673
-0.5704021 -0.4089092 -0.23204476 -0.5741166 -0.09856507 0.61005586 -0.24664602 -0.2874272
0.038836397 0.50504583 -0.70595884 0.67764586 0.089687854 0.44367597 -0.14580612 -0.39788675
0.39988083 0.6571996 0.083684355 0.13287392 0.2971958 0.0607781 -0.5995532 0.009138853
-0.10710283 0.6541274 0.6202034 -0.44429496 -0.41392437 -0.36054364 -0.42718276 -0.6533677
-0.21197596 0.1296873 -0.5503015 0.3012489 -0.16458698 -0.67151916 0.018043416 -0.4343521
0.6399371 0.27152255 -0.32993177 0.014191464 -0.6610365 0.39354673 0.60428035 -0.035842225
0.18488622 -0.1276681 -0.07325584 0.801837 0.6698197 0.69276464 -0.046655558 0.36297318
-0.6581137 -0.39303038 -0.24132423 0.14773038 0.12968121 -0.46177673 -0.52308214 0.25709054
0.06552225 -0.24593021 0.17086658 -0.41170013 0.054848444 0.59364396 0.04372257 -0.35430202
