TOYDATA/Models/Halfmoons_a=0.25_e=0.05.pt (torch, 270487 bytes, 10 tensors)

lays.0.weight f4 [256, 2]
0	0x3e23e0cd	0.16003723
1	0xbe2e494d	-0.1702015
2	0xbe8dcf52	-0.27697235
3	0x3ed27432	0.41104275
4	0x3f298525	0.6621879
5	0xb6ead4d5	-6.9985203e-06
6	0xbbdc42e6	-0.006721842
7	0x3ecaa455	0.395785
8	0xbeda0803	-0.42584237
9	0xbe93a816	-0.28839177
10	0x3f30cb42	0.69060147
11	0xbec8dded	-0.39231816
12	0x3ea2c0ac	0.31787622
13	0xb9357a3a	-0.00017307038
14	0x3ef7349e	0.4828233
15	0x3eb7117b	0.35755524
16	0xbe6b8c08	-0.23002636
17	0xbe82d1e8	-0.2555077
18	0x3e0a8a86	0.13529405
19	0x3eb42c8b	0.35190234
20	0x3ef3223b	0.47487053
21	0x3e82ef88	0.25573373
22	0xbe8cc928	-0.2749722
23	0x3e8bab97	0.2727935
24	0xbc85b165	-0.01631994
25	0x3e9060f3	0.28198966
26	0x3e3b3085	0.18280227
27	0x3ebedf90	0.3727994
28	0xbe60cd6e	-0.21953365
29	0xbf26bf82	-0.6513597
30	0xbdf48f78	-0.11941427
31	0xbddd77d8	-0.10813874
32	0xbf1f831b	-0.62309426
33	0xbf19dcdd	-0.60102636
34	0x3ebb17ed	0.3654169
35	0x3f1693fc	0.58819556
36	0x3ec0feee	0.37694496
37	0xbec5ca0b	-0.3863071
38	0x3eb75a98	0.35811305
39	0x3eb2a6e0	0.3489294
40	0xbf21ba5c	-0.63174987
41	0x3e82e8d0	0.25568247
42	0x3ded4b2e	0.11586605
43	0x3f0b18f2	0.5433494
44	0x3e252aa0	0.16129541
45	0xbe4d5d61	-0.20055152
46	0x38086e25	3.2527507e-05
47	0xbea0e797	-0.3142669
48	0xbe92fbb3	-0.28707656
49	0xbed10604	-0.40824902
50	0xbf2e9c61	-0.68207365
51	0xbb6ce917	-0.0036149675
52	0x3ed749c0	0.42048454
53	0xba9174da	-0.0011097447
54	0x3f1b1d6b	0.60591763
55	0xb79dcd9a	-1.88116e-05
56	0xbb10efcd	-0.0022115589
57	0x3edbf108	0.4295733
58	0xbf25c0f0	-0.64747524
59	0x368c29bd	4.177184e-06
60	0xbeada7fa	-0.33917218
61	0xbf10c231	-0.5654631
62	0xbcec6eee	-0.02886149
63	0x3d12e2f6	0.035860978
64	0x3ef72870	0.4827304
65	0xbf092d51	-0.5358477
66	0x3e2b3021	0.16717578
67	0x3ea0b4ee	0.31388038
68	0x3ec57833	0.38568267
69	0xbecd201b	-0.40063557
70	0x3e3b6675	0.18300803
71	0xbde05bf3	-0.10955038
72	0x3e8d4e7d	0.27598944
73	0x3e1cd7cc	0.15316695
74	0x3eadec58	0.33969378
75	0xba90e5c5	-0.0011054805
76	0x3d93c048	0.07214409
77	0x3e66d82b	0.22543399
78	0xbda181e6	-0.07886104
79	0x3f3995d4	0.72494245
80	0x3e5a2e81	0.21306802
81	0x3dd80d9f	0.10549473
82	0x3ea89879	0.32928827
83	0x3f14f196	0.5818113
84	0x3cc7f072	0.024406645
85	0x3ea420d4	0.32056296
86	0xbf1389d5	-0.5763219
87	0x3ed9ae90	0.42515993
88	0xbef63b51	-0.4809213
89	0xbe68db72	-0.22739962
90	0x3e93a22f	0.28834674
91	0xbe64daaa	-0.22349039
92	0x3e246500	0.16054153
93	0xbead8cc3	-0.33896455
94	0x3f0ef25c	0.5583856
95	0x3e4bb932	0.19894865
96	0xbeae8814	-0.34088194
97	0x3f034238	0.51272917
98	0x3ee40ef1	0.4454265
99	0x3f049623	0.5179159
100	0xbebb5716	-0.3658988
101	0xbbc72a42	-0.0060780356
102	0xbe7230f8	-0.23651493
103	0xbe806fec	-0.2508539
104	0x3e0131f3	0.1261671
105	0xbf17499f	-0.5909671
106	0xbdc4229d	-0.095769145
107	0xbf07f8a4	-0.5311377
108	0x3d9ccccd	0.0765625
109	0xbea8a87e	-0.3294105
110	0xbed07562	-0.40714556
111	0x3f1709e1	0.5899945
112	0x3f15352a	0.58284247
113	0xbefd4c42	-0.49472243
114	0xba5ba87b	-0.00083792926
115	0x3da1b546	0.07895903
116	0xbf215046	-0.6301311
117	0xbf172e9c	-0.59055495
118	0xbe62a1b1	-0.22131993
119	0x3e9d5386	0.30727786
120	0x3e95710f	0.2918782
121	0x3da33c25	0.07970456
122	0x3e1ae370	0.15125823
123	0xbf2836c9	-0.65708596
124	0x3e8a7829	0.270448
125	0x3ec96894	0.393376
126	0x3ef7a5c7	0.48368666
127	0xbea62bfd	-0.32455435
128	0x3e3dd63d	0.18538757
129	0xbf075b65	-0.5287383
130	0x3de13a5b	0.109974585
131	0x3f220fc4	0.63305306
132	0x3ef3d626	0.4762432
133	0x3ecd12ef	0.40053508
134	0x3f22d51f	0.63606447
135	0xbf036af8	-0.51335096
136	0x3e1bbb11	0.15208079
137	0xbe98680c	-0.2976688
138	0xbd44bbd5	-0.048030693
139	0xbdf125a5	-0.11774758
140	0xbecc9c1c	-0.39962852
141	0x3f313ff3	0.69238204
142	0xbf04a0e0	-0.51807976
143	0xbe9d3eed	-0.3071207
144	0xbecb5b49	-0.39718083
145	0x3c72ec03	0.014826777
146	0xbed67eab	-0.41893515
147	0xbf02d22f	-0.51101965
148	0x3e646c9f	0.2230706
149	0xbe9e9734	-0.30974734
150	0x3f105b2b	0.5638911
151	0x3f2aae3c	0.6667211
152	0xbf02a8be	-0.5103873
153	0xbc986511	-0.01860288
154	0x3f0cfbe0	0.5507183
155	0xbe284a83	-0.16434674
156	0x3eba12e9	0.36342552
157	0x3dc1c490	0.094613194
158	0xbf1af379	-0.6052776
159	0xbed1665f	-0.40898415
160	0x3bb966d6	0.005658011
161	0xbe33713d	-0.17523666
162	0x3f25a83d	0.64709836
163	0x35942b54	1.1039469e-06
164	0xbf240b47	-0.6407971
165	0x3eb829df	0.35969445
166	0x3d535d4b	0.051602643
167	0xbf0396a1	-0.51401716
168	0x3e8ad934	0.27118838
169	0xbed15223	-0.40882978
170	0x3e07b784	0.132536
171	0xb5ac9080	-1.2857054e-06
172	0x3ec9f8d8	0.39447665
173	0xbab67a08	-0.0013921866
174	0x3e71442d	0.23561163
175	0xbe127e94	-0.14306098
176	0xbf1136a6	-0.5672401
177	0xbe9d54c8	-0.30728745
178	0xbe9e9533	-0.30973205
179	0x3ee87c69	0.45407417
180	0x3f1a3da2	0.60250294
181	0x3e81bc5e	0.25339025
182	0xbda5c344	-0.080938846
183	0xbf04b77d	-0.5184248
184	0xbcc9b08c	-0.024620317
185	0x3eea1e07	0.45726034
186	0xbee082bf	-0.4384975
187	0x3e02b453	0.127641
188	0x3f26b78d	0.65123826
189	0xb99bcc32	-0.0002971604
190	0x3ccfa7d5	0.025348583
191	0x360a46bf	2.0604782e-06
192	0x3d6d0536	0.057866298
193	0x3eb5ebfd	0.35531607
194	0xbe5b864c	-0.21437949
195	0x3d4b6fcf	0.049667176
196	0x3ed99ee6	0.42504042
197	0x3701484c	7.705832e-06
198	0xbf0a46fd	-0.5401457
199	0x3c8dfc52	0.01733223
200	0xba949a32	-0.0011337458
201	0x3f08640e	0.5327767
202	0x3e6123b9	0.21986283
203	0xbefd67a9	-0.4949315
204	0xbe060f75	-0.13091834
205	0x3e18e24a	0.14930072
206	0x3d16dd05	0.036831874
207	0x3f251da5	0.6449836
208	0x3eccb250	0.39979792
209	0x3e6e2e86	0.23259935
210	0x3e60bd4a	0.21947208
211	0xbef2068c	-0.4727062
212	0xbe4ff535	-0.20308383
213	0x3eb24972	0.3482166
214	0x3f044b8a	0.51677763
215	0x3ea4ff0e	0.3222584
216	0x3e0b9b94	0.13633567
217	0x3ebb817e	0.36622232
218	0x3e9dc414	0.30813658
219	0x3e2d8f1c	0.16949123
220	0xbe379a71	-0.17930008
221	0xbe7ef1e8	-0.24896967
222	0xbed27a7f	-0.41109082
223	0x3e966603	0.29374704
224	0x3ed3915c	0.41321838
225	0xbe4e35cc	-0.2013771
226	0xbe6df3ac	-0.23237485
227	0x3f26c9d2	0.65151703
228	0x3e9e7dd9	0.3095539
229	0x3efdf68b	0.4960216
230	0xbf265125	-0.64967567
231	0xbec7d472	-0.3902927
232	0x3e11aa42	0.14225104
233	0xbe97b38e	-0.29629177
234	0xbec55c8f	-0.3854718
235	0xbeb87ab8	-0.36031127
236	0xbe3b8113	-0.18310957
237	0xbf274db0	-0.65352917
238	0x3ca2c410	0.01986888
239	0xbefe747b	-0.49698243
240	0xbe65b894	-0.22433692
241	0x3eb0dbca	0.34542686
242	0xbf2a2562	-0.6646329
243	0xbf1a647b	-0.6030957
244	0x3e21c0f9	0.1579627
245	0xbeddb1be	-0.4329967
246	0x3d5e6b8e	0.05430179
247	0x3dc17e20	0.094478846
248	0x3e1ef8a8	0.15524542
249	0xbf2a9f2b	-0.6664912
250	0xbefb8adc	-0.4912938
251	0xbf1d315b	-0.61403435
252	0x3f1aae88	0.60422564
253	0x3f0a43cd	0.54009706
254	0xbdf8cd52	-0.12148537
255	0x3ea7acef	0.32749125

lays.0.bias f4 [256]
0	0x3e578183	0.21045499
1	0xbf1fe747	-0.62462276
2	0xbf28103b	-0.65649766
3	0x3f16802b	0.5878932
4	0x3e8773c0	0.26455498
5	0xbeca2c98	-0.39487147
6	0x3e83d755	0.25750223
7	0xbe9c0c50	-0.30478144
8	0x3d813bd6	0.06310241
9	0x3eb60a10	0.35554552
10	0xbf070119	-0.5273605
11	0x3eeb7410	0.45986986
12	0x3f27bf26	0.65526044
13	0xbed99d07	-0.42502615
14	0x3d0d1f3d	0.03445362
15	0xbf1e4dcf	-0.61837476
16	0x3f0b0c73	0.5431587
17	0xbed78ba3	-0.42098722
18	0x3f2573d2	0.6462985
19	0xbf32c70b	-0.69834965
20	0xbe9dab8d	-0.30794945
21	0xbf340d04	-0.7033236
22	0x3e62805a	0.22119275
23	0x3e8d7719	0.27629927
24	0x3eaa1e1a	0.3322609
25	0xbe885ad0	-0.26631784
26	0x3f17d6bc	0.59312034
27	0xbf151b06	-0.5824436
28	0x3ef77d36	0.48337716
29	0x3edcc6a8	0.43120313
30	0x3ea04468	0.3130219
31	0x3dfbfe9e	0.12304424
32	0x3f24d4ad	0.6438702
33	0xbee7e53d	-0.45292082
34	0x3e573e70	0.21019912
35	0x3f21e210	0.6323557
36	0xbf2d1ea5	-0.67624885
37	0x3f2dd19a	0.6789795
38	0xbe799d5d	-0.24376436
39	0x3ef55967	0.4791977
40	0xbe91ef52	-0.285029
41	0xbf2fa31f	-0.6860828
42	0xbea3d40d	-0.3199772
43	0x3e421290	0.18952394
44	0xbdc20754	-0.09474054
45	0x3f106ab6	0.5641283
46	0x3f0729a4	0.52797914
47	0xbc7aac47	-0.015299863
48	0xbd978ca4	-0.07399872
49	0x3d9cbc37	0.07653087
50	0xbe988337	-0.2978761
51	0x3e947874	0.28998148
52	0xbe61aa91	-0.22037722
53	0xbe5448b4	-0.20730859
54	0xbf030e68	-0.5119386
55	0x3f0da1b6	0.55324876
56	0xbf0be772	-0.5465003
57	0x3ed6c7f8	0.4194944
58	0xbeb733aa	-0.35781604
59	0x3ebecff0	0.3726802
60	0x3e7a92b1	0.24470021
61	0x3f2adad7	0.66740173
62	0xbeb5c6cf	-0.3550324
63	0xbea3091c	-0.31842887
64	0xbec14c00	-0.37753296
65	0xbf01e1ac	-0.5073497
66	0xbdf93220	-0.12167764
67	0xbeee29fa	-0.465164
68	0xbe19e6e1	-0.1502948
69	0xbf222e99	-0.6335235
70	0x3f2a598c	0.6654289
71	0x3e3f0033	0.1865242
72	0x3f498a4c	0.7872665
73	0xbf2ee1fc	-0.68313575
74	0xbe8542fd	-0.2602767
75	0xbf03ef8a	-0.5153738
76	0xbeffd4ef	-0.49967143
77	0x3f1f73b2	0.6228591
78	0x3e6064c3	0.21913438
79	0xbedd45a0	-0.43217182
80	0x3e92384e	0.28558582
81	0xbf18363a	-0.59457743
82	0xbe7092eb	-0.23493545
83	0x3ee179db	0.4403828
84	0x3ec98f9c	0.39367378
85	0xbede88e3	-0.4346381
86	0x3ec88bfd	0.39169303
87	0xbd886f55	-0.0666186
88	0x3ecc267b	0.39873108
89	0x3f0628e1	0.52406126
90	0xbe8922c0	-0.26784325
91	0xbf02c2d4	-0.51078534
92	0x3e4d716a	0.20062795
93	0xbeaee29c	-0.34157264
94	0x3f1fc9fb	0.6241757
95	0xbea0b327	-0.31386682
96	0x3e8b9be7	0.27267382
97	0x3ecfe602	0.4060517
98	0xbe9670f4	-0.2938305
99	0xbf1ab7b9	-0.6043659
100	0x3e512ea8	0.20427954
101	0xbd211978	-0.03933093
102	0x3d66c0d0	0.056336224
103	0xbee0358c	-0.43790853
104	0xbe8bb0f2	-0.27283436
105	0x3ed7c804	0.42144787
106	0xbb681e40	-0.003541842
107	0xbf0ff9c4	-0.5624049
108	0xbe6a5d74	-0.22887212
109	0xbe4e4f13	-0.20147352
110	0xbee41711	-0.44548848
111	0xbdcd6de1	-0.10030723
112	0xbe51f881	-0.20504953
113	0x3f04d5be	0.51888645
114	0x3ed3528b	0.41273913
115	0x3e632d1a	0.22185174
116	0xbeb3aeb2	-0.3509422
117	0x3e370062	0.1787124
118	0x3f09d225	0.5383628
119	0x3dc317e1	0.09526039
120	0x3f183ee0	0.5947094
121	0x3f0353d8	0.5129981
122	0x3ebc13d3	0.36733875
123	0xbede0259	-0.43361166
124	0xbf277060	-0.65405846
125	0x3e881038	0.26574874
126	0xbe8632c3	-0.26210603
127	0x3ecac628	0.39604306
128	0xbb5bb4d7	-0.0033524537
129	0xbf0fc7ff	-0.56164545
130	0x3e9fe427	0.31228754
131	0x3d028f9b	0.031875234
132	0xbdf07dc2	-0.117427364
133	0xbde70437	-0.11280101
134	0xbe6cd715	-0.23128922
135	0xbf1438cf	-0.57899183
136	0xbd426182	-0.047456272
137	0xbee9e99c	-0.45686042
138	0xbf2d8e22	-0.67795
139	0x3e8be3d8	0.27322268
140	0x3efe5e8b	0.49681506
141	0x3e896bf4	0.26840174
142	0xbdbb7d75	-0.091547884
143	0xbe04976f	-0.12948392
144	0xbee3fad2	-0.44527298
145	0x3eaefa52	0.34175354
146	0xbeb4127a	-0.35170346
147	0xbb7ed98e	-0.0038886997
148	0x3f03e695	0.51523715
149	0x3e985329	0.29750946
150	0x3f3189ec	0.6935108
151	0xbee9dd61	-0.4567671
152	0xbf0a4487	-0.54010814
153	0xbe94132e	-0.28920883
154	0xbf1acec1	-0.6047173
155	0x3f049246	0.51785696
156	0xbe0583ec	-0.13038605
157	0xbebf66ea	-0.37383205
158	0xbedcaf8c	-0.43102682
159	0x3e8b82bd	0.27248183
160	0x3ef14cb1	0.47128823
161	0x3f334bb4	0.7003739
162	0x3e97c9ef	0.2964625
163	0xbf28206c	-0.6567447
164	0x3e570d0d	0.21001072
165	0xbd1aedd3	-0.037824463
166	0x3dc80f12	0.097684994
167	0x3e93a035	0.28833166
168	0x3dc539a1	0.096301325
169	0x3e1d7c85	0.15379532
170	0x3ec19188	0.37806344
171	0xbbc748d7	-0.0060816812
172	0x3e95db46	0.29268855
173	0x3eb75278	0.35805106
174	0x3f250fb6	0.644771
175	0x3efcac36	0.49350137
176	0x3ea78d2e	0.327249
177	0x3f0f8dd4	0.5607579
178	0xbf2193ee	-0.6311635
179	0x3f159c65	0.58441764
180	0xbf1161fd	-0.56790143
181	0x3f3673f1	0.7127066
182	0x3f1f6e3e	0.6227759
183	0xbeffe508	-0.49979424
184	0x3ee169c6	0.4402601
185	0x3c3f4b73	0.011675703
186	0xbe64a50a	-0.22328582
187	0xbf1640b4	-0.5869248
188	0xbf2d4b19	-0.67692715
189	0xbf0e4697	-0.5557646
190	0xbecea7e5	-0.40362468
191	0x3f211249	0.62918526
192	0x3f30ccf3	0.6906273
193	0x3f136187	0.5757069
194	0x3f0e1168	0.5549531
195	0xbf1d316a	-0.61403525
196	0xbf2202a3	-0.63285273
197	0xbd7e9136	-0.062150203
198	0xbe32a036	-0.17443928
199	0xbf1c278c	-0.60997844
200	0x3e124f80	0.1428814
201	0xbed743af	-0.42043826
202	0x3ec8a483	0.39188012
203	0xbea0897a	-0.31354886
204	0xbf0dd61f	-0.5540485
205	0x3d20ae15	0.039228518
206	0x3ed845a6	0.42240638
207	0xbf15ccc4	-0.5851557
208	0x3efb16f0	0.49040937
209	0xbef8e90c	-0.486153
210	0x3e0bcb33	0.13651733
211	0x3f0e0249	0.55472237
212	0x3f1f24f4	0.6216576
213	0x3f26c644	0.6514628
214	0x3e0eb0d7	0.13934647
215	0x3f26679c	0.65001845
216	0xbbdc1d06	-0.006717327
217	0x3f083b5c	0.53215575
218	0x3f0fe086	0.5620197
219	0x3d76d41e	0.060260884
220	0x3f0b09d1	0.54311854
221	0xbd17dd23	-0.037076127
222	0xbf0a97ca	-0.5413786
223	0x3e8cd469	0.27505806
224	0x3f3042c9	0.68851906
225	0x3f2763ae	0.65386474
226	0x3e351f33	0.17687683
227	0xbe5f9c1d	-0.21836896
228	0x3eca1f60	0.39477062
229	0x3f04254f	0.5161943
230	0x3ebe83a9	0.37209824
231	0x3e4c2407	0.19935618
232	0xbe4eabd3	-0.20182733
233	0x3f303d4c	0.6884353
234	0x3e819404	0.2530824
235	0xbe096255	-0.13416417
236	0x3ed7c549	0.42142704
237	0xbe8d1377	-0.27553913
238	0xbe88c5b7	-0.26713344
239	0x3f3064b0	0.68903637
240	0xbf10fc68	-0.5663514
241	0xbc316c0e	-0.010828985
242	0x3e2acfb5	0.16680796
243	0x3f3c7b12	0.7362529
244	0xbef503e9	-0.47854546
245	0xbeb03aee	-0.3441996
246	0x3ef1ef83	0.47253045
247	0x3eb34e14	0.35020506
248	0x3cdb7d10	0.026793033
249	0x3cb6538c	0.022256635
250	0x3f1ca309	0.6118627
251	0xbeb1212c	-0.3459562
252	0xbf0951d7	-0.536405
253	0x3f0e0bd8	0.5548682
254	0xbf3625ba	-0.71151316
255	0xbece431e	-0.4028558

lays.1.weight f4 [256, 256]
0	0xbc15029d	-0.009094861
1	0xbc40a432	-0.011757897
2	0x3c87b627	0.01656635
3	0xbd1c0208	-0.038087875
4	0x3d002bcd	0.03129177
5	0xbd14dffc	-0.03634642
6	0xbd5cd7de	-0.053916804
7	0x3d114485	0.035465736
8	0xbd0d3cb1	-0.034481708
9	0x3c0e2f61	0.008678288
10	0x3b27aeba	0.0025586323
11	0xbceff0a6	-0.029289555
12	0xbd0128c4	-0.031533018
13	0x3d2fe81a	0.04294596
14	0x3d140fe2	0.03614796
15	0x3b948ab5	0.0045331367
16	0x3c2eee4d	0.0106769325
17	0xbd562f06	-0.05229094
18	0x3d10fb36	0.035395823
19	0xbd377a73	-0.04479451
20	0xbd25329c	-0.040331468
21	0x3af4d824	0.0018680138
22	0xbd931808	-0.07182318
23	0x3c848e32	0.016181085
24	0xbcca5bfb	-0.024702063
25	0xbcd44cf3	-0.025915598
26	0x3c615732	0.013753699
27	0x3c3b5c9a	0.011435652
28	0xbc853c96	-0.016264241
29	0xbcab2642	-0.020892266
30	0xbce7fbdf	-0.028318344
31	0x3c3cad4b	0.011515926
32	0xbd114330	-0.035464466
33	0x3954f33e	0.0002030851
34	0xbbede0f2	-0.0072594816
35	0xbd5d0078	-0.053955525
36	0xbd2a955c	-0.041646346
37	0x3d1b46e0	0.03790939
38	0x3ad2f696	0.0016095217
39	0xbba08e8d	-0.004899806
40	0xbbe0d76a	-0.006861617
41	0x3d09d30a	0.03364853
42	0xbbb6b3c9	-0.0055756313
43	0xbd0060c4	-0.031342283
44	0xbc21e734	-0.009881783
45	0xbcd43abc	-0.025906913
46	0x3cba99c3	0.022778397
47	0xbd86e923	-0.06587436
48	0xbcb1c499	-0.02170019
49	0x3c8779cf	0.016537575
50	0xbc28d407	-0.0103044575
51	0xbd4257da	-0.047447063
52	0x3d4581e6	0.048219584
53	0x39648196	0.00021792049
54	0xbcdc104c	-0.02686324
55	0xbd33c78b	-0.04389147
56	0x3c9b6f59	0.018973993
57	0x3a8ff810	0.0010983963
58	0xbafdffd2	-0.0019378609
59	0xbd1f3475	-0.038868386
60	0x3d4ec284	0.050478473
61	0x3c5d68fc	0.0135138
62	0xbd8430e0	-0.06454635
63	0xbd3dddc7	-0.04635408
64	0x3ca5f0ef	0.020256488
65	0x3cee03db	0.029054573
66	0xbd838b11	-0.06423009
67	0x3cb756a2	0.022380177
68	0xbd2e4d38	-0.04255411
69	0xbce5b711	-0.028041394
70	0xbcd01d8a	-0.02540471
71	0x3d484a0b	0.048898738
72	0x3d132aae	0.035929374
73	0xb995e1c7	-0.00028587712
74	0xbce12f6d	-0.027488435
75	0xbd195087	-0.037430312
76	0xb996aa1e	-0.00028736977
77	0x3ce3e518	0.027819201
78	0xbd3d857d	-0.046269882
79	0x3c95fcca	0.018309016
80	0xbce9c975	-0.028538445
81	0x3d5aeacf	0.053446587
82	0xbaa74f7b	-0.0012764776
83	0xbd0225f2	-0.03177447
84	0xbab37f35	-0.0013694527
85	0x3d1bdb70	0.03805107
86	0xbcbe8103	-0.023254877
87	0xbd86e1e1	-0.06586052
88	0xbc1a393a	-0.009413058
89	0xbd817a5e	-0.06322168
90	0x38c9d415	9.62393e-05
91	0x3cc32b1e	0.02382427
92	0x3cc91283	0.02454496
93	0xbb9d9836	-0.0048094047
94	0xbd01a5d8	-0.0316523
95	0x3ca1e67f	0.01976323
96	0xbce4bf47	-0.02792324
97	0xbd7d5dc1	-0.06185699
98	0x3b21dca5	0.0024698165
99	0xbd2ac018	-0.0416871
100	0xbd7f838a	-0.062381305
101	0xbc9abe2b	-0.018889507
102	0xbd215b48	-0.039393693
103	0xbd17b35e	-0.037036292
104	0xbd39fe8e	-0.045408778
105	0xbc92c6c0	-0.017917037
106	0xbcdae79b	-0.026721766
107	0xbd871332	-0.06595458
108	0xbd56db48	-0.052455217
109	0xbd51b904	-0.051201835
110	0x3cb98c93	0.022650039
111	0xbc7284c9	-0.014802166
112	0xbd8930d5	-0.06698767
113	0xbc115d37	-0.008872322
114	0x3c9511b7	0.018196924
115	0x3cc00ec0	0.023444533
116	0x3d269abe	0.040674917
117	0xbd4472b3	-0.04796095
118	0x3d4ca273	0.04995961
119	0x3d47d338	0.04878542
120	0xbc1d58d5	-0.009603699
121	0x3d2f9596	0.042867266
122	0xbcb767a6	-0.02238829
123	0xbcacc9c3	-0.021092301
124	0xbd1dd21f	-0.038530465
125	0xbce1df6f	-0.027572362
126	0x3d10b453	0.03532822
127	0xbd738da2	-0.059461243
128	0x3c05ccb9	0.0081664855
129	0xbaa71f8a	-0.0012750488
130	0x3cb020df	0.02150005
131	0x3c70651a	0.014672542
132	0x3c9a31c0	0.01882255
133	0xbb256929	-0.0025239682
134	0xbd20fbd4	-0.039302662
135	0xbc83253c	-0.016008966
136	0x3d533985	0.051568527
137	0x3d539734	0.05165787
138	0x3cd12d3d	0.025534267
139	0x3d5ae530	0.053441226
140	0xbcdd678e	-0.027026918
141	0x3c55417c	0.013016101
142	0x3d3c797e	0.0460143
143	0x3d389296	0.04506167
144	0xbcaac99f	-0.020848094
145	0xbd379482	-0.044819362
146	0xbd103a45	-0.03521182
147	0xbd51342a	-0.05107514
148	0x3d415e72	0.04720921
149	0xbd35619f	-0.04428255
150	0xbcb20ce1	-0.021734657
151	0xbd0b0c34	-0.033947185
152	0xbcb38ea4	-0.021918602
153	0x3ca8e3f4	0.020616509
154	0xbb8a4d44	-0.0042206366
155	0x3cd53ff7	0.026031477
156	0xbd3cb2b1	-0.04606885
157	0xbd71cf54	-0.059035614
158	0x3d26522a	0.0406057
159	0x3c0f6843	0.008752885
160	0xbd1fd2c1	-0.03901935
161	0xbb778453	-0.003776808
162	0x3a13c896	0.00056374946
163	0xb8916a2f	-6.933917e-05
164	0xbd706438	-0.058689326
165	0x3b9835b1	0.0046450724
166	0x3bb74242	0.0055926153
167	0xbc0bd1b3	-0.008533883
168	0xbb915901	-0.004435659
169	0x3cae8e4a	0.021308083
170	0xbca26a1f	-0.019825993
171	0x3b70d747	0.003674941
172	0x3a4355c1	0.0007451438
173	0x3ce16567	0.027514173
174	0xbd295f76	-0.041350804
175	0xbcde4155	-0.027130762
176	0x3d17142c	0.03688447
177	0xbd34d15f	-0.044144984
178	0xbd46247b	-0.048374634
179	0xbd813279	-0.06308455
180	0x3cfa7b97	0.03057651
181	0xbd5e7cf9	-0.054318402
182	0xbd90a2f4	-0.07062331
183	0xbbff361b	-0.0077884323
184	0x3cceac37	0.025228603
185	0xbb488f32	-0.003060293
186	0xbd48626b	-0.048921984
187	0xbd107f1d	-0.035277475
188	0xbd2ce5ad	-0.042211223
189	0x3c04c5fb	0.008103843
190	0x3c43e323	0.011956009
191	0x3c2207fb	0.009889598
192	0x3b80b48b	0.0039277724
193	0x3c47f3d2	0.012204127
194	0x3c6cd04a	0.014453957
195	0x3c17adb4	0.009257723
196	0x3d2d9b59	0.04238448
197	0xbc67284b	-0.014108728
198	0x3c224ac7	0.009905524
199	0x3d2b4f25	0.041823525
200	0xbb6c3c0b	-0.003604653
201	0x3cc7dfa9	0.024398642
202	0x3d4f64d4	0.050633267
203	0xbc7ded47	-0.015498466
204	0xbad758cd	-0.0016429663
205	0x3cd27336	0.025689702
206	0x3d010e04	0.031507507
207	0xbd2ff2ac	-0.04295604
208	0xbd49cd53	-0.049268078
209	0xbd20cd5f	-0.039258357
210	0xbd6ffa24	-0.058588162
211	0xbb6819e9	-0.0035415834
212	0x3cbb322d	0.022851074
213	0xbd2ecc1b	-0.04267512
214	0xbc6b1e83	-0.014350536
215	0x3d541207	0.051775005
216	0xbd6889ce	-0.056772046
217	0x3c0e406d	0.0086823525
218	0xbcd0c354	-0.025483765
219	0x3d1ae0d2	0.03781206
220	0x3ce176df	0.027522502
221	0xbc380322	-0.011231216
222	0x3cc79244	0.024361737
223	0x3d2f3c09	0.042781863
224	0xbd3f22d9	-0.046664093
225	0xbc761c25	-0.015021359
226	0xbc2e85a0	-0.010651976
227	0xbabae76b	-0.0014259642
228	0xbd89ff67	-0.06738167
229	0x3c67321f	0.014111071
230	0x3b8ba875	0.004262025
231	0x3d4b5d8a	0.049649753
232	0xbd47a59f	-0.048741933
233	0x3bad2856	0.0052843494
234	0x3cf44813	0.029819524
235	0x3b0a9172	0.002114382
236	0x3d07f83c	0.03319572
237	0xbc1dc62a	-0.0096297655
238	0x3a470cf6	0.0007593179
239	0xbd36e747	-0.044654157
240	0x3d35e1e8	0.044404894
241	0x3c026e76	0.007960906
242	0xbd3ac351	-0.045596424
243	0xbbf6acc9	-0.007527922
244	0xbd040d36	-0.03223916
245	0xbc8dd65e	-0.017314132
246	0x3d291a3a	0.041284777
247	0x3cbbbf62	0.022918407
248	0xbd417184	-0.047227398
249	0xbca18eb4	-0.019721366
250	0x3d2ead62	0.04264582
251	0x3cf577a6	0.02996428
252	0x3cbd11ef	0.02307984
253	0xbd3f61df	-0.046724197
254	0x3cf4aef3	0.029868579
255	0xbd1bb48b	-0.038013976

lays.1.bias f4 [256]
0	0xbd53e92f	-0.051736053
1	0x3d570462	0.052494414
2	0x3c8604e4	0.016359754
3	0xbd37dee8	-0.044890314
4	0xbcc433dc	-0.02395051
5	0xbd5b277c	-0.053504452
6	0x3be4839b	0.0069736964
7	0x3d98f94f	0.07469427
8	0xbd5b48ec	-0.05353634
9	0x3cf7d08f	0.030250816
10	0xbd2df44d	-0.04246931
11	0xbaa1bef4	-0.0012340234
12	0xbd8018d0	-0.062547326
13	0xbcdecef2	-0.027198289
14	0xbc4d377d	-0.0125254365
15	0xbcdccf90	-0.026954442
16	0x3cfd690b	0.030933877
17	0xbcec5635	-0.0288497
18	0x3c073178	0.00825154
19	0xbc757c72	-0.014983283
20	0x3d949b85	0.072562255
21	0xbd397019	-0.04527292
22	0x3d92c2e5	0.071660794
23	0x3d0f556b	0.03499357
24	0x3d639adc	0.055567607
25	0xbd48b387	-0.048999336
26	0x3ce71840	0.028209805
27	0xbd1e526c	-0.038652822
28	0x3c93b8f3	0.018032527
29	0xbd670db7	-0.056409564
30	0xbda1b55f	-0.07895922
31	0x3d212543	0.039342176
32	0x3d7f1f3d	0.06228565
33	0x3d29c913	0.041451525
34	0x3d6645d5	0.05621894
35	0x3d91445f	0.07093119
36	0x3d1ae32e	0.03781431
37	0xbbe86907	-0.0070925984
38	0xbd7d0423	-0.061771523
39	0xbd875b96	-0.066092655
40	0x3d6f8556	0.05847677
41	0xbb6df67a	-0.0036310242
42	0x3dbf9952	0.093554154
43	0xbd8c4d02	-0.068506256
44	0xbd00fc5b	-0.031490665
45	0x3d31b7fe	0.04338836
46	0xbcf40b81	-0.029790642
47	0xbd5c4a94	-0.05378206
48	0x3caac69f	0.020846663
49	0xbcf63a06	-0.030056965
50	0x3dcc5b94	0.09978405
51	0xbca2aed8	-0.019858763
52	0x3b0d8b62	0.0021597971
53	0x3cbc187e	0.022960898
54	0xbccde033	-0.02513132
55	0xba8cf9be	-0.0010755581
56	0xbd8e153f	-0.06937646
57	0xbd8fab58	-0.07015103
58	0x3c25e840	0.0101261735
59	0x3d1dc733	0.03852005
60	0x3d21cbf4	0.039501145
61	0xbd8908a4	-0.06691101
62	0x3d08a410	0.033359587
63	0xbd369d99	-0.04458389
64	0xbd542b4e	-0.05179911
65	0xbc3782c3	-0.01120061
66	0x3ced1826	0.028942179
67	0xbd0acfca	-0.03388957
68	0xbccfb726	-0.025355887
69	0x3d20b3de	0.039234035
70	0x3d3a4342	0.0454743
71	0x3c98a4e3	0.018633312
72	0x3d9d90f3	0.076936625
73	0x3df68865	0.12037734
74	0xbcef692e	-0.029224958
75	0x3c3c5227	0.011494196
76	0xb95b111e	-0.00020891844
77	0x3d611549	0.05495194
78	0xbd73e634	-0.05954571
79	0xbccb1802	-0.024791721
80	0xbd42b883	-0.047539245
81	0xbd5b236f	-0.05350059
82	0xbd873032	-0.066009894
83	0x3cd19ad3	0.025586521
84	0xbd6025fd	-0.05472373
85	0x3c0ea3a5	0.008706008
86	0xbd903407	-0.070411734
87	0x3d67a758	0.056556076
88	0x3c323063	0.010875794
89	0xbd825399	-0.06363601
90	0xbd3fa29d	-0.04678594
91	0xbd4fef47	-0.050765302
92	0xbd744291	-0.059633795
93	0x3d235217	0.03987321
94	0xbd2a868d	-0.041632224
95	0xbd890b23	-0.06691577
96	0xbd4c4caa	-0.0498778
97	0xbd07a229	-0.033113632
98	0xbcc24d65	-0.023718545
99	0x3ce20807	0.027591718
100	0xbd041383	-0.03224517
101	0x3d3d9cef	0.04629224
102	0xbc825063	-0.015907472
103	0x3d278786	0.04090073
104	0x3d18ca7a	0.03730247
105	0x3cb51351	0.022103937
106	0xbd365c9b	-0.04452191
107	0xbd341cea	-0.043972887
108	0x3c292b68	0.01032529
109	0xbc8b2a1d	-0.016987855
110	0x3cf347ab	0.02969726
111	0xbc19abda	-0.0093793515
112	0xbd72fce2	-0.0593232
113	0x3d925d1a	0.07146664
114	0xbcd07318	-0.025445506
115	0xbc87b421	-0.016565384
116	0x3c3fe1f6	0.011711588
117	0xbb6b90e2	-0.0035944511
118	0xbd219452	-0.03944809
119	0xbd0875af	-0.033315357
120	0xbcedd6af	-0.029033033
121	0xbd492822	-0.04911054
122	0x3d091643	0.033468496
123	0x3d8f07e7	0.06983929
124	0xbd848cdb	-0.064721785
125	0xbcdfba11	-0.027310403
126	0x3b275c44	0.0025537172
127	0xbd7a3535	-0.0610859
128	0xbb0d9ec6	-0.002160953
129	0x3d5fa3a2	0.05459941
130	0x3d0264a2	0.031834252
131	0x3d6ca577	0.057774987
132	0xbcf782c6	-0.030213725
133	0xbb540701	-0.0032352807
134	0x3d8ab68a	0.06773098
135	0xbb730d2f	-0.0037086715
136	0x3d6ac3d4	0.057315663
137	0x3c857fcc	0.01629629
138	0x3d8fd0f5	0.07022277
139	0xbca36899	-0.019947337
140	0x3dca15d5	0.098674454
141	0x3aba5bf0	0.0014218073
142	0xbcddb0c5	-0.02706183
143	0xbd7eac38	-0.06217596
144	0xbc9f212b	-0.019424995
145	0x3cd373c4	0.025812037
146	0x3cca0469	0.024660306
147	0xbd4b60bf	-0.04965281
148	0x3d193538	0.03740427
149	0xbc69cdd7	-0.014270267
150	0xbd1a2adb	-0.037638526
151	0x3dda3cad	0.10656104
152	0x3ddc838b	0.10767277
153	0x3cd7f303	0.026360994
154	0x3ced9a0b	0.029004117
155	0x3d025f3c	0.031829104
156	0x3c3995eb	0.011327247
157	0xbd1b6a60	-0.037943244
158	0x3d24e584	0.040257946
159	0xbbc1845f	-0.0059056724
160	0xbc5a9daf	-0.013343259
161	0xbd1db135	-0.038499076
162	0xbd8f9fb1	-0.070128806
163	0xbd752e8a	-0.059858836
164	0xbc18f472	-0.009335624
165	0x3c5b746b	0.013394455
166	0x3cb92fd7	0.02260582
167	0x3d402e01	0.046918873
168	0xbd166aec	-0.036723062
169	0xbc4c1912	-0.012457149
170	0x3da3c652	0.07996811
171	0xbca38514	-0.019960918
172	0xbdaf98a7	-0.08574038
173	0xbcbaeb48	-0.022817269
174	0x3ca0f6ba	0.019648898
175	0xbc14985d	-0.009069529
176	0x3d7e2bed	0.06205361
177	0xbd4ec088	-0.05047658
178	0xbda17406	-0.07883458
179	0x3d4b2f79	0.04960582
180	0xbc55fa5e	-0.0130601805
181	0x3d9a6cc3	0.07540276
182	0xbd0124f8	-0.031529397
183	0xbd80d364	-0.062903196
184	0x3d554411	0.052066866
185	0xbd80cc31	-0.062889464
186	0xbc4b3e33	-0.012404966
187	0xbd69ecbe	-0.05711054
188	0x3befe1c2	0.0073206136
189	0xbb8bc1eb	-0.00426506
190	0x3d24221b	0.040071588
191	0xbc9daf80	-0.019248724
192	0xbd0af254	-0.03392251
193	0x3dc35110	0.09536946
194	0xbcbf843f	-0.02337849
195	0x3d36605f	0.0445255
196	0xbbfa1801	-0.007632256
197	0x3d3327d1	0.043739144
198	0xbb68e6f1	-0.0035538042
199	0xbd76d9b8	-0.060266227
200	0x3d2db508	0.042408973
201	0x3d842056	0.0645148
202	0x3caa9fc8	0.020828143
203	0x3d4e8d09	0.05042747
204	0xbc955a36	-0.018231492
205	0x3ab5579b	0.0013835313
206	0x3c636e60	0.013881296
207	0x3d1ef1bf	0.038804766
208	0x3d37a7e9	0.044837866
209	0x3d77003c	0.060302958
210	0x3d6e9ec0	0.058256865
211	0xbc51f72c	-0.012815278
212	0x3d375f95	0.04476889
213	0xbd2160b3	-0.03939886
214	0x3c84113e	0.016121503
215	0xbd1bdd6b	-0.038052958
216	0x3d0482d8	0.032351345
217	0x3d1c6e38	0.03819105
218	0x3ccb4ad9	0.024815964
219	0x3d9922f2	0.074773684
220	0xbcf486ef	-0.029849498
221	0x3cd7791e	0.02630287
222	0xbd0c47b6	-0.034248076
223	0x3d20cd11	0.039258067
224	0x3c2b41f8	0.01045274
225	0x3c9bc881	0.019016506
226	0xbd9306ff	-0.07179069
227	0xbca082d0	-0.019593626
228	0xbd6b1f74	-0.057403043
229	0xbcd3052c	-0.025759302
230	0xbd548241	-0.051882032
231	0x3d067ecf	0.032835778
232	0x3c53cc11	0.012927071
233	0xbd9e6b88	-0.07735354
234	0x3cd5cd3d	0.026098842
235	0x3c9ea627	0.019366337
236	0xbcd8946e	-0.026437964
237	0x3b240078	0.0025024693
238	0xbcf72270	-0.030167788
239	0x3d323da4	0.043515816
240	0x3d027c89	0.031857047
241	0xbda2b63c	-0.07944915
242	0x3d3b70d9	0.045761917
243	0x3d02538b	0.031817954
244	0x3d10cad2	0.035349675
245	0x3d8a0eb3	0.06741085
246	0x3d4dbbfe	0.05022811
247	0x3d020344	0.031741396
248	0xbc6b7f74	-0.014373649
249	0x3d172faa	0.03691069
250	0xbd574cd0	-0.05256349
251	0x3cb8c880	0.022556543
252	0xbd56f454	-0.052479103
253	0x3d1ac963	0.037789714
254	0x3cd48b1d	0.02594524
255	0xbc276421	-0.010216744

lays.2.weight f4 [2, 256]
0	0x3d467ea1	0.048460606
1	0xbcdaf5a5	-0.02672846
2	0x3d0250d4	0.031815365
3	0x3d31c9b3	0.043405246
4	0x3ad8c6d9	0.0016538753
5	0x3d0209be	0.031747572
6	0xba36f2e2	-0.00069789414
7	0x3d10f451	0.03538925
8	0x3d64b454	0.055836037
9	0xba7ad9cc	-0.00095691974
10	0x3cd4e883	0.025989776
11	0xbd2d8703	-0.042365085
12	0xbd142d0f	-0.036175784
13	0xbbd3d6cb	-0.0064648143
14	0x3cbde351	0.023179682
15	0x3a614a7c	0.0008594168
16	0x3cdeba9b	0.02718859
17	0x3c0f2547	0.008736915
18	0x3cd72c30	0.026266187
19	0x3cc5da3e	0.024151918
20	0xbab5013a	-0.001380957
21	0x3d06e6f7	0.03293511
22	0x3900652c	0.0001224472
23	0xbc050152	-0.008117991
24	0xbad33716	-0.0016114439
25	0xbb1d2e0a	-0.002398374
26	0xbb4a895f	-0.0030904633
27	0xba3aca4e	-0.00071254827
28	0x3a3be1de	0.0007167141
29	0x3b31d0d6	0.0027132533
30	0x3ac661ee	0.0015135386
31	0xbb2db866	-0.0026507615
32	0x3d5a36fe	0.0532751
33	0xbce62304	-0.028092869
34	0x3b1a8835	0.002357972
35	0xb6032930	-1.9544495e-06
36	0x3d1691c3	0.036760103
37	0xbb100ddb	-0.0021980915
38	0x3d029965	0.03188457
39	0xbd4ec511	-0.050480906
40	0x3d5708a9	0.052498493
41	0xbb27555a	-0.0025533051
42	0xbae8fe88	-0.0017776052
43	0x3c089a7e	0.008337615
44	0xbd16042b	-0.03662507
45	0xbbc5bfcd	-0.0060348273
46	0xbae102fc	-0.0017167027
47	0xbc814d80	-0.015784025
48	0x3d2937fe	0.041313164
49	0x3b913746	0.004431638
50	0x3d8b1c1d	0.067924716
51	0xb69858b0	-4.5402776e-06
52	0xbc4036aa	-0.011731783
53	0x3d5b6b87	0.053569343
54	0x39d49375	0.00040545655
55	0x3b96c942	0.0046016285
56	0xbcb69577	-0.022288067
57	0xbcb2052a	-0.021730978
58	0x3c3363cb	0.0109490855
59	0x3ba3f80e	0.0050039357
60	0xbb1d2306	-0.0023977174
61	0xbcb97a0c	-0.022641204
62	0xbd265120	-0.04060471
63	0x3d2f5414	0.042804793
64	0xbd54e734	-0.051978305
65	0xbca8fef8	-0.020629391
66	0xba925bbb	-0.0011166254
67	0x395c8161	0.00021029032
68	0xba643b4e	-0.0008706347
69	0xb965ba31	-0.00021908504
70	0x398a1dec	0.00026343705
71	0xbb746a1f	-0.0037294698
72	0x3cded6ee	0.027202096
73	0xbabf12ea	-0.001457778
74	0x3c5e9d6f	0.01358734
75	0x366f5a20	3.5666235e-06
76	0x3b48a7c9	0.0030617586
77	0xba92c89f	-0.0011198706
78	0xb70fabea	-8.563491e-06
79	0xbd3e9a11	-0.046533648
80	0x3d542f7b	0.051803093
81	0xbc69ac2f	-0.014262243
82	0x38620409	5.3886357e-05
83	0xbc8092dd	-0.01569503
84	0xba4d001a	-0.00078201445
85	0x3a3b52fc	0.00071458495
86	0xbc2ccbe4	-0.010546658
87	0x3c17f1e0	0.009273976
88	0xbc0f5ce6	-0.008750176
89	0x3d571e11	0.052518908
90	0x39be2104	0.00036264223
91	0xbc80d027	-0.015724255
92	0xbd1f5e43	-0.038908254
93	0xbd64a9a2	-0.055825837
94	0xb96d5a37	-0.00022635689
95	0x3d312943	0.04325224
96	0xbd144593	-0.036199164
97	0xbbec3ce9	-0.0072094095
98	0xbd3071c2	-0.043077238
99	0xb9d5f988	-0.0004081244
100	0x3d1eba73	0.03875203
101	0x3b4e0b00	0.0031439662
102	0xbc26de84	-0.010184888
103	0x3cd7d9a4	0.026348896
104	0x3cd7b37c	0.026330702
105	0xbaec177a	-0.0018012368
106	0x3a10f40a	0.0005529529
107	0xb9adb404	-0.00033131253
108	0x3d15d538	0.036580294
109	0xbd18aed4	-0.037276104
110	0xbafc1453	-0.0019232131
111	0x3c4121c8	0.011787839
112	0x3b8d2115	0.004306922
113	0xbb2827fa	-0.0025658594
114	0xbc8a33a8	-0.016870335
115	0xbb421ee0	-0.0029620454
116	0x396574dd	0.00021882677
117	0xb401f000	-1.2101373e-07
118	0xbd01fa80	-0.031733036
119	0xb99e3886	-0.00030178222
120	0xba9ce9a4	-0.0011971486
121	0x3cba14a4	0.02271492
122	0xb9790287	-0.00023747432
123	0xba85e8de	-0.0010216495
124	0x3b0646e5	0.0020489034
125	0xbb963cb2	-0.004584872
126	0x3d24701a	0.04014597
127	0x3d059c82	0.03261996
128	0xbd43f242	-0.047838457
129	0x3d37bb0b	0.044856112
130	0xbd1e5cb9	-0.038662646
131	0xb9bd0ef4	-0.0003606003
132	0xb70842be	-8.121771e-06
133	0x3cde2aa4	0.027119942
134	0x39846fa3	0.00025260178
135	0xba00c7ba	-0.0004912574
136	0x389a7a75	7.3661016e-05
137	0xbd0c6250	-0.034273446
138	0x3b24a822	0.002512463
139	0x3bab14e4	0.005220996
140	0xbb011284	-0.0019694874
141	0x3c629040	0.013828337
142	0xbb27523e	-0.0025531198
143	0x3d6b7ac2	0.057490118
144	0x3ceb54e0	0.028726995
145	0x3d1da0a7	0.03848329
146	0xba9703e0	-0.0011521541
147	0x3d1ada31	0.03780574
148	0xbaa8bfef	-0.0012874583
149	0xb9657d33	-0.00021885782
150	0xbd0219f0	-0.031763017
151	0xbad14ac8	-0.0015967721
152	0xba982186	-0.001160667
153	0xba87af0d	-0.0010351852
154	0x3d172e7d	0.03690957
155	0x3cf9d211	0.030495675
156	0xbd3e77e2	-0.046501048
157	0x389fb32f	7.615086e-05
158	0xbce415d4	-0.02784244
159	0xba9c0fe8	-0.0011906596
160	0x3d16b99b	0.0367981
161	0xbc307ce9	-0.010771968
162	0x39dfac5d	0.00042662295
163	0xbcc7fc29	-0.024412232
164	0xbbb36e9f	-0.0054758335
165	0x3a3c562a	0.00071844703
166	0xbaa91d03	-0.0012902323
167	0xbcaa0a8e	-0.020756986
168	0xb8decc27	-0.00010623811
169	0x3ae1094d	0.001716891
170	0x3a277418	0.0006387844
171	0x3cb75a4d	0.022381926
172	0x3c1bf152	0.009517984
173	0xbcb4ac1c	-0.022054724
174	0x3a50ff87	0.0007972647
175	0x3ca9ef27	0.02074392
176	0x3cd7832c	0.026307665
177	0x3bc1de1c	0.00591637
178	0x3ca07d2b	0.019590935
179	0xba509237	-0.0007956358
180	0x3cf1cd10	0.029516727
181	0xbb00a2a6	-0.0019628196
182	0x3c7d39e6	0.015455699
183	0xbc895983	-0.016766315
184	0xba4b969b	-0.00077662774
185	0xbd31fd42	-0.043454416
186	0x3c6d6627	0.014489687
187	0x3d4ddd3f	0.050259825
188	0x3cdb02d3	0.026734745
189	0xbc8143e6	-0.015779447
190	0xb9893655	-0.00026171157
191	0x3d1c92d2	0.038225956
192	0xb9a1133a	-0.00030722638
193	0xbb1ea425	-0.0024206724
194	0x38fb16d2	0.00011972863
195	0xb9bdd944	-0.00036210765
196	0xba51084c	-0.00079739536
197	0xbaecf4b1	-0.0018078295
198	0xbb314fec	-0.0027055694
199	0xbca7d3db	-0.020486763
200	0x3987335e	0.00025787478
201	0x3cf12527	0.02943666
202	0x3c474f00	0.012164831
203	0xbb82f99d	-0.0039970414
204	0x38fcb850	0.00012050627
205	0x3ceadd2c	0.028669916
206	0xbd34f48e	-0.044178538
207	0x3b6e991d	0.003640718
208	0xbd43c626	-0.04779639
209	0xba917a52	-0.0011099076
210	0x39b08f56	0.0003367613
211	0xbd16691d	-0.036721338
212	0x3c882c51	0.016622694
213	0x3a5db2c6	0.000845712
214	0xbd19f720	-0.037589192
215	0x3d3c3747	0.045951154
216	0xbcf50c3e	-0.029913064
217	0xb98961fa	-0.00026203674
218	0x3c87e6dc	0.016589575
219	0x3d04869d	0.03235494
220	0xba9ad030	-0.0011811312
221	0x39d5f600	0.0004080981
222	0x3cd30ba6	0.02576239
223	0xba80ce9d	-0.00098272
224	0x3a08a01a	0.0005211845
225	0x39ae382f	0.00033229726
226	0x3945ba1b	0.00018856714
227	0xbc2a284f	-0.010385587
228	0xbd0e46b6	-0.034735404
229	0x3c6e4ae3	0.014544222
230	0x39839bc1	0.00025102313
231	0x3ca7dd34	0.02049122
232	0x3d476c7b	0.04868744
233	0xbc232e1b	-0.009959723
234	0x3c5c59cf	0.013449146
235	0xb7367d48	-1.0877215e-05
236	0xba3b4024	-0.00071430416
237	0x3b8aa609	0.0042312187
238	0xbc673940	-0.014112771
239	0xbcd6fdfe	-0.02624416
240	0x38905ee6	6.884131e-05
241	0x3c1de01d	0.009635952
242	0xbd530b3d	-0.05152439
243	0x3a7ff845	0.0009764473
244	0xbd7417ca	-0.059593
245	0xb9f95592	-0.00047556736
246	0xb9dc9e4d	-0.00042079613
247	0x3d272f5d	0.040816654
248	0x3d210754	0.03931363
249	0x3a8ce490	0.0010749269
250	0xba89d8ec	-0.0010516918
251	0x38fb846a	0.00011993277
252	0x3c05d430	0.008168265
253	0x3b81be4c	0.0039594527
254	0x3bda0d76	0.0066544367
255	0xb83e5142	-4.5375207e-05

lays.2.bias f4 [2]
0	0x3cb9d4ed	0.022684539
1	0xba2dfef8	-0.00066374196

l1.weight f4 [256, 2]
0	0x3e23e0cd	0.16003723
1	0xbe2e494d	-0.1702015
2	0xbe8dcf52	-0.27697235
3	0x3ed27432	0.41104275
4	0x3f298525	0.6621879
5	0xb6ead4d5	-6.9985203e-06
6	0xbbdc42e6	-0.006721842
7	0x3ecaa455	0.395785
8	0xbeda0803	-0.42584237
9	0xbe93a816	-0.28839177
10	0x3f30cb42	0.69060147
11	0xbec8dded	-0.39231816
12	0x3ea2c0ac	0.31787622
13	0xb9357a3a	-0.00017307038
14	0x3ef7349e	0.4828233
15	0x3eb7117b	0.35755524
16	0xbe6b8c08	-0.23002636
17	0xbe82d1e8	-0.2555077
18	0x3e0a8a86	0.13529405
19	0x3eb42c8b	0.35190234
20	0x3ef3223b	0.47487053
21	0x3e82ef88	0.25573373
22	0xbe8cc928	-0.2749722
23	0x3e8bab97	0.2727935
24	0xbc85b165	-0.01631994
25	0x3e9060f3	0.28198966
26	0x3e3b3085	0.18280227
27	0x3ebedf90	0.3727994
28	0xbe60cd6e	-0.21953365
29	0xbf26bf82	-0.6513597
30	0xbdf48f78	-0.11941427
31	0xbddd77d8	-0.10813874
32	0xbf1f831b	-0.62309426
33	0xbf19dcdd	-0.60102636
34	0x3ebb17ed	0.3654169
35	0x3f1693fc	0.58819556
36	0x3ec0feee	0.37694496
37	0xbec5ca0b	-0.3863071
38	0x3eb75a98	0.35811305
39	0x3eb2a6e0	0.3489294
40	0xbf21ba5c	-0.63174987
41	0x3e82e8d0	0.25568247
42	0x3ded4b2e	0.11586605
43	0x3f0b18f2	0.5433494
44	0x3e252aa0	0.16129541
45	0xbe4d5d61	-0.20055152
46	0x38086e25	3.2527507e-05
47	0xbea0e797	-0.3142669
48	0xbe92fbb3	-0.28707656
49	0xbed10604	-0.40824902
50	0xbf2e9c61	-0.68207365
51	0xbb6ce917	-0.0036149675
52	0x3ed749c0	0.42048454
53	0xba9174da	-0.0011097447
54	0x3f1b1d6b	0.60591763
55	0xb79dcd9a	-1.88116e-05
56	0xbb10efcd	-0.0022115589
57	0x3edbf108	0.4295733
58	0xbf25c0f0	-0.64747524
59	0x368c29bd	4.177184e-06
60	0xbeada7fa	-0.33917218
61	0xbf10c231	-0.5654631
62	0xbcec6eee	-0.02886149
63	0x3d12e2f6	0.035860978
64	0x3ef72870	0.4827304
65	0xbf092d51	-0.5358477
66	0x3e2b3021	0.16717578
67	0x3ea0b4ee	0.31388038
68	0x3ec57833	0.38568267
69	0xbecd201b	-0.40063557
70	0x3e3b6675	0.18300803
71	0xbde05bf3	-0.10955038
72	0x3e8d4e7d	0.27598944
73	0x3e1cd7cc	0.15316695
74	0x3eadec58	0.33969378
75	0xba90e5c5	-0.0011054805
76	0x3d93c048	0.07214409
77	0x3e66d82b	0.22543399
78	0xbda181e6	-0.07886104
79	0x3f3995d4	0.72494245
80	0x3e5a2e81	0.21306802
81	0x3dd80d9f	0.10549473
82	0x3ea89879	0.32928827
83	0x3f14f196	0.5818113
84	0x3cc7f072	0.024406645
85	0x3ea420d4	0.32056296
86	0xbf1389d5	-0.5763219
87	0x3ed9ae90	0.42515993
88	0xbef63b51	-0.4809213
89	0xbe68db72	-0.22739962
90	0x3e93a22f	0.28834674
91	0xbe64daaa	-0.22349039
92	0x3e246500	0.16054153
93	0xbead8cc3	-0.33896455
94	0x3f0ef25c	0.5583856
95	0x3e4bb932	0.19894865
96	0xbeae8814	-0.34088194
97	0x3f034238	0.51272917
98	0x3ee40ef1	0.4454265
99	0x3f049623	0.5179159
100	0xbebb5716	-0.3658988
101	0xbbc72a42	-0.0060780356
102	0xbe7230f8	-0.23651493
103	0xbe806fec	-0.2508539
104	0x3e0131f3	0.1261671
105	0xbf17499f	-0.5909671
106	0xbdc4229d	-0.095769145
107	0xbf07f8a4	-0.5311377
108	0x3d9ccccd	0.0765625
109	0xbea8a87e	-0.3294105
110	0xbed07562	-0.40714556
111	0x3f1709e1	0.5899945
112	0x3f15352a	0.58284247
113	0xbefd4c42	-0.49472243
114	0xba5ba87b	-0.00083792926
115	0x3da1b546	0.07895903
116	0xbf215046	-0.6301311
117	0xbf172e9c	-0.59055495
118	0xbe62a1b1	-0.22131993
119	0x3e9d5386	0.30727786
120	0x3e95710f	0.2918782
121	0x3da33c25	0.07970456
122	0x3e1ae370	0.15125823
123	0xbf2836c9	-0.65708596
124	0x3e8a7829	0.270448
125	0x3ec96894	0.393376
126	0x3ef7a5c7	0.48368666
127	0xbea62bfd	-0.32455435
128	0x3e3dd63d	0.18538757
129	0xbf075b65	-0.5287383
130	0x3de13a5b	0.109974585
131	0x3f220fc4	0.63305306
132	0x3ef3d626	0.4762432
133	0x3ecd12ef	0.40053508
134	0x3f22d51f	0.63606447
135	0xbf036af8	-0.51335096
136	0x3e1bbb11	0.15208079
137	0xbe98680c	-0.2976688
138	0xbd44bbd5	-0.048030693
139	0xbdf125a5	-0.11774758
140	0xbecc9c1c	-0.39962852
141	0x3f313ff3	0.69238204
142	0xbf04a0e0	-0.51807976
143	0xbe9d3eed	-0.3071207
144	0xbecb5b49	-0.39718083
145	0x3c72ec03	0.014826777
146	0xbed67eab	-0.41893515
147	0xbf02d22f	-0.51101965
148	0x3e646c9f	0.2230706
149	0xbe9e9734	-0.30974734
150	0x3f105b2b	0.5638911
151	0x3f2aae3c	0.6667211
152	0xbf02a8be	-0.5103873
153	0xbc986511	-0.01860288
154	0x3f0cfbe0	0.5507183
155	0xbe284a83	-0.16434674
156	0x3eba12e9	0.36342552
157	0x3dc1c490	0.094613194
158	0xbf1af379	-0.6052776
159	0xbed1665f	-0.40898415
160	0x3bb966d6	0.005658011
161	0xbe33713d	-0.17523666
162	0x3f25a83d	0.64709836
163	0x35942b54	1.1039469e-06
164	0xbf240b47	-0.6407971
165	0x3eb829df	0.35969445
166	0x3d535d4b	0.051602643
167	0xbf0396a1	-0.51401716
168	0x3e8ad934	0.27118838
169	0xbed15223	-0.40882978
170	0x3e07b784	0.132536
171	0xb5ac9080	-1.2857054e-06
172	0x3ec9f8d8	0.39447665
173	0xbab67a08	-0.0013921866
174	0x3e71442d	0.23561163
175	0xbe127e94	-0.14306098
176	0xbf1136a6	-0.5672401
177	0xbe9d54c8	-0.30728745
178	0xbe9e9533	-0.30973205
179	0x3ee87c69	0.45407417
180	0x3f1a3da2	0.60250294
181	0x3e81bc5e	0.25339025
182	0xbda5c344	-0.080938846
183	0xbf04b77d	-0.5184248
184	0xbcc9b08c	-0.024620317
185	0x3eea1e07	0.45726034
186	0xbee082bf	-0.4384975
187	0x3e02b453	0.127641
188	0x3f26b78d	0.65123826
189	0xb99bcc32	-0.0002971604
190	0x3ccfa7d5	0.025348583
191	0x360a46bf	2.0604782e-06
192	0x3d6d0536	0.057866298
193	0x3eb5ebfd	0.35531607
194	0xbe5b864c	-0.21437949
195	0x3d4b6fcf	0.049667176
196	0x3ed99ee6	0.42504042
197	0x3701484c	7.705832e-06
198	0xbf0a46fd	-0.5401457
199	0x3c8dfc52	0.01733223
200	0xba949a32	-0.0011337458
201	0x3f08640e	0.5327767
202	0x3e6123b9	0.21986283
203	0xbefd67a9	-0.4949315
204	0xbe060f75	-0.13091834
205	0x3e18e24a	0.14930072
206	0x3d16dd05	0.036831874
207	0x3f251da5	0.6449836
208	0x3eccb250	0.39979792
209	0x3e6e2e86	0.23259935
210	0x3e60bd4a	0.21947208
211	0xbef2068c	-0.4727062
212	0xbe4ff535	-0.20308383
213	0x3eb24972	0.3482166
214	0x3f044b8a	0.51677763
215	0x3ea4ff0e	0.3222584
216	0x3e0b9b94	0.13633567
217	0x3ebb817e	0.36622232
218	0x3e9dc414	0.30813658
219	0x3e2d8f1c	0.16949123
220	0xbe379a71	-0.17930008
221	0xbe7ef1e8	-0.24896967
222	0xbed27a7f	-0.41109082
223	0x3e966603	0.29374704
224	0x3ed3915c	0.41321838
225	0xbe4e35cc	-0.2013771
226	0xbe6df3ac	-0.23237485
227	0x3f26c9d2	0.65151703
228	0x3e9e7dd9	0.3095539
229	0x3efdf68b	0.4960216
230	0xbf265125	-0.64967567
231	0xbec7d472	-0.3902927
232	0x3e11aa42	0.14225104
233	0xbe97b38e	-0.29629177
234	0xbec55c8f	-0.3854718
235	0xbeb87ab8	-0.36031127
236	0xbe3b8113	-0.18310957
237	0xbf274db0	-0.65352917
238	0x3ca2c410	0.01986888
239	0xbefe747b	-0.49698243
240	0xbe65b894	-0.22433692
241	0x3eb0dbca	0.34542686
242	0xbf2a2562	-0.6646329
243	0xbf1a647b	-0.6030957
244	0x3e21c0f9	0.1579627
245	0xbeddb1be	-0.4329967
246	0x3d5e6b8e	0.05430179
247	0x3dc17e20	0.094478846
248	0x3e1ef8a8	0.15524542
249	0xbf2a9f2b	-0.6664912
250	0xbefb8adc	-0.4912938
251	0xbf1d315b	-0.61403435
252	0x3f1aae88	0.60422564
253	0x3f0a43cd	0.54009706
254	0xbdf8cd52	-0.12148537
255	0x3ea7acef	0.32749125

l1.bias f4 [256]
0	0x3e578183	0.21045499
1	0xbf1fe747	-0.62462276
2	0xbf28103b	-0.65649766
3	0x3f16802b	0.5878932
4	0x3e8773c0	0.26455498
5	0xbeca2c98	-0.39487147
6	0x3e83d755	0.25750223
7	0xbe9c0c50	-0.30478144
8	0x3d813bd6	0.06310241
9	0x3eb60a10	0.35554552
10	0xbf070119	-0.5273605
11	0x3eeb7410	0.45986986
12	0x3f27bf26	0.65526044
13	0xbed99d07	-0.42502615
14	0x3d0d1f3d	0.03445362
15	0xbf1e4dcf	-0.61837476
16	0x3f0b0c73	0.5431587
17	0xbed78ba3	-0.42098722
18	0x3f2573d2	0.6462985
19	0xbf32c70b	-0.69834965
20	0xbe9dab8d	-0.30794945
21	0xbf340d04	-0.7033236
22	0x3e62805a	0.22119275
23	0x3e8d7719	0.27629927
24	0x3eaa1e1a	0.3322609
25	0xbe885ad0	-0.26631784
26	0x3f17d6bc	0.59312034
27	0xbf151b06	-0.5824436
28	0x3ef77d36	0.48337716
29	0x3edcc6a8	0.43120313
30	0x3ea04468	0.3130219
31	0x3dfbfe9e	0.12304424
32	0x3f24d4ad	0.6438702
33	0xbee7e53d	-0.45292082
34	0x3e573e70	0.21019912
35	0x3f21e210	0.6323557
36	0xbf2d1ea5	-0.67624885
37	0x3f2dd19a	0.6789795
38	0xbe799d5d	-0.24376436
39	0x3ef55967	0.4791977
40	0xbe91ef52	-0.285029
41	0xbf2fa31f	-0.6860828
42	0xbea3d40d	-0.3199772
43	0x3e421290	0.18952394
44	0xbdc20754	-0.09474054
45	0x3f106ab6	0.5641283
46	0x3f0729a4	0.52797914
47	0xbc7aac47	-0.015299863
48	0xbd978ca4	-0.07399872
49	0x3d9cbc37	0.07653087
50	0xbe988337	-0.2978761
51	0x3e947874	0.28998148
52	0xbe61aa91	-0.22037722
53	0xbe5448b4	-0.20730859
54	0xbf030e68	-0.5119386
55	0x3f0da1b6	0.55324876
56	0xbf0be772	-0.5465003
57	0x3ed6c7f8	0.4194944
58	0xbeb733aa	-0.35781604
59	0x3ebecff0	0.3726802
60	0x3e7a92b1	0.24470021
61	0x3f2adad7	0.66740173
62	0xbeb5c6cf	-0.3550324
63	0xbea3091c	-0.31842887
64	0xbec14c00	-0.37753296
65	0xbf01e1ac	-0.5073497
66	0xbdf93220	-0.12167764
67	0xbeee29fa	-0.465164
68	0xbe19e6e1	-0.1502948
69	0xbf222e99	-0.6335235
70	0x3f2a598c	0.6654289
71	0x3e3f0033	0.1865242
72	0x3f498a4c	0.7872665
73	0xbf2ee1fc	-0.68313575
74	0xbe8542fd	-0.2602767
75	0xbf03ef8a	-0.5153738
76	0xbeffd4ef	-0.49967143
77	0x3f1f73b2	0.6228591
78	0x3e6064c3	0.21913438
79	0xbedd45a0	-0.43217182
80	0x3e92384e	0.28558582
81	0xbf18363a	-0.59457743
82	0xbe7092eb	-0.23493545
83	0x3ee179db	0.4403828
84	0x3ec98f9c	0.39367378
85	0xbede88e3	-0.4346381
86	0x3ec88bfd	0.39169303
87	0xbd886f55	-0.0666186
88	0x3ecc267b	0.39873108
89	0x3f0628e1	0.52406126
90	0xbe8922c0	-0.26784325
91	0xbf02c2d4	-0.51078534
92	0x3e4d716a	0.20062795
93	0xbeaee29c	-0.34157264
94	0x3f1fc9fb	0.6241757
95	0xbea0b327	-0.31386682
96	0x3e8b9be7	0.27267382
97	0x3ecfe602	0.4060517
98	0xbe9670f4	-0.2938305
99	0xbf1ab7b9	-0.6043659
100	0x3e512ea8	0.20427954
101	0xbd211978	-0.03933093
102	0x3d66c0d0	0.056336224
103	0xbee0358c	-0.43790853
104	0xbe8bb0f2	-0.27283436
105	0x3ed7c804	0.42144787
106	0xbb681e40	-0.003541842
107	0xbf0ff9c4	-0.5624049
108	0xbe6a5d74	-0.22887212
109	0xbe4e4f13	-0.20147352
110	0xbee41711	-0.44548848
111	0xbdcd6de1	-0.10030723
112	0xbe51f881	-0.20504953
113	0x3f04d5be	0.51888645
114	0x3ed3528b	0.41273913
115	0x3e632d1a	0.22185174
116	0xbeb3aeb2	-0.3509422
117	0x3e370062	0.1787124
118	0x3f09d225	0.5383628
119	0x3dc317e1	0.09526039
120	0x3f183ee0	0.5947094
121	0x3f0353d8	0.5129981
122	0x3ebc13d3	0.36733875
123	0xbede0259	-0.43361166
124	0xbf277060	-0.65405846
125	0x3e881038	0.26574874
126	0xbe8632c3	-0.26210603
127	0x3ecac628	0.39604306
128	0xbb5bb4d7	-0.0033524537
129	0xbf0fc7ff	-0.56164545
130	0x3e9fe427	0.31228754
131	0x3d028f9b	0.031875234
132	0xbdf07dc2	-0.117427364
133	0xbde70437	-0.11280101
134	0xbe6cd715	-0.23128922
135	0xbf1438cf	-0.57899183
136	0xbd426182	-0.047456272
137	0xbee9e99c	-0.45686042
138	0xbf2d8e22	-0.67795
139	0x3e8be3d8	0.27322268
140	0x3efe5e8b	0.49681506
141	0x3e896bf4	0.26840174
142	0xbdbb7d75	-0.091547884
143	0xbe04976f	-0.12948392
144	0xbee3fad2	-0.44527298
145	0x3eaefa52	0.34175354
146	0xbeb4127a	-0.35170346
147	0xbb7ed98e	-0.0038886997
148	0x3f03e695	0.51523715
149	0x3e985329	0.29750946
150	0x3f3189ec	0.6935108
151	0xbee9dd61	-0.4567671
152	0xbf0a4487	-0.54010814
153	0xbe94132e	-0.28920883
154	0xbf1acec1	-0.6047173
155	0x3f049246	0.51785696
156	0xbe0583ec	-0.13038605
157	0xbebf66ea	-0.37383205
158	0xbedcaf8c	-0.43102682
159	0x3e8b82bd	0.27248183
160	0x3ef14cb1	0.47128823
161	0x3f334bb4	0.7003739
162	0x3e97c9ef	0.2964625
163	0xbf28206c	-0.6567447
164	0x3e570d0d	0.21001072
165	0xbd1aedd3	-0.037824463
166	0x3dc80f12	0.097684994
167	0x3e93a035	0.28833166
168	0x3dc539a1	0.096301325
169	0x3e1d7c85	0.15379532
170	0x3ec19188	0.37806344
171	0xbbc748d7	-0.0060816812
172	0x3e95db46	0.29268855
173	0x3eb75278	0.35805106
174	0x3f250fb6	0.644771
175	0x3efcac36	0.49350137
176	0x3ea78d2e	0.327249
177	0x3f0f8dd4	0.5607579
178	0xbf2193ee	-0.6311635
179	0x3f159c65	0.58441764
180	0xbf1161fd	-0.56790143
181	0x3f3673f1	0.7127066
182	0x3f1f6e3e	0.6227759
183	0xbeffe508	-0.49979424
184	0x3ee169c6	0.4402601
185	0x3c3f4b73	0.011675703
186	0xbe64a50a	-0.22328582
187	0xbf1640b4	-0.5869248
188	0xbf2d4b19	-0.67692715
189	0xbf0e4697	-0.5557646
190	0xbecea7e5	-0.40362468
191	0x3f211249	0.62918526
192	0x3f30ccf3	0.6906273
193	0x3f136187	0.5757069
194	0x3f0e1168	0.5549531
195	0xbf1d316a	-0.61403525
196	0xbf2202a3	-0.63285273
197	0xbd7e9136	-0.062150203
198	0xbe32a036	-0.17443928
199	0xbf1c278c	-0.60997844
200	0x3e124f80	0.1428814
201	0xbed743af	-0.42043826
202	0x3ec8a483	0.39188012
203	0xbea0897a	-0.31354886
204	0xbf0dd61f	-0.5540485
205	0x3d20ae15	0.039228518
206	0x3ed845a6	0.42240638
207	0xbf15ccc4	-0.5851557
208	0x3efb16f0	0.49040937
209	0xbef8e90c	-0.486153
210	0x3e0bcb33	0.13651733
211	0x3f0e0249	0.55472237
212	0x3f1f24f4	0.6216576
213	0x3f26c644	0.6514628
214	0x3e0eb0d7	0.13934647
215	0x3f26679c	0.65001845
216	0xbbdc1d06	-0.006717327
217	0x3f083b5c	0.53215575
218	0x3f0fe086	0.5620197
219	0x3d76d41e	0.060260884
220	0x3f0b09d1	0.54311854
221	0xbd17dd23	-0.037076127
222	0xbf0a97ca	-0.5413786
223	0x3e8cd469	0.27505806
224	0x3f3042c9	0.68851906
225	0x3f2763ae	0.65386474
226	0x3e351f33	0.17687683
227	0xbe5f9c1d	-0.21836896
228	0x3eca1f60	0.39477062
229	0x3f04254f	0.5161943
230	0x3ebe83a9	0.37209824
231	0x3e4c2407	0.19935618
232	0xbe4eabd3	-0.20182733
233	0x3f303d4c	0.6884353
234	0x3e819404	0.2530824
235	0xbe096255	-0.13416417
236	0x3ed7c549	0.42142704
237	0xbe8d1377	-0.27553913
238	0xbe88c5b7	-0.26713344
239	0x3f3064b0	0.68903637
240	0xbf10fc68	-0.5663514
241	0xbc316c0e	-0.010828985
242	0x3e2acfb5	0.16680796
243	0x3f3c7b12	0.7362529
244	0xbef503e9	-0.47854546
245	0xbeb03aee	-0.3441996
246	0x3ef1ef83	0.47253045
247	0x3eb34e14	0.35020506
248	0x3cdb7d10	0.026793033
249	0x3cb6538c	0.022256635
250	0x3f1ca309	0.6118627
251	0xbeb1212c	-0.3459562
252	0xbf0951d7	-0.536405
253	0x3f0e0bd8	0.5548682
254	0xbf3625ba	-0.71151316
255	0xbece431e	-0.4028558
