TOYDATA/Models/Halfmoons_a=0.2_e=0.15.pt (torch, 270487 bytes, 10 tensors)

lays.0.weight f4 [256, 2]
00000000: 8d3a 2abf bbf5 0fbf 64e2 51be d675 a33a
00000010: 3de3 5abe 3e37 bebe 7e56 3ebe aeaa 08be
00000020: 9de2 29bd eaae cabd cf02 a7be ce3c e23e
00000030: 9e13 b83e a394 41ba e6d2 1bbf 29bd d53e
00000040: f91f 0cbf fac6 2d37 ea2f dab7 d6a6 4539
00000050: 5387 91b5 4b4c 27bf b339 a7bb 12eb b93e
00000060: ea79 0a3f 610d d5be 807c 253f 6110 04be
00000070: ec8f 3cbe 40be ae38 0f46 e2be 981d b33e
00000080: 1ea6 1a3e 928b 09bf 6d14 ca3e a32a 17bf
00000090: 0873 fcbe 919f 033f 9115 27b8 c2a6 8138
000000a0: 5213 26bf 86f8 17bf 9ef0 58b9 8171 8739
000000b0: 4923 17bf 1a58 173f 0f72 3dbe acca 883e
000000c0: f338 d2bd 3f88 0cbf e4a8 88bd 1405 783e
000000d0: 1769 86be c8d2 b6be 8c76 d03e b917 dfbe
000000e0: 0f7a 9bbe 2003 e53e 365c e03e 88df e53e
000000f0: bfa4 183f 080d f13e 783c 28bf 5c0b 0f3f
00000100: 6edc d03e 2e59 b5bc f828 48be 9b78 e53e
00000110: 1f8b 9ebe d3d5 e23d 3a42 6dbc 4378 993d
00000120: fce9 da3e e078 06bd 10ca dd3b 0bdd 4fbd
00000130: 1b04 f7be c776 093f c1a6 463e 62da acbe
00000140: 4676 1c3f 125f 0fbd 7e50 093e 2ab0 2cbe
00000150: 87f4 8cbe 78c6 23be 1f11 07be 82ac b53e
00000160: efb6 b23d 3c3a a43e d9eb d23e e809 813c
00000170: 0d51 0d3f fae6 0b3f c008 f83e 1bed 16bf
00000180: 20a0 103f 2e29 2c3f 8800 2a3f 1d24 e33e
00000190: 5935 aebe ab42 7d3e 1ab8 e23d f4f9 46be
000001a0: d08d 063f e723 90bd cd7d 7d3e b561 a2be
000001b0: 4176 95be 18ca d0be 840c 06bf 2665 4838
000001c0: 0c09 0f3f 4930 51be dc3c a7b8 00ef 6636
000001d0: 1671 f73e 6e0c 86be d1ed 22bf c0a8 ef3b
000001e0: 22f3 48be 7196 bd3e 3998 0bbd 29ee 18bf
000001f0: abc4 3a3d 86aa d0be 9685 8cbe 10f3 e33e
00000200: d817 d53c 53a6 1ebf a9fc eb3d b3c2 b0be
00000210: 023a f83e fa8f af3e 631f 2ebf 6ff7 cfbe
00000220: 44ce 003f 8f3c 3c3e c5d5 463e 6179 603e
00000230: 6605 e5be 675c 033e 1550 03bf b7be 25bf
00000240: ca2d 36bb 8a18 8e3e 85ac 2e3e 6772 1a3f
00000250: 053c 1b3e 503c 763e f63c 023f 4827 f436
00000260: 57fe ca3d 621d ccbd 0c0b a33e 7ed7 313f
00000270: 6a33 abbe 4e81 043d 3454 e73e 3627 e2be
00000280: 6eed 013f 5c68 17ba 77f0 5cbe b297 22bf
00000290: ec68 d4be 87e1 033f dc05 e3bc 8fd0 1d39
000002a0: ab59 2abf d658 91be ed29 a7be 81a9 2b3d
000002b0: 2dc3 8ebe 4521 5c3e 334d 27bf 01a8 ef3e
000002c0: 8ff6 ac3d 3399 13bf 7d66 c63d a739 863e
000002d0: cca9 47be 0272 96bd 9f29 223f 3b7e 8eb9
000002e0: b591 973e 1c73 4f3e 124e febe 6686 1b3f
000002f0: 1d76 9cbd 861a 723e 4818 23be ca90 213f
00000300: b794 0d3f 5de0 28bf bd90 593e 9f6f 8dbd
00000310: 2a1a 5ab7 cb5a 9cbe 3546 23be 2123 7fb7
00000320: f467 443e 78d5 c034 7562 b6be 97cc 1d3f
00000330: 9588 b0be e787 dcbe ba66 b6be 27ae 6e3d
00000340: 2443 cfbe ce1b ce3e 983f e4ba 823e 1b3f
00000350: 7a54 03bf 7405 b43e 83ae 0f3e 3abb eabe
00000360: c31d 9e3e cf37 10bf 04f9 1a3e f563 b33e
00000370: fc3b b7bd 33cf 233e 634f 1bbe e445 14bf
00000380: 7c90 cd3d da9d a4be 5186 dfb5 c348 2a3f
00000390: ce6c 2bbe 8d02 433e de03 1b3f 0763 de3e
000003a0: 296d da3e 74ea 0abf 3f14 07bf 3ae8 1a3f
000003b0: 4a6b fcbd b5d3 973e 3242 4ebe 823e 403e
000003c0: 8f67 653d 590c 153f 530b b53e 319d 043f
000003d0: 9a88 613e 92d4 b33e 13fb 82be 6554 ab3e
000003e0: 1d76 c13e eb4d 9fbe fd64 803e ce4b b43c
000003f0: d50e d3bd b2ee 26bf 2381 17be 6078 873e
-0.6649559 -0.5623433 -0.20496517 0.0012471031 -0.21375747 -0.3715152 -0.18587682 -0.13346359
-0.04147588 -0.098966435 -0.3261933 0.44187015 0.35952467 -0.00073845143 -0.6086868 0.4174588
-0.54736286 1.0357931e-05 -2.6009937e-05 0.00018849535 -1.0842726e-06 -0.6535079 -0.005103314 0.36312157
0.54092276 -0.4161177 0.64643097 -0.12896873 -0.18414277 8.3324034e-05 -0.44194075 0.34983516
0.15102431 -0.5372859 0.3946871 -0.59049433 -0.49306512 0.51415354 -3.9835988e-05 6.1822604e-05
-0.6487323 -0.5936359 -0.00020689002 0.00025833774 -0.59038216 0.5911881 -0.18500541 0.26717126
-0.102647685 -0.54895395 -0.06672838 0.24220687 -0.26252052 -0.35707688 0.40715444 -0.43572786
-0.3036656 0.44728947 0.4382035 0.44897103 0.5962638 0.47080255 -0.6571727 0.5587671
0.40793175 -0.02213725 -0.19546878 0.44818577 -0.30965516 0.1107594 -0.014481122 0.07493641
0.4275664 -0.03283012 0.0067684725 -0.050747912 -0.4824532 0.53696865 0.19399549 -0.33760363
0.6111797 -0.035002775 0.13409612 -0.16864076 -0.2753031 -0.15993679 -0.13190125 0.35483176
0.08726298 0.3207568 0.41195562 0.015751794 0.552018 0.5464932 0.48444176 -0.58955544
0.5649433 0.67250335 0.6640706 0.4436349 -0.34025076 0.24732463 0.11070271 -0.19431287
0.5256014 -0.07038098 0.2475502 -0.3171517 -0.29191783 -0.40779185 -0.5236285 4.7777918e-05
0.5587318 -0.20428576 -7.9745165e-05 3.4411787e-06 0.48328465 -0.26181358 -0.6364413 0.0073138177
-0.19623998 0.3702884 -0.034080718 -0.59738404 0.045597713 -0.407551 -0.27445668 0.4452138
0.026012346 -0.6197254 0.115228005 -0.34523544 0.48481756 0.34289533 -0.6801664 -0.40618464
0.50314736 0.18382476 0.19417484 0.21921302 -0.4473068 0.12828217 -0.5129407 -0.6474413
-0.0027798289 0.27753097 0.17057998 0.60330814 0.15159614 0.24046445 0.5087427 7.2763396e-06
0.09911793 -0.09966542 0.31844366 0.6946944 -0.33437663 0.032349877 0.4518143 -0.4417054
0.50752914 -0.00057757436 -0.21576105 -0.6351272 -0.414863 0.51516 -0.027712755 0.00015050381
-0.6654307 -0.2838809 -0.32649174 0.0419097 -0.27883282 0.21497066 -0.6535217 0.46807864
0.08445465 -0.5765564 0.09687517 0.2621586 -0.19498366 -0.07345964 0.6334476 -0.000271784
0.29603353 0.20258754 -0.49668938 0.6075195 -0.07639716 0.2364293 -0.15927231 0.63111556
0.55305046 -0.6596735 0.2124662 -0.06906056 -1.2999904e-05 -0.3053802 -0.1594475 -1.52073635e-05
0.1918028 3.5918106e-07 -0.35621992 0.61640304 -0.34479204 -0.43072435 -0.3562525 0.058271553
-0.40480912 0.40255588 -0.0017413972 0.60642254 -0.51300776 0.3516041 0.14031415 -0.45845968
0.3088208 -0.5633516 0.15134054 0.350372 -0.08946988 0.15997009 -0.15167002 -0.57919145
0.10037324 -0.3215168 -1.6653886e-06 0.66517276 -0.16740724 0.19043942 0.60552776 0.43434927
0.42661408 -0.54264 -0.5276527 0.605106 -0.12325151 0.29653707 -0.20142439 0.18773845
0.056006964 0.58221966 0.35360202 0.51802355 0.22024766 0.35123116 -0.2558218 0.33462825
0.37785426 -0.31114134 0.25077048 0.022008803 -0.10305563 -0.6520797 -0.14795355 0.26459026

lays.0.bias f4 [256]
00000000: d51f c5be 5173 db3e 0045 a1be 6624 1bbf
00000010: fa6a 9ebd 5b81 0e3f c59a b43e d105 cd3d
00000020: ce31 2bbd 7a1a 0d3f 950d 8cbd da69 1e3f
00000030: dc04 523e 7664 9fbd d0be fd3e 8f40 283f
00000040: a419 c5be 2802 91be 72ad 22bf 6dcc f43e
00000050: 2fee 7ebe d167 f63e baf4 31bf 749f 11bf
00000060: 3669 cfbc babc 0a3f ec06 8abe a010 30bf
00000070: 074d e5be 5450 883e 0494 23be d998 43be
00000080: 304e 78be e7d6 2f3f 9739 173f 6eab 25bf
00000090: 2dfa c93e 4dee f33e e8b7 06bd 13a9 233f
000000a0: ce93 5cbe 60ab 2f3e 974a db3e b2bd b3be
000000b0: 2569 24bf 492c 0d3f 0539 3dbe a73e 83be
000000c0: 6b59 243e f20a 29bf 1b46 29bf 6244 d6be
000000d0: 9ce0 2abe 2cef dabe 5087 72be b955 2fbf
000000e0: a6c3 89be 0778 ec3e 57b2 f33e dae2 4dbd
000000f0: 4dd0 2f3f 907c 1abe 0f63 b33e 6b59 793e
00000100: 7b18 473d 2bc6 9a3e ab76 1dbf 4a7e 113f
00000110: 27e6 02bf b208 a4bd f154 cbbb d1f9 af3e
00000120: 6242 203f 4c30 813e aeb1 02bf 3647 0cbf
00000130: 04ac 01be 36c0 8e3d aefd 2c3f 6b8b 07bd
00000140: 839c 003f 1b0b 4bbd 39f2 353f 71cb 283f
00000150: 5c6d 21bf 7d55 34bf 6d9f a6be 847f bebe
00000160: 2239 fd3e 9e9d 65bd 86e2 60be d709 083f
00000170: ccba 99be 92b7 bd3e 4163 003f 828f 05bf
00000180: b191 b4be 1b99 ad3c aa66 d0be 7e88 6e3d
00000190: 6383 31be 7094 743e d54a 6b3e dd1d 343f
000001a0: 5de0 3cbe 3bcf 13bf 976e 91bd d86a 0bbf
000001b0: 8141 7b3e 378a 493e 68fc 223e 14db 8dbe
000001c0: 5dfa 013f 6312 73bd daba ea3e f16c 8d3d
000001d0: 303f bebe fa13 fa3d c4f7 193f 0b55 19bf
000001e0: a5b7 093f 4820 0bbf d627 24bf ce5e e13e
000001f0: ee22 35bf e791 19bf 864e b9be 6d7b c9be
00000200: 43dd 6cbd 8bf9 90bd ca48 23bf d0a1 083f
00000210: 92cc 34bf 9926 25bf 515d 193f e15f 4b3e
00000220: a73e 1b3e 9b51 20bf 5a6c 46be 6893 0f3f
00000230: f08d 343f 5573 bdbe 8ada b43e 8971 b1be
00000240: a2fd 0a3f 6130 243f cf84 9dbd c64d 33be
00000250: 650e f2be 0c9c 173f 5cb2 29ba 063c f73e
00000260: 56d2 0e3e bcff 32bf aa30 47be 55d6 5e3e
00000270: bf42 9f3e 45a8 28bf c7fa d93e 8b2d e63e
00000280: 0430 113f 93e2 fbbe 1936 f6be de5c dbbe
00000290: 59c3 003f 41f1 42be a28c 3f3f 9c1f 8c3e
000002a0: be62 383f ec1d d53e 5ec5 243f 761b 20bf
000002b0: d0df 70be 5e5c cc3e bdd1 0cbf 8aa4 003e
000002c0: ae4a 03bf 7dd9 0f3f e055 403d 8ee4 70be
000002d0: feab 173f 1a9e 133f 4d2c 37bf e727 8e3d
000002e0: 71dd 473c 445c adbe 1ffe e43e 4281 ef3e
000002f0: c833 013c 042f 8fbd e640 35bf dcaf fb3e
00000300: 1c3d 123f 9a0a 753e 8c8e c63e d973 2cbf
00000310: 2418 cf3e 5036 3e3e 735c 0cbf 5fc0 563e
00000320: 2d44 e0bd 3866 013f 0199 ab3e 4e44 b03e
00000330: 9010 06bf 6827 1a3f 63da 683e 1a18 153f
00000340: 71a6 14bf 6e16 0dbe 1ae6 0c3f 3c31 c4be
00000350: 5bab 273e 5a5b d33e 8552 ecbe 8df9 343e
00000360: 3af0 2cbf 2100 063f 030a c93e 565e 35bd
00000370: a677 ac3e ce8d 813c 7e8d f7be 130b 953e
00000380: 80f8 dabb 0519 4fbe 0883 86be f9c1 7abe
00000390: 6441 373f 2634 f1bb 72ed c7be 9ee0 27be
000003a0: 1930 a83e 5524 a73e 3f3e 1b3e b0f7 173f
000003b0: 6a9b 153f 681d 2a3f e5f5 0c3e e859 d1bd
000003c0: 3567 393f e522 d23e 78b4 18bf 615a c4be
000003d0: 22ec fe3d 5dce 1cbf 919f 38be bf2c ddbe
000003e0: c741 7b3e 5744 f03e 27e1 75bc 7762 89be
000003f0: 4a9a 963e 4f36 083f 6019 d73c 965b 393f
-0.38500848 0.42861417 -0.31497955 -0.60602415 -0.07735248 0.5566613 0.3527433 0.10010875
-0.041795544 0.55118525 -0.06838528 0.61880267 0.20509666 -0.07782833 0.4955964 0.6572351
-0.38496125 -0.28321958 -0.63545907 0.47812214 -0.24895547 0.4812608 -0.6951405 -0.5688393
-0.025318723 0.54194224 -0.26958406 -0.6877537 -0.4478533 0.26623785 -0.15974432 -0.19101276
-0.24248576 0.6868729 0.5907225 -0.64714706 0.3944868 0.47642747 -0.03289023 0.6392986
-0.21540758 0.17155218 0.42830345 -0.35105664 -0.6422294 0.551457 -0.18478782 -0.25633737
0.16049735 -0.66032326 -0.661226 -0.41849047 -0.16687244 -0.427606 -0.2368443 -0.6849018
-0.2690708 0.46185324 0.47597 -0.05026517 0.68677217 -0.1508658 0.35036513 0.24350516
0.04860733 0.30229315 -0.615092 0.56833327 -0.51132435 -0.08009471 -0.006205194 0.34370282
0.6260129 0.2523216 -0.5105237 -0.5479616 -0.12663275 0.06970255 0.67574584 -0.033091944
0.5023882 -0.049571138 0.7107273 0.65935427 -0.63057494 -0.70442945 -0.32543507 -0.37206662
0.4945765 -0.05605852 -0.21961412 0.53140014 -0.30025327 0.37054116 0.5015145 -0.521721
-0.35267404 0.02119117 -0.40703326 0.058235638 -0.17335276 0.2388475 0.22977765 0.7035807
-0.18444963 -0.57738084 -0.071011715 -0.54459906 0.24536707 0.19681631 0.15916598 -0.27706206
0.5077265 -0.059343707 0.4584568 0.069055445 -0.37157583 0.122108415 0.60143685 -0.5989539
0.53795844 -0.5434613 -0.64123285 0.44017643 -0.70756423 -0.59988254 -0.3619272 -0.3935198
-0.0578282 -0.070788465 -0.6378294 0.53371906 -0.7062465 -0.6451202 0.59908015 0.19860794
0.15160619 -0.6262452 -0.1937727 0.560843 0.7052908 -0.37002054 0.35322982 -0.34656933
0.5429326 0.6413632 -0.07691347 -0.17510137 -0.47276607 0.59222484 -0.0006473416 0.48287982
0.13947424 -0.6992147 -0.19452158 0.21761449 0.3110561 -0.6588176 0.4257414 0.44956622
0.5671389 -0.491963 -0.48088148 -0.4284429 0.50298077 -0.19037344 0.74823964 0.27367866
0.7202567 0.4162439 0.6436366 -0.625419 -0.23522878 0.3991422 -0.55007535 0.12562767
-0.5128583 0.56191236 0.046956897 -0.23524687 0.59246814 0.5766312 -0.7155197 0.069412045
0.012198792 -0.33859456 0.4472513 0.46778303 0.007885881 -0.069913894 -0.7080215 0.49157608
0.57124496 0.23929825 0.3878063 -0.6736427 0.40448105 0.18575406 -0.54828566 0.20971821
-0.109505035 0.505466 0.3351517 0.34427112 -0.5236902 0.6021638 0.22739558 0.582399
-0.5806647 -0.13778087 0.5503861 -0.38318813 0.1637396 0.41280633 -0.46156707 0.17673321
-0.67554057 0.52343947 0.3926545 -0.04427942 0.33685035 0.015814688 -0.48350137 0.2911001
-0.0066824555 -0.20224388 -0.26271844 -0.24488057 0.71584153 -0.007360953 -0.39048344 -0.16394278
0.32849196 0.32644907 0.15160464 0.59362316 0.5844027 0.6645112 0.13765676 -0.102222264
0.72423106 0.41042247 -0.59650373 -0.38350204 0.124473825 -0.61252385 -0.1802962 -0.431982
0.24536811 0.4692714 -0.015007294 -0.26832935 0.29414588 0.5320787 0.026257217 0.72405374

lays.1.weight f4 [256, 256]
00000000: c259 413d 9956 253d 75d3 47bb ac89 ff3c
00000010: 2037 443b 6044 73bd ce71 0cba 045d 06bc
00000020: 7314 a8bc 7ceb 753c 552b 1f3b e51f 50bc
00000030: af76 febb ecac 75bd bd4d 67bd 93d4 ebbb
00000040: 0d32 24bb 2126 edbc 96cd 3fbd c1f3 63bd
00000050: 60a9 ef3c 652f 1a3d 0c75 603d c1c7 e1bc
00000060: 8d59 273b 909c 5c3c 6bae 19bc 5cb0 e3bc
00000070: ad84 f0bc 09fc 573d 1ac1 973c a270 463d
00000080: ae7f 213d 9b4b 593c fadf 46bd 2b27 403d
00000090: 1d35 44ba f87e 99bc 3247 39bd 6495 31bc
000000a0: 344a 8abd bfcb a93c 4cb8 4d3b 8d1c f6bc
000000b0: 50cd ac3c 4576 32bd b741 2dba d525 00bd
000000c0: c665 f1bc 9601 debc d9bd eebc b02d 123d
000000d0: e74d 8dbc fc02 ab3b cf66 0bbd 6334 5abd
000000e0: fcaf 483d 1958 503d 228c 8cbd 2b1e b3bb
000000f0: 92b8 dabc 6bf1 713b 70e7 e33c 3662 7c3c
00000100: 20b1 043d 3675 87bd 7881 79bc 006c 3a3d
00000110: 2ad7 383d 926e 553d 5877 3a3d 1ce3 0bbd
00000120: 3441 76bd e6e9 8ebc dac6 443d 947b 8fbc
00000130: fd7d b4ba 98b6 35bd d637 71bc 0312 40bd
00000140: a659 e6ba 48ab 55bd 921a 21bd 06d8 c43c
00000150: 2175 113d 3dd0 533c 66f3 aebc 1978 e9bc
00000160: 1a38 95bc 077c 4a39 d168 053d a04b 1b3d
00000170: fc37 aa3c 206a 7ebd 6a28 adbc 7d87 fa3c
00000180: 19a4 c03c e668 503d cd74 9a3c f044 ec3c
00000190: e786 6fbd e74f ce3c a979 75bc 7c95 30bd
000001a0: 5297 dfbc 48aa 603d c52d 16bd 54b9 3d3d
000001b0: ce42 8cbc c186 22bc 6b96 0bbc f9b7 653c
000001c0: 86de f9b8 0d23 433d d725 3a3d 65fc 8fbd
000001d0: f53d 28bd a55a 3c3d 9692 ab3c 455b 4e3d
000001e0: 6eb9 2dbd 7c37 0b3d 855e 19bc 412b 613d
000001f0: 5709 05bd ecf3 373d 0a39 3f3b 665f 25bd
00000200: 75e6 333d b94e 513d 7388 023d 6eb8 f1bc
00000210: a65a 573c c013 413c 3062 c9bc b1a3 e73b
00000220: bcb7 993c 36be 81bb 662e 883a d8cf 4fbd
00000230: 0eea fabc 2b09 8a3c b2b0 313d 57fd 54bd
00000240: 1465 89bd 7a6b c7bb 0dda 9d3c 4a1d 213d
00000250: 8107 45bd 9f89 dabc bf47 803b cf01 fabc
00000260: d14d f53c a037 8a3c ae0c 78bb f17d 46bd
00000270: eed0 86bc bf4f 5d3d 2f36 233d 81ed 5bbd
00000280: 6e51 193b 755f 52bd 1ede 2abd 8c81 a4bb
00000290: fb6a 1dbd 7aa5 4eb8 94f1 35ba 60ab 00bc
000002a0: 47da 5cbd a032 6e3c 14bd 25bc 9c4e 10bc
000002b0: 2307 363d 3a25 1cbd 14c0 593d 95d7 d03c
000002c0: 25ec 87bb 02c8 f2bc 8a08 9cbc ef8b 09bd
000002d0: 92bf 8bbb 2efc 0fbd b398 51bd 96f5 2dbc
000002e0: 7cb4 303d 1cee b13c 00ec 493c 6493 4c3d
000002f0: c8ad e9bb 3a5d 85ba 98cb 1cbd 1555 cc3c
00000300: 7ae8 4ebd b45a 043d 115e ffbb a86a 183d
00000310: 6543 40bd ffe0 4e3d 880a 923c 0e75 ae3c
00000320: a531 523d 8d75 45bb bc8b 3d3d b391 00bd
00000330: ec23 c7b9 f440 97bc 0896 173d bc98 85bd
00000340: f319 c53c ed81 583d ccbc 81bd 38e2 31bc
00000350: f80b 363c d0cd 32bc 8af6 193d 8d61 49bd
00000360: b228 64bd 9886 28bd 2c4f 6abd 922b 15ba
00000370: 2415 9ebb 4446 99bc db9c f6bb 6f0d 273c
00000380: 9de6 f13c 1fc2 ebbb 3f70 1abd a382 073b
00000390: 6d3c fc3c 3098 a63c 2c45 e23c c410 5ebd
000003a0: 9dc8 5d3d e237 d93c f0ff 173d dcca cfbb
000003b0: 1b84 54bd 2dad 0c3d ddcb f23c 45f6 efbc
000003c0: 1f89 cd3c 978d 99ba f569 353b e80e 32bc
000003d0: 104b ec3c fb3e 6eba dd3c e2bb 99ce d938
000003e0: 7494 82ba 3ba6 77bd 671a c6bc 9a6d 523d
000003f0: 3e06 7b3a 4662 f43c bc85 ff3c 3379 31bd
0.04720474 0.04036579 -0.0030491028 0.031193577 0.0029940084 -0.05939138 -0.00053575344 -0.008200888
-0.020517563 0.015009757 0.0024287303 -0.012702917 -0.007765613 -0.059979364 -0.05647062 -0.0071969717
-0.0025054247 -0.028948845 -0.04682692 -0.055652384 0.029255569 0.037642855 0.054799125 -0.02756107
0.0025535554 0.013465062 -0.009379963 -0.027794056 -0.02936014 0.052730594 0.018524695 0.04844726
0.039428405 0.013262655 -0.048553444 0.046912353 -0.0007484721 -0.018737301 -0.045233913 -0.01083884
-0.067524344 0.020727037 0.0031390367 -0.030042911 0.021093994 -0.043569822 -0.00066092185 -0.03128608
-0.029467475 -0.027100366 -0.02914326 0.035688102 -0.01724906 0.0052188616 -0.034033593 -0.053272616
0.048995957 0.050865266 -0.06862666 -0.005466243 -0.026699338 0.0036917578 0.027820319 0.015404275
0.032395482 -0.06614153 -0.015228622 0.045513153 0.04512707 0.0521074 0.04552397 -0.034152135
-0.060120776 -0.017445516 0.048041202 -0.017514981 -0.0013770458 -0.044363588 -0.014722785 -0.046892177
-0.0017574325 -0.0521653 -0.03933198 0.02402879 0.035512093 0.012928066 -0.021356296 -0.02849965
-0.018215228 0.00019310425 0.032570664 0.03791392 0.020778649 -0.062112927 -0.021137435 0.030582184
0.023515748 0.05088129 0.018854523 0.028841466 -0.058478262 0.025184585 -0.014982619 -0.04311131
-0.027293835 0.054849893 -0.036664743 0.04631932 -0.017121699 -0.009919823 -0.008519749 0.014020913
-0.000119146935 0.04764085 0.045446243 -0.07030562 -0.04107471 0.045984883 0.020943921 0.05038001
-0.042413168 0.03398846 -0.009360914 0.05497289 -0.03247961 0.044910356 0.0029178285 -0.040374182
0.043920953 0.051100466 0.03186841 -0.029506888 0.013144171 0.011784494 -0.024582952 0.007069074
0.01876437 -0.0039594425 0.0010389804 -0.050735325 -0.030629184 0.016850075 0.0433814 -0.051999416
-0.06708732 -0.0060858103 0.019269014 0.039334573 -0.04810286 -0.026676951 0.003914803 -0.03051844
0.029944332 0.016872227 -0.0037849355 -0.04845995 -0.016457047 0.05403113 0.039846595 -0.0536933
0.0023394483 -0.051360566 -0.041715734 -0.005020326 -0.038432103 -4.926834e-05 -0.00069406 -0.007853359
-0.053919103 0.014538437 -0.0101158805 -0.008807804 0.0444404 -0.03812144 0.053161696 0.025493423
-0.0041480237 -0.029636387 -0.01904704 -0.033580717 -0.0042647803 -0.035152607 -0.051171016 -0.010617634
0.043140873 0.021719985 0.012324333 0.04994525 -0.007131312 -0.0010174878 -0.0382801 0.024942914
-0.050514676 0.032313064 -0.007793196 0.03721109 -0.046939272 0.05050754 0.017827287 0.02129605
0.051316876 -0.003012988 0.04627584 -0.03138895 -0.00037983002 -0.01846359 0.037008315 -0.065232724
0.024060225 0.052858282 -0.06334838 -0.010857157 0.011111252 -0.010913327 0.037588634 -0.049165297
-0.055702873 -0.041143984 -0.05720441 -0.00056903914 -0.0048242975 -0.018710263 -0.007526023 0.010196074
0.02952891 -0.007194772 -0.037704702 0.002067723 0.030790532 0.02033624 0.027620874 -0.054215208
0.054146398 0.026515905 0.037109315 -0.0063413214 -0.051883798 0.03434484 0.029638225 -0.029292235
0.025089798 -0.0011715171 0.0027681564 -0.010867812 0.028844386 -0.00090883643 -0.006904228 0.00010385848
-0.0009962455 -0.060461264 -0.024182511 0.051374055 0.00095758203 0.029832017 0.0311917 -0.043328475

lays.1.bias f4 [256]
00000000: aa0c 1e3d 0de9 9cbc bb5d b13c 80b1 64bd
00000010: 7bd5 29bd 8f9b 433c f1bf 8d3b 5d3a 31bc
00000020: 6226 a13c 9b34 bb3c 0f6b fdbc 5bbe 833c
00000030: 2c62 c2bc 4900 913c 9ed1 c2ba 2a54 b33c
00000040: a032 08bd 119e 9fbc e24c bb38 cfc0 4bbd
00000050: 568c 81bc e3c0 a23d 3b2a 123d efcc 41bd
00000060: cc09 bf3c 057d c83b 2bb2 f0bb 7858 1e3d
00000070: cf55 d9bc 960d 67bd b8e6 75bd d852 aabc
00000080: 94e8 7f3d 2014 dbbc ad0e dfbc 9d6e 483d
00000090: 4214 e4bb 2b79 2d3d f79e 67bd 39f2 41bd
000000a0: 2c0b a13c cac2 2bbc 09cb 6f3d dda1 253d
000000b0: fa13 513d 70a1 a7bc 6a20 2fba 9182 14bd
000000c0: 576e 4d3d b7e7 c43c 54cc febc ec41 3c3d
000000d0: fa53 fa3c fa67 3bbc 9efa 313d 8b75 753c
000000e0: 5fa7 22bd 60ca 8e3d 3031 e9bc daa5 66bd
000000f0: 0beb 0abd 9ef9 353b 34f3 053d ab14 213d
00000100: f89d 35bd 699b 1dbd 4d2c b1bc 977c 5ebc
00000110: 05ad 0ebd 473b a8bd cd28 903d 2df7 2bbd
00000120: 7b76 a53c e43a 13bd 7f27 4ebd a6e6 70bc
00000130: 34cb 87bd a504 70bd 2bc8 a33c 2913 15bd
00000140: 607a 56bd a974 df3c 0c92 453d 3ff2 6d3d
00000150: 54c0 953c 6c9c 2a3c 84ec 5ebd 828f f53b
00000160: f015 2e3c e8ef 853d 0024 42bc 6329 103b
00000170: 88cf e7bb c64a 8e3d e400 9cbb 0261 f6bc
00000180: 30fb e03b 98bd 433d 44b4 0a3d 5e60 1cbd
00000190: d038 04bc e72d e83b 7482 aebc 382d ac3c
000001a0: ee2c fd3c a634 be3b b137 7ebd 409e 963c
000001b0: e3dc 1b3d b755 0b3d c7e7 54bc 0fc5 173d
000001c0: 7f3a 5fbd 57a8 9b3d 6add 803d 8edb 0dbc
000001d0: db6f d03b 74bc 883c a49e 053d 4ab6 0a3d
000001e0: ac22 81bd 383c 123d 01fd 243d 1a7b 40bb
000001f0: 2f4d 58bd e6e0 abbc 6de9 abbc 2ea7 f23c
00000200: d777 65bd ff6e 8bbd e027 f3bb 343a f93c
00000210: 4a46 88bc 6415 83bd 2756 debb bda6 6a3d
00000220: 86fb f83c 87cf cd3b df8d 2fbb fe12 b03c
00000230: 493b 72bd 38c4 423d 7c00 4bbd 994f 1a3c
00000240: 82af be3c 578b 583d 7d83 66bd a55f 6f3d
00000250: 4cc3 973d 86e1 043d 3723 ae3c d0ea e9bc
00000260: 0b2d 14bb 638c 92bd 2eb4 69bd 4bad da3c
00000270: 61f5 90bc 41c7 d13c 6bb1 42bd 091b b73d
00000280: f555 0dbd 2fbb 69bd d53c 8bbd 0320 3d3d
00000290: c425 f8bc ccb5 3c3d 2ef0 3bbd 2a32 00bd
000002a0: 6b09 21bd 8b3d bfbc bfd4 0fbc 9750 1ebd
000002b0: fcb5 013d c085 213b 96e8 333d e0a1 49bd
000002c0: 986c 1dbd a256 d93b a17f 95bc c7c7 783b
000002d0: 15cf 433d d1a5 8b3c cb82 18bd 8f85 5d3d
000002e0: 95c6 1b3c 2c01 a23c 4217 06bd 4549 8f3c
000002f0: 3967 8ebd d4fe 45bd e42c 113d 243b 9dbd
00000300: aff5 19bd 5dfb 013d 5a02 853b 0c9a 3d3d
00000310: 4f5a 4b3d 39ef 20bd 3e0a b63c 2dac 203c
00000320: 743c 54bc 0c6e a83c 8826 40bd 008b 20bd
00000330: 95d9 60bd 6f43 553c 1572 653d 6c4a 63bd
00000340: 2f88 e53c 5f3f 063d 373e 2bbd c33e 84bd
00000350: 251f 923c 5c79 463d f4cd 7bbd 346f 0ebd
00000360: eefd 5bbd 6dff d73c 6351 f9bc b3cb 70bd
00000370: 8b76 27bd 6512 82bd b7e3 77bd 3e9b 75bd
00000380: a5dc e73c 4506 233d ef24 e33c efb9 ba3c
00000390: 9b35 e33d b6a8 be3c a688 4dbc 64c8 4bbd
000003a0: efb6 aa3c e450 5dbd 6977 763c 95fb 883d
000003b0: ae65 39bd fc0c a63b 540c 2bbd 4c49 55bd
000003c0: 9113 ddbc d3a4 f8bc 22b2 313d c695 03bd
000003d0: 4ff5 ffbc c34a 53bd 5c7d 503d e7b1 6c3d
000003e0: bdce c93c cee2 c13a a711 2d3d 7100 02bd
000003f0: 0a6c 54bc 7ce5 063d 6de2 5abd c8b3 71bb
0.038586296 -0.019154096 0.02165114 -0.05583334 -0.041463356 0.0119389435 0.0043258597 -0.010817138
0.019671623 0.022852233 -0.030934839 0.01608198 -0.023728453 0.017700331 -0.0014863496 0.021890718
-0.033251405 -0.019484552 8.9311754e-05 -0.049744423 -0.015813988 0.079469465 0.035684805 -0.04731458
0.023320101 0.006118419 -0.007345458 0.03865859 -0.026530175 -0.05640944 -0.060034484 -0.020791456
0.062477663 -0.026742995 -0.027228678 0.048933614 -0.0069604227 0.042351883 -0.056548085 -0.047350142
0.019658647 -0.010483453 0.05854324 0.040437568 0.05104444 -0.020462722 -0.000668055 -0.03625733
0.050154056 0.024036271 -0.03110329 0.045961305 0.030557621 -0.011438364 0.043451898 0.014981638
-0.0397104 0.06972194 -0.028465837 -0.056310512 -0.03391556 0.0027767192 0.03270264 0.03932635
-0.044340104 -0.03847829 -0.02162757 -0.013579509 -0.034832973 -0.08214431 0.07039032 -0.041983772
0.020198097 -0.035944834 -0.050330635 -0.014703428 -0.06630555 -0.05859818 0.019992908 -0.036395226
-0.0523628 0.027277308 0.048234984 0.058092352 0.018280186 0.01041327 -0.054424778 0.007493914
0.0106253475 0.06539899 -0.011849403 0.0021997325 -0.0070743 0.06947856 -0.0047608484 -0.030075554
0.0068658814 0.047788233 0.03386332 -0.03817784 -0.008070186 0.00708555 -0.02130244 0.021017656
0.030905213 0.005804616 -0.06206483 0.018386006 0.03805245 0.03401729 -0.012994713 0.037053164
-0.054499146 0.07600468 0.062922314 -0.008658303 0.0063609905 0.016691424 0.032621995 0.03386525
-0.06305441 0.03570196 0.040280346 -0.002937025 -0.052807983 -0.020981263 -0.02098533 0.029620733
-0.05602249 -0.0680828 -0.007420525 0.030423261 -0.016635079 -0.06400564 -0.0067851725 0.05728792
0.030393373 0.0062808427 -0.0026787443 0.021493431 -0.05913857 0.04755041 -0.04956101 0.009418392
0.023277048 0.05286726 -0.05627774 0.058440823 0.07410297 0.03244164 0.021257026 -0.02855435
-0.0022609856 -0.07155683 -0.0570566 0.02669396 -0.01769513 0.025607707 -0.04753248 0.089407034
-0.034505803 -0.057063278 -0.06798712 0.046173107 -0.030291446 0.046071813 -0.04588335 -0.03129784
-0.039315622 -0.023344776 -0.00877875 -0.038651075 0.031667694 0.0024646372 0.043922983 -0.04922664
-0.03843364 0.006632642 -0.018249335 0.0037960873 0.04780491 0.01704684 -0.03723411 0.05408245
0.009507795 0.01977595 -0.032737024 0.017490992 -0.06953282 -0.048338726 0.0354432 -0.07677296
-0.037587818 0.03173386 0.004059118 0.04628949 0.04964667 -0.03929064 0.02222168 0.009806675
-0.012953866 0.020560287 -0.046911746 -0.03919506 -0.054895002 0.013016566 0.056017 -0.055490896
0.028019039 0.03277528 -0.04180738 -0.06457283 0.017837116 0.04845558 -0.06147571 -0.03477402
-0.053708963 0.026366914 -0.030434316 -0.058788013 -0.040884536 -0.06351165 -0.0605199 -0.059962504
0.028303454 0.0398009 0.027727572 0.022793738 0.11094209 0.023273807 -0.012544787 -0.049751654
0.020839183 -0.05403222 0.015043118 0.066886105 -0.045262985 0.005067466 -0.041759804 -0.052071854
-0.026986869 -0.030352032 0.04338277 -0.032125257 -0.031244902 -0.05158497 0.050900802 0.05778685
0.024634713 0.0014792325 0.042253163 -0.031738702 -0.012965212 0.032933697 -0.053438593 -0.003688084

lays.2.weight f4 [2, 256]
00000000: 1eda 443d 97be 183d d36a 913c d64d 4f37
00000010: 2165 043d 922b 0b3a d229 e7bc 588d b53c
00000020: b844 5038 0151 8e3c 675b 8a3c a05e 22bd
00000030: 11e1 07bc 2af2 d2bc c054 4e3d c8af d238
00000040: 5501 7e3b 1864 673b c9c2 3b3d c869 4c39
00000050: 80e4 40bd 2860 97b9 c670 b5bc 8ec2 8b39
00000060: 8dbf e83c 4a84 b8bc 1894 ceb9 85ac efb9
00000070: 429d 3639 5e9c c735 7e9b 3bbd d9dc d0b9
00000080: 4a8d 7dba dc11 87bc b12e cb3c f81b 9637
00000090: a71e c9bb 3ada 873c 2517 10bc 4a2d 41bc
000000a0: 4cf0 01bd 05d1 e93c d02e b83c ccc6 693b
000000b0: 654f 753c e5a2 0abd af49 c9b9 0435 693c
000000c0: 9b7d d73c 7992 dc3c 773c 40bd c372 453d
000000d0: 3fa3 74bc 9ffb bd3c d160 7e3a 2141 9bbc
000000e0: eac4 debc db60 3db8 27ad 96bc 7b38 12bd
000000f0: 7c00 a23b d2d0 5dbc 478b c9b9 13bb a738
00000100: 8b54 81bc 4341 333b c6c6 8e3b ddfb 5f3d
00000110: 808d 03bd 89f6 67bc 4dd2 063c a31c 0abd
00000120: 2093 02bc fa7f c2bc 89a0 3bbd 69f2 2a3c
00000130: 666d 1dbd 2871 9e3b 0cdc bcb9 94f9 20bd
00000140: a2af 32bd f307 b8bc 22e7 2f3a dacc 6fb9
00000150: 0ddf 56b5 abae 8d3c 7932 353d 342b 85bc
00000160: b0e6 82b7 7c6b 1e38 cfbe 4f3c c29a a9b9
00000170: 7a3a f93c 97bc 20ba 4852 d6bb a744 e6bc
00000180: 5555 e13b 32f5 3d3d 8900 85bc 861f d13c
00000190: 6ba4 603c bc78 a83c 8332 1b3c 800b 7eb6
000001a0: a375 593d 777b 93bb 7f4f 14bc 2d3b 65ba
000001b0: cedc 3239 1657 483d 2fb4 903b 87bf 4a39
000001c0: 5507 533d 752b 4e3a b240 17b9 784a c33c
000001d0: 3bfb b73b ccd6 59bd 82c7 0dbd f791 553b
000001e0: 99fa 09bd 78ee 943a 216a 993c d7af 3c3c
000001f0: ec46 3c3a a2a5 9d3b 7fe4 a63a 055c b9bb
00000200: 0eb4 1b3d 54e0 843c ed11 033d 3e2b 00bc
00000210: 4b5a 40bd 1297 90ba 2772 2dbc 27a9 a33c
00000220: fb17 323d 04b1 ea3c 648c 13ba 9a2a 34bd
00000230: f184 d5bb 1b10 67b8 1a93 bdbc 5eeb d53b
00000240: ec03 b83b 4bc5 cdbc 0e86 07bc 7843 563d
00000250: a814 bdb9 0920 09bd 4b2c 76b8 9df5 ed3c
00000260: df4a 87bb fe6a 7d3a 57ac cebb 9612 7bba
00000270: 61cb a0bc 323b aabb 3a42 c33c 18e7 4eba
00000280: 8472 713c ad90 d1bb ad5d 1a3d 2194 2ebd
00000290: 94fd 3c3d 8f06 0a38 eeae 3abc 286a 473d
000002a0: 33a0 db3b 215b 743b 495d e13c eb26 52bd
000002b0: 019e 9a3c 048a 8bbc 601f 893c 18af 7b3c
000002c0: 13ec 2fbd 8460 263c 48b1 86bc 95c5 d63c
000002d0: f7ab 99bc 7f55 f2b9 37c2 ea3c 7eb8 9a3a
000002e0: b493 3039 e2b7 a0b9 f276 193c 4e13 5c3c
000002f0: d42e 5bbd 2c76 2cbd c5d3 4d3b baad 4c3c
00000300: db95 05bd d737 b43c 4390 a0bc e6eb e3bb
00000310: 537b cb3b 6ce2 41bb a24b 3abc 97bc 9fba
00000320: 605c d6bc edc2 ae3c a663 8c3c 5a0a 26ba
00000330: 3b8e e3bc 5cdf 36b7 348a 8bb8 e232 bf3c
00000340: 96a7 9bbc 7c9b ea3c d9d2 5f3c 3e3b 033b
00000350: 064b 1c3d 8ff8 4d3c f5f1 9ebc 6df5 b3bc
00000360: a6aa 6d3c b33a cf39 b6c1 923a 60a5 82b7
00000370: e26b b839 d4a6 abbb 3c66 363a c3c2 acbc
00000380: ec5e b9b9 2e82 d6bb d8ae 3cbd 51db b6ba
00000390: d9f5 363d bd38 a83c b369 dd3a ebae 3d39
000003a0: 5f3b e13c f5ba 0b3d b3e5 303d 964c 0cba
000003b0: 2ada 4bbd e3b4 09bd 5b6f 423c 8cf8 f43c
000003c0: 06c1 a13c f7e5 593d b442 e438 d6c0 bb3b
000003d0: 532a 44bb 56d9 db3a 84ea 51bd f0db 51ba
000003e0: e7cf 0039 e1e1 673b 998f edba 2cec 21ba
000003f0: 0988 4ebd f896 d3b3 6715 dabc ce45 493d
0.048059575 0.037291136 0.017751133 1.2356284e-05 0.032323007 0.00053089217 -0.028218184 0.022162125
4.9655064e-05 0.01737261 0.016889287 -0.039641023 -0.008293406 -0.025750238 0.050373793 0.00010046322
0.0038758118 0.0035307463 0.04584006 0.00019494363 -0.047092915 -0.00028872606 -0.022148501 0.000266571
0.028411651 -0.022524018 -0.0003940172 -0.0004571417 0.00017415456 1.4872164e-06 -0.045802586 -0.00039837396
-0.0009672238 -0.016488008 0.024802538 1.7894417e-05 -0.0061376872 0.01658355 -0.008794581 -0.011790583
-0.031723306 0.028542051 0.02248326 0.003567147 0.014972542 -0.033846755 -0.00038392606 0.014233831
0.02630501 0.026925312 -0.046932664 0.04820515 -0.014931499 0.023191271 0.0009703758 -0.018951954
-0.027193505 -4.5151315e-05 -0.018393112 -0.035698395 0.0049439054 -0.013538556 -0.00038441477 7.998026e-05
-0.015787384 0.0027352131 0.0043571917 0.054683555 -0.032117367 -0.0141579 0.008228851 -0.033718716
-0.007969648 -0.023742665 -0.045807395 0.010433772 -0.03843441 0.0048352666 -0.00036022102 -0.039300516
-0.043624528 -0.022464728 0.00067101617 -0.0002286913 -8.0045794e-07 0.017295202 0.044237588 -0.016255952
-1.560463e-05 3.7770238e-05 0.01267977 -0.00032349495 0.030423392 -0.00061316177 -0.0065405704 -0.028108908
0.0068766274 0.046376415 -0.016235607 0.025527727 0.013711075 0.020565383 0.009472492 -3.7855643e-06
0.053090703 -0.004500802 -0.0090521565 -0.00087444746 0.00017057659 0.048911177 0.004416011 0.0001933557
0.051520664 0.0007864752 -0.00014424583 0.02383922 0.005614666 -0.053183362 -0.034614094 0.0032588223
-0.033686254 0.0011362573 0.018727364 0.011516533 0.0007182199 0.0048110047 0.0012732892 -0.0056567215
0.03801351 0.01622025 0.031999517 -0.00782281 -0.04696111 -0.0011031351 -0.010586298 0.019978119
0.0434799 0.02864886 -0.0005628525 -0.04398594 -0.006516092 -5.508969e-05 -0.023141433 0.006528302
0.005615702 -0.02511849 -0.008271707 0.052310437 -0.0003606428 -0.033477817 -5.869222e-05 0.029047782
-0.0041287984 0.0009667127 -0.0063071656 -0.00095776597 -0.019628229 -0.005195045 0.02383529 -0.0007892712
0.014736775 -0.0063954205 0.037686992 -0.042621735 0.04614027 3.2907872e-05 -0.011394246 0.048685223
0.006702447 0.0037285762 0.027510302 -0.051306646 0.01887417 -0.017033584 0.016738594 0.01536157
-0.042949747 0.010154847 -0.016441956 0.026217261 -0.018758757 -0.00046221536 0.028657062 0.001180425
0.00016839692 -0.00030654581 0.009366738 0.013432337 -0.053511456 -0.042104885 0.0031406742 0.0124925915
-0.032613616 0.021999283 -0.01960004 -0.0069556115 0.0062097698 -0.002958442 -0.011370571 -0.0012186941
-0.026167095 0.021333182 0.01713736 -0.000633394 -0.027777782 -1.090005e-05 -6.653779e-05 0.023339693
-0.01900081 0.028638594 0.01366111 0.0020024325 0.038157485 0.012571468 -0.019402483 -0.021967614
0.014506018 0.0003952585 0.0011196646 -1.5574216e-05 0.00035175594 -0.0052383933 0.0006957983 -0.021088963
-0.00035356672 -0.0065462803 -0.04606518 -0.001395086 0.044668052 0.020534867 0.0016892463 0.00018089607
0.02749413 0.034113843 0.04318781 -0.00053519884 -0.049768604 -0.033619773 0.0118673695 0.029903673
0.019745361 0.053197827 0.000108843116 0.005729775 -0.0029932454 0.0016773145 -0.051249042 -0.00080054905
0.00012284481 0.0035382437 -0.001812446 -0.0006176855 -0.050422702 -9.852914e-08 -0.026621534 0.049138837

lays.2.bias f4 [2]
00000000: 2e67 b4bc 590f 043d
-0.022021856 0.0322412

l1.weight f4 [256, 2]
00000000: 8d3a 2abf bbf5 0fbf 64e2 51be d675 a33a
00000010: 3de3 5abe 3e37 bebe 7e56 3ebe aeaa 08be
00000020: 9de2 29bd eaae cabd cf02 a7be ce3c e23e
00000030: 9e13 b83e a394 41ba e6d2 1bbf 29bd d53e
00000040: f91f 0cbf fac6 2d37 ea2f dab7 d6a6 4539
00000050: 5387 91b5 4b4c 27bf b339 a7bb 12eb b93e
00000060: ea79 0a3f 610d d5be 807c 253f 6110 04be
00000070: ec8f 3cbe 40be ae38 0f46 e2be 981d b33e
00000080: 1ea6 1a3e 928b 09bf 6d14 ca3e a32a 17bf
00000090: 0873 fcbe 919f 033f 9115 27b8 c2a6 8138
000000a0: 5213 26bf 86f8 17bf 9ef0 58b9 8171 8739
000000b0: 4923 17bf 1a58 173f 0f72 3dbe acca 883e
000000c0: f338 d2bd 3f88 0cbf e4a8 88bd 1405 783e
000000d0: 1769 86be c8d2 b6be 8c76 d03e b917 dfbe
000000e0: 0f7a 9bbe 2003 e53e 365c e03e 88df e53e
000000f0: bfa4 183f 080d f13e 783c 28bf 5c0b 0f3f
00000100: 6edc d03e 2e59 b5bc f828 48be 9b78 e53e
00000110: 1f8b 9ebe d3d5 e23d 3a42 6dbc 4378 993d
00000120: fce9 da3e e078 06bd 10ca dd3b 0bdd 4fbd
00000130: 1b04 f7be c776 093f c1a6 463e 62da acbe
00000140: 4676 1c3f 125f 0fbd 7e50 093e 2ab0 2cbe
00000150: 87f4 8cbe 78c6 23be 1f11 07be 82ac b53e
00000160: efb6 b23d 3c3a a43e d9eb d23e e809 813c
00000170: 0d51 0d3f fae6 0b3f c008 f83e 1bed 16bf
00000180: 20a0 103f 2e29 2c3f 8800 2a3f 1d24 e33e
00000190: 5935 aebe ab42 7d3e 1ab8 e23d f4f9 46be
000001a0: d08d 063f e723 90bd cd7d 7d3e b561 a2be
000001b0: 4176 95be 18ca d0be 840c 06bf 2665 4838
000001c0: 0c09 0f3f 4930 51be dc3c a7b8 00ef 6636
000001d0: 1671 f73e 6e0c 86be d1ed 22bf c0a8 ef3b
000001e0: 22f3 48be 7196 bd3e 3998 0bbd 29ee 18bf
000001f0: abc4 3a3d 86aa d0be 9685 8cbe 10f3 e33e
00000200: d817 d53c 53a6 1ebf a9fc eb3d b3c2 b0be
00000210: 023a f83e fa8f af3e 631f 2ebf 6ff7 cfbe
00000220: 44ce 003f 8f3c 3c3e c5d5 463e 6179 603e
00000230: 6605 e5be 675c 033e 1550 03bf b7be 25bf
00000240: ca2d 36bb 8a18 8e3e 85ac 2e3e 6772 1a3f
00000250: 053c 1b3e 503c 763e f63c 023f 4827 f436
00000260: 57fe ca3d 621d ccbd 0c0b a33e 7ed7 313f
00000270: 6a33 abbe 4e81 043d 3454 e73e 3627 e2be
00000280: 6eed 013f 5c68 17ba 77f0 5cbe b297 22bf
00000290: ec68 d4be 87e1 033f dc05 e3bc 8fd0 1d39
000002a0: ab59 2abf d658 91be ed29 a7be 81a9 2b3d
000002b0: 2dc3 8ebe 4521 5c3e 334d 27bf 01a8 ef3e
000002c0: 8ff6 ac3d 3399 13bf 7d66 c63d a739 863e
000002d0: cca9 47be 0272 96bd 9f29 223f 3b7e 8eb9
000002e0: b591 973e 1c73 4f3e 124e febe 6686 1b3f
000002f0: 1d76 9cbd 861a 723e 4818 23be ca90 213f
00000300: b794 0d3f 5de0 28bf bd90 593e 9f6f 8dbd
00000310: 2a1a 5ab7 cb5a 9cbe 3546 23be 2123 7fb7
00000320: f467 443e 78d5 c034 7562 b6be 97cc 1d3f
00000330: 9588 b0be e787 dcbe ba66 b6be 27ae 6e3d
00000340: 2443 cfbe ce1b ce3e 983f e4ba 823e 1b3f
00000350: 7a54 03bf 7405 b43e 83ae 0f3e 3abb eabe
00000360: c31d 9e3e cf37 10bf 04f9 1a3e f563 b33e
00000370: fc3b b7bd 33cf 233e 634f 1bbe e445 14bf
00000380: 7c90 cd3d da9d a4be 5186 dfb5 c348 2a3f
00000390: ce6c 2bbe 8d02 433e de03 1b3f 0763 de3e
000003a0: 296d da3e 74ea 0abf 3f14 07bf 3ae8 1a3f
000003b0: 4a6b fcbd b5d3 973e 3242 4ebe 823e 403e
000003c0: 8f67 653d 590c 153f 530b b53e 319d 043f
000003d0: 9a88 613e 92d4 b33e 13fb 82be 6554 ab3e
000003e0: 1d76 c13e eb4d 9fbe fd64 803e ce4b b43c
000003f0: d50e d3bd b2ee 26bf 2381 17be 6078 873e
-0.6649559 -0.5623433 -0.20496517 0.0012471031 -0.21375747 -0.3715152 -0.18587682 -0.13346359
-0.04147588 -0.098966435 -0.3261933 0.44187015 0.35952467 -0.00073845143 -0.6086868 0.4174588
-0.54736286 1.0357931e-05 -2.6009937e-05 0.00018849535 -1.0842726e-06 -0.6535079 -0.005103314 0.36312157
0.54092276 -0.4161177 0.64643097 -0.12896873 -0.18414277 8.3324034e-05 -0.44194075 0.34983516
0.15102431 -0.5372859 0.3946871 -0.59049433 -0.49306512 0.51415354 -3.9835988e-05 6.1822604e-05
-0.6487323 -0.5936359 -0.00020689002 0.00025833774 -0.59038216 0.5911881 -0.18500541 0.26717126
-0.102647685 -0.54895395 -0.06672838 0.24220687 -0.26252052 -0.35707688 0.40715444 -0.43572786
-0.3036656 0.44728947 0.4382035 0.44897103 0.5962638 0.47080255 -0.6571727 0.5587671
0.40793175 -0.02213725 -0.19546878 0.44818577 -0.30965516 0.1107594 -0.014481122 0.07493641
0.4275664 -0.03283012 0.0067684725 -0.050747912 -0.4824532 0.53696865 0.19399549 -0.33760363
0.6111797 -0.035002775 0.13409612 -0.16864076 -0.2753031 -0.15993679 -0.13190125 0.35483176
0.08726298 0.3207568 0.41195562 0.015751794 0.552018 0.5464932 0.48444176 -0.58955544
0.5649433 0.67250335 0.6640706 0.4436349 -0.34025076 0.24732463 0.11070271 -0.19431287
0.5256014 -0.07038098 0.2475502 -0.3171517 -0.29191783 -0.40779185 -0.5236285 4.7777918e-05
0.5587318 -0.20428576 -7.9745165e-05 3.4411787e-06 0.48328465 -0.26181358 -0.6364413 0.0073138177
-0.19623998 0.3702884 -0.034080718 -0.59738404 0.045597713 -0.407551 -0.27445668 0.4452138
0.026012346 -0.6197254 0.115228005 -0.34523544 0.48481756 0.34289533 -0.6801664 -0.40618464
0.50314736 0.18382476 0.19417484 0.21921302 -0.4473068 0.12828217 -0.5129407 -0.6474413
-0.0027798289 0.27753097 0.17057998 0.60330814 0.15159614 0.24046445 0.5087427 7.2763396e-06
0.09911793 -0.09966542 0.31844366 0.6946944 -0.33437663 0.032349877 0.4518143 -0.4417054
0.50752914 -0.00057757436 -0.21576105 -0.6351272 -0.414863 0.51516 -0.027712755 0.00015050381
-0.6654307 -0.2838809 -0.32649174 0.0419097 -0.27883282 0.21497066 -0.6535217 0.46807864
0.08445465 -0.5765564 0.09687517 0.2621586 -0.19498366 -0.07345964 0.6334476 -0.000271784
0.29603353 0.20258754 -0.49668938 0.6075195 -0.07639716 0.2364293 -0.15927231 0.63111556
0.55305046 -0.6596735 0.2124662 -0.06906056 -1.2999904e-05 -0.3053802 -0.1594475 -1.52073635e-05
0.1918028 3.5918106e-07 -0.35621992 0.61640304 -0.34479204 -0.43072435 -0.3562525 0.058271553
-0.40480912 0.40255588 -0.0017413972 0.60642254 -0.51300776 0.3516041 0.14031415 -0.45845968
0.3088208 -0.5633516 0.15134054 0.350372 -0.08946988 0.15997009 -0.15167002 -0.57919145
0.10037324 -0.3215168 -1.6653886e-06 0.66517276 -0.16740724 0.19043942 0.60552776 0.43434927
0.42661408 -0.54264 -0.5276527 0.605106 -0.12325151 0.29653707 -0.20142439 0.18773845
0.056006964 0.58221966 0.35360202 0.51802355 0.22024766 0.35123116 -0.2558218 0.33462825
0.37785426 -0.31114134 0.25077048 0.022008803 -0.10305563 -0.6520797 -0.14795355 0.26459026

l1.bias f4 [256]
00000000: d51f c5be 5173 db3e 0045 a1be 6624 1bbf
00000010: fa6a 9ebd 5b81 0e3f c59a b43e d105 cd3d
00000020: ce31 2bbd 7a1a 0d3f 950d 8cbd da69 1e3f
00000030: dc04 523e 7664 9fbd d0be fd3e 8f40 283f
00000040: a419 c5be 2802 91be 72ad 22bf 6dcc f43e
00000050: 2fee 7ebe d167 f63e baf4 31bf 749f 11bf
00000060: 3669 cfbc babc 0a3f ec06 8abe a010 30bf
00000070: 074d e5be 5450 883e 0494 23be d998 43be
00000080: 304e 78be e7d6 2f3f 9739 173f 6eab 25bf
00000090: 2dfa c93e 4dee f33e e8b7 06bd 13a9 233f
000000a0: ce93 5cbe 60ab 2f3e 974a db3e b2bd b3be
000000b0: 2569 24bf 492c 0d3f 0539 3dbe a73e 83be
000000c0: 6b59 243e f20a 29bf 1b46 29bf 6244 d6be
000000d0: 9ce0 2abe 2cef dabe 5087 72be b955 2fbf
000000e0: a6c3 89be 0778 ec3e 57b2 f33e dae2 4dbd
000000f0: 4dd0 2f3f 907c 1abe 0f63 b33e 6b59 793e
00000100: 7b18 473d 2bc6 9a3e ab76 1dbf 4a7e 113f
00000110: 27e6 02bf b208 a4bd f154 cbbb d1f9 af3e
00000120: 6242 203f 4c30 813e aeb1 02bf 3647 0cbf
00000130: 04ac 01be 36c0 8e3d aefd 2c3f 6b8b 07bd
00000140: 839c 003f 1b0b 4bbd 39f2 353f 71cb 283f
00000150: 5c6d 21bf 7d55 34bf 6d9f a6be 847f bebe
00000160: 2239 fd3e 9e9d 65bd 86e2 60be d709 083f
00000170: ccba 99be 92b7 bd3e 4163 003f 828f 05bf
00000180: b191 b4be 1b99 ad3c aa66 d0be 7e88 6e3d
00000190: 6383 31be 7094 743e d54a 6b3e dd1d 343f
000001a0: 5de0 3cbe 3bcf 13bf 976e 91bd d86a 0bbf
000001b0: 8141 7b3e 378a 493e 68fc 223e 14db 8dbe
000001c0: 5dfa 013f 6312 73bd daba ea3e f16c 8d3d
000001d0: 303f bebe fa13 fa3d c4f7 193f 0b55 19bf
000001e0: a5b7 093f 4820 0bbf d627 24bf ce5e e13e
000001f0: ee22 35bf e791 19bf 864e b9be 6d7b c9be
00000200: 43dd 6cbd 8bf9 90bd ca48 23bf d0a1 083f
00000210: 92cc 34bf 9926 25bf 515d 193f e15f 4b3e
00000220: a73e 1b3e 9b51 20bf 5a6c 46be 6893 0f3f
00000230: f08d 343f 5573 bdbe 8ada b43e 8971 b1be
00000240: a2fd 0a3f 6130 243f cf84 9dbd c64d 33be
00000250: 650e f2be 0c9c 173f 5cb2 29ba 063c f73e
00000260: 56d2 0e3e bcff 32bf aa30 47be 55d6 5e3e
00000270: bf42 9f3e 45a8 28bf c7fa d93e 8b2d e63e
00000280: 0430 113f 93e2 fbbe 1936 f6be de5c dbbe
00000290: 59c3 003f 41f1 42be a28c 3f3f 9c1f 8c3e
000002a0: be62 383f ec1d d53e 5ec5 243f 761b 20bf
000002b0: d0df 70be 5e5c cc3e bdd1 0cbf 8aa4 003e
000002c0: ae4a 03bf 7dd9 0f3f e055 403d 8ee4 70be
000002d0: feab 173f 1a9e 133f 4d2c 37bf e727 8e3d
000002e0: 71dd 473c 445c adbe 1ffe e43e 4281 ef3e
000002f0: c833 013c 042f 8fbd e640 35bf dcaf fb3e
00000300: 1c3d 123f 9a0a 753e 8c8e c63e d973 2cbf
00000310: 2418 cf3e 5036 3e3e 735c 0cbf 5fc0 563e
00000320: 2d44 e0bd 3866 013f 0199 ab3e 4e44 b03e
00000330: 9010 06bf 6827 1a3f 63da 683e 1a18 153f
00000340: 71a6 14bf 6e16 0dbe 1ae6 0c3f 3c31 c4be
00000350: 5bab 273e 5a5b d33e 8552 ecbe 8df9 343e
00000360: 3af0 2cbf 2100 063f 030a c93e 565e 35bd
00000370: a677 ac3e ce8d 813c 7e8d f7be 130b 953e
00000380: 80f8 dabb 0519 4fbe 0883 86be f9c1 7abe
00000390: 6441 373f 2634 f1bb 72ed c7be 9ee0 27be
000003a0: 1930 a83e 5524 a73e 3f3e 1b3e b0f7 173f
000003b0: 6a9b 153f 681d 2a3f e5f5 0c3e e859 d1bd
000003c0: 3567 393f e522 d23e 78b4 18bf 615a c4be
000003d0: 22ec fe3d 5dce 1cbf 919f 38be bf2c ddbe
000003e0: c741 7b3e 5744 f03e 27e1 75bc 7762 89be
000003f0: 4a9a 963e 4f36 083f 6019 d73c 965b 393f
-0.38500848 0.42861417 -0.31497955 -0.60602415 -0.07735248 0.5566613 0.3527433 0.10010875
-0.041795544 0.55118525 -0.06838528 0.61880267 0.20509666 -0.07782833 0.4955964 0.6572351
-0.38496125 -0.28321958 -0.63545907 0.47812214 -0.24895547 0.4812608 -0.6951405 -0.5688393
-0.025318723 0.54194224 -0.26958406 -0.6877537 -0.4478533 0.26623785 -0.15974432 -0.19101276
-0.24248576 0.6868729 0.5907225 -0.64714706 0.3944868 0.47642747 -0.03289023 0.6392986
-0.21540758 0.17155218 0.42830345 -0.35105664 -0.6422294 0.551457 -0.18478782 -0.25633737
0.16049735 -0.66032326 -0.661226 -0.41849047 -0.16687244 -0.427606 -0.2368443 -0.6849018
-0.2690708 0.46185324 0.47597 -0.05026517 0.68677217 -0.1508658 0.35036513 0.24350516
0.04860733 0.30229315 -0.615092 0.56833327 -0.51132435 -0.08009471 -0.006205194 0.34370282
0.6260129 0.2523216 -0.5105237 -0.5479616 -0.12663275 0.06970255 0.67574584 -0.033091944
0.5023882 -0.049571138 0.7107273 0.65935427 -0.63057494 -0.70442945 -0.32543507 -0.37206662
0.4945765 -0.05605852 -0.21961412 0.53140014 -0.30025327 0.37054116 0.5015145 -0.521721
-0.35267404 0.02119117 -0.40703326 0.058235638 -0.17335276 0.2388475 0.22977765 0.7035807
-0.18444963 -0.57738084 -0.071011715 -0.54459906 0.24536707 0.19681631 0.15916598 -0.27706206
0.5077265 -0.059343707 0.4584568 0.069055445 -0.37157583 0.122108415 0.60143685 -0.5989539
0.53795844 -0.5434613 -0.64123285 0.44017643 -0.70756423 -0.59988254 -0.3619272 -0.3935198
-0.0578282 -0.070788465 -0.6378294 0.53371906 -0.7062465 -0.6451202 0.59908015 0.19860794
0.15160619 -0.6262452 -0.1937727 0.560843 0.7052908 -0.37002054 0.35322982 -0.34656933
0.5429326 0.6413632 -0.07691347 -0.17510137 -0.47276607 0.59222484 -0.0006473416 0.48287982
0.13947424 -0.6992147 -0.19452158 0.21761449 0.3110561 -0.6588176 0.4257414 0.44956622
0.5671389 -0.491963 -0.48088148 -0.4284429 0.50298077 -0.19037344 0.74823964 0.27367866
0.7202567 0.4162439 0.6436366 -0.625419 -0.23522878 0.3991422 -0.55007535 0.12562767
-0.5128583 0.56191236 0.046956897 -0.23524687 0.59246814 0.5766312 -0.7155197 0.069412045
0.012198792 -0.33859456 0.4472513 0.46778303 0.007885881 -0.069913894 -0.7080215 0.49157608
0.57124496 0.23929825 0.3878063 -0.6736427 0.40448105 0.18575406 -0.54828566 0.20971821
-0.109505035 0.505466 0.3351517 0.34427112 -0.5236902 0.6021638 0.22739558 0.582399
-0.5806647 -0.13778087 0.5503861 -0.38318813 0.1637396 0.41280633 -0.46156707 0.17673321
-0.67554057 0.52343947 0.3926545 -0.04427942 0.33685035 0.015814688 -0.48350137 0.2911001
-0.0066824555 -0.20224388 -0.26271844 -0.24488057 0.71584153 -0.007360953 -0.39048344 -0.16394278
0.32849196 0.32644907 0.15160464 0.59362316 0.5844027 0.6645112 0.13765676 -0.102222264
0.72423106 0.41042247 -0.59650373 -0.38350204 0.124473825 -0.61252385 -0.1802962 -0.431982
0.24536811 0.4692714 -0.015007294 -0.26832935 0.29414588 0.5320787 0.026257217 0.72405374
