TOYDATA/Models/Halfmoons_a=0.1_e=0.2.ckpt (torch, 815066 bytes, 22 tensors)

lays.0.weight f4 [256, 2]
00000000: ca07 513e c5f2 113f 865d 81be 8ee0 923d
00000010: 9f7c 8abe bcfc bc3e 40a0 1b3e c203 c4be
00000020: 985c 24bf e26f 1abf 5474 e53c 2c39 143f
00000030: 148b 02bf 0d45 25bf 5904 9c3b c127 0dbf
00000040: e471 153f f6e5 5a3e afe6 7ebe 85ce eebe
00000050: 8fe0 6b3d 22af 42b6 5e8c f73e a2a4 85bc
00000060: b65e b9be 0375 d83e 1674 5abd be1f ad3e
00000070: 0a7c 33b8 463d 183f ff1d a3bd ed20 eb3e
00000080: 5161 0a3e b228 26bf 85f1 fe3e 694f 19bf
00000090: a36b f63d 4b53 cebd 93cb cf3e 24f0 0a3f
000000a0: 34c5 1cbf d64f b8be 5715 d33e 5649 e23e
000000b0: 914d 0db8 b5a6 163f c17a 1bbd 5e2e bcbd
000000c0: adcb 193f 1cde 69b8 b658 16bf 1b0c 883e
000000d0: 48dd ab3e 1583 fe3e 0473 acbd 08f9 893e
000000e0: e8a3 823e d017 85b8 594d e43e 0d65 9f3e
000000f0: 58c6 1abf de74 8fb7 d86e eb3e 62b7 9cbe
00000100: 7e90 8a3e 9f91 76be 3153 a13e dbab 733e
00000110: fdd7 b4be d9f0 b1be 6b83 1dbc 3420 c83e
00000120: 0377 25bf 346a 28bf ccbf 193e fa14 f8be
00000130: 822e 9936 a4e0 8cbe c973 e73c b089 c73d
00000140: c424 dfbe 8aa6 ba3d c3a4 d0be cadf 8fbb
00000150: 9872 183f f509 14bf 0eb3 37b7 8b17 9cbc
00000160: 8ba0 043d aa83 edbe e8c8 203f 3289 f33e
00000170: 7920 c3bd c601 bf3e c1a0 53be f9ec 0fbe
00000180: f214 aabd 42e9 f33d 4bf0 e13e e7c1 73be
00000190: 1d9b 25bf 8cea aa3c f9df 58ba 94fa 153f
000001a0: 509c 493e be27 aabe a77f fcbe a52f e0bd
000001b0: 6357 303f 14ca 1fbf dee8 27be 940d 10bf
000001c0: bf6e 8ebe 447f 10bf 9048 edbe f9e3 523e
000001d0: 930a 113f 89b2 a6be c97f b03e e06e 07bf
000001e0: 4234 c53d b6a9 883e 226b 0f3f e6f0 a63e
000001f0: c58d ab3e bf52 ebbe 32a4 9abe 9004 a2be
00000200: 03e3 833e c2fa 2bbe 05b9 83be a1af e1be
00000210: ab8c c2be dfad b93a b847 9d3e 044d 1dbf
00000220: 1a4b eebd 5ae1 9a3e 8f20 0fbe a722 bc39
00000230: 1d6f e13e 7d71 e9b9 64e7 8d3d 5a19 09bf
00000240: 1ccd 673d 4db6 823e 55ef a43d 0099 72be
00000250: cf85 7ebe d40a f1be 447b 19bf 9070 4237
00000260: de57 b73e bed0 a73e 5190 d4be 679b cfbe
00000270: 3d7d 983e d0b8 42be d3da 01bf b79d d537
00000280: 3c42 a33e 4a7c e93e b26c 0fbf b939 e5bd
00000290: 372d 8fbe a920 d23d 154b ae3d db67 e4b8
000002a0: fd33 e3be 32b1 44be bdae 083f 2c32 0238
000002b0: d90f 5c3e 9109 2eba 5ac6 80be b87b 5a3e
000002c0: ffbe 0ebf 8dcf 14bf eb99 223f 317e 933e
000002d0: 0255 103f 55af 8abd 0e30 abbe c60f 12bf
000002e0: 8422 1abf 4a83 8c3e b5f8 403e 3c68 2e3e
000002f0: f27b ce3e b77f 07be 8d8a 08bc 7fec 0c3e
00000300: b3a4 adbe 1965 2738 e90c aebd ce4d 35be
00000310: ddd6 b1be d196 203f 851c 9bbe 1bbe cc3e
00000320: 039b 243d 3fe1 603e 9ca1 e73e 0288 19bf
00000330: f8fb 09bf 8b1e 2bbf 2a45 2bbe cd76 76be
00000340: 1570 033f 5ca6 9fbd 2fd0 443e 7b1b 1dbe
00000350: 0203 eb3e 08f7 bb3e 70bc 27bd ea7c 22bf
00000360: c7c1 b4bd 0309 0ebb e10d c2bc 9f98 fdbe
00000370: 10a3 1fbf 4aea 20be 3107 ea3e 09df 073f
00000380: a441 8f3d dcb5 353b 6d14 57be 2875 28be
00000390: 99f8 0b3f 015e 93be 05e2 b63d 630a f53e
000003a0: 61c6 eebe d6eb 21bf 5f01 1f3f 6dec f0be
000003b0: e738 d83d 8b2d 193f 4a51 903e d4a2 033f
000003c0: bd29 5abe 44c0 df3e b070 e33e 8ef7 c33e
000003d0: d836 bdbe edaf 27bf a1e9 1e3f 4cb0 13be
000003e0: a6c0 07bf 19ce 1fbf a857 b13e 89a5 2dbd
000003f0: 5de9 c5be f661 d2be 053d 053e 5e6a 8e37
0.20413128 0.5701106 -0.25266665 0.07171737 -0.27048203 0.3691157 0.1519785 -0.38284117
-0.64203787 -0.6032697 0.028009571 0.5789974 -0.50993466 -0.6455849 0.0047612605 -0.55138785
0.5837691 0.21376786 -0.24892686 -0.46641937 0.057587203 -2.9010193e-06 0.4834928 -0.016313855
-0.3620507 0.42276773 -0.053333364 0.3381328 -4.2792446e-05 0.59468496 -0.07964706 0.45923558
0.13513686 -0.64905846 0.4979364 -0.59886795 0.12032249 -0.100744806 0.40585002 0.54272676
-0.6123841 -0.3599841 0.41227219 0.44196576 -3.368926e-05 0.58848125 -0.037958864 -0.09188531
0.6007641 -5.5758384e-05 -0.5872911 0.26571736 0.33567262 0.49709383 -0.08420375 0.26947808
0.25515676 -6.3463696e-05 0.44590262 0.31131783 -0.604589 -1.7101349e-05 0.45983005 -0.3060866
0.27063364 -0.24078988 0.31508783 0.23796026 -0.35321036 -0.34754065 -0.009613852 0.3908707
-0.6463472 -0.65787053 0.15014571 -0.48453504 4.5651695e-06 -0.27515137 0.028253453 0.09743059
-0.43582737 0.09113796 -0.40750703 -0.0043906914 0.59549856 -0.57827693 -1.0949339e-05 -0.019054195
0.03237967 -0.46389514 0.6280656 0.4756561 -0.09527678 0.3730604 -0.20666791 -0.14055242
-0.08304776 0.11909725 0.4412864 -0.23804437 -0.6468981 0.020863794 -0.00082731206 0.58585477
0.19688535 -0.33233446 -0.4931614 -0.109465875 0.6888334 -0.6241772 -0.16397426 -0.5627072
-0.27818868 -0.5644419 -0.46344423 0.20594777 0.5665676 -0.32558087 0.34472492 -0.52903557
0.09629108 0.2669198 0.56022847 0.32605666 0.335066 -0.45961568 -0.30203396 -0.31644106
0.25759134 -0.16794875 -0.25727096 -0.44079307 -0.37997946 0.0014166198 0.3071878 -0.6144564
-0.11635418 0.30250055 -0.13977264 0.00035883972 0.44030085 -0.00044525779 0.069289 -0.5355431
0.056592092 0.2552971 0.080534615 -0.23691177 -0.24855731 -0.47078574 -0.59953713 1.1589509e-05
0.35809225 0.32776445 -0.41516355 -0.4054825 0.2978305 -0.19015813 -0.50724524 2.546502e-05
0.3188647 0.45602638 -0.5602523 -0.1119265 -0.27964184 0.10260136 0.085104145 -0.00010891232
-0.443756 -0.1920822 0.5339163 3.104114e-05 0.2149042 -0.0006638999 -0.2515133 0.21336257
-0.55760187 -0.581292 0.6351611 0.28807214 0.5637971 -0.06771723 -0.334351 -0.5705532
-0.60208917 0.27443916 0.18844874 0.1703195 0.40328938 -0.13232313 -0.008333814 0.13762091
-0.33914718 3.9910057e-05 -0.08498556 -0.17705461 -0.3473424 0.6273013 -0.30295196 0.3998879
0.040186893 0.21960925 0.45240486 -0.59973156 -0.539001 -0.6684348 -0.16725603 -0.24068756
0.513429 -0.077954024 0.1922004 -0.15342514 0.45900732 0.36711907 -0.040951192 -0.63471854
-0.088260226 -0.0021672852 -0.023688259 -0.49530503 -0.6235819 -0.15714374 0.45708612 0.530747
0.06994942 0.0027726805 -0.21003886 -0.16450942 0.54676205 -0.28782657 0.089298286 0.47859487
-0.46635726 -0.6325048 0.6211147 -0.4705538 0.10557728 0.5983512 0.2818702 0.5142033
-0.21304984 0.43701375 0.4442191 0.38274807 -0.36955905 -0.65502816 0.6207524 -0.1442272
-0.53028333 -0.62423855 0.3463719 -0.042394195 -0.38654605 -0.41090363 0.13011558 1.697725e-05

lays.0.bias f4 [256]
00000000: 3b16 16bf 3185 cbbe f4ec f23e 0b05 1abf
00000010: 154f a1be 8f43 9cbe 3e7f f8bc 02b1 ce3a
00000020: 9c0d 1bbf 12bf fb3e fd1d 43be 8015 d93e
00000030: fac7 233f 58cd de3e e464 9a3d 9c9d 8d3e
00000040: 28a0 83be 8541 49be c386 74be acb6 0c3f
00000050: f85f d2bd d029 02bf cbcd 0e3e 6be9 febc
00000060: 0e60 083f 1c1e 01bf ca00 f33e 0739 123f
00000070: 1d05 5a3e a2a0 07bf 65a5 883d 6a11 de3e
00000080: 686a eabb b812 a9bd 85ca f0be f54e 233f
00000090: 0b44 e03e 7573 223f 3f38 1cbf 8c69 7ebe
000000a0: ddf5 a8b7 9e6e c0be 8c7f c9be aa15 96be
000000b0: 0225 febe d697 363d e3e2 c53e 73ae 0abf
000000c0: 884c fdbe adc7 de3e 6c15 dc3d dc4c 5f3e
000000d0: a4c6 a43e aa37 313e e367 05bf c1bf 8d3b
000000e0: c669 26bf cb58 093c 63e8 883e 3e36 053f
000000f0: 4602 1cbf 72c4 14bf d373 1d3e f81c 7ebe
00000100: 2c00 34bf a72e b73e ae96 4b3f 4012 123f
00000110: 00b0 743e 2506 1f3f 7723 1d3f acdb 143f
00000120: aae3 0ebf a6dd 04be 048a f7be 13f0 c73e
00000130: 3f93 21bd f6c5 34bf ea40 8a3e b90b c93e
00000140: da76 e3be cb1f a3be 8727 03bf e0db 073f
00000150: 45bf 0dbf 8f9f 00bf 5852 5c3e 75e7 e63e
00000160: 9329 8c3d cc8c 123f 705a cbbe 2809 223f
00000170: 3295 ecbe 681d dc3e 5613 193e c6ef 5b3e
00000180: 8ca5 d73c 4530 9cbe f44d e53d caa7 ffbe
00000190: 42ad cfbe 86ad c2be 6fba efbe e373 23be
000001a0: 4ffe 073c 80c5 ff3e 36b7 f1bd f764 ed3d
000001b0: 712a 1ebf 000f 743e 39cf 9a3e 54e8 cdbd
000001c0: b398 adbe 4e74 873c ff0d d3be fe90 083f
000001d0: ffa5 303f 88f9 e8be d5ef f33e aa8d 243f
000001e0: bb9d c73e 2b7e f0be 41ff 83be a437 1b3f
000001f0: f8ce 18bd e3e6 173f faaa e2bd 97d3 093f
00000200: f75e f9be 70f8 273f 1825 c4bd 1448 203f
00000210: e345 dcbe 900e 093f d184 63be 793c 7b3e
00000220: e431 0abf 9ebd e3be 6cc5 0e3e 4c0d 0bbf
00000230: 7f2b c9be cf5c 10bf 0f71 103f 3d7c 02bc
00000240: 04d9 f13e 4d5e 0ebf efd3 673e 4e6f 163f
00000250: c169 32bf 76e1 2b3f 2a7a 523e 3f33 d9be
00000260: 88b3 5abb 6168 b9be 2e9f 8bbe f9d6 043f
00000270: 73a5 afbd e440 9c3e a434 13bf 8e1a 32be
00000280: 7443 083e f618 2a3f a512 7d3e 26fa 35bf
00000290: a603 00bf 8379 03be 79aa 0c3f f47b ef3e
000002a0: 4711 0b3f 658d e4be d722 2ebe 6202 433f
000002b0: 5e34 e63e 4ebb 18be 3c48 20bf b5ff 723e
000002c0: cf95 57be 4b28 0e3f 7fbc f53d 1a67 233d
000002d0: c95c 993d f894 56be c348 8fbd 70e6 2cbf
000002e0: 4715 203f 291c 393e 4005 043f b078 87be
000002f0: 4a1a 9cbe dcba 1a3f ba56 143f 48c2 babd
00000300: 7048 a3be 5181 f83e fdbe c0be cf48 80be
00000310: 9b52 083f 6f5b eabd f3f2 1cbf 9957 86be
00000320: 5a55 27bd 662f 12bf 7c10 853d 6823 813e
00000330: af88 fa3e e38b f73e bbaa 3a3f f727 17bf
00000340: c294 93be bc91 d53e d428 123f 0c3f 273f
00000350: 276c e83d aa1a 0abf baf2 013f 9896 3a3f
00000360: 8eca 403e 29f1 a4be 3a71 053f d551 8c3e
00000370: e6d2 efbe c005 a5be 9474 ff3b 5b6b bd3d
00000380: 724f bd3e e318 d8be aac1 933e 6cfe 71be
00000390: 0a04 0cbd 704a 1d3c 0953 c2be 8cc3 e73e
000003a0: cded 253f 2caa 26be 34a9 38bf 0ead c53e
000003b0: 8220 c93e 3604 05be 44da 04bf d344 8dbe
000003c0: f570 023f cf6f e73e 6909 30bf 5962 cbbe
000003d0: f1f0 1a3f b3cd ffbe 2429 913e cc19 163f
000003e0: 31e8 4a3f 1b8e 4bbe 7bc9 43be 0d72 7b3e
000003f0: 2361 eb3e e474 ea3e b713 8abe cfe9 a7bd
-0.5862767 -0.39750054 0.47446406 -0.60163945 -0.31505647 -0.30520293 -0.030334111 0.0015769305
-0.6056764 0.49169213 -0.19054408 0.42399216 0.63977015 0.4351604 0.075387746 0.2765931
-0.25708127 -0.196539 -0.23879533 0.54966235 -0.10272211 -0.5084505 0.13945691 -0.031117162
0.5327157 -0.5043657 0.4746154 0.57118267 0.21291013 -0.5297948 0.066721715 0.4337266
-0.007153798 -0.082555234 -0.4702951 0.63792354 0.43801913 0.63457423 -0.61023325 -0.2484495
-2.014165e-05 -0.37584394 -0.39355123 -0.29313403 -0.4963761 0.044578396 0.38649663 -0.5417244
-0.4947245 0.43511716 0.107462734 0.21806663 0.321828 0.1730639 -0.52111644 0.0043258374
-0.6500515 0.008382986 0.26739797 0.5203589 -0.6094097 -0.5811225 0.15376215 -0.24815738
-0.7031276 0.3577778 0.79526794 0.570591 0.23895264 0.6211875 0.6138224 0.5814769
-0.5581614 -0.12975177 -0.48347485 0.3905035 -0.039447065 -0.70614564 0.2700265 0.39266756
-0.44426614 -0.31860194 -0.5123219 0.5306988 -0.5536998 -0.5024347 0.21515787 0.45098463
0.06843867 0.5724609 -0.39717436 0.6329522 -0.46207577 0.42991185 0.14948782 0.21478185
0.026324056 -0.30505577 0.11196509 -0.499327 -0.40561873 -0.38023013 -0.46821925 -0.15962176
0.008300378 0.49955368 -0.11802523 0.11591523 -0.6178351 0.23833847 0.30236223 -0.10054079
-0.33905563 0.01653495 -0.41221616 0.5334624 0.6900329 -0.45502877 0.47643915 0.6427866
0.38987526 -0.4697126 -0.2578068 0.60631776 -0.037306756 0.5933668 -0.110677674 0.53838485
-0.48705265 0.6561346 -0.095773876 0.6260998 -0.4302207 0.53537846 -0.22218634 0.24534787
-0.5398238 -0.44480604 0.13942498 -0.54317164 -0.39290997 -0.56391615 0.56422514 -0.007964191
0.47235882 -0.5561264 0.2263944 0.5876359 -0.6969262 0.671409 0.20554414 -0.4242191
-0.003337117 -0.36212447 -0.27269882 0.5189052 -0.08576479 0.30518258 -0.575022 -0.17392942
0.13306981 0.6644434 0.24714144 -0.7108482 -0.5000557 -0.12839322 0.5494762 0.46774256
0.5432324 -0.44639125 -0.17005478 0.7617551 0.44961828 -0.14915201 -0.6261022 0.23730357
-0.21053241 0.5553023 0.119988434 0.039893247 0.074884005 -0.20955265 -0.069963 -0.6753912
0.62532467 0.18077148 0.5157051 -0.26459265 -0.30488807 0.60441375 0.57944834 -0.091190875
-0.31891203 0.4853616 -0.37645712 -0.2505555 0.53251046 -0.11443221 -0.6130821 -0.26238707
-0.040852882 -0.57103574 0.06497285 0.25222325 0.48932406 0.48348913 0.72916764 -0.59045357
-0.2882443 0.4171275 0.5709355 0.65330577 0.113487534 -0.53946936 0.50760996 0.7288604
0.18827268 -0.3221524 0.52125895 0.27406183 -0.4684059 -0.3223095 0.0077958796 0.09248992
0.36974674 -0.42206487 0.2885869 -0.2363221 -0.03418354 0.009600267 -0.37953976 0.45266378
0.6481598 -0.16275853 -0.72133183 0.38608593 0.39282614 -0.12989888 -0.51895547 -0.2759157
0.5095361 0.4520249 -0.6876436 -0.3972347 0.605239 -0.49961624 0.283517 0.5863311
0.79260546 -0.19878428 -0.19119827 0.24555226 0.45972547 0.45792305 -0.26968166 -0.08198892

lays.1.weight f4 [256, 256]
00000000: 1814 6037 1828 51bc 8afd 303d 7793 e138
00000010: fda8 13b8 2b75 a4bc 181c 733c c769 02bc
00000020: 3f84 e2ba ce72 363d c939 bc38 69a0 2a39
00000030: b719 c8bc ec8c b9bc f81d 233b 915f 873c
00000040: 1ef3 86b9 4d73 9cb9 30e5 a9b6 b476 84bc
00000050: 33cd 1cb8 5a48 41b9 3089 28bb 6afb 37b9
00000060: 7b52 ecbc 7bd7 3c38 ca2f 3ebd 4bfd d6bb
00000070: d695 e33b f3d2 90b8 f6a3 4ebd 6aca 4eb9
00000080: 5804 ac3c 1951 e0b8 0864 53bc c54d dd3c
00000090: 9aa3 b83c bf5b 1c3d 1b73 5aba f756 033c
000000a0: 99e6 15bd 1576 39bc e4e0 2a39 c675 0d3d
000000b0: 70c0 5f38 22e6 e738 04a4 09bd 652d 563c
000000c0: d50c 6339 123c e139 7509 093d bcbd f9bc
000000d0: ac7a 4139 7fc3 4ebd c07d 91b9 39f5 be3c
000000e0: e5ce 21bc 0a31 d3bc 6e05 6abc 9b3e 9bbc
000000f0: c7b3 ad3c 596d 3ab9 6ce4 323c 67f1 0cb9
00000100: ca51 3cb9 d3c2 edbb 3a27 cd3c cd8b 8eb8
00000110: 8f1e 48b8 2868 013d 807f ac3b 5882 80b4
00000120: 2f7f dd38 b9dd 553c da14 48b8 d517 803c
00000130: a42e c8b8 8287 1c3c 3762 bbb9 3b43 b4bb
00000140: 7aa2 bd3a 1c3c fa38 098d ad38 486c 433d
00000150: 8c6d 3c37 42fc 22b9 8caf 20bd da36 75bd
00000160: 8d26 56bd 896d 5f3c 93dc 87bb 8151 29bd
00000170: 695d 87b9 aa54 6dbd 60af 4abc b0ba 1abc
00000180: be5e bc3c 92d7 5fb8 3249 3f3d 8203 8eb9
00000190: bd90 6dbc e84d f8b8 9e65 47bc ae0f 3eb9
000001a0: 9117 39bc f8d0 48bd 25c0 263c 4a2e b4b9
000001b0: 5f7a 94bc 760c 903c 8f63 50bd 2483 fa3b
000001c0: d4b1 43b7 4be2 64bb 280f 02bc 7dbb f93c
000001d0: 48c3 e93c ec63 e3b8 387f 0bbd 68ae 91bb
000001e0: 9763 043d a2d8 6139 f89f 8fb8 75cd 193c
000001f0: 95d5 1f3d 54f7 5dbd 94e3 323a 0a0e 93bc
00000200: 3045 27b9 c32f 11bc 2d99 2a37 764c 253b
00000210: a1bc 14bc 122e 2cbd 7dee dab8 089a eebb
00000220: ffc0 a837 036e f93b cec1 443b 90df 8e38
00000230: c9a0 08b9 ab1e 16b9 93a5 17bd ef2d e0bb
00000240: 26e5 6e3c 2e52 b13c 2116 12b9 82a7 0cbc
00000250: 3cab 14b9 975c aeb8 e5c8 ef3c 1933 1b3a
00000260: d597 203c 6c6f 24bd ab75 873a 0f8c aeb7
00000270: e8cf 253d af2b 193a 7e56 f83b 4f72 063d
00000280: c26e a1bc a68d a73b 84f3 a2b9 a078 3938
00000290: 3af5 e838 09f9 7ab9 2ab7 43bc 4fcc 18bd
000002a0: d0f8 e1b8 e127 8d3c 3f47 2839 8e84 67bc
000002b0: b69e a3ba b9c3 acbc 62ac 0138 fb70 b7bb
000002c0: dcf2 56b8 d9c2 853c 9da1 17ba 06c4 b1b7
000002d0: 0393 41b9 dc98 10b8 361d 303c bc9d 0f3c
000002e0: a0b9 2ebd 21c7 c53c 03d9 163d d917 9bbc
000002f0: 1420 843c 4a6e 213d fd6f 0e3c be75 1eb8
00000300: a088 0e36 1651 48bd c19e 8cbb 9963 ba38
00000310: cee8 02bd ad62 b0bb 2d17 4039 3542 81bc
00000320: e610 b9b8 2046 8a3c 4a01 51bb ed51 1238
00000330: 2c6b 2cbd 0bc8 7abd 63c6 8bbd 11ce 69bc
00000340: 7da8 4b38 1d63 c33c d9f4 e93b aa29 2a3a
00000350: 2e75 8639 7123 1b39 3b2c 243d 239e 15bd
00000360: b986 52bb 023d ed38 b832 a4bc bbb6 47bd
00000370: f3be c93c 95ed 04b9 9a56 6a3c 33f6 bc3c
00000380: e823 e0b9 7688 53b9 eb7c 0cbd 6e94 863c
00000390: 36b4 893c 59cc 0fbd ccad a638 f6c2 03ba
000003a0: 9975 76bd d4c5 8b3a 698a 4e38 d066 87bc
000003b0: a677 4fbd 624f 09bc 42c6 8abc 6395 0339
000003c0: 9490 ddbc 0d52 a8bc 3950 553c e0ab 8f3b
000003d0: 909f 7fbd 2fd8 56bc 882a 5dbd ee65 4c3c
000003e0: 9f35 cd3c 6596 d1bb 51a2 7fbc 5428 0ebd
000003f0: fa34 abb8 7c6e bdbc 77a6 e13a d605 8cbc
1.3356119e-05 -0.012765907 0.043210544 0.000107563035 -3.5204914e-05 -0.020075401 0.014838241 -0.00795979
-0.0017281844 0.04454308 8.975302e-05 0.00016272221 -0.024426324 -0.022650205 0.002488969 0.016525062
-0.00025739608 -0.00029840544 -5.0632734e-06 -0.016169883 -3.7384405e-05 -0.00018432867 -0.0025716536 -0.00017545899
-0.028847924 4.5023375e-05 -0.046432294 -0.0065609566 0.006945352 -6.9057474e-05 -0.050449334 -0.00019721096
0.020998165 -0.00010696258 -0.012902267 0.027014622 0.022538949 0.038173433 -0.0008333192 0.0080163395
-0.03659687 -0.011319657 0.00016296242 0.034536146 5.3346565e-05 0.00011057804 -0.033603683 0.013072346
0.00021653187 0.000429601 0.033456285 -0.03048598 0.00018451613 -0.05047941 -0.00027750246 0.02331029
-0.009875988 -0.02578022 -0.014283521 -0.018950751 0.021203889 -0.00017779077 0.010918718 -0.0001344137
-0.00017959546 -0.007255891 0.025043119 -6.7971276e-05 -4.7712176e-05 0.03159347 0.0052642226 -2.3936695e-07
0.00010561791 0.013053351 -4.7703135e-05 0.015636364 -9.545431e-05 0.009553792 -0.00035740595 -0.0055011786
0.0014467977 0.00011932125 8.275553e-05 0.047710687 1.1231179e-05 -0.00015543497 -0.039229915 -0.059866764
-0.05228286 0.013636955 -0.0041461675 -0.041337494 -0.00025818803 -0.05794207 -0.012370914 -0.009443924
0.022994395 -5.336811e-05 0.046700664 -0.00027086964 -0.01449984 -0.00011840073 -0.0121702235 -0.00018125653
-0.011297123 -0.049027413 0.010177647 -0.00034366763 -0.018124757 0.017584067 -0.050876196 0.0076450277
-1.166431e-05 -0.003492492 -0.007938184 0.03048491 0.0285355 -0.000108428154 -0.034056872 -0.0044458397
0.03232154 0.00021538374 -6.848568e-05 0.009387364 0.039022047 -0.05419095 0.0006824073 -0.01795103
-0.00015952135 -0.008861485 1.0168454e-05 0.0025222576 -0.009078176 -0.042036124 -0.00010439472 -0.0072815455
2.0117031e-05 0.0076119914 0.0030022743 6.8127294e-05 -0.00013029868 -0.0001431654 -0.03702314 -0.006841413
0.014581 0.021645632 -0.00013931889 -0.008584859 -0.0001417817 -8.314213e-05 0.029270599 0.0005920395
0.009801825 -0.040145323 0.001033475 -2.0807636e-05 0.040481478 0.0005842996 0.00757867 0.032823857
-0.019706134 0.0051133214 -0.0003108048 4.4219778e-05 0.00011108299 -0.00023934631 -0.011945525 -0.03730422
-0.00010775181 0.01723093 0.0001604827 -0.014130725 -0.0012483213 -0.021089422 3.091654e-05 -0.005598185
-5.1247756e-05 0.016328262 -0.0005784275 -2.1191325e-05 -0.0001846068 -3.4474637e-05 0.010749152 0.008765634
-0.042657495 0.024142804 0.036828052 -0.01893227 0.016128577 0.03941182 0.008693692 -3.777979e-05
2.1239175e-06 -0.048905455 -0.004291386 8.887723e-05 -0.0319603 -0.005382857 0.0001831918 -0.01577864
-8.824635e-05 0.016879141 -0.0031891637 3.4885412e-05 -0.042094395 -0.061225932 -0.06824949 -0.0142703215
4.855589e-05 0.023850972 0.007139784 0.0006491194 0.00025645777 0.00014795155 0.040081244 -0.036527764
-0.0032123758 0.00011312404 -0.020043716 -0.04875825 0.024627184 -0.00012677007 0.014302874 0.023066616
-0.00042751362 -0.00020173364 -0.03429882 0.016428199 0.016809564 -0.03510699 7.947869e-05 -0.0005026305
-0.060170744 0.0010663816 4.924313e-05 -0.016528517 -0.050651215 -0.008380743 -0.01694024 0.00012548784
-0.02704648 -0.020546937 0.013019615 0.004384503 -0.06240803 -0.013113066 -0.05399564 0.012475474
0.025049983 -0.0063961023 -0.015602664 -0.03470643 -8.163783e-05 -0.023123972 0.0017215748 -0.017092627

lays.1.bias f4 [256]
00000000: b054 6fbd 7fc8 d8bc c134 0b3d e4e2 8bbd
00000010: 2743 dd3b 560c c83d eed5 5dbd 482f 383c
00000020: ce5e 113d e551 cf3c 044f 873d f9dc 99bd
00000030: 9f3c 59bd eb6e a53d 60d8 a63c c13d e1bc
00000040: 1c2b df3c febe 9abd 2cd8 ab3b f317 47bd
00000050: 5450 85bd 2b47 313c 3d20 7eba 07e8 903c
00000060: a118 64bd e1c4 273d c725 5ebd ed68 003c
00000070: 9581 e83c af1d 873d 504a 37bc 78b9 713c
00000080: 9ff5 1abd f4c2 fbbc 86ad 483d 6c35 63bd
00000090: 1288 26bd 73ec 72bb 232f 923c e9c3 cabc
000000a0: 114d 193d b8b4 85bd 7538 123a e6a1 df3c
000000b0: eca6 94bb a009 18bd 210b 9dbd 0d10 64bd
000000c0: c6df a53d 11c1 5dbd 581a 1c3d 66af 013d
000000d0: 1bac 6fbc 923e 2e3c 19e3 293d 42b7 e53c
000000e0: d123 60bb 92f1 a3bc f779 c33d c257 9c3c
000000f0: e915 4c3b 8d02 853c f8f3 053d b169 7fbd
00000100: a075 60bd a808 3ebd 18ab 4fbd f1d7 19bd
00000110: d43c 083c 99aa c2bc 8245 51bd 9249 63bd
00000120: 4993 0f3c 70f2 88bd 5eca 643d da83 a9bc
00000130: 5978 8ebd c079 1dbd fab5 a43d 79ce 303d
00000140: 5e86 293d f168 3f3d 9b85 2c3b 6173 c53c
00000150: ebf9 e4bc 7700 1e3d 22fd ee3c 6226 0fbd
00000160: b922 62bd 69b3 97bd 43ce 9e3d 5425 8dbd
00000170: de52 4d3d 0598 16bb de01 993a f74e 893d
00000180: d88e ecbc 6abd d43c c1f2 c13c cd73 d03d
00000190: fc4a 3f3d 0091 ec3c 831a 89bd f6fc 0ebc
000001a0: 43ca aa3c 3b27 b0bc 1931 6b3d 5509 b1bc
000001b0: d043 ad3c 8b4a b4bb 6605 89bc a8e1 30bb
000001c0: 636a 3ebc 745b 213d 6a98 cbbc 6e5e 8ebd
000001d0: 86fe febc 2749 983c e87e e73b 6c12 503c
000001e0: 8d7a 153d 5389 b23b bfae dfbc 78c1 6fbd
000001f0: 5c8a 03bc 9b56 bebb 729c d23c cedb 283d
00000200: c919 8ebd f3ad 203a 1de2 303d 8d61 8cbd
00000210: a2b2 15bd 9b25 ec3c ec39 35bd a5e0 3e3d
00000220: 3e38 633c 0484 6e3d 1284 3dbd 209a f43c
00000230: 4655 943c 7a68 99bc 711e 8dba 878a d0bc
00000240: a561 983d 5408 f83c e67f c23d 9959 eabc
00000250: 750b 99bc 0d16 b83c fbe4 35bc d783 3e3d
00000260: ffe5 60bd 7451 cabc 4454 00bb 5fe5 2d3d
00000270: 173f 72bd cd75 ee3c 77de ae3c dd32 1a3d
00000280: cd4e adbc bf8f 7ebd 8598 b63c c09d f63c
00000290: 6825 42bd d7b2 95bd 46ad b73d cc8c c93b
000002a0: 998e b1bc 15ba 14bd af87 563d 4b96 b93d
000002b0: 054f 89bc bcb5 11bd c954 eb3c d23e 113d
000002c0: 6d44 4e3d a240 e83d 0815 8abd d52a 9fbc
000002d0: 130f 293d d802 723c ed5f 293d 8510 653b
000002e0: 98aa 66bd b5bd 1cbd 5e0b b13b 00a0 efbb
000002f0: d796 4d3d 7b8a f63c d253 4fbd e129 033d
00000300: 3064 a7bb 451c 41bb 7fb1 873d 610e 373b
00000310: e316 a8bd 443f 8cbc 7add 1cbb 3a77 95bc
00000320: edbe 7abd 5dc1 aabd 0273 74bd a187 36bd
00000330: 3e48 4e3d e073 11bb a641 063d b3fb 873d
00000340: cb8a a6bc 80be a23c b1a1 963b 12c5 6ebc
00000350: 3374 8bbd 87ab 313c cda9 063b ef7c 543d
00000360: cb01 ef3c ade7 1bbc e8d8 253c 0234 f5bc
00000370: 4a5c 233d 3683 0ebd cf62 ba3c 244f 1e3d
00000380: c8d3 373d ef30 a13c 467f e53c a3e6 7a3d
00000390: bdce 373d f91a 503b f916 bb3c e9bc 0bba
000003a0: 7b36 b7bc feff d6bc 7b9f 0a3c 0852 91bd
000003b0: cb9f d53d aeed 3f3d e0d3 acbd 8bf7 093d
000003c0: 8b38 4d3d 78ec b7bb 42c0 12bc 0c70 e63c
000003d0: ee5a 23bd e79d f8bc cb62 1a3c 7a5e 7f3a
000003e0: 13e7 163e c418 043d ef06 46bb 06ce 58bd
000003f0: d0f3 7bbd 26a3 ba39 5615 ebbb b49d 273c
-0.058430374 -0.026462791 0.033985857 -0.06830385 0.00675239 0.09767978 -0.054159097 0.0112417415
0.035490803 0.025307605 0.06606868 -0.0751285 -0.05303633 0.080777965 0.020366848 -0.027495267
0.027242236 -0.0755596 0.0052442756 -0.048606824 -0.06509462 0.01082019 -0.0009694135 0.017688764
-0.05568755 0.040959243 -0.054235246 0.007837516 0.028382102 0.065974586 -0.011187151 0.014753692
-0.0378319 -0.03073261 0.04899361 -0.05547087 -0.04065711 -0.0037067204 0.017844742 -0.02475162
0.037427012 -0.0652861 0.0005577871 0.027298879 -0.0045365 -0.037118554 -0.07668138 -0.05567937
0.08099322 -0.0541392 0.03811106 0.031661414 -0.0146284355 0.010635035 0.041476343 0.028041486
-0.0034201036 -0.02001265 0.09544747 0.019084815 0.003114099 0.016236568 0.03270337 -0.062356655
-0.054799676 -0.046394974 -0.050700277 -0.037559453 0.008315284 -0.023762988 -0.05109168 -0.055490084
0.008763143 -0.06686866 0.055857055 -0.020692755 -0.06956548 -0.038446188 0.08042522 0.043165658
0.04138791 0.04673094 0.0026324752 0.024102869 -0.027951201 0.038574662 0.029173438 -0.034948714
-0.055208895 -0.07407267 0.07754185 -0.068918854 0.050127856 -0.0022978794 0.001167353 0.067045145
-0.028876707 0.025969226 0.023675324 0.10178337 0.04670237 0.028877735 -0.0669451 -0.008727303
0.020848399 -0.021503082 0.05741987 -0.021610895 0.0211505 -0.0055020503 -0.016726207 -0.002698997
-0.011622044 0.039393857 -0.02485295 -0.06951605 -0.031127226 0.01858957 0.007064689 0.012699705
0.036493827 0.005448499 -0.027305005 -0.058534116 -0.008028593 -0.005808664 0.025709365 0.041225247
-0.06938512 0.0006129436 0.04318439 -0.06854544 -0.03654731 0.028826525 -0.04424469 0.046600956
0.01386839 0.05823137 -0.04626853 0.029858649 0.018107068 -0.018726576 -0.0010766519 -0.02545668
0.07440499 0.030277409 0.09497051 -0.028607177 -0.018682221 0.022471452 -0.0111019565 0.04651245
-0.05490684 -0.024697043 -0.0019581476 0.042455073 -0.0591422 0.029108906 0.021346314 0.037646163
-0.02115574 -0.062148806 0.022289524 0.030104518 -0.047398955 -0.073095016 0.08968596 0.0061508175
-0.021674441 -0.036310274 0.05237549 0.09061869 -0.016761312 -0.035573706 0.028726952 0.0354603
0.050358225 0.11340453 -0.06742293 -0.019429604 0.04127414 0.014771186 0.041351248 0.0034952473
-0.056315035 -0.038266856 0.0054029664 -0.0073127747 0.05019268 0.03009533 -0.050617047 0.03202236
-0.005108379 -0.0029466313 0.066256516 0.0027932154 -0.0820749 -0.017120011 -0.0023935721 -0.018245328
-0.061217237 -0.08337662 -0.059679992 -0.04456294 0.050361864 -0.002219431 0.03277745 0.06639805
-0.020329854 0.019866228 0.004596912 -0.014573352 -0.068092726 0.010844118 0.0020547986 0.05187696
0.02917566 -0.009515685 0.010122515 -0.029932026 0.039882936 -0.0347931 0.022752194 0.038649693
0.044879705 0.019676654 0.02801479 0.06125511 0.044874895 0.0031754358 0.022838103 -0.0005330579
-0.022364845 -0.026245113 0.008460875 -0.07095724 0.10430869 0.04685753 -0.084388494 0.03368334
0.05010275 -0.005612906 -0.008956971 0.0281296 -0.03988164 -0.030348731 0.009422968 0.0009741556
0.14736585 0.03225018 -0.0030216535 -0.052930854 -0.061511815 0.0003559824 -0.0071741743 0.01023047

lays.2.weight f4 [2, 256]
00000000: 17fa b4ba ea55 023d f70b 093b 82ea 12b9
00000010: 6513 3dba c243 bdba 9466 4939 f445 e23c
00000020: 3e5c 9abc 05b6 dfbc 87b9 e3b9 4661 ae3c
00000030: ab47 b83c 17f8 503d e941 76b9 8aba c13b
00000040: 3127 3c3a e4ed 60ba 7fbe 1838 ada4 cc3b
00000050: dc92 7a3c 8733 4b3b 171b 14bc f9af c139
00000060: 52a4 ffba 94c1 9738 b901 51bb 9fa4 a6bc
00000070: f5b8 c93b 3470 943b f728 cebc fd70 0bbd
00000080: df8b 1bbd 4248 1e3c 6113 1dba 5221 05ba
00000090: e593 593b 481a 08bc bea4 06ba ca01 923c
000000a0: 9b5c 1ebd 66ee 23bc 9430 ec37 0d08 c039
000000b0: f70a a4bc 5b07 173d 2479 e2ba 0a0d 3dbc
000000c0: b046 00ba 963d 773b 2380 a0bb 28b4 0f3c
000000d0: d0d4 a4bc fc6d aab9 cd3e dfbc 157a 84b9
000000e0: 1c5b b3ba 1ec2 d6bb dc82 403c cfa6 ae3c
000000f0: 40f3 b439 5a88 85ba 10b5 d03a eee5 8fbb
00000100: bbf9 003c 34c9 8f3b de0d 3abd fc51 a7b7
00000110: 6a02 9d3b 452f fa3c 0a68 97bc a0bb 31bc
00000120: 2710 9fb8 c709 373c f3f6 cdb9 ddf5 65b8
00000130: 944d d1bb a29b 4abd 920c 9aba 6952 413b
00000140: 2fee de3c ace8 4e3a 05a8 72b9 3aa7 263d
00000150: a63b 3fbb 65db 9ebc d334 e1b8 2a52 9d3b
00000160: 291a dcbb 7a00 2dbb 6834 3e3a a08f bf3c
00000170: 4b9c 3ebc 58b4 c7bc fbef efbc 5932 8e3a
00000180: f95a 63bc a243 ee3c b2fb 103c 90ab 453d
00000190: 513c b83c d31d 9ebc 1379 4ebd d8e9 483c
000001a0: a9d9 c438 dfc7 333d 96fb 5439 105a a9b8
000001b0: a852 78b9 06e9 7fb9 e250 d5b9 ed26 61bc
000001c0: 84f8 06bd f2eb 2a39 c7c4 91bb 1a4f 383c
000001d0: c3e7 84b9 f9a3 423b b878 693b aa23 443b
000001e0: 8ef8 42bb e015 beb7 2254 2fbc 04fb 563c
000001f0: 5e77 42ba b28e 3fbb 4297 7eb9 e5a6 2ab9
00000200: 16cf a33b db40 e7b7 d116 f2b9 43ee 793c
00000210: 56f0 ce3c 1f1a b63b 71df ecbc e474 fe3c
00000220: 03f4 a6ba a56e b8ba 8739 ea3a 0e83 d5bc
00000230: 5273 2ebc 6285 b73a 5e09 dab8 1477 44bc
00000240: b8fd 01ba 915b e4ba 0306 0cba 6519 ab3b
00000250: 109f 8e3b fcb5 88ba 8159 7dba 1cd9 a53b
00000260: 472d a23c a04f c6b6 cd1a 393c cf67 8539
00000270: fe6d 22b9 00e4 6ab7 53e4 73ba 1c34 813c
00000280: 8284 ac38 7670 74bb b950 85bc 1241 ed3b
00000290: 7352 26ba 5f47 df3c 4bca 823d 4a7c 3cbd
000002a0: 64b5 6a38 2b4e bbb8 bbca 43bd 110b 62b9
000002b0: 1f0f cebb 335b aabb 5c8f 4eba 20be f0bb
000002c0: 1139 7b3c 21db e23c a6c9 ae3c ca1e 2d3b
000002d0: 350e 5bba 2a1a e73c dd2b 0c3b 473a 163a
000002e0: 493f ce3c 7623 9ebb 7526 0db9 ca2d 08b8
000002f0: 6253 d73b f324 bfbc f29d d7bc 5885 01bc
00000300: 628c bbb9 00ac abbc ba84 78b9 ff30 00ba
00000310: ad3d c03c 6f5c c83c 783b a1bb e8e3 fe3a
00000320: 3905 d538 7eff 083d 2ec3 dab9 5150 023a
00000330: 7fa5 e93c b7a2 a73c 50aa 13bd 00c5 713c
00000340: 5ad6 4ebb 9bbb 8dbc dff4 093d 8114 92bb
00000350: cfa3 103a b676 a039 173f 14bd 3672 5eb7
00000360: ad0a 41bd e047 8dbc 982f 16bc 9191 4db9
00000370: d03d 4d39 2763 f8b8 896a 073c ce5c 8e3c
00000380: 1d21 d33b d0d0 ccb8 e80a 9f3a e6f0 7a3c
00000390: c0d2 11bd 6b05 f53c 94b1 6bba dc50 b5bb
000003a0: 56de 77ba 1882 843b 5a96 0ebc 484a b03c
000003b0: bba7 3a3c a3ec f13a a6e5 23bb 7090 9abb
000003c0: 2902 a138 8570 82bb 7111 a03c 04fc 20bb
000003d0: e0d5 65bc df44 7d3b 4a42 893c 4671 4eba
000003e0: 6d72 963d 9c11 c93b 6a6a 8039 4a62 d93a
000003f0: 8143 5bbc e683 d33c 7759 f5b9 6e5b 58b9
-0.0013807443 0.031820215 0.0020911673 -0.00014011006 -0.0007212668 -0.0014439749 0.00019207067 0.027621247
-0.018842813 -0.027308473 -0.00043435043 0.021286618 0.022495111 0.051017847 -0.00023484942 0.00591213
0.0007177471 -0.00085803703 3.6417037e-05 0.006245217 0.015293803 0.0031006054 -0.009039662 0.00036942938
-0.0019503927 7.236298e-05 -0.0031891896 -0.02034217 0.006156082 0.004529977 -0.025166018 -0.0340433
-0.03797519 0.009660782 -0.00059919624 -0.00050785125 0.0033199724 -0.008307047 -0.0005136243 0.017823119
-0.038662534 -0.010005569 2.8156013e-05 0.00036627092 -0.02002476 0.03687225 -0.0017278534 -0.011538753
-0.0004893346 0.0037725917 -0.0048980876 0.00877098 -0.020121008 -0.00032506872 -0.027251625 -0.0002526796
-0.0013683769 -0.0065539023 0.011749949 0.021319775 0.0003451351 -0.0010187731 0.0015923101 -0.0043914234
0.00787204 0.004387999 -0.04542338 -1.9946128e-05 0.0047915475 0.030540118 -0.018482227 -0.010847956
-7.5847194e-05 0.011171765 -0.00039284638 -5.4826833e-05 -0.006387422 -0.04946483 -0.0011753014 0.0029498583
0.027213184 0.0007892947 -0.0002314151 0.040686823 -0.002917984 -0.019391725 -0.00010738675 0.0048010545
-0.0067169857 -0.002639799 0.0007255734 0.023383915 -0.011633943 -0.024377987 -0.029289236 0.0010848745
-0.01387667 0.029084984 0.008849071 0.048259318 0.022489699 -0.01930133 -0.050408434 0.012262784
9.386551e-05 0.043891784 0.00020311619 -8.0753234e-05 -0.00023681915 -0.00024405503 -0.00040686788 -0.013742191
-0.032951847 0.0001630036 -0.0044485065 0.011249328 -0.00025349678 0.0029699786 0.0035624932 0.0029928484
-0.00297502 -2.2659951e-05 -0.010701211 0.01312137 -0.00074183 -0.002922934 -0.00024279676 -0.00016274636
0.004999052 -2.7567547e-05 -0.00046174836 0.01525456 0.025261085 0.005557313 -0.028915139 0.031061597
-0.0012737516 -0.001407106 0.0017869928 -0.026063468 -0.010647612 0.0014001543 -0.00010396795 -0.011991281
-0.00049587665 -0.0017422308 -0.0005341472 0.005221533 0.004352458 -0.0010430212 -0.0009664521 0.005061282
0.01979698 -5.9101294e-06 0.011297894 0.0002544508 -0.00015490499 -1.4000572e-05 -0.00093037373 0.015771918
8.2262806e-05 -0.0037298477 -0.016273843 0.007240423 -0.00063446834 0.027255712 0.063862406 -0.04601697
5.595888e-05 -8.931415e-05 -0.04780076 -0.00021557162 -0.0062884237 -0.00519886 -0.00078796386 -0.0073468834
0.01533343 0.02769238 0.021336388 0.0026416057 -0.0008356304 0.028210718 0.002138845 0.000573073
0.025176661 -0.0048260046 -0.00013461134 -3.246757e-05 0.0065712193 -0.023333048 -0.026320431 -0.007905327
-0.00035772013 -0.02095604 -0.00023700568 -0.00048901135 0.02346691 0.024458138 -0.0049204193 0.0019446583
0.00010157604 0.03344678 -0.0004172562 0.00049710745 0.028521297 0.02046333 -0.036051095 0.014756441
-0.003156087 -0.017301371 0.033680793 -0.0044580107 0.00055175734 0.00030606025 -0.03619298 -1.3258823e-05
-0.04712932 -0.017246187 -0.009166621 -0.00019604551 0.0001957335 -0.0001184403 0.008265146 0.017378237
0.0064431564 -9.7663724e-05 0.0012133988 0.015316224 -0.035601377 0.02990981 -0.0008991 -0.005533321
-0.0009455433 0.0040438287 -0.008702839 0.021519795 0.011392529 0.0018457364 -0.0025008707 -0.0047169253
7.6774806e-05 -0.0039806985 0.019539567 -0.0024564276 -0.014028043 0.0038645787 0.016755242 -0.00078751554
0.07346044 0.0061361324 0.00024493347 0.0016585079 -0.013382793 0.02581973 -0.00046796698 -0.00020633425

lays.2.bias f4 [2]
00000000: 5058 e03c 577f 303c
0.02738586 0.010772548

l1.weight f4 [256, 2]
00000000: ca07 513e c5f2 113f 865d 81be 8ee0 923d
00000010: 9f7c 8abe bcfc bc3e 40a0 1b3e c203 c4be
00000020: 985c 24bf e26f 1abf 5474 e53c 2c39 143f
00000030: 148b 02bf 0d45 25bf 5904 9c3b c127 0dbf
00000040: e471 153f f6e5 5a3e afe6 7ebe 85ce eebe
00000050: 8fe0 6b3d 22af 42b6 5e8c f73e a2a4 85bc
00000060: b65e b9be 0375 d83e 1674 5abd be1f ad3e
00000070: 0a7c 33b8 463d 183f ff1d a3bd ed20 eb3e
00000080: 5161 0a3e b228 26bf 85f1 fe3e 694f 19bf
00000090: a36b f63d 4b53 cebd 93cb cf3e 24f0 0a3f
000000a0: 34c5 1cbf d64f b8be 5715 d33e 5649 e23e
000000b0: 914d 0db8 b5a6 163f c17a 1bbd 5e2e bcbd
000000c0: adcb 193f 1cde 69b8 b658 16bf 1b0c 883e
000000d0: 48dd ab3e 1583 fe3e 0473 acbd 08f9 893e
000000e0: e8a3 823e d017 85b8 594d e43e 0d65 9f3e
000000f0: 58c6 1abf de74 8fb7 d86e eb3e 62b7 9cbe
00000100: 7e90 8a3e 9f91 76be 3153 a13e dbab 733e
00000110: fdd7 b4be d9f0 b1be 6b83 1dbc 3420 c83e
00000120: 0377 25bf 346a 28bf ccbf 193e fa14 f8be
00000130: 822e 9936 a4e0 8cbe c973 e73c b089 c73d
00000140: c424 dfbe 8aa6 ba3d c3a4 d0be cadf 8fbb
00000150: 9872 183f f509 14bf 0eb3 37b7 8b17 9cbc
00000160: 8ba0 043d aa83 edbe e8c8 203f 3289 f33e
00000170: 7920 c3bd c601 bf3e c1a0 53be f9ec 0fbe
00000180: f214 aabd 42e9 f33d 4bf0 e13e e7c1 73be
00000190: 1d9b 25bf 8cea aa3c f9df 58ba 94fa 153f
000001a0: 509c 493e be27 aabe a77f fcbe a52f e0bd
000001b0: 6357 303f 14ca 1fbf dee8 27be 940d 10bf
000001c0: bf6e 8ebe 447f 10bf 9048 edbe f9e3 523e
000001d0: 930a 113f 89b2 a6be c97f b03e e06e 07bf
000001e0: 4234 c53d b6a9 883e 226b 0f3f e6f0 a63e
000001f0: c58d ab3e bf52 ebbe 32a4 9abe 9004 a2be
00000200: 03e3 833e c2fa 2bbe 05b9 83be a1af e1be
00000210: ab8c c2be dfad b93a b847 9d3e 044d 1dbf
00000220: 1a4b eebd 5ae1 9a3e 8f20 0fbe a722 bc39
00000230: 1d6f e13e 7d71 e9b9 64e7 8d3d 5a19 09bf
00000240: 1ccd 673d 4db6 823e 55ef a43d 0099 72be
00000250: cf85 7ebe d40a f1be 447b 19bf 9070 4237
00000260: de57 b73e bed0 a73e 5190 d4be 679b cfbe
00000270: 3d7d 983e d0b8 42be d3da 01bf b79d d537
00000280: 3c42 a33e 4a7c e93e b26c 0fbf b939 e5bd
00000290: 372d 8fbe a920 d23d 154b ae3d db67 e4b8
000002a0: fd33 e3be 32b1 44be bdae 083f 2c32 0238
000002b0: d90f 5c3e 9109 2eba 5ac6 80be b87b 5a3e
000002c0: ffbe 0ebf 8dcf 14bf eb99 223f 317e 933e
000002d0: 0255 103f 55af 8abd 0e30 abbe c60f 12bf
000002e0: 8422 1abf 4a83 8c3e b5f8 403e 3c68 2e3e
000002f0: f27b ce3e b77f 07be 8d8a 08bc 7fec 0c3e
00000300: b3a4 adbe 1965 2738 e90c aebd ce4d 35be
00000310: ddd6 b1be d196 203f 851c 9bbe 1bbe cc3e
00000320: 039b 243d 3fe1 603e 9ca1 e73e 0288 19bf
00000330: f8fb 09bf 8b1e 2bbf 2a45 2bbe cd76 76be
00000340: 1570 033f 5ca6 9fbd 2fd0 443e 7b1b 1dbe
00000350: 0203 eb3e 08f7 bb3e 70bc 27bd ea7c 22bf
00000360: c7c1 b4bd 0309 0ebb e10d c2bc 9f98 fdbe
00000370: 10a3 1fbf 4aea 20be 3107 ea3e 09df 073f
00000380: a441 8f3d dcb5 353b 6d14 57be 2875 28be
00000390: 99f8 0b3f 015e 93be 05e2 b63d 630a f53e
000003a0: 61c6 eebe d6eb 21bf 5f01 1f3f 6dec f0be
000003b0: e738 d83d 8b2d 193f 4a51 903e d4a2 033f
000003c0: bd29 5abe 44c0 df3e b070 e33e 8ef7 c33e
000003d0: d836 bdbe edaf 27bf a1e9 1e3f 4cb0 13be
000003e0: a6c0 07bf 19ce 1fbf a857 b13e 89a5 2dbd
000003f0: 5de9 c5be f661 d2be 053d 053e 5e6a 8e37
0.20413128 0.5701106 -0.25266665 0.07171737 -0.27048203 0.3691157 0.1519785 -0.38284117
-0.64203787 -0.6032697 0.028009571 0.5789974 -0.50993466 -0.6455849 0.0047612605 -0.55138785
0.5837691 0.21376786 -0.24892686 -0.46641937 0.057587203 -2.9010193e-06 0.4834928 -0.016313855
-0.3620507 0.42276773 -0.053333364 0.3381328 -4.2792446e-05 0.59468496 -0.07964706 0.45923558
0.13513686 -0.64905846 0.4979364 -0.59886795 0.12032249 -0.100744806 0.40585002 0.54272676
-0.6123841 -0.3599841 0.41227219 0.44196576 -3.368926e-05 0.58848125 -0.037958864 -0.09188531
0.6007641 -5.5758384e-05 -0.5872911 0.26571736 0.33567262 0.49709383 -0.08420375 0.26947808
0.25515676 -6.3463696e-05 0.44590262 0.31131783 -0.604589 -1.7101349e-05 0.45983005 -0.3060866
0.27063364 -0.24078988 0.31508783 0.23796026 -0.35321036 -0.34754065 -0.009613852 0.3908707
-0.6463472 -0.65787053 0.15014571 -0.48453504 4.5651695e-06 -0.27515137 0.028253453 0.09743059
-0.43582737 0.09113796 -0.40750703 -0.0043906914 0.59549856 -0.57827693 -1.0949339e-05 -0.019054195
0.03237967 -0.46389514 0.6280656 0.4756561 -0.09527678 0.3730604 -0.20666791 -0.14055242
-0.08304776 0.11909725 0.4412864 -0.23804437 -0.6468981 0.020863794 -0.00082731206 0.58585477
0.19688535 -0.33233446 -0.4931614 -0.109465875 0.6888334 -0.6241772 -0.16397426 -0.5627072
-0.27818868 -0.5644419 -0.46344423 0.20594777 0.5665676 -0.32558087 0.34472492 -0.52903557
0.09629108 0.2669198 0.56022847 0.32605666 0.335066 -0.45961568 -0.30203396 -0.31644106
0.25759134 -0.16794875 -0.25727096 -0.44079307 -0.37997946 0.0014166198 0.3071878 -0.6144564
-0.11635418 0.30250055 -0.13977264 0.00035883972 0.44030085 -0.00044525779 0.069289 -0.5355431
0.056592092 0.2552971 0.080534615 -0.23691177 -0.24855731 -0.47078574 -0.59953713 1.1589509e-05
0.35809225 0.32776445 -0.41516355 -0.4054825 0.2978305 -0.19015813 -0.50724524 2.546502e-05
0.3188647 0.45602638 -0.5602523 -0.1119265 -0.27964184 0.10260136 0.085104145 -0.00010891232
-0.443756 -0.1920822 0.5339163 3.104114e-05 0.2149042 -0.0006638999 -0.2515133 0.21336257
-0.55760187 -0.581292 0.6351611 0.28807214 0.5637971 -0.06771723 -0.334351 -0.5705532
-0.60208917 0.27443916 0.18844874 0.1703195 0.40328938 -0.13232313 -0.008333814 0.13762091
-0.33914718 3.9910057e-05 -0.08498556 -0.17705461 -0.3473424 0.6273013 -0.30295196 0.3998879
0.040186893 0.21960925 0.45240486 -0.59973156 -0.539001 -0.6684348 -0.16725603 -0.24068756
0.513429 -0.077954024 0.1922004 -0.15342514 0.45900732 0.36711907 -0.040951192 -0.63471854
-0.088260226 -0.0021672852 -0.023688259 -0.49530503 -0.6235819 -0.15714374 0.45708612 0.530747
0.06994942 0.0027726805 -0.21003886 -0.16450942 0.54676205 -0.28782657 0.089298286 0.47859487
-0.46635726 -0.6325048 0.6211147 -0.4705538 0.10557728 0.5983512 0.2818702 0.5142033
-0.21304984 0.43701375 0.4442191 0.38274807 -0.36955905 -0.65502816 0.6207524 -0.1442272
-0.53028333 -0.62423855 0.3463719 -0.042394195 -0.38654605 -0.41090363 0.13011558 1.697725e-05

l1.bias f4 [256]
00000000: 3b16 16bf 3185 cbbe f4ec f23e 0b05 1abf
00000010: 154f a1be 8f43 9cbe 3e7f f8bc 02b1 ce3a
00000020: 9c0d 1bbf 12bf fb3e fd1d 43be 8015 d93e
00000030: fac7 233f 58cd de3e e464 9a3d 9c9d 8d3e
00000040: 28a0 83be 8541 49be c386 74be acb6 0c3f
00000050: f85f d2bd d029 02bf cbcd 0e3e 6be9 febc
00000060: 0e60 083f 1c1e 01bf ca00 f33e 0739 123f
00000070: 1d05 5a3e a2a0 07bf 65a5 883d 6a11 de3e
00000080: 686a eabb b812 a9bd 85ca f0be f54e 233f
00000090: 0b44 e03e 7573 223f 3f38 1cbf 8c69 7ebe
000000a0: ddf5 a8b7 9e6e c0be 8c7f c9be aa15 96be
000000b0: 0225 febe d697 363d e3e2 c53e 73ae 0abf
000000c0: 884c fdbe adc7 de3e 6c15 dc3d dc4c 5f3e
000000d0: a4c6 a43e aa37 313e e367 05bf c1bf 8d3b
000000e0: c669 26bf cb58 093c 63e8 883e 3e36 053f
000000f0: 4602 1cbf 72c4 14bf d373 1d3e f81c 7ebe
00000100: 2c00 34bf a72e b73e ae96 4b3f 4012 123f
00000110: 00b0 743e 2506 1f3f 7723 1d3f acdb 143f
00000120: aae3 0ebf a6dd 04be 048a f7be 13f0 c73e
00000130: 3f93 21bd f6c5 34bf ea40 8a3e b90b c93e
00000140: da76 e3be cb1f a3be 8727 03bf e0db 073f
00000150: 45bf 0dbf 8f9f 00bf 5852 5c3e 75e7 e63e
00000160: 9329 8c3d cc8c 123f 705a cbbe 2809 223f
00000170: 3295 ecbe 681d dc3e 5613 193e c6ef 5b3e
00000180: 8ca5 d73c 4530 9cbe f44d e53d caa7 ffbe
00000190: 42ad cfbe 86ad c2be 6fba efbe e373 23be
000001a0: 4ffe 073c 80c5 ff3e 36b7 f1bd f764 ed3d
000001b0: 712a 1ebf 000f 743e 39cf 9a3e 54e8 cdbd
000001c0: b398 adbe 4e74 873c ff0d d3be fe90 083f
000001d0: ffa5 303f 88f9 e8be d5ef f33e aa8d 243f
000001e0: bb9d c73e 2b7e f0be 41ff 83be a437 1b3f
000001f0: f8ce 18bd e3e6 173f faaa e2bd 97d3 093f
00000200: f75e f9be 70f8 273f 1825 c4bd 1448 203f
00000210: e345 dcbe 900e 093f d184 63be 793c 7b3e
00000220: e431 0abf 9ebd e3be 6cc5 0e3e 4c0d 0bbf
00000230: 7f2b c9be cf5c 10bf 0f71 103f 3d7c 02bc
00000240: 04d9 f13e 4d5e 0ebf efd3 673e 4e6f 163f
00000250: c169 32bf 76e1 2b3f 2a7a 523e 3f33 d9be
00000260: 88b3 5abb 6168 b9be 2e9f 8bbe f9d6 043f
00000270: 73a5 afbd e440 9c3e a434 13bf 8e1a 32be
00000280: 7443 083e f618 2a3f a512 7d3e 26fa 35bf
00000290: a603 00bf 8379 03be 79aa 0c3f f47b ef3e
000002a0: 4711 0b3f 658d e4be d722 2ebe 6202 433f
000002b0: 5e34 e63e 4ebb 18be 3c48 20bf b5ff 723e
000002c0: cf95 57be 4b28 0e3f 7fbc f53d 1a67 233d
000002d0: c95c 993d f894 56be c348 8fbd 70e6 2cbf
000002e0: 4715 203f 291c 393e 4005 043f b078 87be
000002f0: 4a1a 9cbe dcba 1a3f ba56 143f 48c2 babd
00000300: 7048 a3be 5181 f83e fdbe c0be cf48 80be
00000310: 9b52 083f 6f5b eabd f3f2 1cbf 9957 86be
00000320: 5a55 27bd 662f 12bf 7c10 853d 6823 813e
00000330: af88 fa3e e38b f73e bbaa 3a3f f727 17bf
00000340: c294 93be bc91 d53e d428 123f 0c3f 273f
00000350: 276c e83d aa1a 0abf baf2 013f 9896 3a3f
00000360: 8eca 403e 29f1 a4be 3a71 053f d551 8c3e
00000370: e6d2 efbe c005 a5be 9474 ff3b 5b6b bd3d
00000380: 724f bd3e e318 d8be aac1 933e 6cfe 71be
00000390: 0a04 0cbd 704a 1d3c 0953 c2be 8cc3 e73e
000003a0: cded 253f 2caa 26be 34a9 38bf 0ead c53e
000003b0: 8220 c93e 3604 05be 44da 04bf d344 8dbe
000003c0: f570 023f cf6f e73e 6909 30bf 5962 cbbe
000003d0: f1f0 1a3f b3cd ffbe 2429 913e cc19 163f
000003e0: 31e8 4a3f 1b8e 4bbe 7bc9 43be 0d72 7b3e
000003f0: 2361 eb3e e474 ea3e b713 8abe cfe9 a7bd
-0.5862767 -0.39750054 0.47446406 -0.60163945 -0.31505647 -0.30520293 -0.030334111 0.0015769305
-0.6056764 0.49169213 -0.19054408 0.42399216 0.63977015 0.4351604 0.075387746 0.2765931
-0.25708127 -0.196539 -0.23879533 0.54966235 -0.10272211 -0.5084505 0.13945691 -0.031117162
0.5327157 -0.5043657 0.4746154 0.57118267 0.21291013 -0.5297948 0.066721715 0.4337266
-0.007153798 -0.082555234 -0.4702951 0.63792354 0.43801913 0.63457423 -0.61023325 -0.2484495
-2.014165e-05 -0.37584394 -0.39355123 -0.29313403 -0.4963761 0.044578396 0.38649663 -0.5417244
-0.4947245 0.43511716 0.107462734 0.21806663 0.321828 0.1730639 -0.52111644 0.0043258374
-0.6500515 0.008382986 0.26739797 0.5203589 -0.6094097 -0.5811225 0.15376215 -0.24815738
-0.7031276 0.3577778 0.79526794 0.570591 0.23895264 0.6211875 0.6138224 0.5814769
-0.5581614 -0.12975177 -0.48347485 0.3905035 -0.039447065 -0.70614564 0.2700265 0.39266756
-0.44426614 -0.31860194 -0.5123219 0.5306988 -0.5536998 -0.5024347 0.21515787 0.45098463
0.06843867 0.5724609 -0.39717436 0.6329522 -0.46207577 0.42991185 0.14948782 0.21478185
0.026324056 -0.30505577 0.11196509 -0.499327 -0.40561873 -0.38023013 -0.46821925 -0.15962176
0.008300378 0.49955368 -0.11802523 0.11591523 -0.6178351 0.23833847 0.30236223 -0.10054079
-0.33905563 0.01653495 -0.41221616 0.5334624 0.6900329 -0.45502877 0.47643915 0.6427866
0.38987526 -0.4697126 -0.2578068 0.60631776 -0.037306756 0.5933668 -0.110677674 0.53838485
-0.48705265 0.6561346 -0.095773876 0.6260998 -0.4302207 0.53537846 -0.22218634 0.24534787
-0.5398238 -0.44480604 0.13942498 -0.54317164 -0.39290997 -0.56391615 0.56422514 -0.007964191
0.47235882 -0.5561264 0.2263944 0.5876359 -0.6969262 0.671409 0.20554414 -0.4242191
-0.003337117 -0.36212447 -0.27269882 0.5189052 -0.08576479 0.30518258 -0.575022 -0.17392942
0.13306981 0.6644434 0.24714144 -0.7108482 -0.5000557 -0.12839322 0.5494762 0.46774256
0.5432324 -0.44639125 -0.17005478 0.7617551 0.44961828 -0.14915201 -0.6261022 0.23730357
-0.21053241 0.5553023 0.119988434 0.039893247 0.074884005 -0.20955265 -0.069963 -0.6753912
0.62532467 0.18077148 0.5157051 -0.26459265 -0.30488807 0.60441375 0.57944834 -0.091190875
-0.31891203 0.4853616 -0.37645712 -0.2505555 0.53251046 -0.11443221 -0.6130821 -0.26238707
-0.040852882 -0.57103574 0.06497285 0.25222325 0.48932406 0.48348913 0.72916764 -0.59045357
-0.2882443 0.4171275 0.5709355 0.65330577 0.113487534 -0.53946936 0.50760996 0.7288604
0.18827268 -0.3221524 0.52125895 0.27406183 -0.4684059 -0.3223095 0.0077958796 0.09248992
0.36974674 -0.42206487 0.2885869 -0.2363221 -0.03418354 0.009600267 -0.37953976 0.45266378
0.6481598 -0.16275853 -0.72133183 0.38608593 0.39282614 -0.12989888 -0.51895547 -0.2759157
0.5095361 0.4520249 -0.6876436 -0.3972347 0.605239 -0.49961624 0.283517 0.5863311
0.79260546 -0.19878428 -0.19119827 0.24555226 0.45972547 0.45792305 -0.26968166 -0.08198892
