TOYDATA/Models/Halfmoons_a=0.0_e=0.0.pt (torch, 270487 bytes, 10 tensors)

lays.0.weight f4 [256, 2]
000000 c2 ed 4b bf 4c b9 36 3e 25 9c bf 3e fd de fe 3d
       -0.79659665 0.17844123 0.37423816 0.124448754
000010 18 35 54 be a8 7e 2a bf 8a 4b 03 3e f8 d7 24 bf
       -0.20723379 -0.6659951 0.12821785 -0.6439204
000020 e8 65 dc 3e 50 d2 bc 3e d7 52 7e 3d f8 f4 9e 3e
       0.43046498 0.36879206 0.06209072 0.3104627
000030 52 34 85 bb 15 39 17 bf fa 3f e0 be 34 04 88 be
       -0.004065075 -0.59071475 -0.4379881 -0.26565707
000040 a0 d6 b0 3d e7 24 ce be 57 44 7d bd f7 da 5a bf
       0.086346865 -0.4026253 -0.061832752 -0.85490364
000050 42 e4 0f bf de 65 be 3e 85 6b 17 3f 24 84 28 bf
       -0.5620767 0.37187093 0.59148437 -0.6582663
000060 97 3e ad 3e c8 7c 00 3f 3d 98 10 be c3 63 b9 3e
       0.33836815 0.501904 -0.14120574 0.36208925
000070 dc c8 a8 3e fa 45 da 3e af d7 4e be b1 6f e0 be
       0.32965744 0.42631513 -0.20199464 -0.43835214
000080 18 b0 f5 bd ba 52 db 3e 2e 09 41 be ba 28 70 3e
       -0.11996478 0.42836553 -0.18851158 0.23453036
000090 c0 33 f5 3c cd 74 d3 be d5 f4 9a 3e 9d 45 57 be
       0.029931903 -0.4130005 0.30264917 -0.21022649
0000a0 69 ca bf 3e 9d d6 e0 be ea 20 09 3f 48 8a 29 bf
       0.37459114 -0.43913737 0.5356585 -0.66226625
0000b0 78 ba 8f be 56 12 d2 3e 03 59 be 3e 3b 69 f6 bb
       -0.28071952 0.41029614 0.37177286 -0.0075198687
0000c0 1f fe 1c 3f 76 46 ef be af 5f dd be 0d 96 2d 3f
       0.6132526 -0.46733445 -0.43237063 0.67807084
0000d0 c0 1b eb 3d da fc b9 3e 50 ff 1d 3d 13 54 11 bf
       0.11479902 0.36325723 0.038573563 -0.5676891
0000e0 b9 59 8b 3e 37 17 22 bf 3d e4 aa bd cd 69 0f be
       0.2721689 -0.63316673 -0.08344314 -0.14005204
0000f0 61 a3 f3 be 03 66 b9 be 9e 54 2e 3f e0 98 12 bf
       -0.47585586 -0.3621064 0.68097866 -0.5726452
000100 71 01 d3 3e 84 29 8f be 57 21 df be f2 c9 d5 be
       0.41212037 -0.2796136 -0.43580124 -0.41755635
000110 b2 9c c0 3e 5c af b4 3e 10 01 74 be 78 96 93 3e
       0.3761955 0.3529004 -0.2382853 0.28825736
000120 20 07 16 3e 90 5e 85 3d cc 0e 6e be 1d 46 7c 3d
       0.14651155 0.06512177 -0.23247832 0.061590303
000130 bc 8e 4d 3e 02 5b e4 be b5 05 1e 3f 9d 60 aa be
       0.2007398 -0.44600683 0.6172746 -0.33276835
000140 26 a0 21 bf fa 0e 78 be 7d 19 3e 3f 67 85 4c 3e
       -0.6313499 -0.24224463 0.7425764 0.19972764
000150 25 85 87 3e ee f6 d8 3e e2 e4 1b bf dc 88 15 bf
       0.2646877 0.42375892 -0.6089612 -0.58411956
000160 fe d2 c1 3e 06 20 33 be fe 7c 12 3f 1d d3 2e 3f
       0.37856287 -0.17492685 0.5722197 0.68290883
000170 c7 99 30 be d3 a2 e4 bd 08 11 2f bf 01 ca 34 bf
       -0.17246161 -0.11163869 -0.6838536 -0.70620733
000180 7c c5 cc 3e 37 a1 95 bd b8 38 10 3f ff 9a 42 3e
       0.3999442 -0.0730614 0.56336546 0.19004439
000190 02 fb dc 3e b5 1d 27 bf 49 37 6d be b2 e1 71 3e
       0.43160254 -0.65279704 -0.23165621 0.23621252
0001a0 40 c6 d8 be 3f 1a ae be cd 08 fc be a0 8e 92 3e
       -0.42338753 -0.340044 -0.49225464 0.2862444
0001b0 54 a7 ac 3e be 29 03 bf ab 20 f0 be e6 98 33 be
       0.3372141 -0.5123557 -0.46899924 -0.17538795
0001c0 4a 3e 97 bb 8c 71 08 3f 9f a8 99 be 04 13 e8 bd
       -0.0046155797 0.5329826 -0.3001146 -0.11331752
0001d0 23 26 1d be 40 3a 93 be 64 4c 0f 3f db 7c 8f be
       -0.15346579 -0.2875538 0.5597594 -0.28024945
0001e0 66 85 e7 be 15 d5 9d 3e 97 8d c2 be 72 ca 16 bf
       -0.45218962 0.3082663 -0.3799865 -0.5890266
0001f0 9b 39 4d bf 3f ec 04 3f e4 a4 37 bf 42 37 04 3f
       -0.80166024 0.5192298 -0.7173598 0.51646817
000200 cf 38 b4 3e ff 9f c5 be 8f 12 5f 3e d0 86 29 bf
       0.35199592 -0.3859863 0.21784423 -0.6622133
000210 30 d6 ce 3e 25 73 13 3f 42 47 10 bf 04 67 94 3e
       0.40397787 0.5759757 -0.5635873 0.28984845
000220 d2 b4 12 bf 33 3e 4f be 40 1b 94 3c 12 fc c0 be
       -0.5730716 -0.20238571 0.0180794 -0.37692314
000230 88 fa 0d 3f c9 0c c8 3e ba 48 8d 3d 8d e8 b3 be
       0.55460405 0.39072254 0.06898637 -0.3513836
000240 3e 81 d0 3e f5 10 2d 3f 90 1a ab be 5d f2 37 3f
       0.40723604 0.67604 -0.33418703 0.7185419
000250 7d 10 eb 3e 3f a6 8a be 5a 34 95 3e b4 11 0b 3f
       0.45911017 -0.2707996 0.29141504 0.5432389
000260 4b 24 1c bf 43 82 e8 3c 6e c2 2b 3d f3 af d9 be
       -0.6099288 0.028382426 0.04193347 -0.4251705
000270 40 83 78 bd 60 99 67 3e 94 e3 dc be 7d 28 28 bf
       -0.060672045 0.22617102 -0.43142378 -0.6568678
000280 d7 e1 07 bd 1d bd a4 3e c6 96 bf 3d 42 69 16 bf
       -0.033174362 0.32175532 0.093549296 -0.5875436
000290 62 51 9b be 5b 6f ea 3e fb e6 46 3f 86 ac a1 bc
       -0.30335528 0.45788082 0.776962 -0.019735586
0002a0 32 4a 68 3e d5 c3 84 bf b8 d9 a1 be 25 ef 08 bf
       0.22684553 -1.0372263 -0.3161142 -0.53489906
0002b0 19 89 23 3f 1c 90 2e bf 69 d8 1d 3f e2 92 1c 3f
       0.6388107 -0.68188643 0.6165834 0.61161625
0002c0 93 eb 0c bf 97 95 09 bf d0 f5 dd be f1 de db be
       -0.5504696 -0.5374388 -0.43351603 -0.42943528
0002d0 80 48 89 3c 30 43 0b bd c3 31 c8 3e 43 b7 0e 3f
       0.016758204 -0.033999622 0.39100465 0.55748385
0002e0 5c 00 4a 3e 1e 58 02 bf d7 c2 00 bf de 18 74 3e
       0.197267 -0.50915706 -0.502973 0.23837611
0002f0 04 1b b1 be f4 41 cf 3e 5f c7 ee be e3 4e fa 3c
       -0.34590924 0.40480006 -0.46636483 0.030555194
000300 2e 23 0b 3f eb f2 ce bd 9d 92 f2 be 60 3a 4e 3d
       0.54350555 -0.10104927 -0.47377482 0.05034864
000310 11 66 30 bf a9 3c b5 3d b9 ec c4 3b 39 bf ff be
       -0.6890574 0.08849461 0.006009665 -0.4995058
000320 f4 d9 86 3e cf a3 20 be 51 6c 17 3f b1 ec ce 3d
       0.2633816 -0.15687488 0.5914965 0.10103739
000330 83 c7 ae 3e af d3 9f 3e 3f b5 34 be b4 39 45 3f
       0.3413659 0.3121619 -0.17647265 0.77041173
000340 2a f6 95 3d 88 12 0f 3f b8 bb d0 bd 78 ac dd 3d
       0.07322343 0.5588765 -0.101920545 0.108239114
000350 f0 e9 38 3f f7 85 fc 3e f8 31 de 3d 92 94 93 3c
       0.7223196 0.49320957 0.108493745 0.01801518
000360 df 68 9b 3e c9 9d 26 bf 69 d5 17 3d 64 fd 74 bf
       0.30353448 -0.6508451 0.03706876 -0.95699143
000370 71 ec 8e bc 70 8f 1d 3f 37 c2 37 3e 4b eb 90 be
       -0.017446728 0.61546993 0.17945181 -0.28304514
000380 da 68 b0 3d e8 66 6c 3e d3 f7 0a 3f e0 33 b9 be
       0.08613749 0.2308613 0.542844 -0.3617239
000390 c4 38 0e bf 3c 35 84 be d8 0c 78 be 95 aa 8f 3d
       -0.5555537 -0.25821865 -0.2422365 0.07014958
0003a0 ec 5d af 3e f6 8a 1d bf 97 45 e6 be 48 2c 34 3f
       0.34251344 -0.6154016 -0.44974968 0.7038007
0003b0 4c 24 0c be 5c 56 5d 3e 39 5d 18 3f ee e8 b4 be
       -0.13685721 0.21614975 0.59517246 -0.3533396
0003c0 e4 e5 00 bf 89 be 2a 3f 5e 12 8a be 90 da 9e bd
       -0.50350785 0.66696984 -0.26967138 -0.07756531
0003d0 70 17 9d be 2d 61 55 3e ef fa fc 3d 4b d0 82 3d
       -0.30681944 0.20837851 0.12352549 0.06387385
0003e0 67 b2 95 3e df a5 a7 3e 7b b6 08 bf 9c f3 29 3f
       0.29237673 0.32743737 -0.53403443 0.66387343
0003f0 07 21 df be c6 91 18 bf 91 43 9e be 68 44 29 3e
       -0.43579885 -0.5959743 -0.30910924 0.16530001

lays.0.bias f4 [256]
000000 1d cb e5 be 54 2a c0 3e db f3 33 bf ca b4 2f 3f
       -0.44881526 0.37532294 -0.7029397 0.6863524
000010 7a bb 43 bc 12 cc 95 3d b4 f2 52 bc a1 46 2a bf
       -0.011946553 0.07314314 -0.012875248 -0.6651402
000020 c8 85 73 be 87 49 ab 3c eb da c1 bd b4 6c 2a be
       -0.23781502 0.020909084 -0.094655834 -0.1664303
000030 3a 49 2c 3f 82 71 67 3e b9 67 63 bd 9d 7a c0 3e
       0.67299235 0.22601894 -0.05551884 0.37593547
000040 98 da 2b bf b7 ae 07 3f 96 6f 21 bf a0 6d 81 be
       -0.6713042 0.5300097 -0.6306089 -0.2527895
000050 6d b4 29 3e 94 b8 0a be 93 e8 ea 3d a7 cc 00 3f
       0.16572733 -0.13546973 0.11470141 0.50312275
000060 f3 19 10 3f 1f ff 97 be 05 18 0c bf f5 4c d2 3e
       0.56289595 -0.2968683 -0.5472415 0.4107434
000070 0d 5c 32 bd 16 1f fe 3e ee e1 02 3f e4 b2 0a bf
       -0.043544818 0.49633092 0.5112599 -0.54179215
000080 a1 de 0d 3f 1a b6 02 3d 78 ae ca be ca ce 0f bf
       0.5541783 0.031911947 -0.39586234 -0.5617491
000090 bb df d3 be 77 0d 32 3e ac 36 92 3e 22 56 f6 be
       -0.4138163 0.17387949 0.28557336 -0.4811259
0000a0 40 03 37 3e 3c 56 84 be 3b 7c aa bd 67 8f 3e 3d
       0.17872334 -0.25847042 -0.08324476 0.046523478
0000b0 04 85 b1 3e ce 18 5a 3e 4a 95 98 bc 1e ed 90 3d
       0.34671795 0.21298525 -0.018625874 0.070764765
0000c0 69 c9 a7 be 54 18 16 bf ad 73 8f 3e db 28 ac bd
       -0.3277085 -0.5863087 0.2801794 -0.0840623
0000d0 f8 48 d0 3e dc 85 a6 3e 6c 4d 1a 3f 62 a9 f8 3e
       0.4068067 0.32524002 0.60274386 0.4856673
0000e0 35 64 aa 3d 2c c9 54 3c 21 87 7e 3e 10 5c e8 3e
       0.08319894 0.012987416 0.24856235 0.45382738
0000f0 4c f9 9c bd e6 ad 0f 3f dd 28 df bd e0 45 18 bf
       -0.07664737 0.5612472 -0.10896466 -0.5948162
000100 b3 b4 87 be dd 3a 2d bf 1a a1 0b bf ab 30 77 bd
       -0.2650505 -0.67667943 -0.54542696 -0.060349148
000110 4f 3f e0 3e 64 6a 0d bf 19 f0 15 bf f1 74 6b bd
       0.437983 -0.55240464 -0.58569485 -0.05748457
000120 79 4b e5 3e 92 49 b1 be 79 e9 ff be ed 4c 0f 3e
       0.44784144 -0.34626442 -0.49982813 0.13994189
000130 6d d6 0b 3e 69 b7 2e bd eb 54 b1 be 19 1b 2a 3f
       0.13656016 -0.042655382 -0.346351 0.664476
000140 40 9c c2 3e 25 23 9f 3e 1a 07 4a be 75 82 02 3f
       0.38009834 0.310815 -0.19729272 0.5098031
000150 e0 f5 81 be ae f4 23 3f 85 4c fe be d2 b5 cb 3e
       -0.253829 0.64045227 -0.49667755 0.39787155
000160 f1 94 10 3f 83 02 e8 3e d4 70 57 be e1 58 13 3f
       0.56477267 0.45314416 -0.21039134 0.57557493
000170 6b e7 c9 3e 60 08 39 bd a0 cb 1a be c4 9c 88 3d
       0.3943437 -0.045174003 -0.1511674 0.06670526
000180 83 c7 42 be cb 49 32 bf ef c5 1c 3f 94 e5 83 3e
       -0.1902142 -0.6964385 0.6123952 0.25761092
000190 5f 77 dd 3e ca a5 20 bf 2a 7f b6 be e7 aa d0 be
       0.43255135 -0.62752974 -0.35643893 -0.40755388
0001a0 51 cc 8b 3e ae 18 db be 9e 2e 42 bf 53 d9 ec bd
       0.2730432 -0.42792267 -0.7585238 -0.11564889
0001b0 d7 c6 86 be c0 60 70 bd ca d1 ae be b8 cb da 3e
       -0.26323578 -0.058686018 -0.3414443 0.4273355
0001c0 4e f0 f7 3e f0 58 04 3f c9 37 a5 3d aa 22 f0 3e
       0.48425525 0.5169821 0.08067281 0.46901447
0001d0 17 f5 cb 3e de cf b6 3e c7 f7 7e 3e 50 ee c7 3c
       0.39835426 0.35705465 0.24899207 0.024405628
0001e0 ce 7e fa be 28 ed 0a bf c3 17 43 bd af 86 02 be
       -0.4892487 -0.5426812 -0.047630083 -0.1274669
0001f0 76 ea ad be 12 de 85 be 75 76 d1 3e b7 2a ee 3e
       -0.33967942 -0.2614599 0.40910688 0.46516964
000200 eb ec 13 3f 12 9d 29 bf 60 10 08 3e ec e1 12 bf
       0.57783383 -0.66255295 0.13287497 -0.5737598
000210 36 fc 86 3e 31 6f d7 bd bc 2a ad bb 69 fc cf 3d
       0.26364297 -0.10519255 -0.0052846354 0.10155565
000220 ff 53 81 3e 71 5d 4b 3e 5f d9 51 bd 9f f5 c7 3e
       0.25259396 0.19859864 -0.05123269 0.39054582
000230 23 b4 e7 bd 03 c8 20 3d 47 f8 69 be 97 c1 6b bc
       -0.11313655 0.039253246 -0.22848617 -0.014389417
000240 4d 18 00 3d ee c2 98 3e c8 64 5b be 8c 68 24 3f
       0.031273175 0.2983622 -0.21425164 0.64222026
000250 33 6e 97 be d2 f2 95 3e d5 38 e8 be 1a 80 7c be
       -0.29576263 0.2928682 -0.4535586 -0.24658242
000260 68 9e e9 3e ed af 34 3f d5 09 ee be 2c 26 25 bd
       0.45628667 0.7058094 -0.46491876 -0.040319607
000270 8c 3f 16 bb 3c d6 02 bd a0 a7 85 be 5a 98 08 3e
       -0.002292606 -0.03194259 -0.2610445 0.13339368
000280 73 ce cf 3e 7e 36 bf 3c e9 4e 8e bd a7 e9 24 3f
       0.40587196 0.023341414 -0.06948645 0.64419025
000290 89 ef 23 3f 77 d6 1b 3f 9a ca 33 bf a8 19 04 bf
       0.64037377 0.6087412 -0.7023102 -0.5160165
0002a0 bd 8e 28 3f d1 cc b2 be 61 93 1b bf a1 4a 5c 3e
       0.658428 -0.34921888 -0.6077176 0.21512844
0002b0 1e 2e 11 3f 56 82 2b 3f 2a 6c 09 3f 47 14 ed 3e
       0.56710994 0.6699575 0.5368067 0.46304533
0002c0 ba 84 1a 3f 16 e0 93 3e f1 97 b0 3e 48 09 7a 3e
       0.60358775 0.28881902 0.34490922 0.24417603
0002d0 ba 90 f2 be c7 54 f1 3e 18 9d 0c 3f 66 04 1d 3e
       -0.47376043 0.47134992 0.54927206 0.15333709
0002e0 cc a9 bc be 65 1d 06 3f 94 dc 06 3f 65 11 d7 be
       -0.36848295 0.523886 0.52680326 -0.42005458
0002f0 0a 32 01 bf 27 8b 01 3f 15 11 b9 be 88 d1 84 be
       -0.5046698 0.50602955 -0.36145845 -0.2594111
000300 d4 ce 9e be f1 f2 cb 3e b6 f7 9b be 6e 56 00 bf
       -0.31017172 0.39833787 -0.30462426 -0.5013188
000310 d7 e0 25 bf cc 7c 79 3d 0d 93 e0 be d5 1b 8e 3e
       -0.64796203 0.06091003 -0.4386219 0.2775561
000320 1e ef 75 be 0e 58 a4 be 6a c3 a3 3e b2 b7 1d bf
       -0.24016997 -0.3209843 0.31985027 -0.6160842
000330 0f 17 16 3f 52 e4 35 be b9 f2 cc bd 36 96 24 3f
       0.58628935 -0.17762879 -0.10007233 0.64291704
000340 b2 71 63 be 2c f8 bc 3d d7 bc c6 bd 99 85 2f bd
       -0.2221134 0.092270225 -0.09703987 -0.042852018
000350 dc 28 b2 3d 2d 85 fc 3e 9e 61 4e 3c d5 70 27 be
       0.086991996 0.49320355 0.012596516 -0.16351636
000360 92 e7 ee 3e 21 ff 79 3e 0f 70 ee be 09 2f f7 3e
       0.4666105 0.2441373 -0.4656987 0.48278072
000370 9e 74 1d 3f 85 7e 31 bf d0 22 fc 3d b5 50 37 bd
       0.6150607 -0.6933368 0.123113275 -0.044754703
000380 a1 1e 7a be ce b0 b7 3e 92 b1 8b be 24 bb 15 3f
       -0.24425747 0.3587708 -0.27283913 0.5848868
000390 11 36 bc bd bb d0 8c 3e 0e f2 fa 3e 51 31 b1 be
       -0.0919 0.27503 0.49012798 -0.34607938
0003a0 d4 9a 6b be 25 f5 a3 be 25 01 4e 3e 5f 83 94 3e
       -0.23008281 -0.32022968 0.20117624 0.29006478
0003b0 d8 08 96 be 9e a6 0d be 3a d9 cb 3e 4f c2 25 3f
       -0.29303622 -0.1383309 0.39814168 0.64749616
0003c0 a8 7b 43 3e d7 fb 01 3f e8 79 0b bf 0a 8f 6d bc
       0.1909014 0.507749 -0.5448289 -0.014499435
0003d0 14 12 16 3f 6c 9d 2d bd a4 bf 0c bf 4d ca fc be
       0.58621335 -0.042386457 -0.5497992 -0.49373093
0003e0 5a 45 17 be 1e b9 5c be 74 de c1 bd e1 bb 11 bf
       -0.1477255 -0.21554992 -0.09466258 -0.56927305
0003f0 f4 4c f6 be 1a 75 d0 3d 7f 88 05 3f de 81 6f 3e
       -0.48105586 0.10178585 0.521614 0.23389384

lays.1.weight f4 [256, 256]
000000 b7 08 a6 3e f9 f2 c9 3c 50 a5 45 3d 1b d6 53 bd
       0.32428524 0.024651991 0.048253357 -0.05171786
000010 94 fb c9 3c 23 4c 98 3d 11 57 af bc 0c d9 6c bd
       0.024656095 0.07436397 -0.021403821 -0.05782418
000020 92 37 03 bd d7 3e 88 3d b3 63 3b 3d 0d c4 19 bd
       -0.032035418 0.06652611 0.045749377 -0.037540484
000030 f2 00 b3 3a 17 ad 04 3d 75 90 48 3d 14 a1 bb 3b
       0.0013656898 0.032391634 0.04896589 0.005725989
000040 60 ed 35 3c 5b 25 9e 3d a4 f5 46 bd 32 2e 28 3d
       0.011103958 0.07721969 -0.048574105 0.04105968
000050 f1 52 2e bd 99 02 ac 3c f5 3a e5 3b 78 83 38 bd
       -0.042559568 0.020997332 0.0069955536 -0.045047253
000060 f4 41 7d bd 3d 61 cb 3d ce a6 6d 3d bd 71 d4 bd
       -0.061830476 0.09930656 0.058020405 -0.10373256
000070 01 34 8c bd be 5b 37 3c 60 48 15 3d 0c 47 c6 3c
       -0.068458565 0.011191307 0.036445975 0.0242038
000080 32 71 b5 bd 24 3a 32 3e 77 49 ad 3e 84 20 55 3d
       -0.08859481 0.17404991 0.33845112 0.052032962
000090 20 6f 5e bb 18 3b ed bc 59 42 b5 bd 0c 6a 8e bc
       -0.0033940747 -0.028958842 -0.088505454 -0.017384551
0000a0 76 c5 3c 3d 75 56 29 3d 1d e9 a8 3d 70 8b 0f 3e
       0.04608675 0.041342217 0.08247588 0.14018035
0000b0 eb 95 d1 bd c8 6c 77 3d 8c 33 4f 3e 4f a2 ac 3d
       -0.10233673 0.060406476 0.20234507 0.084293954
0000c0 7e 12 bb bc e7 db 96 3d a5 d4 1e bd 3d 3a fa 3d
       -0.022835966 0.07366162 -0.038777012 0.12218139
0000d0 31 2a a3 bb 4f c7 84 3c f1 05 b9 bc b8 1a fb bc
       -0.004979395 0.016208319 -0.02258584 -0.030652389
0000e0 25 45 59 3d b7 fd 51 3d c0 e5 a4 bc 16 85 41 bd
       0.053044457 0.051267352 -0.020129085 -0.04724606
0000f0 b2 89 94 3d fc 22 2e 3d 03 92 3e 3d a6 88 37 3d
       0.07252826 0.042513832 0.046525966 0.044808052
000100 80 cb 13 bd e8 0f c2 3c 42 e9 0b 3d 11 ed e5 3d
       -0.036082745 0.023689225 0.034158 0.112268575
000110 ba d1 9d 3d 40 ac 76 3b 60 b8 ad 3d 85 17 f8 bc
       0.07706018 0.003763929 0.08482432 -0.030284652
000120 1a fe d9 bc 2b 26 2f 3e 14 4b be bc 4f e7 8a bc
       -0.026610423 0.17104404 -0.02322916 -0.016956
000130 06 0e 6a 3d f9 a4 66 bc 30 df f8 bb 37 93 24 3d
       0.05714228 -0.0140774185 -0.0075949654 0.040179458
000140 04 33 7a bc 3d d8 73 bc 88 3a c0 3d ae 88 a5 bd
       -0.015270952 -0.014883098 0.09386164 -0.0808271
000150 de b4 cf bc 8f f9 80 3c ab b7 c5 bc 97 f0 e0 3b
       -0.025354799 0.015743999 -0.024135431 0.006864618
000160 60 58 39 3d d2 3b 07 3d 12 07 40 3d 65 b8 e8 bc
       0.045250297 0.033016033 0.046881743 -0.028408239
000170 ca 40 e6 bc ea 0b b7 3d 0e ca 89 3d 54 f9 78 3d
       -0.028107066 0.08937819 0.06727992 0.060784653
000180 c2 69 83 3b 00 bb be 3a c5 44 a7 3d 1b c4 d1 3c
       0.00401041 0.001455158 0.081674136 0.025606206
000190 31 1b 9d bd a6 4b 31 3d 84 24 89 3e 56 28 10 3e
       -0.07671202 0.043285035 0.26785672 0.14077887
0001a0 e9 b6 7a 3c 00 f0 e1 37 21 7d ca 39 b6 73 f3 bb
       0.015302398 2.6933849e-05 0.0003862167 -0.0074295653
0001b0 cc ab 19 bc 29 a2 63 3d 91 1e 9b 3e 11 b2 4b bd
       -0.0093793385 0.05557457 0.30296758 -0.049730364
0001c0 9f 67 60 bd 7b 0b b1 bd 61 eb ad 3c 12 a3 bb 3c
       -0.05478632 -0.08644768 0.021230401 0.022904906
0001d0 5f 5d 99 bd 7a b0 87 3c 54 08 90 3d ce 71 33 3d
       -0.07488512 0.016563643 0.070328385 0.043809704
0001e0 5b bc 32 3d 54 d0 d8 bc ec 3e d8 3d 75 ed 4c bc
       0.04363666 -0.026466526 0.105588764 -0.012507786
0001f0 f4 ea 86 3e 55 ca 80 3d f1 84 90 3d dc b7 6b 3d
       0.2635113 0.06288592 0.070566066 0.05754839
000200 32 b6 97 bc 14 3a 99 3c d4 83 e3 3d 14 06 a1 3c
       -0.018519495 0.018704452 0.111091286 0.019656219
000210 cd 52 15 bd 17 6c f9 3d f4 a5 fc 3d a2 55 91 3d
       -0.036455918 0.121788196 0.123363405 0.07096411
000220 e8 ff 5b bd 7a 9f 90 bd ae a9 b9 3d 35 bd e2 3c
       -0.053710848 -0.07061668 0.09065567 0.027678112
000230 4b 49 02 3d b3 e4 b1 bd 88 7e 44 3e b7 52 c3 bd
       0.03180818 -0.08686199 0.19188893 -0.09537261
000240 19 e1 97 bd d9 93 a2 3d 5e aa fe 3d 24 bc 28 3d
       -0.07415981 0.07938356 0.12434839 0.04119505
000250 20 75 19 3c 89 34 83 3c 20 a1 bd bc 65 44 7e 3c
       0.009366304 0.016016262 -0.02314812 0.015519236
000260 3a 39 9d 3c f1 2b 15 bc de c8 2a 3d 51 7c f1 3d
       0.019192327 -0.009104715 0.041695468 0.117912896
000270 07 ae 80 3d 24 7a ee bb 42 67 2d bd b5 e2 9f 3d
       0.06283193 -0.007277744 -0.042334802 0.07806913
000280 f2 16 c9 3d dc d8 23 3e 38 e6 1f 3e c9 ff 33 3d
       0.098188296 0.16000694 0.15615165 0.043945108
000290 6a e2 06 bb a3 63 3d bd f0 f5 6b bd 75 fa a3 3e
       -0.002058173 -0.0462376 -0.05760759 0.3202702
0002a0 0f 0a 8c 3d 6f 67 fa 3d 74 fc 53 3d 32 02 97 bd
       0.06837856 0.1222676 0.05175443 -0.073734656
0002b0 19 9e 38 3d ee e8 c6 bb f8 7a 4d 3b a9 2c 7a 3d
       0.04507265 -0.006070248 0.0031353813 0.061077747
0002c0 b6 67 b8 3c 3f 59 52 3d 45 90 99 bc 62 3a 42 3d
       0.02251039 0.051354643 -0.01874555 0.04741896
0002d0 66 65 00 bd da 86 7b bd 08 44 3a bd f2 40 4e 3d
       -0.0313467 -0.0614079 -0.045475036 0.050354905
0002e0 2d 62 1f 3d f9 ab 7d bd 83 63 8a 3d 92 b4 4f 3d
       0.038911987 -0.061931584 0.067572616 0.050709315
0002f0 a8 43 8d bc bb 38 7f 3d 10 24 0a bd 9c 74 27 bd
       -0.017244175 0.06230996 -0.033725798 -0.04088269
000300 95 bd ce 3d 50 dd 59 bb 21 13 53 3d 58 bf a5 3c
       0.10094754 -0.0033243485 0.051531915 0.020232841
000310 7c 8a d8 bc a9 38 b2 bc b4 4d 58 3d c7 6c 44 bd
       -0.026433222 -0.021755533 0.05280848 -0.0479553
000320 40 58 6d 3d 25 8e 6e 3e 31 a8 7d bd 70 8f 67 3c
       0.05794549 0.23296411 -0.061927978 0.014133319
000330 07 31 8e bd d5 3d 99 3b 5f bb 4f 3d 4c 36 d0 bc
       -0.06942945 0.0046765604 0.0507158 -0.025416516
000340 d8 e0 9e 3e 2b 31 d7 3d 5e 62 15 3e 61 1a 44 3d
       0.31030917 0.10507425 0.14588305 0.04787672
000350 42 b5 88 3d 14 f7 02 3d a7 b4 16 3d 3d 50 f1 3d
       0.06675197 0.031973913 0.036793377 0.11782882
000360 22 42 85 3c 85 f6 62 3d 86 8d fa bc 00 7f 2c bd
       0.016266886 0.05541088 -0.030585062 -0.042113304
000370 98 b7 e0 bd bd ef 43 3b ee 13 93 bd 0c 38 cb 3d
       -0.10972518 0.0029897534 -0.07181536 0.099227995
000380 e3 22 cd 3c 23 dd 36 be bd 98 f3 3d f2 d1 86 bc
       0.02504105 -0.17857794 0.11894367 -0.016457532
000390 1f 8a 16 3e b1 33 7d 3c dc d5 4d ba 1a ab 9c 3c
       0.14701127 0.015454219 -0.0007851997 0.019124556
0003a0 28 15 23 3d aa c9 43 3e 6c f8 21 3d 7d 38 31 bc
       0.039815098 0.19119897 0.039543554 -0.0108166905
0003b0 a0 62 20 3e eb 25 cf 3d eb d1 a6 3c a5 c2 8a bd
       0.15662622 0.10114654 0.020363769 -0.06775407
0003c0 2b f4 4e 3d 67 b2 01 3d b3 28 03 bc 33 c3 fd 3c
       0.050525825 0.03166428 -0.008005309 0.030976867
0003d0 99 4a 89 bd 58 28 97 3d 86 5f 79 3e 5a 04 15 bd
       -0.067036815 0.07380742 0.24352846 -0.036381103
0003e0 3e a0 02 3e a0 bc 91 3d d9 08 77 3d 4b 22 d8 3d
       0.1275644 0.071160555 0.060311172 0.10553416
0003f0 5c 5a ee 3c f1 73 5b 3c b8 fc 8b bd d8 ad cc 3b
       0.029095821 0.013394342 -0.06835312 0.0062463097

lays.1.bias f4 [256]
000000 4a e4 3b 3d d5 f5 07 bd 3c 4f e1 3c 3d e7 15 bd
       0.04587201 -0.033193428 0.027503602 -0.03659748
000010 14 f5 80 3d d0 38 fd 3c 4b ba 26 bd 7d c2 46 3d
       0.06296745 0.03091088 -0.040705007 0.048525322
000020 59 30 1b bd f6 02 dd bc 3a a9 37 3d 42 bf 1f 3d
       -0.037887905 -0.026978951 0.04483912 0.039000757
000030 e8 80 c6 bc 3d 1c 4b 3d c2 a0 9f bc d3 cb 58 3d
       -0.02423139 0.049587477 -0.019485835 0.052928757
000040 31 a6 f5 bc c6 55 66 3c e9 da b0 3b 31 75 aa 3c
       -0.029986473 0.014058536 0.00539719 0.020807834
000050 ab 99 5e 3d 45 c8 14 bd 96 c6 71 bc 1c 09 79 bc
       0.054345768 -0.036323804 -0.014756819 -0.015199926
000060 48 4c 28 bd b2 83 da 3c 1f eb 44 bd f1 e5 bf 3c
       -0.041088372 0.026674125 -0.04807579 0.023425074
000070 e0 20 0b 3c 52 95 18 3b 90 c8 ab bd d2 8e 83 bc
       0.008491725 0.0023282361 -0.08387864 -0.016059313
000080 6a 66 c8 3c e5 b8 1f bd 0b 94 14 bd 41 7a ee 3c
       0.024462897 -0.03899469 -0.036273997 0.02911103
000090 6e cf b1 bc ef b1 59 bd 7c 0e 86 bc a2 8d 94 bb
       -0.021705355 -0.053148206 -0.016364329 -0.0045334855
0000a0 0d e5 98 bc dc de 4d 3d 70 53 86 3c 9b 02 36 bd
       -0.018663907 0.050261363 0.016397208 -0.04443608
0000b0 99 08 87 bd fb e7 1e bd 2a 68 18 3d e9 99 8d 3d
       -0.06593437 -0.038795453 0.037208714 0.06914122
0000c0 30 dc f6 3c 39 66 01 3c b1 bc a1 3c 9d 87 41 3d
       0.03013429 0.007897907 0.019743295 0.04724847
0000d0 67 89 95 bc dd 4b 54 3d 64 26 e6 bc ed 1c ac bc
       -0.018253995 0.05183016 -0.028094478 -0.021009887
0000e0 8f c1 7f 3d 66 1b 86 3c f5 5b 8d bd 3f 7e d4 bc
       0.06244045 0.016370486 -0.06902305 -0.025939105
0000f0 8d de 23 bd 16 6d 6e bd 81 f6 01 3d 7e ee 1c bd
       -0.040007163 -0.0582095 0.031729225 -0.03831338
000100 45 70 16 bd 53 28 84 3c fc 28 61 bc b4 d7 42 3d
       -0.036728162 0.01613251 -0.013742682 0.04756899
000110 cd 32 48 3d 2a 81 84 3d bd 51 18 3d e0 d9 5e 3d
       0.048876572 0.064699486 0.037187327 0.054407
000120 a4 a4 c2 bc 87 14 54 3d 2f 1b 33 bd de 5b 48 3d
       -0.023760147 0.05177739 -0.043727096 0.048915736
000130 bb 9d b1 3c fd e3 86 3c 49 0e 61 3d 30 d7 8e 3d
       0.021681657 0.016466135 0.054945264 0.069746375
000140 b0 92 e1 bb 20 2e 49 3d c0 24 25 bd 57 02 4f 3d
       -0.0068839416 0.049116254 -0.04031825 0.05053934
000150 28 f3 5b 3d c8 70 6a bd be cd 83 bc ea 32 d5 bc
       0.05369869 -0.057236463 -0.016089316 -0.026025254
000160 5a b5 51 bd e6 88 81 3d f2 52 51 bd 0b 3a 1f 3d
       -0.05119834 0.063249394 -0.051104493 0.038873713
000170 f6 b1 49 bd 16 75 8c 3c 5b e1 a9 3c 3b e2 63 3d
       -0.049241982 0.017145675 0.02073734 0.055635672
000180 24 96 67 bd 5d 04 23 3d 6a 7a 28 bd 79 c6 06 3d
       -0.05653967 0.039799083 -0.04113237 0.032904122
000190 1a 71 ed 3c 3e 74 2f bd f9 15 09 3d 26 7f bd bc
       0.028984595 -0.042835467 0.03346822 -0.023131918
0001a0 6b 24 1d bd 6a e3 7d 3c d9 c5 2d 3d 69 82 2a 3d
       -0.03836481 0.015496114 0.04242501 0.041628275
0001b0 c7 bb cd bc 41 2a 2e 3d cd 57 77 3d 89 fc 2e bd
       -0.025113953 0.042520765 0.060386468 -0.042721305
0001c0 3a 6a 5e bd 45 9b 0d 3d 4d 30 35 bd 22 91 90 3c
       -0.054300524 0.034571905 -0.044235516 0.01764733
0001d0 57 22 9f bc 00 89 25 3a bc 59 72 bd c0 e9 15 3d
       -0.019425554 0.0006314665 -0.05916761 0.036599874
0001e0 3f 59 70 3d 7c c2 78 bd 43 30 85 3d 2a 4e fd bc
       0.05867886 -0.06073235 0.06503346 -0.03092106
0001f0 52 0a 8b 3d 03 a8 46 3d 0b 78 3b 3d e4 56 06 3d
       0.06789078 0.048500072 0.04576878 0.03279771
000200 b8 48 5c 3d 68 e4 a8 3a 59 66 29 3d e3 ec b6 3b
       0.053780288 0.0012885453 0.041357372 0.0055824383
000210 a7 76 86 bd 76 3d c9 3c b1 31 d5 bc 13 c0 ff 3c
       -0.065656 0.02456544 -0.026024671 0.031219518
000220 84 d1 82 bd 31 45 36 bc 9a 1c 4f 3c 9e df e8 3c
       -0.06387618 -0.011124895 0.0126410965 0.028426941
000230 93 89 1d 3d b2 38 c8 3c cb 6c 28 3d ff 39 2f 3c
       0.03846128 0.024441097 0.041119378 0.01069498
000240 6a 36 33 3b e8 f7 5f bd 16 86 14 bd fe d5 ef bc
       0.0027345666 -0.05467978 -0.036260687 -0.029276844
000250 6e b8 61 bd b4 bb a4 3c c9 10 88 bc 79 25 ef 3c
       -0.055107526 0.020109035 -0.016609566 0.029192673
000260 79 3c 46 bd 40 95 67 bd 37 3d aa 3d d5 6b 9d 3c
       -0.048397515 -0.05653882 0.08312457 0.019216457
000270 c8 35 c4 3c fc 69 0b 3c f4 36 79 bd 38 07 8c 3d
       0.023951426 0.008509155 -0.060843423 0.06837314
000280 3a fd 40 3c b8 4a 4a 3c 7c 1e 3b bd 33 58 1f bd
       0.011779124 0.012346916 -0.04568337 -0.038902473
000290 a4 a6 24 bc 8a b8 8b bd a8 37 f2 3b 30 99 4e 3d
       -0.010049496 -0.068223074 0.0073918886 0.05043906
0002a0 7d ea 5e 3b 14 3e 49 bd dc ab 1b 3d fd 0b 39 3d
       0.0034014278 -0.049131468 0.038005695 0.04517745
0002b0 f1 ae 51 bd 08 7b ad bc a0 8a e1 3c 28 a6 a0 bc
       -0.051192228 -0.02117683 0.027531922 -0.01961048
0002c0 8e 44 b4 3c ae 6d 28 3d b3 33 f2 3b 1e 13 4a 3d
       0.022005346 0.041120224 0.007391417 0.049334638
0002d0 5e 7d 51 bd 87 67 98 3d 41 f6 c8 bb 51 8a d6 3c
       -0.05114495 0.07441621 -0.0061328714 0.026189001
0002e0 87 fe 6c 3d 7f 0f 0a 3d a0 b5 1c bd 51 7a be 3c
       0.057859924 0.033706184 -0.03825915 0.023251684
0002f0 94 cf 98 bc a2 02 4e 3d 2b 46 9a b9 fd 6b fe bc
       -0.018653668 0.05029548 -0.00029425448 -0.031057352
000300 68 36 7a 3d d6 56 bf bc 30 dc 7b bc 24 8f 24 3d
       0.061087042 -0.023356836 -0.015372321 0.040175572
000310 9b 5c 4b 3d 2a 8e 79 bc 4f 30 62 3b dc 3c a4 bc
       0.049648862 -0.015231648 0.0034513657 -0.020048551
000320 d7 9f 4b 3d 19 09 c8 bc c2 ee 5a bd d4 12 1f 3d
       0.049712982 -0.0244184 -0.053450353 0.038836315
000330 71 5e 2b bd 8b d7 e6 3c 92 b9 4e 3d ab ac 86 3d
       -0.041838113 0.02817895 0.050469942 0.065759026
000340 45 c9 28 3d a0 a2 20 3d 3f 5e 89 bb 58 0c 4d bc
       0.04120757 0.03921759 -0.004192143 -0.01251515
000350 dd bf 00 3c e7 2f db 3c 23 8f 46 3d e8 46 48 3c
       0.007858244 0.02675624 0.04847635 0.012223937
000360 c5 0b 38 bd 3b b2 9f 3d d1 b0 9a bc e1 31 5e 3d
       -0.0449331 0.07797667 -0.01888314 0.054246787
000370 41 76 3e bd 2b 2c 0b 3d e9 fc 7b 3d 90 f5 0f bd
       -0.046499494 0.03397767 0.06152049 -0.035146296
000380 28 6d a0 bc 8d ff ab bd 37 8c 79 3d e2 57 68 3d
       -0.0195833 -0.08398352 0.060924735 0.056724437
000390 e4 0e 97 3b 53 13 0f bd b3 40 92 3d 63 0a 21 bd
       0.0046099294 -0.03493054 0.07141247 -0.039316546
0003a0 1f 8b 15 bd 4a d6 13 3d 16 d0 7b 3b 99 9e ff bc
       -0.03650963 0.036093034 0.003842359 -0.031203555
0003b0 d1 99 f9 3c 4a 3c 34 3d d0 e0 ab 3b d3 98 86 bc
       0.030468853 0.04400281 0.0052453056 -0.016430294
0003c0 9e 71 0d bd 70 ae b3 bb 18 4d 36 3c 7a c0 27 bd
       -0.034532182 -0.005483441 0.011126779 -0.040955044
0003d0 12 3e c7 3c 97 95 68 3d 9b 74 5d 3d 64 93 06 3b
       0.02432159 0.056783285 0.05406628 0.002053463
0003e0 22 5f 22 bc 72 9a 33 bd 00 69 7f 3d be c7 f4 ba
       -0.009910377 -0.043848462 0.062355995 -0.001867525
0003f0 47 7a f2 3c a5 23 b2 bd 7b ee 70 3c 7f 54 24 bd
       0.029599322 -0.08698205 0.014705296 -0.040119644

lays.2.weight f4 [2, 256]
000000 20 6a 04 3e d5 60 c4 bd 5f ed a2 3d 90 68 06 bd
       0.12931108 -0.09588782 0.07955431 -0.032814562
000010 b4 46 93 3d 04 68 c4 bc 15 a4 1b be a6 32 aa bd
       0.0719122 -0.02397538 -0.15199311 -0.08310442
000020 22 3c 5e bd e7 4a b9 3d d2 02 2c 3d ad b0 0c 3d
       -0.054256566 0.090474896 0.041994877 0.03434818
000030 9e 74 11 3d b9 41 75 3d b0 50 09 bd 14 e9 95 bd
       0.035511605 0.05987713 -0.033524215 -0.07319847
000040 69 31 01 3e 82 47 15 3e c1 79 d6 bd f7 c5 3c be
       0.12616505 0.1457806 -0.104724415 -0.18434893
000050 2b 7e 04 3d 99 ed 0f 3e c8 ba ae bc 32 02 16 3d
       0.032346886 0.1405548 -0.021329299 0.036623187
000060 5e b8 08 3e aa ca cf 3d 15 6d 60 bd b7 08 d5 bd
       0.1335158 0.10146077 -0.05479153 -0.10402053
000070 72 e6 47 bd fe 19 05 3e 0a 63 88 bd ae 1c c7 3d
       -0.048803754 0.12998196 -0.06659515 0.09722267
000080 7b 53 d0 3d 12 5b 1d bd ab 0c a5 bd 93 7b cd bd
       0.10172173 -0.03841693 -0.08059057 -0.100333355
000090 c6 72 0d be f0 50 6e bd 07 62 07 be 86 62 0e 3e
       -0.13813314 -0.058182657 -0.13220988 0.13904771
0000a0 b3 29 36 3d 90 32 a5 3b cf 70 ba 3d f5 07 ee 3d
       0.04447336 0.005041428 0.09103548 0.116226114
0000b0 f6 47 90 3c 5e de f8 3c c2 c8 0c bd 67 51 fb bd
       0.017612439 0.03037947 -0.034371145 -0.12271386
0000c0 e0 fd 6e 3b 1e 61 97 3d 77 80 42 bd ea 12 55 bd
       0.003646724 0.073915705 -0.047485795 -0.05201999
0000d0 26 80 41 3d 83 b4 bf bd 58 e2 f5 3a 9b a5 d1 3d
       0.047241352 -0.09360602 0.0018759472 0.10236665
0000e0 72 a4 ba bd 16 78 07 be f3 78 5b bc 22 c2 e7 3d
       -0.09113397 -0.13229403 -0.013395536 0.11316325
0000f0 3e 2a 96 3d a4 59 52 39 84 50 1b bc c5 e1 6b 3d
       0.07332276 0.00020060554 -0.009479646 0.057588357
000100 94 98 a7 3d 1c 70 d1 bd 31 db 05 be 74 a0 3c bd
       0.08183399 -0.10226461 -0.13071896 -0.046051458
000110 a3 f4 c4 3d 2c f9 33 bd 2f f1 cd bb 71 66 77 bd
       0.09616973 -0.0439388 -0.006284855 -0.06040043
000120 0d d3 b8 3d ed 67 f9 3c a0 bb cc 3c 70 eb ca bd
       0.0902463 0.030445063 0.02499181 -0.099081874
000130 c3 31 c5 bd 08 fc a5 bd 1e 2e db 3d 5f 5b cb bd
       -0.09628632 -0.08104712 0.107021555 -0.09929537
000140 a6 92 7b bd 9a 62 a4 3d 0f fe fb bc 74 e9 c5 3d
       -0.06141915 0.08026619 -0.030760793 0.09663668
000150 5e fc 81 3d 8d ce 0a be 2b ac ad 3d 1f c6 46 bd
       0.06346963 -0.13555355 0.08480104 -0.048528787
000160 1f bb f5 3d 82 a0 c3 3d 34 d5 9a bd 1d d6 96 bd
       0.11998581 0.09552099 -0.075601965 -0.073650576
000170 c9 10 90 bc dd d1 23 bd 64 6d 5c 3c 56 5c eb bd
       -0.017586129 -0.039995063 0.013453815 -0.11492221
000180 86 4d 7a 3d 60 ae 8a 3d c4 41 09 3d 24 f3 14 bc
       0.06110909 0.06771541 0.033509985 -0.009091172
000190 52 a5 e3 3d 60 59 fc bb 51 7a a4 bd f4 06 d6 3d
       0.11115517 -0.007701084 -0.080311425 0.10450545
0001a0 a6 b1 e7 3d 9e b4 f8 3d 15 ad c6 bd 5a 86 03 be
       0.113131806 0.12143825 -0.097009815 -0.1284422
0001b0 2d 6e 6e bd 6e d7 cd bd df 19 1c be b2 ac 9b 3d
       -0.05821054 -0.100508556 -0.15244244 0.076012984
0001c0 6e 88 94 3d 7e fe 5b bd da 56 04 be 65 b1 aa bd
       0.072525844 -0.0537095 -0.12923756 -0.083346166
0001d0 fc 5b 86 3d 80 ea 6f 3b 7d 7a 12 be 00 49 5b ba
       0.065605134 0.0036608279 -0.14304538 -0.0008365065
0001e0 c1 93 d5 bd 98 a6 07 3c 69 e0 d4 3d 18 fe 4f be
       -0.104285724 0.008279465 0.10394365 -0.20311773
0001f0 bc a7 0b 3e 5b 15 0b bd b7 94 92 3d f5 a6 9d 3d
       0.13638204 -0.033955913 0.07157271 0.0769786
000200 88 de 56 3d b7 52 64 3c 1a 0b 14 3e 14 94 18 3d
       0.052458316 0.013935736 0.1445736 0.037250593
000210 b1 2c 47 bc ae 2f 9f 3d f5 4f db 3d fc 03 50 39
       -0.012156651 0.07772766 0.1070861 0.0001983791
000220 06 16 b8 bc 0d 8b be bd 5a 6a 83 3d 6a cc fa bd
       -0.02247144 -0.093038656 0.06416769 -0.1224602
000230 99 c0 b7 3d c7 e1 d4 3c c5 13 0d be 39 d0 d8 bd
       0.08972282 0.025986565 -0.13777073 -0.1058659
000240 b2 ac 09 bb 81 43 00 3e 30 0f 67 bd ea 2e e9 bd
       -0.0021007475 0.1252575 -0.05641097 -0.11385901
000250 54 71 4f 3c 5d 3f 9c bd 9e 92 16 bd 2f 2e dc bc
       0.012661297 -0.07629273 -0.03676092 -0.02687749
000260 42 32 f4 3d 44 38 c2 bc 61 0a 04 be fe a5 ee bb
       0.119236484 -0.02370847 -0.12894584 -0.0072829714
000270 a6 66 91 bd a3 be 22 be e8 46 62 3c 32 f2 5a bd
       -0.07099657 -0.15893035 0.013810851 -0.05345363
000280 a4 5e 9a bd f1 c9 92 bd d8 2c 01 be 41 22 c4 3d
       -0.075375825 -0.071674235 -0.12614763 0.09576846
000290 e0 b2 ef 3d a1 47 db bd 33 f7 85 bd 58 3b b2 bd
       0.117040396 -0.107070215 -0.0654129 -0.08702725
0002a0 2d 5a d6 bd 6c cd b2 bc 19 84 81 3d e8 44 09 3d
       -0.104664184 -0.021826468 0.06324024 0.03351298
0002b0 74 4b 8a bc 9b 51 0d 3e 28 c2 85 bc 18 f6 1f be
       -0.016881682 0.13800661 -0.016327932 -0.15621221
0002c0 c6 06 00 be a1 a4 e3 bc de 33 33 3d 5f 4d bb bd
       -0.12502584 -0.027788462 0.043750636 -0.09145617
0002d0 59 03 05 3e 08 41 fd bd 49 57 c1 3c 88 ae 12 3e
       0.12989558 -0.12365919 0.023601191 0.14324391
0002e0 40 f6 13 3d 39 38 e5 bd ec 02 e2 3d 6f f1 f2 3d
       0.036123514 -0.11192364 0.110357136 0.11862456
0002f0 46 2b 05 be 27 bb c8 bd c6 84 46 bd e0 75 30 bd
       -0.13004789 -0.098013215 -0.048466466 -0.043081164
000300 80 79 86 3a 8e 57 23 3d 90 3f 6f bd 89 02 02 be
       0.0010259598 0.03987842 -0.058410227 -0.1269628
000310 7e fa 9d 3d 93 07 0d be 24 f7 c2 3d 20 0a 96 bb
       0.07713793 -0.1377242 0.095197946 -0.0045788437
000320 8e c2 b3 3d 7d db c1 bd 06 ea 1c bd 24 31 f2 3d
       0.08777343 -0.09465692 -0.03830912 0.11825779
000330 56 12 d8 3d 71 66 cc bd dd e1 1b be 7a 98 de bd
       0.10550372 -0.09980477 -0.15222879 -0.10868926
000340 4a 6d 40 3d dc 52 bb bd 93 a2 8f 3d 99 03 65 3d
       0.046979226 -0.091466635 0.070134304 0.055911634
000350 11 df 95 bd 9f be 8f 3c 0d b9 dd bd 10 d2 2c bd
       -0.07317937 0.01754695 -0.10826311 -0.04219252
000360 8d f0 b8 bd 6f e6 20 be aa 2e d5 3d 11 50 59 bc
       -0.090302564 -0.15712903 0.10409291 -0.013263718
000370 ac 98 b8 bd ab dc 17 3c 3b e3 c8 3c 0a ee 80 3c
       -0.09013495 0.00926892 0.024522414 0.015738506
000380 6c b4 d6 bc 11 52 e4 bd 30 7b c4 bd 57 0a 53 3d
       -0.026209079 -0.111484654 -0.09593809 0.051523533
000390 c9 bf d5 bd 9e 1f 1b 3e 2a 21 ea bd 48 70 f9 bc
       -0.10436971 0.1514878 -0.11432107 -0.030449048
0003a0 d0 03 65 bc c1 24 91 bb 2d f0 12 3c 8a 42 de 3d
       -0.01397796 -0.0044294302 0.008968395 0.10852535
0003b0 08 20 ac 3d 75 6a cf bc bd 3b 36 bd a5 a0 17 be
       0.08404547 -0.025319317 -0.044490565 -0.14807375
0003c0 9c 5d f7 3c 90 9d c3 bb f6 8b 94 bd 90 73 47 3c
       0.030196004 -0.0059697106 -0.07253258 0.012173548
0003d0 98 2b ee 3d ae 02 a5 bd 27 c4 a4 bd a1 01 04 bc
       0.116294086 -0.08057152 -0.080452256 -0.008057029
0003e0 ea 41 0a 3d 4d f3 53 3d 0d 19 67 3d 38 49 d9 3d
       0.033754267 0.0517457 0.056420375 0.106096685
0003f0 d5 93 5a bd b5 af 06 be 91 fd 08 be d7 47 47 3d
       -0.05336364 -0.13152964 -0.13377978 0.048652496

lays.2.bias f4 [2]
000000 9c 0f 8e 3c f8 1e c9 bb
       0.017341428 -0.006137725

l1.weight f4 [256, 2]
000000 c2 ed 4b bf 4c b9 36 3e 25 9c bf 3e fd de fe 3d
       -0.79659665 0.17844123 0.37423816 0.124448754
000010 18 35 54 be a8 7e 2a bf 8a 4b 03 3e f8 d7 24 bf
       -0.20723379 -0.6659951 0.12821785 -0.6439204
000020 e8 65 dc 3e 50 d2 bc 3e d7 52 7e 3d f8 f4 9e 3e
       0.43046498 0.36879206 0.06209072 0.3104627
000030 52 34 85 bb 15 39 17 bf fa 3f e0 be 34 04 88 be
       -0.004065075 -0.59071475 -0.4379881 -0.26565707
000040 a0 d6 b0 3d e7 24 ce be 57 44 7d bd f7 da 5a bf
       0.086346865 -0.4026253 -0.061832752 -0.85490364
000050 42 e4 0f bf de 65 be 3e 85 6b 17 3f 24 84 28 bf
       -0.5620767 0.37187093 0.59148437 -0.6582663
000060 97 3e ad 3e c8 7c 00 3f 3d 98 10 be c3 63 b9 3e
       0.33836815 0.501904 -0.14120574 0.36208925
000070 dc c8 a8 3e fa 45 da 3e af d7 4e be b1 6f e0 be
       0.32965744 0.42631513 -0.20199464 -0.43835214
000080 18 b0 f5 bd ba 52 db 3e 2e 09 41 be ba 28 70 3e
       -0.11996478 0.42836553 -0.18851158 0.23453036
000090 c0 33 f5 3c cd 74 d3 be d5 f4 9a 3e 9d 45 57 be
       0.029931903 -0.4130005 0.30264917 -0.21022649
0000a0 69 ca bf 3e 9d d6 e0 be ea 20 09 3f 48 8a 29 bf
       0.37459114 -0.43913737 0.5356585 -0.66226625
0000b0 78 ba 8f be 56 12 d2 3e 03 59 be 3e 3b 69 f6 bb
       -0.28071952 0.41029614 0.37177286 -0.0075198687
0000c0 1f fe 1c 3f 76 46 ef be af 5f dd be 0d 96 2d 3f
       0.6132526 -0.46733445 -0.43237063 0.67807084
0000d0 c0 1b eb 3d da fc b9 3e 50 ff 1d 3d 13 54 11 bf
       0.11479902 0.36325723 0.038573563 -0.5676891
0000e0 b9 59 8b 3e 37 17 22 bf 3d e4 aa bd cd 69 0f be
       0.2721689 -0.63316673 -0.08344314 -0.14005204
0000f0 61 a3 f3 be 03 66 b9 be 9e 54 2e 3f e0 98 12 bf
       -0.47585586 -0.3621064 0.68097866 -0.5726452
000100 71 01 d3 3e 84 29 8f be 57 21 df be f2 c9 d5 be
       0.41212037 -0.2796136 -0.43580124 -0.41755635
000110 b2 9c c0 3e 5c af b4 3e 10 01 74 be 78 96 93 3e
       0.3761955 0.3529004 -0.2382853 0.28825736
000120 20 07 16 3e 90 5e 85 3d cc 0e 6e be 1d 46 7c 3d
       0.14651155 0.06512177 -0.23247832 0.061590303
000130 bc 8e 4d 3e 02 5b e4 be b5 05 1e 3f 9d 60 aa be
       0.2007398 -0.44600683 0.6172746 -0.33276835
000140 26 a0 21 bf fa 0e 78 be 7d 19 3e 3f 67 85 4c 3e
       -0.6313499 -0.24224463 0.7425764 0.19972764
000150 25 85 87 3e ee f6 d8 3e e2 e4 1b bf dc 88 15 bf
       0.2646877 0.42375892 -0.6089612 -0.58411956
000160 fe d2 c1 3e 06 20 33 be fe 7c 12 3f 1d d3 2e 3f
       0.37856287 -0.17492685 0.5722197 0.68290883
000170 c7 99 30 be d3 a2 e4 bd 08 11 2f bf 01 ca 34 bf
       -0.17246161 -0.11163869 -0.6838536 -0.70620733
000180 7c c5 cc 3e 37 a1 95 bd b8 38 10 3f ff 9a 42 3e
       0.3999442 -0.0730614 0.56336546 0.19004439
000190 02 fb dc 3e b5 1d 27 bf 49 37 6d be b2 e1 71 3e
       0.43160254 -0.65279704 -0.23165621 0.23621252
0001a0 40 c6 d8 be 3f 1a ae be cd 08 fc be a0 8e 92 3e
       -0.42338753 -0.340044 -0.49225464 0.2862444
0001b0 54 a7 ac 3e be 29 03 bf ab 20 f0 be e6 98 33 be
       0.3372141 -0.5123557 -0.46899924 -0.17538795
0001c0 4a 3e 97 bb 8c 71 08 3f 9f a8 99 be 04 13 e8 bd
       -0.0046155797 0.5329826 -0.3001146 -0.11331752
0001d0 23 26 1d be 40 3a 93 be 64 4c 0f 3f db 7c 8f be
       -0.15346579 -0.2875538 0.5597594 -0.28024945
0001e0 66 85 e7 be 15 d5 9d 3e 97 8d c2 be 72 ca 16 bf
       -0.45218962 0.3082663 -0.3799865 -0.5890266
0001f0 9b 39 4d bf 3f ec 04 3f e4 a4 37 bf 42 37 04 3f
       -0.80166024 0.5192298 -0.7173598 0.51646817
000200 cf 38 b4 3e ff 9f c5 be 8f 12 5f 3e d0 86 29 bf
       0.35199592 -0.3859863 0.21784423 -0.6622133
000210 30 d6 ce 3e 25 73 13 3f 42 47 10 bf 04 67 94 3e
       0.40397787 0.5759757 -0.5635873 0.28984845
000220 d2 b4 12 bf 33 3e 4f be 40 1b 94 3c 12 fc c0 be
       -0.5730716 -0.20238571 0.0180794 -0.37692314
000230 88 fa 0d 3f c9 0c c8 3e ba 48 8d 3d 8d e8 b3 be
       0.55460405 0.39072254 0.06898637 -0.3513836
000240 3e 81 d0 3e f5 10 2d 3f 90 1a ab be 5d f2 37 3f
       0.40723604 0.67604 -0.33418703 0.7185419
000250 7d 10 eb 3e 3f a6 8a be 5a 34 95 3e b4 11 0b 3f
       0.45911017 -0.2707996 0.29141504 0.5432389
000260 4b 24 1c bf 43 82 e8 3c 6e c2 2b 3d f3 af d9 be
       -0.6099288 0.028382426 0.04193347 -0.4251705
000270 40 83 78 bd 60 99 67 3e 94 e3 dc be 7d 28 28 bf
       -0.060672045 0.22617102 -0.43142378 -0.6568678
000280 d7 e1 07 bd 1d bd a4 3e c6 96 bf 3d 42 69 16 bf
       -0.033174362 0.32175532 0.093549296 -0.5875436
000290 62 51 9b be 5b 6f ea 3e fb e6 46 3f 86 ac a1 bc
       -0.30335528 0.45788082 0.776962 -0.019735586
0002a0 32 4a 68 3e d5 c3 84 bf b8 d9 a1 be 25 ef 08 bf
       0.22684553 -1.0372263 -0.3161142 -0.53489906
0002b0 19 89 23 3f 1c 90 2e bf 69 d8 1d 3f e2 92 1c 3f
       0.6388107 -0.68188643 0.6165834 0.61161625
0002c0 93 eb 0c bf 97 95 09 bf d0 f5 dd be f1 de db be
       -0.5504696 -0.5374388 -0.43351603 -0.42943528
0002d0 80 48 89 3c 30 43 0b bd c3 31 c8 3e 43 b7 0e 3f
       0.016758204 -0.033999622 0.39100465 0.55748385
0002e0 5c 00 4a 3e 1e 58 02 bf d7 c2 00 bf de 18 74 3e
       0.197267 -0.50915706 -0.502973 0.23837611
0002f0 04 1b b1 be f4 41 cf 3e 5f c7 ee be e3 4e fa 3c
       -0.34590924 0.40480006 -0.46636483 0.030555194
000300 2e 23 0b 3f eb f2 ce bd 9d 92 f2 be 60 3a 4e 3d
       0.54350555 -0.10104927 -0.47377482 0.05034864
000310 11 66 30 bf a9 3c b5 3d b9 ec c4 3b 39 bf ff be
       -0.6890574 0.08849461 0.006009665 -0.4995058
000320 f4 d9 86 3e cf a3 20 be 51 6c 17 3f b1 ec ce 3d
       0.2633816 -0.15687488 0.5914965 0.10103739
000330 83 c7 ae 3e af d3 9f 3e 3f b5 34 be b4 39 45 3f
       0.3413659 0.3121619 -0.17647265 0.77041173
000340 2a f6 95 3d 88 12 0f 3f b8 bb d0 bd 78 ac dd 3d
       0.07322343 0.5588765 -0.101920545 0.108239114
000350 f0 e9 38 3f f7 85 fc 3e f8 31 de 3d 92 94 93 3c
       0.7223196 0.49320957 0.108493745 0.01801518
000360 df 68 9b 3e c9 9d 26 bf 69 d5 17 3d 64 fd 74 bf
       0.30353448 -0.6508451 0.03706876 -0.95699143
000370 71 ec 8e bc 70 8f 1d 3f 37 c2 37 3e 4b eb 90 be
       -0.017446728 0.61546993 0.17945181 -0.28304514
000380 da 68 b0 3d e8 66 6c 3e d3 f7 0a 3f e0 33 b9 be
       0.08613749 0.2308613 0.542844 -0.3617239
000390 c4 38 0e bf 3c 35 84 be d8 0c 78 be 95 aa 8f 3d
       -0.5555537 -0.25821865 -0.2422365 0.07014958
0003a0 ec 5d af 3e f6 8a 1d bf 97 45 e6 be 48 2c 34 3f
       0.34251344 -0.6154016 -0.44974968 0.7038007
0003b0 4c 24 0c be 5c 56 5d 3e 39 5d 18 3f ee e8 b4 be
       -0.13685721 0.21614975 0.59517246 -0.3533396
0003c0 e4 e5 00 bf 89 be 2a 3f 5e 12 8a be 90 da 9e bd
       -0.50350785 0.66696984 -0.26967138 -0.07756531
0003d0 70 17 9d be 2d 61 55 3e ef fa fc 3d 4b d0 82 3d
       -0.30681944 0.20837851 0.12352549 0.06387385
0003e0 67 b2 95 3e df a5 a7 3e 7b b6 08 bf 9c f3 29 3f
       0.29237673 0.32743737 -0.53403443 0.66387343
0003f0 07 21 df be c6 91 18 bf 91 43 9e be 68 44 29 3e
       -0.43579885 -0.5959743 -0.30910924 0.16530001

l1.bias f4 [256]
000000 1d cb e5 be 54 2a c0 3e db f3 33 bf ca b4 2f 3f
       -0.44881526 0.37532294 -0.7029397 0.6863524
000010 7a bb 43 bc 12 cc 95 3d b4 f2 52 bc a1 46 2a bf
       -0.011946553 0.07314314 -0.012875248 -0.6651402
000020 c8 85 73 be 87 49 ab 3c eb da c1 bd b4 6c 2a be
       -0.23781502 0.020909084 -0.094655834 -0.1664303
000030 3a 49 2c 3f 82 71 67 3e b9 67 63 bd 9d 7a c0 3e
       0.67299235 0.22601894 -0.05551884 0.37593547
000040 98 da 2b bf b7 ae 07 3f 96 6f 21 bf a0 6d 81 be
       -0.6713042 0.5300097 -0.6306089 -0.2527895
000050 6d b4 29 3e 94 b8 0a be 93 e8 ea 3d a7 cc 00 3f
       0.16572733 -0.13546973 0.11470141 0.50312275
000060 f3 19 10 3f 1f ff 97 be 05 18 0c bf f5 4c d2 3e
       0.56289595 -0.2968683 -0.5472415 0.4107434
000070 0d 5c 32 bd 16 1f fe 3e ee e1 02 3f e4 b2 0a bf
       -0.043544818 0.49633092 0.5112599 -0.54179215
000080 a1 de 0d 3f 1a b6 02 3d 78 ae ca be ca ce 0f bf
       0.5541783 0.031911947 -0.39586234 -0.5617491
000090 bb df d3 be 77 0d 32 3e ac 36 92 3e 22 56 f6 be
       -0.4138163 0.17387949 0.28557336 -0.4811259
0000a0 40 03 37 3e 3c 56 84 be 3b 7c aa bd 67 8f 3e 3d
       0.17872334 -0.25847042 -0.08324476 0.046523478
0000b0 04 85 b1 3e ce 18 5a 3e 4a 95 98 bc 1e ed 90 3d
       0.34671795 0.21298525 -0.018625874 0.070764765
0000c0 69 c9 a7 be 54 18 16 bf ad 73 8f 3e db 28 ac bd
       -0.3277085 -0.5863087 0.2801794 -0.0840623
0000d0 f8 48 d0 3e dc 85 a6 3e 6c 4d 1a 3f 62 a9 f8 3e
       0.4068067 0.32524002 0.60274386 0.4856673
0000e0 35 64 aa 3d 2c c9 54 3c 21 87 7e 3e 10 5c e8 3e
       0.08319894 0.012987416 0.24856235 0.45382738
0000f0 4c f9 9c bd e6 ad 0f 3f dd 28 df bd e0 45 18 bf
       -0.07664737 0.5612472 -0.10896466 -0.5948162
000100 b3 b4 87 be dd 3a 2d bf 1a a1 0b bf ab 30 77 bd
       -0.2650505 -0.67667943 -0.54542696 -0.060349148
000110 4f 3f e0 3e 64 6a 0d bf 19 f0 15 bf f1 74 6b bd
       0.437983 -0.55240464 -0.58569485 -0.05748457
000120 79 4b e5 3e 92 49 b1 be 79 e9 ff be ed 4c 0f 3e
       0.44784144 -0.34626442 -0.49982813 0.13994189
000130 6d d6 0b 3e 69 b7 2e bd eb 54 b1 be 19 1b 2a 3f
       0.13656016 -0.042655382 -0.346351 0.664476
000140 40 9c c2 3e 25 23 9f 3e 1a 07 4a be 75 82 02 3f
       0.38009834 0.310815 -0.19729272 0.5098031
000150 e0 f5 81 be ae f4 23 3f 85 4c fe be d2 b5 cb 3e
       -0.253829 0.64045227 -0.49667755 0.39787155
000160 f1 94 10 3f 83 02 e8 3e d4 70 57 be e1 58 13 3f
       0.56477267 0.45314416 -0.21039134 0.57557493
000170 6b e7 c9 3e 60 08 39 bd a0 cb 1a be c4 9c 88 3d
       0.3943437 -0.045174003 -0.1511674 0.06670526
000180 83 c7 42 be cb 49 32 bf ef c5 1c 3f 94 e5 83 3e
       -0.1902142 -0.6964385 0.6123952 0.25761092
000190 5f 77 dd 3e ca a5 20 bf 2a 7f b6 be e7 aa d0 be
       0.43255135 -0.62752974 -0.35643893 -0.40755388
0001a0 51 cc 8b 3e ae 18 db be 9e 2e 42 bf 53 d9 ec bd
       0.2730432 -0.42792267 -0.7585238 -0.11564889
0001b0 d7 c6 86 be c0 60 70 bd ca d1 ae be b8 cb da 3e
       -0.26323578 -0.058686018 -0.3414443 0.4273355
0001c0 4e f0 f7 3e f0 58 04 3f c9 37 a5 3d aa 22 f0 3e
       0.48425525 0.5169821 0.08067281 0.46901447
0001d0 17 f5 cb 3e de cf b6 3e c7 f7 7e 3e 50 ee c7 3c
       0.39835426 0.35705465 0.24899207 0.024405628
0001e0 ce 7e fa be 28 ed 0a bf c3 17 43 bd af 86 02 be
       -0.4892487 -0.5426812 -0.047630083 -0.1274669
0001f0 76 ea ad be 12 de 85 be 75 76 d1 3e b7 2a ee 3e
       -0.33967942 -0.2614599 0.40910688 0.46516964
000200 eb ec 13 3f 12 9d 29 bf 60 10 08 3e ec e1 12 bf
       0.57783383 -0.66255295 0.13287497 -0.5737598
000210 36 fc 86 3e 31 6f d7 bd bc 2a ad bb 69 fc cf 3d
       0.26364297 -0.10519255 -0.0052846354 0.10155565
000220 ff 53 81 3e 71 5d 4b 3e 5f d9 51 bd 9f f5 c7 3e
       0.25259396 0.19859864 -0.05123269 0.39054582
000230 23 b4 e7 bd 03 c8 20 3d 47 f8 69 be 97 c1 6b bc
       -0.11313655 0.039253246 -0.22848617 -0.014389417
000240 4d 18 00 3d ee c2 98 3e c8 64 5b be 8c 68 24 3f
       0.031273175 0.2983622 -0.21425164 0.64222026
000250 33 6e 97 be d2 f2 95 3e d5 38 e8 be 1a 80 7c be
       -0.29576263 0.2928682 -0.4535586 -0.24658242
000260 68 9e e9 3e ed af 34 3f d5 09 ee be 2c 26 25 bd
       0.45628667 0.7058094 -0.46491876 -0.040319607
000270 8c 3f 16 bb 3c d6 02 bd a0 a7 85 be 5a 98 08 3e
       -0.002292606 -0.03194259 -0.2610445 0.13339368
000280 73 ce cf 3e 7e 36 bf 3c e9 4e 8e bd a7 e9 24 3f
       0.40587196 0.023341414 -0.06948645 0.64419025
000290 89 ef 23 3f 77 d6 1b 3f 9a ca 33 bf a8 19 04 bf
       0.64037377 0.6087412 -0.7023102 -0.5160165
0002a0 bd 8e 28 3f d1 cc b2 be 61 93 1b bf a1 4a 5c 3e
       0.658428 -0.34921888 -0.6077176 0.21512844
0002b0 1e 2e 11 3f 56 82 2b 3f 2a 6c 09 3f 47 14 ed 3e
       0.56710994 0.6699575 0.5368067 0.46304533
0002c0 ba 84 1a 3f 16 e0 93 3e f1 97 b0 3e 48 09 7a 3e
       0.60358775 0.28881902 0.34490922 0.24417603
0002d0 ba 90 f2 be c7 54 f1 3e 18 9d 0c 3f 66 04 1d 3e
       -0.47376043 0.47134992 0.54927206 0.15333709
0002e0 cc a9 bc be 65 1d 06 3f 94 dc 06 3f 65 11 d7 be
       -0.36848295 0.523886 0.52680326 -0.42005458
0002f0 0a 32 01 bf 27 8b 01 3f 15 11 b9 be 88 d1 84 be
       -0.5046698 0.50602955 -0.36145845 -0.2594111
000300 d4 ce 9e be f1 f2 cb 3e b6 f7 9b be 6e 56 00 bf
       -0.31017172 0.39833787 -0.30462426 -0.5013188
000310 d7 e0 25 bf cc 7c 79 3d 0d 93 e0 be d5 1b 8e 3e
       -0.64796203 0.06091003 -0.4386219 0.2775561
000320 1e ef 75 be 0e 58 a4 be 6a c3 a3 3e b2 b7 1d bf
       -0.24016997 -0.3209843 0.31985027 -0.6160842
000330 0f 17 16 3f 52 e4 35 be b9 f2 cc bd 36 96 24 3f
       0.58628935 -0.17762879 -0.10007233 0.64291704
000340 b2 71 63 be 2c f8 bc 3d d7 bc c6 bd 99 85 2f bd
       -0.2221134 0.092270225 -0.09703987 -0.042852018
000350 dc 28 b2 3d 2d 85 fc 3e 9e 61 4e 3c d5 70 27 be
       0.086991996 0.49320355 0.012596516 -0.16351636
000360 92 e7 ee 3e 21 ff 79 3e 0f 70 ee be 09 2f f7 3e
       0.4666105 0.2441373 -0.4656987 0.48278072
000370 9e 74 1d 3f 85 7e 31 bf d0 22 fc 3d b5 50 37 bd
       0.6150607 -0.6933368 0.123113275 -0.044754703
000380 a1 1e 7a be ce b0 b7 3e 92 b1 8b be 24 bb 15 3f
       -0.24425747 0.3587708 -0.27283913 0.5848868
000390 11 36 bc bd bb d0 8c 3e 0e f2 fa 3e 51 31 b1 be
       -0.0919 0.27503 0.49012798 -0.34607938
0003a0 d4 9a 6b be 25 f5 a3 be 25 01 4e 3e 5f 83 94 3e
       -0.23008281 -0.32022968 0.20117624 0.29006478
0003b0 d8 08 96 be 9e a6 0d be 3a d9 cb 3e 4f c2 25 3f
       -0.29303622 -0.1383309 0.39814168 0.64749616
0003c0 a8 7b 43 3e d7 fb 01 3f e8 79 0b bf 0a 8f 6d bc
       0.1909014 0.507749 -0.5448289 -0.014499435
0003d0 14 12 16 3f 6c 9d 2d bd a4 bf 0c bf 4d ca fc be
       0.58621335 -0.042386457 -0.5497992 -0.49373093
0003e0 5a 45 17 be 1e b9 5c be 74 de c1 bd e1 bb 11 bf
       -0.1477255 -0.21554992 -0.09466258 -0.56927305
0003f0 f4 4c f6 be 1a 75 d0 3d 7f 88 05 3f de 81 6f 3e
       -0.48105586 0.10178585 0.521614 0.23389384
