TOYDATA/Models/Halfmoons_a=0.1_e=0.1.pt (torch, 270487 bytes, 10 tensors)

lays.0.weight f4 [256, 2]
000000 4d 60 7f 3e d4 04 9b b9 a8 a3 1b be 1b 55 d0 bc
       0.2493908 -0.000295675 -0.15199149 -0.025431206
000010 db 93 99 be d9 69 ab 37 47 b5 c2 3e e9 d4 ef 3e
       -0.29995617 2.0434078e-05 0.3802893 0.46842125
000020 bc 48 7f be df 18 3f be 1b 96 77 bd d7 ff f4 be
       -0.2493009 -0.18661831 -0.060445886 -0.4785144
000030 f4 02 13 3e 88 eb 08 b6 c8 15 88 b9 86 23 2c 3f
       0.14356595 -2.0402676e-06 -0.0002595617 0.67241704
000040 54 5f a6 3e f4 43 09 3f 5b 70 ea 3c 9d f7 91 be
       0.32494605 0.53619313 0.028618028 -0.28509226
000050 f4 55 25 bf d1 35 bd be 7a ec 0b be 64 33 c4 be
       -0.6458428 -0.3695512 -0.13664427 -0.38320458
000060 ae fa 86 3e e0 66 a1 be 84 9a 08 3f 44 27 7a b7
       0.26363128 -0.315238 0.5336077 -1.4910303e-05
000070 a5 f7 0e bc 47 92 86 be 02 fd 66 3e 34 24 da be
       -0.008726035 -0.26283476 0.22557452 -0.42605746
000080 54 57 ab 3e c7 b3 94 bb 62 cb 73 3d 26 61 a2 be
       0.33465064 -0.0045380327 0.059520133 -0.31714743
000090 0f f4 60 be 91 6c 06 bf 3d 77 1b 3f f2 26 8d be
       -0.21968101 -0.5250941 0.6072882 -0.27568775
0000a0 d0 28 e8 3e e6 fc fb b7 03 fa ec 3e 16 fe b0 3d
       0.45343637 -3.0039297e-05 0.46284494 0.08642213
0000b0 ee 3f 1f be 09 5a fb be cc 82 03 b6 8a 21 d5 3d
       -0.15551731 -0.4909213 -1.9596655e-06 0.10406788
0000c0 8e 62 f3 be df bd 9d be a5 6d 25 3e a1 b1 16 3f
       -0.4753613 -0.30808923 0.16155107 0.5886479
0000d0 7e b2 0c 3e 05 98 a3 bd 1e 86 12 3f fe d0 3d be
       0.13739964 -0.0798798 0.57235897 -0.18536755
0000e0 3e a8 c6 3e 75 2d 26 bf fe 22 eb 3e 95 e1 2a be
       0.38800234 -0.6491311 0.45925134 -0.16687615
0000f0 f1 29 24 3f 83 6a e8 3e 42 4c b6 bc ec 41 09 3f
       0.641265 0.45393762 -0.02225316 0.53616214
000100 53 5f 4b 3e 84 83 e8 b7 38 69 a4 be 02 99 e3 be
       0.19860582 -2.7717797e-05 -0.32111526 -0.44452673
000110 81 6c bd 3b 38 a1 ed be 65 74 72 bb ac 0f b7 be
       0.005780757 -0.46412063 -0.0036995646 -0.35754144
000120 ad f6 22 3e 80 88 79 34 53 8a c2 3b be b2 36 bf
       0.15914412 2.323959e-07 0.0059368997 -0.7136649
000130 8f 62 c5 3e ff df f2 be bc 4b 03 bf 6c e1 9c 3e
       0.38551757 -0.4743652 -0.51287436 0.30640733
000140 c4 1b 81 3e c9 e4 05 b7 ca 3e e8 bd 20 9b 1e 3f
       0.25216496 -7.980686e-06 -0.11340101 0.6195545
000150 d0 2b d7 3e a8 b5 1a bf 6b 00 e6 be b6 ac ba 3e
       0.42025614 -0.60433435 -0.44922194 0.36459893
000160 02 6a 10 3e 0f f4 7e b7 b1 dc 00 bf ee a4 22 37
       0.14102939 -1.5196404e-05 -0.5033675 9.694353e-06
000170 19 2f a0 bd fe d0 01 3f 4e 45 94 3e 36 fa 6c be
       -0.07821483 0.5070952 0.28959125 -0.23142323
000180 fb 08 e7 be 4e 68 77 be b7 e4 b5 3c 23 fe d3 be
       -0.4512404 -0.24160883 0.022203786 -0.41404828
000190 f1 58 12 3c 8f 72 f0 be a7 95 b1 3e 4c 52 f7 be
       0.008932338 -0.469624 0.34684488 -0.48304975
0001a0 76 3c 0e 3f 96 ee 72 be 3f bb df 3e a4 64 a8 3e
       0.55561006 -0.23723826 0.43697545 0.32889283
0001b0 22 87 eb be 93 20 11 be f5 0d f3 be b9 66 27 3f
       -0.46001536 -0.14172582 -0.47471586 0.6539112
0001c0 27 8e ac be a3 03 0e bf da 13 b8 3e 7f 99 3d 3e
       -0.33702204 -0.554743 0.35952646 0.18515585
0001d0 ca 7a 10 bf 6d 95 17 3f 24 ef a6 be f4 ae 2f 3f
       -0.5643736 0.5921238 -0.32604325 0.6862633
0001e0 a3 37 e5 be a6 b1 02 3f dd 8b e9 bd bb fb 33 3f
       -0.4476901 0.5105232 -0.1140363 0.70305985
0001f0 02 14 54 3c f4 4c 6f 3e ca f9 b2 be 1c 30 e5 3c
       0.012944223 0.23369199 -0.349562 0.027977042
000200 6a 2a 1c bc 3d dd de 3e 79 a5 18 3f 7c bc 1f be
       -0.009531597 0.43528166 0.5962749 -0.15599245
000210 71 e6 c6 3e 45 f0 d1 be ba ea 1e 3e e5 e9 f8 bd
       0.38847688 -0.41003624 0.15519229 -0.12153987
000220 52 a6 e0 3e 62 6e b8 be 95 4d fb be 3e 39 50 be
       0.43876892 -0.36021715 -0.49082628 -0.20334336
000230 79 dd 27 3e 89 fd 01 bf 5c 04 2c 3e 90 d2 e8 3e
       0.16393079 -0.5077749 0.16798538 0.45473146
000240 44 c9 d0 3e 38 c9 bd b7 2d ef e6 3e cc a9 9b 3e
       0.40778553 -2.2624256e-05 0.45104352 0.30402982
000250 35 dd 99 3e c3 af 0a 3f 63 89 55 3e 72 0f 0d bf
       0.3005158 0.5417444 0.2085319 -0.5510169
000260 2e bf 17 3e 15 d1 ec b9 ad 2a 0c 3f 26 0f ce b7
       0.14819023 -0.00045169206 0.5475262 -2.4564168e-05
000270 00 a7 5f bd fd f2 80 3e 36 ad 86 be 5c b5 c0 b7
       -0.054602623 0.25185385 -0.26304024 -2.2972636e-05
000280 8c 2c ee 3e 70 56 17 b6 fa 9c ae b6 b6 2f 6b 39
       0.46518362 -2.2551067e-06 -5.2038786e-06 0.0002242912
000290 47 f4 24 bf ce e0 9b be c4 1e 1e 3f 02 0b 5e bc
       -0.6443524 -0.3044495 0.61765695 -0.013552429
0002a0 fd 7a a9 be d6 8c 10 bf 1f f6 d2 3e bb 23 01 3f
       -0.33101645 -0.564649 0.412034 0.50445145
0002b0 11 24 f7 be 0d c0 7a 3b 73 11 86 be 5c 62 a5 be
       -0.48269704 0.0038261444 -0.26185188 -0.32301605
0002c0 fa d9 97 39 6a b1 ae b9 79 c0 ca be f2 ef 6b 3e
       0.0002896337 -0.0003332005 -0.3959997 0.2304075
0002d0 a7 44 c0 3e f0 8c a8 be 2f 02 99 3e 20 ae ad 3e
       0.37552378 -0.32920027 0.29884478 0.3392191
0002e0 f6 da a4 be 23 97 c2 3e 51 e7 0d 3f 24 02 14 3f
       -0.32198304 0.38005933 0.55431086 0.57815766
0002f0 31 07 58 bc 7b 37 3b 3f 5b b1 72 3e f1 e6 ec 3e
       -0.013185308 0.7313153 0.23700468 0.46269944
000300 cb c9 bc 3e 21 93 df bd 4a b6 0d bc 4a 3e a1 3e
       0.36872706 -0.109167345 -0.008649418 0.31492835
000310 e3 e2 2c bf 5e cb c0 3e 3b 37 3e 3e d8 a4 dc be
       -0.675337 0.37655157 0.18575756 -0.43094516
000320 04 4c 1a bf 32 0b 72 be d2 f2 b8 3c 5c 5c a4 be
       -0.6027224 -0.23637083 0.022576723 -0.32101715
000330 ac 2c 0c bf 63 09 0a be 4a ef 97 be dd 14 ac be
       -0.54755664 -0.13480143 -0.2967475 -0.33609667
000340 22 e3 6c 3e 6c ac 7a 3e c7 19 c4 be a6 db 1b 3f
       0.2313352 0.24479836 -0.38300917 0.6088203
000350 a2 34 ab 3e 53 c2 91 3e 6b 19 c7 3e 42 04 7c 3e
       0.33438593 0.2846857 0.3888658 0.24610999
000360 32 1e f9 3e 43 28 0e 3f c0 5a 83 3e e8 3d 4f 3e
       0.4865585 0.55530185 0.25655174 0.20238459
000370 0b cc 3c 3e cf 3c 6b be 00 bb bd b6 9a 00 89 be
       0.18437211 -0.22972415 -5.6544086e-06 -0.2675827
000380 d0 2d 29 bc 24 61 f2 3d 5f 43 e4 be 3a 09 02 3f
       -0.010325864 0.11834934 -0.4458265 0.5079533
000390 75 a6 b1 3e 53 00 d1 b8 7e 2a 8c bd b4 fc 5c 3d
       0.3469731 -9.965957e-05 -0.06844042 0.053951934
0003a0 74 7b 6d be 83 fe 01 3f e1 52 d7 3e 23 46 1e 3f
       -0.23191625 0.5077898 0.4205542 0.6182577
0003b0 e0 e5 64 3c 14 c0 83 be 3a 6e d2 3c 4a 07 15 bf
       0.013970822 -0.2573248 0.025687326 -0.5821425
0003c0 53 21 a4 3d 4b b4 83 be 40 12 18 3f 44 40 16 3f
       0.080141686 -0.2572349 0.5940285 0.5869181
0003d0 55 bb 95 bd b2 5c a1 3e b6 c2 10 3f 13 f6 82 3d
       -0.073111214 0.31516033 0.56547105 0.06394591
0003e0 31 f3 83 3e 79 3b 04 bb 0a 7f d2 3e e4 7e ee 3e
       0.25771478 -0.002017705 0.41112548 0.46581185
0003f0 1f 01 dd be 5d c7 f0 3e 5c a3 9d 3a 82 bf 89 be
       -0.43164918 0.47027102 0.0012026834 -0.2690392

lays.0.bias f4 [256]
000000 0b 4b dc 3e 34 24 ea 3e 7c ba 05 3b fa f2 b6 be
       0.43026003 0.45730746 0.0020405343 -0.3573225
000010 f2 c1 8b be dd 45 03 be 7e 49 10 be 0f da 39 3e
       -0.27296406 -0.1281962 -0.14090535 0.18149589
000020 a5 4c 02 3e 04 f6 be be 1a 44 9f bd b8 e3 8d be
       0.1272455 -0.3729707 -0.07776661 -0.27712798
000030 ca 2f bc 3e 14 73 02 bf 07 8f a3 be a6 22 ca 3e
       0.3675521 -0.50956845 -0.3194506 0.3947956
000040 b8 c3 09 be 1d f9 66 be 58 1b 0d bf 7f a8 30 3f
       -0.13453567 -0.22555967 -0.5511985 0.69007105
000050 11 65 92 3e dc f4 a3 3e 7d 3e 66 be c3 ef e0 bd
       0.28592733 0.3202275 -0.22484775 -0.10983231
000060 4b 0a 90 bb a0 4a 4a 3c 13 53 27 bb d2 ff 88 3d
       -0.0043957583 0.012346894 -0.0025531694 0.06689419
000070 d0 1f 21 3f 87 ce 06 3e 3d ee c7 be c7 f4 1a bf
       0.6293917 0.13164721 -0.3904895 -0.6052975
000080 85 9c 41 be fa 2e de 3e 4c a1 34 3f c5 5b 21 3f
       -0.18907364 0.43395215 0.7055862 0.63030654
000090 86 31 a0 be 04 90 33 3f 91 fb d7 be 8d de 14 3e
       -0.31287783 0.70141625 -0.42184117 0.14538021
0000a0 9b 2c 77 be 98 67 a8 3e 9a 40 74 3d 7c 45 30 3d
       -0.2413811 0.32891536 0.05963192 0.043035015
0000b0 76 75 0f bd f2 73 18 bf 33 2e cb 3e d4 05 4b be
       -0.03502413 -0.5955192 0.39683685 -0.19826442
0000c0 5d 93 a5 be 6d d1 c1 3e 83 87 e8 3e dc 46 e1 bc
       -0.32338992 0.37855092 0.45415887 -0.027499609
0000d0 7a 3e 78 bd 6c 58 b9 3e e6 1a 9f 3e 4c 0c 4f 3f
       -0.060606457 0.36200273 0.3107521 0.8087814
0000e0 6f 46 23 bf b0 3d d6 3e 54 94 e5 be 77 3d 84 be
       -0.6377935 0.4184394 -0.44839728 -0.25828144
0000f0 df ee 34 bf 8a 14 67 be 07 ba 2d bf ce 3c 06 bf
       -0.7067699 -0.22566429 -0.6786198 -0.5243653
000100 b3 30 e9 3e 31 f5 03 bf 50 06 e9 be c5 11 43 3c
       0.45544967 -0.5154601 -0.4551263 0.011906092
000110 8e 19 a9 bd 5b a9 20 bf 3f 97 e2 be 1e 92 58 3e
       -0.08256827 -0.62758416 -0.44256017 0.2114949
000120 92 ec 10 3e 86 85 0b bf 8d 82 01 bd a8 f8 fb 3e
       0.14152744 -0.54500616 -0.031618644 0.49213147
000130 1d c0 a2 3e 8f 7b 02 bf 5e 6d a1 3e 7a f7 2b ba
       0.31787196 -0.50969785 0.31528753 -0.0006560009
000140 d2 f1 df be db 58 91 3e 70 3d d4 be 25 6b 29 3f
       -0.43739182 0.28388104 -0.41453123 0.66179115
000150 6a 5a 0a 3f 4f a5 e4 bc 81 7f 50 bd eb 47 09 bf
       0.5404421 -0.027910857 -0.050902847 -0.53625363
000160 d2 3a 1c 3f ce 53 a8 3e 1b 88 e6 3e 51 d2 0f 3f
       0.6102725 0.32876438 0.45025715 0.5618029
000170 58 4d bb be 82 d4 e0 be bf f8 0e 3f ff c8 88 be
       -0.36582446 -0.4391213 0.55848306 -0.26715848
000180 2d 05 a4 be c6 f3 08 3f d5 8f 0a bf 33 ec c8 bc
       -0.320352 0.5349697 -0.5412572 -0.024526691
000190 0b 2b 00 3f 44 9b 62 3d 03 3b f1 3e 99 96 fa 3e
       0.5006568 0.055323854 0.47115335 0.48943022
0001a0 69 50 1d bf f0 84 3b 3e 84 42 48 be 25 61 1e bf
       -0.6145082 0.1831243 -0.19556624 -0.6186698
0001b0 01 4a 77 3e 5c c9 fa be 9a ca 4e 3e f3 26 06 3f
       0.24149324 -0.4898175 0.20194474 0.5240318
0001c0 b5 8e cf 3e 8b 32 82 be 40 e8 fe 3d cf 7c 1d bf
       0.40538564 -0.25429186 0.12446642 -0.6151857
0001d0 1e 3f 28 be 82 b3 80 be ec cc 7e 3e 56 c3 21 bf
       -0.16430327 -0.25136954 0.24882859 -0.63188684
0001e0 88 24 82 3e 08 0d fd bd 4f 7d cd bd 95 25 02 3f
       0.25418496 -0.12356001 -0.10033666 0.50838596
0001f0 e4 57 14 bf 2c d3 b7 3e 09 8e 3a 3f 0f d5 18 3f
       -0.5794661 0.359033 0.7287298 0.597001
000200 9e 06 8f be 8b 2c 22 3f 9e a4 f3 3e 00 5b 14 bd
       -0.27934736 0.6334922 0.4758653 -0.036219597
000210 82 27 1c bf 91 fc ed 3e fe f8 05 3f cc 4d df 3e
       -0.60997784 0.46481755 0.52333057 0.43614042
000220 ac ca 67 bd 80 38 32 bf 42 37 05 3f 53 bb dc 3e
       -0.056589767 -0.6961746 0.5203744 0.43111667
000230 7a ac 12 3e ba 3f cd 3e bd e5 08 bf 2e f7 91 bd
       0.14323607 0.40087682 -0.5347555 -0.07127224
000240 50 d3 30 3f 39 e7 0d 3f 6e 21 c4 be fc 60 32 3e
       0.6907244 0.5543094 -0.38306755 0.17419809
000250 c6 5e fa 3e 30 94 44 3e 66 5f 30 bf 47 39 2d 3f
       0.4890043 0.19197154 -0.68895566 0.67665523
000260 fa d9 dd be 5d 78 c7 3e 3f 88 91 be 69 44 ee be
       -0.43330365 0.38959017 -0.2842426 -0.46536568
000270 9d 65 16 be d0 69 ea be 66 24 81 be be 2a 00 bf
       -0.146872 -0.45783854 -0.25223082 -0.5006522
000280 21 93 fa 3e 2e 07 37 3f e0 77 27 3f 1a bf 81 3e
       0.48940375 0.7149533 0.6541729 0.2534111
000290 2f 9f 7d be 91 45 e9 be e2 51 2f 3f c8 a7 ea 3e
       -0.24767755 -0.45560887 0.6848432 0.45831132
0002a0 31 17 12 3e 5e 85 f5 be 85 f7 49 bd 2b 94 f8 be
       0.1426666 -0.47953314 -0.04930832 -0.48550543
0002b0 bb c2 e2 3d b8 c3 20 3f 9d 8c 37 bf 89 e7 ea 3e
       0.11072298 0.62798643 -0.71698934 0.45879772
0002c0 f2 c4 03 bf c3 60 f0 3e 68 5e 1a bf 07 15 90 3e
       -0.5147239 0.46948823 -0.603003 0.28141043
0002d0 40 2d ef be f5 d3 71 be 17 4b 08 bf 97 05 14 be
       -0.4671421 -0.23616011 -0.5323958 -0.14455257
0002e0 01 cb bc be 5f dc 00 3f be 03 c0 3d e8 15 2b bf
       -0.3687363 0.5033626 0.09375714 -0.668303
0002f0 c4 f6 50 3e c2 57 14 3f f8 49 15 bf 24 68 20 3f
       0.20406634 0.5794641 -0.5831599 0.62658906
000300 66 a7 09 be d9 fa 19 bf 5e e8 4b 3e dc a2 fa 3e
       -0.13442764 -0.6014839 0.1991286 0.48952377
000310 64 79 03 bf b4 5a ce 3e 94 73 a1 be 47 02 15 3d
       -0.513571 0.40303576 -0.31533492 0.036379125
000320 6f 05 e8 be b3 22 31 3f b7 33 96 3e ac 24 35 bf
       -0.45316646 0.6919357 0.2933633 -0.7075908
000330 15 af 09 bf 11 9b 41 be f7 a7 b4 be e5 4e 87 be
       -0.5378278 -0.1890681 -0.35284397 -0.2642738
000340 43 3f 18 3f d0 12 01 bf 33 7e ec 3e af 23 c0 3e
       0.5947153 -0.5041933 0.46190032 0.37527224
000350 1b 58 58 bd a6 a3 12 bc 88 b5 16 be 69 a2 38 3e
       -0.0528184 -0.00895015 -0.14717686 0.18030705
000360 98 23 12 bf 5b bf 1a be 5d 35 ef 3e c4 ae 2c 3f
       -0.5708556 -0.15112059 0.467204 0.6745417
000370 55 54 67 3e 05 75 13 3f eb 45 a6 3e fb cf d8 3e
       0.22590764 0.5760043 0.32475218 0.42346177
000380 78 ad 21 3e 9a cc 24 3f 9f 8d 16 3f 4e e5 de bd
       0.1578883 0.643747 0.58809847 -0.1088358
000390 df c4 a9 3e 9e fa f5 be 5f 0c 77 be 14 ac 04 3e
       0.33158013 -0.48042768 -0.24125813 0.12956268
0003a0 f8 30 10 3f 46 d3 43 3e 23 ab cb be 47 e7 76 bd
       0.5632472 0.19123563 -0.39779004 -0.060279157
0003b0 8c 30 07 bf 11 99 a7 3e 40 51 e5 be 15 cb 21 bf
       -0.5280845 0.32733968 -0.4478855 -0.63200504
0003c0 1f fc 71 be e3 c3 36 3f 02 8c bb 3e 0f d6 c9 be
       -0.23631333 0.7139265 0.36630255 -0.39421126
0003d0 10 b6 64 be 40 fc 9d bc 63 97 5c 3e 32 65 bb 3e
       -0.22335076 -0.019285321 0.21542124 0.36600643
0003e0 50 b2 7d be fb b4 80 bd 33 ba 3f 3e 60 c2 b2 be
       -0.24775052 -0.06284519 0.18723373 -0.3491392
0003f0 0f 83 e4 3d 02 0e 5d 3d 64 31 0e 3e 20 51 07 3f
       0.1115781 0.053968437 0.13886029 0.5285816

lays.1.weight f4 [256, 256]
000000 1d fa 84 bd c1 64 18 bd 88 98 75 bb 0b 9d 14 3d
       -0.06493018 -0.03720546 -0.003747495 0.03628258
000010 16 dc 18 3b 14 ea 4e bd 0a d7 9c 3c 69 39 a1 bc
       0.002332454 -0.050516203 0.019145507 -0.019680696
000020 27 93 cb 3c 00 3e 51 bc 7b ed 37 bd 0c 9c 56 bd
       0.024850441 -0.01277113 -0.044904213 -0.05239491
000030 96 35 0b bd 17 f2 42 bd e4 43 51 bd 9d 8a fc bc
       -0.03398665 -0.047594156 -0.051090136 -0.030827815
000040 91 50 d6 bc be ae 90 3c 9b 75 5c 3d df cc 58 bd
       -0.026161464 0.017661449 0.053823095 -0.052929755
000050 74 00 fb 3c 0d cd 0a 3d 9e 7e 86 bc f4 e1 20 bd
       0.030639865 0.033886958 -0.016417798 -0.039277986
000060 c5 92 24 bd 98 9b 69 3c 13 8b ed bb 8b 79 35 bd
       -0.040179033 0.014258288 -0.007249245 -0.044305366
000070 d2 72 79 bd 93 0f 7e bc 02 5f 90 bd 9e c9 1d 3d
       -0.060900517 -0.015506643 -0.07049371 0.038522355
000080 61 0f 2b 3c 98 95 08 bc 07 06 e0 3c dc 4a b3 bc
       0.010440678 -0.008336447 0.027346624 -0.021886282
000090 93 ba 21 bd c3 75 f3 bc 67 c5 39 bd 2e 55 51 3d
       -0.03948457 -0.02971924 -0.045354273 0.051106624
0000a0 ca 76 43 3d f9 1e 28 3d 23 5a 82 bd 9d 36 0d bd
       0.047720708 0.041045163 -0.063648485 -0.03447591
0000b0 3d 1b 0f bd e2 5b 47 bd cd 49 15 bd 09 78 41 3d
       -0.034938086 -0.04867161 -0.036447335 0.047233615
0000c0 9f 9a 81 3b 2d 25 7a 3b 83 72 19 bc b3 d6 9b 38
       0.0039552 0.003816913 -0.009365681 7.430967e-05
0000d0 b7 f7 05 3d 4d f0 99 3b 99 74 26 3d 48 a5 19 bd
       0.032706942 0.0046978355 0.04063854 -0.03751114
0000e0 5b 3a 4c 3d e0 bd b5 3c e2 0b cc bc 86 04 4b 3d
       0.04986034 0.022185266 -0.02490801 0.04956486
0000f0 db d6 1d bc 79 24 2e bd 92 5a 1f 3c e1 d4 79 bc
       -0.009633745 -0.04251525 0.0097261835 -0.015248508
000100 0d 22 77 bd 98 b8 3d 3c 3c 1a 2b bc 0a 1f 6e 3c
       -0.060335208 0.011579655 -0.0104432665 0.0145337675
000110 38 61 34 bd 11 59 1f 3b 60 7b 3e bd 2f 7d 40 3b
       -0.044038028 0.0024314562 -0.04650438 0.002937149
000120 63 a4 19 bd 6e de 0e 3c 2d 24 e4 bc 5c b8 a4 3c
       -0.037510287 0.008720024 -0.027849281 0.02010744
000130 87 c6 3e bd 26 49 18 3d cf 1a 09 3d 09 2e 18 3d
       -0.04657605 0.037179135 0.033472832 0.037153278
000140 9b e5 05 3d d6 f6 4a 3d 2b 2a d7 ba 50 96 eb 3a
       0.032689672 0.049551807 -0.0016415765 0.0017973874
000150 e1 0a 58 bd 8b de 1c 3d 56 1e 73 3c 98 78 36 bd
       -0.05274475 0.03829817 0.014838776 -0.0445486
000160 cd 52 c3 3c 8f fc 3f 3d 9e 02 5c bd 18 bc 71 3c
       0.023843193 0.046871718 -0.053713433 0.014754318
000170 92 14 f2 3c 59 27 53 3d a4 46 fc bc 6c db 04 3d
       0.029550824 0.051551197 -0.030795403 0.03243582
000180 4a c5 0c 3d 9d e7 de bc 15 75 dc 3b 2c ff 4c bb
       0.034367837 -0.027210051 0.0067278245 -0.0031280024
000190 98 91 88 bd 7e d4 be bc 41 8c 2b 3d c3 39 33 bd
       -0.06668395 -0.023294684 0.041881803 -0.043756258
0001a0 a1 ab 01 3c 6a e6 1f bd c9 16 45 bd 13 60 a0 3c
       0.007914455 -0.0390381 -0.048117433 0.019577062
0001b0 bb 54 2f bb c1 8d 0d 3d ed 6e f0 3b a1 58 55 bd
       -0.0026753384 0.034559015 0.007337442 -0.052086476
0001c0 24 76 1a 3d c5 c6 36 3d 7e f8 70 bd f4 30 1a bb
       0.037710324 0.044623155 -0.05883073 -0.0023527713
0001d0 01 a6 ff 3b 7f 11 39 bd 0d 37 27 bb ab 80 29 bd
       0.0078017716 -0.0451827 -0.002551499 -0.041382473
0001e0 46 a2 02 bd b4 ce 9a bb ff 59 aa 3c db ca d3 3c
       -0.031893037 -0.004724348 0.020794867 0.025853565
0001f0 d9 e7 02 3d 9c 6a 07 bd 06 7e 91 3c 6e 20 df bc
       0.03195939 -0.033060655 0.017760288 -0.027237143
000200 06 49 0d 3d 0c 96 66 3c 71 5b 8b bc 42 b7 2b bd
       0.03449347 0.01407386 -0.017011376 -0.041922815
000210 be 76 48 3d 06 c7 06 bd e9 17 b3 bc 45 cc 59 bd
       0.048941366 -0.032904647 -0.021861987 -0.053173322
000220 7b d8 78 bc e6 f2 56 ba 78 c4 88 bd 86 f3 3b 3d
       -0.015188332 -0.0008199647 -0.066780984 0.04588654
000230 3d e6 d7 bc 76 70 5e bd 94 26 51 bd 86 54 4e bd
       -0.026354903 -0.05430647 -0.05106218 -0.050373577
000240 2b 91 2f bc e2 54 c5 3c 3e 5e 31 3d 1e a7 dc bb
       -0.010715763 0.024088327 0.043302767 -0.006733789
000250 e2 8c 1b bd 38 48 25 bb 1d f7 a7 3b 14 0d 3a bc
       -0.037976153 -0.0025220048 0.0051258937 -0.011355657
000260 46 14 fd 3b 37 c7 0d bd 98 cb c4 bc 61 93 3d 3d
       0.007723364 -0.034613814 -0.024022862 0.04628313
000270 a4 84 73 bc 53 cb b5 bc 82 f9 87 bd e0 41 d2 3c
       -0.014863167 -0.02219168 -0.06639387 0.025666177
000280 bd 53 a5 3b 8b 54 a1 bc 92 a9 5b bd 29 6a ab ba
       0.005045383 -0.019693634 -0.05362851 -0.0013077903
000290 50 82 14 3d e8 1d a2 bc e3 a0 32 bc 78 b1 74 bd
       0.03625709 -0.019789651 -0.010902616 -0.05973956
0002a0 bb 02 c5 3c 60 78 3a bd cf 63 17 bd ab 34 5a bd
       0.024049154 -0.045524955 -0.03696042 -0.053272884
0002b0 15 a4 e1 3c ff 1e 8a bd 1f 74 f1 3c 20 5b d3 3c
       0.02754406 -0.06744193 0.029474316 0.025800288
0002c0 a6 ab bb 3c 72 6d 6e bb 84 7a b1 3b 57 cc 80 bd
       0.022908997 -0.0036381152 0.0054162163 -0.06288975
0002d0 a5 cc ce bc 25 af a5 bc c9 99 3d 3d 07 b8 8e bb
       -0.025244066 -0.020225117 0.04628924 -0.004355434
0002e0 81 83 14 3d 89 ef 0e 3c a4 1c 53 3d c1 83 19 3b
       0.036258224 0.008724102 0.051540986 0.0023424479
0002f0 ea 7f ae bb 5a b2 90 bc f4 cd 71 bb 2c a6 41 bc
       -0.005325307 -0.01766317 -0.003689644 -0.011819404
000300 c5 b3 25 3a d6 1c 71 bd 1f 9f ae bc 95 cd 64 3d
       0.0006321038 -0.05886539 -0.02131611 0.05586012
000310 89 ee 0b 3d e8 48 ae 3c e2 dc 1f 3c 6f 90 f6 3c
       0.03416303 0.021274999 0.009757252 0.030098168
000320 3f 4f 3d bd 96 30 3a bb e2 cb b1 3c e1 7a 10 3d
       -0.046218153 -0.0028410307 0.021703664 0.035273436
000330 da cb 3a bd 3a 62 9e 3b 22 1a 12 3c c5 9e 0c 3d
       -0.045604564 0.004833487 0.008917363 0.034331102
000340 2c 8b 30 bd 5c 16 11 3d 15 10 25 3d ec 81 6b bd
       -0.043101475 0.035421714 0.04029854 -0.05749695
000350 b6 16 51 3d 6d 54 08 bd 3e 7c c5 bc c4 43 8e bc
       0.05104705 -0.03328364 -0.024107095 -0.017366298
000360 f3 1c 7a bc 81 32 2e bd 8d 29 44 3d 71 6b ba bc
       -0.015265691 -0.042528633 0.04789119 -0.02275631
000370 67 5c 6e bd 74 0f f5 bc e5 fa 19 bd b9 d9 ec 3c
       -0.05819359 -0.029914595 -0.037592787 0.028912412
000380 db 81 75 bc e7 cc 18 3d 72 af 53 bd 52 75 1e 3c
       -0.014984573 0.037304785 -0.05168099 0.009671526
000390 9f 82 23 3d c6 5b 3e bc 89 9c e7 3c e6 8c 2d bd
       0.03991949 -0.01161856 0.028272884 -0.0423707
0003a0 a2 15 70 bc 4c 60 0d 3d ff b0 b7 3c c9 59 cd ba
       -0.014653595 0.034515664 0.022423266 -0.0015667017
0003b0 2f 13 dc 3b a9 43 d7 3c 0d e7 10 3d b4 b8 f7 3a
       0.006716154 0.02627738 0.035376597 0.001889965
0003c0 f4 c9 a9 bb 0e fb 03 bc 28 31 f2 3c cc 13 b1 3a
       -0.0051815454 -0.008055462 0.029564455 0.0013509928
0003d0 2a 68 ae bc 5e ed 4f 3d a5 cc 49 3c 11 28 3a bd
       -0.021289904 0.05076348 0.012316857 -0.045448367
0003e0 dc ed 98 bc a9 a4 41 3d 5d 14 27 bd c6 5f 56 bb
       -0.018668108 0.047276173 -0.040790904 -0.0032710894
0003f0 51 88 1d 3d e8 83 1d bd 5e 6d 05 bc 82 47 85 bc
       0.03846008 -0.038455874 -0.008143751 -0.01626945

lays.1.bias f4 [256]
000000 8c 7a 37 3d 83 ee c7 3c 68 0f 8e bd a3 b3 f1 bc
       0.044794604 0.024405723 -0.06936532 -0.029504603
000010 85 f8 85 bd 30 91 da 3c a1 92 39 3c 72 db 11 bd
       -0.06541542 0.026680559 0.011326463 -0.03560967
000020 92 c2 7f bd e0 de 4d 3c 0a 71 6a bd 0a 63 16 3d
       -0.062441416 0.012565345 -0.05723671 0.036715545
000030 ab 49 5b bc 81 5b ab bc 18 c1 56 bd a1 95 96 bd
       -0.013384263 -0.020917656 -0.052430242 -0.07352758
000040 e6 5d a7 bc 37 3b 12 3c a0 49 4d bd 9c de 3a bc
       -0.020430516 0.008925251 -0.050119042 -0.011405613
000050 ec 8c a3 bc b1 da 75 bd da a8 6e bd 9e 93 12 3c
       -0.019964658 -0.060023014 -0.0582665 0.0089463275
000060 28 d8 08 3d 97 50 73 bd 73 1d 8e bd e4 e1 f1 3c
       0.033409268 -0.05940303 -0.06939211 0.029526658
000070 bd a0 c3 3c e3 e5 3d 3d 8c 42 09 bd e6 ce ea 3c
       0.023880357 0.046361815 -0.03351073 0.02866311
000080 c7 e9 c9 3c 33 90 f7 3c df 16 41 3d 6f f5 5c 3d
       0.024647607 0.030220127 0.047140952 0.053945
000090 4e f3 3e bd f8 fc dc 3c 3a 8a 4a bc 21 b2 9d bb
       -0.046618752 0.026976094 -0.012362057 -0.0048124944
0000a0 7f 22 84 3c 96 60 0a 3d 1e 1b 33 b8 5c c8 dc bc
       0.01612973 0.033783518 -4.270218e-05 -0.026951008
0000b0 a3 ca 25 bd 72 b5 0c 3d e3 3f 1a bd 18 e4 b9 3d
       -0.040476453 0.034352727 -0.037658583 0.090767086
0000c0 1b 5c f7 3c e0 2c ee bc e7 cb 23 3d 94 3e 10 bd
       0.030195286 -0.029074132 0.03998938 -0.03521593
0000d0 28 0a 62 3c 58 2f f1 3c b5 cc 5b 3d 96 e3 f1 3c
       0.013796367 0.02944152 0.05366202 0.029527467
0000e0 ba d5 f0 bc ed e9 71 bc a0 fb 5a 3d 8d 42 a3 3c
       -0.029398788 -0.014765245 0.053462625 0.019929195
0000f0 a6 72 1e 3d 0d 56 aa 39 8a a7 82 bd 42 98 84 bd
       0.038683556 0.0003248904 -0.06379612 -0.064743534
000100 03 5d 02 3d 53 5e 3d 3d 9b 5d 64 bc 8f c4 1b bd
       0.031826984 0.046232533 -0.013938333 -0.03802925
000110 cf 9b 8c bd b5 86 3a 3d 33 30 fc bc 22 ba 3a 3d
       -0.06865656 0.045538623 -0.030784702 0.045587666
000120 97 b9 bf 3c 9e 60 4e 3d 07 38 1d bb bf 60 c5 3a
       0.023403926 0.05038511 -0.0023989694 0.001505874
000130 1b 87 3d 3d a7 2a 6b bd 04 8d e2 3c d9 bd e4 3a
       0.046271425 -0.057413723 0.027655132 0.0017451599
000140 be 36 2b bc e8 40 bc bc 37 4e 35 3c 98 c3 25 bc
       -0.010450063 -0.022980168 0.011066011 -0.010117434
000150 cb e5 8c bc 95 e9 15 bc 67 01 f7 bc d6 44 60 3c
       -0.017199418 -0.009149929 -0.030152036 0.013688287
000160 3d 8a 19 bd 86 8e 31 3d fc 0a 5e 3c fc e1 ed bb
       -0.03748535 0.04334881 0.013552424 -0.0072596055
000170 3c e9 b8 bb 14 81 16 bb 95 f6 ff 3c f4 9f a1 ba
       -0.005643038 -0.002296512 0.03124551 -0.0012330995
000180 ed 99 c6 bc aa 05 4f bd c1 87 5e bc 6c 5c e3 3c
       -0.02424332 -0.05054251 -0.013582171 0.027754031
000190 9a e4 5c bd 3f 3e 83 bd f4 05 52 bd 2c f6 99 3d
       -0.05392895 -0.06408357 -0.05127521 0.07517657
0001a0 8e a7 c3 bc 7b c4 66 bc 1f 87 5d 3d 65 49 bd bb
       -0.023883607 -0.0140849305 0.05408394 -0.0057765716
0001b0 78 c5 3d 3d db e1 1d 3b 1c cf 91 bd a1 b9 d4 bc
       0.0463309 0.002409092 -0.07119581 -0.025967421
0001c0 19 94 85 bb c8 64 72 3d 63 02 56 3c 71 0b 22 3c
       -0.0040764925 0.059178144 0.0130620925 0.009890423
0001d0 c6 c8 23 bd f8 0e 9c 3c ef d2 69 bd 10 8f 0b bd
       -0.039986394 0.019050106 -0.057085928 -0.034071982
0001e0 39 84 ab bc d8 ed 3b bd 72 b7 92 bd 30 43 89 3b
       -0.020937072 -0.045881122 -0.07163896 0.0041889176
0001f0 61 27 6f 3c 09 12 a9 3c 94 55 2d 3d 13 09 5b 3d
       0.014596791 0.020638483 0.04231794 0.05347545
000200 a2 2b d5 bb 4a 39 05 3d f0 a6 7b 3c 4d 00 62 bc
       -0.0065054456 0.03252534 0.015359625 -0.013794017
000210 d5 e8 93 3b 08 a3 76 bd 97 ba 4b 3d 02 21 9f 3d
       0.0045138397 -0.060214072 0.049738493 0.077699676
000220 50 d5 b1 bc 5b 5e f7 bc 46 87 0a 3d 21 32 fb 3c
       -0.02170816 -0.03019636 0.033820413 0.030663552
000230 45 9a b6 3c 26 0d 8a ba a6 db 72 bd a7 44 fe 3c
       0.022290358 -0.0010532483 -0.059291504 0.031038595
000240 07 35 33 3c 8f 19 88 3d 7c 90 08 3c 10 f2 8f 3d
       0.010937936 0.066455 0.008335229 0.07028592
000250 a3 b3 ca 3c f3 c9 b3 3c 7b 8e a8 3b b1 9e 2e bd
       0.02474386 0.021946883 0.005143938 -0.04263181
000260 8d b1 86 bc 4e 0a 30 3d 43 d2 1c bd ad fa 98 3b
       -0.016442085 0.042978577 -0.03828646 0.0046685548
000270 b0 d6 8e 3d 73 96 a7 bc b2 68 5f 3a 33 17 2f 3d
       0.06974542 -0.020457482 0.0008522376 0.042746734
000280 c9 77 08 3d 66 b6 5c 3d 77 49 52 3d c0 f1 05 bd
       0.03331736 0.053884886 0.051339593 -0.032701254
000290 24 ed 5b bd f6 22 40 3d 11 9d 91 3b f9 8b 4e 3d
       -0.05369295 0.04690834 0.0044437726 0.050426457
0002a0 8d 30 dd ba 92 45 79 bd 4d 40 80 3d 8a a4 94 bd
       -0.0016875431 -0.060857363 0.062622644 -0.07257946
0002b0 63 be 9f ba e5 af 28 bd c4 38 56 3c ef e5 39 bd
       -0.0012187477 -0.04118337 0.013075057 -0.045385297
0002c0 24 7e 5f bd 95 d2 9d 3c 6a ff df bc 59 76 54 bb
       -0.054563656 0.019265452 -0.02734347 -0.0032419174
0002d0 ef 73 81 bd 72 7b ae bb 32 0a 13 bd d0 e7 d4 bc
       -0.06320941 -0.0053247744 -0.035898395 -0.025989443
0002e0 4f 8d 8a bd d8 be cc 3b ea 45 3c 3d 2a 14 49 bd
       -0.06765234 0.0062483363 0.045965113 -0.049091496
0002f0 76 ee 1a bd e0 fe 1a bd 0c 21 7a bd 35 88 1e bd
       -0.03782507 -0.037840724 -0.061066672 -0.038704116
000300 11 5c 46 3c 8a 48 1e 3d 49 74 6e bd 4f 58 20 3b
       0.012106911 0.038643397 -0.058216367 0.0024466699
000310 53 df b5 3c 8d d7 17 3d 93 e8 ff 3c 15 82 20 3d
       0.022201216 0.0370708 0.03123883 0.039186556
000320 67 e5 fd bc 58 b0 44 bb 61 ac 4f 3c bf 56 cd 3c
       -0.030993177 -0.0030012336 0.012675376 0.025065778
000330 c8 64 a4 bd 9c 9b 24 bd 4b e8 82 bc 33 d8 85 bc
       -0.08027035 -0.040187463 -0.015979907 -0.016338443
000340 a5 1f 82 bc c8 81 e6 3d d8 1e 42 3c 5b 34 89 bc
       -0.01588423 0.112552226 0.011848174 -0.016748598
000350 cf 01 25 3d c2 93 8f 3c 34 c4 5b 3d bc 43 80 bd
       0.040284928 0.017526511 0.05365391 -0.06262919
000360 0e 78 32 3d f4 1e 1c 3c 0d 75 61 3d 39 ea 1e bb
       0.043571524 0.009528864 0.05504327 -0.0024248494
000370 b4 f9 35 bd 52 6c 04 3d c6 76 40 bc 70 35 69 bd
       -0.04442759 0.032329865 -0.011747068 -0.056935728
000380 30 ad 3b 3c b2 1c fd bc b8 73 9e 3c 1b b2 ac 3c
       0.011454865 -0.030897472 0.019342288 0.021081021
000390 f0 2f 9e 3c fc fa 95 bc 69 40 ea 3c 7f 24 75 bc
       0.019309968 -0.018308155 0.028595166 -0.014962315
0003a0 e0 bc 94 3d 4c aa 0f 3d f2 bd 34 bd 93 f1 9f ba
       0.072625875 0.035074517 -0.04412646 -0.0012202732
0003b0 2a e1 b2 3c 3d 28 17 bd ed e8 f5 3d 63 04 a9 3b
       0.021835882 -0.03690361 0.12007318 0.0051579936
0003c0 5b 82 09 bd a3 4e 61 3d 6c ad d8 3c af 00 ef 3c
       -0.033571582 0.055006634 0.026449881 0.02917513
0003d0 1c 37 d4 3c d3 6f b8 3d 74 b1 c2 bc 16 35 f6 3b
       0.025905184 0.09005704 -0.023766257 0.0075136526
0003e0 ae f6 d6 3d 01 f6 46 bd d6 27 8c 3c 7a 16 33 bd
       0.10496269 -0.04857445 0.017108839 -0.043722607
0003f0 0c ae 52 3d 0c fa db 3d 8f 2f 50 bd 29 28 b6 bc
       0.051435515 0.10741052 -0.050826605 -0.022235947

lays.2.weight f4 [2, 256]
000000 69 29 d2 3c c4 b1 f2 3c 91 70 0e 3d 6c a5 b2 bc
       0.025654512 0.02962578 0.03477532 -0.021807395
000010 94 69 06 3d 62 f3 9b 39 ec 8e 49 ba da 19 53 bc
       0.03281553 0.00029745238 -0.00076888385 -0.012884581
000020 8a d8 8a 3c 3a 14 1f 39 a2 b1 a4 b9 4b 9e d5 3a
       0.016948957 0.00015170957 -0.00031412864 0.0016297785
000030 f6 a8 cc bc 7a dc b2 3a dc 5e 99 3c 85 8e 18 3d
       -0.02498291 0.0013646029 0.01872199 0.037245292
000040 9b d6 f5 3c 29 b0 31 bd 2b f7 f5 3c 21 fa 0d bd
       0.030009558 -0.04338089 0.030025085 -0.03466237
000050 c7 27 2e bd 9e aa 0e 39 97 ae 9a 3a 9a 06 18 3c
       -0.042518403 0.00013605735 0.0011801299 0.009278918
000060 6d ee 27 3d 93 bd 24 3c 0a a2 c7 3a fb 71 64 ba
       0.040998865 0.010054964 0.0015230787 -0.0008714494
000070 16 b7 8a 3c 4b 5d 30 bd 6c 41 ed 3b ac 71 c8 b9
       0.016933005 -0.04305772 0.007240465 -0.00038231665
000080 95 d6 ed 39 2b c0 5c 3b df a8 e3 bb 7c 62 ac ba
       0.0004536404 0.0033683877 -0.0069476212 -0.0013151909
000090 3b 37 e6 bb bd 6c 8e 3c 7e c5 82 ba 4b fb ca bc
       -0.007025627 0.017385835 -0.000997707 -0.024778029
0000a0 eb 8a 64 3b 68 d3 b7 b9 3a be 30 ba bc 1b 31 bd
       0.003487284 -0.0003506199 -0.0006742213 -0.04323934
0000b0 3a 0a b4 3b 23 4f 92 3d ec 1b 30 3a 7a 8e 39 3c
       0.005494383 0.071440004 0.0006718028 0.011325473
0000c0 6a e6 00 bd fd e6 c1 3c e7 86 b5 3c 2e 5f d6 bc
       -0.03146974 0.023669714 0.022159053 -0.026168432
0000d0 70 b7 86 39 91 a8 31 bd 84 32 f6 b9 71 95 e0 ba
       0.00025695143 -0.043373648 -0.00046958413 -0.0017134381
0000e0 47 34 ae bb 80 37 c0 37 a4 78 5d 3d 7a 09 2d 3c
       -0.0053162905 2.2914028e-05 0.05407013 0.010561341
0000f0 b7 fe 5d bd ff b1 58 3c fd 8e 50 bd 5f 51 14 bc
       -0.054197993 0.013226031 -0.050917614 -0.0090526035
000100 ef d7 b5 3c 32 c9 db bc e1 eb c9 3b 11 95 5d bc
       0.022197692 -0.026829336 0.006162152 -0.01352431
000110 65 d2 87 bc c1 74 19 bd 0f 45 3f bb b5 e8 38 bb
       -0.016579816 -0.03746486 -0.002918545 -0.0028214876
000120 b2 e2 9f 3b 69 ee 0e 3d 58 57 87 b9 9d 65 8d 3a
       0.004879319 0.034895334 -0.00025814283 0.0010787729
000130 4a dd 3f 39 f7 2b 29 bd 04 e1 2c bb bf 88 c4 bb
       0.00018297616 -0.041301694 -0.0026379237 -0.0059977467
000140 2a 00 03 3d 4a c1 84 bc 1a 99 46 ba 17 26 47 3d
       0.03198258 -0.016205449 -0.00075759145 0.04862031
000150 19 78 a2 3b f1 9e 58 3d 0a 53 3e 3d 53 f9 2f bb
       0.0049581644 0.052885953 0.04646591 -0.002685149
000160 b2 57 a3 b9 f7 9f 31 b9 89 0b 03 bc e2 37 80 3c
       -0.0003115512 -0.00016939627 -0.007998356 0.015651647
000170 ec a0 47 3d ee 63 4f 3d 32 21 1e ba f1 0c 66 3c
       0.04873745 0.05063241 -0.0006032168 0.014041171
000180 d8 5c ad bc 32 a7 24 39 8c b4 05 ba ce 6b 10 3d
       -0.021162435 0.00015702544 -0.0005100451 0.03525906
000190 a6 56 13 bd 6d c5 4a bd f2 5d b5 bc 16 ae f6 3a
       -0.035971306 -0.049504686 -0.022139523 0.0018820192
0001a0 4a ac 00 ba 2c 83 64 bc b0 f4 a8 ba 86 3b 88 b6
       -0.00049084856 -0.013947289 -0.0012890305 -4.0600453e-06
0001b0 a1 fa a8 39 e5 91 66 bc 01 a0 1b 3c eb 07 a4 b8
       0.0003223019 -0.01407287 0.009498597 -7.821604e-05
0001c0 cb ec 6a ba 90 31 99 ba e3 32 c0 bc 7b d7 9c ba
       -0.00089616765 -0.0011687744 -0.023461765 -0.0011966074
0001d0 1e 7f 0f bb 9c c9 ab ba 3d 13 10 3c 19 b6 92 3c
       -0.0021895836 -0.0013106349 0.008793649 0.017909097
0001e0 a8 47 2a ba a2 93 23 3d 1e dd 2f 3d 64 66 2a bd
       -0.0006495663 0.039935715 0.042935483 -0.041601554
0001f0 d3 46 d3 b9 86 e8 47 3a 5e 3d 02 3b ac 38 a7 39
       -0.00040297824 0.0007625896 0.0019873003 0.00031894946
000200 84 6f c1 ba 58 9a 8b bc 94 13 91 39 9f 63 56 bd
       -0.0014757966 -0.01704137 0.00027671142 -0.0523411
000210 4c fe 8a 3a a7 b0 04 3d f8 5a 16 bb db 67 35 3d
       0.0010604351 0.03239503 -0.0022942405 0.044288497
000220 43 ac 4c bd 08 06 bf 3c b1 2e 2f 3b 9f 5e 10 3d
       -0.04996897 0.023318306 0.002673071 0.035246488
000230 c8 02 85 39 3b f9 23 bd 2c 80 0d 3d 15 a0 9f 3a
       0.0002536981 -0.040032607 0.034546062 0.0012178445
000240 1e c0 a8 3b 8c 26 11 3a c9 af 84 bb da e4 58 3a
       0.0051498553 0.0005537055 -0.0040492755 0.00082738476
000250 8d 52 a6 ba ab b7 78 3b 5c 89 09 bd 00 86 05 35
       -0.0012689397 0.0037951272 -0.03357826 4.9741357e-07
000260 0e 96 16 3c bd 63 03 3b 20 d3 96 bc ff 45 8e bc
       0.009191049 0.0020048462 -0.01841122 -0.017367361
000270 ae fd c6 ba 75 93 2c bd 4d f7 b4 ba 6a cf c3 b9
       -0.0015181804 -0.042132813 -0.0013806612 -0.00037347834
000280 3e ed d3 3c 5c 34 2a 39 54 54 52 ba 4f 68 27 ba
       0.025869962 0.00016231969 -0.000802343 -0.00063860876
000290 5a c8 b7 ba 71 f8 7e b9 3d 72 5e ba 93 d6 ab bc
       -0.0014021501 -0.0002431588 -0.0008485651 -0.02097634
0002a0 63 11 32 ba 3e c3 36 3b 0c f3 1a ba a9 a3 20 3d
       -0.0006792752 0.002788737 -0.00059108506 0.03921858
0002b0 05 ae 59 ba 81 e6 84 3b 20 7c b4 ba 06 90 a9 38
       -0.0008303824 0.0040557985 -0.0013769902 8.0853744e-05
0002c0 26 88 28 3c b0 28 b0 ba 5d ae 74 bb 48 33 61 ba
       0.010286367 -0.001343986 -0.0037335374 -0.00085907103
0002d0 5f 88 0d 3a ca c2 89 bb a1 77 00 3d 59 98 00 3d
       0.0005399044 -0.004204129 0.031364087 0.03139529
0002e0 b0 26 0a 3d a3 72 1e 3d 4e 5c f1 b9 30 a4 bc bc
       0.0337283 0.038683545 -0.00046035874 -0.02302751
0002f0 60 52 72 bc ef a1 32 3c 11 c2 a4 3c 76 98 05 bc
       -0.014790148 0.010902866 0.02011207 -0.008154025
000300 65 5b a5 3a d8 f1 73 3d 8b fc 17 3d ae be bf ba
       0.0012615739 0.059556812 0.037106078 -0.001462897
000310 24 29 76 3d fb 39 5d ba a5 3d 0f 3d 93 38 35 3d
       0.06009783 -0.0008439121 0.0349709 0.044243407
000320 48 ba 89 3c 33 6c 99 3c 8f a3 51 3c e1 61 4a 3d
       0.016812459 0.018728351 0.012795343 0.04940975
000330 24 38 f7 3b 47 b0 32 bd b1 ff 47 3b 85 65 1d 3d
       0.0075445343 -0.043625142 0.0030517394 0.038426895
000340 9d a2 56 3d b0 a7 52 3d 0c ba 11 bb 8d 84 fa bb
       0.052401174 0.05142945 -0.0022236137 -0.007645196
000350 f9 19 53 ba 5f cf 75 bb 28 58 af ba 6c 5b 23 3d
       -0.00080528815 -0.0037507636 -0.0013377713 0.03988211
000360 0d 77 18 bd ae a6 84 bc b7 ec 5f ba 2c b7 25 3d
       -0.03722291 -0.01619276 -0.0008542048 0.04045789
000370 1e a9 e6 ba 15 b9 cb bb 60 df aa ba 4d 3b 18 bb
       -0.0017598008 -0.006217132 -0.0013036542 -0.0023228705
000380 0c 3e 8c ba bc d1 84 3b dc 1e ac ba 6a 18 66 3c
       -0.0010699644 0.0040533226 -0.0013131755 0.014043907
000390 19 21 94 bb f5 2d 15 3a 19 60 c4 ba 32 2e 04 39
       -0.004520547 0.0005690747 -0.0014982253 0.0001260571
0003a0 dc f2 e2 ba ce 89 03 39 50 32 1d 3c 1b 2c 1b bb
       -0.0017314809 0.0001254447 0.009594515 -0.0023677412
0003b0 8a b5 27 bd 8f f0 41 bd 62 55 2b 3d f6 d8 3a bb
       -0.040944614 -0.047348555 0.041829474 -0.0028510666
0003c0 9e 4c 61 bd f3 ef 9e ba a8 1b 64 bc 36 8a af ba
       -0.05500471 -0.0012125954 -0.013922609 -0.001339263
0003d0 94 21 05 3d 16 b4 53 3a ab d2 c9 ba c3 e0 71 b9
       0.032502726 0.0008075846 -0.0015397867 -0.00023067281
0003e0 d3 19 31 bb 9b 43 0d 3c 74 a6 8e bc 87 98 11 bb
       -0.002702345 0.008622075 -0.017413355 -0.0022216158
0003f0 c8 2a 0e bb fa fc 82 3d 06 21 fe bb c2 4f 8a ba
       -0.002169298 0.06395908 -0.0077554015 -0.0010552334

lays.2.bias f4 [2]
000000 21 65 8d 3d aa f2 1d ba
       0.069040544 -0.00060252345

l1.weight f4 [256, 2]
000000 4d 60 7f 3e d4 04 9b b9 a8 a3 1b be 1b 55 d0 bc
       0.2493908 -0.000295675 -0.15199149 -0.025431206
000010 db 93 99 be d9 69 ab 37 47 b5 c2 3e e9 d4 ef 3e
       -0.29995617 2.0434078e-05 0.3802893 0.46842125
000020 bc 48 7f be df 18 3f be 1b 96 77 bd d7 ff f4 be
       -0.2493009 -0.18661831 -0.060445886 -0.4785144
000030 f4 02 13 3e 88 eb 08 b6 c8 15 88 b9 86 23 2c 3f
       0.14356595 -2.0402676e-06 -0.0002595617 0.67241704
000040 54 5f a6 3e f4 43 09 3f 5b 70 ea 3c 9d f7 91 be
       0.32494605 0.53619313 0.028618028 -0.28509226
000050 f4 55 25 bf d1 35 bd be 7a ec 0b be 64 33 c4 be
       -0.6458428 -0.3695512 -0.13664427 -0.38320458
000060 ae fa 86 3e e0 66 a1 be 84 9a 08 3f 44 27 7a b7
       0.26363128 -0.315238 0.5336077 -1.4910303e-05
000070 a5 f7 0e bc 47 92 86 be 02 fd 66 3e 34 24 da be
       -0.008726035 -0.26283476 0.22557452 -0.42605746
000080 54 57 ab 3e c7 b3 94 bb 62 cb 73 3d 26 61 a2 be
       0.33465064 -0.0045380327 0.059520133 -0.31714743
000090 0f f4 60 be 91 6c 06 bf 3d 77 1b 3f f2 26 8d be
       -0.21968101 -0.5250941 0.6072882 -0.27568775
0000a0 d0 28 e8 3e e6 fc fb b7 03 fa ec 3e 16 fe b0 3d
       0.45343637 -3.0039297e-05 0.46284494 0.08642213
0000b0 ee 3f 1f be 09 5a fb be cc 82 03 b6 8a 21 d5 3d
       -0.15551731 -0.4909213 -1.9596655e-06 0.10406788
0000c0 8e 62 f3 be df bd 9d be a5 6d 25 3e a1 b1 16 3f
       -0.4753613 -0.30808923 0.16155107 0.5886479
0000d0 7e b2 0c 3e 05 98 a3 bd 1e 86 12 3f fe d0 3d be
       0.13739964 -0.0798798 0.57235897 -0.18536755
0000e0 3e a8 c6 3e 75 2d 26 bf fe 22 eb 3e 95 e1 2a be
       0.38800234 -0.6491311 0.45925134 -0.16687615
0000f0 f1 29 24 3f 83 6a e8 3e 42 4c b6 bc ec 41 09 3f
       0.641265 0.45393762 -0.02225316 0.53616214
000100 53 5f 4b 3e 84 83 e8 b7 38 69 a4 be 02 99 e3 be
       0.19860582 -2.7717797e-05 -0.32111526 -0.44452673
000110 81 6c bd 3b 38 a1 ed be 65 74 72 bb ac 0f b7 be
       0.005780757 -0.46412063 -0.0036995646 -0.35754144
000120 ad f6 22 3e 80 88 79 34 53 8a c2 3b be b2 36 bf
       0.15914412 2.323959e-07 0.0059368997 -0.7136649
000130 8f 62 c5 3e ff df f2 be bc 4b 03 bf 6c e1 9c 3e
       0.38551757 -0.4743652 -0.51287436 0.30640733
000140 c4 1b 81 3e c9 e4 05 b7 ca 3e e8 bd 20 9b 1e 3f
       0.25216496 -7.980686e-06 -0.11340101 0.6195545
000150 d0 2b d7 3e a8 b5 1a bf 6b 00 e6 be b6 ac ba 3e
       0.42025614 -0.60433435 -0.44922194 0.36459893
000160 02 6a 10 3e 0f f4 7e b7 b1 dc 00 bf ee a4 22 37
       0.14102939 -1.5196404e-05 -0.5033675 9.694353e-06
000170 19 2f a0 bd fe d0 01 3f 4e 45 94 3e 36 fa 6c be
       -0.07821483 0.5070952 0.28959125 -0.23142323
000180 fb 08 e7 be 4e 68 77 be b7 e4 b5 3c 23 fe d3 be
       -0.4512404 -0.24160883 0.022203786 -0.41404828
000190 f1 58 12 3c 8f 72 f0 be a7 95 b1 3e 4c 52 f7 be
       0.008932338 -0.469624 0.34684488 -0.48304975
0001a0 76 3c 0e 3f 96 ee 72 be 3f bb df 3e a4 64 a8 3e
       0.55561006 -0.23723826 0.43697545 0.32889283
0001b0 22 87 eb be 93 20 11 be f5 0d f3 be b9 66 27 3f
       -0.46001536 -0.14172582 -0.47471586 0.6539112
0001c0 27 8e ac be a3 03 0e bf da 13 b8 3e 7f 99 3d 3e
       -0.33702204 -0.554743 0.35952646 0.18515585
0001d0 ca 7a 10 bf 6d 95 17 3f 24 ef a6 be f4 ae 2f 3f
       -0.5643736 0.5921238 -0.32604325 0.6862633
0001e0 a3 37 e5 be a6 b1 02 3f dd 8b e9 bd bb fb 33 3f
       -0.4476901 0.5105232 -0.1140363 0.70305985
0001f0 02 14 54 3c f4 4c 6f 3e ca f9 b2 be 1c 30 e5 3c
       0.012944223 0.23369199 -0.349562 0.027977042
000200 6a 2a 1c bc 3d dd de 3e 79 a5 18 3f 7c bc 1f be
       -0.009531597 0.43528166 0.5962749 -0.15599245
000210 71 e6 c6 3e 45 f0 d1 be ba ea 1e 3e e5 e9 f8 bd
       0.38847688 -0.41003624 0.15519229 -0.12153987
000220 52 a6 e0 3e 62 6e b8 be 95 4d fb be 3e 39 50 be
       0.43876892 -0.36021715 -0.49082628 -0.20334336
000230 79 dd 27 3e 89 fd 01 bf 5c 04 2c 3e 90 d2 e8 3e
       0.16393079 -0.5077749 0.16798538 0.45473146
000240 44 c9 d0 3e 38 c9 bd b7 2d ef e6 3e cc a9 9b 3e
       0.40778553 -2.2624256e-05 0.45104352 0.30402982
000250 35 dd 99 3e c3 af 0a 3f 63 89 55 3e 72 0f 0d bf
       0.3005158 0.5417444 0.2085319 -0.5510169
000260 2e bf 17 3e 15 d1 ec b9 ad 2a 0c 3f 26 0f ce b7
       0.14819023 -0.00045169206 0.5475262 -2.4564168e-05
000270 00 a7 5f bd fd f2 80 3e 36 ad 86 be 5c b5 c0 b7
       -0.054602623 0.25185385 -0.26304024 -2.2972636e-05
000280 8c 2c ee 3e 70 56 17 b6 fa 9c ae b6 b6 2f 6b 39
       0.46518362 -2.2551067e-06 -5.2038786e-06 0.0002242912
000290 47 f4 24 bf ce e0 9b be c4 1e 1e 3f 02 0b 5e bc
       -0.6443524 -0.3044495 0.61765695 -0.013552429
0002a0 fd 7a a9 be d6 8c 10 bf 1f f6 d2 3e bb 23 01 3f
       -0.33101645 -0.564649 0.412034 0.50445145
0002b0 11 24 f7 be 0d c0 7a 3b 73 11 86 be 5c 62 a5 be
       -0.48269704 0.0038261444 -0.26185188 -0.32301605
0002c0 fa d9 97 39 6a b1 ae b9 79 c0 ca be f2 ef 6b 3e
       0.0002896337 -0.0003332005 -0.3959997 0.2304075
0002d0 a7 44 c0 3e f0 8c a8 be 2f 02 99 3e 20 ae ad 3e
       0.37552378 -0.32920027 0.29884478 0.3392191
0002e0 f6 da a4 be 23 97 c2 3e 51 e7 0d 3f 24 02 14 3f
       -0.32198304 0.38005933 0.55431086 0.57815766
0002f0 31 07 58 bc 7b 37 3b 3f 5b b1 72 3e f1 e6 ec 3e
       -0.013185308 0.7313153 0.23700468 0.46269944
000300 cb c9 bc 3e 21 93 df bd 4a b6 0d bc 4a 3e a1 3e
       0.36872706 -0.109167345 -0.008649418 0.31492835
000310 e3 e2 2c bf 5e cb c0 3e 3b 37 3e 3e d8 a4 dc be
       -0.675337 0.37655157 0.18575756 -0.43094516
000320 04 4c 1a bf 32 0b 72 be d2 f2 b8 3c 5c 5c a4 be
       -0.6027224 -0.23637083 0.022576723 -0.32101715
000330 ac 2c 0c bf 63 09 0a be 4a ef 97 be dd 14 ac be
       -0.54755664 -0.13480143 -0.2967475 -0.33609667
000340 22 e3 6c 3e 6c ac 7a 3e c7 19 c4 be a6 db 1b 3f
       0.2313352 0.24479836 -0.38300917 0.6088203
000350 a2 34 ab 3e 53 c2 91 3e 6b 19 c7 3e 42 04 7c 3e
       0.33438593 0.2846857 0.3888658 0.24610999
000360 32 1e f9 3e 43 28 0e 3f c0 5a 83 3e e8 3d 4f 3e
       0.4865585 0.55530185 0.25655174 0.20238459
000370 0b cc 3c 3e cf 3c 6b be 00 bb bd b6 9a 00 89 be
       0.18437211 -0.22972415 -5.6544086e-06 -0.2675827
000380 d0 2d 29 bc 24 61 f2 3d 5f 43 e4 be 3a 09 02 3f
       -0.010325864 0.11834934 -0.4458265 0.5079533
000390 75 a6 b1 3e 53 00 d1 b8 7e 2a 8c bd b4 fc 5c 3d
       0.3469731 -9.965957e-05 -0.06844042 0.053951934
0003a0 74 7b 6d be 83 fe 01 3f e1 52 d7 3e 23 46 1e 3f
       -0.23191625 0.5077898 0.4205542 0.6182577
0003b0 e0 e5 64 3c 14 c0 83 be 3a 6e d2 3c 4a 07 15 bf
       0.013970822 -0.2573248 0.025687326 -0.5821425
0003c0 53 21 a4 3d 4b b4 83 be 40 12 18 3f 44 40 16 3f
       0.080141686 -0.2572349 0.5940285 0.5869181
0003d0 55 bb 95 bd b2 5c a1 3e b6 c2 10 3f 13 f6 82 3d
       -0.073111214 0.31516033 0.56547105 0.06394591
0003e0 31 f3 83 3e 79 3b 04 bb 0a 7f d2 3e e4 7e ee 3e
       0.25771478 -0.002017705 0.41112548 0.46581185
0003f0 1f 01 dd be 5d c7 f0 3e 5c a3 9d 3a 82 bf 89 be
       -0.43164918 0.47027102 0.0012026834 -0.2690392

l1.bias f4 [256]
000000 0b 4b dc 3e 34 24 ea 3e 7c ba 05 3b fa f2 b6 be
       0.43026003 0.45730746 0.0020405343 -0.3573225
000010 f2 c1 8b be dd 45 03 be 7e 49 10 be 0f da 39 3e
       -0.27296406 -0.1281962 -0.14090535 0.18149589
000020 a5 4c 02 3e 04 f6 be be 1a 44 9f bd b8 e3 8d be
       0.1272455 -0.3729707 -0.07776661 -0.27712798
000030 ca 2f bc 3e 14 73 02 bf 07 8f a3 be a6 22 ca 3e
       0.3675521 -0.50956845 -0.3194506 0.3947956
000040 b8 c3 09 be 1d f9 66 be 58 1b 0d bf 7f a8 30 3f
       -0.13453567 -0.22555967 -0.5511985 0.69007105
000050 11 65 92 3e dc f4 a3 3e 7d 3e 66 be c3 ef e0 bd
       0.28592733 0.3202275 -0.22484775 -0.10983231
000060 4b 0a 90 bb a0 4a 4a 3c 13 53 27 bb d2 ff 88 3d
       -0.0043957583 0.012346894 -0.0025531694 0.06689419
000070 d0 1f 21 3f 87 ce 06 3e 3d ee c7 be c7 f4 1a bf
       0.6293917 0.13164721 -0.3904895 -0.6052975
000080 85 9c 41 be fa 2e de 3e 4c a1 34 3f c5 5b 21 3f
       -0.18907364 0.43395215 0.7055862 0.63030654
000090 86 31 a0 be 04 90 33 3f 91 fb d7 be 8d de 14 3e
       -0.31287783 0.70141625 -0.42184117 0.14538021
0000a0 9b 2c 77 be 98 67 a8 3e 9a 40 74 3d 7c 45 30 3d
       -0.2413811 0.32891536 0.05963192 0.043035015
0000b0 76 75 0f bd f2 73 18 bf 33 2e cb 3e d4 05 4b be
       -0.03502413 -0.5955192 0.39683685 -0.19826442
0000c0 5d 93 a5 be 6d d1 c1 3e 83 87 e8 3e dc 46 e1 bc
       -0.32338992 0.37855092 0.45415887 -0.027499609
0000d0 7a 3e 78 bd 6c 58 b9 3e e6 1a 9f 3e 4c 0c 4f 3f
       -0.060606457 0.36200273 0.3107521 0.8087814
0000e0 6f 46 23 bf b0 3d d6 3e 54 94 e5 be 77 3d 84 be
       -0.6377935 0.4184394 -0.44839728 -0.25828144
0000f0 df ee 34 bf 8a 14 67 be 07 ba 2d bf ce 3c 06 bf
       -0.7067699 -0.22566429 -0.6786198 -0.5243653
000100 b3 30 e9 3e 31 f5 03 bf 50 06 e9 be c5 11 43 3c
       0.45544967 -0.5154601 -0.4551263 0.011906092
000110 8e 19 a9 bd 5b a9 20 bf 3f 97 e2 be 1e 92 58 3e
       -0.08256827 -0.62758416 -0.44256017 0.2114949
000120 92 ec 10 3e 86 85 0b bf 8d 82 01 bd a8 f8 fb 3e
       0.14152744 -0.54500616 -0.031618644 0.49213147
000130 1d c0 a2 3e 8f 7b 02 bf 5e 6d a1 3e 7a f7 2b ba
       0.31787196 -0.50969785 0.31528753 -0.0006560009
000140 d2 f1 df be db 58 91 3e 70 3d d4 be 25 6b 29 3f
       -0.43739182 0.28388104 -0.41453123 0.66179115
000150 6a 5a 0a 3f 4f a5 e4 bc 81 7f 50 bd eb 47 09 bf
       0.5404421 -0.027910857 -0.050902847 -0.53625363
000160 d2 3a 1c 3f ce 53 a8 3e 1b 88 e6 3e 51 d2 0f 3f
       0.6102725 0.32876438 0.45025715 0.5618029
000170 58 4d bb be 82 d4 e0 be bf f8 0e 3f ff c8 88 be
       -0.36582446 -0.4391213 0.55848306 -0.26715848
000180 2d 05 a4 be c6 f3 08 3f d5 8f 0a bf 33 ec c8 bc
       -0.320352 0.5349697 -0.5412572 -0.024526691
000190 0b 2b 00 3f 44 9b 62 3d 03 3b f1 3e 99 96 fa 3e
       0.5006568 0.055323854 0.47115335 0.48943022
0001a0 69 50 1d bf f0 84 3b 3e 84 42 48 be 25 61 1e bf
       -0.6145082 0.1831243 -0.19556624 -0.6186698
0001b0 01 4a 77 3e 5c c9 fa be 9a ca 4e 3e f3 26 06 3f
       0.24149324 -0.4898175 0.20194474 0.5240318
0001c0 b5 8e cf 3e 8b 32 82 be 40 e8 fe 3d cf 7c 1d bf
       0.40538564 -0.25429186 0.12446642 -0.6151857
0001d0 1e 3f 28 be 82 b3 80 be ec cc 7e 3e 56 c3 21 bf
       -0.16430327 -0.25136954 0.24882859 -0.63188684
0001e0 88 24 82 3e 08 0d fd bd 4f 7d cd bd 95 25 02 3f
       0.25418496 -0.12356001 -0.10033666 0.50838596
0001f0 e4 57 14 bf 2c d3 b7 3e 09 8e 3a 3f 0f d5 18 3f
       -0.5794661 0.359033 0.7287298 0.597001
000200 9e 06 8f be 8b 2c 22 3f 9e a4 f3 3e 00 5b 14 bd
       -0.27934736 0.6334922 0.4758653 -0.036219597
000210 82 27 1c bf 91 fc ed 3e fe f8 05 3f cc 4d df 3e
       -0.60997784 0.46481755 0.52333057 0.43614042
000220 ac ca 67 bd 80 38 32 bf 42 37 05 3f 53 bb dc 3e
       -0.056589767 -0.6961746 0.5203744 0.43111667
000230 7a ac 12 3e ba 3f cd 3e bd e5 08 bf 2e f7 91 bd
       0.14323607 0.40087682 -0.5347555 -0.07127224
000240 50 d3 30 3f 39 e7 0d 3f 6e 21 c4 be fc 60 32 3e
       0.6907244 0.5543094 -0.38306755 0.17419809
000250 c6 5e fa 3e 30 94 44 3e 66 5f 30 bf 47 39 2d 3f
       0.4890043 0.19197154 -0.68895566 0.67665523
000260 fa d9 dd be 5d 78 c7 3e 3f 88 91 be 69 44 ee be
       -0.43330365 0.38959017 -0.2842426 -0.46536568
000270 9d 65 16 be d0 69 ea be 66 24 81 be be 2a 00 bf
       -0.146872 -0.45783854 -0.25223082 -0.5006522
000280 21 93 fa 3e 2e 07 37 3f e0 77 27 3f 1a bf 81 3e
       0.48940375 0.7149533 0.6541729 0.2534111
000290 2f 9f 7d be 91 45 e9 be e2 51 2f 3f c8 a7 ea 3e
       -0.24767755 -0.45560887 0.6848432 0.45831132
0002a0 31 17 12 3e 5e 85 f5 be 85 f7 49 bd 2b 94 f8 be
       0.1426666 -0.47953314 -0.04930832 -0.48550543
0002b0 bb c2 e2 3d b8 c3 20 3f 9d 8c 37 bf 89 e7 ea 3e
       0.11072298 0.62798643 -0.71698934 0.45879772
0002c0 f2 c4 03 bf c3 60 f0 3e 68 5e 1a bf 07 15 90 3e
       -0.5147239 0.46948823 -0.603003 0.28141043
0002d0 40 2d ef be f5 d3 71 be 17 4b 08 bf 97 05 14 be
       -0.4671421 -0.23616011 -0.5323958 -0.14455257
0002e0 01 cb bc be 5f dc 00 3f be 03 c0 3d e8 15 2b bf
       -0.3687363 0.5033626 0.09375714 -0.668303
0002f0 c4 f6 50 3e c2 57 14 3f f8 49 15 bf 24 68 20 3f
       0.20406634 0.5794641 -0.5831599 0.62658906
000300 66 a7 09 be d9 fa 19 bf 5e e8 4b 3e dc a2 fa 3e
       -0.13442764 -0.6014839 0.1991286 0.48952377
000310 64 79 03 bf b4 5a ce 3e 94 73 a1 be 47 02 15 3d
       -0.513571 0.40303576 -0.31533492 0.036379125
000320 6f 05 e8 be b3 22 31 3f b7 33 96 3e ac 24 35 bf
       -0.45316646 0.6919357 0.2933633 -0.7075908
000330 15 af 09 bf 11 9b 41 be f7 a7 b4 be e5 4e 87 be
       -0.5378278 -0.1890681 -0.35284397 -0.2642738
000340 43 3f 18 3f d0 12 01 bf 33 7e ec 3e af 23 c0 3e
       0.5947153 -0.5041933 0.46190032 0.37527224
000350 1b 58 58 bd a6 a3 12 bc 88 b5 16 be 69 a2 38 3e
       -0.0528184 -0.00895015 -0.14717686 0.18030705
000360 98 23 12 bf 5b bf 1a be 5d 35 ef 3e c4 ae 2c 3f
       -0.5708556 -0.15112059 0.467204 0.6745417
000370 55 54 67 3e 05 75 13 3f eb 45 a6 3e fb cf d8 3e
       0.22590764 0.5760043 0.32475218 0.42346177
000380 78 ad 21 3e 9a cc 24 3f 9f 8d 16 3f 4e e5 de bd
       0.1578883 0.643747 0.58809847 -0.1088358
000390 df c4 a9 3e 9e fa f5 be 5f 0c 77 be 14 ac 04 3e
       0.33158013 -0.48042768 -0.24125813 0.12956268
0003a0 f8 30 10 3f 46 d3 43 3e 23 ab cb be 47 e7 76 bd
       0.5632472 0.19123563 -0.39779004 -0.060279157
0003b0 8c 30 07 bf 11 99 a7 3e 40 51 e5 be 15 cb 21 bf
       -0.5280845 0.32733968 -0.4478855 -0.63200504
0003c0 1f fc 71 be e3 c3 36 3f 02 8c bb 3e 0f d6 c9 be
       -0.23631333 0.7139265 0.36630255 -0.39421126
0003d0 10 b6 64 be 40 fc 9d bc 63 97 5c 3e 32 65 bb 3e
       -0.22335076 -0.019285321 0.21542124 0.36600643
0003e0 50 b2 7d be fb b4 80 bd 33 ba 3f 3e 60 c2 b2 be
       -0.24775052 -0.06284519 0.18723373 -0.3491392
0003f0 0f 83 e4 3d 02 0e 5d 3d 64 31 0e 3e 20 51 07 3f
       0.1115781 0.053968437 0.13886029 0.5285816
